results/2BS/T_1/L_2000/seed4/model_best.pth.tar (torch_old, 395617 bytes, 22 tensors)

layer1.conv.weight f4 [32, 2, 5, 5]
000000 46 a6 87 bc 60 d5 82 3d ad 22 c1 bd 0d c6 2d bd
       -0.016558778 0.06388354 -0.09430442 -0.042425204
000010 76 34 36 3d c7 f6 9b bd 35 e3 5f bd 69 a2 84 3d
       0.044483624 -0.076154284 -0.05466004 0.0647629
000020 b6 e0 30 bd c2 7e 49 bd 4e d6 28 be 17 fc d0 3c
       -0.04318305 -0.04919315 -0.16488001 0.02551083
000030 4c b6 06 bd 76 55 04 be f9 07 68 bd 65 69 89 3d
       -0.032888696 -0.12923226 -0.05664823 0.067095555
000040 09 c4 18 3c 15 03 13 bd a4 93 cc bd 7c 4a c4 bb
       0.009324082 -0.03589161 -0.09989098 -0.0059903245
000050 cd 8e af bc 8e 41 58 bd 63 ad 23 bc b1 99 66 3d
       -0.021430397 -0.052796893 -0.009990069 0.056298915
000060 b4 29 a6 bc 62 97 ae 3d 5a 1e 98 3d 6b 87 5c bb
       -0.020283557 0.08524968 0.07427664 -0.0033650051
000070 ff 56 56 3d 29 3c 38 3d a3 36 00 3e 6e bc 92 3c
       0.05232906 0.04497925 0.12520842 0.017912116
000080 16 ee 12 3d 44 b1 3a 3d 1b ee a1 3d 92 9c a1 3c
       0.035871588 0.04557921 0.07906743 0.019727979
000090 ab 88 9b 3d 9f d5 15 3d ba 32 a7 3c 1d 42 2f bd
       0.07594427 0.036580678 0.02040993 -0.04278766
0000a0 07 39 a9 3c 69 21 6b 3c 3a 61 02 bd ca 43 f2 3c
       0.020657076 0.014351227 -0.031831004 0.02957334
0000b0 7b d7 56 39 f1 97 d0 3d cb c5 6d 3c 0b 0b 45 3d
       0.00020488903 0.101852305 0.01451249 0.048106235
0000c0 25 f0 2a bd 7b 49 be 3d a2 06 37 3d df 91 94 3c
       -0.041732926 0.09291359 0.04468406 0.018135963
0000d0 46 95 0a bc 59 dc e4 3a a5 63 57 bd 07 73 2a 3d
       -0.008458441 0.0017460688 -0.052585263 0.041613605
0000e0 2a f6 e2 3c 4d 34 a1 bd 69 12 7c bb 08 33 e7 bb
       0.02770527 -0.07871304 -0.0038463122 -0.007055644
0000f0 8a a8 74 3d a7 57 80 3d 91 ef 8e 3c 9e 71 50 bd
       0.059731044 0.06266718 0.017448219 -0.050889604
000100 35 4c 90 3d a9 37 19 3e bf 0b 40 bd b5 b0 96 bc
       0.07045785 0.14962639 -0.046886202 -0.018394807
000110 c6 b3 88 3d 76 64 1f bd 2e 8b 68 bc 4e 16 da 3d
       0.06674914 -0.038914166 -0.014193339 0.106487855
000120 93 96 2c 3d cc ed 13 bd ad d1 1d 3a f3 6f 4a 3c
       0.042135786 -0.036115453 0.0006020319 0.012355792
000130 6b ea c7 3d b7 cf 7e bd 22 10 7d 3d 63 a0 6f bd
       0.097615086 -0.06220981 0.061782964 -0.058502566
000140 d9 8a f8 bc e0 b6 bc 3c d2 34 a9 bd 0d ac 71 bc
       -0.030339645 0.02303642 -0.08262028 -0.014750493
000150 e1 d3 03 3c cb b1 03 3c 86 63 85 bd 79 f0 1d bd
       0.008046121 0.008037995 -0.06513123 -0.03855941
000160 b8 e7 c1 3b a2 d4 65 bd 8f e4 83 bb a2 93 29 bb
       0.0059175156 -0.056110986 -0.004025049 -0.002587535
000170 9d 99 67 3d 08 6e b3 3c 38 3e ac bc 8f 6f a3 bc
       0.05654298 0.021903053 -0.021025762 -0.019950656
000180 5f 47 88 bc 0c b0 39 bc bd 28 83 bd d1 21 bc bd
       -0.016635595 -0.011333477 -0.064042546 -0.091861375
000190 56 d0 2e 3d 66 75 8c bd 0a c1 fa 3c 2c 62 59 bd
       0.042679153 -0.068583295 0.030609626 -0.05307214
0001a0 2f e3 1d bd ff 4d 64 3d 50 bb 64 bc da d3 45 3d
       -0.038546737 0.055738445 -0.013960674 0.04829774
0001b0 78 99 9a 3d 04 95 42 3d e8 74 4b bd 45 14 9b 3d
       0.07548803 0.047505394 -0.049672037 0.075722255
0001c0 06 8a d6 3b d9 85 3c 3d 8a f3 70 3d c3 4a 6a bc
       0.0065472154 0.046026085 0.058826007 -0.014300051
0001d0 13 b8 10 bd b6 fc 80 3d 77 9a c3 bc d8 b5 d6 bc
       -0.035331797 0.06298201 -0.023877366 -0.026209757
0001e0 13 0a 98 bb cc e8 97 bc df 56 64 bd 12 5b 98 bc
       -0.004639873 -0.018543623 -0.05574691 -0.018598113
0001f0 e8 58 1a 3d 1f 75 e3 b9 03 ba 70 bd 97 23 bf 3c
       0.037682444 -0.00043384076 -0.058771145 0.0233324
000200 ce d4 9e bd 9c 6f f3 bc f4 8c 34 bd f0 53 b2 3c
       -0.07755433 -0.029716305 -0.044079736 0.02176854
000210 a6 2d b5 3d c3 5e 01 3d f9 19 f3 bc 7d 2a 91 3b
       0.088465974 0.031584512 -0.02967547 0.004430114
000220 7f 6d 46 3d 0d f6 fd bc d2 df 77 3c ef 8d 78 3d
       0.048444267 -0.031001115 0.0151290465 0.060682233
000230 9e f9 8a 3d 51 63 41 bd 1d 41 c3 3d 2d fb 4d 3d
       0.06785892 -0.047213856 0.09533904 0.050288368
000240 93 99 d5 3d 7b a1 59 3d 98 ec cf bd fa 12 b0 bc
       0.104296826 0.053132515 -0.101525486 -0.021493424
000250 8f 16 8d 3d 18 5d b2 bd 2b 52 97 bd 81 35 8b 3d
       0.06889068 -0.087091625 -0.07388719 0.067973144
000260 6a 19 01 3e 5c ff 65 3d 9d db 5d bd 96 1f 21 3d
       0.12607351 0.056151733 -0.054164518 0.039336763
000270 bc a0 e6 3c 97 1b 7e 3c 06 bb ba 3c 66 87 85 3c
       0.028152816 0.015509508 0.022794258 0.016299915
000280 9e 5c 31 3c 7b 3d 5e 3c 54 c7 81 3c 6f 1c 01 3d
       0.010825304 0.013564463 0.015842117 0.031521257
000290 84 27 90 3d 45 b3 44 3d f9 f4 21 bd e8 84 91 bc
       0.07038787 0.048022527 -0.039540265 -0.01776357
0002a0 4c 5e 9a bb 07 2b b8 3d cf cc 86 3d e3 85 c3 3d
       -0.004710948 0.08992582 0.06582033 0.09547021
0002b0 6e d6 38 3d 15 c8 14 be cb 23 b4 3d 0e 93 36 3e
       0.04512637 -0.1452945 0.087958895 0.17829534
0002c0 9c b8 88 3d c8 c4 28 3d 54 5d 4e 3c 33 7a 8e bd
       0.066758364 0.04120329 0.012595493 -0.069569014
0002d0 85 73 80 bd 30 1c 3e 3b 4b 9e ac bd 5e 21 c5 3d
       -0.062720336 0.00290085 -0.084286295 0.09625505
0002e0 7b 78 07 3d 17 73 fb 3d d8 20 ad bd 0c c2 87 3d
       0.033073884 0.12277811 -0.0845353 0.066288084
0002f0 dd 63 00 bd aa b0 97 3d d5 05 b4 bb 83 aa 61 bc
       -0.031345237 0.07406743 -0.0054938593 -0.013773563
000300 9d 40 ac 3c c5 99 aa 3c 0d 23 5c bc 8d 3f e7 bc
       0.021026904 0.020825276 -0.013436091 -0.028228546
000310 22 e1 97 3d 27 50 b3 3c ab 97 60 3d 61 2d 84 bc
       0.074159876 0.021888806 0.05483214 -0.01613492
000320 ff 31 8e bc d2 50 4e bd 18 ac c5 bc 16 32 3f 3d
       -0.017357824 -0.050370045 -0.024129912 0.046678625
000330 db 6f 8b 3d 52 c5 d3 3b 31 37 18 3d 79 67 f0 bd
       0.06808444 0.0064627314 0.03716201 -0.11738486
000340 3d 7e d1 bc 0e 53 7a 3d 4d f8 ee bc 9f 30 09 3d
       -0.02557289 0.061114363 -0.029171133 0.033493634
000350 03 ee 3b bb 54 e5 34 3c 4d 3d c3 3d 34 0b 85 bd
       -0.0028675802 0.011041004 0.095331766 -0.064962775
000360 9a da 99 3d 28 48 54 bd 29 af 3d bd 46 9b 1a 3d
       0.07512398 -0.051826626 -0.046309624 0.037745737
000370 28 02 91 3d a7 d8 f4 3b 0c d4 c3 bd e7 82 67 bd
       0.070804894 0.007472116 -0.09561929 -0.056521323
000380 60 68 8b bd 4e c0 c7 3d 93 c4 b3 3c eb ae 3c 3c
       -0.06807017 0.09753476 0.02194432 0.011516313
000390 23 5d 20 3d 97 62 13 3c 05 52 2f bd 37 25 4f 3c
       0.039151322 0.008995674 -0.04280283 0.01264315
0003a0 38 fa d1 3a 28 e8 02 3d 44 19 b8 3c 03 62 31 bd
       0.0016020006 0.031959683 0.022472985 -0.043306362
0003b0 02 a4 99 3d fb 25 c1 bd ed 66 49 bb 66 1d d3 3d
       0.07501985 -0.09431072 -0.0030731515 0.10308342
0003c0 75 4b e9 bc c0 0f 93 3d ff af 2d 3d 42 bd 48 bc
       -0.028478364 0.071807384 0.04240417 -0.012252154
0003d0 61 49 95 3d 4d 93 e0 3c 75 08 20 3d 1c 1e 4f 3d
       0.072893865 0.027413988 0.039070565 0.050565824
0003e0 bb ad 10 3d d4 96 0f be e3 97 83 3c b1 8a 73 bd
       0.035321932 -0.1402238 0.016063636 -0.05945844
0003f0 06 72 85 bb 5a 4a ad 3d 36 21 81 3d f7 10 04 bd
       -0.0040724305 0.08461447 0.063051626 -0.03224274

layer1.conv.bias f4 [32]
000000 f4 99 a6 3d 2c 28 a4 3d c3 2d 80 bd 1c b5 b2 bd
       0.08134833 0.08015475 -0.06258728 -0.0872595
000010 17 cf a9 3d 3b dc a6 bd e3 83 06 3d b4 a9 11 3c
       0.082914524 -0.081474744 0.03284062 0.008890558
000020 cf 57 78 3d c2 1d 1a 3d fc ae 8b bc 86 74 32 bd
       0.060630616 0.037626036 -0.017051212 -0.043568157
000030 55 ae 8f bd 5d 23 d4 3d 5c f8 2b 3d 35 7f 8f 3d
       -0.07015673 0.103583075 0.0419849 0.07006685
000040 93 51 05 3d 54 2f ba 3d 9f 54 0b 3d 3c 62 d8 bd
       0.0325485 0.090910584 0.034016248 -0.10565612
000050 89 c5 03 be a5 ae dd bd 80 b1 f9 3d 25 77 b8 bd
       -0.12868322 -0.108243264 0.121920586 -0.090071
000060 77 ef 5b bd ed 25 fe bd eb 51 a5 bd 26 6e ec 3d
       -0.05369517 -0.124095775 -0.08072265 0.11544447
000070 76 44 45 bd 19 fe eb bd 73 e7 d9 bd 89 42 04 be
       -0.048160993 -0.11523075 -0.106398486 -0.12916006

layer2.conv1.weight f4 [32, 32, 3, 3]
000000 1e b0 65 bd 21 73 00 be 09 00 96 bd 41 e2 85 bd
       -0.05607616 -0.12543918 -0.073242255 -0.06537295
000010 a5 ed 11 3c 02 7c 97 bd 68 c1 4c 3d b5 b1 0a bd
       0.0089067565 -0.073966995 0.049989134 -0.03386088
000020 42 a6 37 ba 21 02 aa 3d 49 1a 47 3d 6e 0a 1f bd
       -0.00070056703 0.08301187 0.04860905 -0.038828306
000030 65 90 2a 3c 89 86 6e 3d 70 ef 69 bd 07 01 41 bd
       0.010410403 0.05823377 -0.05711311 -0.04712012
000040 4b 6f 90 bd 39 0e f6 bd 6a c7 db bc f1 2a d9 3d
       -0.070524774 -0.120144315 -0.026828486 0.106038935
000050 3a e5 85 bd c6 a9 1e bd 06 d7 03 bd 30 77 8e 3b
       -0.06537862 -0.038736127 -0.032187484 0.0043477044
000060 33 16 c6 3d c3 b8 e1 bd e1 fb cc bd a4 c1 c3 bd
       0.09672203 -0.110215686 -0.100089796 -0.095584184
000070 51 bf 33 3d d8 3c 3a bd 86 40 ac bc 69 48 8a bd
       0.043883625 -0.04546818 -0.02102686 -0.067520924
000080 30 48 ab bc 48 8d fb 3d a9 c5 a5 bd 3d 9e b2 3c
       -0.020908445 0.12282807 -0.08094341 0.02180397
000090 29 0d 2e bd 65 3d de 3d 34 e0 69 3d 80 9d 85 bd
       -0.04249302 0.10851554 0.057098582 -0.06524181
0000a0 a7 1b 96 bb 5d d6 45 bc be 89 8a bd ee a6 61 be
       -0.004580933 -0.012075034 -0.067645535 -0.22036335
0000b0 f9 8d b1 3d 15 f5 15 3d b5 32 3f 3e 6a 23 4e 3e
       0.08669657 0.03661068 0.18671687 0.20130697
0000c0 ea 45 7b bd 5f 19 aa 3d 57 a6 f6 bc fb ba 41 bc
       -0.061345972 0.083056204 -0.030108614 -0.011824365
0000d0 d4 e2 f7 3c d3 9b b6 3d ce 6b 0c be 6f 58 72 be
       0.030259527 0.0891644 -0.13712999 -0.23666547
0000e0 32 c0 b2 3c 59 16 ff 3d 05 23 29 bd 0a c9 05 bd
       0.021820161 0.12455434 -0.041293163 -0.03266243
0000f0 f7 bc 5c 3d 8e 3c c2 3b f3 64 7b 3d 1a 7e 5b 3d
       0.05389115 0.005927629 0.06137557 0.053587057
000100 0d bb cb 3c 14 ef e7 bd 68 04 15 bd de 54 11 3e
       0.024869466 -0.113248974 -0.036381155 0.1419253
000110 8f 91 b2 3d 67 da 87 3d 2a cf 4e bd 74 51 73 bd
       0.08719169 0.06633454 -0.050490536 -0.05940385
000120 2f 62 bb 3d 32 81 71 bd e4 ab 91 3d 0f 0f 10 3e
       0.091495864 -0.0589611 0.07112864 0.14068244
000130 33 e4 d8 bd fd b9 fa bd e3 75 30 3e f4 c6 9a bd
       -0.105904005 -0.12242506 0.1723247 -0.075574785
000140 ac a1 86 bd 6c 9a 56 bd 31 4a 4c 3d 7b 7b 67 bc
       -0.06573805 -0.052393362 0.049875442 -0.014128561
000150 25 39 b9 3c 1f a9 aa 3c bb d4 33 39 b8 45 11 bd
       0.022610256 0.020832596 0.00017150019 -0.03546688
000160 ee 65 de 3d 44 54 62 bd 54 9e aa 3d e9 20 49 3d
       0.10859285 -0.055256143 0.0833098 0.04910365
000170 11 7d 58 3c 40 c5 29 bc 38 a1 6f 3d d8 d0 21 3e
       0.013213412 -0.0103619695 0.05850336 0.15802324
000180 94 dc 81 bd 8c d0 af bd 7e 50 8d 3d 0e b0 a2 bd
       -0.063409 -0.08584699 0.06900118 -0.07943736
000190 52 da 8c bc 5e 12 84 3d 37 91 58 3c e5 23 fb 3d
       -0.017193947 0.06448816 0.013218216 0.12262706
0001a0 c3 80 68 bd 29 81 43 3c 08 2e e6 bd 62 5f 01 3e
       -0.05676342 0.01193265 -0.112392485 0.12634042
0001b0 9f 7c e6 3d e8 ce 00 be 7a 1a f8 bb fe bf 47 3b
       0.11254238 -0.12578928 -0.0075715156 0.0030479426
0001c0 cb 6c 1d bd 17 8c a3 bd 4d ba 2a 3e e2 0f ee bd
       -0.03843383 -0.079857044 0.1667263 -0.11624123
0001d0 83 30 c0 bc c6 cd cc bd 6d 13 f9 bd 19 b2 fe 3c
       -0.023460632 -0.10000186 -0.12161908 0.031090783
0001e0 51 6f 4d 3d d9 0c 32 bd 80 3c 7e 3d 43 45 55 bc
       0.050154988 -0.043469284 0.062069416 -0.013017002
0001f0 28 aa 4f 3e 07 c5 d6 3d c4 cc 07 3e 1f 18 00 3e
       0.20279753 0.10486799 0.13261706 0.12509201
000200 da 32 96 3d 36 3b e7 3d 98 2e 3f bd 6b 60 56 bd
       0.07333918 0.112905905 -0.046675295 -0.052338045
000210 f6 0c f4 bc ef ae 9f 3d 1e b6 c8 3d 6d 94 97 bd
       -0.029791337 0.07797038 0.09800361 -0.07401357
000220 f6 ae 93 3d 2d a3 55 3d 6e fb 96 bc eb a0 c5 3d
       0.072111055 0.05215757 -0.018430438 0.09649833
000230 1f 16 2c 3d 27 2b 9b 3d 22 61 a9 bd be fb 01 be
       0.042013284 0.0757659 -0.0827048 -0.12693688
000240 47 cb 33 bc 52 8c 07 39 8c 23 af bb 83 b3 02 3e
       -0.010973758 0.00012926877 -0.0053448137 0.12763791
000250 de 87 e1 bc 90 97 44 3d 0d a1 86 bd bc 97 a4 3d
       -0.027530607 0.047996104 -0.06573687 0.080367535
000260 de 18 c2 bd 9a 39 9d bc 25 81 2c bd 0a c7 7e bd
       -0.09477399 -0.019192506 -0.04211535 -0.062201537
000270 11 7b d4 bd f1 dd 8f 3d 51 64 af bc 1a 1c 11 be
       -0.103750356 0.07024754 -0.02141014 -0.14170876
000280 45 78 7e 3d 50 ad 42 3e 1a 1d 2c 3e c5 b4 a6 3d
       0.062126417 0.19011426 0.16807976 0.08139948
000290 3b d6 1d bd 83 16 e2 3c d0 7c 17 bc c9 94 c2 3d
       -0.038534384 0.027598625 -0.009246066 0.09501035
0002a0 30 a4 be 3d 35 df 98 bd e1 ec 98 bd 31 f3 ee 3c
       0.0930866 -0.07464448 -0.07467056 0.029168697
0002b0 5c 65 6a 3d 8e f2 bb bd ba ad 0a 3d 2c be f4 3d
       0.05722557 -0.09177123 0.033857085 0.11950335
0002c0 a9 73 69 bd 49 37 05 bd 2e 7b c0 bd 0b ba 1d bd
       -0.056995068 -0.032523427 -0.09398495 -0.038507503
0002d0 f2 3b 0f be e6 e2 42 3d 77 89 1f 3e 7c 16 fb 3c
       -0.13987711 0.04757967 0.15579782 0.03065037
0002e0 3d cf 37 bc 68 40 dd 3c 88 92 eb bd 70 be a8 3d
       -0.011218843 0.02700825 -0.11502558 0.08239448
0002f0 79 df b5 bd 93 1b ae 3c 43 a6 27 3d 02 63 d3 bd
       -0.08880515 0.021253383 0.040930044 -0.103216186
000300 83 2b 35 3c d9 5c 24 bd cc 90 be 3c c0 48 37 3d
       0.011057737 -0.04012761 0.023262404 0.044747114
000310 bf 05 aa 3d d1 de 9f 3d af 34 d4 3d 3d 6a 19 be
       0.08301877 0.07806171 0.10361611 -0.14981933
000320 51 85 16 be eb 54 ce 3b 91 27 85 bc ea c7 85 be
       -0.14699294 0.006296744 -0.016254218 -0.26129085
000330 32 f7 ba bc 73 7e a6 bd f3 fa ce bd ed 05 de 3c
       -0.02282295 -0.08129587 -0.101064585 0.027102435
000340 e6 cc 36 39 87 30 95 bd 50 ef d4 bc d0 69 8f 3d
       0.00017433203 -0.072846465 -0.02599302 0.07002604
000350 8a 67 e2 bd 01 c8 3f be 65 bc 4c 3d e3 b3 f7 bd
       -0.11054905 -0.18728639 0.049984355 -0.120948575
000360 b0 d9 80 bd 70 fa 08 3d 73 f8 33 3e b2 4b 66 3c
       -0.062915206 0.03344196 0.17575245 0.014056133
000370 40 3f 6e bc 80 83 57 3d 47 ca 00 3e 3e a5 9d 3d
       -0.014541447 0.052615643 0.12577163 0.07697533
000380 05 08 94 3c d1 21 77 3d ff e1 80 39 39 7e 1a 3d
       0.01807023 0.060334984 0.00024582443 0.03771803
000390 75 bb 0e 3e 38 85 52 bd 3b 6b d8 bd 47 60 67 3d
       0.13938697 -0.05139658 -0.105673276 0.0564883
0003a0 ec c9 87 3d 88 27 0b 3c c7 3c b5 3c 28 93 44 3d
       0.066303104 0.008493312 0.022123707 0.0479919
0003b0 1a 1f 89 3d 6a 16 16 be 00 5e 93 bd 74 2a 44 3d
       0.06695385 -0.14656988 -0.071956635 0.04789205
0003c0 60 d8 10 3d d1 76 8d 3c a8 50 19 be e8 23 00 3e
       0.0353626 0.01726857 -0.14972174 0.12513697
0003d0 75 68 a7 bd b2 da 03 bd 86 ca 86 3d d3 ce 4d be
       -0.081742205 -0.032190986 0.06581597 -0.20098428
0003e0 7b e1 3b bd e8 fc ed 3c 5f f8 ab bd ab 79 ad 3c
       -0.04586933 0.02905126 -0.083969824 0.02117618
0003f0 66 1e 1f 3d c8 a1 d2 3d b1 2f 46 3a 35 27 54 bd
       0.03884735 0.102847636 0.0007560207 -0.051795203

layer2.conv1.bias f4 [32]
000000 6a 6f 34 bd e2 89 31 3d c3 97 7a 3c 9a da 11 bc
       -0.044051565 0.043344386 0.015294972 -0.008902216
000010 e1 b7 49 bd 4f f3 7c bc f2 d9 20 bd 9f a3 49 bd
       -0.049247626 -0.015438869 -0.03927035 -0.049228307
000020 bc 29 0e bd 01 5a 34 3c cb 45 07 3c 9d 99 30 bd
       -0.03470777 0.011007787 0.008256386 -0.043115247
000030 30 28 b0 bc ba 09 4e bd 6d df f8 3c 30 51 31 bd
       -0.021503538 -0.050302245 0.030379975 -0.043290317
000040 24 24 13 bc e1 8e 5a bd b0 e9 30 3d 0f 29 4a 3d
       -0.008980785 -0.053358916 0.04319161 0.049355563
000050 71 53 88 3c 36 fd 14 bb ad fe 66 bd 61 94 19 bc
       0.01664135 -0.0022733933 -0.05639522 -0.009373755
000060 89 72 02 b9 36 3a 60 3d 83 cb 06 3c 08 49 69 bd
       -0.00012440434 0.054743014 0.008227232 -0.056954414
000070 c1 41 c1 bc 30 ec 29 bd d8 4e 17 bc 49 84 13 3d
       -0.023590924 -0.04148501 -0.009235106 0.03601483

layer2.conv2.weight f4 [64, 32, 3, 3]
000000 58 de 8a bc a5 8e 73 3d 87 86 ac 3d 46 1e 15 3e
       -0.016951725 0.05946221 0.084240966 0.1456233
000010 ef cc 2e 3d 71 19 4b 3d 2c 21 ca bc a9 50 e6 3d
       0.04267591 0.04958481 -0.02467402 0.112458535
000020 37 59 34 3d 02 07 ac 3d f9 7f ba 3c c4 87 07 bc
       0.044030394 0.08399774 0.0227661 -0.008272115
000030 af fa 43 3d 15 83 6d 3b 4e 89 5b 3d d1 dd 26 bd
       0.047846492 0.003624146 0.05359774 -0.040738884
000040 dc de 08 3d 24 ce ae bc 89 05 99 3d 89 2e 29 bc
       0.03341566 -0.02133853 0.07471759 -0.010326036
000050 da e5 dd bd c3 b7 9c 3d b0 32 3d 3d d7 a6 20 bd
       -0.10834856 0.07652237 0.046190917 -0.03922161
000060 ea 56 13 3d 3e 32 7f bd 1d b4 38 bd f9 d3 2f bd
       0.03597156 -0.062303774 -0.045093644 -0.042926762
000070 9d ed db 3a 62 9c 88 3c 01 d0 2f 3d f8 8e 2c 3d
       0.0016779188 0.016676132 0.042922977 0.042128533
000080 ae f2 46 3d 07 af bc bd 3b 2f 81 bc 1e a6 83 bc
       0.04857128 -0.09213071 -0.015769592 -0.016070422
000090 1d 8e a2 bd cb 17 eb 3c 2c 13 25 bc 1c d4 12 3d
       -0.07937262 0.028697869 -0.010075372 0.035846815
0000a0 b4 a4 18 bb d8 0a b3 bc d7 4d 34 bd f8 7a e6 bd
       -0.002329153 -0.021855757 -0.044019546 -0.11253923
0000b0 5a 2c 02 3d f8 51 13 bb d9 63 99 3c 05 fc 1a bd
       0.03178058 -0.0022479277 0.018724369 -0.037838
0000c0 cf 10 43 3d 0f dc 43 3d 51 41 a0 bd f6 27 2f 3c
       0.04762345 0.047817286 -0.07824958 0.01069068
0000d0 8f 45 0a bd 28 97 47 bd 44 81 83 3d 71 7d 9d bd
       -0.033757742 -0.04872814 0.0642114 -0.07689942
0000e0 f3 4c da 3d d9 d6 82 3d 32 75 56 3d 9d 6d a3 bd
       0.10659208 0.06388635 0.05235786 -0.079798914
0000f0 b5 b4 a7 3d f6 ff 2b bc b5 b7 ec 3c bf a6 e2 bc
       0.08188764 -0.010498038 0.028896192 -0.027667401
000100 e3 c2 5c 3d 4d 0c f6 bd 85 07 88 bd e3 db 75 bc
       0.053896796 -0.12014065 -0.06642059 -0.015006038
000110 f9 fd 79 bb 90 6b bb bb 35 cf e7 3d 20 31 f7 bd
       -0.0038145764 -0.0057196096 0.113188185 -0.12069917
000120 76 5b 79 39 99 0e d0 39 39 60 36 3d 99 1f c1 bc
       0.00023780562 0.00039683728 0.04452536 -0.023574637
000130 1a 4a a3 3c b3 ff 8a bb 94 95 5d bd d3 b8 66 bd
       0.019932795 -0.0042419075 -0.054097727 -0.056328606
000140 76 71 fe bd 3b f7 15 bd 7a 75 c8 3d 3b a7 06 3e
       -0.12423985 -0.03661273 0.09788032 0.13149731
000150 ce fb 77 bc 3a 37 c2 3d 32 d4 21 3c 21 e8 a7 3c
       -0.0151357185 0.0948319 0.009877251 0.02049643
000160 e7 fd 8f 3d d8 b6 ea 3d 8b f2 69 bd 9e 94 6b 3d
       0.0703085 0.11460656 -0.057116073 0.05751478
000170 11 ee 24 3d 7c 56 b6 bd a0 39 7b 3d e4 07 2d 3d
       0.0402661 -0.08903214 0.061334252 0.042243853
000180 0f d7 49 3d eb 15 5d 3d 10 f4 87 bc be 55 aa bc
       0.04927736 0.05397598 -0.01659587 -0.020792838
000190 39 8f 27 be 01 31 04 be 15 5c 4b bb 6d 32 48 bd
       -0.16363229 -0.12909319 -0.0031030227 -0.048876215
0001a0 9a f6 a6 bd c1 36 fe 3b ee f7 1a bd fa 6f 8a bc
       -0.08152504 0.007757992 -0.0378341 -0.016899098
0001b0 db b8 fd 3c 72 03 2e bd e4 09 53 3d 45 82 7d 3c
       0.030971935 -0.042483754 0.051523104 0.015472953
0001c0 67 20 c6 3a 17 ea b0 bc 85 08 8b 3d 6f 46 dc 3c
       0.0015115858 -0.021595998 0.06788734 0.026889054
0001d0 5e 59 4f 3d 3c 1b d9 bb 32 21 22 3d 84 32 c9 3b
       0.050622337 -0.006625561 0.03958244 0.006140055
0001e0 1c 64 ac bb af 6a 0e 3d 02 f9 c9 3c a9 29 87 bb
       -0.0052609574 0.03476971 0.024654869 -0.0041248393
0001f0 2e 20 2e bc 2b c3 18 bb 60 53 8f bc 65 c1 58 3d
       -0.010627789 -0.0023309689 -0.017495811 0.05291881
000200 6a 3a 98 bb d9 c1 9d 3d 64 2a 30 3d 60 f1 7b 3d
       -0.0046456354 0.07702989 0.043009177 0.06150949
000210 7b 27 af 3c 36 b2 3c bd ae 29 e1 3c b6 d4 49 bd
       0.02138113 -0.046068393 0.027485695 -0.049275123
000220 82 6f 43 3c 69 0e 93 38 da cc a7 bc 3f fd 06 bd
       0.011928441 7.01219e-05 -0.020483423 -0.032956358
000230 1a 7d 7b 3b ab 54 22 bc 0e a4 14 be e7 47 63 3d
       0.0038374127 -0.009907882 -0.14515707 0.055488493
000240 17 46 5c 3d 7d ab b7 bd a4 9c 80 3c 7b f5 1a bb
       0.05377778 -0.08968256 0.015699692 -0.0023644853
000250 67 98 9d bd 88 17 ff ba 6c e7 50 bd f7 6e fb bd
       -0.07695084 -0.0019461969 -0.05100195 -0.12277024
000260 58 0c 41 bd e6 eb 83 3d 50 73 33 bd f5 dc 9e bd
       -0.047130913 0.064414784 -0.043811142 -0.07756988
000270 71 61 e3 3c a4 dc c6 bb 47 9f 3a bd 02 e5 1b bd
       0.027756425 -0.006068783 -0.045562055 -0.038060196
000280 c1 22 6b bc 30 67 6e 3c b4 06 64 3d 6e 8a 97 3c
       -0.014351548 0.014550969 0.055670455 0.018498626
000290 16 aa 23 3e e1 c2 9e 3d 79 7b 41 bc cc 7f 74 3d
       0.15982851 0.07752014 -0.011809223 0.05969219
0002a0 6b 78 a8 bd ab 5e a4 3c 4e 6f a4 3c c4 74 55 3d
       -0.08226093 0.020064672 0.020072605 0.05211331
0002b0 ee 60 e6 bb b6 87 c8 3c 05 37 59 bd 45 41 05 be
       -0.007030598 0.024478775 -0.053030986 -0.1301318
0002c0 33 95 b7 bc f5 50 94 3b b0 bd 4f bd df 2d 98 bc
       -0.02241001 0.0045262524 -0.05071801 -0.01857656
0002d0 83 05 9e bd 67 8f 9f bd c9 d8 ee 3d 54 64 91 bc
       -0.07715895 -0.07791024 0.11662442 -0.017748035
0002e0 a5 7d 9a bd 71 6e aa bc 90 c1 2e bc 48 9f 8c 3c
       -0.07543496 -0.020804616 -0.010666266 0.017165795
0002f0 8a 74 a6 bc f1 04 9a bd fd 39 82 bd 6d 7a 27 bd
       -0.020319242 -0.07520474 -0.06358717 -0.04088824
000300 b4 dc 34 3d 59 73 b7 bc 99 4d 5b 3b 06 30 c5 3d
       0.04415579 -0.02239387 0.0033463 0.096283
000310 49 60 8e bc 61 fc cf bc ad ac 91 bb fd b4 87 bc
       -0.017379897 -0.025388898 -0.0044456334 -0.016565794
000320 1f 53 99 bd fc b9 60 ba c7 28 b1 3b e2 2a cd bc
       -0.07486557 -0.00085726357 0.0054064724 -0.025044862
000330 4d b5 e4 bb 54 a1 d6 bc 90 62 4f bc 78 73 27 ba
       -0.0069796205 -0.026199974 -0.0126577765 -0.00063877506
000340 c8 3c 55 bd 1f d4 b4 bb 8a 0a 38 3a 40 ee 13 3d
       -0.05205992 -0.005518451 0.00070206134 0.036115885
000350 49 c7 e9 3d 89 38 05 3a b0 09 10 3d 31 e0 53 3d
       0.11414964 0.0005081972 0.03516549 0.051727477
000360 e2 72 ef 3b 17 3a 35 3d dd 74 ca 3c 57 14 9b 3d
       0.0073073963 0.044244852 0.024713928 0.07572239
000370 d9 cc 94 3d 80 50 3c 3d c4 01 89 bc 76 7b 8d 3b
       0.07265634 0.04597521 -0.016724475 0.004317696
000380 68 04 c2 3b b9 0d 95 3d 22 d3 f1 bc ae ae 88 bd
       0.0059209354 0.07278008 -0.029519621 -0.066739425
000390 8e 28 89 bd db b5 c3 bd 07 39 cf bd 88 9f 96 3c
       -0.06697188 -0.095561706 -0.10118299 0.018386617
0003a0 46 2a 5b 3c 46 84 9d bd 6e 98 66 bd a3 c9 d5 3c
       0.013376778 -0.07691245 -0.056297712 0.026097124
0003b0 93 af e2 3a 07 af a6 3c ff 70 d8 bc 34 5b 4e 3d
       0.0017294757 0.020347131 -0.026421068 0.050379947
0003c0 a0 b9 28 bd 86 82 d3 3c 45 70 74 3c 9f 29 21 3c
       -0.04119265 0.025819074 0.014919345 0.009836583
0003d0 50 3f 07 3a 3a 5e ae 3d 5a 15 2b 3d ec 04 30 3d
       0.00051592756 0.08514066 0.04176841 0.042973444
0003e0 2d 53 d3 3d 7d 89 7d bd 6a 69 74 bc 53 a3 8b 3c
       0.10318599 -0.061898697 -0.014917711 0.017045652
0003f0 d9 7a c4 3d bf 0d ed bc a1 d5 bb 3b 17 44 96 bc
       0.09593744 -0.028937219 0.0057322537 -0.018343015

layer2.conv2.bias f4 [64]
000000 e6 e2 0a 3d b3 22 b1 3b 9b c1 e9 3c 72 eb 50 3c
       0.033907793 0.005405748 0.028534701 0.012751447
000010 91 e0 63 bd 22 35 35 bd e2 41 9f bc 64 c8 b2 bc
       -0.055634085 -0.044240125 -0.019440595 -0.02182407
000020 96 6e 70 3d 8b ba 14 bd 03 9c ba 3c 90 0f 0d bd
       0.058699213 -0.036310714 0.02277947 -0.03443867
000030 dc 5b a6 3c 92 d3 08 bd 3f 37 32 3d db 50 10 3d
       0.020307474 -0.033404894 0.043509718 0.03523336
000040 df 72 c1 3c 3b ea 52 3d 09 41 4b 3d 0a d4 3a 3d
       0.023614345 0.05149291 0.04962257 0.045612372
000050 54 cd 1f bc fc d1 3f 3c 87 c3 8e 3c 85 08 5f 3d
       -0.009753544 0.011707779 0.01742722 0.054451484
000060 06 83 85 3a 7c 38 c3 bb cf 09 c8 bc 2f b7 10 3b
       0.0010186143 -0.005957661 -0.02441874 0.0022081842
000070 47 29 9d 3c 34 75 4b 3d 72 02 13 3d 07 49 6c bd
       0.019184722 0.04967232 0.035891004 -0.05768683
000080 53 81 c6 3c a1 ec 4c bd ae ef e4 bc 23 b2 bb 3c
       0.024231588 -0.050030354 -0.02794632 0.02291209
000090 f9 9e b4 bc d5 05 6a bd fc 98 e9 3b 3a 53 3b bc
       -0.02204846 -0.057134468 0.007128833 -0.011433417
0000a0 68 2c b2 3b ea d0 2e 3a b3 90 88 3c d4 84 3a 3d
       0.0054374225 0.0006668704 0.01667056 0.04553683
0000b0 49 d8 4d 3d 49 72 08 3d 9e c5 7d 3d 8e 59 aa 3c
       0.050255094 0.033312116 0.06195604 0.020794656
0000c0 7c bb 8b 3c 4c e2 0a 3d 05 ca 3d 3d 5d cc 41 bd
       0.017057173 0.03390722 0.04633524 -0.047314037
0000d0 32 5f 80 bc 49 64 a4 3c 29 0d d4 3c da a9 79 bc
       -0.015670393 0.020067351 0.025885182 -0.01523825
0000e0 9b c7 b5 3c bd 67 1c 3d bd 10 ab bc 81 f2 aa bc
       0.022189906 0.03818487 -0.020882005 -0.020867588
0000f0 c5 00 53 3c bf d6 f4 3c 06 62 fb 3b c7 7b 1d bd
       0.012878601 0.029887555 0.0076715974 -0.03844812

fc1.weight f4 [1, 3200]
000000 d4 91 01 80 f1 61 00 80 33 3a 00 80 a3 9c 86 bc
       -1.44149e-40 -3.5135e-41 -2.0878e-41 -0.016432112
000010 ed e0 9c bd 5c ca 07 bc c6 14 00 80 11 15 01 00
       -0.07660089 -0.008287992 -7.452e-42 9.9393e-41
000020 d2 e9 05 3b 56 51 44 bc 26 c6 00 00 85 87 00 00
       0.0020433557 -0.011982283 7.1082e-41 4.8615e-41
000030 f4 9d 00 00 fe 1d 0c bb 16 ec bb bd f4 69 2c bd
       5.6663e-41 -0.0021380181 -0.09175889 -0.042093232
000040 9c e1 00 80 51 9f 01 80 18 62 04 ba 28 db 3c 3c
       -8.0933e-41 -1.48987e-40 -0.00050500175 0.01152686
000050 7a fa 00 80 65 76 01 80 7b 0e 01 00 4a 5a 78 bc
       -8.9854e-41 -1.34307e-40 9.703e-41 -0.015158245
000060 4d 58 be bd e4 64 4f bd 28 0d 00 00 b7 e2 00 80
       -0.09294186 -0.050633326 4.72e-42 -8.133e-41
000070 b8 f9 fd 3c 7b e8 1b bd a8 a0 01 00 82 b3 3f 3a
       0.031002864 -0.038063508 1.49468e-40 0.00073128205
000080 83 cf d2 3b 77 fe 4b bc 87 ea c9 bd 5f 7f c9 bd
       0.0064334287 -0.012450806 -0.09859186 -0.09838747
000090 50 e2 a6 ba b0 f8 2f 3b 5d 63 4f 3c 3e 24 3f 3c
       -0.0012732241 0.002685111 0.012657967 0.011666356
0000a0 a4 3b 08 3d b1 2f 86 b0 ad cb 00 80 6c 71 47 bd
       0.033260003 -9.763338e-10 -7.3065e-41 -0.048692152
0000b0 fb fb 8c bd 4a 82 b6 3d cf b6 2f 3c b5 9e 01 80
       -0.06883999 0.089115694 0.010724737 -1.48769e-40
0000c0 c5 f3 b2 ba 1b 63 5c bc cc 47 02 80 76 b2 00 00
       -0.0013652971 -0.013451363 -2.09427e-40 6.402e-41
0000d0 11 49 02 00 4d 47 00 00 75 e7 00 00 b4 f6 00 00
       2.09882e-40 2.5578e-41 8.3031e-41 8.85e-41
0000e0 63 59 00 00 c5 61 00 80 c7 09 01 00 98 79 00 00
       3.2066e-41 -3.5073e-41 9.5343e-41 4.362e-41
0000f0 ac c1 00 80 66 9f 00 00 d9 4f 00 00 53 bb 01 80
       -6.9476e-41 5.7181e-41 2.8644e-41 -1.59035e-40
000100 fb 20 01 80 3a ed 49 34 76 ea 00 80 4a 42 00 00
       -1.03667e-40 1.8805886e-07 -8.4109e-41 2.378e-41
000110 0b 05 01 00 32 9f 15 3b d1 c6 00 80 93 26 01 00
       9.3645e-41 0.0022830484 -7.1322e-41 1.05673e-40
000120 0e 9c 00 80 a0 83 00 00 63 79 01 00 42 0b 00 00
       -5.5982e-41 4.7218e-41 1.35381e-40 4.039e-42
000130 27 16 01 00 2f b1 01 00 16 e6 01 00 f1 03 00 00
       9.9782e-41 1.55397e-40 1.74375e-40 1.414e-42
000140 ee 0d 0d bc b1 d2 2e 3c ce 28 1c 3c f8 f1 00 80
       -0.008609278 0.01067035 0.009531213 -8.6802e-41
000150 b7 7d 01 80 6c d2 96 3c 56 a9 92 bd e8 37 7a 3c
       -1.36933e-40 0.018410884 -0.071612045 0.015272118
000160 b5 25 00 00 ca 31 02 80 39 71 56 bc 34 7e 6d bc
       1.3527e-41 -2.01532e-40 -0.013088518 -0.014495421
000170 81 b9 07 3d 76 4c 5f 3c 43 6f 95 bc 75 90 e7 3d
       0.033135895 0.01362907 -0.01824153 0.1130685
000180 63 79 9a bb 12 04 0a 3d 43 7c 05 bd 07 ce 70 bb
       -0.0047141775 0.033695288 -0.03258921 -0.0036743896
000190 2e 4e 00 80 a8 fd c0 bb ef 91 49 bc 99 c7 26 3d
       -2.8046e-41 -0.005889613 -0.01230286 0.040717695
0001a0 ea b9 50 bd 11 a6 30 bd 5d 0e 25 3d 07 73 eb 3b
       -0.05095855 -0.043127123 0.0402969 0.007185343
0001b0 0b dd 07 bd c1 0a ff 3c f2 de 0a bc d0 9e 00 80
       -0.033169787 0.031133058 -0.008476006 -5.6971e-41
0001c0 81 2f 81 3c e5 d1 00 3d f1 56 48 3d 42 6f d4 bc
       0.015769722 0.03145017 0.04891104 -0.025931958
0001d0 50 d2 9e bc a5 9e 58 bb e7 06 87 bb cb e6 62 3c
       -0.019387394 -0.0033053544 -0.004120696 0.013848971
0001e0 9b f4 24 bc 09 46 1d 3b b6 a3 fa 3c 1d 09 34 39
       -0.010068084 0.0023998043 0.030595642 0.00017169533
0001f0 c6 d1 20 3d 69 53 d2 bd 5b 01 0c bc 2e bd d2 39
       0.039262556 -0.102698155 -0.008545245 0.0004019527
000200 3f d4 00 3d 10 54 0e bb 12 d4 3c 1e 82 ac cc bb
       0.031452414 -0.0021717586 9.996492e-21 -0.0062461505
000210 73 87 84 bc 77 d6 85 3d ed 02 d8 3b d5 17 20 bd
       -0.016177868 0.065350465 0.0065921457 -0.039085228
000220 09 0c 07 bd 20 52 15 bc 3b 66 c1 bc 26 29 fe bb
       -0.032970462 -0.009113818 -0.023608318 -0.00775637
000230 54 ab 78 bb 29 86 94 3b 8e 74 77 3b 56 4f 05 bc
       -0.0037943916 0.0045325947 0.003775868 -0.008136591
000240 d5 d1 b3 bc 34 4d 81 3c 91 b2 30 3c d0 27 68 3b
       -0.021950642 0.015783884 0.010784761 0.003542412
000250 e5 19 0a 3b 4b 8b d5 38 ed 2a 83 3b 6a a6 ed ba
       0.0021072563 0.00010182577 0.00400292 -0.001813126
000260 14 fa 99 3c e2 b0 bf bc 15 be 04 3d 54 63 9e bd
       0.018796004 -0.023399774 0.03240784 -0.07733789
000270 7d 98 04 bc 49 8a 5e bc 40 77 d2 3c 8b 53 41 3a
       -0.008092997 -0.013582774 0.025691628 0.00073748146
000280 2f 66 00 00 db 48 00 80 f7 50 98 bc 8d 5f df bc
       3.6657e-41 -2.6136e-41 -0.018593295 -0.027267242
000290 ac 3d 27 bd af 64 07 bd 8f 4c 01 80 cc 4b 33 3c
       -0.0408303 -0.033055004 -1.193e-40 0.010943364
0002a0 2c c4 f6 bc 49 13 a0 bc 23 75 01 80 e0 4f 01 80
       -0.030122839 -0.019540446 -1.33856e-40 -1.20489e-40
0002b0 c0 20 00 80 42 f9 6d 3d b5 35 5a 3d a1 44 07 bd
       -1.1748e-41 0.05809904 0.053273875 -0.033024434
0002c0 50 c9 00 00 5d b4 01 80 10 2d 13 3b 96 b9 09 bd
       7.2217e-41 -1.56538e-40 0.002245728 -0.033624254
0002d0 4e 4c 01 80 92 ba 00 00 51 dc 32 b2 88 49 93 3c
       -1.19208e-40 6.6929e-41 -1.0411058e-08 0.017979398
0002e0 fa 55 cf 3d 73 42 74 3d b8 89 01 80 a4 6e 03 b9
       0.101238206 0.059633683 -1.4124e-40 -0.0001253435
0002f0 2d fb 81 bb e3 7b 6d 3c 5e 99 01 00 88 47 00 00
       -0.00396671 0.014494869 1.46853e-40 2.566e-41
000300 4c 75 8e ab 17 a6 7b bb b9 66 9f 3c 35 c2 2f 3d
       -1.0122263e-12 -0.0038398558 0.019458162 0.04290982
000310 21 7c 01 80 2b 59 09 ba f3 61 44 bb f7 3f 90 bc
       -1.36365e-40 -0.00052394223 -0.002996561 -0.017608626
000320 b3 16 02 bd 40 89 da 3c fe 9d 03 3d 4a 36 4b 3d
       -0.03175993 0.026676774 0.032133095 0.04961232
000330 24 16 ec bc 60 21 1f 3d 41 82 7f 3c 7f 22 d9 3c
       -0.028819151 0.03885019 0.01559502 0.026505707
000340 c3 25 31 3c 24 7d 93 ba c7 8d 1b bd 63 5a a2 bc
       0.010812226 -0.0011252505 -0.037977006 -0.01981849
000350 81 5b d5 3c 9e 2a 00 80 3e 16 20 b6 ca d8 99 bd
       0.026044609 -1.5288e-41 -2.3854805e-06 -0.07512052
000360 3e b5 3c 3d b8 44 1b bb d4 bf ab af 4d 55 01 00
       0.046071284 -0.0023692083 -3.124102e-10 1.22436e-40
000370 3f 94 52 3c 16 2e 4e bb 5e 34 0b bd 8f 10 ad bc
       0.012852727 -0.0031460575 -0.033985488 -0.02112606
000380 b1 59 e9 bb 01 a1 94 bc b4 f6 0c 3d 19 f5 e5 bc
       -0.0071212878 -0.018143179 0.034414962 -0.028070973
000390 84 89 db 3b 4a 17 00 80 14 97 1a bd 51 b9 97 3c
       0.0066997427 -8.355e-42 -0.037741736 0.018520983
0003a0 d7 f6 15 3b d3 fc 0f 3a 3b b1 01 00 5b ec 3a 3b
       0.0022882724 0.0005492691 1.55414e-40 0.0028522226
0003b0 c5 77 8e bd db 40 30 bc eb fc d8 ba 75 4c f0 b8
       -0.06956438 -0.01075765 -0.0016554868 -0.00011458333
0003c0 f2 1d 68 33 d1 7c 01 80 0a 95 01 80 da 96 01 00
       5.4043944e-08 -1.36611e-40 -1.453e-40 1.45951e-40
0003d0 4d 04 01 00 67 e5 00 00 c6 02 86 27 9d 15 00 80
       9.3378e-41 8.2294e-41 3.719548e-15 -7.753e-42
0003e0 e9 7a 01 00 75 65 02 00 67 11 c0 3c 8c c7 18 bd
       1.35927e-40 2.20067e-40 0.023445798 -0.037299678
0003f0 9d 4a 0f bc 5d 3a 97 bb 04 37 02 00 31 44 a7 3d
       -0.008745817 -0.0046151117 2.03407e-40 0.08167303

out.0.weight f4 [1, 3200]
000000 d4 91 01 80 f1 61 00 80 33 3a 00 80 a3 9c 86 bc
       -1.44149e-40 -3.5135e-41 -2.0878e-41 -0.016432112
000010 ed e0 9c bd 5c ca 07 bc c6 14 00 80 11 15 01 00
       -0.07660089 -0.008287992 -7.452e-42 9.9393e-41
000020 d2 e9 05 3b 56 51 44 bc 26 c6 00 00 85 87 00 00
       0.0020433557 -0.011982283 7.1082e-41 4.8615e-41
000030 f4 9d 00 00 fe 1d 0c bb 16 ec bb bd f4 69 2c bd
       5.6663e-41 -0.0021380181 -0.09175889 -0.042093232
000040 9c e1 00 80 51 9f 01 80 18 62 04 ba 28 db 3c 3c
       -8.0933e-41 -1.48987e-40 -0.00050500175 0.01152686
000050 7a fa 00 80 65 76 01 80 7b 0e 01 00 4a 5a 78 bc
       -8.9854e-41 -1.34307e-40 9.703e-41 -0.015158245
000060 4d 58 be bd e4 64 4f bd 28 0d 00 00 b7 e2 00 80
       -0.09294186 -0.050633326 4.72e-42 -8.133e-41
000070 b8 f9 fd 3c 7b e8 1b bd a8 a0 01 00 82 b3 3f 3a
       0.031002864 -0.038063508 1.49468e-40 0.00073128205
000080 83 cf d2 3b 77 fe 4b bc 87 ea c9 bd 5f 7f c9 bd
       0.0064334287 -0.012450806 -0.09859186 -0.09838747
000090 50 e2 a6 ba b0 f8 2f 3b 5d 63 4f 3c 3e 24 3f 3c
       -0.0012732241 0.002685111 0.012657967 0.011666356
0000a0 a4 3b 08 3d b1 2f 86 b0 ad cb 00 80 6c 71 47 bd
       0.033260003 -9.763338e-10 -7.3065e-41 -0.048692152
0000b0 fb fb 8c bd 4a 82 b6 3d cf b6 2f 3c b5 9e 01 80
       -0.06883999 0.089115694 0.010724737 -1.48769e-40
0000c0 c5 f3 b2 ba 1b 63 5c bc cc 47 02 80 76 b2 00 00
       -0.0013652971 -0.013451363 -2.09427e-40 6.402e-41
0000d0 11 49 02 00 4d 47 00 00 75 e7 00 00 b4 f6 00 00
       2.09882e-40 2.5578e-41 8.3031e-41 8.85e-41
0000e0 63 59 00 00 c5 61 00 80 c7 09 01 00 98 79 00 00
       3.2066e-41 -3.5073e-41 9.5343e-41 4.362e-41
0000f0 ac c1 00 80 66 9f 00 00 d9 4f 00 00 53 bb 01 80
       -6.9476e-41 5.7181e-41 2.8644e-41 -1.59035e-40
000100 fb 20 01 80 3a ed 49 34 76 ea 00 80 4a 42 00 00
       -1.03667e-40 1.8805886e-07 -8.4109e-41 2.378e-41
000110 0b 05 01 00 32 9f 15 3b d1 c6 00 80 93 26 01 00
       9.3645e-41 0.0022830484 -7.1322e-41 1.05673e-40
000120 0e 9c 00 80 a0 83 00 00 63 79 01 00 42 0b 00 00
       -5.5982e-41 4.7218e-41 1.35381e-40 4.039e-42
000130 27 16 01 00 2f b1 01 00 16 e6 01 00 f1 03 00 00
       9.9782e-41 1.55397e-40 1.74375e-40 1.414e-42
000140 ee 0d 0d bc b1 d2 2e 3c ce 28 1c 3c f8 f1 00 80
       -0.008609278 0.01067035 0.009531213 -8.6802e-41
000150 b7 7d 01 80 6c d2 96 3c 56 a9 92 bd e8 37 7a 3c
       -1.36933e-40 0.018410884 -0.071612045 0.015272118
000160 b5 25 00 00 ca 31 02 80 39 71 56 bc 34 7e 6d bc
       1.3527e-41 -2.01532e-40 -0.013088518 -0.014495421
000170 81 b9 07 3d 76 4c 5f 3c 43 6f 95 bc 75 90 e7 3d
       0.033135895 0.01362907 -0.01824153 0.1130685
000180 63 79 9a bb 12 04 0a 3d 43 7c 05 bd 07 ce 70 bb
       -0.0047141775 0.033695288 -0.03258921 -0.0036743896
000190 2e 4e 00 80 a8 fd c0 bb ef 91 49 bc 99 c7 26 3d
       -2.8046e-41 -0.005889613 -0.01230286 0.040717695
0001a0 ea b9 50 bd 11 a6 30 bd 5d 0e 25 3d 07 73 eb 3b
       -0.05095855 -0.043127123 0.0402969 0.007185343
0001b0 0b dd 07 bd c1 0a ff 3c f2 de 0a bc d0 9e 00 80
       -0.033169787 0.031133058 -0.008476006 -5.6971e-41
0001c0 81 2f 81 3c e5 d1 00 3d f1 56 48 3d 42 6f d4 bc
       0.015769722 0.03145017 0.04891104 -0.025931958
0001d0 50 d2 9e bc a5 9e 58 bb e7 06 87 bb cb e6 62 3c
       -0.019387394 -0.0033053544 -0.004120696 0.013848971
0001e0 9b f4 24 bc 09 46 1d 3b b6 a3 fa 3c 1d 09 34 39
       -0.010068084 0.0023998043 0.030595642 0.00017169533
0001f0 c6 d1 20 3d 69 53 d2 bd 5b 01 0c bc 2e bd d2 39
       0.039262556 -0.102698155 -0.008545245 0.0004019527
000200 3f d4 00 3d 10 54 0e bb 12 d4 3c 1e 82 ac cc bb
       0.031452414 -0.0021717586 9.996492e-21 -0.0062461505
000210 73 87 84 bc 77 d6 85 3d ed 02 d8 3b d5 17 20 bd
       -0.016177868 0.065350465 0.0065921457 -0.039085228
000220 09 0c 07 bd 20 52 15 bc 3b 66 c1 bc 26 29 fe bb
       -0.032970462 -0.009113818 -0.023608318 -0.00775637
000230 54 ab 78 bb 29 86 94 3b 8e 74 77 3b 56 4f 05 bc
       -0.0037943916 0.0045325947 0.003775868 -0.008136591
000240 d5 d1 b3 bc 34 4d 81 3c 91 b2 30 3c d0 27 68 3b
       -0.021950642 0.015783884 0.010784761 0.003542412
000250 e5 19 0a 3b 4b 8b d5 38 ed 2a 83 3b 6a a6 ed ba
       0.0021072563 0.00010182577 0.00400292 -0.001813126
000260 14 fa 99 3c e2 b0 bf bc 15 be 04 3d 54 63 9e bd
       0.018796004 -0.023399774 0.03240784 -0.07733789
000270 7d 98 04 bc 49 8a 5e bc 40 77 d2 3c 8b 53 41 3a
       -0.008092997 -0.013582774 0.025691628 0.00073748146
000280 2f 66 00 00 db 48 00 80 f7 50 98 bc 8d 5f df bc
       3.6657e-41 -2.6136e-41 -0.018593295 -0.027267242
000290 ac 3d 27 bd af 64 07 bd 8f 4c 01 80 cc 4b 33 3c
       -0.0408303 -0.033055004 -1.193e-40 0.010943364
0002a0 2c c4 f6 bc 49 13 a0 bc 23 75 01 80 e0 4f 01 80
       -0.030122839 -0.019540446 -1.33856e-40 -1.20489e-40
0002b0 c0 20 00 80 42 f9 6d 3d b5 35 5a 3d a1 44 07 bd
       -1.1748e-41 0.05809904 0.053273875 -0.033024434
0002c0 50 c9 00 00 5d b4 01 80 10 2d 13 3b 96 b9 09 bd
       7.2217e-41 -1.56538e-40 0.002245728 -0.033624254
0002d0 4e 4c 01 80 92 ba 00 00 51 dc 32 b2 88 49 93 3c
       -1.19208e-40 6.6929e-41 -1.0411058e-08 0.017979398
0002e0 fa 55 cf 3d 73 42 74 3d b8 89 01 80 a4 6e 03 b9
       0.101238206 0.059633683 -1.4124e-40 -0.0001253435
0002f0 2d fb 81 bb e3 7b 6d 3c 5e 99 01 00 88 47 00 00
       -0.00396671 0.014494869 1.46853e-40 2.566e-41
000300 4c 75 8e ab 17 a6 7b bb b9 66 9f 3c 35 c2 2f 3d
       -1.0122263e-12 -0.0038398558 0.019458162 0.04290982
000310 21 7c 01 80 2b 59 09 ba f3 61 44 bb f7 3f 90 bc
       -1.36365e-40 -0.00052394223 -0.002996561 -0.017608626
000320 b3 16 02 bd 40 89 da 3c fe 9d 03 3d 4a 36 4b 3d
       -0.03175993 0.026676774 0.032133095 0.04961232
000330 24 16 ec bc 60 21 1f 3d 41 82 7f 3c 7f 22 d9 3c
       -0.028819151 0.03885019 0.01559502 0.026505707
000340 c3 25 31 3c 24 7d 93 ba c7 8d 1b bd 63 5a a2 bc
       0.010812226 -0.0011252505 -0.037977006 -0.01981849
000350 81 5b d5 3c 9e 2a 00 80 3e 16 20 b6 ca d8 99 bd
       0.026044609 -1.5288e-41 -2.3854805e-06 -0.07512052
000360 3e b5 3c 3d b8 44 1b bb d4 bf ab af 4d 55 01 00
       0.046071284 -0.0023692083 -3.124102e-10 1.22436e-40
000370 3f 94 52 3c 16 2e 4e bb 5e 34 0b bd 8f 10 ad bc
       0.012852727 -0.0031460575 -0.033985488 -0.02112606
000380 b1 59 e9 bb 01 a1 94 bc b4 f6 0c 3d 19 f5 e5 bc
       -0.0071212878 -0.018143179 0.034414962 -0.028070973
000390 84 89 db 3b 4a 17 00 80 14 97 1a bd 51 b9 97 3c
       0.0066997427 -8.355e-42 -0.037741736 0.018520983
0003a0 d7 f6 15 3b d3 fc 0f 3a 3b b1 01 00 5b ec 3a 3b
       0.0022882724 0.0005492691 1.55414e-40 0.0028522226
0003b0 c5 77 8e bd db 40 30 bc eb fc d8 ba 75 4c f0 b8
       -0.06956438 -0.01075765 -0.0016554868 -0.00011458333
0003c0 f2 1d 68 33 d1 7c 01 80 0a 95 01 80 da 96 01 00
       5.4043944e-08 -1.36611e-40 -1.453e-40 1.45951e-40
0003d0 4d 04 01 00 67 e5 00 00 c6 02 86 27 9d 15 00 80
       9.3378e-41 8.2294e-41 3.719548e-15 -7.753e-42
0003e0 e9 7a 01 00 75 65 02 00 67 11 c0 3c 8c c7 18 bd
       1.35927e-40 2.20067e-40 0.023445798 -0.037299678
0003f0 9d 4a 0f bc 5d 3a 97 bb 04 37 02 00 31 44 a7 3d
       -0.008745817 -0.0046151117 2.03407e-40 0.08167303

exp_avg f4 [32, 2, 5, 5]
000000 75 40 a7 b9 ba e5 01 b9 c6 fc 7d 39 b3 b0 3c 3a
       -0.00031900746 -0.00012387978 0.00024222126 0.0007197961
000010 0e 2c 93 3a 05 4a 84 b8 cc 8b 27 39 9e f8 f9 39
       0.0011228339 -6.308038e-05 0.0001597844 0.00047678215
000020 6d 16 64 3a 30 f7 98 3a 43 e0 bf 39 83 df 07 3a
       0.00087008515 0.0011670347 0.00036597447 0.0005183147
000030 58 a0 48 3a 38 ac 87 3a 7b ad a4 3a b0 97 2e 3a
       0.00076532876 0.0010351008 0.0012563908 0.00066601764
000040 38 3e 52 3a 85 8f 70 3a 5f f2 92 3a 87 46 a1 3a
       0.00080201356 0.00091766595 0.0011211148 0.0012304344
000050 89 d3 16 3a 2c f4 1e 3a 8a 47 3f 3a 14 99 54 3a
       0.0005753567 0.0006063606 0.0007296732 0.00081099686
000060 4d 13 5a 3a 5d 78 bb b9 23 35 87 b9 ef 50 8a 37
       0.0008318916 -0.00035757097 -0.00025788796 1.648857e-05
000070 1d da de 39 e1 72 70 3a f0 01 bb b7 8c 6c 48 b6
       0.00042505647 0.0009172392 -2.229304e-05 -2.9865505e-06
000080 3c 1b 6e 39 48 a3 10 3a af 3d 80 3a d2 fb a7 39
       0.00022707594 0.0005517495 0.0009784008 0.00032040343
000090 8d 95 b6 39 f0 f5 f5 39 d7 85 40 3a 60 25 84 3a
       0.0003482517 0.0004691328 0.00073441624 0.0010081939
0000a0 38 77 1a 3a fb dc 18 3a 0e e7 2c 3a 7b 6d 51 3a
       0.0005892399 0.00058312685 0.0006595709 0.0007989031
0000b0 b5 68 7f 3a f2 13 ed 39 52 5c f4 39 14 bb df 39
       0.00097430806 0.00045219023 0.0004660809 0.0004267326
0000c0 e6 51 07 3a 55 0f 10 3a 7b be a1 ba 58 b6 62 ba
       0.0005162045 0.0005495449 -0.0012340093 -0.0008648387
0000d0 2d d6 0f ba 85 57 8c b9 41 9f 05 b9 d7 b3 a8 ba
       -0.0005486932 -0.00026768088 -0.00012743195 -0.0012870979
0000e0 1c c8 7b ba af b0 29 ba 22 a8 cb b9 23 22 6a b9
       -0.0009604709 -0.0006473166 -0.00038844446 -0.00022328696
0000f0 1a 0d 92 ba 40 70 5f ba 42 29 1d ba d6 75 d9 b9
       -0.0011142821 -0.00085235015 -0.00059952226 -0.0004147726
000100 a9 de a1 b9 33 d7 3f ba 67 08 20 ba d1 56 f4 b9
       -0.00030874208 -0.0007318139 -0.00061047677 -0.0004660399
000110 a7 4f c2 b9 97 ad b6 b9 bf 21 a8 b9 1c f7 98 b9
       -0.0003706191 -0.0003484308 -0.000320686 -0.0002917581
000120 4b 0f 95 b9 6d 31 93 b9 a1 4e b6 b9 38 ef 82 ba
       -0.0002843089 -0.0002807485 -0.00034772328 -0.0009989506
000130 06 ec 68 ba 51 f4 43 ba ec e9 1b ba 52 66 d8 b9
       -0.0008885268 -0.00074750656 -0.0005947638 -0.00041274965
000140 3a 0b 83 ba e8 a5 6e ba 7b 8a 52 ba 98 9a 25 ba
       -0.0009997853 -0.00091037014 -0.00080314995 -0.0006317287
000150 ea 2f fe b9 c7 84 41 ba 03 1e 41 ba 45 35 37 ba
       -0.00048482354 -0.0007382151 -0.0007366838 -0.0006988834
000160 5e 6f 16 ba 97 8a f9 b9 85 39 c2 b9 a3 8a ef b9
       -0.0005738641 -0.00047596238 -0.0003704542 -0.00045688925
000170 78 54 02 ba 47 fd fa b9 b0 fa f0 b9 23 be f3 38
       -0.0004971693 -0.00047872422 -0.00045963144 0.00011622559
000180 14 28 e3 b8 88 3e 8c b9 2c 03 be b9 68 98 ea b9
       -0.000108316686 -0.0002674947 -0.00036241987 -0.0004474551
000190 48 df bc 3a ea 3c 6d 3a fc d6 9d 39 20 38 4e b9
       0.0014409805 0.00090499094 0.0003010555 -0.00019666599
0001a0 7c 57 0e ba 65 1d cd 3a a0 59 78 3a 5f 64 be 39
       -0.00054299063 0.0015649019 0.00094738044 0.00036314406
0001b0 ce 0e 2c b9 d4 d7 f7 b9 08 2c c7 3a 44 80 78 3a
       -0.00016408713 -0.00047272316 0.0015195617 0.0009479562
0001c0 79 57 bd 39 c9 c1 c8 b8 19 0a bb b9 28 98 b1 3a
       0.0003611406 -9.5728385e-05 -0.00035674943 0.0013549374
0001d0 ea 27 5d 3a 16 1b c5 39 54 2d 68 b7 57 70 57 b9
       0.00084364286 0.0003759495 -1.3838831e-05 -0.00020545848
0001e0 a9 a0 93 3a 67 94 43 3a ed 30 b9 39 52 eb bc 38
       0.001126309 0.00074607733 0.00035322402 9.0083704e-05
0001f0 0d a7 1c b8 15 71 d0 3a b5 e1 7f 3a de 49 b3 39
       -3.7348877e-05 0.0015902842 0.0009761111 0.00034196576
000200 1c 87 81 b9 fe 38 26 ba 85 04 da 3a 2b 6f 8b 3a
       -0.00024705462 -0.000634089 0.0016633427 0.0010637989
000210 67 2e be 39 17 ce 54 b9 f3 0f 20 ba c3 d9 d1 3a
       0.00036274196 -0.0002029467 -0.0006105892 0.0016010333
000220 18 bd 83 3a d3 dd b9 39 a2 d3 34 b9 f6 43 06 ba
       0.0010050861 0.00035451222 -0.00017244977 -0.00051218213
000230 ac 18 bc 3a 83 22 6b 3a c5 c3 a0 39 77 9c f9 b8
       0.0014350615 0.0008969681 0.00030663438 -0.00011902389
000240 12 ce c4 b9 f5 00 9e 3a 7c 2c 40 3a 22 be 92 39
       -0.00037537568 0.0012054729 0.00073308474 0.0002798895
000250 8c aa 74 b8 a1 8f 4b b9 a3 90 c6 3a 76 f2 b8 3a
       -5.8332967e-05 -0.00019413095 0.0015149306 0.0014110345
000260 03 35 a5 3a 7c bb a0 3a 73 b7 af 3a 5c 3e e4 3a
       0.00126043 0.0012262906 0.0013406113 0.0017413604
000270 b6 39 d2 3a d6 8c bf 3a 6b 00 bb 3a d4 96 c9 3a
       0.0016038928 0.0014614116 0.0014267092 0.0015380033
000280 dc 2e ea 3a 0b 87 dd 3a 79 98 cc 3a 38 d7 c4 3a
       0.0017866748 0.0016901208 0.0015609405 0.0015017753
000290 2f f7 d1 3a b6 15 e8 3a af 1c de 3a 8d c3 cc 3a
       0.0016019101 0.0017706666 0.0016945804 0.0015622244
0002a0 e9 aa c3 3a 5c d5 ca 3a 05 2f e2 3a 5a 7a dd 3a
       0.0014928255 0.0015474963 0.0017256445 0.0016897426
0002b0 58 f8 cb 3a bd 30 be 3a ba e7 bc 3a 85 ca af 3a
       0.0015561683 0.0014510375 0.0014412322 0.0013411796
0002c0 49 ac a5 3a 23 01 a3 3a 92 00 a8 3a 15 be bb 3a
       0.0012639846 0.0012436252 0.0012817553 0.0014323617
0002d0 d3 23 c9 3a 08 9d c6 3a 56 c2 be 3a ce a0 c2 3a
       0.001534576 0.0015153 0.0014553766 0.0014848949
0002e0 bd bc d6 3a a1 80 d8 3a c6 2b d2 3a 10 41 ca 3a
       0.0016383153 0.0016517827 0.0016034774 0.0015430767
0002f0 fc 04 ca 3a 18 4e db 3a b7 5f da 3a 0e a9 d7 3a
       0.0015412862 0.0016731648 0.0016660605 0.001645358
000300 93 1f cc 3a 0c 7e c9 3a 7a 9d cd 3a 22 5d d8 3a
       0.0015573375 0.0015372648 0.001568719 0.0016507248
000310 a0 3c d7 3a 11 92 cb 3a 40 8c bc 3a ad 29 ba 3a
       0.0016421266 0.0015531202 0.001438506 0.0014203094
000320 ed 69 0e bb 1c 74 03 bb 25 70 f2 ba 07 1a cf ba
       -0.0021730617 -0.002005822 -0.0018496556 -0.0015800603
000330 86 37 a0 ba ba 40 16 bb dc 6d 03 bb 25 af e3 ba
       -0.0012223579 -0.0022926764 -0.0020054495 -0.0017370923
000340 ba c9 b1 ba 03 3b 67 ba 46 52 01 bb 27 0b d7 ba
       -0.0013564148 -0.0008820744 -0.0019732877 -0.0016406522
000350 c5 98 a6 ba 64 b2 4f ba 22 a8 62 b9 93 b4 da ba
       -0.0012710324 -0.00079230056 -0.00021615674 -0.0016685895
000360 35 6e a5 ba 99 3a 53 ba 43 ac 9c b9 95 17 81 39
       -0.0012621345 -0.0008057743 -0.00029882984 0.00024622367
000370 81 ad a0 ba 1a 8e 50 ba 15 2a b4 b9 ae ef 44 39
       -0.001225874 -0.0007955745 -0.0003436363 0.00018781304
000380 e2 d1 22 3a a8 6e 03 bb 4e ac e6 ba f7 3e c6 ba
       0.00062110845 -0.002005497 -0.0017598958 -0.0015124966
000390 6d f2 a0 ba bc 3b 63 ba 03 28 05 bb 58 41 e6 ba
       -0.001227928 -0.0008668264 -0.0020318038 -0.0017567081
0003a0 ff 4e bd ba 52 bb 88 ba 5d 2a 18 ba bf 33 e5 ba
       -0.0014443098 -0.0010431802 -0.00058046525 -0.0017486735
0003b0 f5 66 b0 ba c5 3c 80 ba c3 9c 0d ba d3 ea 10 b8
       -0.0013458418 -0.0009783736 -0.00054020825 -3.4550972e-05
0003c0 6b 1b b7 ba 7e 05 7e ba ee 2e 1d ba 31 1d 0a b9
       -0.0013969963 -0.00096901495 -0.0005996068 -0.0001317158
0003d0 47 d0 bf 39 ee 03 7d ba 51 1b 0d ba 4d da 12 b9
       0.00036585538 -0.00096517697 -0.00053827936 -0.00014004968
0003e0 04 99 82 39 4e ac 37 3a f2 2a 9a b8 d0 cd 68 b9
       0.00024909538 0.00070065714 -7.3512914e-05 -0.00022201915
0003f0 40 e2 e8 b9 8f 19 36 ba 81 35 68 ba 21 67 b7 36
       -0.00044419058 -0.00069465576 -0.00088580704 5.465831e-06
