results/2BS/T_1/L_6000/seed4/checkpoint.pth.tar (torch_old, 395618 bytes, 22 tensors)

layer1.conv.weight f4 [32, 2, 5, 5]
0	0xbb2eb803	-0.0026659973
1	0xbb9ed6e0	-0.0048473924
2	0x3ce0cfb9	0.0274428
3	0xb8dc9942	-0.00010518964
4	0xbd4a1503	-0.049336445
5	0xbd62622c	-0.055269405
6	0xb79fb595	-1.9038833e-05
7	0x3d96bbb0	0.07360017
8	0xbb6b08c1	-0.0035863372
9	0x3d6a06ef	0.05713552
10	0x3d23ebe6	0.040019892
11	0xbc0ad899	-0.0084744925
12	0x3d90436b	0.07044109
13	0xbbc3f291	-0.005979844
14	0x3dea4432	0.114387885
15	0xbcb5f4c7	-0.022211445
16	0xbda8cc77	-0.082421236
17	0xbd2da8db	-0.04239736
18	0x3d0b5167	0.03401318
19	0x3ca11998	0.019665524
20	0xbc5a1f76	-0.013313165
21	0xbc77e529	-0.01513032
22	0x3cc64f1a	0.02420764
23	0xbcf5f8a8	-0.030025795
24	0x3d8ae55a	0.067820266
25	0x3d7d2190	0.061799586
26	0x3d96d506	0.0736485
27	0x3d81029f	0.06299328
28	0x3d7f1fae	0.06228607
29	0xbdb12154	-0.08648935
30	0xbd5e87a1	-0.054328565
31	0xbc080b21	-0.008303435
32	0x3dabd498	0.083901584
33	0x3cd03aef	0.025418727
34	0xbd084ab8	-0.033274382
35	0xbd813759	-0.06309385
36	0x3cc277a0	0.023738682
37	0x3e0c7389	0.13715948
38	0x3e07f99c	0.13278812
39	0x3c62a2fb	0.013832803
40	0x3c01eebd	0.007930455
41	0x3c17a694	0.009256024
42	0x3d47021a	0.04858599
43	0xbcddbbe3	-0.02706713
44	0xbb9a4578	-0.0047079884
45	0x3c1c67fc	0.009546276
46	0x3c281db4	0.010260988
47	0x3e01718b	0.1264097
48	0x3d64c56f	0.05585235
49	0x3d0e28dc	0.034706935
50	0xbb559d71	-0.0032595063
51	0x3da1d6ca	0.07902296
52	0x3daa56b5	0.08317319
53	0x3d815df7	0.063167505
54	0x3e06d72e	0.13168022
55	0xbb961959	-0.0045806584
56	0xbc939c17	-0.018018765
57	0x3ccda3d8	0.02510254
58	0x3cd6cd69	0.026220994
59	0x3db79ddd	0.08965657
60	0xbd066382	-0.03280974
61	0x3da49d6b	0.080378376
62	0x3ccfc78f	0.025363712
63	0x3ddc1915	0.107469715
64	0x3d961085	0.073273696
65	0x3d896f91	0.06710733
66	0xbb65ac43	-0.0035045303
67	0xbc8d04cc	-0.017214201
68	0x3e00d61e	0.12581679
69	0x3c84ce04	0.016211517
70	0x3c4f4c01	0.012652398
71	0x3dde7770	0.10862625
72	0x3cae5a78	0.021283373
73	0x3dbe30bf	0.09286641
74	0x3d1ff702	0.039053924
75	0x3bfe54c0	0.007761568
76	0xbc20d809	-0.009817132
77	0x3bf5ec87	0.007505003
78	0xbd45e530	-0.048314273
79	0xbe0b60d8	-0.13611162
80	0x3c4cb24f	0.012493684
81	0x3cd28fde	0.025703367
82	0xbd9748a5	-0.07386903
83	0xbcbf6cfd	-0.0233674
84	0xbc8f1aaa	-0.01746877
85	0x3b3006eb	0.0026859592
86	0xbd07d2b1	-0.033159915
87	0xbdc74848	-0.097305834
88	0x3b2885ed	0.0025714592
89	0xbd99a5e0	-0.07502341
90	0x3d46f71f	0.048575517
91	0xbd5849d9	-0.0528048
92	0xbd5e64e5	-0.05429544
93	0xbb05e766	-0.0020432114
94	0xbda65fa5	-0.081237115
95	0x3c154c6d	0.00911246
96	0xbd33339d	-0.043750394
97	0xbd446516	-0.047947966
98	0x3d6b0f70	0.05738777
99	0xbdbd414c	-0.0924097
100	0x3d5d75f0	0.054067552
101	0xbd46fe0c	-0.04858212
102	0xbd2de352	-0.042453118
103	0x3d460475	0.048344094
104	0xbcdcbad6	-0.026944559
105	0xbd5a7531	-0.05333442
106	0x3cb6d50a	0.022318382
107	0x3b523dc7	0.003208028
108	0xbc4b59c3	-0.012411538
109	0x3c2eda46	0.010672158
110	0x3cfffe44	0.031249173
111	0x3cccc716	0.024997275
112	0x3d2d6054	0.042328194
113	0x3ca6432f	0.020295708
114	0xbce72bbb	-0.028219094
115	0x3d00ff23	0.031493317
116	0x3c262207	0.010139949
117	0x3c57ff9d	0.013183502
118	0xbd0e9a3d	-0.03481506
119	0x3aca116b	0.0015416568
120	0xbd43a2f2	-0.04776282
121	0xbd772144	-0.06033446
122	0xbc940cf0	-0.018072575
123	0xbcde516e	-0.027138438
124	0x3da1ca4c	0.07899913
125	0xbd814334	-0.06311646
126	0xbcac58f6	-0.021038514
127	0x3b65d3fa	0.0035068975
128	0x3db3e241	0.08783389
129	0x3d1fcb58	0.039012283
130	0xbd0f9feb	-0.03506462
131	0x3c28fd0a	0.010314235
132	0xbcb1b652	-0.021693382
133	0xbc8f0f36	-0.017463308
134	0x3c597bc9	0.013274142
135	0x3bd4fa56	0.006499569
136	0x3d642a55	0.055704433
137	0x3c8dc10c	0.017303966
138	0x3c542ad7	0.012949667
139	0x3db1f2b1	0.08688868
140	0xbce9b568	-0.028528884
141	0xbd3cf235	-0.046129424
142	0xbcaef89f	-0.021358786
143	0x3d8e9b4a	0.06963213
144	0x3c315b0e	0.010824932
145	0xbd847ef0	-0.06469524
146	0xbd172f46	-0.036910318
147	0xbd08ec2d	-0.03342836
148	0x3c97ba9f	0.018521605
149	0x3d8d276c	0.06892285
150	0x3be52a72	0.0069935853
151	0xbd1082b3	-0.035280894
152	0xbbc710ae	-0.0060749864
153	0xbd47d3fc	-0.04878615
154	0x3d10b211	0.035326067
155	0xbd0e6bd4	-0.0347708
156	0x3a9111ee	0.0011067966
157	0x3c4b04a6	0.012391245
158	0xbdcee4d8	-0.10102242
159	0xbaa2d06c	-0.0012421734
160	0x3ce37537	0.027765853
161	0x3baaca3c	0.0052120965
162	0x3cd2f791	0.025752814
163	0xbd841785	-0.064497985
164	0x3c02d9a2	0.007986458
165	0xbd130021	-0.035888795
166	0x3b295ec5	0.002584384
167	0x3ca6a942	0.02034438
168	0xbd8325ca	-0.06403692
169	0xbceb905a	-0.028755356
170	0xbd287774	-0.041129544
171	0xbd045c29	-0.032314453
172	0x3d98ad94	0.074549824
173	0xbc39efd1	-0.011348681
174	0xbd0da065	-0.034576792
175	0xbd9aa18c	-0.07550344
176	0x3d0cc3d0	0.03436643
177	0x3d9d9404	0.07694247
178	0x3d9ed36c	0.07755169
179	0x3cd6a656	0.026202362
180	0x3d17a557	0.037022915
181	0x3d43480e	0.04767614
182	0x3e1e8258	0.1547941
183	0x3d85195f	0.0649898
184	0x3df1fd75	0.11815921
185	0x3d831109	0.063997336
186	0xbcc769d1	-0.02434245
187	0x3d469f0d	0.048491526
188	0x3c070d71	0.008242951
189	0x3db0f89d	0.08641169
190	0xbc76174b	-0.015020202
191	0xbd0f0655	-0.034918148
192	0x3d1dcd08	0.03852561
193	0x3da45519	0.080240436
194	0xbb887c53	-0.004165211
195	0xbd5b62bb	-0.053560954
196	0x3d6949e1	0.056955222
197	0x3bf6154e	0.007509864
198	0xbc860ed0	-0.016364485
199	0x3c36e02c	0.011161845
200	0xbdc9f12c	-0.09860453
201	0x3cc252d6	0.02372114
202	0x3b00abfb	0.0019633758
203	0xbd1a37cd	-0.037650872
204	0xbc372d73	-0.0111802695
205	0x3cc18f14	0.023627795
206	0x3cf168e4	0.029468961
207	0xbcf4e8ae	-0.029896107
208	0xbdabce76	-0.08388989
209	0xbd5d5043	-0.05403162
210	0xbd9c5063	-0.0763252
211	0xbca13944	-0.019680627
212	0xbd0f521b	-0.03499041
213	0x3c9a534e	0.01883855
214	0x3c47b985	0.012190227
215	0xbdf38f97	-0.11892622
216	0xbcd0a36c	-0.02546855
217	0xbe0637e8	-0.13107264
218	0xbd9b11a5	-0.07571725
219	0xbcbdde31	-0.023177238
220	0xbdaae925	-0.0834525
221	0xbbdb2960	-0.006688282
222	0x3c24d834	0.0100613125
223	0xbdd27048	-0.10275322
224	0xbc921e28	-0.017836645
225	0xbdbf671d	-0.09345839
226	0x3c0a1b5f	0.008429377
227	0x3c92cf00	0.01792097
228	0x3cf77a30	0.03020963
229	0x3d36d6af	0.044638332
230	0xbb925342	-0.0044654915
231	0x3d65302d	0.055954147
232	0x3d27c8b1	0.04096288
233	0x3dd81e16	0.105526134
234	0xbbaae580	-0.005215347
235	0xbcb1d33d	-0.021707172
236	0xbc4e5d66	-0.01259551
237	0xbc70da92	-0.014700549
238	0x3d381cd7	0.04494938
239	0xbc996fa2	-0.018729988
240	0x3a55c8ae	0.0008155209
241	0xbc63fd09	-0.013915309
242	0x3aa8fb1a	0.0012892217
243	0x3d7df15c	0.061997756
244	0xbb5b9fd4	-0.0033512013
245	0xbe1730b5	-0.14764674
246	0xbd48921a	-0.04896746
247	0xbd4f1629	-0.050558243
248	0xbd5a7194	-0.053330973
249	0xbd10e4c8	-0.035374433
250	0xbd5e0fe8	-0.054214388
251	0xbc909ae1	-0.017651977
252	0xbdb86645	-0.09003881
253	0x3d7b667f	0.061377045
254	0xbd4d0acd	-0.05005913
255	0xbd19fbc4	-0.037593618

layer1.conv.bias f4 [32]
0	0x3d4d4344	0.050112978
1	0x3e0a05ec	0.13478822
2	0x3db954d7	0.09049385
3	0xbd429ac2	-0.04751087
4	0x3d291702	0.041281708
5	0x3aa3c942	0.0012495893
6	0xbde396cc	-0.111127466
7	0xbd997ce5	-0.07494525
8	0xbe13a20a	-0.14417282
9	0xbd95e95f	-0.07319903
10	0x3e03ba1e	0.12863967
11	0x3d0ce35f	0.034396525
12	0xbda77d6c	-0.08178219
13	0xb587eecd	-1.0127784e-06
14	0xbb16c703	-0.0023006804
15	0xbdbe7a60	-0.09300685
16	0xbc72be77	-0.014815918
17	0xbdf9ea78	-0.122029245
18	0xbde26509	-0.11054427
19	0xbc58aa3a	-0.013224179
20	0x3a93d2fe	0.001127809
21	0xbd8e8e50	-0.06960738
22	0x3e16ac63	0.14714198
23	0xbd0a33ae	-0.03374069
24	0x3d975f7a	0.073912576
25	0xbd7b052a	-0.06128422
26	0xbd4a3928	-0.049370915
27	0x3e04cebd	0.1296949
28	0x3e092064	0.13391262
29	0x3c830297	0.015992446
30	0x3d52f0aa	0.051499046
31	0xbda01ea9	-0.07818348

layer2.conv1.weight f4 [32, 32, 3, 3]
0	0x3d62db03	0.055384647
1	0x3d9f6d36	0.07784502
2	0x3ca7cafe	0.020482536
3	0x3de9bd78	0.114130914
4	0xbc1f1c10	-0.00971128
5	0xbd9389c0	-0.07204008
6	0xbd14d73b	-0.036338072
7	0xbdb4f5b8	-0.0883593
8	0xbcb7bcaf	-0.022428839
9	0x3d404f41	0.046950582
10	0x3e203222	0.15644124
11	0xbcac89c6	-0.02106179
12	0xbd74c88d	-0.059761573
13	0x3d7c5d86	0.06161263
14	0x3c0b777a	0.008512372
15	0xbd547981	-0.051873688
16	0xbd476ccd	-0.048687745
17	0xbd067b02	-0.032832153
18	0x3d11d806	0.035606407
19	0x3d195531	0.03743476
20	0x3b005ad1	0.001958538
21	0xbd97ead9	-0.074178405
22	0x3def6ff6	0.11691277
23	0x3d9a2d52	0.075281754
24	0x3d19ef73	0.037581872
25	0x3d78b003	0.060714733
26	0x3d0f6b8b	0.03501467
27	0xbd27f91f	-0.041009065
28	0xbc39ddd5	-0.011344393
29	0x3e516454	0.20448428
30	0x3e1f602c	0.1556403
31	0xbd4e4bd2	-0.050365277
32	0xbc05b445	-0.008160655
33	0xbd390293	-0.04516847
34	0xbcb7e389	-0.022447364
35	0x3c80b80f	0.015712766
36	0x3e07127a	0.13190642
37	0x3d8e8f73	0.069609545
38	0x3e21faf0	0.15818381
39	0x3d793f24	0.06085123
40	0x3d95a079	0.07305998
41	0x3e256dc3	0.16155152
42	0x3c9350f8	0.017982945
43	0xbd44c751	-0.048041645
44	0x3e085e24	0.13317162
45	0x3d594bf2	0.053050943
46	0xbd161f65	-0.036651034
47	0xbd493f3b	-0.049132567
48	0x3d3a8a25	0.0455419
49	0x3ca206c5	0.019778619
50	0xbc41c0cf	-0.011825754
51	0xbab4f62e	-0.0013806277
52	0x3cdca892	0.02693585
53	0x3cc42fae	0.023948517
54	0xbcfb850f	-0.030703096
55	0xbbe0fbee	-0.00686597
56	0x3b9a9601	0.004717589
57	0xbde9317c	-0.113863915
58	0xbdcfe26a	-0.10150607
59	0xbace3b77	-0.0015734275
60	0x3ca0f06d	0.019645894
61	0xbd0f29ac	-0.03495185
62	0x3ba95305	0.0051673674
63	0x3caa8022	0.020813052
64	0x3c5d6d8c	0.013514888
65	0x3c762ad2	0.015024858
66	0x3b1e88ec	0.0024190499
67	0xbba01115	-0.004884849
68	0xbc0b38b8	-0.0084974095
69	0x3ccca630	0.024981588
70	0x3b9aa6ac	0.004719576
71	0x3ceea08a	0.029129285
72	0x3b882031	0.004154228
73	0x3c0e6822	0.008691819
74	0xba4eca0e	-0.0007888385
75	0xbdda5ccd	-0.106622316
76	0xbb62b77f	-0.0034594235
77	0x3c23e8b8	0.010004215
78	0xbd28bca4	-0.041195527
79	0xbc019c35	-0.007910778
80	0xbc2dea36	-0.010614922
81	0xbc012822	-0.007883104
82	0x3d39eba1	0.04539073
83	0xbd256998	-0.040383905
84	0xbdd9981d	-0.106247164
85	0x3cca77da	0.024715353
86	0xbd002c5b	-0.0312923
87	0x3cf33103	0.029686457
88	0xbda9befb	-0.0828838
89	0xbb5ce4a5	-0.0033705619
90	0xbdf993ef	-0.12186419
91	0x3d5cde64	0.053923026
92	0xbcdd12e4	-0.026986547
93	0xbdab7a46	-0.08372931
94	0xbd10a280	-0.035311222
95	0xbc81589b	-0.01578932
96	0x3db9fce8	0.09081441
97	0xbdb6d703	-0.08927729
98	0x3c65db57	0.0140293455
99	0x3d067694	0.03282793
100	0x3caacfb2	0.02085099
101	0xbe429b00	-0.1900444
102	0xbc3c56de	-0.01149532
103	0x3d160bc4	0.036632314
104	0x3c5de7f2	0.01354407
105	0xbd62e260	-0.05539167
106	0x3c1adca0	0.009452015
107	0x3d5596bd	0.05214571
108	0xbb70783c	-0.003669276
109	0x3caa380c	0.020778678
110	0xbc239fe1	-0.009986849
111	0xbc6ef18e	-0.014583958
112	0xbce44045	-0.027862677
113	0xbdd64fe3	-0.10464456
114	0x3cb9db6b	0.022687634
115	0xbcf60a39	-0.030034171
116	0x3d485617	0.048910227
117	0x1e31f652	9.42124e-21
118	0x25c64905	3.4397005e-16
119	0x2001cb9f	1.0994098e-19
120	0x1e0560a0	7.060943e-21
121	0x25dc7ab4	3.8247063e-16
122	0xa6279a5a	-5.814895e-16
123	0x24aaeb82	7.4124713e-17
124	0x274564d3	2.7393899e-15
125	0xaa0be68f	-1.2425671e-13
126	0x3db8f96d	0.09031949
127	0xbd643fbb	-0.05572484
128	0x3c6a3cdc	0.014296737
129	0x3d539453	0.051655125
130	0x3bef9d96	0.007312487
131	0x3d218ed9	0.03944287
132	0x3d6ab61b	0.057302576
133	0x39b6e7c5	0.00034886427
134	0xbb92b731	-0.0044774045
135	0x3d8746d8	0.06605309
136	0xbb3dbf35	-0.002895308
137	0x3bddafee	0.006765357
138	0xbd894006	-0.067016646
139	0xbd2b1b21	-0.04177392
140	0x3d6ecb0c	0.05829911
141	0x3c420ee7	0.011844373
142	0xbd351400	-0.044208527
143	0x3cb67f94	0.02227763
144	0xbd07d3c4	-0.03316094
145	0xbb829ca3	-0.0039859577
146	0xbe00bba5	-0.1257158
147	0xbd05c290	-0.032656252
148	0x3cd04256	0.025422256
149	0xbd816d13	-0.063196324
150	0xbe0d4baf	-0.13798402
151	0x3b41ab35	0.002955151
152	0x3de02453	0.10944428
153	0xbbfb1913	-0.007662901
154	0xbd87da80	-0.066334724
155	0xbaf97719	-0.0019032686
156	0x3ccb2724	0.024798937
157	0xbda7d2c6	-0.08194499
158	0xbbe85730	-0.0070904717
159	0x3b522a5f	0.0032068712
160	0x3d1ff68e	0.039053492
161	0xbe051171	-0.12994935
162	0x3d16c8f2	0.03681273
163	0x3b107dac	0.0022047563
164	0xbcc836a8	-0.024440125
165	0x3b840c96	0.0040298207
166	0x3b791fe3	0.003801339
167	0xbd090d7c	-0.033460125
168	0xbc2a8eaa	-0.01040999
169	0xbb9b2007	-0.0047340426
170	0xbbeea1cc	-0.0072824713
171	0x3c5cb21e	0.013470201
172	0x3c5e7333	0.01357727
173	0x3c81f2f1	0.015862914
174	0x399cb214	0.00029887317
175	0x3c02cb40	0.007983029
176	0x3d82caf2	0.06386365
177	0x3c20e7dc	0.009820905
178	0xbbf3f295	-0.0074446895
179	0x3de64b70	0.11244857
180	0x3c891b9a	0.016736794
181	0xbcf7c615	-0.03024582
182	0x3c831be7	0.016004516
183	0xb9a6163f	-0.00031678562
184	0x3d9b704e	0.0758978
185	0xbd835bf4	-0.06414023
186	0x3c2fc6a3	0.010728511
187	0xbd00e8ba	-0.031471945
188	0xbe104261	-0.14087822
189	0x3c6fc278	0.014633767
190	0x3bc3daf9	0.0059770313
191	0x3b9834c9	0.0046449644
192	0x3c78d152	0.015186625
193	0x3c0fcd05	0.008776908
194	0xbb882d03	-0.0041557564
195	0x3d065933	0.03279991
196	0x3b1b7099	0.0023718236
197	0x3c84010d	0.016113782
198	0x3de42c55	0.11141268
199	0xbda89435	-0.08231393
200	0x3d5ac66a	0.05341188
201	0x3e4b2d8c	0.19841594
202	0x3d99773b	0.074934445
203	0xbdb678b8	-0.08909744
204	0x3d987285	0.07443718
205	0x3c6c1267	0.014408684
206	0x3d96d8bd	0.07365558
207	0x3cd71640	0.026255727
208	0x3c81109c	0.01575499
209	0x3d5c719d	0.053819288
210	0xbd22efca	-0.039779462
211	0x3d5cc88c	0.053902194
212	0x3e0d35e5	0.1379009
213	0x3d92ec79	0.0717401
214	0x3d058427	0.032596733
215	0xbcedf6fd	-0.029048437
216	0xbdb8daf6	-0.090261385
217	0x3da308a3	0.07960632
218	0xbd6e8e68	-0.058241278
219	0x3d379578	0.04482028
220	0x3d4cacdd	0.049969543
221	0xbc98e78e	-0.018665101
222	0xbdd8ec14	-0.10591903
223	0x3c70da24	0.014700446
224	0xbe169f31	-0.14709164
225	0x3da28c58	0.07936925
226	0x3dbe2c78	0.092858255
227	0xbca29922	-0.01984841
228	0xbad95537	-0.0016581182
229	0x3b0cd45c	0.002148888
230	0xbdeb90e1	-0.11502243
231	0xbcd6a6cd	-0.026202584
232	0xbd03bfaf	-0.032165226
233	0x3c67d48a	0.014149794
234	0x3d931d6e	0.07183348
235	0xbce859c3	-0.028363114
236	0x3d60c2c0	0.054873228
237	0xbb98a837	-0.0046587246
238	0xbd4789f9	-0.048715565
239	0x3db9c1b6	0.090701506
240	0xbc2ff340	-0.010739148
241	0x3c49f214	0.012325782
242	0xbdc7f90c	-0.09764299
243	0x3d9939e9	0.074817486
244	0xbccd241f	-0.025041638
245	0xbd942405	-0.07233433
246	0xbd9d6735	-0.07685701
247	0x3e0fe28d	0.14051266
248	0xbd2acd87	-0.041699912
249	0xbd96d4c1	-0.07364798
250	0x3cc54acd	0.02408352
251	0xbd64d00b	-0.055862468
252	0xbc6624c5	-0.0140468525
253	0xbb63b2e4	-0.0034744078
254	0x3c0de216	0.00865986
255	0x3d465498	0.04842052

layer2.conv1.bias f4 [32]
0	0x3d956d74	0.07296267
1	0xbb5bac07	-0.0033519284
2	0xbd537931	-0.05162925
3	0xbc20659c	-0.009789851
4	0x3bd864f4	0.0066038314
5	0xbbfecc2d	-0.0077758045
6	0xbbf02823	-0.0073290034
7	0x3d1a5b35	0.037684638
8	0xbd532722	-0.05155099
9	0xbc98e6b6	-0.018664699
10	0x3cc36a62	0.023854438
11	0x3d44eedc	0.048079357
12	0x3c84edc7	0.016226662
13	0xba3d2076	-0.0007214615
14	0x3d7e065b	0.06201778
15	0x3d0ca2a6	0.0343348
16	0xb156b451	-3.1243597e-09
17	0x3c720f22	0.014774116
18	0x3cca1486	0.02466799
19	0xbd7b9fbb	-0.061431628
20	0x3d0b8219	0.034059618
21	0x3cc6c19e	0.024262246
22	0xbbbb5a79	-0.0057175723
23	0xbc5b1b82	-0.013373258
24	0xbc39a329	-0.011330404
25	0xbc90518c	-0.01761701
26	0x3d48638c	0.04892306
27	0xbd03b233	-0.032152366
28	0xbc375f32	-0.01119213
29	0x3d0d2fa6	0.03446927
30	0xbcfc924f	-0.030831484
31	0x3b92c836	0.0044794334

layer2.conv2.weight f4 [64, 32, 3, 3]
0	0xba2064c1	-0.0006118529
1	0x3b18f788	0.00233409
2	0xbb7ab017	-0.003825193
3	0x3bc89735	0.006121541
4	0xbc814dde	-0.0157842
5	0x3cb5525f	0.022134004
6	0x3c8644ff	0.016390322
7	0xbc0f2717	-0.008737347
8	0xbac3256a	-0.001488847
9	0x3b5c24ca	0.0033591264
10	0xbb0fc73a	-0.0021938817
11	0xb92f20c3	-0.00016701505
12	0xbc8d6edb	-0.017264774
13	0xba030fec	-0.0004999626
14	0xbc1d7978	-0.00961148
15	0x3d11645d	0.035496105
16	0x3ca0fb3f	0.019651053
17	0xbc4cae5c	-0.012492742
18	0x3b7c8d1b	0.0038536254
19	0x3b9294f0	0.004473321
20	0xbc0b83ef	-0.008515342
21	0xbb314cce	-0.0027053836
22	0xbc8eb694	-0.017421044
23	0x3d007946	0.031365655
24	0xbc8f4d89	-0.017493026
25	0x3d3cdd89	0.04610971
26	0xbce78afb	-0.028264513
27	0x3bbdabc4	0.0057882983
28	0x3b9ec76c	0.0048455503
29	0xb9ca75e9	-0.00038616292
30	0x3c5893fe	0.013218878
31	0x3c1f1f22	0.0097120125
32	0xbc5aafb0	-0.013347551
33	0xbb6cbdd5	-0.003612389
34	0xbbb550a7	-0.005533296
35	0x3cb988d9	0.022648262
36	0x3c35c701	0.0110948095
37	0xbaa1429b	-0.0012303175
38	0x3a774514	0.00094325957
39	0xbc7afc49	-0.0153189385
40	0xba40638b	-0.0007339052
41	0xbb8d574c	-0.004313385
42	0x3d0133ca	0.03154353
43	0x3ced0c63	0.02893657
44	0xbc1c1f71	-0.009528981
45	0x3acc3e46	0.0015582524
46	0x3ae83dff	0.0017718672
47	0x3c1bd81d	0.009511975
48	0x3b240cdf	0.0025032086
49	0xb9f918dc	-0.00047511503
50	0xbafea929	-0.0019429076
51	0x3ad89929	0.0016525137
52	0x3b1cfb47	0.0023953484
53	0x3c0c697a	0.008570069
54	0x3ba12544	0.0049177725
55	0x3b84bb7b	0.0040506697
56	0x3bdc201f	0.0067176963
57	0xbb2c1629	-0.0026258326
58	0x3c177872	0.009245025
59	0x3bd0b99f	0.006369784
60	0x3c4beb5d	0.012446252
61	0xbad3abe1	-0.0016149246
62	0xbc4660b7	-0.01210802
63	0xbaef1aba	-0.0018242218
64	0xbb55f8b9	-0.003264947
65	0xba4f84cf	-0.00079162134
66	0xbb695059	-0.003560087
67	0x37fa797c	2.9858893e-05
68	0x3b2a1619	0.0025953113
69	0x3adfa5ee	0.0017063001
70	0xbb623c2e	-0.0034520733
71	0x3b5cb52d	0.0033677325
72	0x3c182a27	0.009287394
73	0x3c0fa000	0.008766174
74	0x3b00a439	0.0019629134
75	0xbbb6a592	-0.0055739367
76	0xbcd2bb4b	-0.025724074
77	0xbc1d65b4	-0.009606767
78	0xbbe9b75d	-0.0071324543
79	0x3c6f39d9	0.014601194
80	0x3cba50cd	0.022743607
81	0xbba8e00b	-0.005153661
82	0x3b10242c	0.0021994216
83	0x3b79b38d	0.0038101405
84	0xbaf8ecd8	-0.0018991483
85	0xbbc23892	-0.005927154
86	0x3ae5f0c3	0.0017543066
87	0xba8531de	-0.0010161956
88	0x39f87139	0.00047386604
89	0xba408078	-0.0007343362
90	0xbb118406	-0.0022203936
91	0x39e9bf62	0.00044583814
92	0x39ae4a3b	0.00033243172
93	0x3b1e8f86	0.0024194433
94	0x3a4233e0	0.00074082427
95	0x3a411028	0.0007364773
96	0x3b0d93e2	0.0021603038
97	0xbba78585	-0.0051123523
98	0xbbc2491a	-0.0059291245
99	0x3bbe959d	0.005816175
100	0x3c5ff652	0.013669567
101	0x3ab6fe9d	0.0013961379
102	0xbd30aaf9	-0.043131802
103	0xbd0831c8	-0.0332506
104	0x3c3ff759	0.011716687
105	0x3d7b73e1	0.061389808
106	0x3ccc5378	0.024942145
107	0xbd7cfc80	-0.06176424
108	0x3b9f3d06	0.0048595695
109	0x3b8161b2	0.0039484138
110	0xb9d69d34	-0.00040934386
111	0x3c09f60b	0.008420478
112	0x3be54086	0.006996217
113	0x3b7daaf5	0.0038706635
114	0xba249363	-0.0006278066
115	0x3aacbdb2	0.0013179092
116	0x3d16f60f	0.036855754
117	0xbbb961b2	-0.005657398
118	0xbb90675f	-0.004406854
119	0xbab16c7c	-0.0013536359
120	0x386646c6	5.4902186e-05
121	0x3b9594b0	0.004564844
122	0x3aaf6507	0.0013381549
123	0xbb86b6ff	-0.0041111703
124	0xbc22dce6	-0.009940362
125	0x3c8147a1	0.015781226
126	0x3a1cc306	0.00059799885
127	0x3bf06250	0.0073359385
128	0xbb4d2a6a	-0.0031305798
129	0x3b613a3d	0.0034366988
130	0x3beb5887	0.007182184
131	0x3a178f1f	0.00057815196
132	0x3b76bb74	0.0037648352
133	0xbc8fdd35	-0.017561534
134	0x3bf6d5a0	0.0075327903
135	0x3bdf026f	0.00680571
136	0x3c3c100e	0.011478437
137	0x3af8d58d	0.0018984542
138	0x3b9882b8	0.0046542548
139	0x3c851192	0.01624373
140	0x3ab70742	0.0013963955
141	0xbc10c670	-0.008836374
142	0xbc5ad1ec	-0.013355713
143	0xbc8cef10	-0.017203838
144	0x800116aa	-9.9966e-41
145	0x00012641	1.05558e-40
146	0x00003e14	2.227e-41
147	0x80012b9a	-1.07477e-40
148	0x800184f0	-1.39524e-40
149	0x00018314	1.38857e-40
150	0x8001986e	-1.46517e-40
151	0x0001194f	1.00915e-40
152	0x0001043d	9.3356e-41
153	0xba9ece97	-0.0012116012
154	0xb9fc6b95	-0.0004814534
155	0xbb0a6496	-0.0021117083
156	0xbb0516ef	-0.002030786
157	0x3b813d4b	0.0039440743
158	0xbc92da50	-0.017926365
159	0xbb19b506	-0.0023453846
160	0x3c599bc7	0.013281769
161	0x3c21f746	0.009885615
162	0x3bbfca3e	0.0058529666
163	0x3c06de6f	0.008231743
164	0x3c395799	0.011312389
165	0x39b69a18	0.00034828554
166	0x3aa6a287	0.0012713232
167	0x3a82761d	0.0009953413
168	0x3c678d53	0.014132815
169	0xbcc2d1f6	-0.023781758
170	0xbcf9d213	-0.030495679
171	0xb95d3456	-0.00021095699
172	0x3b94145a	0.0045190277
173	0x3bf57008	0.007490162
174	0x3c27790f	0.010221734
175	0x3acbceb8	0.0015549278
176	0xbbf6a4cd	-0.00752697
177	0xbca1e05a	-0.0197603
178	0xba46d2a5	-0.0007584489
179	0xbc2739e3	-0.010206672
180	0xbb5a4477	-0.0033304968
181	0xbb468f8d	-0.0030297965
182	0x39cbfae2	0.000389061
183	0x3af31294	0.0018544965
184	0xbbf4cfc6	-0.0074710576
185	0xbcf1bc98	-0.029508874
186	0x3b875075	0.0041294643
187	0x3bb5f905	0.005553367
188	0x3cb439f4	0.02200029
189	0x3b9aeefe	0.004728197
190	0x3b466815	0.003027444
191	0x3adcba94	0.0016840273
192	0x3bb5dd1c	0.00555004
193	0xbbffb77a	-0.0078038545
194	0xbc2ac37b	-0.010422583
195	0xbd333d6d	-0.043759752
196	0x3cad3646	0.021144044
197	0x3ce31c26	0.027723383
198	0x3c160843	0.009157243
199	0x3bd1aa7e	0.006398498
200	0x3be68dca	0.0070359455
201	0x3b98265a	0.0046432437
202	0x3b8f3594	0.0043704007
203	0xbacdef74	-0.0015711621
204	0xbc2791a4	-0.0102275945
205	0xbbbdda35	-0.0057938346
206	0xbb1f07b9	-0.0024266078
207	0x3a466e0c	0.0007569499
208	0x39a0e82f	0.00030690568
209	0xb9c929a2	-0.00038368726
210	0x3900fd5a	0.00012301412
211	0x3b77ba6e	0.003780033
212	0xb938a410	-0.00017608725
213	0xb944b369	-0.00018758852
214	0x3c1a3048	0.009410925
215	0xba169fdc	-0.0005745867
216	0xbc39b462	-0.0113345105
217	0xbbaa27fd	-0.0051927553
218	0x3beac4a3	0.007164554
219	0xbc1418ff	-0.009039163
220	0xbb990078	-0.0046692453
221	0x3b294944	0.0025831023
222	0x3d0e9b35	0.034815986
223	0xbb6d936d	-0.0036251203
224	0x3c5eea04	0.013605598
225	0x3b813321	0.0039428626
226	0x3bf8e457	0.0075955796
227	0x3c95b13f	0.018272994
228	0x3aaeca85	0.0013335502
229	0x3c34a10c	0.011024725
230	0xbc8b8803	-0.017032629
231	0xbd44c521	-0.04803956
232	0xbcc2ee21	-0.02379519
233	0x3d16782f	0.03673571
234	0xbaf7ea7c	-0.0018914486
235	0xbaa72c15	-0.0012754226
236	0x3b5f47cd	0.0034069896
237	0x3b0414b7	0.0020153949
238	0x3b69cdca	0.0035675638
239	0x3a113bab	0.0005540202
240	0xbae9adea	-0.001782832
241	0xbb99dd71	-0.0046955873
242	0xbb7c6179	-0.0038510247
243	0x3b89eb44	0.004208954
244	0xbac6da29	-0.0015171218
245	0x3b9b20a4	0.0047341157
246	0xbbfa5af0	-0.007640235
247	0xbc9d6f19	-0.019218015
248	0x3ae40287	0.0017395773
249	0x3a9040f3	0.0011005685
250	0x3bdda101	0.006763578
251	0xbd4932c6	-0.049120687
252	0xbaae849c	-0.0013314667
253	0x3a9b2763	0.00118373
254	0x3c235fa2	0.009971531
255	0xbc5c79c9	-0.01345677

layer2.conv2.bias f4 [64]
0	0x3c6c32c5	0.014416401
1	0xbc9f95bb	-0.019480577
2	0xbaf5f20c	-0.0018764152
3	0x3d240444	0.04004313
4	0x3c4cb4a8	0.012494244
5	0x3bef1b30	0.007296942
6	0xbd491237	-0.049089637
7	0x3d14f1c3	0.036363374
8	0xbc8b8819	-0.01703267
9	0x3d3944cd	0.04523163
10	0x3c72cd21	0.014819414
11	0x3c5a970a	0.013341675
12	0x3ce3e317	0.027818246
13	0xbd010bf1	-0.03150553
14	0x3ca64322	0.020295683
15	0xbbc0ecf1	-0.0058876206
16	0xbd0003a9	-0.03125349
17	0xbc29b440	-0.010357916
18	0xbd18322c	-0.037157223
19	0xbd6ba56c	-0.057530805
20	0xbcdd553c	-0.027018182
21	0x3cc32b2e	0.0238243
22	0xbd40f695	-0.04711016
23	0xbd146dcc	-0.036237523
24	0xbbb0cd08	-0.0053955354
25	0x3bf7574c	0.0075482484
26	0x3ac0b153	0.0014701284
27	0xbd150ee4	-0.036391154
28	0x3c64d70e	0.013967289
29	0xb554638f	-7.912103e-07
30	0x3a783835	0.0009468825
31	0xbbb6bf61	-0.0055770134
32	0x3d83e07a	0.064393
33	0x3d47b1d0	0.04875356
34	0x3c2a6735	0.010400583
35	0xbc756446	-0.01497752
36	0x3bef708d	0.0073071183
37	0xbc98299e	-0.018574532
38	0x3b77a000	0.0037784576
39	0xbd95dd25	-0.073175706
40	0xbd27ee70	-0.040998876
41	0xbd116bff	-0.035503384
42	0xbd078599	-0.033086393
43	0xbc379ccd	-0.011206818
44	0xbc262ec5	-0.010142987
45	0xbd0eb47a	-0.034840085
46	0x3d0dc147	0.03460815
47	0x3cd16c0d	0.025564218
48	0xbc978068	-0.018493846
49	0xb28221f1	-1.5149427e-08
50	0xbd3d88f5	-0.04627319
51	0xbb74d49e	-0.0037358175
52	0x3b6133f3	0.003436324
53	0xbc224099	-0.009903097
54	0x3c2b37c7	0.01045031
55	0x3c753252	0.014965611
56	0xbd0dd894	-0.034630373
57	0xbc958409	-0.018251436
58	0xbc3a8446	-0.0113840755
59	0xbd313d46	-0.043271326
60	0x3c82b650	0.015956074
61	0x3d236c3c	0.039898142
62	0xbbadd5f4	-0.005305046
63	0xbc2c6407	-0.010521895

fc1.weight f4 [1, 3200]
0	0xba575a05	-0.0008215013
1	0x3a33449b	0.0006838531
2	0xbb523e88	-0.0032080729
3	0x3c8de88a	0.017322797
4	0xbcc90c73	-0.024542069
5	0xbce389dd	-0.0277757
6	0xbaaf6ec9	-0.0013384457
7	0x3b808dc0	0.003923148
8	0xbc91bc53	-0.017789995
9	0x3bfdb02e	0.0077419495
10	0xb9c0dfbe	-0.00036787795
11	0xbbca7cf9	-0.0061794487
12	0xb90dbf0b	-0.00013517977
13	0x3ab1bbde	0.0013560017
14	0xbbb14568	-0.005409885
15	0xbb6feab0	-0.003660839
16	0x3b9c5589	0.004770939
17	0xba83d9ff	-0.0010059475
18	0x3994d400	0.00028386712
19	0xbb4d163f	-0.0031293777
20	0xbba62112	-0.0050698603
21	0x3b099341	0.0020992311
22	0xbbde5815	-0.0067854025
23	0xbc204beb	-0.009783725
24	0x3af5e342	0.0018759745
25	0x3ba21707	0.0049465927
26	0x3baf1388	0.0053429045
27	0xbbbff695	-0.0058582523
28	0x39120c4a	0.00013928223
29	0x3b524f51	0.0032090733
30	0x3b215e37	0.0024622807
31	0xbba26283	-0.004955591
32	0xbb96b3b6	-0.00459906
33	0x3bef9c55	0.0073123374
34	0xbb1ef3f3	-0.0024254292
35	0xbb8c7f21	-0.004287616
36	0xbbf47895	-0.0074606636
37	0xbbff1eca	-0.0077856528
38	0xb9ff94ee	-0.0004874835
39	0xbb7216d0	-0.0036939867
40	0x395e2615	0.00021185756
41	0x3b058d91	0.002037857
42	0x3b64e193	0.0034924492
43	0xbbf015a2	-0.0073267976
44	0x3abb6852	0.0014298058
45	0x3a6fc485	0.000914641
46	0xb886e6fd	-6.432643e-05
47	0x3af68e87	0.0018810787
48	0x3a85a181	0.0010195227
49	0xb8f5434b	-0.00011695045
50	0x3c210b41	0.009829343
51	0x0002237c	1.964e-40
52	0x38c8747e	9.5584415e-05
53	0x375263ad	1.2540183e-05
54	0x3d8c8847	0.0686193
55	0xbc52c49e	-0.01286426
56	0x8002752d	-2.25706e-40
57	0xb7e14e52	-2.685856e-05
58	0x3b4f838e	0.0031664106
59	0x8001032e	-9.2976e-41
60	0xb8b55488	-8.646498e-05
61	0xa5fe2f54	-4.4094047e-16
62	0x3c115901	0.008871318
63	0xbd375358	-0.044757217
64	0xbd887bcc	-0.066642374
65	0xbcda33d5	-0.026636044
66	0x38b42be2	8.591243e-05
67	0x3a590eda	0.0008280106
68	0xbb6b066d	-0.0035861984
69	0xbc74976c	-0.01492868
70	0xbb2c63fa	-0.0026304708
71	0x2dbe569b	2.163896e-11
72	0x3cc2f3e3	0.023797935
73	0x3af3738c	0.0018573864
74	0x3b9484be	0.0045324257
75	0xbdd623b2	-0.10456027
76	0xb241f488	-1.12896785e-08
77	0xbb1ccb09	-0.002392473
78	0x3c8b3d99	0.016997145
79	0x3c7c97f8	0.015417092
80	0xbb3ae8db	-0.002852014
81	0xbb3a28c4	-0.0028405646
82	0x3b424571	0.002964344
83	0xbc16d392	-0.009205716
84	0x3c38b3cb	0.011273335
85	0x3ce68050	0.028137356
86	0x3bc69093	0.006059715
87	0xbaab034d	-0.0013047248
88	0x3a67d5eb	0.0008843827
89	0xba016c11	-0.00049370626
90	0x3c9d964b	0.019236704
91	0x3be4483b	0.0069666184
92	0xbcb8f3b7	-0.02257715
93	0xbc89480b	-0.016757986
94	0xbdd980ab	-0.106202446
95	0xbc6b996a	-0.0143798385
96	0x3d4a369f	0.049368497
97	0x3c772603	0.015084746
98	0x37a60338	1.9790241e-05
99	0xbbe682ce	-0.007034636
100	0xbbd2b7d9	-0.0064306078
101	0xbc7368f5	-0.014856567
102	0xbaac3e5d	-0.0013141144
103	0xbc9631c3	-0.018334275
104	0xbc648620	-0.0139479935
105	0xbd0149d3	-0.031564545
106	0x3c9a51bf	0.018837808
107	0x3890361c	6.876534e-05
108	0xbc601290	-0.013676301
109	0xbbb866ae	-0.0056274747
110	0xbb51e05c	-0.0032024598
111	0x3c144c16	0.009051343
112	0xbaeb9516	-0.0017973508
113	0xbc215ddb	-0.009849037
114	0x3cf32106	0.029678833
115	0xbc5a3148	-0.013317414
116	0x3d7aeb59	0.0612596
117	0xbc8758bd	-0.016521806
118	0x3d058ef4	0.032607034
119	0xbc256650	-0.010095194
120	0xbbdc48ac	-0.0067225304
121	0x3b29f8cc	0.0025935648
122	0xbbd316ae	-0.0064419126
123	0xbc21c21b	-0.0098729385
124	0x3d9b8092	0.07592882
125	0xbc4353bf	-0.011921822
126	0x3bcf4680	0.006325543
127	0xbb2883c3	-0.0025713302
128	0xbc302382	-0.010750653
129	0x3c07fe04	0.008300308
130	0xbba00245	-0.004883083
131	0xbc7ba98c	-0.015360247
132	0x3ba779b6	0.0051109446
133	0x3c849e8b	0.01618888
134	0x3d3d7dc4	0.046262518
135	0xbd285975	-0.041100938
136	0xbd62f7ef	-0.05541223
137	0xbcba684f	-0.022754816
138	0xbafa60da	-0.001910235
139	0xbbe63087	-0.007024828
140	0x3c8e746c	0.017389499
141	0x3b570053	0.003280659
142	0x3bb08924	0.005387442
143	0xbcc73a5c	-0.02431982
144	0xbd95a945	-0.07307676
145	0xbd2edb1b	-0.042689424
146	0x3cc03288	0.023461595
147	0x3c0c30f2	0.008556591
148	0x3ae68df0	0.0017589908
149	0xbc626201	-0.013817311
150	0x39897ea4	0.0002622503
151	0xb4177994	-1.4107201e-07
152	0x000242c2	2.07619e-40
153	0x800273be	-2.25191e-40
154	0x80023880	-2.0394e-40
155	0xb6cd4abf	-6.1181777e-06
156	0xb89298e4	-6.9903006e-05
157	0x000055fb	3.0844e-41
158	0x8001e182	-1.72732e-40
159	0x8002460b	-2.08798e-40
160	0xbbda443a	-0.0066609653
161	0xbab06339	-0.0013457305
162	0x00017d20	1.36722e-40
163	0x000219e4	1.92959e-40
164	0x00004fda	2.8645e-41
165	0x38c72f25	9.497841e-05
166	0xbc348650	-0.011018351
167	0x0001296c	1.06695e-40
168	0x00007137	4.0614e-41
169	0x00019634	1.45718e-40
170	0xbaad205d	-0.0013208498
171	0x3b5a9d2b	0.003335784
172	0x3af6d09d	0.0018830482
173	0x933559dc	-2.2889716e-27
174	0x80015b95	-1.24689e-40
175	0xbdd3cc4b	-0.103417
176	0xbc25eb36	-0.010126879
177	0x3c401038	0.011722617
178	0x909a8b32	-6.0956754e-29
179	0x000195a7	1.4552e-40
180	0x3cbfcd1c	0.023413233
181	0x3ca92f1a	0.020652343
182	0x3b0cde9b	0.0021494988
183	0x00009f5c	5.7167e-41
184	0xb8ac1938	-8.2062965e-05
185	0xbd94c22b	-0.07263597
186	0x3d464391	0.04840428
187	0x3b827f20	0.0039824396
188	0x800015b2	-7.783e-42
189	0x8002856c	-2.31534e-40
190	0xbbf1fe55	-0.007385055
191	0x3c02c80f	0.007982268
192	0x00023597	2.02895e-40
193	0x0000625f	3.5289e-41
194	0xbbf96f52	-0.0076121474
195	0x3d518edd	0.051161636
196	0x3de30814	0.11085525
197	0x0001ed39	1.76935e-40
198	0x80029bbc	-2.39538e-40
199	0x0000e3a3	8.166e-41
200	0x3b4d38ea	0.003131444
201	0x3af17c80	0.0018423945
202	0xbb175165	-0.0023089286
203	0xbca9de2b	-0.02073582
204	0xbd73b8dd	-0.05950247
205	0x3d8b4741	0.068007
206	0xbc4d8e3d	-0.012546119
207	0xbc259e82	-0.010108592
208	0xbc3b4dff	-0.01143217
209	0x3caba0e1	0.020950736
210	0x37f48f86	2.91539e-05
211	0x3ba883c4	0.005142661
212	0x3b13f144	0.0022574225
213	0xbd41a1ab	-0.04727332
214	0xbe02d50c	-0.12776583
215	0xbc755401	-0.014973641
216	0xbc62afa8	-0.013835825
217	0x3b881e00	0.004153967
218	0x3b8f5dab	0.0043751798
219	0x3cc3e715	0.0239139
220	0x3b315144	0.0027056495
221	0x36151cab	2.2219417e-06
222	0x8002d0f5	-2.5863e-40
223	0xbce691fe	-0.028145786
224	0x3abeb9d7	0.0014551234
225	0xbcf654a5	-0.030069659
226	0xbbecc4a1	-0.0072255884
227	0x80007753	-4.2805e-41
228	0x3c7fc61e	0.0156112
229	0xbcbffde4	-0.023436494
230	0x3cf43640	0.029811025
231	0x3ba5d84c	0.005061185
232	0x80016edc	-1.31604e-40
233	0xbcb34c8c	-0.021887086
234	0xbd4fa994	-0.05069883
235	0xbd5440a5	-0.051819462
236	0xbbe1f535	-0.006895686
237	0x00025c33	2.16746e-40
238	0x3b83a2c1	0.0040172045
239	0x3ba125ce	0.0049178367
240	0xbc200eef	-0.009769185
241	0xba00f303	-0.0004919024
242	0x3ac46716	0.0014984335
243	0x3c1eb375	0.009686341
244	0x3d66c251	0.05633766
245	0xbda9aa38	-0.0828442
246	0xbcf02ac8	-0.029317275
247	0x3982e955	0.00024969378
248	0x3b30f2e7	0.002700025
249	0x398cdbc8	0.0002686663
250	0x3a6d23f8	0.0009046192
251	0xbc9bc3f3	-0.019014334
252	0xbbed5080	-0.0072422624
253	0x3bb44040	0.0055008233
254	0xbbfbc2fe	-0.007683157
255	0x3d0f69de	0.035013072

out.0.weight f4 [1, 3200]
0	0xba575a05	-0.0008215013
1	0x3a33449b	0.0006838531
2	0xbb523e88	-0.0032080729
3	0x3c8de88a	0.017322797
4	0xbcc90c73	-0.024542069
5	0xbce389dd	-0.0277757
6	0xbaaf6ec9	-0.0013384457
7	0x3b808dc0	0.003923148
8	0xbc91bc53	-0.017789995
9	0x3bfdb02e	0.0077419495
10	0xb9c0dfbe	-0.00036787795
11	0xbbca7cf9	-0.0061794487
12	0xb90dbf0b	-0.00013517977
13	0x3ab1bbde	0.0013560017
14	0xbbb14568	-0.005409885
15	0xbb6feab0	-0.003660839
16	0x3b9c5589	0.004770939
17	0xba83d9ff	-0.0010059475
18	0x3994d400	0.00028386712
19	0xbb4d163f	-0.0031293777
20	0xbba62112	-0.0050698603
21	0x3b099341	0.0020992311
22	0xbbde5815	-0.0067854025
23	0xbc204beb	-0.009783725
24	0x3af5e342	0.0018759745
25	0x3ba21707	0.0049465927
26	0x3baf1388	0.0053429045
27	0xbbbff695	-0.0058582523
28	0x39120c4a	0.00013928223
29	0x3b524f51	0.0032090733
30	0x3b215e37	0.0024622807
31	0xbba26283	-0.004955591
32	0xbb96b3b6	-0.00459906
33	0x3bef9c55	0.0073123374
34	0xbb1ef3f3	-0.0024254292
35	0xbb8c7f21	-0.004287616
36	0xbbf47895	-0.0074606636
37	0xbbff1eca	-0.0077856528
38	0xb9ff94ee	-0.0004874835
39	0xbb7216d0	-0.0036939867
40	0x395e2615	0.00021185756
41	0x3b058d91	0.002037857
42	0x3b64e193	0.0034924492
43	0xbbf015a2	-0.0073267976
44	0x3abb6852	0.0014298058
45	0x3a6fc485	0.000914641
46	0xb886e6fd	-6.432643e-05
47	0x3af68e87	0.0018810787
48	0x3a85a181	0.0010195227
49	0xb8f5434b	-0.00011695045
50	0x3c210b41	0.009829343
51	0x0002237c	1.964e-40
52	0x38c8747e	9.5584415e-05
53	0x375263ad	1.2540183e-05
54	0x3d8c8847	0.0686193
55	0xbc52c49e	-0.01286426
56	0x8002752d	-2.25706e-40
57	0xb7e14e52	-2.685856e-05
58	0x3b4f838e	0.0031664106
59	0x8001032e	-9.2976e-41
60	0xb8b55488	-8.646498e-05
61	0xa5fe2f54	-4.4094047e-16
62	0x3c115901	0.008871318
63	0xbd375358	-0.044757217
64	0xbd887bcc	-0.066642374
65	0xbcda33d5	-0.026636044
66	0x38b42be2	8.591243e-05
67	0x3a590eda	0.0008280106
68	0xbb6b066d	-0.0035861984
69	0xbc74976c	-0.01492868
70	0xbb2c63fa	-0.0026304708
71	0x2dbe569b	2.163896e-11
72	0x3cc2f3e3	0.023797935
73	0x3af3738c	0.0018573864
74	0x3b9484be	0.0045324257
75	0xbdd623b2	-0.10456027
76	0xb241f488	-1.12896785e-08
77	0xbb1ccb09	-0.002392473
78	0x3c8b3d99	0.016997145
79	0x3c7c97f8	0.015417092
80	0xbb3ae8db	-0.002852014
81	0xbb3a28c4	-0.0028405646
82	0x3b424571	0.002964344
83	0xbc16d392	-0.009205716
84	0x3c38b3cb	0.011273335
85	0x3ce68050	0.028137356
86	0x3bc69093	0.006059715
87	0xbaab034d	-0.0013047248
88	0x3a67d5eb	0.0008843827
89	0xba016c11	-0.00049370626
90	0x3c9d964b	0.019236704
91	0x3be4483b	0.0069666184
92	0xbcb8f3b7	-0.02257715
93	0xbc89480b	-0.016757986
94	0xbdd980ab	-0.106202446
95	0xbc6b996a	-0.0143798385
96	0x3d4a369f	0.049368497
97	0x3c772603	0.015084746
98	0x37a60338	1.9790241e-05
99	0xbbe682ce	-0.007034636
100	0xbbd2b7d9	-0.0064306078
101	0xbc7368f5	-0.014856567
102	0xbaac3e5d	-0.0013141144
103	0xbc9631c3	-0.018334275
104	0xbc648620	-0.0139479935
105	0xbd0149d3	-0.031564545
106	0x3c9a51bf	0.018837808
107	0x3890361c	6.876534e-05
108	0xbc601290	-0.013676301
109	0xbbb866ae	-0.0056274747
110	0xbb51e05c	-0.0032024598
111	0x3c144c16	0.009051343
112	0xbaeb9516	-0.0017973508
113	0xbc215ddb	-0.009849037
114	0x3cf32106	0.029678833
115	0xbc5a3148	-0.013317414
116	0x3d7aeb59	0.0612596
117	0xbc8758bd	-0.016521806
118	0x3d058ef4	0.032607034
119	0xbc256650	-0.010095194
120	0xbbdc48ac	-0.0067225304
121	0x3b29f8cc	0.0025935648
122	0xbbd316ae	-0.0064419126
123	0xbc21c21b	-0.0098729385
124	0x3d9b8092	0.07592882
125	0xbc4353bf	-0.011921822
126	0x3bcf4680	0.006325543
127	0xbb2883c3	-0.0025713302
128	0xbc302382	-0.010750653
129	0x3c07fe04	0.008300308
130	0xbba00245	-0.004883083
131	0xbc7ba98c	-0.015360247
132	0x3ba779b6	0.0051109446
133	0x3c849e8b	0.01618888
134	0x3d3d7dc4	0.046262518
135	0xbd285975	-0.041100938
136	0xbd62f7ef	-0.05541223
137	0xbcba684f	-0.022754816
138	0xbafa60da	-0.001910235
139	0xbbe63087	-0.007024828
140	0x3c8e746c	0.017389499
141	0x3b570053	0.003280659
142	0x3bb08924	0.005387442
143	0xbcc73a5c	-0.02431982
144	0xbd95a945	-0.07307676
145	0xbd2edb1b	-0.042689424
146	0x3cc03288	0.023461595
147	0x3c0c30f2	0.008556591
148	0x3ae68df0	0.0017589908
149	0xbc626201	-0.013817311
150	0x39897ea4	0.0002622503
151	0xb4177994	-1.4107201e-07
152	0x000242c2	2.07619e-40
153	0x800273be	-2.25191e-40
154	0x80023880	-2.0394e-40
155	0xb6cd4abf	-6.1181777e-06
156	0xb89298e4	-6.9903006e-05
157	0x000055fb	3.0844e-41
158	0x8001e182	-1.72732e-40
159	0x8002460b	-2.08798e-40
160	0xbbda443a	-0.0066609653
161	0xbab06339	-0.0013457305
162	0x00017d20	1.36722e-40
163	0x000219e4	1.92959e-40
164	0x00004fda	2.8645e-41
165	0x38c72f25	9.497841e-05
166	0xbc348650	-0.011018351
167	0x0001296c	1.06695e-40
168	0x00007137	4.0614e-41
169	0x00019634	1.45718e-40
170	0xbaad205d	-0.0013208498
171	0x3b5a9d2b	0.003335784
172	0x3af6d09d	0.0018830482
173	0x933559dc	-2.2889716e-27
174	0x80015b95	-1.24689e-40
175	0xbdd3cc4b	-0.103417
176	0xbc25eb36	-0.010126879
177	0x3c401038	0.011722617
178	0x909a8b32	-6.0956754e-29
179	0x000195a7	1.4552e-40
180	0x3cbfcd1c	0.023413233
181	0x3ca92f1a	0.020652343
182	0x3b0cde9b	0.0021494988
183	0x00009f5c	5.7167e-41
184	0xb8ac1938	-8.2062965e-05
185	0xbd94c22b	-0.07263597
186	0x3d464391	0.04840428
187	0x3b827f20	0.0039824396
188	0x800015b2	-7.783e-42
189	0x8002856c	-2.31534e-40
190	0xbbf1fe55	-0.007385055
191	0x3c02c80f	0.007982268
192	0x00023597	2.02895e-40
193	0x0000625f	3.5289e-41
194	0xbbf96f52	-0.0076121474
195	0x3d518edd	0.051161636
196	0x3de30814	0.11085525
197	0x0001ed39	1.76935e-40
198	0x80029bbc	-2.39538e-40
199	0x0000e3a3	8.166e-41
200	0x3b4d38ea	0.003131444
201	0x3af17c80	0.0018423945
202	0xbb175165	-0.0023089286
203	0xbca9de2b	-0.02073582
204	0xbd73b8dd	-0.05950247
205	0x3d8b4741	0.068007
206	0xbc4d8e3d	-0.012546119
207	0xbc259e82	-0.010108592
208	0xbc3b4dff	-0.01143217
209	0x3caba0e1	0.020950736
210	0x37f48f86	2.91539e-05
211	0x3ba883c4	0.005142661
212	0x3b13f144	0.0022574225
213	0xbd41a1ab	-0.04727332
214	0xbe02d50c	-0.12776583
215	0xbc755401	-0.014973641
216	0xbc62afa8	-0.013835825
217	0x3b881e00	0.004153967
218	0x3b8f5dab	0.0043751798
219	0x3cc3e715	0.0239139
220	0x3b315144	0.0027056495
221	0x36151cab	2.2219417e-06
222	0x8002d0f5	-2.5863e-40
223	0xbce691fe	-0.028145786
224	0x3abeb9d7	0.0014551234
225	0xbcf654a5	-0.030069659
226	0xbbecc4a1	-0.0072255884
227	0x80007753	-4.2805e-41
228	0x3c7fc61e	0.0156112
229	0xbcbffde4	-0.023436494
230	0x3cf43640	0.029811025
231	0x3ba5d84c	0.005061185
232	0x80016edc	-1.31604e-40
233	0xbcb34c8c	-0.021887086
234	0xbd4fa994	-0.05069883
235	0xbd5440a5	-0.051819462
236	0xbbe1f535	-0.006895686
237	0x00025c33	2.16746e-40
238	0x3b83a2c1	0.0040172045
239	0x3ba125ce	0.0049178367
240	0xbc200eef	-0.009769185
241	0xba00f303	-0.0004919024
242	0x3ac46716	0.0014984335
243	0x3c1eb375	0.009686341
244	0x3d66c251	0.05633766
245	0xbda9aa38	-0.0828442
246	0xbcf02ac8	-0.029317275
247	0x3982e955	0.00024969378
248	0x3b30f2e7	0.002700025
249	0x398cdbc8	0.0002686663
250	0x3a6d23f8	0.0009046192
251	0xbc9bc3f3	-0.019014334
252	0xbbed5080	-0.0072422624
253	0x3bb44040	0.0055008233
254	0xbbfbc2fe	-0.007683157
255	0x3d0f69de	0.035013072

exp_avg f4 [32, 2, 5, 5]
0	0xba49bdf1	-0.0007695845
1	0xba0cb204	-0.00053671026
2	0xb98271ac	-0.00024880224
3	0x383d1b83	4.5086734e-05
4	0x399a5768	0.00029438292
5	0xba4a14d5	-0.00077087927
6	0xba01f6a1	-0.000495771
7	0xb9469c58	-0.00018940994
8	0x38c9f60c	9.630257e-05
9	0x39c62f1c	0.00037800602
10	0xba323213	-0.0006797623
11	0xb9dc0f8b	-0.0004197325
12	0xb919d659	-0.00014671068
13	0x3934f970	0.0001725906
14	0x39cb03eb	0.00038722096
15	0xba1cb34f	-0.0005977647
16	0xb9bb4138	-0.0003571601
17	0xb8b47c40	-8.606212e-05
18	0x3937ae98	0.00017517281
19	0x39d794fd	0.00041119
20	0xb9f8e043	-0.00047469334
21	0xb994c819	-0.00028377844
22	0xb8484b0b	-4.7753605e-05
23	0x39405609	0.00018342597
24	0x39ce676b	0.00039368434
25	0xba22051e	-0.0006180572
26	0xb9e964e0	-0.0004451638
27	0xb985a6d3	-0.0002549203
28	0xb83df8a1	-4.5292665e-05
29	0x394e1290	0.00019652606
30	0xba1f4d5e	-0.0006076897
31	0xb9dd4225	-0.00042201686
32	0xb95345a6	-0.00020148474
33	0x3815ef6c	3.5747347e-05
34	0x397fa8cd	0.00024381578
35	0xba17030b	-0.00057606463
36	0xb9c7f352	-0.00038137526
37	0xb911979c	-0.00013884756
38	0x383f5d7e	4.562502e-05
39	0x399ac404	0.00029519212
40	0xb9faa656	-0.00047807646
41	0xb9a9f89f	-0.0003241943
42	0xb916a913	-0.000143681
43	0x3895edd1	7.1491704e-05
44	0x39922baf	0.00027879837
45	0xb9cc4ac8	-0.00038965628
46	0xb9932997	-0.00028069012
47	0xb901c592	-0.00012376
48	0x3885510e	6.357032e-05
49	0x3995823d	0.0002851653
50	0x3acbd458	0.0015550954
51	0x3aba21ee	0.0014200786
52	0x3aaaadc3	0.0013021756
53	0x3a6fb03f	0.0009143389
54	0x39e4c109	0.0004363137
55	0x3ad7dadf	0.0016468427
56	0x3ac1f82f	0.0014798696
57	0x3ab10aaa	0.0013507206
58	0x3a74fa0e	0.00093451224
59	0x39df958a	0.0004264529
60	0x3ad1b334	0.0015998841
61	0x3aba5292	0.0014215282
62	0x3aa2a352	0.0012408292
63	0x3a64ca3c	0.0008727645
64	0x39c638da	0.0003780786
65	0x3abb32e7	0.0014282138
66	0x3aa5e74f	0.0012657436
67	0x3a95102b	0.0011372616
68	0x3a55b02b	0.0008151556
69	0x39dc5c74	0.00042030553
70	0x3a9a0d62	0.0011753256
71	0x3a893ed5	0.0010470996
72	0x3a80227a	0.00097759
73	0x3a435159	0.00074507814
74	0x39f85c9b	0.00047371243
75	0x3ac303c4	0.0014878442
76	0x3abdff90	0.0014495719
77	0x3ab34583	0.0013677332
78	0x3a85ec1b	0.001021746
79	0x3a084ebe	0.0005199722
80	0x3ac82b9a	0.0015271783
81	0x3abf1eb1	0.001458129
82	0x3ab0db39	0.0013493068
83	0x3a834f96	0.0010018225
84	0x3a02704b	0.00049758394
85	0x3abc4e21	0.0014366546
86	0x3ab403ed	0.001373408
87	0x3aa7fc89	0.001281635
88	0x3a7a2760	0.00095426105
89	0x3a034dce	0.0005008847
90	0x3aa4340a	0.0012527716
91	0x3a9a657e	0.0011779515
92	0x3a9231ad	0.001115372
93	0x3a60ceef	0.00085757574
94	0x39ffdaaf	0.00048800322
95	0x3a818c51	0.0009883736
96	0x3a7a6937	0.00095524214
97	0x3a78f67d	0.0009497179
98	0x3a49d994	0.0007699963
99	0x3a072a4b	0.00051561435
100	0x39190c74	0.00014595856
101	0x395a606e	0.00020826023
102	0x398f851c	0.0002737426
103	0x39b1633a	0.00033834
104	0x39d58992	0.00040729024
105	0x398a0b8d	0.00026330017
106	0x39afd644	0.0003353824
107	0x39c26363	0.00037076612
108	0x39d3a2d0	0.0004036636
109	0x39f029db	0.00045807552
110	0x39b23a96	0.00033994456
111	0x39d12057	0.00039887681
112	0x39db9756	0.0004188369
113	0x39e5f062	0.00043857383
114	0x39f472d6	0.00046624866
115	0x39a6d06a	0.00031817268
116	0x39c5023c	0.00037576433
117	0x39d79205	0.0004111679
118	0x39d6c2dd	0.00040962445
119	0x39dbfde1	0.0004196009
120	0x398a68e4	0.0002639956
121	0x39a80c1f	0.00032052488
122	0x39b40ac5	0.000343403
123	0x39ad85e1	0.0003309688
124	0x39b6df7f	0.00034880263
125	0x38c283d8	9.275199e-05
126	0x392462f5	0.00015677123
127	0x3962ec48	0.00021641061
128	0x398e26f9	0.00027113387
129	0x39a97f1d	0.000323289
130	0x3960dc73	0.00021444428
131	0x398b5570	0.00026575802
132	0x39a24861	0.00030952974
133	0x39b338da	0.00034183898
134	0x39c14e8c	0.0003687035
135	0x398d7a2a	0.00026984635
136	0x39aac554	0.00032571948
137	0x39ba8c72	0.00035581324
138	0x39c0edcf	0.00036798275
139	0x39c8982e	0.00038260355
140	0x3996b1d9	0.00028742736
141	0x39a8d5f5	0.00032202867
142	0x39b006ed	0.00033574496
143	0x39b6deeb	0.00034879832
144	0x39b6298a	0.00034744694
145	0x3954a532	0.00020279436
146	0x398002c6	0.0002441613
147	0x398f0879	0.00027281398
148	0x39992d5e	0.00029216235
149	0x398aaa4a	0.00026448286
150	0xb916dd85	-0.00014387637
151	0xb9875369	-0.00025811352
152	0xb984d7d9	-0.0002533782
153	0xb9113356	-0.00013847402
154	0x38c41c64	9.3512965e-05
155	0xb94015aa	-0.00018318617
156	0xb996638f	-0.00028684406
157	0xb99d27c5	-0.00029975004
158	0xb9323939	-0.0001699672
159	0x3889bfca	6.5683926e-05
160	0xb938de31	-0.0001763038
161	0xb98e4130	-0.0002713292
162	0xb989766d	-0.0002621891
163	0xb9275f55	-0.00015961875
164	0x3835618e	4.3244618e-05
165	0xb92bd046	-0.00016385419
166	0xb9641444	-0.00021751324
167	0xb96ef555	-0.00022788842
168	0xb90f8708	-0.00013687846
169	0x38353ddb	4.321137e-05
170	0xb8ef00b7	-0.00011396541
171	0xb92ff062	-0.0001677885
172	0xb9367fa6	-0.00017404425
173	0xb8f0982a	-0.000114724346
174	0x3731dcfa	1.0601472e-05
175	0xb981c1f8	-0.00024749315
176	0xb9b281fe	-0.00034047657
177	0xb9c3569e	-0.00037257833
178	0xb98d5eb0	-0.00026964163
179	0xb85000bc	-4.959175e-05
180	0xb990cbdf	-0.00027617716
181	0xb9ce6ddb	-0.0003937323
182	0xb9d4f3c2	-0.00040617405
183	0xb9a4eb4d	-0.0003145583
184	0xb8c3b203	-9.331482e-05
185	0xb99158f0	-0.0002772282
186	0xb9c7d4f3	-0.00038114897
187	0xb9da5134	-0.000416407
188	0xb9ad96c0	-0.0003310945
189	0xb8e226d4	-0.00010783752
190	0xb9734cf0	-0.00023202947
191	0xb9b068eb	-0.00033647506
192	0xb9bb1035	-0.00035679495
193	0xb99890bb	-0.00029099532
194	0xb904b375	-0.00012655354
195	0xb94ff5d4	-0.00019832636
196	0xb98472fa	-0.00025262666
197	0xb992913e	-0.00027955504
198	0xb9802ba8	-0.0002444659
199	0xb8eae416	-0.00011200474
200	0xb9cf0398	-0.00039484794
201	0xb9865a3f	-0.0002562571
202	0xb8527156	-5.0173454e-05
203	0x392aa085	0.00016272262
204	0x39ea91e3	0.00044740652
205	0xb9a31acc	-0.00031109748
206	0xb931561e	-0.00016912117
207	0xb74feb74	-1.2392982e-05
208	0x394405dd	0.00018694201
209	0x39e65acd	0.0004393667
210	0xb9635349	-0.00021679433
211	0xb8a4241d	-7.826856e-05
212	0x38822a5d	6.206774e-05
213	0x395b5ccc	0.00020920037
214	0x39c1be88	0.00036953785
215	0xb93566e5	-0.00017299836
216	0xb8940de9	-7.059781e-05
217	0x3849b223	4.8088037e-05
218	0x392d066b	0.00016500957
219	0x39a0a945	0.00030643694
220	0xb914f4a1	-0.00014205511
221	0xb7e1e701	-2.692966e-05
222	0x38857e34	6.3654414e-05
223	0x391a7bac	0.00014732656
224	0x398237df	0.0002483716
225	0xb9bc642f	-0.00035932797
226	0xb966ed6b	-0.00022022954
227	0xb8e84e04	-0.000110771536
228	0x38c1a485	9.233601e-05
229	0x399c3adb	0.0002979849
230	0xb989f17b	-0.00026310593
231	0xb9205b5f	-0.00015292827
232	0xb8103a11	-3.4386354e-05
233	0x38c28de7	9.277072e-05
234	0x396f9a9d	0.00022850414
235	0xb94637c2	-0.00018903523
236	0xb8d58e2e	-0.000101831145
237	0xb6a17821	-4.8121587e-06
238	0x38ebec9f	0.00011249747
239	0x396dd286	0.00022680507
240	0xb925b943	-0.00015804642
241	0xb838b464	-4.403702e-05
242	0x37dbcc94	2.6202099e-05
243	0x38ea076d	0.00011159373
244	0x393555a7	0.00017293413
245	0xb91bd4b5	-0.00014861191
246	0xb83a94a3	-4.4484284e-05
247	0x373c3bd6	1.1219605e-05
248	0x389f5ece	7.5993696e-05
249	0x3904574f	0.00012621026
250	0xbafd9997	-0.0019348142
251	0xbac8c70a	-0.0015318107
252	0xba8194d8	-0.0009886278
253	0xb9b60196	-0.00034714927
254	0x39427479	0.00018544671
255	0xbb04fed0	-0.0020293482
