results/2BS/T_1/L_6000/seed2/checkpoint.pth.tar (torch_old, 395616 bytes, 22 tensors)

layer1.conv.weight f4 [32, 2, 5, 5]
0	0xbadc1dac	-0.0016793511
1	0xbd74aece	-0.05973702
2	0x3c82d699	0.015971469
3	0xbdb31725	-0.08744649
4	0x3d3eac82	0.046551235
5	0xbb97d30a	-0.004633312
6	0xbd8a96db	-0.06767055
7	0xbdf6cd82	-0.12050916
8	0x3ccf2aa0	0.02528888
9	0x3d80fe4e	0.06298505
10	0x3c47d7e1	0.012197466
11	0xbd695bad	-0.056972194
12	0xbc7d8f6e	-0.015476091
13	0xbcb266d1	-0.021777542
14	0xbd9660c9	-0.07342679
15	0xbd28c09e	-0.04119932
16	0xbce11811	-0.027477296
17	0x3a8638d0	0.001024032
18	0xbd3ed62f	-0.04659098
19	0xbb36324f	-0.0027800982
20	0x3d2ace0a	0.0417004
21	0xbd1a638e	-0.0376926
22	0x39cf609f	0.00039554105
23	0x3c41c031	0.011825607
24	0xbd484afa	-0.04889963
25	0x3d4d12c3	0.05006672
26	0xbbda3f51	-0.00666038
27	0x3a4f6c00	0.00079125166
28	0x3d08fdf1	0.033445302
29	0xbc20f710	-0.009824529
30	0x3d0ca549	0.034337316
31	0x3d82091d	0.063493945
32	0x3c8281c8	0.015931025
33	0xbd1b1603	-0.03786279
34	0xbd8dee94	-0.06930271
35	0x3da771bd	0.08175991
36	0xbba1ee4f	-0.0049417387
37	0x3dff76f1	0.12473858
38	0x3c2491c2	0.010044517
39	0xbcdcc4ff	-0.026949404
40	0x3d812f6c	0.06307873
41	0x3e22de36	0.15905079
42	0x3d27be2a	0.04095284
43	0xbd303f23	-0.043028962
44	0x3d432841	0.04764581
45	0xbd0ce292	-0.03439576
46	0x3c3e97c2	0.011632862
47	0x3d8af7de	0.06785558
48	0x3dbe352f	0.09287488
49	0x3d3251d1	0.043535057
50	0x3cc805f9	0.02441691
51	0xbb35b010	-0.002772335
52	0x3af68df2	0.0018810614
53	0xbdd27b98	-0.1027748
54	0xbced8f3e	-0.028998967
55	0xbd8b11fb	-0.06790539
56	0xbd01cc05	-0.03168871
57	0x3d885804	0.06657413
58	0xbd477fd1	-0.04870588
59	0xbd77d3f9	-0.060504887
60	0xbd3eba8e	-0.04656463
61	0xbd71717c	-0.058946118
62	0x3cdc8583	0.026919132
63	0xbde8754f	-0.113505
64	0xbc2fc55f	-0.010728209
65	0xbdc5fbed	-0.09667192
66	0x3c814422	0.015779559
67	0xbca9a06a	-0.020706374
68	0xbd3111a1	-0.043229703
69	0xbdeaf05d	-0.11471627
70	0x3d661926	0.056176327
71	0xbc0537fa	-0.008131022
72	0x3d294bc6	0.04133203
73	0x3cc3ee81	0.023917438
74	0x3c4ba4c0	0.012429416
75	0xbcb3828a	-0.021912832
76	0x3d6c8638	0.05774519
77	0x3d3e9038	0.046524256
78	0x3c349789	0.011022457
79	0xbc87e0c9	-0.016586678
80	0xbbb067ec	-0.005383482
81	0xbc979fd5	-0.018508831
82	0x3db04374	0.08606616
83	0xbd8a2d3f	-0.06746911
84	0xbdd81e6c	-0.105526775
85	0x3d623269	0.055223856
86	0x3ced9dd7	0.029005928
87	0x3d4f0a90	0.050547183
88	0xbcfe11a7	-0.031014277
89	0x3b3040e9	0.0026894158
90	0x39a09315	0.00030627163
91	0xbd186e40	-0.037214518
92	0x3d74a098	0.059723467
93	0x3d786249	0.060640607
94	0xbd79f1bf	-0.061021563
95	0xbc77707e	-0.015102504
96	0x3d941461	0.072304495
97	0x3d1d548e	0.038410716
98	0xbd3ef787	-0.04662278
99	0xbcfc9a35	-0.03083525
100	0xbd813ae6	-0.06310062
101	0x3d8790f0	0.066194415
102	0x3d76c232	0.060243793
103	0x3d214354	0.03937085
104	0x3d36ee8d	0.044661094
105	0xbd36e1c4	-0.0446489
106	0xbcacdbb0	-0.021100849
107	0x3d81d0a2	0.06338622
108	0xbce6234e	-0.028093006
109	0x3d52fe54	0.051512077
110	0x3c8083ff	0.01568794
111	0xbd80b29d	-0.06284068
112	0x3d440087	0.047852065
113	0xbdce3cb2	-0.100701705
114	0x3d7fb062	0.06242407
115	0xbd2e51a3	-0.042558324
116	0xbd046fc7	-0.03233316
117	0x3b60624b	0.0034238275
118	0x3c997859	0.018734144
119	0xbcf0728e	-0.029351499
120	0x3c416935	0.0118048685
121	0x3d95136d	0.07279096
122	0x3c673227	0.014111078
123	0x3d847bd6	0.06468932
124	0x3dba0c5f	0.09084391
125	0xbd16e8f2	-0.036843248
126	0xbc7d0a91	-0.015444414
127	0xbd60f462	-0.05492056
128	0x3c8483f4	0.016176201
129	0xbd924276	-0.07141583
130	0x3c686551	0.014184312
131	0xbd40eb0d	-0.047099162
132	0xbba0c3ca	-0.0049061524
133	0x3d4c75ff	0.049917217
134	0x3da9a6c8	0.08283764
135	0x3dc47ee8	0.09594518
136	0x3aa821e7	0.0012827486
137	0xbd1311dc	-0.035905704
138	0xbcab71ae	-0.02092823
139	0x3d03beee	0.032164507
140	0xbd8c3eaf	-0.068478934
141	0xbc1362ba	-0.008995706
142	0x3c8b4eab	0.017005285
143	0xbbde644e	-0.0067868596
144	0xbd9d66fb	-0.076856576
145	0x3b4bf1c7	0.0031119452
146	0xbd4d3133	-0.05009575
147	0xbe03e7fb	-0.12881462
148	0xbd4dff59	-0.050292347
149	0xbd5612a0	-0.052263856
150	0x3c8428dd	0.016132766
151	0x3c7c926b	0.015415768
152	0x3cf4c280	0.029877901
153	0xbc8405f7	-0.016116126
154	0x3cfbcd29	0.030737476
155	0xbd7eb962	-0.062188514
156	0x3d4bf80c	0.049797103
157	0x3c9cf7c4	0.019161113
158	0xbb83ca64	-0.0040219296
159	0xbce23a1f	-0.027615605
160	0x3c47abe1	0.012186975
161	0xbc6b89eb	-0.014376144
162	0xbcd5d274	-0.026101328
163	0x3d3dfd31	0.04638404
164	0x3d040ad9	0.032236908
165	0xbd6ecc60	-0.058300376
166	0xbbe363df	-0.006939396
167	0x3e164134	0.1467331
168	0x3da1d765	0.07902411
169	0x3e28025b	0.16407149
170	0x3d7ad9c2	0.061242826
171	0xbcfb2782	-0.030658487
172	0x3ca9989a	0.020702649
173	0x3dc82d2e	0.09774242
174	0x3cbc681e	0.022998866
175	0xbc771673	-0.015081036
176	0xbd1a136d	-0.037616182
177	0xbd7f9eaa	-0.062407173
178	0x3d1ca7bd	0.038245905
179	0x3c49720b	0.012295256
180	0x3cb37295	0.021905223
181	0xbda787f6	-0.08180229
182	0xbdf90f7d	-0.12161157
183	0x3c91ad97	0.01778297
184	0xbd437e42	-0.04772783
185	0xbda93e17	-0.08263796
186	0xbc28df23	-0.010307106
187	0x3ae4a73e	0.0017444862
188	0xbcc52000	-0.02406311
189	0x3c8b3857	0.016994638
190	0x3c06cbb4	0.008227278
191	0x3d63f92b	0.055657547
192	0xbdef2082	-0.11676122
193	0xbdd277a5	-0.10276727
194	0xbd8e5d11	-0.06951345
195	0xbdc39766	-0.09550361
196	0xbd755cec	-0.05990307
197	0xbd548b10	-0.051890433
198	0xbc6cc9ac	-0.014452379
199	0xbc83c747	-0.016086234
200	0x3be47543	0.0069719865
201	0xbd83387d	-0.06407259
202	0x3cb0edc2	0.021597747
203	0x3c2661f2	0.010155188
204	0x3c0b5da3	0.008506211
205	0x3b05698c	0.00203571
206	0x3cbdb85c	0.023159198
207	0xbc435b5b	-0.011923636
208	0x3a0d8f3a	0.00054000656
209	0x3b411619	0.0029462634
210	0xbd906a93	-0.070515774
211	0xbddcfd32	-0.10790481
212	0xbdb4e486	-0.0883265
213	0x3cedab20	0.029012263
214	0x3d3fc641	0.04681993
215	0x3c02a0a3	0.007972869
216	0xbd661ab2	-0.056177802
217	0xbccd0c2f	-0.025030224
218	0x3c99315f	0.0187003
219	0x3c7a0368	0.015259601
220	0xbd0ba1a7	-0.03408971
221	0xbd29f10e	-0.041489653
222	0xbd8d9659	-0.06913442
223	0xbdc0b9fe	-0.09410475
224	0x3cf4c6b4	0.029879905
225	0xbd1c7681	-0.03819895
226	0x3d241ee8	0.040068537
227	0xb9c138d6	-0.00036854175
228	0x3ce3ea09	0.027821558
229	0x3d84b94b	0.06480654
230	0xbc069e13	-0.008216399
231	0x3c1c46c9	0.009538361
232	0xbcf2ad60	-0.029623687
233	0xbd1175ed	-0.035512853
234	0x3d8e1f03	0.06939509
235	0x3d05e5f4	0.032690004
236	0xbd2804a8	-0.041020066
237	0x3d1a040e	0.037601523
238	0x3d50bc00	0.05096054
239	0xbccfd288	-0.025368944
240	0xbc8da241	-0.017289283
241	0x3c8cb4d8	0.017176077
242	0xbbe4aa26	-0.006978291
243	0xbd0bd73d	-0.034140814
244	0x3ae803b4	0.0017701299
245	0xbbc99533	-0.006151819
246	0x3d0956b5	0.033529956
247	0x3d676182	0.056489475
248	0x3d7e36fb	0.062064152
249	0x3c7eb8a7	0.015546954
250	0xbd5ce1a3	-0.05392612
251	0x3c8e01a4	0.017334767
252	0x3c5b6fcb	0.013393353
253	0x3da9bd7c	0.082880944
254	0xbb9d372a	-0.004797836
255	0x3d5f89c5	0.054574747

layer1.conv.bias f4 [32]
0	0x3d11e1e0	0.0356158
1	0xbc30407b	-0.010757561
2	0x3d865276	0.06558697
3	0xbd316ffe	-0.043319695
4	0xbd61daf4	-0.05514045
5	0xbd46775b	-0.04845367
6	0xbdd96b9c	-0.10616228
7	0x3d568fb8	0.052383155
8	0xbc31f279	-0.010861033
9	0x3e000997	0.12503658
10	0xbd8eb1f5	-0.06967536
11	0x3db05b9d	0.08611224
12	0x3dd2c582	0.10291578
13	0xbd0fde26	-0.035123967
14	0x3d2da4e6	0.042393588
15	0x3e266898	0.16250837
16	0x3d0be145	0.03415038
17	0xbe02f242	-0.12787727
18	0xbe0d2966	-0.13785324
19	0x3d415673	0.047201585
20	0xbda10a9c	-0.07863352
21	0x3d296fba	0.041366316
22	0xbcfbb7b9	-0.030727254
23	0xbd3b1707	-0.045676257
24	0x3d107605	0.035268802
25	0xbe059394	-0.13044578
26	0x3cc22859	0.02370088
27	0x3c3f9e06	0.011695391
28	0xbde3d8b8	-0.1112532
29	0xba9781b7	-0.0011559044
30	0xbe06617c	-0.13123125
31	0x3d95db9e	0.07317279

layer2.conv1.weight f4 [32, 32, 3, 3]
0	0x3cf1ad68	0.029501632
1	0xbd16f61d	-0.036855806
2	0xbbd798a7	-0.006579477
3	0xbc86f830	-0.016475767
4	0xbb17bcbf	-0.0023153273
5	0x363469c8	2.6883663e-06
6	0x3db4ab3b	0.08821722
7	0xbbc6db17	-0.006068598
8	0xbb85ec6a	-0.0040870206
9	0x3b431672	0.0029768017
10	0x3b01c35b	0.0019800279
11	0xbb9b2053	-0.004734078
12	0xbc2ee77e	-0.010675309
13	0xbce54e49	-0.02799143
14	0xba70d1f0	-0.00091865566
15	0x3c96f03b	0.018425098
16	0xbc34eb73	-0.011042464
17	0x3c09a519	0.008401179
18	0xbc8798c9	-0.016552346
19	0xbc16edf8	-0.00921201
20	0x3a798515	0.0009518427
21	0xbc9241c8	-0.017853633
22	0x3a2b1bb2	0.0006527259
23	0xbc9c2b0b	-0.019063493
24	0x3b589cbc	0.0033052405
25	0xbba17110	-0.004926808
26	0x3c54b1c0	0.012981832
27	0xbb102224	-0.0021993006
28	0xbb5b5406	-0.003346683
29	0xbc65a0bb	-0.014015372
30	0xbb008790	-0.0019612052
31	0xbb8074b3	-0.0039201616
32	0x3c4f52a9	0.012653985
33	0xbb13cd28	-0.0022552703
34	0xbbf04f1c	-0.0073336493
35	0x3d22819e	0.039674394
36	0xbc353214	-0.011059303
37	0xbb0400f2	-0.0020142165
38	0xbc0181d8	-0.007904492
39	0xbafa3fe2	-0.0019092525
40	0xbb15445c	-0.002277634
41	0xbb6e3c0f	-0.0036351716
42	0xbaaba640	-0.0013095811
43	0xb9eb3b38	-0.00044866814
44	0xbb9a8eab	-0.0047167144
45	0x3ccab459	0.0247442
46	0x3bc93694	0.0061405394
47	0xbb2e3fd6	-0.0026588342
48	0xbbdf5b0d	-0.006816274
49	0xbc03417d	-0.008011219
50	0xb87fb3c0	-6.0964143e-05
51	0xbcdff8bd	-0.027340287
52	0xbc9ce904	-0.01915408
53	0xbd1c885d	-0.038215984
54	0xbbd6fb45	-0.0065607154
55	0xbb838c29	-0.004014511
56	0xbb2bb3db	-0.0026199732
57	0x3b260d45	0.00253375
58	0x3a0997b6	0.0005248742
59	0x3a09bac6	0.00052539667
60	0x3996fb4d	0.00028797463
61	0x3a514aa0	0.0007983837
62	0x3902a3cf	0.0001245879
63	0x3b1cedb3	0.002394539
64	0xbc63e724	-0.013910089
65	0x3b5148bc	0.0031934222
66	0x3a05e9b1	0.000510837
67	0xbcd65608	-0.02616407
68	0xbbc4e4c9	-0.0060087186
69	0x3cedfbf3	0.029050803
70	0xbaa97708	-0.0012929151
71	0xbae51439	-0.001747734
72	0xbb576e05	-0.0032871973
73	0xbd019861	-0.03163946
74	0x3c2874cf	0.010281756
75	0x3ccf9e5f	0.025344072
76	0x3db51dbb	0.08843561
77	0xbdc0706e	-0.09396444
78	0xbc2a7836	-0.010404637
79	0x3c8fa9fa	0.017537106
80	0x3d3a1ac9	0.0454357
81	0x3d7b19d7	0.06130394
82	0xbcea4ea9	-0.028601961
83	0xbce948e2	-0.028477136
84	0xbbeb517e	-0.0071813455
85	0xbce07dd8	-0.027403757
86	0xbc959526	-0.018259596
87	0xbc7d3bbd	-0.015456137
88	0xbc9e3237	-0.019311054
89	0xbcd4fecd	-0.026000405
90	0xbd215ff3	-0.039398145
91	0x3d353751	0.044242207
92	0x3cae902d	0.021308983
93	0xbb280252	-0.0025636149
94	0x3ac7e3cc	0.0015250384
95	0xb8ee0ad9	-0.00011350745
96	0x3d610b6c	0.054942533
97	0xbca207db	-0.019779136
98	0xbc2592f4	-0.010105837
99	0xbb7ea789	-0.0038857183
100	0xbc73b5ad	-0.014874858
101	0xbc88d7ae	-0.016704407
102	0xbcc32688	-0.023822084
103	0xbc0b2a08	-0.008493908
104	0xbb0372db	-0.0020057473
105	0xbc318074	-0.010833848
106	0xbb906022	-0.004405991
107	0xbb87bf0c	-0.0041426476
108	0x3bb4d2df	0.005518302
109	0x3c7ee1f6	0.015556803
110	0x3866ba5c	5.5009834e-05
111	0xbdd226f9	-0.1026134
112	0x3d1a0c6e	0.03760951
113	0xbb832178	-0.0040017925
114	0x3c1ea5e0	0.009683102
115	0xbb8cdece	-0.0042990213
116	0xba5d0d05	-0.0008432421
117	0x3a07b77f	0.00051771844
118	0xbb324737	-0.0027203092
119	0xbbcbee0e	-0.0062234467
120	0x3a3315dc	0.00068315654
121	0xbaede859	-0.001815091
122	0x3b873fa2	0.0041274587
123	0xbac8f26a	-0.0015331034
124	0x3a8e6177	0.0010862787
125	0x3a41fe23	0.0007400235
126	0xba95fda8	-0.0011443393
127	0xbbb9d249	-0.00567082
128	0xbc50b488	-0.0127383545
129	0x3c6dc72b	0.014512817
130	0x3c947e08	0.018126503
131	0x3d0dc5f6	0.03461262
132	0x3d037193	0.032090735
133	0xbb787f84	-0.0037917802
134	0x3d3355db	0.04378305
135	0xbd4bfd17	-0.049801912
136	0xbda4f5c3	-0.08054688
137	0xbcf1dbfa	-0.029523838
138	0xbcfc0605	-0.03076459
139	0xbc558887	-0.013033039
140	0xbb4937ec	-0.0030703498
141	0x3d252ad9	0.040324066
142	0x39a0c036	0.00030660786
143	0x3c3eaa2e	0.011637254
144	0x3d1da549	0.038487706
145	0xbd3c6bb4	-0.04600115
146	0x3ad506ed	0.0016252674
147	0xbd9bf830	-0.076156974
148	0x3a416bec	0.00073784473
149	0x3c46d71a	0.012136245
150	0xbd354932	-0.044259258
151	0xb89d2a87	-7.494265e-05
152	0xbb804327	-0.003914255
153	0x38ba5efa	8.886862e-05
154	0x3c0510f5	0.008121719
155	0x3a980f97	0.0011601326
156	0x3c0f1bf9	0.008734697
157	0xbc12f2e5	-0.008969043
158	0xbd08a4ac	-0.03336017
159	0x3b975814	0.004618654
160	0xbd038bb4	-0.032115653
161	0x3b898ec6	0.004197928
162	0x3af5db27	0.0018757329
163	0xb48103a6	-2.4030777e-07
164	0xbaeff42a	-0.001830702
165	0xb9bfb3ec	-0.0003656441
166	0xbaa30af5	-0.0012439179
167	0xbaebb4b2	-0.0017982929
168	0xba1b18ce	-0.0005916477
169	0x39f4020d	0.00046540835
170	0xbb3560ff	-0.0027676222
171	0xbc831bb4	-0.01600442
172	0xbadf1954	-0.0017021098
173	0xbbcb5a7f	-0.0062058563
174	0xbad0503e	-0.0015893055
175	0x3812bec1	3.4986766e-05
176	0xb9d36c35	-0.00040325677
177	0xbb230cae	-0.0024879384
178	0x39989dac	0.00029109174
179	0x3ced1eec	0.028945409
180	0x3cd29748	0.025706902
181	0x3c99f3b7	0.01879297
182	0x3c80ffcb	0.015746972
183	0xbd56ba09	-0.05242351
184	0x3b6b3b67	0.003589356
185	0xbc090f0c	-0.008365404
186	0x3b7a618e	0.003820512
187	0xb8adb396	-8.282733e-05
188	0x391474bd	0.00014157868
189	0xb80c89c1	-3.3506894e-05
190	0xbb433295	-0.0029784788
191	0xbb945129	-0.0045262766
192	0xbba78a84	-0.005112948
193	0x3b51c6ea	0.003200943
194	0xbc1c6526	-0.0095456
195	0x3b5904d4	0.003311445
196	0xbc031965	-0.00800166
197	0xbc0ea554	-0.0087064095
198	0xbb9aa7c5	-0.0047197067
199	0xbbf9646c	-0.007610848
200	0xbba509cc	-0.0050365683
201	0xbc02e7d3	-0.0079898415
202	0xbbec7a66	-0.0072167395
203	0xbb20fe04	-0.0024565468
204	0xbb433071	-0.0029783512
205	0xba408ea1	-0.0007345472
206	0xbad26e28	-0.0016054558
207	0x3c7591a9	0.014988341
208	0x3d5fbfab	0.05462615
209	0xbcc4bcfe	-0.0240159
210	0x3d8bfa9a	0.06834908
211	0x3d2c3a1a	0.042047597
212	0xba7f23ff	-0.0009732842
213	0x3c8df43a	0.01732837
214	0xbc1284a5	-0.008942758
215	0x3b250568	0.0025180224
216	0x359e4b47	1.1793826e-06
217	0xbd5e1f64	-0.054229155
218	0x3c4b2e4a	0.012401173
219	0xbd4a003c	-0.04931663
220	0x3cbe927e	0.023263212
221	0x3cac4781	0.02103019
222	0xbc9a2979	-0.018818604
223	0xbd175559	-0.03694663
224	0x3cf6e4a0	0.030138314
225	0xbb065c6f	-0.0020501872
226	0xbb47e9c9	-0.0030504337
227	0xba986108	-0.0011625597
228	0xbba2c369	-0.0049671424
229	0xbb063eb0	-0.0020484142
230	0x3afe76fd	0.0019414123
231	0xbaea4125	-0.0017872198
232	0xba9376ec	-0.0011250651
233	0xba375e48	-0.0006994945
234	0xbae740c6	-0.0017643205
235	0xbd978af6	-0.073995516
236	0xbd781371	-0.060565416
237	0x3d7ecbc5	0.06220605
238	0xbcef0c06	-0.029180538
239	0x3b91a1e1	0.0044443463
240	0x3d188c27	0.037243035
241	0xbd9f37f9	-0.07774348
242	0xbc45f66d	-0.012082678
243	0xbbdb7f60	-0.006698534
244	0x3d397ecc	0.04528694
245	0xbb947584	-0.0045306105
246	0xbcff61fa	-0.031174649
247	0xbc6f205c	-0.014595117
248	0xbb8adb1e	-0.0042375466
249	0xbc6f2683	-0.014596584
250	0xbb25ef49	-0.0025319627
251	0xbbe8caae	-0.0071042394
252	0x3dbf669e	0.093457446
253	0x3be44026	0.006965655
254	0x3c59bdd3	0.0132898865
255	0x3da111c7	0.07864719

layer2.conv1.bias f4 [32]
0	0xbcb3c8cf	-0.021946339
1	0xbb6e2708	-0.0036339182
2	0xbcf841fd	-0.030304903
3	0x3ced3098	0.028953835
4	0x3d565e39	0.05233595
5	0xbd0266c2	-0.03183628
6	0xbd2d27a1	-0.04227412
7	0xbd0a1de9	-0.03371993
8	0x3cccad90	0.024985105
9	0x3bf6b6b4	0.007529104
10	0x3c01caa6	0.00792185
11	0x3ca74f41	0.020423533
12	0xbd653d29	-0.05596653
13	0xbd67d0b6	-0.056595527
14	0x3c110c42	0.00885302
15	0xbd027a90	-0.031855166
16	0x3c6dee42	0.014522137
17	0x3c94311d	0.018089825
18	0xba297b2e	-0.00064651936
19	0x3d2926a0	0.0412966
20	0x3c09fefe	0.008422611
21	0xbd2568d7	-0.040383186
22	0xbbbcda69	-0.005763341
23	0x3d17e7d1	0.03708631
24	0x3d52a987	0.051431205
25	0xbc986661	-0.018603506
26	0x3d8e1673	0.069378756
27	0xbc89ade1	-0.016806545
28	0xbd487dcc	-0.048948094
29	0xbc02bd41	-0.007979692
30	0xbcd5d284	-0.026101358
31	0xbd3f8e23	-0.04676641

layer2.conv2.weight f4 [64, 32, 3, 3]
0	0xbc4b3840	-0.012403548
1	0xbc30d4e5	-0.0107929455
2	0x3c9b2f65	0.018943498
3	0xbbddc363	-0.0067676767
4	0x3c0ce520	0.0085995495
5	0x3ba632db	0.0050719804
6	0xbc3c93b9	-0.011509829
7	0xb7bfaedc	-2.28504e-05
8	0xba48a416	-0.0007653845
9	0xbb8c59ad	-0.004283151
10	0xbac4dc34	-0.0015019239
11	0xb9ae4b51	-0.0003324398
12	0xbb83b014	-0.004018793
13	0x38b4c547	8.6198146e-05
14	0x3af0c3ca	0.0018368897
15	0x3a09ac0a	0.0005251771
16	0x398e49e8	0.00027139415
17	0x3a3da439	0.0007234249
18	0xb9bfbd50	-0.00036571408
19	0x3a8e27cb	0.00108456
20	0x39bdce56	0.0003620262
21	0x3a73f834	0.00093066995
22	0x3a76c0e2	0.0009412897
23	0x3c8dca71	0.017308446
24	0xb7254c00	-9.8524615e-06
25	0x3b3571b6	0.0027686185
26	0xbbb3a986	-0.0054828553
27	0xbaf62081	-0.0018777997
28	0x3d017e7c	0.031614766
29	0x3d46ab20	0.04850304
30	0x3c929be3	0.017896598
31	0x3ca73777	0.02041219
32	0x3ad3ef7a	0.0016169392
33	0x3d41c12c	0.047303364
34	0x3d3c6fbc	0.046004996
35	0xbcf39534	-0.029734232
36	0x3cb8b53c	0.022547357
37	0xbb70ccff	-0.003674328
38	0xbd844e20	-0.06460214
39	0x3dc89ad9	0.0979516
40	0x3c9fe516	0.019518416
41	0x3d9b1428	0.07572204
42	0xbc1ecf58	-0.009692989
43	0xbbc178b7	-0.005904283
44	0x3d6f6d76	0.058454
45	0x3d99e9c4	0.075152904
46	0x3c3cec29	0.011530914
47	0xbd11f8a9	-0.03563753
48	0x3d474a2a	0.048654713
49	0xbcdf104c	-0.02722945
50	0xbdb44615	-0.088024296
51	0x3ca42938	0.020039186
52	0xbbed38c0	-0.007239431
53	0x3d00cbf9	0.031444523
54	0x3ca180b5	0.019714693
55	0xbccb1375	-0.024789551
56	0x3aded285	0.0016999996
57	0xbd17dd4d	-0.037076283
58	0xbd44b68d	-0.048025656
59	0xbd6babb3	-0.057536792
60	0xbd09262f	-0.03348368
61	0xbd0a2b0f	-0.03373247
62	0x3c6fe84c	0.014642786
63	0x3cdfe715	0.027331868
64	0x3c9a898b	0.018864414
65	0x3bd5304d	0.006506002
66	0x3d4060b0	0.04696721
67	0xbc44a383	-0.012001875
68	0x3bb13a66	0.005408573
69	0x3ca56737	0.020190818
70	0xbd74ce85	-0.059767265
71	0x3c0e2ac4	0.008677188
72	0x3cdf05e5	0.02722449
73	0x3c668fd7	0.01407238
74	0x3c104645	0.008805816
75	0xbca11204	-0.01966191
76	0x3c7590c4	0.014988128
77	0x3c03e33e	0.008049784
78	0xbb934f58	-0.0044955425
79	0xbd2b1b6d	-0.041774202
80	0x3bd1e4d5	0.0064054527
81	0x3c8761a6	0.016526055
82	0xbd33f34d	-0.0439332
83	0xbd9f49a4	-0.07777718
84	0x3cd468e5	0.025928924
85	0xbd0afc8e	-0.03393226
86	0x3d6fc755	0.058539707
87	0x3dae80d1	0.085206635
88	0xbd149c7f	-0.03628206
89	0x3d6d1ade	0.05788695
90	0xbd1ade1d	-0.03780948
91	0xbd7fc075	-0.0624394
92	0x3a86352a	0.0010239233
93	0xbd2ce846	-0.0422137
94	0x3b08ca1b	0.0020872417
95	0x3bc969e2	0.0061466554
96	0xbcb0ee57	-0.021598024
97	0xba87a4f1	-0.0010348839
98	0xbd1ecb3d	-0.038768042
99	0xbc9cfd78	-0.019163832
100	0xbc63de5b	-0.013907994
101	0x3d7ca194	0.06167753
102	0x3c957da2	0.018248383
103	0xbb96a12a	-0.004596849
104	0x3c51eccc	0.012812804
105	0x3b4a06d3	0.0030826821
106	0x3ca50df0	0.020148247
107	0xbcbea320	-0.023271143
108	0x3cff3c29	0.031156616
109	0xbb9c855f	-0.0047766413
110	0x3c1c46ce	0.0095383655
111	0xbd85b39c	-0.065283984
112	0xbd0ab727	-0.033866074
113	0xbb8baf6b	-0.004262855
114	0xbb279675	-0.0025571857
115	0x3b03f5bd	0.0020135485
116	0xbd91ff47	-0.071287684
117	0x3c862352	0.016374264
118	0xbd46d542	-0.048543222
119	0xbcef03d2	-0.029176626
120	0xbd357fd4	-0.04431136
121	0xbd8782a2	-0.06616713
122	0xbce72cfe	-0.028219696
123	0xbd726a95	-0.059183676
124	0xbd20a94d	-0.039223958
125	0xbd452a92	-0.0481363
126	0xbbe907d3	-0.0071115284
127	0x3d124f01	0.035719875
128	0x3d018228	0.031618267
129	0xbac7816d	-0.0015221067
130	0xbcc8cd89	-0.02451207
131	0xbc870819	-0.016483353
132	0x3c4c7511	0.012479083
133	0xbd0135fb	-0.03154562
134	0xbc7656a5	-0.015035306
135	0x3cd15bc8	0.02555646
136	0x3d00b28a	0.031420268
137	0x3d07b6a3	0.03313316
138	0xbe0209cb	-0.12699048
139	0xbc43accf	-0.011943056
140	0x3ca8c21c	0.020600371
141	0xbc3a1404	-0.011357311
142	0xbc8ec369	-0.017427163
143	0x39cd2975	0.00039131535
144	0xbcfc6c2e	-0.030813303
145	0x3c1915be	0.009343563
146	0xbd0e0d60	-0.034680724
147	0xbcc23f37	-0.023711784
148	0xbc915242	-0.017739419
149	0xbbcd1653	-0.006258765
150	0xbdc3b514	-0.09556022
151	0x3d2edf07	0.042693164
152	0x3c965de5	0.01835532
153	0xb9523818	-0.00020048057
154	0x3b0eba80	0.0021778643
155	0xbbd4bff3	-0.0064926087
156	0xbb8fcf3d	-0.0043887184
157	0x3a22d6aa	0.0006211797
158	0xbb23def5	-0.002500472
159	0xbc8a15dd	-0.016856128
160	0x3b6df17c	0.0036307266
161	0xbc5f7997	-0.013639829
162	0xb8f48588	-0.00011659699
163	0xb7af022f	-2.0862642e-05
164	0xb3ce911b	-9.619017e-08
165	0xb6d186f1	-6.2443946e-06
166	0xb6a74c12	-4.9858436e-06
167	0xb4bbe903	-3.5001003e-07
168	0xb6b980e7	-5.528436e-06
169	0x386adbab	5.599453e-05
170	0xb4677191	-2.1554867e-07
171	0x3c7f1136	0.015568068
172	0xbb86c281	-0.004112542
173	0xbb9a3200	-0.0047056675
174	0xbbcdc3b1	-0.0062794317
175	0x3d1023bd	0.035190333
176	0x3aaa6929	0.0013001311
177	0x3c36f9b9	0.011167937
178	0x3d26efb1	0.04075593
179	0x3cbc3c26	0.0229779
180	0xbc6cc263	-0.014450642
181	0x3c102756	0.008798441
182	0x3b5e90e1	0.0033960866
183	0xbd683895	-0.056694586
184	0xbbd2c99a	-0.006432724
185	0x3af700c1	0.0018844829
186	0x3c880c1f	0.016607342
187	0x3ba18511	0.004929193
188	0x3ab9eaf8	0.0014184406
189	0x3ceeb00d	0.029136682
190	0xbac2a413	-0.0014849923
191	0xbcd5459d	-0.02603417
192	0xbc4c533f	-0.012471019
193	0xbbe39d32	-0.0069462294
194	0xbd2b9004	-0.04188539
195	0x3c42b997	0.011885068
196	0xbc35acc0	-0.01108855
197	0xbb334230	-0.0027352683
198	0x3d0d35ad	0.034475017
199	0x3b5b3309	0.0033447167
200	0xbc17b8ab	-0.009260337
201	0xbc9f94d7	-0.019480152
202	0xbb155fe3	-0.0022792749
203	0xbb5a8969	-0.0033346063
204	0xbc3e5145	-0.011616056
205	0x3c1dc819	0.0096302265
206	0x3b5821e2	0.003297918
207	0xbcce9088	-0.025215402
208	0x3d9cc848	0.07655388
209	0x3d9d8341	0.0769105
210	0x3b724c50	0.0036971755
211	0xbc92cd13	-0.017920053
212	0x3d443380	0.047900677
213	0x3d04683a	0.03232596
214	0xbd410499	-0.047123525
215	0xbd85fc0d	-0.065422155
216	0x3d32611f	0.043549653
217	0x3cda270a	0.026629943
218	0x3d49894f	0.049203213
219	0xbbd30db0	-0.0064408407
220	0xbb5c7bba	-0.0033643083
221	0xbab0f3b0	-0.0013500359
222	0xbcec8475	-0.028871754
223	0x3d821028	0.06350738
224	0xbd32fc84	-0.04369785
225	0xbaec866c	-0.0018045432
226	0x3ca3ae68	0.019980624
227	0x3bbe6444	0.0058102924
228	0xbc4b7912	-0.012419002
229	0xbab70248	-0.0013962472
230	0x3c83c8db	0.016086986
231	0xbe08b3e7	-0.13349877
232	0x3ad3f447	0.0016170823
233	0x3c9686dc	0.018374853
234	0xbd35426b	-0.044252794
235	0x3986482f	0.00025612253
236	0x3c5a9e96	0.013343474
237	0x3b8b21a9	0.004245956
238	0xbd6d38c1	-0.057915453
239	0x3cac27c4	0.021015055
240	0x3d02779f	0.03185236
241	0x3d5bb9f8	0.05364415
242	0xbd4a70bd	-0.04942392
243	0xbb62aa31	-0.0034586305
244	0xbc86318a	-0.016381044
245	0xbd181160	-0.037125945
246	0x3d1b4139	0.037903998
247	0x3a7f8db5	0.0009748594
248	0x3bda7db4	0.006667817
249	0x3bd8f72f	0.0066212635
250	0xbbba05ca	-0.0056769596
251	0x3cbbfdc3	0.022948151
252	0x3d9c5594	0.0763351
253	0x3d1df421	0.038562898
254	0xbd283422	-0.041065343
255	0xbc4c6e84	-0.012477521

layer2.conv2.bias f4 [64]
0	0xbbd01683	-0.00635034
1	0xbc906f6b	-0.017631253
2	0xbc7d2cc5	-0.015452568
3	0x3b15adca	0.0022839182
4	0xbb51b246	-0.0031997128
5	0xbc9251d3	-0.017861282
6	0xbd1f06d6	-0.03882488
7	0x3d0652b4	0.032793716
8	0xbcea35b2	-0.028590057
9	0xb2bf0f96	-2.2242414e-08
10	0xbc9c2045	-0.019058356
11	0x3c0e2bb5	0.008677413
12	0xbc73e250	-0.0148855
13	0xbd3fabc3	-0.046794664
14	0xbb04e3a2	-0.0020277281
15	0xbccef3ae	-0.02526268
16	0xbcc730c9	-0.024315255
17	0x3c3e0872	0.011598693
18	0xbc99ed75	-0.018789986
19	0xbc1bcae8	-0.009508826
20	0x3c5b915e	0.013401357
21	0xbbce269f	-0.006291225
22	0x3cb4d482	0.022073988
23	0x3ca7cba0	0.020482838
24	0x3cd80857	0.026371164
25	0xbd53d26d	-0.05171435
26	0x3c4b69ec	0.01241539
27	0x3b6f63ac	0.0036527915
28	0x3ced78b9	0.02898823
29	0xbd67adaa	-0.056562103
30	0x3a3b43aa	0.00071435666
31	0xbbf49d01	-0.0074650054
32	0xbd1d4c24	-0.03840269
33	0x3cd60a58	0.02612798
34	0x3b377626	0.0027994006
35	0xbd55dd07	-0.05221274
36	0x3d444732	0.04791946
37	0xbb60d61b	-0.0034307304
38	0xb98944f5	-0.00026182053
39	0x3ccd08bb	0.025028577
40	0xbd0b6620	-0.03403294
41	0xbc6405cf	-0.0139174005
42	0xbc001462	-0.00781736
43	0x3bc6c018	0.00606538
44	0x3d17551f	0.036946412
45	0x0f2bac25	8.464105e-30
46	0x3c2c8e4f	0.010531976
47	0x3b703d1e	0.0036657522
48	0xbc785208	-0.0151562765
49	0x3bae7de1	0.0053250645
50	0x3b46dec1	0.0030345174
51	0xbd3c987a	-0.04604385
52	0x3d18dd6b	0.037320536
53	0xbc935dc7	-0.017989052
54	0xbd121875	-0.035667855
55	0xbc15e13d	-0.009147939
56	0x3d28a5e9	0.04117385
57	0xbd24b834	-0.040214732
58	0xbd3aa482	-0.045567043
59	0x3bd05e0c	0.0063588675
60	0x3b28f503	0.0025780804
61	0x3d286270	0.041109502
62	0xbce9a737	-0.028522117
63	0x3cf06563	0.02934522

fc1.weight f4 [1, 3200]
0	0x3ca1dd08	0.019758716
1	0xbad665ad	-0.0016357206
2	0x3c5352eb	0.012898187
3	0xb9af8b20	-0.00033482257
4	0xbc3ed7ab	-0.011648099
5	0xbde679b0	-0.11253679
6	0xbb0c9260	-0.002144955
7	0xbbfbec4c	-0.007688081
8	0xbbb8674b	-0.005627548
9	0xb8fa87bf	-0.000119462136
10	0x3c7426c0	0.014901817
11	0x3ba68031	0.0050811996
12	0xb9fa4822	-0.0004773746
13	0xbb73983d	-0.0037169599
14	0xbda8c711	-0.08241094
15	0xbd21f0c3	-0.03953625
16	0x3c4f40e2	0.012649747
17	0xbba71b07	-0.0050996575
18	0xbc31afce	-0.010845138
19	0x3b3c5b07	0.002874078
20	0x3c543f44	0.012954537
21	0xbca6f0ad	-0.020378435
22	0x3c4c127d	0.01245558
23	0x0000c7ac	7.1629e-41
24	0x3d0272d2	0.031847782
25	0x3c35a506	0.011086708
26	0x3d36111a	0.044449903
27	0x3bdd3c19	0.006751549
28	0x000186d1	1.40199e-40
29	0xbc0d7bc8	-0.008635469
30	0xbb8edc54	-0.0043597613
31	0xbc100a65	-0.008791541
32	0xbc19413a	-0.00935393
33	0x39e0c234	0.00042869302
34	0x3ca96db8	0.0206822
35	0x3d1401e6	0.036134623
36	0x3d0cc644	0.03436877
37	0xbadba579	-0.0016757689
38	0xb709b0f4	-8.207036e-06
39	0xbbcdfdd6	-0.006286363
40	0xbc809669	-0.015696721
41	0xbc571ae4	-0.01312897
42	0xbb8d435a	-0.0043110074
43	0xbaf4e405	-0.0018683678
44	0x3dda9131	0.10672224
45	0x3d400a8c	0.04688506
46	0x3c8b9752	0.017039929
47	0x3c7d05ff	0.015443324
48	0xbc76d777	-0.015066019
49	0xbc7045da	-0.014665091
50	0xbc5a04ae	-0.01330678
51	0x3c446f3d	0.011989412
52	0xbc55427d	-0.01301634
53	0xbc46d41f	-0.012135535
54	0x3a5c4a2e	0.00084033876
55	0xbd655420	-0.05598843
56	0xbc72a169	-0.014808991
57	0x3c1989d2	0.009371238
58	0xbb4dbd18	-0.0031393226
59	0xbbe39edb	-0.0069464273
60	0xbb5019cb	-0.0031753655
61	0xbb8b2964	-0.0042468775
62	0xbc860c86	-0.016363394
63	0xbc3ef233	-0.0116544245
64	0x3b6a1b26	0.0035721748
65	0xba832ab1	-0.001000723
66	0xbbad2948	-0.005284462
67	0xbba77385	-0.0051102065
68	0xbbe26970	-0.006909542
69	0x3c12be9d	0.008956579
70	0xba0f7472	-0.0005472369
71	0xbb77e1c5	-0.0037823778
72	0x3c9d85b0	0.019228786
73	0x3c0abbfb	0.00846767
74	0x3d86dc66	0.065850064
75	0x396f93d4	0.00022847886
76	0x3c811138	0.01575528
77	0xbc599f25	-0.013282572
78	0x3ba25242	0.0049536536
79	0x3c74ee03	0.014949325
80	0xbaceb85b	-0.0015771495
81	0x3c04401c	0.0080719255
82	0xbb931f47	-0.0044898125
83	0x3d7e80d8	0.062134594
84	0x3d5b1164	0.053483382
85	0xbd570d39	-0.052502844
86	0xbcaf177c	-0.021373503
87	0xbcb2f8a2	-0.021847073
88	0x3afa3e07	0.0019091972
89	0x3c011812	0.007879274
90	0x3cfe279d	0.031024748
91	0x3c953e8f	0.018218307
92	0x387e6f15	6.0661772e-05
93	0xbad024b9	-0.0015880085
94	0xbc702081	-0.014656187
95	0xbde11081	-0.10989476
96	0x3c99a6e6	0.018756341
97	0xbb4981fa	-0.0030747638
98	0xbbab84fc	-0.005234359
99	0xbbf94c85	-0.007607999
100	0x3b03bf19	0.0020102917
101	0xbb93d78b	-0.0045117787
102	0x3b7d8b0e	0.003868762
103	0x3bb42cb4	0.005498493
104	0xbac076af	-0.0014683808
105	0xbb9f0eac	-0.004854044
106	0x3c924cf8	0.017858967
107	0x3b8c1656	0.0042751236
108	0x3b24e154	0.002515872
109	0xbb3e6d4a	-0.002905684
110	0xbbf54533	-0.007485056
111	0x3c45d04d	0.012073589
112	0x3c8bda2b	0.017071804
113	0xbc432be4	-0.01191232
114	0x3a26fd4b	0.0006370141
115	0xbcaeeb18	-0.021352336
116	0xbc8e1702	-0.017344955
117	0x3c128617	0.008943102
118	0x3b96265e	0.0045822104
119	0x3bcc7b61	0.006240294
120	0xbc0eba44	-0.008711401
121	0xbc246f71	-0.010036335
122	0xbc80a929	-0.015705662
123	0x3cc86f86	0.024467241
124	0x3d4787c2	0.048713453
125	0x3c42f2c8	0.011898704
126	0x3b930b4f	0.004487432
127	0xbc621329	-0.013798513
128	0x3ce88361	0.028382959
129	0xbbb40d73	-0.0054947673
130	0xba768428	-0.0009403848
131	0x3c02c619	0.0079818005
132	0x3b5a28d4	0.0033288496
133	0x3d3c3182	0.04594565
134	0x3d69394a	0.0569394
135	0x3c3801e5	0.01123092
136	0x3bf7bc3c	0.007560281
137	0x3bef772b	0.007307907
138	0xbcac71c6	-0.021050345
139	0xb98f0331	-0.00027277463
140	0x8002385a	-2.03886e-40
141	0x3c284c1b	0.010272051
142	0x3b81b19f	0.0039579417
143	0x3cf5ff7c	0.030029051
144	0x3d8b32e4	0.06796816
145	0x3a618934	0.00086035137
146	0x3cc99593	0.024607455
147	0x3c076d3a	0.008265788
148	0x3d03c6b8	0.032171935
149	0xbc03b10d	-0.008037818
150	0xbc6148d6	-0.013750276
151	0x3cf457b4	0.029826976
152	0x3cc59f92	0.02412394
153	0x3cd9e84e	0.02660003
154	0x3d8e91a1	0.0696137
155	0xbd8528ac	-0.06501898
156	0x3d1e490e	0.03864389
157	0xbc4cc9e3	-0.012499305
158	0x3c5444f3	0.012955892
159	0xbbbc82f4	-0.0057529155
160	0xbce3ec6f	-0.027822701
161	0xbcbb5c53	-0.022871172
162	0xbca359cb	-0.019940278
163	0xbbf5cf62	-0.0075015286
164	0x3c91e2c3	0.017808324
165	0xbdbc88d0	-0.092057824
166	0xbba2009f	-0.0049439217
167	0x3c41bec8	0.011825271
168	0x3b16268d	0.0022911162
169	0xbcb0d5e0	-0.021586359
170	0x3a3cc45f	0.00072008924
171	0xbcc1df3d	-0.023666019
172	0x3c9410fd	0.018074507
173	0xbbb500a7	-0.0055237594
174	0x3cb9915f	0.022652326
175	0xbe7cf274	-0.24701864
176	0xbd4fb9c7	-0.05071428
177	0x3c50da35	0.012747337
178	0x390e45c7	0.0001356817
179	0x3b1768fc	0.0023103347
180	0xbc1960e8	-0.009361483
181	0xbcb0e431	-0.021593185
182	0xbcdc8e1b	-0.02692323
183	0xbc56e76f	-0.0131167015
184	0x3c0f1e78	0.008735292
185	0xbe7225c1	-0.23647214
186	0xbd708478	-0.058720082
187	0xbba1f43f	-0.0049424465
188	0xbc06db4f	-0.008230998
189	0xb584ca34	-9.893615e-07
190	0xbbeb3120	-0.007177487
191	0x3b9cbd9d	0.004783346
192	0xbc4ee335	-0.012627413
193	0x3c16f65e	0.009214012
194	0xb96d896e	-0.00022653278
195	0xbd814d8c	-0.06313619
196	0xbce6ee41	-0.02818978
197	0xbb001f7e	-0.001955002
198	0x3c14b59a	0.0090765
199	0x80016169	-1.2678e-40
200	0xba9396f0	-0.0011260193
201	0x3905b310	0.00012750574
202	0xbbd57a46	-0.0065148203
203	0xba36f8dd	-0.00069798325
204	0x3d2c830b	0.04211716
205	0xbc6d2a4a	-0.0144754145
206	0x3c234b92	0.009966748
207	0x3b978401	0.0046238904
208	0xbb386282	-0.0028134887
209	0x3c88d534	0.016703226
210	0x3c0c6271	0.008568392
211	0xbb31b59c	-0.0027116304
212	0x3b2928d7	0.0025811696
213	0x3ca894f4	0.020578839
214	0xbd828799	-0.063735195
215	0xbd4d76df	-0.050162192
216	0xbd24c191	-0.04022366
217	0xbb1390de	-0.0022516767
218	0xbcb22880	-0.021747828
219	0xbb32ca28	-0.002728114
220	0x3cd2fe9b	0.025756171
221	0x3bfbf38b	0.0076889447
222	0xbbed9d53	-0.0072514205
223	0xbc2fdaf8	-0.010733359
224	0xbb6f83b0	-0.0036546998
225	0xbd83ada9	-0.064296074
226	0xbda6b0b3	-0.081391715
227	0xbbf84ece	-0.0075777536
228	0xbabb9627	-0.0014311717
229	0xbc1cf97f	-0.009580969
230	0x3c31fdd0	0.010863736
231	0x3cdda14b	0.02705445
232	0xbccbad7e	-0.024863001
233	0x3c0d5251	0.008625583
234	0x3d9082d0	0.070562005
235	0xbd28760b	-0.0411282
236	0xbc09b0b0	-0.008403942
237	0x3ca0d442	0.019632462
238	0xbcdfa530	-0.027300447
239	0x3c741031	0.014896438
240	0x3aa0a266	0.001225543
241	0x3c746fac	0.014919203
242	0x3b86d3b8	0.0041145943
243	0x39c72a8f	0.00037987946
244	0x3cc6fd01	0.024290564
245	0xbb25577d	-0.002522915
246	0x3bb722b6	0.0055888547
247	0x3c600550	0.013673142
248	0x3b348faa	0.002755145
249	0xbb17745c	-0.0023110127
250	0x3b1f35f5	0.0024293636
251	0xbb11717a	-0.0022192881
252	0x3c8c00c6	0.017090213
253	0xbc9faacc	-0.019490622
254	0x3ca9d53c	0.02073156
255	0xbd176ecd	-0.036970902

out.0.weight f4 [1, 3200]
0	0x3ca1dd08	0.019758716
1	0xbad665ad	-0.0016357206
2	0x3c5352eb	0.012898187
3	0xb9af8b20	-0.00033482257
4	0xbc3ed7ab	-0.011648099
5	0xbde679b0	-0.11253679
6	0xbb0c9260	-0.002144955
7	0xbbfbec4c	-0.007688081
8	0xbbb8674b	-0.005627548
9	0xb8fa87bf	-0.000119462136
10	0x3c7426c0	0.014901817
11	0x3ba68031	0.0050811996
12	0xb9fa4822	-0.0004773746
13	0xbb73983d	-0.0037169599
14	0xbda8c711	-0.08241094
15	0xbd21f0c3	-0.03953625
16	0x3c4f40e2	0.012649747
17	0xbba71b07	-0.0050996575
18	0xbc31afce	-0.010845138
19	0x3b3c5b07	0.002874078
20	0x3c543f44	0.012954537
21	0xbca6f0ad	-0.020378435
22	0x3c4c127d	0.01245558
23	0x0000c7ac	7.1629e-41
24	0x3d0272d2	0.031847782
25	0x3c35a506	0.011086708
26	0x3d36111a	0.044449903
27	0x3bdd3c19	0.006751549
28	0x000186d1	1.40199e-40
29	0xbc0d7bc8	-0.008635469
30	0xbb8edc54	-0.0043597613
31	0xbc100a65	-0.008791541
32	0xbc19413a	-0.00935393
33	0x39e0c234	0.00042869302
34	0x3ca96db8	0.0206822
35	0x3d1401e6	0.036134623
36	0x3d0cc644	0.03436877
37	0xbadba579	-0.0016757689
38	0xb709b0f4	-8.207036e-06
39	0xbbcdfdd6	-0.006286363
40	0xbc809669	-0.015696721
41	0xbc571ae4	-0.01312897
42	0xbb8d435a	-0.0043110074
43	0xbaf4e405	-0.0018683678
44	0x3dda9131	0.10672224
45	0x3d400a8c	0.04688506
46	0x3c8b9752	0.017039929
47	0x3c7d05ff	0.015443324
48	0xbc76d777	-0.015066019
49	0xbc7045da	-0.014665091
50	0xbc5a04ae	-0.01330678
51	0x3c446f3d	0.011989412
52	0xbc55427d	-0.01301634
53	0xbc46d41f	-0.012135535
54	0x3a5c4a2e	0.00084033876
55	0xbd655420	-0.05598843
56	0xbc72a169	-0.014808991
57	0x3c1989d2	0.009371238
58	0xbb4dbd18	-0.0031393226
59	0xbbe39edb	-0.0069464273
60	0xbb5019cb	-0.0031753655
61	0xbb8b2964	-0.0042468775
62	0xbc860c86	-0.016363394
63	0xbc3ef233	-0.0116544245
64	0x3b6a1b26	0.0035721748
65	0xba832ab1	-0.001000723
66	0xbbad2948	-0.005284462
67	0xbba77385	-0.0051102065
68	0xbbe26970	-0.006909542
69	0x3c12be9d	0.008956579
70	0xba0f7472	-0.0005472369
71	0xbb77e1c5	-0.0037823778
72	0x3c9d85b0	0.019228786
73	0x3c0abbfb	0.00846767
74	0x3d86dc66	0.065850064
75	0x396f93d4	0.00022847886
76	0x3c811138	0.01575528
77	0xbc599f25	-0.013282572
78	0x3ba25242	0.0049536536
79	0x3c74ee03	0.014949325
80	0xbaceb85b	-0.0015771495
81	0x3c04401c	0.0080719255
82	0xbb931f47	-0.0044898125
83	0x3d7e80d8	0.062134594
84	0x3d5b1164	0.053483382
85	0xbd570d39	-0.052502844
86	0xbcaf177c	-0.021373503
87	0xbcb2f8a2	-0.021847073
88	0x3afa3e07	0.0019091972
89	0x3c011812	0.007879274
90	0x3cfe279d	0.031024748
91	0x3c953e8f	0.018218307
92	0x387e6f15	6.0661772e-05
93	0xbad024b9	-0.0015880085
94	0xbc702081	-0.014656187
95	0xbde11081	-0.10989476
96	0x3c99a6e6	0.018756341
97	0xbb4981fa	-0.0030747638
98	0xbbab84fc	-0.005234359
99	0xbbf94c85	-0.007607999
100	0x3b03bf19	0.0020102917
101	0xbb93d78b	-0.0045117787
102	0x3b7d8b0e	0.003868762
103	0x3bb42cb4	0.005498493
104	0xbac076af	-0.0014683808
105	0xbb9f0eac	-0.004854044
106	0x3c924cf8	0.017858967
107	0x3b8c1656	0.0042751236
108	0x3b24e154	0.002515872
109	0xbb3e6d4a	-0.002905684
110	0xbbf54533	-0.007485056
111	0x3c45d04d	0.012073589
112	0x3c8bda2b	0.017071804
113	0xbc432be4	-0.01191232
114	0x3a26fd4b	0.0006370141
115	0xbcaeeb18	-0.021352336
116	0xbc8e1702	-0.017344955
117	0x3c128617	0.008943102
118	0x3b96265e	0.0045822104
119	0x3bcc7b61	0.006240294
120	0xbc0eba44	-0.008711401
121	0xbc246f71	-0.010036335
122	0xbc80a929	-0.015705662
123	0x3cc86f86	0.024467241
124	0x3d4787c2	0.048713453
125	0x3c42f2c8	0.011898704
126	0x3b930b4f	0.004487432
127	0xbc621329	-0.013798513
128	0x3ce88361	0.028382959
129	0xbbb40d73	-0.0054947673
130	0xba768428	-0.0009403848
131	0x3c02c619	0.0079818005
132	0x3b5a28d4	0.0033288496
133	0x3d3c3182	0.04594565
134	0x3d69394a	0.0569394
135	0x3c3801e5	0.01123092
136	0x3bf7bc3c	0.007560281
137	0x3bef772b	0.007307907
138	0xbcac71c6	-0.021050345
139	0xb98f0331	-0.00027277463
140	0x8002385a	-2.03886e-40
141	0x3c284c1b	0.010272051
142	0x3b81b19f	0.0039579417
143	0x3cf5ff7c	0.030029051
144	0x3d8b32e4	0.06796816
145	0x3a618934	0.00086035137
146	0x3cc99593	0.024607455
147	0x3c076d3a	0.008265788
148	0x3d03c6b8	0.032171935
149	0xbc03b10d	-0.008037818
150	0xbc6148d6	-0.013750276
151	0x3cf457b4	0.029826976
152	0x3cc59f92	0.02412394
153	0x3cd9e84e	0.02660003
154	0x3d8e91a1	0.0696137
155	0xbd8528ac	-0.06501898
156	0x3d1e490e	0.03864389
157	0xbc4cc9e3	-0.012499305
158	0x3c5444f3	0.012955892
159	0xbbbc82f4	-0.0057529155
160	0xbce3ec6f	-0.027822701
161	0xbcbb5c53	-0.022871172
162	0xbca359cb	-0.019940278
163	0xbbf5cf62	-0.0075015286
164	0x3c91e2c3	0.017808324
165	0xbdbc88d0	-0.092057824
166	0xbba2009f	-0.0049439217
167	0x3c41bec8	0.011825271
168	0x3b16268d	0.0022911162
169	0xbcb0d5e0	-0.021586359
170	0x3a3cc45f	0.00072008924
171	0xbcc1df3d	-0.023666019
172	0x3c9410fd	0.018074507
173	0xbbb500a7	-0.0055237594
174	0x3cb9915f	0.022652326
175	0xbe7cf274	-0.24701864
176	0xbd4fb9c7	-0.05071428
177	0x3c50da35	0.012747337
178	0x390e45c7	0.0001356817
179	0x3b1768fc	0.0023103347
180	0xbc1960e8	-0.009361483
181	0xbcb0e431	-0.021593185
182	0xbcdc8e1b	-0.02692323
183	0xbc56e76f	-0.0131167015
184	0x3c0f1e78	0.008735292
185	0xbe7225c1	-0.23647214
186	0xbd708478	-0.058720082
187	0xbba1f43f	-0.0049424465
188	0xbc06db4f	-0.008230998
189	0xb584ca34	-9.893615e-07
190	0xbbeb3120	-0.007177487
191	0x3b9cbd9d	0.004783346
192	0xbc4ee335	-0.012627413
193	0x3c16f65e	0.009214012
194	0xb96d896e	-0.00022653278
195	0xbd814d8c	-0.06313619
196	0xbce6ee41	-0.02818978
197	0xbb001f7e	-0.001955002
198	0x3c14b59a	0.0090765
199	0x80016169	-1.2678e-40
200	0xba9396f0	-0.0011260193
201	0x3905b310	0.00012750574
202	0xbbd57a46	-0.0065148203
203	0xba36f8dd	-0.00069798325
204	0x3d2c830b	0.04211716
205	0xbc6d2a4a	-0.0144754145
206	0x3c234b92	0.009966748
207	0x3b978401	0.0046238904
208	0xbb386282	-0.0028134887
209	0x3c88d534	0.016703226
210	0x3c0c6271	0.008568392
211	0xbb31b59c	-0.0027116304
212	0x3b2928d7	0.0025811696
213	0x3ca894f4	0.020578839
214	0xbd828799	-0.063735195
215	0xbd4d76df	-0.050162192
216	0xbd24c191	-0.04022366
217	0xbb1390de	-0.0022516767
218	0xbcb22880	-0.021747828
219	0xbb32ca28	-0.002728114
220	0x3cd2fe9b	0.025756171
221	0x3bfbf38b	0.0076889447
222	0xbbed9d53	-0.0072514205
223	0xbc2fdaf8	-0.010733359
224	0xbb6f83b0	-0.0036546998
225	0xbd83ada9	-0.064296074
226	0xbda6b0b3	-0.081391715
227	0xbbf84ece	-0.0075777536
228	0xbabb9627	-0.0014311717
229	0xbc1cf97f	-0.009580969
230	0x3c31fdd0	0.010863736
231	0x3cdda14b	0.02705445
232	0xbccbad7e	-0.024863001
233	0x3c0d5251	0.008625583
234	0x3d9082d0	0.070562005
235	0xbd28760b	-0.0411282
236	0xbc09b0b0	-0.008403942
237	0x3ca0d442	0.019632462
238	0xbcdfa530	-0.027300447
239	0x3c741031	0.014896438
240	0x3aa0a266	0.001225543
241	0x3c746fac	0.014919203
242	0x3b86d3b8	0.0041145943
243	0x39c72a8f	0.00037987946
244	0x3cc6fd01	0.024290564
245	0xbb25577d	-0.002522915
246	0x3bb722b6	0.0055888547
247	0x3c600550	0.013673142
248	0x3b348faa	0.002755145
249	0xbb17745c	-0.0023110127
250	0x3b1f35f5	0.0024293636
251	0xbb11717a	-0.0022192881
252	0x3c8c00c6	0.017090213
253	0xbc9faacc	-0.019490622
254	0x3ca9d53c	0.02073156
255	0xbd176ecd	-0.036970902

exp_avg f4 [32, 2, 5, 5]
0	0xb96c56ca	-0.00022539045
1	0xb91c38db	-0.000148985
2	0xb886cfaf	-6.428302e-05
3	0x36ccdb22	6.105184e-06
4	0x388fb9a5	6.85335e-05
5	0xb94dd816	-0.00019630822
6	0xb8d5630e	-0.00010175082
7	0xb82ba6bf	-4.092487e-05
8	0x37e2f1a0	2.7053815e-05
9	0x37da6798	2.6035865e-05
10	0xb8abb58d	-8.187732e-05
11	0xb80103fe	-3.0759715e-05
12	0x378c0a2a	1.6694034e-05
13	0x380e91a1	3.3991066e-05
14	0x36929328	4.3682703e-06
15	0x38090a0f	3.2672713e-05
16	0x384e73b1	4.9221973e-05
17	0x3809f7a0	3.2893964e-05
18	0x37a8023e	2.0028205e-05
19	0xb8129ecd	-3.4957007e-05
20	0x39328e8d	0.00017028507
21	0x390d8272	0.00013495403
22	0x38b6bc0d	8.7134635e-05
23	0x37ee300a	2.839418e-05
24	0xb8da7589	-0.00010416943
25	0x381f098f	3.7917456e-05
26	0x391c6c8b	0.00014917755
27	0x39542403	0.00020231311
28	0x3955c9d7	0.00020388454
29	0x3914a72c	0.00014176656
30	0x3932f95f	0.00017068301
31	0x39805b42	0.00024482055
32	0x39a1637f	0.00030782443
33	0x3993d17d	0.00028194106
34	0x39544315	0.00020242886
35	0x399b7e66	0.00029658078
36	0x39c41fee	0.00037407823
37	0x39da4508	0.00041631632
38	0x39baaf9c	0.00035607524
39	0x3964f187	0.0002183375
40	0x39f46905	0.00046617552
41	0x3a08106a	0.0005190434
42	0x3a090cd8	0.0005228049
43	0x39de5d61	0.00042412712
44	0x3964435f	0.00021768872
45	0x3a1ae781	0.00059091306
46	0x3a1f80ac	0.0006084542
47	0x3a13f476	0.00056440325
48	0x39db525a	0.00041832292
49	0x3931d173	0.00016958061
50	0x39c6716a	0.00037850003
51	0x39d17458	0.0003995027
52	0x39d20469	0.00040057607
53	0x39b6c45a	0.00034860038
54	0x3997ec98	0.0002897724
55	0x39ac5f24	0.00032877282
56	0x39c27260	0.0003708778
57	0x39c60bc9	0.00037774284
58	0x39c48b6f	0.0003748792
59	0x39a3a2df	0.0003121113
60	0x398a5096	0.00026381452
61	0x39aa3034	0.0003246084
62	0x39c4abed	0.00037512128
63	0x39ca6fba	0.00038611685
64	0x39b81ea0	0.00035118032
65	0x3952fb75	0.00020120836
66	0x399d8700	0.00030045956
67	0x39c11dcf	0.00036834038
68	0x39d08197	0.00039769404
69	0x39c8ed72	0.00038323883
70	0x38918f05	6.940778e-05
71	0x3955c509	0.00020386664
72	0x39a044d0	0.00030568847
73	0x39c2aeef	0.000371329
74	0x39bf2444	0.0003645738
75	0x39ce3d3a	0.00039337
76	0x39e67814	0.00043958484
77	0x39d53a93	0.00040670167
78	0x39ce7ee5	0.00039385926
79	0x39a15b4c	0.00030776334
80	0x39bddfc4	0.00036215608
81	0x39d11048	0.00039875717
82	0x39dad869	0.00041741438
83	0x39c8baeb	0.00038286237
84	0x39b48d09	0.00034437355
85	0x39b13694	0.00033800735
86	0x39d34c63	0.0004030197
87	0x39d9756b	0.00041476949
88	0x39d61152	0.00040830165
89	0x39c4b198	0.0003751635
90	0x399c973f	0.00029867326
91	0x39c96af1	0.00038417385
92	0x39e2f38c	0.00043287536
93	0x39e9ef32	0.00044619438
94	0x39e3ca4f	0.00043447546
95	0x39389e89	0.00017606666
96	0x39a12b79	0.00030740703
97	0x39cd510e	0.00039161037
98	0x39dcc0a3	0.00042105195
99	0x39d87cc4	0.00041291688
100	0xb8bb1a22	-8.9217225e-05
101	0xb8aabc78	-8.141337e-05
102	0xb8e0928d	-0.000107084496
103	0xb93b1584	-0.00017841725
104	0xb9542f9a	-0.00020235628
105	0xb8acb5f0	-8.2354876e-05
106	0xb8bc874a	-8.989738e-05
107	0xb911ad19	-0.00013892761
108	0xb941830b	-0.00018454732
109	0xb980871a	-0.0002451472
110	0xb79e6af1	-1.8884866e-05
111	0xb7ed2eee	-2.8274455e-05
112	0xb840945e	-4.5914545e-05
113	0xb8c9e9a6	-9.627947e-05
114	0xb8beb702	-9.093994e-05
115	0xb74e87a2	-1.2310136e-05
116	0x36f54f50	7.310802e-06
117	0x3732c5df	1.0655697e-05
118	0x383f1e6d	4.5566285e-05
119	0x38d4d6e5	0.00010148975
120	0xb844d1b5	-4.6925346e-05
121	0x378a1964	1.6462705e-05
122	0x38690241	5.5553628e-05
123	0x390f1ae4	0.0001364756
124	0x3990b1e3	0.00027598356
125	0xb895cf60	-7.1435e-05
126	0xb8a87dfb	-8.03433e-05
127	0xb90cd472	-0.00013430582
128	0xb95be8eb	-0.00020972236
129	0xb99ec36e	-0.00030281715
130	0xb8b90fc9	-8.824428e-05
131	0xb8e0bd91	-0.00010716462
132	0xb927e112	-0.00016010206
133	0xb98064d4	-0.00024489185
134	0xb9a95628	-0.00032298383
135	0xb801cfca	-3.0949515e-05
136	0xb8583757	-5.1549952e-05
137	0xb8a834f4	-8.0207275e-05
138	0xb9028648	-0.0001244779
139	0xb935e5b6	-0.00017347079
140	0xb7eb23c2	-2.8030834e-05
141	0xb7885c57	-1.6255462e-05
142	0xb6f49ee4	-7.290264e-06
143	0xb72fc2b5	-1.0476147e-05
144	0x37c3248d	2.3262832e-05
145	0xb88b02bd	-6.6285465e-05
146	0xb825f733	-3.9569288e-05
147	0x3830aa7c	4.2120446e-05
148	0x39013d74	0.00012325292
149	0x39462601	0.00018896909
150	0x3a02fd63	0.0004996864
151	0x3a3153ff	0.00067645306
152	0x3a54aa59	0.0008112542
153	0x3a6ff498	0.0009153574
154	0x3a76de47	0.0009417277
155	0x39f779cd	0.0004720226
156	0x3a1b1283	0.0005915539
157	0x3a30cf88	0.0006744792
158	0x3a37ca50	0.0007011043
159	0x3a2367ed	0.00062334427
160	0x39e4ea63	0.0004366218
161	0x3a036398	0.0005012094
162	0x39ff8403	0.00048735747
163	0x39dc9d7f	0.00042079014
164	0x3983b171	0.0002511847
165	0x39ca5ea4	0.00038598955
166	0x39c0f841	0.00036806057
167	0x399db546	0.00030080433
168	0x3925c933	0.00015810579
169	0xb9066e03	-0.00012820218
170	0x399bf525	0.0002974655
171	0x398206c1	0.00024800564
172	0x38c5c7d1	9.430911e-05
173	0xb906feab	-0.00012874107
174	0xb9f36c37	-0.00046429198
175	0x39e3f65c	0.00043480366
176	0x3a06479a	0.0005122364
177	0x3a2096eb	0.0006126004
178	0x3a2a5b2e	0.0006498572
179	0x3a1ed2e9	0.000605865
180	0x39cc6df8	0.00038991845
181	0x39da3b6d	0.00041624476
182	0x39d7295a	0.00041038805
183	0x39bb0021	0.00035667515
184	0x396bbd48	0.00022481859
185	0x39aac0c9	0.00032568563
186	0x3990aa40	0.00027592666
187	0x395963a1	0.00020731847
188	0x383685e5	4.351688e-05
189	0xb94d3127	-0.00019568634
190	0x3983753d	0.00025073616
191	0x39271d44	0.00015937263
192	0xb793ed57	-1.7634286e-05
193	0xb99ea032	-0.00030255463
194	0xba1a416e	-0.00058843836
195	0x39224a34	0.00015477167
196	0xb6fe5530	-7.579707e-06
197	0xb96eaf8a	-0.00022762842
198	0xba11136a	-0.0005534204
199	0xba727bff	-0.0009250044
200	0xb9ae2e67	-0.0003322244
201	0xb9ad2d6e	-0.0003303098
202	0xb98fff2a	-0.00027465197
203	0xb91b1e7c	-0.00014793308
204	0x38b62b6d	8.686525e-05
205	0xb9b9dc02	-0.00035449868
206	0xb9b5ae5b	-0.00034652915
207	0xb9a8790b	-0.0003213364
208	0xb93f168e	-0.00018223582
209	0x38291be1	4.0318704e-05
210	0xb9da8c5c	-0.00041684776
211	0xb9d578ab	-0.0004071643
212	0xb9c79e5b	-0.00038074222
213	0xb991bcef	-0.00027797322
214	0xb84fe709	-4.9567814e-05
215	0xb9d0dd48	-0.0003983772
216	0xb9d7396a	-0.00041050772
217	0xb9cba28b	-0.0003884028
218	0xb985c549	-0.00025514726
219	0xb8964ebe	-7.167224e-05
220	0xb9c2a90f	-0.00037128522
221	0xb9c05599	-0.0003668487
222	0xb9a99f9c	-0.0003235311
223	0xb97b19d3	-0.00023946846
224	0xb7ec55e7	-2.8173394e-05
225	0xb958474c	-0.00020625925
226	0xb915e641	-0.00014295524
227	0xb8612e95	-5.3687563e-05
228	0x38f1f413	0.00011537238
229	0x39a2a13b	0.00031019174
230	0xb954a9ca	-0.00020281147
231	0xb925ca8b	-0.0001581108
232	0xb858d763	-5.1699008e-05
233	0x38d19e21	9.9953504e-05
234	0x39a4b128	0.0003141251
235	0xb98e4dd0	-0.00027142325
236	0xb975781e	-0.00023409768
237	0xb90bb869	-0.00013324771
238	0x38296f09	4.039615e-05
239	0x39671ec1	0.00022041333
240	0xb990925e	-0.00027574872
241	0xb9625d50	-0.00021587801
242	0xb8f64eb7	-0.00011744856
243	0x3793bde5	1.7612192e-05
244	0x3965aa8d	0.00021902677
245	0xb97f0905	-0.00024322055
246	0xb948ce89	-0.00019150427
247	0xb8c62f5f	-9.450199e-05
248	0x388f8658	6.843795e-05
249	0x3956dc8c	0.0002049079
250	0x38f6764b	0.00011752228
251	0x3981110a	0.00024617492
252	0x39e0157f	0.00042740625
253	0x3a2500ff	0.0006294399
254	0x3a639265	0.0008681177
255	0x38d342ec	0.00010073729
