results/2BS/T_1/L_6000/seed2/model_best.pth.tar (torch_old, 395616 bytes, 22 tensors)

layer1.conv.weight f4 [32, 2, 5, 5]
0.01153474 -0.047810417 0.034797303 -0.08522713 0.04676229 0.0067293462 -0.05516656 -0.118972115
0.03382251 0.066186205 0.019869974 -0.047577042 -0.0053594136 -0.017116468 -0.07760997 -0.031991135
-0.017684298 0.009408146 -0.042646743 -0.0033278377 0.050751425 -0.028521508 0.010863042 0.019257216
-0.05000713 0.037083797 -0.019222822 0.0013821883 0.034628596 -0.018427785 0.022352995 0.056438953
0.009914927 -0.046236034 -0.0802493 0.0717584 -0.018667672 0.12489312 0.0052501466 -0.034690335
0.052398127 0.16046372 0.035528913 -0.05073378 0.043622356 -0.043217566 0.00510883 0.06773167
0.09556166 0.039420523 0.030217387 0.00082123757 0.009120088 -0.10326959 -0.018475084 -0.06684057
-0.030524425 0.077742815 -0.044871856 -0.05611903 -0.046462055 -0.06325555 0.03135079 -0.11747144
-0.005559635 -0.09760018 0.016702618 -0.022954218 -0.047563963 -0.12140887 0.06800559 -0.011353325
0.041571803 0.026454214 0.019779703 -0.026258072 0.06247867 0.052564263 0.020600166 -0.007467856
-0.0090475725 -0.023700513 0.0946154 -0.07118778 -0.10460696 0.05468593 0.028674366 0.05038775
-0.032312997 0.0075459694 -0.004587866 -0.051316988 0.057615623 0.060925867 -0.06609321 -0.021060748
0.06785119 0.031519637 -0.058129035 -0.037582263 -0.06866907 0.08013123 0.075527 0.05387658
0.05318518 -0.045123905 -0.008004564 0.08251259 -0.02156588 0.058099862 0.018826596 -0.065892
0.06396034 -0.10612771 0.06531795 -0.04721825 -0.03361859 0.009935697 0.024916647 -0.033925325
0.024107214 0.08807194 0.02184793 0.079225555 0.09128085 -0.04217196 -0.015129004 -0.05666838
0.023949811 -0.07559911 0.013708559 -0.04759266 -0.0012905365 0.06254727 0.09386298 0.09900228
-0.0018548983 -0.036402673 -0.020348469 0.031153768 -0.07772108 -0.008441408 0.017830243 -0.0069541275
-0.08427699 0.01572434 -0.055794653 -0.14312103 -0.05515011 -0.07126824 0.0072395788 0.012727097
0.036252327 -0.02376859 0.020304821 -0.078156 0.053954225 0.01991482 -0.015993707 -0.049373608
0.0076190187 -0.023114871 -0.034402747 0.036590118 0.013594444 -0.06908813 -0.013396221 0.15453365
0.069913514 0.15330662 0.0736213 -0.035873566 0.017397206 0.089693 0.008167672 -0.022929905
-0.035540752 -0.048770886 0.07403498 0.031630166 0.02070191 -0.08447702 -0.11962115 0.04394978
-0.035282746 -0.09604877 -0.0013215311 0.02428286 -0.0030117594 0.029342754 0.011598468 0.07151179
-0.11379583 -0.09144375 -0.05950122 -0.10208403 -0.053497925 -0.038623076 0.0048412797 -0.0011005657
0.021107636 -0.060498845 0.031040037 0.014470876 0.0077246292 0.014086949 0.039585233 -0.0039607063
0.005417423 0.0044775195 -0.077535644 -0.11469627 -0.09411202 0.03421247 0.05027732 0.007783827
-0.057759166 -0.020065956 0.026835758 0.020708496 -0.03744432 -0.042645335 -0.066452846 -0.08972957
0.039549746 -0.0373398 0.04886028 -0.0006835344 0.020707197 0.051864002 -0.0058735358 0.014048754
-0.033774793 -0.04170643 0.05988589 0.03261304 -0.044169746 0.040984746 0.04756202 -0.041147362
-0.02125056 0.019085066 -0.008008993 -0.038391475 -0.00637271 -0.0053502778 0.03911822 0.06809277
0.06628135 0.010628898 -0.06902182 0.00032726314 -0.0004824835 0.07783651 -0.012748633 0.04807092
00000000: 35fc 3c3c dbd4 43bd 9e87 0e3d 908b aebd
00000010: d189 3f3d d981 dc3b 55f6 61bd a7a7 f3bd
00000020: 7989 0a3d a28c 873d 5bc6 a23c 25e0 42bd
00000030: 059e afbb d637 8cbc faf1 9ebd 2309 03bd
00000040: a9de 90bc a024 1a3c 5aae 2ebd da17 5abb
00000050: bae0 4f3d f0a5 e9bc e7fa 313c 4fc1 9d3c
00000060: 47d4 4cbd 2ee5 173d 2e79 9dbc 8b2a b53a
00000070: b7d6 0d3d def5 96bc a11d b73c 882c 673d
00000080: 3872 223c ff61 3dbd bf59 a4bd 11f6 923d
00000090: f2ec 98bc f7c7 ff3d 6c09 ac3b 7417 0ebd
000000a0: 6b9f 563d 9a50 243e c486 113d 39ce 4fbd
000000b0: 5bad 323d e704 31bd f967 a73b e7b6 8a3d
000000c0: d5b5 c33d 6a77 213d 748a f73c 5248 573a
000000d0: 6c6c 153c 027f d3bd 0f59 97bc b5e3 88bd
000000e0: 5c0e fabc a037 9f3d 8dcb 37bd 11dd 65bd
000000f0: ff4e 3ebd 208c 81bd b069 003d de94 f0bd
00000100: 992d b6bb 9ae2 c7bd eed3 883c 7c0a bcbc
00000110: 6ed2 42bd 37a5 f8bd 8446 8b3d 4c03 3abc
00000120: 3247 2a3d 82b6 d83c 0b09 a23c 2b1b d7bc
00000130: a2e9 7f3d a04d 573d aec1 a83c ebb4 f4bb
00000140: 453c 14bc 9427 c2bc b8c5 c13d e6ca 91bd
00000150: 2d3c d6bd 5bfe 5f3d 81e6 ea3c 6363 4e3d
00000160: a25a 04bd 2e44 f73b cf55 96bb c331 52bd
00000170: 5cfe 6b3d 678d 793d e05b 87bd 9787 acbc
00000180: 91f5 8a3d bc1a 013d b618 6ebd dcef 19bd
00000190: 5fa2 8cbd d81b a43d e6ad 9a3d b0ad 5c3d
000001a0: b4d8 593d d8d3 38bd 9325 03bc 5cfc a83d
000001b0: eeaa b0bc 1ffa 6d3d 3c3a 9a3c 63f2 86bd
000001c0: a4fd 823d 7c59 d9bd 6bc5 853d ec67 41bd
000001d0: a6b3 09bd 55c9 223c ff1d cc3c 48f5 0abd
000001e0: 7e7c c53c 105f b43d 6efa b23c 0241 a23d
000001f0: 74f1 ba3d 81bc 2cbd a4df 77bc 1a1d 68bd
00000200: 6532 c43c b5d3 9abd dd99 603c 85f0 42bd
00000210: 3827 a9ba c818 803d 3c3b c03d b5c1 ca3d
00000220: 0f20 f3ba f81a 15bd d5b1 a6bc 3036 ff3c
00000230: 3b2c 9fbd d54d 0abc bb10 923c 73df e3bb
00000240: 6a99 acbd 55d0 803c ef88 64bd 528e 12be
00000250: 15e5 61bd 15f5 91bd fd39 ed3b 5085 503c
00000260: 527d 143d 59b6 c2bc 4c56 a63c 4110 a0bd
00000270: 1bff 5c3d 6824 a33c 3c05 83bc fb3b 4abd
00000280: f6a8 f93b 665b bdbc e5e9 0cbd 85df 153d
00000290: 3bbb 5e3c 147e 8dbd d37b 5bbc 123e 1e3e
000002a0: d12e 8f3d 69fc 1c3e c4c6 963d 29f0 12bd
000002b0: 9684 8e3c f7b0 b73d b3d1 053c 7fd7 bbbc
000002c0: 2e93 11bd fbc3 47bd a79f 973d a28e 013d
000002d0: 0d97 a93c 4a02 adbd effb f4bd af04 343d
000002e0: a484 10bd 38b5 c4bd 3a37 adba d9ec c63c
000002f0: f060 45bb 3760 f03c 8007 3e3c c674 923d
00000300: ca0d e9bd dc46 bbbd 8db7 73bd 6f11 d1bd
00000310: a420 5bbd 3b33 1ebd 99a3 9e3b db40 90ba
00000320: ece9 ac3c a3cd 77bd ad47 fe3c 4117 6d3c
00000330: e31e fd3b f2cc 663c 2024 223d d0c8 81bb
00000340: a384 b13b 28b8 923b 02cb 9ebd e1e5 eabd
00000350: cebd c0bd 6022 0c3d 97ef 4d3d 790f ff3b
00000360: e094 6cbd 5c61 a4bc aad6 db3c dda4 a93c
00000370: 375f 19bd e0ac 2ebd 6e18 88bd 23c4 b7bd
00000380: eafe 213d 9ef1 18bd b821 483d 382f 33ba
00000390: 24a2 a93c 596f 543d ca76 c0bb bf2c 663c
000003a0: 7057 0abd 5dd4 2abd e84a 753d 4095 053d
000003b0: 56eb 34bd 9fdf 273d 65d0 423d 238a 28bd
000003c0: a815 aebc 4958 9c3c 2738 03bc 6140 1dbd
000003d0: 2bd2 d0bb 6251 afbb 6d3a 203d 3974 8b3d
000003e0: 84be 873d d424 2e3c 505b 8dbd 8494 ab39
000003f0: d7f5 fcb9 c068 9f3d a4df 50bc 03e6 443d

layer1.conv.bias f4 [32]
0.04476912 -0.015999956 0.066199645 -0.03813743 -0.046969935 -0.059573587 -0.11399731 0.014849552
-0.008623808 0.13522284 -0.059993558 0.08974392 0.107286595 -0.025426332 0.05123167 0.13423729
0.017411502 -0.12699625 -0.13680066 0.064969145 -0.079777956 0.05219548 -0.027838172 -0.058592673
0.043784067 -0.1302268 0.018837301 0.0057713757 -0.13495304 0.018928174 -0.1293101 0.09477588
00000000: d35f 373d 5712 83bc ae93 873d fe35 1cbd
00000010: 8c63 40bd 6f03 74bd 6c77 e9bd 894b 733c
00000020: df4a 0dbc db77 0a3e cebb 75bd a9cb b73d
00000030: 13b9 db3d e24a d0bc 4dd8 513d 8075 093e
00000040: 91a2 8e3c 4e0b 02be 7915 0cbe 8b0e 853d
00000050: a062 a3bd edca 553d e10c e4bc dffe 6fbd
00000060: ec56 333d 2d5a 05be af50 9a3c cf1d bd3b
00000070: 2131 0abe 420f 9b3c de69 04be db19 c23d

layer2.conv1.weight f4 [32, 32, 3, 3]
0.08093006 -0.12760046 -0.09156436 -0.20769909 -0.07739403 -0.03299982 0.2376794 -0.01270791
-0.039521854 0.056488145 0.037797213 -0.024024047 -0.019337857 -0.08494907 0.022940844 0.08628406
-0.03228058 0.07054553 -0.081271045 -0.104582936 0.05621449 -0.06736994 0.06932705 -0.11830943
0.122754894 -0.05116276 0.10832062 -0.10743886 0.03469316 -0.07589888 0.010832107 0.016056696
0.11262666 -0.029083364 -0.051029213 0.13903916 -0.14433064 0.090389855 -0.05163362 0.02659308
-0.020735359 -0.023746915 0.013299029 -0.042836163 -0.06556088 0.049257804 0.0399286 0.05566786
-0.016945964 -0.036179565 -0.025977388 -0.08602766 -0.12349736 -0.10209674 -0.038016003 0.020982023
-0.028211216 0.04210284 0.06788042 -0.005178835 -0.049257483 0.07685234 -0.067069225 0.036153223
-0.09512825 -0.012096162 0.010667818 -0.17939487 -0.07882162 0.1168698 -0.015162907 -0.052871957
-0.01747558 -0.06376647 0.03959716 0.060853664 0.18322547 -0.16446233 -0.020097766 0.036527544
0.092921875 0.0829147 -0.019344177 -0.036274668 -0.0038183548 -0.031471442 -0.06949129 -0.01847996
-0.057270437 -0.052338332 -0.10439261 0.108409844 0.1823668 -0.019863117 0.015400219 -0.02090913
0.110454805 -0.08081609 -0.13067764 -0.012572684 -0.13148935 -0.160104 -0.13276048 -0.099975206
-0.0064093797 -0.031068487 -0.016809525 -0.031965464 0.016294228 0.053591754 0.051052794 -0.16370375
0.11665365 -0.0019764288 0.07146238 -0.06410356 0.0010575774 0.029041251 0.016518744 -0.023956608
0.07735285 0.0105468845 0.08502871 -0.09691638 0.104329 0.027740916 0.006337802 -0.0010778416
-0.018997846 0.055710442 0.05391871 0.08580726 0.14568007 -0.009711429 0.107874535 -0.056669854
-0.1355061 -0.07335188 -0.04991038 -0.0470937 -0.020502958 0.06333163 0.017531598 0.041923802
0.06092385 -0.05008776 0.029856712 -0.10534003 0.0067258202 0.08802694 -0.07335794 0.034943454
0.0054653576 0.059292473 0.105803095 0.037483983 0.047989417 -0.015557301 -0.10594755 0.044065487
-0.13170642 0.033943333 0.16025466 -0.011158963 -0.014975475 -0.018168278 0.08305621 -0.08509167
-0.034804497 -0.07132346 -0.07034724 -0.043626327 0.0002745579 -0.0141707845 -0.0060819704 0.0382003
0.038625833 -0.047911886 -0.005130827 0.15421914 0.10506004 0.03991619 0.10982039 -0.18662757
0.0063313968 -0.14701112 0.076030634 -0.051371142 0.021155396 -0.05904514 -0.107283674 0.010782676
-0.03467418 0.0886351 -0.040705834 0.065651536 -0.069776006 -0.05597634 0.034698308 -0.014498511
-0.011973449 -0.019404352 -0.006984416 0.10249406 -0.017063802 0.051259797 -0.017016223 0.03073795
0.10365941 -0.07896194 0.14628892 0.11000948 0.015921962 0.051472794 -0.027902314 0.026239349
0.0138372155 -0.13809323 0.047074094 -0.09898093 0.059912827 0.05473174 -0.041528165 -0.075625926
0.06824224 -0.0025236271 -0.033463318 0.06926483 -0.069135904 -0.010185999 0.08052069 0.037392188
-0.014638721 -0.00627123 -0.006721222 -0.18055393 -0.132446 0.14882433 -0.043999787 0.019694697
0.1029967 -0.16581067 -0.029144349 -0.0034619542 0.12633547 0.026441196 -0.049449354 -0.018246926
-0.01478617 -0.13469589 -0.07738784 -0.030114733 0.13841599 0.011183704 0.082246825 0.13665254
00000000: a9be a53d b2a9 02be 1886 bbbd 12af 54be
00000010: c380 9ebd d22a 07bd 3b62 733e d634 50bc
00000020: abe1 21bd 1d60 673d 40d1 1a3d 14ce c4bc
00000030: 6d6a 9ebc c7f9 adbd 70ee bb3c b2b5 b03d
00000040: a438 04bd 2d7a 903d 6f71 a6bd 942f d6bd
00000050: 2a41 663d 40f9 89bd 57fb 8d3d 374c f2bd
00000060: eb66 fb3d 0b90 51bd 34d7 dd3d e808 dcbd
00000070: 6a1a 0e3d df70 9bbd 2679 313c 5589 833c
00000080: cea8 e63d 3c40 eebc 0204 51bd 4860 0e3e
00000090: 69cb 13be 511e b93d c67d 53bd bbd9 d93c
000000a0: 33dd a9bc e488 c2bc 2ce4 593c f974 2fbd
000000b0: c844 86bd 8dc2 493d 2c8c 233d fb03 643d
000000c0: 43d2 8abc 0631 14bd 88ce d4bc 452f b0bd
000000d0: 2fec fcbd 1818 d1bd abb6 1bbd 7ee2 ab3c
000000e0: 351b e7bc 0774 2c3d e404 8b3d 37b3 a9bb
000000f0: 37c2 49bd c264 9d3d 975b 89bd 6715 143d
00000100: 9ad2 c2bd fb2e 46bc 12c8 2e3c 4ab3 37be
00000110: 3b6d a1bd 6f59 ef3d d76d 78bc 4490 58bd
00000120: f328 8fbc ff97 82bd a230 223d b141 793d
00000130: 759f 3b3e d068 28be 12a4 a4bc e89d 153d
00000140: d34d be3d 2fcf a93d ae77 9ebc bf94 14bd
00000150: 5d3d 7abb 33e8 00bd 7351 8ebd 4963 97bc
00000160: 6894 6abd b860 56bd cbcb d5bd fb05 de3d
00000170: 5dbe 3a3e fab7 a2bc 3351 7c3c a049 abbc
00000180: 2136 e23d e882 a5bd 5cd0 05be a9fd 4dbc
00000190: 25a5 06be 4ef2 23be 5df2 07be cdbf ccbd
000001a0: c605 d2bb 5783 febc 21b4 89bc 38ee 02bd
000001b0: 797b 853c 0783 5b3d bc1c 513d f5a1 27be
000001c0: 1ce8 ee3d f986 01bb de5a 923d ba48 83bd
000001d0: 699e 8a3a ebe7 ed3c 5152 873c a640 c4bc
000001e0: 2c6b 9e3d d7cc 2c3c 8823 ae3d 187c c6bd
000001f0: 71aa d53d eb40 e33c 56ad cf3b 5d46 8dba
00000200: 5fa1 9bbc a230 643d ded9 5c3d b7bb af3d
00000210: 282d 153e af1c 1fbc 53ed dc3d a61e 68bd
00000220: 1cc2 0abe 8339 96bd d46e 4cbd 53e5 40bd
00000230: d2f5 a7bc 03b4 813d 6d9e 8f3c 4bb8 2b3d
00000240: 498b 793d d328 4dbd 1096 f43c 83bc d7bd
00000250: 4564 dc3b 7847 b43d b03c 96bd de20 0f3d
00000260: be16 b33b aadc 723d 4baf d83d ce88 193d
00000270: 8d90 443d 0de4 7ebc 07fb d8bd 037e 343d
00000280: 0cde 06be 2a08 0b3d cc19 243e 15d4 36bc
00000290: b25b 75bc a4d5 94bc 6019 aa3d 8b44 aebd
000002a0: 298f 0ebd 0912 92bd 3712 90bd 85b1 32bd
000002b0: 8af2 8f39 942c 68bc 444b c7bb eb77 1c3d
000002c0: 1f36 1e3d 413f 44bd 7f20 a8bb 9feb 1d3e
000002d0: b829 d73d 297f 233d 83e9 e03d 4c1b 3fbe
000002e0: 9b77 cf3b 158a 16be f3b5 9b3d 8c6a 52bd
000002f0: 154e ad3c 51d9 71bd 8bb7 dbbd d2a9 303c
00000300: 8306 0ebd 5286 b53d 29bb 26bd 5074 863d
00000310: b9e6 8ebd 7247 65bd d01f 0e3d 2a8b 6dbc
00000320: 492c 44bc e0f5 9ebc 87dd e4bb 68e8 d13d
00000330: 63c9 8bbc cbf5 513d 9b65 8bbc 27ce fb3c
00000340: 624b d43d ccb6 a1bd c3cc 153e a64c e13d
00000350: c66e 823c 23d5 523d 6593 e4bc e7f3 d63c
00000360: 7db5 623c 5068 0dbe c4d0 403d 84b6 cabd
00000370: 2767 753d 642e 603d 7019 2abd c4e1 9abd
00000380: 96c2 8b3d 7063 25bb d510 09bd b8da 8d3d
00000390: 2097 8dbd 2de3 26bc 08e8 a43d 8d28 193d
000003a0: 3fd7 6fbc e47e cdbb b23d dcbb 21e3 38be
000003b0: ed9f 07be 6865 183e 1f39 34bd c656 a13c
000003c0: efef d23d 46ca 29be 21c0 eebc f4e1 62bb
000003d0: 165e 013e 359b d83c 688b 4abd 947a 95bc
000003e0: b141 72bc b8ed 09be 847d 9ebd 2cb3 f6bc
000003f0: ecbc 0d3e db3b 373c 0671 a83d a5ee 0b3e

layer2.conv1.bias f4 [32]
-0.019588102 -0.05951244 -0.03417352 0.023185382 0.041157395 -0.026787657 -0.051913347 -0.028674306
0.0390919 0.018401548 0.0039699515 0.029157808 -0.046809748 -0.055629652 0.020268187 -0.030943058
0.023661802 0.045554873 -0.023696754 0.045802526 0.03587588 -0.04156668 0.016758092 0.022193564
0.052082263 -0.007420591 0.061499823 -0.010314484 -0.046846706 0.00042941308 -0.013865056 -0.043110568
00000000: 3a77 a0bc 51c3 73bd 88f9 0bbd 45ef bd3c
00000010: a894 283d ca71 dbbc 17a3 54bd 61e6 eabc
00000020: d41e 203d d8be 963c 5e16 823b 5bdc ee3c
00000030: 94bb 3fbd ebdb 63bd 7809 a63c 4c7c fdbc
00000040: 65d6 c13c bf97 3a3d b21f c2bc 6e9b 3b3d
00000050: 96f2 123d d341 2abd 4448 893c 47cf b53c
00000060: 3654 553d 6e28 f3bb 3de7 7b3d 15fe 28bc
00000070: 55e2 3fbd d922 e139 432a 63bc b594 30bd

layer2.conv2.weight f4 [64, 32, 3, 3]
-0.07671704 -0.062339965 0.070409216 0.009959004 0.07904711 0.080637395 0.006003485 -0.049593482
0.040320463 -0.02811779 -0.011645812 0.022723777 -0.01761118 -0.0055939294 0.032316912 0.024057368
-0.060078405 -0.06410868 -0.06576562 0.004256115 0.0520042 -0.08842566 0.02020198 0.056194395
-0.014593643 0.022436144 -0.05331317 0.007169006 0.040777124 0.037141114 0.036602125 0.011215625
-0.0077649592 0.06288489 0.052579645 -0.060378104 0.020398993 -0.031081652 -0.08170504 0.15215777
0.026755048 0.0942494 -0.009914907 0.0025213521 0.07192838 0.09423929 -0.0026130956 -0.033435337
0.058255956 -0.025666028 -0.1059153 0.0020974441 0.022012211 0.04060984 0.03575169 -0.05537694
-0.011388213 -0.034135535 -0.049891934 -0.07183761 -0.05230624 -0.05035326 0.06283049 0.018551927
0.034826647 0.033990193 0.047532637 -0.012151523 -0.03959996 0.03470413 -0.061963387 0.03980717
0.11970189 0.0009764969 0.008548143 -0.041968293 0.032936074 0.014449148 0.053789083 -0.08975725
0.004060518 0.013326605 -0.043292847 -0.10611078 0.047194812 -0.033782277 0.05992629 0.12727416
-0.024486398 0.08954059 -0.049031086 -0.096030146 0.014072159 -0.05707515 0.0089962 -0.011847863
-0.03581342 -0.0064640134 -0.072263114 -0.025000565 -0.022067161 0.07155022 0.029920017 -0.004331244
0.008903124 0.019789908 0.04875646 -0.009315414 0.0309485 -0.003816624 0.004822555 -0.08160243
-0.045890935 -0.019932635 -0.013601088 0.010441122 -0.14514546 0.016093086 -0.07591103 -0.016584678
-0.047802202 -0.08995677 -0.016403792 -0.02721782 -0.04622959 -0.06317321 -0.024794044 0.07800418
0.054472137 0.0027396837 -0.028592238 -0.013183821 0.008534579 -0.05250102 -0.023313105 0.03286638
0.05253346 0.0471208 -0.16619785 -0.02375055 0.057900798 0.018026326 -0.029218802 -0.014052825
-0.044852264 0.035506528 -0.06326539 -0.04256364 -0.033001192 -0.07067575 -0.16629303 0.04618807
0.03780114 0.0051217102 -0.049260944 -0.0432788 -0.007356298 0.034026697 0.05184113 -0.032062735
-0.009725506 -0.0041971314 -0.035634343 -0.023425449 -0.018268852 -0.02131155 0.05328159 -0.113351054
0.02328559 0.018174028 0.015953846 0.041315015 -0.054219417 0.0071000927 -0.021153295 0.03885626
0.0071111866 0.02885571 0.04516411 0.015082208 -0.032926705 0.085995145 0.040479794 -0.12889479
0.0099636335 0.041179743 0.049370106 0.009647631 -0.051938716 0.03737182 0.0002356038 -0.07261845
0.0007568548 0.030010102 -0.11676461 0.02992486 -0.039130397 -0.001983629 0.05763408 0.034291826
-0.08959298 -0.040392872 0.08485826 0.019563176 -0.054380644 0.039704505 -0.02029998 -0.08829896
0.09431441 0.07000797 -0.007571201 -0.01853078 0.071280524 0.049495336 -0.0438313 -0.087158106
0.043888092 0.019983076 0.03755441 -0.012942102 0.00863517 0.0018379417 -0.05542919 0.096363515
-0.07092775 -0.05044163 0.06766785 0.055450633 -0.020005992 -0.007172407 0.034890313 -0.1545862
0.035257902 0.084155396 -0.03372188 0.028698191 0.011497959 0.013277009 -0.08522876 0.043305725
0.10244002 0.028221361 -0.09873973 -0.021624453 -0.023627024 -0.012829847 0.048385836 0.009980528
0.025624612 0.034618016 0.008941038 0.0032536942 0.091579296 0.041784666 -0.032280963 -0.027474133
00000000: d31d 9dbd 3158 7fbd b532 903d 172b 233c
00000010: 74e3 a13d 3825 a53d e2b8 c43b 8922 4bbd
00000020: 1227 253d 4857 e6bc 13ce 3ebc 3727 ba3c
00000030: 5245 90bc 484d b7bb bd5e 043d f513 c53c
00000040: c614 76bd 694b 83bd 20b0 86bd e176 8b3b
00000050: 5b02 553d 8318 b5bd 9f7e a53c 182c 663d
00000060: 2d1a 6fbc 01cc b73c e95e 5abd fbe9 ea3b
00000070: ea05 273d 4821 183d 1cec 153d bec1 373c
00000080: 3371 febb cbc9 803d c15d 573d 084f 77bd
00000090: ca1b a73c f39e febc f954 a7bd 3fcf 1b3e
000000a0: 672d db3c d405 c13d 2272 22bc 453d 253b
000000b0: 304f 933d 8700 c13d 7840 2bbb 7ef3 08bd
000000c0: cc9d 6e3d 9041 d2bc 1fea d8bd 4675 093b
000000d0: f452 b43c 8156 263d 5d70 123d eed2 62bd
000000e0: a195 3abc b4d1 0bbd 7c5b 4cbd 991f 93bd
000000f0: 113f 56bd 383f 4ebd 46ad 803d 36fa 973c
00000100: 63a6 0e3d 4d39 0b3d 95b1 423d 2e17 47bc
00000110: 9133 22bd eb25 0e3d 52cd 7dbd d80c 233d
00000120: 4426 f53d 99fb 7f3a 830d 0c3c f2e6 2bbd
00000130: fae7 063d 1fbc 6c3c f151 5c3d a6d2 b7bd
00000140: 180e 853b d557 5a3c d753 31bd 9c50 d9bd
00000150: 594f 413d 495f 0abd 4575 753d 2854 023e
00000160: b397 c8bc 0f61 b73d d2d4 48bd 74ab c4bd
00000170: ea8e 663c a2c7 69bd cc64 133c 8a1d 42bc
00000180: 18b1 12bd 13d0 d3bb affe 93bd fccd ccbc
00000190: 31c6 b4bc ec88 923d d31a f53c 1ced 8dbb
000001a0: 69de 113c 721e a23c dbb4 473d ae9f 18bc
000001b0: b587 fd3c 5320 7abb 8606 9e3b 2d1f a7bd
000001c0: 22f8 3bbd c449 a3bc 19d7 5ebc 3d11 2b3c
000001d0: 03a1 14be a6d5 833c 3e77 9bbd 97dc 87bc
000001e0: 3ecc 43bd 413b b8bd 3f61 86bc e8f7 debc
000001f0: 3d5b 3dbd f560 81bd e11c cbbc a8c0 9f3d
00000200: 2d1e 5f3d 448c 333b 453a eabc f400 58bc
00000210: 9ed4 0b3c 4f0b 57bd 20fb bebc e69e 063d
00000220: 532d 573d bd01 413d c52f 2abe 8390 c2bc
00000230: 6329 6d3d f2ab 933c 455c efbc d23d 66bc
00000240: 02b7 37bd 4b6f 113d 4991 81bd 3657 2ebd
00000250: 422c 07bd 73be 90bd b848 2abe b42f 3d3d
00000260: 5ed5 1a3d 05d4 a73b d8c5 49bd 1c45 31bd
00000270: 1a0d f1bb 945f 0b3d 5d57 543d 3754 03bd
00000280: bb57 1fbc 1788 89bb 51f5 11bd bae6 bfbc
00000290: 8fa8 95bc 8f95 aebc cc3d 5a3d 9924 e8bd
000002a0: 6cc1 be3c b3e1 943c a4b1 823c ef39 293d
000002b0: 2e15 5ebd e5a7 e83b ad49 adbc be27 1f3d
000002c0: f504 e93b cf62 ec3c 00fe 383d 5e1b 773c
000002d0: 27de 06bd 391e b03d 24ce 253d fffc 03be
000002e0: 823e 233c 17ac 283d 4f38 4a3d 1911 1e3c
000002f0: b1bd 54bd 3213 193d 6a0c 7739 fbb8 94bd
00000300: aa67 463a bfd7 f53c 4922 efbd fb24 f53c
00000310: 3247 20bd c6ff 01bb b711 6c3d 9675 0c3d
00000320: 867c b7bd ff72 25bd 2bca ad3d f442 a03c
00000330: 3dbe 5ebd 31a1 223d 254c a6bc 16d6 b4bd
00000340: ea27 c13d 5760 8f3d d617 f8bb ddcd 97bc
00000350: 86fb 913d 9fbb 4a3d 7388 33bd f37f b2bd
00000360: 00c4 333d 8cb3 a33c a7d2 193d 1c0b 54bc
00000370: 877a 0d3c 17e7 f03a b809 63bd 3c5a c53d
00000380: 9142 91bd e29b 4ebd 7195 8a3d 3420 633d
00000390: 9be3 a3bc 8306 ebbb 25e9 0e3d d84b 1ebe
000003a0: 976a 103d aa59 ac3d f41f 0abd 7818 eb3c
000003b0: ef61 3c3c d087 593c 6b8c aebd 5861 313d
000003c0: 13cc d13d 7c30 e73c 0e38 cabd c425 b1bc
000003d0: 768d c1bc 4734 52bc 3a30 463d 5e85 233c
000003e0: b5ea d13c 9fcb 0d3d 6e7d 123c ee3b 553b
000003f0: ed8d bb3d 6626 2b3d 0b39 04bd 6f11 e1bc

layer2.conv2.bias f4 [64]
0.0006121279 -0.021919388 -0.045892555 -0.0046633985 -0.0084684715 -0.011277992 -0.045433916 0.034517974
-0.03484466 -0.017955739 -0.020329343 0.04481624 -0.05039882 -0.046110768 0.019106729 -0.01793885
-0.029863296 0.0015774829 -0.021801773 -0.01649362 0.03498289 -0.021207985 0.025396094 0.039610337
0.04188248 -0.050229836 0.0026908906 0.022830766 0.039717443 -0.053487033 0.016183317 0.0014800144
-0.04511999 0.060389437 -0.020167414 -0.061251417 0.05113647 0.0039592753 -0.012194466 0.032817364
-0.031800315 -0.008812229 0.004193202 -0.0036941979 0.03599707 -0.019832999 0.034906078 0.011060442
0.0004117313 0.0024103841 0.0027169895 -0.045631878 0.048413713 -0.02668434 -0.044044435 0.0013279504
0.038569815 -0.02476904 -0.04303586 0.03622912 0.005746378 0.054813076 -0.036938198 0.035073623
00000000: 3577 203a 4a90 b3bc d5f9 3bbd 6ccf 98bb
00000010: 58bf 0abc 54c7 38bc ea18 3abd b862 0d3d
00000020: 46b9 0ebd ea17 93bc b989 a6bc 3c91 373d
00000030: fe6e 4ebd a5de 3cbd b785 9c3c 7ff4 92bc
00000040: dfa3 f4bc 8bc3 ce3a a299 b2bc a11d 87bc
00000050: 384a 0f3d 5ebc adbc 780b d03c 733e 223d
00000060: f78c 2b3d cdbd 4dbd a759 303b 9607 bb3c
00000070: c2ae 223d 3815 5bbd e092 843c 0bfd c13a
00000080: bdcf 38bd ea5a 773d 2236 a5bc c4e2 7abd
00000090: 7a74 513d cfbc 813b 4ccb 47bc 806b 063d
000000a0: 0c41 02bd 2b61 10bc 2167 893b 5b1a 72bb
000000b0: aa71 133d d078 a2bc adf9 0e3d db36 353c
000000c0: a4dd d739 89f7 1d3b 850f 323b 7ee8 3abd
000000d0: 754d 463d 1e99 dabc f067 34bd 9f0e ae3a
000000e0: 62fb 1d3d 71e8 cabc 5f46 30bd fc64 143d
000000f0: 1d4c bc3b ad83 603d 824c 17bd 5ca9 0f3d

fc1.weight f4 [1, 3200]
0.02617987 0.0044992305 0.025354411 -0.02755374 -0.013878067 -0.11136318 0.011837748 0.031118928
0.014133502 0.004834339 0.0031182556 0.010314098 -0.010551138 -0.019957919 -0.08497482 -0.043638583
0.015143155 0.01787621 -0.008410617 0.0022500355 0.018202564 -0.009422655 -0.023904614 -0.0058359127
0.025665136 -0.00059079943 0.06601652 0.026601624 0.012363512 0.0022973623 9.2755494e-05 -0.014975705
-0.023182986 -0.07884035 -0.08782533 0.051101092 0.041302055 0.032927718 -0.035268944 -0.014764121
-0.028505346 -0.03139127 -0.003348897 0.060173895 0.102366626 0.05275865 0.03690026 0.026487686
-0.026777167 -0.007759623 -0.010045647 0.0069330926 -0.042244747 -0.022426331 -0.0113145225 -0.105890274
-0.020425878 0.0067367274 0.020078404 -0.004508091 -0.009698993 0.026693135 0.03081264 -0.0070104133
0.03255523 0.022375159 -0.015575072 -0.02331979 -0.004835025 0.023348527 -0.0029823354 0.007184435
0.030577015 0.010908589 0.053346634 0.0042618634 0.025371933 -0.026890896 0.008530623 0.017403293
-0.0023014683 -0.020087915 -0.0038369766 0.077212274 0.05368195 -0.055969924 -0.019180333 -0.035676796
-0.005983765 0.0070722494 0.010014594 0.005362127 -0.010600194 0.0019038367 -0.08220135 -0.12677512
0.017705627 -0.007539101 -0.0057598096 -0.0328574 0.0020579493 -0.0021515752 0.035161454 0.051459346
0.01506061 -0.00066396355 0.01602305 0.00601648 0.019378366 -0.001071965 0.0016718868 0.007715741
0.04221009 0.00093755027 0.014398661 9.1902297e-07 -0.020067807 0.0007294255 0.016865063 0.00034799904
-1.38834e-40 0.0056299176 -0.020191196 0.03247734 0.035937186 -7.5352e-41 -0.010251162 -0.03667911
0.037736665 0.023301536 -1.22821e-40 -0.00067943643 0.009317433 0.06126837 0.055844158 0.0002199172
0.0046408838 0.00419881 -0.022732053 0.009499519 0.0038910997 -0.032578476 0.016030714 0.0357015
0.0700979 0.047645923 0.060193792 -0.023839196 0.029650189 -0.021867251 -0.0055025355 0.042148024
0.04299868 0.03194539 0.09242547 -0.02844875 0.038918775 -0.026063628 0.015996378 -0.0031750887
0.0081700925 -0.029333033 -0.034695312 -0.0074359006 0.025855504 -0.046746466 -0.00816995 0.022496436
-0.0070555652 -0.014775887 0.011401481 -0.027005468 0.030437304 -0.0020087676 -5.0068e-41 -0.13040698
-0.045089744 0.011963587 0.006742398 -1.57115e-40 1.8014112e-05 -0.024044791 -0.035173293 2.73682e-06
5.2212e-41 -0.10684366 -0.050373822 -0.016864236 0.0016090039 1.08446e-40 0.008313049 0.0023612601
0.007266033 -2.3477628e-06 -1.68707e-40 0.0057691834 -0.01100819 -0.0074744713 0.0031540578 2.912e-41
-0.03090583 0.02525456 -0.018019512 0.03634314 0.046458714 -0.005300836 0.0407357 0.022298932
0.028128797 0.019891191 0.014863298 -0.015394512 0.0034249423 0.017281504 -0.090533465 -0.07204902
-0.011471397 -0.01482227 -0.01528745 -0.0053430474 0.025973052 -0.008639463 0.0045171957 -0.016049441
-0.008249506 -0.059378803 -0.08392949 -0.00083050004 -0.008215515 -0.015791679 0.019127259 0.023245148
-0.02885193 0.022253027 0.07005188 -0.053993523 -0.015701113 0.03163063 -0.02756993 0.011353977
-0.020753825 -0.010137711 0.008092504 -0.015784118 0.032689814 0.00919136 -0.0014374082 0.013682091
0.012624852 -0.0051004244 0.009495194 3.2209155e-05 0.008365064 -0.035459403 -0.002173491 -0.04400174
00000000: 2b77 d63c 486e 933b 0eb4 cf3c 62b8 e1bc
00000010: d560 63bc 6112 e4bd 1df3 413c 1fed fe3c
00000020: 3490 673c 6069 9e3b a65b 4c3b 76fc 283c
00000030: aede 2cbc ca7e a3bc 4707 aebd 5fbe 32bd
00000040: ff1a 783c 2171 923c afcc 09bc 5575 133b
00000050: 8b1d 953c 7b61 1abc 9cd3 c3bc 2f3b bfbb
00000060: b13f d23c e1df 1aba ab33 873d a6eb d93c
00000070: 5490 4a3c 588f 163b ba85 c238 a95c 75bc
00000080: 3fea bdbc 0d77 a1bd c4dd b3bd 614f 513d
00000090: 582c 293d 37df 063d 2b76 10bd 36e5 71bc
000000a0: 0b84 e9bc 2294 00bd 2b79 5bbb e778 763d
000000b0: 98a5 d13d 7419 583d ba24 173d b4fc d83c
000000c0: ca5b dbbc 7044 febb 7f96 24bc ff2e e33b
000000d0: d408 2dbd 6db7 b7bc 8c60 39bc 00dd d8bd
000000e0: 2c54 a7bc c4bf dc3b 777b a43c 9cb8 93bb
000000f0: 86e8 1ebc 90ab da3c ca6a fc3c 9cb7 e5bb
00000100: a258 053d 1c4c b73c 962e 7fbc 2509 bfbc
00000110: 216f 9ebb 6945 bf3c 4973 43bb 696b eb3b
00000120: a67c fa3c f0b9 323c 0082 5a3d 1aa7 8b3b
00000130: cdd8 cf3c 4c4a dcbc 07c4 0b3c 5a91 8e3c
00000140: 3bd4 16bb 698f a4bc c975 7bbb 7821 9e3d
00000150: 9be1 5b3d b840 65bd 1320 9dbc d521 12bd
00000160: 7513 c4bb 54be e73b 4014 243c c8b4 af3b
00000170: 70ac 2dbc 298a f93a 2e59 a8bd 56d1 01be
00000180: 640b 913c 900a f7bb c9bc bcbb 7b95 06bd
00000190: a9de 063b 7101 0dbb 7505 103d 09c7 523d
000001a0: c7c0 763c d70d 2eba c542 833c e425 c53b
000001b0: 61bf 9e3c 2d81 8cba 3623 db3a 54d4 fc3b
000001c0: 7de4 2c3d efc5 753a 5de8 6b3c c7b2 7635
000001d0: 3e65 a4bc eb36 3f3a 9a28 8a3c a473 b639
000001e0: 0383 0180 2c7b b83b 0268 a5bc f606 053d
000001f0: df32 133d 0dd2 0080 7df4 27bc d63c 16bd
00000200: c391 1a3d dde2 be3c 6056 0180 351c 32ba
00000210: 26a8 183c 8bf4 7a3d d8bc 643d 9399 6639
00000220: 8e12 983b 2c96 893b 9238 babc dfa3 1b3c
00000230: d201 7f3b 0271 05bd d852 833c bc3b 123d
00000240: 7d8f 8f3d 5f28 433d c48d 763d 6b4a c3bc
00000250: f4e4 f23c f322 b3bc 9d4e b4bb 68a3 2c3d
00000260: 621f 303d 2bd9 023d 9149 bd3d 5a0d e9bc
00000270: 4b69 1f3d 6483 d5bc d60a 833c 2615 50bb
00000280: dadb 053c d44b f0bc ac1c 0ebd dba8 f3bb
00000290: ecce d33c 3979 3fbd 41db 05bc 724a b83c
000002a0: 5f32 e7bb 9016 72bc 47cd 3a3c 923a ddbc
000002b0: a757 f93c 87a5 03bb 928b 0080 6889 05be
000002c0: 06b0 38bd ec02 443c 55ef dc3b f9b5 0180
000002d0: 031d 9737 95f9 c4bc df11 10bd 36aa 3736
000002e0: 8c91 0000 d9d0 dabd c854 4ebd de26 8abc
000002f0: 36e5 d23a 4e2e 0100 7433 083c 5fbf 1a3b
00000300: e717 ee3b 428e 1db6 49d6 0180 6b0b bd3b
00000310: b25b 34bc 69ec f4bb 4fb4 4e3b 2d51 0000
00000320: 392e fdbc a7e2 ce3c a89d 93bc 8bdc 143d
00000330: 7e4b 3e3d a3b2 adbb 7ada 263d 40ac b63c
00000340: 5d6e e63c daf2 a23c 3185 733c 4339 7cbc
00000350: ff74 603b f191 8d3c 9c69 b9bd 708e 93bd
00000360: 87f2 3bbc 1bd9 72bc 3678 7abc bb14 afbb
00000370: 70c5 d43c 898c 0dbc fc04 943b 1e7a 83bc
00000380: f028 07bc 3037 73bd 39e3 abbd eab5 59ba
00000390: 5e9a 06bc 8d5d 81bc c5b0 9c3c 9c6c be3c
000003a0: e25a ecbc fb4b b63c 5c77 8f3d 5028 5dbd
000003b0: 9f9f 80bc 1f8f 013d 55da e1bc 0806 3a3c
000003c0: ed03 aabc a418 26bc 6c96 043c b24d 81bc
000003d0: c1e5 053d 5c97 163c 6a67 bcba d92a 603c
000003e0: 78d8 4e3c 7621 a7bb bb91 1b3c 5118 0738
000003f0: 9f0d 093c e13d 11bd 2171 0ebb 2b3b 34bd

out.0.weight f4 [1, 3200]
0.02617987 0.0044992305 0.025354411 -0.02755374 -0.013878067 -0.11136318 0.011837748 0.031118928
0.014133502 0.004834339 0.0031182556 0.010314098 -0.010551138 -0.019957919 -0.08497482 -0.043638583
0.015143155 0.01787621 -0.008410617 0.0022500355 0.018202564 -0.009422655 -0.023904614 -0.0058359127
0.025665136 -0.00059079943 0.06601652 0.026601624 0.012363512 0.0022973623 9.2755494e-05 -0.014975705
-0.023182986 -0.07884035 -0.08782533 0.051101092 0.041302055 0.032927718 -0.035268944 -0.014764121
-0.028505346 -0.03139127 -0.003348897 0.060173895 0.102366626 0.05275865 0.03690026 0.026487686
-0.026777167 -0.007759623 -0.010045647 0.0069330926 -0.042244747 -0.022426331 -0.0113145225 -0.105890274
-0.020425878 0.0067367274 0.020078404 -0.004508091 -0.009698993 0.026693135 0.03081264 -0.0070104133
0.03255523 0.022375159 -0.015575072 -0.02331979 -0.004835025 0.023348527 -0.0029823354 0.007184435
0.030577015 0.010908589 0.053346634 0.0042618634 0.025371933 -0.026890896 0.008530623 0.017403293
-0.0023014683 -0.020087915 -0.0038369766 0.077212274 0.05368195 -0.055969924 -0.019180333 -0.035676796
-0.005983765 0.0070722494 0.010014594 0.005362127 -0.010600194 0.0019038367 -0.08220135 -0.12677512
0.017705627 -0.007539101 -0.0057598096 -0.0328574 0.0020579493 -0.0021515752 0.035161454 0.051459346
0.01506061 -0.00066396355 0.01602305 0.00601648 0.019378366 -0.001071965 0.0016718868 0.007715741
0.04221009 0.00093755027 0.014398661 9.1902297e-07 -0.020067807 0.0007294255 0.016865063 0.00034799904
-1.38834e-40 0.0056299176 -0.020191196 0.03247734 0.035937186 -7.5352e-41 -0.010251162 -0.03667911
0.037736665 0.023301536 -1.22821e-40 -0.00067943643 0.009317433 0.06126837 0.055844158 0.0002199172
0.0046408838 0.00419881 -0.022732053 0.009499519 0.0038910997 -0.032578476 0.016030714 0.0357015
0.0700979 0.047645923 0.060193792 -0.023839196 0.029650189 -0.021867251 -0.0055025355 0.042148024
0.04299868 0.03194539 0.09242547 -0.02844875 0.038918775 -0.026063628 0.015996378 -0.0031750887
0.0081700925 -0.029333033 -0.034695312 -0.0074359006 0.025855504 -0.046746466 -0.00816995 0.022496436
-0.0070555652 -0.014775887 0.011401481 -0.027005468 0.030437304 -0.0020087676 -5.0068e-41 -0.13040698
-0.045089744 0.011963587 0.006742398 -1.57115e-40 1.8014112e-05 -0.024044791 -0.035173293 2.73682e-06
5.2212e-41 -0.10684366 -0.050373822 -0.016864236 0.0016090039 1.08446e-40 0.008313049 0.0023612601
0.007266033 -2.3477628e-06 -1.68707e-40 0.0057691834 -0.01100819 -0.0074744713 0.0031540578 2.912e-41
-0.03090583 0.02525456 -0.018019512 0.03634314 0.046458714 -0.005300836 0.0407357 0.022298932
0.028128797 0.019891191 0.014863298 -0.015394512 0.0034249423 0.017281504 -0.090533465 -0.07204902
-0.011471397 -0.01482227 -0.01528745 -0.0053430474 0.025973052 -0.008639463 0.0045171957 -0.016049441
-0.008249506 -0.059378803 -0.08392949 -0.00083050004 -0.008215515 -0.015791679 0.019127259 0.023245148
-0.02885193 0.022253027 0.07005188 -0.053993523 -0.015701113 0.03163063 -0.02756993 0.011353977
-0.020753825 -0.010137711 0.008092504 -0.015784118 0.032689814 0.00919136 -0.0014374082 0.013682091
0.012624852 -0.0051004244 0.009495194 3.2209155e-05 0.008365064 -0.035459403 -0.002173491 -0.04400174
00000000: 2b77 d63c 486e 933b 0eb4 cf3c 62b8 e1bc
00000010: d560 63bc 6112 e4bd 1df3 413c 1fed fe3c
00000020: 3490 673c 6069 9e3b a65b 4c3b 76fc 283c
00000030: aede 2cbc ca7e a3bc 4707 aebd 5fbe 32bd
00000040: ff1a 783c 2171 923c afcc 09bc 5575 133b
00000050: 8b1d 953c 7b61 1abc 9cd3 c3bc 2f3b bfbb
00000060: b13f d23c e1df 1aba ab33 873d a6eb d93c
00000070: 5490 4a3c 588f 163b ba85 c238 a95c 75bc
00000080: 3fea bdbc 0d77 a1bd c4dd b3bd 614f 513d
00000090: 582c 293d 37df 063d 2b76 10bd 36e5 71bc
000000a0: 0b84 e9bc 2294 00bd 2b79 5bbb e778 763d
000000b0: 98a5 d13d 7419 583d ba24 173d b4fc d83c
000000c0: ca5b dbbc 7044 febb 7f96 24bc ff2e e33b
000000d0: d408 2dbd 6db7 b7bc 8c60 39bc 00dd d8bd
000000e0: 2c54 a7bc c4bf dc3b 777b a43c 9cb8 93bb
000000f0: 86e8 1ebc 90ab da3c ca6a fc3c 9cb7 e5bb
00000100: a258 053d 1c4c b73c 962e 7fbc 2509 bfbc
00000110: 216f 9ebb 6945 bf3c 4973 43bb 696b eb3b
00000120: a67c fa3c f0b9 323c 0082 5a3d 1aa7 8b3b
00000130: cdd8 cf3c 4c4a dcbc 07c4 0b3c 5a91 8e3c
00000140: 3bd4 16bb 698f a4bc c975 7bbb 7821 9e3d
00000150: 9be1 5b3d b840 65bd 1320 9dbc d521 12bd
00000160: 7513 c4bb 54be e73b 4014 243c c8b4 af3b
00000170: 70ac 2dbc 298a f93a 2e59 a8bd 56d1 01be
00000180: 640b 913c 900a f7bb c9bc bcbb 7b95 06bd
00000190: a9de 063b 7101 0dbb 7505 103d 09c7 523d
000001a0: c7c0 763c d70d 2eba c542 833c e425 c53b
000001b0: 61bf 9e3c 2d81 8cba 3623 db3a 54d4 fc3b
000001c0: 7de4 2c3d efc5 753a 5de8 6b3c c7b2 7635
000001d0: 3e65 a4bc eb36 3f3a 9a28 8a3c a473 b639
000001e0: 0383 0180 2c7b b83b 0268 a5bc f606 053d
000001f0: df32 133d 0dd2 0080 7df4 27bc d63c 16bd
00000200: c391 1a3d dde2 be3c 6056 0180 351c 32ba
00000210: 26a8 183c 8bf4 7a3d d8bc 643d 9399 6639
00000220: 8e12 983b 2c96 893b 9238 babc dfa3 1b3c
00000230: d201 7f3b 0271 05bd d852 833c bc3b 123d
00000240: 7d8f 8f3d 5f28 433d c48d 763d 6b4a c3bc
00000250: f4e4 f23c f322 b3bc 9d4e b4bb 68a3 2c3d
00000260: 621f 303d 2bd9 023d 9149 bd3d 5a0d e9bc
00000270: 4b69 1f3d 6483 d5bc d60a 833c 2615 50bb
00000280: dadb 053c d44b f0bc ac1c 0ebd dba8 f3bb
00000290: ecce d33c 3979 3fbd 41db 05bc 724a b83c
000002a0: 5f32 e7bb 9016 72bc 47cd 3a3c 923a ddbc
000002b0: a757 f93c 87a5 03bb 928b 0080 6889 05be
000002c0: 06b0 38bd ec02 443c 55ef dc3b f9b5 0180
000002d0: 031d 9737 95f9 c4bc df11 10bd 36aa 3736
000002e0: 8c91 0000 d9d0 dabd c854 4ebd de26 8abc
000002f0: 36e5 d23a 4e2e 0100 7433 083c 5fbf 1a3b
00000300: e717 ee3b 428e 1db6 49d6 0180 6b0b bd3b
00000310: b25b 34bc 69ec f4bb 4fb4 4e3b 2d51 0000
00000320: 392e fdbc a7e2 ce3c a89d 93bc 8bdc 143d
00000330: 7e4b 3e3d a3b2 adbb 7ada 263d 40ac b63c
00000340: 5d6e e63c daf2 a23c 3185 733c 4339 7cbc
00000350: ff74 603b f191 8d3c 9c69 b9bd 708e 93bd
00000360: 87f2 3bbc 1bd9 72bc 3678 7abc bb14 afbb
00000370: 70c5 d43c 898c 0dbc fc04 943b 1e7a 83bc
00000380: f028 07bc 3037 73bd 39e3 abbd eab5 59ba
00000390: 5e9a 06bc 8d5d 81bc c5b0 9c3c 9c6c be3c
000003a0: e25a ecbc fb4b b63c 5c77 8f3d 5028 5dbd
000003b0: 9f9f 80bc 1f8f 013d 55da e1bc 0806 3a3c
000003c0: ed03 aabc a418 26bc 6c96 043c b24d 81bc
000003d0: c1e5 053d 5c97 163c 6a67 bcba d92a 603c
000003e0: 78d8 4e3c 7621 a7bb bb91 1b3c 5118 0738
000003f0: 9f0d 093c e13d 11bd 2171 0ebb 2b3b 34bd

exp_avg f4 [32, 2, 5, 5]
0.0001523975 -3.6162095e-05 -0.00015647466 -0.00025502316 -0.00033897464 3.5267825e-05 -9.785637e-05 -0.0001650518
-0.00019394541 -0.00028494946 -7.834763e-05 -8.744413e-05 -0.000116317504 -0.00010900582 -0.00014023796 -0.00014253595
-0.00013431623 -4.4553915e-05 -6.9176576e-06 8.587481e-06 -6.806256e-05 -1.5180862e-05 0.000106942774 0.00023984864
0.0002389509 -0.00037621264 -0.00055217755 -0.00065217004 -0.0006597023 -0.0005599359 -0.0005638963 -0.00064900104
-0.0007044646 -0.0006553891 -0.0004969774 -0.0007576579 -0.0008087792 -0.00071493903 -0.0005935187 -0.0003811704
-0.000897369 -0.0008082665 -0.0007012693 -0.00043884953 -0.00020170401 -0.000833002 -0.00071225583 -0.00052597857
-0.0002584442 6.758538e-05 -0.00032088187 -0.00019960737 -6.200487e-05 3.8510247e-05 0.00012189814 -0.00027429088
-0.00016629524 -4.1827712e-05 6.0557446e-05 0.00012560023 -0.00024082245 -8.948665e-05 2.2193586e-05 9.677519e-05
0.0001706747 -0.0001270672 -3.7698012e-06 9.09323e-05 0.0001447679 0.00019003908 -0.00015667047 -5.5074855e-05
1.0493216e-05 6.2650375e-05 0.00011709352 -0.00039747567 -0.00028390982 -0.00014331895 2.524564e-06 0.0001428265
-0.00038530864 -0.0002240487 -8.0579404e-05 3.4820387e-05 0.00013972697 -0.00032912553 -0.00018433703 -3.943378e-05
5.9367587e-05 0.00014828885 -0.00028284645 -9.782372e-05 3.3578367e-06 0.00010702144 0.00017898613 -0.0003014875
-0.00014307976 -5.5484004e-05 -1.5096815e-05 3.7575e-05 -0.0006317383 -0.00054956094 -0.00035295243 -0.0001143025
8.63134e-05 -0.00055175554 -0.00046333074 -0.00024124567 9.8449964e-05 0.00045200487 -0.0005844388 -0.0004121036
-7.6771015e-05 0.00027877348 0.00065180566 -0.00043056597 -0.00026596987 9.9053264e-05 0.0005274607 0.0010119064
-0.00053290644 -0.00028465805 9.3965566e-05 0.0005355307 0.0009939382 -0.0008104581 -0.0007796517 -0.0006341023
-0.00029934602 0.00021294496 -0.0007773101 -0.0007160709 -0.00050691544 -7.693052e-05 0.00046850773 -0.00075843313
-0.00071108923 -0.00047820547 1.7872402e-05 0.0006778046 -0.00065278064 -0.00051960093 -0.00026833985 0.00025737428
0.0008704299 -0.00065819314 -0.0005636304 -0.00029826356 0.00022040875 0.0008575745 -0.00044165313 -0.0004474332
-0.0004992596 -0.00064873 -0.000711415 -0.0003933684 -0.00044249516 -0.0005239094 -0.00061972963 -0.0006413574
-0.00044473205 -0.00042191296 -0.00044375705 -0.00055355503 -0.0005979486 -0.00036861186 -0.00035490116 -0.00040815544
-0.00042188802 -0.0004163658 -0.0002532934 -0.00020661885 -0.0001793655 -0.00019864045 -0.0001669485 -0.00032822677
-0.00034205263 -0.00032493134 -0.0002662646 -0.00024091976 -0.0002899467 -0.0002202258 -0.0001445669 -0.00010915796
-9.900393e-05 -0.00013712532 -8.0942e-05 -9.32698e-06 9.272046e-05 0.0001382261 -9.1780894e-05 3.4538098e-05
0.0001858124 0.0002562825 0.00031034325 0.00011097045 0.00024457774 0.00039703038 0.00055398874 0.00064157095
0.00023481758 0.00019433213 8.438557e-05 -0.00017439615 -0.00059086643 0.00023086413 0.00015323855 -1.5705136e-06
-0.00027828896 -0.00064703636 0.00016073899 6.969372e-05 -5.193528e-05 -0.00030249753 -0.0006888138 0.00017325004
9.654744e-05 -1.1297612e-05 -0.00025278988 -0.00049765635 0.00027292734 0.0002511856 0.00015756123 1.6043696e-05
-0.00020937475 4.4498436e-05 -5.8088128e-05 -0.00024251416 -0.0004326407 -0.00063842774 1.6834942e-05 -8.790644e-05
-0.00029488085 -0.0004882837 -0.0007328171 -3.9869577e-05 -0.00015128874 -0.00034763585 -0.0005266614 -0.0007509076
1.883509e-05 -8.92958e-05 -0.00027727144 -0.00038600748 -0.0005842701 0.00018214791 7.339311e-05 -4.1881394e-05
-0.0001199198 -0.00019699332 -4.3134805e-05 -0.00011575763 -0.00022088052 -0.00044593273 -0.0007850042 2.4788858e-05
00000000: e4cc 1f39 c1ac 17b8 5913 24b9 a1b4 85b9
00000010: 68b8 b1b9 8aec 1338 3d38 cdb8 c111 2db9
00000020: d35d 4bb9 4565 95b9 904e a4b8 3662 b7b8
00000030: 7cef f3b8 0e9a e4b8 d70c 13b9 b475 15b9
00000040: 3dd7 0cb9 67df 3ab8 3a1e e8b6 f312 1037
00000050: cfbc 8eb8 4eb1 7eb7 7746 e038 e17f 7b39
00000060: e58e 7a39 683e c5b9 02c0 10ba 64f6 2aba
00000070: dfef 2cba aac8 12ba 71d2 13ba b921 2aba
00000080: d2ab 38ba 6bce 2bba 9747 02ba 909d 46ba
00000090: 4104 54ba bf6a 3bba 5e96 1bba d3d7 c7b9
000000a0: 6a3d 6bba d9e1 53ba 63d5 37ba 6315 e6b9
000000b0: 8280 53b9 d15d 5aba aeb6 3aba d3e1 09ba
000000c0: cb7f 87b9 a0bc 8d38 093c a8b9 b24d 51b9
000000d0: 9c08 82b8 1086 2138 91a3 ff38 b3ce 8fb9
000000e0: 8a5f 2eb9 2a70 2fb8 10ff 7d38 8eb3 0339
000000f0: 4985 7cb9 c8aa bbb8 5d2c ba37 c9f3 ca38
00000100: 24f7 3239 573d 05b9 b1fc 7cb6 e8b2 be38
00000110: d6cc 1739 3a45 4739 e947 24b9 2d00 67b8
00000120: 050c 3037 2a63 8338 1b90 f538 4864 d0b9
00000130: bbd9 94b9 e347 16b9 ae6b 2936 b2c3 1539
00000140: 4003 cab9 9dee 6ab9 bdfc a8b8 1b0c 1238
00000150: ac83 1239 7b8e acb9 984a 41b9 b365 25b8
00000160: 7601 7938 fc7d 1b39 024b 94b9 b626 cdb8
00000170: 3257 6136 b370 e038 39ae 3b39 f810 9eb9
00000180: ae07 16b9 7fb7 68b8 5448 7db7 d999 1d38
00000190: 3d9b 25ba 6910 10ba 790c b9b9 b0b5 efb8
000001a0: 2703 b538 b0a3 10ba 33eb f2b9 e4f6 7cb9
000001b0: ec76 ce38 11fb ec39 0635 19ba 9c0f d8b9
000001c0: 2000 a1b8 5828 9239 f0dd 2a3a 96bd e1b9
000001d0: df71 8bb9 d1ba cf38 4a45 0a3a f2a1 843a
000001e0: bfb2 0bba 283e 95b9 610f c538 db62 0c3a
000001f0: 0847 823a ec74 54ba 8a61 4cba e339 26ba
00000200: 8bf1 9cb9 fa49 5f39 66c4 4bba b4b6 3bba
00000210: 85e2 04ba c255 a1b8 0ba2 f539 96d1 46ba
00000220: 6468 3aba a7b7 fab9 b1ec 9537 b2ae 313a
00000230: 5e1f 2bba d435 08ba f7af 8cb9 31f0 8639
00000240: 902d 643a 988a 2cba 99c0 13ba 4260 9cb9
00000250: 861d 6739 dace 603a ae8d e7b9 7895 eab9
00000260: bfe0 02ba 890f 2aba 417e 3aba 033d ceb9
00000270: b2fe e7b9 f756 09ba 5a75 22ba c420 28ba
00000280: ed2a e9b9 3334 ddb9 10a8 e8b9 731c 11ba
00000290: a7bf 1cba 3f42 c1b9 0712 bab9 b2fd d5b9
000002a0: da30 ddb9 ac4b dab9 77cc 84b9 d3a7 58b9
000002b0: 0f14 3cb9 244a 50b9 e60e 2fb9 da15 acb9
000002c0: 8755 b3b9 8c5b aab9 6e99 8bb9 689f 7cb9
000002d0: fd03 98b9 6aec 66b9 e296 17b9 bceb e4b8
000002e0: 55a0 cfb8 4cc9 0fb9 68bf a9b8 137b 1cb7
000002f0: eb72 c238 c9f0 1039 7e7a c0b8 00dd 1038
00000300: a3d6 4239 a85d 8639 91b5 a239 cfb8 e838
00000310: ab3a 8039 8428 d039 8e39 113a 192f 283a
00000320: 5d39 7639 a2c5 4b39 28f8 b038 1cde 36b9
00000330: 60e4 1aba 1e14 7239 a9ae 2039 70ca d2b5
00000340: 50e7 91b9 e09d 29ba 0b8c 2839 8828 9238
00000350: 15d5 59b8 8898 9eb9 8391 34ba 74aa 3539
00000360: 8379 ca38 e08a 3db7 e288 84b9 2775 02ba
00000370: b017 8f39 8fb1 8339 0537 2539 9395 8637
00000380: 9b8b 5bb9 d5a3 3a38 a7a3 73b8 664b 7eb9
00000390: 0dd4 e2b9 295c 27ba c338 8d37 695a b8b8
000003a0: 3d9a 9ab9 2a00 00ba 861a 40ba a239 27b8
000003b0: 43a3 1eb9 e542 b6b9 a60f 0aba 8ed8 44ba
000003c0: 0c00 9e37 5144 bbb8 be5e 91b9 0c61 cab9
000003d0: b429 19ba f5fe 3e39 a0ea 9938 cea9 2fb8
000003e0: 747d fbb8 fe8f 4eb9 a5eb 34b8 e8c2 f2b8
000003f0: 2a9c 67b9 14cc e9b9 bdc8 4dba abf1 cf37

exp_avg_sq f4 [32, 2, 5, 5]
1.3391767e-05 8.879901e-06 8.704891e-06 9.597484e-06 1.0438365e-05 1.5157108e-05 9.729579e-06 1.012232e-05
1.2838183e-05 1.6253925e-05 1.6599213e-05 1.1716006e-05 1.3664398e-05 1.9532912e-05 2.722067e-05 1.8750696e-05
1.5213547e-05 1.8906941e-05 2.8067234e-05 4.022072e-05 2.1340096e-05 1.859045e-05 2.3223167e-05 3.4387343e-05
4.9625996e-05 1.5126012e-05 9.464261e-06 9.237274e-06 1.0432018e-05 1.189917e-05 1.8569966e-05 1.143216e-05
1.14096365e-05 1.4216123e-05 1.8190312e-05 2.204883e-05 1.4817917e-05 1.5945045e-05 2.1396065e-05 2.9317196e-05
2.5649219e-05 1.949889e-05 2.2069135e-05 3.0272691e-05 4.2236963e-05 2.9207948e-05 2.3609258e-05 2.6666858e-05
3.6181445e-05 5.0436185e-05 1.4003885e-05 1.3144364e-05 1.1445049e-05 9.917922e-06 8.391708e-06 1.3838821e-05
1.3149499e-05 1.16379815e-05 1.0329792e-05 8.928898e-06 1.4094083e-05 1.3181762e-05 1.1615912e-05 1.0384965e-05
9.0753865e-06 1.4411294e-05 1.3000775e-05 1.1301377e-05 1.00874195e-05 8.893668e-06 9.779037e-06 8.34014e-06
7.020138e-06 6.3239236e-06 5.7521493e-06 1.3200355e-05 1.2703451e-05 1.1289806e-05 9.956032e-06 8.629135e-06
1.3314139e-05 1.2976975e-05 1.16646615e-05 1.0466299e-05 9.1334305e-06 1.3994179e-05 1.3376797e-05 1.1922971e-05
1.0672587e-05 9.289062e-06 1.4768642e-05 1.3615498e-05 1.1926796e-05 1.0602081e-05 9.185254e-06 1.0371819e-05
9.157564e-06 7.759396e-06 6.86414e-06 6.0096427e-06 8.919374e-06 9.523085e-06 1.0555648e-05 1.2395807e-05
1.4901054e-05 7.5637518e-06 9.088694e-06 1.1208806e-05 1.3956774e-05 1.712823e-05 7.0080314e-06 8.87786e-06
1.1523766e-05 1.4857671e-05 1.8725985e-05 6.0219663e-06 7.653539e-06 1.02621025e-05 1.391675e-05 1.8663517e-05
4.4988365e-06 5.473344e-06 7.502778e-06 1.1121104e-05 1.7000219e-05 1.04933015e-05 1.1326602e-05 1.1923174e-05
1.2786903e-05 1.4599476e-05 9.1710235e-06 1.0696991e-05 1.1880553e-05 1.346527e-05 1.6530448e-05 8.427534e-06
1.0036329e-05 1.136217e-05 1.33387075e-05 1.7679433e-05 6.922962e-06 8.146108e-06 9.188942e-06 1.1305156e-05
1.675419e-05 5.2185746e-06 5.779946e-06 6.3053544e-06 8.301037e-06 1.455648e-05 6.549759e-06 5.8446053e-06
5.2916125e-06 5.752102e-06 8.439468e-06 6.156142e-06 5.3095546e-06 4.8609327e-06 6.0700954e-06 1.0399626e-05
5.902643e-06 5.152677e-06 5.323751e-06 8.08044e-06 1.504691e-05 5.728006e-06 5.3137983e-06 6.5734757e-06
1.1601673e-05 2.1946e-05 5.500393e-06 5.551379e-06 7.980785e-06 1.5198899e-05 2.8681048e-05 5.9479466e-06
4.9968157e-06 4.3156733e-06 4.84605e-06 7.4783347e-06 5.5761666e-06 4.4879557e-06 3.947809e-06 5.237674e-06
9.513228e-06 5.305675e-06 4.3956607e-06 4.642696e-06 7.659482e-06 1.4594815e-05 5.1777033e-06 4.7630865e-06
6.35847e-06 1.1907066e-05 2.2370083e-05 4.9358114e-06 5.1174006e-06 8.124769e-06 1.6163427e-05 2.9864412e-05
6.335144e-06 8.716917e-06 1.4859391e-05 2.6990252e-05 4.4359673e-05 6.165971e-06 8.791571e-06 1.569787e-05
2.9555533e-05 4.9797967e-05 6.0135744e-06 7.693857e-06 1.3194871e-05 2.5292144e-05 4.4100518e-05 5.7569564e-06
6.8396375e-06 1.08550985e-05 2.0450965e-05 3.622718e-05 5.7031743e-06 6.1760784e-06 8.488258e-06 1.4756389e-05
2.5897767e-05 6.856224e-06 9.004142e-06 1.3953996e-05 2.4507874e-05 4.238797e-05 6.9395155e-06 9.391169e-06
1.5027587e-05 2.7002547e-05 4.756293e-05 6.8416884e-06 8.4054045e-06 1.26987725e-05 2.3129945e-05 4.23641e-05
6.5754966e-06 7.784104e-06 1.11418285e-05 1.9528841e-05 3.5618425e-05 6.4679757e-06 7.3141264e-06 9.446265e-06
1.5042848e-05 2.6466416e-05 3.138353e-06 3.029845e-06 6.269097e-06 1.6130443e-05 3.396746e-05 3.331426e-06
00000000: 34ad 6037 e2fa 1437 390b 1237 e104 2137
00000010: 7020 2f37 484b 7e37 393c 2337 09d3 2937
00000020: 9363 5737 0a59 8837 8a3e 8b37 dd8f 4437
00000030: 2440 6537 9cda a337 f257 e437 d04a 9d37
00000040: b03d 7f37 599a 9e37 ed71 eb37 abb2 2838
00000050: 8203 b337 b0f2 9b37 5fcf c237 213b 1038
00000060: 8225 5038 bac5 7d37 b1c8 1e37 caf9 1a37
00000070: 2d05 2f37 8ca2 4737 b3c6 9b37 c1cc 3f37
00000080: 046c 3f37 c981 6e37 6697 9837 80f5 b837
00000090: 789a 7837 b9c1 8537 b37b b337 33ee f537
000000a0: 4729 d737 8c91 a337 1b21 b937 1cf2 fd37
000000b0: 9827 3138 9703 f537 7f0c c637 a4b2 df37
000000c0: 88c1 1738 718b 5338 3af2 6a37 9d86 5c37
000000d0: 1c04 4037 2765 2637 1dca 0c37 492d 6837
000000e0: ab9c 5c37 c040 4337 1e4e 2d37 53cd 1537
000000f0: a075 6c37 3d27 5d37 f6e1 4237 163b 2e37
00000100: 7d42 1837 09c8 7137 e71d 5a37 0b9b 3d37
00000110: 233d 2937 0336 1537 a510 2437 a1ec 0b37
00000120: 878e eb36 1732 d436 9602 c136 1877 5d37
00000130: e820 5537 5969 3d37 d508 2737 dac5 1037
00000140: cb5f 5f37 afb7 5937 57b3 4337 6998 2f37
00000150: c93b 1937 8bc8 6a37 e86c 6037 c508 4837
00000160: 6a0e 3337 38d8 1b37 d6c6 7737 1e6e 6437
00000170: 3319 4837 97df 3137 5e1a 1a37 a002 2e37
00000180: 70a3 1937 5a2e 0237 8352 e636 70a6 c936
00000190: 6ba4 1537 57c5 1f37 2a18 3137 96f7 4f37
000001a0: 8aff 7937 22cc fd36 a57b 1837 750d 3c37
000001b0: e327 6a37 98ae 8f37 8826 eb36 1ef2 1437
000001c0: 3356 4137 3645 7937 bf15 9d37 4c10 ca36
000001d0: b367 0037 652b 2c37 fc7b 6937 998f 9c37
000001e0: b6f4 9636 aba7 b736 5fc0 fb36 c794 3a37
000001f0: b19b 8e37 630c 3037 6307 3e37 a409 4837
00000200: 5587 5637 46f0 7437 3fdd 1937 3a77 3337
00000210: 9652 4737 e5e8 6137 deaa 8a37 fc63 0d37
00000220: b461 2837 26a0 3e37 50c9 5f37 4b4e 9437
00000230: ca4b e836 44ab 0837 352a 1a37 46ab 3d37
00000240: 598b 8c37 371b af36 5cf1 c136 9592 d336
00000250: af44 0b37 9b37 7437 00c6 db36 c71c c436
00000260: 9b8e b136 2e02 c136 3d97 0d37 db90 ce36
00000270: ba28 b236 181b a336 b9ad cb36 0e7a 2e37
00000280: 510f c636 29e5 ac36 aca2 b236 3a91 0737
00000290: fd71 7c37 3233 c036 2e4d b236 ba91 dc36
000002a0: cea4 4237 ad18 b837 0490 b836 fc45 ba36
000002b0: 36e5 0537 c6fe 7e37 1598 f037 7994 c736
000002c0: 52aa a736 5acf 9036 419b a236 68ee fa36
000002d0: e81a bb36 3f97 9636 6c77 8436 47bf af36
000002e0: 019b 1f37 6707 b236 707e 9336 74c8 9b36
000002f0: 3a81 0037 41dc 7437 22bc ad36 9ad2 9f36
00000300: d75a d536 76c4 4737 63a7 bb37 4c9e a536
00000310: 23b6 ab36 9e4f 0837 b296 8737 5685 fa37
00000320: 7992 d436 e03e 1237 994c 7937 2069 e237
00000330: d60e 3a38 4ae5 ce36 837f 1337 ebae 8337
00000340: 06ee f737 29de 5038 36c8 c936 dd14 0137
00000350: 8a5f 5d37 772a d437 92f8 3838 e12b c136
00000360: 0a80 e536 4b1e 3637 1d8e ab37 a3f2 1738
00000370: e55d bf36 1c3c cf36 ca68 0e37 3592 7737
00000380: 083f d937 840e e636 7f10 1737 f51b 6a37
00000390: 4296 cd37 bcc9 3138 fcd9 e836 c48e 1d37
000003a0: ff1e 7c37 8783 e237 4f7e 4738 a891 e536
000003b0: f004 0d37 d00c 5537 2e07 c237 1bb0 3138
000003c0: 16a3 dc36 7998 0237 caed 3a37 ded1 a337
000003d0: fe64 1538 7d07 d936 de6b f536 667b 1e37
000003e0: 8a60 7c37 3204 de37 7e9c 5236 5754 4b36
000003f0: 225b d236 dd4f 8737 4878 0e38 7691 5f36

exp_avg f4 [32]
0.0005828515 -0.0002146467 6.195651e-05 0.00051757984 -0.0005364219 -0.00017272244 -0.00016657107 0.0011413539
0.0013390932 -0.00084035605 0.00036007713 -0.0005422077 0.00018056027 -0.0004719123 0.0007112325 -0.0005074307
0.00019190379 0.0008853442 0.00022163904 0.00024398176 -0.00043839504 -0.0005487254 2.5043493e-05 -0.0006517187
-0.0010753063 -0.0008978797 0.00021811333 0.0003853875 5.729857e-05 -0.000100106074 -0.0005327247 0.0003307596
00000000: 81ca 183a c912 61b9 a6ee 8138 32ae 073a
00000010: aa9e 0cba d41c 35b9 95a9 2eb9 7b99 953a
00000020: 8384 af3a 574b 5cba bcc8 bc39 f122 0eba
00000030: c754 3d39 ff6a f7b9 0172 3a3a 1905 05ba
00000040: c839 4939 7216 683a c767 6839 5bd5 7f39
00000050: 63d8 e5b9 57d8 0fba 7e14 d237 1ad8 2aba
00000060: 4bf1 8cba b05f 6bba 5ab5 6439 d60d ca39
00000070: df53 7038 0af0 d1b8 8da6 0bba cd69 ad39
