results/2BS/T_1/L_2000/seed1/checkpoint.pth.tar (torch_old, 395614 bytes, 22 tensors)

layer1.conv.weight f4 [32, 2, 5, 5]
0.024570743 0.046413425 0.03436467 0.03210664 0.005548722 0.019313794 -0.05246449 0.054454237
0.08665138 -0.053693283 0.010538228 0.07295264 0.037500177 0.023924803 -0.060005143 -0.00464473
0.020425208 0.09291263 0.019187152 0.0400489 0.011156651 0.005654092 0.09731752 0.14317791
0.07690221 0.018984498 -0.045227375 -0.047809195 -0.03883786 -0.09888505 -0.01537351 -0.047772866
0.009149535 -0.028591553 -0.027913177 -0.029367741 0.07071491 -0.015588803 -0.05748912 -0.026240516
-0.038044363 -0.027531374 -0.014960662 -0.042049192 -0.030450279 -0.037304763 -0.073636636 -0.04732743
0.01753284 0.049454007 -0.01778737 0.040652838 -0.02678873 -0.02255935 0.037048757 -0.043405186
-0.03961855 -0.002263729 -0.07618526 0.005861983 -0.0546799 -0.05379048 -0.083498456 -0.03954571
-0.058785405 -0.011929378 -0.009055152 -0.078985706 -0.047979195 -0.11271131 0.0049102763 -0.037704963
-0.098974235 -0.058150873 -0.101943426 0.019160325 0.047094855 0.0930947 0.08379102 0.06964136
0.099058844 0.0854574 0.0266564 0.11264054 0.013045736 0.06631866 0.021926226 0.11284022
0.013056421 0.08978603 0.099055186 -0.023755183 -0.03908125 0.07456795 0.049376067 0.011675324
0.00039422736 -0.08948559 -0.06963172 -0.04285595 0.10848134 -0.0057384563 0.070915975 0.034963973
-0.029834494 0.11336129 0.041722074 0.023360277 -0.0013006423 -0.050000224 0.08329346 0.09448917
0.054204464 0.07199191 -0.034243997 0.039791565 -0.043004315 0.016637186 -0.02620116 -0.087899506
-0.031233927 -0.012073348 0.016110733 -0.077339835 -0.04766402 -0.086958945 -0.046123687 -0.007864236
0.050255705 -0.0035126158 -0.07587599 -0.038146272 -0.057000976 -0.03510721 -0.05105343 0.033474553
-0.059478875 0.07622176 -0.0047934824 -0.0075556943 -0.057292793 -0.11605639 -0.022509776 0.0020848368
-0.009684935 -0.12502266 -0.042753395 -0.07765693 -0.013590964 -0.006501753 0.009212748 0.02012393
0.0018815354 -0.12671886 -0.029805688 0.03423489 -0.031421777 0.022992626 -0.04883749 -0.010206365
0.0031569374 -0.002436595 -0.06446943 0.020689331 0.04286786 0.07899423 0.0024388474 -0.01707393
0.019962396 0.05047091 -0.054679208 0.043657586 -0.05056009 -0.05545011 -0.0716535 -0.021606185
-0.004011948 -0.046637967 -0.03320383 0.00301278 -0.027084708 -0.028777545 -0.02018185 0.03832034
0.0960156 -0.044476982 0.008939606 -0.018147677 0.01256596 0.0498936 -0.13042952 0.017215978
-0.10195163 0.026018934 0.034730945 -0.018483989 -0.035543114 -0.06001759 -0.038037814 0.05404732
-0.027288685 0.022402208 0.011443575 -0.026002113 -0.00798472 0.053799313 0.03035456 0.0140961865
-0.04843313 -0.10400038 -0.052163295 0.04039204 0.01098753 -0.0981333 -0.04884579 0.015202255
-0.00064680545 -0.01463979 -0.06907103 -0.1122316 0.017779997 0.026719091 -0.047721338 -0.04605594
-0.120271906 -0.035149455 0.07505926 0.031432018 -0.033774592 -0.036548194 0.04041234 0.11109514
0.02514457 0.02326192 -0.0035259547 -0.018774575 0.08845453 0.013662634 0.011502152 -0.028839655
0.052316178 0.111817345 0.051069666 0.0040464546 -0.0036531484 0.06997753 0.059996735 0.027855625
-0.08773162 0.004672536 0.020803208 0.021700451 -0.01034506 0.024952764 -0.09253406 0.07020846
00000000: 9548 c93c 011c 3e3d f8c1 0c3d 4182 033d
00000010: 0ed2 b53b f637 9e3c 01e5 56bd 680b 5f3d
00000020: 4776 b13d 7ded 5bbd 88a8 2c3c 3268 953d
00000030: c999 193d f3fd c33c f4c7 75bd d232 98bb
00000040: c452 a73c fa48 be3d 602e 9d3c 510a 243d
00000050: 63ca 363c f645 b93b 684e c73d 3b9d 123e
00000060: e87e 9d3d 6185 9b3c 5740 39bd 93d3 43bd
00000070: 7314 1fbd 3f84 cabd 2de1 7bbc 7bad 43bd
00000080: eee7 153c d538 eabc 2daa e4bc 9e94 f0bc
00000090: fbd2 903d 2e68 7fbc b679 6bbd 5af6 d6bc
000000a0: 68d4 1bbd 7a89 e1bc 911d 75bc c63b 2cbd
000000b0: dd72 f9bc e1cc 18bd cece 96bd 68da 41bd
000000c0: 08a1 8f3c 4990 4a3d d2b6 91bc 9783 263d
000000d0: 0a74 dbbc 63ce b8bc 70c0 173d a3c9 31bd
000000e0: 1047 22bd 125b 14bb 0507 9cbd e115 c03b
000000f0: 08f8 5fbd 6853 5cbd 3d01 abbd affa 21bd
00000100: f7c8 70bd 7073 43bc 0f5c 14bc 42c3 a1bd
00000110: d585 44bd 30d5 e6bd 62e6 a03b 8570 1abd
00000120: 01b3 cabd 9c2f 6ebd b7c7 d0bd 1df6 9c3c
00000130: 89e6 403d 6fa8 be3d a09a ab3d 21a0 8e3d
00000140: 5ddf ca3d 4a04 af3d 865e da3c 15b0 e63d
00000150: c8bd 553c 14d2 873d a19e b33c c618 e73d
00000160: 99ea 553c bde1 b73d 72dd ca3d 3b9a c2bc
00000170: a913 20bd 15b7 983d 8f3e 4a3d dc49 3f3c
00000180: 4db0 ce39 3944 b7bd 139b 8ebd b889 2fbd
00000190: 772b de3d a909 bcbb 653c 913d 6236 0f3d
000001a0: 7867 f4bc f729 e83d c4e4 2a3d 0d5e bf3c
000001b0: 507a aaba 09cd 4cbd c395 aa3d 8a83 c13d
000001c0: 8005 5e3d 7f70 933d 6f43 0cbd 7bfc 223d
000001d0: 4b25 30bd b54a 883c d1a3 d6bc a804 b4bd
000001e0: 4bde ffbc 4bcf 45bc a8fa 833c 5964 9ebd
000001f0: 593b 43bd 8817 b2bd 31ec 3cbd ffd8 00bc
00000200: edd8 4d3d ea33 66bb df64 9bbd 443f 1cbd
00000210: db79 69bd 94cc 0fbd 671d 51bd 9d1c 093d
00000220: 1fa0 73bd 271a 9c3d a512 9dbb c295 f7bb
00000230: d9ab 6abd f9ae edbd 6c66 b8bc c2a1 083b
00000240: 90ad 1ebc f105 00be 2f1e 2fbd 990a 9fbd
00000250: a2ac 5ebc a80c d5bb 11f1 163c f1da a43c
00000260: da9d f63a 97c2 01be 0f2b f4bc e239 0c3d
00000270: 1fb4 00bd 085b bc3c d209 48bd 9938 27bc
00000280: 9fe4 4e3b 48af 1fbb 8c08 84bd ac7c a93c
00000290: 3696 2f3d bac7 a13d 12d5 1f3b a0de 8bbc
000002a0: 2e88 a33c 96ba 4e3d 4ef7 5fbd 4cd2 323d
000002b0: 1918 4fbd a81f 63bd 12bf 92bd 74ff b0bc
000002c0: a976 83bb 7407 3fbd bd00 08bd 1072 453b
000002d0: c0e0 ddbc e3be ebbc 6854 a5bc caf5 1c3d
000002e0: d4a3 c43d 7f2d 36bd 6d77 123c 70aa 94bc
000002f0: 75e1 4d3c 3b5d 4c3d 518f 05be 8608 8d3c
00000300: 04cc d0bd a925 d53c 0942 0e3d bc6b 97bc
00000310: a895 11bd 01d5 75bd 8acd 1bbd b960 5d3d
00000320: 858c dfbc d684 b73c d57d 3b3c 6202 d5bc
00000330: 58d2 02bc ab5c 5c3d 20aa f83c b1f3 663c
00000340: d161 46bd 27fe d4bd 2ea9 55bd 2072 253d
00000350: 0b05 343c 1dfa c8bd 8612 48bd e112 793c
00000360: 618e 29ba bbdb 6fbc 1d75 8dbd aed9 e5bd
00000370: 5ba7 913c ffe1 da3c 7377 43bd 27a5 3cbd
00000380: 1e51 f6bd e0f8 0fbd abb8 993d dcbe 003d
00000390: 3a57 0abd 8fb3 15bd 6987 253d d985 e33d
000003a0: fcfb cd3c c88f be3c b413 67bb 23cd 99bc
000003b0: a627 b53d 3ed9 5f3c 8673 3c3c 2441 ecbc
000003c0: 7d49 563d 7e00 e53d 6d2e 513d 1f98 843b
000003d0: a969 6fbb 6150 8f3d 23bf 753d 7b31 e43c
000003e0: a3ac b3bd 131c 993b 7d6b aa3c 25c5 b13c
000003f0: 547e 29bc bd69 cc3c 7f82 bdbd 74c9 8f3d

layer1.conv.bias f4 [32]
-0.09494401 -0.042802107 -0.085698 -0.11216295 0.11807318 -0.07732592 -0.08872361 0.12761718
0.09705052 0.1458763 -0.0688072 0.0683471 -0.09086375 -0.0077543203 0.07425709 0.16460086
0.022221863 0.046209414 -0.10355196 0.02687913 0.13546209 0.046135284 -0.09041142 -0.13656943
0.03708767 -0.08610832 -0.056805324 -0.12497616 0.08476982 -0.019639472 0.15512423 0.12738588
00000000: 0172 c2bd 4351 2fbd 6f82 afbd b0b5 e5bd
00000010: 5ad0 f13d 0d5d 9ebd b9b4 b5bd 14ae 023e
00000020: 6cc2 c63d 9960 153e caea 8cbd 90f9 8b3d
00000030: c616 babd f417 febb 1a14 983d 218d 283e
00000040: a00a b63c 1546 3d3d 0d13 d4bd 9f31 dc3c
00000050: 93b6 0a3e 5af8 3c3d 9f29 b9bd dbd8 0bbe
00000060: 3ee9 173d 8f59 b0bd b3ac 68bd 80f3 ffbd
00000070: cd9b ad3d f5e2 a0bc e3d8 1e3e 7271 023e

layer2.conv1.weight f4 [32, 32, 3, 3]
0.052200858 0.056913722 0.028771684 0.021552322 0.008935588 0.02111302 0.103537306 0.07493213
-0.020967223 -0.0759331 -0.06630017 -0.072047964 -0.03399157 0.011143841 -0.037997365 0.083266914
-0.012932012 -0.10084664 -0.056330856 0.016779644 -0.030779984 0.07476445 0.05614333 -0.0023622648
-0.036222193 0.007813152 -0.045311514 -0.02212339 -0.09341554 -0.046605952 0.03434694 -0.0834041
0.0063508744 0.019272141 -0.03532332 -0.025221981 -0.111513644 0.026148109 -0.007869576 -0.11277626
0.012263703 -0.11089974 -0.029089779 0.0019082183 0.010210989 -0.052347206 -0.024777828 0.08269201
0.018250244 -0.030206231 0.0012350108 0.07236032 0.046741933 -0.005199522 0.08827562 0.12194167
-0.13059106 0.11484966 -0.040667098 -0.12652743 0.0043780413 0.103435874 0.0070005707 0.0067499764
-0.09468598 0.012651803 0.033425517 0.06802544 0.02586891 -0.12552388 0.063884445 0.054516964
0.026198631 -0.0400214 -0.09857666 0.10063547 -0.034937307 -0.002352026 0.028253952 0.14250219
-0.025864389 -0.057191435 -0.096796006 0.0015245727 0.02383044 -0.112776905 0.05708137 0.04253927
0.05167397 0.04914373 -0.03200906 0.006446294 0.049351957 0.038679402 -0.02911234 -0.03739237
-0.027536962 0.16729061 0.0128772985 -0.046143603 -0.0076418472 0.115848154 -0.04648104 -0.033758573
0.087726206 -0.041030996 -0.052770082 0.05445786 -0.036753703 -0.008316357 -0.04689036 -3.098362e-05
0.025176797 -0.042563517 0.0070385304 -0.01113031 -0.0058754706 0.015184593 -0.0014790029 0.04045083
0.030587066 0.010345244 0.070520714 -0.068221234 0.15548487 0.08102754 -0.053540334 -0.06761331
-0.02411366 -0.01169377 -0.06499314 0.06956391 -0.04308253 -0.002546214 -0.03907991 0.12571791
-0.006466135 0.0052177426 0.03944528 -0.013472661 -0.047650624 0.15812209 -0.012322518 -0.009184167
0.033856668 -0.026088037 -0.04510144 0.059386093 -0.01921015 -0.029773958 -0.060353104 -0.02076083
-0.12376008 -0.07884305 -0.17966212 0.01681394 0.009224212 0.06640646 -0.0510024 -0.0075571323
0.047193408 0.062769756 -0.0009821388 0.007852565 -0.04025776 0.031320937 0.11523979 0.035041053
0.046009306 0.06112955 -0.0013073726 0.111920014 -0.028027285 0.037297715 -0.08404403 0.010388868
-0.025419699 -0.086573504 -0.03067453 0.02746544 -0.121998034 -0.020642366 -0.031445544 -0.119108774
0.049713366 0.021659369 -0.03383611 0.009243306 0.038762096 0.1445061 0.13137196 0.03741845
0.07347327 0.04321724 0.03928948 -0.10187085 -0.0077058994 -0.000741264 0.056427263 -0.027873972
-0.083674625 0.09223884 -0.06384801 -0.030017067 0.03361423 -0.03810578 0.0320199 -0.008443819
0.052633017 -0.007358369 -0.005045705 -0.0046345354 -0.04153174 0.056698143 -0.08416862 -0.015485151
0.016410632 0.0025007557 0.011094456 -0.014684059 0.025284745 -0.08581235 0.05789299 -0.012291132
-0.069840424 0.13517031 -0.045049347 0.051219765 0.18079112 -0.10588599 0.028808024 -0.080984846
-0.064771846 0.011613217 0.061411668 0.018810986 -0.035004877 0.05422033 -0.029790675 -0.06959581
0.06556126 0.07455079 -0.046418514 0.02713989 0.031680003 -0.07957011 0.021840788 -0.007040255
0.0007240055 0.016372204 -0.006221982 -0.043622807 0.081807755 -0.048303492 0.08145593 -0.071791664
00000000: 91d0 553d 5d1e 693d 98b2 eb3c 7f8e b03c
00000010: 9366 123c 36f5 ac3c 5e0b d43d 0476 993d
00000020: 74c3 abbc d082 9bbd 62c8 87bd e28d 93bd
00000030: bf3a 0bbd a894 363c 20a3 1bbd d887 aa3d
00000040: cae0 53bc af88 cebd 2fbb 66bd 7775 893c
00000050: 4e26 fcbc 1b1e 993d 8cf6 653d 3ad0 1abb
00000060: b95d 14bd bc02 003c 9198 39bd 1d3c b5bc
00000070: a650 bfbd e2e5 3ebd 61af 0c3d c5cf aabd
00000080: ff1a d03b 9ce0 9d3c 30af 10bd 549e cebc
00000090: 4461 e4bd 8f34 d63c 65ef 00bc 3df7 e6bd
000000a0: b3ed 483c 671f e3bd b04d eebc 2e1d fa3a
000000b0: fe4b 273c 066a 56bd dffa cabc 6e5a a93d
000000c0: 8981 953c 0f73 f7bc 16e0 a13a a631 943d
000000d0: 7874 3f3d c060 aabb d9c9 b43d 8ebc f93d
000000e0: aab9 05be 4c36 eb3d 8b92 26bd 6890 01be
000000f0: ac75 8f3b 30d6 d33d 0b65 e53b e82e dd3b
00000100: b9ea c1bd 8249 4f3c 32e9 083d ec50 8b3d
00000110: 09eb d33c 5589 00be d9d5 823d 2e4d 5f3d
00000120: 839e d63c 7bed 23bd 8fe2 c9bd f819 ce3d
00000130: 6c1a 0fbd 7324 1abb d574 e73c 18ec 113e
00000140: 8ee1 d3bc 9141 6abd fc3c c6bd 2cd4 c73a
00000150: 0e38 c33c 94f7 e6bd 28ce 693d a83d 2e3d
00000160: 16a8 533d f04a 493d ef1b 03bd 6f3b d33b
00000170: 4725 4a3d 4b6e 1e3d 017d eebc be28 19bd
00000180: 3295 e1bc 3b4e 2b3e 4efb 523c 1301 3dbd
00000190: 7668 fabb cc41 ed3d e762 3ebd 6e46 0abd
000001a0: cca9 b33d 1e10 28bd 7125 58bd 340f 5f3d
000001b0: 0d8b 16bd 5441 08bc 1b10 40bd 69f4 01b8
000001c0: 923f ce3c 1557 2ebd 79a3 e63b e75b 36bc
000001d0: 0587 c0bb cdc8 783c 1adb c1ba c5af 253d
000001e0: ba91 fa3c 197f 293c 2a6d 903d 93b7 8bbd
000001f0: 6d37 1f3e c4f1 a53d 1c4d 5bbd d978 8abd
00000200: 038a c5bc 3a97 3fbc 201b 85bd 8677 8e3d
00000210: 4f77 30bd 62de 26bb 4112 20bd 32bc 003e
00000220: dfe1 d3bb 99f9 aa3b 6091 213d 70bc 5cbc
00000230: 4d2d 43bd c2ea 213e 63e4 49bc 3079 16bc
00000240: 4aad 0a3d 94b6 d5bc 4abc 38bd d53e 733d
00000250: 9b5e 9dbc 84e8 f3bc d134 77bd 9e12 aabc
00000260: ed75 fdbd 7778 a1bd 59f9 37be 63bd 893c
00000270: 2621 173c 1c00 883d e5e7 50bd d2a1 f7bb
00000280: e04d 413d 6e8d 803d 1cbb 80ba 0ba8 003c
00000290: 52e5 24bd 624a 003d d702 ec3d 3587 0f3d
000002a0: 4174 3c3d fb62 7a3d 255c abba 5236 e53d
000002b0: 7a99 e5bc 7dc5 183d 471f acbd 1236 2a3c
000002c0: f93c d0bc 734d b1bd 2749 fbbc 34ff e03c
000002d0: 1bda f9bd 2e1a a9bc 0bcd 00bd 4def f3bd
000002e0: 3ea0 4b3d fd6e b13c bc97 0abd 3c71 173c
000002f0: 01c5 1e3d 68f9 133e 5f86 063e 1744 193d
00000300: 2779 963d 9004 313d 01ee 203d aaa1 d0bd
00000310: c581 fcbb 6351 42ba 4620 673d f557 e4bc
00000320: 9a5d abbd b8e7 bc3d bfc2 82bd 5ae6 f5bc
00000330: 13af 093d ce14 1cbd 4c27 033d f257 0abc
00000340: b895 573d 791e f1bb 7156 a5bb 4ddd 97bb
00000350: 301d 2abd 503c 683d 9960 acbd 6eb5 7dbc
00000360: 976f 863c b8e3 233b 85c5 353c 6895 70bc
00000370: f421 cf3c 63be afbd 3321 6d3d be60 49bc
00000380: 7f08 8fbd 166a 0a3e aa85 38bd d1cb 513d
00000390: 4f21 393e c1da d8bd cefe eb3c 62db a5bd
000003a0: 1aa7 84bd 5d45 3e3c cd8a 7b3d 7f19 9a3c
000003b0: 4661 0fbd 2316 5e3d 930b f4bc 3f88 8ebd
000003c0: fb44 863d 16ae 983d 5721 3ebd 7954 de3c
000003d0: e4c2 013d a7f5 a2bd 74eb b23c f0b1 e6bb
000003e0: 30cb 3d3a 001f 863c c5e1 cbbb d4ad 32bd
000003f0: d38a a73d e2d9 45bd 5ed2 a63d 8207 93bd

layer2.conv1.bias f4 [32]
0.017787192 -0.021650782 0.033865146 0.035898175 0.03974279 -0.026534937 -0.0009016335 0.037934665
-0.02805089 0.020301964 -0.048322372 0.032819718 0.04048253 -0.03852264 0.014938443 -0.01690122
-0.0076909587 -0.02216387 -0.051082835 0.029696079 -0.0322852 0.03735712 -0.024981413 -0.04676324
0.00830342 -0.01826968 0.013760154 -0.03929299 0.02336379 -0.025537305 -0.013817144 0.016769217
00000000: 72b6 913c fb5c b1bc 2eb6 0a3d f709 133d
00000010: 56c9 223d cc5f d9bc 9a5b 6cba 6161 1b3d
00000020: fbca e5bc 4e50 a63c aeed 45bd f86d 063d
00000030: 02d1 253d eac9 1dbd 5fc0 743c 6d74 8abc
00000040: 7004 fcbb 0191 b5bc 3c3c 51bd 3145 f33c
00000050: 7c3d 04bd c803 193d d2a5 ccbc d08a 3fbd
00000060: 110b 083c 4caa 95bc 4572 613c b0f1 20bd
00000070: 6b65 bf3c 9c33 d1bc 4d61 62bc 995f 893c

layer2.conv2.weight f4 [64, 32, 3, 3]
-0.008126843 0.0024049308 0.025102576 0.024300968 -0.040495988 0.017769784 0.00082192064 0.06469127
0.040949933 0.045573637 0.021700906 0.022722257 -0.014268792 -0.010925129 -0.021363152 -0.008437309
-0.0006799306 0.00667366 0.008771784 0.009428284 0.037579138 0.01236822 0.040933173 -0.034081906
0.045553785 -0.045311023 0.012556364 -0.04858143 0.0047712065 -0.0032565133 -0.017305963 0.008560495
-0.00082449947 0.02566797 -0.028680133 -0.028900068 -0.009647524 0.011447646 0.021035345 0.01747087
0.01664984 0.022950456 -0.005400602 -0.064964816 0.00494099 -0.012299361 0.009800491 0.04018265
0.0013890432 0.04488074 -0.028030504 0.0065836324 0.01356241 -0.029933367 5.0461954e-14 5.9217492e-15
4.739551e-15 1.3744557e-21 1.2462489e-24 5.909723e-17 1.33667e-40 -1.38894e-40 -2.3745674e-27 0.049559183
-0.030290002 0.037150867 0.0038899668 -0.026423477 0.012310671 0.021112906 0.013782366 0.06361984
0.031031325 -0.02303567 0.024923258 -0.005505567 -0.0478425 0.07011838 -0.0032534327 -0.07112809
-0.0060138516 -0.00068756874 -0.022306873 0.011140061 0.01129018 -0.008597351 0.04086316 0.012167818
-0.010878439 -0.02657661 -0.015563517 0.052153766 -0.013424567 0.05279696 0.099024914 -0.058967642
-0.015015924 -0.020810701 0.04488502 0.030154552 0.02530602 0.034535404 -0.024779921 0.0009950355
0.023830097 -0.018081341 0.0009921996 0.0036643224 0.052539967 0.021545956 0.06641397 0.0027084998
-0.07445473 -0.005448118 -0.017461125 0.013929789 -0.008029354 -0.0041749245 -0.004989498 0.069718696
-0.029238708 0.041126303 0.0046045566 0.0028688968 0.027083492 -0.064570665 0.005233873 0.009207056
0.0037229566 -0.019499155 -0.003700353 0.031371985 0.014492656 -0.0006218942 0.010968596 0.009055654
0.043335494 0.04191201 0.083321564 0.0020560513 0.040492885 0.010550284 -0.021053841 0.042800892
-0.022135822 -0.013215493 0.030445026 0.013772825 0.035046406 0.075209476 0.01238785 -0.0017716482
0.005196695 -0.00387231 -0.08058698 0.023911566 -0.060931735 -0.036086045 0.009189708 0.027044142
0.0016965482 -0.011847282 -0.026775297 -0.00371189 -0.022509545 0.009615184 -0.036986515 -0.0014633256
0.044504106 -0.022865288 -0.00010634281 0.003828183 -0.06283118 0.020424983 -0.00075129746 -0.016028928
0.027011726 0.03290515 0.024016282 -0.018012835 -0.003708817 -0.047793154 0.040496174 0.012553237
-0.016537754 0.02867757 0.021799281 -0.018921562 -0.04112562 -0.07600157 -0.014416462 0.05159971
-0.045134034 0.009339878 0.021292467 -0.0068375315 0.003164936 -0.010644138 -0.0031945969 0.01684818
-0.016864689 0.01018833 0.035782687 -0.020382557 0.02042806 -0.037418973 0.0612703 0.057077657
-0.000851497 -0.0653688 0.007901466 0.00066158216 -0.015202753 0.021940757 -0.019531488 0.008842766
0.05535094 -0.0035468563 -0.015010059 -0.011836792 -0.013664003 0.0027570669 0.042278882 0.0037781692
-0.043304976 0.028235706 -0.028892284 -0.004907666 0.011163445 -0.016826872 0.008551234 0.02582492
-0.01599591 0.0020476158 0.019440293 -0.0013250059 0.020254837 -0.00025744335 0.00056378567 -0.0010774161
-0.003424604 0.0017610294 -0.003681218 -0.011213948 0.019708483 0.027413705 -0.02865341 0.025320724
-0.0677838 0.007358851 -0.0036233163 -0.030729994 -0.005838131 0.06180179 -0.036277264 -0.029739203
00000000: 7326 05bc 0b9c 1d3b eba3 cd3c d312 c73c
00000010: 1fdf 25bd f091 913c 2976 573a db7c 843d
00000020: 1ebb 273d 6cab 3a3d 19c6 b13c 0724 ba3c
00000030: a7c7 69bc 50ff 32bc c701 afbc a43c 0abc
00000040: 5f3d 32ba b8ae da3b 87b7 0f3c 1779 1a3c
00000050: 95ec 193d 13a4 4a3c 8ba9 273d 7899 0bbd
00000060: 9b96 3a3d 0d98 39bd 35b9 4d3c 52fd 46bd
00000070: c857 9c3b 3a6b 55bb 3cc5 8dbc 5241 0c3c
00000080: 3923 58ba a245 d23c 99f2 eabc d6bf ecbc
00000090: a610 1ebc e88e 3b3c 5152 ac3c 121f 8f3c
000000a0: 3f65 883c 9802 bc3c 88f7 b0bb 460c 85bd
000000b0: 07e8 a13b 4283 49bc 3d92 203c 9096 243d
000000c0: 8e10 b63a ded4 373d 3aa0 e5bc 83bb d73b
000000d0: df34 5e3c d236 f5bc ac42 6329 7f5a d527
000000e0: a4c2 aa27 aeb3 cf1c 01d9 c017 d944 8824
000000f0: 9c74 0100 2e83 0180 f321 3c93 92fe 4a3d
00000100: bd22 f8bc 822b 183d d0ee 7e3b 0c76 d8bc
00000110: b2b2 493c f9f4 ac3c 6fcf 613c 1e4b 823d
00000120: 6835 fe3c 4db5 bcbc dc2b cc3c 0b68 b4bb
00000130: 7ff6 43bd 3a9a 8f3d 8b37 55bb 9bab 91bd
00000140: d80f c5bb f53d 34ba e7bc b6bc cd84 363c
00000150: 72fa 383c e7db 0cbc 2160 273d 875b 473c
00000160: 7b3b 32bc 31b7 d9bc 1ffe 7ebc 309f 553d
00000170: b7f2 5bbc a041 583d 93cd ca3d 0e88 71bd
00000180: 5a05 76bc 347b aabc 5bd9 373d ae06 f73c
00000190: 924e cf3c ff74 0d3d 43ff cabc da6b 823a
000001a0: 5637 c33c 521f 94bc b20c 823a 2125 703b
000001b0: 2634 573d 2581 b03c 0c04 883d 1681 313b
000001c0: b97b 98bd 2086 b2bb a20a 8fbc c539 643c
000001d0: 8d8d 03bc cecd 88bb f17e a3bb adc8 8e3d
000001e0: 0486 efbc 0e74 283d d2e1 963b 1a04 3c3b
000001f0: 33de dd3c a03d 84bd e980 ab3b 31d9 163c
00000200: d9fc 733b b1bc 9fbc 9f81 72bb e97f 003d
00000210: 9b72 6d3c 9d06 23ba a0b5 333c 2a5e 143c
00000220: 8f80 313d eeab 2b3d 7fa4 aa3d d1be 063b
00000230: dedb 253d 19db 2c3c 1b79 acbc fd4f 2f3d
00000240: 2f56 b5bc cc85 58bc d967 f93c 6aa7 613c
00000250: d28c 0f3d 6d07 9a3d 69f6 4a3c a636 e8ba
00000260: 0a49 aa3b 95c6 7dbb c90a a5bd 30e2 c33c
00000270: 8e93 79bd f6ce 13bd 6e90 163c ad8b dd3c
00000280: b65e de3a 1a1b 42bc de57 dbbc 2e43 73bb
00000290: f065 b8bc 0189 1d3c 2c7f 17bd 0fcd bfba
000002a0: f049 363d fc4f bbbc 5d04 dfb8 41e2 7a3b
000002b0: a2ad 80bd 4b52 a73c b8f2 44ba 194f 83bc
000002c0: b247 dd3c 8dc7 063d cbbd c43c a78f 93bc
000002d0: a00f 73bb c1c2 43bd 51df 253d 18ac 4d3c
000002e0: 2f7a 87bc 39ed ea3c 6894 b23c 6401 9bbc
000002f0: 5773 28bd b6a6 9bbd 0633 6cbc 385a 533d
00000300: 77de 38bd 4a06 193c 8a6d ae3c 5f0d e0bb
00000310: d16a 4f3b c064 2ebc 715c 51bb 3205 8a3c
00000320: d127 8abc f4ec 263c de90 123d 52f9 a6bc
00000330: bf58 a73c a344 19bd 91f6 7a3d 43ca 693d
00000340: ff36 5fba 14e0 85bd 2775 013c 076e 2d3a
00000350: f814 79bc 1abd b33c 8000 a0bc 40e1 103c
00000360: abb7 623d 6072 68bb c0ec 75bc 1bef 41bc
00000370: fcde 5fbc e8af 343b 9f2c 2d3d 299b 773b
00000380: 8f60 31bd 914e e73c 83af ecbc 7cd0 a0bb
00000390: e2e6 363c 82d8 89bc 7a1a 0c3c c88e d33c
000003a0: db09 83bc 4b31 063b 4041 9f3c d2ab adba
000003b0: 79ed a53c 76f9 86b9 04cb 133a 1638 8dba
000003c0: 526f 60bb 57d2 e63a 9740 71bb b5ba 37bc
000003d0: af73 a13c b592 e03c 8eba eabc 686d cf3c
000003e0: 3cd2 8abd 8422 f13b 2975 6dbb 78bd fbbc
000003f0: cb4d bfbb e023 7d3d 7897 14bd a19f f3bc

layer2.conv2.bias f4 [64]
-0.0039587147 0.01606328 0.014441125 -0.011324714 -0.010098157 0.0045985165 -0.036739655 0.030950608
-0.010884977 0.006802719 -1.11214675e-11 0.016591484 -0.037373174 -0.03828405 -0.04431703 -0.031584408
-0.009581232 1.1618958e-05 0.025970105 -0.014839495 -0.008784785 0.008365296 -0.014875333 -0.0026774085
-0.00010052025 -0.045056216 -0.038966104 -0.016830096 -0.014048938 0.004495554 -0.05519808 0.0059627243
-0.047300644 0.040013824 -0.046014965 0.049163274 -0.005764919 -0.005832299 0.013954576 -0.0321998
0.016836459 -0.020788431 0.033137277 -0.021212146 0.011920466 0.0035106903 0.0020549777 -0.014247606
0.035193503 0.032053836 -0.015396246 -0.04326916 -0.04427616 0.026648981 -0.015030507 -0.022997309
0.02870835 0.05342414 -0.04715155 0.0026068715 0.0041732523 -0.041045714 -0.04179081 -0.01227112
00000000: 1bb8 81bb 2497 833c 789a 6c3c 4b8b 39bc
00000010: be72 25bc 27af 963b 527c 16bd 218c fd3c
00000020: e756 32bc 58e9 de3b a3a6 43ad ddea 873c
00000030: 9d14 19bd bccf 1cbd c685 35bd a75e 01bd
00000040: 9afa 1cbc 0bef 4237 42bf d43c 5a21 73bc
00000050: 0fee 0fbc 980e 093c abb7 73bc 7677 2fbb
00000060: 66ce d2b8 de8c 38bd ec9a 1fbd 45df 89bc
00000070: 842d 66bc 714f 933b 6217 62bd f562 c33b
00000080: 52be 41bd 89e5 233d 307a 3cbd 6e5f 493d
00000090: a5e7 bcbb df1c bfbb bca1 643c f0e3 03bd
000000a0: 9dec 893c 804c aabc f4ba 073d 18c5 adbc
000000b0: 0f4e 433c 9c13 663b ceac 063b ca6e 69bc
000000c0: 1027 103d e24a 033d 8940 7cbc 013b 31bd
000000d0: eb5a 35bd f74e da3c 8442 76bc da64 bcbc
000000e0: c62d eb3c 45d3 5a3d fc21 41bd 0cd8 2a3b
000000f0: c7bf 883b 8d1f 28bd d72c 2bbd cf0c 49bc

fc1.weight f4 [1, 3200]
-0.0042118668 0.0136926165 -0.0025389248 -0.0016978829 -0.021287397 0.0107404115 0.014668004 -0.009646095
0.0019138095 0.0013556683 -0.014461407 -0.0025512031 -0.024317196 0.028210763 0.08465268 -0.04550051
-0.01185273 -0.0016627988 -0.01033966 -0.019648276 0.01540822 0.0024075264 0.04314381 -0.045107223
-0.009049473 -0.07086484 0.046826452 -0.021997461 -0.007174822 0.032757375 0.009164563 -0.020841781
-0.011954783 0.012124095 -0.035963446 0.010221981 0.0042382074 -0.015810842 0.012164054 0.002891214
-0.03696261 0.03140892 0.012837517 -0.0026885401 -0.0025267515 -0.006163717 0.0004154935 0.010979248
-0.0061323964 -0.008145104 0.00048750493 -0.0023226528 -0.01068527 0.025330283 0.03493642 -0.003681968
0.006563406 -0.0048152227 0.0031628422 -0.03782972 -0.006901395 -0.018262506 -0.009915354 -0.028334612
0.06933903 -0.101314135 -0.023465866 0.001042627 0.037991412 0.0015678761 2.16892e-40 0.014359991
-0.009132383 0.026922487 0.096595466 -2.19673e-40 0.041547704 -0.00043946758 -0.020321578 0.08103462
-0.015458089 -0.046743102 0.0019443259 -0.029197328 -0.18250093 0.041435525 0.030548587 0.009441953
-0.017148571 0.016204463 0.019411184 -0.01749468 -0.003223186 0.0055230106 0.11565371 -0.26141074
-0.060703687 -0.010465742 0.008912979 -0.03921395 -0.03395945 -0.024099384 -0.011476198 1.20416e-40
2.0493e-41 0.02987572 -0.016650291 -0.0041500735 -4.6115e-41 -1.13299e-40 -0.00432676 0.032251272
0.0074868407 -1.7529e-40 0.135372 -0.0706748 -0.017901884 -0.018017305 1.35473e-40 -0.045343738
-0.0109175835 -0.023056079 -0.0047962526 -1.59311e-40 -0.08971342 0.00049967115 0.053254437 0.0074990247
-7.9158865e-28 -9.086891e-05 0.027288577 6.5581e-41 1.48203e-40 -2.7464e-41 -0.07293904 0.032107648
5.026e-42 -1.24288e-40 -2.16477e-40 0.00061920146 -0.0019100655 0.0002795836 -1.81856e-40 -0.032574628
-0.08081834 0.0043563917 -0.0068144198 -1.90769e-40 -0.00086790614 -0.023973914 3.3174925e-05 0.0013354968
2.9419957e-07 0.0021905901 -0.003158399 0.0019520192 -0.0024297254 -1.01842525e-05 -0.0015398721 0.0010440153
0.0011772867 0.00050028716 -1.0169704e-05 -0.0038886366 -0.0019291764 -0.0006118523 0.0010301176 -0.00019348595
0.0016622797 0.0007818727 -0.0045409407 -0.0022081295 -0.00029958144 0.0004851112 0.0023201262 -0.0009752546
0.018587084 0.00021340734 -0.0044304174 -0.0015117032 0.011697671 0.0003827599 0.0018626286 0.00057059544
0.00395581 0.003205817 -0.042936962 0.00022233781 0.0019284161 -0.0009395805 -0.013126187 0.0060770544
0.0032782238 -0.003571644 -0.0050653964 -0.00562244 0.03908871 -0.0003695724 -3.0228419e-05 1.797082e-05
-0.048968934 0.006853822 -7.8906e-41 1.28345e-40 -0.04164225 0.02341924 -0.019198345 -1.31653e-40
8.9413e-41 0.02306061 -0.007105545 -0.00044113275 1.33664e-40 -0.15063114 -0.08976837 -0.043254767
-0.019568266 1.36712e-40 -0.08502217 0.030183088 0.017659038 0.033852115 0.0044723754 0.028657006
-0.08137322 0.0657627 0.00460012 0.019158648 -0.011413621 -0.02828201 -0.04113063 -0.05062805
-0.0048348205 -0.026033476 -0.032389756 -0.0016033316 0.028155291 -0.0315407 -0.011061651 0.023231102
-0.008494325 0.012944825 0.009650058 0.024169652 -2.22836e-40 -0.09980532 0.019663962 0.013345321
0.010468475 -7.4765e-41 -0.012057776 0.0029246192 2.41382e-40 -0.016567087 0.009476465 -0.022646695
00000000: b303 8abb ff56 603c 1764 26bb 7f8b deba
00000010: e862 aebc 8df8 2f3c 1152 703c a80a 1ebc
00000020: cad8 fa3a aeb0 b13a 8aef 6cbc 1632 27bb
00000030: db34 c7bc 421a e73c 625e ad3d be5e 3abd
00000040: f431 42bc 45f2 d9ba ad67 29bc 6cf5 a0bc
00000050: c272 7c3c 97c7 1d3b 90b7 303d 5ac2 38bd
00000060: 3e44 14bc 9621 91bd 18cd 3f3d 0534 b4bc
00000070: c51a ebbb 992c 063d f726 163c 62bc aabc
00000080: ffdd 43bc 24a4 463c 684e 13bd 197a 273c
00000090: a9e0 8a3b bd85 81bc be4b 473c 867a 3d3b
000000a0: 1b66 17bd a4a6 003d 7354 523c 3832 30bb
000000b0: db97 25bb 01f9 c9bb 98d6 d939 4ee2 333c
000000c0: 45f2 c8bb 0b73 05bc ce97 ff39 a637 18bb
000000d0: 4511 2fbc 7481 cf3c 7e19 0f3d 2c4d 71bb
000000e0: d711 d73b 04c9 9dbb b047 4f3b 56f3 1abd
000000f0: 1925 e2bb 409b 95bc 0274 22bc fd1d e8bc
00000100: 9f01 8e3d c97d cfbd 7d3b c0bc c2a8 883a
00000110: e29c 1b3d 3181 cd3a 9b5c 0200 2b46 6b3c
00000120: fe9f 15bc 8c8c dc3c d8d3 c53d 5c64 0280
00000130: ed2d 2a3d 5768 e6b9 7079 a6bc 7bf5 a53d
00000140: ed43 7dbc b275 3fbd c0d8 fe3a 3c2f efbc
00000150: 86e1 3abe 4cb8 293d 0841 fa3c 6cb2 1a3c
00000160: 297b 8cbc 39bf 843c 3404 9f3c 0151 8fbc
00000170: 163c 53bb 5ffa b43b dadb ec3d a1d7 85be
00000180: 6ea4 78bd 8178 2bbc be07 123c cf9e 20bd
00000190: 1019 0bbd 126c c5bc aa06 3cbc ac4f 0100
000001a0: 2039 0000 edbd f43c 3166 88bc 57fd 87bb
000001b0: 8d80 0080 d53b 0180 7ec7 8dbb e919 043d
000001c0: 2c54 f53b a3e8 0180 f59e 0a3e f3bd 90bd
000001d0: f9a6 92bc 0799 93bc a579 0100 5bba 39bd
000001e0: aadf 32bc 1ae0 bcbc e229 9dbb 18bc 0180
000001f0: abbb b7bd 5dfc 023a 5321 5a3d 61ba f53b
00000200: 4ddd 7a92 e090 beb8 4b8c df3c d0b6 0000
00000210: 219d 0100 8f4c 0080 1061 95bd 4f83 033d
00000220: 030e 0000 775a 0180 735b 0280 e851 223a
00000230: 2a5b faba 1395 9239 f1fa 0180 f96c 05bd
00000240: 1684 a5bd 10c0 8e3b 7f4b dfbb c913 0280
00000250: 3284 63ba f164 c4bc 4e25 0b38 d60b af3a
00000260: 7bf2 9d34 0190 0f3b 24fd 4ebb e5da ff3a
00000270: 073c 1fbb 08dd 2ab7 89d5 c9ba 57d7 883a
00000280: 304f 9a3a b425 033a 8c9e 2ab7 7fd8 7ebb
00000290: 6bdc fcba b664 20ba 0305 873a 7de2 4ab9
000002a0: dae0 d93a 97f6 4c3a 2ccc 94bb 44b6 10bb
000002b0: 2411 9db9 8656 fe39 420d 183b 3aa8 7fba
000002c0: f143 983c 19c6 5f39 092d 91bb 5824 c6ba
000002d0: 97a7 3f3c 2aad c839 7223 f43a 0394 153a
000002e0: bd9f 813b af18 523b abde 2fbd 5a23 6939
000002f0: e8c2 fc3a 2e4e 76ba 380f 57bc 0722 c73b
00000300: 78d7 563b 3e12 6abb a0fb a5bb 723c b8bb
00000310: 7c1b 203d 2bc3 c1b9 0993 fdb7 0bc0 9637
00000320: a693 48bd 0796 e03b f5db 0080 c665 0100
00000330: 1091 2abd b5d9 bf3c d945 9dbc ff6e 0180
00000340: 3ff9 0000 9be9 bc3c a2d5 e8bb d647 e7b9
00000350: 9a74 0100 0d3f 1abe 7bd8 b7bd e92b 31bd
00000360: a14d a0bc 197d 0100 1a20 aebd 8642 f73c
00000370: b0a9 903c 84a8 0a3d 018d 923b 19c2 ea3c
00000380: 01a7 a6bd 98ae 863d 9abc 963b 99f2 9c3c
00000390: 3200 3bbc adaf e7bc 9778 28bd 5c5f 4fbd
000003a0: 6a6d 9ebb 2844 d5bc 1fab 04bd e226 d2ba
000003b0: eda5 e63c d230 01bd ed3b 35bc 274f be3c
000003c0: c82b 0bbc 8816 543c 471b 1e3c 6fff c53c
000003d0: 2d6d 0280 bb66 ccbd 5116 a13c 55a6 5a3c
000003e0: f783 2b3c 6ad0 0080 fa8d 45bc f8aa 3f3b
000003f0: e0a0 0200 b3b7 87bc 2d43 1b3c 9085 b9bc

out.0.weight f4 [1, 3200]
-0.0042118668 0.0136926165 -0.0025389248 -0.0016978829 -0.021287397 0.0107404115 0.014668004 -0.009646095
0.0019138095 0.0013556683 -0.014461407 -0.0025512031 -0.024317196 0.028210763 0.08465268 -0.04550051
-0.01185273 -0.0016627988 -0.01033966 -0.019648276 0.01540822 0.0024075264 0.04314381 -0.045107223
-0.009049473 -0.07086484 0.046826452 -0.021997461 -0.007174822 0.032757375 0.009164563 -0.020841781
-0.011954783 0.012124095 -0.035963446 0.010221981 0.0042382074 -0.015810842 0.012164054 0.002891214
-0.03696261 0.03140892 0.012837517 -0.0026885401 -0.0025267515 -0.006163717 0.0004154935 0.010979248
-0.0061323964 -0.008145104 0.00048750493 -0.0023226528 -0.01068527 0.025330283 0.03493642 -0.003681968
0.006563406 -0.0048152227 0.0031628422 -0.03782972 -0.006901395 -0.018262506 -0.009915354 -0.028334612
0.06933903 -0.101314135 -0.023465866 0.001042627 0.037991412 0.0015678761 2.16892e-40 0.014359991
-0.009132383 0.026922487 0.096595466 -2.19673e-40 0.041547704 -0.00043946758 -0.020321578 0.08103462
-0.015458089 -0.046743102 0.0019443259 -0.029197328 -0.18250093 0.041435525 0.030548587 0.009441953
-0.017148571 0.016204463 0.019411184 -0.01749468 -0.003223186 0.0055230106 0.11565371 -0.26141074
-0.060703687 -0.010465742 0.008912979 -0.03921395 -0.03395945 -0.024099384 -0.011476198 1.20416e-40
2.0493e-41 0.02987572 -0.016650291 -0.0041500735 -4.6115e-41 -1.13299e-40 -0.00432676 0.032251272
0.0074868407 -1.7529e-40 0.135372 -0.0706748 -0.017901884 -0.018017305 1.35473e-40 -0.045343738
-0.0109175835 -0.023056079 -0.0047962526 -1.59311e-40 -0.08971342 0.00049967115 0.053254437 0.0074990247
-7.9158865e-28 -9.086891e-05 0.027288577 6.5581e-41 1.48203e-40 -2.7464e-41 -0.07293904 0.032107648
5.026e-42 -1.24288e-40 -2.16477e-40 0.00061920146 -0.0019100655 0.0002795836 -1.81856e-40 -0.032574628
-0.08081834 0.0043563917 -0.0068144198 -1.90769e-40 -0.00086790614 -0.023973914 3.3174925e-05 0.0013354968
2.9419957e-07 0.0021905901 -0.003158399 0.0019520192 -0.0024297254 -1.01842525e-05 -0.0015398721 0.0010440153
0.0011772867 0.00050028716 -1.0169704e-05 -0.0038886366 -0.0019291764 -0.0006118523 0.0010301176 -0.00019348595
0.0016622797 0.0007818727 -0.0045409407 -0.0022081295 -0.00029958144 0.0004851112 0.0023201262 -0.0009752546
0.018587084 0.00021340734 -0.0044304174 -0.0015117032 0.011697671 0.0003827599 0.0018626286 0.00057059544
0.00395581 0.003205817 -0.042936962 0.00022233781 0.0019284161 -0.0009395805 -0.013126187 0.0060770544
0.0032782238 -0.003571644 -0.0050653964 -0.00562244 0.03908871 -0.0003695724 -3.0228419e-05 1.797082e-05
-0.048968934 0.006853822 -7.8906e-41 1.28345e-40 -0.04164225 0.02341924 -0.019198345 -1.31653e-40
8.9413e-41 0.02306061 -0.007105545 -0.00044113275 1.33664e-40 -0.15063114 -0.08976837 -0.043254767
-0.019568266 1.36712e-40 -0.08502217 0.030183088 0.017659038 0.033852115 0.0044723754 0.028657006
-0.08137322 0.0657627 0.00460012 0.019158648 -0.011413621 -0.02828201 -0.04113063 -0.05062805
-0.0048348205 -0.026033476 -0.032389756 -0.0016033316 0.028155291 -0.0315407 -0.011061651 0.023231102
-0.008494325 0.012944825 0.009650058 0.024169652 -2.22836e-40 -0.09980532 0.019663962 0.013345321
0.010468475 -7.4765e-41 -0.012057776 0.0029246192 2.41382e-40 -0.016567087 0.009476465 -0.022646695
00000000: b303 8abb ff56 603c 1764 26bb 7f8b deba
00000010: e862 aebc 8df8 2f3c 1152 703c a80a 1ebc
00000020: cad8 fa3a aeb0 b13a 8aef 6cbc 1632 27bb
00000030: db34 c7bc 421a e73c 625e ad3d be5e 3abd
00000040: f431 42bc 45f2 d9ba ad67 29bc 6cf5 a0bc
00000050: c272 7c3c 97c7 1d3b 90b7 303d 5ac2 38bd
00000060: 3e44 14bc 9621 91bd 18cd 3f3d 0534 b4bc
00000070: c51a ebbb 992c 063d f726 163c 62bc aabc
00000080: ffdd 43bc 24a4 463c 684e 13bd 197a 273c
00000090: a9e0 8a3b bd85 81bc be4b 473c 867a 3d3b
000000a0: 1b66 17bd a4a6 003d 7354 523c 3832 30bb
000000b0: db97 25bb 01f9 c9bb 98d6 d939 4ee2 333c
000000c0: 45f2 c8bb 0b73 05bc ce97 ff39 a637 18bb
000000d0: 4511 2fbc 7481 cf3c 7e19 0f3d 2c4d 71bb
000000e0: d711 d73b 04c9 9dbb b047 4f3b 56f3 1abd
000000f0: 1925 e2bb 409b 95bc 0274 22bc fd1d e8bc
00000100: 9f01 8e3d c97d cfbd 7d3b c0bc c2a8 883a
00000110: e29c 1b3d 3181 cd3a 9b5c 0200 2b46 6b3c
00000120: fe9f 15bc 8c8c dc3c d8d3 c53d 5c64 0280
00000130: ed2d 2a3d 5768 e6b9 7079 a6bc 7bf5 a53d
00000140: ed43 7dbc b275 3fbd c0d8 fe3a 3c2f efbc
00000150: 86e1 3abe 4cb8 293d 0841 fa3c 6cb2 1a3c
00000160: 297b 8cbc 39bf 843c 3404 9f3c 0151 8fbc
00000170: 163c 53bb 5ffa b43b dadb ec3d a1d7 85be
00000180: 6ea4 78bd 8178 2bbc be07 123c cf9e 20bd
00000190: 1019 0bbd 126c c5bc aa06 3cbc ac4f 0100
000001a0: 2039 0000 edbd f43c 3166 88bc 57fd 87bb
000001b0: 8d80 0080 d53b 0180 7ec7 8dbb e919 043d
000001c0: 2c54 f53b a3e8 0180 f59e 0a3e f3bd 90bd
000001d0: f9a6 92bc 0799 93bc a579 0100 5bba 39bd
000001e0: aadf 32bc 1ae0 bcbc e229 9dbb 18bc 0180
000001f0: abbb b7bd 5dfc 023a 5321 5a3d 61ba f53b
00000200: 4ddd 7a92 e090 beb8 4b8c df3c d0b6 0000
00000210: 219d 0100 8f4c 0080 1061 95bd 4f83 033d
00000220: 030e 0000 775a 0180 735b 0280 e851 223a
00000230: 2a5b faba 1395 9239 f1fa 0180 f96c 05bd
00000240: 1684 a5bd 10c0 8e3b 7f4b dfbb c913 0280
00000250: 3284 63ba f164 c4bc 4e25 0b38 d60b af3a
00000260: 7bf2 9d34 0190 0f3b 24fd 4ebb e5da ff3a
00000270: 073c 1fbb 08dd 2ab7 89d5 c9ba 57d7 883a
00000280: 304f 9a3a b425 033a 8c9e 2ab7 7fd8 7ebb
00000290: 6bdc fcba b664 20ba 0305 873a 7de2 4ab9
000002a0: dae0 d93a 97f6 4c3a 2ccc 94bb 44b6 10bb
000002b0: 2411 9db9 8656 fe39 420d 183b 3aa8 7fba
000002c0: f143 983c 19c6 5f39 092d 91bb 5824 c6ba
000002d0: 97a7 3f3c 2aad c839 7223 f43a 0394 153a
000002e0: bd9f 813b af18 523b abde 2fbd 5a23 6939
000002f0: e8c2 fc3a 2e4e 76ba 380f 57bc 0722 c73b
00000300: 78d7 563b 3e12 6abb a0fb a5bb 723c b8bb
00000310: 7c1b 203d 2bc3 c1b9 0993 fdb7 0bc0 9637
00000320: a693 48bd 0796 e03b f5db 0080 c665 0100
00000330: 1091 2abd b5d9 bf3c d945 9dbc ff6e 0180
00000340: 3ff9 0000 9be9 bc3c a2d5 e8bb d647 e7b9
00000350: 9a74 0100 0d3f 1abe 7bd8 b7bd e92b 31bd
00000360: a14d a0bc 197d 0100 1a20 aebd 8642 f73c
00000370: b0a9 903c 84a8 0a3d 018d 923b 19c2 ea3c
00000380: 01a7 a6bd 98ae 863d 9abc 963b 99f2 9c3c
00000390: 3200 3bbc adaf e7bc 9778 28bd 5c5f 4fbd
000003a0: 6a6d 9ebb 2844 d5bc 1fab 04bd e226 d2ba
000003b0: eda5 e63c d230 01bd ed3b 35bc 274f be3c
000003c0: c82b 0bbc 8816 543c 471b 1e3c 6fff c53c
000003d0: 2d6d 0280 bb66 ccbd 5116 a13c 55a6 5a3c
000003e0: f783 2b3c 6ad0 0080 fa8d 45bc f8aa 3f3b
000003f0: e0a0 0200 b3b7 87bc 2d43 1b3c 9085 b9bc

exp_avg f4 [32, 2, 5, 5]
-0.0010876008 -0.0010386467 -0.00088775426 -0.0006810117 -0.0004449582 -0.0008564381 -0.0008074451 -0.0006572674
-0.00043346276 -0.00017640555 -0.0005113111 -0.00044781732 -0.0003045036 -8.06019e-05 0.00020251075 -0.00018435047
-9.453446e-05 8.379267e-05 0.000335322 0.0006106334 0.00011183941 0.00023655884 0.00043592826 0.0006976941
0.0009935547 -0.0010801911 -0.0010459258 -0.0009153678 -0.0007184445 -0.0004724195 -0.00084469205 -0.0008172796
-0.00067818223 -0.00046698048 -0.00022165537 -0.0005332784 -0.00048758992 -0.00034062777 -0.00011261485 0.00014295169
-0.00017221954 -0.00010176363 4.9340786e-05 0.00028509233 0.0005623158 0.00012229048 0.00020983964 0.00038974916
0.0006459176 0.00093489914 6.1389765e-05 5.708456e-05 -6.0993814e-05 -0.00022933715 -0.00035414626 -4.2783004e-06
-3.7233323e-05 -0.00015893538 -0.00027331625 -0.00029383728 0.00010188031 -3.4336263e-05 -0.00012824025 -0.0001805929
-0.00016852636 0.00015575305 -4.0693765e-05 -0.00018637757 -0.00022062757 -0.0001556783 0.00021091073 -2.9050998e-05
-0.00021942178 -0.0002505589 -0.00019533106 0.00038090852 0.00041722986 0.00029162102 0.00013915378 -4.321868e-05
0.0003983524 0.0003295676 0.0002208455 0.00011257758 4.306095e-06 0.0004811373 0.00039413082 0.00023244951
0.00013404421 0.00012061323 0.00054178206 0.00034286358 0.00014582752 8.259437e-05 9.6635464e-05 0.0005564795
0.00026795123 5.451283e-05 -3.8404953e-05 -1.0998502e-05 0.0002532246 0.00046193795 0.0006684909 0.0009443773
0.0011277585 0.00039315392 0.00053016545 0.00066334737 0.0008123674 0.0009790042 0.00038361567 0.00046983993
0.0005495767 0.000634509 0.0006812045 0.00044987528 0.0004922074 0.0005048679 0.00054420956 0.0005643435
0.00050916924 0.00050264515 0.00050076615 0.00048256092 0.0004815603 0.0002207578 0.0004197447 0.0006736662
0.000854758 0.0010543945 0.00032964608 0.0004954655 0.0006486978 0.00080416014 0.0008804516 0.00030410828
0.00039403784 0.0004859514 0.00056439306 0.00062917866 0.00036740548 0.00042217737 0.0004734682 0.0004992989
0.0005118304 0.0003885551 0.00045301026 0.00045425093 0.0004600038 0.00044523142 -4.4790522e-05 1.3053724e-05
0.000110915986 0.00028278827 0.0006413387 -1.251086e-05 2.6774573e-05 0.00016817839 0.0003377838 0.00070122787
2.6028747e-05 6.486589e-05 0.00017866724 0.00036061642 0.0007389707 2.995221e-05 6.006415e-05 0.00016680482
0.00030763762 0.00065879966 -1.8815785e-05 5.6056437e-05 0.00011079024 0.00023692215 0.0005602325 -1.342309e-05
7.175155e-05 0.00025251636 0.00044543532 0.0008022891 3.4809953e-05 0.000116219606 0.00025375027 0.00048649203
0.0008829448 5.3499945e-05 0.0001227452 0.00026447405 0.00047715005 0.0008693141 3.115229e-05 0.00010836687
0.00022141234 0.0004260598 0.000810396 2.81815e-05 4.5233257e-05 0.00016756829 0.00033042114 0.0006587384
-0.0005909532 -0.0006880455 -0.0006998367 -0.0006524913 -0.0005078357 -0.00034383056 -0.00048713954 -0.0005210242
-0.000457784 -0.00037937978 -7.0293885e-05 -0.00021830191 -0.0002607025 -0.00027933565 -0.00021280465 0.0002632172
9.907951e-05 5.649085e-06 -5.5347944e-05 -4.6752597e-05 0.0005615505 0.00037225298 0.00021184764 0.0001449793
8.4557265e-05 -0.00045542087 -0.0005709983 -0.00059511553 -0.00053154555 -0.0005049845 -0.00024346451 -0.00035647347
-0.00039207953 -0.00039606242 -0.0003336551 4.1808587e-05 -7.109422e-05 -0.00016180855 -0.00017616371 -0.00019091136
0.000350312 0.00018833728 6.7265915e-05 8.0446525e-06 -1.6366102e-05 0.00062488066 0.00046354794 0.00031718067
0.00017748811 0.00010985192 -1.8051518e-05 -3.5676658e-05 -7.258572e-05 -0.000115882554 -0.00011999955 -2.8186387e-05
00000000: d48d 8eba 3323 88ba 2eb8 68ba ec85 32ba
00000010: 4749 e9b9 9782 60ba b9aa 53ba 784c 2cba
00000020: 6342 e3b9 81f9 38b9 8209 06ba 06c9 eab9
00000030: c8a5 9fb9 d108 a9b8 1159 5439 344e 41b9
00000040: cd40 c6b8 d9b9 af38 28ce af39 ea12 203a
00000050: 538b ea38 c80c 7839 4d8d e439 75e5 363a
00000060: 2a3a 823a 3395 8dba 7217 89ba 4bf5 6fba
00000070: ff55 3cba 12af f7b9 536e 5dba b53e 56ba
00000080: 0ac8 31ba 0fd5 f4b9 296c 68b9 b5cb 0bba
00000090: 36a3 ffb9 4996 b2b9 a32b ecb8 4de5 1539
000000a0: d595 34b9 ef69 d5b8 44f3 4e38 7278 9539
000000b0: 6068 133a 1a3b 0039 6608 5c39 3f57 cc39
000000c0: cc52 293a 0514 753a 61be 8038 146e 6f38
000000d0: 9cd3 7fb8 397a 70b9 b5ac b9b9 528e 8fb6
000000e0: fa2a 1cb8 e4a7 26b9 e34b 8fb9 2c0e 9ab9
000000f0: 93a8 d538 4804 10b8 3b78 06b9 8a5d 3db9
00000100: 73b6 30b9 a451 2339 99ae 2ab8 596e 43b9
00000110: 4358 67b9 933d 23b9 eb27 5d39 8bb2 f3b7
00000120: 9614 66b9 725d 83b9 c8d1 4cb9 adb4 c739
00000130: a5bf da39 b6e4 9839 cfe9 1139 b445 35b8
00000140: f4d9 d039 d1c9 ac39 c392 6739 a117 ec38
00000150: 137d 9036 2841 fc39 58a3 ce39 b1bd 7339
00000160: 388e 0c39 bcf1 fc38 6106 0e3a 5fc2 b339
00000170: 47e9 1839 8436 ad38 c5a8 ca38 b5e0 113a
00000180: ce7b 8c39 b5a4 6438 0115 21b8 3586 38b7
00000190: 3bc3 8439 4330 f239 aa3d 2f3a 1690 773a
000001a0: 4cd1 933a 3a20 ce39 cdfa 0a3a 7de4 2d3a
000001b0: 0ef5 543a ee51 803a 0620 c939 d954 f639
000001c0: 7811 103a 2e55 263a dc92 323a 3ddd eb39
000001d0: 7b07 013a 1c59 043a 49a9 0e3a 74f0 133a
000001e0: c579 053a f2c3 033a d945 033a 3b00 fd39
000001f0: ee79 fc39 397b 6739 2e11 dc39 f998 303a
00000200: d711 603a 9c33 8a3a 59d4 ac39 20e2 013a
00000210: 5f0d 2a3a 46ce 523a 1bce 663a b970 9f39
00000220: dd96 ce39 4bc7 fe39 c7f3 133a 77ef 243a
00000230: 54a0 c039 b057 dd39 d33b f839 62e3 023a
00000240: 5b2c 063a fcb6 cb39 0282 ed39 8728 ee39
00000250: aa2c f139 f36d e939 75dd 3bb8 5101 5b37
00000260: 919b e838 3343 9439 831f 283a bce5 51b7
00000270: f599 e037 0b59 3039 9318 b139 9bd2 373a
00000280: 4f58 da37 9c08 8838 9f58 3b39 1e11 bd39
00000290: 7cb7 413a e241 fb37 64ed 7b38 54e8 2e39
000002a0: 6c4a a139 4cb3 2c3a 97d6 9db7 241e 6b38
000002b0: 0f58 e838 4e6e 7839 91dc 123a bc33 61b7
000002c0: 5279 9638 2c64 8439 5189 e939 b650 523a
000002d0: e700 1238 edba f338 c909 8539 db0f ff39
000002e0: 6c75 673a 2165 6038 2ab5 0039 1ba9 8a39
000002f0: ff29 fa39 afe2 633a 84a9 0238 0543 e338
00000300: ec2a 6839 c760 df39 c170 543a 4f67 ec37
00000310: d7b8 3d38 45b5 2f39 603c ad39 30af 2c3a
00000320: 33ea 1aba f45d 34ba 3f75 37ba f30b 2bba
00000330: 4720 05ba 2844 b4b9 c366 ffb9 5895 08ba
00000340: ba02 f0b9 7ee7 c6b9 be6a 93b8 f9e7 64b9
00000350: e6ae 88b9 cc73 92b9 5024 5fb9 6a00 8a39
00000360: e8c8 cf38 458d bd36 6725 68b8 3818 44b8
00000370: 0435 133a f32a c339 6b23 5e39 9605 1839
00000380: 5654 b138 8ec5 eeb9 0caf 15ba 8701 1cba
00000390: 6b57 0bba f060 04ba 824a 7fb9 0fe5 bab9
000003a0: 0690 cdb9 99a6 cfb9 6eee aeb9 a15b 2f38
000003b0: 6b18 95b8 27ab 29b9 96b8 38b9 612f 48b9
000003c0: 15aa b739 677c 4539 1d11 8d38 85f7 0637
000003d0: f049 89b7 08cf 233a 5a08 f339 454b a639
000003e0: 1a1c 3a39 4d60 e638 576d 97b7 85a3 15b8
000003f0: 2939 98b8 f905 f3b8 45a8 fbb8 ce71 ecb7

exp_avg_sq f4 [32, 2, 5, 5]
1.4574533e-05 1.014159e-05 6.246555e-06 3.7655352e-06 2.5723937e-06 1.7126229e-05 1.1753426e-05 7.493793e-06
5.234998e-06 4.589449e-06 1.756935e-05 1.24755525e-05 8.997607e-06 7.941186e-06 8.585523e-06 1.631206e-05
1.27641e-05 1.1101881e-05 1.1897882e-05 1.429625e-05 1.4207965e-05 1.2866942e-05 1.3325372e-05 1.5890542e-05
1.9874906e-05 1.4621418e-05 1.0026253e-05 5.987293e-06 3.4408972e-06 2.2819013e-06 1.7252798e-05 1.1670616e-05
7.1603977e-06 4.740006e-06 4.0953396e-06 1.7729557e-05 1.2330306e-05 8.500481e-06 7.1345057e-06 7.738906e-06
1.6366635e-05 1.2441971e-05 1.031743e-05 1.0690797e-05 1.2980873e-05 1.4053273e-05 1.2304094e-05 1.2183005e-05
1.4325915e-05 1.8180295e-05 3.6358302e-05 2.1859762e-05 1.4178475e-05 1.1963948e-05 1.3254942e-05 3.472541e-05
1.9719744e-05 1.1819438e-05 9.313921e-06 1.0162817e-05 2.9734689e-05 1.7041568e-05 1.0408764e-05 8.341669e-06
9.032076e-06 2.0441472e-05 1.2309572e-05 8.637795e-06 7.938457e-06 8.8766255e-06 1.2190156e-05 8.3904415e-06
7.509972e-06 8.141777e-06 9.270796e-06 3.508946e-05 2.0388768e-05 1.2910397e-05 1.1346911e-05 1.3148065e-05
3.438786e-05 1.931273e-05 1.1499991e-05 9.364205e-06 1.04167775e-05 2.9893024e-05 1.7064967e-05 1.03880275e-05
8.515876e-06 9.4583565e-06 2.1562051e-05 1.2924041e-05 8.9446075e-06 8.28198e-06 9.28908e-06 1.4000668e-05
9.3137505e-06 7.9488045e-06 8.42187e-06 9.583601e-06 1.0089248e-05 5.9405966e-06 5.5714445e-06 6.969318e-06
8.547607e-06 6.125874e-06 4.0356495e-06 4.6474306e-06 6.1670344e-06 7.3951596e-06 4.6484215e-06 3.9912566e-06
5.056614e-06 6.4695078e-06 7.3632036e-06 4.2844435e-06 4.6842615e-06 5.9980052e-06 7.2492344e-06 7.874401e-06
4.8149145e-06 5.835107e-06 7.1505683e-06 8.172233e-06 8.61985e-06 8.464482e-06 5.257206e-06 5.548991e-06
7.118513e-06 8.629903e-06 5.0385283e-06 3.7196237e-06 4.8005627e-06 6.432404e-06 7.537992e-06 3.832456e-06
3.7478196e-06 5.142646e-06 6.6166126e-06 7.391872e-06 3.850943e-06 4.630356e-06 6.1309715e-06 7.3565543e-06
7.835699e-06 4.6840632e-06 5.9118915e-06 7.298657e-06 8.228959e-06 8.452353e-06 5.7581938e-06 5.3010003e-06
4.5904053e-06 4.41824e-06 5.7574025e-06 5.7727275e-06 5.3507415e-06 4.586677e-06 4.39953e-06 5.8362984e-06
5.8347255e-06 5.4355296e-06 4.6231753e-06 4.240859e-06 5.258482e-06 5.8891906e-06 5.5625333e-06 4.7154936e-06
4.035099e-06 4.2480074e-06 5.942186e-06 5.691841e-06 4.8961374e-06 3.9762585e-06 3.4193001e-06 5.423473e-06
5.065938e-06 4.584496e-06 5.065128e-06 8.396193e-06 5.4986263e-06 5.0219296e-06 4.339807e-06 4.49174e-06
7.4663617e-06 5.5871014e-06 5.1004004e-06 4.279162e-06 4.0679906e-06 6.3494463e-06 5.736186e-06 5.2701394e-06
4.362147e-06 3.7975576e-06 5.1941047e-06 5.825487e-06 5.480502e-06 4.5986885e-06 3.8186286e-06 4.4889393e-06
2.8962573e-05 1.9318979e-05 1.1569564e-05 6.5466315e-06 4.1658236e-06 2.8142504e-05 1.8326593e-05 1.0934042e-05
6.254208e-06 4.0950167e-06 2.4541543e-05 1.5730326e-05 9.402279e-06 5.4864017e-06 3.6988422e-06 1.7991233e-05
1.14039285e-05 7.0786455e-06 4.538913e-06 3.495949e-06 1.1973932e-05 7.859332e-06 5.59545e-06 4.383657e-06
3.979465e-06 2.9102655e-05 1.8443701e-05 1.0786479e-05 6.152926e-06 4.083038e-06 2.8321545e-05 1.767529e-05
1.0339519e-05 5.9781687e-06 3.999104e-06 2.4775527e-05 1.5209571e-05 8.915062e-06 5.259597e-06 3.596044e-06
1.8321898e-05 1.1183977e-05 6.940381e-06 4.623188e-06 3.602047e-06 1.2421445e-05 7.992999e-06 5.890992e-06
4.85116e-06 4.3671494e-06 2.1984447e-06 3.308478e-06 5.4813904e-06 8.52214e-06 1.1690835e-05 2.0909515e-06
00000000: 2585 7437 cc25 2a37 8099 d136 67b3 7c36
00000010: 63a1 2c36 4caa 8f37 9530 4537 3173 fb36
00000020: 4aa8 af36 11ff 9936 e461 9337 174e 5137
00000030: 6ef4 1637 223b 0537 8a0a 1037 e2d5 8837
00000040: 6425 5637 3742 3a37 049d 4737 edd9 6f37
00000050: bf5e 6e37 18df 5737 0990 5f37 ae4c 8537
00000060: 09b9 a637 834e 7537 6e36 2837 75e6 c836
00000070: 2aea 6636 c422 1936 1aba 9037 eacc 4337
00000080: 5943 f036 570c 9f36 b36a 8936 efb9 9437
00000090: 43de 4e37 4a9d 0e37 f064 ef36 59d6 0137
000000a0: 154b 8937 dcbd 5037 0619 2d37 a05c 3337
000000b0: 6dc8 5937 59c6 6b37 ae6d 4e37 9c65 4c37
000000c0: 5659 7037 e381 9837 6e7f 1838 7b5f b737
000000d0: 16e0 6d37 c4b8 4837 8b61 5e37 20a6 1138
000000e0: d46b a537 1a4c 4637 fc42 1c37 f780 2a37
000000f0: c26e f937 7df4 8e37 4da1 2e37 32f3 0b37
00000100: 7988 1737 ba79 ab37 3685 4e37 0ceb 1037
00000110: 6a2f 0537 d1ec 1437 5284 4c37 acc4 0c37
00000120: 2bfe fb36 aa98 0837 c489 1b37 052d 1338
00000130: 8c08 ab37 bc99 5837 9d5e 3e37 8296 5c37
00000140: af3b 1038 c601 a237 16f0 4037 f41a 1d37
00000150: b8c3 2e37 c8c2 fa37 bd26 8f37 3d48 2e37
00000160: 69df 0e37 55af 1e37 27e0 b437 55d4 5837
00000170: cc10 1637 d5f2 0a37 4bd8 1b37 69e4 6a37
00000180: 4142 1c37 db5b 0537 a84b 0d37 41c9 2037
00000190: fd44 2937 5655 c736 58f2 ba36 fcd9 e936
000001a0: b167 0f37 db8c cd36 f769 8736 20f1 9b36
000001b0: 6cee ce36 f023 f836 a3f9 9b36 a2ec 8536
000001c0: fcab a936 a614 d936 7011 f736 17c3 8f36
000001d0: 802d 9d36 7942 c936 733e f336 4b1c 0437
000001e0: cd8f a136 30cb c336 eaee ef36 791b 0937
000001f0: f99d 1037 ac02 0e37 0e67 b036 7831 ba36
00000200: 90db ee36 27c9 1037 a110 a936 a69e 7936
00000210: 8514 a136 eed5 d736 dcee fc36 8c98 8036
00000220: 0d83 7b36 fe8e ac36 4504 de36 b207 f836
00000230: 5937 8136 755e 9b36 a5b8 cd36 52d8 f636
00000240: 1276 0337 cc2b 9d36 c35e c636 fce6 f436
00000250: 1c0f 0a37 94ce 0d37 8236 c136 3fdf b136
00000260: 4807 9a36 6540 9436 b62f c136 5ab3 c136
00000270: 858a b336 41e7 9936 ad9f 9336 6cd5 c336
00000280: e9c7 c336 d862 b636 c620 9b36 b44c 8e36
00000290: 0472 b036 c39b c536 cca5 ba36 c839 9e36
000002a0: 3d65 8736 1b8a 8e36 fd62 c736 8bfc be36
000002b0: 8049 a436 cd6b 8536 2177 6536 47fb b536
000002c0: 13fc a936 85d4 9936 1ef5 a936 60dd 0c37
000002d0: d780 b836 0c82 a836 a99e 9136 c1b7 9636
000002e0: 8f87 fa36 d678 bb36 1b24 ab36 b995 8f36
000002f0: c67f 8836 540d d536 7679 c036 27d6 b036
00000300: 8f5e 9236 8bd9 7e36 0549 ae36 8d78 c336
00000310: 27e5 b736 6f4e 9a36 c521 8036 b29f 9636
00000320: a7f4 f237 310f a237 e61a 4237 23ab db36
00000330: 27c8 8b36 9113 ec37 0fbc 9937 5a71 3737
00000340: 3ddb d136 ed67 8936 90de cd37 9ef4 8337
00000350: 7bbe 1d37 d517 b836 a039 7836 e1eb 9637
00000360: 8053 3f37 1a85 ed36 f74c 9836 f29b 6a36
00000370: a5e3 4837 93db 0337 8dc0 bb36 5417 9336
00000380: 5887 8536 7a21 f437 8cb7 9a37 93f7 3437
00000390: 3b75 ce36 0801 8936 0e94 ed37 6545 9437
000003a0: e577 2d37 1498 c836 0b30 8636 0ad5 cf37
000003b0: 9c2c 7f37 e691 1537 987b b036 9153 7136
000003c0: fab1 9937 d1a2 3b37 6be1 e836 e220 9b36
000003d0: b2ba 7136 b365 5037 ab19 0637 3cab c536
000003e0: 26c7 a236 8789 9236 fe88 1336 3807 5e36
000003f0: c9ec b736 50fa 0e37 c123 4437 4652 0c36

exp_avg f4 [32]
0.00039712052 0.0008559801 -0.00065104937 0.000107010426 -8.468402e-05 -1.9057727e-05 -9.112308e-05 0.00032269466
-0.00015811478 0.0003523673 -0.00016919915 0.002176914 0.00018227931 -0.00014882334 -5.473416e-05 -0.00053258525
-8.780264e-05 2.1537515e-05 -0.0001068456 -0.00075178 -0.00041925954 0.00014891771 -0.00022113537 0.00012890069
-9.125804e-05 -0.00055399665 0.00029083143 -0.00043501653 -0.00045293858 0.00072830456 0.00020941251 -0.0011589292
00000000: 9d34 d039 da63 603a 2fab 2aba c96a e038
00000010: 6398 b1b8 28de 9fb7 5519 bfb8 582f a939
00000020: 9dcb 25b9 f0bd b839 0d6b 31b9 8eaa 0e3b
00000030: 3b22 3f39 760d 1cb9 5b92 65b8 319d 0bba
00000040: af22 b8b8 76ab b437 4b12 e0b8 1a13 45ba
00000050: 10d0 dbb9 cb26 1c39 93e0 67b9 8429 0739
00000060: ca61 bfb8 163a 11ba bc7a 9839 ee12 e4b9
00000070: 6378 edb9 b1eb 3e3a be95 5b39 36e7 97ba
