results/2BS/T_1/L_2000/seed1/model_best.pth.tar (torch_old, 395614 bytes, 22 tensors)

layer1.conv.weight f4 [32, 2, 5, 5]
0	0x3c6cc9a4	0.014452372
1	0x3d116b59	0.035502765
2	0x3cccbf71	0.02499363
3	0x3cdbf93f	0.026852248
4	0x3bc06df9	0.0058724848
5	0x3c1452d5	0.009052952
6	0xbd9315a3	-0.07181861
7	0x3d279816	0.040916525
8	0x3da36005	0.07977299
9	0xbd81033d	-0.06299446
10	0x3b54a8dc	0.003244928
11	0x3d811cc1	0.063043125
12	0x3c8e60c8	0.017380133
13	0x3bd57ccc	0.006515121
14	0xbd98ff57	-0.07470577
15	0xbc1d9c46	-0.009619778
16	0x3a69aa22	0.00089135964
17	0x3d97364d	0.07383404
18	0xbb7dea4e	-0.0038744393
19	0x3ce2f85b	0.027706316
20	0x3c1dddf6	0.009635439
21	0xbc36fe9b	-0.011169101
22	0x3d9d0a91	0.07668031
23	0x3e019674	0.1265505
24	0x3d837569	0.064188786
25	0x3cbe8801	0.023258211
26	0xbd1a6db4	-0.037702277
27	0xbcfbb8e3	-0.03072781
28	0xbca96a46	-0.020680558
29	0xbdac7f14	-0.08422676
30	0xbc172c19	-0.009226822
31	0xbd1f2a0e	-0.038858466
32	0x3ce877f8	0.028377518
33	0xbc101c84	-0.008795861
34	0xb88e88f2	-6.796596e-05
35	0xbca261d6	-0.019822042
36	0x3db398ac	0.08769354
37	0x3a7dd1c5	0.0009682442
38	0xbd33cd77	-0.04389712
39	0xbc224715	-0.009904643
40	0xbcb270ab	-0.02178224
41	0xbc63d129	-0.013904848
42	0xbb9161c9	-0.0044367057
43	0xbce6ebe9	-0.028188663
44	0xbca9cb86	-0.02072693
45	0xbca2ecf0	-0.019888371
46	0xbd7c62d5	-0.06161769
47	0xbd1a8efc	-0.037734017
48	0x3cd46a5f	0.025929628
49	0x3d657d7f	0.056027886
50	0xbc283381	-0.010266186
51	0x3d5c85e0	0.05383861
52	0xbc868bc7	-0.016424073
53	0xbcacc4fe	-0.021090027
54	0x3d19c991	0.037545744
55	0xbd2ad093	-0.041702818
56	0xbce41479	-0.027841793
57	0x3c479be5	0.012183164
58	0xbd91b3bf	-0.07114362
59	0x3bf80629	0.0075690937
60	0xbd52e3b5	-0.05148669
61	0xbd1e61df	-0.038667556
62	0xbd82f692	-0.06394686
63	0xbc997456	-0.018732231
64	0xbd463552	-0.048390694
65	0xbaf9bda4	-0.001905371
66	0x3c519491	0.012791769
67	0xbd7dcfd1	-0.061965767
68	0xbcbf8e4d	-0.023383284
69	0xbdd3678a	-0.10322483
70	0x3cc51978	0.024059996
71	0xbc4dfcae	-0.012572451
72	0xbdab1bec	-0.08354935
73	0xbd17eea6	-0.037092827
74	0xbdae395e	-0.08507036
75	0xbb876f90	-0.0041331723
76	0x3ce1c6e9	0.027560668
77	0x3d9178d4	0.07103124
78	0x3d7fdbff	0.062465664
79	0x3d389116	0.04506024
80	0x3d9a0f6d	0.075224735
81	0x3d8322d5	0.06403128
82	0x3a6ccd0d	0.00090332405
83	0x3dc8d935	0.09807054
84	0xbc4868cb	-0.012232016
85	0x3d31a756	0.043372475
86	0x3be57de5	0.007003533
87	0x3dcf8190	0.10132134
88	0x3bc00a54	0.005860606
89	0x3daf4962	0.085589185
90	0x3da4f030	0.08053625
91	0xbd1868bf	-0.03720927
92	0xbd3cba0d	-0.04607587
93	0x3da837a4	0.082137376
94	0x3d52b418	0.051441282
95	0x3a7f7557	0.0009744963
96	0x3a83e0e1	0.0010061526
97	0xbdbcc797	-0.09217756
98	0xbd799212	-0.06093032
99	0xbd2b7278	-0.041857213
100	0x3db84460	0.089974165
101	0xbce355ae	-0.027750816
102	0x3d702c68	0.0586361
103	0x3cca04b4	0.024660446
104	0xbd0f5bab	-0.03499953
105	0x3dca7ce9	0.09887106
106	0x3d14a415	0.036289293
107	0x3cb60f41	0.02222407
108	0xbc67edbf	-0.014155804
109	0xbd4d87bd	-0.05017828
110	0x3d8fcc6f	0.070214145
111	0x3da9ca56	0.08290546
112	0x3d3c9d6a	0.04604856
113	0x3d8f0e15	0.06985108
114	0xbcee0dce	-0.029059317
115	0x3d016db5	0.031598765
116	0xbd5bebd2	-0.053691693
117	0x3c78c5b8	0.015183859
118	0xbd0f7d8a	-0.035031833
119	0xbdac64a6	-0.08417635
120	0xbd0657f9	-0.03279874
121	0xbc599bbc	-0.013281759
122	0x3c87422f	0.016511051
123	0xbdaa65a2	-0.08320166
124	0xbd12d0a0	-0.03584349
125	0xbdaabc95	-0.083367504
126	0xbd239f10	-0.039946616
127	0x3b471681	0.0030378404
128	0x3d78282d	0.06058519
129	0xba764fae	-0.00093960285
130	0xbd863f79	-0.06555075
131	0xbc6ccac0	-0.014452636
132	0xbd5b5d30	-0.053555667
133	0xbce53f49	-0.027984278
134	0xbd47ef27	-0.048812058
135	0x3d4fcb9f	0.050731298
136	0xbd3f6867	-0.046730425
137	0x3db57f35	0.088621534
138	0xbba9b38a	-0.0051788734
139	0xbbb2683c	-0.0054445546
140	0xbd37e437	-0.044895377
141	0xbdde5cbf	-0.10857534
142	0xbc9f7309	-0.019464033
143	0x3b95876e	0.0045632636
144	0xbb916550	-0.004437126
145	0xbdef6917	-0.11689966
146	0xbd2469e4	-0.040140048
147	0xbda048a6	-0.078263566
148	0xbc25cd8d	-0.010119808
149	0x3b2881dc	0.0025712168
150	0x3ba89da3	0.005145745
151	0x3cb29941	0.021801593
152	0x3c8aed3d	0.016958827
153	0xbdf76df4	-0.12081519
154	0xbc6cf5be	-0.014462886
155	0x3d1a8a9d	0.03772985
156	0xbd022af9	-0.031779263
157	0x3d1aeac2	0.03782154
158	0xbd2ccc48	-0.042187005
159	0x3b8ab722	0.004233257
160	0x3c4a159b	0.012334253
161	0xbacdcc5d	-0.0015701164
162	0xbd76b008	-0.06022647
163	0x3d11277f	0.035438057
164	0x3d4c201f	0.04983532
165	0x3db851df	0.08999991
166	0x3b790a18	0.00380004
167	0xbc09298e	-0.008371724
168	0x3cf47f7b	0.029845944
169	0x3d5cf151	0.053941075
170	0xbd6d0594	-0.057866648
171	0x3d2e423e	0.042543642
172	0xbd5b60ba	-0.053559043
173	0xbd4d5254	-0.050127342
174	0xbd983506	-0.074319884
175	0xbcb31f7b	-0.021865597
176	0xbc752816	-0.0149631705
177	0xbd6a1f7b	-0.05715893
178	0xbd1a62aa	-0.03769175
179	0xbc1f6444	-0.009728495
180	0xbcb6dca9	-0.022322016
181	0xbd06b9a3	-0.03289188
182	0xbcbc98f3	-0.02302215
183	0x3d17e3bc	0.03708242
184	0x3db587c0	0.08863783
185	0xbd1c9e15	-0.038236696
186	0x3c153ba1	0.009108455
187	0xbc80a738	-0.015704736
188	0x3c4182ff	0.011811017
189	0x3d1fae8f	0.03898483
190	0xbe01225c	-0.12610763
191	0x3cd4e65c	0.02598875
192	0xbddd3e33	-0.10802879
193	0x3cf36bbb	0.029714456
194	0x3cd32059	0.02577226
195	0xbc138dad	-0.009005946
196	0xbd1c6a08	-0.038187057
197	0xbd930cb1	-0.07180155
198	0xbd2789a9	-0.040902767
199	0x3d76cd51	0.0602544
200	0xbce8178b	-0.028331539
201	0x3ced37fa	0.028957356
202	0x3cdb889e	0.026798543
203	0xbc88b7b2	-0.016689155
204	0x38ba2640	8.876296e-05
205	0x3d679ade	0.056544177
206	0x3d2402ca	0.040041722
207	0x3cf2bd69	0.029631333
208	0xbd0b30d0	-0.033982098
209	0xbdb9ee21	-0.090786226
210	0xbd6596bf	-0.056051966
211	0x3d37f7de	0.04491412
212	0x3ce0919d	0.027413184
213	0xbdada98c	-0.08479604
214	0xbd0d698d	-0.03452449
215	0x3c5fc148	0.013656922
216	0xbb9c200f	-0.004764564
217	0xbba33f42	-0.004981906
218	0xbd782e81	-0.060591225
219	0xbdccf525	-0.10007695
220	0x3c4ab28d	0.012371671
221	0x3cc36898	0.023853585
222	0xbd2388fe	-0.039925568
223	0xbcb76945	-0.022389064
224	0xbdcc011d	-0.0996115
225	0xbd304679	-0.043035958
226	0x3d8fc451	0.07019866
227	0x3cb0a55e	0.021563228
228	0xbd3ccdbd	-0.046094645
229	0xbd804192	-0.062625065
230	0x3d083130	0.033250034
231	0x3dd6172f	0.10453641
232	0x3c9850bf	0.01859319
233	0x3c31e974	0.010858882
234	0xbc0c8a77	-0.0085779345
235	0xbcfc02ae	-0.030762997
236	0x3da368c3	0.07978966
237	0x3bfa74b8	0.0076433085
238	0x3b2d972f	0.0026487818
239	0xbd23f228	-0.04002586
240	0x3d2f1491	0.042744223
241	0x3dd32937	0.103105955
242	0x3d22b753	0.039725613
243	0xbba8242e	-0.005131266
244	0xbb50e945	-0.003187732
245	0x3d6c9a3b	0.057764273
246	0x3d41923c	0.0472586
247	0x3c90c2ce	0.017671015
248	0xbdc17085	-0.094452895
249	0x3c60d97a	0.013723725
250	0x3c62b137	0.013836197
251	0x3b7c0be7	0.0038459243
252	0xbd017a66	-0.03161087
253	0x3c42ee72	0.01189767
254	0xbddfb08a	-0.10922344
255	0x3d975a5b	0.07390281

layer1.conv.bias f4 [32]
0	0xbdd4d288	-0.10391718
1	0xbd82c1e9	-0.06384642
2	0xbd9227cf	-0.07136499
3	0xbdd1f86d	-0.102524616
4	0x3df4797e	0.11937235
5	0xbd77567a	-0.060385205
6	0xbd933c12	-0.07189192
7	0x3df51a88	0.11967951
8	0x3dade29d	0.08490489
9	0x3e00d18c	0.12579936
10	0xbd47d09d	-0.048782934
11	0x3d846826	0.06465177
12	0xbdbf0d17	-0.093286686
13	0x3b58e2e1	0.0033094215
14	0x3db73623	0.08945873
15	0x3e06b5bf	0.13155268
16	0x3d0c706e	0.03428691
17	0x3d320acf	0.04346734
18	0xbdcf085b	-0.101090156
19	0x3c9ade7a	0.018904913
20	0x3df87f42	0.121336475
21	0x3d34c016	0.0441285
22	0xbdb6b30f	-0.089208715
23	0xbe04a489	-0.1295339
24	0x3d4751dc	0.04866205
25	0xbdb4c1cc	-0.08826026
26	0xbd21dd2d	-0.03951757
27	0xbe0466b9	-0.1292981
28	0x3dab4e2a	0.08364518
29	0xbb3256d5	-0.00272124
30	0x3e1021ef	0.14075445
31	0x3dd3f790	0.10349953

layer2.conv1.weight f4 [32, 32, 3, 3]
0	0x3d857816	0.06517045
1	0x3dd548a0	0.10414243
2	0x3d2f23d7	0.04275879
3	0x3d1184c8	0.03552702
4	0x3c594427	0.013260878
5	0x3d3c27e0	0.045936465
6	0x3e153ea1	0.14574672
7	0x3db043ab	0.08606657
8	0xbdacba04	-0.08433917
9	0xbd82e271	-0.063908465
10	0xbda17074	-0.07882777
11	0xbd6fc6e2	-0.05853928
12	0xbd2796c7	-0.040915277
13	0x3d1bdc40	0.038051844
14	0xbca0d0dd	-0.019630844
15	0x3df37774	0.11888018
16	0x3c99eec3	0.018790608
17	0xbdd56015	-0.10418717
18	0xbdc4ccb5	-0.09609357
19	0x3c3ff59b	0.011716272
20	0xbd9ef642	-0.07761814
21	0x3da72503	0.08161356
22	0x3dbd0139	0.09228749
23	0xbc99e6bb	-0.018786779
24	0xbd6436fa	-0.055716492
25	0xb9f25fab	-0.00046229115
26	0xbd88109c	-0.06643793
27	0x3ba55310	0.005045302
28	0xbe23d3f4	-0.15998822
29	0xbd7a08e7	-0.061043646
30	0x3dbdbe16	0.09264772
31	0xbe063e42	-0.13109687
32	0x3ce22925	0.02760751
33	0x3d2fdd82	0.042935856
34	0xbce4eadf	-0.027944027
35	0xbd366cdc	-0.04453741
36	0xbde77c65	-0.11303023
37	0x3d1f0192	0.038819857
38	0x3b7fd130	0.0039034598
39	0xbe01a7ff	-0.12661742
40	0x3cb074d1	0.021540077
41	0xbe00799b	-0.12546389
42	0xbcda5214	-0.026650466
43	0x3c3c4531	0.011491106
44	0xbaa70fc2	-0.0012745785
45	0xbd978c26	-0.07399778
46	0x3bbf28eb	0.005833735
47	0x3da9ad6a	0.08285029
48	0x3d708d98	0.058728784
49	0xbd52b5cd	-0.05144291
50	0xbd0f8ea5	-0.035048146
51	0x3e15eaaf	0.14640306
52	0x3d67bb6c	0.056575224
53	0xbd42f510	-0.04759699
54	0x3dd4bfe2	0.10388161
55	0x3e1be246	0.15223035
56	0xbe018fd0	-0.12652516
57	0x3e0683eb	0.1313626
58	0xbd3753a0	-0.044757485
59	0xbdeb837e	-0.114996895
60	0x3a03f8ea	0.00050343445
61	0x3dd5f3e0	0.10446906
62	0x3c32684d	0.010889125
63	0xbcfcf64c	-0.030879162
64	0xbe0b5f54	-0.13610584
65	0xbcb6752d	-0.02227267
66	0x3aece00b	0.0018072141
67	0x3db5b7ad	0.08872924
68	0x3d2de61b	0.042455774
69	0xbe2f0a80	-0.17093849
70	0x3d9281a2	0.07153632
71	0x3d2aab4f	0.04166728
72	0x3d2b8c62	0.041881926
73	0xbd3fa3b9	-0.046786997
74	0xbdca677a	-0.09883018
75	0x3dfe0340	0.12402964
76	0xbd33b4f0	-0.043873727
77	0x3c004672	0.0078292955
78	0x3d28bc7f	0.04119539
79	0x3e20c8c0	0.1570158
80	0xbc912f2b	-0.017722687
81	0xbd83df75	-0.064391054
82	0xbddc28b0	-0.10749948
83	0x3bba8173	0.005691701
84	0x3d51cdcb	0.05122165
85	0xbe0443c8	-0.12916481
86	0x3d932e1d	0.0718653
87	0x3d2da2c3	0.04239155
88	0x3d95a9f5	0.07307807
89	0x3d60f7b2	0.05492372
90	0xbd26ced9	-0.04072461
91	0xbbf0b0db	-0.0073453016
92	0x3d7f38b6	0.062309943
93	0x3d250353	0.040286373
94	0xbcddffe4	-0.027099557
95	0xbcc95a9d	-0.02457934
96	0xbd1753e1	-0.036945228
97	0x3e547d98	0.20751035
98	0x3d2cf109	0.042222057
99	0xbd85d70d	-0.06535158
100	0xbcc15fb5	-0.023605207
101	0x3db72900	0.08943367
102	0xbd76c580	-0.060246944
103	0xbcecbab8	-0.028897628
104	0x3d840a15	0.064472355
105	0xbd52ddbe	-0.051481
106	0xbd927647	-0.07151466
107	0x3c20b01e	0.009807615
108	0xbcd59c71	-0.026075574
109	0xbd149268	-0.036272436
110	0xbd18cac7	-0.03730276
111	0xb99af72f	-0.00029557335
112	0x3d9f5674	0.077801615
113	0xbd494726	-0.049140118
114	0x3cab925f	0.020943819
115	0xbd026198	-0.031831354
116	0x3c51fe1e	0.012816934
117	0x3c945b86	0.018110048
118	0x3bffeecf	0.0078104506
119	0x3d974085	0.07385353
120	0x3d83ba92	0.0643207
121	0x3cbd0bf6	0.023076992
122	0x3dab2db0	0.083583236
123	0xbd9836ce	-0.07432328
124	0x3e3996c4	0.18123919
125	0x3dba9d0f	0.09111988
126	0xbd7ef677	-0.062246766
127	0xbdcf3c00	-0.10118866
128	0xbc3aef53	-0.011409598
129	0xbc4a6e95	-0.012355466
130	0xbd88b289	-0.06674678
131	0x3dc78943	0.097429775
132	0xbd632d03	-0.05546285
133	0xbb56fa9a	-0.0032803179
134	0xbcf26e61	-0.029593648
135	0x3e03d15f	0.12872837
136	0xbb8cf7c4	-0.004301997
137	0x3d3e298d	0.046426345
138	0x3d099332	0.033587642
139	0xbc1652d8	-0.009175025
140	0xbd217ddc	-0.03942667
141	0x3e3a0175	0.18164618
142	0xbca1e416	-0.01976208
143	0xbccb3c92	-0.024809156
144	0x3d420249	0.04736546
145	0xbb5464dd	-0.0032408752
146	0xbd46afc7	-0.048507478
147	0x3daa0893	0.08302417
148	0xba74c6b0	-0.0009337468
149	0xbd0de47a	-0.03464172
150	0xbda00e32	-0.078152075
151	0xbd21385f	-0.0393604
152	0xbe25ee79	-0.16204251
153	0xbdcdbe7c	-0.10046098
154	0xbe71cca6	-0.23613223
155	0x3d70ce8b	0.058790725
156	0x3cc6c446	0.024263512
157	0x3db26a16	0.087116405
158	0xbd355525	-0.044270653
159	0xbcd72739	-0.02626382
160	0x3b534976	0.003223983
161	0x3d66fceb	0.056393545
162	0x3d1a8f1d	0.03773414
163	0x3c4f6b83	0.01265991
164	0xbdaf2aa0	-0.08553052
165	0x3cb56ff8	0.022148117
166	0x3e49998d	0.19687481
167	0x3d441c24	0.0478784
168	0x3d35a018	0.04434213
169	0x3dc3cac6	0.0956016
170	0xbca928a8	-0.02064927
171	0x3e0dfe0c	0.13866442
172	0xbda9d5a6	-0.08292703
173	0x3d91a89b	0.07112237
174	0xbe10254e	-0.1407673
175	0x3cdcd561	0.026957216
176	0xbd60e5fa	-0.054906823
177	0xbe0586c1	-0.13039686
178	0xbd7b2af8	-0.061320275
179	0x3b06c8b5	0.0020566408
180	0xbe1a439c	-0.15064853
181	0xbc467bb8	-0.012114458
182	0xbd0f0dbc	-0.034925207
183	0xbe02415d	-0.12720247
184	0x3d8bec24	0.068321496
185	0x3cfa99ed	0.030590976
186	0xbd393d26	-0.04522433
187	0x3c802576	0.015642863
188	0x3d3e9f5a	0.04653869
189	0x3e16d2de	0.14728877
190	0x3e2f3554	0.17110187
191	0x3d5fef8d	0.054671813
192	0x3d8c1159	0.06839246
193	0x3d43edda	0.047834255
194	0x3d7d81a2	0.061891206
195	0xbe1c0bc5	-0.15238865
196	0x3bd2fb4a	0.0064386474
197	0xbcc54f60	-0.0240857
198	0x3d94a325	0.0725768
199	0xbd100324	-0.035159245
200	0xbde73d58	-0.11290997
201	0x3e0a230e	0.13489935
202	0xbd9892c3	-0.074498676
203	0xbd4d166e	-0.05007022
204	0x3d392b3c	0.045207247
205	0xbd4b3827	-0.049614098
206	0x3cf877e8	0.030330613
207	0x3cd02b9e	0.025411423
208	0x3de52db8	0.11190361
209	0x3c71ff62	0.014770361
210	0x3c65f6de	0.0140359085
211	0x3c7b2fd4	0.015331227
212	0xbd4b04db	-0.049565177
213	0x3dccd8a1	0.10002256
214	0xbdf64f30	-0.120268226
215	0xbc8d5756	-0.01725356
216	0x3d42441c	0.047428235
217	0x3d5f4040	0.054504633
218	0x3d922a0c	0.07136926
219	0xbc5148d6	-0.012773713
220	0x3d82bb29	0.06383354
221	0xbd93a18b	-0.07208546
222	0x3d70cd9c	0.058789834
223	0xbcb9a4d2	-0.0226616
224	0xbd8f7480	-0.070046425
225	0x3e2e3711	0.17013194
226	0xbd90326e	-0.07040869
227	0x3d81ea83	0.06343558
228	0x3e4692f8	0.19392002
229	0xbe14b473	-0.14521961
230	0x3d3c7f06	0.046019576
231	0xbde67324	-0.1125243
232	0xbd893e42	-0.06701328
233	0x3d1fe5f3	0.039037656
234	0x3de71d5b	0.11284896
235	0x3cfc5224	0.030800886
236	0xbc031086	-0.007999545
237	0x3da033d0	0.078223825
238	0xbd13d083	-0.036087524
239	0xbd842720	-0.06452775
240	0x3dd1b29b	0.102391444
241	0x3dc4605d	0.09588692
242	0xbd773f2a	-0.060362972
243	0x3c8f38b5	0.017483095
244	0x3c69f808	0.014280327
245	0xbd98dc46	-0.07463889
246	0x3cc285b2	0.023745392
247	0xbb6dd9b3	-0.003629309
248	0x3d406227	0.046968605
249	0x3c94b45c	0.018152408
250	0x3c49b4e3	0.012311193
251	0xbc49c185	-0.012314205
252	0x3dd6bf2b	0.10485681
253	0xbd557a2e	-0.052118473
254	0x3db9a361	0.09064365
255	0xbd66b528	-0.056325108

layer2.conv1.bias f4 [32]
0	0x3ceb2790	0.028705388
1	0xbd0a06e3	-0.033697974
2	0x3d0e6b0d	0.03477006
3	0x3d16523d	0.036699522
4	0x3d2b34cd	0.0417984
5	0xbcf90f33	-0.030402755
6	0x3c60e335	0.013726045
7	0x3d297cbb	0.041378718
8	0xbd053263	-0.032518756
9	0x3c88c604	0.016695984
10	0xbd4a3e54	-0.049375847
11	0x3d205530	0.03914374
12	0x3d38e324	0.045138493
13	0xbd4ef821	-0.050529603
14	0x3cceb268	0.025231555
15	0xbc67a0b4	-0.014137436
16	0xbb1259a8	-0.0022331271
17	0xbc8a3170	-0.016869277
18	0xbd4505ec	-0.04810135
19	0x3d0c7706	0.034293197
20	0xbd2b8949	-0.041878972
21	0x3d5432ce	0.051806264
22	0xbccb2019	-0.024795579
23	0xbd4dba63	-0.05022658
24	0x3c3b6e85	0.011439924
25	0xbc6b37f0	-0.014356598
26	0x3c907df8	0.017638192
27	0xbd34ef20	-0.04417336
28	0x3cb93c92	0.02261189
29	0xbcdd30ef	-0.027000872
30	0xbcf0fdbd	-0.029417867
31	0x3c803e37	0.015654666

layer2.conv2.weight f4 [64, 32, 3, 3]
0	0xbd63b356	-0.05559095
1	0xbc1e00e5	-0.009643768
2	0x3d1703d8	0.0368689
3	0xbc47c4e3	-0.012192938
4	0xbd7c84a1	-0.061649922
5	0x3c3ec211	0.011642949
6	0xba563061	-0.0008170661
7	0x3dbf42e0	0.09338927
8	0x3d9b547e	0.07584475
9	0x3d2e75b6	0.042592727
10	0x3ccc4ef6	0.024939995
11	0x3d61165a	0.054952957
12	0xbd05c486	-0.032658122
13	0x3b587971	0.003303137
14	0xbbc70225	-0.0060732537
15	0x3ce97bcd	0.028501416
16	0x3d0a467a	0.033758618
17	0xbb0763eb	-0.002065892
18	0x3d6f089e	0.058357827
19	0x3b8dfc86	0.0043330817
20	0x3d1ebc90	0.038754046
21	0xbba7916c	-0.005113771
22	0x3d0015ff	0.031270977
23	0xbda956ef	-0.082685344
24	0x3d3041a0	0.043031335
25	0xbd6be154	-0.057587937
26	0x3cabaa6f	0.020955293
27	0xbdb69e48	-0.089169085
28	0x3c02bd5a	0.007979715
29	0x3a08e6b9	0.00052223686
30	0xbd4472b7	-0.047960963
31	0xb96ff536	-0.00022884164
32	0x3ca7ef3d	0.02049982
33	0x3cae6fcb	0.021293541
34	0xbcb16d6a	-0.021658618
35	0xbca6c6c8	-0.020358458
36	0xbc4301f9	-0.011902326
37	0x3c7b9058	0.015354238
38	0x3ccd7b0f	0.025083093
39	0x3c889d54	0.016676582
40	0x3bf5eb16	0.007504831
41	0x3cc8eb24	0.024526186
42	0xbd77db2b	-0.06051175
43	0xbdcc7636	-0.099834844
44	0x3ccb1745	0.02479137
45	0xbc698452	-0.014252739
46	0xbc66c847	-0.014085836
47	0x3cd55b8d	0.026044631
48	0x3bb06287	0.005382839
49	0x3c443343	0.011975112
50	0xbd76384f	-0.060112294
51	0xbcf8f610	-0.03039077
52	0xbb71bc5d	-0.0036885955
53	0xbcbe414a	-0.023224492
54	0x3a07d5ae	0.0005181682
55	0x3bb10c5b	0.005403084
56	0x3bd19be6	0.0063967584
57	0x3c57b883	0.01316655
58	0x3cc94d9f	0.024573145
59	0xbbd5fc37	-0.0065303105
60	0x3b23d498	0.0024998542
61	0xb967d8fb	-0.00022110708
62	0x3b8a7ed4	0.004226545
63	0x3da03161	0.07821918
64	0xbd52b921	-0.051446084
65	0x3d3be04b	0.0458682
66	0xbb11234d	-0.0022146285
67	0xbd88f58b	-0.066874586
68	0xbc30a8f0	-0.010782465
69	0x3d607268	0.054796606
70	0xbc3f00d5	-0.011657913
71	0x3dee6261	0.11639858
72	0xbb89caa0	-0.004205063
73	0xbc8f99de	-0.017529424
74	0x3d3aaf80	0.045577526
75	0x3c5130f8	0.012768023
76	0xbd91709c	-0.07101557
77	0x3dbc236c	0.09186444
78	0xbcc7cfe0	-0.024391115
79	0xbdded3cd	-0.108802415
80	0xbad02779	-0.0015880904
81	0x3cd457a2	0.025920693
82	0xbd876b68	-0.06612283
83	0x3b325314	0.0027210163
84	0x3b9aac6a	0.0047202604
85	0xbd05bcad	-0.03265064
86	0x3d97de38	0.07415432
87	0xbab4019c	-0.001373339
88	0xbcb25aef	-0.021771876
89	0xbd759a00	-0.05996132
90	0xbcb935e9	-0.022608714
91	0x3d8a451c	0.06751463
92	0xbc87c53f	-0.016573546
93	0x3d48b8c0	0.049004316
94	0x3dfe4884	0.12416175
95	0xbd81e352	-0.06342186
96	0xbd0f27b4	-0.034949973
97	0xbd32ec25	-0.043682236
98	0x3ddab8a9	0.106797524
99	0x3d72c85e	0.059273116
100	0x3d2d9952	0.042382546
101	0x3d128e47	0.035780217
102	0xbd85f50b	-0.06540879
103	0xbba0039d	-0.0048832432
104	0x3d18a5d7	0.037267532
105	0xbc004924	-0.007829938
106	0xba515542	-0.00079854217
107	0x3bc3f4f0	0.0059801266
108	0x3dce012f	0.100588195
109	0x3d06f552	0.0329488
110	0x3daf105d	0.08548043
111	0xbbc5cef0	-0.0060366318
112	0xbdc2b91f	-0.09507965
113	0xbc4c62a4	-0.01247469
114	0xbd118585	-0.035527725
115	0xbc28cb6d	-0.010302407
116	0xbc46683e	-0.012109814
117	0xbd08ef3a	-0.03343127
118	0xbc8b943c	-0.017038457
119	0x3dd25fbf	0.10272168
120	0xbd4a7cc2	-0.049435385
121	0x3d4fc249	0.050722394
122	0xbbd13a8e	-0.006385154
123	0xbca12296	-0.019669812
124	0x3d32ed3d	0.04368328
125	0xbded531b	-0.11588117
126	0x3cd183d4	0.025575556
127	0x3d73adc3	0.059491884
128	0xbbcf4374	-0.0063251797
129	0xbd080bed	-0.0332145
130	0xbc03b3e5	-0.008038496
131	0x3d2b5a15	0.041833956
132	0x3cb0df7e	0.021590944
133	0xbc4a0961	-0.012331338
134	0xb91a9936	-0.0001474366
135	0x39aa9742	0.00032537623
136	0x3da080d0	0.07837069
137	0x3d71193d	0.05886196
138	0x3e092b73	0.13395481
139	0xbcd00f19	-0.025397824
140	0x3d54d83c	0.05196403
141	0x3d0274fb	0.031849843
142	0xbd4cda30	-0.050012767
143	0x3d783034	0.060592845
144	0xbd2df94a	-0.04247407
145	0xbbd138a6	-0.006384927
146	0x3d7e60ca	0.062104024
147	0x3aa594ed	0.0012632884
148	0x3d84bdf5	0.06481544
149	0x3dd50869	0.10401995
150	0xbc87c47f	-0.016573189
151	0x3bccd443	0.0062508895
152	0x3b823fc2	0.0039748857
153	0xbb997a52	-0.004683771
154	0xbdbd4791	-0.09242166
155	0x3d16eae3	0.0368451
156	0xbdba4235	-0.09094659
157	0xbd350fb6	-0.044204436
158	0xbb78f23a	-0.0037986175
159	0xbba24cf1	-0.00495302
160	0x3bc91e33	0.006137633
161	0xbd4c2857	-0.04984316
162	0xbdb94fa8	-0.09048396
163	0xbc4d5951	-0.012533502
164	0x3bca5302	0.006174446
165	0xbcf3f7c6	-0.029781234
166	0xbc81b495	-0.015833179
167	0xbb395b0a	-0.0028283023
168	0x3cc71bba	0.024305213
169	0xbc4a077e	-0.012330888
170	0xbc2de922	-0.010614665
171	0xbc422730	-0.011850163
172	0xbdb5893d	-0.08864067
173	0x3cf4212b	0.029800972
174	0xbc3f6c19	-0.011683487
175	0xbd1a4776	-0.037665807
176	0x3d9aeb88	0.07564455
177	0x3d443088	0.047897846
178	0xbc1241d0	-0.008926824
179	0xbc534565	-0.012894963
180	0xbab61368	-0.0013891282
181	0xbdcf4aa4	-0.101216584
182	0x3d7748b7	0.06037208
183	0xbcd9c8c5	-0.026584992
184	0xbd5e0ca1	-0.054211263
185	0x3d253912	0.04033763
186	0xbac627e6	-0.0015118092
187	0x3b0507b8	0.002029879
188	0xbcae1d53	-0.021254217
189	0xbdf9293a	-0.121660665
190	0xbbf462d7	-0.0074580717
191	0x3d9fc4dc	0.0780122
192	0xbda17c17	-0.078849964
193	0x3af76358	0.0018874211
194	0x3d2a722c	0.04161279
195	0x3ce57f49	0.028014796
196	0xbcbeee2f	-0.023306934
197	0x3c9ad809	0.018901842
198	0x3cd5c318	0.026094005
199	0x3d2ced4a	0.042218484
200	0xbc952584	-0.018206365
201	0x3d35e7ff	0.0444107
202	0xbae2707e	-0.0017275957
203	0xbd4175d2	-0.047231503
204	0x3d07c191	0.033143584
205	0xbda48195	-0.08032528
206	0x3dab5b81	0.08367062
207	0x3dc781e1	0.09741569
208	0x3c3832f3	0.011242616
209	0xbdb0ddf1	-0.08636082
210	0x3b603b33	0.0034214973
211	0x3cbf9327	0.023385597
212	0xbca64a96	-0.020299237
213	0x3bf56aca	0.007489537
214	0xbb26c442	-0.0025446569
215	0xbaef0c3f	-0.0018237903
216	0x3dc6be05	0.09704212
217	0x3c3429e5	0.010996317
218	0xbd37f2d1	-0.044909302
219	0xbc659f58	-0.014015041
220	0xbd321aeb	-0.043482702
221	0x3ac6f0e3	0.0015177991
222	0x3ca09746	0.019603383
223	0x3c10406a	0.00880442
224	0xbcfc13ad	-0.0307711
225	0x3d26d44d	0.04072981
226	0xbd3c0e73	-0.045912217
227	0x3b8b665b	0.004254145
228	0xbca1120b	-0.019661924
229	0xbc059cc8	-0.008155055
230	0x3d2427d1	0.040077034
231	0x3cfbf86f	0.03075811
232	0xbd13fea6	-0.036131524
233	0xbcb25386	-0.021768343
234	0x3d019997	0.031640615
235	0x3b34efd0	0.002760876
236	0x3d24af94	0.040206507
237	0x3cedd8fe	0.029034134
238	0x39fbc292	0.00048019417
239	0xbbb9f7cd	-0.005675292
240	0xba4db054	-0.00078464043
241	0xbb845c1f	-0.004039302
242	0x3bf2ca53	0.007409373
243	0x3cdec7bd	0.027194852
244	0x3ccf840d	0.025331521
245	0x3cc4a044	0.024002202
246	0xbbc7b97c	-0.0060951095
247	0x3b045f3a	0.002019836
248	0xbdea4d84	-0.11440566
249	0xba1fd952	-0.0006097752
250	0xbc20e34e	-0.009819819
251	0x3c3e8b66	0.011629915
252	0xbc260309	-0.01013256
253	0x3d91bc9f	0.07116055
254	0xbd85f2e0	-0.06540465
255	0xbd955c0c	-0.07292947

layer2.conv2.bias f4 [64]
0	0xbceca093	-0.028885162
1	0x3c554996	0.013018033
2	0x3ca7cc5b	0.020483186
3	0xbd2d64f0	-0.04233259
4	0xbc28f073	-0.010311234
5	0x3b5c1b83	0.0033585734
6	0xbd31ff78	-0.043456525
7	0x3cf9a805	0.030475626
8	0xbb21c53f	-0.0024684218
9	0x3c2fdcf4	0.010733832
10	0x3c359ae1	0.011084289
11	0x3d3c453f	0.045964476
12	0xbd22fab2	-0.039789863
13	0xbd2ede59	-0.042692516
14	0xbd3a0773	-0.04541726
15	0xbd0e4410	-0.03473288
16	0xbc1992ec	-0.009373408
17	0x3c9d93cb	0.019235512
18	0x3cf52918	0.029926822
19	0xbb3fca91	-0.0029265026
20	0xbcbd3f17	-0.023101373
21	0x3c33ec7c	0.010981675
22	0xbcdd26c3	-0.026996022
23	0x3c32a338	0.010903172
24	0xbb42fbd6	-0.0029752157
25	0xbd383958	-0.044976562
26	0xbd40175d	-0.04689728
27	0xbc853989	-0.016262786
28	0xbc6155b8	-0.013753347
29	0xbd000331	-0.031253044
30	0xbd4348f6	-0.047677003
31	0x3c38a5be	0.011269985
32	0xbd31f9ef	-0.043451246
33	0x3d40fdb1	0.04711694
34	0xbd53d07e	-0.051712506
35	0x3d6a1977	0.05715319
36	0xbc0cf86e	-0.008604152
37	0xbc82a20c	-0.01594641
38	0x3c85d925	0.016338894
39	0xbcefa934	-0.029255487
40	0x3d2357e3	0.039878737
41	0xbcb2a294	-0.021806039
42	0x3d4a20ae	0.049347572
43	0xbccc974b	-0.024974486
44	0x3c9a262c	0.01881703
45	0xbacdb460	-0.0015694015
46	0xbc20d279	-0.009815806
47	0xbc4630a4	-0.012096558
48	0x3d08625b	0.033296924
49	0x3d332969	0.043740664
50	0xbd526586	-0.05136635
51	0xbd4657df	-0.048423644
52	0xbd35b81c	-0.044365034
53	0x3d0ac34a	0.03387765
54	0xbc952648	-0.01820673
55	0xbce09a5f	-0.02741736
56	0x3d2b049c	0.041752443
57	0x3d4eb035	0.050461013
58	0xbd3be9f1	-0.0458774
59	0x3c304ead	0.010760945
60	0x00002859	1.4474e-41
61	0xbd14a90c	-0.03629403
62	0xbd3031db	-0.043016296
63	0xbc9d070f	-0.019168405

fc1.weight f4 [1, 3200]
0	0xbbb307d3	-0.005463579
1	0x3c6d182d	0.014471096
2	0xba175aae	-0.0005773705
3	0xbbdf6fd9	-0.006818753
4	0xb9bd5dd6	-0.00036118802
5	0x3c76b325	0.01505736
6	0x3cb39820	0.021923125
7	0xbc422c98	-0.011851452
8	0x3ca474fc	0.020075314
9	0xbbfdec6e	-0.007749132
10	0xbb1d4ff2	-0.002400395
11	0x3b41757c	0.002951949
12	0x3b460eb1	0.003022116
13	0x3d0313de	0.03200137
14	0x3d344085	0.044006843
15	0xbd82f70d	-0.063947774
16	0xbca23686	-0.01980139
17	0x3c0e853a	0.008698756
18	0xbb94468d	-0.004525012
19	0xbcab55f1	-0.020915003
20	0x3b764910	0.003758017
21	0xbbd9265a	-0.0066268863
22	0x3d24abb1	0.0402028
23	0xbd82f40f	-0.06394207
24	0xbd0d986e	-0.034569196
25	0xbdc738a1	-0.09727598
26	0x3ca48224	0.020081587
27	0x3cd08e4e	0.025458481
28	0xbc1dba21	-0.009626896
29	0x3c9e253a	0.01930486
30	0x3cc62232	0.024186227
31	0xbc977c2e	-0.01849183
32	0xbbcacd8e	-0.006189055
33	0xbd077194	-0.0330673
34	0xbd874629	-0.06605179
35	0xbcb18da2	-0.021673981
36	0x3cf80db7	0.030279977
37	0x3d1b36ec	0.037894174
38	0xbc37eb3d	-0.011225519
39	0x3c88397b	0.016628971
40	0xbca0c16a	-0.019623477
41	0x3d09e849	0.03366879
42	0x3d018eeb	0.031630438
43	0xbc0dea8b	-0.008661876
44	0xbc880058	-0.016601726
45	0xbcd1efff	-0.025627134
46	0xbbab137e	-0.0052208295
47	0x3ca37d76	0.019957285
48	0xbc9295e5	-0.01789374
49	0xbc0d7167	-0.008632994
50	0x3c11e165	0.008903836
51	0xbbe02556	-0.0068403883
52	0xbcba39b4	-0.022732593
53	0x3d095572	0.033528753
54	0x3d09a1f3	0.033601712
55	0x3c25a6d1	0.010110573
56	0xbb041b48	-0.0020157862
57	0xbc981d39	-0.018568622
58	0x3c66384c	0.014051508
59	0xbd2779e1	-0.040887717
60	0xbb07f932	-0.0020747897
61	0xbb811506	-0.003939274
62	0xbcbf2edb	-0.023337772
63	0xbc904a05	-0.01761342
64	0x3d9eec9a	0.07759972
65	0x3c81f256	0.015862625
66	0x3b4238bb	0.0029635865
67	0xba0ecf0b	-0.0005447722
68	0x3d0b7e5e	0.03405606
69	0x39965437	0.00028672974
70	0x80018f2d	-1.43197e-40
71	0xbb1d2211	-0.0023976604
72	0xbcf6c45c	-0.030122928
73	0x3cc6a40a	0.024248142
74	0x3d6a709f	0.05723631
75	0x0004955c	4.20922e-40
76	0x3d7358ac	0.059410736
77	0xbb35c7cc	-0.0027737496
78	0xbceafb47	-0.028684271
79	0x3d8072a0	0.06271863
80	0x3c0e6349	0.008690664
81	0xbd2d2205	-0.04226877
82	0xbcb5e94e	-0.022205975
83	0x3b6b43b0	0.00358985
84	0xbafb7637	-0.0019185011
85	0xbd4752c5	-0.04866292
86	0x3d2a1be8	0.04153052
87	0xbc19bedf	-0.009383886
88	0xbcd70ee4	-0.026252218
89	0xbd2dee40	-0.04246354
90	0x3ceda228	0.029007986
91	0xbcbe3278	-0.023217425
92	0x3c3edaad	0.011648816
93	0xbc1ac7d0	-0.009447053
94	0x3d0e2273	0.034700822
95	0xbdee499f	-0.11635136
96	0xbcb3d573	-0.021952366
97	0xbcb7312c	-0.022362314
98	0x3c79734b	0.015225242
99	0x3c9bf37d	0.019037003
100	0xbcfe2527	-0.031023575
101	0xbc8ca517	-0.017168565
102	0xbba90342	-0.005157859
103	0xb369b7d8	-5.4416745e-08
104	0x3c6d365e	0.014478294
105	0x3d5a6d76	0.053327046
106	0xbc91ffe4	-0.017822213
107	0xbb7acac7	-0.0038267837
108	0x800148c2	-1.17936e-40
109	0xba8a90b3	-0.0010571688
110	0xba149c3b	-0.0005669032
111	0x3cd9a92c	0.026569925
112	0x3c7670f1	0.015041576
113	0x3c7633d8	0.015027009
114	0x3d98f75a	0.074690536
115	0xbd78d570	-0.060750425
116	0xbcbc261a	-0.022967387
117	0xbc89d2af	-0.016824095
118	0xbbe233ed	-0.0069031627
119	0xbbe7b6e6	-0.0070713637
120	0xbc7da280	-0.015480638
121	0xbcd1d130	-0.025612444
122	0xbad81df7	-0.0016488422
123	0x3c32eef6	0.010921231
124	0xbd1bf71b	-0.038077455
125	0xbb4934ea	-0.0030701705
126	0x3d747749	0.05968407
127	0x3cbacd95	0.022803107
128	0xbc46aa5e	-0.01212558
129	0x3c4f4ba6	0.012652313
130	0x3c866bd5	0.01640884
131	0xbb9f456d	-0.004860571
132	0xbb32d2a5	-0.0027286198
133	0x00002612	1.3657e-41
134	0xbda5e91d	-0.081011035
135	0xbdaf189f	-0.08549618
136	0xbc35d93a	-0.011099154
137	0x3c84c1fd	0.016205782
138	0x00024acd	2.10504e-40
139	0xbc4471e6	-0.011990046
140	0x3c86e285	0.016465435
141	0xbcdfc85d	-0.02731722
142	0xba389169	-0.0007040711
143	0xbcf522ac	-0.02992376
144	0xbd895256	-0.067051575
145	0xbb391449	-0.002824085
146	0xbbf5e907	-0.0075045857
147	0xbbf08045	-0.0073395097
148	0xbcf2cf64	-0.029639907
149	0xbcd20d28	-0.025641039
150	0x3cdadc84	0.026716478
151	0xb9f3e9ab	-0.00046522668
152	0x80025037	-2.12447e-40
153	0x3c3a19fe	0.011358736
154	0x3cf277a3	0.029598063
155	0xbc881d9d	-0.016615683
156	0xbabfde0f	-0.0014638322
157	0x0001b1f7	1.55677e-40
158	0x3c071b23	0.008246216
159	0xb8a5e791	-7.910946e-05
160	0x3b07e6f6	0.0020737029
161	0x0000d7bd	7.7392e-41
162	0x0000a354	5.8591e-41
163	0x8000559a	-3.0708e-41
164	0x3acedfd0	0.0015783254
165	0xb5a2e9e2	-1.2138009e-06
166	0x80001582	-7.716e-42
167	0x8002acff	-2.4573e-40
168	0x0000d279	7.5503e-41
169	0x00001fd9	1.1425e-41
170	0xbcaef884	-0.021358736
171	0x80163011	-2.037624e-39
172	0x8001922e	-1.44275e-40
173	0x0001e13f	1.72639e-40
174	0x8001dd63	-1.71254e-40
175	0x39284ade	0.00016049619
176	0xb806c1fb	-3.2128748e-05
177	0x000113c1	9.8922e-41
178	0x80000d64	-4.804e-42
179	0x80020097	-1.83883e-40
180	0x3d08fe66	0.03344574
181	0xbb042490	-0.0020163395
182	0xbab98935	-0.0014155271
183	0x000000d1	2.93e-43
184	0x000163a0	1.27574e-40
185	0xbae942af	-0.0017796363
186	0xbd521458	-0.051288933
187	0xbac57b35	-0.0015066626
188	0x8000150c	-7.55e-42
189	0x80025a7b	-2.16129e-40
190	0xbc996118	-0.018723056
191	0xb8e21fbd	-0.000107824315
192	0xb749122f	-1.1984767e-05
193	0x800279ab	-2.27317e-40
194	0x800193ec	-1.449e-40
195	0xba1e4d12	-0.0006038706
196	0xbb6ad091	-0.0035829882
197	0x39c4272a	0.00037413213
198	0x0000abc4	6.1618e-41
199	0x000130c6	1.09332e-40
200	0xbd31daa2	-0.043421395
201	0xbb36361b	-0.0027803245
202	0x34cf3797	3.8597202e-07
203	0x00018bad	1.41942e-40
204	0xbd57a9d3	-0.05265219
205	0xbbaed383	-0.0053352728
206	0x3d76fc30	0.0602991
207	0xb82c7eea	-4.1126194e-05
208	0x00007694	4.2538e-41
209	0x3d04703f	0.03233361
210	0x3aee7c47	0.0018194997
211	0x3c7ccfe3	0.015430423
212	0x3cc3337d	0.023828262
213	0xbdf18aa5	-0.117940225
214	0xbdc1130f	-0.09427463
215	0xbcc12b8c	-0.023580335
216	0xbb5b7e17	-0.0033491903
217	0xbc347040	-0.011013091
218	0x3c5391a1	0.012913139
219	0x3cedba12	0.02901939
220	0x3ccd2c61	0.025045576
221	0x3d3054a5	0.043049473
222	0x3b7ba7e3	0.0038399629
223	0x3cb36781	0.02189994
224	0xbdc6f3f7	-0.09714501
225	0x3d9ec732	0.07752837
226	0x3c722665	0.014779662
227	0x3d043312	0.032275267
228	0xbc001e55	-0.007819732
229	0xbcf6a706	-0.03010894
230	0x3aa03a98	0.0012224494
231	0xbd28eabf	-0.041239496
232	0xbb4e8139	-0.0031510128
233	0xbd223270	-0.039598882
234	0xbd7ce621	-0.061742906
235	0xbca58539	-0.020205127
236	0x3d713c85	0.058895607
237	0xbd16cb6a	-0.036815085
238	0xbbf26d5f	-0.007398292
239	0x3ce799b8	0.028271541
240	0xbbd5decb	-0.006526803
241	0x3cc03071	0.023460599
242	0x3bd3d467	0.0064645293
243	0x3ccd2266	0.025040817
244	0x8001b7bc	-1.57747e-40
245	0xbd61791a	-0.055047132
246	0x3c30ed50	0.010798767
247	0x3a898901	0.0010493101
248	0xbb32fb22	-0.0027310331
249	0xb16f5de6	-3.4832452e-09
250	0xbc4025db	-0.011727775
251	0x3d0aabb9	0.033855174
252	0x3a8698e4	0.0010268954
253	0x3c247867	0.010038472
254	0xbbf67c8c	-0.0075221714
255	0xbc1c2de4	-0.009532426

out.0.weight f4 [1, 3200]
0	0xbbb307d3	-0.005463579
1	0x3c6d182d	0.014471096
2	0xba175aae	-0.0005773705
3	0xbbdf6fd9	-0.006818753
4	0xb9bd5dd6	-0.00036118802
5	0x3c76b325	0.01505736
6	0x3cb39820	0.021923125
7	0xbc422c98	-0.011851452
8	0x3ca474fc	0.020075314
9	0xbbfdec6e	-0.007749132
10	0xbb1d4ff2	-0.002400395
11	0x3b41757c	0.002951949
12	0x3b460eb1	0.003022116
13	0x3d0313de	0.03200137
14	0x3d344085	0.044006843
15	0xbd82f70d	-0.063947774
16	0xbca23686	-0.01980139
17	0x3c0e853a	0.008698756
18	0xbb94468d	-0.004525012
19	0xbcab55f1	-0.020915003
20	0x3b764910	0.003758017
21	0xbbd9265a	-0.0066268863
22	0x3d24abb1	0.0402028
23	0xbd82f40f	-0.06394207
24	0xbd0d986e	-0.034569196
25	0xbdc738a1	-0.09727598
26	0x3ca48224	0.020081587
27	0x3cd08e4e	0.025458481
28	0xbc1dba21	-0.009626896
29	0x3c9e253a	0.01930486
30	0x3cc62232	0.024186227
31	0xbc977c2e	-0.01849183
32	0xbbcacd8e	-0.006189055
33	0xbd077194	-0.0330673
34	0xbd874629	-0.06605179
35	0xbcb18da2	-0.021673981
36	0x3cf80db7	0.030279977
37	0x3d1b36ec	0.037894174
38	0xbc37eb3d	-0.011225519
39	0x3c88397b	0.016628971
40	0xbca0c16a	-0.019623477
41	0x3d09e849	0.03366879
42	0x3d018eeb	0.031630438
43	0xbc0dea8b	-0.008661876
44	0xbc880058	-0.016601726
45	0xbcd1efff	-0.025627134
46	0xbbab137e	-0.0052208295
47	0x3ca37d76	0.019957285
48	0xbc9295e5	-0.01789374
49	0xbc0d7167	-0.008632994
50	0x3c11e165	0.008903836
51	0xbbe02556	-0.0068403883
52	0xbcba39b4	-0.022732593
53	0x3d095572	0.033528753
54	0x3d09a1f3	0.033601712
55	0x3c25a6d1	0.010110573
56	0xbb041b48	-0.0020157862
57	0xbc981d39	-0.018568622
58	0x3c66384c	0.014051508
59	0xbd2779e1	-0.040887717
60	0xbb07f932	-0.0020747897
61	0xbb811506	-0.003939274
62	0xbcbf2edb	-0.023337772
63	0xbc904a05	-0.01761342
64	0x3d9eec9a	0.07759972
65	0x3c81f256	0.015862625
66	0x3b4238bb	0.0029635865
67	0xba0ecf0b	-0.0005447722
68	0x3d0b7e5e	0.03405606
69	0x39965437	0.00028672974
70	0x80018f2d	-1.43197e-40
71	0xbb1d2211	-0.0023976604
72	0xbcf6c45c	-0.030122928
73	0x3cc6a40a	0.024248142
74	0x3d6a709f	0.05723631
75	0x0004955c	4.20922e-40
76	0x3d7358ac	0.059410736
77	0xbb35c7cc	-0.0027737496
78	0xbceafb47	-0.028684271
79	0x3d8072a0	0.06271863
80	0x3c0e6349	0.008690664
81	0xbd2d2205	-0.04226877
82	0xbcb5e94e	-0.022205975
83	0x3b6b43b0	0.00358985
84	0xbafb7637	-0.0019185011
85	0xbd4752c5	-0.04866292
86	0x3d2a1be8	0.04153052
87	0xbc19bedf	-0.009383886
88	0xbcd70ee4	-0.026252218
89	0xbd2dee40	-0.04246354
90	0x3ceda228	0.029007986
91	0xbcbe3278	-0.023217425
92	0x3c3edaad	0.011648816
93	0xbc1ac7d0	-0.009447053
94	0x3d0e2273	0.034700822
95	0xbdee499f	-0.11635136
96	0xbcb3d573	-0.021952366
97	0xbcb7312c	-0.022362314
98	0x3c79734b	0.015225242
99	0x3c9bf37d	0.019037003
100	0xbcfe2527	-0.031023575
101	0xbc8ca517	-0.017168565
102	0xbba90342	-0.005157859
103	0xb369b7d8	-5.4416745e-08
104	0x3c6d365e	0.014478294
105	0x3d5a6d76	0.053327046
106	0xbc91ffe4	-0.017822213
107	0xbb7acac7	-0.0038267837
108	0x800148c2	-1.17936e-40
109	0xba8a90b3	-0.0010571688
110	0xba149c3b	-0.0005669032
111	0x3cd9a92c	0.026569925
112	0x3c7670f1	0.015041576
113	0x3c7633d8	0.015027009
114	0x3d98f75a	0.074690536
115	0xbd78d570	-0.060750425
116	0xbcbc261a	-0.022967387
117	0xbc89d2af	-0.016824095
118	0xbbe233ed	-0.0069031627
119	0xbbe7b6e6	-0.0070713637
120	0xbc7da280	-0.015480638
121	0xbcd1d130	-0.025612444
122	0xbad81df7	-0.0016488422
123	0x3c32eef6	0.010921231
124	0xbd1bf71b	-0.038077455
125	0xbb4934ea	-0.0030701705
126	0x3d747749	0.05968407
127	0x3cbacd95	0.022803107
128	0xbc46aa5e	-0.01212558
129	0x3c4f4ba6	0.012652313
130	0x3c866bd5	0.01640884
131	0xbb9f456d	-0.004860571
132	0xbb32d2a5	-0.0027286198
133	0x00002612	1.3657e-41
134	0xbda5e91d	-0.081011035
135	0xbdaf189f	-0.08549618
136	0xbc35d93a	-0.011099154
137	0x3c84c1fd	0.016205782
138	0x00024acd	2.10504e-40
139	0xbc4471e6	-0.011990046
140	0x3c86e285	0.016465435
141	0xbcdfc85d	-0.02731722
142	0xba389169	-0.0007040711
143	0xbcf522ac	-0.02992376
144	0xbd895256	-0.067051575
145	0xbb391449	-0.002824085
146	0xbbf5e907	-0.0075045857
147	0xbbf08045	-0.0073395097
148	0xbcf2cf64	-0.029639907
149	0xbcd20d28	-0.025641039
150	0x3cdadc84	0.026716478
151	0xb9f3e9ab	-0.00046522668
152	0x80025037	-2.12447e-40
153	0x3c3a19fe	0.011358736
154	0x3cf277a3	0.029598063
155	0xbc881d9d	-0.016615683
156	0xbabfde0f	-0.0014638322
157	0x0001b1f7	1.55677e-40
158	0x3c071b23	0.008246216
159	0xb8a5e791	-7.910946e-05
160	0x3b07e6f6	0.0020737029
161	0x0000d7bd	7.7392e-41
162	0x0000a354	5.8591e-41
163	0x8000559a	-3.0708e-41
164	0x3acedfd0	0.0015783254
165	0xb5a2e9e2	-1.2138009e-06
166	0x80001582	-7.716e-42
167	0x8002acff	-2.4573e-40
168	0x0000d279	7.5503e-41
169	0x00001fd9	1.1425e-41
170	0xbcaef884	-0.021358736
171	0x80163011	-2.037624e-39
172	0x8001922e	-1.44275e-40
173	0x0001e13f	1.72639e-40
174	0x8001dd63	-1.71254e-40
175	0x39284ade	0.00016049619
176	0xb806c1fb	-3.2128748e-05
177	0x000113c1	9.8922e-41
178	0x80000d64	-4.804e-42
179	0x80020097	-1.83883e-40
180	0x3d08fe66	0.03344574
181	0xbb042490	-0.0020163395
182	0xbab98935	-0.0014155271
183	0x000000d1	2.93e-43
184	0x000163a0	1.27574e-40
185	0xbae942af	-0.0017796363
186	0xbd521458	-0.051288933
187	0xbac57b35	-0.0015066626
188	0x8000150c	-7.55e-42
189	0x80025a7b	-2.16129e-40
190	0xbc996118	-0.018723056
191	0xb8e21fbd	-0.000107824315
192	0xb749122f	-1.1984767e-05
193	0x800279ab	-2.27317e-40
194	0x800193ec	-1.449e-40
195	0xba1e4d12	-0.0006038706
196	0xbb6ad091	-0.0035829882
197	0x39c4272a	0.00037413213
198	0x0000abc4	6.1618e-41
199	0x000130c6	1.09332e-40
200	0xbd31daa2	-0.043421395
201	0xbb36361b	-0.0027803245
202	0x34cf3797	3.8597202e-07
203	0x00018bad	1.41942e-40
204	0xbd57a9d3	-0.05265219
205	0xbbaed383	-0.0053352728
206	0x3d76fc30	0.0602991
207	0xb82c7eea	-4.1126194e-05
208	0x00007694	4.2538e-41
209	0x3d04703f	0.03233361
210	0x3aee7c47	0.0018194997
211	0x3c7ccfe3	0.015430423
212	0x3cc3337d	0.023828262
213	0xbdf18aa5	-0.117940225
214	0xbdc1130f	-0.09427463
215	0xbcc12b8c	-0.023580335
216	0xbb5b7e17	-0.0033491903
217	0xbc347040	-0.011013091
218	0x3c5391a1	0.012913139
219	0x3cedba12	0.02901939
220	0x3ccd2c61	0.025045576
221	0x3d3054a5	0.043049473
222	0x3b7ba7e3	0.0038399629
223	0x3cb36781	0.02189994
224	0xbdc6f3f7	-0.09714501
225	0x3d9ec732	0.07752837
226	0x3c722665	0.014779662
227	0x3d043312	0.032275267
228	0xbc001e55	-0.007819732
229	0xbcf6a706	-0.03010894
230	0x3aa03a98	0.0012224494
231	0xbd28eabf	-0.041239496
232	0xbb4e8139	-0.0031510128
233	0xbd223270	-0.039598882
234	0xbd7ce621	-0.061742906
235	0xbca58539	-0.020205127
236	0x3d713c85	0.058895607
237	0xbd16cb6a	-0.036815085
238	0xbbf26d5f	-0.007398292
239	0x3ce799b8	0.028271541
240	0xbbd5decb	-0.006526803
241	0x3cc03071	0.023460599
242	0x3bd3d467	0.0064645293
243	0x3ccd2266	0.025040817
244	0x8001b7bc	-1.57747e-40
245	0xbd61791a	-0.055047132
246	0x3c30ed50	0.010798767
247	0x3a898901	0.0010493101
248	0xbb32fb22	-0.0027310331
249	0xb16f5de6	-3.4832452e-09
250	0xbc4025db	-0.011727775
251	0x3d0aabb9	0.033855174
252	0x3a8698e4	0.0010268954
253	0x3c247867	0.010038472
254	0xbbf67c8c	-0.0075221714
255	0xbc1c2de4	-0.009532426

exp_avg f4 [32, 2, 5, 5]
0	0xba2eab47	-0.00066630956
1	0xba6771b6	-0.0008828895
2	0xba7c4b27	-0.00096242357
3	0xba67afa0	-0.0008838121
4	0xba3421b5	-0.0006871478
5	0xba49b90e	-0.0007695117
6	0xba822c46	-0.0009931407
7	0xba8c7988	-0.0010717371
8	0xba81c8fa	-0.0009901815
9	0xba44ef47	-0.0007512462
10	0xba54541c	-0.00080996915
11	0xba878a0b	-0.0010340823
12	0xba9099cd	-0.0011032164
13	0xba84e60c	-0.001013936
14	0xba415093	-0.0007374372
15	0xba47e9ab	-0.0007626067
16	0xba80c35a	-0.0009823844
17	0xba87f223	-0.0010371845
18	0xba7772dc	-0.00094394176
19	0xba2df071	-0.0006635255
20	0xba2b62cd	-0.0006537855
21	0xba5bfc61	-0.00083917944
22	0xba685a3f	-0.00088635454
23	0xba4ce697	-0.0007816343
24	0xba0a147c	-0.00052673346
25	0xba1b2383	-0.00059180724
26	0xba644fd1	-0.00087094033
27	0xba842af3	-0.0010083601
28	0xba8246bc	-0.0009939293
29	0xba50fb9c	-0.0007972063
30	0xba348d8e	-0.00068875484
31	0xba81f8a2	-0.0009916017
32	0xba942ea7	-0.0011305407
33	0xba8bbd2b	-0.0010661235
34	0xba5d79f7	-0.0008448655
35	0xba3d864f	-0.00072297914
36	0xba832015	-0.0010004068
37	0xba968ab8	-0.0011485433
38	0xba8a4bff	-0.0010551213
39	0xba54efa8	-0.000812287
40	0xba343568	-0.0006874413
41	0xba767e90	-0.00094030146
42	0xba8ad674	-0.0010592476
43	0xba7a5034	-0.00095486944
44	0xba37d179	-0.000701211
45	0xba1174f4	-0.00055487384
46	0xba4be6b8	-0.0007778215
47	0xba6396a9	-0.0008681813
48	0xba491f9f	-0.00076722534
49	0xba06d81b	-0.00051438966
50	0x3b047670	0.0020212196
51	0x3ad23046	0.0016036115
52	0x3a845edc	0.0010099071
53	0x39d885bc	0.0004129837
54	0xb8ede23b	-0.00011343179
55	0x3b0156e8	0.0019735638
56	0x3ac12a94	0.0014737421
57	0x3a7ae945	0.0009571503
58	0x39c1b843	0.00036949114
59	0xb91588ca	-0.00014260705
60	0x3ad4cff3	0.001623629
61	0x3a9dd97d	0.0012042966
62	0x3a2dbbda	0.00066274183
63	0x39342481	0.00017179736
64	0xb989612a	-0.0002620307
65	0x3a9cd003	0.0011963848
66	0x3a5538df	0.00081337796
67	0x39d69266	0.00040926336
68	0x37a7ba8d	1.999482e-05
69	0xb9af9b3f	-0.00033494268
70	0x3a44472c	0.0007487412
71	0x3a01f718	0.00049577793
72	0x38e425a1	0.00010878896
73	0xb92846ea	-0.00016048146
74	0xb9d163e7	-0.0003993802
75	0x3b0b2a25	0.0021234837
76	0x3ae3e5c5	0.0017387202
77	0x3a9d3bc8	0.0011995966
78	0x3a204e31	0.0006115167
79	0x382e8308	4.1606865e-05
80	0x3b0c31f4	0.002139208
81	0x3ae5dc90	0.0017537046
82	0x3a942849	0.001130351
83	0x3a106881	0.00055087364
84	0x37d45aa2	2.5314574e-05
85	0x3aed195e	0.0018089225
86	0x3ab8982f	0.001408344
87	0x3a650493	0.00087363383
88	0x39ad8b4d	0.00033100919
89	0xb90c6988	-0.00013390754
90	0x3ab46cee	0.0013765374
91	0x3a8cb72d	0.0010735743
92	0x3a194226	0.00058463437
93	0x39273fb5	0.00015950094
94	0xb9668bf7	-0.0002198665
95	0x3a62d306	0.0008652661
96	0x3a23ffbc	0.0006256064
97	0x399b1ff3	0.00029587708
98	0xb82aaa33	-4.068967e-05
99	0xb9adb761	-0.0003313376
100	0x39d2e04a	0.0004022143
101	0x3a392bd8	0.0007063723
102	0x3a7dc48e	0.0009680473
103	0x3a94ddd8	0.0011357618
104	0x3a952a11	0.0011380335
105	0x39eae063	0.0004479914
106	0x3a2e5cd3	0.0006651405
107	0x3a609669	0.0008567335
108	0x3a838f65	0.0010037242
109	0x3a7d61e6	0.0009665772
110	0x39e6abd0	0.0004399703
111	0x3a17d05b	0.000579124
112	0x3a3c7e7a	0.00071904773
113	0x3a45e74d	0.000754942
114	0x3a46668b	0.00075683807
115	0x3a04c4f7	0.00050647504
116	0x3a15e59a	0.0005718112
117	0x3a281e30	0.00064131897
118	0x3a342c5f	0.0006873067
119	0x3a1d0708	0.00059901224
120	0x3a0a05c9	0.0005265144
121	0x3a17d71c	0.00057922467
122	0x3a1b7b64	0.00059311674
123	0x3a0c029c	0.0005340965
124	0x3a03da1d	0.0005029755
125	0x398eb3da	0.0002721835
126	0x3a1f00db	0.0006065496
127	0x3a7c7681	0.00096306956
128	0x3a97e367	0.0011588157
129	0x3a9d413e	0.0011997593
130	0x39b69618	0.00034825574
131	0x3a1bdd17	0.0005945726
132	0x3a581045	0.00082421704
133	0x3a7aa1bc	0.00095608435
134	0x3a88cf0c	0.0010437681
135	0x39c22059	0.00037026664
136	0x3a097a88	0.0005244394
137	0x3a2ddf52	0.00066327036
138	0x3a4dad65	0.0007845967
139	0x3a54ed3b	0.00081225083
140	0x39da602e	0.0004165186
141	0x3a088074	0.0005207129
142	0x3a1f4fca	0.0006077258
143	0x3a22d250	0.00062111486
144	0x3a2e10a3	0.00066400523
145	0x39f3b5aa	0.00046483922
146	0x3a043797	0.0005043684
147	0x3a123e9d	0.0005578788
148	0x3a17afeb	0.00057864067
149	0x3a034162	0.0005006996
150	0x39c56d0a	0.00037656008
151	0x399bf3d6	0.00029745576
152	0x3937aa8c	0.00017515774
153	0xb80a6715	-3.2997767e-05
154	0xb8ee323d	-0.00011358082
155	0x39c0dc0e	0.00036785047
156	0x39aa34d4	0.00032464287
157	0x395d29d5	0.00021091786
158	0x37bd46df	2.2563558e-05
159	0xb8d85d71	-0.000103170874
160	0x39c3cf84	0.0003734791
161	0x39987107	0.0002907591
162	0x3955e4d8	0.00020398514
163	0x3837780b	4.37424e-05
164	0xb897b04f	-7.233081e-05
165	0x39b8f252	0.00035275758
166	0x39a4e56d	0.00031451453
167	0x39818fe9	0.0002471202
168	0x38c250e7	9.26571e-05
169	0xb7b62da6	-2.1717347e-05
170	0x39a490dc	0.00031388446
171	0x39a0c985	0.00030667722
172	0x398a8fc5	0.00026428528
173	0x39071e50	0.00012885896
174	0x3865cfed	5.47915e-05
175	0x39c89b47	0.00038262663
176	0x399b46be	0.0002961661
177	0x39356d45	0.00017302211
178	0x37aef53d	2.0856614e-05
179	0xb815b278	-3.569058e-05
180	0x39c9d9fc	0.00038500119
181	0x398e1aa8	0.0002710421
182	0x3934222e	0.0001717887
183	0x37c36386	2.3292156e-05
184	0xb7fa2da1	-2.982357e-05
185	0x39b98e65	0.00035392042
186	0x399ce03d	0.0002992171
187	0x394b1441	0.00019367134
188	0x38313369	4.2247968e-05
189	0xb7bde669	-2.2637849e-05
190	0x39af1688	0.00033395388
191	0x399e4706	0.00030189025
192	0x3966095c	0.00021937996
193	0x38d43aea	0.00010119921
194	0x381a0fac	3.6731057e-05
195	0x39bb8e11	0.00035773267
196	0x39b76bf6	0.00034984917
197	0x39976a4b	0.0002888016
198	0x3954a71f	0.00020280153
199	0x3925072a	0.00015738295
200	0x3a1c35eb	0.0005958962
201	0x39b1c5e6	0.00033907517
202	0x39143efe	0.00014137846
203	0x36a00cdd	4.769869e-06
204	0xb868fa59	-5.5546265e-05
205	0x3a16c4bd	0.0005751362
206	0x39a1004d	0.00030708537
207	0x38fefe01	0.00012158976
208	0x37bb719b	2.2345039e-05
209	0xb769172d	-1.3893278e-05
210	0x3a083bb1	0.0005196883
211	0x39999e7b	0.0002930051
212	0x391c0de4	0.00014882494
213	0x389782b0	7.2245835e-05
214	0x3870fdfc	5.7457e-05
215	0x3a0eeb30	0.0005451916
216	0x39b27f0c	0.00034045463
217	0x3959def7	0.00020777794
218	0x39032bee	0.00012509499
219	0x38f0409e	0.00011456128
220	0x39d91565	0.00041405405
221	0x398b1116	0.00026524876
222	0x391bf8a1	0.00014874573
223	0x38d15ee5	9.983572e-05
224	0x38857798	6.36421e-05
225	0x3a485fb1	0.00076436537
226	0x39d3d8a5	0.0004040647
227	0x38e57b33	0.000109425186
228	0xb88da1b3	-6.753523e-05
229	0xb92f0c22	-0.0001669382
230	0x3a369f42	0.000696648
231	0x39be86e5	0.00036340128
232	0x38d3841d	0.00010085872
233	0xb87ed647	-6.075788e-05
234	0xb9094f01	-0.0001309477
235	0x3a2bdf42	0.00065564003
236	0x39b7818d	0.00035001003
237	0x38de063e	0.000105869476
238	0xb823032c	-3.8865182e-05
239	0xb8dc5f88	-0.000105082116
240	0x3a250ed1	0.00062964583
241	0x39c05e66	0.00036691426
242	0x3936011d	0.00017357287
243	0x3886d67c	6.429569e-05
244	0xb6142ed5	-2.2080978e-06
245	0x3a048059	0.00050545257
246	0x3990607e	0.00027537713
247	0x38f15b31	0.00011508761
248	0x36c46695	5.8531973e-06
249	0xb83102c3	-4.220266e-05
250	0xb93844d7	-0.00017573252
251	0xb934d295	-0.00017244586
252	0xb94290ce	-0.00018555226
253	0xb95510df	-0.00020319548
254	0xb9681419	-0.00022132731
255	0xb903ed7d	-0.00012581605
