results/2BS/T_1/L_500/seed5/model_best.pth.tar (torch_old, 395614 bytes, 22 tensors)

layer1.conv.weight f4 [32, 2, 5, 5]
000000 12 21 3d bc df cb aa 3d 97 b2 18 bd fe a6 0a bd
       -0.011543529 0.083396666 -0.03727969 -0.033850662
000010 cc 71 51 3c 7d 71 bc bd d6 0f 10 bd ac 0c 20 bc
       0.012783479 -0.09201334 -0.035171352 -0.009768646
000020 73 c2 5c bc 48 a0 be 3b 17 9f d9 3d fe 22 0e 3d
       -0.013474095 0.005817447 0.10626047 0.03470134
000030 b5 83 89 39 18 02 41 bd de 2d f7 3c 17 df 1e 3d
       0.00026228806 -0.047121137 0.030173238 0.038786974
000040 3c 86 77 bd e2 83 82 3d 2d d9 74 3d 90 48 d7 bc
       -0.06043075 0.06372811 0.059777427 -0.026279718
000050 9b 38 52 3b ca f9 b7 3c d5 3c 89 3d 36 c9 1e bd
       0.0032077197 0.022457976 0.06701056 -0.03876611
000060 8e d5 cb bc 68 39 ba bc f6 17 a1 bc f4 32 ad 3c
       -0.024882104 -0.022732452 -0.019664746 0.02114246
000070 e9 ed 14 bd 03 49 15 3c 54 07 25 bd e9 22 b2 bd
       -0.0363597 0.009111646 -0.04029019 -0.08698065
000080 a5 d3 7e bd 80 8c 05 bd a3 5b 39 3d 28 73 d6 ba
       -0.06221356 -0.032604694 0.045253407 -0.0016361224
000090 45 e9 4f bc d8 e8 a7 3d 4e 1c 24 bc 55 47 25 3d
       -0.012689893 0.08198708 -0.010016514 0.04035123
0000a0 d5 21 02 bd 08 bb a6 bc 3e 0c 5c 3d 21 50 86 3d
       -0.031770546 -0.020352855 0.053722613 0.06558252
0000b0 6d f6 6c 3c 6a 3f 0a 3d eb 74 90 bc 37 40 a8 3c
       0.014463049 0.033751883 -0.017633876 0.020538433
0000c0 02 73 54 3c db 2d 0e 3d f0 ae f2 3d 55 65 ab 3c
       0.012966873 0.0347117 0.11849773 0.020922342
0000d0 a6 e8 13 bb e7 ee 42 3b 3b ec 5a bd 9f 88 23 bc
       -0.002256909 0.0029744448 -0.053447943 -0.0099813035
0000e0 89 f8 8b 3d 6f c7 98 bb 95 fc a8 3c eb 70 d3 3a
       0.06834514 -0.004662446 0.020628253 0.0016131675
0000f0 b6 9d fa bc 21 8c 71 bd 01 b7 a4 bc 95 b3 61 bd
       -0.03059278 -0.058971528 -0.020106794 -0.055102903
000100 8a d9 0d bc 8b 8c 0a 3d 2f 9e 86 3d 6c 49 db 3b
       -0.008657822 0.03382544 0.0657314 0.006692102
000110 06 de 41 bd 10 cd ac bc c4 af 66 bd 4b 9b e6 3c
       -0.04733088 -0.021093875 -0.056319967 0.028150221
000120 ad 54 5e bd 83 88 65 3d fc 34 81 bd a6 38 18 bc
       -0.054279972 0.05603839 -0.06308934 -0.00929085
000130 3f f4 ee 3b 87 99 ef bb 7d ef d9 3c 0f 95 d7 bc
       0.0072923 -0.007312003 0.026603455 -0.026316194
000140 70 a6 01 bd 8a ce c3 3c 86 e0 3c bd 6d 2a e7 bc
       -0.031652868 0.023902196 -0.04611256 -0.028218472
000150 98 e8 82 bb 6c fa 65 bd 31 6c bf bd 22 8d 9d 3b
       -0.0039950125 -0.056147024 -0.09346808 0.004808084
000160 98 58 20 bc d1 be 45 bd 4e 43 a6 bc 28 9e 09 bc
       -0.009786747 -0.04827768 -0.020295765 -0.008399524
000170 12 44 de bd 4f e4 10 3d 48 02 39 bc a7 64 ec 3c
       -0.10852827 0.035373982 -0.011292048 0.028856589
000180 a7 7f 40 bc a9 16 fc bc 74 c3 35 3a a2 0d 11 3d
       -0.011749185 -0.030772524 0.0006933727 0.035413392
000190 63 c4 77 ba f9 55 16 bd 9b 93 a2 bd 42 16 b1 bc
       -0.0009451566 -0.036703084 -0.0793831 -0.021617059
0001a0 91 16 4b bd 19 78 2d bd 71 b7 62 bd 71 3c c9 3c
       -0.049582068 -0.042350862 -0.055350725 0.024564954
0001b0 df 25 a2 bc 77 d5 da 3c df b3 bb bb 55 08 8c 3d
       -0.019793449 0.026713116 -0.0057282294 0.06837527
0001c0 44 87 70 3c 05 a9 41 bd 21 2a 19 bd de 03 cb 3b
       0.014680687 -0.04728033 -0.037393693 0.0061955294
0001d0 2f c0 ed 3c 6b 49 ed bc 11 c7 ad bd 01 5f b5 bd
       0.029022304 -0.028965672 -0.084852345 -0.08856011
0001e0 d7 68 d3 bd d7 f1 7d bd 92 86 ab b9 c0 16 21 bd
       -0.10322731 -0.061998215 -0.00032715924 -0.039328337
0001f0 dc d3 95 bb dc 0e 25 3d 00 93 04 bc 2b 12 0a 3d
       -0.0045723747 0.040297374 -0.008091688 0.033708733
000200 57 d6 1d ba 93 14 d3 bd 0e 4e d8 bd 68 c0 4f 3d
       -0.0006021014 -0.103066586 -0.10561763 0.050720602
000210 1e e3 8e 3c 40 5d 86 bd 97 35 27 3d 23 ac 6d 3d
       0.017442282 -0.06560755 0.04082259 0.05802549
000220 78 d8 5b 3c fd b5 24 3d e5 e2 00 3b 1d c8 6b bc
       0.013418309 0.04021262 0.001966649 -0.014390972
000230 c7 d6 ba 3a 9d 7c ce bd 6e 09 31 3b b0 ba bf bb
       0.0014254682 -0.10082362 0.0027013677 -0.0058511123
000240 c2 f7 26 3c bf 71 8e bd 4f 92 75 3c 2a 7d 80 bc
       0.010190906 -0.06955289 0.014988496 -0.015684683
000250 de c1 08 3d 41 a6 92 3c f1 a3 3d bd 13 c6 4b 3d
       0.03338801 0.017901542 -0.046298925 0.049749445
000260 f9 a1 7d bc 33 b1 38 3d 78 5f 52 bd 5d 85 90 bd
       -0.015480512 0.045090865 -0.051360577 -0.07056687
000270 0e 47 76 3d 59 22 97 3c e8 ce d0 ba 91 6e 07 3d
       0.060126357 0.018448995 -0.0015930803 0.03306443
000280 11 fc a4 3d 95 d8 ad bc ae 6e 97 3d 70 65 d9 3d
       0.0805589 -0.021221438 0.07394157 0.10615051
000290 ce 48 db 3d 2d 32 bc bc 9d 35 95 bd 20 a6 5d bd
       0.10707246 -0.022973144 -0.072856165 -0.054113507
0002a0 2d 6d 4a 3d 64 63 80 3c e8 da 8b bc 20 07 11 bd
       0.049420524 0.015672393 -0.017072156 -0.035407186
0002b0 74 60 14 3d 7d f2 5f 3d 30 ac 33 bd 64 2d cb 3c
       0.036224797 0.054674614 -0.043865383 0.024801917
0002c0 e4 ec b7 bd 0a cb 11 be 6a a6 e5 3b 70 da 9b 3d
       -0.0898073 -0.1423761 0.0070083635 0.07610023
0002d0 17 ac bc 3b 87 a9 64 3b c5 a3 21 bd eb a0 bf bc
       0.0057578194 0.0034891085 -0.039462823 -0.023392161
0002e0 0a a0 b9 3b 93 c1 28 be b4 c7 3c 3c 64 c7 75 bc
       0.00566483 -0.16480093 0.011522222 -0.015001152
0002f0 9f 66 a1 3b c7 33 75 bd 7b 0d 00 3d fe 8c 34 3c
       0.0049255635 -0.05986383 0.031262856 0.011019943
000300 9a e9 06 3c 87 e3 3e bd 2e c6 b2 bc e9 5c f6 bb
       0.008234406 -0.046603706 -0.021823015 -0.0075184
000310 23 9a e1 bc b9 5f 19 3d 98 5b 25 3d 70 1a 1d 3d
       -0.027539318 0.037444804 0.040370554 0.03835529
000320 25 e4 9a 3d 26 9e fe 3c 71 a4 11 3e e4 63 d2 3c
       0.07563046 0.03108127 0.14222886 0.025682397
000330 a5 23 0a 3e ba 83 86 3d 69 32 00 bd 11 60 4e 3c
       0.1349016 0.065680936 -0.031298075 0.012596146
000340 80 05 80 3d 76 f1 8e 3d ce 22 13 bc 46 a6 61 bb
       0.06251049 0.06979649 -0.008980466 -0.0034431382
000350 38 27 48 3d 57 e2 ba bc 30 43 49 3c 29 77 d4 bb
       0.048865527 -0.022813005 0.012284085 -0.0064839316
000360 f6 56 0a 3c dc a6 09 3e 22 a3 4e bd 9e a5 10 3d
       0.008443585 0.13442558 -0.050448544 0.035314195
000370 c7 b3 af 3a 12 b2 3b bd 67 3a 46 3d 62 cf fe 3d
       0.0013405018 -0.045824118 0.04839554 0.12441899
000380 ed f5 41 3d 88 23 d7 3d f6 3f 2a bc 37 c9 bd bc
       0.047353674 0.10504824 -0.010391226 -0.023167236
000390 4b 3c e0 bd 96 64 0f bd ca 07 34 3c 28 a8 aa bc
       -0.10949 -0.035008036 0.010988185 -0.020832136
0003a0 0f 1f 1e bc 2a 04 78 3d cb 14 9e bd 6d c4 40 3d
       -0.00965096 0.060550846 -0.0771881 0.047062326
0003b0 82 7d 89 bd 02 25 14 bd 45 7f 69 bd 12 1a 92 bd
       -0.06713392 -0.036168106 -0.05700614 -0.07133879
0003c0 bf 6d f7 3c 42 fc 38 3c 5f 7d 1c ba 9c 74 75 3c
       0.030203698 0.011290612 -0.00059696095 0.014981415
0003d0 88 69 91 bd a9 c5 8b 3d 39 a6 ae bc 86 c8 ca bd
       -0.071002066 0.0682481 -0.021319496 -0.09901528
0003e0 22 c3 93 bc f6 6b 0d 3d 40 d2 e6 bd c3 e2 84 3d
       -0.018037383 0.034526788 -0.11270571 0.06488564
0003f0 ec fa b6 3c 50 8c 12 bd bb ab c0 bd bc 34 e7 3b
       0.022336446 -0.035778344 -0.09407755 0.007055847

layer1.conv.bias f4 [32]
000000 6f db 8c 3d 2d 97 09 3e 5d d0 b1 bd 9a 47 5e bd
       0.06877791 0.13436575 -0.0868232 -0.054267503
000010 ba cf 02 3d 2f a0 cd bb 62 98 ea bd de 59 e5 3d
       0.031936385 -0.006275199 -0.11454846 0.111987814
000020 14 70 57 3d d2 04 6d 3b 11 24 a9 3d 60 8d b6 bd
       0.05259712 0.0036166203 0.08258832 -0.08913684
000030 68 03 89 bd 33 f6 c3 bd 3a 9b ba 3d d1 47 7d 3d
       -0.06690103 -0.09568443 0.09111638 0.061836068
000040 3e e2 a7 3d 8f c3 8a 3d 03 99 02 3e e7 71 03 be
       0.08197449 0.06775581 0.12753682 -0.12836419
000050 05 cb ca 3c e0 b3 11 be 94 6e 0c 3e ab 53 f6 3c
       0.02475501 -0.14228773 0.13714057 0.030069193
000060 ef d2 bd bd 00 27 f5 3d ac 31 f7 bd 2f fb 80 bd
       -0.09268748 0.11970329 -0.12070021 -0.062979095
000070 18 02 e4 3b bd 66 f8 3d f4 94 c2 ba b1 06 da 3b
       0.0069582574 0.12128971 -0.0014845417 0.0066536297

layer2.conv1.weight f4 [32, 32, 3, 3]
000000 a3 0c 37 3d 0e 5c ad 3c 9b d3 a2 3b ae 1d 24 bd
       0.044689786 0.02116206 0.004969073 -0.040067367
000010 8b d4 14 3e 2f e9 ae 3c 9b 60 48 3d 5c 24 89 bd
       0.14534204 0.021351425 0.048920255 -0.06696388
000020 79 c7 64 3d 65 29 2a 3e 09 1f 04 bd d4 b6 c5 3d
       0.055854294 0.16617353 -0.03225616 0.09654012
000030 0a c7 cc bc a1 f3 8f bd aa 1f 3a bd 1e 9b 91 bd
       -0.024997253 -0.070288904 -0.045440353 -0.071096644
000040 ef 76 66 3c 16 4e 7d bc 4e c2 e3 3d 2c 5b c4 3c
       0.014066442 -0.015460512 0.11121045 0.023969255
000050 59 e8 09 bd 4c e9 25 3e a3 2c 8a 3d a9 51 83 3d
       -0.03366885 0.16202277 0.06746795 0.0641206
000060 e4 6e 3f 3d 9c 9a 0f 3a 04 2f 00 be 8d 09 b8 bd
       0.046736613 0.00054780557 -0.12517935 -0.08986197
000070 e8 a5 51 bd 27 5d 48 3d 08 e5 bb 3c c5 40 08 3d
       -0.05118361 0.048916962 0.022936359 0.033264894
000080 2c 97 1d 3e f3 34 42 3e f3 bf 0e bd 50 20 df 3d
       0.15389699 0.18965511 -0.034851026 0.10894835
000090 0d 7f 34 bd f1 16 92 bc 38 f5 6a 3b 2f 98 7e 3d
       -0.044066478 -0.017833205 0.0035851728 0.062156852
0000a0 04 9f ce 3d 79 b5 0e 3e 69 80 c6 ba 1f e9 13 bd
       0.100889236 0.13936414 -0.001514447 -0.036110993
0000b0 2f 52 1a 3d 35 dd 3b 3d 83 43 4f 3b c0 53 84 bd
       0.037676033 0.045865256 0.0031625933 -0.064612865
0000c0 8d 74 89 3c 36 3d 39 3d c5 61 98 3b c1 aa a9 bd
       0.016779209 0.04522439 0.004650327 -0.08284522
0000d0 6c f2 ec 3c 1e 22 4c bd 46 45 48 be 62 2b bd bd
       0.02892419 -0.049837224 -0.19557676 -0.0923679
0000e0 f5 cb 05 bd 0b 58 ec bd 0c 8d 1c bd c0 b9 fd 3c
       -0.03266521 -0.1154023 -0.03822045 0.030972362
0000f0 7c 42 2b be 4d 21 d6 3c 7d 91 ea 3c 0e d1 9e 3d
       -0.1672458 0.026138926 0.028633827 0.07754718
000100 46 cc 8b bd de a5 fb bd f3 62 0a bd d9 6f 18 3e
       -0.068260714 -0.12287496 -0.03378577 0.14886416
000110 52 d2 51 3d c1 f8 94 bd d1 36 89 3d fd b5 1f 3e
       0.051225968 -0.072740085 0.066999085 0.15596767
000120 e5 68 2e 3d 02 90 79 bd d4 e0 38 bd 4e 49 18 3e
       0.042580504 -0.060928352 -0.045136288 0.14871714
000130 82 ea f1 3d 76 d3 6d bc 23 9f f5 3d 04 b3 bd bc
       0.11812307 -0.014515748 0.119932435 -0.02315665
000140 65 94 cd 3d ba cf 82 3d 99 c7 7a 3b 26 3e 00 3e
       0.1003807 0.06387277 0.0038265942 0.12523708
000150 79 5a f1 bd ab 0e 96 3b 35 f7 ca bd cc a3 1f be
       -0.117848344 0.0045793853 -0.09910432 -0.15589827
000160 ac e3 8d bd ca d6 b7 bc 4b 39 1a bd 8d 3a 3b bb
       -0.069281906 -0.022441287 -0.037652295 -0.0028568835
000170 d7 76 f4 3b d2 9b b6 bd 7b 3c f3 bd 4d 4b 10 bd
       0.007460456 -0.08916439 -0.1187677 -0.035228062
000180 8b 6f df bc 78 3c 88 bc e9 5c 1a be 2d 93 08 be
       -0.027274868 -0.016630396 -0.15074505 -0.13337393
000190 c0 72 b5 bd d6 73 b1 3d d0 54 cd 3c 98 63 67 ba
       -0.088597775 0.08664672 0.025064856 -0.00088267913
0001a0 be 97 07 3e ab 3d f6 bd 30 9b 36 3e e1 97 95 bb
       0.13241479 -0.12023481 0.17832637 -0.0045652245
0001b0 6a 66 10 be 02 cd 7e bd ba 77 00 bd cd f2 96 3d
       -0.14101568 -0.06220723 -0.03136418 0.07370529
0001c0 65 eb 0d bc be be 92 3d 1e 86 1b bd f7 c7 d9 3d
       -0.008662079 0.071652874 -0.0379697 0.106338434
0001d0 52 e8 c5 bd bb b4 06 3d 71 20 d4 bc 9d 6f 97 bd
       -0.09663452 0.0328872 -0.025894376 -0.073943354
0001e0 db 8c 00 3e 2a 0c b5 bd bb 77 86 bc 0e 11 77 3d
       0.12553732 -0.08840211 -0.016414514 0.060319
0001f0 bb d5 0c bd 17 68 1f bd 2d 34 ee 3d 26 c6 2c bd
       -0.034383517 -0.038917627 0.116310455 -0.042181157
000200 82 85 d3 3b 09 9f c1 3d 61 b6 19 3c b6 3e 03 bd
       0.0064551244 0.09454162 0.009381861 -0.032042228
000210 da c0 25 3e 9d 1e 03 3d 3f 8b cc 3d 71 39 9a 3d
       0.16186848 0.032011617 0.099874966 0.07530487
000220 93 4c c1 bd 01 af 1a 3d c7 c1 78 3d de dc b5 3c
       -0.094384335 0.037764553 0.060731675 0.022200044
000230 d1 a5 60 bd 46 21 3d 3d d3 26 83 3b 7c 23 94 bd
       -0.054845635 0.04617431 0.004002431 -0.072333306
000240 b9 68 57 3d 9c de 35 be b9 d2 b9 3d 92 2f a8 3b
       0.052590106 -0.177607 0.09073395 0.005132624
000250 d9 6c 9a bd 4a d6 af bd 48 da 12 be c5 17 00 bd
       -0.07540292 -0.08585794 -0.1434108 -0.03127267
000260 03 e9 4d 3d 2e bc d0 3c 3e 7c c6 3c a7 8b 29 bd
       0.050271045 0.025480356 0.024229165 -0.04139295
000270 42 a7 d8 bc 24 a2 95 bc 7a c5 34 3d 8e 1a c2 3d
       -0.026446942 -0.018265791 0.04413364 0.09477721
000280 cd 2d f2 3d f4 ee 1d be df aa c9 bc da dd cd 3d
       0.11825142 -0.15423185 -0.02461761 0.100520805
000290 5f c1 bc bc 60 3a 1e bb 21 ea 55 bc c1 70 66 3d
       -0.023041425 -0.002414368 -0.013056309 0.056259874
0002a0 57 5d e9 3d 89 71 c2 bc 52 6b a0 bd e5 4a 89 3d
       0.11394756 -0.023735778 -0.0783297 0.06703738
0002b0 92 98 13 3c bc 80 fa bd 61 d1 7a bb ee 22 9e bd
       0.009008544 -0.122315854 -0.0038271772 -0.07721506
0002c0 d0 ad 01 3b d0 56 e8 bb ba e4 64 3d 1d 44 8e bb
       0.0019787438 -0.007090427 0.055882193 -0.004341616
0002d0 6c e8 cc 3d b0 15 83 bc 83 c7 be 3d 2e 3b 25 3a
       0.100052685 -0.016001552 0.093153976 0.0006303069
0002e0 46 64 f6 3d e8 db 11 be d4 05 63 3d 4f 27 27 be
       0.120308444 -0.14244044 0.05542548 -0.16323589
0002f0 92 ab 3d 3d 86 23 5f bd ae 87 31 bd 68 8f 5a 3a
       0.0463062 -0.054477237 -0.043342285 0.0008337409
000300 be e7 90 3d 9a 21 40 bd 4e 06 ec bc 52 a0 5a bd
       0.07075451 -0.046907045 -0.0288116 -0.05337555
000310 31 16 d2 bc 32 d1 ab bd 40 6f 08 be 67 9c 8e 3d
       -0.025645347 -0.0838951 -0.13323689 0.06963425
000320 68 99 74 3d 20 9e d5 3d 2a b1 30 3d cd a4 c1 3d
       0.059716612 0.104305506 0.043137707 0.094552614
000330 17 93 9a 3d 06 57 97 bd 89 1e 07 3d a0 6f 9e 3b
       0.075475864 -0.07389645 0.032988105 0.004835084
000340 ae 63 97 3d 33 4a c1 3c 16 a5 f1 3c ee 82 42 bd
       0.07392059 0.023594951 0.029497664 -0.047488146
000350 88 3d 96 3d ea 22 3f bd 80 08 96 3d 65 b7 66 3d
       0.07335955 -0.046664156 0.0732584 0.056327242
000360 cc b6 ae bc 73 a2 62 3b 9e e3 e0 bd 4e 3c 93 bd
       -0.021327399 0.003458169 -0.109809145 -0.071892366
000370 3c e9 1d 3d e9 4e 3a bd 1d 56 14 3e 1a 49 8e 3c
       0.038552508 -0.04548541 0.14485975 0.017368842
000380 bd c6 e5 3d db 6c 55 bd 33 bb 4a 3c cc 7d c4 bc
       0.11219547 -0.052105766 0.012373733 -0.023985766
000390 6f 3b 0c bd 66 4a 65 3d 7d f9 11 3e ff 73 ad 3b
       -0.034236368 0.055979155 0.14255328 0.005293369
0003a0 08 30 6b bd d9 ff ae bc 25 55 8c 3d 23 97 c4 bd
       -0.057418853 -0.021362232 0.068521775 -0.095991395
0003b0 01 2a da 3d 97 09 ec 3d 81 55 c9 3c 70 33 c0 3d
       0.10652543 0.115252666 0.024576904 0.09384811
0003c0 9c 00 4b 3c fa a5 57 bc 0f 1a 27 bd d5 4f 2a bd
       0.012390282 -0.0131621305 -0.040796336 -0.04158004
0003d0 fc b5 8f 3d 69 8a a3 bd 20 eb 8e 3a 39 ff 48 bd
       0.07017133 -0.07985384 0.0010903813 -0.049071524
0003e0 45 46 39 bd d1 45 c2 3d d6 23 53 3d 79 52 bb bd
       -0.04523303 0.09485973 0.051547848 -0.0914659
0003f0 57 1a 34 3e 26 be 3d be dc a0 d7 3c 20 db d1 bd
       0.17588173 -0.18529567 0.02632182 -0.10246873

layer2.conv1.bias f4 [32]
000000 02 35 f7 3b ce 74 6c 3d d5 50 0f 3c 78 cd 35 bc
       0.007544161 0.05772858 0.008747299 -0.011096351
000010 ec 65 de bc 91 a8 48 bd ca 7b 4c bc 2f c8 ad 3c
       -0.02714821 -0.048988882 -0.0124806855 0.021213619
000020 a1 a9 61 3d f6 2f 3d 3c a6 d0 61 3d 4a 57 eb bc
       0.05509341 0.011547079 0.055130623 -0.028728146
000030 a7 3e 4d 3d cd 0d 82 3c d5 fc 44 3c 18 c8 f9 3c
       0.050108578 0.015875721 0.0120231705 0.03049092
000040 86 60 27 bd 70 e3 2d bd 1d ba 15 bc 63 40 68 bd
       -0.040863536 -0.04245323 -0.009138611 -0.05670203
000050 b2 f9 60 3d bb 51 04 3d dc 30 03 bd 0e 48 eb bc
       0.054925628 0.032304507 -0.032029018 -0.028720882
000060 ea 44 a7 bc 5c 96 63 3b 2f 49 d1 3c 2e b2 25 3c
       -0.020418603 0.0034727072 0.025547592 0.010113282
000070 cc c5 f3 bc 24 ee 6d bd 61 10 7b bc 29 65 5b bd
       -0.029757403 -0.058088437 -0.015323729 -0.05356327

layer2.conv2.weight f4 [64, 32, 3, 3]
000000 5d a7 8a bd e4 fa 13 3e a7 a5 87 bd 79 93 00 bd
       -0.06770203 0.14451176 -0.066233926 -0.03139064
000010 bb 77 2a 3d 70 b0 09 bd 05 b6 4b bd 35 03 a7 bc
       0.04161809 -0.03361553 -0.049734134 -0.020387271
000020 cb 87 d2 bc 1a 52 05 3d 13 76 99 bd 73 5e 28 3b
       -0.025699517 0.032549 -0.07493224 0.0025691062
000030 4b 1f 04 3d f2 57 c8 3c 21 fa b3 bc 39 ff 3c bd
       0.032256406 0.024455998 -0.021969857 -0.046141837
000040 c6 ce bd bb 86 a6 86 3d 87 9a ce bc 0d 5a 34 3c
       -0.0057924716 0.065747306 -0.025220169 0.011007798
000050 f0 05 4d bd d8 b5 c7 3c 12 9e 31 bd a7 8d cd bc
       -0.05005449 0.024378702 -0.04336364 -0.02509196
000060 d3 95 00 bd 2e ee a0 bb 58 a9 68 3d 25 b2 ab bd
       -0.031392884 -0.0049112057 0.056802124 -0.08383588
000070 47 50 4e bc 5a 56 df 3c 50 0e 12 bd 6c bd a0 3b
       -0.012592382 0.027262855 -0.03565818 0.0049053933
000080 19 57 c1 bd 21 ab e9 3c fd fe 58 3c 44 eb 8b bd
       -0.09440441 0.028523983 0.013244388 -0.06831983
000090 b5 91 1a bd c3 6b b9 bd 9b a4 53 3d 49 b2 f4 ba
       -0.037736613 -0.09053757 0.051670652 -0.0018668856
0000a0 fa 3d e1 bc b4 6a cd bc 92 af d6 3d 77 b7 73 bd
       -0.027495373 -0.025075294 0.10482706 -0.059501138
0000b0 7e 8a 10 bb 7e 48 f0 bd f5 b7 2b bd 71 b8 da 3c
       -0.0022055204 -0.11732577 -0.041923482 0.026699277
0000c0 b8 c9 02 be c2 e7 bc 3d 88 50 e2 bb c4 ff 12 3b
       -0.12772262 0.09223892 -0.0069065727 0.002243028
0000d0 96 75 82 bd 1b 0f d5 bc fd 3b 3c bd 0e 65 63 bc
       -0.06370084 -0.02600818 -0.045955647 -0.013879074
0000e0 a5 1c ce 3d 81 fc d6 3b d5 fa 7a bc 83 31 36 3e
       0.10064057 0.0065608625 -0.015318592 0.17792325
0000f0 a8 ab 26 bd c9 d7 d1 3b e2 9a 61 3c de 18 23 bd
       -0.040691048 0.0064038974 0.013769837 -0.039818637
000100 a7 a9 6f 3d b4 2f cf bc d3 90 08 bd fb 8a 29 3d
       0.058511402 -0.025291301 -0.03334124 0.041392308
000110 e8 77 0b 3e 3e 6c 85 3b be 33 56 3d c9 db eb bb
       0.1361996 0.0040717414 0.05229544 -0.0071978313
000120 b9 b4 b8 b8 63 0f f3 bc 30 b0 65 bd 28 1e fa bc
       -8.807466e-05 -0.029670423 -0.05607623 -0.030531958
000130 3d a1 3c bd 74 ff 48 3d 43 b4 53 3b 3b 15 4a 3b
       -0.046052206 0.049071744 0.003230349 0.0030835408
000140 5a ea ce bd 48 6c ff 3b a3 5f 82 3d 7d e9 1e bd
       -0.10103293 0.0077948906 0.063658975 -0.03879689
000150 c3 dc 89 bd b0 6e b3 bd e0 b7 8c 3d cd 85 12 3c
       -0.0673156 -0.08761346 0.06871009 0.008943033
000160 8d 9c fd bc 7e 26 c5 bc a1 dc bf bd 91 e9 52 3d
       -0.030958438 -0.024066206 -0.093682535 0.051492278
000170 6a e3 1f bd 26 4b a9 3b 91 bb 7e bd d7 cd a2 bc
       -0.03903524 0.005166429 -0.062190596 -0.019873543
000180 c7 0f cf 3c bc 4f d6 bc c3 a2 b2 bb 0a fe e4 3d
       0.025276078 -0.026161067 -0.0054515316 0.111812666
000190 5b 9d b0 3c e4 23 c4 3c ab 6b 2f 3c 0f 4e 90 bd
       0.021559408 0.023942895 0.010706822 -0.070461385
0001a0 17 9d eb bc 06 65 95 3d a9 51 2f 3d a5 28 0c bd
       -0.02876143 0.07294659 0.042802487 -0.03421845
0001b0 12 93 fb 3b dd 35 be bc b5 6e 52 bd 2c 21 5b 3c
       0.0076774443 -0.023219043 -0.05137511 0.013374608
0001c0 7c 00 76 3d 94 9e b1 bd ff 98 14 bc fd 5b 7c bd
       0.060059056 -0.086728245 -0.00906968 -0.061611164
0001d0 19 4a 88 3d 10 c5 f5 bb 9b da 65 bc ca 4f 30 3d
       0.06654758 -0.0075002983 -0.01402917 0.043044843
0001e0 ef b6 3a 3d b3 3b 6f bc 0a 80 b0 bb af 13 1e bc
       0.045584615 -0.014601636 -0.005386357 -0.009648248
0001f0 41 84 11 bc cb cc e9 3c e2 07 e1 bc 86 46 72 bd
       -0.008881629 0.028540036 -0.02746958 -0.059149288
000200 d8 2f 96 bb d9 bd 5a 3d 8e 97 b7 3c 6d f9 7d 3d
       -0.00458334 0.05340371 0.022411134 0.06200545
000210 37 10 59 bd e6 b9 d1 bd 35 90 d7 3c 6c 41 23 3d
       -0.05299398 -0.102405354 0.02631388 0.039857313
000220 e1 2c 7b bd e3 55 04 bc 88 90 93 bc 31 26 05 bc
       -0.061322097 -0.008077118 -0.018013254 -0.008126781
000230 b8 82 ad 3c e6 d1 83 bd 01 8a a2 3c 29 b6 d0 bc
       0.021180496 -0.06436519 0.019841196 -0.025477486
000240 38 3d 1f bd 96 ac 22 bc 55 8d 8d 3d a3 b7 d7 3c
       -0.038876742 -0.009928843 0.069117226 0.026332682
000250 76 53 46 3c 11 70 6e bb 40 7c ef ba 1e a0 3f 3d
       0.01210486 -0.0036382715 -0.0018271282 0.04678356
000260 f9 ca 5f 3d 15 be fb 3c 56 ad a2 3d 21 74 95 bd
       0.05463693 0.030730287 0.079432175 -0.072975405
000270 26 92 31 bc dc a8 c9 3c 6b 17 da bd 42 e2 4a 3d
       -0.010838067 0.024616651 -0.10648998 0.049532183
000280 4a 21 0f bd 9e a4 b8 bc ac c5 05 bd 64 57 5f bd
       -0.034943856 -0.022539433 -0.032659218 -0.0545267
000290 92 47 a2 bc 9d ed 53 bd 06 94 68 bd d3 27 b8 bb
       -0.019809518 -0.051740278 -0.05678179 -0.005619982
0002a0 96 f2 87 bc b3 c5 3c bc 79 44 f8 bd 1e 87 10 3d
       -0.016595166 -0.011521745 -0.12122435 0.035285108
0002b0 03 b4 b4 bd 68 d7 c8 3b 6b 41 db 3c 44 7e e5 bc
       -0.08823397 0.006129194 0.026764592 -0.02801431
0002c0 78 72 6a 3d 44 b5 1f 3a b4 42 56 bd 78 16 06 3d
       0.057238072 0.00060923793 -0.052309707 0.03273627
0002d0 a8 3a 75 3d 98 29 c1 bc 57 e5 6b 3d 44 c9 89 3c
       0.059870392 -0.023579404 0.057591762 0.016819604
0002e0 b4 1d c6 3c 4f 2d ad bd 4e 57 63 bd 35 de bd 3d
       0.024184085 -0.084559076 -0.055503182 0.09270898
0002f0 18 29 9c bc 44 45 f9 3c 19 9e 95 bd 0f 80 ec 3c
       -0.019062564 0.030428536 -0.07305545 0.028869657
000300 6a 7f 0c 3d 67 21 35 bd 8c 2a 3f bc c5 09 8a 3c
       0.0343012 -0.044221308 -0.011667859 0.016850362
000310 90 99 d2 bc ea fd e6 3b 9c 07 99 3d 73 cb 6a 3d
       -0.02570799 0.007049312 0.074721545 0.05732293
000320 79 cc ef 3b e1 00 af bc ef 4e f6 bd d3 42 47 3d
       0.007318076 -0.021362724 -0.12026774 0.048647713
000330 8c 44 31 3d 8a e9 28 3d f0 d7 69 bd f3 47 aa bb
       0.043278262 0.041238345 -0.0570907 -0.0051965653
000340 7e 0e d4 3d f9 83 45 3c cc 54 e7 bc 00 94 ee bb
       0.10354327 0.0120553905 -0.028238676 -0.0072808266
000350 62 3f 96 3c 2b 78 4a bd 58 91 37 3b 32 a8 01 be
       0.01834077 -0.049431007 0.0028010216 -0.12661818
000360 e1 e0 3d bd 89 54 31 bc 6c 15 81 bd 3f 3a ab 3c
       -0.04635704 -0.010823377 -0.06302914 0.020901797
000370 d9 ba a0 3c 10 60 32 bd bc 2d 29 3c ff c3 16 bd
       0.019620346 -0.043548644 0.010325845 -0.03680801
000380 bc 7c d8 3d 08 04 e3 3d 9a 99 e1 3c 61 9b 81 bd
       0.10570666 0.11084753 0.027539063 -0.06328464
000390 8b 4d 0d 3b dc 9f 1e be 40 43 a8 bd 57 f3 03 bd
       0.0021561112 -0.15490669 -0.08215952 -0.03221449
0003a0 97 d1 a4 bb ca f8 d1 bc 5b c4 99 3d 28 07 ba 3d
       -0.005029868 -0.025631327 0.07508155 0.09083396
0003b0 c2 32 49 bd 1b c7 0f 3d 96 af 80 3c 1f 64 27 bd
       -0.049120672 0.03510199 0.015708726 -0.040866967
0003c0 cf 11 c9 bd 72 0c 91 3d 44 1b 70 bd 96 be b7 bc
       -0.0981785 0.07082452 -0.058619753 -0.022429746
0003d0 95 58 f5 bc 28 8f f5 3c e8 0c 91 bd 14 02 3a bc
       -0.029949466 0.029975489 -0.0708254 -0.0113530345
0003e0 1c 68 64 3c 93 24 bd bd 46 52 c6 3c a8 15 19 bd
       0.013940837 -0.092354916 0.024209153 -0.03737417
0003f0 84 ff f6 bc a9 e7 e8 bb 8a b3 8a 3d e4 bf 8a 3d
       -0.030151136 -0.007107694 0.067725256 0.067748815

layer2.conv2.bias f4 [64]
000000 4a 4e df bc 88 e5 49 bd 3a 86 2c bd f5 51 de bb
       -0.02725901 -0.049291164 -0.042120196 -0.0067846724
000010 eb a6 3a 3c 89 50 2d 3c 1b 36 a2 ba 17 6d c2 3b
       0.011392335 0.010578283 -0.0012375744 0.0059334147
000020 82 63 53 bd 3c 71 50 3d 5c 81 4b bd c1 51 21 bd
       -0.05160857 0.05088924 -0.049683914 -0.039384607
000030 83 0b eb 3a fd f8 91 3c 51 46 0a 3d 82 58 25 3d
       0.0017932508 0.017818922 0.033758465 0.04036761
000040 65 f3 40 bd dc fc 38 bd 87 f9 00 3d 51 7e cb 3b
       -0.04710712 -0.04516302 0.031487968 0.0062101264
000050 28 df 03 3d bf 1e da bc b6 3e 8e 3b c6 94 00 3d
       0.03219524 -0.026625989 0.004340972 0.03139188
000060 78 5e 0b 3c 0f 33 de 38 6d 91 6a 3d 16 5b 1b 3d
       0.00850641 0.00010595295 0.057267595 0.037928663
000070 cc bb 7d 3d 7f 64 87 bc 92 73 30 3d 70 03 54 3d
       0.061946675 -0.016527412 0.043078966 0.05176109
000080 b8 4b 42 bb 33 39 77 3d ca cf 33 3d 93 0e 65 bd
       -0.0029647183 0.060357284 0.043899335 -0.055922102
000090 32 b6 b0 bc f3 b1 0e 3d 0c 80 09 3b 17 16 22 bd
       -0.021571252 0.034837674 0.0020980863 -0.039571848
0000a0 22 10 4e 3d aa 0d 41 bd 19 2c 7d bd 36 ef 64 3d
       0.050308354 -0.04713217 -0.061809633 0.05589219
0000b0 c5 75 2b bd 13 41 da bb bb 49 14 bc 83 52 06 3d
       -0.04186036 -0.0066605895 -0.009050782 0.032793533
0000c0 0e eb 1d 3d a4 fa d7 bb 6f 4b 38 3d 8a 6d 05 bd
       0.038554244 -0.006591158 0.044993814 -0.032575168
0000d0 f3 2f 29 bd 2f f3 4e 3b c0 6e 5e 3d 61 4f 4b 3c
       -0.041305494 0.0031578054 0.05430484 0.012409062
0000e0 5a 85 14 bd e5 b7 59 3d dd e2 14 3c 09 1e 24 bd
       -0.036259986 0.05315389 0.009087292 -0.040067706
0000f0 1a 0d 53 bb 50 45 94 3c b9 66 5d 3c 39 45 26 bd
       -0.0032203854 0.018099457 0.0135132605 -0.04059336

fc1.weight f4 [1, 3200]
000000 54 e5 86 28 b9 ae c5 3c cd 9b b5 3a e9 03 00 80
       1.4976444e-14 0.024131166 0.0013855636 -1.403e-42
000010 05 84 00 80 2e bf 01 80 f1 85 d1 bc 8c 6f c6 ba
       -4.736e-41 -1.60418e-40 -0.025576564 -0.0015139445
000020 97 8c 00 00 dc 40 01 00 39 1c 01 00 5e 02 b5 3c
       5.0434e-41 1.15103e-40 1.0196e-40 0.022095855
000030 2a 23 b3 3c 99 71 01 00 75 9b 04 2a b9 11 14 34
       0.021867353 1.32587e-40 1.177789e-13 1.3790022e-07
000040 63 8a 85 3d c0 8c 01 bc f9 f9 00 00 c3 00 db bc
       0.06520536 -0.007907093 8.9673e-41 -0.026733762
000050 51 2a 01 00 31 77 01 80 8e 10 01 00 b4 86 dd bc
       1.07016e-40 -1.34593e-40 9.7774e-41 -0.02704177
000060 0d cb a3 bd 7c 94 62 bc 3e cd 11 80 bf 0f 01 80
       -0.07997713 -0.013829347 -1.63483e-39 -9.7484e-41
000070 85 1d 4f 3a ae 40 81 bc d4 04 b7 36 79 1d 01 00
       0.0007900822 -0.015777912 5.454387e-06 1.02408e-40
000080 48 b5 3f 3b 9d 7b 84 bd fd 09 4f 3d 36 a8 65 3d
       0.002925234 -0.0646889 0.050546635 0.05606862
000090 ab 7d 00 80 93 71 d4 3b 52 c0 87 3c 09 d2 fd 3c
       -4.5081e-41 0.0064832657 0.016571198 0.030983942
0000a0 e8 1a d8 3b f2 87 07 bc ad 62 d2 bc 53 08 44 3c
       0.0065950043 -0.008272158 -0.025681818 0.011964875
0000b0 8d 07 81 3a cd 3c 94 3d 65 8d 7e 3c 6b 53 25 bb
       0.0009844169 0.07238159 0.015536641 -0.0025226723
0000c0 66 fc 19 bd 37 23 c5 bc e6 7e 01 00 09 32 00 00
       -0.03759422 -0.024064643 1.37358e-40 1.7949e-41
0000d0 80 54 00 00 fa cc 01 80 ab dd 01 80 ab 61 02 00
       3.0313e-41 -1.65367e-40 -1.71355e-40 2.18708e-40
0000e0 81 8e 01 80 ea 5d 02 00 41 8f 01 80 50 34 00 80
       -1.42956e-40 2.17361e-40 -1.43225e-40 -1.8766e-41
0000f0 08 7a 01 80 4d 5c 03 00 b5 38 b4 3c 83 2f 41 bd
       -1.35612e-40 3.08618e-40 0.021999696 -0.04716445
000100 39 63 8b bc ba 00 bb bb 54 1a 56 bc b9 4c 2b 3c
       -0.017015086 -0.0057068737 -0.013067801 0.010455304
000110 3c 4d 9e bc 72 c6 e0 bc 77 65 8b bc e5 4e 8c 3c
       -0.019323938 -0.027438376 -0.017016156 0.017127464
000120 81 50 a4 3c 82 25 85 bd b5 49 8d bd 77 15 87 3d
       0.020057919 -0.06501295 -0.06898824 0.06595891
000130 c6 77 94 3b 9b f0 0d 3c 32 a2 2b bc 73 b6 df 3c
       0.0045308797 0.008663322 -0.010475682 0.027308678
000140 fd a8 b6 3c 36 be 11 3d d8 c8 25 3d f5 88 83 3d
       0.022297377 0.03558179 0.040474743 0.06422607
000150 dd 4c aa 3c 04 e9 b7 3d 53 f2 4d bb 0d 8e cc 3c
       0.020788604 0.08979991 -0.0031424954 0.024970079
000160 35 e3 c5 bc 5a 37 1f 3c eb c1 f7 3a ac bc 54 3b
       -0.024156192 0.009717787 0.0018902397 0.003246109
000170 dd 62 87 3b a1 24 00 00 05 c7 b5 3d df a5 8f 3d
       0.0041316585 1.314e-41 0.088758506 0.07014059
000180 09 d4 65 bc 7f 44 e8 3a a0 b1 00 00 16 46 ab 3d
       -0.014027604 0.0017720609 6.372e-41 0.08362977
000190 fb 53 3d 3d 26 66 ab 3c fc 70 00 80 3e 32 92 bd
       0.04622267 0.020922732 -4.0531e-41 -0.07138489
0001a0 35 9a 69 3d 0c 85 96 bc 5b a9 52 3d 29 ca 00 00
       0.05703183 -0.018373989 0.05143104 7.2521e-41
0001b0 4d 2b 10 bd 28 84 f5 3b 2b b4 37 3c 38 49 3c bc
       -0.035197545 0.007492561 0.011212389 -0.011492066
0001c0 49 8e 01 80 fd 52 bc bc 06 5d 27 bd c5 90 59 3d
       -1.42878e-40 -0.02298879 -0.0408602 0.05311658
0001d0 62 18 0f 3d a2 51 3a 80 a4 c4 1d 3c 1e b8 ba 3b
       0.034935363 -5.355743e-39 0.009629402 0.005698218
0001e0 46 3b a6 3c 9f 16 10 3d f0 9c cb 3b 07 94 e0 bd
       0.020291936 0.035177823 0.006213777 -0.10965734
0001f0 c5 d8 0a 3d e1 e7 4a 3d d8 62 66 3d 1e e2 0c 3d
       0.033898134 0.049537543 0.05624661 0.03439533
000200 ae aa 1b bd fa 4a 1a 3d ea 67 44 bc a5 3f d1 3c
       -0.03800457 0.03766916 -0.011987666 0.025543043
000210 36 11 27 bc aa 91 a6 bd 97 df 3f 3c d9 1b ac bc
       -0.0101969745 -0.08133252 0.011711023 -0.021009373
000220 59 42 3f bc db e9 2b bd 0e 82 45 bd a5 32 2e 3a
       -0.011673533 -0.04197107 -0.048219733 0.000664512
000230 b9 6f ec bc 3c 6c 85 bc 7c 07 0c 3c ab 45 44 bd
       -0.028861867 -0.016286962 0.008546706 -0.047918003
000240 fa 10 e5 3c f4 e4 be bc 25 91 64 3d 3f 60 c2 bb
       0.027962197 -0.023302533 0.055802483 -0.0059318836
000250 be 99 69 3c 45 e6 7e 3c 40 6d f9 3b 7d a3 6c 3c
       0.014257846 0.01555783 0.0076119006 0.0144432755
000260 a9 e2 11 bd 70 93 48 bb f2 4f 01 00 0a 97 89 3d
       -0.03561655 -0.0030605458 1.20514e-40 0.067182615
000270 a4 e6 12 3c a4 b7 ce bc 96 37 9e 3c e8 28 01 80
       0.008966122 -0.025234051 0.019313615 -1.0651e-40
000280 14 c2 56 bb db 9e 58 bc fc 83 dc 3a 8e e1 d2 bc
       -0.0032769488 -0.013221468 0.0016824002 -0.025742318
000290 82 ee 1e 3d 3e 8c 4e bd 77 4d 87 bd b2 e4 6d bc
       0.038801678 -0.050426714 -0.06606572 -0.014519857
0002a0 4d 3d 23 3d dc fe 4c bb 9f 81 13 3d 5e d2 fd 3c
       0.039853383 -0.0031279838 0.03601229 0.0309841
0002b0 4e d2 4a bc ae 33 e7 3b 31 5b 41 3c d3 19 09 bd
       -0.012379242 0.0070557212 0.011801527 -0.033471894
0002c0 16 69 05 3c 9c 1a a6 bc f8 9f 7a 3b f0 3e 4b 3d
       0.00814273 -0.02027636 0.0038242321 0.04962057
0002d0 24 f4 b6 bc 3f 52 7f 3c 8a 22 26 3c 68 a2 35 3d
       -0.022333212 0.015583574 0.010140071 0.044344336
0002e0 0d 68 90 bd 2a 07 89 bd aa f3 5c 3d c0 b6 cd bb
       -0.07051096 -0.066908196 0.053943314 -0.006277889
0002f0 1c 35 19 3d 11 71 81 bc fd 12 da 3c 5c 89 1c 3d
       0.037404165 -0.015800985 0.026620382 0.038216934
000300 14 6a 27 bd 67 bf a1 b9 cd d6 c0 bb c6 e7 ca bc
       -0.04087265 -0.0003085092 -0.0058849812 -0.024768721
000310 53 77 9a 3c a5 5e 5d bc d3 ff 92 bc 13 76 27 bd
       0.018855726 -0.013511335 -0.017944252 -0.04088409
000320 4c c5 c2 b9 ca c3 c0 bc 1c 5f a7 bc 14 d4 e9 bb
       -0.0003714956 -0.02353086 -0.020431094 -0.0071358774
000330 12 18 17 bd c2 e5 05 3c 6d 05 84 3a 7e 1a a8 3c
       -0.03688819 0.008172454 0.0010072418 0.020520445
000340 49 21 21 bd f9 da 1f bc 51 c3 10 bb 5e 2c 16 3c
       -0.039338384 -0.009756797 -0.0022089074 0.009165851
000350 65 ea e0 3b 13 6b ab bc ed b9 68 bd 80 f7 86 bd
       0.0068638795 -0.02092508 -0.056817938 -0.06590176
000360 42 95 1b bc b7 3b c6 bc db ad 8f bd 17 b4 58 3d
       -0.009496035 -0.024198396 -0.07015582 0.052906122
000370 90 42 eb bc 45 a3 55 bc e6 63 09 3d f0 f4 54 3d
       -0.028718263 -0.013039415 0.033542536 0.051991403
000380 c1 ac b1 3c 33 91 a8 bd 00 ad 7a bd a6 6d cc bc
       0.02168882 -0.082308196 -0.061200142 -0.024954628
000390 db de 27 bd ae 3d 5f 3c 41 e7 d8 3c a7 ea 17 bd
       -0.040984016 0.013625545 0.026477458 -0.037089016
0003a0 84 99 b5 3c fa b8 38 3d ea 74 0f 3d 03 8f 1a 3b
       0.022167929 0.045098282 0.035023607 0.0023583777
0003b0 4a bb 95 3a 28 2b 04 3d ef 03 9d 3b 99 45 5e 3a
       0.0011423614 0.03226772 0.0047917287 0.0008478999
0003c0 17 0a 01 80 25 93 f4 2b 40 25 02 bc 02 76 09 bd
       -9.5455e-41 1.7378084e-12 -0.007943451 -0.033559807
0003d0 e9 58 4e bd 49 09 7e bc b1 bd d1 bc d6 de 14 bd
       -0.05037776 -0.015505143 -0.025603147 -0.036345325
0003e0 47 11 1f 3d b0 54 1c 3c 82 a7 1f bd f9 11 16 bd
       0.038834836 0.009541675 -0.038978107 -0.036638234
0003f0 ad 06 c2 3c 29 32 86 3c e3 56 49 bd c8 a8 ec 3b
       0.023684824 0.01638134 -0.049155127 0.0072222687

out.0.weight f4 [1, 3200]
000000 54 e5 86 28 b9 ae c5 3c cd 9b b5 3a e9 03 00 80
       1.4976444e-14 0.024131166 0.0013855636 -1.403e-42
000010 05 84 00 80 2e bf 01 80 f1 85 d1 bc 8c 6f c6 ba
       -4.736e-41 -1.60418e-40 -0.025576564 -0.0015139445
000020 97 8c 00 00 dc 40 01 00 39 1c 01 00 5e 02 b5 3c
       5.0434e-41 1.15103e-40 1.0196e-40 0.022095855
000030 2a 23 b3 3c 99 71 01 00 75 9b 04 2a b9 11 14 34
       0.021867353 1.32587e-40 1.177789e-13 1.3790022e-07
000040 63 8a 85 3d c0 8c 01 bc f9 f9 00 00 c3 00 db bc
       0.06520536 -0.007907093 8.9673e-41 -0.026733762
000050 51 2a 01 00 31 77 01 80 8e 10 01 00 b4 86 dd bc
       1.07016e-40 -1.34593e-40 9.7774e-41 -0.02704177
000060 0d cb a3 bd 7c 94 62 bc 3e cd 11 80 bf 0f 01 80
       -0.07997713 -0.013829347 -1.63483e-39 -9.7484e-41
000070 85 1d 4f 3a ae 40 81 bc d4 04 b7 36 79 1d 01 00
       0.0007900822 -0.015777912 5.454387e-06 1.02408e-40
000080 48 b5 3f 3b 9d 7b 84 bd fd 09 4f 3d 36 a8 65 3d
       0.002925234 -0.0646889 0.050546635 0.05606862
000090 ab 7d 00 80 93 71 d4 3b 52 c0 87 3c 09 d2 fd 3c
       -4.5081e-41 0.0064832657 0.016571198 0.030983942
0000a0 e8 1a d8 3b f2 87 07 bc ad 62 d2 bc 53 08 44 3c
       0.0065950043 -0.008272158 -0.025681818 0.011964875
0000b0 8d 07 81 3a cd 3c 94 3d 65 8d 7e 3c 6b 53 25 bb
       0.0009844169 0.07238159 0.015536641 -0.0025226723
0000c0 66 fc 19 bd 37 23 c5 bc e6 7e 01 00 09 32 00 00
       -0.03759422 -0.024064643 1.37358e-40 1.7949e-41
0000d0 80 54 00 00 fa cc 01 80 ab dd 01 80 ab 61 02 00
       3.0313e-41 -1.65367e-40 -1.71355e-40 2.18708e-40
0000e0 81 8e 01 80 ea 5d 02 00 41 8f 01 80 50 34 00 80
       -1.42956e-40 2.17361e-40 -1.43225e-40 -1.8766e-41
0000f0 08 7a 01 80 4d 5c 03 00 b5 38 b4 3c 83 2f 41 bd
       -1.35612e-40 3.08618e-40 0.021999696 -0.04716445
000100 39 63 8b bc ba 00 bb bb 54 1a 56 bc b9 4c 2b 3c
       -0.017015086 -0.0057068737 -0.013067801 0.010455304
000110 3c 4d 9e bc 72 c6 e0 bc 77 65 8b bc e5 4e 8c 3c
       -0.019323938 -0.027438376 -0.017016156 0.017127464
000120 81 50 a4 3c 82 25 85 bd b5 49 8d bd 77 15 87 3d
       0.020057919 -0.06501295 -0.06898824 0.06595891
000130 c6 77 94 3b 9b f0 0d 3c 32 a2 2b bc 73 b6 df 3c
       0.0045308797 0.008663322 -0.010475682 0.027308678
000140 fd a8 b6 3c 36 be 11 3d d8 c8 25 3d f5 88 83 3d
       0.022297377 0.03558179 0.040474743 0.06422607
000150 dd 4c aa 3c 04 e9 b7 3d 53 f2 4d bb 0d 8e cc 3c
       0.020788604 0.08979991 -0.0031424954 0.024970079
000160 35 e3 c5 bc 5a 37 1f 3c eb c1 f7 3a ac bc 54 3b
       -0.024156192 0.009717787 0.0018902397 0.003246109
000170 dd 62 87 3b a1 24 00 00 05 c7 b5 3d df a5 8f 3d
       0.0041316585 1.314e-41 0.088758506 0.07014059
000180 09 d4 65 bc 7f 44 e8 3a a0 b1 00 00 16 46 ab 3d
       -0.014027604 0.0017720609 6.372e-41 0.08362977
000190 fb 53 3d 3d 26 66 ab 3c fc 70 00 80 3e 32 92 bd
       0.04622267 0.020922732 -4.0531e-41 -0.07138489
0001a0 35 9a 69 3d 0c 85 96 bc 5b a9 52 3d 29 ca 00 00
       0.05703183 -0.018373989 0.05143104 7.2521e-41
0001b0 4d 2b 10 bd 28 84 f5 3b 2b b4 37 3c 38 49 3c bc
       -0.035197545 0.007492561 0.011212389 -0.011492066
0001c0 49 8e 01 80 fd 52 bc bc 06 5d 27 bd c5 90 59 3d
       -1.42878e-40 -0.02298879 -0.0408602 0.05311658
0001d0 62 18 0f 3d a2 51 3a 80 a4 c4 1d 3c 1e b8 ba 3b
       0.034935363 -5.355743e-39 0.009629402 0.005698218
0001e0 46 3b a6 3c 9f 16 10 3d f0 9c cb 3b 07 94 e0 bd
       0.020291936 0.035177823 0.006213777 -0.10965734
0001f0 c5 d8 0a 3d e1 e7 4a 3d d8 62 66 3d 1e e2 0c 3d
       0.033898134 0.049537543 0.05624661 0.03439533
000200 ae aa 1b bd fa 4a 1a 3d ea 67 44 bc a5 3f d1 3c
       -0.03800457 0.03766916 -0.011987666 0.025543043
000210 36 11 27 bc aa 91 a6 bd 97 df 3f 3c d9 1b ac bc
       -0.0101969745 -0.08133252 0.011711023 -0.021009373
000220 59 42 3f bc db e9 2b bd 0e 82 45 bd a5 32 2e 3a
       -0.011673533 -0.04197107 -0.048219733 0.000664512
000230 b9 6f ec bc 3c 6c 85 bc 7c 07 0c 3c ab 45 44 bd
       -0.028861867 -0.016286962 0.008546706 -0.047918003
000240 fa 10 e5 3c f4 e4 be bc 25 91 64 3d 3f 60 c2 bb
       0.027962197 -0.023302533 0.055802483 -0.0059318836
000250 be 99 69 3c 45 e6 7e 3c 40 6d f9 3b 7d a3 6c 3c
       0.014257846 0.01555783 0.0076119006 0.0144432755
000260 a9 e2 11 bd 70 93 48 bb f2 4f 01 00 0a 97 89 3d
       -0.03561655 -0.0030605458 1.20514e-40 0.067182615
000270 a4 e6 12 3c a4 b7 ce bc 96 37 9e 3c e8 28 01 80
       0.008966122 -0.025234051 0.019313615 -1.0651e-40
000280 14 c2 56 bb db 9e 58 bc fc 83 dc 3a 8e e1 d2 bc
       -0.0032769488 -0.013221468 0.0016824002 -0.025742318
000290 82 ee 1e 3d 3e 8c 4e bd 77 4d 87 bd b2 e4 6d bc
       0.038801678 -0.050426714 -0.06606572 -0.014519857
0002a0 4d 3d 23 3d dc fe 4c bb 9f 81 13 3d 5e d2 fd 3c
       0.039853383 -0.0031279838 0.03601229 0.0309841
0002b0 4e d2 4a bc ae 33 e7 3b 31 5b 41 3c d3 19 09 bd
       -0.012379242 0.0070557212 0.011801527 -0.033471894
0002c0 16 69 05 3c 9c 1a a6 bc f8 9f 7a 3b f0 3e 4b 3d
       0.00814273 -0.02027636 0.0038242321 0.04962057
0002d0 24 f4 b6 bc 3f 52 7f 3c 8a 22 26 3c 68 a2 35 3d
       -0.022333212 0.015583574 0.010140071 0.044344336
0002e0 0d 68 90 bd 2a 07 89 bd aa f3 5c 3d c0 b6 cd bb
       -0.07051096 -0.066908196 0.053943314 -0.006277889
0002f0 1c 35 19 3d 11 71 81 bc fd 12 da 3c 5c 89 1c 3d
       0.037404165 -0.015800985 0.026620382 0.038216934
000300 14 6a 27 bd 67 bf a1 b9 cd d6 c0 bb c6 e7 ca bc
       -0.04087265 -0.0003085092 -0.0058849812 -0.024768721
000310 53 77 9a 3c a5 5e 5d bc d3 ff 92 bc 13 76 27 bd
       0.018855726 -0.013511335 -0.017944252 -0.04088409
000320 4c c5 c2 b9 ca c3 c0 bc 1c 5f a7 bc 14 d4 e9 bb
       -0.0003714956 -0.02353086 -0.020431094 -0.0071358774
000330 12 18 17 bd c2 e5 05 3c 6d 05 84 3a 7e 1a a8 3c
       -0.03688819 0.008172454 0.0010072418 0.020520445
000340 49 21 21 bd f9 da 1f bc 51 c3 10 bb 5e 2c 16 3c
       -0.039338384 -0.009756797 -0.0022089074 0.009165851
000350 65 ea e0 3b 13 6b ab bc ed b9 68 bd 80 f7 86 bd
       0.0068638795 -0.02092508 -0.056817938 -0.06590176
000360 42 95 1b bc b7 3b c6 bc db ad 8f bd 17 b4 58 3d
       -0.009496035 -0.024198396 -0.07015582 0.052906122
000370 90 42 eb bc 45 a3 55 bc e6 63 09 3d f0 f4 54 3d
       -0.028718263 -0.013039415 0.033542536 0.051991403
000380 c1 ac b1 3c 33 91 a8 bd 00 ad 7a bd a6 6d cc bc
       0.02168882 -0.082308196 -0.061200142 -0.024954628
000390 db de 27 bd ae 3d 5f 3c 41 e7 d8 3c a7 ea 17 bd
       -0.040984016 0.013625545 0.026477458 -0.037089016
0003a0 84 99 b5 3c fa b8 38 3d ea 74 0f 3d 03 8f 1a 3b
       0.022167929 0.045098282 0.035023607 0.0023583777
0003b0 4a bb 95 3a 28 2b 04 3d ef 03 9d 3b 99 45 5e 3a
       0.0011423614 0.03226772 0.0047917287 0.0008478999
0003c0 17 0a 01 80 25 93 f4 2b 40 25 02 bc 02 76 09 bd
       -9.5455e-41 1.7378084e-12 -0.007943451 -0.033559807
0003d0 e9 58 4e bd 49 09 7e bc b1 bd d1 bc d6 de 14 bd
       -0.05037776 -0.015505143 -0.025603147 -0.036345325
0003e0 47 11 1f 3d b0 54 1c 3c 82 a7 1f bd f9 11 16 bd
       0.038834836 0.009541675 -0.038978107 -0.036638234
0003f0 ad 06 c2 3c 29 32 86 3c e3 56 49 bd c8 a8 ec 3b
       0.023684824 0.01638134 -0.049155127 0.0072222687

exp_avg f4 [32, 2, 5, 5]
000000 41 6b 01 b9 c7 e7 1c ba 6c c9 8a ba c7 7e ba ba
       -0.00012342354 -0.0005985465 -0.0010588593 -0.0014228456
000010 33 5d d7 ba f5 b4 d5 39 88 29 79 b9 1e b1 6f ba
       -0.0016430974 0.0004076135 -0.00023761962 -0.0009143519
000020 b8 a6 be ba 89 0b e9 ba e0 92 8d 3a 76 0e 93 39
       -0.0014545536 -0.0017779927 0.0010801218 0.000280488
000030 5b 4e 19 ba 02 83 b5 ba 95 1d fb ba 54 51 e2 3a
       -0.00058481627 -0.0013848247 -0.0019158596 0.0017266669
000040 c1 bd 43 3a 76 61 8b b9 a8 c3 9d ba 91 f7 fa ba
       0.0007466935 -0.0002658476 -0.001203646 -0.0019147267
000050 dc 7c 16 3b 26 1e a9 3a d8 2a 5e 39 67 74 56 ba
       0.0022962606 0.0012902662 0.0002118753 -0.00081807974
000060 f3 10 dc ba 12 f4 fd b7 cf d1 12 ba fc a6 92 ba
       -0.0016789719 -3.0273604e-05 -0.0005600722 -0.0011188681
000070 d4 2d cd ba fd ee e4 ba fe 43 11 3a a4 5d 62 b9
       -0.0015653917 -0.0017466244 0.00055414427 -0.00021587923
000080 d6 2d 79 ba c6 4e d2 ba 75 af 01 bb 63 09 a0 3a
       -0.0009505426 -0.0016045205 -0.0019788418 0.0012209829
000090 d6 cd 67 39 f0 08 42 ba 1b 2e cf ba 67 9b 0c bb
       0.00022106557 -0.00074018445 -0.0015806587 -0.0021454932
0000a0 fa f2 eb 3a 26 4f 38 3a 3f cf e5 b9 0a 1b bd ba
       0.001800149 0.0007030837 -0.00043832694 -0.0014427614
0000b0 33 8f 10 bb 23 e5 18 3b a1 f6 91 3a 44 fa c4 b8
       -0.002205801 0.0023329936 0.0011136123 -9.392624e-05
0000c0 49 f4 98 ba 1b c4 02 bb 06 97 c9 3a e5 0d b0 3a
       -0.0011669482 -0.0019953314 0.0015380091 0.0013431875
0000d0 81 ad 8a 3a 0d 50 22 3a 50 44 3c 39 da c2 b0 3a
       0.0010580273 0.0006191738 0.00017954526 0.0013485805
0000e0 28 45 95 3a 45 2a 57 3a 61 ad d5 39 c6 b1 a6 b8
       0.0011388408 0.0008207898 0.00040755703 -7.94861e-05
0000f0 b8 2f 93 3a 80 05 6d 3a 15 71 15 3a ab 77 08 39
       0.0011229431 0.0009041652 0.00057007495 0.0001301455
000100 60 d8 bc b9 28 0b 84 3a 26 91 43 3a ae dd c9 39
       -0.00036019366 0.0010074126 0.00074602885 0.00038502872
000110 fc fa a2 b8 47 90 13 ba 64 d7 92 3a 04 af 5b 3a
       -7.7715114e-05 -0.0005629104 0.0011203107 0.00083802664
000120 1c 28 dc 39 ad 5e a7 b5 58 35 fb b9 f6 61 cc 3a
       0.00041991554 -1.2470024e-06 -0.00047914195 0.001559316
000130 0a 87 b6 3a 61 c3 91 3a 87 b5 44 3a 6d da a7 39
       0.0013925743 0.001112085 0.00075038563 0.00032015462
000140 2a d0 ba 3a c8 52 9c 3a d8 fe 6f 3a a8 6b 0a 3a
       0.0014252712 0.0011926526 0.0009155101 0.0005280324
000150 b7 3b d9 38 fd 2a a6 3a 55 0b 84 3a 3a 99 37 3a
       0.00010358489 0.0012677606 0.0010074178 0.00070037285
000160 ec 73 ae 39 5e dd ae b8 26 e7 94 3a 20 c9 65 3a
       0.00033274235 -8.3381994e-05 0.0011360392 0.00087656267
000170 81 d4 10 3a 04 8a 6c 39 22 7d 59 b9 ef 98 a5 3a
       0.00055248296 0.00022558129 -0.00020741348 0.0012634079
000180 b1 fd 7c 3a 05 18 2a 3a 77 fb 9b 39 b9 e9 c0 b8
       0.000965084 0.00064885645 0.0002975126 -9.198808e-05
000190 03 23 05 3b b5 01 11 3b 84 98 13 3b 20 4b 0e 3b
       0.0020315058 0.0022126262 0.0022521326 0.0021712258
0001a0 5e d4 03 3b f8 8c 03 3b 6d ea 11 3b 7c d1 18 3b
       0.0020115594 0.0020073038 0.0022264973 0.0023318222
0001b0 d2 4a 18 3b 35 c6 10 3b 40 15 02 3b c3 7e 11 3b
       0.0023237956 0.0022090797 0.0019849092 0.00222008
0001c0 37 67 18 3b 23 28 19 3b f3 25 17 3b 5a 47 04 3b
       0.002325488 0.002336987 0.002306339 0.002018413
0001d0 1c eb 12 3b a0 74 18 3b e4 8f 19 3b 98 ab 14 3b
       0.0022417968 0.0023262873 0.0023431713 0.0022685286
0001e0 1c ce 01 3b a9 60 0d 3b 7b 9d 12 3b 18 4a 11 3b
       0.0019806689 0.0021572507 0.0022371698 0.0022169407
0001f0 45 5d 0b 3b 77 b0 0b 3b e9 38 17 3b ea cf 17 3b
       0.002126531 0.0021314898 0.0023074693 0.0023164698
000200 e8 33 10 3b 99 b5 ff 3a 7b bb 09 3b 43 9e 14 3b
       0.0022003595 0.0019509076 0.0021016288 0.002267734
000210 81 84 17 3b 57 97 16 3b f2 f3 0e 3b 83 97 07 3b
       0.002311975 0.002297839 0.0021812883 0.0020689673
000220 1a a2 14 3b 89 50 19 3b 7e 5c 1a 3b 67 d4 14 3b
       0.0022679628 0.002339395 0.0023553665 0.002270961
000230 eb b4 09 3b 2a a2 13 3b 9a 9c 16 3b d6 f2 17 3b
       0.0021012377 0.0022527077 0.0022981525 0.0023185513
000240 1f 98 13 3b 5d 6c 04 3b 0d f7 0e 3b fb 1d 11 3b
       0.002252109 0.002020619 0.0021814734 0.0022143114
000250 a3 0a 0e 3b 18 45 08 3b 2f 34 ac b9 48 16 11 38
       0.002167382 0.0020793136 -0.00032845276 3.4591445e-05
000260 2b 8a 10 3a cc a7 ab 3a 08 56 0d 3b 18 f6 b9 b9
       0.00055137527 0.0013096272 0.0021566171 -0.00035469304
000270 a7 20 63 b7 5a c1 21 3a c4 b8 b8 3a 8b 98 18 3b
       -1.3537857e-05 0.0006170474 0.001409315 0.0023284282
000280 8d 94 e0 b9 77 b9 35 b8 71 d3 0b 3a 44 37 b5 3a
       -0.00042835288 -4.332649e-05 0.00053339364 0.0013825675
000290 ba b9 19 3b 7b 5f d9 b9 a9 d2 d2 b8 7e 80 f4 39
       0.002345665 -0.00041460604 -0.00010052819 0.0004663504
0002a0 57 53 a0 3a b2 10 0c 3b dd dc d7 b9 80 fa 0a b9
       0.0012231868 0.0021372256 -0.00041172552 -0.00013254024
0002b0 00 a2 ac 39 3c a7 7f 3a cd 00 e3 3a 65 2b a4 b9
       0.00032927096 0.0009752398 0.0017318964 -0.0003131285
0002c0 25 9a 70 b8 65 46 db 39 7d d7 83 3a 01 5f db 3a
       -5.7364017e-05 0.00041823383 0.0010058727 0.0016736687
0002d0 59 73 c3 b9 43 77 a6 b8 e5 81 d5 39 34 45 8e 3a
       -0.0003727924 -7.937711e-05 0.00040723305 0.0010854364
0002e0 bf 15 f3 3a 8f cc c8 b9 fd 2a 05 b9 26 3e ba 39
       0.001854591 -0.0003829938 -0.00012699883 0.0003552299
0002f0 d8 3e 85 3a 10 a3 e8 3a a0 e7 e8 b9 0c 1f 48 b9
       0.0010165824 0.0017748792 -0.00044423062 -0.00019085052
000300 b3 b6 82 39 d2 1f 6a 3a 31 d3 cb 3a 14 1d 12 ba
       0.00024931654 0.0008931133 0.0015550611 -0.0005573791
000310 55 12 c2 b9 4d 52 e1 36 7c df 09 3a 78 49 94 3a
       -0.00037016222 6.7151036e-06 0.0005259437 0.0011313399
000320 0e d3 a0 ba 4f b8 b7 ba d9 78 95 ba a0 52 23 ba
       -0.001226993 -0.001401672 -0.0011403813 -0.00062302686
000330 77 81 02 b8 ff 76 a9 ba a3 cd b5 ba b8 dc 86 ba
       -3.111499e-05 -0.001292914 -0.0013870489 -0.0010289168
000340 d8 96 dd b9 44 1d c5 39 12 88 9a ba cf d9 a3 ba
       -0.00042264792 0.00037596573 -0.001178982 -0.0012500825
000350 fe 8d 5a ba 09 4a 99 b7 8f f9 68 3a e2 67 87 ba
       -0.00083371985 -1.8273497e-05 0.0008887285 -0.0010330642
000360 63 6d 79 ba 56 70 bb b9 ea 70 ff 39 ac 5a c9 3a
       -0.0009514896 -0.00035751116 0.00048721518 0.0015362105
000370 ea bc 2d ba aa 6c fd b9 db 87 2a 39 c5 da 8f 3a
       -0.00066275767 -0.0004833688 0.00016263073 0.0010975233
000380 d6 2d 0c 3b ac 06 d0 ba 21 89 e9 ba 3b 62 dc ba
       0.0021389625 -0.0015871129 -0.0017817357 -0.0016813943
000390 a5 be 98 ba 4a a5 bf b9 a0 9c e0 ba 4d d4 fd ba
       -0.0011653496 -0.0003655351 -0.0017136522 -0.0019365639
0003a0 55 b9 de ba 3d db 80 ba 89 3a e4 b7 51 a0 e2 ba
       -0.0016992489 -0.0009830963 -2.7206976e-05 -0.001729021
0003b0 be 6e f3 ba f8 3a c6 ba b5 36 36 ba 16 49 e5 39
       -0.0018572432 -0.0015123775 -0.0006950901 0.00043732737
0003c0 c3 33 c1 ba 0e 9b cc ba e1 ea 99 ba 3e 15 88 b9
       -0.0014740158 -0.0015610175 -0.0011742973 -0.00025955768
0003d0 55 b2 73 3a 85 22 96 ba dd ad 93 ba c1 a4 34 ba
       0.0009296288 -0.001145438 -0.0011267025 -0.00068910053
0003e0 5f 17 6e 39 48 ae c6 3a 54 c5 98 39 41 a2 05 3a
       0.00022706155 0.0015158141 0.0002913872 0.0005097725
0003f0 9e d9 28 3a 6b 48 23 3a c9 8a 0f 3a 02 e1 10 b8
       0.0006441119 0.00062287477 0.00054756977 -3.454183e-05
