results/2BS/T_1/L_2000/seed2/checkpoint.pth.tar (torch_old, 395618 bytes, 22 tensors)

layer1.conv.weight f4 [32, 2, 5, 5]
-0.04242655 -0.017304696 -0.018126411 -0.111810006 0.0039955713 0.009980982 -0.0120123625 0.010728911
-0.012997124 -0.04921716 0.023064274 -0.09199087 0.017977815 -0.08385439 0.021312783 0.06297698
-0.0599207 -0.0397695 0.06421998 -0.059157297 -0.07886144 -0.08952351 -0.0073875645 0.016873986
0.040832125 0.01613622 -0.042752262 0.015013145 -0.014725583 0.08660114 -0.021554796 -0.00055836095
-0.008822144 -0.004322601 -0.04131887 0.013977081 0.039193552 0.001903617 0.068622746 0.048664626
-0.014338128 0.03144477 0.011183266 0.057055652 -0.06810542 -0.059936684 0.043688297 0.04405103
0.007794307 -0.05302576 -0.06425187 0.052470535 0.058774885 0.13763453 0.010630934 -0.036566872
0.034146152 0.010375403 0.08695078 -0.056282338 -0.063373685 0.0077538798 0.044377975 0.05087141
0.08742467 0.11694376 -0.024480673 0.1468642 -0.023966264 -0.0068060607 -0.0021772922 0.013799529
0.039900124 0.011016842 -0.09217735 -0.050323136 0.012382575 -0.0060548694 -0.03661445 0.0014218203
-0.039398033 0.07879484 -0.02900982 0.030077878 -0.07495855 -0.0040180637 -0.031750396 -0.04685276
0.03231124 0.06971515 -0.0939578 0.013480319 -0.04685234 -0.043159153 -0.01892862 -0.03585804
-0.0340728 0.01765319 0.019081403 -0.03333453 -0.021967169 -0.042809978 0.011167063 0.013746378
0.019881824 0.053543422 0.13063455 0.06160637 -0.03225429 0.0029670114 0.08308445 0.07109535
0.05637204 0.033669997 -0.028408006 0.09375447 0.04102497 -0.03927262 0.024254791 0.009540879
0.044918474 0.08345961 0.0009962006 0.06753771 0.045116305 -0.11579265 -0.038729906 -0.042532314
0.022408683 -0.09113677 -0.055994306 -0.08199559 -0.06193343 -0.0677652 -0.08056663 -0.059747085
-0.041382603 -0.023834774 -0.04875205 0.039509904 -0.006427563 -0.0017808712 -0.00060386566 -0.041478608
-0.03851231 -0.08603991 0.055306755 -0.042662624 -0.1050404 -0.066596605 -0.0552683 -0.071619555
-0.002180949 -0.04066741 0.025591485 -0.04957116 -0.0503191 0.016628088 0.0010655706 -0.08865914
0.07860616 -0.07146545 -0.14178859 0.00038578323 0.020202707 0.06908511 -0.06798798 -0.025869368
-0.102920145 0.0015235421 0.05366423 0.011464448 -0.07684183 -0.08290339 -0.011721181 -0.028207982
0.09205095 0.019217271 0.076219626 0.023857074 0.010751093 0.07243856 0.013799894 0.0717529
0.017784921 0.06482114 0.008377659 0.026371317 -0.031441644 0.081488505 0.05247329 -0.03748566
0.046142627 0.0038070176 0.031099021 0.04154317 0.07754335 -0.03012949 0.06252214 0.12534656
-0.016093371 -0.034322947 0.09181085 0.017001659 -0.16075167 -0.05398745 -0.095881164 -0.08263563
-0.056328118 -0.0028221484 -0.05383624 0.035016745 -0.0665483 -0.068279415 -0.059644964 -0.08824899
-0.03993078 -0.077286944 -0.052993212 -0.088913836 -0.06301461 -0.026423197 -0.07504843 -0.007863852
-0.08450606 -0.03340194 0.039534774 -0.041607678 -0.026547747 -0.019356702 -0.040130775 0.0480065
-0.02157145 -0.059201565 -0.038874432 0.06888789 -0.08300589 -0.046120733 -0.019507391 -0.01975855
0.07376179 -0.010002881 0.05194104 -0.004637829 -0.084147885 -0.03505622 -0.029195445 -0.011585534
0.0058287145 -0.08453079 0.037094835 0.03971965 -0.08520486 0.089004755 -0.027429018 0.06341487
00000000: 76c7 2dbd 94c2 8dbc d77d 94bc a5fc e4bd
00000010: 48ed 823b 4687 233c 80cf 44bc 50c8 2f3c
00000020: e4f1 54bc ef97 49bd 4af1 bc3c b665 bcbd
00000030: 3646 933c dabb abbd 2598 ae3c 13fa 803d
00000040: 686f 75bd 58e5 22bd c485 833d ec4e 72bd
00000050: 1b82 a1bd 1a58 b7bd 6213 f2bb 503b 8a3c
00000060: 963f 273d 1b30 843c ff1c 2fbd b2f9 753c
00000070: 9243 71bc f05b b13d af93 b0bc f85e 12ba
00000080: c18a 10bc 9ba4 8dbb fa3d 29bd 2000 653c
00000090: 6b89 203d ca82 f93a 158a 8c3d 8f54 473d
000000a0: 78ea 6abc 3bcc 003d 043a 373c 30b3 693d
000000b0: db7a 8bbd 2b80 75bd 80f2 323d da6e 343d
000000c0: 6367 ff3b 8a31 59bd 7c96 83bd 58eb 563d
000000d0: efbd 703d 11f0 0c3e 5e2d 2e3c 25c7 15bd
000000e0: d6dc 0b3d 98fd 293c 4013 b23d 4f88 66bd
000000f0: 10ca 81bd 4214 fe3b aec5 353d 8a5e 503d
00000100: b50b b33d 3680 ef3d b18b c8bc 9263 163e
00000110: e654 c4bc 6005 dfbb e7b0 0ebb 6b17 623c
00000120: 506e 233d fc7f 343c 7ac7 bcbd a21f 4ebd
00000130: 49e0 4a3c ed67 c6bb 09f9 15bd 5f5c ba3a
00000140: d55f 21bd 305f a13d 01a6 edbc e265 f63c
00000150: de83 99bd f6a9 83bb b40c 02bd aee8 3fbd
00000160: ca58 043d d1c6 8e3d f26c c0bd 8edc 5c3c
00000170: 3de8 3fbd a7c7 30bd 3110 9bbc e1df 12bd
00000180: ec8f 0bbd 6c9d 903c 9a50 9c3c ca89 08bd
00000190: 7ef4 b3bc 8459 2fbd 0ff6 363c 7d38 613c
000001a0: 35df a23c 5950 5b3d 10c5 053e f656 7c3d
000001b0: 131d 04bd 3172 423b 2e28 aa3d 709a 913d
000001c0: 5ee6 663d 8de9 093d e8b7 e8bc 5802 c03d
000001d0: cd09 283d 54dc 20bd fcb1 c63c 5951 1c3c
000001e0: 6ffc 373d dfec aa3d f292 823a 3651 8a3d
000001f0: e0cb 383d b224 edbd 40a3 1ebd 5d36 2ebd
00000200: 6a92 b73c eaa5 babd 495a 65bd 4eed a7bd
00000210: e9ad 7dbd 7bc8 8abd 1e00 a5bd 5cb9 74bd
00000220: ce80 29bd 2541 c3bc 3bb0 47bd 23d5 213d
00000230: 4e9e d2bb 1f6c e9ba bd4c 1eba 79e5 29bd
00000240: 15bf 1dbd b135 b0bd 5689 623d 01bf 2ebd
00000250: 6c1f d7bd cd63 88bd 0361 62bd 46ad 92bd
00000260: 41ee 0ebb df92 26bd 3ca5 d13c 210b 4bbd
00000270: 671b 4ebd a137 883c 9eaa 8b3a ec92 b5bd
00000280: 44fc a03d 7a5c 92bd 0731 11be f342 ca39
00000290: 2680 a53c 7f7c 8d3d 483d 8bbd ffeb d3bc
000002a0: ccc7 d2bd 97b1 c73a 06cf 5b3d 61d5 3b3c
000002b0: 405f 9dbd 41c9 a9bd 320a 40bc 6d14 e7bc
000002c0: 3585 bc3d 8a6d 9d3c 0919 9c3d e96f c33c
000002d0: 5a25 303c ab5a 943d f318 623c 2ff3 923d
000002e0: afb1 913c f2c0 843d 7342 093c a908 d83c
000002f0: f4c8 00bd 72e3 a63d 3cee 563d 908a 19bd
00000300: 0d00 3d3d 287f 793b 60c3 fe3c 2c29 2a3d
00000310: 0ccf 9e3d 1fd2 f6bc 9c0b 803d d95a 003e
00000320: 3fd6 83bc 3896 0cbd 5407 bc3d 1047 8b3c
00000330: 169c 24be f221 5dbd 585d c4bd df3c a9bd
00000340: 50b8 66bd cbf3 38bb 6483 5cbd b86d 0f3d
00000350: 7a4a 88bd 14d6 8bbd 474e 74bd e3bb b4bd
00000360: 758e 23bd 9e48 9ebd 690f 59bd 7518 b6bd
00000370: ce0d 81bd 7675 d8bc feb2 99bd 63d7 00bc
00000380: 8311 adbd 79d0 08bd 37ef 213d d06c 2abd
00000390: a97a d9bc f291 9ebc 2b60 24bd 77a2 443d
000003a0: 9cb6 b0bc 577d 72bd cc3a 1fbd 1815 8d3d
000003b0: fefe a9bd 18e9 3cbd f7cd 9fbc afdc a1bc
000003c0: 6c10 973d 20e3 23bc 21c0 543d eef8 97bb
000003d0: ba55 acbd 1c97 0fbd 492b efbc 40d1 3dbc
000003e0: cdfe be3b 7b1e adbd c1f0 173d 12b1 223d
000003f0: e37f aebd 2048 b63d d2b2 e0bc a8df 813d

layer1.conv.bias f4 [32]
-0.04367892 0.02703144 -0.025185583 0.09450539 0.099550426 -0.031079 -0.10671566 -0.09315075
0.0006690959 -0.022311378 -0.15041566 0.08923662 0.027396662 -0.07160453 0.017584609 -0.083076626
0.089825824 -0.036391784 -0.17761286 0.08237282 0.08994602 0.0045046885 0.03952185 0.06581509
0.13103095 -0.013987031 -0.116511054 0.06783054 -0.16035485 -0.12589565 -0.12237341 -0.14560576
00000000: abe8 32bd 0a71 dd3c ff51 cebc 0b8c c13d
00000010: 18e1 cb3d 6399 febc bd8d dabd d2c5 bebd
00000020: 4466 2f3a 5ac6 b6bc 9006 1abe b0c1 b63d
00000030: f76e e03c 65a5 92bd 990d 903c 1424 aabd
00000040: 9af6 b73d 8d0f 15bd 25e0 35be 15b3 a83d
00000050: 9e35 b83d 119c 933b aae1 213d 10ca 863d
00000060: fa2c 063e dc29 65bc 599d eebd bdea 8a3d
00000070: 1034 24be caea 00be e99e fabd ad19 15be

layer2.conv1.weight f4 [32, 32, 3, 3]
-0.013714383 -0.016390236 0.045255445 -0.041075926 -0.01632626 0.013376122 0.02041747 -0.0050683995
0.057101153 0.056890376 0.07287716 0.009283035 -0.01874801 0.06916026 0.065777756 -0.048926014
0.044138078 -0.0005239362 0.13886072 -0.010440041 0.05859158 -0.0327497 0.04371644 -0.027411522
-0.11120914 -0.02320798 -0.015898325 0.106530674 -0.00762173 0.12378938 -0.016878027 0.040276468
0.052007135 0.047851127 0.02455597 0.04973841 -0.022792988 -0.016472312 -0.09014158 -0.14730246
0.012069811 0.007330622 0.022513673 -0.006005821 -0.043362863 -0.037674144 0.03925626 0.051784523
-0.0051703053 0.030961743 0.008632972 -0.040051665 0.04999409 0.014018076 0.08000977 -0.00772543
-0.016741851 0.05746421 0.027665598 -0.076165035 0.019023145 -0.09268273 -0.035681568 -0.046872813
-0.023316322 -0.051279407 0.05408935 0.013844977 -0.037804097 -0.022629118 0.100467645 -0.031503752
0.041607875 -0.020288857 0.075860105 0.05871701 0.03128722 0.09353074 -0.07151493 -0.040747996
0.024571404 0.029570492 -0.08330127 -0.011555308 0.030060304 -0.006306164 -0.018335829 -0.039101828
0.011537826 -0.023752572 0.07365225 0.15996626 -0.034938976 0.043285377 0.02881187 -0.033120614
0.01943556 -0.14430931 -0.13598973 0.014347109 0.12027615 0.11214897 0.0050552064 -0.00319112
0.0057021747 0.0010425643 0.025396334 0.09665951 -0.051294044 -0.13647714 -0.10152438 -0.04916077
-0.0097995745 -0.026017241 -0.0014904637 -0.06043736 -0.022151645 -0.063657284 0.04591647 -0.04838719
-0.06380277 0.07585522 0.09101555 -0.068780854 -0.120428436 0.0011021004 0.1101113 0.082519844
0.011403188 -0.03382754 0.036131106 -0.025047176 0.110242665 0.043742236 0.028007766 0.030814385
0.0034828028 -0.033576585 0.076876506 0.0071550603 -0.023505347 -0.077590026 -0.01639524 -0.044240262
0.019638143 -0.067409195 -0.1307053 0.08786565 -0.0277099 0.03850128 0.027717605 -0.029095884
-0.026131397 -0.03683733 -0.0136396615 -0.049369052 -0.074297495 0.035159662 -0.008106012 0.07255926
-0.007938666 0.06413352 -0.00044307866 0.0040219054 0.02683449 0.07535658 -0.009947628 0.08515372
-0.08231353 -0.041939884 -0.061018594 -0.16355607 0.017016144 -0.0023409761 -0.050607402 0.035509255
-0.0056069763 0.0544808 0.023353282 -0.03690892 0.061902843 0.08491802 0.048165046 0.121429235
0.017932553 0.018434303 0.0679792 -0.053956427 0.035315458 -0.09139786 0.04682125 0.01490313
-0.01838858 0.06846114 -0.05086733 0.11713399 -0.041236337 0.031010382 -0.059173603 0.072209544
0.056300413 -0.009435473 0.0034536289 0.050256975 -0.027796704 -0.0055340994 0.08111078 0.029917236
-0.034614064 0.025243761 0.015429944 0.06059195 -0.038746193 0.034177214 0.06159093 0.06456812
0.045690946 0.0029643879 -0.10915136 -0.12571846 0.0009966666 0.05180422 -0.024553617 0.0609678
-0.0715433 0.107998624 0.008039707 0.085749485 0.07838247 0.019506034 -0.06631788 0.021409623
-0.07898722 -0.03560172 0.05650868 -0.084979266 0.05984033 0.016457982 -0.028216848 -0.00551114
0.09022323 -0.02683173 0.01924254 0.06125699 -0.06074858 -0.011111353 0.03348011 -0.050515946
0.076018564 -0.05512852 -0.04370758 0.07371472 0.055353645 0.008113676 -0.004541398 0.041858237
00000000: 4bb2 60bc d144 86bc c65d 393d 3b3f 28bd
00000010: a6be 85bc 8627 5b3c 8a42 a73c d114 a6bb
00000020: e6e2 693d e205 693d 9f40 953d df17 183c
00000030: 6d95 99bc e5a3 8d3d 7db6 863d a566 48bd
00000040: 21ca 343d c358 09ba 8131 0e3e b50c 2bbc
00000050: b9fd 6f3d 8d24 06bd 0310 333d 218e e0bc
00000060: 9ec1 e3bd a91e bebc 343d 82bc c12c da3d
00000070: b5bf f9bb 4985 fd3d ca43 8abc f0f8 243d
00000080: 6f05 553d 8bff 433d 9a29 c93c 81ba 4b3d
00000090: 5cb8 babc f1f0 86bc 269c b8bd 75d6 16be
000000a0: 75c0 453c b735 f03b 986e b83c 7acc c4bb
000000b0: 429d 31bd 3450 1abd 2ccb 203d 021c 543d
000000c0: aa6b a9bb 7ba3 fd3c 4f71 0d3c 370d 24bd
000000d0: 9ac6 4c3d 12ac 653c 2adc a33d 9b25 fdbb
000000e0: 3526 89bc 975f 6b3d f7a2 e23c 6afc 9bbd
000000f0: 6dd6 9b3c 71d0 bdbd d626 12bd b5fd 3fbd
00000100: df01 bfbc 5b0a 52bd cb8c 5d3d 0bd6 623c
00000110: 78d8 1abd b360 b9bc fbc1 cd3d 140a 01bd
00000120: 056d 2a3d d134 a6bc 8b5c 9b3d 3f81 703d
00000130: 0727 003d 0b8d bf3d 6b76 92bd 5fe7 26bd
00000140: f849 c93c d13d f23c db99 aabd 7952 3dbc
00000150: 0741 f63c f0a3 cebb 0535 96bc 3d29 20bd
00000160: 2609 3d3c c194 c2bc fed6 963d 32ce 233e
00000170: 2c1c 0fbd 024c 313d df06 ec3c 7ba9 07bd
00000180: 5337 9f3c d2c5 13be e440 0bbe 2310 6b3c
00000190: 5853 f63d 5cae e53d 25a6 a53b 1c22 51bb
000001a0: 4fd9 ba3b a7a6 883a f90b d03c 6cf5 c53d
000001b0: b419 52bd aac0 0bbe 04ec cfbd ce5c 49bd
000001c0: 658e 20bc 1c22 d5bc aa5b c3ba 2a8d 77bd
000001d0: 5e77 b5bc c05e 82bd e912 3c3d a531 46bd
000001e0: 07ab 82bd fb59 9b3d 5c66 ba3d fadc 8cbd
000001f0: 2fa3 f6bd 5a74 903a 0982 e13d 2a00 a93d
00000200: 70d4 3a3c bf8e 0abd 36fe 133d bc2f cdbc
00000210: e8c6 e13d 0f2b 333d 8b70 e53c 736e fc3c
00000220: bc3f 643b 9a87 09bd 6e71 9d3d ff74 ea3b
00000230: 498e c0bc 85e7 9ebd 4f4f 86bc 4735 35bd
00000240: 2ce0 a03c d50d 8abd 9cd7 05be e8f2 b33d
00000250: dfff e2bc 85b3 1d3d 0810 e33c 7e5a eebc
00000260: 8311 d6bc bde2 16bd e378 5fbc 3437 4abd
00000270: 4929 98bd 9403 103d 14cf 04bc f399 943d
00000280: 2e11 02bc 6f58 833d 034d e8b9 30ca 833b
00000290: 01d4 db3c 8d54 9a3d 60fb 22bc 1365 ae3d
000002a0: ff93 a8bd 28c9 2bbd a2ee 79bd 3e7b 27be
000002b0: 7165 8b3c 106b 19bb b549 4fbd 2772 113d
000002c0: baba b7bb 4227 5f3d 624f bf3c cf2d 17bd
000002d0: d68d 7d3d 80e9 ad3d b648 453d e4af f83d
000002e0: 4ae7 923c 8903 973c ae38 8b3d 6a01 5dbd
000002f0: f1a6 103d cd2e bbbd a4c7 3f3d 422c 743c
00000300: a6a3 96bc 5b35 8c3d 435a 50bd f2e3 ef3d
00000310: 6fe7 28bd 7c09 fe3c 0560 72bd 99e2 933d
00000320: 439b 663d 3e97 1abc 4756 623b 42da 4d3d
00000330: eab5 e3bc 6457 b5bb 691d a63d fe14 f53c
00000340: 7ac7 0dbd 01cc ce3c e0cd 7c3c 442f 783d
00000350: 54b4 1ebd 68fd 0b3d c546 7c3d 4a3c 843d
00000360: 6e26 3b3d 2d46 423b c08a dfbd 57bc 00be
00000370: 95a2 823a a930 543d ab24 c9bc 5fb9 793d
00000380: 4b85 92bd 622e dd3d fab8 033c 6d9d af3d
00000390: fd86 a03d 1ecb 9f3c abd1 87bd 3c63 af3c
000003a0: 0dc4 a1bd 1cd3 11bd a575 673d 9c09 aebd
000003b0: 221b 753d e4d2 863c 0527 e7bc cb96 b4bb
000003c0: f5c6 b83d 37ce dbbc 88a2 9d3c 9ce8 7a3d
000003d0: 81d3 78bd 640c 36bc 7122 093d cfe9 4ebd
000003e0: 9faf 9b3d 71ce 61bd b806 33bd bef7 963d
000003f0: 81ba 623d 39ef 043c 02d0 94bb 8b73 2b3d

layer2.conv1.bias f4 [32]
-0.02399727 -0.0042128777 -0.032053195 -0.01024696 0.018050628 0.0092820255 -0.047026582 -0.01957296
-0.02962485 0.0178442 0.0029352123 -0.029474583 -0.047305338 0.037365 0.02578613 -0.030181857
-0.00016423633 0.020267144 -0.053561255 0.031011324 -0.022526233 -0.025256325 0.012623911 0.03810066
-0.055674914 -0.028808055 0.045981772 0.027753374 0.01918795 -0.04361767 -0.03772181 0.004575091
00000000: ec95 c4bc 2e0c 8abb 364a 03bd dee2 27bc
00000010: e9de 933c a313 183c f29e 40bd 7957 a0bc
00000020: d0af f2bc 002e 923c b15c 403b ae74 f1bc
00000030: 3ec3 41bd 0b0c 193d 6f3d d33c f13f f7bc
00000040: db36 2cb9 4807 a63c 0c63 5bbd 760b fe3c
00000050: ef88 b8bc 5ae6 cebc 85d4 4e3c 700f 1c3d
00000060: 610b 64bd dffe ebbc 6257 3c3d 0b5b e33c
00000070: 0c30 9d3c 71a8 32bd 2f82 1abd a5ea 953b

layer2.conv2.weight f4 [64, 32, 3, 3]
-0.0051665 0.027371269 0.009275631 0.013528392 -0.00698004 0.0060218293 -0.0025184948 -0.022493126
0.024730314 0.015298349 -0.009228534 0.03132913 -0.02979312 0.014845634 0.008893178 -0.06345005
-0.001458436 -0.052504316 0.019350743 0.0072459327 0.03142039 -0.01716335 0.04469545 0.013164558
0.025914088 -0.0072756964 -0.01370899 0.017690787 -0.004150161 0.010526942 0.028975753 0.002883986
-0.016623076 -0.054199975 0.0040122136 -0.058628067 -0.051542368 -0.012652327 -0.006646262 0.019887941
0.038181234 0.05544028 -0.04778234 -0.023964534 0.025928095 -0.0036432163 -0.010791811 -0.0023061496
0.010628869 0.003313128 0.01809266 -0.008007926 0.025093844 -0.0059190267 0.0045836936 0.04270935
0.03341011 0.040587615 0.030805688 -0.00770369 -0.03988682 0.01625229 -0.0029122704 0.037530053
0.034485944 0.066365406 0.005441866 0.013699737 -0.026712548 -0.020152405 0.01826875 -0.055766474
0.026758723 -0.0046504624 -0.011436994 0.025687806 -0.05342101 0.06990876 0.03240188 -0.022196015
0.016321078 0.0008091009 -0.00030663778 0.0012927073 0.0008543293 -0.0024264387 0.0004166188 0.0025772043
-0.0032626032 0.0012568127 0.06265058 -0.04757577 0.018076569 0.00958533 -0.059773747 -0.06901218
-0.0008637271 0.027415624 -0.04660763 0.013680079 -0.05102449 -0.02577395 -0.014338954 0.026564566
0.007462911 0.014466016 0.0029889192 0.01591281 0.0008335823 -0.011725628 -0.004851143 -0.0019833464
-0.0016727189 -0.0020986032 -0.004000336 0.005458308 -0.0017167504 0.029881982 -0.007233037 -0.014156864
0.030462459 -0.037624322 0.0026172164 0.01938042 -0.02447503 -0.0014655252 0.036870647 -0.07407217
-0.01943205 0.018741382 0.020982899 -0.028611716 0.037353285 0.025402375 -0.024735643 0.008163299
-0.01605207 0.011747717 -0.017104324 0.012490607 -0.012044979 0.0050729993 -0.041668106 -0.0019279774
3.0187989e-21 1.8645166e-23 -2.7199e-41 3.7248568e-17 9.034632e-17 1.764963e-21 3.4232837e-17 2.0188629e-16
1.1836655e-16 -0.019339703 -0.024750542 0.0119993 -0.04677371 0.019768875 0.023151508 0.035138007
0.0033123472 0.012604134 0.039835438 -0.026274739 0.01806892 0.04381574 -0.027152715 -0.015095663
0.07722749 -0.015041826 -0.044247795 0.025431188 -0.011244812 0.052703004 0.0089853015 -0.021893933
-0.009493552 0.05525815 -0.05977147 0.005809389 0.020170873 0.042863876 -0.014344149 -0.005355526
0.049421884 0.058437265 0.0005529451 0.05986227 0.065590136 -0.019791098 0.0071081514 0.010426096
-0.027291546 -0.0060236584 0.055283688 0.03393736 -0.04922299 0.01968161 -0.029788667 0.010962641
0.020545557 -0.009034541 0.020735644 0.024982588 0.015446956 -0.0005837007 0.07078385 0.035975948
0.0059086084 0.0401235 -0.04708665 -0.034068104 -0.0116815455 -0.027197555 -0.012790348 0.006372282
-8.77394e-05 -0.00029023827 0.00042049747 -0.0016839404 0.0033065462 -0.0020870059 0.002528674 -0.0010217624
-0.0034503383 -0.01473425 -0.011659731 0.013830225 -0.04014574 0.019633353 0.0012621783 -0.05158087
0.024174785 -0.009785122 0.01221846 -0.037607685 0.0040834956 0.07939713 0.057522994 -0.05335607
0.028488675 -0.03712777 -0.05398656 -0.013492716 0.031236632 -0.021433894 0.035519257 0.039892197
0.021447232 0.017843945 -0.0018658234 0.0651273 -0.00040201852 0.029162113 -0.018229917 -0.012921058
00000000: be4b a9bb b639 e03c d1f8 173c 30a6 5d3c
00000010: d2b8 e4bb c452 c53b 550d 25bb 8143 b8bc
00000020: 3a97 ca3c eda5 7a3c 4733 17bc f952 003d
00000030: b410 f4bc 1a3b 733c b1b4 113c 1af2 81bd
00000040: fe28 bfba c40e 57bd 7385 9e3c 4a6f ed3b
00000050: abb2 003d 279a 8cbc 9412 373d 29b0 573c
00000060: c849 d43c f768 eebb ac9b 60bc 45ec 903c
00000070: 13fe 87bb 3279 2c3c 8f5e ed3c 4201 3d3b
00000080: 1e2d 88bc cb00 5ebd e378 833b fc23 70bd
00000090: 171e 53bd b54b 4fbc e3c8 d9bb 09ec a23c
000000a0: ed63 1c3d 5915 633d 6ab7 43bd 4551 c4bc
000000b0: 2867 d43c 07c3 6ebb 23d0 30bc c522 17bb
000000c0: b524 2e3c 1021 593b 0f37 943c ad33 03bc
000000d0: 9b91 cd3c 65f4 c1bb cf32 963b 00f0 2e3d
000000e0: 0ad9 083d 333f 263d 365c fc3c 3c6f fcbb
000000f0: 5d60 23bd 8623 853c cadb 3ebb 1db9 193d
00000100: 2241 0d3d 96ea 873d ae51 b23b dd74 603c
00000110: 46d4 dabc a816 a5bc 58a8 953c 636b 64bd
00000120: 1c35 db3c e862 98bb 3b62 3bbc 3c6f d23c
00000130: fdcf 5abd 532c 8f3d d5b7 043d 6bd4 b5bc
00000140: c8b3 853c d819 543a 3ac4 a0b9 0f70 a93a
00000150: 12f5 5f3a e304 1fbb a16d da39 50e6 283b
00000160: 66d1 55bb a3bb a43a f34e 803d d0de 42bd
00000170: 5015 943c ca0b 1d3c 51d5 74bd 4256 8dbd
00000180: bf6b 62ba bb96 e03c a4e7 3ebd 6922 603c
00000190: 0eff 50bd e423 d3bc efed 6abc ef9d d93c
000001a0: 6f8b f43b de02 6d3c bee1 433b 955b 823c
000001b0: c384 5a3a d91c 40bc 56f6 9ebb 08fb 01bb
000001c0: 223f dbba b888 09bb 4015 83bb 9bdb b23b
000001d0: 9604 e1ba 0fcb f43c 1d03 edbb 31f2 67bc
000001e0: 688c f93c f61b 1abd 9b85 2b3b b0c3 9e3c
000001f0: dc7f c8bc de16 c0ba ad05 173d 26b3 97bd
00000200: f62f 9fbc 8787 993c 54e4 ab3c 1e63 eabc
00000210: c2ff 183d a418 d03c 67a2 cabc 5cbf 053c
00000220: a17f 83bc 7f79 403c 5e1e 8cbc 67a5 4c3c
00000230: 4e58 45bc 673b a63b 2dac 2abd 30b4 fcba
00000240: 1018 641d 3253 b419 d24b 0080 59c7 2b24
00000250: 0e53 d024 595b 051d 00df 1d24 51c2 6825
00000260: a477 0825 4c6e 9ebc a6c1 cabc b698 443c
00000270: ca95 3fbd 56f2 a13c 3ba8 bd3c dfec 0f3d
00000280: f713 593b 9281 4e3c 7c2a 233d 1f3e d7bc
00000290: 4605 943c 2278 333d 5f6f debc cd53 77bc
000002a0: 7229 9e3d fe71 76bc 2d3d 35bd 1155 d03c
000002b0: 293c 38bc 1bdf 573d 1637 133c e85a b3bc
000002c0: d88a 1bbc 5f56 623d eed2 74bd b05c be3b
000002d0: 633d a53c 0892 2f3d b903 6bbc 697d afbb
000002e0: 9a6e 4a3d ea5b 6f3d 84f3 103a 2432 753d
000002f0: 1f54 863d f120 a2bc 7feb e83b 37d2 2a3c
00000300: 8592 dfbc 1c62 c5bb 2671 623d e701 0b3d
00000310: 0c9e 49bd 543b a13c 5d07 f4bc a69c 333c
00000320: 284f a83c 9d05 14bc ccdd a93c 49a8 cc3c
00000330: 3b15 7d3c 7e03 19ba 20f7 903d 845b 133d
00000340: 009d c13b 8a58 243d eedd 40bd ff8a 0bbd
00000350: f463 3fbc 68cd debc 9c8e 51bc 93ce d03b
00000360: bb00 b8b8 1f2b 98b9 3776 dc39 aab7 dcba
00000370: a4b2 583b 26c6 08bb 1cb8 253b a8ec 85ba
00000380: 121f 62bb ec67 71bc 7508 3fbc 2b98 623c
00000390: dc6f 24bd 20d6 a03c ad6f a53a 7646 53bd
000003a0: 330a c63c c751 20bc f02f 483c 840a 1abd
000003b0: d8ce 853b f69a a23d 3b9d 6b3d e58b 5abd
000003c0: 1561 e93c 4a13 18bd 0321 5dbd 8d10 5dbc
000003d0: f7e3 ff3c 2296 afbc a47c 113d 0066 233d
000003e0: 1bb2 af3c 772d 923c a58e f4ba 7661 853d
000003f0: 03c6 d2b9 62e5 ee3c e856 95bc d8b2 53bc

layer2.conv2.bias f4 [64]
-0.0054085734 0.01393737 -0.003786986 -1.1979139e-05 0.044132505 -2.9546405e-09 -0.0395524 -0.03398743
0.048189215 -0.019054439 -0.042181265 -0.028736038 0.046157207 -0.021049876 -0.05221613 0.007535263
0.037832797 -0.016979354 0.012560735 0.0073484452 -0.027254464 -0.034368426 -0.025500242 0.008820893
-0.004999559 0.05669535 0.027749354 -0.0028109397 -0.0043583037 -0.015883816 0.023063805 -0.01128655
-0.040567435 0.008137542 0.0457265 -0.019984815 0.01875226 0.0059565227 -0.00058097695 -0.0014397005
-0.0026700913 0.03648184 0.0039183246 0.005086922 0.04683766 -0.04176993 0.03597087 -0.031695593
0.035195783 -0.0069641955 0.022552667 0.002665764 -0.0125359995 0.032611944 0.029973513 -0.013372414
0.018961942 0.01108237 0.013676519 0.010858237 -0.00062788685 -0.019346073 0.035389893 -0.010165154
00000000: 673a b1bb 9159 643c 152f 78bb 03fa 48b7
00000010: 49c4 343d 960a 4bb1 b301 22bd 6736 0bbd
00000020: 0e62 453d 0e18 9cbc 43c6 2cbd d767 ebbc
00000030: 570f 3d3d ca70 acbc 95e0 55bd 5eea f63b
00000040: 90f6 1a3d 4918 8bbc 8bcb 4d3c 3acb f03b
00000050: c144 dfbc e8c5 0cbd e2e5 d0bc 8285 103c
00000060: 57d3 a3bb 6239 683d 9d52 e33c be37 38bb
00000070: 1ad0 8ebb c71e 82bc 4ef0 bc3c 39eb 38bc
00000080: 0a2a 26bd 5353 053c b64b 3b3d 32b7 a3bc
00000090: 579e 993c ef2e c33b b44c 18ba 55b4 bcba
000000a0: b3fc 2ebb fb6d 153d 4a65 803b 32b0 a63b
000000b0: d9d8 3f3d f216 2bbd 3156 133d 3dd3 01bd
000000c0: 7429 103d e833 e4bb 5fc0 b83c 19b4 2e3b
000000d0: cb63 4dbc 1a94 053d 038b f53c f817 5bbc
000000e0: 1356 9b3c d492 353c 7a13 603c bfe6 313c
000000f0: c698 24ba a87b 9ebc fef4 103d bf8b 26bc

fc1.weight f4 [1, 3200]
-0.0029498904 0.0056962203 -0.00035165105 -0.022547398 0.037267298 0.033892706 -0.0014610344 0.0050552473
0.008903207 -0.007253304 0.013954922 0.0019263114 0.013661276 0.03631945 -0.07186098 0.033713948
-0.024966454 0.0012662704 0.015962569 -0.007968895 -0.014701913 -0.0026479014 -0.024165586 0.009912035
-0.09370765 -0.043483086 0.052226633 -0.03511336 0.023160966 -0.02147239 0.003232964 0.0027883935
-0.011302334 -0.0070423246 0.0031627214 -0.030711966 0.07144586 -0.026018485 -0.01044569 0.019075997
0.018473476 0.0032874604 -0.008090443 0.015593516 0.030611755 -0.053875927 0.031520218 0.002492962
0.01922754 -0.009055698 0.02037752 0.020370344 -0.007794585 0.01048171 0.014662415 0.05327666
-0.07816018 -0.0038038522 0.0011535995 -0.012773146 -0.007943688 -0.00919328 0.004110484 0.02662574
0.023941949 0.07549593 -0.03523646 0.031346623 -0.022826469 -0.008644779 -0.031840622 -0.021314101
-0.012508014 -0.013369766 0.10258661 -0.1952823 -0.03571749 0.01244799 0.0029922917 0.028193004
0.0076325047 0.020990873 0.017590508 -0.0061360737 -0.027031016 0.089921884 0.014820236 -0.016762102
-0.0016520553 0.04049988 -0.022075014 -0.0016420834 0.035758726 -0.012696793 -0.035728257 0.10647895
-0.011967076 -0.0077650105 -0.018157948 -8.7682e-41 0.0009182268 -0.006167199 1.22493e-40 0.018389456
0.0023718 -0.016654745 -0.03754551 -5.300284e-16 -0.009983726 -0.0027006979 0.013499673 0.010607599
0.0055735186 0.011007276 0.055131905 -0.037289113 0.029442461 -0.017217902 0.009288829 0.006766714
-1.52573e-40 0.003086618 0.003983289 -0.024526527 0.011926737 -0.10426373 0.0033446616 0.005554836
-0.00255892 -0.023617584 -0.002174816 -0.002557593 0.0015455462 0.0075022834 -0.0045938883 -0.050749432
0.0044622133 -0.01928566 0.0038320827 0.008233711 0.0026610615 -0.0018695588 -7.0203254e-07 0.002303317
-0.0052522374 -0.011951925 0.0069775186 -8.271879e-06 -0.0028027152 0.0019627453 -4.1201874e-05 7.263446e-05
-1.0584936e-16 -4.6972764e-05 -3.9862236e-05 2.5321584e-05 -0.00025817897 3.3211728e-14 4.4498476e-05 1.0026481e-05
-1.3188426e-11 -1.1175542e-16 -3.2452796e-09 0.00017688973 -0.0002078378 1.4584887e-07 -6.7013826e-09 -4.0282415e-05
0.0001862831 -0.00032724268 -2.542187e-10 3.182277e-16 9.15944e-06 -0.00012901356 -3.104337e-05 6.318644e-05
-1.3459717e-06 -0.00032376978 -0.00015686285 0.00031026796 2.3581279e-07 3.5594749e-06 4.7122336e-07 -0.0008362259
0.0002527959 -0.00013728096 -2.7839946e-05 -5.8394297e-05 0.00071407645 0.00013168156 4.6574303e-07 -0.000105673564
3.9016945e-06 1.328248e-06 2.7327867e-05 5.849975e-05 0.00045284888 -4.2621323e-05 -5.0869472e-05 5.0800095e-06
0.0039324383 0.0009884379 0.02923482 0.000754595 -0.08749479 -0.07950912 -0.043229 -0.0063091926
0.0014201127 0.014887133 0.037048735 0.04150575 -0.0011722995 -0.0038057724 0.08905509 -0.11481877
0.045536455 -0.028948653 -0.00902945 0.006336324 -0.00455369 0.023721818 -0.037719328 0.0035832191
0.08868215 -0.116545156 -0.08660874 0.034513727 -0.016010284 -0.00816239 -0.014248459 0.022297874
0.024354259 0.0012873942 -0.13561192 0.08658555 -0.019842718 -0.019593505 0.014465524 0.0056718313
0.001311339 -0.008074398 -0.0023237357 0.013917208 0.019066805 0.03673032 0.09062811 -0.017773185
0.009433579 -0.00928115 -1.3888654e-26 -2.3971992e-27 1.19915486e-26 -9.7041e-41 5.1993785e-26 -2.7057005e-25
00000000: f352 41bb 5ca7 ba3b ce5d b8b9 52b5 b8bc
00000010: 98a5 183d 14d3 0a3d 2e80 bfba 7da6 a53b
00000020: c2de 113c 20ad edbb 2fa3 643c 497c fc3a
00000030: 8bd3 5f3c b4c3 143d d92b 93bd a317 0a3d
00000040: 7386 ccbc fcf8 a53a efc3 823c f88f 02bc
00000050: 4be0 70bc 6a88 2dbb e8f6 c5bc 1766 223c
00000060: cce9 bfbd 521b 32bd 98eb 553d 07d3 0fbd
00000070: 11bc bd3c dee6 afbc 23e0 533b 7bbd 363b
00000080: 6d2d 39bc 4dc3 e6bb a945 4f3b a997 fbbc
00000090: 3552 923d b824 d5bc 6624 2bbc 4445 9c3c
000000a0: b055 973c 6f72 573b c78d 04bc f27b 7f3c
000000b0: 81c5 fa3c 01ad 5cbd 581b 013d f660 233b
000000c0: 1383 9d3c 5a5e 14bc c2ee a63c b5df a63c
000000d0: b869 ffbb 7abb 2b3c a03a 703c a138 5a3d
000000e0: 7212 a0bd 0d4a 79bb 6034 973a 7546 51bc
000000f0: 3e26 02bc 699f 16bc 3db1 863b 391e da3c
00000100: e821 c43c 9c9d 9a3d 1b54 10bd 5165 003d
00000110: 93fe babc d5a2 0dbc 506b 02bd e99a aebc
00000120: 6aee 4cbc dd0c 5bbc ee18 d23d 15f8 47be
00000130: 814c 12bd a7f2 4b3c 531a 443b 04f5 e63c
00000140: 171a fa3b 0df5 ab3c f819 903c 1e11 c9bb
00000150: 2670 ddbc f728 b83d 93d0 723c ad50 89bc
00000160: c789 d8ba 34e3 253d a9d6 b4bc 2d3b d7ba
00000170: be77 123d 3606 50bc cb57 12bd a311 da3d
00000180: 8e11 44bc a171 febb fabf 94bc 6cf4 0080
00000190: 28b5 703a 3716 cabb 7655 0100 7ca5 963c
000001a0: 3370 1b3b 886f 88bc 52c9 19bd 31c5 18a6
000001b0: c892 23bc 31fe 30bb bc2d 5d3c 7fcb 2d3c
000001c0: 10a2 b63b dd57 343c fed1 613d 78bc 18bd
000001d0: 5131 f13c 8f0c 8dbc 2c30 183c 50bb dd3b
000001e0: 50a9 0180 db48 4a3b 4086 823b dbeb c8bc
000001f0: 5c68 433c 3988 d5bd 1c32 5b3b 5705 b63b
00000200: 8eb3 27bb aa79 c1bc 5c87 0ebb 4a9d 27bb
00000210: ed93 ca3a b7d5 f53b 5488 96bb a3de 4fbd
00000220: c237 923b f6fc 9dbc ae23 7b3b b0e6 063c
00000230: 3465 2e3b fc0b f5ba 4f73 3cb5 3ff3 163b
00000240: f61a acbb 02d2 43bc aba3 e43b 73c7 0ab7
00000250: c2ad 37bb 67a1 003b 2dd0 2cb8 5453 9838
00000260: 6f12 f4a4 9f04 45b8 c031 27b8 b069 d437
00000270: 325c 87b9 8492 1529 e0a3 3a38 6837 2837
00000280: 6403 68ad 61d8 00a5 9003 5fb1 7a7b 3939
00000290: 09ef 59b9 a29a 1c34 fc41 e6b1 eaf4 28b8
000002a0: fd54 4339 c591 abb9 1ac2 8baf 1f72 b725
000002b0: 7fab 1937 d047 07b9 9134 02b8 f682 8438
000002c0: 3ca7 b4b5 a5bf a9b9 8d7b 24b9 76ab a239
000002d0: ba33 7d34 50df 6e36 72fc fc34 2c36 5bba
000002e0: b189 8439 14f3 0fb9 d489 e9b7 66ec 74b8
000002f0: dc30 3b3a 0014 0a39 3c0b fa34 109d ddb8
00000300: 4deb 8236 4146 b235 263e e537 a15d 7538
00000310: 596c ed39 4cc4 32b8 ae5c 55b8 f374 aa36
00000320: afdb 803b 798e 813a dc7d ef3c 03d0 453a
00000330: 7830 b3bd add5 a2bd e410 31bd 58bd cebb
00000340: 1323 ba3a 29e9 733c 6ac0 173d ef01 2a3d
00000350: d8a7 99ba 446a 79bb 8462 b63d 1a26 ebbd
00000360: 6f84 3a3d ba25 edbc 42f0 13bc f0a0 cf3b
00000370: 1f37 95bb 4254 c23c 957f 1abd 71d4 6a3b
00000380: fd9e b53d 3aaf eebd ec5f b1bd 445e 0d3d
00000390: 0028 83bc 8cbb 05bc 5e72 69bc 08aa b63c
000003a0: 9582 c73c c8bd a83a dadd 0abe c453 b13d
000003b0: 328d a2bc 8f82 a0bc ce00 6d3c c5da b93b
000003c0: 3ce1 ab3a 7b4a 04bc d149 18bb 0005 643c
000003d0: fd31 9c3c 8872 163d 3b9b b93d 1299 91bc
000003e0: 4c8f 1a3c f70f 18bc ec8b 8994 faec 3d93
000003f0: 6084 6d14 830e 0180 faba 8015 8979 a796

out.0.weight f4 [1, 3200]
-0.0029498904 0.0056962203 -0.00035165105 -0.022547398 0.037267298 0.033892706 -0.0014610344 0.0050552473
0.008903207 -0.007253304 0.013954922 0.0019263114 0.013661276 0.03631945 -0.07186098 0.033713948
-0.024966454 0.0012662704 0.015962569 -0.007968895 -0.014701913 -0.0026479014 -0.024165586 0.009912035
-0.09370765 -0.043483086 0.052226633 -0.03511336 0.023160966 -0.02147239 0.003232964 0.0027883935
-0.011302334 -0.0070423246 0.0031627214 -0.030711966 0.07144586 -0.026018485 -0.01044569 0.019075997
0.018473476 0.0032874604 -0.008090443 0.015593516 0.030611755 -0.053875927 0.031520218 0.002492962
0.01922754 -0.009055698 0.02037752 0.020370344 -0.007794585 0.01048171 0.014662415 0.05327666
-0.07816018 -0.0038038522 0.0011535995 -0.012773146 -0.007943688 -0.00919328 0.004110484 0.02662574
0.023941949 0.07549593 -0.03523646 0.031346623 -0.022826469 -0.008644779 -0.031840622 -0.021314101
-0.012508014 -0.013369766 0.10258661 -0.1952823 -0.03571749 0.01244799 0.0029922917 0.028193004
0.0076325047 0.020990873 0.017590508 -0.0061360737 -0.027031016 0.089921884 0.014820236 -0.016762102
-0.0016520553 0.04049988 -0.022075014 -0.0016420834 0.035758726 -0.012696793 -0.035728257 0.10647895
-0.011967076 -0.0077650105 -0.018157948 -8.7682e-41 0.0009182268 -0.006167199 1.22493e-40 0.018389456
0.0023718 -0.016654745 -0.03754551 -5.300284e-16 -0.009983726 -0.0027006979 0.013499673 0.010607599
0.0055735186 0.011007276 0.055131905 -0.037289113 0.029442461 -0.017217902 0.009288829 0.006766714
-1.52573e-40 0.003086618 0.003983289 -0.024526527 0.011926737 -0.10426373 0.0033446616 0.005554836
-0.00255892 -0.023617584 -0.002174816 -0.002557593 0.0015455462 0.0075022834 -0.0045938883 -0.050749432
0.0044622133 -0.01928566 0.0038320827 0.008233711 0.0026610615 -0.0018695588 -7.0203254e-07 0.002303317
-0.0052522374 -0.011951925 0.0069775186 -8.271879e-06 -0.0028027152 0.0019627453 -4.1201874e-05 7.263446e-05
-1.0584936e-16 -4.6972764e-05 -3.9862236e-05 2.5321584e-05 -0.00025817897 3.3211728e-14 4.4498476e-05 1.0026481e-05
-1.3188426e-11 -1.1175542e-16 -3.2452796e-09 0.00017688973 -0.0002078378 1.4584887e-07 -6.7013826e-09 -4.0282415e-05
0.0001862831 -0.00032724268 -2.542187e-10 3.182277e-16 9.15944e-06 -0.00012901356 -3.104337e-05 6.318644e-05
-1.3459717e-06 -0.00032376978 -0.00015686285 0.00031026796 2.3581279e-07 3.5594749e-06 4.7122336e-07 -0.0008362259
0.0002527959 -0.00013728096 -2.7839946e-05 -5.8394297e-05 0.00071407645 0.00013168156 4.6574303e-07 -0.000105673564
3.9016945e-06 1.328248e-06 2.7327867e-05 5.849975e-05 0.00045284888 -4.2621323e-05 -5.0869472e-05 5.0800095e-06
0.0039324383 0.0009884379 0.02923482 0.000754595 -0.08749479 -0.07950912 -0.043229 -0.0063091926
0.0014201127 0.014887133 0.037048735 0.04150575 -0.0011722995 -0.0038057724 0.08905509 -0.11481877
0.045536455 -0.028948653 -0.00902945 0.006336324 -0.00455369 0.023721818 -0.037719328 0.0035832191
0.08868215 -0.116545156 -0.08660874 0.034513727 -0.016010284 -0.00816239 -0.014248459 0.022297874
0.024354259 0.0012873942 -0.13561192 0.08658555 -0.019842718 -0.019593505 0.014465524 0.0056718313
0.001311339 -0.008074398 -0.0023237357 0.013917208 0.019066805 0.03673032 0.09062811 -0.017773185
0.009433579 -0.00928115 -1.3888654e-26 -2.3971992e-27 1.19915486e-26 -9.7041e-41 5.1993785e-26 -2.7057005e-25
00000000: f352 41bb 5ca7 ba3b ce5d b8b9 52b5 b8bc
00000010: 98a5 183d 14d3 0a3d 2e80 bfba 7da6 a53b
00000020: c2de 113c 20ad edbb 2fa3 643c 497c fc3a
00000030: 8bd3 5f3c b4c3 143d d92b 93bd a317 0a3d
00000040: 7386 ccbc fcf8 a53a efc3 823c f88f 02bc
00000050: 4be0 70bc 6a88 2dbb e8f6 c5bc 1766 223c
00000060: cce9 bfbd 521b 32bd 98eb 553d 07d3 0fbd
00000070: 11bc bd3c dee6 afbc 23e0 533b 7bbd 363b
00000080: 6d2d 39bc 4dc3 e6bb a945 4f3b a997 fbbc
00000090: 3552 923d b824 d5bc 6624 2bbc 4445 9c3c
000000a0: b055 973c 6f72 573b c78d 04bc f27b 7f3c
000000b0: 81c5 fa3c 01ad 5cbd 581b 013d f660 233b
000000c0: 1383 9d3c 5a5e 14bc c2ee a63c b5df a63c
000000d0: b869 ffbb 7abb 2b3c a03a 703c a138 5a3d
000000e0: 7212 a0bd 0d4a 79bb 6034 973a 7546 51bc
000000f0: 3e26 02bc 699f 16bc 3db1 863b 391e da3c
00000100: e821 c43c 9c9d 9a3d 1b54 10bd 5165 003d
00000110: 93fe babc d5a2 0dbc 506b 02bd e99a aebc
00000120: 6aee 4cbc dd0c 5bbc ee18 d23d 15f8 47be
00000130: 814c 12bd a7f2 4b3c 531a 443b 04f5 e63c
00000140: 171a fa3b 0df5 ab3c f819 903c 1e11 c9bb
00000150: 2670 ddbc f728 b83d 93d0 723c ad50 89bc
00000160: c789 d8ba 34e3 253d a9d6 b4bc 2d3b d7ba
00000170: be77 123d 3606 50bc cb57 12bd a311 da3d
00000180: 8e11 44bc a171 febb fabf 94bc 6cf4 0080
00000190: 28b5 703a 3716 cabb 7655 0100 7ca5 963c
000001a0: 3370 1b3b 886f 88bc 52c9 19bd 31c5 18a6
000001b0: c892 23bc 31fe 30bb bc2d 5d3c 7fcb 2d3c
000001c0: 10a2 b63b dd57 343c fed1 613d 78bc 18bd
000001d0: 5131 f13c 8f0c 8dbc 2c30 183c 50bb dd3b
000001e0: 50a9 0180 db48 4a3b 4086 823b dbeb c8bc
000001f0: 5c68 433c 3988 d5bd 1c32 5b3b 5705 b63b
00000200: 8eb3 27bb aa79 c1bc 5c87 0ebb 4a9d 27bb
00000210: ed93 ca3a b7d5 f53b 5488 96bb a3de 4fbd
00000220: c237 923b f6fc 9dbc ae23 7b3b b0e6 063c
00000230: 3465 2e3b fc0b f5ba 4f73 3cb5 3ff3 163b
00000240: f61a acbb 02d2 43bc aba3 e43b 73c7 0ab7
00000250: c2ad 37bb 67a1 003b 2dd0 2cb8 5453 9838
00000260: 6f12 f4a4 9f04 45b8 c031 27b8 b069 d437
00000270: 325c 87b9 8492 1529 e0a3 3a38 6837 2837
00000280: 6403 68ad 61d8 00a5 9003 5fb1 7a7b 3939
00000290: 09ef 59b9 a29a 1c34 fc41 e6b1 eaf4 28b8
000002a0: fd54 4339 c591 abb9 1ac2 8baf 1f72 b725
000002b0: 7fab 1937 d047 07b9 9134 02b8 f682 8438
000002c0: 3ca7 b4b5 a5bf a9b9 8d7b 24b9 76ab a239
000002d0: ba33 7d34 50df 6e36 72fc fc34 2c36 5bba
000002e0: b189 8439 14f3 0fb9 d489 e9b7 66ec 74b8
000002f0: dc30 3b3a 0014 0a39 3c0b fa34 109d ddb8
00000300: 4deb 8236 4146 b235 263e e537 a15d 7538
00000310: 596c ed39 4cc4 32b8 ae5c 55b8 f374 aa36
00000320: afdb 803b 798e 813a dc7d ef3c 03d0 453a
00000330: 7830 b3bd add5 a2bd e410 31bd 58bd cebb
00000340: 1323 ba3a 29e9 733c 6ac0 173d ef01 2a3d
00000350: d8a7 99ba 446a 79bb 8462 b63d 1a26 ebbd
00000360: 6f84 3a3d ba25 edbc 42f0 13bc f0a0 cf3b
00000370: 1f37 95bb 4254 c23c 957f 1abd 71d4 6a3b
00000380: fd9e b53d 3aaf eebd ec5f b1bd 445e 0d3d
00000390: 0028 83bc 8cbb 05bc 5e72 69bc 08aa b63c
000003a0: 9582 c73c c8bd a83a dadd 0abe c453 b13d
000003b0: 328d a2bc 8f82 a0bc ce00 6d3c c5da b93b
000003c0: 3ce1 ab3a 7b4a 04bc d149 18bb 0005 643c
000003d0: fd31 9c3c 8872 163d 3b9b b93d 1299 91bc
000003e0: 4c8f 1a3c f70f 18bc ec8b 8994 faec 3d93
000003f0: 6084 6d14 830e 0180 faba 8015 8979 a796

exp_avg f4 [32, 2, 5, 5]
3.943331e-05 -0.0003193885 -0.00070730137 -0.0009917598 -0.0012670009 3.390302e-05 -0.00021429692 -0.00044469754
-0.00071076956 -0.0009089247 1.2845585e-05 -0.00018119349 -0.0003331773 -0.0004200366 -0.0004513375 -4.4839926e-06
-0.00013497226 -0.00019145117 -0.00018348948 -0.00017543907 -2.4999445e-05 -9.151209e-05 -0.00013967972 -3.9897353e-05
0.000108072985 -0.00012470668 -0.00041468866 -0.00074058474 -0.0012038863 -0.0015875192 -0.000111005436 -0.00038118946
-0.0006048257 -0.000869046 -0.0010323003 -0.00011683925 -0.00030337754 -0.00035290833 -0.00056349806 -0.00061545975
-0.0001671587 -0.00021402401 -0.00027294905 -0.00026461776 -0.00020103878 -0.000155189 -0.00013514329 -0.000158625
-8.0280464e-05 2.87588e-05 -0.00022220763 0.00021443279 0.0008726274 0.0015855907 0.0021757868 8.250116e-05
0.00050028664 0.0010783342 0.0017965254 0.00236851 0.00026521244 0.000634334 0.0011877109 0.0017803687
0.0023372695 0.00033227645 0.0006462285 0.0011109172 0.001595437 0.002079739 0.00027842255 0.00052272016
0.0008793511 0.0013158191 0.0016875161 -0.00018006498 0.000232233 0.0007791787 0.0014163406 0.001992384
0.000108738124 0.00051252317 0.0010545383 0.0016252899 0.0021719688 0.00031794456 0.00066733063 0.0011136535
0.0016501821 0.0021631776 0.00037290744 0.0006585766 0.0010392336 0.0015101987 0.0019397248 0.0003094983
0.0005469081 0.0008411601 0.0011807429 0.0015696211 0.00026262878 0.00025089728 0.00016280118 0.00013453148
5.5675082e-05 0.00036227333 0.0003386602 0.00027533356 0.00020169829 0.0001687098 0.00036390044 0.0003991503
0.00039699025 0.0003354184 0.0003149345 0.0003816617 0.00045030977 0.00047662947 0.0004825002 0.00045987172
0.00062903285 0.00076905085 0.00083070924 0.00085921003 0.0009294688 0.00021411115 0.00020340033 0.00020061694
0.0001546792 0.00014851043 0.0003447136 0.0003536473 0.00032347915 0.00024008656 0.00020028536 0.00045182835
0.0004927344 0.0004152846 0.00037369446 0.00032295584 0.0004567942 0.0005416329 0.0005310224 0.00048890844
0.00046525145 0.00072029646 0.0008406842 0.0008837479 0.0008877748 0.0008547746 -0.00026745792 -0.00084734196
-0.0014472377 -0.002115619 -0.0026412935 -0.00087703473 -0.0015178156 -0.0022173591 -0.0028071965 -0.0032203256
-0.0014793931 -0.0021635315 -0.0028892376 -0.0033627776 -0.003716186 -0.0018192199 -0.0026313013 -0.0033039388
-0.003777979 -0.003936065 -0.0019090016 -0.0028161842 -0.0035057392 -0.0038834757 -0.0039474773 7.133565e-05
-0.00016594784 -0.0007451099 -0.0013722717 -0.002219962 -0.00040265507 -0.00079356483 -0.0013504885 -0.0020033207
-0.0027164528 -0.0008258679 -0.001370449 -0.0019191396 -0.002551323 -0.0031297395 -0.0010973952 -0.0017405334
-0.0024195912 -0.0029534576 -0.003446406 -0.0011446264 -0.0018643119 -0.002594305 -0.0031541009 -0.003565773
-0.0013277646 -0.001502181 -0.0015115455 -0.0014279 -0.0012606354 -0.0012273637 -0.0014249611 -0.0014831707
-0.0014722284 -0.0013732841 -0.001062817 -0.001339276 -0.0014776075 -0.0014973133 -0.0014462909 -0.0009151491
-0.0012912538 -0.0014193779 -0.0014971239 -0.0014457867 -0.0009891599 -0.0013437357 -0.0015108575 -0.0015406312
-0.0014877731 -0.0015559928 -0.0016623618 -0.0015931549 -0.0014696711 -0.0012227786 -0.0013542781 -0.001573048
-0.0015853973 -0.0015035502 -0.0012745548 -0.0011594697 -0.0014744451 -0.0014839955 -0.001502979 -0.0013285526
-0.0010561143 -0.0013667537 -0.0014940652 -0.0014877997 -0.0013908003 -0.0010929346 -0.0014916869 -0.0015706965
-0.001591211 -0.0014638306 0.0002842502 -0.0001702054 -0.0007589036 -0.0013818769 -0.0018701964 0.00018549789
00000000: 3265 2538 9973 a7b9 316a 39ba f0fd 81ba
00000010: 7f11 a6ba 1733 0e38 e4b4 60b9 4b26 e9b9
00000020: f052 3aba e744 6eba 5e83 5737 c2fe 3db9
00000030: 4dae aeb9 5c38 dcb9 7ea1 ecb9 3475 96b6
00000040: 5787 0db9 48c0 48b9 1567 40b9 11f6 37b9
00000050: e6b5 d1b7 2eea bfb8 fd76 12b9 7557 27b8
00000060: 3ea5 e238 b2c3 02b9 926a d9b9 cd23 42ba
00000070: b9cb 9dba 4e14 d0ba 97cb e8b8 62da c7b9
00000080: 2a8d 1eba b1d0 63ba 404e 87ba 9807 f5b8
00000090: a50e 9fb9 8e06 b9b9 b7b7 13ba ce56 21ba
000000a0: 5247 2fb9 a26b 60b9 9a1a 8fb9 65bc 8ab9
000000b0: f0cd 52b9 3bba 22b9 40b5 0db9 9354 26b9
000000c0: 3f5c a8b8 0e3f f137 6800 69b9 5dd9 6039
000000d0: 09c1 643a 98d3 cf3a a597 0e3b 7904 ad38
000000e0: ab25 033a e456 8d3a 6479 eb3a 0139 1b3b
000000f0: 360c 8b39 6f49 263a f7ac 9b3a 435b e93a
00000100: e02c 193b 6435 ae39 a967 293a 329c 913a
00000110: fb1d d13a 3b4c 083b 3ef9 9139 2807 093a
00000120: 4184 663a 9077 ac3a a52f dd3a d3cf 3cb9
00000130: 9283 7339 cc41 4c3a 81a4 b93a a892 023b
00000140: 560a e438 d95a 063a 6f38 8a3a ae07 d53a
00000150: 9757 0e3b ccb1 a639 cdef 2e3a 03f8 913a
00000160: ec4a d83a 19c4 0d3b ca82 c339 54a4 2c3a
00000170: e536 883a dcf1 c53a 5d3e fe3a 2944 a239
00000180: 625e 0f3a 4c81 5c3a 28c3 9a3a bfbb cd3a
00000190: 70b1 8939 dd8a 8339 9cb5 2a39 0511 0d39
000001a0: aa84 6938 81ef bd39 348e b139 a55a 9039
000001b0: f97e 5339 b1e7 3039 e4c9 be39 0c45 d139
000001c0: 2123 d039 18db af39 cb1d a539 c419 c839
000001d0: 8e17 ec39 20e4 f939 15f8 fc39 f01a f139
000001e0: aee5 243a 219a 493a f4c3 593a 9c3c 613a
000001f0: 98a7 733a 0683 6039 dc47 5539 b35c 5239
00000200: 6231 2239 77b9 1b39 adba b439 bd69 b939
00000210: a398 a939 bfbf 7b39 b103 5239 60e3 ec39
00000220: d92a 013a 8eba d939 6cec c339 6652 a939
00000230: e17d ef39 5efc 0d3a 4f34 0b3a 172a 003a
00000240: feec f339 47d2 3c3a 5d61 5c3a 51ab 673a
00000250: 8fb9 683a f412 603a 9839 8cb9 2820 5eba
00000260: 3db1 bdba 32a6 0abb 8d19 2dbb cee8 65ba
00000270: 71f1 c6ba 1d51 11bb f1f8 37bb 190c 53bb
00000280: 32e8 c1ba 09ca 0dbb 5d59 3dbb 0c62 5cbb
00000290: 418b 73bb e472 eeba e971 2cbb e586 58bb
000002a0: f897 77bb 1bfa 80bb 7737 faba bb8f 38bb
000002b0: 8bc0 65bb e981 7ebb d759 81bb 099a 9538
000002c0: 4902 2eb9 7b53 43ba ccdd b3ba c87c 11bb
000002d0: 731b d3b9 3c07 50ba e002 b1ba 254a 03bb
000002e0: 8406 32bb 0e7f 58ba a3a0 b3ba a48b fbba
000002f0: 1934 27bb 511c 4dbb 79d6 8fba 9c22 e4ba
00000300: 0192 1ebb cc8e 41bb 19dd 61bb 4a07 96ba
00000310: ed5b f4ba 3705 2abb 08b5 4ebb beaf 69bb
00000320: 6308 aeba d5e4 c4ba 0d1f c6ba 6028 bbba
00000330: e83b a5ba 7edf a0ba c3c5 baba f366 c2ba
00000340: caf7 c0ba c5ff b3ba 394e 8bba a58a afba
00000350: 48ac c1ba 7f41 c4ba 7891 bdba 9ee6 6fba
00000360: 4a3f a9ba 6b0a baba 243b c4ba 8d80 bdba
00000370: b3a6 81ba 4a20 b0ba f707 c6ba 01ef c9ba
00000380: 6201 c3ba 74f2 cbba 9be3 d9ba 68d1 d0ba
00000390: fba1 c0ba a445 a0ba 0882 b1ba bb2e ceba
000003a0: 1bcd cfba c612 c5ba f60e a7ba 59f9 97ba
000003b0: 2b42 c1ba a082 c2ba 9bff c4ba d422 aeba
000003c0: 516d 8aba a524 b3ba 82d4 c3ba 4602 c3ba
000003d0: 844b b6ba cd40 8fba b584 c3ba d4df cdba
000003e0: 2e90 d0ba 01de bfba 6b07 9539 2a79 32b9
000003f0: 29f1 46ba 1820 b5ba 6121 f5ba 3682 4239

exp_avg_sq f4 [32, 2, 5, 5]
3.1146683e-06 2.442046e-06 2.9319845e-06 5.4871666e-06 1.1791148e-05 3.08941e-06 2.4347057e-06 2.524487e-06
3.7312354e-06 7.074705e-06 3.190572e-06 2.5199304e-06 2.3926143e-06 2.814776e-06 4.5535708e-06 3.4832094e-06
2.6185353e-06 2.3884902e-06 2.6338362e-06 4.121549e-06 3.9065344e-06 2.7855792e-06 2.5189527e-06 2.8055374e-06
4.6667024e-06 3.265611e-06 2.7577307e-06 3.890019e-06 8.226298e-06 1.808036e-05 3.3091287e-06 2.631969e-06
2.9806001e-06 5.021094e-06 1.0209018e-05 3.521562e-06 2.6737027e-06 2.4949206e-06 3.1429565e-06 5.4790094e-06
3.8568473e-06 2.8009997e-06 2.40154e-06 2.5796649e-06 4.0771592e-06 4.2983725e-06 3.0041988e-06 2.5015938e-06
2.6948705e-06 4.3766813e-06 7.95227e-06 9.502235e-06 1.4490173e-05 2.5253883e-05 4.14678e-05 8.406867e-06
1.02901895e-05 1.6614396e-05 3.0113242e-05 5.0188963e-05 7.868067e-06 9.733513e-06 1.6432185e-05 3.064365e-05
5.143189e-05 6.532399e-06 8.13367e-06 1.4244898e-05 2.6972451e-05 4.5059638e-05 5.083757e-06 6.318867e-06
1.1245603e-05 2.117892e-05 3.4612014e-05 8.94729e-06 9.717489e-06 1.166311e-05 1.7439177e-05 2.889323e-05
9.256991e-06 1.0131974e-05 1.2868624e-05 2.0592677e-05 3.526155e-05 8.437248e-06 9.257762e-06 1.2437182e-05
2.1026151e-05 3.6606223e-05 6.801822e-06 7.5167823e-06 1.0674363e-05 1.8738314e-05 3.257015e-05 5.123173e-06
5.729327e-06 8.527861e-06 1.509868e-05 2.5540812e-05 5.3879858e-06 3.904824e-06 4.678778e-06 6.045395e-06
7.3649367e-06 8.39265e-06 4.54786e-06 4.273006e-06 5.3971144e-06 6.7001943e-06 1.623157e-05 7.814758e-06
5.037731e-06 5.1101442e-06 6.1127403e-06 2.7704851e-05 1.333716e-05 6.9249522e-06 5.24697e-06 5.6676367e-06
3.827627e-05 1.865995e-05 8.644936e-06 4.967424e-06 4.556279e-06 5.2065984e-06 3.7264083e-06 4.352028e-06
5.5196565e-06 6.586577e-06 8.913995e-06 4.8009597e-06 4.109045e-06 4.8733204e-06 5.901199e-06 1.820382e-05
9.075124e-06 5.3495746e-06 4.750487e-06 5.351662e-06 3.165931e-05 1.597239e-05 8.008388e-06 5.2398914e-06
5.056672e-06 4.4532608e-05 2.316586e-05 1.1063679e-05 5.9074437e-06 4.604307e-06 2.4422214e-05 2.183555e-05
2.4702558e-05 3.637674e-05 5.855524e-05 2.7880107e-05 2.6392487e-05 3.1784715e-05 4.7813195e-05 7.5755066e-05
3.182401e-05 3.0127612e-05 3.5704375e-05 5.2889485e-05 8.216262e-05 3.5937417e-05 3.2934957e-05 3.636952e-05
5.1217234e-05 7.749448e-05 3.7299847e-05 3.3462165e-05 3.59188e-05 4.9911687e-05 7.3982585e-05 2.7507367e-05
2.5432746e-05 2.7236605e-05 3.7446625e-05 6.0864568e-05 3.020554e-05 2.7886706e-05 3.1369615e-05 4.613163e-05
7.655996e-05 3.292958e-05 2.9395935e-05 3.2294956e-05 4.8278875e-05 8.0386235e-05 3.5791978e-05 3.0310657e-05
3.0716536e-05 4.4608303e-05 7.3309886e-05 3.460727e-05 2.8546108e-05 2.8920487e-05 4.2823947e-05 6.984449e-05
1.2093483e-05 1.1797091e-05 1.1146734e-05 1.0077024e-05 9.373577e-06 1.0936103e-05 1.1579406e-05 1.1320834e-05
1.0174642e-05 8.761656e-06 1.0146184e-05 1.1527427e-05 1.1700592e-05 1.05784675e-05 8.845848e-06 9.962417e-06
1.1771507e-05 1.229201e-05 1.1314353e-05 9.508516e-06 1.0754585e-05 1.3163133e-05 1.4087335e-05 1.3375188e-05
1.1571199e-05 1.3797985e-05 1.3506227e-05 1.2258229e-05 1.0706919e-05 1.0232544e-05 1.2056494e-05 1.277641e-05
1.2119806e-05 1.0492362e-05 9.065337e-06 1.0944284e-05 1.2424847e-05 1.2263941e-05 1.0746558e-05 8.814634e-06
1.0559834e-05 1.2582283e-05 1.2881321e-05 1.1487132e-05 9.380244e-06 1.1596113e-05 1.4243654e-05 1.49697435e-05
1.379968e-05 1.1581422e-05 9.039558e-06 4.3007e-06 5.125946e-06 9.754465e-06 1.7835559e-05 4.6180485e-06
00000000: 9805 5136 08e2 2336 1cc3 4436 671e b836
00000010: 98d2 4537 a953 4f36 ed63 2336 5b6a 2936
00000020: 2366 7a36 4163 ed36 9c1d 5636 131c 2936
00000030: cd90 2036 7ce5 3c36 e0ca 9836 15c1 6936
00000040: 18ba 2f36 f349 2036 f6c0 3036 d64b 8a36
00000050: e014 8336 e3ef 3a36 470b 2936 c446 3c36
00000060: ab96 9c36 c526 5b36 7411 3936 0287 8236
00000070: ae03 0a37 47ab 9737 6612 5e36 e2a0 3036
00000080: 5206 4836 de7a a836 6647 2b37 f953 6c36
00000090: dd6d 3336 696e 2736 95eb 5236 55d8 b736
000000a0: 116a 8136 cff8 3b36 252a 2136 4e1e 2d36
000000b0: 88ce 8836 bd3a 9036 be9b 4936 0ee1 2736
000000c0: 86d9 3436 68db 9236 bd6a 0537 ca6b 1f37
000000d0: d21a 7337 4dd8 d337 b6ed 2d38 380b 0d37
000000e0: 07a4 2c37 255f 8b37 b29b fc37 fd81 5238
000000f0: 1701 0437 1f4d 2337 d9d7 8937 5e87 0038
00000100: 92b8 5738 e130 db36 d975 0837 5ffd 6e37
00000110: e642 e237 6bfe 3c38 2495 aa36 a706 d436
00000120: 7fab 3c37 62a9 b137 5e2c 1138 511c 1637
00000130: 4c08 2337 adac 4337 594a 9237 bd5f f237
00000140: 794e 1b37 7ffc 2937 52e6 5737 70be ac37
00000150: cde5 1338 b48d 0d37 c951 1b37 4aa9 5037
00000160: 5161 b037 a289 1938 353b e436 ab38 fc36
00000170: 0a16 3337 3930 9d37 ef9b 0838 b9e7 ab36
00000180: 8b3e c036 e212 0f37 5650 7d37 7a40 d637
00000190: 72ca b436 2f06 8336 66fe 9c36 8cd9 ca36
000001a0: 5320 f736 28ce 0c37 d299 9836 d860 8f36
000001b0: dc18 b536 3bd2 e036 0829 8837 211c 0337
000001c0: c809 a936 ce77 ab36 0a1c cd36 b767 e837
000001d0: abc2 5f37 e35c e836 210f b036 a12c be36
000001e0: d58a 2038 f087 9c37 b809 1137 d9ad a636
000001f0: 23e2 9836 57b4 ae36 3513 7a36 a307 9236
00000200: 7d35 b936 4402 dd36 518d 1537 ee17 a136
00000210: 6ee0 8936 8185 a336 ea02 c636 68b4 9837
00000220: 5c41 1837 7f80 b336 5f66 9f36 6d92 b336
00000230: edc9 0438 72fc 8537 c45b 0637 53d2 af36
00000240: 7bac a936 86c8 3a38 4e54 c237 249e 3937
00000250: 8e38 c636 b27e 9a36 4ede cc37 7d2b b737
00000260: 5738 cf37 3a93 1838 3699 7538 13e0 e937
00000270: 6f65 dd37 9450 0538 078b 4838 b1de 9e38
00000280: c57a 0538 8eba fc37 48c1 1538 a7d5 5d38
00000290: b94e ac38 82bb 1638 a423 0a38 7a8b 1838
000002a0: 16d2 5638 8884 a238 6872 1c38 ba59 0c38
000002b0: 85a7 1638 4458 5138 1927 9b38 9fbf e637
000002c0: 6858 d537 2a7a e437 0210 1d38 d548 7f38
000002d0: e761 fd37 3fee e937 de92 0338 767d 4138
000002e0: d18e a038 de1d 0a38 4a97 f637 7274 0738
000002f0: 0c7f 4a38 0895 a838 581f 1638 a443 fe37
00000300: a1d5 0038 cd19 3b38 f2bd 9938 4627 1138
00000310: 4d76 ef37 469a f237 dd9d 3338 7a79 9238
00000320: 1de5 4a37 1fec 4537 dc02 3b37 7d10 2937
00000330: 3543 1d37 347a 3737 2c45 4237 9dee 3d37
00000340: c1b3 2a37 07ff 1237 8739 2a37 ec65 4137
00000350: a94d 4437 2c7a 3137 a168 1437 4124 2737
00000360: 3d7e 4537 c839 4e37 c7d2 3d37 c486 1f37
00000370: 976e 3437 3ad7 5c37 a558 6c37 ff65 6037
00000380: ec21 4237 e57d 6737 ce98 6237 b1a8 4d37
00000390: dea1 3337 71ac 2b37 3f46 4a37 435a 5637
000003a0: 2c56 4b37 5a08 3037 5317 1837 589d 3737
000003b0: 5074 5037 3ac1 4d37 1d4c 3437 91e2 1337
000003c0: 242a 3137 7e18 5337 da1c 5837 dbb8 4037
000003d0: d75f 1d37 ed8c 4237 07f8 6e37 8f26 7b37
000003e0: 2d85 6737 d44d 4237 9ba8 1737 bb4e 9036
000003f0: 8aff ab36 1ca7 2337 929d 9537 bcf4 9a36

exp_avg f4 [32]
0.00026338108 0.0011489473 0.00043131824 -0.0021098654 0.0027050022 -0.00057536183 -0.002077905 0.0028884893
-0.0019002343 0.0018774637 0.0008731203 -0.00211256 0.001407281 0.0011016867 -0.002308263 0.00023720415
0.00036158218 -0.00121727 -0.0010177568 0.00094309484 0.00083157676 0.0015575001 -0.0009797416 0.0011931226
0.0021316085 -0.0013496494 -0.0007357454 -0.00044505086 0.0007682813 0.00030937482 0.0004821044 0.00051511824
00000000: 6916 8a39 4698 963a 8e22 e239 ab45 0abb
00000010: 6846 313b e1d3 16ba 762d 08bb cf4c 3d3b
00000020: 4811 f9ba 3a15 f63a 1de2 643a e072 0abb
00000030: 8474 b83a 7966 903a 3a46 17bb 01ba 7839
00000040: bd92 bd39 ce8c 9fba 4066 85ba 063a 773a
00000050: 2cfe 593a 0825 cc3a ac6a 80ba 8d62 9c3a
00000060: 75b2 0b3b b8e6 b0ba 0adf 40ba b755 e9b9
00000070: 7c66 493a 9633 a239 f5c2 fc39 0009 073a
