results/2BS/T_1/L_2000/seed2/model_best.pth.tar (torch_old, 395618 bytes, 22 tensors)

layer1.conv.weight f4 [32, 2, 5, 5]
-0.023767263 0.0061696335 -0.024584511 -0.105652705 0.023461737 0.026034065 -0.004972232 0.020770272
-0.002766708 -0.044608034 0.040615313 -0.10490758 0.0207366 -0.085731894 0.045569994 0.09354965
-0.06688562 -0.048163414 0.073638186 -0.06757156 -0.047180027 -0.070105284 -0.0034776675 0.009505818
0.038477972 0.0027600715 -0.052203704 -0.006529763 -0.020466473 0.07977244 -0.02247711 -0.02534394
-0.026647601 -0.0106509505 -0.04245001 0.0063479245 0.016513541 0.013250042 0.061521567 0.041557748
-0.01643249 0.020725897 -0.017114379 0.05078295 -0.07148964 -0.05643164 0.06575567 0.025986766
0.011089126 -0.05272924 -0.06737145 0.04688174 0.041593183 0.12665111 0.00020231136 -0.037206102
0.027911711 -0.00536329 0.07531836 -0.068193726 -0.06307527 0.0021551945 0.032837085 0.038794383
0.08068791 0.12663203 -0.032475386 0.14307435 -0.03707007 -0.013307181 -0.004190325 0.010322445
0.028328905 0.0018527529 -0.10185045 -0.042031094 0.019448018 -0.0062388275 -0.04176776 0.0022520067
-0.029450528 0.08927867 -0.02687237 0.03289133 -0.07658791 0.0121451905 -0.019127201 -0.045465972
0.035997067 0.07480474 -0.08917299 0.027375177 -0.04139955 -0.03568846 -0.01534122 -0.02840404
-0.024914745 0.032278154 0.030774062 -0.022442825 -0.035565987 -0.0536268 0.009369048 0.01295992
0.014276671 0.0417938 0.12902878 0.053040076 -0.043912902 -0.00338498 0.067177296 0.059752505
0.05389239 0.02536211 -0.051521394 0.07799601 0.030483238 -0.05834433 0.019815195 -0.003769814
0.020813808 0.06697777 -0.020904964 0.05960648 0.037336152 -0.09386213 -0.014738145 -0.038787875
0.036603756 -0.10410035 -0.038784567 -0.0673796 -0.041829903 -0.054759514 -0.065010294 -0.058352906
-0.029449198 9.086279e-05 -0.026629552 0.063781515 -0.0014426835 0.008113734 0.018418951 -0.0077574807
-0.021316996 -0.08777455 0.06378362 -0.021594336 -0.08823127 -0.04074868 -0.05642026 -0.061045136
0.01708832 -0.0235136 0.035930254 -0.04201402 -0.04098476 0.032249656 0.014740929 -0.08268566
0.085779056 -0.0601087 -0.124708526 0.016632313 0.025632435 0.076121956 -0.05636814 -0.007141559
-0.091734335 0.011205308 0.051733814 0.019928925 -0.055729665 -0.06797004 0.0018427083 -0.049396314
0.077282734 -0.0003216928 0.061216906 0.0119043095 -0.0010507917 0.055565894 -0.007670572 0.05756688
0.006344845 0.053937413 -0.011395331 0.010220689 -0.04719456 0.07233383 0.04514947 -0.04991447
0.02619853 -0.01896142 0.025617752 0.02948541 0.059071723 -0.036283594 0.057385653 0.12043691
-0.0012050882 -0.02228864 0.1100465 0.036922917 -0.15311655 -0.04308505 -0.08700273 -0.0706058
-0.046681806 0.023351183 -0.04360262 0.04786798 -0.054099943 -0.05422069 -0.045085326 -0.08390075
-0.03285342 -0.0669787 -0.040237445 -0.06892379 -0.05663891 -0.017121214 -0.06760365 0.0087906895
-0.0660086 -0.030376453 0.042161494 -0.038773447 -0.020751813 -0.0209017 -0.039827123 0.04769209
-0.02636043 -0.049879562 -0.024318885 0.07855881 -0.08427689 -0.039617106 -0.0039766114 -0.00011834208
0.07909807 -0.0016159699 0.06305635 0.011575265 -0.06174814 -0.02752249 -0.030041555 0.004750636
0.024705533 -0.059949882 0.03930579 0.04908962 -0.07819977 0.1203279 -0.012756913 0.08042932
00000000: 90b3 c2bc a32a ca3b 7565 c9bc 7260 d8bd
00000010: d432 c03c 6445 d53c 1bee a2bb 6b26 aa3c
00000020: a851 35bb eab6 36bd 3e5c 263d c9d9 d6bd
00000030: cddf a93c 3494 afbd 9aa7 3a3d f596 bf3d
00000040: 54fb 88bd 0047 45bd 9ecf 963d f562 8abd
00000050: d83f 41bd 5c93 8fbd 94e9 63bb 4abe 1b3c
00000060: 149b 1d3d 51e2 343b 8dd3 55bd 9ff7 d5bb
00000070: 4ea9 a7bc bc5f a33d eb21 b8bc 189e cfbc
00000080: 124c dabc 5381 2ebc 10e0 2dbd 4002 d03b
00000090: 6847 873c b416 593c 0afe 7b3d 7538 2a3d
000000a0: 6e9d 86bc 5bc9 a93c 7433 8cbc c801 503d
000000b0: 2969 92bd dd24 67bd e9aa 863d 33e2 d43c
000000c0: 2aaf 353c 9efa 57bd 0bfa 89bd 1107 403d
000000d0: 9d5d 2a3d d4b0 013e 8b23 5439 6d65 18bd
000000e0: 1aa7 e43c 8abe afbb 8340 9a3d 27a9 8bbd
000000f0: 9b2d 81bd 2a3e 0d3b 2e80 063d dce6 1e3d
00000100: b43f a53d d4ab 013e e904 05bd 1582 123e
00000110: c9d6 17bd 5d06 5abc fe4e 89bb 791f 293c
00000120: 0512 e83c 12d8 f23a f896 d0bd cc28 2cbd
00000130: 7351 9f3c 146f ccbb ac14 2bbd 6796 133b
00000140: 3c42 f1bc bcd7 b63d 7223 dcbc 0fb9 063d
00000150: 1fda 9cbd 9ffc 463c a6b0 9cbc 873a 3abd
00000160: a971 133d 3a33 993d 54a0 b6bd e841 e03c
00000170: 9392 29bd 102e 12bd be59 7bbc 97af e8bc
00000180: 021a ccbc 1936 043d e319 fc3c 04da b7bc
00000190: a4ad 11bd c7a7 5bbd a380 193c d855 543c
000001a0: b3e8 693c fa2f 2b3d 1f20 043e 8d40 593d
000001b0: 04de 33bd 8ad6 5dbb 4094 893d 0bbf 743d
000001c0: 44be 5c3d 33c4 cf3c 1908 53bd 5fbc 9f3d
000001d0: fcb7 f93c 77fa 6ebd 7a53 a23c fc0e 77bb
000001e0: b881 aa3c a42b 893d e340 abbc ed25 743d
000001f0: cbed 183d ca3a c0bd 4378 71bc 09e0 1ebd
00000200: d2ed 153d 9032 d5bd 91dc 1ebd 51fe 89bd
00000210: d555 2bbd 834b 60bd 1e24 85bd 7503 6fbd
00000220: 723f f1bc 978d be38 3826 dabc e29f 823d
00000230: 6d18 bdba 78ef 043c 57e3 963c 7732 febb
00000240: fba0 aebc 25c3 b3bd fda0 823d 9be6 b0bc
00000250: 99b2 b4bd 16e8 26bd ee18 67bd 770a 7abd
00000260: cefc 8b3c 989f c0bc 9a2b 133d e516 2cbd
00000270: a3df 27bd 3718 043d f083 713c 1957 a9bd
00000280: eeac af3d 8a34 76bd 2f67 ffbd 7d40 883c
00000290: 1dfb d13c d4e5 9b3d 47e2 66bd bd03 eabb
000002a0: 36df bbbd 7896 373c d6e6 533d fc41 a33c
000002b0: ca44 64bd e033 8bbd 0887 f13a ca53 4abd
000002c0: 6946 9e3d e0a8 a8b9 94be 7a3d 4b0a 433c
000002d0: b8ba 89ba 1099 633d 6c59 fbbb 40cb 6b3d
000002e0: 6be8 cf3b 7aed 5c3d 7bb3 3abc ad74 273c
000002f0: 154f 41bd c223 943d a7ee 383d 1e73 4cbd
00000300: 4d9e d63c fb54 9bbc 52dc d13c 638b f13c
00000310: 31f5 713d 1b9e 14bd 380d 6b3d a0a7 f63d
00000320: 0df4 9dba aa96 b6bc 0f60 e13d 7c3c 173d
00000330: 96ca 1cbe f379 30bd 7d2e b2bd c699 90bd
00000340: 6c35 3fbd fb4a bf3c a998 32bd 3711 443d
00000350: e797 5dbd 8416 5ebd 64ab 38bd 28d4 abbd
00000360: 4f91 06bd 212c 89bd 05d0 24bd ea27 8dbd
00000370: 34fe 67bd ca41 8cbc c873 8abd d306 103c
00000380: 842f 87bd 0ad8 f8bc 88b1 2c3d e8d0 1ebd
00000390: b5ff a9bc 0b3a abbc c421 23bd c858 433d
000003a0: d4f1 d7bc 834e 4cbd 6638 c7bc 71e3 a03d
000003b0: 5d99 acbd 8c45 22bd 3c4e 82bb 6c2e f8b8
000003c0: 2bfe a13d f4ce d3ba b023 813d 2ea6 3d3c
000003d0: 9eeb 7cbd d876 e1bc b519 f6bc 39ab 9b3b
000003e0: 4263 ca3c 028e 75bd 1cff 203d 3312 493d
000003f0: 3327 a0bd 796e f63d 5f02 51bc 21b8 a43d

layer1.conv.bias f4 [32]
-0.025214246 0.037243493 0.003721838 0.09466928 0.08909238 -0.013248203 -0.11586282 -0.102256216
0.0076614283 -0.022120697 -0.12519678 0.07862355 0.032871287 -0.05405428 0.022965409 -0.102148406
0.082967825 -0.021077594 -0.094494514 0.099924736 0.10222461 0.0044331388 0.07056549 0.079860814
0.122556426 -0.0038129212 -0.09847515 0.05477354 -0.12008789 -0.12047193 -0.13091677 -0.1123837
00000000: 1b8e cebc a28c 183d 14ea 733b f8e1 c13d
00000010: 1176 b63d fe0e 59bc 7c49 edbd b56b d1bd
00000020: b80c fb3b 7736 b5bc 9633 00be 6205 a13d
00000030: 0ba4 063d 0568 5dbd f421 bc3c 2f33 d1bd
00000040: 09eb a93d ebaa acbc 5786 c1bd 57a5 cc3d
00000050: 235b d13d dd43 913b a484 903d 118e a33d
00000060: ddfe fa3d 34e2 79bb 57ad c9bd 385a 603d
00000070: a4f0 f5bd fdb9 f6bd 0c0f 06be 6d29 e6bd

layer2.conv1.weight f4 [32, 32, 3, 3]
0.011723065 -0.017592518 0.06089622 -0.03876369 -0.032885842 0.048931856 0.07856696 -0.0051489435
0.09530374 0.08485957 0.15536541 0.021814821 -0.040049043 0.095756225 0.08849759 -0.049293697
0.14531977 0.005901738 0.19434856 -0.0038253549 0.07505483 -0.035137326 0.07954151 -0.1182059
-0.13855484 -0.011460874 0.0104006985 0.079454824 -0.07389713 0.12465504 -0.021870641 0.022945648
0.041614696 0.0517036 0.02636165 0.055110455 -0.009282782 -0.014245776 -0.11231669 -0.14777854
0.0151518015 0.029463867 0.038037803 -0.009129412 -0.048091885 -0.12139799 0.090565346 0.024508743
-0.034852434 -0.008070543 -0.03511858 -0.09392402 0.12537478 -0.00020558182 0.067837134 -0.014543676
-0.0195012 0.059576545 0.04294037 -0.08885309 0.036174826 -0.085736655 -0.029402006 -0.083012596
-0.081220396 -0.045666467 0.074961156 0.078443475 -0.027385525 -0.040533975 0.17855628 -0.0012169537
0.023876425 -0.037183844 0.07397614 0.036904342 0.048804134 0.092503086 -0.06665339 -0.027941296
0.02705954 0.09565714 -0.14936535 -0.05390275 0.0746098 -0.025998922 0.026683984 -0.065981366
0.0010110303 -0.03593422 0.079292215 0.2024473 -0.011181741 0.021443259 0.02289196 -0.019499995
0.026349684 -0.16051847 -0.15145609 -0.033798136 0.16290817 0.107224695 -0.018674992 0.017344696
0.031812947 -0.00396886 0.022066811 -0.032760467 -0.053066168 -0.21070522 -0.10589967 -0.08273455
-0.006092757 -0.030607795 0.043435127 -0.08258053 -0.031312954 -0.06407135 0.0680792 -0.07585212
-0.06835172 0.098374404 0.1718582 -0.078983426 -0.16228591 0.009445609 0.10022807 0.092803515
0.008648165 -0.06425606 0.041947186 -0.023916822 0.11368924 0.074461386 0.0406552 0.053762704
-0.011553371 -0.032481737 0.14903428 0.037119076 -0.031142114 -0.10788536 -0.030337451 -0.06944773
0.014909246 -0.09046056 -0.19543333 0.06915954 -0.05089409 0.032732934 0.010286695 -0.03686744
-0.03786375 -0.07444753 -0.007845258 -0.08615533 -0.111775905 0.060584426 -0.024035519 0.06630297
0.008546451 0.124667 -0.036935907 0.021588022 0.0533894 0.04562129 -0.01740047 0.11282426
-0.10152181 -0.020886315 -0.03292491 -0.23026603 0.027987242 0.0055161095 -0.054699242 0.045497265
-0.010691748 0.086882755 0.034721024 -0.060676076 0.051907174 0.15445027 0.024601512 0.15188307
0.048513122 0.013447864 0.09329357 -0.05666126 0.07485839 -0.09957665 0.076180406 0.005042179
-0.007992873 0.101039924 -0.032746743 0.1985533 -0.053532276 0.046114475 -0.11620091 0.11903598
0.07375008 -0.037248198 -0.002241471 0.058537368 -0.011249535 -0.0106995115 0.08575741 0.046142787
-0.057383627 0.043639496 0.015800308 0.09326738 -0.008968624 0.037113532 0.09143412 0.13280514
0.08070591 0.01963466 -0.120081864 -0.13647972 0.0012324059 0.07235769 -0.019561565 0.07145692
-0.08853446 0.08814641 0.013098144 0.106457986 0.067400366 0.03391646 -0.109858714 0.015738944
-0.07124697 -0.05970743 0.045848448 -0.13865371 0.050524846 -0.015743347 -0.015350648 0.02352242
0.12702455 -0.013201136 0.043916106 0.044287127 -0.09181023 -0.01029484 0.039746273 -0.062482398
0.091203615 -0.045695137 -0.03066485 0.08156433 0.053641617 0.0054732068 0.007439967 0.043901667
00000000: 1912 403c 2f1e 90bc 516e 793d adc6 1ebd
00000010: 4eb3 06bd c56c 483d b7e7 a03d 78b8 a8bb
00000020: 9b2e c33d dbca ad3d 1c18 1f3e ffb4 b23c
00000030: 770a 24bd d71b c43d 393e b53d 30e8 49bd
00000040: b5ce 143e 5e63 c13b 4f03 473e ceb2 7abb
00000050: 59b6 993d 28ec 0fbd a9e6 a23d ef15 f2bd
00000060: 52e1 0dbe 64c6 3bbc b167 2a3c 36b9 a23d
00000070: 6157 97bd 244b ff3d 0f2a b3bc 83f8 bb3c
00000080: 2c74 2a3d 27c7 533d 63f4 d73c 80bb 613d
00000090: cf16 18bc 1e67 69bc 4b06 e6bd 4253 17be
000000a0: 433f 783c 355e f13c 87cd 1b3d 8793 15bc
000000b0: fffb 44bd 829f f8bd 537a b93d 8fc6 c83c
000000c0: 6dc1 0ebd 503a 04bc 80d8 0fbd 3d5b c0bd
000000d0: 3f62 003e 7391 57b9 32ee 8a3d 9948 6ebc
000000e0: fbc0 9fbc 8906 743d 3ee2 2f3d 9cf8 b5bd
000000f0: 0e2c 143d b396 afbd 7adc f0bc 8202 aabd
00000100: e156 a6bd c30c 3bbd 3c85 993d f9a6 a03d
00000110: 9c57 e0bc f406 26bd 75d7 363e 3182 9fba
00000120: 7e98 c33c 164e 18bd cd80 973d 0229 173d
00000130: d8e6 473d 4272 bd3d 9381 88bd 25e5 e4bc
00000140: f8ab dd3c e4e7 c33d 3bf3 18be 21c9 5cbd
00000150: 06cd 983d b1fb d4bc 5f98 da3c 3d21 87bd
00000160: 8c84 843a c32f 13bd f563 a23d 584e 4f3e
00000170: 9f33 37bc c6a9 af3c eb87 bb3c 74be 9fbc
00000180: 4bdb d73c f45e 24be 4e17 1bbe ea6f 0abd
00000190: 66d1 263e 9f98 db3d 4cfc 98bc 7716 8e3c
000001a0: 4b4e 023d 360d 82bb 75c5 b43c d72f 06bd
000001b0: e95b 59bd 1cc3 57be ede1 d8bd bb70 a9bd
000001c0: c0a5 c7bb 33bd fabc 08e9 313d fb1f a9bd
000001d0: 0342 00bd d737 83bd 1c6d 8b3d 5b58 9bbd
000001e0: fdfb 8bbd 8578 c93d 99fb 2f3e 10c2 a1bd
000001f0: 472e 26be c1c1 1a3c 6044 cd3d c50f be3d
00000200: 08b1 0d3c ae98 83bd d0d0 2b3d 36ed c3bc
00000210: e7d5 e83d 367f 983d 1186 263d 4836 5c3d
00000220: 5a4a 3dbc 920b 05bd 719c 183e 2c0a 183d
00000230: bf1d ffbc 00f3 dcbd 3f86 f8bc 9d3a 8ebd
00000240: e945 743c 6343 b9bd ad1f 48be 84a3 8d3d
00000250: 5276 50bd f812 063d 8789 283c 5002 17bd
00000260: 0517 1bbd f277 98bd 6689 00bc 3572 b0bd
00000270: c4ea e4bd 6027 783d 23e6 c4bc dac9 873d
00000280: 6a06 0c3c 6951 ff3d 1b4a 17bd 5dd9 b03c
00000290: d8ae 5a3d 64dd 3a3d 6e8b 8ebc 6810 e73d
000002a0: abea cfbd c719 abbc 45dc 06bd dcca 6bbe
000002b0: 8045 e53c 7bc0 b43b 500c 60bd 575b 3a3d
000002c0: 712c 2fbc 96ef b13d a237 0e3d 7a87 78bd
000002d0: 9e9c 543d 3628 1e3e 1c89 c93c 3c87 1b3e
000002e0: b2b5 463d 6e54 5c3c b310 bf3d a315 68bd
000002f0: 5b4f 993d d8ee cbbd 7904 9c3d dd38 a53b
00000300: 8af4 02bc 05ee ce3d 7321 06bd 8e51 4b3e
00000310: a944 5bbd 88e2 3c3d befa edbd 23c9 f33d
00000320: 480a 973d 9191 18bd a5e5 12bb e1c4 6f3d
00000330: f84f 38bc 014d 2fbc 95a1 af3d 3800 3d3d
00000340: 180b 6bbd 54bf 323d a66f 813c f802 bf3d
00000350: 23f1 12bc 5c04 183d d041 bb3d 12fe 073e
00000360: 2449 a53d ded8 a03c 7bed f5bd 57c1 0bbe
00000370: ae88 a13a 4530 943d 933f a0bc 0158 923d
00000380: 8e51 b5bd 1b86 b43d 9999 563c a506 da3d
00000390: 3409 8a3d fceb 0a3d 9bfd e0bd f5ee 803c
000003a0: eee9 91bd c78f 74bd 95cb 3b3d 3dfb 0dbe
000003b0: 24f3 4e3d 31f8 80bc 4981 7bbc 17b2 c03c
000003c0: b912 023e 9449 58bc 60e1 333d 6b66 353d
000003d0: 0007 bcbd b0ab 28bc fdcc 223d 8bed 7fbd
000003e0: f6c8 ba3d d32a 3bbd da34 fbbc 330b a73d
000003f0: 50b7 5b3d 9658 b33b f7ca f33b 3cd2 333d

layer2.conv1.bias f4 [32]
-0.023222115 0.0035797546 -0.04612139 -0.018026985 0.020258194 0.00014831894 -0.044594303 -0.02444885
-0.031677216 0.041371897 0.016393794 -0.03708171 -0.047792472 0.04670378 0.022602621 -0.045196664
-0.004216689 0.031987153 -0.04549615 0.043420833 -0.015903503 -0.023991844 0.008844028 0.03368215
-0.057100717 -0.03002683 0.03952737 0.03992326 0.025279319 -0.04674671 -0.044494454 0.007931812
00000000: 4e3c bebc 519a 6a3b c8e9 3cbd 54ad 93bc
00000010: 83f4 a53c 1086 1b39 84a8 36bd f448 c8bc
00000020: f8bf 01bd 9475 293d 474c 863c fee2 17bd
00000030: 0ac2 43bd 764c 3f3d 2229 b93c 2320 39bd
00000040: 272c 8abb f604 033d 2c5a 3abd 0bda 313d
00000050: 1048 82bc 8b8a c4bc 8be6 103c 4bf6 093d
00000060: 71e2 69bd d4fa f5bc 74e7 213d 9386 233d
00000070: 9316 cf3c 7a79 3fbd d13f 36bd 6ef4 013c

layer2.conv2.weight f4 [64, 32, 3, 3]
0.018819125 0.021528812 0.009186391 0.06535394 -0.017185576 0.029577546 0.084300265 -0.07535074
0.01739465 0.04811688 0.007508231 0.09525786 -0.101751916 0.027380474 0.039186988 -0.08843782
-0.023470525 -0.0824526 0.08062711 0.008527466 0.054734852 -0.013904192 0.076822944 0.020195903
0.11630283 -0.0026470071 -0.0259426 -0.025544941 0.02612229 0.007670117 0.019775292 0.012308361
0.012545262 -0.121011406 -0.04122296 -0.06210958 -0.09211303 -0.058832478 0.0005692262 0.047989156
0.04935663 0.10750204 -0.09275616 -0.04875705 0.020314619 0.010721851 -0.10027141 0.0044437866
0.048519343 0.011512467 0.054724257 -0.032232795 0.061041523 -0.057689432 0.019967593 0.05163567
0.11961877 0.06607609 0.033208616 -0.032790527 -0.087514654 0.01875672 -0.04443873 0.06495305
0.056024212 0.11483375 0.004914109 0.008362685 -0.024993926 -0.080370344 0.00994319 -0.0787411
0.05053794 -0.027996793 -0.033945736 0.05432827 -0.07513228 0.08480347 0.04513066 -0.030945372
0.005757625 0.030214231 -0.043029163 -0.072559595 0.15179591 -0.028206002 -0.024500722 -0.0043516853
0.029897014 0.016345017 0.04445527 -0.060462214 0.027730754 -0.06214274 -0.075019054 -0.07967909
-0.023993067 0.029715022 -0.04812387 0.014740644 -0.09973851 -0.025407467 -0.029088687 0.027941631
-0.004943675 -0.001969495 0.00011405712 0.012265602 -0.060825482 -0.09027638 -0.04750183 -0.14573972
0.010281607 0.0012263265 -0.025479408 0.010766171 0.04605164 0.079531424 -0.04145363 -0.0601473
0.028726026 -0.06019238 0.060242243 0.008787291 -0.037365433 0.041400727 0.06813198 -0.11097725
-0.063880794 -0.009810372 0.04696509 -0.0097014345 0.07974223 0.022571053 0.006545386 0.0046615107
-0.0516808 0.02675491 -0.041293215 0.018109614 -0.04137781 -0.0013977072 -0.11141404 -0.009299554
1.35167775e-05 -4.4473287e-05 4.715418e-06 -2.2207174e-05 1.8170333e-05 -6.110357e-06 -0.0007582813 6.926709e-05
2.5896934e-05 -0.0490971 -0.035970088 -0.05686722 -0.07623015 0.075133786 -0.01114996 0.03380018
0.03173942 0.122040346 0.074307054 -0.05320961 0.021783488 -0.02381233 -0.07387923 0.0057758363
0.083983704 -0.00043461792 0.022423863 -0.0014861402 0.004527745 0.075220205 -0.03459297 -0.028660832
-0.008737051 0.061450094 -0.08051134 0.013461926 0.0066283373 0.08270677 -0.025474647 -0.033377267
0.052314837 0.07427705 -0.0514604 0.034272738 0.07443586 0.00835179 -0.006659131 -0.018376129
-0.041063562 -0.009922035 0.03874687 0.027204636 -0.012744333 -0.00034777285 -0.057020478 0.018335119
0.050569624 -0.008673216 0.03048942 0.024988517 0.022206694 0.022608148 0.08467678 0.056281976
0.007727065 0.056417923 -0.11141288 -0.044374734 -0.0020384493 -0.077380866 -0.020099083 0.03143999
0.032678436 -0.051607825 -0.036565367 -0.060893193 -0.013825384 -0.062227387 0.026814623 -0.037598997
-0.04181928 -0.07059345 -0.0847921 0.022260321 -0.064828694 -0.060015965 0.044173118 -0.033404697
-0.011390589 -0.06492431 0.015476544 -0.113683835 -0.020496804 0.12982559 0.06191205 -0.10925233
0.030967876 -0.062606245 -0.14956118 -0.055913668 0.036626007 -0.02663891 0.04725256 0.046498023
0.041700955 -0.014116462 -0.013643492 0.081495285 -0.022651736 0.02208673 0.006979436 0.05789497
00000000: 912a 9a3c 315d b03c 8482 163c 49d8 853d
00000010: c4c8 8cbc 9c4c f23c 9ea5 ac3d 7d51 9abd
00000020: 3a7f 8e3c 3516 453d 9b07 f63b 8e16 c33d
00000030: 4f63 d0bd 044d e03c 8982 203d e31e b5bd
00000040: 4245 c0bc e9dc a8bd d41f a53d c9b6 0b3c
00000050: a731 603d 68ce 63bc 5955 9d3d e171 a53c
00000060: 2e30 ee3d 6979 2dbb 9385 d4bc a043 d1bc
00000070: 6afe d53c 9b55 fb3b cbff a13c 02a9 493c
00000080: a58a 4d3c d4d4 f7bd 68d9 28bd 9d66 7ebd
00000090: c2a5 bcbd 53fa 70bd 2038 153a 4790 443d
000000a0: 2d2a 4a3d 082a dc3d f1f6 bdbd 79b5 47bd
000000b0: d86a a63c b4aa 2f3c 195b cdbd 2f9d 913b
000000c0: 38bc 463d c99e 3c3c 8b26 603d 8906 04bd
000000d0: ad06 7a3d c14b 6cbd 1493 a33c ed7f 533d
000000e0: b0fa f43d e752 873d c205 083d 5c4f 06bd
000000f0: e23a b3bd b1a7 993c 6305 36bd 1b06 853d
00000100: a579 653d f52d eb3d 8906 a13b a503 093c
00000110: 10c0 ccbc 3599 a4bd c3e8 223c 0443 a1bd
00000120: df00 4f3d 8859 e5bc af0a 0bbd 5287 5e3d
00000130: f4de 99bd 71ad ad3d edda 383d 2681 fdbc
00000140: 76aa bc3b d683 f73c 593f 30bd 209a 94bd
00000150: 6370 1b3e 4610 e7bc bdb5 c8bc 9598 8ebb
00000160: 95ea f43c fce5 853c bb16 363d 3aa7 77bd
00000170: 9b2b e33c 6389 7ebd 97a3 99bd ca2e a3bd
00000180: 1c8d c4bc eb6c f33c 891d 45bd be82 713c
00000190: b443 ccbd 5223 d0bc 664b eebc d9e5 e43c
000001a0: 8dfe a1bb a512 01bb f331 ef38 aaf5 483c
000001b0: 2424 79bd d3e2 b8bd 4791 42bd cb3c 15be
000001c0: 2f74 283c b0bc a03a 31ba d0bc 9864 303c
000001d0: a5a0 3c3d 5fe1 a23d 48cb 29bd 045d 76bd
000001e0: d852 eb3c 498c 76bd 92c0 763d 92f8 0f3c
000001f0: 7f0c 19bd cf93 293d c888 8b3d 0a48 e3bd
00000200: efd3 82bd afbb 20bc 775e 403d c4f2 1ebc
00000210: e54f a33d eee6 b83c ad7a d63b 96bf 983b
00000220: 3faf 53bd 1d2d db3c 1323 29bd 9d5a 943c
00000230: c77b 29bd 4533 b7ba 0b2d e4bd 285d 18bc
00000240: 1ec6 6237 d488 3ab8 2239 9e36 8b49 bab7
00000250: 7e6c 9837 9107 cdb6 66c7 46ba 7c43 9138
00000260: 3e3d d937 0a1a 49bd 5f55 13bd 9aed 68bd
00000270: 8e1e 9cbd bedf 993d 52ae 36bc 0f72 0a3d
00000280: 3201 023d 4af0 f93d 4c2e 983d 52f2 59bd
00000290: 4973 b23c 1312 c3bc fe4d 97bd 3a43 bd3b
000002a0: a6ff ab3d 6edd e3b9 40b2 b73c 97ca c2ba
000002b0: 7a5d 943b 0d0d 9a3d 5cb1 0dbd 1fca eabc
000002c0: d925 0fbc 18b3 7b3d 21e3 a4bd 698f 5c3c
000002d0: 8632 d93b 2b62 a93d 35b0 d0bc 9ab6 08bd
000002e0: 1548 563d 911e 983d 24c8 52bd 9261 0c3d
000002f0: d471 983d f2d5 083c d734 dabb 8989 96bc
00000300: 4432 28bd 0890 22bc 0ab5 1e3d 42dc de3c
00000310: 9bcd 50bc 4855 b6b9 4e8e 69bd 8833 963c
00000320: 1822 4f3d 1b1a 0ebc f3c4 f93c b8b4 cc3c
00000330: d0ea b53c b934 b93c 056b ad3d ee87 663d
00000340: 5233 fd3b 7b16 673d 702c e4bd 48c2 35bd
00000350: 8197 05bb dc79 9ebd d5a6 a4bc 38c7 003d
00000360: d3d9 053d ba62 53bd 91c5 15bd 246b 79bd
00000370: dd83 62bc 25e2 7ebd 57aa db3c 6801 1abd
00000380: b14a 2bbd 4c93 90bd 7ba7 adbd 475b b63c
00000390: e8c4 84bd 4dd3 75bd dfee 343d 5dd3 08bd
000003a0: 989f 3abc 09f7 84bd 5591 7d3c 12d3 e8bd
000003b0: eae8 a7bc 00f1 043e 7d97 7d3d b0bf dfbd
000003c0: 58b0 fd3c b437 80bd 9126 19be bb05 65bd
000003d0: 2705 163d d839 dabc e68b 413d b674 3e3d
000003e0: 9fce 2a3d bc48 67bc f488 5fbc 00e7 a63d
000003f0: 2290 b9bc 3bef b43c c1b3 e43b 4723 6d3d

layer2.conv2.bias f4 [64]
-0.013698651 0.006543052 -0.0051076473 0.045145746 0.05642595 -0.042387735 -0.053440083 -0.04205268
0.058616757 -0.04884881 -0.048053656 -0.0328326 0.06504295 -0.032839973 -0.054183446 -0.0042556906
0.03367313 -0.03136585 0.038434934 -0.008633914 -0.02576591 -0.058368314 -0.03563027 0.005019315
-0.0133173745 0.054288935 0.028852541 0.009964312 0.007405384 -0.026725253 0.03102146 -0.0034671586
-0.041495726 0.00095556997 0.053339515 -0.052884337 0.017062362 -0.00043936982 -0.0028365473 -0.020822905
0.047014683 0.042515032 -0.016200045 -0.014841591 0.050890688 -0.035924025 0.03300522 -0.028537156
0.04791792 -0.0012432324 0.018901456 0.002754535 -0.023771238 0.04137083 0.034421157 -0.017641138
0.020758541 0.0077360636 0.0029912277 0.009022679 0.0056930515 -0.002309017 0.054061152 -0.022735978
00000000: 4f70 60bc 1967 d63b 0d5e a7bb bfea 383d
00000010: e61e 673d c39e 2dbd fde3 5abd 6e3f 2cbd
00000020: 2018 703d b115 48bd e9d3 44bd 7a7b 06bd
00000030: 3d35 853d 3583 06bd 76ef 5dbd 5273 8bbb
00000040: d6ec 093d 7a79 00bd f36d 1d3d 4375 0dbc
00000050: 0813 d3bc 9d13 6fbd 0cf1 11bd 1179 a43b
00000060: 1e31 5abc 135e 5e3d 2a5c ec3c 5b41 233c
00000070: dda8 f23b ebee dabc b820 fe3c 4539 63bb
00000080: 6cf7 29bd 377f 7a3a 897a 5a3d 3f9d 58bd
00000090: 5ec6 8b3c 385b e6b9 5ee5 39bb cc94 aabc
000000a0: 7892 403d 3e24 2e3d f5b5 84bc 252a 73bc
000000b0: c172 503d 1225 13bd 7b30 073d c1c6 e9bc
000000c0: 9545 443d f5f3 a2ba 3ad7 9a3c 6e85 343b
000000d0: e6bb c2bc 7674 293d 33fd 0c3d 2684 90bc
000000e0: d10d aa3c ce7e fd3b 7908 443b dcd3 133c
000000f0: c78c ba3b e152 17bb 3a6f 5d3d cd40 babc

fc1.weight f4 [1, 3200]
-0.016200878 -0.0005231258 0.017355144 -0.05672468 0.05504888 0.05880292 0.012742744 0.009755089
0.024413938 0.0035134999 -1.3550593e-06 7.248381e-05 -0.0015640066 0.018847104 -0.05170843 0.010095818
-0.017439168 0.022437388 0.020374328 -0.016513506 -0.036696013 0.017069295 -0.018170975 -0.020689053
-0.06943688 -0.036667105 0.08110832 -0.02104607 0.037852954 0.008029352 -0.0050847987 0.03057324
0.03363579 -0.015237098 -0.007987383 -0.021936467 0.06076106 0.015894212 -0.0009891343 0.010094972
0.0099047255 0.026118975 0.017464574 0.017376626 0.017459666 -0.05585383 0.03564222 -0.019723194
0.018773386 -0.025082221 0.01984413 0.00563458 -0.015967965 0.009931772 0.019748216 0.05592779
-0.059163887 -0.008381022 0.023569109 0.01604555 0.0022290617 -0.017084101 -0.0096130315 0.036148045
0.056621626 0.073691666 -0.067981 0.037571486 -0.00519149 0.00050847005 -0.0367012 -0.038113616
0.00768383 0.012050003 0.07763514 -0.076970994 -0.008291477 0.010491529 0.0047375676 0.015881842
0.026344238 0.023152737 0.022880275 0.03225275 -0.057484824 0.06308099 0.018202955 -0.03723969
-0.00791871 -0.005877736 -0.01603722 -0.0011164513 0.036899254 -0.004836979 -0.0964346 0.054547995
-0.010395997 -0.013572936 -0.01637495 0.009883813 -0.0010700207 -0.0003674169 0.012607618 0.029962773
-0.0034731661 -0.017596344 -0.013393614 -0.028596245 0.00308931 -0.005281916 -4.9613e-41 0.003644053
0.0072087953 0.005964406 0.05100364 -0.022549931 -0.0039165583 -0.007836023 -0.0030670378 -0.0074354685
-1.43412e-40 -0.037089784 0.017067585 -0.04098984 0.019193763 -0.058314726 0.0243784 0.009271209
0.0071631265 -0.038087003 -9.1915e-41 -1.05872e-40 -6.3122025e-05 0.021337371 0.003424425 -0.008584276
-2.9588e-41 2.0388947e-05 -0.013660605 -0.018711053 -0.002273164 -1.22147e-40 -3.5545e-41 1.3549e-41
-9.164549e-08 -1.74759e-40 -1.21686e-40 1.31702e-40 1.5912e-40 -1.31634e-40 -0.0075694267 -0.0067335707
-0.021496588 -0.0032638365 0.038887434 0.07322573 -0.03586686 -0.03332291 0.030823397 -0.008351258
-0.031880073 -0.014537055 1.3135e-40 -2.13433e-40 1.50403e-40 9.688561e-06 0.00035957363 -1.73224e-40
8.736914e-07 -3.9919803e-07 0.019686824 1.06835e-40 -9.2319e-41 6.1534e-41 -1.4763e-40 -1.26654e-40
-1.31985e-40 -1.5169e-40 -5.63e-41 -1.21427e-40 0.0146206105 -0.0059893304 -0.0018792294 0.00020557501
7.1112e-41 -0.0015080823 -0.018925484 0.0038909588 -0.001167972 -8.175179e-06 0.0069766347 -0.031639356
0.022839189 0.024227306 -0.042187717 -0.11135571 0.031401437 -0.012782555 -0.041291907 0.018858626
-0.023450138 0.00057256775 0.0067009404 -0.0063326135 -0.057442807 -0.0655874 -0.011613762 0.0068589817
0.00016529797 0.013727659 0.032653276 0.03615348 0.0032521663 0.0021229254 0.06488295 -0.07991856
0.028438648 -0.028621625 -0.0048688445 0.00506366 0.0033374887 -0.0030775578 -0.02151187 0.0171126
0.06210657 -0.08395596 -0.035033982 0.03913831 -0.008738395 -0.016410796 -0.0047209687 0.017526973
-0.0050050644 0.0022930447 -0.067361355 0.03780564 -0.028489856 0.010017842 0.007052823 0.009053975
-0.00835409 -0.017180918 -0.0070946426 -0.021935407 0.023198714 0.031564724 0.065892756 -0.017940087
0.027931904 0.025064366 -0.021691397 0.003742361 4.0025743e-06 0.02092168 -0.0016651143 -0.00056302163
00000000: b4b7 84bc 6122 09ba 602c 8e3c 2358 68bd
00000010: ef7a 613d 55db 703d f1c6 503c cfd3 1f3c
00000020: bdff c73c bf42 663b 7cdf b5b5 7302 9838
00000030: 5aff ccba 3e65 9a3c 38cc 53bd ee68 253c
00000040: 96dc 8ebc 9dce b73c 10e8 a63c 5547 87bc
00000050: 8f4e 16bd e8d4 8b3c 4cdb 94bc 177c a9bc
00000060: ec34 8ebd 3f30 16bd 1e1c a63d cf68 acbc
00000070: b30b 1b3d 8b8d 033c 629e a6bb bb74 fa3c
00000080: afc5 093d 05a5 79bc 83dd 02bc 1bb4 b3bc
00000090: 97e0 783d 9434 823c d7a5 81ba 6265 253c
000000a0: 6e47 223c 76f7 d53c de11 8f3c 6d59 8e3c
000000b0: 9307 8f3c fcc6 64bd 94fd 113d 8992 a1bc
000000c0: a5ca 993c 3b79 cdbc 2890 a23c 48a2 b83b
000000d0: 40cf 82bc dfb8 223c 03c7 a13c 8a14 653d
000000e0: d555 72bd 8e50 09bc 0114 c13c f571 833c
000000f0: 7315 123b f5f3 8bbc fa7f 1dbc f90f 143d
00000100: 14ec 673d a8eb 963d 9f39 8bbd 8fe4 193d
00000110: 601d aabb d94a 053a ff53 16bd 061d 1cbd
00000120: a3c8 fb3b 606d 453c 2cff 9e3d f8a2 9dbd
00000130: fad8 07bc a9e4 2b3c 993d 9b3b a31a 823c
00000140: dfcf d73c cfaa bd3c 6a6f bb3c 761b 043d
00000150: 3575 6bbd 9b30 813d 5d1e 953c a588 18bd
00000160: 7abd 01bc 069a c0bb 7d60 83bc e455 92ba
00000170: ac23 173d 857f 9ebb 817f c5bd b86d 5f3d
00000180: f953 2abc 0561 5ebc c224 86bc b7ef 213c
00000190: f03f 8cba dda1 c0b9 2f90 4e3c 7d74 f53c
000001a0: 0f9e 63bb 3526 90bc e470 5bbc ac42 eabc
000001b0: 0576 4a3b ec13 adbb 4d8a 0080 10d1 6e3b
000001c0: c237 ec3b 1071 c33b 31e9 503d a2ba b8bc
000001d0: 7956 80bb aa62 00bc 5b00 49bb 3ba5 f3bb
000001e0: c68f 0180 75eb 17bd 52d1 8b3c f6e4 27bd
000001f0: 3d3c 9d3c 6cdb 6ebd 36b5 c73c 45e6 173c
00000200: a9b8 ea3b 1e01 1cbd 3900 0180 2127 0180
00000210: 6160 84b8 b6cb ae3c 516c 603b 10a5 0cbc
00000220: 7b52 0080 ee08 ab37 bbd0 5fbc ec47 99bc
00000230: 5df9 14bb 7f54 0180 1663 0080 c525 0000
00000240: a4ce c4b3 28e7 0180 3653 0180 226f 0100
00000250: 90bb 0100 f16e 0180 f408 f8bb 49a5 dcbb
00000260: 9d19 b0bc 17e6 55bb 6e48 1f3d 5ff7 953d
00000270: 21e9 12bd 9b7d 08bd 5981 fc3c b7d3 08bc
00000280: ae94 02bd d42c 6ebc 266e 0100 f752 0280
00000290: 43a3 0100 0d8c 2237 2885 bc39 e1e2 0180
000002a0: 9e87 6a35 5c51 d6b4 4346 a13c d029 0100
000002b0: 5901 0180 88ab 0000 889b 0180 0f61 0180
000002c0: ec6f 0180 daa6 0180 f19c 0080 7d52 0180
000002d0: 498b 6f3c 2542 c4bb 7a50 f6ba 9f8f 5739
000002e0: 3bc6 0000 d8aa c5ba 9e09 9bbc 75ff 7e3b
000002f0: a316 99ba 2028 09b7 419c e43b 4598 01bd
00000300: 4019 bb3c 5878 c63c 07cd 2cbd 760e e4bd
00000310: cb9e 003d ec6d 51bc b421 29bd 687d 9a3c
00000320: 811a c0bc 5f18 163a 9093 db3b d081 cfbb
00000330: 2649 6bbd b052 86bd a647 3ebc 4fc1 e03b
00000340: d653 2d39 fae9 603c 71bf 053d ac15 143d
00000350: 4c22 553b c720 0b3b 5ae1 843d 58ac a3bd
00000360: 2bf8 e83c e677 eabc d48a 9fbb 0fed a53b
00000370: c5b9 5a3b dab0 49bb a939 b0bc b92f 8c3c
00000380: 7563 7e3d 1af1 abbd cb7f 0fbd 7e4f 203d
00000390: 7c2b 0fbc ef6f 86bc 5bb2 9abb ba94 8f3c
000003a0: 8601 a4bb e846 163b c0f4 89bd 16da 1a3d
000003b0: 8f63 e9bc e021 243c 5e1b e73b 2057 143c
000003c0: 98df 08bc ffbe 8cbc 2d7a e8bb e2b1 b3bc
000003d0: 3b0b be3c 034a 013d c8f2 863d 17f7 92bc
000003e0: 73d1 e43c c953 cd3c 28b2 b1bc 6642 753b
000003f0: da4d 8636 f163 ab3c f73f daba be97 13ba

out.0.weight f4 [1, 3200]
-0.016200878 -0.0005231258 0.017355144 -0.05672468 0.05504888 0.05880292 0.012742744 0.009755089
0.024413938 0.0035134999 -1.3550593e-06 7.248381e-05 -0.0015640066 0.018847104 -0.05170843 0.010095818
-0.017439168 0.022437388 0.020374328 -0.016513506 -0.036696013 0.017069295 -0.018170975 -0.020689053
-0.06943688 -0.036667105 0.08110832 -0.02104607 0.037852954 0.008029352 -0.0050847987 0.03057324
0.03363579 -0.015237098 -0.007987383 -0.021936467 0.06076106 0.015894212 -0.0009891343 0.010094972
0.0099047255 0.026118975 0.017464574 0.017376626 0.017459666 -0.05585383 0.03564222 -0.019723194
0.018773386 -0.025082221 0.01984413 0.00563458 -0.015967965 0.009931772 0.019748216 0.05592779
-0.059163887 -0.008381022 0.023569109 0.01604555 0.0022290617 -0.017084101 -0.0096130315 0.036148045
0.056621626 0.073691666 -0.067981 0.037571486 -0.00519149 0.00050847005 -0.0367012 -0.038113616
0.00768383 0.012050003 0.07763514 -0.076970994 -0.008291477 0.010491529 0.0047375676 0.015881842
0.026344238 0.023152737 0.022880275 0.03225275 -0.057484824 0.06308099 0.018202955 -0.03723969
-0.00791871 -0.005877736 -0.01603722 -0.0011164513 0.036899254 -0.004836979 -0.0964346 0.054547995
-0.010395997 -0.013572936 -0.01637495 0.009883813 -0.0010700207 -0.0003674169 0.012607618 0.029962773
-0.0034731661 -0.017596344 -0.013393614 -0.028596245 0.00308931 -0.005281916 -4.9613e-41 0.003644053
0.0072087953 0.005964406 0.05100364 -0.022549931 -0.0039165583 -0.007836023 -0.0030670378 -0.0074354685
-1.43412e-40 -0.037089784 0.017067585 -0.04098984 0.019193763 -0.058314726 0.0243784 0.009271209
0.0071631265 -0.038087003 -9.1915e-41 -1.05872e-40 -6.3122025e-05 0.021337371 0.003424425 -0.008584276
-2.9588e-41 2.0388947e-05 -0.013660605 -0.018711053 -0.002273164 -1.22147e-40 -3.5545e-41 1.3549e-41
-9.164549e-08 -1.74759e-40 -1.21686e-40 1.31702e-40 1.5912e-40 -1.31634e-40 -0.0075694267 -0.0067335707
-0.021496588 -0.0032638365 0.038887434 0.07322573 -0.03586686 -0.03332291 0.030823397 -0.008351258
-0.031880073 -0.014537055 1.3135e-40 -2.13433e-40 1.50403e-40 9.688561e-06 0.00035957363 -1.73224e-40
8.736914e-07 -3.9919803e-07 0.019686824 1.06835e-40 -9.2319e-41 6.1534e-41 -1.4763e-40 -1.26654e-40
-1.31985e-40 -1.5169e-40 -5.63e-41 -1.21427e-40 0.0146206105 -0.0059893304 -0.0018792294 0.00020557501
7.1112e-41 -0.0015080823 -0.018925484 0.0038909588 -0.001167972 -8.175179e-06 0.0069766347 -0.031639356
0.022839189 0.024227306 -0.042187717 -0.11135571 0.031401437 -0.012782555 -0.041291907 0.018858626
-0.023450138 0.00057256775 0.0067009404 -0.0063326135 -0.057442807 -0.0655874 -0.011613762 0.0068589817
0.00016529797 0.013727659 0.032653276 0.03615348 0.0032521663 0.0021229254 0.06488295 -0.07991856
0.028438648 -0.028621625 -0.0048688445 0.00506366 0.0033374887 -0.0030775578 -0.02151187 0.0171126
0.06210657 -0.08395596 -0.035033982 0.03913831 -0.008738395 -0.016410796 -0.0047209687 0.017526973
-0.0050050644 0.0022930447 -0.067361355 0.03780564 -0.028489856 0.010017842 0.007052823 0.009053975
-0.00835409 -0.017180918 -0.0070946426 -0.021935407 0.023198714 0.031564724 0.065892756 -0.017940087
0.027931904 0.025064366 -0.021691397 0.003742361 4.0025743e-06 0.02092168 -0.0016651143 -0.00056302163
00000000: b4b7 84bc 6122 09ba 602c 8e3c 2358 68bd
00000010: ef7a 613d 55db 703d f1c6 503c cfd3 1f3c
00000020: bdff c73c bf42 663b 7cdf b5b5 7302 9838
00000030: 5aff ccba 3e65 9a3c 38cc 53bd ee68 253c
00000040: 96dc 8ebc 9dce b73c 10e8 a63c 5547 87bc
00000050: 8f4e 16bd e8d4 8b3c 4cdb 94bc 177c a9bc
00000060: ec34 8ebd 3f30 16bd 1e1c a63d cf68 acbc
00000070: b30b 1b3d 8b8d 033c 629e a6bb bb74 fa3c
00000080: afc5 093d 05a5 79bc 83dd 02bc 1bb4 b3bc
00000090: 97e0 783d 9434 823c d7a5 81ba 6265 253c
000000a0: 6e47 223c 76f7 d53c de11 8f3c 6d59 8e3c
000000b0: 9307 8f3c fcc6 64bd 94fd 113d 8992 a1bc
000000c0: a5ca 993c 3b79 cdbc 2890 a23c 48a2 b83b
000000d0: 40cf 82bc dfb8 223c 03c7 a13c 8a14 653d
000000e0: d555 72bd 8e50 09bc 0114 c13c f571 833c
000000f0: 7315 123b f5f3 8bbc fa7f 1dbc f90f 143d
00000100: 14ec 673d a8eb 963d 9f39 8bbd 8fe4 193d
00000110: 601d aabb d94a 053a ff53 16bd 061d 1cbd
00000120: a3c8 fb3b 606d 453c 2cff 9e3d f8a2 9dbd
00000130: fad8 07bc a9e4 2b3c 993d 9b3b a31a 823c
00000140: dfcf d73c cfaa bd3c 6a6f bb3c 761b 043d
00000150: 3575 6bbd 9b30 813d 5d1e 953c a588 18bd
00000160: 7abd 01bc 069a c0bb 7d60 83bc e455 92ba
00000170: ac23 173d 857f 9ebb 817f c5bd b86d 5f3d
00000180: f953 2abc 0561 5ebc c224 86bc b7ef 213c
00000190: f03f 8cba dda1 c0b9 2f90 4e3c 7d74 f53c
000001a0: 0f9e 63bb 3526 90bc e470 5bbc ac42 eabc
000001b0: 0576 4a3b ec13 adbb 4d8a 0080 10d1 6e3b
000001c0: c237 ec3b 1071 c33b 31e9 503d a2ba b8bc
000001d0: 7956 80bb aa62 00bc 5b00 49bb 3ba5 f3bb
000001e0: c68f 0180 75eb 17bd 52d1 8b3c f6e4 27bd
000001f0: 3d3c 9d3c 6cdb 6ebd 36b5 c73c 45e6 173c
00000200: a9b8 ea3b 1e01 1cbd 3900 0180 2127 0180
00000210: 6160 84b8 b6cb ae3c 516c 603b 10a5 0cbc
00000220: 7b52 0080 ee08 ab37 bbd0 5fbc ec47 99bc
00000230: 5df9 14bb 7f54 0180 1663 0080 c525 0000
00000240: a4ce c4b3 28e7 0180 3653 0180 226f 0100
00000250: 90bb 0100 f16e 0180 f408 f8bb 49a5 dcbb
00000260: 9d19 b0bc 17e6 55bb 6e48 1f3d 5ff7 953d
00000270: 21e9 12bd 9b7d 08bd 5981 fc3c b7d3 08bc
00000280: ae94 02bd d42c 6ebc 266e 0100 f752 0280
00000290: 43a3 0100 0d8c 2237 2885 bc39 e1e2 0180
000002a0: 9e87 6a35 5c51 d6b4 4346 a13c d029 0100
000002b0: 5901 0180 88ab 0000 889b 0180 0f61 0180
000002c0: ec6f 0180 daa6 0180 f19c 0080 7d52 0180
000002d0: 498b 6f3c 2542 c4bb 7a50 f6ba 9f8f 5739
000002e0: 3bc6 0000 d8aa c5ba 9e09 9bbc 75ff 7e3b
000002f0: a316 99ba 2028 09b7 419c e43b 4598 01bd
00000300: 4019 bb3c 5878 c63c 07cd 2cbd 760e e4bd
00000310: cb9e 003d ec6d 51bc b421 29bd 687d 9a3c
00000320: 811a c0bc 5f18 163a 9093 db3b d081 cfbb
00000330: 2649 6bbd b052 86bd a647 3ebc 4fc1 e03b
00000340: d653 2d39 fae9 603c 71bf 053d ac15 143d
00000350: 4c22 553b c720 0b3b 5ae1 843d 58ac a3bd
00000360: 2bf8 e83c e677 eabc d48a 9fbb 0fed a53b
00000370: c5b9 5a3b dab0 49bb a939 b0bc b92f 8c3c
00000380: 7563 7e3d 1af1 abbd cb7f 0fbd 7e4f 203d
00000390: 7c2b 0fbc ef6f 86bc 5bb2 9abb ba94 8f3c
000003a0: 8601 a4bb e846 163b c0f4 89bd 16da 1a3d
000003b0: 8f63 e9bc e021 243c 5e1b e73b 2057 143c
000003c0: 98df 08bc ffbe 8cbc 2d7a e8bb e2b1 b3bc
000003d0: 3b0b be3c 034a 013d c8f2 863d 17f7 92bc
000003e0: 73d1 e43c c953 cd3c 28b2 b1bc 6642 753b
000003f0: da4d 8636 f163 ab3c f73f daba be97 13ba

exp_avg f4 [32, 2, 5, 5]
-0.0001569742 4.484227e-05 0.00016008478 0.00024711862 0.00025016442 -0.00021107457 3.8880968e-05 0.00027402813
0.00045087322 0.0005245094 -0.00027172253 7.179511e-05 0.00031312034 0.0005448667 0.0007256734 -0.0003095778
8.148448e-05 0.00038755342 0.0006768327 0.000942158 -0.0002477714 0.0002064437 0.0005811508 0.00091776595
0.0011866192 -0.00021470607 2.648369e-05 0.00015365594 0.0002592324 0.00031643815 -0.00024608723 5.203259e-05
0.00022367886 0.0003650132 0.00049291 -0.00025106658 3.772936e-05 0.00032771158 0.0005652236 0.0007353909
-0.0003118937 4.0064508e-05 0.00038281342 0.00068765937 0.0009198467 -0.00024585257 0.00017630454 0.00054444873
0.0008852165 0.0012409559 0.0008057283 0.000992147 0.0010643034 0.0010761662 0.0009915537 0.0006177441
0.000741061 0.0007155661 0.00062526885 0.00049268594 0.0003760505 0.00039785818 0.0003412429 0.0002018134
-2.283453e-06 0.00013087514 0.00011188026 2.187995e-06 -0.00017081539 -0.00035997952 -8.524921e-05 -0.00011152103
-0.0002490487 -0.00037923173 -0.00052378804 0.00092539814 0.0009704512 0.00094451994 0.00087925146 0.00083447073
0.0007358494 0.00066242483 0.0005681731 0.00042934355 0.0002624287 0.00046406916 0.00035562817 0.00012541491
-8.8913046e-05 -0.00022387161 0.0001769181 4.1418475e-06 -0.00020705181 -0.00045027715 -0.0006151006 -2.7835935e-05
-0.00021127451 -0.00041561958 -0.00064910477 -0.0008083796 0.0006421009 0.0004346294 0.00017549194 -3.4508266e-06
-0.00015634739 0.0014963066 0.0010655307 0.00058947876 0.00022784428 -8.854945e-05 0.0023929453 0.0016986084
0.0010157526 0.00042985944 1.5755493e-05 0.0032202972 0.0023085198 0.0014140347 0.00068543165 0.00012435761
0.0034876508 0.0024491656 0.0014320913 0.0006012083 -3.046134e-05 0.00038968265 0.00021854673 5.2770727e-05
-0.000102717524 -0.00026087897 0.0011930738 0.00079762423 0.0004040102 5.0675073e-05 -0.00015629649 0.002091431
0.001437506 0.000816758 0.00032846266 -6.3224405e-05 0.002902723 0.0020290327 0.001218606 0.0005659992
0.00010070743 0.0031744004 0.002165455 0.0012302978 0.00046124705 -3.6000987e-05 -0.0032691543 -0.0023750048
-0.0012544758 8.272852e-05 0.0014441132 -0.0028870928 -0.002047663 -0.00094538776 0.00033813855 0.001658471
-0.0024709753 -0.0016366125 -0.00064735964 0.0005256971 0.0015892001 -0.0019830724 -0.0012531014 -0.00044861258
0.00047173115 0.0014354222 -0.0015288184 -0.00096424384 -0.00029419988 0.0004087839 0.0011692991 -0.003627669
-0.0030346739 -0.002080367 -0.00071160524 0.0007082409 -0.0034600485 -0.0028688842 -0.0019614345 -0.00062090874
0.00079982885 -0.0030632562 -0.0026236658 -0.0017803569 -0.0005984222 0.0007420579 -0.002657933 -0.0023593209
-0.0016713971 -0.00065899774 0.00042676053 -0.0021822772 -0.0019608755 -0.0015074152 -0.00069588405 0.00022055474
0.00048724317 0.0011053878 0.0013879295 0.0014681686 0.0013436578 0.00075248035 0.0012210113 0.0014223873
0.0014446102 0.0013246178 0.0009586608 0.0013601509 0.0014811801 0.001472905 0.0012360327 0.0011489856
0.001462031 0.0015181625 0.0014602883 0.0011990276 0.0014391533 0.0017027174 0.001718937 0.0015960826
0.0012836044 0.00059073884 0.0011571969 0.0013897177 0.0014342117 0.0013144691 0.00079819077 0.0012809924
0.0014280564 0.0014498845 0.0012432935 0.0010013067 0.0013673311 0.0014772366 0.0014340751 0.0012422402
0.0011446913 0.0014985132 0.0015776664 0.0014663304 0.0011889876 0.0014441817 0.0017510969 0.0018058887
0.001659937 0.0013390348 1.2544429e-06 0.000114734285 0.00019323578 0.00035012275 0.00042271812 -3.580303e-05
00000000: 7199 24b9 0515 3c38 6edc 2739 b38f 8139
00000010: 8028 8339 e653 5db9 1f14 2338 6fab 8f39
00000020: 2e63 ec39 3b7f 093a fb75 8eb9 b590 9638
00000030: 4d2a a439 63d5 0e3a 1e3b 3e3a d44e a2b9
00000040: a6e2 aa38 8a30 cb39 796d 313a 27fb 763a
00000050: 50e7 81b9 cf78 5839 5f58 183a 3b96 703a
00000060: 5588 9b3a b922 61b9 4b29 de37 b41e 2139
00000070: 95e9 8739 9ce7 a539 4505 81b9 913d 5a38
00000080: 568b 6a39 3e5f bf39 a136 013a 96a1 83b9
00000090: 983f 1e38 b4d0 ab39 842b 143a 3fc7 403a
000000a0: aa85 a3b9 f00a 2838 59b4 c839 0a44 343a
000000b0: de21 713a c6e5 80b9 64de 3839 56b9 0e3a
000000c0: e00d 683a 92a7 a23a 8337 533a ee0a 823a
000000d0: 1980 8b3a 250e 8d3a 05f7 813a 1bf0 213a
000000e0: c343 423a d494 3b3a 15e9 233a 9827 013a
000000f0: a528 c539 9f97 d039 d9e8 b239 df9d 5339
00000100: 6c3d 19b6 873b 0939 42a1 ea38 78d5 1236
00000110: e81c 33b9 a2bb bcb9 d2c7 b2b8 66e0 e9b8
00000120: c092 82b9 9fd3 c6b9 d24e 09ba 6b96 723a
00000130: e165 7e3a a999 773a 917d 663a 62c0 5a3a
00000140: 04e6 403a 94a6 2d3a 74f1 143a 8419 e139
00000150: 9596 8939 4f4e f339 9b73 ba39 cf81 0339
00000160: d476 bab8 14bf 6ab9 1783 3939 33fa 8a36
00000170: 0c1c 59b9 2d13 ecb9 b43e 21ba 3781 e9b7
00000180: 9289 5db9 84e7 d9b9 af28 2aba 70e9 53ba
00000190: a952 283a f8de e339 4204 3839 c094 67b6
000001a0: 2ff1 23b9 b81f c43a 47a9 8b3a 4087 1a3a
000001b0: 7ce9 6e39 a0b3 b9b8 f6d2 1c3b d7a3 de3a
000001c0: 0023 853a c25e e139 aa2a 8437 9f0b 533b
000001d0: 894a 173b 2257 b93a 8aae 333a fe65 0239
000001e0: 1291 643b 2e82 203b 03b5 bb3a 689a 1d3a
000001f0: 3b87 ffb7 524e cc39 b129 6539 2356 5d38
00000200: 0d6a d7b8 95c6 88b9 ea60 9c3a a817 513a
00000210: 55d1 d339 f28b 5438 85e3 23b9 6410 093b
00000220: b36a bc3a b41b 563a 8335 ac39 5897 84b8
00000230: 9c3b 3e3b 85f9 043b a2b9 9f3a 905f 143a
00000240: e432 d338 9a09 503b 4eea 0d3b f241 a13a
00000250: 88d3 f139 c4ff 16b8 4f3f 56bb f8a5 1bbb
00000260: 396d a4ba 897e ad38 6648 bd3a 6135 3dbb
00000270: 1632 06bb e6d3 77ba 3048 b139 0d61 d93a
00000280: 16f0 21bb 9a83 d6ba 92b3 29ba efce 093a
00000290: b54c d03a 6ff6 01bb 1b3f a4ba c333 ebb9
000002a0: af52 f739 c724 bc3a a262 c8ba 4fc5 7cba
000002b0: d73e 9ab9 0c52 d639 2b43 993a 30be 6dbb
000002c0: 61e1 46bb c456 08bb 058b 3aba 3ea9 393a
000002d0: fbc1 62bb e403 3cbb 698b 00bb 7bc4 22ba
000002e0: 9bab 513a e9c0 48bb cff1 2bbb dd5a e9ba
000002f0: 6fdf 1cba aa86 423a b730 2ebb d69e 1abb
00000300: c812 dbba 97c0 2cba d4be df39 8904 0fbb
00000310: 0882 00bb 7694 c5ba fd6b 36ba b644 6739
00000320: ac74 ff39 a9e2 903a 30eb b53a 906f c03a
00000330: ad1d b03a 1a42 453a 570a a03a 666f ba3a
00000340: 1359 bd3a cc9e ad3a a34e 7b3a 1747 b23a
00000350: 2824 c23a 7e0e c13a 6002 a23a 8f99 963a
00000360: 9fa1 bf3a 15fd c63a 2567 bf3a b128 9d3a
00000370: f9a1 bc3a b72d df3a f44d e13a a533 d13a
00000380: 9e3e a83a d0db 1a3a 16ad 973a 3027 b63a
00000390: 29fc bb3a 444a ac3a ad3d 513a f9e6 a73a
000003a0: 9f2d bb3a 0d0a be3a 02f6 a23a 473e 833a
000003b0: 0538 b33a d69f c13a 93f7 bb3a aad2 a23a
000003c0: 7709 963a c269 c43a b3c9 ce3a e231 c03a
000003d0: ced7 9b3a b24a bd3a 1085 e53a 92b3 ec3a
000003e0: 3e92 d93a 8d82 af3a 545e a835 809d f038
000003f0: 569f 4a39 ae90 b739 44a0 dd39 362b 16b8

exp_avg_sq f4 [32, 2, 5, 5]
5.6540653e-06 7.352127e-06 9.622649e-06 1.2793025e-05 1.7136023e-05 5.3810036e-06 7.053378e-06 8.7587905e-06
1.0531216e-05 1.2471218e-05 5.2956634e-06 6.859199e-06 8.0367045e-06 8.726366e-06 9.062319e-06 5.3064364e-06
6.6824387e-06 7.54898e-06 7.570651e-06 7.165029e-06 6.0292427e-06 7.2822995e-06 7.9514875e-06 7.684342e-06
7.011722e-06 5.863699e-06 8.229663e-06 1.2226504e-05 1.8534405e-05 2.7556132e-05 5.5843902e-06 7.732414e-06
1.0550951e-05 1.4310427e-05 1.9038924e-05 5.5476676e-06 7.4182503e-06 9.276879e-06 1.1110715e-05 1.28673e-05
5.6600306e-06 7.267009e-06 8.448846e-06 9.15172e-06 9.259331e-06 6.5829627e-06 7.8738385e-06 8.647921e-06
8.636473e-06 7.969002e-06 1.3199632e-05 1.3127e-05 1.7925444e-05 3.1828295e-05 5.4916633e-05 1.4911421e-05
1.4636192e-05 1.9667965e-05 3.475213e-05 6.0269846e-05 1.4893483e-05 1.4261801e-05 1.8363537e-05 3.1752254e-05
5.4849217e-05 1.353178e-05 1.2522628e-05 1.4868996e-05 2.4072555e-05 4.0587405e-05 1.1956181e-05 1.0698016e-05
1.1204459e-05 1.5725132e-05 2.4542822e-05 1.4271179e-05 1.3301764e-05 1.6238646e-05 2.911869e-05 5.3713095e-05
1.6365015e-05 1.5150674e-05 1.8198973e-05 3.26394e-05 6.0586535e-05 1.665904e-05 1.5318565e-05 1.7669505e-05
3.0622246e-05 5.6323883e-05 1.5539848e-05 1.4144021e-05 1.5135389e-05 2.4060046e-05 4.2751097e-05 1.3994817e-05
1.2703633e-05 1.2253792e-05 1.6388969e-05 2.656742e-05 1.2249738e-05 6.9110697e-06 5.458042e-06 6.000819e-06
7.2019866e-06 3.035826e-05 1.6312968e-05 9.380543e-06 7.1177274e-06 6.959135e-06 6.0690956e-05 3.3547614e-05
1.7802366e-05 1.0605678e-05 8.024677e-06 9.568216e-05 5.4072356e-05 2.8183733e-05 1.5189245e-05 9.657926e-06
0.00010026418 5.5905846e-05 2.96851e-05 1.783228e-05 1.3507492e-05 9.405539e-06 6.14499e-06 5.83359e-06
6.733449e-06 7.849713e-06 2.395821e-05 1.3806546e-05 9.149306e-06 7.814768e-06 7.754238e-06 5.050547e-05
2.9079709e-05 1.688274e-05 1.1378717e-05 9.052389e-06 8.308677e-05 4.8269747e-05 2.692203e-05 1.6145343e-05
1.09941575e-05 8.888674e-05 5.155329e-05 2.9915276e-05 2.009801e-05 1.5904547e-05 6.505195e-05 2.970445e-05
1.7756935e-05 4.945565e-05 0.00013003375 6.418062e-05 3.0379279e-05 2.2620525e-05 6.46655e-05 0.000162456
6.3505555e-05 3.280409e-05 2.5463183e-05 6.586358e-05 0.00016099507 6.453718e-05 3.7374182e-05 2.7070422e-05
5.509539e-05 0.00013020933 6.269968e-05 4.107752e-05 3.0870073e-05 4.817764e-05 0.00010128225 7.657065e-05
4.4163262e-05 2.2422175e-05 3.7343947e-05 0.00010641341 7.640034e-05 4.5625795e-05 2.5518615e-05 4.6645942e-05
0.00012976168 7.6129276e-05 4.929114e-05 2.8529817e-05 4.567649e-05 0.00012392746 7.747385e-05 5.5319862e-05
3.252454e-05 3.7588678e-05 9.4852476e-05 7.496028e-05 5.91817e-05 3.8343347e-05 3.5069028e-05 7.139116e-05
1.148593e-05 1.8813611e-05 2.5065088e-05 2.8792861e-05 3.0014045e-05 1.4453867e-05 2.1707214e-05 2.6663625e-05
2.865082e-05 2.7837004e-05 1.800114e-05 2.4437819e-05 2.784732e-05 2.802944e-05 2.5345471e-05 2.1350934e-05
2.6579633e-05 2.8462624e-05 2.6894613e-05 2.261813e-05 2.4859188e-05 2.8912047e-05 2.9239383e-05 2.596766e-05
2.0320815e-05 1.3368512e-05 2.0960459e-05 2.6392618e-05 2.8848901e-05 2.875872e-05 1.5762462e-05 2.3105471e-05
2.7414457e-05 2.8356495e-05 2.6561313e-05 1.856954e-05 2.5298965e-05 2.8490007e-05 2.8026325e-05 2.472611e-05
2.1469417e-05 2.759301e-05 2.9636809e-05 2.7769174e-05 2.3127965e-05 2.523917e-05 3.0902975e-05 3.1808097e-05
2.848784e-05 2.2541857e-05 3.927627e-05 2.3195404e-05 1.04989895e-05 9.028943e-06 2.4543959e-05 2.653696e-05
00000000: 0db8 bd36 4ab2 f636 f670 2137 a0a1 5637
00000010: 54bf 8f37 788e b436 0eac ec36 b8f2 1237
00000020: 3aaf 3037 793b 5137 67b1 b136 1228 e636
00000030: 62d5 0637 7567 1237 5d0a 1837 f10d b236
00000040: b639 e036 3f4d fd36 6607 fe36 216b f036
00000050: cd4e ca36 7a5a f436 6167 0537 ffeb 0037
00000060: 3c46 eb36 cac0 c436 2212 0a37 6f20 4d37
00000070: 557a 9b37 5828 e737 8c61 bb36 77ba 0137
00000080: fd03 3137 d116 7037 c7b5 9f37 1a26 ba36
00000090: 49ea f836 e4a3 1b37 2868 3a37 a2e0 5737
000000a0: 4beb bd36 22d7 f336 84bf 0d37 578a 1937
000000b0: 8658 1b37 38e3 dc36 e119 0437 8a16 1137
000000c0: 5ee5 1037 9ab2 0537 fd73 5d37 093c 5c37
000000d0: 995e 9637 5f7f 0538 4956 6638 112c 7a37
000000e0: f78d 7537 a2fc a437 d1c2 1138 41ca 7c38
000000f0: 06df 7937 f845 6f37 650b 9a37 b92d 0538
00000100: e60d 6638 8d06 6337 4718 5237 da75 7937
00000110: 6bef c937 653c 2a38 6897 4837 a17b 3337
00000120: c9fa 3b37 77e9 8337 4fe1 cd37 3f6e 6f37
00000130: a42a 5f37 3a38 8837 e943 f437 ff49 6138
00000140: 9a47 8937 a62f 7e37 ffa9 9837 4ae6 0838
00000150: 4c1e 7e38 04bf 8b37 5e80 8037 f938 9437
00000160: 6370 0038 4f3d 6c38 925b 8237 1c4c 6d37
00000170: 00ee 7d37 8ed4 c937 a44f 3338 48cb 6a37
00000180: b021 5537 a395 4d37 0b7b 8937 1add de37
00000190: 3984 4d37 a3e5 e736 3924 b736 a55a c936
000001a0: 98a8 f136 dea9 fe37 d5d7 8837 2061 1d37
000001b0: d0d4 ee36 8482 e936 6b8e 7e38 7ab5 0c38
000001c0: 4a56 9537 0aef 3137 baa1 0637 f8a8 c838
000001d0: c0cb 6238 1b6c ec37 4fd5 7e37 7a08 2237
000001e0: ec44 d238 727c 6a38 4404 f937 8896 9537
000001f0: 3d9e 6237 7bcc 1d37 1031 ce36 28be c336
00000200: e3ef e136 43b2 0337 ddf9 c837 aaa2 6737
00000210: f87f 1937 2c1c 0337 3318 0237 d6d5 5338
00000220: 33f0 f337 689f 8d37 38e7 3e37 b7df 1737
00000230: df3e ae38 3f75 4a38 9fd6 e137 dc6f 8737
00000240: 8c73 3837 b568 ba38 ec3a 5838 91f2 fa37
00000250: 2698 a837 c16a 8537 806c 8838 d22d f937
00000260: baf4 9437 9a6e 4f38 ab59 0839 b598 8638
00000270: 01d7 fe37 35c1 bd37 079d 8738 f358 2a39
00000280: 492e 8538 2097 0938 c599 d537 3e20 8a38
00000290: c9d0 2839 2258 8738 39c2 1c38 4a15 e337
000002a0: 3916 6738 cd88 0839 a27d 8338 a74a 2c38
000002b0: 7d7a 0138 5912 4a38 7e67 d438 8e94 a038
000002c0: f13b 3938 4117 bc37 c2a1 1c38 442a df38
000002d0: 1f39 a038 535e 3f38 cf10 d637 b3a5 4338
000002e0: a310 0839 98a7 9f38 f5bd 4e38 5153 ef37
000002f0: c294 3f38 86f2 0139 7579 a238 4007 6838
00000300: f56a 0838 89a8 1d38 89eb c638 fe33 9d38
00000310: de39 7838 dbd2 2038 1517 1338 d6b7 9538
00000320: b2b3 4037 ecd1 9d37 de42 d237 3388 f137
00000330: acc6 fb37 e37e 7237 e317 b637 b3ab df37
00000340: 2b57 f037 8383 e937 2701 9737 d1ff cc37
00000350: aa99 e937 c420 eb37 fc9c d437 c81a b337
00000360: 54f7 de37 05c3 ee37 be9b e137 10bc bd37
00000370: b388 d037 2688 f237 1947 f537 20d5 d937
00000380: 9e76 aa37 5249 6037 3ed4 af37 b765 dd37
00000390: 8b00 f237 e23e f137 a139 8437 9fd2 c137
000003a0: 19f8 e537 1cdf ed37 fccf de37 c9c5 9b37
000003b0: 1d39 d437 d3fd ee37 131a eb37 eb6a cf37
000003c0: 3919 b437 8a77 e737 909c f837 d9f1 e837
000003d0: ed02 c237 b4b8 d337 d19d 0138 af69 0538
000003e0: 2cf9 ee37 4518 bd37 93bc 2438 c093 c237
000003f0: d124 3037 047b 1737 c0e3 cd37 b09b de37

exp_avg f4 [32]
-0.00042491974 0.0006284223 0.0006555374 0.0025101095 -0.0031284231 0.0009005773 0.0010621909 -0.0021455255
0.00010311814 -0.0021289857 0.0016422772 0.0022931963 -0.0005790854 -0.0014985347 0.0022536858 -0.0013216682
-0.0008538305 -0.00042516887 0.00081940414 -0.00037410212 0.00031870446 -0.0043343413 0.00025096425 -0.00027600778
-0.0038014078 0.00070779974 0.0015783999 0.00081714854 0.00085206574 7.765447e-05 -0.00033843727 0.0023529914
00000000: c3c7 deb9 b5bc 243a 5fd8 2b3a a680 243b
00000010: 3b06 4dbb b814 6c3a 3639 8b3a f29b 0cbb
00000020: 2141 d838 7486 0bbb ae41 d73a 7349 163b
00000030: c3cd 17ba 7b6a c4ba 93b2 133b d33b adba
00000040: 98d3 5fba 33e9 deb9 48cd 563a 2323 c4b9
00000050: ca17 a739 1707 8ebb da93 8339 23b5 90b9
00000060: 0a21 79bb a38b 393a 50e2 ce3a e935 563a
00000070: 2a5d 5f3a 6dda a238 4870 b1b9 a534 1a3b

exp_avg_sq f4 [32]
2.6445821e-05 1.4588248e-05 2.5465653e-05 0.0001155757 9.701022e-05 6.803946e-05 1.556373e-05 0.00010136963
1.7048951e-05 4.9158134e-05 3.7546946e-05 0.00013425382 4.0974763e-05 2.2574017e-05 4.383508e-05 1.0698835e-05
2.6582256e-05 9.819015e-06 7.045787e-06 1.8648288e-05 1.8835983e-05 5.1530587e-05 1.7846764e-05 1.6033433e-05
0.00014419798 3.3757042e-05 1.3873373e-05 1.4767185e-05 7.2455023e-06 4.202649e-05 3.8756357e-06 8.748054e-05
00000000: f8d7 dd37 0cc0 7437 139f d537 3b61 f238
00000010: f771 cb38 68b0 8e38 db8e 8237 6896 d438
00000020: 5804 8f37 252f 4e38 ba7b 1d38 7cc6 0c39
00000030: 51dc 2b38 555d bd37 8fdb 3738 257f 3337
00000040: f6fc de37 59bc 2437 d96a ec36 e56e 9c37
00000050: f701 9e37 8c22 5838 a2b5 9537 897f 8637
00000060: da33 1739 5996 0d38 afc1 6837 94c0 7737
00000070: 641e f336 9a45 3038 750b 8236 c275 b738
