results/2BS/T_1/L_500/seed3/checkpoint.pth.tar (torch_old, 395622 bytes, 22 tensors)

layer1.conv.weight f4 [32, 2, 5, 5]
00000000: bec2 ccbd f574 63bd 1428 24bc cafc debc
00000010: 98a3 893d d1fe bfbd 354c 19be ffe2 6ebd
00000020: 7a67 bcbd 0357 c33d d4aa 07be f58d 8abb
00000030: 8346 7fbd 159d 79bc 91ed c83d 1894 8cbd
00000040: 4b44 e4bd 3588 99bd 7822 413d 2eeb c739
00000050: cc7a 4fbe 460e a4bc 5c7b 2cbd 833f 05bd
00000060: 64de 5bbd 2a20 ee3c 91d2 1d3d 5dd3 863d
00000070: 1121 073e 557c 063e 42a6 06bd c0de ae3d
00000080: 70fe cb3c 0689 113e 673b 543e fbbd 31bd
00000090: 6588 a9bc 3f65 e23d 830d 433e 3cf7 303e
000000a0: 9e5c 943d fd5e 98bb 9a23 8f3d dcea 933d
000000b0: 1114 d43d a522 a1bd e5b6 5e3d 42e1 2d3d
000000c0: 76cd 113e b1d8 e03d a1f5 6dbd 2e5a b5bd
000000d0: 7fbd 19bd bdc0 29be d6bc abbd 1e87 0b3c
000000e0: a330 90bd 2a2d 1abb f0cc 2abe e606 febd
000000f0: a312 91bd aadb c6bd e955 e2bd 6902 e8bd
00000100: dad7 aebd a372 6b39 a904 98bd af21 f1bd
00000110: 35e3 0bbe cc33 f7bd b95b 8fbc 1352 43bd
00000120: faa2 c5bc 9c6d 16be 1c3c e2bd b054 0d3e
00000130: 61ca 03bd f699 ea3d 863e 173e 6fa2 e23d
00000140: 24d6 c23d 3f63 ba3d 14ad 1b3e d39f 8b3d
00000150: 8e10 203d ffeb 043e 061f 783d c873 0b3e
00000160: b038 fd3d e149 29bc 373b 733d 8636 343d
00000170: 9277 0b3e 437d da3d 7813 d6b8 4890 c23d
00000180: cf58 9e3c 9a8c c33d a0ad d83d 5a57 083d
00000190: e796 9ebc 8339 cebc bf69 b73d c90d dc3d
000001a0: 2fd6 813d fbee 3239 15ea 4e3d 0ade 0e3d
000001b0: 8456 aebc d607 9d3d 2a1a d7bd dd58 abbd
000001c0: 527d 823d 0298 b53d 1648 3a3c f4d1 fcbd
000001d0: 702d 6f3d 150b 503b 7af7 e63d 5e4a ec3d
000001e0: a63c 8dbd fd47 19bd ad28 693c 1f2a 873d
000001f0: c573 e1bc 62d4 a9ba 5283 77bc ae70 433d
00000200: 46a9 c6bc 3668 f9bd 0c03 db3c 8296 b63c
00000210: f8e4 0a3d 0347 8cbd 00a0 c7bc 02d9 703c
00000220: 86b8 fabd 7e7c 8fbd 35bc 52bd 2e35 60bd
00000230: 4d73 c23c 70fc d2bd c7c2 92bc 6514 a3bc
00000240: 6e0f c4bd 649d 083e 0651 2abd 6071 063c
00000250: 4116 2fbd 7f76 2cbd b9bd 653d 92fc 92bd
00000260: 0fc7 c0bb 58a5 7f3d 8292 35bb 9920 203d
00000270: 4c84 ca3d 8438 bbbd ac10 113c f3fa b03d
00000280: ea09 8fbd e430 df3c 0adb 9b3d 49a1 893d
00000290: f2a7 9f3d 1fe3 f53c 0c1f 1c3d ae99 c93d
000002a0: 9905 763d e080 3d3d 6e0c 0dbc cf56 f33d
000002b0: eac3 be3d 676f 1a3e 9b18 133e 08c8 373d
000002c0: 800c 943d b035 bc3d 7528 743d 8368 a33c
000002d0: 36f9 4dbd 9878 533d 4bd2 bb3c a6df a23c
000002e0: d32f ed3c eb55 8f3d a6b8 d33b e6d5 803d
000002f0: be38 213e 4e0b 593e 59d8 b7bc 792e 79bc
00000300: cd80 883d e01f 3b3e cc7a 063e 12c1 f23c
00000310: 8f71 57bd db20 893d c0c2 a73d 02a5 0e3e
00000320: 0dee f3bd 96f9 cabc 2dd0 d0bd 6360 86bd
00000330: 6bdb 52bd 1426 0bbd 6fb2 7c3d b475 6ebd
00000340: 3f86 5cbc f166 63bc 6def 5a3d e40c c93d
00000350: 0756 4dbb dff7 e9bd b7f1 d0bd 7646 d33d
00000360: bb61 0fbd 29a5 193b a4e5 83bd 06c4 fd3b
00000370: 3f07 953c cbe3 0cbe 6ff3 52bd 0f8b 0cbe
00000380: 7c62 d13b 0eff 5dbd 9ecf 3ebd b36f d9bd
00000390: e67a 13bd 5dae b1bd 9ac2 153d aafc e8bc
000003a0: ed00 ae3d d0af 1dbc aa85 01be 7bcb 8ebd
000003b0: 72e8 6dbd c45f fe3c fa5e 423c 1008 f2bb
000003c0: 0787 9bbd 273e e3bc 7325 74bd a605 993c
000003d0: ef2e 253d e59c 22be 2634 b3bd e5b0 a6bd
000003e0: a973 8e3c 4731 76bd 0aaf 93bd 0e82 8bbd
000003f0: edcb 96bc ce47 81bd 3e07 bbbd e032 02bd
-0.099980816 -0.05553146 -0.010019321 -0.027220149 0.06720656 -0.09374774 -0.14970477 -0.05832195
-0.09199424 0.095380805 -0.1324876 -0.0042283484 -0.062323105 -0.015235205 0.09810937 -0.06864184
-0.11145838 -0.074966826 0.047152013 0.0003813146 -0.20261687 -0.020026337 -0.042109832 -0.032531273
-0.053678885 0.029068071 0.03853089 0.06583283 0.13196208 0.13133366 -0.0328734 0.0853858
0.024901599 0.14212427 0.20725785 -0.04339407 -0.02069492 0.110544674 0.19048123 0.17281812
0.07244228 -0.0046499954 0.06989212 0.0722253 0.1035539 -0.07867936 0.05437364 0.04245115
0.14238533 0.109788306 -0.058095578 -0.08855091 -0.037534233 -0.1657743 -0.08385627 0.008516101
-0.07040527 -0.0023525455 -0.1667974 -0.124036595 -0.07083633 -0.09709866 -0.11051542 -0.11328585
-0.08537264 0.00022454052 -0.07422764 -0.11774003 -0.13660891 -0.12070426 -0.017499791 -0.047685694
-0.024125565 -0.1469025 -0.11046621 0.13801837 -0.032175425 0.11455147 0.14769945 0.11066138
0.095135 0.09100961 0.15202743 0.068175934 0.039078288 0.1298065 0.06057646 0.13618386
0.12364328 -0.0103325555 0.059382644 0.04399731 0.13619831 0.10668423 -0.000102079415 0.09500176
0.019329457 0.09548302 0.10579991 0.03328643 -0.019359065 -0.025173908 0.08955716 0.10744817
0.063396804 0.0001706443 0.050516207 0.03487972 -0.021281488 0.0766751 -0.10503037 -0.08366559
0.06371559 0.08866884 0.011369726 -0.12344733 0.058392942 0.0031744887 0.11277671 0.11537622
-0.068963334 -0.03742217 0.014230889 0.06599831 -0.027521024 -0.0012956972 -0.015106993 0.04771488
-0.024250638 -0.1217808 0.026734851 0.022288565 0.033909768 -0.06849482 -0.024368286 0.014700176
-0.12242226 -0.07006167 -0.05144902 -0.054738216 0.02373662 -0.10302055 -0.017915143 -0.019907186
-0.095732555 0.1334129 -0.041581176 0.008205742 -0.042745832 -0.042105194 0.056089137 -0.0717708
-0.0058831046 0.062413543 -0.0027705734 0.039093588 0.09888515 -0.09141639 0.008854073 0.08641615
-0.06984313 0.027244993 0.07610138 0.06720216 0.07795705 0.030015526 0.038115546 0.09843765
0.060063932 0.046265483 -0.0086089205 0.11881792 0.093147114 0.15081559 0.14364855 0.0448685
0.07228947 0.091899276 0.059608895 0.019947296 -0.050286494 0.05162868 0.022927424 0.019882035
0.028953468 0.069988094 0.006461221 0.06290798 0.15744302 0.21195719 -0.02244203 -0.015208834
0.06665192 0.18273878 0.13132781 0.029633079 -0.052598532 0.0669572 0.081914425 0.13930133
-0.11910639 -0.024777215 -0.101959564 -0.06561353 -0.051478785 -0.03397186 0.061693605 -0.05821772
-0.013459741 -0.013879524 0.05345099 0.09816912 -0.0031331794 -0.11424231 -0.102023534 0.10316174
-0.035005312 0.002344439 -0.06440285 0.007744315 0.018191932 -0.13758771 -0.051501688 -0.13724922
0.006389914 -0.054198317 -0.046584718 -0.10617008 -0.036005877 -0.08675835 0.03656254 -0.028440792
0.0849627 -0.0096244365 -0.12648645 -0.069724046 -0.058083005 0.031051524 0.0118634645 -0.007386215
-0.07594114 -0.027739597 -0.059606027 0.018679451 0.040327962 -0.15880163 -0.08750181 -0.08139209
0.017389135 -0.06010559 -0.072111204 -0.06811915 -0.018407786 -0.06312524 -0.09132241 -0.0317868

layer1.conv.bias f4 [32]
00000000: b67a 23be 441e 7abb 9620 f93c c717 e5bd
00000010: 2b73 f0bd 46bb c5bd 2d5d a03d 9e6b 233d
00000020: bb40 9a3c f095 32be 7dc5 283e de11 923c
00000030: f9f0 36be 3e9a 11be 951e 253e c691 653d
00000040: ca83 0fbe c16c 563d c096 15be 6e38 153e
00000050: ac72 76be 0944 223e c7de 2e3e fdc7 563e
00000060: 3a43 443e 30bb 583e 925f 913e 006d df3d
00000070: f579 123e 93d8 a6bd 0264 09be 4f84 0b3e
-0.1596478 -0.0038165012 0.030411046 -0.11186176 -0.117407165 -0.0965486 0.07830272 0.039897554
0.018829694 -0.17440009 0.16481586 0.017830785 -0.17865361 -0.14218995 0.16124947 0.056047224
-0.14015117 0.05234981 -0.14608288 0.14572307 -0.24067181 0.15846266 0.1707717 0.20974727
0.1916627 0.21165156 0.28393227 0.10909462 0.14304335 -0.08146777 -0.13417056 0.1362469

layer2.conv1.weight f4 [32, 32, 3, 3]
00000000: ed30 0cbe d541 243d 49e3 89bc 8eeb 173d
00000010: de70 5f3d 0027 a93d 5a54 37bd f706 373e
00000020: 279e 47bd 2e67 303e 1da8 56bc d9b3 74be
00000030: 882b 223e ae4b 933c d04b 97bd ff8a b1bd
00000040: 422f 443d 3e04 eabd f15d d6bd a93b 11be
00000050: bd3a 65bc 4718 63bd d746 fbbc bff9 1c3e
00000060: 1a08 343b 21dd 13be 28e6 2f3e e929 ab3d
00000070: 6554 2abe fc37 103e b264 99bd 16b6 2c3d
00000080: 2eae 263e 491a 893d aa87 eabc 0000 8bbb
00000090: b47d eabd 803e 3d3d 5256 5dbe 36e6 65bd
000000a0: 6fb5 063e 2885 32bd e5a7 91bd 9fca c03d
000000b0: 302b b8bd 8c04 31bd 0286 0a3e d02e e9bc
000000c0: 011b 07be 3cb2 173e 39e2 dbbc 88bf debd
000000d0: 14b8 543b 594d 0c3d be10 de3d 0563 383c
000000e0: aae3 803b 7db8 0cbe cb57 0e3d 14be e73c
000000f0: e455 22be dfd5 24be cc6a 89bd fad2 c3bd
00000100: 6e23 1bbc 701e 193d 16ba eabd a097 15bd
00000110: 2f9f a3bd 0c78 25be 2a75 e03d b2ae 9a3d
00000120: 68b9 3ebd e390 d83c 3935 2fbd cdc2 683d
00000130: c881 243e c095 b2bd 55d1 dfbd 83c4 ccbc
00000140: e383 3dbe 223f e53d 540a ed3d 6fce 33bc
00000150: aaf4 bd3c 378c 263e 5cb7 a0bc 1010 acbc
00000160: 02b7 bb3d 09a9 883d 3606 4abd 4f9a e0bd
00000170: 1b28 133d f46d 39be 64d2 1e3d 2c55 a83d
00000180: cfd8 6c3b 81d0 11bd f2bd 39be f5d4 833e
00000190: 689f c4bd 3668 5a3c 0b14 9e3d abf2 a0bc
000001a0: 97b5 b2bc 6332 7b3d cace 50bd e05e 2c3d
000001b0: 78b8 a1bd 3efa 943d e688 dcbd ff85 0abe
000001c0: 8388 f2bd 8e47 3c3e ebe5 0fbe 392c 343d
000001d0: e889 c73d 3ed1 3abd 930f a13d b75e 89bc
000001e0: d0bf 85bd 870d 323d 54b4 af3d e863 20be
000001f0: 52a0 a5bd 767f 0b3c 4355 0f3d 1ad9 cf3c
00000200: 6477 853c 495e b9bd 1e43 d73d 6bc6 323e
00000210: 997a 06bd 4965 893d 4276 e43d ca18 8c3d
00000220: c3fb 91bc c5d2 843c abc8 93bd 7a44 f63d
00000230: bbcd 9abc 66d1 fcbd c7d2 90bd eeb4 f7bd
00000240: e833 103b 667e 07bb 507d 803e 9164 053e
00000250: 5a5c ecbd 5bba 5ebd 45f4 c4ba 0733 3ebe
00000260: ba11 2b3e 833b 79be c15e 153e 2286 2dbd
00000270: 9201 7bbd c5bd 4b3e 112d 76bd f461 743d
00000280: bc8a 9cbc 8e8f 10be ce01 593d 1ea3 cebd
00000290: a630 f63c 807e 0d3d 34f8 8ebd f3aa 203d
000002a0: c008 6b3c 64ee 3bbd e65f 0f3d 5838 91bc
000002b0: 47fe 1fbd 43c3 4cbd 2cf5 e0bc d5ae b7bc
000002c0: 21e8 a5bd eaf7 83be ffd1 1bbe 8c2c d2bd
000002d0: 1f2e f9bd 6ca9 b63d a501 2bbd 8339 a73d
000002e0: 709f 043e 413e 10be 645a 3e3d 40d3 843d
000002f0: 4acf 89bd c967 93bd 7157 a93c 94b0 81bc
00000300: 9b2a 573d 5da5 2d3e 197c b93d fa19 fbbd
00000310: 432d dbbd 2c08 063e 9922 14be 2878 3d3d
00000320: 097f 0e3d 7c2f 293c 8026 e63d 02ca cabd
00000330: 49b8 51bd 014a 8dbc ce6f 53be 2027 9cbd
00000340: 4d47 9f3d 8328 86bd 2311 95bd 0485 9abd
00000350: b6ce bebd ab5a 8e3d 5be4 3fbd d15a 02bd
00000360: 10fd f0bc aaea 72bd ac43 123d c6ad 81bc
00000370: 6c53 8e3a 1523 033e 591a e2bc ef87 40bc
00000380: 3350 9ebd 6436 e8bb fed0 95bc cc3f efbc
00000390: 3e57 0ebe 80c6 883d 9cd1 94bd 27c5 b2bd
000003a0: 86f1 cb3c de79 2b3c e643 6a3e 4759 6bbd
000003b0: 73c7 b63d 6902 9b3d 0d78 05be f91a 8f3d
000003c0: cefc 0a3e a8f5 273e d86d 8cbc 9564 33bd
000003d0: c0ab 15bd cd14 a8bc 6115 8a3d 1fe3 80bd
000003e0: d170 f4bc 97e5 afbd 67c2 f9bc c3b4 bbbd
000003f0: d0ea f43d 2193 7b3c 9b8e e73b 47d0 a43d
-0.13690539 0.040101845 -0.01683201 0.037089877 0.054550998 0.08259392 -0.04475818 0.1787375
-0.04873481 0.1722686 -0.013101605 -0.23896731 0.15836918 0.017980423 -0.07387507 -0.086690895
0.04789663 -0.114265904 -0.10467137 -0.14182915 -0.013991055 -0.055443075 -0.030673428 0.15329646
0.002747065 -0.14439823 0.17177641 0.08357603 -0.16633756 0.14083856 -0.07489909 0.04216584
0.16277382 0.066944666 -0.028629143 -0.0042419434 -0.11449757 0.046202183 -0.2161496 -0.05612775
0.13155149 -0.04358402 -0.071121015 0.09413647 -0.08992612 -0.043217227 0.13527682 -0.028464705
-0.13193895 0.14814085 -0.02684127 -0.108763754 0.0032458352 0.034253452 0.10843037 0.011254077
0.0039333897 -0.13742252 0.034751695 0.028288879 -0.15853077 -0.1609721 -0.06709823 -0.09561725
-0.009468896 0.037382543 -0.11461274 -0.036521554 -0.07989346 -0.16159075 0.10959847 0.07552852
-0.046563536 0.026436275 -0.042775366 0.0568264 0.16065133 -0.08719969 -0.10928599 -0.024996048
-0.18507342 0.11193682 0.115742356 -0.010974511 0.023187954 0.16264425 -0.019618683 -0.021003753
0.09165765 0.06672866 -0.04932233 -0.10966932 0.03592692 -0.1810835 0.038774863 0.0821937
0.003613997 -0.035599235 -0.18138865 0.2574841 -0.09600717 0.01333051 0.07718667 -0.019646963
-0.021815104 0.06132735 -0.05097846 0.042082667 -0.07896513 0.072742924 -0.10768299 -0.13527678
-0.11842444 0.18386671 -0.1405255 0.043987487 0.097431004 -0.045609705 0.07864299 -0.016768796
-0.06530726 0.043469932 0.08579317 -0.15663111 -0.08087219 0.008514276 0.03499342 0.025372077
0.016292281 -0.090511866 0.105108485 0.17458503 -0.032831762 0.06708772 0.111553684 0.06840666
-0.017820245 0.016213784 -0.07216009 0.120247796 -0.018896928 -0.12344627 -0.070714526 -0.120950565
0.0022003595 -0.0020674705 0.25095606 0.13026644 -0.11541052 -0.05437694 -0.0015026411 -0.18574153
0.16705981 -0.24339108 0.14586927 -0.042364247 -0.061280794 0.1989661 -0.060101572 0.059663728
-0.019109122 -0.14117262 0.052980237 -0.10089706 0.030052494 0.034544468 -0.06980935 0.03922553
0.014345348 -0.045881644 0.035003565 -0.017727062 -0.039060857 -0.049990904 -0.027460657 -0.022422234
-0.08100916 -0.2577508 -0.15216826 -0.10262403 -0.12167 0.089190334 -0.041749615 0.08165266
0.12951446 -0.14086248 0.046472922 0.06485605 -0.067289904 -0.0719753 0.020671578 -0.01583127
0.052530866 0.16957612 0.09056873 -0.12260814 -0.10701992 0.13089055 -0.14466323 0.046257168
0.03478912 0.010326263 0.11237812 -0.09901811 -0.05120114 -0.017247202 -0.20648119 -0.0762465
0.077772714 -0.06550696 -0.07278659 -0.07544902 -0.09316771 0.06950887 -0.046848636 -0.03182489
-0.029417545 -0.059305824 0.03570907 -0.015829932 0.0010858602 0.12806351 -0.027600454 -0.011751159
-0.077301405 -0.007086562 -0.018288132 -0.029205225 -0.13900468 0.06678486 -0.07266542 -0.0872901
0.02489544 0.010466067 0.22877464 -0.05745819 0.08924761 0.07568819 -0.13034077 0.069875665
0.13573 0.16402304 -0.017142221 -0.043797094 -0.036540747 -0.020517731 0.06742359 -0.0629332
-0.029838951 -0.08588713 -0.030488206 -0.09165337 0.119588494 0.0153549025 0.0070665604 0.08047538

layer2.conv1.bias f4 [32]
00000000: 3a26 113d fdaf d33b 30d7 40bd 8123 213d
00000010: 1da1 ffbb cff3 eb3c 68cb 363d fea1 853d
00000020: e18a b83c e5a7 a03c e2bb 603d c6cc 2a3d
00000030: 9efe 94bb 6cb1 27bd 9200 653d c800 693d
00000040: 551e 573d e00d 143d 283c 523d db33 063c
00000050: 525b 6abd 65b7 81bc acca 1bbd 6083 bf3b
00000060: b984 1cbd 5378 8fbc daad fe3c 386e a8bc
00000070: ed31 26bd 7c4d e73c b5ec 2f3c b915 a83c
0.035436846 0.0064601884 -0.04708022 0.0393405 -0.0078011886 0.02880278 0.044627577 0.06525038
0.02252716 0.019611308 0.05486668 0.041699193 -0.0045469543 -0.040940687 0.055908747 0.05688551
0.05251916 0.036146045 0.0513269 0.008191074 -0.057215996 -0.01583452 -0.03803508 0.0058445185
-0.03821251 -0.01751343 0.031088758 -0.020560369 -0.040574957 0.02823519 0.010737588 0.02051817

layer2.conv2.weight f4 [64, 32, 3, 3]
00000000: 86a1 f7bd 5cf8 87ba cd25 9b3d 493f 703c
00000010: 4843 7bbd 7658 adbd e33f b23d 3538 ad3b
00000020: 6e95 673d a999 153d b550 b73c dfb6 5f3d
00000030: e716 14bd 9a5d fc3b b351 053d bec6 5d3d
00000040: 4131 c93d 2c18 4bbd 522c 7abc ebfd 003c
00000050: bf5a 993b 8065 bb3c c201 83bd dfae 373c
00000060: adc6 d73c a8bd 7b3d 342c 41bc ccef 2c3c
00000070: b9e4 12bb 12a0 4fbc fffc 613d 7c45 833d
00000080: c158 86bb 4544 93bc 7bf8 e23c 326c 7fbd
00000090: d30c 2ebc 39da 843c c143 9f3d 07ea 06bd
000000a0: 6136 9fbd 41b1 2bbd 0794 0a3d 6cf8 273d
000000b0: 8723 643d 115b 373d 49b4 4dbd 37a9 663d
000000c0: d439 543d fa76 3c3d 54b9 62bd 817d 053d
000000d0: c015 313d 9b35 913c d011 23bd af2d 70bd
000000e0: 4547 353d 5446 f53c 5635 35bc 9cdb 853d
000000f0: 21dc e23d 8fc8 2b3d 4e96 303c cab6 e4ba
00000100: b570 87bc 06db 3c3d ec26 e2bc 38b5 17bc
00000110: 9112 893c 03f9 9ebc e27a 2abc 49c5 a23d
00000120: 6bf9 2d3d 74e8 d3bc efa1 f8bb 488f 3cbc
00000130: 5d95 2e3c b766 8c3b 3f35 013d 7586 773d
00000140: a1c0 7abd 9b1f 35bd 31b7 ae3d 655e 823d
00000150: 9b69 803d e9c9 e9bb 93b9 aa3d 16ad 84bd
00000160: f920 a73d f049 bf3b e615 ab3d 58d3 513d
00000170: 8315 423d 39d2 0a3d 1d5c ee3b b914 943c
00000180: 9af0 123d 069d 71bc 6b60 943c 3dfc 91bc
00000190: 8636 823d 6d44 8a3c 2da3 1ebd d413 953d
000001a0: 8ce2 103d 88de a23d 5dc4 be3c 0309 11be
000001b0: fd19 a1bc c608 f93c f176 513c f7e4 d1bd
000001c0: ad17 43bd 90e2 0c3d a311 dc3d d9b5 a23d
000001d0: 711c c13d ff55 f6bc b35f e53c 8686 c0bc
000001e0: e08e 80bd 25af 1a3d b754 6f3c 9673 dcbd
000001f0: a6e3 91bd b2c5 123d 451b 843d 802b 4dbd
00000200: 983f 1c3c 20b9 31bc c1ba 84ba 1346 acbc
00000210: a3fa a73d f79c 93bc 6f4b 623d 88ed d43d
00000220: 9c84 d7bb 0b31 c53c afab 303d e8f8 783d
00000230: 2981 45bd f6db 073d 52c6 033d 4af0 85bd
00000240: 0916 e03d 4866 28bd 57b5 44bd b520 b63d
00000250: 3352 2dbd 267c b0ba a598 a0bd 2594 d2bd
00000260: 9cd5 7439 11d5 8cbc 2fba 95bd fdd6 ca3c
00000270: 7b42 1d3c 8c69 bd3d e86f a63d 7f55 a83d
00000280: ee74 32bc 68df 7e3c ed06 a0bc c1ce 163d
00000290: aabe a63b a947 89bc 1695 743d 3a35 cdba
000002a0: 0359 7fbc 1f59 16bc 4b56 5cbd e444 043d
000002b0: 37ca dcbc 2e13 2abd 7349 183d 08d0 9cbd
000002c0: 5b95 2a3d 76d8 b2bd ab53 44bd 10c7 e13d
000002d0: 0aa4 863c 99c8 f33b 585c 37bc bbfb bcbc
000002e0: 815e 5f3b 2e94 863c 440b 873d 0972 fd3c
000002f0: 1bfd 69bc 432f a73d f892 79bc 6f9c 7f3d
00000300: 52fa 333d 80f2 803d 3f81 fdbc 4dc9 db3a
00000310: 982c d03b 8c90 973d 82ed bf3d 4bd7 29bd
00000320: 81ab af3d 647f 8ebd 18d7 80bd cd05 563c
00000330: 9fbf a8bc a352 e43c 748f 25bd 8de2 37bd
00000340: 87c3 94bd 60c3 39bd f909 073e 1a72 753d
00000350: 3152 a13c 0101 d83d 2f7c 27bd 5a53 e83a
00000360: 23bd 203c 1261 98bd 8cb3 a03c 6e1f a73d
00000370: 6e14 e63c 45c9 823b 9368 a7bd f4ca 15bc
00000380: 5ce5 b03d 3232 703c 0d9b 24bc e3f8 3cbd
00000390: 7c62 d43c 0f0c c23a e562 8fbd 0ee1 80bb
000003a0: 9724 6bbc 96d8 d9bd acfe dfbb d026 0cbc
000003b0: 87b0 b7bd 0b44 8b3c 7123 ed3c ae83 1fbc
000003c0: 8013 c73b 782e c43d 096c d43b 357a 3abc
000003d0: 6050 6e3d 85af 5dbc 13a8 183b 85c6 a73d
000003e0: 2bea 4ebd 8618 943d ab78 f5bd 8bc8 f8bd
000003f0: 5662 96bd 86d7 11be cc09 0e3d 72d1 a13d
-0.12091355 -0.00103737 0.07575569 0.014663526 -0.06134346 -0.08464138 0.08703592 0.0052862414
0.05653899 0.036523495 0.022377351 0.05461776 -0.036154654 0.007701588 0.032548618 0.054144613
0.098238476 -0.0495836 -0.015269356 0.007873039 0.004680007 0.022875547 -0.0639682 0.011211126
0.026339853 0.061460167 -0.011790324 0.010555219 -0.0022414161 -0.012672441 0.055172917 0.064097375
-0.0040999358 -0.01797689 0.027706375 -0.062359042 -0.010623175 0.016217338 0.07776595 -0.03293803
-0.07774044 -0.04191709 0.033832576 0.041008398 0.055697944 0.044764582 -0.05022076 0.05631372
0.05181296 0.046011902 -0.055352524 0.032590393 0.043233633 0.017725756 -0.03981191 -0.058637317
0.04425742 0.029940762 -0.01106008 0.06536028 0.110771425 0.041939314 0.010778023 -0.0017449495
-0.016533235 0.046107315 -0.02760645 -0.0092595145 0.016732486 -0.019405847 -0.010405274 0.079477854
0.04247419 -0.025867678 -0.0075876634 -0.01150877 0.010655728 0.0042847055 0.03154492 0.060430963
-0.06121886 -0.044219594 0.08531035 0.063656606 0.06270143 -0.0071346653 0.08336177 -0.06478326
0.08160586 0.0058376715 0.08353786 0.051226944 0.047383796 0.03389189 0.0072741644 0.018076288
0.035873987 -0.01474691 0.018112382 -0.017820472 0.06358056 0.016878331 -0.038729835 0.072791725
0.035372302 0.07952601 0.023286993 -0.14163594 -0.019665712 0.030399691 0.0127847055 -0.1024875
-0.04763 0.034395754 0.107455514 0.07944841 0.09429253 -0.030070303 0.027999735 -0.023501646
-0.06277251 0.037764687 0.0146076 -0.10764234 -0.071234986 0.03583307 0.06450514 -0.050090313
0.009536646 -0.01084736 -0.0010126458 -0.021029508 0.08202102 -0.018019183 0.05524772 0.10396868
-0.0065770876 0.024071237 0.04313248 0.06078425 -0.04821888 0.033168755 0.032171555 -0.06539972
0.10941703 -0.041113168 -0.0480245 0.08892957 -0.04231472 -0.0013464733 -0.07841615 -0.102821626
0.00023349229 -0.017191442 -0.07310902 0.024760718 0.00959837 0.09248647 0.08126813 0.08219432
-0.010892136 0.015556194 -0.019534552 0.03681827 0.005088647 -0.016757803 0.059712492 -0.0015656122
-0.015585187 -0.009176522 -0.053793233 0.03229226 -0.026951892 -0.041522197 0.03717942 -0.07656866
0.041646343 -0.08732693 -0.047931354 0.11024296 0.016435642 0.0074396846 -0.01119145 -0.023069253
0.0034083428 0.01642808 0.065939456 0.030938165 -0.014281536 0.08163311 -0.015232794 0.062405046
0.043939896 0.06296253 -0.030945418 0.0016768366 0.0063529722 0.07400617 0.09371473 -0.041465085
0.08577634 -0.069578916 -0.06291026 0.013062906 -0.020599185 0.027871436 -0.04042001 -0.04489379
-0.072638564 -0.04535234 0.13187398 0.05992327 0.019692512 0.105470665 -0.040889915 0.0017725036
0.009810719 -0.0744039 0.019616865 0.081602916 0.028085914 0.0039912784 -0.08174243 -0.009142626
0.08637497 0.014660405 -0.010046733 -0.046135794 0.025925867 0.0014804619 -0.070012845 -0.0039330786
-0.014351985 -0.106370136 -0.006835779 -0.0085541755 -0.08969217 0.017000219 0.028947564 -0.009735985
0.0060753226 0.09579176 0.0064826054 -0.0113816755 0.05818212 -0.013530617 0.002329354 0.081921615
-0.05051629 0.0723124 -0.11985906 -0.121476255 -0.07342975 -0.14242372 0.03467731 0.07901277

layer2.conv2.bias f4 [64]
00000000: 164d 2d3d a5eb 6ebd 2df0 953d c74c 9f3c
00000010: 2701 893c 2188 8abc 0e83 0fbd ec76 37bd
00000020: 9196 57bc 550f 523b a5b4 193d 0d99 b6bd
00000030: a5f0 e4bb 7a26 363a 235b 3ebd 46ac 67bd
00000040: 4a5b d73c a1f7 513d e817 2ebc 39f1 a43c
00000050: 7b0a 273d 113c efbb ee23 4ebd 9c09 823d
00000060: 61c0 65bd 330f ea3c cb45 6bbd b351 7cbd
00000070: 35ee 81bd ee33 73bd 87ad 07bc b178 9a3c
00000080: e119 80bd c98a 04bb 61c4 8a3a 8f73 55bd
00000090: e9ec babc eaec ba3c b8c7 403d 0a26 14bd
000000a0: 8d1b 4d3d 84ef d83b 24b6 0d3d 7f0c 3e3b
000000b0: aa08 8bbc 14cb 2b3c eb17 2f3a aaf7 37bd
000000c0: 314f ecbc 0409 83bc 4e3e d23c 4ae2 933d
000000d0: 11bd c53b 8395 43bd 5429 23bd ce64 153b
000000e0: cb0d 20bb ea9a 65bd 3fa6 dc3c f2a3 d43c
000000f0: 8d13 02bd dce4 873b c409 6cbd f78e 8f3c
0.042309843 -0.058330197 0.073212005 0.01944579 0.016724182 -0.016910614 -0.035037093 -0.044791147
-0.013158456 0.0032052596 0.03752579 -0.08915911 -0.006986695 0.00069484825 -0.046473633 -0.056560777
0.026288647 0.051261548 -0.010625817 0.020134555 0.04078148 -0.0073008616 -0.050327234 0.06349489
-0.05609167 0.0285717 -0.057439607 -0.061601352 -0.063442625 -0.059375696 -0.008281118 0.018856378
-0.06254936 -0.0020224324 0.001058709 -0.05211216 -0.022818046 0.022818048 0.047065467 -0.03616909
0.050075103 0.0066203494 0.03459753 0.0028999147 -0.016971905 0.010485429 0.0006679284 -0.044913925
-0.028846355 -0.01599551 0.025664475 0.072208956 0.0060345014 -0.047750007 -0.039834335 0.002279568
-0.0024422284 -0.05605594 0.026934741 0.025957081 -0.031756926 0.004147155 -0.0576265 0.017524226

fc1.weight f4 [1, 3200]
00000000: 0c03 4f3d 2b56 913b dc56 baba ecfd 033e
00000010: 69a3 25be 563c 563d 25ec 0d3d 26fa 63bc
00000020: add9 53bd 9d6e fd3c 7098 183b 8253 46bc
00000030: b511 c13c 4a2e 50bd 3f3e a8bd dc46 7b3d
00000040: 1f49 d43d 4ea8 493d dd28 3a3d ebde 943c
00000050: a897 31bb 98f6 9a3d 9bd5 e5bc 7d46 fe3b
00000060: 3a5a 643d 9688 0bbd ef90 c4bd d3f3 79bd
00000070: 9e58 4d3c 9edc 19bd f970 38bd 4b14 96bd
00000080: fe26 79ba e883 113c ec00 523c 7c4e b43d
00000090: c4ae 833c c4d1 ba3c c3cd b8bb ce43 2fbd
000000a0: f9d0 053d d2c4 923a ec58 393d 381b 353c
000000b0: 19ae 12bd e700 683d 4d2c 75be 829a 2a3d
000000c0: 9fb5 cc3c acf0 fcbb fc67 0000 06f4 023c
000000d0: 1c46 f83c a734 403e 3068 0000 a4d5 8a3e
000000e0: 24c2 72bd 3b10 d13c f26c a83e 9a86 503e
000000f0: e81a a33e 6697 44bd 38f3 92bc b71c 28bd
00000100: 394e 0000 98fb ac3d 2adc 12be 3ac8 edbc
00000110: 2617 d83e a1b6 0abd e32a 0180 e0d9 0180
00000120: 2443 c9bd 2884 783e 7143 83be 4241 253f
00000130: e2a9 5fbe a9a4 0c3e 89ba b7bb ba5f 193d
00000140: da23 0280 ebce 0100 d416 d53d c32d b7bd
00000150: 42d2 02be a5ec 35be 308e 0000 d555 36be
00000160: 5a97 31bd 59f0 50bc 5d3a 9e3d 91ab dc3c
00000170: 4e05 8abd 67e0 0180 ade8 0180 bd3c 833d
00000180: 91db bd3d a4d4 f2bd e67b c63e df4d 883d
00000190: 88a8 0200 c361 0080 90c3 0180 00d0 0180
000001a0: 1c8c 0100 d9bf 0280 c4e8 0100 5975 f93d
000001b0: 7cdc 373c 93af 33bd be8c 0000 df87 0280
000001c0: 23fb 0180 7073 a03e 07c7 563e f1f2 bf3d
000001d0: ba7f 0180 d87f 0080 86ea a2be 953f 8b3d
000001e0: 4316 8dbe 3015 0180 11b1 0280 d07e 2abe
000001f0: 3554 d73d ccc6 673e 93ca 0280 1d40 0000
00000200: 538c 23bc 4689 ff3c bd52 11be b994 0280
00000210: b0e8 0180 8e53 123e ad2b 1f3e 3bc3 863d
00000220: e019 0280 3023 0280 0697 a0bd 439c 4abc
00000230: 70bc 0000 835e 0200 92dd 81bd 4fe1 7abd
00000240: fbeb 0fbe 72d3 873c 14d9 0080 4d4a a9bc
00000250: 0dd0 2f3d 33bf 093d 89e4 0e3b 7288 a53c
00000260: dbf1 443d 4e19 af3d 5965 053e 4ac1 173d
00000270: 5195 f63c 1a27 183d c13d 9ebd 8012 47bd
00000280: 7018 a6bc 3c32 c4bd 3324 cc3d 6d36 29be
00000290: 20e2 af3c 8e85 263d 0959 a4bb 001a 04bd
000002a0: a6a7 003e 9fd3 503d 962d e33c c5b7 9a3c
000002b0: 72bc f8bc 5c39 31bd adc1 cd3b 3860 df3d
000002c0: 9519 753c 1ddc 343a 7568 223c 9051 20be
000002d0: 38c0 87bb b8b8 ecbc 8ba0 4abc 9fc0 593b
000002e0: 71a7 5e3d f04b f1bd b5a5 1dbd 02e3 55bd
000002f0: cc7a 073d 6302 5e3c 4461 99bc faca c53c
00000300: a52c 0100 ef53 553c e908 5e3b 7553 11be
00000310: 3935 4fbe 9df0 04be ce54 8bba 4a00 093c
00000320: e82a f4bc fb5f 36be 8593 d2bc 879b 9cbd
00000330: 2859 993d a853 d0bd 2235 053f 1024 87bd
00000340: 7f18 4bbd 6aab f3bc 92bf d93b 74f3 e73d
00000350: 3492 0100 a82b 82bc ce4f 913d 8c24 19be
00000360: 239f 493c 471b 0080 7d35 b8bd e77a 0ebd
00000370: f79e 873d f301 583d b4b6 0100 6df8 88be
00000380: 7aee 67bd 1bd2 d4bd e088 52bd b16b 0200
00000390: 8cc1 e93d 2022 50bd 3e00 34bd 5a95 a53d
000003a0: afff 75be d999 023d d102 7dbc b5be 12be
000003b0: 2c60 5e3e 623a 323e e0ee 12bd 6423 a4bc
000003c0: bb8b a1bb 93b0 81bd 1eea bbbc b661 98bd
000003d0: 534b 60bd 22ff 06bd b610 7ebd 4649 59be
000003e0: 5e0b 5ebe 3658 023d 5585 3b3d c4a6 3a3b
000003f0: 03cd 04bd 287c 683d 4232 94bd 3277 073d
0.050540015 0.004435321 -0.001421656 0.12889832 -0.16175617 0.052303635 0.034649033 -0.0139146205
-0.051721264 0.030936534 0.002328422 -0.012104871 0.023568014 -0.050825395 -0.082149975 0.061346874
0.10365509 0.049232773 0.045449127 0.018172702 -0.002709845 0.07566565 -0.028055957 0.0077598677
0.05575011 -0.034065805 -0.095979564 -0.061023545 0.012533335 -0.037563913 -0.045029614 -0.07328089
-0.00095044065 0.008881547 0.012817603 0.08804032 0.016074546 0.022805102 -0.005639763 -0.042789273
0.032669995 0.0011197573 0.045250818 0.011053853 -0.035810564 0.056641486 -0.2394268 0.041651256
0.024988947 -0.00771912 3.7303e-41 0.00799275 0.030306868 0.18770085 3.7375e-41 0.2711612
-0.05926718 0.025520435 0.3289562 0.20363846 0.31856465 -0.047995947 -0.017938241 -0.04104301
2.8061e-41 0.08446425 -0.14341798 -0.02902614 0.4220516 -0.033865575 -1.0722e-40 -1.69994e-40
-0.09827259 0.24269164 -0.2563739 0.645527 -0.21842149 0.13734688 -0.0056069535 0.037444808
-1.96532e-40 1.66064e-40 0.10404745 -0.08944275 -0.1277552 -0.17766054 5.1007e-41 -0.1780618
-0.04335723 -0.012752616 0.07725976 0.026937278 -0.06739293 -1.72336e-40 -1.75304e-40 0.06408069
0.092703946 -0.11856964 0.38766402 0.06655478 2.44129e-40 -3.507e-41 -1.6199e-40 -1.66452e-40
1.42097e-40 -2.52493e-40 1.75336e-40 0.121805854 0.011222001 -0.043868612 5.0489e-41 -2.32412e-40
-1.81926e-40 0.31338072 0.2097436 0.09372509 -1.37655e-40 -4.5862e-41 -0.31819552 0.06799237
-0.27556047 -9.9436e-41 -2.4719e-40 -0.16649938 0.10514108 0.22634429 -2.56341e-40 2.3e-41
-0.009982186 0.031193387 -0.14191718 -2.37023e-40 -1.75308e-40 0.14289686 0.15544005 0.06580206
-1.92953e-40 -1.96294e-40 -0.078413054 -0.012366357 6.7599e-41 2.17575e-40 -0.06341089 -0.061250027
-0.14054863 0.016580317 -7.7873e-41 -0.020665312 0.042923022 0.033629607 0.0021803698 0.020206664
0.048082214 0.08549748 0.13026942 0.03704957 0.030100496 0.037146665 -0.077266224 -0.048601627
-0.020275325 -0.09579894 0.09967842 -0.16524668 0.02147013 0.04065471 -0.0050154966 -0.032251358
0.12563953 0.050983068 0.027731698 0.018886456 -0.030363295 -0.043267593 0.0062791915 0.10907024
0.0149597125 0.00068992545 0.0099126 -0.15656114 -0.0041427873 -0.028896675 -0.012367378 0.0033226383
0.054358903 -0.11782062 -0.03848811 -0.052218445 0.033076093 0.013550374 -0.018723138 0.024144638
1.07851e-40 0.0130205 0.0033879823 -0.14191993 -0.20235147 -0.12982412 -0.0010630132 0.008361885
-0.029805616 -0.17810051 -0.025705108 -0.07646852 0.07487708 -0.10172206 0.520342 -0.06598675
-0.04958391 -0.029744823 0.0066451514 0.11325732 1.44283e-40 -0.015889958 0.070953 -0.14955348
0.012306008 -9.785e-42 -0.08994577 -0.034785178 0.06622117 0.052736234 1.57377e-40 -0.26752034
-0.056623913 -0.10391637 -0.051400065 2.22303e-40 0.11413869 -0.050813794 -0.043945543 0.08085127
-0.24023317 0.031885 -0.015442566 -0.14330561 0.21716374 0.17405084 -0.03587234 -0.020036407
-0.0049299872 -0.06332507 -0.022938784 -0.07440512 -0.054759335 -0.032958157 -0.062027656 -0.21219358
-0.21684024 0.031822406 0.045781452 0.0028480748 -0.032422077 0.05675903 -0.072361484 0.033072658

out.0.weight f4 [1, 3200]
00000000: 0c03 4f3d 2b56 913b dc56 baba ecfd 033e
00000010: 69a3 25be 563c 563d 25ec 0d3d 26fa 63bc
00000020: add9 53bd 9d6e fd3c 7098 183b 8253 46bc
00000030: b511 c13c 4a2e 50bd 3f3e a8bd dc46 7b3d
00000040: 1f49 d43d 4ea8 493d dd28 3a3d ebde 943c
00000050: a897 31bb 98f6 9a3d 9bd5 e5bc 7d46 fe3b
00000060: 3a5a 643d 9688 0bbd ef90 c4bd d3f3 79bd
00000070: 9e58 4d3c 9edc 19bd f970 38bd 4b14 96bd
00000080: fe26 79ba e883 113c ec00 523c 7c4e b43d
00000090: c4ae 833c c4d1 ba3c c3cd b8bb ce43 2fbd
000000a0: f9d0 053d d2c4 923a ec58 393d 381b 353c
000000b0: 19ae 12bd e700 683d 4d2c 75be 829a 2a3d
000000c0: 9fb5 cc3c acf0 fcbb fc67 0000 06f4 023c
000000d0: 1c46 f83c a734 403e 3068 0000 a4d5 8a3e
000000e0: 24c2 72bd 3b10 d13c f26c a83e 9a86 503e
000000f0: e81a a33e 6697 44bd 38f3 92bc b71c 28bd
00000100: 394e 0000 98fb ac3d 2adc 12be 3ac8 edbc
00000110: 2617 d83e a1b6 0abd e32a 0180 e0d9 0180
00000120: 2443 c9bd 2884 783e 7143 83be 4241 253f
00000130: e2a9 5fbe a9a4 0c3e 89ba b7bb ba5f 193d
00000140: da23 0280 ebce 0100 d416 d53d c32d b7bd
00000150: 42d2 02be a5ec 35be 308e 0000 d555 36be
00000160: 5a97 31bd 59f0 50bc 5d3a 9e3d 91ab dc3c
00000170: 4e05 8abd 67e0 0180 ade8 0180 bd3c 833d
00000180: 91db bd3d a4d4 f2bd e67b c63e df4d 883d
00000190: 88a8 0200 c361 0080 90c3 0180 00d0 0180
000001a0: 1c8c 0100 d9bf 0280 c4e8 0100 5975 f93d
000001b0: 7cdc 373c 93af 33bd be8c 0000 df87 0280
000001c0: 23fb 0180 7073 a03e 07c7 563e f1f2 bf3d
000001d0: ba7f 0180 d87f 0080 86ea a2be 953f 8b3d
000001e0: 4316 8dbe 3015 0180 11b1 0280 d07e 2abe
000001f0: 3554 d73d ccc6 673e 93ca 0280 1d40 0000
00000200: 538c 23bc 4689 ff3c bd52 11be b994 0280
00000210: b0e8 0180 8e53 123e ad2b 1f3e 3bc3 863d
00000220: e019 0280 3023 0280 0697 a0bd 439c 4abc
00000230: 70bc 0000 835e 0200 92dd 81bd 4fe1 7abd
00000240: fbeb 0fbe 72d3 873c 14d9 0080 4d4a a9bc
00000250: 0dd0 2f3d 33bf 093d 89e4 0e3b 7288 a53c
00000260: dbf1 443d 4e19 af3d 5965 053e 4ac1 173d
00000270: 5195 f63c 1a27 183d c13d 9ebd 8012 47bd
00000280: 7018 a6bc 3c32 c4bd 3324 cc3d 6d36 29be
00000290: 20e2 af3c 8e85 263d 0959 a4bb 001a 04bd
000002a0: a6a7 003e 9fd3 503d 962d e33c c5b7 9a3c
000002b0: 72bc f8bc 5c39 31bd adc1 cd3b 3860 df3d
000002c0: 9519 753c 1ddc 343a 7568 223c 9051 20be
000002d0: 38c0 87bb b8b8 ecbc 8ba0 4abc 9fc0 593b
000002e0: 71a7 5e3d f04b f1bd b5a5 1dbd 02e3 55bd
000002f0: cc7a 073d 6302 5e3c 4461 99bc faca c53c
00000300: a52c 0100 ef53 553c e908 5e3b 7553 11be
00000310: 3935 4fbe 9df0 04be ce54 8bba 4a00 093c
00000320: e82a f4bc fb5f 36be 8593 d2bc 879b 9cbd
00000330: 2859 993d a853 d0bd 2235 053f 1024 87bd
00000340: 7f18 4bbd 6aab f3bc 92bf d93b 74f3 e73d
00000350: 3492 0100 a82b 82bc ce4f 913d 8c24 19be
00000360: 239f 493c 471b 0080 7d35 b8bd e77a 0ebd
00000370: f79e 873d f301 583d b4b6 0100 6df8 88be
00000380: 7aee 67bd 1bd2 d4bd e088 52bd b16b 0200
00000390: 8cc1 e93d 2022 50bd 3e00 34bd 5a95 a53d
000003a0: afff 75be d999 023d d102 7dbc b5be 12be
000003b0: 2c60 5e3e 623a 323e e0ee 12bd 6423 a4bc
000003c0: bb8b a1bb 93b0 81bd 1eea bbbc b661 98bd
000003d0: 534b 60bd 22ff 06bd b610 7ebd 4649 59be
000003e0: 5e0b 5ebe 3658 023d 5585 3b3d c4a6 3a3b
000003f0: 03cd 04bd 287c 683d 4232 94bd 3277 073d
0.050540015 0.004435321 -0.001421656 0.12889832 -0.16175617 0.052303635 0.034649033 -0.0139146205
-0.051721264 0.030936534 0.002328422 -0.012104871 0.023568014 -0.050825395 -0.082149975 0.061346874
0.10365509 0.049232773 0.045449127 0.018172702 -0.002709845 0.07566565 -0.028055957 0.0077598677
0.05575011 -0.034065805 -0.095979564 -0.061023545 0.012533335 -0.037563913 -0.045029614 -0.07328089
-0.00095044065 0.008881547 0.012817603 0.08804032 0.016074546 0.022805102 -0.005639763 -0.042789273
0.032669995 0.0011197573 0.045250818 0.011053853 -0.035810564 0.056641486 -0.2394268 0.041651256
0.024988947 -0.00771912 3.7303e-41 0.00799275 0.030306868 0.18770085 3.7375e-41 0.2711612
-0.05926718 0.025520435 0.3289562 0.20363846 0.31856465 -0.047995947 -0.017938241 -0.04104301
2.8061e-41 0.08446425 -0.14341798 -0.02902614 0.4220516 -0.033865575 -1.0722e-40 -1.69994e-40
-0.09827259 0.24269164 -0.2563739 0.645527 -0.21842149 0.13734688 -0.0056069535 0.037444808
-1.96532e-40 1.66064e-40 0.10404745 -0.08944275 -0.1277552 -0.17766054 5.1007e-41 -0.1780618
-0.04335723 -0.012752616 0.07725976 0.026937278 -0.06739293 -1.72336e-40 -1.75304e-40 0.06408069
0.092703946 -0.11856964 0.38766402 0.06655478 2.44129e-40 -3.507e-41 -1.6199e-40 -1.66452e-40
1.42097e-40 -2.52493e-40 1.75336e-40 0.121805854 0.011222001 -0.043868612 5.0489e-41 -2.32412e-40
-1.81926e-40 0.31338072 0.2097436 0.09372509 -1.37655e-40 -4.5862e-41 -0.31819552 0.06799237
-0.27556047 -9.9436e-41 -2.4719e-40 -0.16649938 0.10514108 0.22634429 -2.56341e-40 2.3e-41
-0.009982186 0.031193387 -0.14191718 -2.37023e-40 -1.75308e-40 0.14289686 0.15544005 0.06580206
-1.92953e-40 -1.96294e-40 -0.078413054 -0.012366357 6.7599e-41 2.17575e-40 -0.06341089 -0.061250027
-0.14054863 0.016580317 -7.7873e-41 -0.020665312 0.042923022 0.033629607 0.0021803698 0.020206664
0.048082214 0.08549748 0.13026942 0.03704957 0.030100496 0.037146665 -0.077266224 -0.048601627
-0.020275325 -0.09579894 0.09967842 -0.16524668 0.02147013 0.04065471 -0.0050154966 -0.032251358
0.12563953 0.050983068 0.027731698 0.018886456 -0.030363295 -0.043267593 0.0062791915 0.10907024
0.0149597125 0.00068992545 0.0099126 -0.15656114 -0.0041427873 -0.028896675 -0.012367378 0.0033226383
0.054358903 -0.11782062 -0.03848811 -0.052218445 0.033076093 0.013550374 -0.018723138 0.024144638
1.07851e-40 0.0130205 0.0033879823 -0.14191993 -0.20235147 -0.12982412 -0.0010630132 0.008361885
-0.029805616 -0.17810051 -0.025705108 -0.07646852 0.07487708 -0.10172206 0.520342 -0.06598675
-0.04958391 -0.029744823 0.0066451514 0.11325732 1.44283e-40 -0.015889958 0.070953 -0.14955348
0.012306008 -9.785e-42 -0.08994577 -0.034785178 0.06622117 0.052736234 1.57377e-40 -0.26752034
-0.056623913 -0.10391637 -0.051400065 2.22303e-40 0.11413869 -0.050813794 -0.043945543 0.08085127
-0.24023317 0.031885 -0.015442566 -0.14330561 0.21716374 0.17405084 -0.03587234 -0.020036407
-0.0049299872 -0.06332507 -0.022938784 -0.07440512 -0.054759335 -0.032958157 -0.062027656 -0.21219358
-0.21684024 0.031822406 0.045781452 0.0028480748 -0.032422077 0.05675903 -0.072361484 0.033072658

exp_avg f4 [32, 2, 5, 5]
00000000: b5c1 dbbb 54dc eebb 5ffa debb 75f8 a1bb
00000010: ae6b 03bb 2c1b ebbb 190d fabb 7279 e6bb
00000020: c47e a9bb deee edba f624 eabb 02fb f5bb
00000030: 897e dabb e153 9cbb 3cbb e4ba 2205 d5bb
00000040: f94b dabb 9ccf bfbb a38a 84bb 409d a6ba
00000050: b368 b6bb 0054 b7bb f623 9bbb de46 44bb
00000060: 300e 4bba a841 debb a246 fcbb c794 fabb
00000070: e315 d1bb 3756 6bbb 4871 eebb 7f42 05bc
00000080: 5d7a 03bc fffd d6bb f9fc 6cbb 994d e6bb
00000090: d15c 02bc 27f9 febb b474 cabb 0945 5cbb
000000a0: 76a7 d1bb 5d0f e5bb 6b14 dbbb dd66 aabb
000000b0: 0cca 38bb 5fe5 adbb ac27 b8bb dd0c a8bb
000000c0: fd4a 81bb 8736 0abb fafb 003c 782b 313c
000000d0: 46ac 5f3c 38d5 4d3c a76c 263c a92c 3d3b
000000e0: 297f d53b 225d 1d3c 2a6a 1c3c d32b fb3b
000000f0: a710 17bb cf8f 903a 2da7 a03b 6c23 aa3b
00000100: 56bd 943b 3d81 d1bb 000a 52bb b4c7 073a
00000110: 7a07 d13a 4914 a63a 1682 16bc 1c9a d8bb
00000120: cd23 3bbb 9926 dfba 7b61 a7ba 752a 083c
00000130: 8369 2d3c 8e54 483c 9dff 363c 422b 093c
00000140: 1f41 563b 71bd c03b 716e 0c3c 594f 033c
00000150: cb46 d03b 32a9 1cbb b82d 013a 0069 743b
00000160: fac8 883b 4dc1 403b a9a8 d7bb 68dc 71bb
00000170: 2fb8 0cb9 46bb 363a 4aa1 333a 1d90 21bc
00000180: 810b e7bb 0149 7abb 87b6 1abb 4644 04bb
00000190: 0142 403b 5f79 563b 6736 2d3b 2ff7 55ba
000001a0: 7c67 06bc 3563 f63a 6707 fb3a a1d3 5737
000001b0: b625 9dbb 7f55 5fbc 945f 313b 691c cd3a
000001c0: a55b c6ba 34ac e3bb a26d 81bc 7bda 123b
000001d0: a6f7 f639 8f61 0fbb 2661 08bc 8540 89bc
000001e0: e21d 053b a3a4 c6b8 5681 45bb e1fb 02bc
000001f0: 1d4d 7ebc 4240 c53a 0413 e83a b846 873a
00000200: ea6b 9bba ea98 d9bb 2336 c13a d683 473a
00000210: b857 b9ba 8de2 93bb 7114 41bc 5d15 fc3a
00000220: 78df d139 19ff ffba d07a dbbb a7f0 6abc
00000230: bf53 063b c6ec 83b9 3810 5dbb 95f4 05bc
00000240: 931c 7bbc 3ff1 e03a c60a 09ba 8c76 69bb
00000250: 94b5 07bc a836 71bc 33de dcba 52f3 e2ba
00000260: c742 e1ba 6c9f f3ba 412a dcba a5b1 0dbb
00000270: f32c 18bb 196f 23bb 6c3e 2fbb 632a 2bbb
00000280: ea3d 23bb d597 38bb c0f7 4bbb 3852 5fbb
00000290: 54dc 5dbb 91fa 37bb 4c9a 4dbb 09d5 63bb
000002a0: 0db0 6dbb ced2 6abb c602 42bb 7f18 51bb
000002b0: e0f0 5ebb 6f58 65bb 3d6d 60bb 00cf 5fbb
000002c0: 894b 7cbb fa9f 71bb 2149 37bb a66d d6ba
000002d0: 48d9 81bb 2cd5 97bb cdb2 98bb 3e0e 83bb
000002e0: ff56 3cbb eae7 8cbb 625f a5bb 9dd8 a9bb
000002f0: c547 99bb 5d20 6fbb 3bb4 8bbb 4d18 a6bb
00000300: 3645 aebb 1c15 a5bb 6563 87bb e7a2 85bb
00000310: 615a 9dbb 0dd3 a6bb 5d74 9dbb afa4 81bb
00000320: 0f4c 39bb ed8e 63bb 4c16 83bb 2ec3 87bb
00000330: 7703 95bb 208c 4dbb 5a58 6dbb 0fe3 83bb
00000340: 639b 8bbb 54c9 97bb e7bb 51bb 1430 72bb
00000350: 8957 85bb 36d6 8ebb e9d2 98bb afa5 38bb
00000360: 1298 5abb 2efc 70bb 4ad6 88bb 8437 9fbb
00000370: a3f7 16bb fd06 39bb d912 61bb 5b15 7fbb
00000380: 2016 9dbb 44c5 34bb a5c2 64bb d19b 85bb
00000390: 1521 95bb 3d18 a3bb 18b9 41bb 2a4b 72bb
000003a0: 06a1 8cbb 47d4 98bb 0491 aebb 2a4b 40bb
000003b0: d39a 6cbb 138e 86bb 66fa 98bb 960b b4bb
000003c0: 07ac 2cbb ee5f 54bb 881d 83bb e5ec 93bb
000003d0: 853f b2bb 2484 fbba caae 31bb e583 63bb
000003e0: 7cd9 8cbb 5133 b0bb b073 35bb 9bd6 51bb
000003f0: 2c05 67bb 963a 65bb 8c3b 51bb a859 39bb
-0.0067064413 -0.0072894488 -0.006804749 -0.0049429485 -0.0020053196 -0.00717487 -0.007630956 -0.0070335204
-0.0051725823 -0.0018152853 -0.0071455194 -0.007506729 -0.006667916 -0.0047707413 -0.001745082 -0.006500856
-0.0066618887 -0.0058536064 -0.004044847 -0.0012711659 -0.0055666803 -0.0055947304 -0.0047345115 -0.0029949467
-0.00077459496 -0.006782729 -0.00769885 -0.00764713 -0.006380783 -0.0035909542 -0.007276688 -0.00813353
-0.008024779 -0.0065610404 -0.0036161526 -0.0070282933 -0.0079566995 -0.007781166 -0.006178463 -0.0033610484
-0.0063981367 -0.006990357 -0.0066857836 -0.0052002505 -0.0028196601 -0.005306884 -0.0056199636 -0.0051284865
-0.003945707 -0.002108963 0.007872576 0.010813586 0.013651913 0.012563042 0.010157741 0.002886573
0.006515403 0.009604724 0.009546796 0.0076651364 -0.0023050697 0.0011029186 0.0049027414 0.005192211
0.004539172 -0.00639358 -0.0032049417 0.00051795994 0.0015947663 0.001267084 -0.009186288 -0.006610168
-0.0028555274 -0.0017025053 -0.001277014 0.008310904 0.010584238 0.012227191 0.011169341 0.00837213
0.0032692624 0.005881958 0.008571253 0.008014523 0.0063560954 -0.002390456 0.0004927772 0.003729403
0.004174349 0.0029412091 -0.006581385 -0.0036905054 -0.00013420054 0.0006970655 0.0006852342 -0.009861019
-0.007050932 -0.0038190486 -0.002360733 -0.0020182296 0.0029336216 0.0032726151 0.0026430131 -0.00081621384
-0.008203384 0.0018797877 0.0019151986 1.2864272e-05 -0.0047957553 -0.013631224 0.0027065026 0.0015648726
-0.0015133513 -0.0069480184 -0.015799347 0.0022408057 0.0004710529 -0.0021878218 -0.008323943 -0.016754398
0.0020312 -9.472042e-05 -0.0030136905 -0.007994623 -0.015521315 0.0015049058 0.0017705862 0.0010320758
-0.0011857722 -0.006640543 0.0014740865 0.00076108926 -0.0014140522 -0.004513091 -0.011784659 0.0019232441
0.00040030084 -0.0019530981 -0.00669799 -0.014339603 0.0020496694 -0.00025162677 -0.003373159 -0.008175989
-0.015326637 0.0017161741 -0.00052277406 -0.0035623638 -0.008283038 -0.014722504 -0.0016850888 -0.0017314947
-0.0017186039 -0.001858694 -0.0016797261 -0.0021620777 -0.0023220151 -0.0024938046 -0.0026740087 -0.0026117794
-0.002490873 -0.002816667 -0.0031123012 -0.0034076106 -0.003385325 -0.0028072933 -0.0031372486 -0.003476443
-0.0036268265 -0.0035831216 -0.0029603704 -0.003190547 -0.0034018084 -0.0034995337 -0.0034244799 -0.0034150481
-0.003849717 -0.0036869035 -0.0027967172 -0.0016359582 -0.0039626695 -0.0046335664 -0.0046599866 -0.0039995005
-0.0028738377 -0.0043001072 -0.005046771 -0.005183293 -0.004677745 -0.0036487796 -0.0042634285 -0.005068815
-0.005318309 -0.005037917 -0.004131722 -0.0040782574 -0.004802034 -0.005091077 -0.0048051313 -0.0039563994
-0.0028274094 -0.0034722642 -0.0040004607 -0.0041431403 -0.004547532 -0.0031364039 -0.0036215992 -0.00402487
-0.004260467 -0.0046321545 -0.0032002868 -0.0036954926 -0.004069273 -0.004359032 -0.0046638143 -0.0028174927
-0.00333548 -0.0036771405 -0.004175936 -0.004858913 -0.0023035787 -0.0028232925 -0.003434351 -0.003892264
-0.0047938973 -0.00275834 -0.0034906056 -0.0040774127 -0.004551063 -0.0049772547 -0.0029559787 -0.003697107
-0.0042916564 -0.0046639773 -0.005327346 -0.0029341676 -0.0036103025 -0.004106292 -0.0046685217 -0.005494545
-0.0026347653 -0.0032405811 -0.004001323 -0.004514324 -0.005439701 -0.0019189161 -0.002711224 -0.0034716066
-0.004298387 -0.005377211 -0.0027687363 -0.0032018784 -0.0035250885 -0.0034977547 -0.0031926362 -0.00282822

exp_avg_sq f4 [32, 2, 5, 5]
00000000: b341 9739 8b97 aa39 0ae5 d939 a720 223a
00000010: 612e 753a 32ce b439 b3f3 cc39 0f6a 003a
00000020: 5037 393a d9c7 883a 26d5 b839 3725 d039
00000030: 5bc7 fd39 d46b 303a 8adf 7d3a ce22 a339
00000040: 9e0b b639 119f d739 d35d 103a 3215 4a3a
00000050: 2d8c 8139 b248 9039 809c a839 90d3 da39
00000060: 3556 153a 1f76 9c39 17db b239 76d9 e039
00000070: 50f6 243a 8a94 783a 5bca b939 0d8e d139
00000080: 43cc fb39 6d08 313a 23a3 833a ab88 be39
00000090: 393b d339 8164 f239 cc9d 213a ca9e 6a3a
000000a0: c711 aa39 7684 ba39 7d6f cd39 4b3a 013a
000000b0: 5f2d 353a 0fdd 8939 0115 9839 7843 a539
000000c0: 7f9f c639 9d06 053a 9f9e 603c dd5b 083c
000000d0: a2fd 893b da60 fa3a f4fc 9a3a 34ae 683c
000000e0: d1dc 0a3c c863 883b eb01 ec3a fb08 8e3a
000000f0: 6365 473c a6d8 e33b 1b2e 533b 23cf b73a
00000100: 7439 8d3a 601d 213c 1be9 b23b f3fe 213b
00000110: cc61 983a 2dd9 8e3a deee ed3b 9b4b 813b
00000120: 1a7a ee3a a9ef 8a3a 82aa a03a 23c8 653c
00000130: 5041 0d3c 8f3b 913b c834 053b 663a a23a
00000140: 2842 6c3c e4c3 0e3c 83b9 8e3b 63e0 fb3a
00000150: e45b 963a 432b 473c fab2 e53b a1dc 573b
00000160: 54f8 bd3a 1a15 903a f019 1f3c 1268 b23b
00000170: 3758 233b 8112 9c3a 263a 913a fe12 e83b
00000180: ef91 7e3b 3963 ed3a b01d 8c3a 1f3b a23a
00000190: cfe8 363a 6b84 2b3a e1e5 283a c00d 493a
000001a0: a5c4 9c3a 1ff9 ee39 c52c e639 5ef7 073a
000001b0: 65ac 583a 6aad cf3a fd3b b239 6088 a639
000001c0: 7b6c db39 b7fb 583a 19e7 ed3a 662f 9539
000001d0: 16eb 8d39 8d6c bd39 5c72 433a fca3 de3a
000001e0: 8881 8c39 5c11 8539 122c a039 a11e 1a3a
000001f0: c40f b23a 3cfe 313a 98db 233a e5d6 113a
00000200: e66d 273a aeff 8c3a 51cf e339 f0f4 cc39
00000210: 9a12 d339 4296 2c3a df2d b83a d99e b639
00000220: 03c3 a539 fccd ba39 25c4 343a 5364 d23a
00000230: b43b 9639 aee3 8e39 2cea a839 8cd3 263a
00000240: acbc c33a 65e6 8b39 678c 8b39 ac5a 9d39
00000250: 96c0 093a 7ab7 9a3a ced1 eb39 d2cc cc39
00000260: 3df1 af39 1171 ba39 98cc f339 b8d5 033a
00000270: 4441 e939 d6d2 cc39 cf48 da39 da40 0c3a
00000280: 452c 043a c6be eb39 69a3 ce39 c600 d639
00000290: ee42 053a 90d5 fc39 ea7e e039 0c11 be39
000002a0: 13e6 b639 9867 d539 4b21 f139 3833 d339
000002b0: 4c22 ab39 7c21 9539 2fc2 9c39 c67a 143a
000002c0: 4353 003a 9b01 c339 6311 ac39 0c57 df39
000002d0: f3dc 1c3a 41ba 083a d16e d539 ae7d bf39
000002e0: d4f7 f639 5da7 113a 1b38 003a 5584 cb39
000002f0: 212f b539 a5d5 e039 6d0e 003a 78b8 e139
00000300: 6d24 b539 f49c 9b39 c7ff af39 1e8b e539
00000310: 2983 c939 06fa a239 602b 8839 0dfb 8639
00000320: 8ade 0f39 c1d0 1239 c375 1639 897e 1a39
00000330: 1595 2739 29c8 0239 1c9a 0a39 d739 1039
00000340: 7204 1239 2952 1339 3832 e538 4c23 fd38
00000350: 4beb 0639 5afb 0839 bb74 0339 e9a3 c338
00000360: 75e7 e138 c209 fb38 da17 0139 c1c7 f038
00000370: 870b b438 dc27 d438 8b3a f138 3f15 0039
00000380: 4e3f f538 3366 0739 7f45 0e39 42f6 1739
00000390: 96fb 2639 d53f 4f39 1e17 f338 56be 0339
000003a0: 8ec2 0d39 a330 1739 ecc4 3139 a51b d138
000003b0: e7ec eb38 b546 0039 3b80 0739 9588 1839
000003c0: c43c b138 5aeb cd38 f6ab e338 f9ae f038
000003d0: f15e 0539 26e5 aa38 41a9 c238 78dd d638
000003e0: a6ff e638 048b 0339 8ed1 6b38 dc62 8a38
000003f0: 4a6d a138 ffa9 d138 0ca0 2c39 eb49 6d38
0.00028849914 0.00032537835 0.00041560113 0.0006184675 0.00093529193 0.00034485903 0.00039091482 0.00048986165
0.0007065432 0.0010435536 0.00035254023 0.0003970058 0.00048404452 0.0006729935 0.0009684494 0.00031115714
0.000347224 0.0004112651 0.0005507145 0.0007708847 0.00024709236 0.00027519983 0.0003216006 0.00041737827
0.0005696745 0.00029842646 0.0003411404 0.0004288663 0.0006292807 0.0009482583 0.00035436716 0.00039969423
0.00048026638 0.00067532697 0.0010043125 0.0003634145 0.0004028918 0.00046232718 0.0006165176 0.0008950053
0.00032438172 0.00035575376 0.00039183712 0.0004929646 0.0006911363 0.00026295378 0.00029007348 0.0003152152
0.00037884337 0.0005074533 0.013709693 0.008322683 0.0042111436 0.001910235 0.0011824653 0.0142016895
0.008475498 0.0041622855 0.0018005943 0.0010836417 0.012170169 0.0069533167 0.0032223526 0.0014023524
0.0010774569 0.009833664 0.0054599172 0.0024718612 0.0011625825 0.0010898464 0.007261141 0.0039457805
0.0018194348 0.0010599989 0.0012257847 0.014024767 0.008621529 0.0044321488 0.002032565 0.0012377023
0.01442007 0.008713696 0.004355611 0.0019216653 0.0011471477 0.0121563105 0.007009861 0.0032937902
0.0014493563 0.0010992617 0.009710774 0.005444535 0.0024924406 0.001190737 0.0011079952 0.007082342
0.0038844307 0.0018111236 0.001069 0.0012377239 0.000697744 0.0006542864 0.0006442946 0.00076695904
0.001196046 0.00045580507 0.00043902374 0.0005186702 0.0008265435 0.0015844528 0.000339955 0.00031763595
0.0004185176 0.00082772545 0.0018150538 0.0002845481 0.00027068768 0.00036129766 0.00074557005 0.0016986127
0.0002679939 0.0002538067 0.00030550413 0.0005879198 0.0013585021 0.0006789898 0.00062506786 0.0005563333
0.00063869206 0.0010757351 0.00043451277 0.00039092405 0.00040258915 0.00065836695 0.0014051757 0.00034832096
0.00031616547 0.00035630155 0.0006895683 0.0016051627 0.00028654712 0.00027253985 0.0003221793 0.00063639204
0.0014933548 0.00026683803 0.00026616754 0.0003001293 0.0005254833 0.0011803948 0.0004497901 0.00039062515
0.00033558338 0.00035560926 0.00046501006 0.00050291 0.0004448985 0.00039066997 0.00041634447 0.000535024
0.0005041997 0.0004496483 0.00039413132 0.00040817837 0.00050835207 0.00048224302 0.00042819168 0.00036252325
0.00034885164 0.0004070371 0.00045991907 0.00040283217 0.00032641215 0.00028444442 0.00029899317 0.00056640466
0.00048952195 0.00037194495 0.0003281935 0.0004259873 0.0005983852 0.0005215742 0.0004070909 0.00036523998
0.00047105423 0.000555625 0.0004891173 0.00038817772 0.00034558124 0.00042883787 0.0004884962 0.00043052784
0.0003455015 0.00029680843 0.0003356917 0.00043781934 0.0003843543 0.0003108533 0.00025972258 0.0002574552
0.00013720445 0.00014001412 0.00014348984 0.00014733722 0.00015981898 0.00012472332 0.00013218116 0.00013754457
0.00013925301 0.0001404962 0.00010928925 0.00012070555 0.0001286689 0.00013063606 0.00012536619 9.328855e-05
0.00010771948 0.0001197043 0.00012311284 0.00011481299 8.585216e-05 0.00010116372 0.0001150268 0.00012214946
0.00011694302 0.00012912675 0.00013568065 0.0001449222 0.00015924717 0.00019764838 0.00011591449 0.00012564039
0.00013519285 0.00014418601 0.00016953395 9.971046e-05 0.000112498 0.00012233372 0.00012922373 0.0001454673
8.451336e-05 9.8189994e-05 0.00010856234 0.00011476683 0.00012719237 8.148914e-05 9.282167e-05 0.00010245567
0.00011014873 0.00012544921 5.622353e-05 6.598767e-05 7.697435e-05 9.997561e-05 0.0001646282 5.6574045e-05

exp_avg f4 [32]
00000000: 0a8b 243a c3e6 6b3b db85 0dbb 59bb ccba
00000010: 2dfd f33b 6540 c13b 0c05 163a e812 9abb
00000020: 0c44 08bb ee79 4dbb 1565 8d3b 312b 053c
00000030: fa81 5bba 4acb 7c3b 3238 4b3b 8e33 963a
00000040: df24 0d3a 6ada 4a3b 4eb8 353a f902 043c
00000050: 67cc fbbb 8f26 b6bb ce90 da3b b789 45bb
00000060: a4cc 893a edf5 2c3b 34ba 23bb d49d eb3b
00000070: 24da 23bb 77b6 99bb 0799 77bb 7f73 813b
0.0006276822 0.00359957 -0.0021594677 -0.0015619799 0.0074459524 0.005897569 0.0005722798 -0.004701961
-0.0020792512 -0.0031353193 0.0043150284 0.008127973 -0.0008373555 0.0038573318 0.0031008837 0.0011459456
0.00053842174 0.0030952939 0.00069320656 0.008057349 -0.007684279 -0.0055587958 0.006670094 -0.00301419
0.0010513258 0.00263917 -0.0024982812 0.0071904454 -0.0025001848 -0.004690941 -0.003778042 0.003950536

exp_avg_sq f4 [32]
00000000: 9b77 8c39 f077 083c 5e03 9b3a f942 0c39
00000010: fa4b d239 7028 8a39 4658 b939 ee63 d339
00000020: d7ae 8039 0681 c539 4f8f d239 ee45 cb3a
00000030: 1d06 4339 ac95 cf39 c104 ac39 a633 1f3a
00000040: 62b8 4f39 e054 ea39 9073 5e39 f7b9 583b
00000050: 0c12 0f3a 4744 c63b 9d15 e839 cd59 a539
00000060: aabe 7939 cfb3 d639 8218 003a 2a4a 283a
00000070: f3b0 8339 bfec 9e3b d884 023a 02de ab3a
0.00026791994 0.008329377 0.0011826565 0.0001337639 0.00040110928 0.0002635154 0.00035351719 0.0004031951
0.00024544328 0.00037670898 0.00040161095 0.0015508512 0.00018598927 0.0003959363 0.00032809938 0.0006073065
0.00019809746 0.00044695195 0.0002121462 0.0033069828 0.0005457706 0.0060506198 0.0004426659 0.0003153816
0.00023817518 0.0004095123 0.00048864644 0.0006419743 0.00025118105 0.0048499997 0.00049789017 0.0013112428
