results/2BS/T_1/L_2000/seed3/checkpoint.pth.tar (torch_old, 395619 bytes, 22 tensors)

layer1.conv.weight f4 [32, 2, 5, 5]
00000000: 5c83 a0bc 4d9e 3b3d 7a8c 293d 2d50 90bd
00000010: 14c3 58bd be2f 13bd 2bd9 bdbd 8acd b7bd
00000020: cf77 8cbb b409 58bd 52f2 353b a8a3 e63c
00000030: bcd9 11bd 5f0b 39b9 a64d 1cbd c622 86bc
00000040: d93b d9bd dced 33bd aa59 423d 80fe ffbc
00000050: 2125 f63c e080 a6bd 5106 03bd 8784 49bd
00000060: b40e 37ba f948 413d 6c12 8b3d 7755 433a
00000070: 77e0 3e3d 811e 02bd 9c69 98bd c62e aabb
00000080: d9fc 173c 7c09 9939 398b 0abb 60f7 6cbd
00000090: 30b4 953c b6d2 633d fa7a 92bc bcc0 4a3d
000000a0: 8c7f 32bd a898 88bb 9c1b d5bc db46 0b3c
000000b0: a21e c53c 5a07 c1bd cb62 c8bd 7f3c dd3c
000000c0: 6872 ae3d 718d 9a3b d5cf a63d c628 cc3b
000000d0: b5af 973d 7ed3 ecbc 3330 6d3d 9be3 30bd
000000e0: 936f 073d 58cf cfbc fd24 4f3d 47c8 60bb
000000f0: e3e1 7ebd 45e9 8e3d 98c6 9fbd 984a 45bd
00000100: 600f d93b 7270 8dbd d738 0e3d 40cf 52bd
00000110: b21c 543c 2dba f03b f1cb 203c d0af 5b3c
00000120: 5a23 5cbd 5ab4 8abd f6f5 a6bd 4b81 113c
00000130: 0106 05be 449f 70bd c6af 753c 585f 953d
00000140: c21d 9cbd 890c 01bd 3853 8ebd e86b 943d
00000150: 656c 823c e462 093e 05f3 4a3c d7f0 2cbc
00000160: da4b 683c db94 d33c 7968 e13d b9be 633c
00000170: 3eae 2f3d d4af 8fbc 32e1 8dbd 3b84 053e
00000180: 9ddd ae3d c0ae 1d3d ab25 f93d ffec 6a3d
00000190: 1a4c 583d 3e57 943c 75d0 683c 39d9 993c
000001a0: 4228 d73c eec9 07bd 6b4b 9f3d 41a7 7cbc
000001b0: cc36 a83d caff 3a3d 7869 723d b4ae a03d
000001c0: b1f3 bf3c 0a75 8a3d 8c46 a93d b88a 76bd
000001d0: b237 893d 1dae cc3d 2265 093e a1bd 6f3d
000001e0: ea33 ae3b 43cb 29bd 28c9 bebc 7e60 663d
000001f0: c8c8 a7bc 59f3 68bd 3220 9d3d 3e98 34bd
00000200: 8884 7e3c af72 113c 318b 71bc f91e 113b
00000210: 04b9 01be 3c7c c1bd 6b08 43bb 7f5b 48bc
00000220: 8fd7 dc3c 2e48 1bbd 7df9 80bc 5ca0 52bd
00000230: 2804 dfbc c9d5 6a3c 3972 483d b807 3fbd
00000240: b5ac a2bc e40e 413c 665e b4bd 6068 52bd
00000250: e89b 1abe abc3 b8bc e5f4 0bbd 5efd 0d3d
00000260: 72a9 d43c 0714 e5bd 989a 853b b990 62bc
00000270: af23 36bc 88e4 95bc fca3 133d 39f0 0b3d
00000280: 0198 8dbd 5408 9ebd ce87 16bd 1ccd ddbc
00000290: d54d fe3c 9cf0 cebc f04f f4bc 5da1 65bc
000002a0: c74a b8bd 275a 24bd 78e2 ac3c 426a 1dbd
000002b0: eaf7 963b 209b af3c 2360 303d a0f1 86bd
000002c0: 2f62 d3bd 4ac2 c73c a1b7 b2bd 947c 853d
000002d0: 15ee 6a3c d2a7 78bd 672e 35bd 547c 963d
000002e0: 0f78 e33c a2e0 3d3d 32bd 8cba ac10 6abd
000002f0: 28e3 063d 74ba 193c a951 4c3b cad3 633d
00000300: c32d e4bc 1f82 a93d 3638 823d 3442 6fbd
00000310: 27cb fcbc 564b e33c 31e7 da3c 954c bf3c
00000320: 952a 1f3d 5014 44bd 21c7 f13c f32d 68bd
00000330: 869d 83ba 850a 05bd c965 0c3d fe06 33bc
00000340: fc85 de3c 3ffb 99bc b49c 813d 056c b23c
00000350: 38b9 423c ebd8 85bc 47e9 163c d97d 27bd
00000360: 1aae 28bd faae 1f3d df7e 5fbb 14a1 01bd
00000370: 51f0 993b d6cb cfbc 210d 053d 3726 1abd
00000380: a188 a6bd 7475 cdbc 85b9 893d f966 093d
00000390: 60fe 183d f739 dd3d ce19 e63c e488 81bd
000003a0: fc5d 2b3d 3c5d 2fbc 9aca aa3c df94 15bc
000003b0: 5824 debc 9101 a9bc 7a32 b13d 76f2 75bd
000003c0: 6be1 fbbc 4945 6fbc 6807 febc 9784 2b3d
000003d0: 6dd3 adbd 9c75 be3c 22a2 9ebc b155 c93c
000003e0: d85a 21bd 740c bd3d a48d 01bc 36f8 db3d
000003f0: 50ae 433d 6558 123d 5c38 313d 0102 a23c
-0.019593887 0.045805264 0.041393735 -0.07046542 -0.052920416 -0.035934202 -0.09269937 -0.0897475
-0.0042867432 -0.05274363 0.0027762842 0.02815421 -0.03560804 -0.00017647211 -0.03815999 -0.016374003
-0.10607118 -0.043928012 0.04744879 -0.031249285 0.030047001 -0.0813005 -0.031988446 -0.049198654
-0.0006983087 0.047188733 0.06790623 0.0007451395 0.046600785 -0.031767372 -0.074420184 -0.005193564
0.009276592 0.000291895 -0.0021140112 -0.057853103 0.018274397 0.05562087 -0.017880905 0.049500212
-0.04357867 -0.0041685887 -0.026014142 0.00850078 0.024062458 -0.0942523 -0.09784468 0.027006386
0.08517915 0.004716568 0.081451096 0.0062304465 0.0740656 -0.028909441 0.057907294 -0.04318581
0.03306539 -0.025367424 0.050572384 -0.0034299062 -0.06222714 0.069780864 -0.078015506 -0.04816684
0.0066241473 -0.06906213 0.034722175 -0.05146718 0.012946295 0.0073464126 0.009814248 0.013408616
-0.05374465 -0.067726806 -0.08152382 0.0088809235 -0.12990572 -0.058745638 0.014995521 0.07293576
-0.07622863 -0.031506095 -0.069494665 0.07247144 0.015920827 0.1341663 0.012387042 -0.010555468
0.014178241 0.025827816 0.11006255 0.013900452 0.04289078 -0.017539896 -0.06927718 0.13038723
0.08538363 0.038496733 0.12165388 0.057354923 0.05280695 0.018108007 0.014209856 0.018780338
0.026264314 -0.03315156 0.07778057 -0.015420736 0.08213577 0.045654096 0.059182614 0.07845822
0.02343163 0.06760605 0.08265409 -0.060190886 0.06700076 0.09994147 0.13417485 0.058530454
0.005316247 -0.04145361 -0.023289278 0.056244366 -0.020481482 -0.0568727 0.076721564 -0.044090502
0.015534528 0.00887744 -0.0147426585 0.0022143705 -0.12668234 -0.09447524 -0.0029759656 -0.012228846
0.026958255 -0.037910633 -0.015743965 -0.051422462 -0.027223662 0.014333197 0.048937056 -0.04663822
-0.019857744 0.011783335 -0.088070676 -0.05136907 -0.15098536 -0.02255424 -0.034169096 0.034665458
0.025959704 -0.111854605 0.004077267 -0.01382845 -0.011116906 -0.018297449 0.03604506 0.03416464
-0.06913758 -0.07716432 -0.036750607 -0.027075343 0.031042973 -0.025261216 -0.029823273 -0.014015523
-0.08998638 -0.04012504 0.021104082 -0.038431413 0.0046071904 0.021436274 0.043060433 -0.06589055
-0.103214614 0.024384636 -0.08726431 0.06517902 0.01433899 -0.06070692 -0.044233706 0.073479325
0.02776721 0.046356805 -0.0010737537 -0.057144806 0.032931477 0.009382833 0.0031176603 0.0556219
-0.027853852 0.08276772 0.06358378 -0.058412746 -0.03085859 0.027745884 0.026721569 0.023351947
0.03885897 -0.047870934 0.029513897 -0.056684446 -0.0010041452 -0.032480735 0.034276757 -0.01092696
0.027163498 -0.018796561 0.06328717 0.021780023 0.01188498 -0.016338786 0.009210891 -0.040891502
-0.04118166 0.03898523 -0.003410272 -0.031647757 0.0046978374 -0.025365751 0.032483224 -0.0376341
-0.08131529 -0.02508042 0.06724838 0.033545468 0.037351966 0.108020715 0.028088477 -0.06324938
0.041837677 -0.010703381 0.020848561 -0.009129732 -0.02711694 -0.02063063 0.08652206 -0.060045682
-0.030747136 -0.014603921 -0.031009391 0.041874494 -0.08487592 0.02324944 -0.01936442 0.024576994
-0.039393276 0.09230891 -0.007907305 0.10740702 0.04777366 0.03572883 0.04326664 0.019776346

layer1.conv.bias f4 [32]
00000000: c2ba 133e eb63 4dbc 06ce f73d 1fdb 4f3c
00000010: e533 76bd b20e 243e f9f5 1ebe 817e bdbc
00000020: 872a febd 9dbc 17be 2d44 14bd c7b1 99bd
00000030: d0ae c93d d4d1 d4bd 70ef f8bd a3bb 663c
00000040: db7d d53d 7903 8f3c 8700 57bc f539 0dbe
00000050: aff4 a4bd 5aa5 a43d 2afd 8abd d09c d33d
00000060: 5849 d7bd 282c 993d 35d3 95b8 2848 30bd
00000070: 6761 8c3d dd78 3dbd bf28 8d3d 9cac f2bc
0.14426711 -0.012536029 0.12099843 0.01268652 -0.060108084 0.16021231 -0.15523519 -0.02313161
-0.12410455 -0.14818044 -0.03619783 -0.075046115 0.09847796 -0.10391584 -0.12155044 0.014082822
0.10424396 0.01745771 -0.013122684 -0.1379164 -0.08054482 0.08039351 -0.067865685 0.10332644
-0.10512036 0.07479125 -7.144214e-05 -0.043037564 0.068545155 -0.046257842 0.06892537 -0.029623322

layer2.conv1.weight f4 [32, 32, 3, 3]
00000000: e458 c1bd 0799 f03b 9fc2 8b3c f683 33bd
00000010: c90b 77bd 6ecc 13bd 48e9 4f3d 4410 f83c
00000020: 35e9 0ebd 9fef e03d 537a 4bbd 1bb3 733c
00000030: 12a9 97bc 50f1 05bc 46dc 413c d08e f63b
00000040: d9b6 0e3c bfd8 4bbd 6d6d 86bc e2b5 a4bc
00000050: 6ad0 fc3c fbdb 753a e8a1 7d3d ec20 933d
00000060: 73b4 16bd 8794 e9bb d851 283d a1da 12bc
00000070: 1d71 d9bc 363f 723d d108 82bc 5eb1 68bc
00000080: 1032 643c cdeb fc3b c410 0fbd 7e7b 273c
00000090: ff75 04bd 00c3 7ebc af96 1bbd 545a b8bc
000000a0: 4e95 81bc 359d 723d 6dbf c0b8 122b 50ba
000000b0: 9154 c13b ff22 d4bd d659 39bc 898b 513d
000000c0: 0ae2 bebc 5916 1a3d 2e26 7339 4854 0e3d
000000d0: 5f38 4c3c 3524 56bd 18c6 dfbc 8d7e f13b
000000e0: caf1 083d cf15 eabc 7299 abbc d907 cabd
000000f0: c4b2 3c3c 8e8e 1fb9 34e9 e13a 9126 b83c
00000100: d4f2 e43b ed3f fd3d cb91 4c3d 24e9 a9bd
00000110: 5702 243e 1eaf 763d 7906 a03b 83b4 37be
00000120: f14d e7bb 23f2 b0bc afeb 8139 9ae8 94bc
00000130: 321c a9bb a5e4 5f3d 8c19 9e3b 1e0d b2bb
00000140: aa6b 71bd 7b91 3dbc 4030 92bb e532 bcbc
00000150: 0957 fcbc 87be a53a 501e b13c cfbb fd3b
00000160: f84c 2f3c 3ab6 333c 8739 a8bd 7f01 18be
00000170: d38e 59bd 2783 853b 434b bcbd ada7 acbd
00000180: 1f3d d5bd afe6 253c ea79 32ba 3a8f 4bbc
00000190: fc93 2abd 02c1 293d 5446 fabd 3fa8 d83c
000001a0: 7a98 cebc 3c51 663d ac53 c93d 57f6 8d3d
000001b0: 9480 c7bd be0d 403c 8080 95bd f6e9 c73b
000001c0: e36d 1a3d 61a8 743b 5fdc 893d 2190 2cbc
000001d0: 9963 863c a694 57bc 8adb 38bd 7dd2 ec3d
000001e0: 0773 57bc bd98 ab3c 8ff0 343d 8f9f 143d
000001f0: 43dc a5ba 71df a8bd 5598 37bd f8d6 553b
00000200: 53df 17b8 b27f 2ebd 8946 213c 51d8 02bc
00000210: 60af f1bb c03c 263c 9492 903c 2300 84bd
00000220: 86f5 54bd 82d7 953d 1af1 c8bd 07af 3f3b
00000230: 81fa 3b3d 2ad4 183c 3b8f 9e3b 7ae5 55bd
00000240: 44d2 19bb 38fc c3bc 1755 783d b0b0 e4bc
00000250: 5327 b2bd f909 4aba 57e8 91bb 729a d8bd
00000260: a31f 003d 208d aabd b654 92bd 5379 b0bd
00000270: be5b eaba 9e60 a5bc c2a2 61bd 31e5 de3c
00000280: aa43 853c 377f e5bd f172 883c f05a e03c
00000290: 9f10 23bd ef6d f93c d6ad 27bb 21ae 0ebc
000002a0: 47c3 31bc 46e2 ca3b 4732 4b3c ec44 02bb
000002b0: 0e77 aebb cc2f 303d b16a 8ebb b7b4 93ba
000002c0: 174c 3ebd adf7 ca3b 2407 583b 5b85 c23b
000002d0: 48fe eebd e7ec c9bd a557 0b3e b798 b3bd
000002e0: a8ab 49bc 52f6 c63d 6760 003c 3d8b e53b
000002f0: d332 bebd f54a 8cbd 5908 adbc 200a b43c
00000300: 7ecb a5bc c7d8 59bc bcbe 003d 5533 cdbc
00000310: 8630 703c 5305 f6bb 5eaa 3ebb 97dd a8b9
00000320: bdb8 ce39 9ece 52ba bd29 43b9 b1c6 e035
00000330: 21ec f3bb 5d6d 4139 82b2 0bb8 3e62 12be
00000340: d89e fabd 5d08 073e b4a6 dc3b 09c5 0dbb
00000350: 99bb 923c 2496 283c 2441 b43b b0e8 903c
00000360: 62a1 db3d f644 91bd 89b9 b0bb 9588 543b
00000370: b7dd 8abd 71e6 a8bb 7456 bebb 8c49 ae3b
00000380: cef5 85b9 8902 423d 7a2e 74bd 99a8 713a
00000390: de6b fc3c e3b3 c83c b8ea 51bd 97ac 0a3d
000003a0: 3fc6 99ba f71e f3bb 8550 133c 624c 413d
000003b0: efab 643d a67f 05bc a1a0 efbc 6e75 93bc
000003c0: 468b 9e3b 362d d93a ea19 46bc 4654 72bb
000003d0: 043b 583b d13c 9e3a a620 3d3d 071c 8a3b
000003e0: 0e1c b8bb ec06 19bd e7db 0d3c b326 d03a
000003f0: 762c 83bd 61e6 ab3c 5fa5 4f3c 1af9 64bd
-0.09440783 0.007342461 0.017060576 -0.04382702 -0.060313974 -0.03608363 0.050759584 0.030281194
-0.034890372 0.10983204 -0.049677204 0.014874245 -0.018513236 -0.008175209 0.011832302 0.007524349
0.0087105865 -0.049767252 -0.0164096 -0.02010626 0.030861098 0.0009378788 0.061921984 0.07184014
-0.036793184 -0.0071283015 0.041093677 -0.008963258 -0.026543194 0.059142314 -0.015873345 -0.014202444
0.013927951 0.0077185393 -0.0349281 0.010222314 -0.032339092 -0.015549421 -0.0379855 -0.02250401
-0.015818264 0.059231956 -9.190929e-05 -0.0007940988 0.0058999737 -0.103582375 -0.011312922 0.05115846
-0.023301143 0.03761897 0.00023188509 0.034748346 0.012464612 -0.052280623 -0.027316138 0.0073698224
0.033433713 -0.028574852 -0.020947192 -0.09864778 0.01151723 -0.00015216527 0.0017235638 0.022479327
0.006986955 0.123657085 0.049943727 -0.08296421 0.16016518 0.0602256 0.004883584 -0.17939954
-0.007058852 -0.021599835 0.00024780395 -0.01817732 -0.005160832 0.05466141 0.004824823 -0.0054336926
-0.058940567 -0.01157033 -0.0044613183 -0.022973487 -0.03080322 0.0012645283 0.0216209 0.007743336
0.010699503 0.010968739 -0.082140975 -0.1484432 -0.053114723 0.0040744725 -0.091940425 -0.08430419
-0.104120485 0.0101258 -0.0006808328 -0.012424285 -0.041645035 0.041443832 -0.12220445 0.026447413
-0.02521919 0.056229815 0.09830412 0.06931751 -0.09741321 0.011722026 -0.072999 0.0061008884
0.037702452 0.0037331807 0.067314856 -0.01053241 0.016404914 -0.013157999 -0.045131244 0.11563585
-0.013149983 0.020946855 0.044174727 0.03628498 -0.0012654144 -0.08245743 -0.04482301 0.0032629352
-3.6209192e-05 -0.04260225 0.009843477 -0.007986144 -0.0073756427 0.01014632 0.017648019 -0.064453386
-0.051991962 0.073164955 -0.098116115 0.0029248612 0.045893196 0.009327928 0.0048388517 -0.0522208
-0.0023471275 -0.023923978 0.060628023 -0.027916282 -0.08698907 -0.00077071745 -0.004452746 -0.10576333
0.03128017 -0.08327699 -0.071450636 -0.08616891 -0.0017880125 -0.020187672 -0.05508686 0.027208896
0.016267616 -0.11205905 0.01665637 0.027387112 -0.039810773 0.030447928 -0.0025585792 -0.008708508
-0.01084978 0.0061915247 0.012402124 -0.0019877506 -0.005324251 0.043014333 -0.0043462147 -0.0011269067
-0.046459284 0.006194076 0.003296324 0.0059363074 -0.11669594 -0.09859639 0.13607652 -0.087693624
-0.012308992 0.097149506 0.007835484 0.007005124 -0.09287038 -0.068502344 -0.021122145 0.021977484
-0.020238634 -0.013296313 0.0314319 -0.025048891 0.014660006 -0.007507959 -0.0029093246 -0.00032208554
0.00039429023 -0.00080416526 -0.00018612198 1.6747127e-06 -0.0074439202 0.00018446655 -3.330643e-05 -0.14295289
-0.12237328 0.13186784 0.0067337397 -0.0021632335 0.01791172 0.010289703 0.0055009294 0.017689079
0.10724141 -0.070932314 -0.0053932113 0.0032430042 -0.0678057 -0.005154424 -0.005808646 0.005318826
-0.00025550876 0.0473657 -0.059614636 0.00092185434 0.030813154 0.02449984 -0.051249236 0.033856
-0.0011732056 -0.007419463 0.008991365 0.047191985 0.05582803 -0.00814811 -0.029251399 -0.01800033
0.00483838 0.001656926 -0.012091139 -0.00369765 0.003299416 0.0012072568 0.046173714 0.004214767
-0.0056185788 -0.037360117 0.008658386 0.0015880674 -0.064049646 0.020983877 0.012673705 -0.055901624

layer2.conv1.bias f4 [32]
00000000: 1027 5fbc 23fc 0b3d b627 07bd b3e9 283d
00000010: e570 163d 89d6 503c 15c0 09bc c753 943c
00000020: 876d 6ebd b333 cc3c 1071 6c3b 9fd2 59bc
00000030: 03c5 113d 1091 62bd 79ac 343d 99b8 42bd
00000040: 2f57 843d 17aa f9bc 9930 143d 89fc b53c
00000050: 1afc 22bd 7820 053c 161e 303c 0312 d13c
00000060: 7086 78bc 5dde d7bb affc 12bc 19f1 aa3c
00000070: d5db fb3c 9568 163d bb5e 813c 010f eb3c
-0.013620153 0.034176003 -0.032996856 0.041238498 0.03672876 0.012746462 -0.008407612 0.018106354
-0.058209922 0.024926996 0.0036078133 -0.013294845 0.035588276 -0.055314124 0.044109795 -0.047539327
0.064619415 -0.030476613 0.03617916 0.022215145 -0.039791204 0.008125417 0.010749361 0.025521284
-0.015168771 -0.006587787 -0.008971377 0.020866917 0.030744473 0.03672083 0.015792241 0.028693678

layer2.conv2.weight f4 [64, 32, 3, 3]
00000000: 5ae0 af3b b085 0bbd d8a0 abbc 0956 5abd
00000010: 8927 ca3b 2a88 443d bc4f fd3c 4d88 b83d
00000020: ac2a efbc a6aa 83b9 d208 c63c c4d7 f1bc
00000030: 1cef 6a3c fb21 e7bc 519c 813c 9b59 253d
00000040: f6aa d33b e336 41bb f938 d7bd 8b7a 3bbb
00000050: 3d24 3b3d bc15 e63c 1c95 2ebc 6a2b 0a3b
00000060: d70b 48bc 31c4 3e3d 7d78 513d 3e36 94bc
00000070: 36ce 833d e976 cfbb 3ce3 123d 9612 8bbd
00000080: d83f 02bb cdec 9bbc 3837 8c3d a8e2 ae3d
00000090: 4844 7f3c 2dc7 3a3d 5bbc ec3c 08fb ab3c
000000a0: 7ea1 c43c 677e 00bc 4b61 ddbc 15f4 8b3c
000000b0: 9bea c0bc 7ae4 bb3c af2d eb3c c868 cf3c
000000c0: 76f3 c83b c97d f33b 89f1 a53c c1ec 113c
000000d0: d920 84bc 8f88 103d 4912 12ba 507e b6bc
000000e0: a42d 8e3c 000a 0cb9 a977 6cbc 37c0 063d
000000f0: ac4b ab3b 4a94 98bc e344 8dbc 52cd 19bd
00000100: b91f d93c 98a4 8b3c 7db6 b23b 6d69 bd3c
00000110: 2a5a 4e3c 1d66 153a cb96 b93c 2386 a9bc
00000120: 434e b7bd 4655 65bc da9b 873b 5767 b7bc
00000130: 2ad7 09bd 4623 02bd 1ffd 073d 77b6 b93c
00000140: f84f 053d 0ecf 483b 33ae 97bd d4a3 af3c
00000150: ecb5 323d 76cc 863a 87f4 0ebd e40e 6b3c
00000160: 34d1 67bc 13c7 2fbd d8f6 f6bc f26b 2bbd
00000170: 6048 10bd b2b1 973c d965 ed3b f95e 5a3d
00000180: 8f80 8ebb f991 a33d 8aeb 393d 9d19 c43a
00000190: a22c a33a f692 37bc b4e0 56bc dfcf 923c
000001a0: ba43 5e3b 6588 01bc 1063 cdbc f27e b13b
000001b0: 7b8d 81bc 5856 e9bc 1a36 7f3d 2b63 f03b
000001c0: b693 92bd 1e11 ee3b af55 043c cb71 18bd
000001d0: bff8 1dbd 60bf 1e3c 5046 44bd 466b 483d
000001e0: b307 e03b 2bc5 2b3d 0561 1b3d 48b8 323c
000001f0: 681b b4bc 32e0 cebc 2733 a8bb 18e8 3bbc
00000200: cc41 3fbd 134d 08bd 3ee5 81bc 00e4 08bc
00000210: e452 b43c 5550 953c 6c86 81bc 6b08 6fbc
00000220: aa7a 14bb 121c 173c 4f96 193b d21d 893b
00000230: 9667 393b 31fa 2d3c ad90 1a3c 4404 8dbb
00000240: 816c e9bc 0caf be3c f16a 2bbd e1ca 52b8
00000250: e93c 1b3b ea8a 763c 49c1 3c3b 911f 923d
00000260: b2ae 453d 694a 35bd d756 bc3c f900 39bc
00000270: 3424 3bbc 6f86 283d 6c4f 48bd 2033 ff3c
00000280: 0ee1 02bd 0904 c3bc f84d dc3c 5795 7fbc
00000290: 5c46 813c e8f5 353b 433a 8c3d d5c1 3ab9
000002a0: c66f 7b3c fdda 8bbc 973b c6bc 7faf de3c
000002b0: 1cb0 dd3a 2897 e03b a1dc 2a3d 1f02 c83c
000002c0: 2811 9c3d 8437 4abd f405 a5bd bd1e af3c
000002d0: cb4a 9e3b 765a b53c f261 a43b 13f8 c13c
000002e0: e421 e93c 665d 31bd ffe7 12bd 59eb 44bc
000002f0: 31aa e7bc 59d0 98bc ef3e 87bc 0eb3 86bb
00000300: 6fbe 99bb f0d8 0fbc e84c a63c a8e6 8d3c
00000310: b5d9 503c 3704 fbbc 16ac b93a cfdf 43bc
00000320: de25 433c ad6a cb3c 4ea6 03bc 9711 0a3c
00000330: e15a 2f3c 6ebb 13bc 499f 6b3c 6f37 a33b
00000340: 29f7 4abc c219 743a 3e51 3e3c 6775 5c3b
00000350: 69e4 1fbd 1436 46bc 546b 6dbd 1e9f 9fbc
00000360: a901 213b 3263 f93c 5cc4 c63c 42d9 d53c
00000370: 58b7 2fbb 83ae 623b 1948 b93c 3691 0b3d
00000380: 2889 81bc 1cf8 50bc d411 b3bc c8b8 b6bc
00000390: 942e 98bb d7f0 da3c bd28 223c d9c5 043c
000003a0: d860 d93c b94d 1abd 51d9 413b f084 fb3b
000003b0: 318a 533d 7636 f4bc 3b1a af3c 29dc aa3c
000003c0: f322 4a3c 993f 53bd 4bae cb3c 6750 edbc
000003d0: 05dd bd3c bb36 2a3d 166d 223b bf10 ccbc
000003e0: dc83 2ebc 8d0a bf3b 45f0 083d 87e0 3e3d
000003f0: 8a8d f23a 69e3 803c 8934 25bc 12e0 d1ba
0.005367321 -0.03406304 -0.02095072 -0.053304706 0.0061692637 0.04798142 0.03092181 0.09010372
-0.029195152 -0.0002511341 0.024174128 -0.02952183 0.014339235 -0.028214445 0.015821608 0.040368658
0.006459589 -0.0029482178 -0.105089135 -0.0028606977 0.045688856 0.028086536 -0.010655668 0.0021083006
-0.012209854 0.04657382 0.051140297 -0.018092271 0.06435816 -0.006331314 0.03586124 -0.06790654
-0.001987448 -0.019033814 0.0684647 0.08539325 0.015580244 0.045600105 0.028898409 0.020993724
0.024002787 -0.007842637 -0.027023932 0.01708416 -0.023549369 0.022936095 0.028708307 0.025318518
0.0061325384 0.0074307662 0.020256775 0.008906544 -0.016128944 0.035286482 -0.00055721827 -0.022277027
0.017355748 -0.00013355166 -0.014432826 0.032898154 0.0052275266 -0.018625397 -0.017244762 -0.037549324
0.026504384 0.017046258 0.005453883 0.02312156 0.012594739 0.0005699115 0.022654912 -0.020693844
-0.08950474 -0.013997382 0.004138452 -0.022388143 -0.033652462 -0.03177192 0.03320038 0.022670014
0.032546967 0.0030640992 -0.07406273 0.021440424 0.043630525 0.0010284323 -0.03490117 0.014346812
-0.014148999 -0.04291446 -0.030147001 -0.04185099 -0.035225272 0.018517349 0.007244807 0.05331323
-0.0043488215 0.079868264 0.045390643 0.0014961247 0.0012449215 -0.011204472 -0.013115097 0.017921386
0.003391488 -0.007906054 -0.02507165 0.0054167444 -0.015814533 -0.028483555 0.062307455 0.0073360405
-0.0715708 0.007265224 0.008077069 -0.037217896 -0.0385673 0.009689182 -0.047918618 0.04893043
0.0068368553 0.04193608 0.037934322 0.010908194 -0.021985725 -0.025253389 -0.005133051 -0.01146891
-0.04669361 -0.03327663 -0.015856382 -0.008355141 0.022012182 0.018226782 -0.015811168 -0.014589409
-0.0022656121 0.009223001 0.0023435538 0.004184463 0.0028290502 0.010618732 0.009433907 -0.004303487
-0.028494122 0.023276828 -0.041850034 -5.0256847e-05 0.0023687428 0.015047768 0.002880173 0.07134927
0.048262306 -0.044260416 0.022990627 -0.011291736 -0.011422206 0.04114383 -0.048903868 0.031152308
-0.03195291 -0.023805635 0.026892647 -0.01559957 0.01578062 0.002776498 0.0684705 -0.0001781055
0.015346473 -0.017072195 -0.024198337 0.027183292 0.0016913447 0.0068539567 0.041714314 0.024415074
0.0762046 -0.04936935 -0.08057776 0.021376962 0.0048306934 0.022137862 0.005016559 0.023677861
0.028458543 -0.043301962 -0.03586578 -0.012019002 -0.028279396 -0.018654035 -0.016509501 -0.0041107005
-0.004691891 -0.008779749 0.020300344 0.0173219 0.012747218 -0.030641658 0.0014165665 -0.011955216
0.011910884 0.02483114 -0.008035256 0.008427045 0.01070282 -0.009016855 0.014381238 0.0049809734
-0.012388029 0.00093116995 0.011616049 0.0033639313 -0.03903619 -0.012097854 -0.057963684 -0.019485053
0.002456764 0.030442808 0.024263553 0.026104573 -0.0026812162 0.003458888 0.022617387 0.03407403
-0.015812472 -0.012754466 -0.021859087 -0.022304907 -0.0046442244 0.02672617 0.009897408 0.008103811
0.026535437 -0.03767178 0.0029578994 0.0076757595 0.05164546 -0.029811125 0.021374812 0.020856934
0.012337434 -0.051574323 0.024863383 -0.028969003 0.02317668 0.0415561 0.0024784259 -0.024910329
-0.010651555 0.005830115 0.033432264 0.046600845 0.0018505317 0.015733438 -0.010083326 -0.0016012213

layer2.conv2.bias f4 [64]
00000000: dbdc 00bc 1c11 41bd 4c30 043d c434 80bd
00000010: a93c ab3c 9eb2 bb3c 3dce 0fba ace2 bbbc
00000020: 574d f33b bced 003d 84d6 a6bc 6674 1dbc
00000030: 5b01 d63b 7cc1 e23c dae8 f3b9 ba30 733c
00000040: 3655 1f3d 72d1 d7bc 9903 d9bc 1142 243b
00000050: 16d9 e5bc 72b4 30bd 6754 52bc 2f65 023d
00000060: 7b9e a6bc f6f1 b6bc d72d f43c eaf2 4b3b
00000070: 8266 e33c 9e87 4bbc bf98 403b 9ed3 c03c
00000080: f770 433c 0c56 263d 3f70 2c3d 373a 233d
00000090: 2264 4cbd b3a9 263d 7d24 83bc 7193 afbb
000000a0: e664 99bc 96ad f4bc 1110 0bbb bf83 17bd
000000b0: fe17 20bd c9bc bebc a0c6 023c 844e 89bc
000000c0: 2514 ce3c e557 473c dd46 a1bc 0e65 88bc
000000d0: efcb 7e3c 1463 15bc aa8e 6bbc b0d0 5c3c
000000e0: 6620 6abb 7818 143d bbd6 c63c ce9b 71bc
000000f0: 6e31 6a3c 8b63 223d 3406 08bd 6631 123c
-0.007865156 -0.047135457 0.032272622 -0.06260064 0.020902948 0.02291232 -0.0005485749 -0.022935234
0.007424991 0.03147672 -0.02036596 -0.009610271 0.0065309233 0.027680151 -0.0004652206 0.01484316
0.038899623 -0.026344988 -0.026490973 0.0025063793 -0.028057616 -0.043140836 -0.012837506 0.031834777
-0.020339241 -0.022332173 0.029807014 0.003112013 0.02775884 -0.01242247 0.0029387919 0.023538407
0.011928788 0.040609404 0.042099234 0.03985044 -0.04990018 0.04068918 -0.01600861 -0.0053581526
-0.01872487 -0.029867928 -0.0021219293 -0.036990877 -0.03908538 -0.02328338 0.007981926 -0.016761072
0.02515609 0.012166952 -0.01968711 -0.01664975 0.015551551 -0.00911786 -0.0143772755 0.013477489
-0.0035724877 0.036156148 0.024272313 -0.014746619 0.0142940115 0.039645713 -0.03320904 0.00892291

fc1.weight f4 [1, 3200]
00000000: 6172 db3a da71 6bbc 00a7 8b3c 5289 cfbc
00000010: 955a 5c3c 9837 a23d 58ff 80ba 8ece 7fbc
00000020: 62f6 0d3d 7a1d ba3c 7afd 06bd c62a f63b
00000030: 2764 e3bc 7697 cd3b 3f19 213d 2535 153d
00000040: 85ab 6e3c 4b61 c93c 92f4 b6bc adf4 e0bc
00000050: f138 abbb ffa2 1c3a d3f1 04bd ba14 8f3d
00000060: 13bb ecbd 709a 9bbd b51f f5bc eeb0 adbc
00000070: dbe7 093c acd6 613c ae69 6c3b a426 96bc
00000080: f730 433b 3842 09bd 56b2 3cbd 9e87 f43d
00000090: 496d 6cbc 2f9f bd3c e47f 45bc bd76 ddbb
000000a0: 9432 25bb c763 383c ac77 cf3c e4b9 b33c
000000b0: d416 183d 74d6 5e3c 85cd b43c cf87 933c
000000c0: 860e a23c 161a 1bba b4a8 9e3c b9bb bd3c
000000d0: 1568 9f3c 0763 d43a 1d3a 2dbd 2457 babc
000000e0: 847b d43c 3805 09bd b0eb f5bc a1f3 83bc
000000f0: 1ca5 18bb 1ec6 16bc 6928 ce3c 6240 883c
00000100: e13a 973e b42f d2bc c955 e03c f0f5 3bbc
00000110: fb8d b5bc f4ae 18be 12d7 883c 84b1 613b
00000120: 75b2 243b 0ac6 143b f2c6 763e 58ee f13d
00000130: 403d 4d3d 5fda 293c fa7e 8c3b 7a7a 0200
00000140: a623 8fbc b7ab b53c 48e1 423c e3a4 93bc
00000150: 11aa 9bbd 8f1f cabd 93c8 59bd 4007 bcba
00000160: a101 3fbc 4f26 0100 da61 6fbc 0c7f 43bc
00000170: d5b7 32bc 26cc e3bc 037e 1fbd 33df 28bd
00000180: 21cd aa3c 8a2c d23c 6d4f 383d 25dd 37ba
00000190: e7da a03c 4c6e 313b 36db b5ba 4f7e 0100
000001a0: dbda c63d 30d8 fbbd fddd 9cbd 3293 2b3b
000001b0: 0906 16b2 262d cfbc 1165 d33c e28e d0bb
000001c0: 4b48 153c fec8 643b fe2f a03e a5ef 8dbc
000001d0: d6d1 053c 0171 463c 8b46 563c b662 9dbc
000001e0: 22f4 90bc 9ace 5fbc 4363 263c 013b 4e3c
000001f0: e73e c4bd 3a2c 093e e06e b43d 9461 113c
00000200: 4fc3 fb3b 7be0 ca3c dbcf aebb 860c 51bc
00000210: 8a62 e63b 8557 cb3b fa12 273d dcdf 4a3d
00000220: a364 a8bd e1c9 0c3c 03d1 6b3c 83ba 883b
00000230: 5315 3cbd 2e53 97ba 7f24 f73c 4d48 23bd
00000240: 2d74 413d 8e29 a1bc a41a a0bd 12b8 243c
00000250: a0d0 19bd b2fc 1fbc 2173 04bd 84ff 13bb
00000260: 56c2 0280 71da 98bc 9401 563c e019 813d
00000270: af6d 93bd e71c 0280 da8a 8c3b d6d0 9a3c
00000280: 2b4a 2ebd e73a 013d b871 0cbb 6a66 143b
00000290: 2b8e 89bd d599 9d3d c289 9a3c 4d02 f4ba
000002a0: b069 c8b9 d851 01ba 4417 52bd 4b03 81bc
000002b0: cc37 0b3b f4f3 23bc 659e 08bd 1356 f63d
000002c0: f07b 853c aa26 363d 16a5 a1bc 34d1 c3bc
000002d0: a22e 28bd 11c9 cebc 380e b93c a7b9 f9bb
000002e0: 9a35 13bd bc73 e13d 6c6f 38bd 5976 0abc
000002f0: fbfd 343b 9190 f03c f249 68bc 4656 a3bb
00000300: 5509 06bd a86c d23c 4a3e e43d 2cb1 853c
00000310: 3528 f43a 9ca0 d03c 63f1 6e3d 1547 81bc
00000320: 0bf9 0cbc 02f4 d83c cf42 ff3b f007 0280
00000330: dd0a e73c f8c8 bbbd d8d4 933d 9544 e3bb
00000340: cae6 e932 0e25 d23c def2 983c 33b9 563c
00000350: 0601 483c 4608 0000 583a 2d3e b809 5fbd
00000360: 3d98 563c 8ff2 833c 2166 61bb 9ee6 2f3c
00000370: 55df 8fbc 7d45 b1bc 32c2 87bb 53cd 9cbb
00000380: b9ad dbbc 3002 bcbd 5b58 babc 9d43 5c3c
00000390: cf18 b5bb 74ed 1a3c c1d6 a93c dd4c ecbc
000003a0: ef42 913c c1ff 82bb f786 0180 91b9 a1be
000003b0: 4b94 41bc 0776 35bb 17a3 903c 73a6 0180
000003c0: c4dd cd3c f77d b23c e635 26ba 5f9a e4ba
000003d0: af48 0180 5636 8d3e 2382 933c d476 4abc
000003e0: d8a2 373c 0f33 0200 2858 55ba 2ac5 0180
000003f0: 95e9 0080 27fd 0000 35cd 0100 678b 8b3b
0.0016742462 -0.014370406 0.017047405 -0.025334034 0.013449331 0.0792076 -0.0009841723 -0.015613211
0.034658797 0.022719134 -0.032956578 0.007512423 -0.027757717 0.006274159 0.039330717 0.036427636
0.014567261 0.024582526 -0.022333417 -0.02746042 -0.005225294 0.0005975216 -0.032457184 0.06986375
-0.11559119 -0.07597816 -0.029922346 -0.02120253 0.008417095 0.013784092 0.0036073732 -0.018328972
0.0029783824 -0.033510417 -0.046068512 0.119399294 -0.0144303525 0.023147194 -0.012054417 -0.0067585395
-0.002520715 0.0112542575 0.025325619 0.021939225 0.037131146 0.013600934 0.022070656 0.018009095
0.019782316 -0.0005916668 0.019367553 0.023160802 0.01945881 0.0016203829 -0.04229175 -0.02274663
0.025937803 -0.033452243 -0.030019611 -0.016107382 -0.0023291772 -0.009202508 0.025165753 0.016632263
0.2953711 -0.025657512 0.027384656 -0.01147221 -0.022162428 -0.1491049 0.016704116 0.0034438083
0.0025130783 0.0022701048 0.24099329 0.118130386 0.05010724 0.010367005 0.0042875977 2.27607e-40
-0.017473053 0.022176607 0.011894532 -0.01802296 -0.07600797 -0.098693006 -0.053169798 -0.0014345422
-0.011658103 1.05578e-40 -0.014610732 -0.011932146 -0.010908087 -0.027807306 -0.038938534 -0.041228484
0.020849766 0.025656004 0.04499762 -0.0007013849 0.01963563 0.0027073799 -0.0013874534 1.37146e-40
0.09709712 -0.12297094 -0.076595284 0.0026180265 -8.732521e-09 -0.025290083 0.025805028 -0.006364689
0.009111474 0.003490984 0.31286615 -0.017326185 0.008167705 0.012111903 0.013078342 -0.019212108
-0.017694537 -0.0136600975 0.010155502 0.01258731 -0.0958231 0.13395777 0.0881021 0.008873362
0.0076831947 0.024765244 -0.005334837 -0.0127593335 0.0070307897 0.0062055015 0.04078958 0.049529895
-0.0822232 0.008593054 0.014393094 0.0041726246 -0.045918774 -0.0011545175 0.03016877 -0.039863873
0.047229934 -0.019673135 -0.07817581 0.010053651 -0.037552476 -0.009764837 -0.032336358 -0.002258272
-2.53386e-40 -0.018658848 0.0130619 0.063037634 -0.07198655 -1.94039e-40 0.0042890133 0.018898409
-0.0425512 0.031550314 -0.0021430086 0.0022644051 -0.067165695 0.07695357 0.018864516 -0.0018616408
-0.00038225716 -0.0004933155 -0.05129172 -0.01574864 0.0021242974 -0.010006893 -0.03335418 0.12028136
0.01629445 0.044470467 -0.01973204 -0.023903467 -0.041060098 -0.02524236 0.022589788 -0.0076210084
-0.03593979 0.11008403 -0.045028135 -0.008451068 0.0027617204 0.02936581 -0.014177786 -0.00498465
-0.032723743 0.025686577 0.11144693 0.016319834 0.0018627705 0.02546721 0.058335673 -0.015780965
-0.008604298 0.02648354 0.0077899466 -1.86518e-40 0.028203422 -0.09169191 0.07218331 -0.006935666
2.722972e-08 0.025652435 0.018670496 0.013105678 0.012207275 2.968e-42 0.16916788 -0.054452628
0.01309782 0.016106872 -0.003439315 0.010736136 -0.017562548 -0.02163958 -0.004143023 -0.0047852187
-0.026816236 -0.09180105 -0.02274721 0.013443855 -0.005526639 0.009456027 0.020732285 -0.028845245
0.017732112 -0.0039977734 -1.40252e-40 -0.31586888 -0.011815141 -0.0027688758 0.017655892 -1.51546e-40
0.02513016 0.02178858 -0.0006340429 -0.0017441026 -1.1791e-40 0.27580518 0.01800639 -0.012357432
0.011208259 2.01987e-40 -0.00081384415 -1.62565e-40 -8.3793e-41 9.0814e-41 1.6545e-40 0.0042585614

out.0.weight f4 [1, 3200]
00000000: 6172 db3a da71 6bbc 00a7 8b3c 5289 cfbc
00000010: 955a 5c3c 9837 a23d 58ff 80ba 8ece 7fbc
00000020: 62f6 0d3d 7a1d ba3c 7afd 06bd c62a f63b
00000030: 2764 e3bc 7697 cd3b 3f19 213d 2535 153d
00000040: 85ab 6e3c 4b61 c93c 92f4 b6bc adf4 e0bc
00000050: f138 abbb ffa2 1c3a d3f1 04bd ba14 8f3d
00000060: 13bb ecbd 709a 9bbd b51f f5bc eeb0 adbc
00000070: dbe7 093c acd6 613c ae69 6c3b a426 96bc
00000080: f730 433b 3842 09bd 56b2 3cbd 9e87 f43d
00000090: 496d 6cbc 2f9f bd3c e47f 45bc bd76 ddbb
000000a0: 9432 25bb c763 383c ac77 cf3c e4b9 b33c
000000b0: d416 183d 74d6 5e3c 85cd b43c cf87 933c
000000c0: 860e a23c 161a 1bba b4a8 9e3c b9bb bd3c
000000d0: 1568 9f3c 0763 d43a 1d3a 2dbd 2457 babc
000000e0: 847b d43c 3805 09bd b0eb f5bc a1f3 83bc
000000f0: 1ca5 18bb 1ec6 16bc 6928 ce3c 6240 883c
00000100: e13a 973e b42f d2bc c955 e03c f0f5 3bbc
00000110: fb8d b5bc f4ae 18be 12d7 883c 84b1 613b
00000120: 75b2 243b 0ac6 143b f2c6 763e 58ee f13d
00000130: 403d 4d3d 5fda 293c fa7e 8c3b 7a7a 0200
00000140: a623 8fbc b7ab b53c 48e1 423c e3a4 93bc
00000150: 11aa 9bbd 8f1f cabd 93c8 59bd 4007 bcba
00000160: a101 3fbc 4f26 0100 da61 6fbc 0c7f 43bc
00000170: d5b7 32bc 26cc e3bc 037e 1fbd 33df 28bd
00000180: 21cd aa3c 8a2c d23c 6d4f 383d 25dd 37ba
00000190: e7da a03c 4c6e 313b 36db b5ba 4f7e 0100
000001a0: dbda c63d 30d8 fbbd fddd 9cbd 3293 2b3b
000001b0: 0906 16b2 262d cfbc 1165 d33c e28e d0bb
000001c0: 4b48 153c fec8 643b fe2f a03e a5ef 8dbc
000001d0: d6d1 053c 0171 463c 8b46 563c b662 9dbc
000001e0: 22f4 90bc 9ace 5fbc 4363 263c 013b 4e3c
000001f0: e73e c4bd 3a2c 093e e06e b43d 9461 113c
00000200: 4fc3 fb3b 7be0 ca3c dbcf aebb 860c 51bc
00000210: 8a62 e63b 8557 cb3b fa12 273d dcdf 4a3d
00000220: a364 a8bd e1c9 0c3c 03d1 6b3c 83ba 883b
00000230: 5315 3cbd 2e53 97ba 7f24 f73c 4d48 23bd
00000240: 2d74 413d 8e29 a1bc a41a a0bd 12b8 243c
00000250: a0d0 19bd b2fc 1fbc 2173 04bd 84ff 13bb
00000260: 56c2 0280 71da 98bc 9401 563c e019 813d
00000270: af6d 93bd e71c 0280 da8a 8c3b d6d0 9a3c
00000280: 2b4a 2ebd e73a 013d b871 0cbb 6a66 143b
00000290: 2b8e 89bd d599 9d3d c289 9a3c 4d02 f4ba
000002a0: b069 c8b9 d851 01ba 4417 52bd 4b03 81bc
000002b0: cc37 0b3b f4f3 23bc 659e 08bd 1356 f63d
000002c0: f07b 853c aa26 363d 16a5 a1bc 34d1 c3bc
000002d0: a22e 28bd 11c9 cebc 380e b93c a7b9 f9bb
000002e0: 9a35 13bd bc73 e13d 6c6f 38bd 5976 0abc
000002f0: fbfd 343b 9190 f03c f249 68bc 4656 a3bb
00000300: 5509 06bd a86c d23c 4a3e e43d 2cb1 853c
00000310: 3528 f43a 9ca0 d03c 63f1 6e3d 1547 81bc
00000320: 0bf9 0cbc 02f4 d83c cf42 ff3b f007 0280
00000330: dd0a e73c f8c8 bbbd d8d4 933d 9544 e3bb
00000340: cae6 e932 0e25 d23c def2 983c 33b9 563c
00000350: 0601 483c 4608 0000 583a 2d3e b809 5fbd
00000360: 3d98 563c 8ff2 833c 2166 61bb 9ee6 2f3c
00000370: 55df 8fbc 7d45 b1bc 32c2 87bb 53cd 9cbb
00000380: b9ad dbbc 3002 bcbd 5b58 babc 9d43 5c3c
00000390: cf18 b5bb 74ed 1a3c c1d6 a93c dd4c ecbc
000003a0: ef42 913c c1ff 82bb f786 0180 91b9 a1be
000003b0: 4b94 41bc 0776 35bb 17a3 903c 73a6 0180
000003c0: c4dd cd3c f77d b23c e635 26ba 5f9a e4ba
000003d0: af48 0180 5636 8d3e 2382 933c d476 4abc
000003e0: d8a2 373c 0f33 0200 2858 55ba 2ac5 0180
000003f0: 95e9 0080 27fd 0000 35cd 0100 678b 8b3b
0.0016742462 -0.014370406 0.017047405 -0.025334034 0.013449331 0.0792076 -0.0009841723 -0.015613211
0.034658797 0.022719134 -0.032956578 0.007512423 -0.027757717 0.006274159 0.039330717 0.036427636
0.014567261 0.024582526 -0.022333417 -0.02746042 -0.005225294 0.0005975216 -0.032457184 0.06986375
-0.11559119 -0.07597816 -0.029922346 -0.02120253 0.008417095 0.013784092 0.0036073732 -0.018328972
0.0029783824 -0.033510417 -0.046068512 0.119399294 -0.0144303525 0.023147194 -0.012054417 -0.0067585395
-0.002520715 0.0112542575 0.025325619 0.021939225 0.037131146 0.013600934 0.022070656 0.018009095
0.019782316 -0.0005916668 0.019367553 0.023160802 0.01945881 0.0016203829 -0.04229175 -0.02274663
0.025937803 -0.033452243 -0.030019611 -0.016107382 -0.0023291772 -0.009202508 0.025165753 0.016632263
0.2953711 -0.025657512 0.027384656 -0.01147221 -0.022162428 -0.1491049 0.016704116 0.0034438083
0.0025130783 0.0022701048 0.24099329 0.118130386 0.05010724 0.010367005 0.0042875977 2.27607e-40
-0.017473053 0.022176607 0.011894532 -0.01802296 -0.07600797 -0.098693006 -0.053169798 -0.0014345422
-0.011658103 1.05578e-40 -0.014610732 -0.011932146 -0.010908087 -0.027807306 -0.038938534 -0.041228484
0.020849766 0.025656004 0.04499762 -0.0007013849 0.01963563 0.0027073799 -0.0013874534 1.37146e-40
0.09709712 -0.12297094 -0.076595284 0.0026180265 -8.732521e-09 -0.025290083 0.025805028 -0.006364689
0.009111474 0.003490984 0.31286615 -0.017326185 0.008167705 0.012111903 0.013078342 -0.019212108
-0.017694537 -0.0136600975 0.010155502 0.01258731 -0.0958231 0.13395777 0.0881021 0.008873362
0.0076831947 0.024765244 -0.005334837 -0.0127593335 0.0070307897 0.0062055015 0.04078958 0.049529895
-0.0822232 0.008593054 0.014393094 0.0041726246 -0.045918774 -0.0011545175 0.03016877 -0.039863873
0.047229934 -0.019673135 -0.07817581 0.010053651 -0.037552476 -0.009764837 -0.032336358 -0.002258272
-2.53386e-40 -0.018658848 0.0130619 0.063037634 -0.07198655 -1.94039e-40 0.0042890133 0.018898409
-0.0425512 0.031550314 -0.0021430086 0.0022644051 -0.067165695 0.07695357 0.018864516 -0.0018616408
-0.00038225716 -0.0004933155 -0.05129172 -0.01574864 0.0021242974 -0.010006893 -0.03335418 0.12028136
0.01629445 0.044470467 -0.01973204 -0.023903467 -0.041060098 -0.02524236 0.022589788 -0.0076210084
-0.03593979 0.11008403 -0.045028135 -0.008451068 0.0027617204 0.02936581 -0.014177786 -0.00498465
-0.032723743 0.025686577 0.11144693 0.016319834 0.0018627705 0.02546721 0.058335673 -0.015780965
-0.008604298 0.02648354 0.0077899466 -1.86518e-40 0.028203422 -0.09169191 0.07218331 -0.006935666
2.722972e-08 0.025652435 0.018670496 0.013105678 0.012207275 2.968e-42 0.16916788 -0.054452628
0.01309782 0.016106872 -0.003439315 0.010736136 -0.017562548 -0.02163958 -0.004143023 -0.0047852187
-0.026816236 -0.09180105 -0.02274721 0.013443855 -0.005526639 0.009456027 0.020732285 -0.028845245
0.017732112 -0.0039977734 -1.40252e-40 -0.31586888 -0.011815141 -0.0027688758 0.017655892 -1.51546e-40
0.02513016 0.02178858 -0.0006340429 -0.0017441026 -1.1791e-40 0.27580518 0.01800639 -0.012357432
0.011208259 2.01987e-40 -0.00081384415 -1.62565e-40 -8.3793e-41 9.0814e-41 1.6545e-40 0.0042585614

exp_avg f4 [32, 2, 5, 5]
00000000: 4a58 2fba deeb 2dba 776f 11ba d849 08ba
00000010: 430c a4b9 670d 15ba 4514 17ba f5ae 08ba
00000020: 24df e5b9 6ff5 75b9 1346 ebb9 9ed2 02ba
00000030: fe01 eeb9 22b6 9db9 b5a1 28b8 9a38 8ab9
00000040: fdd6 c2b9 eda6 abb9 9ec3 3fb9 59cd ce38
00000050: ec44 e537 bfb1 8cb8 319d 2cb8 aaa8 e338
00000060: f300 e139 a720 3aba 7bd3 26ba f15c 23ba
00000070: 7837 01ba cfbf d0b9 4400 19ba aaff 18ba
00000080: 72e9 11ba f1dc deb9 e618 78b9 1314 eab9
00000090: 3745 feb9 a0b5 e5b9 6364 b3b9 80dc 3bb8
000000a0: 18a0 adb9 f587 d5b9 5ba7 b8b9 4fc8 32b9
000000b0: d7fc 2639 b9a9 b037 78be e9b8 ed7a 21b8
000000c0: ae8e 2b39 3856 023a 214a c6b9 ebc0 b9b8
000000d0: 9ce4 a838 b543 1c39 62a4 0239 6d8a f3b9
000000e0: 1e25 54b9 d118 0a38 308d 3139 b953 4439
000000f0: 2789 17ba c4da a4b9 dd87 8eb8 9f53 fb38
00000100: 7150 6c39 daa0 1bba d9e3 bab9 b505 ddb8
00000110: 3c97 0839 f1c6 9439 98a2 1cba 141a c0b9
00000120: 703c 02b9 8a6d 0139 3dd5 c539 f81c 7fb9
00000130: b67c 8438 82f4 a039 c806 d039 273a a439
00000140: 2cf7 cbb9 0d22 9836 de85 8239 a0df c239
00000150: 1e10 b839 2061 eab9 b39a 8cb8 cae7 5939
00000160: 63de cf39 8d8a e539 f549 11ba fead 42b9
00000170: 5e61 0539 c097 bc39 5958 063a 9152 13ba
00000180: 7e83 69b9 23ed c738 6335 cb39 b9b3 183a
00000190: 8a52 8fb9 a59f 65b9 4a89 9eb9 b9ca c7b9
000001a0: 51c8 21ba bf56 ac38 fd4f 0039 582d 3538
000001b0: 8d2e f237 0394 25b9 f6a3 c639 37a6 f339
000001c0: 5b6b 103a 6b64 343a 89ae 253a 3889 2c3a
000001d0: 8813 5f3a f9ea 863a 21cd b43a 5b1d ca3a
000001e0: da4c 533a 22fd 953a 416f c73a 2683 073b
000001f0: 2301 213b 77db 50b9 cfe3 1db9 541d 22b9
00000200: 5ee8 4eb9 d6c8 e6b9 262a ee38 4317 4e39
00000210: c728 6639 30db 6d39 fbb8 7e38 0d42 fa39
00000220: ca8e 1f3a 3a66 353a 7f52 563a 30a6 563a
00000230: 242f 433a e3bb 793a b13c 9f3a 847d c63a
00000240: 0f92 e33a 9ba6 753a 3b40 a23a a4a9 d93a
00000250: b0d1 0d3b a53e 2b3b c2e7 44ba b45c 49ba
00000260: 8d8f 57ba cc23 60ba b76b 48ba 9495 45ba
00000270: 3fcf 49ba 982d 5cba 8a52 72ba 6419 70ba
00000280: b9cd 3aba d926 43ba b7a0 5cba d10d 7bba
00000290: 90fc 81ba b4b8 25ba fcdb 38ba 158e 54ba
000002a0: 11de 7bba 6465 8cba e123 ddb8 298f 6ab9
000002b0: 8c00 cab9 9a80 18ba e5ec 32ba f61b 4eba
000002c0: 8803 57ba 3c83 5bba e193 6cba fb2c 69ba
000002d0: 35bf 49ba 48e2 58ba a607 6aba 38ef 80ba
000002e0: 34d7 89ba 2a2d 3eba 813b 50ba 1bad 73ba
000002f0: 09bc 8cba 104c 9bba da97 24ba 43a9 3eba
00000300: 4e85 72ba 3788 92ba 13ae a2ba 2837 19b9
00000310: e276 9db9 0f8b 07ba 0390 3dba b5f0 6cba
00000320: 57e7 dcb8 dc52 67b9 efa1 a2b9 85a0 d1b9
00000330: 28af f0b9 dc60 afb8 2012 30b9 32a9 7eb9
00000340: fc0a 9eb9 e09e b4b9 6fc7 5138 a67f beb7
00000350: 6bad a8b8 3de9 f3b8 19c2 0ab9 c594 cf38
00000360: 042d 4238 9a5e 5d37 5b99 45b7 f470 afb7
00000370: 7517 2139 3c86 f438 fd76 cb38 92e9 b138
00000380: 1387 b038 2244 eab8 106e 51b9 5af8 9bb9
00000390: 3e9c c3b9 8e6f f0b9 2c0e 95b8 06f3 28b9
000003a0: 9307 71b9 61d2 96b9 6c7c aeb9 db85 3e38
000003b0: 6d1f abb7 544e 9cb8 dc65 e5b8 7714 0fb9
000003c0: 8de8 d338 016a 3c38 a2f5 0e36 6234 2eb7
000003d0: 385e a9b7 389e 2939 7ce7 0039 f447 c738
000003e0: 13a5 af38 b511 bb38 d95b c239 9eca c3b7
000003f0: 3161 38ba 2f0a c8ba 5166 23bb ddbf 0d3a
-0.00066888763 -0.0006634573 -0.00055479206 -0.0005198992 -0.00031289653 -0.0005685896 -0.0005763213 -0.0005214059
-0.00043844536 -0.00023456452 -0.00044874902 -0.0004990491 -0.00045396382 -0.00030081073 -4.0204923e-05 -0.00026363583
-0.00037162742 -0.0003274003 -0.00018288053 9.8610944e-05 2.7331022e-05 -6.708828e-05 -4.115439e-05 0.000108556196
0.00042916051 -0.00071002025 -0.00063639105 -0.0006231806 -0.0004929225 -0.0003981576 -0.00058365264 -0.0005836437
-0.0005566097 -0.00042507754 -0.00023660398 -0.00044646914 -0.00048498224 -0.00043813605 -0.00034216334 -4.478963e-05
-0.0003311641 -0.00040727822 -0.00035219904 -0.00017050024 0.00015925184 2.1059868e-05 -0.00011145783 -3.8499875e-05
0.00016360983 0.0004971954 -0.00037820733 -8.857421e-05 8.053446e-05 0.00014902542 0.00012459003 -0.00046451707
-0.00020231723 3.2924876e-05 0.00016932632 0.00018723206 -0.000578063 -0.0003144351 -6.796394e-05 0.00011984188
0.0002253668 -0.00059367495 -0.00035646444 -0.00010539164 0.0001302631 0.00028376983 -0.0005975156 -0.00036640523
-0.00012420281 0.00012343205 0.00037733643 -0.00024329487 6.31748e-05 0.0003069975 0.00039677904 0.00031323844
-0.00038903335 4.533917e-06 0.0002489527 0.00037169177 0.00035107223 -0.00044704322 -6.704535e-05 0.00020781081
0.00039647808 0.00043781512 -0.00055423315 -0.00018566099 0.0001272014 0.00035971217 0.0005124859 -0.00056199083
-0.00022269596 9.5332296e-05 0.00038758953 0.00058251206 -0.00027336582 -0.00021898614 -0.00030238397 -0.00038107278
-0.0006171512 8.217757e-05 0.00012236829 4.3195992e-05 2.8870325e-05 -0.00015790765 0.00037887663 0.00046472411
0.0005509161 0.00068814185 0.0006320258 0.00065817265 0.0008509685 0.0010293416 0.0013794043 0.0015420126
0.0008060463 0.0011443237 0.0015215651 0.0020677536 0.0024567328 -0.00019918183 -0.00015057552 -0.0001546045
-0.00019732254 -0.00044018653 0.00011356575 0.00019654357 0.000219497 0.00022683735 6.0730596e-05 0.00047732927
0.0006086646 0.0006919835 0.0008175745 0.0008188216 0.0007445684 0.00095265935 0.0012148825 0.0015143608
0.0017362254 0.00093708345 0.0012378761 0.0016606343 0.0021639876 0.0026129868 -0.0007511341 -0.00076813553
-0.000822299 -0.0008550256 -0.00076454453 -0.00075372425 -0.00076984236 -0.0008399128 -0.00092438667 -0.0009159057
-0.0007125992 -0.00074444484 -0.00084162824 -0.0009576949 -0.0009917188 -0.00063217734 -0.0007051823 -0.000810833
-0.00096079806 -0.0010711369 -0.00010544784 -0.0002236931 -0.0003852885 -0.0005817503 -0.0006825461 -0.0007862443
-0.00082021253 -0.00083737425 -0.0009024721 -0.0008894947 -0.00076960336 -0.00082734646 -0.00089275313 -0.0009836918
-0.0010516406 -0.0007254655 -0.0007943437 -0.0009295509 -0.0010737191 -0.001184823 -0.0006278731 -0.0007273147
-0.00092514313 -0.0011179511 -0.0012411497 -0.00014611764 -0.00030033948 -0.00051705627 -0.0007231237 -0.00090385537
-0.00010533508 -0.00022060744 -0.00031019698 -0.00039983183 -0.0004590687 -8.362692e-05 -0.0001679142 -0.00024286358
-0.00030144292 -0.00034450646 5.001522e-05 -2.2709206e-05 -8.043166e-05 -0.00011630587 -0.00013233013 9.89824e-05
4.629513e-05 1.3194653e-05 -1.1777821e-05 -2.0914224e-05 0.00015362895 0.0001165983 9.7019576e-05 8.4835236e-05
8.4174935e-05 -0.0001117068 -0.00019972795 -0.0002974894 -0.00037309708 -0.00045859482 -7.1075134e-05 -0.00016112262
-0.00022986373 -0.00028766974 -0.00033280568 4.5424193e-05 -2.0399422e-05 -7.4532494e-05 -0.00010938544 -0.00013645166
0.0001010458 4.4921417e-05 2.1302626e-06 -1.03834045e-05 -2.0190244e-05 0.00016176037 0.00012293266 9.502462e-05
8.375398e-05 8.920153e-05 0.00037070995 -2.3340162e-05 -0.00070335256 -0.0015261824 -0.0024932812 0.0005407313

exp_avg_sq f4 [32, 2, 5, 5]
00000000: a0a4 4b37 57d4 2b37 9aaf 1937 69d9 1837
00000010: fd8e 3737 6838 2437 6b42 1c37 d6e1 1337
00000020: bc3c 0e37 9ec7 1837 42d1 0f37 50ba 1637
00000030: 32cd 1537 7735 1337 afe3 1b37 d7a2 0b37
00000040: f457 1837 ed80 1c37 1476 1f37 6516 2f37
00000050: 72c3 0a37 b017 1737 c56e 1c37 fb9c 2337
00000060: 9411 3a37 3bc3 3a37 09a0 1e37 f014 1237
00000070: af2a 1637 6ec9 3737 9ae5 1637 119d 1137
00000080: e2f8 0d37 c7b6 0f37 f8ef 2137 f72a 0737
00000090: a397 0e37 3695 1137 35c6 1437 c542 2637
000000a0: 92e5 0637 fc55 1337 ae97 1837 78cc 1e37
000000b0: 9fda 3537 5ce5 0837 c0d9 1437 1baf 1a37
000000c0: 56b4 2137 0ac7 3b37 bdf1 0937 98e4 f136
000000d0: 3de5 e536 d088 0637 6e53 3237 749c 2737
000000e0: 3b5b 1237 8757 0937 43ac 1d37 0720 4e37
000000f0: ddb8 4d37 363b 3137 4ce5 2237 5a3a 3437
00000100: 0453 6437 5c91 7d37 5202 5937 6339 4837
00000110: 308a 5d37 fc6f 8a37 73a3 9137 40f7 7a37
00000120: ee7c 7337 a85f 8f37 786a b837 26f3 0137
00000130: 6ab2 de36 c32f d336 f8e2 f636 99ce 2337
00000140: 3b89 1b37 b6de 0137 86dc ef36 b8f1 0837
00000150: 3592 3637 8c18 3d37 5c67 1837 36d7 0637
00000160: 7d96 1537 82cf 4537 b0d6 6937 adae 3737
00000170: dc2d 2337 a18d 3837 9039 7437 d2fd 8837
00000180: 5d65 5737 2d86 4a37 da06 7837 68aa a837
00000190: c891 0238 22b2 a637 a0a7 8337 3b70 a837
000001a0: 2f6e 1838 d01a 1238 e309 b037 d53b 8137
000001b0: 5736 9d37 5d87 1038 cbcd 0338 c1ac 9a37
000001c0: 34bb 5937 5e31 7a37 d132 e237 cf09 c137
000001d0: 7015 7337 7bde 5737 1b15 9237 5b00 f237
000001e0: 850d 7e37 9cf2 6437 bcee ab37 3711 1538
000001f0: 7665 6b38 e1c6 e537 41ac 9337 9204 5b37
00000200: 1135 8437 4943 0038 940b f837 d804 9a37
00000210: 9047 5d37 a65c 7a37 86e9 f037 0199 e137
00000220: cd82 9237 138b 6037 66b8 6f37 7893 cb37
00000230: d4d8 a837 84b0 8137 75bf 8537 c0d0 a937
00000240: e567 f937 4147 6e37 2c5b 8537 ee93 ce37
00000250: 51cb 2538 7262 7338 87e5 9836 99b1 9d36
00000260: 19e8 a836 4dd0 d836 af58 2f37 b97d 8b36
00000270: 7f25 9236 0f46 a536 e558 e236 89f7 3737
00000280: 5969 8236 c4b8 9036 0cc4 b836 d2e8 0e37
00000290: db6d 6937 2598 7e36 5108 9f36 2739 f136
000002a0: 2572 4e37 34ef a837 a3db 6936 6603 8c36
000002b0: bfd3 f936 5d31 7437 ccc7 d237 600d 9c36
000002c0: 8f90 a236 f712 af36 7abf e036 05f5 3137
000002d0: 31b8 8c36 6068 9536 4b27 a736 d2e4 e036
000002e0: b661 3337 f81b 8236 dd03 9136 0b70 b536
000002f0: 8610 0837 1508 5d37 8c11 7e36 bf4b 9c36
00000300: a354 e336 4a9c 3d37 7313 9d37 659d 6336
00000310: f844 8436 4220 e436 a57e 5f37 f0f7 c537
00000320: 2528 dd35 751f c735 097f ea35 189a 2f36
00000330: 56d6 8636 9bed 8435 f232 6935 8b8f 7b35
00000340: 1edf ad35 114e 0136 5aa5 3c35 5644 2c35
00000350: b2d8 2335 938c 3035 4c87 5635 c8e1 1f35
00000360: baff 1835 b29b 0a35 2512 f434 1057 db34
00000370: a697 2635 1c41 2435 4d35 1935 b31d 0735
00000380: 1735 e634 a672 c935 6161 be35 8423 ed35
00000390: 5dfa 3436 b3f8 8936 03b7 7335 a222 6135
000003a0: af18 8135 54ef b535 85ab 0536 4bbc 3535
000003b0: 5c47 2b35 c4de 2835 76ca 3835 6d2a 5e35
000003c0: 185f 1f35 5d12 1b35 8bf3 0e35 bd57 fe34
000003d0: 411a e334 5e8a 2835 700c 2735 3077 1c35
000003e0: 82f1 0935 f1b1 e934 6906 8537 e1b7 3337
000003f0: 0d83 4c37 f0d7 aa37 954d 0e38 0f1c 8b37
1.2138073e-05 1.02418335e-05 9.160396e-06 9.110526e-06 1.0940942e-05 9.788295e-06 9.313789e-06 8.814464e-06
8.478e-06 9.106383e-06 8.572186e-06 8.984076e-06 8.928868e-06 8.774331e-06 9.291732e-06 8.32296e-06
9.080384e-06 9.3283425e-06 9.504631e-06 1.0436027e-05 8.270947e-06 9.0058165e-06 9.324115e-06 9.752107e-06
1.1090557e-05 1.113192e-05 9.454795e-06 8.707153e-06 8.950635e-06 1.0954549e-05 8.994155e-06 8.679243e-06
8.4622025e-06 8.56602e-06 9.65222e-06 8.056631e-06 8.499165e-06 8.677414e-06 8.867636e-06 9.909917e-06
8.040473e-06 8.781903e-06 9.095222e-06 9.4651405e-06 1.0839342e-05 8.159634e-06 8.872186e-06 9.219885e-06
9.6383355e-06 1.1192411e-05 8.22212e-06 7.2089715e-06 6.8514187e-06 8.0188765e-06 1.0629052e-05 9.990403e-06
8.723519e-06 8.186215e-06 9.398037e-06 1.2286014e-05 1.2261994e-05 1.0563808e-05 9.70934e-06 1.0742422e-05
1.3609188e-05 1.5113819e-05 1.2934748e-05 1.193429e-05 1.3204801e-05 1.6503029e-05 1.7361459e-05 1.4958729e-05
1.4513016e-05 1.7091472e-05 2.1984088e-05 7.745612e-06 6.6368857e-06 6.29385e-06 7.357794e-06 9.763659e-06
9.270671e-06 7.740853e-06 7.1484274e-06 8.162511e-06 1.0882087e-05 1.1270993e-05 9.083971e-06 8.03713e-06
8.91613e-06 1.1790429e-05 1.3937868e-05 1.094832e-05 9.726235e-06 1.100023e-05 1.4556936e-05 1.6330658e-05
1.2838599e-05 1.20713785e-05 1.4783547e-05 2.0106512e-05 3.1130185e-05 1.9871692e-05 1.5694473e-05 2.0079422e-05
3.634224e-05 3.4834084e-05 2.0985439e-05 1.540586e-05 1.8741162e-05 3.4458342e-05 3.1424493e-05 1.8438675e-05
1.29777945e-05 1.4912655e-05 2.6964963e-05 2.301196e-05 1.448892e-05 1.2866799e-05 1.7414384e-05 2.8848814e-05
1.51427275e-05 1.3646346e-05 2.0495958e-05 3.55404e-05 5.612286e-05 2.7391538e-05 1.7603978e-05 1.3054481e-05
1.5760337e-05 3.0580242e-05 2.9569295e-05 1.8360486e-05 1.3189288e-05 1.4922733e-05 2.8718972e-05 2.6893338e-05
1.7465465e-05 1.3383821e-05 1.4288444e-05 2.4268156e-05 2.012813e-05 1.5460195e-05 1.594399e-05 2.0243577e-05
2.9731493e-05 1.4202496e-05 1.589729e-05 2.4625999e-05 3.952842e-05 5.80274e-05 4.5566735e-06 4.6996397e-06
5.03381e-06 6.461551e-06 1.0451461e-05 4.157159e-06 4.355504e-06 4.925539e-06 6.7456735e-06 1.0965284e-05
3.886566e-06 4.313044e-06 5.50645e-06 8.518067e-06 1.391346e-05 3.793751e-06 4.7395374e-06 7.189013e-06
1.2305133e-05 2.0138548e-05 3.484755e-06 4.1727208e-06 7.4454288e-06 1.4555027e-05 2.5126988e-05 4.6507193e-06
4.844805e-06 5.217614e-06 6.698011e-06 1.060707e-05 4.193768e-06 4.452697e-06 4.981562e-06 6.7023584e-06
1.06919815e-05 3.877558e-06 4.3217865e-06 5.407264e-06 8.110079e-06 1.3174508e-05 3.7859163e-06 4.6579803e-06
6.77498e-06 1.1301667e-05 1.8724915e-05 3.3917252e-06 3.9419356e-06 6.798685e-06 1.33213225e-05 2.3599685e-05
1.6477467e-06 1.4835811e-06 1.7471331e-06 2.6166726e-06 4.018463e-06 9.903919e-07 8.68734e-07 9.371367e-07
1.295444e-06 1.9267939e-06 7.0276076e-07 6.4174435e-07 6.1037565e-07 6.576967e-07 7.9918095e-07 5.956067e-07
5.6996544e-07 5.163557e-07 4.5461744e-07 4.0855275e-07 6.2060496e-07 6.118951e-07 5.7074504e-07 5.0334637e-07
4.2879466e-07 1.5009034e-06 1.4184444e-06 1.7668212e-06 2.696782e-06 4.1118706e-06 9.079087e-07 8.386943e-07
9.618433e-07 1.3555205e-06 1.9918382e-06 6.7701757e-07 6.3806306e-07 6.2909044e-07 6.883996e-07 8.276318e-07
5.9370495e-07 5.776872e-07 5.3253524e-07 4.7375025e-07 4.2301147e-07 6.278623e-07 6.2230447e-07 5.828797e-07
5.138792e-07 4.35291e-07 1.585782e-05 1.0712044e-05 1.218986e-05 2.0366133e-05 3.3927692e-05 1.6583157e-05

exp_avg f4 [32]
00000000: 2c16 cf3a a2f0 0fba 5df7 8b3a 3e08 823a
00000010: fc70 17ba 56a5 8bba f36a cdba 8b93 4fba
00000020: 2163 96ba 7ec4 9f39 ecae a0ba 898e 233b
00000030: 551f a53a 41ab c839 5da0 4137 a34b 82ba
00000040: b4b8 4b3b 700a 5ab9 e182 be38 719c 0db8
00000050: 7413 b0ba 55b8 e2ba 1442 0ab7 1d1d 0db8
00000060: 7081 a0b8 14e9 0dba eaca fbb9 d720 903a
00000070: 149c 8d3a 2e81 d9b8 3a62 f4ba dd77 bfb9
0.0015799454 -0.0005490874 0.0010678578 0.0009920669 -0.0005777029 -0.0010654132 -0.0015672132 -0.0007918409
-0.0011473635 0.0003047324 -0.0012259162 0.0024956784 0.0012597839 0.00038274567 1.1541034e-05 -0.0009940754
0.0031085433 -0.00020793988 9.084284e-05 -3.3762717e-05 -0.0013433532 -0.0017297367 -8.240826e-06 -3.3644134e-05
-7.653504e-05 -0.00054134545 -0.00048025633 0.0010996115 0.0010803961 -0.00010371428 -0.0018644996 -0.00036519664
