results/2BS/T_1/L_1000/seed2/checkpoint.pth.tar (torch_old, 395616 bytes, 22 tensors)

layer1.conv.weight f4 [32, 2, 5, 5]
0	0x3d022c7e	0.031780712
1	0x3cd59c4d	0.026075507
2	0xbbb89635	-0.0056331404
3	0xbc8328a4	-0.01601059
4	0x3d5f1d8e	0.054471545
5	0x3ca0e227	0.019639088
6	0x3d30955e	0.043111198
7	0x3e629216	0.2212604
8	0x3e344f74	0.17608434
9	0x3d9bad0a	0.07601364
10	0x3d9c5633	0.07633629
11	0x3cdacca3	0.026708907
12	0x3d3a078b	0.04541735
13	0x3dc97a10	0.09837735
14	0x3cb68032	0.022277925
15	0x3ca10ca1	0.019659342
16	0x3c589458	0.013218962
17	0xbbdd10f5	-0.006746406
18	0x3d41ed78	0.04734561
19	0x3da73fe7	0.08166485
20	0xbcb3b072	-0.021934722
21	0xbc7b865e	-0.01535186
22	0xbcc98b1c	-0.024602465
23	0x3d151553	0.03639729
24	0x3d141948	0.036156923
25	0x3d92b3fd	0.07163236
26	0x3d04a136	0.032380305
27	0xbbe0f7ab	-0.006865462
28	0xbd1ef4f4	-0.038807824
29	0xbdbf1374	-0.09329882
30	0xbc578bca	-0.013155887
31	0x37abd2ac	2.048289e-05
32	0xbe025d94	-0.1273101
33	0x3d939137	0.07205432
34	0xbde0c96f	-0.109759204
35	0xbd5b7e83	-0.053587448
36	0xbd63e918	-0.055642217
37	0xbcb48ff7	-0.022041304
38	0xbdb6ea4c	-0.08931407
39	0xbd9e72b4	-0.07736722
40	0xbd056a79	-0.032572243
41	0x3d1b5c92	0.03793008
42	0x3c80f96c	0.015743934
43	0xbd03be5d	-0.032163966
44	0x3b149a92	0.002267514
45	0xbdd25186	-0.102694556
46	0x3c86e9f6	0.016468983
47	0xbe4be96e	-0.19913265
48	0xbe132a58	-0.14371622
49	0xbd9fbe2b	-0.077999435
50	0x3c94e596	0.018175881
51	0x3d949e91	0.07256807
52	0x3d943607	0.072368674
53	0x3dc2b27b	0.09506699
54	0x3d55b35d	0.052173007
55	0x3d8530b4	0.0650343
56	0x3cf9b509	0.030481832
57	0x3d92081d	0.07130454
58	0x3de5962e	0.11210285
59	0x3e016aed	0.12638445
60	0x3d8c8aa2	0.068623796
61	0x3d235dee	0.0398845
62	0x3e0c164a	0.13680378
63	0x3e05cd0a	0.13066497
64	0x3daff619	0.08591861
65	0x3d1e234a	0.038607873
66	0x3dcbfc1b	0.09960195
67	0x3e02b9d9	0.12766208
68	0x3e42c500	0.19020462
69	0x3d9aa558	0.07551068
70	0x3d716eca	0.058943547
71	0x3d9b7411	0.07590497
72	0x3de05b24	0.10954884
73	0x3e06a258	0.13147867
74	0x3d46ead2	0.048563786
75	0xbcc64c3a	-0.02420627
76	0xbccbdb27	-0.024884773
77	0xbd7e8cd2	-0.062146015
78	0xbcaed933	-0.021343803
79	0x3c33dbaa	0.010977665
80	0x3bfad4b8	0.0076547526
81	0xbd77cd3f	-0.060498472
82	0xbd016edc	-0.031599864
83	0xbc953829	-0.018215256
84	0x3bbb1c63	0.005710171
85	0x3cd144af	0.025545446
86	0x3d0285dc	0.03186594
87	0xba0006cb	-0.0004883825
88	0xbceb0f2b	-0.028693756
89	0x3aeeb5fa	0.0018212192
90	0x3c7d5baa	0.015463749
91	0xbda068b6	-0.07832472
92	0x3cd45bf7	0.025922759
93	0x3d95e25e	0.07318567
94	0x3b40359f	0.0029328836
95	0x3da2c4c9	0.0794769
96	0x3d56bce4	0.052426234
97	0x3c88da63	0.016705697
98	0x3d947f24	0.07250813
99	0xbb8ff4d2	-0.0043931985
100	0xbd46b13f	-0.04850888
101	0x3c97e1bc	0.018540256
102	0xbbe5f458	-0.0070176534
103	0x3c858397	0.016298098
104	0xbbe666f2	-0.007031315
105	0x3c957aa8	0.018246964
106	0xba89b33e	-0.0010505689
107	0x3dfdf90b	0.12401017
108	0x3dad0519	0.08448238
109	0xbd4a294c	-0.04935579
110	0x3c546c4b	0.012965272
111	0x3c297c5b	0.01034459
112	0x3d8b32e7	0.06796818
113	0x3bc8038e	0.0061039394
114	0x3d48d093	0.049027037
115	0x3d5392f0	0.051653802
116	0x3d5179f8	0.05114171
117	0x3d9f11fe	0.077671036
118	0xbabfb65d	-0.0014626492
119	0xbd7e6452	-0.06210739
120	0x3db25409	0.08707435
121	0x3cfbb3ab	0.03072532
122	0x3e265014	0.16241485
123	0x3d83e867	0.064408116
124	0xbd38d591	-0.045125548
125	0x3bf88cdb	0.0075851507
126	0xbc9690ae	-0.018379536
127	0xbd910181	-0.07080365
128	0x3cbde1b8	0.02317892
129	0x3c581723	0.01318911
130	0x3ca8d46e	0.020609107
131	0xbe1551ce	-0.14581987
132	0x3d410234	0.04712124
133	0xbca6dabf	-0.020367978
134	0xbd2c8785	-0.04212143
135	0x3d0c6c25	0.034282822
136	0xbd1dcaad	-0.038523365
137	0xbc9afeca	-0.018920321
138	0xbc3b5929	-0.011434832
139	0xbe03f23c	-0.12885374
140	0x3d0a8480	0.033817768
141	0xbd996df6	-0.074916765
142	0xbd813ba3	-0.06310203
143	0xbe12aa2f	-0.14322732
144	0xbd3dc135	-0.046326835
145	0x3bd3eb95	0.0064672926
146	0xbd9cabc9	-0.07649953
147	0xbcb40ed9	-0.021979736
148	0xbde625e5	-0.112376966
149	0xbd809426	-0.06278257
150	0xbc895880	-0.016765833
151	0x3d7d180b	0.061790507
152	0xbd7ff12a	-0.06248585
153	0xbc6c552a	-0.014424602
154	0xbe013969	-0.12619556
155	0xbd572154	-0.05252202
156	0xbb09cccb	-0.0021026607
157	0x3cfa68ab	0.030567488
158	0xbd8f3d9f	-0.06994175
159	0x3b94767b	0.0045307255
160	0xbd3cf117	-0.04612836
161	0xbe1bb58b	-0.15205972
162	0xbe000455	-0.12501653
163	0xbd5c803a	-0.053833224
164	0xbcdff9e2	-0.027340833
165	0xbce5f7c3	-0.028072244
166	0xbd8125a3	-0.06306007
167	0xbdad280b	-0.08454903
168	0x3c129039	0.008945518
169	0xbd1b1f21	-0.037871484
170	0x3c5a2d38	0.013316445
171	0xbb90f4e6	-0.0044237254
172	0xbdcef2b1	-0.101048835
173	0xbd831b7b	-0.06401726
174	0xbd54f159	-0.05198798
175	0x3ca0a4f9	0.019609915
176	0x3e1a7175	0.15082343
177	0x3d89399f	0.067004435
178	0x3d39a0cb	0.04531936
179	0x3da675e9	0.08127958
180	0x3cde5beb	0.02714344
181	0x3c9d1f3d	0.019179935
182	0xbcb42f6a	-0.021995265
183	0x3e074e77	0.13213526
184	0x3dcd6695	0.100293316
185	0x3d008feb	0.03138725
186	0x3c5eb50d	0.013592971
187	0x3dca3459	0.09873266
188	0x3c1a7285	0.009426718
189	0x3de54d24	0.11196354
190	0xbd0ab38f	-0.033862647
191	0xbbbebfe4	-0.005821215
192	0xbd151c03	-0.036403667
193	0xbcea1eef	-0.028579203
194	0x3cfda3cc	0.030961893
195	0x3cd9fadb	0.026608875
196	0x3d9ca3fe	0.076484665
197	0x3e26572c	0.16244191
198	0xbd413214	-0.0471669
199	0x3da8b0cf	0.082368486
200	0xbcd95439	-0.026529418
201	0xbac449e9	-0.001497564
202	0x3d3440a9	0.044006977
203	0xbd079ff1	-0.033111516
204	0xbdc87e11	-0.0978967
205	0x3dc5cd14	0.09658256
206	0x3b63012f	0.0034638157
207	0xbcef4a8d	-0.029210353
208	0xbd93adad	-0.072108604
209	0xbd6215f8	-0.055196732
210	0x3c085991	0.008322136
211	0x3b99b74e	0.004691041
212	0x3b3fce3d	0.0029267215
213	0xbd9d97ed	-0.07694993
214	0x3c9ae9ed	0.018910373
215	0xbd6c927b	-0.057756882
216	0xbd117828	-0.03551498
217	0xbd9f8d4b	-0.07790621
218	0x3bad9383	0.005297126
219	0xbd9114c1	-0.070840366
220	0xbd6a1f0b	-0.05715851
221	0x3c115f26	0.008872783
222	0xbe06c4c0	-0.13160992
223	0xbd19cc41	-0.037548307
224	0xbe29d9a1	-0.16586925
225	0xbc0e6414	-0.008690853
226	0xbc35b3b4	-0.011090208
227	0xbd6c0dd1	-0.057630364
228	0xbb67787f	-0.0035319624
229	0x3cd55b6d	0.026044572
230	0xbc4b5191	-0.012409584
231	0xbdf70397	-0.120612316
232	0xbd9f8fd9	-0.07791109
233	0x3ac76397	0.0015212175
234	0xbc96f50f	-0.0184274
235	0xbdd327ad	-0.10310302
236	0x3b8caa8e	0.0042927926
237	0x3c839224	0.016060896
238	0x3d9bf727	0.076155
239	0x3db8f43b	0.09030958
240	0xbdd78cab	-0.10524877
241	0xbcceab7c	-0.025228254
242	0x3c89bab6	0.016812664
243	0xbd18a6d5	-0.03726848
244	0x3d5eb819	0.054374788
245	0xbd8b9e2a	-0.06817277
246	0xbe118649	-0.14211382
247	0xbd4ce0a1	-0.05001891
248	0xbab84001	-0.0014057161
249	0xbda4a218	-0.080387294
250	0xbc7d055d	-0.015443173
251	0x3d032150	0.03201419
252	0xbe0404ef	-0.12892507
253	0xbe28a11a	-0.16467705
254	0x3a1af9a5	0.0005911834
255	0xbe220c2f	-0.1582496

layer1.conv.bias f4 [32]
0	0x3e05300a	0.13006607
1	0x3e386e2a	0.18010774
2	0x3e1bef1d	0.15227933
3	0x3e0165ce	0.12636492
4	0xbd83c029	-0.06433136
5	0xbcc9402f	-0.024566738
6	0x3e065d22	0.13121465
7	0xbe01355d	-0.12618013
8	0xbdd48304	-0.10376552
9	0x3e2cd92f	0.16879724
10	0x3ddfd853	0.109299324
11	0x3e02798a	0.12741676
12	0x3ab594a0	0.0013853498
13	0x3dc5f379	0.09665579
14	0xbda15482	-0.07877447
15	0x3df5667d	0.11982439
16	0xbccfd0c2	-0.025368098
17	0x3e0c988c	0.13730067
18	0x3afbce6b	0.0019211298
19	0xbe0cf9da	-0.13767186
20	0x3d27184e	0.040794663
21	0x3d99d076	0.07510464
22	0x3d6c02eb	0.05761997
23	0x3d3b984c	0.04579954
24	0xbe872972	-0.26398808
25	0x3e409ddb	0.18810217
26	0x3cd1a6dc	0.02559226
27	0x3af6af1b	0.0018820496
28	0x3da85267	0.08218842
29	0xbd74e6c9	-0.059790406
30	0x3d260089	0.040527854
31	0x3d8d853d	0.06910179

layer2.conv1.weight f4 [32, 32, 3, 3]
0	0xbdd8de62	-0.10589291
1	0x3c2371d9	0.009975874
2	0xbd41b666	-0.04729309
3	0xbd941825	-0.07231168
4	0xbd36e7e5	-0.044654746
5	0x3d95d4da	0.07315989
6	0xbd35bf27	-0.04437175
7	0x3dd381ca	0.1032749
8	0xbc863fa1	-0.016387763
9	0xbd6c4c21	-0.05768979
10	0xbdfe5069	-0.12417681
11	0xbe275b6d	-0.1634347
12	0xbe0fd8b4	-0.1404751
13	0xbe0682a9	-0.1313578
14	0xbe25cf45	-0.16192348
15	0x3d9c029a	0.07617684
16	0xbe58594f	-0.21127819
17	0xbe0e4844	-0.13894755
18	0x3db6163f	0.08890962
19	0x3d99b106	0.07504468
20	0xbd2e6c57	-0.04258379
21	0x3d8bed4a	0.06832369
22	0x3d15d3fe	0.036579125
23	0xbd3baedd	-0.04582106
24	0xbdc07ef5	-0.09399215
25	0x3e104bf2	0.14091471
26	0x37692823	1.3897227e-05
27	0x3d4c40c7	0.049866464
28	0x3d655918	0.05599317
29	0xbcedeba2	-0.029043023
30	0x3d755edd	0.05990492
31	0xbc8dcefd	-0.017310614
32	0xbda36639	-0.07978482
33	0x3ccb3eda	0.024810243
34	0x3ade7a1b	0.0016973646
35	0xbd5b98f6	-0.05361267
36	0x3dec48e1	0.11537338
37	0x3d8a44f3	0.06751432
38	0x3de9cfb8	0.11416572
39	0xbd41d7d6	-0.047324978
40	0x3d8b985d	0.0681617
41	0xbb4b80fb	-0.003105222
42	0x3cb1f594	0.021723546
43	0x3c63b47c	0.013898011
44	0x3da5f198	0.08102721
45	0x3d6a3585	0.057179946
46	0x3dcc7c65	0.09984664
47	0x3d9449a5	0.07240609
48	0xbcfaeff6	-0.030632
49	0x3dda7323	0.10666492
50	0xbb42e941	-0.002974108
51	0x3dee0699	0.11622352
52	0xbbe2a431	-0.006916546
53	0x3d2afc71	0.041744653
54	0x3d11ae65	0.035566706
55	0xbcc1803b	-0.023620715
56	0x3df917af	0.121627204
57	0xbe24ebdb	-0.16105597
58	0x3c767eac	0.015044849
59	0xbe0df333	-0.13862304
60	0x3ca93109	0.020653265
61	0x3a24c9f9	0.00062862
62	0xbe858bd1	-0.26083234
63	0x3c147cc6	0.009062951
64	0xbd5c0ced	-0.053723264
65	0x3dde230c	0.108465284
66	0x3bd22cd0	0.0064140335
67	0xbd793ed4	-0.060850933
68	0x3ce00055	0.027343908
69	0x3bc064eb	0.0058714054
70	0xbd971ccc	-0.073785394
71	0x3d6cf10a	0.05784706
72	0x3d236326	0.039889477
73	0x3cb1f75a	0.021724392
74	0x3e240ce3	0.16020541
75	0x3cf3608a	0.02970912
76	0x3b9095de	0.004412397
77	0x3d4576b5	0.04820891
78	0x3d961a3b	0.07329222
79	0xbd14d86c	-0.03633921
80	0x3da3cfff	0.079986565
81	0xbd3fc4cc	-0.04681854
82	0xbd78c0b8	-0.060730666
83	0x3bcf0720	0.006317988
84	0x3c9a6110	0.018845111
85	0xbcb6647c	-0.022264712
86	0xbbbea720	-0.0058182627
87	0x3d81974f	0.06327688
88	0xbda7bb72	-0.08190049
89	0xbd43f6fa	-0.047842957
90	0xbcd982ab	-0.026551565
91	0xbcc82111	-0.02442983
92	0x3c8a12f4	0.01685474
93	0xbccbeba6	-0.02489264
94	0xbdb71aa1	-0.08940626
95	0x3d09301a	0.03349314
96	0xbd20ddc5	-0.039273996
97	0x3d7fed1a	0.062481977
98	0xbd244198	-0.040101618
99	0x3be8e788	0.007107679
100	0x3cfc7999	0.030819701
101	0xbcf3334c	-0.029687546
102	0x3c5d5ad5	0.013510426
103	0x3d0492df	0.03236663
104	0xbe14a3b7	-0.14515577
105	0x3c9ae1d9	0.01890652
106	0xbb5f7cc5	-0.0034101468
107	0xbdee0bbb	-0.11623331
108	0xbbd88968	-0.006608177
109	0x3bf14a46	0.0073635904
110	0x3dbeb7ee	0.093124256
111	0xbd1c590c	-0.03817086
112	0x3d369296	0.04457339
113	0x3d939242	0.07205631
114	0xbdf47cbf	-0.11937856
115	0xbdb7f4b2	-0.08982219
116	0xbae9dbbe	-0.0017841978
117	0x3d77cce3	0.06049813
118	0x3d7c6ab6	0.061625205
119	0x3cc65033	0.024208164
120	0x3c99327f	0.018700836
121	0x3db8a597	0.09015959
122	0x3de4b974	0.11168185
123	0xbc9914c3	-0.018686658
124	0xbd7f3c2e	-0.06231325
125	0x3ddb31e4	0.10702875
126	0x3b6e3d01	0.003635228
127	0x3df7a59c	0.12092134
128	0xbc63058e	-0.013856305
129	0xbd22fd07	-0.039792087
130	0x3d802c0d	0.06258402
131	0x3d18d993	0.03731687
132	0xbd943422	-0.07236506
133	0x3cc68f20	0.02423817
134	0x3d0fad26	0.035077237
135	0x3ccf0d48	0.025274888
136	0x3d683025	0.05668654
137	0x3defbc7b	0.11705872
138	0xbdd8d7e9	-0.105880566
139	0xbcf3e2a7	-0.029771162
140	0x3d12484d	0.035713483
141	0xbd4764b4	-0.048680022
142	0xbc66e0c2	-0.014091672
143	0x3cf15e42	0.029463891
144	0xbdccd7a2	-0.10002066
145	0x3d677f0b	0.056517642
146	0xbd188608	-0.037237197
147	0x3d380e43	0.044935476
148	0x3e166ca5	0.14689882
149	0xbc804f1c	-0.015662722
150	0xbd890426	-0.066902444
151	0x3dca0c50	0.0986563
152	0x3da20176	0.07910435
153	0x3de4789e	0.111558184
154	0x3dc16112	0.09442343
155	0x3cc33104	0.023827083
156	0x3e355736	0.1770905
157	0xbdac3770	-0.08409011
158	0x3d09bcd2	0.03362734
159	0x3deeeb64	0.11665991
160	0x3d66517a	0.056230046
161	0xbcfdc41e	-0.030977305
162	0x3c2c26aa	0.010507265
163	0xbdab78b8	-0.08372635
164	0x3df131af	0.117770545
165	0xbd69325e	-0.0569328
166	0xbbbbd026	-0.0057316003
167	0x3db4474c	0.08802661
168	0x3bac4b3f	0.0052579935
169	0x3c7785de	0.0151076
170	0xbd6b459c	-0.05743943
171	0xbb161a6c	-0.0022903932
172	0xbc8d9677	-0.017283661
173	0x3cea7de2	0.028624479
174	0xbbaad70a	-0.005213623
175	0xbd3ac1f8	-0.04559514
176	0xbe20108a	-0.15631309
177	0xba26ab46	-0.0006357919
178	0xbd9f6c2c	-0.07784304
179	0xbc762f7e	-0.015025971
180	0x3c14aa3e	0.009073792
181	0x3cc072ac	0.02349218
182	0x3d069685	0.03285839
183	0xbc538fd7	-0.012912712
184	0x3c121f5a	0.008918608
185	0x3d1a843d	0.03772377
186	0xbdc449b2	-0.09584369
187	0x3c628ee4	0.013828013
188	0x3e10198b	0.14072244
189	0xbc9841f0	-0.018586129
190	0xbd877d39	-0.06615681
191	0x3b597910	0.003318373
192	0xbe4519be	-0.19248101
193	0xbc6ad184	-0.014332179
194	0xbdc98887	-0.09840494
195	0xbe552b57	-0.20817314
196	0x3d4d3cfb	0.050106984
197	0xbe522e68	-0.20525515
198	0xbbe947b0	-0.0071191415
199	0xbe0212bd	-0.1270246
200	0x3d2c3b2b	0.042048614
201	0xbdf7d430	-0.121010184
202	0xbd953676	-0.07285778
203	0xbdf6cba4	-0.1205056
204	0xbd847b8d	-0.06468878
205	0xbdca72a7	-0.098851494
206	0x3d4ddc49	0.05025891
207	0xbca1e43c	-0.019762151
208	0xbc961bc6	-0.01832379
209	0x3da59529	0.08085091
210	0xbca3b03c	-0.019981496
211	0xbbb5382e	-0.005530379
212	0x3e08e1b3	0.13367347
213	0x3c37a014	0.011207599
214	0x3cb9d4f6	0.022684556
215	0xbd04be8f	-0.032408293
216	0xbd69b5fa	-0.057058312
217	0xbd87398c	-0.06602773
218	0xbd9737a6	-0.07383661
219	0x3d4bd964	0.049767867
220	0xbce2c37c	-0.027681105
221	0xbdd5785b	-0.104233466
222	0x3d8c6a7c	0.06856248
223	0xbdc22930	-0.09480512
224	0xbe7630e1	-0.24042083
225	0xbe3a8e7f	-0.1821842
226	0xbcfc0a4c	-0.030766629
227	0xbe1e362f	-0.15450357
228	0xbc258a45	-0.010103767
229	0x3d51ce94	0.0512224
230	0xbab21490	-0.001358645
231	0x3e1f6282	0.15564921
232	0xbe05f75c	-0.13082641
233	0xbe431b42	-0.19053367
234	0xbdeccb95	-0.11562268
235	0xbb93ea4d	-0.004514015
236	0xbb211cc0	-0.0024583787
237	0xbbe7a741	-0.0070694988
238	0xbda09d3a	-0.078424886
239	0x3b5eb03a	0.003397955
240	0x3e15870e	0.146023
241	0xbdea6ea5	-0.11446885
242	0xbc03980c	-0.008031856
243	0x3e5715ca	0.21004406
244	0x3bde26a9	0.006779511
245	0x3db3a67c	0.08771989
246	0x3db70b6d	0.08937726
247	0xbd45769e	-0.048208825
248	0x3bf702c0	0.0075381696
249	0x3beedc04	0.0072894115
250	0x3bd520c9	0.0065041524
251	0x3d12e09b	0.03585873
252	0x3d5de200	0.05417061
253	0x3db6a61e	0.08918403
254	0xbd0279cc	-0.031854436
255	0x3df42ae7	0.119222455

layer2.conv1.bias f4 [32]
0	0xbbe594b4	-0.007006252
1	0x3d0bcbc0	0.034129858
2	0xbcde0387	-0.027101291
3	0xbcf1480f	-0.029453306
4	0xbcc92797	-0.02455501
5	0xbd7a8da4	-0.061170235
6	0x3c4aeeca	0.012386033
7	0xbc0c6055	-0.008567889
8	0x3c1bd5df	0.00951144
9	0xbd59a24c	-0.053133294
10	0x3d103f5c	0.035216674
11	0xbc911a22	-0.017712656
12	0xbc8e7990	-0.01739195
13	0x3c40ddb5	0.011771609
14	0xbb37c8e5	-0.0028043326
15	0x3d808a0a	0.06276329
16	0x3bab4476	0.005226667
17	0xbd37ef64	-0.044906035
18	0x3ca3ca83	0.019994026
19	0xbc182a97	-0.009287498
20	0xbcf6ae3e	-0.030112382
21	0xb9bd96ba	-0.0003616119
22	0x3d2faf65	0.04289188
23	0xbd2b3230	-0.04179591
24	0xbd2f2300	-0.042757988
25	0xbd0ce847	-0.034401204
26	0x3cb0efec	0.021598779
27	0x3d17da82	0.03707362
28	0x3d6bb0eb	0.05754177
29	0x3ae2c939	0.0017302401
30	0x3d89eb73	0.067343615
31	0x3cba30c8	0.022728339

layer2.conv2.weight f4 [64, 32, 3, 3]
0	0x3c465b52	0.012106733
1	0xbcfe6f62	-0.03105897
2	0x3d582c92	0.05277688
3	0x3d8d05ca	0.0688587
4	0x3d99021d	0.07471106
5	0xbdad05fb	-0.08448406
6	0x3d190496	0.03735789
7	0x3d7d7e5a	0.061888076
8	0x3c5f240e	0.013619436
9	0x3cfa0798	0.0305212
10	0xbcf02ce0	-0.029318273
11	0x3c393807	0.011304862
12	0xbda4c7de	-0.08045934
13	0xbd87b65d	-0.0662658
14	0xbd3a5645	-0.04549243
15	0x3c16e12b	0.009208958
16	0x3da91ada	0.08257075
17	0xbd97cf68	-0.074126065
18	0x3d04914e	0.032365136
19	0xbc4477df	-0.01199147
20	0xbb06fe3f	-0.002059832
21	0x3bdf59ac	0.0068161096
22	0xbcc0b7cb	-0.02352514
23	0xbc9bf5a9	-0.019038038
24	0x3985d12f	0.0002552359
25	0xbb794ca8	-0.0038040075
26	0x3dd5a593	0.104319714
27	0xbaf42994	-0.0018628114
28	0xbc814c88	-0.015783563
29	0xbd9e7af6	-0.07738297
30	0x3d3208c4	0.04346539
31	0xbc5c0a42	-0.01343018
32	0xbcc8a620	-0.024493277
33	0xbb8f8357	-0.0043796706
34	0xbacd8a81	-0.0015681536
35	0xbd762275	-0.060091455
36	0xbcbf31b2	-0.023339126
37	0x3c30a07c	0.01078045
38	0xbc47ac40	-0.012187064
39	0xbd01e080	-0.03170824
40	0x3d039d58	0.032132477
41	0xbd3d50f0	-0.046219766
42	0xbd055865	-0.032555003
43	0xbdbac8e5	-0.09120349
44	0x3a9e4564	0.0012075123
45	0x3c9592b7	0.018258436
46	0x3c803566	0.015650462
47	0x3b877b21	0.004134551
48	0xbcacf454	-0.021112598
49	0x3ba992a8	0.0051749535
50	0xbd80307b	-0.06259247
51	0xbc11b0a8	-0.008892216
52	0xbd0e54ba	-0.03474877
53	0x38af937c	8.3721214e-05
54	0xbc4547e3	-0.012041065
55	0xbcd8f6c3	-0.026484853
56	0x3d29f961	0.041497592
57	0xbc823ba3	-0.015897578
58	0xbc36e5f4	-0.011163224
59	0x3c48daa0	0.0122591555
60	0x3d85812b	0.065187775
61	0x3da96147	0.08270507
62	0x3d0855e6	0.033285044
63	0x3c0a73d8	0.008450471
64	0x3c5864e3	0.013207647
65	0xbc869485	-0.016428242
66	0x3b9f4c5b	0.004861397
67	0xbc5c92cb	-0.013462733
68	0xbc068365	-0.008210038
69	0x3d37f2b7	0.044909205
70	0x3cbcf24d	0.023064757
71	0xbd060c9d	-0.032726873
72	0xbbc4cc7a	-0.006005821
73	0xbc53199e	-0.012884526
74	0x3d2339b2	0.039849944
75	0x3c5fc954	0.01365884
76	0xbcd92b2d	-0.026509846
77	0xbbfeacbe	-0.0077720573
78	0xbbcb3aa1	-0.0062020575
79	0x3c5a6782	0.013330342
80	0xbad85548	-0.0016504908
81	0xbca1cb73	-0.019750332
82	0xbcd01926	-0.025402617
83	0xbd59b4a4	-0.053150788
84	0x3c2dc457	0.010605893
85	0xbd9696c9	-0.07352979
86	0xbd465231	-0.048418228
87	0x3d92c506	0.071664855
88	0xbda5cb7e	-0.08095454
89	0xbd1c94ef	-0.03822797
90	0xbc23db83	-0.010001066
91	0x3c49362d	0.012280983
92	0x3a259d9f	0.0006317738
93	0xbca716d7	-0.020396633
94	0x3ca96046	0.02067579
95	0xbd337e95	-0.04382189
96	0x3cd1a1b5	0.025589803
97	0x3d109f4d	0.03530817
98	0x3d3b65e6	0.045751475
99	0xbca4f706	-0.020137321
100	0xbd4598da	-0.048241474
101	0xbc3cb288	-0.011517175
102	0xbd14a6aa	-0.036291756
103	0x3bee2adb	0.0072682924
104	0xbce5558d	-0.027994895
105	0xbc7928b9	-0.015207463
106	0xbd85d915	-0.06535546
107	0xbe0462e1	-0.12928344
108	0x3d46700c	0.0484467
109	0x3d1d482d	0.03839891
110	0xbcf2d765	-0.029643724
111	0x3cc69001	0.024238588
112	0x3e013216	0.12616763
113	0x3d1f7299	0.03892765
114	0xbd8b1dd5	-0.067927994
115	0x3c944d2b	0.018103203
116	0xbc20c630	-0.009812877
117	0xbd86d052	-0.06582703
118	0xbd2b4c20	-0.041820645
119	0x3d066435	0.03281041
120	0xbd687802	-0.056755073
121	0xbd9996d6	-0.07499473
122	0xbd6a7f0a	-0.05725006
123	0xbdbecddc	-0.09316608
124	0xbd0c1617	-0.034200754
125	0xbdb3a5a3	-0.08771827
126	0x3a6bae53	0.0008990515
127	0x3a5286b6	0.0008030938
128	0x3a6aba1a	0.0008954123
129	0x3ad1d73a	0.0016009577
130	0x3ab546b7	0.0013830279
131	0x3a8f519e	0.0010934358
132	0x3adc1e08	0.0016793618
133	0x3afce862	0.001929533
134	0x3a7b2043	0.00095796975
135	0x3c4ecac6	0.012621587
136	0x3cb2a792	0.02180842
137	0x3b2c2bc7	0.002627121
138	0x3d2f3cce	0.042782597
139	0x3ca9a44c	0.020708226
140	0x3d0e5936	0.034753047
141	0x3c1f55b6	0.009725025
142	0x3d5c023a	0.05371306
143	0x3cd5cb56	0.026097935
144	0xba9ee8ad	-0.0012123786
145	0xbcc3181c	-0.023815207
146	0x3d0c0b6b	0.034190577
147	0x3a275ab9	0.0006384063
148	0x3d164571	0.03668732
149	0x3c19bbff	0.009383201
150	0xba8b51b3	-0.0010629207
151	0xbc600a49	-0.013674327
152	0x3d4d54c6	0.050129674
153	0x3cc4ca3c	0.024022214
154	0x3d8c7ad3	0.06859364
155	0xbd36031a	-0.04443655
156	0x3d0f03cd	0.034915734
157	0x3dbe6216	0.09296052
158	0xbdb31004	-0.08743289
159	0xbdd81b93	-0.10552134
160	0x3d8a5d41	0.06756068
161	0xbc1523b4	-0.009102751
162	0xbd2b383d	-0.04180168
163	0xba9b22f9	-0.0011835984
164	0x3d19a8e9	0.0375146
165	0xbcc81307	-0.024423135
166	0x3c2986cf	0.010347082
167	0x3c4fa1ad	0.012672824
168	0xbd353021	-0.044235352
169	0xbcd938b6	-0.0265163
170	0x3b93fdd5	0.004516343
171	0xbca096cf	-0.019603161
172	0xbc4cc78d	-0.0124987485
173	0xbca23090	-0.019798547
174	0x3cd96698	0.026538178
175	0xbc8ac1c0	-0.01693809
176	0xbd6fa8a0	-0.058510423
177	0x3de0e1c0	0.109805584
178	0xbd42c1a4	-0.04754795
179	0xbca4ea50	-0.02013126
180	0x3d9c22de	0.07623838
181	0x3ae7d899	0.0017688452
182	0xbdc4aee9	-0.09603674
183	0x3bc30651	0.0059516807
184	0x3c18820e	0.009308351
185	0x3d5d99d3	0.054101776
186	0x3c3fb31c	0.011700418
187	0xbcf48a67	-0.029851152
188	0x3ab54b25	0.0013831599
189	0xb7ca3fd4	-2.4109999e-05
190	0xb622ff60	-2.428853e-06
191	0xb2854e27	-1.5518777e-08
192	0xb961bf78	-0.00021529
193	0xb8992007	-7.301574e-05
194	0xb5a83449	-1.2532192e-06
195	0xb9ed8e02	-0.00045309967
196	0xb95fd12d	-0.00021344861
197	0xb70d745e	-8.431349e-06
198	0x3d074905	0.03302862
199	0xbd81f6bc	-0.06345889
200	0x3d6b8085	0.057495613
201	0x3cdfa2ff	0.027299402
202	0xbb8025dd	-0.0039107637
203	0x3c9778b5	0.018490175
204	0xbcacb26e	-0.021081176
205	0xbd9c5cdd	-0.076349
206	0xbc477dd7	-0.012175999
207	0xbd3e2c7e	-0.04642915
208	0x3ba018ec	0.0048857834
209	0x3d6a8abb	0.05726121
210	0x3dafe605	0.085887946
211	0x3c852f88	0.016258016
212	0x3c0b744c	0.008511614
213	0x3cfd8cfc	0.030951016
214	0x3ce1aa4d	0.027547026
215	0x3dff2d95	0.12459866
216	0x3cfcf55e	0.030878719
217	0xbd5ff593	-0.054677557
218	0xbba43c1d	-0.005012049
219	0xbd6ec14a	-0.058289804
220	0x3c8623f0	0.016374558
221	0xbd5ca9a9	-0.053872738
222	0xbc895909	-0.016766088
223	0x3c029e6d	0.007972342
224	0xbd0cf78d	-0.03441577
225	0xbb9c642b	-0.004772683
226	0x3ad2c6cc	0.0016080975
227	0x36c5de35	5.896926e-06
228	0x3ce7e345	0.028306613
229	0xbce69630	-0.028147787
230	0x3982fd54	0.00024984276
231	0x3d1e91b8	0.038713187
232	0xbcda75da	-0.026667524
233	0xb99b1d70	-0.00029585836
234	0xbc3b3378	-0.011425845
235	0xbc8b428f	-0.016999511
236	0xbd670dba	-0.056409575
237	0x3b893205	0.004186871
238	0xbc000e50	-0.007815912
239	0xbdad3e50	-0.08459151
240	0x3b1aa1eb	0.0023595046
241	0xbcf9e397	-0.030504031
242	0xbdbb33da	-0.09140749
243	0xbd697566	-0.056996725
244	0x3cd5b199	0.026085662
245	0xbc1f4cbf	-0.009722888
246	0xbc1acf90	-0.009448901
247	0x3d302a2d	0.043008972
248	0xbc002ede	-0.007823674
249	0xbca0bcd5	-0.019621292
250	0x3bb84500	0.00562346
251	0x3ccad1ad	0.024758184
252	0xbd897879	-0.067124315
253	0x3c3e7019	0.011623406
254	0xbb952c7f	-0.0045524235
255	0xbd064828	-0.032783657

layer2.conv2.bias f4 [64]
0	0xbc231b4d	-0.0099552395
1	0xbd30e57b	-0.0431876
2	0xbc9ccbd1	-0.019140156
3	0xbd4183a8	-0.047244698
4	0xbd861cec	-0.06548485
5	0xbcac66a0	-0.02104503
6	0xbc905a3c	-0.017621152
7	0x3bf27b98	0.0073999874
8	0x3d70e74b	0.05881433
9	0xbcccb5c4	-0.024989016
10	0x3d3058ed	0.043053556
11	0x383ac9c4	4.4533765e-05
12	0x3ceeb04e	0.029136803
13	0x3c0cadd2	0.008586364
14	0x3d8dcdfe	0.069240555
15	0xbd088090	-0.03332573
16	0x3bc7f6ec	0.0061024334
17	0xbd823154	-0.06357065
18	0xbc7b3930	-0.015333459
19	0x3d11a6e8	0.035559565
20	0xbbcb9cfe	-0.0062137833
21	0xbb640043	-0.0034790195
22	0xbd3aa165	-0.045564074
23	0xbd3f5def	-0.04672044
24	0x3c71b4b1	0.014752553
25	0x3b9a4e0a	0.00470901
26	0x3a9696b0	0.0011489
27	0x3cf07b93	0.0293558
28	0xbce76b71	-0.028249474
29	0x3d3e4f40	0.046462297
30	0x3cdd74b5	0.02703319
31	0x3c5f2af6	0.0136210825
32	0x3c65d3db	0.014027561
33	0x3ce02e9b	0.027365973
34	0xbbc34093	-0.0059586256
35	0x3ce3c08a	0.02780177
36	0x3c74d892	0.0149442125
37	0x3d025f9d	0.031829465
38	0xbd396df4	-0.045270875
39	0x3d537e89	0.051634345
40	0x3c83b64b	0.016078135
41	0x3c944a39	0.018101798
42	0xbd78104c	-0.060562417
43	0xbcbb9367	-0.022897435
44	0x3d20e2f6	0.039278947
45	0x3c492b98	0.01227846
46	0x3d33f4d0	0.043934643
47	0x3ceaa52c	0.028643213
48	0xbca27567	-0.019831372
49	0x3d006cde	0.031353824
50	0x3c921cf1	0.017836066
51	0x3c768115	0.015045424
52	0x3cdc7a12	0.026913676
53	0xbd19e5f9	-0.037572835
54	0xbd0fa85f	-0.03507268
55	0x3c45beca	0.012069413
56	0x3d1a4b0c	0.037669227
57	0x3d1b6ce6	0.03794565
58	0x3d466333	0.048434447
59	0x3d0160de	0.03158652
60	0x3d50544f	0.050861653
61	0x3bbb2b14	0.0057119224
62	0xbd1738c6	-0.036919378
63	0xbcc615cb	-0.024180314

fc1.weight f4 [1, 3200]
0	0x80013a8d	-1.1284e-40
1	0x000297f1	2.38177e-40
2	0x0001c4b9	1.62406e-40
3	0xbe04f03c	-0.12982267
4	0x3ea930ee	0.33045143
5	0x3c3c7459	0.011502349
6	0x80023c5d	-2.05325e-40
7	0x00002206	1.2205e-41
8	0xbd9b36be	-0.075788006
9	0xbd0d1dd3	-0.03445227
10	0x8000bc43	-6.7536e-41
11	0x80022315	-1.96256e-40
12	0x80008e4d	-5.1048e-41
13	0x8000d64a	-7.6872e-41
14	0x800017ed	-8.583e-42
15	0x8001519b	-1.2111e-40
16	0x00019916	1.46752e-40
17	0x8001c1d2	-1.61365e-40
18	0x80000f0f	-5.402e-42
19	0xbe2e5e20	-0.17028093
20	0x80019dec	-1.48487e-40
21	0x00015710	1.23068e-40
22	0xbc4235e7	-0.011853672
23	0xbc032a5e	-0.008005707
24	0x3d53f5b0	0.051747978
25	0x80019b95	-1.47648e-40
26	0x0000ad2d	6.2124e-41
27	0xb70042f3	-7.644982e-06
28	0xbb4541d6	-0.0030099056
29	0x3d79f030	0.061020076
30	0x000087c0	4.8698e-41
31	0x00019d0e	1.48176e-40
32	0x3b89daaa	0.004206975
33	0xbd4161e5	-0.0472125
34	0xbe63e0b7	-0.2225369
35	0x80027a14	-2.27464e-40
36	0x8002204f	-1.95261e-40
37	0x3c9e19bd	0.019299382
38	0xbbbf7821	-0.005843178
39	0x3c9774da	0.018488336
40	0x000076af	4.2576e-41
41	0x00004f4b	2.8445e-41
42	0x3d335559	0.043782566
43	0x3cc2940d	0.023752237
44	0x3d97b410	0.07407391
45	0xbdfb9f9c	-0.122863024
46	0x00013047	1.09154e-40
47	0x3c01c809	0.007921227
48	0x3d085983	0.03328849
49	0x3c40f679	0.011777514
50	0x3cd30a53	0.025761759
51	0xbc2acc88	-0.010424741
52	0xb9954b78	-0.00028475723
53	0x3d131597	0.03590926
54	0x3ca09c97	0.019605918
55	0x3cb5ab68	0.02217646
56	0x3d7b769c	0.06139241
57	0x38cef0d9	9.867707e-05
58	0xbd4adaa6	-0.049524926
59	0xbbc4e0c3	-0.006008239
60	0x3ceed1ed	0.029152835
61	0x3d5dc962	0.05414713
62	0x3b2c49c5	0.0026289087
63	0x3d90680a	0.07051094
64	0xbd4f1c99	-0.050564382
65	0xbb266e15	-0.0025395204
66	0xbc8442f9	-0.016145216
67	0x3aa742bb	0.0012760976
68	0x3d891e2a	0.066952065
69	0x3d106e83	0.035261642
70	0x3d0592ac	0.03261058
71	0x3b4a5b38	0.0030877125
72	0x3d9bae0d	0.07601557
73	0xbd921579	-0.07133002
74	0x3c6ecaed	0.014574748
75	0xbdda485a	-0.10658331
76	0xbe536588	-0.206442
77	0xbcf63879	-0.030056225
78	0xbcf9c809	-0.030490892
79	0x3b831c87	0.0040012035
80	0x3c9c1f63	0.019057935
81	0x80028fc2	-2.35242e-40
82	0xbd30f3cc	-0.043201253
83	0xbd72427d	-0.05914544
84	0xbcc04056	-0.023468178
85	0x3e2f2c4a	0.17106739
86	0x0002c510	2.54364e-40
87	0x392bc4df	0.00016381171
88	0xbcfbe936	-0.030750852
89	0x3d07b847	0.033134725
90	0x3bb91f52	0.0056494856
91	0x3cce7504	0.025202282
92	0xbd109ada	-0.035303928
93	0x3d7841ea	0.060609736
94	0xba21a9c7	-0.00061669614
95	0x3dc2cbe1	0.09511543
96	0xbe8dcab4	-0.27693713
97	0xbd263875	-0.040581185
98	0xbd258d98	-0.040418237
99	0x3cb169c3	0.021656876
100	0x8000fb86	-9.023e-41
101	0x80009714	-5.4197e-41
102	0x80013a87	-1.12831e-40
103	0x80001aaf	-9.572e-42
104	0x0001ef9f	1.77795e-40
105	0x000125ca	1.05392e-40
106	0x0000c915	7.2135e-41
107	0x00017a6b	1.35751e-40
108	0x80013f9a	-1.14651e-40
109	0xbd0d9dd7	-0.034574356
110	0x80017f38	-1.37473e-40
111	0xbcbfbd4c	-0.023405693
112	0x3bf25afd	0.0073961006
113	0xbc29a069	-0.010353186
114	0x8000c593	-7.0876e-41
115	0x000083fa	4.7344e-41
116	0x3e7091f8	0.23493183
117	0x3c453f92	0.012039082
118	0xbe097ac3	-0.13425736
119	0x0000d9c1	7.8115e-41
120	0x3cfc43a7	0.030793978
121	0xbca1fdae	-0.019774284
122	0x3d009120	0.031388402
123	0x3dbb4f9d	0.091460444
124	0x0000741f	4.1656e-41
125	0xbe5f8142	-0.21826652
126	0x3bff8c16	0.007798682
127	0xbc1d8873	-0.009615052
128	0xbd5ef9b3	-0.05443735
129	0x80003413	-1.8681e-41
130	0x3d24648f	0.040134963
131	0x3c74b978	0.014936797
132	0x3b1699db	0.0022979889
133	0x8002b981	-2.50217e-40
134	0x00026f14	2.23518e-40
135	0x3dd71e8b	0.105038725
136	0xbd802e52	-0.06258835
137	0xbd730ff9	-0.059341405
138	0x800012bc	-6.72e-42
139	0x00000b6a	4.095e-42
140	0xbba8df36	-0.005153562
141	0x3cf1563b	0.029460063
142	0xbd9ca83f	-0.07649278
143	0xbdd87cff	-0.10570716
144	0x3f0f5285	0.5598529
145	0x3c38e151	0.011284188
146	0x3d534304	0.051577583
147	0xbd105cde	-0.035244815
148	0xbc517297	-0.012783668
149	0xbe2c448e	-0.16823027
150	0xbd315dc9	-0.04330233
151	0x3a14840d	0.0005665429
152	0xbbaf1b35	-0.0053438195
153	0x3d1a9fa3	0.037749898
154	0xbdfc9d80	-0.12334728
155	0x3db22829	0.08699066
156	0xbc286390	-0.010277644
157	0xbbb5addc	-0.0055444073
158	0xbc0f4f3d	-0.008746919
159	0x3d6814e8	0.056660563
160	0x3d4cc30f	0.04999071
161	0x3cb99368	0.022653297
162	0x3d04b3cb	0.032398026
163	0xbac9b3ec	-0.0015388704
164	0x3e3d0453	0.18458681
165	0xbc976f8f	-0.018485812
166	0x3c3c0c36	0.011477521
167	0x3e044226	0.12915859
168	0xbdbad6bd	-0.09122989
169	0x8001e3a2	-1.73495e-40
170	0x3d67b440	0.056568384
171	0x3ddf1a35	0.108936705
172	0x800251ff	-2.13086e-40
173	0x3da7cc9c	0.08193323
174	0x3b45490a	0.003010335
175	0x3d796a9b	0.060892683
176	0x3eb4c77d	0.35308447
177	0x3a1cc136	0.00059797184
178	0xbd5048b0	-0.05085057
179	0xbd13d78a	-0.036094226
180	0x3d445073	0.047928285
181	0xbd83da55	-0.06438128
182	0x80028f12	-2.34995e-40
183	0x3c51edd0	0.012813047
184	0x3d24186c	0.040062353
185	0xbde2e930	-0.11079633
186	0xbd86029e	-0.06543468
187	0x00017aec	1.35932e-40
188	0xbdd12305	-0.102117576
189	0x3cbe9de3	0.023268646
190	0xbcd39bcc	-0.025831126
191	0xbd09cd4c	-0.033643052
192	0x3cd17821	0.025569977
193	0xbbbc5a9c	-0.005748106
194	0x3e610dd1	0.21977927
195	0xbc93d654	-0.018046536
196	0x3d36ab7f	0.044597145
197	0x3cb8060b	0.022463819
198	0xbd55dd13	-0.052212786
199	0xbdb20f8d	-0.08694372
200	0x3dc39eca	0.09551771
201	0x3b175a60	0.002309464
202	0x80020636	-1.85899e-40
203	0x00029cf2	2.39972e-40
204	0xbea1bd0f	-0.31589553
205	0xbcab5d93	-0.020918643
206	0xbe432829	-0.19058289
207	0x80014fb5	-1.20429e-40
208	0x00020ef9	1.89042e-40
209	0xbbedd02d	-0.0072574825
210	0xbc91f67d	-0.01781773
211	0xbd0a17c1	-0.03371406
212	0x00007eef	4.5535e-41
213	0x80017233	-1.32802e-40
214	0x3e56f230	0.20990825
215	0xbd51145c	-0.051044807
216	0xbe090b76	-0.13383278
217	0x8001a2e8	-1.50275e-40
218	0x00025bcf	2.16606e-40
219	0xbd4390a1	-0.04774535
220	0x800021b0	-1.2085e-41
221	0x8001fd38	-1.82673e-40
222	0x8001d72d	-1.69026e-40
223	0x00015ed5	1.25855e-40
224	0x3d8c8653	0.06861558
225	0x3e675a04	0.22592932
226	0x3e95bcef	0.29245707
227	0x800194d0	-1.4522e-40
228	0x0000e617	8.254e-41
229	0x3d29d6d1	0.04146463
230	0x3d5abf17	0.053404894
231	0x3cc05f70	0.023483008
232	0x3cb84c9a	0.022497464
233	0x3c37ca66	0.011217689
234	0x3d90adeb	0.07064422
235	0x3c984a00	0.018589973
236	0x3deef389	0.116675444
237	0xbcf85f29	-0.030318813
238	0x3c972bf3	0.018453574
239	0xbcce4df8	-0.025183663
240	0xbd6a1330	-0.057147205
241	0x3b30a263	0.0026952259
242	0xbcb8c0e7	-0.02255292
243	0xbdb131a5	-0.08652047
244	0xbc7047f7	-0.014665595
245	0x3e2f002d	0.17089911
246	0x3a83c667	0.0010053635
247	0xbc7a2569	-0.015267708
248	0x3d2f7627	0.04283729
249	0x3d47e4fd	0.048802365
250	0xbb80a555	-0.003925959
251	0xbd24dcc9	-0.04024962
252	0x3b2e1857	0.00265648
253	0x3c1288df	0.008943765
254	0x3bb793a3	0.0056023165
255	0x3cf0042d	0.029298866

out.0.weight f4 [1, 3200]
0	0x80013a8d	-1.1284e-40
1	0x000297f1	2.38177e-40
2	0x0001c4b9	1.62406e-40
3	0xbe04f03c	-0.12982267
4	0x3ea930ee	0.33045143
5	0x3c3c7459	0.011502349
6	0x80023c5d	-2.05325e-40
7	0x00002206	1.2205e-41
8	0xbd9b36be	-0.075788006
9	0xbd0d1dd3	-0.03445227
10	0x8000bc43	-6.7536e-41
11	0x80022315	-1.96256e-40
12	0x80008e4d	-5.1048e-41
13	0x8000d64a	-7.6872e-41
14	0x800017ed	-8.583e-42
15	0x8001519b	-1.2111e-40
16	0x00019916	1.46752e-40
17	0x8001c1d2	-1.61365e-40
18	0x80000f0f	-5.402e-42
19	0xbe2e5e20	-0.17028093
20	0x80019dec	-1.48487e-40
21	0x00015710	1.23068e-40
22	0xbc4235e7	-0.011853672
23	0xbc032a5e	-0.008005707
24	0x3d53f5b0	0.051747978
25	0x80019b95	-1.47648e-40
26	0x0000ad2d	6.2124e-41
27	0xb70042f3	-7.644982e-06
28	0xbb4541d6	-0.0030099056
29	0x3d79f030	0.061020076
30	0x000087c0	4.8698e-41
31	0x00019d0e	1.48176e-40
32	0x3b89daaa	0.004206975
33	0xbd4161e5	-0.0472125
34	0xbe63e0b7	-0.2225369
35	0x80027a14	-2.27464e-40
36	0x8002204f	-1.95261e-40
37	0x3c9e19bd	0.019299382
38	0xbbbf7821	-0.005843178
39	0x3c9774da	0.018488336
40	0x000076af	4.2576e-41
41	0x00004f4b	2.8445e-41
42	0x3d335559	0.043782566
43	0x3cc2940d	0.023752237
44	0x3d97b410	0.07407391
45	0xbdfb9f9c	-0.122863024
46	0x00013047	1.09154e-40
47	0x3c01c809	0.007921227
48	0x3d085983	0.03328849
49	0x3c40f679	0.011777514
50	0x3cd30a53	0.025761759
51	0xbc2acc88	-0.010424741
52	0xb9954b78	-0.00028475723
53	0x3d131597	0.03590926
54	0x3ca09c97	0.019605918
55	0x3cb5ab68	0.02217646
56	0x3d7b769c	0.06139241
57	0x38cef0d9	9.867707e-05
58	0xbd4adaa6	-0.049524926
59	0xbbc4e0c3	-0.006008239
60	0x3ceed1ed	0.029152835
61	0x3d5dc962	0.05414713
62	0x3b2c49c5	0.0026289087
63	0x3d90680a	0.07051094
64	0xbd4f1c99	-0.050564382
65	0xbb266e15	-0.0025395204
66	0xbc8442f9	-0.016145216
67	0x3aa742bb	0.0012760976
68	0x3d891e2a	0.066952065
69	0x3d106e83	0.035261642
70	0x3d0592ac	0.03261058
71	0x3b4a5b38	0.0030877125
72	0x3d9bae0d	0.07601557
73	0xbd921579	-0.07133002
74	0x3c6ecaed	0.014574748
75	0xbdda485a	-0.10658331
76	0xbe536588	-0.206442
77	0xbcf63879	-0.030056225
78	0xbcf9c809	-0.030490892
79	0x3b831c87	0.0040012035
80	0x3c9c1f63	0.019057935
81	0x80028fc2	-2.35242e-40
82	0xbd30f3cc	-0.043201253
83	0xbd72427d	-0.05914544
84	0xbcc04056	-0.023468178
85	0x3e2f2c4a	0.17106739
86	0x0002c510	2.54364e-40
87	0x392bc4df	0.00016381171
88	0xbcfbe936	-0.030750852
89	0x3d07b847	0.033134725
90	0x3bb91f52	0.0056494856
91	0x3cce7504	0.025202282
92	0xbd109ada	-0.035303928
93	0x3d7841ea	0.060609736
94	0xba21a9c7	-0.00061669614
95	0x3dc2cbe1	0.09511543
96	0xbe8dcab4	-0.27693713
97	0xbd263875	-0.040581185
98	0xbd258d98	-0.040418237
99	0x3cb169c3	0.021656876
100	0x8000fb86	-9.023e-41
101	0x80009714	-5.4197e-41
102	0x80013a87	-1.12831e-40
103	0x80001aaf	-9.572e-42
104	0x0001ef9f	1.77795e-40
105	0x000125ca	1.05392e-40
106	0x0000c915	7.2135e-41
107	0x00017a6b	1.35751e-40
108	0x80013f9a	-1.14651e-40
109	0xbd0d9dd7	-0.034574356
110	0x80017f38	-1.37473e-40
111	0xbcbfbd4c	-0.023405693
112	0x3bf25afd	0.0073961006
113	0xbc29a069	-0.010353186
114	0x8000c593	-7.0876e-41
115	0x000083fa	4.7344e-41
116	0x3e7091f8	0.23493183
117	0x3c453f92	0.012039082
118	0xbe097ac3	-0.13425736
119	0x0000d9c1	7.8115e-41
120	0x3cfc43a7	0.030793978
121	0xbca1fdae	-0.019774284
122	0x3d009120	0.031388402
123	0x3dbb4f9d	0.091460444
124	0x0000741f	4.1656e-41
125	0xbe5f8142	-0.21826652
126	0x3bff8c16	0.007798682
127	0xbc1d8873	-0.009615052
128	0xbd5ef9b3	-0.05443735
129	0x80003413	-1.8681e-41
130	0x3d24648f	0.040134963
131	0x3c74b978	0.014936797
132	0x3b1699db	0.0022979889
133	0x8002b981	-2.50217e-40
134	0x00026f14	2.23518e-40
135	0x3dd71e8b	0.105038725
136	0xbd802e52	-0.06258835
137	0xbd730ff9	-0.059341405
138	0x800012bc	-6.72e-42
139	0x00000b6a	4.095e-42
140	0xbba8df36	-0.005153562
141	0x3cf1563b	0.029460063
142	0xbd9ca83f	-0.07649278
143	0xbdd87cff	-0.10570716
144	0x3f0f5285	0.5598529
145	0x3c38e151	0.011284188
146	0x3d534304	0.051577583
147	0xbd105cde	-0.035244815
148	0xbc517297	-0.012783668
149	0xbe2c448e	-0.16823027
150	0xbd315dc9	-0.04330233
151	0x3a14840d	0.0005665429
152	0xbbaf1b35	-0.0053438195
153	0x3d1a9fa3	0.037749898
154	0xbdfc9d80	-0.12334728
155	0x3db22829	0.08699066
156	0xbc286390	-0.010277644
157	0xbbb5addc	-0.0055444073
158	0xbc0f4f3d	-0.008746919
159	0x3d6814e8	0.056660563
160	0x3d4cc30f	0.04999071
161	0x3cb99368	0.022653297
162	0x3d04b3cb	0.032398026
163	0xbac9b3ec	-0.0015388704
164	0x3e3d0453	0.18458681
165	0xbc976f8f	-0.018485812
166	0x3c3c0c36	0.011477521
167	0x3e044226	0.12915859
168	0xbdbad6bd	-0.09122989
169	0x8001e3a2	-1.73495e-40
170	0x3d67b440	0.056568384
171	0x3ddf1a35	0.108936705
172	0x800251ff	-2.13086e-40
173	0x3da7cc9c	0.08193323
174	0x3b45490a	0.003010335
175	0x3d796a9b	0.060892683
176	0x3eb4c77d	0.35308447
177	0x3a1cc136	0.00059797184
178	0xbd5048b0	-0.05085057
179	0xbd13d78a	-0.036094226
180	0x3d445073	0.047928285
181	0xbd83da55	-0.06438128
182	0x80028f12	-2.34995e-40
183	0x3c51edd0	0.012813047
184	0x3d24186c	0.040062353
185	0xbde2e930	-0.11079633
186	0xbd86029e	-0.06543468
187	0x00017aec	1.35932e-40
188	0xbdd12305	-0.102117576
189	0x3cbe9de3	0.023268646
190	0xbcd39bcc	-0.025831126
191	0xbd09cd4c	-0.033643052
192	0x3cd17821	0.025569977
193	0xbbbc5a9c	-0.005748106
194	0x3e610dd1	0.21977927
195	0xbc93d654	-0.018046536
196	0x3d36ab7f	0.044597145
197	0x3cb8060b	0.022463819
198	0xbd55dd13	-0.052212786
199	0xbdb20f8d	-0.08694372
200	0x3dc39eca	0.09551771
201	0x3b175a60	0.002309464
202	0x80020636	-1.85899e-40
203	0x00029cf2	2.39972e-40
204	0xbea1bd0f	-0.31589553
205	0xbcab5d93	-0.020918643
206	0xbe432829	-0.19058289
207	0x80014fb5	-1.20429e-40
208	0x00020ef9	1.89042e-40
209	0xbbedd02d	-0.0072574825
210	0xbc91f67d	-0.01781773
211	0xbd0a17c1	-0.03371406
212	0x00007eef	4.5535e-41
213	0x80017233	-1.32802e-40
214	0x3e56f230	0.20990825
215	0xbd51145c	-0.051044807
216	0xbe090b76	-0.13383278
217	0x8001a2e8	-1.50275e-40
218	0x00025bcf	2.16606e-40
219	0xbd4390a1	-0.04774535
220	0x800021b0	-1.2085e-41
221	0x8001fd38	-1.82673e-40
222	0x8001d72d	-1.69026e-40
223	0x00015ed5	1.25855e-40
224	0x3d8c8653	0.06861558
225	0x3e675a04	0.22592932
226	0x3e95bcef	0.29245707
227	0x800194d0	-1.4522e-40
228	0x0000e617	8.254e-41
229	0x3d29d6d1	0.04146463
230	0x3d5abf17	0.053404894
231	0x3cc05f70	0.023483008
232	0x3cb84c9a	0.022497464
233	0x3c37ca66	0.011217689
234	0x3d90adeb	0.07064422
235	0x3c984a00	0.018589973
236	0x3deef389	0.116675444
237	0xbcf85f29	-0.030318813
238	0x3c972bf3	0.018453574
239	0xbcce4df8	-0.025183663
240	0xbd6a1330	-0.057147205
241	0x3b30a263	0.0026952259
242	0xbcb8c0e7	-0.02255292
243	0xbdb131a5	-0.08652047
244	0xbc7047f7	-0.014665595
245	0x3e2f002d	0.17089911
246	0x3a83c667	0.0010053635
247	0xbc7a2569	-0.015267708
248	0x3d2f7627	0.04283729
249	0x3d47e4fd	0.048802365
250	0xbb80a555	-0.003925959
251	0xbd24dcc9	-0.04024962
252	0x3b2e1857	0.00265648
253	0x3c1288df	0.008943765
254	0x3bb793a3	0.0056023165
255	0x3cf0042d	0.029298866

exp_avg f4 [32, 2, 5, 5]
0	0xbadd6462	-0.0016890878
1	0xbb1c165e	-0.0023817043
2	0xbb560c15	-0.003266101
3	0xbb831fe6	-0.0040016053
4	0xbb905a8c	-0.0044053253
5	0xbb2a5db0	-0.0025995784
6	0xbb563289	-0.003268393
7	0xbb890981	-0.004182041
8	0xbb9f5d63	-0.0048634275
9	0xbbac68ee	-0.005261532
10	0xbb427ae8	-0.0029675309
11	0xbb6c0d59	-0.0036018698
12	0xbb906cba	-0.0044074925
13	0xbba8f11f	-0.005155697
14	0xbbb036db	-0.005377633
15	0xbb239535	-0.002496076
16	0xbb4ca02e	-0.0031223404
17	0xbb7a29da	-0.0038171918
18	0xbb8edc51	-0.00435976
19	0xbb96609c	-0.0045891535
20	0xbacd329b	-0.001565534
21	0xbb0b054e	-0.0021212879
22	0xbb2ddf63	-0.0026530854
23	0xbb4b2e7c	-0.0031003049
24	0xbb561350	-0.003266532
25	0xbabf544d	-0.0014597267
26	0xbb0382f3	-0.0020067065
27	0xbb3923b6	-0.0028250045
28	0xbb69a23d	-0.003564968
29	0xbb8597a1	-0.0040769135
30	0xbb20563c	-0.0024465462
31	0xbb4586f2	-0.0030140248
32	0xbb792d01	-0.003802121
33	0xbb95eba7	-0.004575211
34	0xbba6153b	-0.005068449
35	0xbb40eeb8	-0.0029439162
36	0xbb5d501b	-0.003376967
37	0xbb88ca60	-0.0041745156
38	0xbb9c46ca	-0.004769181
39	0xbbabe40f	-0.0052456926
40	0xbb2627a4	-0.0025353217
41	0xbb40a578	-0.0029395502
42	0xbb6ccd63	-0.0036133162
43	0xbb89c3b6	-0.0042042388
44	0xbb932407	-0.004490379
45	0xbadb1fa7	-0.0016717807
46	0xbb070a8c	-0.0020605652
47	0xbb2acc7d	-0.0026061826
48	0xbb425826	-0.0029654591
49	0xbb53fc5b	-0.003234646
50	0xb7151c9c	-8.887753e-06
51	0xb99900f4	-0.00029183144
52	0xba166dbc	-0.00057383976
53	0xba44de76	-0.0007509956
54	0xba874e7a	-0.001032307
55	0xb9c40840	-0.0003739018
56	0xba318696	-0.0006772069
57	0xba6b15fb	-0.0008967814
58	0xba9ee758	-0.0012123389
59	0xbac970d8	-0.0015368713
60	0xba4890cf	-0.00076509727
61	0xba840f33	-0.001007533
62	0xbaa2623d	-0.0012388896
63	0xbacccb1e	-0.0015624498
64	0xbafb4902	-0.0019171538
65	0xba7c1633	-0.0009616345
66	0xbaa37493	-0.0012470655
67	0xbabb41ad	-0.0014286541
68	0xbae20c50	-0.0017246101
69	0xbb09c243	-0.002102033
70	0xba887034	-0.0010409416
71	0xbaaad163	-0.0013032373
72	0xbacb36b5	-0.0015503975
73	0xbaeedbc9	-0.001822346
74	0xbb05c3e8	-0.0020410959
75	0x39e6581a	0.0004393466
76	0x3961051b	0.00021459574
77	0xb81a70f2	-3.682165e-05
78	0xba058abd	-0.0005094221
79	0xba87d4b9	-0.0010363079
80	0x3744e902	1.1736762e-05
81	0xb8e5e00f	-0.00010961305
82	0xb9e4bf00	-0.00043629855
83	0xba5f0b7e	-0.00085084874
84	0xbac4d655	-0.0015017489
85	0xb9a0cee0	-0.00030671712
86	0xb9e4aad5	-0.0004361483
87	0xba39a17e	-0.0007081254
88	0xba9ca023	-0.001194958
89	0xbaf26613	-0.0018493555
90	0xba12780d	-0.0005587347
91	0xba2c9d1f	-0.0006584692
92	0xba81359f	-0.0009857899
93	0xbab9741d	-0.0014148984
94	0xbb07ad3e	-0.0020702626
95	0xba26adba	-0.0006358285
96	0xba4c602c	-0.0007796313
97	0xba8a563f	-0.0010554268
98	0xbac0151b	-0.0014654727
99	0xbb096eb9	-0.0020970537
100	0x3b4ff6fb	0.0031732905
101	0x3b55882e	0.003258239
102	0x3b529654	0.003213306
103	0x3b4d79fb	0.0031353224
104	0x3b486df2	0.003058311
105	0x3b0c404d	0.002140063
106	0x3b0d1cc5	0.002153204
107	0x3b0aec01	0.0021197798
108	0x3b07ca34	0.0020719888
109	0x3b0a629d	0.0021115907
110	0x3a448cdb	0.0007497796
111	0x3a5dd05f	0.00084615307
112	0x3a5dc535	0.0008459867
113	0x3a71b3f3	0.0009220235
114	0x3a70b404	0.0009182098
115	0xb9faa706	-0.00047808158
116	0xb9c325d4	-0.00037221482
117	0xb9b5c9fb	-0.00034673497
118	0xb985c15f	-0.0002551181
119	0xb918691f	-0.0001453501
120	0xbaa2343a	-0.0012375184
121	0xba9b55dc	-0.001185115
122	0xba973580	-0.001153633
123	0xba95f095	-0.0011439497
124	0xba8ae63d	-0.0010597181
125	0x3b4c832c	0.0031206114
126	0x3b556e44	0.0032566944
127	0x3b58908a	0.0033045136
128	0x3b53b46e	0.003230359
129	0x3b51e56a	0.003202761
130	0x3b02d62d	0.0019964084
131	0x3b110de8	0.0022133533
132	0x3b15b7c4	0.0022845129
133	0x3b12a263	0.0022374622
134	0x3b11a000	0.0022220612
135	0x3a3e67e3	0.0007263405
136	0x3a63849b	0.00086791225
137	0x3a89c8da	0.0010512129
138	0x3a890d96	0.001045632
139	0x3a8e3941	0.0010850803
140	0xb9f9e0f3	-0.0004766058
141	0xb9b34975	-0.0003419627
142	0xb923aa87	-0.00015608418
143	0xb9036224	-0.00012529694
144	0xb8a16a4d	-7.696878e-05
145	0xbaae9910	-0.0013320763
146	0xba9a1050	-0.0011754129
147	0xba800a9f	-0.000976879
148	0xba67e7bb	-0.0008846481
149	0xba5fd57e	-0.0008538588
150	0xbada63d6	-0.0016661834
151	0xbb17ba75	-0.0023151909
152	0xbb2e0858	-0.0026555266
153	0xbb2b6fd4	-0.0026159184
154	0xbb0a2f03	-0.002108515
155	0xbacd0b8a	-0.0015643698
156	0xbb1d115a	-0.0023966641
157	0xbb364d5c	-0.0027817106
158	0xbb37e408	-0.0028059501
159	0xbb1b9f65	-0.002374613
160	0xba90a200	-0.0011034608
161	0xbb00448a	-0.0019572102
162	0xbb1d2d93	-0.0023983463
163	0xbb247215	-0.0025092412
164	0xbb09dd65	-0.0021036502
165	0xba912b11	-0.0011075457
166	0xbaf72d27	-0.0018858061
167	0xbb181cb7	-0.0023210475
168	0xbb1ef940	-0.0024257451
169	0xbb077e49	-0.0020674637
170	0xba7841f6	-0.0009470278
171	0xbac81969	-0.0015266362
172	0xbaf91969	-0.0019004765
173	0xbb00d8f9	-0.0019660576
174	0xbadaab20	-0.0016683079
175	0xbaeece6b	-0.0018219476
176	0xbb3b0bf5	-0.0028541062
177	0xbb5be1fb	-0.0033551443
178	0xbb61df76	-0.0034465468
179	0xbb3d2cac	-0.0028865738
180	0xbae4979f	-0.0017440206
181	0xbb3a6a4e	-0.002844471
182	0xbb67188c	-0.0035262434
183	0xbb71a60a	-0.0036872649
184	0xbb53b9a8	-0.0032306705
185	0xbaa4a416	-0.0012561108
186	0xbb1ced77	-0.002394525
187	0xbb4ff03b	-0.0031728882
188	0xbb5da93a	-0.003382279
189	0xbb482f73	-0.003054586
190	0xbaaaf80f	-0.0013043898
191	0xbb17f34a	-0.0023185783
192	0xbb435247	-0.002980368
193	0xbb54fa0a	-0.0032497668
194	0xbb41ac4f	-0.0029552167
195	0xba8b378a	-0.001062141
196	0xbafe9295	-0.0019422347
197	0xbb22eaf0	-0.0024859272
198	0xbb2edefa	-0.0026683197
199	0xbb20bcea	-0.0024526664
200	0x39a7320a	0.00031890004
201	0x39997198	0.00029267068
202	0x39c6227a	0.0003779119
203	0x3a040a1a	0.00050369056
204	0x3a431915	0.0007442397
205	0x3a0e7f5e	0.00054358493
206	0x399bb085	0.0002969542
207	0x39c62263	0.00037791123
208	0x39dc8908	0.00042063766
209	0x3a3a2672	0.0007101066
210	0x3a275e6b	0.0006384614
211	0x39dd49f1	0.00042207495
212	0x39f47821	0.0004662881
213	0x39fe88e1	0.00048548638
214	0x3a4595d8	0.0007537282
215	0x3a2eb30a	0.0006664252
216	0x39c1c34c	0.00036957336
217	0x39c64e22	0.00037823716
218	0x39cbb36e	0.00038852863
219	0x3a2485d3	0.0006276045
220	0x3a177f01	0.0005779118
221	0x39aa61ae	0.00032497704
222	0x399d85d3	0.0003004508
223	0x39a5bc75	0.00031611664
224	0x3a10223e	0.00054982665
225	0xb7b3366a	-2.1363801e-05
226	0xb9094cb6	-0.00013093915
227	0xb8b601d6	-8.678778e-05
228	0xb64c8a74	-3.047896e-06
229	0x39c78c8f	0.00038060962
230	0x390f27d5	0.00013652381
231	0x37a02890	1.9092375e-05
232	0x37fdc356	3.025091e-05
233	0x39097749	0.00013109775
234	0x3a0c88a6	0.00053609384
235	0x39e1addd	0.00043044882
236	0x396d0383	0.0002260339
237	0x3958cb8e	0.00020675195
238	0x3998924a	0.00029100693
239	0x3a27e9c5	0.0006405379
240	0x3a00af39	0.0004908923
241	0x39a8657b	0.00032119066
242	0x396bf099	0.00022500976
243	0x398d96cc	0.00027005968
244	0x3a2357a0	0.00062310137
245	0x3a1959fe	0.00058498967
246	0x39b0627d	0.00033642715
247	0x398936a9	0.000261714
248	0x394afdf1	0.00019358822
249	0x39e4fe21	0.0004367689
250	0xbabc7109	-0.0014376949
251	0xbaab99c7	-0.0013092094
252	0xba105d42	-0.00055070606
253	0x39bb329c	0.00035705126
254	0x3abc4b36	0.0014365676
255	0xbabf2ebb	-0.001458607
