results/2BS/T_1/L_10000/seed3/checkpoint.pth.tar (torch_old, 395639 bytes, 22 tensors)

layer1.conv.weight f4 [32, 2, 5, 5]
0.025690952 0.015747705 0.014980763 -0.05201086 0.014832419 -0.019358784 -0.011635969 0.005693288
-0.015012908 0.0048551313 -0.032833207 -0.052771598 -0.036286075 -0.0005794928 -0.029737739 0.012496073
-0.04692311 -0.013744553 -0.05265847 0.05748397 -0.01290801 0.0013327334 -0.0540487 -0.03415933
-0.05689507 -0.041206557 0.051833257 0.058262467 0.050139606 -0.014255589 -0.03501508 0.01713366
0.015019488 0.009614859 -0.02049422 -0.002152387 -0.007857776 0.048202913 0.049898993 0.076340504
0.010320431 -0.006932908 0.004825828 -0.041542195 0.116684765 0.013962121 0.026209624 0.016804002
0.04241621 0.08009139 -0.0029775992 0.08076878 -0.0065483926 -0.014474941 0.038730748 -0.027304605
0.010610405 0.032887593 0.007870125 0.0080995755 -0.008963104 0.045464795 0.07885303 0.054029036
-0.06856973 0.0222794 0.052896462 0.052651852 0.02841035 -0.053880837 0.085633576 0.076798685
0.08099284 -0.03631964 0.016777752 0.044031937 0.021761144 -0.050502602 -0.06592039 0.04401454
-0.033460997 -0.028950643 -0.0001320339 -0.03542582 -0.015136203 -0.039952837 -0.020328684 -0.020004451
-0.05335811 0.011033418 -0.071646035 -0.05933977 -0.05684016 0.011566291 -0.03202405 0.017168287
-0.03322599 -0.046721928 -0.07184086 -0.104225524 -0.044577904 -0.0074496428 -0.051432442 -0.030881021
-0.03402202 0.040401302 0.004538916 -0.066877514 0.031753622 -0.021422403 -0.004169227 -0.05144577
-0.045334585 0.008951698 -0.114604905 -0.006165731 -0.022125322 -0.07540104 -0.03701695 -0.04160131
0.024176477 -0.042599544 -0.0729689 0.010892169 -0.042381834 0.034905843 -0.014611887 -0.07743959
0.037643965 -0.005183077 -0.0021587382 -0.023786677 0.008631975 0.03769258 0.014671688 0.019170962
-0.006286286 -0.029242648 0.047763206 0.08822986 0.035200447 0.02252912 0.010140478 0.08081044
0.12264301 -0.056094214 0.04503767 0.026926989 0.09270903 0.033514578 0.04648057 -0.0618006
-0.038328238 0.035242934 0.041249875 0.011749174 -0.05801638 -0.046084978 0.014386327 0.040472195
0.029679967 0.009349128 0.0140269315 0.070759974 0.05694972 -0.07474976 0.010406602 0.057635147
0.0060738674 0.121111386 -0.052577734 -0.015607678 -0.013742827 0.020874072 -0.030806404 -0.07349266
-0.094136685 0.002963053 -0.019356312 0.01472666 -0.081559815 0.017773865 0.028400699 -0.0023263125
-0.018635398 -0.043557882 0.0059394413 -0.014235147 -0.059593365 -0.057700444 -0.1211202 -0.09784106
-0.0043188925 -0.06688953 0.060877874 -0.00856229 -0.040439494 -0.032192953 -0.05008494 -0.042718276
-0.05403687 -0.007352883 -0.061611157 -0.0015185103 0.111571625 -0.008281341 -0.032902796 -0.0539353
0.046927925 0.07980315 -0.04232037 -0.046807993 0.030439083 0.061146617 0.03832483 0.009492102
0.030823132 0.035321552 0.102953814 0.05654452 0.061540578 0.0145568205 0.08301496 0.09383079
0.07353528 -0.07731787 -0.051583763 0.005485626 -0.011421888 0.03599191 0.0027583272 0.051285073
0.017325774 -0.006095835 0.045526545 -0.023567805 -0.01355026 0.032897968 0.09906907 -0.02413057
-0.011862654 -0.04600382 -0.040872388 -0.042289186 0.021514265 -0.00713102 0.046459038 0.0252617
-0.018188046 -0.008964153 -0.03677081 0.024950907 -0.011784611 0.037495583 -0.069737315 -0.03199942
00000000: d575 d23c 5501 813c e071 753c 5709 55bd
00000010: ad03 733c 5096 9ebc cba4 3ebc c38e ba3b
00000020: b3f8 75bc cb17 9f3b 1d7c 06bd 0827 58bd
00000030: b5a0 14bd 1ae9 17ba 8f9c f3bc 54bc 4c3c
00000040: 7232 40bd d530 61bc 68b0 57bd 5074 6b3d
00000050: 1e7c 53bc 1daf ae3a 2b62 5dbd a7ea 0bbd
00000060: ce0a 69bd 35c8 28bd 1c4f 543d a0a4 6e3d
00000070: 305f 4d3d 4690 69bc f96b 0fbd e45b 8c3c
00000080: 4c14 763c a487 1d3c 7fe3 a7bc 100f 0dbb
00000090: e7bd 00bc 6b70 453d e362 4c3d 6958 9c3d
000000a0: 0617 293c 732d e3bb fb21 9e3b 2628 2abd
000000b0: 6cf8 ee3d 61c1 643c 91b5 d63c 8ca8 893c
000000c0: 9fbc 2d3d f406 a43d d323 43bb 1a6a a53d
000000d0: e693 d6bb 4e28 6dbc 22a4 1e3d e8ad dfbc
000000e0: 44d7 2d3c 24b5 063d b2f1 003c 15b4 043c
000000f0: fcd9 12bc 4b39 3a3d b37d a13d 8d4d 5d3d
00000100: 496e 8cbd 4a83 b63c f6a9 583d 78a9 573d
00000110: d3bc e83c 27b2 5cbd a860 af3d a148 9d3d
00000120: 93df a53d e7c3 14bd 7f71 893c d55a 343d
00000130: 6d44 b23c d1db 4ebd 4501 87bd 9748 343d
00000140: 660e 09bd e629 edbc 9572 0ab9 aa1a 11bd
00000150: d6fd 77bc 96a5 23bd 5788 a6bc 60e0 a3bc
00000160: 098e 5abd 82c5 343c 28bb 92bd 420e 73bd
00000170: 3ad1 68bd 8a80 3d3c a62b 03bd 82a4 8c3c
00000180: fa17 08bd 7e5f 3fbd 4d21 93bd 3174 d5bd
00000190: 5297 36bd 221c f4bb d3aa 52bd 32fa fcbc
000001a0: ac5a 0bbd d67b 253d 30bb 943b 14f7 88bd
000001b0: 1610 023d 097e afbc 039e 88bb cdb8 52bd
000001c0: c2b0 39bd 25aa 123c fab5 eabd e709 cabb
000001d0: 2a40 b5bc dc6b 9abd 169f 17bd 2366 2abd
000001e0: bf0d c63c dc7c 2ebd b870 95bd 1175 323c
000001f0: 9398 2dbd 6ef9 0e3d b266 6fbc a698 9ebd
00000200: 8f30 1a3d cdd6 a9bb 9e79 0dbb 47dc c2bc
00000210: 216d 0d3c 8963 1a3d 8561 703c 6c0c 9d3c
00000220: 30fd cdbb 478e efbc 5aa3 433d dbb1 b43d
00000230: 582e 103d fd8e b83c 3f24 263c f27f a53d
00000240: 422c fb3d 0cc3 65bd 6b79 383d fd95 dc3c
00000250: 3bde bd3d 9546 093d 6962 3e3d a022 7dbd
00000260: 12fe 1cbd e55a 103d a1f5 283d 9c7f 403c
00000270: 95a2 6dbd 9ac3 3cbd a1b4 6b3c 2cc6 253d
00000280: 6723 f33c 162d 193c 37d1 653c 9bea 903d
00000290: 1c44 693d 6716 99bd 7480 2a3c d512 6c3d
000002a0: 4b07 c73b 3f09 f83d c05b 57bd 59b7 7fbc
000002b0: 9829 61bc 1a00 ab3c b65d fcbc 5283 96bd
000002c0: bcca c0bd c82f 423b 2191 9ebc 1748 713c
000002d0: d508 a7bd 7f9a 913c 95a8 e83c 0c75 18bb
000002e0: 43a9 98bc c069 32bd a59f c23b 893a 69bc
000002f0: 2c18 74bd 4d57 6cbd de0d f8bd e560 c8bd
00000300: 7f85 8dbb 61fd 88bd 145b 793d d948 0cbc
00000310: e2a3 25bd c2dc 03bd de25 4dbd 5cf9 2ebd
00000320: c455 5dbd 74f0 f0bb fb5b 7cbd c008 c7ba
00000330: aa7f e43d 76ae 07bc 15c5 06bd 43eb 5cbd
00000340: 7f37 403d d56f a33d 2058 2dbd bdb9 3fbd
00000350: 625b f93c e074 7a3d 7ffa 1c3d c384 1b3c
00000360: cb80 fc3c 55ad 103d 73d9 d23d 3a9b 673d
00000370: f911 7c3d bb7f 6e3c bf03 aa3d 5b2a c03d
00000380: aa99 963d d558 9ebd 7f49 53bd c4c0 b33b
00000390: df22 3bbc 416c 133d 0dc5 343b 4c10 523d
000003a0: c8ee 8d3c 92bf c7bb 0b7a 3a3d 4511 c1bc
000003b0: e901 5ebc 05c0 063d b9e4 ca3d 79ad c5bc
000003c0: 945b 42bc 806e 3cbd ce69 27bd 6d37 2dbd
000003d0: af3e b03c 55ab e9bb d54b 3e3d a0f1 ce3c
000003e0: 19ff 94bc 62de 12bc fd9c 16bd d865 cc3c
000003f0: 3e14 41bc f894 193d 70d2 8ebd d311 03bd

layer1.conv.bias f4 [32]
-0.069842726 0.12168821 -0.040574096 0.12403635 -0.0013967969 -0.060866788 0.07167499 -0.07886419
0.015832609 -0.012516125 0.03952522 0.049966045 0.03338851 -0.0903841 0.013871798 -0.0592635
-0.00084152445 -0.1065334 0.10842061 -0.12516212 0.04916404 -0.028824601 0.053813156 0.06475878
-0.09607555 -0.019735374 -0.080289364 0.11259842 0.00077146734 -0.10601118 -0.08326176 0.09218792
00000000: b409 8fbd ab37 f93d 0631 26bd c506 fe3d
00000010: ba14 b7ba 744f 79bd 56ca 923d 8c83 a1bd
00000020: 63b3 813c 6f10 4dbc 32e5 213d 32a9 4c3d
00000030: 64c2 083d 4d1b b9bd 8a46 633c 49be 72bd
00000040: c099 5cba 2f2e dabd a00b de3d 802a 00be
00000050: 3b60 493d 9221 ecbc 2f6b 5c3d 40a0 843d
00000060: 42c3 c4bd 14ac a1bc c06e a4bd 009a e63d
00000070: 4c3c 4a3a 641c d9bd 2485 aabd 05cd bc3d

layer2.conv1.weight f4 [32, 32, 3, 3]
-0.0022466402 -0.00069807004 -0.017208247 -0.008080576 -0.020983232 -0.07463835 -0.004030372 -0.029862752
0.034854382 -0.01111685 0.013803803 -0.037565198 -0.045205206 -0.0012714097 -0.0011585613 -0.03151921
0.0035490645 -0.005796109 -0.016849073 -0.03390515 -0.009016079 0.01085846 -0.03366355 -0.037574608
-0.011918825 -0.019520082 -0.031972237 0.0038753203 -0.08065683 -0.049207356 -0.016940737 -0.03681996
-0.0063243723 -0.16520415 0.0026271965 0.013624772 -0.017427847 -0.0073382366 -0.0051036226 -0.05861633
-0.06183004 -0.009917688 -0.029081548 -0.03017905 0.068947226 -0.0038734195 -0.00077744445 -0.03761999
-0.020344164 0.0014201793 -0.029215146 0.00015963757 -0.035793535 -0.07913347 -0.020303437 0.011609748
-0.0051253163 -0.081901275 -0.017110623 -0.011673957 -0.030487306 0.017446768 -0.0071544233 -0.011505534
-0.0067334617 -0.008322421 -0.01928768 0.031164823 0.012379286 0.19888376 0.059608396 0.0046368726
-0.006195883 0.0029194932 -0.019500224 0.035417408 -0.03621065 -0.08229486 0.0062765786 -0.001972046
-0.05317494 -0.0010659469 -0.0011221904 -0.0012554083 -0.0004676942 -0.0006160208 -0.0020812624 -0.002385141
-0.0015329615 -0.004563953 -0.013652079 -0.004799826 -0.039088868 0.06356955 -0.018679515 -0.08921494
0.039332926 0.04498173 -0.07865929 0.013232432 -0.033830024 -0.022252452 0.07027616 0.059205323
-0.036302134 0.09227252 0.002058217 -0.020632287 -0.025686929 -0.016729882 -0.0049479883 -0.017589102
-0.0028535002 0.026306836 -0.040088166 -0.016194114 0.044207778 0.00034436575 0.0017992841 -0.008394273
0.000762699 -0.012034353 -0.029438104 -0.000316001 -0.01924745 -0.042918064 -0.16262996 0.014950451
-0.013013305 -0.018742828 -0.066534035 -0.04083459 1.9385456e-05 -0.09214112 0.058302395 0.0028805458
-0.00035685324 -0.00016238357 0.012358226 -0.010559487 -0.07563351 0.026290148 -0.020710181 -0.049693707
-6.382982e-05 -3.4092584e-05 -1.4564735e-05 -5.9192742e-05 -4.291416e-05 -5.0732024e-06 -1.2812701e-05 -7.0730803e-06
3.108301e-05 -0.007689604 -0.0019609812 0.01102359 -0.04247232 -0.010830367 0.0030127023 -0.03519001
0.0072838427 0.011665091 -0.020517934 -0.0136091905 -0.0022510996 -0.002474284 0.030058106 -0.041658454
0.1388355 -0.0107978 -0.02060922 -0.001994354 -0.0034536477 0.008836788 0.0016168308 0.013003251
0.059777383 0.0019774486 0.017922364 0.13247573 -0.088848025 0.05730573 -0.0015300175 -0.038087953
0.024222245 0.07823501 -0.054579746 -0.12452453 -0.03341816 -0.028060362 -0.014809714 0.029731864
-0.0016336843 0.049884543 0.062330324 -0.06826485 0.018173385 0.08115422 -0.056090884 -0.037049238
-0.056118254 0.075291745 -0.0045498903 0.09324511 0.017300058 -0.039770264 0.10702987 -0.053520713
0.037257075 -0.026835594 0.010149193 -0.0036342787 -0.005852505 0.15450227 0.040241614 -0.028265955
-0.01662013 -0.0009628116 -0.0010100191 0.011335367 -0.0004362549 0.00016042619 0.02085785 0.0018366599
-0.0022468274 0.0017827216 -0.008695724 0.015121118 0.002084879 -0.07361808 -0.011055943 -0.020102369
0.02262995 0.013564541 7.205729e-07 -7.3831994e-05 -0.00036663495 -0.00016343073 -0.00047157766 -0.001809313
3.799927e-05 0.00017635837 -0.021411227 -0.02846726 -0.013067964 -0.016967509 -0.00867362 -0.051246095
-0.12007919 0.023562137 -0.04285863 0.045819525 0.001515811 -0.003306125 0.00013634062 -0.014608411
00000000: 5e3c 13bb b0fe 36ba 4ff8 8cbc 6464 04bc
00000010: 07e5 abbc fedb 98bd 3611 84bb bba2 f4bc
00000020: 78c3 0e3d 7323 36bc 5929 623c f7dd 19bd
00000030: 1829 39bd 6ea5 a6ba deda 97ba 4a1a 01bd
00000040: 6c97 683b 49ed bdbb 1107 8abc 20e0 0abd
00000050: 2db8 13bc afe7 313c cae2 09bd d5e7 19bd
00000060: 2d47 43bc 94e8 9fbc 52f5 02bd 16f9 7d3b
00000070: 682f a5bd a78d 49bd 4dc7 8abc 87d0 16bd
00000080: ae3c cfbb 472b 29be 0b2d 2c3b 703a 5f3c
00000090: d8c4 8ebc 9775 f0bb 4a3c a7bb ad17 70bd
000000a0: 7f41 7dbd cc7d 22bc 6d3c eebc 0e3a f7bc
000000b0: 3434 8d3d 32d9 7dbb 6acd 4bba 6b17 1abd
000000c0: cea8 a6bc 4f25 ba3a 9a54 efbc 6264 2739
000000d0: 3e9c 12bd bb10 a2bd 6553 a6bc d036 3e3c
000000e0: 45f2 a7bb dbbb a7bd 942b 8cbc 2044 3fbc
000000f0: 84c0 f9bc 86ec 8e3c a76f eabb b581 3cbc
00000100: 5fa4 dcbb c45a 08bc 3201 9ebc 5f4d ff3c
00000110: 7dd2 4a3c 2fa8 4b3e ef27 743d e8f0 973b
00000120: d506 cbbb f854 3f3b efbe 9fbc d811 113d
00000130: 9e51 14bd 358a a8bd c2ab cd3b 713d 01bb
00000140: f7cd 59bd 3eb7 8bba 7616 93ba 838c a4ba
00000150: da34 f5b9 757c 21ba ca65 08bb 0750 1cbb
00000160: a7ed c8ba 368d 95bb f8ac 5fbc dc47 9dbb
00000170: a61b 20bd c130 823d c805 99bc 53b6 b6bd
00000180: 901b 213d c33e 383d 1f18 a1bd d8cc 583c
00000190: 5a91 0abd c64a b6bc f3ec 8f3d 4881 723d
000001a0: 8cb1 14bd 60f9 bc3d 27e3 063b 0b05 a9bc
000001b0: 656d d2bc 1b0d 89bc bc22 a2bb 0517 90bc
000001c0: ca01 3bbb 6f81 d73c 7d33 24bd 85a9 84bc
000001d0: 3713 353d fd8b b439 f5d5 eb3a 2288 09bc
000001e0: ddef 473a bc2b 45bc 2e28 f1bc f0ac a5b9
000001f0: d4ac 9dbc daca 2fbd 7888 26be bdf2 743c
00000200: c235 55bc 8f8a 99bc ff42 88bd 2c42 27bd
00000210: f39d a237 7cb4 bcbd 7ece 6e3d 8ac7 3c3b
00000220: 0818 bbb9 8245 2ab9 287a 4a3c b301 2dbc
00000230: bee5 9abd 705e d73c 66a8 a9bc a18b 4bbd
00000240: 60dc 85b8 a2fe 0eb8 0f5b 74b7 b945 78b8
00000250: bafe 33b8 7a3a aab6 22f6 56b7 4c55 edb6
00000260: 215f 0238 13f9 fbbb ce83 00bb 4a9c 343c
00000270: 75f7 2dbd da71 31bc c270 453b 6623 10bd
00000280: 4dad ee3b f01e 3f3c 3a15 a8bc 15f9 5ebc
00000290: 2f87 13bb 9927 22bb 6b3c f63c 0ea2 2abd
000002a0: e52a 0e3e 41e9 30bc abd4 a8bc b5b3 02bb
000002b0: 9856 62bb 2dc8 103c d7eb d33a 960b 553c
000002c0: 21d9 743d 1598 013b ecd1 923c b8a7 073e
000002d0: f4f5 b5bd 6ab9 6a3d de8a c8ba 1d02 1cbd
000002e0: bb6d c63c ad39 a03d 038f 5fbd b706 ffbd
000002f0: 7be1 08bd d8de e5bc 71a4 72bc 3d90 f33c
00000300: 5921 d6ba bc53 4c3d 154e 7f3d 71ce 8bbd
00000310: 5ae0 943c 2f34 a63d 8ebf 65bd f1c0 17bd
00000320: 41dc 65bd 8f32 9a3d 3f17 95bb 4bf7 be3d
00000330: dab8 8d3c 25e6 22bd 7a32 db3d 8938 5bbd
00000340: e09a 183d 52d6 dbbc cd48 263c 142d 6ebb
00000350: 5fc6 bfbb d835 1e3e 64d4 243d 018e e7bc
00000360: f026 88bc 3165 7cba 9e62 84ba fab7 393c
00000370: 24b9 e4b9 1438 2839 15de aa3c 14bc f03a
00000380: 823f 13bb 36aa e93a 8378 0ebc 91be 773c
00000390: 77a2 083b 13c5 96bd fc23 35bc b9ad a4bc
000003a0: 7262 b93c cf3d 5e3c 656d 4135 40d6 9ab8
000003b0: e938 c0b9 9a5e 2bb9 153e f7b9 7826 edba
000003c0: 6861 1f38 d7ec 3839 9966 afbc 2c34 e9bc
000003d0: 041b 56bc 72ff 8abc cd1b 0ebc 6de7 51bd
000003e0: 14ec f5bd 6205 c13c 888c 2fbd 41ad 3b3d
000003f0: 2dae c63a 93ab 58bb a8f6 0e39 1e58 6fbc

layer2.conv1.bias f4 [32]
-0.047174633 -0.006880335 -0.0006228519 -0.028061401 0.0320067 0.027635949 -0.0010493364 -2.098654e-12
-0.0064876447 -0.0318058 -6.042129e-12 -0.0150446985 -0.044706054 0.041237533 0.009913853 0.00884799
-0.04196139 0.052735154 -0.00013499148 0.027457932 -0.026406482 -0.00026265628 -2.4501745e-09 -0.016723301
-0.0013190745 -0.011929815 -0.02757671 -0.0025583378 -0.018673977 0.006064441 -0.0048886477 -0.00020717694
00000000: 303a 41bd 6f74 e1bb e246 23ba 06e1 e5bc
00000010: 7519 033d c964 e23c e389 89ba fdad 13ac
00000020: 4f96 d4bb cc46 02bd a996 d4ac 0a7e 76bc
00000030: b21d 37bd b0e8 283d b76d 223c 29f7 103c
00000040: b5df 2bbd d100 583d 808c 0db9 75ef e03c
00000050: 6852 d8bc 21b5 89b9 ed5f 28b1 4eff 88bc
00000060: cce4 acba 4575 43bc 8de8 e1bc c9a9 27bb
00000070: 2bfa 98bc 38b8 c63b f330 a0bb a33d 59b9

layer2.conv2.weight f4 [64, 32, 3, 3]
-0.0021253517 0.009759338 -0.015331051 0.00078528794 -0.02056584 0.017443173 -0.005205468 -0.011662765
0.006230966 0.0027124116 0.0021240325 0.0017511521 0.0064765858 -0.0048143417 0.010904021 0.005250271
0.0036841123 -0.0025332787 -0.0020992712 -0.0020570343 -0.003431795 -0.0022161414 -0.003052143 -0.0035556825
-0.00253149 -0.004060041 -0.004655952 -0.00035201607 0.00768641 -0.0062909615 0.005946368 -0.007371431
0.006617228 -0.0015515739 -0.010562183 0.004913394 0.0018580435 0.0055119484 0.004030838 0.010257063
0.0015965598 0.0010181846 0.010878762 8.537152e-05 0.0013076348 0.0020737858 0.02080827 -0.002708809
0.0012890237 0.00820603 -0.007936481 -0.0009036 -0.011981453 0.007967685 -2.1970252e-15 -1.2400509e-15
8.819931e-17 -1.2134732e-15 -2.3838643e-15 -9.038189e-16 -1.1040561e-15 1.9094484e-15 1.2166939e-15 -7.5255046e-17
-4.5779353e-15 -1.6141427e-15 6.6341786e-16 3.4095937e-15 -1.4321316e-14 2.0530621e-16 -2.9187538e-15 4.572123e-15
-0.0003662306 0.0030088534 -0.0010632974 0.0015125462 0.0027304098 -0.0034290773 0.00069766684 -0.003957068
0.004823965 -0.00041909257 0.00016317266 0.0010908796 -0.00017713211 -0.0024281964 0.0021705627 -0.00017891412
-0.0008116923 -0.0011570076 3.3267808e-26 2.8296736e-26 4.5722997e-26 -4.468536e-26 -2.6132383e-18 4.7785487e-26
-2.8500667e-33 1.6830156e-25 4.5995194e-27 -0.00064567017 -0.007043471 0.011269091 0.001154246 0.011163693
-0.00809533 0.0074712886 0.010667838 -0.005510327 0.0013222632 0.0016278465 -0.000862652 8.562226e-06
-0.007119542 0.006921441 -0.0005122425 0.0030551504 -0.0009712815 0.003984559 0.020024588 -0.026750352
0.0033693647 -0.032203536 0.019098299 -0.013477151 -0.033796243 0.019533103 -0.00047041342 -0.01879106
0.03299023 0.004176218 0.005677143 0.00030579403 0.0018432983 0.0063372934 -0.01064262 -0.0065338495
0.010870632 -0.00379174 0.003675187 0.008954511 -0.001993517 0.015264276 -0.0062550255 -0.0023634792
0.00093420024 -0.00093331904 -0.0012541551 0.0017858937 -0.0010554723 -0.0030007053 0.00031129736 0.002563756
-0.0050859908 -0.0034246917 0.004988353 0.031302508 -0.010162218 0.020399265 -0.021993281 0.004262803
-0.0049282955 -0.0018158715 5.1768e-41 -6.019392e-38 4.4534987e-37 9.5983e-41 -9.124742e-37 4.251494e-36
-1.30965e-40 1.211508e-25 4.6942914e-22 0.0019920997 -0.006475025 0.007653802 0.0003941514 -0.005503715
0.0143535435 -0.0012322837 0.011465316 -0.01188926 0.0054990756 -0.0020044232 0.004638053 0.008265288
0.0063130963 -0.0074341167 -0.0024479334 -0.0011060232 -0.0014102719 -0.0034291146 0.0062142983 0.004271948
0.0040049427 0.001415607 0.0015970302 0.00533481 -0.007879381 -0.00016025314 9.928933e-26 4.291722e-26
-2.9383572e-27 -2.156988e-15 2.1991332e-15 -3.234864e-15 -2.4040678e-15 7.4711154e-16 -1.5874824e-15 0.0056927213
-0.005201357 0.011340968 0.006543839 0.009674245 -0.0029251613 -0.0066806064 0.012797934 -0.0067181755
4.706293e-05 0.0003414461 0.00053124357 0.00010420464 0.00068927533 0.0010750028 0.0002582942 0.0010118405
0.001662759 -0.0043878504 -0.018710935 0.030293923 0.0068302965 0.01218845 -0.00092061097 -0.008511319
0.0142924525 -0.01508807 0.004716054 -0.012723137 0.0053094635 0.008675874 0.016965475 -0.013362912
-0.001458716 0.010062458 -0.009265804 0.001096854 0.0039007897 -0.00090554793 0.00477314 0.0009909373
0.002077549 -0.0007105066 0.00024419895 0.006652734 -0.0017821228 0.0037426942 0.0036094836 0.006330334
00000000: 7c49 0bbb a1e5 1f3c 172f 7bbc c8db 4d3a
00000010: b179 a8bc fce4 8e3c a192 aabb 2f15 3fbc
00000020: 222d cc3b b7c2 313b 5a33 0b3b ea86 e53a
00000030: 8a39 d43b a0c1 9dbb c7a6 323c 770a ac3b
00000040: 2671 713b 5d05 26bb ed93 09bb 4fcf 06bb
00000050: f7e7 60bb af3c 11bb 7606 48bb 7406 69bb
00000060: 5be7 25bb 180a 85bb f590 98bb cc8e b8b9
00000070: 48de fb3b 6924 cebb c0d9 c23b 0c8c f1bb
00000080: 55d5 d83b 2e5e cbba 020d 2dbc 8900 a13b
00000090: 9889 f33a 939d b43b 1f15 843b 3e0d 283c
000000a0: a843 d13a 9b74 853a d63c 323c 7c09 b338
000000b0: f164 ab3a 5ae8 073b 1b76 aa3c 4686 31bb
000000c0: 75f4 a83a 9672 063c 0408 02bc 92df 6cba
000000d0: db4d 44bc e58a 023c f64f 1ea7 ceb5 b2a6
000000e0: af5f cb24 42e1 aea6 89c6 2ba7 0841 82a6
000000f0: 7b1c 9fa6 1b97 0927 1558 af26 bd86 ada4
00000100: 00f0 a4a7 5b9f e8a6 9937 3f26 e7af 7527
00000110: b5fe 80a8 b3b3 6c25 8151 52a7 64ba a427
00000120: a402 c0b9 2f30 453b 575e 8bba a140 c63a
00000130: adf0 323b 5fba 60bb a1e3 363a 4baa 81bb
00000140: 5a12 9e3b a7b9 dbb9 5419 2b39 d8fb 8e3a
00000150: 8abc 39b9 6022 1fbb 0040 0e3b e59a 3bb9
00000160: c0c7 54ba bca6 97ba f5bb 2415 601e 0c15
00000170: c968 6215 6c45 5d95 add2 40a2 4d9f 6c15
00000180: 37c6 6c89 e558 5016 ab34 b613 3142 29ba
00000190: ebcc e6bb fea1 383c 124a 973a ece7 363c
000001a0: 46a2 04bc b6d1 f43b 28c8 2e3c f98f b4bb
000001b0: ca4f ad3a 775d d53a 9923 62ba 7ba6 0f37
000001c0: 0c4b e9bb 41cd e23b 0348 06ba eb38 483b
000001d0: 999d 7eba e790 823b 9b0a a43c 8e23 dbbc
000001e0: 8fd0 5c3b dbe7 03bd 0974 9c3c 45cf 5cbc
000001f0: ee6d 0abd e303 a03c d2a1 f6b9 b6ef 99bc
00000200: c320 073d a8d8 883b 5407 ba3b fb52 a039
00000210: d49a f13a 12a9 cf3b 625e 2ebc e719 d6bb
00000220: bc1a 323c d77e 78bb 68db 703b f1b5 123c
00000230: aaa5 02bb 0417 7a3c f5f6 ccbb 9ae4 1abb
00000240: 1ee5 743a fba9 74ba 7662 a4ba a614 ea3a
00000250: c657 8aba 7ba7 44bb a035 a339 b004 283b
00000260: 62a8 a6bb cb70 60bb 5675 a33b 0f37 003d
00000270: 6e7f 26bc 5c1c a73c 412b b4bc fcae 8b3b
00000280: 8a7d a1bb 8902 eeba 4f90 0000 0add a381
00000290: 728b 1703 900b 0100 db3f 9b83 acd6 b404
000002a0: 146d 0180 39fa 1516 52e0 0d1c e38d 023b
000002b0: 722c d4bb bfcc fa3b 1ba6 ce39 8258 b4bb
000002c0: 202b 6b3c 9484 a1ba 05d9 3b3c 2ccb 42bc
000002d0: 9731 b43b a45c 03bb cffa 973b 216b 073c
000002e0: 17de ce3b e499 f3bb 826d 20bb fbf7 90ba
000002f0: dfd8 b8ba ffba 60bb 50a1 cb3b b2fb 8b3b
00000300: e53b 833b e48b b93a 7153 d13a a1cf ae3b
00000310: 8518 01bc a009 28b9 17d4 f515 0a84 5415
00000320: f7cc 6893 686d 1ba7 d976 1e27 b518 69a7
00000330: 393b 2da7 1a57 5726 c3c7 e4a6 028a ba3b
00000340: 2570 aabb 78cf 393c b36d d63b b980 1e3c
00000350: 10b4 3fbb fde8 dabb 6dae 513c 2424 dcbb
00000360: 7065 4538 1f04 b339 2743 0b3a 7188 da38
00000370: 7cb0 343a 1ce7 8c3a a96b 8739 bc9f 843a
00000380: eff0 d93a f5c7 8fbb ad47 99bc f62a f83c
00000390: aed0 df3b 11b2 473c 2855 71ba 0f73 0bbc
000003a0: e42a 6a3c f433 77bc 2189 9a3b b474 50bc
000003b0: 02fb ad3b 4125 0e3c 2efb 8a3c 1ef0 5abc
000003c0: 6332 bfba 02dd 243c 99cf 17bc 50c4 8f3a
000003d0: 64a4 7f3b 4b62 6dba 0068 9c3b 57e2 813a
000003e0: 7d27 083b 4a41 3aba d407 8039 2dff d93b
000003f0: 1e96 e9ba fd47 753b 168d 6c3b b16e cf3b

layer2.conv2.bias f4 [64]
-0.0012096502 -0.0145446975 -0.027187904 -0.00067449163 -0.018106403 -0.019268444 0.004848754 0.022562906
-0.003332932 -0.005748552 0.0024192634 -0.013472668 0.016812902 0.025843637 -0.0077663753 -7.560023e-09
-0.0027386073 -0.012336116 -0.030571187 -2.2602764e-05 -0.025793063 -0.010911349 0.012674257 0.028210767
-0.005137762 -0.027392345 -1.0423562e-15 0.0016489549 -0.0010276261 0.0068732975 0.036508027 0.0016824189
-0.031311557 -6.293005e-09 -0.024896855 -0.029706364 0.0033222404 -0.0023785394 -0.0143985385 -0.053586755
0.014180707 -0.010477773 -0.01867051 0.0084951585 -0.013234697 0.0026010475 -0.00773158 -0.021521717
-0.0072407713 0.011204825 -4.2543645e-05 -0.020865483 0.04262657 0.023562087 0.031022709 0.04273397
-0.006459496 -0.033412848 -5.684699e-05 0.0019819597 -1.2621661e-17 -5.1684676e-08 -0.0016176099 -0.0022097689
00000000: 208d 9eba e24c 6ebc 2bb9 debc 5ed0 30ba
00000010: e153 94bc dbd8 9dbc 4ce2 9e3b d8d5 b83c
00000020: 526d 5abb 595e bcbb 818c 1e3b 77bc 5cbc
00000030: 36bb 893c 09b6 d33c 147d febb 55e1 01b2
00000040: 357a 33bb 6c1d 4abc 6d70 fabc 119b bdb7
00000050: f94b d3bc 84c5 32bc b0a7 4f3c 441a e73c
00000060: ac5a a8bb e965 e0bc 2838 96a6 bf21 d83a
00000070: 69b1 86ba 6639 e13b 7189 153d 9c84 dc3a
00000080: 8c40 00bd db39 d8b1 7df4 cbbc c35a f3bc
00000090: f2b9 593b 45e1 1bbb d9e7 6bbc c97d 5bbd
000000a0: 3256 683c f7aa 2bbc e6f2 98bc 472f 0b3c
000000b0: 58d6 58bc 5676 2a3b 3259 fdbb 504e b0bc
000000c0: fe43 edbb 7194 373c e470 32b8 17ee aabc
000000d0: 3399 2e3d 4705 c13c 5623 fe3c d109 2f3d
000000e0: 2eaa d3bb e9db 08bd fe6e 6eb8 c4e3 013b
000000f0: 1cd4 68a3 e7fb 5db3 fb05 d4ba c5d1 10bb

fc1.weight f4 [1, 3200]
0.003931035 -4.738874e-05 -0.003663286 -0.0015842137 -0.0016114964 -0.002921838 0.00021729553 -0.0017503882
0.0068025407 -0.005491071 -0.0070540104 -0.013836497 -0.0018457039 0.004989423 -0.038525935 0.031079642
-8.997483e-05 0.0009812814 -0.0042882143 -0.003394316 -0.014318918 0.008021944 0.002951339 -0.00815969
0.028143654 -0.008446566 0.0029068033 -0.0005964786 0.0021632537 0.0042274585 0.007980216 -0.0007860537
0.0025307098 0.0057711573 0.02335814 -0.023271216 -0.003844386 -0.0020713196 -0.005135077 0.0027805015
0.005242945 0.0007645545 0.0030510263 -0.004464242 -0.029440345 0.021116875 0.0070543326 -0.002192336
0.007833447 -0.003939148 0.016121486 0.0002922654 -3.0111e-41 1.855e-40 -0.025634969 -0.023270773
0.00040752956 4.8066e-41 2.5084282e-32 2.3892e-41 0.007557031 0.0006550375 0.0008086516 -0.0021013853
-0.0023699477 -0.031417582 -0.0006774075 0.0013686693 -0.0008914506 0.00094624376 0.005636771 -2.2554693e-06
-8.814513e-06 -0.00016502613 0.0077167675 0.0051920637 0.00047299007 -0.0027684178 0.001879366 0.0011489523
0.0049052616 0.0012023137 0.003995334 -0.0009107188 -3.5720607e-06 -0.009359202 -0.0013387128 0.00465012
-0.0005198377 7.79e-41 0.0031373668 -1.2779153e-05 1.8557863e-34 -0.00021201502 0.0019072988 0.004523844
-0.00014969768 -1.6033352e-06 0.0027965398 -0.0008286481 0.0038442675 0.0011590272 0.0001281663 -3.9123e-41
-1.8090239e-05 0.0048998194 -0.0063171107 0.00032573027 -9.82e-43 -1.30252e-40 0.014910883 0.0021930141
1.15166e-40 8.2061e-41 -0.0021698829 -0.049923822 -0.0023298734 2.8562324e-25 -2.21223e-40 -9.3049e-41
0.010144269 0.0020950346 -2.41504e-40 3.48e-43 -3.6045221e-06 -0.014957937 -0.004463712 -1.86747e-40
3.835e-42 -1.87296e-40 0.004163745 1.26477e-40 7.536e-42 -4.2405e-41 -5.0636e-41 -1.161357e-08
-3.1466e-41 8.2e-41 1.30144e-40 -1.38839e-40 1.53612e-40 -1.71655e-40 6.5361e-41 1.43298e-40
1.82181e-40 1.48082e-40 1.78537e-40 -9.4066e-41 4.5738e-41 9.1935e-41 -5.2843447e-05 5.329952e-08
-1.6145356e-06 -4.0728284e-07 -2.481851e-05 5.7579586e-05 -4.86638e-05 -0.0002837589 0.00013292035 0.0005640962
-0.00046905453 3.269172e-07 0.00041804634 -4.3052e-05 -8.841546e-05 0.00043155588 -0.00040487028 -0.0019371888
0.0004423319 0.0014117277 -0.0005904057 -7.911297e-06 0.0004675829 -0.00013612246 -0.00016771925 0.0006416555
-0.0003233272 -0.0020808384 -5.212149e-05 0.0016139826 -0.00041043363 -4.5080764e-10 2.1177934e-06 -7.014011e-05
-0.00010872862 0.00027520073 3.138322e-06 -7.1377974e-05 4.0746825e-05 0.0011732598 -6.1110626e-07 -9.036344e-30
-1.2897e-40 -1.1766732e-07 1.4935989e-05 7.2562405e-05 2.9837996e-15 -1.4923827e-21 6.9074117e-06 0.00025578224
0.014086458 -0.007225145 0.0019307379 0.008351545 0.0049954983 0.021249486 0.0010046798 -0.0089942
0.025180293 0.0061681406 -0.00032044377 0.00184679 0.011223386 -0.0015971478 -0.03698781 -0.06546411
0.020367546 -0.01427499 -0.005401772 -0.0005761762 0.001669194 0.025483528 0.0054062377 -0.020746546
-0.028809588 -0.048605885 -0.016399225 -0.0047076177 0.013555581 -0.0074899285 0.029056687 -0.003440336
0.011952238 0.018680645 -0.07304495 -0.17760868 -0.0124445865 -0.009831995 0.0034565192 4.748985e-05
0.013402019 0.0009700736 0.00626357 0.022504387 -0.059377503 -0.110785425 0.00062539027 0.0025388023
-0.0072312364 0.028705683 0.006749746 -0.00032039356 -1.31565e-40 1.30071e-40 0.00045863798 -0.0016348301
00000000: e9cf 803b 46c3 46b8 be13 70bb 64a5 cfba
00000010: d938 d3ba 4f7c 3fbb d3d9 6339 486d e5ba
00000020: d9e7 de3b 71ee b3bb 5425 e7bb 7ab2 62bc
00000030: 8ceb f1ba 507e a33b 5fcd 1dbd bc9a fe3c
00000040: deb0 bcb8 579e 803a 2684 8cbb 2c73 5ebb
00000050: e599 6abc 796e 033c 406b 413b 38b0 05bc
00000060: 858d e63c 7763 0abc 1180 3e3b 005d 1cba
00000070: 60c5 0d3b 7e86 8a3b 74bf 023c 2c0f 4eba
00000080: 44da 253b fa1b bd3b 9259 bf3c 47a3 bebc
00000090: 18f2 7bbb fabe 07bb 2644 a8bb 1339 363b
000000a0: 03cd ab3b 626c 483a baf3 473b c748 92bb
000000b0: e12c f1bc 4cfd ac3c 0828 e73b 4bad 0fbb
000000c0: dc57 003c f813 81bb 3511 843c 333b 9939
000000d0: f053 0080 1905 0200 6d00 d2bc 59a2 bebc
000000e0: b1a9 d539 fd85 0000 bb3e 020b 9a42 0000
000000f0: f8a0 f73b d3b6 2b3a b1fb 533a 65b7 09bb
00000100: 2051 1bbb b9af 00bd 0c94 31ba ec64 b33a
00000110: 3db0 69ba 580d 783a aab4 b83b ab5c 17b6
00000120: 0ce2 13b7 dd0a 2db9 f0dc fc3b 3022 aa3b
00000130: a7fb f739 586e 35bb 0f55 f63a 7198 963a
00000140: 51bc a03b f496 9d3a 4aeb 823b 4ebd 6eba
00000150: 89b7 6fb6 5757 19bc bf77 afba 0960 983b
00000160: b845 08ba 27d9 0000 489c 4d3b 0b66 56b7
00000170: 23ad 7607 5950 5eb9 54fe f93a c13c 943b
00000180: 2af8 1cb9 2e32 d7b5 2746 373b a239 59ba
00000190: 1bf0 7b3b 80ea 973a 6164 0639 0f6d 0080
000001a0: 7ec0 97b7 aa8e a03b c4ff cebb c7c6 aa39
000001b0: bd02 0080 176b 0180 c74c 743c acb8 0f3b
000001c0: 0941 0100 c1e4 0000 9834 0ebb ec7c 4cbd
000001d0: cab0 18bb cfca b016 ae68 0280 6203 0180
000001e0: 2634 263c d94c 093b 37a1 0280 f800 0000
000001f0: 38e5 71b6 2312 75bc 5544 92bb 9308 0280
00000200: b10a 0000 1b0a 0280 0670 883b 9160 0100
00000210: 0215 0000 3576 0080 278d 0080 0585 47b2
00000220: b757 0080 95e4 0000 ca6a 0100 0783 0180
00000230: 35ac 0100 81de 0180 33b6 0000 758f 0100
00000240: d9fb 0100 cb9c 0100 b0f1 0100 3806 0180
00000250: 807f 0000 4700 0100 38a4 5db8 71eb 6433
00000260: 05b3 d8b5 87a8 dab4 5831 d0b7 9c81 7138
00000270: 5b1c 4cb8 7ac5 94b9 8960 0b39 dbdf 133a
00000280: 6feb f5b9 2883 af34 3b2d db39 bc92 34b8
00000290: b06b b9b8 7342 e239 c544 d4b9 45e9 fdba
000002a0: c8e8 e739 b909 b93a 75c5 1aba c3ba 04b7
000002b0: ea25 f539 18bc 0eb9 cbdd 2fb9 c634 283a
000002c0: 3e84 a9b9 ad5e 08bb 069d 5ab8 458c d33a
000002d0: 782f d7b9 89d5 f7af 6a1f 0e36 2f18 93b8
000002e0: 3c05 e4b8 d148 9039 f69b 5236 c2b0 95b8
000002f0: 92e7 2a38 11c8 993a e70a 24b5 6147 378f
00000300: 8467 0180 4bb0 fcb3 9695 7a37 a52c 9838
00000310: 6301 5727 c285 e19c 37c6 e736 831a 8639
00000320: e3ca 663c e9c0 ecbb d010 fd3a ebd4 083c
00000330: 47b1 a33b 6713 ae3c 76af 833a 695c 13bc
00000340: e746 ce3c 1d1e ca3b 3c01 a8b9 fd0f f23a
00000350: 4be2 373c 6357 d1ba 8880 17bd 0c12 86bd
00000360: d7d9 a63c a6e1 69bc 5901 b1bb 880a 17ba
00000370: dbc8 da3a d5c2 d03c cf26 b13b a9f4 a9bc
00000380: 1602 ecbc f716 47bd ab57 86bc 5c42 9abb
00000390: 3a18 5e3c 136e f5bb 4a08 ee3c 4377 61bb
000003a0: 52d3 433c 2708 993c 9798 95bd 0ddf 35be
000003b0: 61e4 4bbc 6016 21bc c586 623b d72f 4738
000003c0: 2494 5b3c 8a4c 7e3a a23e cd3b 1f5b b83c
000003d0: d335 73bd 78e3 e2bd 3bf1 233a 0962 263b
000003e0: 02f4 ecbb 2e28 eb3c f92c dd3b 7ffa a7b9
000003f0: c06e 0180 966a 0100 5975 f039 cc47 d6ba

out.0.weight f4 [1, 3200]
0.003931035 -4.738874e-05 -0.003663286 -0.0015842137 -0.0016114964 -0.002921838 0.00021729553 -0.0017503882
0.0068025407 -0.005491071 -0.0070540104 -0.013836497 -0.0018457039 0.004989423 -0.038525935 0.031079642
-8.997483e-05 0.0009812814 -0.0042882143 -0.003394316 -0.014318918 0.008021944 0.002951339 -0.00815969
0.028143654 -0.008446566 0.0029068033 -0.0005964786 0.0021632537 0.0042274585 0.007980216 -0.0007860537
0.0025307098 0.0057711573 0.02335814 -0.023271216 -0.003844386 -0.0020713196 -0.005135077 0.0027805015
0.005242945 0.0007645545 0.0030510263 -0.004464242 -0.029440345 0.021116875 0.0070543326 -0.002192336
0.007833447 -0.003939148 0.016121486 0.0002922654 -3.0111e-41 1.855e-40 -0.025634969 -0.023270773
0.00040752956 4.8066e-41 2.5084282e-32 2.3892e-41 0.007557031 0.0006550375 0.0008086516 -0.0021013853
-0.0023699477 -0.031417582 -0.0006774075 0.0013686693 -0.0008914506 0.00094624376 0.005636771 -2.2554693e-06
-8.814513e-06 -0.00016502613 0.0077167675 0.0051920637 0.00047299007 -0.0027684178 0.001879366 0.0011489523
0.0049052616 0.0012023137 0.003995334 -0.0009107188 -3.5720607e-06 -0.009359202 -0.0013387128 0.00465012
-0.0005198377 7.79e-41 0.0031373668 -1.2779153e-05 1.8557863e-34 -0.00021201502 0.0019072988 0.004523844
-0.00014969768 -1.6033352e-06 0.0027965398 -0.0008286481 0.0038442675 0.0011590272 0.0001281663 -3.9123e-41
-1.8090239e-05 0.0048998194 -0.0063171107 0.00032573027 -9.82e-43 -1.30252e-40 0.014910883 0.0021930141
1.15166e-40 8.2061e-41 -0.0021698829 -0.049923822 -0.0023298734 2.8562324e-25 -2.21223e-40 -9.3049e-41
0.010144269 0.0020950346 -2.41504e-40 3.48e-43 -3.6045221e-06 -0.014957937 -0.004463712 -1.86747e-40
3.835e-42 -1.87296e-40 0.004163745 1.26477e-40 7.536e-42 -4.2405e-41 -5.0636e-41 -1.161357e-08
-3.1466e-41 8.2e-41 1.30144e-40 -1.38839e-40 1.53612e-40 -1.71655e-40 6.5361e-41 1.43298e-40
1.82181e-40 1.48082e-40 1.78537e-40 -9.4066e-41 4.5738e-41 9.1935e-41 -5.2843447e-05 5.329952e-08
-1.6145356e-06 -4.0728284e-07 -2.481851e-05 5.7579586e-05 -4.86638e-05 -0.0002837589 0.00013292035 0.0005640962
-0.00046905453 3.269172e-07 0.00041804634 -4.3052e-05 -8.841546e-05 0.00043155588 -0.00040487028 -0.0019371888
0.0004423319 0.0014117277 -0.0005904057 -7.911297e-06 0.0004675829 -0.00013612246 -0.00016771925 0.0006416555
-0.0003233272 -0.0020808384 -5.212149e-05 0.0016139826 -0.00041043363 -4.5080764e-10 2.1177934e-06 -7.014011e-05
-0.00010872862 0.00027520073 3.138322e-06 -7.1377974e-05 4.0746825e-05 0.0011732598 -6.1110626e-07 -9.036344e-30
-1.2897e-40 -1.1766732e-07 1.4935989e-05 7.2562405e-05 2.9837996e-15 -1.4923827e-21 6.9074117e-06 0.00025578224
0.014086458 -0.007225145 0.0019307379 0.008351545 0.0049954983 0.021249486 0.0010046798 -0.0089942
0.025180293 0.0061681406 -0.00032044377 0.00184679 0.011223386 -0.0015971478 -0.03698781 -0.06546411
0.020367546 -0.01427499 -0.005401772 -0.0005761762 0.001669194 0.025483528 0.0054062377 -0.020746546
-0.028809588 -0.048605885 -0.016399225 -0.0047076177 0.013555581 -0.0074899285 0.029056687 -0.003440336
0.011952238 0.018680645 -0.07304495 -0.17760868 -0.0124445865 -0.009831995 0.0034565192 4.748985e-05
0.013402019 0.0009700736 0.00626357 0.022504387 -0.059377503 -0.110785425 0.00062539027 0.0025388023
-0.0072312364 0.028705683 0.006749746 -0.00032039356 -1.31565e-40 1.30071e-40 0.00045863798 -0.0016348301
00000000: e9cf 803b 46c3 46b8 be13 70bb 64a5 cfba
00000010: d938 d3ba 4f7c 3fbb d3d9 6339 486d e5ba
00000020: d9e7 de3b 71ee b3bb 5425 e7bb 7ab2 62bc
00000030: 8ceb f1ba 507e a33b 5fcd 1dbd bc9a fe3c
00000040: deb0 bcb8 579e 803a 2684 8cbb 2c73 5ebb
00000050: e599 6abc 796e 033c 406b 413b 38b0 05bc
00000060: 858d e63c 7763 0abc 1180 3e3b 005d 1cba
00000070: 60c5 0d3b 7e86 8a3b 74bf 023c 2c0f 4eba
00000080: 44da 253b fa1b bd3b 9259 bf3c 47a3 bebc
00000090: 18f2 7bbb fabe 07bb 2644 a8bb 1339 363b
000000a0: 03cd ab3b 626c 483a baf3 473b c748 92bb
000000b0: e12c f1bc 4cfd ac3c 0828 e73b 4bad 0fbb
000000c0: dc57 003c f813 81bb 3511 843c 333b 9939
000000d0: f053 0080 1905 0200 6d00 d2bc 59a2 bebc
000000e0: b1a9 d539 fd85 0000 bb3e 020b 9a42 0000
000000f0: f8a0 f73b d3b6 2b3a b1fb 533a 65b7 09bb
00000100: 2051 1bbb b9af 00bd 0c94 31ba ec64 b33a
00000110: 3db0 69ba 580d 783a aab4 b83b ab5c 17b6
00000120: 0ce2 13b7 dd0a 2db9 f0dc fc3b 3022 aa3b
00000130: a7fb f739 586e 35bb 0f55 f63a 7198 963a
00000140: 51bc a03b f496 9d3a 4aeb 823b 4ebd 6eba
00000150: 89b7 6fb6 5757 19bc bf77 afba 0960 983b
00000160: b845 08ba 27d9 0000 489c 4d3b 0b66 56b7
00000170: 23ad 7607 5950 5eb9 54fe f93a c13c 943b
00000180: 2af8 1cb9 2e32 d7b5 2746 373b a239 59ba
00000190: 1bf0 7b3b 80ea 973a 6164 0639 0f6d 0080
000001a0: 7ec0 97b7 aa8e a03b c4ff cebb c7c6 aa39
000001b0: bd02 0080 176b 0180 c74c 743c acb8 0f3b
000001c0: 0941 0100 c1e4 0000 9834 0ebb ec7c 4cbd
000001d0: cab0 18bb cfca b016 ae68 0280 6203 0180
000001e0: 2634 263c d94c 093b 37a1 0280 f800 0000
000001f0: 38e5 71b6 2312 75bc 5544 92bb 9308 0280
00000200: b10a 0000 1b0a 0280 0670 883b 9160 0100
00000210: 0215 0000 3576 0080 278d 0080 0585 47b2
00000220: b757 0080 95e4 0000 ca6a 0100 0783 0180
00000230: 35ac 0100 81de 0180 33b6 0000 758f 0100
00000240: d9fb 0100 cb9c 0100 b0f1 0100 3806 0180
00000250: 807f 0000 4700 0100 38a4 5db8 71eb 6433
00000260: 05b3 d8b5 87a8 dab4 5831 d0b7 9c81 7138
00000270: 5b1c 4cb8 7ac5 94b9 8960 0b39 dbdf 133a
00000280: 6feb f5b9 2883 af34 3b2d db39 bc92 34b8
00000290: b06b b9b8 7342 e239 c544 d4b9 45e9 fdba
000002a0: c8e8 e739 b909 b93a 75c5 1aba c3ba 04b7
000002b0: ea25 f539 18bc 0eb9 cbdd 2fb9 c634 283a
000002c0: 3e84 a9b9 ad5e 08bb 069d 5ab8 458c d33a
000002d0: 782f d7b9 89d5 f7af 6a1f 0e36 2f18 93b8
000002e0: 3c05 e4b8 d148 9039 f69b 5236 c2b0 95b8
000002f0: 92e7 2a38 11c8 993a e70a 24b5 6147 378f
00000300: 8467 0180 4bb0 fcb3 9695 7a37 a52c 9838
00000310: 6301 5727 c285 e19c 37c6 e736 831a 8639
00000320: e3ca 663c e9c0 ecbb d010 fd3a ebd4 083c
00000330: 47b1 a33b 6713 ae3c 76af 833a 695c 13bc
00000340: e746 ce3c 1d1e ca3b 3c01 a8b9 fd0f f23a
00000350: 4be2 373c 6357 d1ba 8880 17bd 0c12 86bd
00000360: d7d9 a63c a6e1 69bc 5901 b1bb 880a 17ba
00000370: dbc8 da3a d5c2 d03c cf26 b13b a9f4 a9bc
00000380: 1602 ecbc f716 47bd ab57 86bc 5c42 9abb
00000390: 3a18 5e3c 136e f5bb 4a08 ee3c 4377 61bb
000003a0: 52d3 433c 2708 993c 9798 95bd 0ddf 35be
000003b0: 61e4 4bbc 6016 21bc c586 623b d72f 4738
000003c0: 2494 5b3c 8a4c 7e3a a23e cd3b 1f5b b83c
000003d0: d335 73bd 78e3 e2bd 3bf1 233a 0962 263b
000003e0: 02f4 ecbb 2e28 eb3c f92c dd3b 7ffa a7b9
000003f0: c06e 0180 966a 0100 5975 f039 cc47 d6ba

exp_avg f4 [32, 2, 5, 5]
9.819145e-05 6.59132e-05 -1.715384e-06 -0.000113631686 -0.000230842 0.00010864138 7.107147e-05 -1.4147882e-05
-0.000152071 -0.0003148856 0.0001226002 7.071569e-05 -2.1032189e-05 -0.00017744281 -0.00036719016 0.00014679592
9.9687946e-05 8.189594e-06 -0.00015314421 -0.0003475877 0.00017110024 0.00014272299 5.1230545e-05 -9.901901e-05
-0.00029259227 -8.761185e-06 -6.8546535e-05 -0.0001535514 -0.00025395292 -0.00036618218 -4.3751597e-06 -9.081e-05
-0.00020641633 -0.0003445233 -0.00048314244 -1.713079e-06 -9.279895e-05 -0.00022491463 -0.00038330344 -0.0005485104
1.58178e-05 -7.38907e-05 -0.00021604064 -0.00038692297 -0.00055220677 4.5878598e-05 -3.8696628e-05 -0.0001596049
-0.00031303818 -0.00048570053 -0.000459156 -0.00049259985 -0.0005123567 -0.00047211803 -0.00038406538 -0.0002869284
-0.00040020846 -0.00044826188 -0.00046464123 -0.00042144864 -0.00021404808 -0.00038480415 -0.0004989563 -0.00056285923
-0.0005859999 -1.2789132e-05 -0.0002667551 -0.00043788683 -0.0005676898 -0.0006351595 0.000201892 -9.580273e-05
-0.00034892012 -0.0005142326 -0.0006381576 -0.00049112225 -0.00052926154 -0.00049514405 -0.00040879002 -0.0002893693
-0.0002972026 -0.00039620715 -0.00043748162 -0.00040080494 -0.00035289986 -0.00019213594 -0.00038079245 -0.00048262332
-0.000531073 -0.0005355602 1.9248917e-05 -0.00023629885 -0.00043141074 -0.0005290452 -0.00060148124 0.00027810046
-9.077587e-05 -0.00032605842 -0.0005107855 -0.00060922053 0.0001460247 4.191949e-05 -8.859493e-05 -0.0002869285
-0.0005533775 0.00015066704 2.006832e-05 -0.00013132225 -0.00033440138 -0.0006207949 0.0001440183 1.2990871e-05
-0.00015491464 -0.00036711365 -0.00064857997 0.00016228568 1.1568327e-05 -0.00015530133 -0.00036610547 -0.00061769166
0.00015857299 8.465021e-06 -0.0001505814 -0.00035639814 -0.00057817035 0.00015711125 3.388095e-05 -0.00013693274
-0.0003682396 -0.00070597755 0.00016257483 2.9176073e-05 -0.00015292529 -0.00043199488 -0.0007855028 0.00018362836
3.111265e-05 -0.00016379807 -0.00044999155 -0.0008161731 0.00020494622 6.256821e-05 -0.00014387682 -0.00042874084
-0.00080152013 0.00021408118 7.986339e-05 -0.00011936576 -0.00038924802 -0.0007400857 -0.0013694289 -0.0014526681
-0.001373722 -0.0011243277 -0.0007218044 -0.0012988992 -0.0013991415 -0.0013253201 -0.0010706801 -0.0006393471
-0.0012216731 -0.0013493117 -0.0012923947 -0.0010270776 -0.00060459774 -0.0011558078 -0.001296529 -0.0012642797
-0.0010309506 -0.0006008875 -0.0010826016 -0.0012687526 -0.0012577263 -0.0010296032 -0.00062153663 -0.0014060431
-0.0014757391 -0.0013944735 -0.0011599951 -0.00073964056 -0.0013321661 -0.0014125707 -0.0013496997 -0.0011074285
-0.00067157473 -0.0012438663 -0.0013736403 -0.0013200791 -0.0010929158 -0.0006491366 -0.0011834643 -0.0013550557
-0.0013169801 -0.0010995059 -0.00067421654 -0.0011149492 -0.0013025411 -0.001306601 -0.0011056412 -0.00071259553
-1.4236385e-07 9.928735e-05 0.00023850007 0.00037412436 0.00047320468 5.461985e-06 0.000102846796 0.00021829038
0.00034139317 0.00043046573 2.1448726e-05 8.29732e-05 0.00017062317 0.00026428027 0.00032359295 3.2433963e-05
7.354579e-05 0.000111321075 0.00015735015 0.000174523 7.303958e-05 4.5564222e-05 5.5801567e-05 4.0652012e-05
1.9017818e-05 -0.00019452513 -0.00018174393 -0.00013423589 -6.4904096e-05 3.824129e-05 -0.00016884186 -0.000187699
-0.00016279299 -0.00012428171 -5.1271734e-05 -0.00013693812 -0.0001682223 -0.00018865152 -0.00019955522 -0.00017795671
-7.552394e-05 -0.00015240391 -0.00021987443 -0.00028826276 -0.0003108712 -1.9291245e-05 -9.159705e-05 -0.00021086367
-0.0003371889 -0.0004333005 -0.00021685603 -0.00010922382 -2.3076944e-05 3.065253e-05 -1.4319257e-05 -0.00015639768
00000000: 22ec cd38 e13a 8a38 253c e6b5 8c4d eeb8
00000010: 2d0e 72b9 66d6 e338 340c 9538 b15c 6db7
00000020: 4075 1fb9 3b17 a5b9 3e8e 0039 324d 9438
00000030: 486e b0b7 f10f 3ab9 6e83 c0b9 3bed 1939
00000040: 8f0f d138 0a66 0937 5695 20b9 6e3c b6b9
00000050: 5f69 3339 e9a7 1539 61e0 5638 6da8 cfb8
00000060: 1267 99b9 01fd 12b7 a4c0 8fb8 a402 21b9
00000070: fc24 85b9 24fc bfb9 56ce 92b6 3f71 beb8
00000080: 7671 58b9 22a1 b4b9 484e fdb9 f2ec e5b5
00000090: 0f9d c2b8 10d7 6bb9 1ef6 c8b9 e9c9 0fba
000000a0: 78b0 8437 c4f5 9ab8 f888 62b9 ecdb cab9
000000b0: f8c1 10ba c56d 4038 304e 22b8 9d5b 27b9
000000c0: 461f a4b9 9fa5 feb9 e0ba f0b9 d121 01ba
000000d0: ad4f 06ba 9c86 f7b9 625c c9b9 e16e 96b9
000000e0: 12d3 d1b9 b104 ebb9 179b f3b9 e1f5 dcb9
000000f0: 1872 60b9 8abf c9b9 64cc 02ba d88c 13ba
00000100: ca9d 19ba e790 56b7 43db 8bb9 2d94 e5b9
00000110: 05d1 14ba d580 26ba f9b2 5339 b3e9 c8b8
00000120: 44ef b6b9 91cd 06ba 084a 27ba a8be 00ba
00000130: 24be 0aba 8ecc 01ba de52 d6b9 7db6 97b9
00000140: dcd1 9bb9 06ba cfb9 ca5d e5b9 2123 d2b9
00000150: 6b05 b9b9 1978 49b9 19a5 c7b9 9b08 fdb9
00000160: b537 0bba d664 0cba bc78 a137 fdc6 77b9
00000170: f82e e2b9 9faf 0aba b9ac 1dba 03ce 9139
00000180: ed5e beb8 d2f2 aab9 3ce6 05ba 19b4 1fba
00000190: 351e 1939 b6d2 2f38 0acc b9b8 e46e 96b9
000001a0: 8910 11ba 60fc 1d39 6458 a837 8cb3 09b9
000001b0: 9852 afb9 d7bc 22ba 9e03 1739 5ef3 5937
000001c0: 9570 22b9 2979 c0b9 7705 2aba 3b2b 2a39
000001d0: 9615 4237 62d8 22b9 d8f1 bfb9 96ec 21ba
000001e0: 9d46 2639 fd04 0e37 63e5 1db9 f3da bab9
000001f0: 5b90 17ba 3bbe 2439 651b 0e38 9a95 0fb9
00000200: 4810 c1b9 5a11 39ba d978 2a39 24bf f437
00000210: 925a 20b9 5f7d e2b9 33ea 4dba 5d8c 4039
00000220: f47e 0238 36c1 2bb9 d8ec ebb9 73f4 55ba
00000230: d5e6 5639 0d37 8338 a4dd 16b9 9fc8 e0b9
00000240: 1b1d 52ba fb7a 6039 557c a738 0154 fab8
00000250: fc13 ccb9 5002 42ba 697e b3ba 7467 beba
00000260: 760e b4ba 2d5e 93ba 7937 3dba d33f aaba
00000270: 6663 b7ba 5db6 adba 1056 8cba dc99 27ba
00000280: 8c20 a0ba 63db b0ba 9265 a9ba 019f 86ba
00000290: de7d 1eba 797e 97ba 4bf0 a9ba 30b6 a5ba
000002a0: f620 87ba e184 1dba 15e6 8dba 464c a6ba
000002b0: 4bda a4ba c0f3 86ba 9eee 22ba fa4a b8ba
000002c0: 966d c1ba c4c6 b6ba fa0a 98ba 70e4 41ba
000002d0: 149c aeba 0226 b9ba 68e8 b0ba 2227 91ba
000002e0: 9e0c 30ba 3a09 a3ba b80b b4ba 8106 adba
000002f0: 2b40 8fba d22a 2aba 791e 9bba 209c b1ba
00000300: 859e acba 4c1d 90ba e8bd 30ba 7d23 92ba
00000310: 07ba aaba 4142 abba 2aeb 90ba 7acd 3aba
00000320: addc 18b4 7d38 d038 e015 7a39 1f26 c439
00000330: 7518 f839 1846 b736 74af d738 e1e4 6439
00000340: 04fd b239 22b0 e139 caec b337 e601 ae38
00000350: 4fe9 3239 198f 8a39 e9a7 a939 b409 0838
00000360: 983c 9a38 0c75 e938 5cfe 2439 2900 3739
00000370: d32c 9938 361c 3f38 7a0c 6a38 c481 2a38
00000380: 7488 9f37 71f9 4bb9 8492 3eb9 acc1 0cb9
00000390: 1f1d 88b8 4665 2038 240b 31b9 11d1 44b9
000003a0: 69b3 2ab9 9e51 02b9 9b0c 57b8 0c97 0fb9
000003b0: d464 30b9 c2d0 45b9 b23f 51b9 e499 3ab9
000003c0: 9b62 9eb8 9dce 1fb9 188e 66b9 f921 97b9
000003d0: 6dfc a2b9 a2d3 a1b7 cb17 c0b8 491b 5db9
000003e0: bac8 b0b9 9c2c e3b9 d963 63b9 180f e5b8
000003f0: 5c95 c1b7 e790 0038 be3c 70b7 affe 23b9

exp_avg_sq f4 [32, 2, 5, 5]
4.1929408e-07 6.239129e-07 9.973743e-07 1.5901089e-06 2.3831212e-06 4.3165676e-07 6.7831746e-07 1.1279312e-06
1.8202512e-06 2.7156955e-06 4.1491512e-07 6.678368e-07 1.1346106e-06 1.8462632e-06 2.7447215e-06 3.775597e-07
6.076444e-07 1.0560706e-06 1.7486664e-06 2.6142995e-06 3.4319766e-07 5.453718e-07 9.691599e-07 1.6493526e-06
2.5077948e-06 3.0515804e-07 4.810965e-07 8.641002e-07 1.5023526e-06 2.341582e-06 3.013092e-07 5.056308e-07
9.515095e-07 1.6931907e-06 2.6586672e-06 2.75315e-07 4.7268458e-07 9.2560174e-07 1.6901671e-06 2.6849e-06
2.3927336e-07 4.081501e-07 8.347564e-07 1.5818763e-06 2.5685463e-06 2.1145988e-07 3.5220936e-07 7.5386095e-07
1.4888138e-06 2.4818935e-06 1.5084066e-06 9.763611e-07 6.722847e-07 6.008936e-07 8.0635425e-07 2.1372307e-06
1.2985945e-06 7.717938e-07 5.4691276e-07 6.0158607e-07 3.1313941e-06 1.9169609e-06 1.0991643e-06 6.5523216e-07
5.297858e-07 3.8228086e-06 2.377937e-06 1.3733168e-06 8.042933e-07 5.8929834e-07 4.3159957e-06 2.7698106e-06
1.6470538e-06 9.876894e-07 7.0686724e-07 1.3068259e-06 8.352504e-07 5.976415e-07 5.956796e-07 8.679779e-07
1.7439419e-06 1.0437634e-06 6.4662066e-07 5.087992e-07 6.1155947e-07 2.6274574e-06 1.607081e-06 9.499299e-07
5.9833155e-07 4.986812e-07 3.377329e-06 2.1222372e-06 1.2763668e-06 7.859244e-07 5.855437e-07 4.0885743e-06
2.6672085e-06 1.6658248e-06 1.0497446e-06 7.6834436e-07 5.442427e-07 4.2741098e-07 3.316299e-07 3.889517e-07
8.3811017e-07 4.988899e-07 4.194167e-07 4.3936956e-07 6.9465716e-07 1.3698613e-06 5.049795e-07 5.4500714e-07
8.3983963e-07 1.4976988e-06 2.559669e-06 5.6585543e-07 8.0330506e-07 1.5021462e-06 2.7415465e-06 4.349296e-06
5.580365e-07 9.149808e-07 1.9338418e-06 3.6632534e-06 5.7575617e-06 5.637268e-07 4.5286632e-07 3.9090864e-07
5.622555e-07 1.2571902e-06 5.193721e-07 4.239745e-07 4.5753865e-07 8.327451e-07 1.8348085e-06 5.170944e-07
4.990795e-07 7.4257974e-07 1.4863184e-06 2.9317966e-06 5.621597e-07 6.7267985e-07 1.2247655e-06 2.4638032e-06
4.4841213e-06 5.9577206e-07 7.819364e-07 1.5392503e-06 3.1540028e-06 5.578366e-06 3.423271e-06 3.5396297e-06
3.0622557e-06 2.3977339e-06 2.312475e-06 3.1007753e-06 3.238962e-06 2.7506912e-06 2.1291876e-06 2.2964732e-06
2.8782856e-06 3.0890121e-06 2.6336434e-06 2.0297541e-06 2.2572399e-06 2.7945275e-06 3.1180286e-06 2.729987e-06
2.0742027e-06 2.138899e-06 2.90393e-06 3.369472e-06 3.075132e-06 2.325391e-06 2.0719544e-06 3.7745347e-06
4.0229734e-06 3.5973426e-06 2.747742e-06 2.1799358e-06 3.4749212e-06 3.738491e-06 3.261809e-06 2.362952e-06
1.8747463e-06 3.2664832e-06 3.6014983e-06 3.1399286e-06 2.2035156e-06 1.6839223e-06 3.2024795e-06 3.653832e-06
3.2565713e-06 2.273972e-06 1.5831512e-06 3.3340714e-06 3.947273e-06 3.6570034e-06 2.6272385e-06 1.6948616e-06
9.0124394e-07 8.4635167e-07 8.3581307e-07 1.2650418e-06 2.878287e-06 9.2675447e-07 8.95011e-07 9.485053e-07
1.5749347e-06 3.677446e-06 1.0662501e-06 1.0370601e-06 1.0926802e-06 1.7287493e-06 3.8585613e-06 1.2793105e-06
1.2171264e-06 1.2017487e-06 1.6696634e-06 3.4031132e-06 1.4297984e-06 1.3145437e-06 1.213977e-06 1.4745024e-06
2.6899415e-06 1.005461e-06 9.772851e-07 9.792699e-07 1.3498367e-06 2.7656306e-06 1.1140758e-06 1.1751792e-06
1.3051575e-06 1.9013985e-06 3.7437615e-06 1.2992106e-06 1.4136151e-06 1.6014486e-06 2.2444226e-06 4.0904447e-06
1.4922979e-06 1.5893635e-06 1.7245388e-06 2.2159043e-06 3.670905e-06 1.5695451e-06 1.6002223e-06 1.6262795e-06
1.8944587e-06 2.8741265e-06 2.100095e-06 1.6134168e-06 1.3789995e-06 1.7898674e-06 3.2635867e-06 2.3376094e-06
00000000: 571b e134 f87a 2735 85dd 8535 ba6b d535
00000010: b6ed 1f36 74be e734 9f15 3635 6c63 9735
00000020: 5b4f f435 4b3f 3636 80c1 de34 6545 3335
00000030: ec48 9835 1fcd f735 f531 3836 69b3 ca34
00000040: 011d 2335 4fbe 8d35 b8b3 ea35 5371 2f36
00000050: ba40 b834 aa65 1235 1514 8235 535f dd35
00000060: 964b 2836 9ad4 a334 b324 0135 83f4 6735
00000070: 71a4 c935 1324 1d36 9fc3 a134 afba 0735
00000080: 3c6b 7f35 9741 e335 8e6b 3236 01cf 9334
00000090: 46c5 fd34 de76 7835 b3d9 e235 3b2e 3436
000000a0: 7b75 8034 b91f db34 0614 6035 db50 d435
000000b0: 4a5f 2c36 a60d 6334 4917 bd34 ee5c 4a35
000000c0: 41d3 c735 9b8e 2636 7574 ca35 830b 8335
000000d0: 0e77 3435 184d 2135 3e74 5835 586d 0f36
000000e0: 5e4b ae35 442d 4f35 8fcf 1235 ae7c 2135
000000f0: f124 5236 23a5 0036 ff86 9335 36e3 2f35
00000100: 9a36 0e35 ad45 8036 a694 1f36 ce52 b835
00000110: 9de6 5735 4630 1e35 1fd2 9036 fce0 3936
00000120: 5610 dd35 c090 8435 8cbf 3d35 3266 af35
00000130: f835 6035 9c6d 2035 cae6 1f35 fdfe 6835
00000140: 6311 ea35 7017 8c35 6f93 2d35 6a94 0835
00000150: 0c2a 2435 6053 3036 e2b2 d735 b0fe 7e35
00000160: 089d 2035 1cdd 0535 12a6 6236 c26b 0e36
00000170: a14f ab35 50f8 5235 422e 1d35 9630 8936
00000180: 4bfe 3236 4e95 df35 f3e4 8c35 3940 4e35
00000190: 1318 1235 eb76 e534 de0a b234 1dd1 d034
000001a0: 7efa 6035 74eb 0535 312c e134 7ee2 eb34
000001b0: 7a78 3a35 13dc b735 ed8d 0735 9b4c 1235
000001c0: 5771 6135 8a04 c935 c7c6 2b36 4ae5 1735
000001d0: b4a2 5735 5a9d c935 69fb 3736 2bf0 9136
000001e0: facb 1535 009d 7535 26c7 0136 37d6 7536
000001f0: 1431 c136 0353 1735 7921 f334 13de d134
00000200: e7ed 1635 babc a835 fb6a 0b35 9d9e e334
00000210: a2a3 f534 cf89 5f35 8a43 f635 75ce 0a35
00000220: 7bf8 0535 b155 4735 837d c735 e2bf 4436
00000230: 52e7 1635 3592 3435 9f62 a435 d157 2536
00000240: 4f76 9636 25ed 1f35 43e6 5135 3d98 ce35
00000250: 5ba9 5336 cd2d bb36 59bb 6536 608a 6d36
00000260: 2781 4d36 c1e8 2036 0530 1b36 ea16 5036
00000270: f25c 5936 8498 3836 2ae3 0e36 1c1d 1a36
00000280: 9228 4136 d34c 4f36 a6bd 3036 e936 0836
00000290: 167b 1736 9e89 3b36 533f 5136 d234 3736
000002a0: 8832 0b36 018a 0f36 23e1 4236 171f 6236
000002b0: 5e5e 4e36 ea0d 1c36 e80b 0b36 034e 7d36
000002c0: 14fd 8636 e069 7136 d965 3836 034b 1236
000002d0: b132 6936 c9e2 7a36 74e5 5a36 3593 1e36
000002e0: cb9f fb35 c135 5b36 45b1 7136 90b7 5236
000002f0: 1ce0 1336 2103 e235 2eea 5636 5b34 7536
00000300: 788b 5a36 8b9a 1836 a97c d435 e9be 5f36
00000310: d172 8436 d76a 7536 9d4f 3036 007b e335
00000320: 03ed 7135 d830 6335 a35c 6035 81ca a935
00000330: 9828 4136 15c6 7835 b040 7035 ca9c 7e35
00000340: 5862 d335 0bca 7636 131c 8f35 1d31 8b35
00000350: 35a8 9235 6007 e835 ca78 8136 c6b4 ab35
00000360: 255c a335 c54b a135 3319 e035 0a61 6436
00000370: 80e7 bf35 616f b035 efef a235 84e7 c535
00000380: d884 3436 60f3 8635 432b 8335 756f 8335
00000390: 092c b535 2c99 3936 5a87 9535 daba 9d35
000003a0: df2c af35 8e33 ff35 553d 7b36 8960 ae35
000003b0: 72bb bd35 5bf1 d635 e39e 1636 a740 8936
000003c0: f74a c835 1d52 d535 b476 e735 f2b4 1436
000003d0: ab59 7636 29a9 d235 38c7 d635 8a46 da35
000003e0: 1b45 fe35 1ee1 4036 5bef 0c36 948c d835
000003f0: 1016 b935 603b f035 fe03 5b36 d3df 1c36
