results/2BS/T_1/L_10000/seed3/model_best.pth.tar (torch_old, 395621 bytes, 22 tensors)

layer1.conv.weight f4 [32, 2, 5, 5]
00000000: 7e58 eb3c d0d1 8e3c f54f 963c cf11 61bd
00000010: 2427 e63c 616e e9bc a946 86bc f35a 5a3c
00000020: 4dc5 39bc 0643 a23c 91d0 53bd 5ad2 97bd
00000030: 01e9 23bd e57f 533c 00cf acbc d3ac 6a3c
00000040: 875e 7dbd f8b1 f2bb 7ba8 53bd 793d a63d
00000050: 4ef5 ccbc a1b0 0b3c e713 82bd e608 f3bc
00000060: 7dfb 5ebd 92b3 8ebd 28e4 4b3d adca 6f3d
00000070: 2e37 463d fa67 babc f0c7 87bd 35c2 bf3b
00000080: 0471 6e3b 2cde b0b9 e0bb eebc dd89 82bc
00000090: 4fb8 f0bc 2c75 3f3d 78b9 433d b5c7 a43d
000000a0: b21a 58ba 94d2 e4bc 8803 29bc 75e5 84bd
000000b0: 6d8b 003e d1a1 a03b e7f6 913c cd69 f33b
000000c0: 18c9 1b3d b012 a83d bc08 58bc 365e ae3d
000000d0: f079 5cbc 4dbd cbbc 4d74 073d 9627 32bd
000000e0: 766b 5e3a 826c ea3c 4fac ddba af68 7bbb
000000f0: 20f7 b0bc d7a6 273d 1819 b73d 900e 7a3d
00000100: ee9f c0bd 71b4 293c 597c 463d f99d 633d
00000110: d77a 023d 985d 8dbd bb8f a23d 1200 993d
00000120: 13f9 b43d 796a 34bd cdde da3c c06e 683d
00000130: 7b9e e33c 8ed3 81bd 0a65 b3bd c6f0 263d
00000140: e1a1 f4bc 9f19 e7bc ccba b83b dc4a 2bbd
00000150: c63c f5bc fc90 1cbd 2b37 8ebc b14f 83bc
00000160: c958 83bd 109f 803c f3ff 90bd 3975 6dbd
00000170: 5698 68bd a126 cb3c 85ff 08bd f1dd e63c
00000180: 93cf d9bc 51b1 28bd b8dc 90bd 93ae d9bd
00000190: f71e 7fbd 9b59 39bc 9f7f 87bd 79af fdbc
000001a0: 8446 c6bc 61de 643d f710 3b3c aeb5 9bbd
000001b0: f1f0 473d b1d0 2ebc dc41 2139 b3f7 6bbd
000001c0: 48fa 3ebd 8f23 a43c bcb0 f7bd 75af cc3b
000001d0: 4452 7dbc 8324 9ebd 6e40 00bd 4726 1bbd
000001e0: 66fa 313d 6e17 19bd cf77 97bd 7e8e b13c
000001f0: b044 20bd ca33 113d a6b6 edbc b202 efbd
00000200: 53b8 e83c bc3f a6bc 6d46 1bbc 7977 2fbd
00000210: f5e5 32bb 4a7a e73c a2b1 313b 62c1 b13c
00000220: 1615 92bc ebe8 3cbd 86d7 253d 1b57 b23d
00000230: f674 3c3d e37b c43c 5197 fa3a 4b16 9e3d
00000240: fa50 fb3d aedd 9abd 8244 513d 28d1 a33c
00000250: ac1a bc3d 90af d03c c440 613d 7fb9 8cbd
00000260: 87d0 36bd c23e 053d 8aa1 e73c da34 863c
00000270: 7ed7 83bd 97b6 5fbd a90c 913b 9077 b43c
00000280: b97c 213d 8a4a 1e3c f18e 3d3c 488a 8b3d
00000290: fc8c 373d 5b6d 9fbd 04dc 5f3c afa0 783d
000002a0: f03f a7ba dd28 f93d fe24 5fbd 8ea2 8cbc
000002b0: 4c09 83bc 4348 943c 8fcb 2abd 1d1e 96bd
000002c0: 3447 cabd 71fe 083c 768c 68bc 15d6 923c
000002d0: 4a59 a2bd d8d5 e13c 7e9c 1a3d 586f abba
000002e0: e417 c6bc 8d6d 11bd 14ba 433c 691a 2abc
000002f0: 66f2 81bd c127 8bbd bc3f f9bd fac7 ccbd
00000300: 0cf0 f4b9 b7b2 8fbd 4d5e 9f3d f7b0 473b
00000310: ea07 1cbd c60f fcbc 04e2 3dbd 84c8 06bd
00000320: 05d2 76bd 21d4 0fbc 50f8 a9bd b1a4 87bc
00000330: 92d7 e93d 0e49 0dbc 6d48 2dbd ddf6 9ebd
00000340: 2258 253d 01e9 983d 393e 4cbd 6f98 82bd
00000350: a2a8 a93c 7e4f 523d d7fe d93c b087 b73b
00000360: 2ca0 d03c 061d b03c 7b2d cd3d a93e 343d
00000370: 6f0c 853d 7a5a b839 ee3a 993d bc2d ab3d
00000380: bbc3 743d 4bb4 a4bd ba1e 5abd d0ff 913c
00000390: 43d7 40bc 88ff 213d 86bf 733c 5602 9a3d
000003a0: de25 eb3c 4d10 cebb 6d44 493d 8537 80bc
000003b0: bc94 fabb 5624 393d 6c2b eb3d f8ba 00bd
000003c0: 748f 2dbc b3a0 52bd 9263 49bd 8f8c 5abd
000003d0: 2a61 a33c 9b44 38bc e50d 4c3d 0485 db3c
000003e0: 49c7 00bd bd20 87bc e8e5 0fbd 9640 203d
000003f0: a01f 78bb 96b3 493d 0fbe 9fbd c761 febc
0.02872872 0.01743403 0.018348673 -0.054948624 0.028094836 -0.028495016 -0.016391115 0.013327348
-0.011338544 0.01980735 -0.051712576 -0.07413168 -0.04001713 0.01290891 -0.021094799 0.014323431
-0.061857726 -0.0074064694 -0.051674347 0.08117194 -0.025019314 0.008525998 -0.06351452 -0.029667329
-0.054439057 -0.06967844 0.049778134 0.058542896 0.048392467 -0.022754658 -0.06629932 0.0058520087
0.003638328 -0.00033734867 -0.02914232 -0.015934879 -0.02938476 0.046742603 0.0477843 0.080459036
-0.0008243724 -0.027932443 -0.010315783 -0.06489078 0.12553187 0.0049021025 0.017817928 0.007428384
0.038033575 0.08206689 -0.013185676 0.08514063 -0.013456807 -0.02487054 0.033069897 -0.043494783
0.0008484641 0.028616194 -0.0016912314 -0.0038361957 -0.021602213 0.040930595 0.08940333 0.061049044
-0.09405504 0.010357962 0.04845843 0.055570576 0.03185543 -0.06902617 0.07937571 0.074707165
0.0883657 -0.044046853 0.026717568 0.056746244 0.02778553 -0.06339179 -0.08759506 0.040756963
-0.029862346 -0.02821046 0.0056375023 -0.04181944 -0.029936206 -0.038224205 -0.01736029 -0.01602921
-0.06413419 0.015700847 -0.070800684 -0.05797312 -0.056785904 0.024798693 -0.033446807 0.028182002
-0.026588237 -0.041184727 -0.07073349 -0.106290005 -0.06228539 -0.0113128675 -0.06616139 -0.030967461
-0.024203546 0.05587614 0.011417619 -0.07603012 0.048813764 -0.010669873 0.00015378691 -0.05760927
-0.046625406 0.020036487 -0.12094256 0.006246502 -0.015461508 -0.07721808 -0.031311445 -0.0378783
0.04345169 -0.03737586 -0.073958986 0.02167439 -0.039128006 0.03544978 -0.029017758 -0.11670436
0.028408205 -0.020294063 -0.00947724 -0.042838547 -0.002729771 0.028256554 0.0027113934 0.021698657
-0.01783232 -0.046120565 0.040488742 0.0870802 0.04600998 0.023984855 0.0019118582 0.07719096
0.122713044 -0.07561813 0.051090725 0.019997194 0.09184775 0.02547434 0.054993406 -0.06871318
-0.04463246 0.032530554 0.02827527 0.016382623 -0.06437586 -0.05461749 0.004426558 0.022029668
0.039425585 0.009661326 0.011569724 0.068134844 0.044812188 -0.0778453 0.013663296 0.060700115
-0.0012760144 0.12165997 -0.054478638 -0.017167356 -0.015995644 0.018100863 -0.041698035 -0.073299624
-0.09876862 0.008361445 -0.014193645 0.017924348 -0.07927187 0.027567789 0.0377469 -0.0013079448
-0.024181314 -0.035504866 0.01194622 -0.010382273 -0.06345062 -0.06794692 -0.121703595 -0.0999908
-0.00046718155 -0.07016509 0.07781658 0.003047047 -0.038093485 -0.03076924 -0.046358123 -0.03290607
-0.060258884 -0.008778603 -0.08299315 -0.016558023 0.1141807 -0.008623375 -0.0423054 -0.07761929
0.040367253 0.07466317 -0.049864028 -0.06376731 0.020710293 0.05134534 0.026610775 0.005600892
0.025467 0.021498214 0.1001844 0.04400507 0.06496512 0.00035162625 0.07481943 0.083583325
0.059756976 -0.08042201 -0.05325196 0.017822176 -0.011770072 0.039550334 0.014877206 0.07519977
0.02870458 -0.0062885643 0.04913752 -0.015651474 -0.007647125 0.04520067 0.114828914 -0.031428307
-0.010593284 -0.051422786 -0.049167223 -0.053356703 0.019943792 -0.011246826 0.04981794 0.026796825
-0.031440053 -0.016495103 -0.035131365 0.039124094 -0.0037860647 0.049243532 -0.07799923 -0.031052483

layer1.conv.bias f4 [32]
00000000: 29e2 85bd 2230 0d3e 432c 0ebd 87af 053e
00000010: 2a6b db3c 445b 85bd cf30 d63d 0a32 b0bd
00000020: 0e54 183a e327 adbb 944a 233d e4ec 7c3d
00000030: ccff 213d d0e0 cdbd 73e1 513c 485a 48bd
00000040: b98f 0dbd e7c6 e8bd fc91 f33d d633 fbbd
00000050: 8b66 373d be26 d5bc ccd7 4b3d b2f3 ac3d
00000060: 8e30 c2bd 506c 5eba e759 d8bd 4151 e93d
00000070: 7201 eb3c 1e99 e9bd 4525 8bbd b5e0 e63d
-0.06537277 0.13787892 -0.03471018 0.1305524 0.026784498 -0.06511548 0.10458528 -0.08603294
0.0005810865 -0.005284296 0.039866045 0.061749354 0.039550588 -0.10052645 0.012810099 -0.048914224
-0.034560893 -0.113660626 0.11893079 -0.12265746 0.044775527 -0.02601945 0.049766347 0.08444919
-0.09481917 -0.0008484768 -0.105640225 0.11392451 0.028687213 -0.11406158 -0.06794218 0.11273328

layer2.conv1.weight f4 [32, 32, 3, 3]
00000000: 64f3 2fbb 5734 08ba 1ce9 27bd f01f 97bc
00000010: c040 84bc 9634 9dbd 4aca efbc a224 07bd
00000020: 5a88 9e3d 1ee8 d8bb 9e59 ca3c 2dff 4cbd
00000030: 2ffc 39bd 4fca fe3a 82ca 163c 335e cebc
00000040: f13b c03b 074b 0bbd e085 9fbd ec9d b8bd
00000050: 087d b8bb 0d50 b7bb 3421 50bd f7dd 713a
00000060: 69af 7cbd 51f9 7fbc 8252 173d 56c4 573c
00000070: 3438 b2bd 46ed 5cbd 88c7 24bc b6ec 24bd
00000080: 6f87 3ebc 6f69 36be 107b 213b f3f9 233c
00000090: 905c dcbc 650f 1abc 4008 1ebc 0b77 7cbd
000000a0: 8e30 fdbc b46e 6bbc 3ef8 bdbc ad63 e8bc
000000b0: 24f2 943d 2f92 22bc 09eb ccba b8d0 39bc
000000c0: aa08 e9bc 1b35 eb3c 01df b1bc 8995 983c
000000d0: bf37 02bd 1ea3 88bd be99 cabc 612b 9e3c
000000e0: 3e6d 913c 5e0b c5bd dcc0 d4bc c32d 1fbd
000000f0: f146 27bd b9bc ca3c fe1c 28bc 126b d6bc
00000100: ec7e e5bc ec8f 0dbc cfdc 2fbd fe3d 733c
00000110: 5479 713b 6cad 523e 82af 8c3d b84e 57bb
00000120: d9a2 5bbc 50a0 f8b7 a365 14bc 0907 513d
00000130: c4db 32bd 8b13 82bd 48aa de3b e2c9 883b
00000140: 943a 01bd 9309 4e3a 97a2 0f3a f443 b739
00000150: 3383 acb9 5144 8b39 0276 5d39 bec8 4bba
00000160: 3839 a0b9 0e9b e2b9 95d6 dcbc e18d 3cbb
00000170: d748 4dbd 8ee4 873d ae6c cbbc 2004 7bbd
00000180: 8ad8 d63c 2699 903d 6510 ecbc e72d ce3c
00000190: 412e bbbd b87c 68bb b884 923d f6a2 c23d
000001a0: 0f7e 29bc 489a aa3d 88b3 463c 9d7b b3bb
000001b0: ab72 1cbd f20d 4abc 0c55 8c3c 0d0d 25bd
000001c0: fa78 ed3c 6250 2c3d 49e3 4bbd 6a4a 95bc
000001d0: b058 0b3d 65d8 ba39 e49c c238 5a72 b439
000001e0: 4222 08b9 62d0 9b3b 22ec 5cbc 4336 51bc
000001f0: 1ec3 c3bc 233b 4dbc 2a74 2dbe a3ef b33c
00000200: fbc3 2abc 1d9c 74bc 42c1 93bd 69e4 fdbc
00000210: fa93 993c d3e5 cdbd bb0b 833d df55 a83b
00000220: 0add 18bc ab5d 13bb 7c9a a43c 02c7 36bc
00000230: 6d73 49bd f778 8d3c 624d 57bc ce97 b4bc
00000240: c7bf 0e3a f89f 5a3b 311e d43b 5365 bebb
00000250: 3959 b73a 89e1 78bc 3d9d 93bc f768 bdbb
00000260: c79b a23c 0f7d 3abc ed52 ddbb 3eb3 ad3b
00000270: 40d6 78bd 0a8c b7bc ee2c 033c 438f 22bd
00000280: 366a 933a ff98 73bb d50b b1bc efd3 25bc
00000290: a83a 8e3b 7f48 abbb 601a 1a3d 4c95 1dbd
000002a0: 802b 233e eb6d a4bc 9acc f1bc 3614 713b
000002b0: 09fe 1e3c 46c8 dc3b 4be9 513b eeba ab3c
000002c0: 5051 1b3d 6e98 21bc 29c5 aa3c c84a 033e
000002d0: ccaa aabd 0bc2 8c3d 7eca 993b 8964 fbbc
000002e0: 036c f13c 5227 ab3d c8e9 f5bc 61c3 02be
000002f0: ba6c eebc 8810 f9bc 3ac4 86bc 279d e63c
00000300: e6f5 bb3b d026 653d 102b 693d 4ef4 c1bd
00000310: 04c3 4c3c 8196 993d c546 6ebd 4cf2 80bd
00000320: 9732 f2bc 313b bd3d ef12 bb3b db6a d53d
00000330: 1b5b de3b 75ab cbbc 665a f13d 0aa1 81bd
00000340: b6eb 4e3d 3817 efbc 9615 443c 774f a1bc
00000350: 5227 b53b 9ba9 2d3e 0b9c 383d 8b82 76bd
00000360: 5bd5 1ebd e477 02bc 8328 97b9 d068 fa3c
00000370: 2910 063c 85cf 2cbc 4713 1b3d 20d3 bb3b
00000380: 7c56 d2bb 51b2 b2bc 676e e43b 22c1 fa3b
00000390: f0f5 c03b 1e52 49bd 1dbd 85bc 25b1 b5bc
000003a0: 74df 483d 6704 a33c e3ba 1abc f77c d13b
000003b0: 00d5 59bb 5c60 d4bc ba78 f1bb 79a2 063d
000003c0: d035 a8bb 10d6 01bb d618 6ebb dfda 33bd
000003d0: 64ab 1cbd d370 40bb 1ad4 a3bc 1ceb 84bd
000003e0: c7eb f4bd 9389 a33b 3985 9fbd 5615 8b3d
000003f0: b043 e33b afbc babb fd15 01bc b355 9fbc
-0.0026847953 -0.00051957875 -0.040993795 -0.018447846 -0.016144156 -0.076760456 -0.029271264 -0.03299392
0.07740851 -0.0066194674 0.024700936 -0.050048042 -0.045406517 0.0019438955 0.009203555 -0.025191402
0.0058665206 -0.0340071 -0.077892065 -0.09014496 -0.0056301393 -0.0055942596 -0.050812915 0.0009226496
-0.06169072 -0.0156234065 0.03694392 0.013169369 -0.08702126 -0.05393722 -0.010057338 -0.040264808
-0.01162897 -0.17813657 0.0024640001 0.010008323 -0.026899606 -0.009403084 -0.009645522 -0.061636966
-0.030906942 -0.014369655 -0.02318966 -0.028367842 0.07272747 -0.009922548 -0.0015634011 -0.011341266
-0.028446514 0.028711846 -0.021712782 0.018625991 -0.031791445 -0.06671737 -0.024731513 0.019307794
0.017752286 -0.09621309 -0.025970869 -0.038862 -0.04083914 0.024748193 -0.0102608185 -0.026174102
-0.028014623 -0.008640271 -0.04293519 0.014846323 0.0036846 0.20573968 0.06869413 -0.0032853317
-0.013405525 -2.9638555e-05 -0.009057435 0.0510321 -0.043666616 -0.06351384 0.0067952015 0.004174457
-0.031550005 0.0007859703 0.0005479245 0.0003495511 -0.00032904148 0.00026563046 0.00021120164 -0.00077737484
-0.0003056021 -0.00043221604 -0.02695779 -0.002877109 -0.050118294 0.0663539 -0.024832096 -0.06128323
0.0262263 0.07060461 -0.028816411 0.025168372 -0.091396816 -0.0035474729 0.0715422 0.095037386
-0.010344996 0.08330208 0.0121277645 -0.0054773823 -0.038195293 -0.012332426 0.017130397 -0.04029565
0.02898835 0.042068847 -0.049777303 -0.01822396 0.034020126 0.0003563791 9.279864e-05 0.00034417474
-0.00012982733 0.004755066 -0.013484033 -0.012769285 -0.02389675 -0.012526306 -0.16938844 0.021964854
-0.010422702 -0.014929798 -0.072145954 -0.030992704 0.018747319 -0.10053601 0.06398722 0.0051371898
-0.009330044 -0.002248625 0.020093195 -0.011155846 -0.049182344 0.017269595 -0.013141008 -0.022045042
0.0005445447 0.003335951 0.0064733257 -0.0058104186 0.0013988382 -0.0151904905 -0.018019313 -0.005780335
0.019849671 -0.011382355 -0.0067542703 0.0053009083 -0.0607512 -0.022405643 0.008006318 -0.039687406
0.0011246863 -0.003717005 -0.021612087 -0.01012133 0.0043404885 -0.005227148 0.03762281 -0.03847246
0.15934563 -0.020071944 -0.029516507 0.0036785728 0.009704121 0.0067377416 0.0032029923 0.020963158
0.037919343 -0.009863002 0.020845966 0.12821496 -0.08333358 0.06872948 0.0046933284 -0.030687587
0.02947045 0.08357109 -0.030018702 -0.12769844 -0.02910458 -0.03040339 -0.01645099 0.028151108
0.0057361005 0.055945218 0.056925833 -0.094704255 0.012497667 0.074994095 -0.05817296 -0.062962145
-0.029565139 0.092398055 0.005709044 0.10420772 0.006785763 -0.02486203 0.1178482 -0.06329544
0.05051776 -0.029185876 0.011968037 -0.019691212 0.005528369 0.1695923 0.04507069 -0.06018309
-0.03877769 -0.007963154 -0.00028831148 0.030567557 0.008182564 -0.010547523 0.03786018 0.005731955
-0.006419001 -0.021813544 0.006971169 0.0076524178 0.005888693 -0.04915058 -0.016325528 -0.022179196
0.049041227 0.01989956 -0.009443971 0.006393071 -0.003323853 -0.025924854 -0.007369128 0.03286979
-0.005133368 -0.001981143 -0.0036330721 -0.043909904 -0.03824939 -0.0029364123 -0.019998599 -0.06490156
-0.119590335 0.0049907654 -0.07789082 0.06791179 0.006935559 -0.0056987624 -0.007878778 -0.019450044

layer2.conv1.bias f4 [32]
00000000: 3305 2abd aa17 863a e1f3 a8ba 47fb f4bc
00000010: f99a 123d dcd3 883c 448a efb9 3df0 edba
00000020: 680d 8dbb 4122 8ebc 162f 77bb 8bae 12bc
00000030: 9fcc 34bd aa47 353d 6ff1 923c 43cf 333c
00000040: 3ae2 4ebd 9741 623d e258 debb 07ce 073d
00000050: b8cf 79bc f752 673b aa4e e53b f391 54bc
00000060: ddc3 efa9 a9a1 26bc de2a 01bd 3afb ae3c
00000070: e4f6 1dbc 5430 323a 681c 473a 4035 4abb
-0.041508865 0.0010230441 -0.0012890064 -0.029904975 0.035792325 0.016702585 -0.00045688648 -0.0018153262
-0.0043045767 -0.017350318 -0.0037717274 -0.008952747 -0.044140454 0.044257797 0.01793739 0.010974708
-0.050508715 0.055238333 -0.006785498 0.033155467 -0.015247278 0.0035297254 0.006997903 -0.01297425
-1.0647709e-13 -0.010170379 -0.031535022 0.021360029 -0.009641383 0.00067973626 0.00075954804 -0.0030854493

layer2.conv2.weight f4 [64, 32, 3, 3]
00000000: c7a5 cebc 2f02 2cbb a8a2 a4bb 3fdb 6bbc
00000010: 1f1c 95bc 8c22 1c3c 9aff 95bb 16d6 a6bc
00000020: 8c57 783b f9f3 733a 1ed8 463c a00f dd39
00000030: 1a41 ee3b 848f e2bc 51d2 ac3c 582d 0ebb
00000040: 6759 ba3b 8f13 2dbc b420 cfb1 7547 35b1
00000050: ed02 3337 d994 54b5 e510 2fb6 cd5b f436
00000060: 1c90 89b4 02cf 52b7 1001 1737 ee25 15bc
00000070: bd2c 683c d7b2 32bc 4f8a 8cbc 0cff 8fbb
00000080: befd d73c 2440 1e3c dd87 e2bc d221 c03c
00000090: 7e66 b2ba 3f4d ab3a 999e 9bbc 7e49 a23c
000000a0: 35ed 9b3c fa57 7b3c 49ea 043c 6b0a 0fbc
000000b0: f8dd eb3b fc95 68bc 04c9 793c b68f 8f3c
000000c0: cc2d e8bb 397d 043c 25d3 a9bc c4c8 98ba
000000d0: e3c1 d4bc 72d2 82bb 383b 8928 148c 75aa
000000e0: 2d7a fba8 6f93 ac29 8ff7 3c2a ab39 25aa
000000f0: 61bf f528 cc56 1c29 2eda 8c2a 527c a031
00000100: 36f8 e334 ad9f 88b5 aff6 9bb1 5318 7db4
00000110: 9981 0434 b387 64b2 b300 1bb1 c95e 0c31
00000120: 021e 5dbb 3338 5f3c 8653 e8bb 86aa a7bb
00000130: b226 acba 3d70 c4bb 9bf1 0a3b a3af 64bc
00000140: 1e43 eb3b f03e 93bb 2bcf 01bb 1bad 333a
00000150: d570 85ba cbe3 44ba da94 9939 8075 033a
00000160: 5afa bebb a89f 383b 3637 35b6 792e 80b6
00000170: 3954 6e36 ff19 05b9 4464 ae35 bed3 f737
00000180: e880 ab37 4da5 a734 a826 afb6 60a6 e2ba
00000190: eb99 06bc dec7 0e3d 8a7e 803b 189f 013d
000001a0: e9c6 37bc 638b b33c 5189 8a3c 81cd 62bb
000001b0: 1925 4c3b 36a4 d23b bfc2 e63b 7cbf aaba
000001c0: 6742 95bc 14db b03c 7c27 b63b df93 9f3b
000001d0: f2ee 8b39 e050 a4bc 0df2 ae3c cf9c 20bd
000001e0: 9d78 20bc ecb3 a3bd db22 0d3d f621 a0bb
000001f0: a1af 44bd 9404 543c 6aa8 cc3b b8b0 3abd
00000200: d6d1 a43d ed29 093c 8841 3c3c 5d25 3c3b
00000210: 8a51 87bc 7e5e b53b 58c5 67bc 62e6 e6bc
00000220: 7252 9d3c 0e0e 8e3c 249b c43c 2474 853b
00000230: e812 1e3c 3174 773c f552 48bc e2c5 ee3b
00000240: de43 f53c d62c 8d3c cdb5 b1ba 612f 4bbb
00000250: c640 633c c266 a43c f1e0 0cb7 1be2 d1ba
00000260: 70c7 65bc 2c3d 8ebb 9ea9 8c3c cafd 293d
00000270: 7c8f 21bb ecd9 3b3d 517f 38bd e759 43bc
00000280: e28f 48bb 2ad2 29bc 31b0 98ba 0993 3c3a
00000290: 2efd 193a c98b 053a 48d4 363a a927 c03b
000002a0: 8e16 27ba 3431 d1ba 80eb 213b 48fd 9c3c
000002b0: dabf ccbb dea1 a73c ee5e 873b 2be8 c23b
000002c0: ade4 da3b b8d4 a83b 5c40 d6bb 8381 baba
000002d0: ba9a f23b 7aac b4ba be0c 1abc 2bb7 603b
000002e0: f9c7 2bbb 0375 373c 3c1f 3fbb 4737 803b
000002f0: 7c3c 5f3c f738 2eb9 059d b33b ba7e a1bc
00000300: 64c1 133c c0e4 b93b 28fa 953c 8004 1b39
00000310: a3d7 ee3b 744c 30bc be7c 0939 1c5f 65ba
00000320: 5a5f d839 4bfb c03a 1801 753b ba5d 283b
00000330: d3af e339 6113 47bb 1112 ddb9 7664 6b3b
00000340: fafc 2ebd 3d8b 913c c133 1ebb 2a6e 7338
00000350: 25ff 883c 2acf 183c 0bf3 8b3c bfbf 88bc
00000360: a6ff 7896 76c9 ed98 731e 0119 848a 8b98
00000370: 0754 9396 9337 5f17 336b 4d96 c010 f997
00000380: 68b8 2797 c038 94bc 72d2 19bd 6fda b43c
00000390: 9150 ef3b a4be bd3a 10f9 e43b 3a1d 09bb
000003a0: 0188 843b 562c 38bc f2dd 9f3c 6871 12bd
000003b0: acc9 093b 35dc 193b 5afe a63c f8ae 8a39
000003c0: ff0b cc3c 51c9 2b3b 7050 6bbb d9c2 04bb
000003d0: a9fb 92bc 4726 7f3c 433e e43b 0a76 2c3c
000003e0: eb30 ebbb e19f c2bb 5d9e 42bc 7b97 1cbc
000003f0: 0372 5bbc 8884 c93a dee2 5fbb dc34 8c3c
-0.025225533 -0.0026246419 -0.005024273 -0.014395534 -0.018201886 0.009529721 -0.004577589 -0.020365756
0.003789398 0.0009306069 0.012136487 0.00042164046 0.0072709443 -0.027656324 0.02109638 -0.0021694507
0.005686927 -0.010563745 -6.028211e-09 -2.6379585e-09 1.0669913e-05 -7.9192756e-07 -2.6086866e-06 7.2824537e-06
-2.5623092e-07 -1.2565173e-05 9.000549e-06 -0.009103281 0.014170823 -0.010906897 -0.017155794 -0.0043944176
0.02636611 0.009658847 -0.027652675 0.023453627 -0.0013610867 0.0013069286 -0.018996524 0.019810434
0.019034008 0.0153407995 0.008112499 -0.008730511 0.0071980916 -0.014195915 0.01524568 0.017524581
-0.0070855375 0.008086496 -0.020730564 -0.0011656513 -0.025971359 -0.003992372 1.5235737e-14 -2.180897e-13
-2.7919583e-14 7.66391e-14 1.6783643e-13 -1.4674952e-13 2.7283461e-14 3.4714243e-14 2.5020388e-13 4.6707465e-09
4.2462642e-07 -1.0179261e-06 -4.5391384e-09 -2.357131e-07 1.2340605e-07 -1.3302201e-08 -2.2555866e-09 2.042656e-09
-0.003373981 0.013624239 -0.007090035 -0.0051167635 -0.0013134091 -0.005994825 0.0021201137 -0.013957891
0.007179632 -0.0044935867 -0.001980732 0.0006854103 -0.0010180721 -0.00075107504 0.00029293337 0.0005014762
-0.005828184 0.0028171334 -2.7003239e-06 -3.8201074e-06 3.5513788e-06 -0.00012693553 1.2993191e-06 2.9543295e-05
2.0444815e-05 3.1226446e-07 -5.2199066e-06 -0.0017292015 -0.008215408 0.034858577 0.0039213346 0.031645864
-0.0112168575 0.02191705 0.01691118 -0.0034607353 0.0031150042 0.006428267 0.0070422585 -0.0013027037
-0.01822014 0.02158884 0.005558906 0.0048699225 0.00026690174 -0.020058095 0.021355653 -0.039212044
-0.009794381 -0.07993302 0.03445707 -0.004886861 -0.048019055 0.012940545 0.0062456625 -0.04557869
0.080478355 0.008371812 0.011490233 0.0028708794 -0.016518373 0.005534946 -0.0141461715 -0.028186027
0.019204352 0.017340686 0.023999758 0.004072683 0.009648062 0.015103386 -0.01222681 0.007286773
0.029939588 0.017233294 -0.0013558209 -0.0031003582 0.013870424 0.02006853 -8.3970235e-06 -0.0016012819
-0.0140246 -0.0043407883 0.017170724 0.041501798 -0.0024652174 0.045862123 -0.045043293 -0.01192329
-0.003060334 -0.010365048 -0.0011649189 0.0007193541 0.00058742135 0.0005094377 0.00069743814 0.005864103
-0.00063739053 -0.0015960098 0.002470702 0.019163743 -0.0062484564 0.020462926 0.0041311895 0.0059480867
0.0066800923 0.005152311 -0.006538434 -0.0014229271 0.0074036987 -0.0013784312 -0.009402452 0.0034288864
-0.0026211722 0.011197331 -0.0029162904 0.0039128396 0.01362526 -0.00016615154 0.0054813647 -0.019713748
0.009018276 0.005673021 0.01830776 0.00014783628 0.0072888895 -0.010760415 0.00013111808 -0.0008749829
0.00041269773 0.0014723329 0.0037384685 0.002569063 0.00043427813 -0.003037654 -0.00042165865 0.0035918034
-0.042721726 0.01776659 -0.0024139734 5.8038313e-05 0.016723225 0.0093267355 0.017083665 -0.016692994
-2.0113949e-25 -6.1466488e-24 6.675293e-24 -3.6070523e-24 -2.380216e-25 7.212533e-25 -1.6593594e-25 -1.6095476e-24
-5.4193364e-25 -0.018093467 -0.037554212 0.022076814 0.0073033054 0.0014476371 0.0069876984 -0.0020921961
0.0040445332 -0.011241039 0.019515011 -0.035752684 0.0021024747 0.00234772 0.020384956 0.00026451773
0.024908064 0.0026212523 -0.0035906099 -0.002025774 -0.017942267 0.015573091 0.00696543 0.01052619
-0.0071774623 -0.005939469 -0.011878577 -0.0095576 -0.013393882 0.001537458 -0.0034162323 0.017115049

layer2.conv2.bias f4 [64]
00000000: 2692 80bb bc32 6dbb 2936 0cbc 134a 6bb9
00000010: 2023 d8bc 1fdb 343c 40c2 a33c 1586 0a3d
00000020: 1199 8cba 59aa 33bb bbb4 7cbc c64a 3ebd
00000030: 4c67 f23c 4d3e 063d aa7b c0bc 15a8 04bc
00000040: de73 9c3c 2d31 80bc 306b d5bc c924 c9bc
00000050: 916a 26bd e121 82bb da70 3e3c 5165 063d
00000060: b387 9a3a 6cee f5bc b1ee edba d3fe fc3b
00000070: 6d99 ad3a 91a3 bd3c 46f2 353d 1647 c13b
00000080: 949f 16bd 99a8 b83b a116 03bd 65de b4bc
00000090: 11e4 a4bc a6cb febb 9637 d7b7 da55 60bd
000000a0: 9549 ba3c 3d3d 04bc 81ab 42bc cd5b 7c3c
000000b0: 1c88 44bd a620 d73b 0c58 19bb c575 a3bc
000000c0: 2a1c 09bc 8c16 893c 7e2f 713c 585b 11bc
000000d0: 7945 1d3d a5b3 ab3c d441 503d 41b2 373d
000000e0: 5260 45bb 334c 89bc 8500 30bb b76c 453c
000000f0: 8033 9bb8 2462 ceba a8db cfbc e34e ac3b
-0.0039236723 -0.003619357 -0.008557835 -0.00022438941 -0.026383936 0.011038571 0.019990087 0.033819277
-0.001072677 -0.0027414768 -0.015423949 -0.04645803 0.029590271 0.03277426 -0.023496468 -0.0080967145
0.019098219 -0.015648449 -0.026052088 -0.024553673 -0.040628973 -0.003971324 0.011623586 0.032811467
0.0011789709 -0.030020915 -0.0018152801 0.007720807 0.0013244577 0.023149284 0.044420503 0.0058983667
-0.03677328 0.005635333 -0.032004002 -0.022078702 -0.020128282 -0.0077757416 -2.5655881e-05 -0.054769374
0.022740165 -0.008071241 -0.01188171 0.015402746 -0.047981367 0.0065651713 -0.0023398427 -0.019953618
-0.008368531 0.016734384 0.014720796 -0.008871876 0.038396332 0.020959685 0.05084403 0.04484773
-0.0030117226 -0.016759967 -0.0026855778 0.012049845 -7.4005686e-05 -0.0015745801 -0.025373295 0.0052584275

fc1.weight f4 [1, 3200]
00000000: 6881 333b f0d2 e438 a4f8 9139 3fbd 773a
00000010: 15e9 4dbb e5d6 293a 1f23 1b39 7f49 093a
00000020: bd7e bc3b ceed f1bb 559b 97bb 7120 4dbc
00000030: 5307 ccbb 099f 783c 0bde 43bd 9218 523d
00000040: e1eb 8e3b 5752 153c 4235 9cbc ee7b 333c
00000050: 7b31 c0bb a616 013c a467 603c 93c6 f1bc
00000060: e615 193d bb8d 53bc 7048 c23b 4aac 21bc
00000070: b369 6f3c 7632 0bbc 9e50 973c 441b 9bbc
00000080: 0ef6 0dbc a5db 903c f323 343d 4d21 41bd
00000090: 6244 34bb e611 673b ccb1 00bc 2177 96bb
000000a0: 5d01 b23b d405 b93b d21c ba3b dbfd bfbb
000000b0: c0eb 30bd 8752 ab3c 110b 2c3b 5c8c 60bc
000000c0: b8b5 453c fa14 54b4 7aea c53c fb72 6fbb
000000d0: 63b4 ba3b e072 293c 65be 73bd 04d5 28bd
000000e0: 8a6a 97bb 8d37 04bc bd28 973b 8f30 abbb
000000f0: 1f89 de3b 386c 8f3b 55c8 673c 11f1 0cbc
00000100: acd5 7a3b 2730 11bd 798b 553d aee5 46bb
00000110: 759d bb3b 7627 adba 5cf1 b23b 0e01 9a3b
00000120: c4d8 27b7 989e 01bc 6839 993c 926b 1c3d
00000130: 24d2 3e3d 917d adbc 2a92 86bb 5492 feb9
00000140: 194a c63c cae9 913c d737 303c d620 a93c
00000150: 4d4a 3b3d 3728 e8bc 5a8d 31bc dddb fa3c
00000160: 29ef f4bb 173d 2e3a 96f6 8abb b9d1 7ebc
00000170: f41a 0f3c a13e 9ebc da9f 7c3c 1dcb 013d
00000180: 2817 06ba 7b69 69bc 90f3 c03b 3579 9b3a
00000190: 1bf1 a33c 55f5 b03b 33bb 94ba 5420 483b
000001a0: 2001 4abc b6bc 51bb 04ee 4abc 81ff 7dba
000001b0: 080b 5dba 7296 74ba 4dab 633c 7d0d 9a3c
000001c0: b6f7 333c 9b1f 393b 69e6 763c a72f 7abd
000001d0: e9ea feba e972 c53b 4176 153c 9b35 a53b
000001e0: 1c4c 21ba 8e8c 323b 11f0 7d3b fc8e 133a
000001f0: a9f0 18bd 392f a1bc d159 a63c d4d6 063b
00000200: 1563 3e3b 398f 0100 1c6c f53b 344e 6f3c
00000210: 9448 143b eeaf cd2e 7250 04bc ab6c 8ebd
00000220: f059 233c 79e3 ac3a 1b21 0b9e 18a0 bbb9
00000230: 9fc1 b03c 4f10 613b deab 8eb8 1301 6cbb
00000240: 580c 03bd cc7f 473c a240 3dbc e541 1bb9
00000250: d36f 5d3a 6008 d53a fc1c 0db7 a01c fbb3
00000260: 795a 0d36 c7ac 4bb8 4171 e02f f5fa a433
00000270: 4fa5 49b6 03fe 4137 6e5b 1937 58c0 762c
00000280: dfed 9737 849f 0037 03a4 04b7 2328 a738
00000290: 492f feb7 9002 8c38 3b02 4fb6 c384 3237
000002a0: fb88 5e38 4179 29ab e29d 6db7 48e7 dd37
000002b0: 3248 6538 5c6f 1631 5957 1435 7b58 0939
000002c0: 7fe5 9f38 c944 fe37 e010 142f fa72 1bb3
000002d0: faaf bc36 9e1f 9538 65c0 7036 f77f bc28
000002e0: 94a1 8236 283f d7b7 6c14 0d39 332f 77b7
000002f0: 941b 102c 8faf 37b3 6ea3 f435 8fb3 d136
00000300: 0ca6 8c35 e7a2 8236 34ce 3138 783e 2138
00000310: 2c4e 22b8 f19b 7db7 4434 8035 1014 1bb8
00000320: 9b16 a53c d45b 163b 97e2 463b 6fa4 063c
00000330: 160f 1c3c b123 fb3c 1ef5 1839 5ff3 aebc
00000340: a3ec 393c 3598 823b 522f 98bc 0352 8a3c
00000350: 27ee ba3c 2545 8abb fc4f 0abd 1fcd 9bbd
00000360: 12fe 783c 627b 2fbb bf47 9ebc 911d e3b9
00000370: 8ca5 b4bb fbb7 1c3c ef1d 30bc 1f91 d9bc
00000380: f8c4 bfbc 4266 21bd 4f00 62bd 77f2 133c
00000390: efd2 c3ba e6c3 873c a204 533d 235f 393b
000003a0: b6e9 1f3c c5e6 0e3c 84ff c2bd 439b 37be
000003b0: c7b4 c6bb 2b8d 9b3b bb34 463b cb92 373c
000003c0: 1ca2 033d a0c0 7c3b 69b2 06bc 538e 5e3c
000003d0: 484e 9dbd 9516 fdbd 9f31 05bd ff88 d6bb
000003e0: b84f a63b c7b8 c73a ff08 bbbb 85c9 19bc
000003f0: 2b1b 173b a1ce 463b 2242 a536 3555 62ba
0.0027390365 0.000109111774 0.00027841807 0.0009450502 -0.0031419445 0.000647886 0.00014795036 0.0005237087
0.005752413 -0.007383085 -0.0046266713 -0.012519942 -0.006226459 0.015174636 -0.04781918 0.051292963
0.004361615 0.00911387 -0.019068364 0.01095484 -0.0058652735 0.007878935 0.013696585 -0.029513633
0.0373744 -0.012912209 0.0059290454 -0.009867737 0.014612603 -0.008495918 0.018471058 -0.0189339
-0.008664621 0.01768286 0.043979596 -0.0471509 -0.002750658 0.003525847 -0.00785489 -0.004591838
0.0054322914 0.0056464467 0.005679705 -0.0058591194 -0.04319358 0.020913376 0.0026251713 -0.013705339
0.012067251 -1.975167e-07 0.024159659 -0.003653704 0.0056977733 0.01034233 -0.059507746 -0.041218773
-0.0046208547 -0.008069885 0.0046130107 -0.0052242945 0.0067912485 0.0043769144 0.014146884 -0.008602397
0.003827433 -0.035446312 0.052134965 -0.0030349302 0.0057255575 -0.0013210613 0.005460901 0.0046998328
-1.0004445e-05 -0.007911347 0.018704131 0.038188525 0.046587124 -0.021178039 -0.0041067796 -0.00048555678
0.024205254 0.017811675 0.010755501 0.02064554 0.045725156 -0.028339488 -0.0108369235 0.030622417
-0.007474799 0.00066466763 -0.004240821 -0.015552931 0.0087344535 -0.019316973 0.015418971 0.031687845
-0.0005115145 -0.01424634 0.00588841 0.0011861684 0.020012429 0.0054003396 -0.0011347294 0.0030536847
-0.01232937 -0.003200335 -0.012385849 -0.0009689257 -0.0008432125 -0.00093302794 0.013895822 0.01880526
0.010984352 0.0028247598 0.0150695825 -0.0610806 -0.0019448671 0.0060256612 0.009122432 0.0050417907
-0.0006153004 0.0027244422 0.0038747827 0.00056289113 -0.037338886 -0.019675838 0.0203065 0.0020574825
0.0029050757 1.43214e-40 0.0074896943 0.014606047 0.0022626268 9.353572e-11 -0.00807582 -0.069543205
0.009970173 0.0013190351 -7.365445e-21 -0.000357867 0.0215767 0.0034341996 -6.8031004e-05 -0.0036011382
-0.031994194 0.012176465 -0.011551054 -0.000148065 0.0008447144 0.0016253106 -8.411003e-06 -1.1693305e-07
2.10633e-06 -4.8559883e-05 4.0825834e-10 7.682494e-08 -3.0047556e-06 1.1562838e-05 9.140798e-06 3.5065475e-12
1.811137e-05 7.666535e-06 -7.906e-06 7.9706566e-05 -3.0301178e-05 6.6761975e-05 -3.0846702e-06 1.0640538e-05
5.3056498e-05 -6.0209135e-13 -1.4163061e-05 2.6452952e-05 5.466509e-05 2.1891173e-09 5.5261404e-07 0.000130983
7.624458e-05 3.031119e-05 1.3466517e-10 -3.619332e-08 5.623323e-06 7.110763e-05 3.5874775e-06 2.0927689e-14
3.893112e-06 -2.5659407e-05 0.00013454416 -1.4733337e-05 2.047894e-12 -4.2767677e-08 1.8226981e-06 6.2495888e-06
1.0479139e-06 3.8932662e-06 4.239213e-05 3.844357e-05 -3.8696613e-05 -1.5116283e-05 9.551954e-07 -3.6973564e-05
0.02015238 0.0022942917 0.003034746 0.008217915 0.009525081 0.030656667 0.00014587163 -0.021356283
0.0113479225 0.0039854296 -0.018577252 0.01688481 0.022818638 -0.0042196685 -0.033767685 -0.07607483
0.015197294 -0.0026776423 -0.01932132 -0.00043318843 -0.005512899 0.009565349 -0.010749324 -0.026558457
-0.023409352 -0.03940416 -0.055176076 0.009029976 -0.0014940182 0.016572904 0.05151809 0.0028285466
0.009760311 0.008722012 -0.09521392 -0.17930321 -0.006064031 0.004747053 0.0030243832 0.011204432
0.03213702 0.0038566962 -0.008221247 0.013583737 -0.076809466 -0.12357823 -0.032518025 -0.006547093
0.005075421 0.0015237563 -0.0057078595 -0.009386425 0.0023056965 0.0030335563 4.925082e-06 -0.00086339127

out.0.weight f4 [1, 3200]
00000000: 6881 333b f0d2 e438 a4f8 9139 3fbd 773a
00000010: 15e9 4dbb e5d6 293a 1f23 1b39 7f49 093a
00000020: bd7e bc3b ceed f1bb 559b 97bb 7120 4dbc
00000030: 5307 ccbb 099f 783c 0bde 43bd 9218 523d
00000040: e1eb 8e3b 5752 153c 4235 9cbc ee7b 333c
00000050: 7b31 c0bb a616 013c a467 603c 93c6 f1bc
00000060: e615 193d bb8d 53bc 7048 c23b 4aac 21bc
00000070: b369 6f3c 7632 0bbc 9e50 973c 441b 9bbc
00000080: 0ef6 0dbc a5db 903c f323 343d 4d21 41bd
00000090: 6244 34bb e611 673b ccb1 00bc 2177 96bb
000000a0: 5d01 b23b d405 b93b d21c ba3b dbfd bfbb
000000b0: c0eb 30bd 8752 ab3c 110b 2c3b 5c8c 60bc
000000c0: b8b5 453c fa14 54b4 7aea c53c fb72 6fbb
000000d0: 63b4 ba3b e072 293c 65be 73bd 04d5 28bd
000000e0: 8a6a 97bb 8d37 04bc bd28 973b 8f30 abbb
000000f0: 1f89 de3b 386c 8f3b 55c8 673c 11f1 0cbc
00000100: acd5 7a3b 2730 11bd 798b 553d aee5 46bb
00000110: 759d bb3b 7627 adba 5cf1 b23b 0e01 9a3b
00000120: c4d8 27b7 989e 01bc 6839 993c 926b 1c3d
00000130: 24d2 3e3d 917d adbc 2a92 86bb 5492 feb9
00000140: 194a c63c cae9 913c d737 303c d620 a93c
00000150: 4d4a 3b3d 3728 e8bc 5a8d 31bc dddb fa3c
00000160: 29ef f4bb 173d 2e3a 96f6 8abb b9d1 7ebc
00000170: f41a 0f3c a13e 9ebc da9f 7c3c 1dcb 013d
00000180: 2817 06ba 7b69 69bc 90f3 c03b 3579 9b3a
00000190: 1bf1 a33c 55f5 b03b 33bb 94ba 5420 483b
000001a0: 2001 4abc b6bc 51bb 04ee 4abc 81ff 7dba
000001b0: 080b 5dba 7296 74ba 4dab 633c 7d0d 9a3c
000001c0: b6f7 333c 9b1f 393b 69e6 763c a72f 7abd
000001d0: e9ea feba e972 c53b 4176 153c 9b35 a53b
000001e0: 1c4c 21ba 8e8c 323b 11f0 7d3b fc8e 133a
000001f0: a9f0 18bd 392f a1bc d159 a63c d4d6 063b
00000200: 1563 3e3b 398f 0100 1c6c f53b 344e 6f3c
00000210: 9448 143b eeaf cd2e 7250 04bc ab6c 8ebd
00000220: f059 233c 79e3 ac3a 1b21 0b9e 18a0 bbb9
00000230: 9fc1 b03c 4f10 613b deab 8eb8 1301 6cbb
00000240: 580c 03bd cc7f 473c a240 3dbc e541 1bb9
00000250: d36f 5d3a 6008 d53a fc1c 0db7 a01c fbb3
00000260: 795a 0d36 c7ac 4bb8 4171 e02f f5fa a433
00000270: 4fa5 49b6 03fe 4137 6e5b 1937 58c0 762c
00000280: dfed 9737 849f 0037 03a4 04b7 2328 a738
00000290: 492f feb7 9002 8c38 3b02 4fb6 c384 3237
000002a0: fb88 5e38 4179 29ab e29d 6db7 48e7 dd37
000002b0: 3248 6538 5c6f 1631 5957 1435 7b58 0939
000002c0: 7fe5 9f38 c944 fe37 e010 142f fa72 1bb3
000002d0: faaf bc36 9e1f 9538 65c0 7036 f77f bc28
000002e0: 94a1 8236 283f d7b7 6c14 0d39 332f 77b7
000002f0: 941b 102c 8faf 37b3 6ea3 f435 8fb3 d136
00000300: 0ca6 8c35 e7a2 8236 34ce 3138 783e 2138
00000310: 2c4e 22b8 f19b 7db7 4434 8035 1014 1bb8
00000320: 9b16 a53c d45b 163b 97e2 463b 6fa4 063c
00000330: 160f 1c3c b123 fb3c 1ef5 1839 5ff3 aebc
00000340: a3ec 393c 3598 823b 522f 98bc 0352 8a3c
00000350: 27ee ba3c 2545 8abb fc4f 0abd 1fcd 9bbd
00000360: 12fe 783c 627b 2fbb bf47 9ebc 911d e3b9
00000370: 8ca5 b4bb fbb7 1c3c ef1d 30bc 1f91 d9bc
00000380: f8c4 bfbc 4266 21bd 4f00 62bd 77f2 133c
00000390: efd2 c3ba e6c3 873c a204 533d 235f 393b
000003a0: b6e9 1f3c c5e6 0e3c 84ff c2bd 439b 37be
000003b0: c7b4 c6bb 2b8d 9b3b bb34 463b cb92 373c
000003c0: 1ca2 033d a0c0 7c3b 69b2 06bc 538e 5e3c
000003d0: 484e 9dbd 9516 fdbd 9f31 05bd ff88 d6bb
000003e0: b84f a63b c7b8 c73a ff08 bbbb 85c9 19bc
000003f0: 2b1b 173b a1ce 463b 2242 a536 3555 62ba
0.0027390365 0.000109111774 0.00027841807 0.0009450502 -0.0031419445 0.000647886 0.00014795036 0.0005237087
0.005752413 -0.007383085 -0.0046266713 -0.012519942 -0.006226459 0.015174636 -0.04781918 0.051292963
0.004361615 0.00911387 -0.019068364 0.01095484 -0.0058652735 0.007878935 0.013696585 -0.029513633
0.0373744 -0.012912209 0.0059290454 -0.009867737 0.014612603 -0.008495918 0.018471058 -0.0189339
-0.008664621 0.01768286 0.043979596 -0.0471509 -0.002750658 0.003525847 -0.00785489 -0.004591838
0.0054322914 0.0056464467 0.005679705 -0.0058591194 -0.04319358 0.020913376 0.0026251713 -0.013705339
0.012067251 -1.975167e-07 0.024159659 -0.003653704 0.0056977733 0.01034233 -0.059507746 -0.041218773
-0.0046208547 -0.008069885 0.0046130107 -0.0052242945 0.0067912485 0.0043769144 0.014146884 -0.008602397
0.003827433 -0.035446312 0.052134965 -0.0030349302 0.0057255575 -0.0013210613 0.005460901 0.0046998328
-1.0004445e-05 -0.007911347 0.018704131 0.038188525 0.046587124 -0.021178039 -0.0041067796 -0.00048555678
0.024205254 0.017811675 0.010755501 0.02064554 0.045725156 -0.028339488 -0.0108369235 0.030622417
-0.007474799 0.00066466763 -0.004240821 -0.015552931 0.0087344535 -0.019316973 0.015418971 0.031687845
-0.0005115145 -0.01424634 0.00588841 0.0011861684 0.020012429 0.0054003396 -0.0011347294 0.0030536847
-0.01232937 -0.003200335 -0.012385849 -0.0009689257 -0.0008432125 -0.00093302794 0.013895822 0.01880526
0.010984352 0.0028247598 0.0150695825 -0.0610806 -0.0019448671 0.0060256612 0.009122432 0.0050417907
-0.0006153004 0.0027244422 0.0038747827 0.00056289113 -0.037338886 -0.019675838 0.0203065 0.0020574825
0.0029050757 1.43214e-40 0.0074896943 0.014606047 0.0022626268 9.353572e-11 -0.00807582 -0.069543205
0.009970173 0.0013190351 -7.365445e-21 -0.000357867 0.0215767 0.0034341996 -6.8031004e-05 -0.0036011382
-0.031994194 0.012176465 -0.011551054 -0.000148065 0.0008447144 0.0016253106 -8.411003e-06 -1.1693305e-07
2.10633e-06 -4.8559883e-05 4.0825834e-10 7.682494e-08 -3.0047556e-06 1.1562838e-05 9.140798e-06 3.5065475e-12
1.811137e-05 7.666535e-06 -7.906e-06 7.9706566e-05 -3.0301178e-05 6.6761975e-05 -3.0846702e-06 1.0640538e-05
5.3056498e-05 -6.0209135e-13 -1.4163061e-05 2.6452952e-05 5.466509e-05 2.1891173e-09 5.5261404e-07 0.000130983
7.624458e-05 3.031119e-05 1.3466517e-10 -3.619332e-08 5.623323e-06 7.110763e-05 3.5874775e-06 2.0927689e-14
3.893112e-06 -2.5659407e-05 0.00013454416 -1.4733337e-05 2.047894e-12 -4.2767677e-08 1.8226981e-06 6.2495888e-06
1.0479139e-06 3.8932662e-06 4.239213e-05 3.844357e-05 -3.8696613e-05 -1.5116283e-05 9.551954e-07 -3.6973564e-05
0.02015238 0.0022942917 0.003034746 0.008217915 0.009525081 0.030656667 0.00014587163 -0.021356283
0.0113479225 0.0039854296 -0.018577252 0.01688481 0.022818638 -0.0042196685 -0.033767685 -0.07607483
0.015197294 -0.0026776423 -0.01932132 -0.00043318843 -0.005512899 0.009565349 -0.010749324 -0.026558457
-0.023409352 -0.03940416 -0.055176076 0.009029976 -0.0014940182 0.016572904 0.05151809 0.0028285466
0.009760311 0.008722012 -0.09521392 -0.17930321 -0.006064031 0.004747053 0.0030243832 0.011204432
0.03213702 0.0038566962 -0.008221247 0.013583737 -0.076809466 -0.12357823 -0.032518025 -0.006547093
0.005075421 0.0015237563 -0.0057078595 -0.009386425 0.0023056965 0.0030335563 4.925082e-06 -0.00086339127

exp_avg f4 [32, 2, 5, 5]
00000000: d04f 2c39 c3bd 2837 b2a9 4fb9 b124 e2b9
00000010: c3a7 21ba 441e 0e39 88e9 26b8 1a40 8bb9
00000020: 9250 04ba 6821 37ba 5e00 f538 be6e 9bb8
00000030: 5619 97b9 517c 09ba 0b77 3bba d37c f238
00000040: a804 85b8 023c 93b9 fab3 01ba 7eb9 2eba
00000050: 8625 f738 0332 2cb8 c95f 82b9 b5cb e2b9
00000060: fe9b 17ba 8c61 fc38 557f a5b8 85f6 a3b9
00000070: c219 14ba b781 4cba fbf8 b138 8018 01b9
00000080: f887 c8b9 d2d0 2aba a655 64ba 8fcd 9338
00000090: b71c 12b9 730a d5b9 1fcc 2fba 90cb 66ba
000000a0: 8a56 a038 cc67 0cb9 3571 c9b9 fc4e 2cba
000000b0: d8f7 5aba 7a90 ce38 1be5 cab8 8eeb aab9
000000c0: 1209 17ba 5ca8 46ba 0849 eeb9 b554 65b9
000000d0: 0f25 58b8 d43c 3038 723b 9438 4c19 00ba
000000e0: a9c3 88b9 0f40 bbb8 1f49 8937 e91d 5138
000000f0: ae9c ecb9 7c9f 83b9 b022 67b8 72ec 2738
00000100: 3fe5 9138 2bba f5b9 16a9 86b9 e62d bab8
00000110: 12b2 a737 e257 a038 177e 05ba 9afd 9cb9
00000120: f282 f6b8 fafe 6b36 5cd9 b838 b3ac b6b9
00000130: 3d58 20b9 3f4e 97b7 deae 5838 2022 5438
00000140: d6b7 acb9 83f9 24b9 d554 cab7 8c27 0c38
00000150: cf60 be37 601e 92b9 9e0b d2b8 19bc 6fb6
00000160: 31b2 8b38 73fa 7e38 e38c 7ab9 7d0c c4b8
00000170: 8ade a837 1d96 be38 9bc5 bd38 ddcf 75b9
00000180: cde3 eeb8 556e 92b6 f76c 8938 999c cc38
00000190: 0820 053a 3ad9 f939 5f86 d739 54a0 9139
000001a0: 0b06 dd38 8d86 093a 397b fe39 5d7e cc39
000001b0: 24c8 6f39 2d74 0838 7a6e 0d3a ff3d fa39
000001c0: b5c1 be39 7974 4639 c88e 69b8 2df8 143a
000001d0: 3528 033a 4036 be39 b3cb 2639 5bfe dfb8
000001e0: 6ec1 0d3a bbb2 ef39 1437 a939 731e e338
000001f0: 0a92 3cb9 586c 053a 95f3 fa39 75d7 c239
00000200: a241 8139 fa62 8738 5b9a 0c3a 6d7c f139
00000210: b93b b239 2142 3639 080c 7eb8 6778 153a
00000220: dc51 fa39 f85c a739 df23 db38 7b7d 2bb9
00000230: da27 193a 8acc fd39 6181 9d39 a07b 4e38
00000240: 25dc 82b9 4bd9 113a 5b30 fa39 489c 8939
00000250: 27ab 11b7 f0a4 bbb9 a6e6 5d39 8bb9 6439
00000260: cb70 9739 4ad7 e539 de30 1b3a 9a93 8039
00000270: cdc1 8e39 7816 b739 d66c ff39 0ee9 283a
00000280: 54d0 9939 0697 a739 8367 bf39 e6b0 043a
00000290: 7d34 233a e17d aa39 a08a b839 a3a9 c839
000002a0: 1dc3 f139 ab50 0b3a 20d0 bd39 a80c be39
000002b0: ce4b be39 85f7 cb39 7438 cd39 443a 3639
000002c0: 8c73 3d39 827f 5e39 e7cc 9939 1822 e239
000002d0: 268d 6739 3ed9 6039 6eae 8639 f99b b439
000002e0: 3585 ff39 b2fa 7b39 2635 8339 f0dd 9e39
000002f0: 5d78 be39 1595 fc39 9a5d 8d39 a2cd 8f39
00000300: 6680 9c39 2404 b639 95ac da39 25ec a439
00000310: d732 a439 2626 9b39 5a19 a039 8df5 9c39
00000320: 64a0 76b9 3fdd 80b9 6a20 6bb9 9624 fdb8
00000330: fb77 0238 813a a9b9 1353 b3b9 5b6f a4b9
00000340: 627e 58b9 327b 09b8 758d cab9 14e7 eab9
00000350: 1f55 deb9 a369 a5b9 8e2d 04b9 b4d6 e8b9
00000360: 0875 04ba 4e39 06ba fc7e d3b9 6014 62b9
00000370: ce8b e7b9 7bb0 0bba f6fb 0cba dcac eab9
00000380: 9475 89b9 7a33 92b9 0827 9eb9 7143 96b9
00000390: fb63 79b9 0edf abb8 815a aab9 d578 c4b9
000003a0: b8dc c8b9 2ab3 a7b9 2336 26b9 9936 ccb9
000003b0: fd04 e8b9 02bd f1b9 81f0 d2b9 a340 78b9
000003c0: bb21 d4b9 fd3f 02ba dee2 06ba e071 f7b9
000003d0: e2f0 a2b9 d135 d3b9 2060 f4b9 6984 06ba
000003e0: 7976 f9b9 6d91 aeb9 b6f4 4a3a 8c8d 343a
000003f0: a410 003a 846a 6a39 58f9 a3b8 8664 3e3a
0.0001643293 1.0057763e-05 -0.00019804275 -0.00043133416 -0.0006166661 0.0001355345 -3.9794977e-05 -0.00026559905
-0.00050474063 -0.0006985874 0.00011682579 -7.411603e-05 -0.0002881984 -0.000524466 -0.00071512227 0.000115627096
-6.3428015e-05 -0.00028082734 -0.0004947778 -0.0006665214 0.00011784867 -4.1054573e-05 -0.00024866898 -0.00043257853
-0.00057834375 0.00012034466 -7.8915305e-05 -0.00031273454 -0.000564959 -0.00078013114 8.486394e-05 -0.00012311526
-0.00038248277 -0.0006516102 -0.00087102724 7.0477945e-05 -0.00013934342 -0.0004063431 -0.00067061366 -0.0008804137
7.645514e-05 -0.00013390108 -0.00038422053 -0.0006573049 -0.00083529716 9.849756e-05 -9.674785e-05 -0.0003260043
-0.00057615445 -0.0007578188 -0.0004544931 -0.00021870698 -5.1532927e-05 4.201832e-05 7.0682625e-05 -0.0004886582
-0.0002608572 -8.928787e-05 1.6365722e-05 4.985734e-05 -0.00045130163 -0.00025105092 -5.5106997e-05 4.003611e-05
6.956839e-05 -0.00046868747 -0.0002568445 -8.8777204e-05 1.9990872e-05 7.645764e-05 -0.0005092336 -0.00029943587
-0.000117545846 3.5166145e-06 8.81429e-05 -0.00034842416 -0.0001529166 -1.8037039e-05 5.166127e-05 5.057652e-05
-0.00032943365 -0.00015733209 -2.411978e-05 3.3415432e-05 2.2694845e-05 -0.0002786992 -0.00010015744 -3.5723262e-06
6.661227e-05 6.0791568e-05 -0.00023894342 -9.3483344e-05 2.0130788e-05 9.087867e-05 9.049029e-05 -0.00023442456
-0.000113911556 -4.3639834e-06 6.552965e-05 9.7566466e-05 0.00050783204 0.00047654827 0.0004110811 0.0002777601
0.00010539227 0.0005246185 0.00048538463 0.0003900406 0.00022867374 3.2533124e-05 0.00053951854 0.00047729907
0.00036383947 0.00018926141 -5.5684504e-05 0.0005682733 0.0005003245 0.00036280043 0.00015906878 -0.00010680846
0.00054075464 0.00045718797 0.00032275228 0.00010829875 -0.00017983481 0.0005089692 0.000478652 0.00037163091
0.00024653698 6.4557375e-05 0.0005363577 0.00046059806 0.00033995303 0.00017381507 -6.0569524e-05 0.000570184
0.00047744706 0.0003192199 0.00010449415 -0.00016354576 0.0005842425 0.00048408314 0.00030041768 4.9229362e-05
-0.00024959553 0.000556369 0.00047719743 0.00026247115 -8.682523e-06 -0.00035790307 0.00021162126 0.00021812895
0.00028885002 0.00043838687 0.00059200625 0.00024524034 0.00027228743 0.0003492122 0.0004871848 0.0006443419
0.0002933765 0.00031965243 0.0003650748 0.00050617603 0.0006225778 0.00032518714 0.00035198499 0.00038273362
0.00046112473 0.00053144497 0.00036203954 0.00036249054 0.00036296103 0.00038903594 0.00039142708 0.00017378578
0.00018067489 0.0002121907 0.00029335098 0.0004313148 0.00022082459 0.00021443234 0.00025688432 0.00034448484
0.00048736637 0.00024030617 0.00025025866 0.00030301465 0.00036329302 0.0004817626 0.00026963354 0.00027428294
0.00029850303 0.0003471683 0.00041708784 0.0003145646 0.00031318396 0.00029592327 0.00030536467 0.00029937588
-0.00023520138 -0.00024578904 -0.00022423422 -0.00012070795 3.1106156e-05 -0.0003227778 -0.00034203436 -0.00031363484
-0.00020646447 -3.277808e-05 -0.00038633836 -0.00044804125 -0.0004240656 -0.00031549958 -0.00012605471 -0.00044410455
-0.00050528394 -0.00051202334 -0.00040339667 -0.0002156063 -0.00044163916 -0.0005328727 -0.0005378121 -0.00044760748
-0.0002621828 -0.00027885643 -0.0003016519 -0.00028660477 -0.00023783736 -8.1954626e-05 -0.00032492357 -0.0003747406
-0.0003831142 -0.0003198621 -0.00015851161 -0.0003895059 -0.00044254205 -0.00046107924 -0.0004023351 -0.00023675202
-0.00040460922 -0.00049686414 -0.00051455 -0.00047196355 -0.0003107852 -0.00040285152 -0.00046610925 -0.0005131425
-0.0004758125 -0.00033296217 0.0007742153 0.0006887547 0.0004885292 0.00022355659 -7.8188896e-05 0.0007262904

exp_avg_sq f4 [32, 2, 5, 5]
00000000: a882 2435 d720 3635 47b8 7835 cd9b c435
00000010: a83c 1f36 f65f 1635 e630 2435 2b65 6e35
00000020: a969 cc35 a267 3036 91ab 0d35 d5a7 1435
00000030: 8446 5935 7afe c135 3462 2d36 2ad5 0735
00000040: 04c8 0735 15aa 3f35 3653 ac35 424b 1c36
00000050: e686 0835 58c7 0235 4251 3035 e450 9c35
00000060: e88f 0c36 c6e8 0235 8ac7 0a35 d4a0 5035
00000070: dc63 bc35 9254 2536 37a8 f234 78d5 0135
00000080: 1547 5235 a236 cb35 49b0 3836 cfad eb34
00000090: bf54 f934 c1af 4e35 9b99 cb35 632d 3a36
000000a0: e0aa ea34 6de3 ef34 de6e 4435 7b8b c235
000000b0: 40c9 3036 1e6b ec34 7c61 ea34 ce78 3b35
000000c0: 4a29 b935 4bc8 2736 1e6e 6136 0962 2f36
000000d0: a116 0736 0110 da35 623d bf35 6d7a 8b36
000000e0: cfda 5236 84d6 1b36 eb9e ee35 8b5a c235
000000f0: 42e1 b136 3c96 8336 048e 3936 99ca 0536
00000100: 51e9 c935 e491 e336 02f0 a736 2982 6636
00000110: 9157 1c36 dee6 d935 19be 0037 a9a8 be36
00000120: ef63 7f36 2c2d 2336 2e27 d235 ed23 3436
00000130: 135a 1436 c67f f935 2438 d935 678c c435
00000140: 7e1c 4f36 266e 2536 3b54 0736 ea76 e635
00000150: f4d2 c635 732a 8136 effa 4536 f08d 1a36
00000160: 81ea f935 2ac6 cc35 46d1 a936 5b61 8036
00000170: a8ed 3f36 ee5a 1236 31a6 e035 0342 c836
00000180: 3cd5 9736 81b6 5d36 278d 1f36 97f1 e335
00000190: e929 5935 5a0c 5035 e87b 4135 83a9 4835
000001a0: dd4a 7635 26b9 3635 09a3 3a35 58d9 5035
000001b0: 0d17 8e35 f1a7 d135 e008 2335 28ba 4135
000001c0: 5c93 9035 a33b f335 18fd 4036 e32f 2535
000001d0: 7ee4 6935 0fb3 d135 dcc3 3e36 71df 9736
000001e0: 4cb3 2d35 24cc 8735 0b87 0136 e3c5 6e36
000001f0: 960a bc36 90f2 5635 b9cd 4e35 f4ef 4535
00000200: 51a3 5c35 8b89 9235 e1ef 3035 77f0 3435
00000210: 70d8 5735 6b3e a035 808b fc35 40ee 1935
00000220: 69a3 3b35 aaf8 9635 f6c6 0836 edaa 6236
00000230: cb67 1b35 585f 6135 4a49 d935 1972 5136
00000240: b04b ae36 6ba9 2c35 506a 8635 4ac6 0536
00000250: cd52 8036 a82d d236 58dd 8d36 2982 9336
00000260: 3d1f 7e36 750f 4d36 9ea9 6036 ce25 8936
00000270: 8371 8e36 b0da 7136 0190 4736 12d4 7936
00000280: 8cd6 8636 e960 8e36 12dd 7336 6d02 4a36
00000290: 5e02 8036 d955 8836 5009 9636 d5bc 8336
000002a0: befc 5336 7406 7036 00a3 8d36 f021 a336
000002b0: ced1 9536 bbca 6c36 9ad8 5f36 7961 9736
000002c0: 6b6d a536 651c 9536 71f3 6236 6a2f 3636
000002d0: e8d3 9436 691c a236 9fb7 8e36 ce57 5036
000002e0: 9206 2b36 9ebb 9336 e90f a436 605c 9036
000002f0: 78ad 4f36 4318 2636 323d 9636 5214 ac36
00000300: 2110 9c36 9379 6236 0264 2536 9286 9b36
00000310: 1508 ba36 6969 b036 de58 8536 d02c 3636
00000320: c89f a535 c540 9f35 18b7 9c35 efa9 e035
00000330: b9d0 7836 eac6 b235 e114 b535 41ad b935
00000340: 77a8 0136 9021 8a36 0361 cc35 2b8a d135
00000350: a0ca d235 1b0b 0336 06b8 7a36 9392 ee35
00000360: 712b f235 b1f8 ec35 bbd5 fe35 8a4b 4836
00000370: 4bcf 0436 25f4 0536 d570 0336 d0f4 0336
00000380: 6698 2636 c31a 9b35 d7fc 9135 e0fb 9035
00000390: 5803 d935 3e04 7236 4c05 a735 4f35 a935
000003a0: 2fff af35 e5f6 fb35 3c43 8536 39c0 be35
000003b0: 4788 c735 45fd cd35 8788 0136 9a91 7136
000003c0: d1d1 df35 f189 ea35 7cc5 eb35 10e3 ff35
000003d0: a558 4136 7caf f935 35a6 0236 9ed4 0336
000003e0: 70b1 0536 8f06 2336 59cd 8d36 e492 6136
000003f0: 226e 3736 ec1a 4a36 23bf a436 8774 9b36
6.128489e-07 6.784807e-07 9.265536e-07 1.4648482e-06 2.3728153e-06 5.6018996e-07 6.116592e-07 8.880913e-07
1.5229936e-06 2.6286366e-06 5.2776255e-07 5.5378524e-07 8.0941413e-07 1.4453683e-06 2.583617e-06 5.0601614e-07
5.058248e-07 7.1400547e-07 1.2839216e-06 2.3289617e-06 5.086025e-07 4.871886e-07 6.5683355e-07 1.1646448e-06
2.094539e-06 4.8767504e-07 5.1699374e-07 7.7720074e-07 1.4036154e-06 2.4636142e-06 4.5198405e-07 4.836688e-07
7.8334534e-07 1.5140579e-06 2.7520748e-06 4.3898623e-07 4.6441525e-07 7.6996736e-07 1.5169384e-06 2.7742578e-06
4.3710224e-07 4.4682693e-07 7.317702e-07 1.449472e-06 2.6343187e-06 4.4036364e-07 4.3656826e-07 6.983872e-07
1.3795591e-06 2.5001525e-06 3.359171e-06 2.6134096e-06 2.012974e-06 1.6246923e-06 1.4248474e-06 4.156775e-06
3.1419802e-06 2.3221664e-06 1.7778633e-06 1.4480478e-06 5.3012345e-06 3.921594e-06 2.7649812e-06 1.9936472e-06
1.5043571e-06 6.782111e-06 5.0049284e-06 3.4348434e-06 2.3296782e-06 1.6234951e-06 7.673655e-06 5.682076e-06
3.805613e-06 2.4315186e-06 1.5657622e-06 2.6843002e-06 2.2106149e-06 1.8589133e-06 1.6184099e-06 1.4644e-06
3.0861988e-06 2.465103e-06 2.0165596e-06 1.7170944e-06 1.4813545e-06 3.8494413e-06 2.950135e-06 2.3030407e-06
1.8620195e-06 1.5256858e-06 5.060955e-06 3.826031e-06 2.8599552e-06 2.1808623e-06 1.6737669e-06 5.9681493e-06
4.5249744e-06 3.3037797e-06 2.3775008e-06 1.698313e-06 8.0899787e-07 7.750401e-07 7.207841e-07 7.475248e-07
9.175108e-07 6.806971e-07 6.9527647e-07 7.7802315e-07 1.0586533e-06 1.5620591e-06 6.0735147e-07 7.2168996e-07
1.0771723e-06 1.8122267e-06 2.875755e-06 6.1536974e-07 8.7131764e-07 1.5623826e-06 2.8426211e-06 4.5261627e-06
6.4708433e-07 1.0117697e-06 1.9301103e-06 3.557995e-06 5.604069e-06 8.007419e-07 7.7040346e-07 7.3737397e-07
8.2194043e-07 1.0917878e-06 6.591418e-07 6.740515e-07 8.04087e-07 1.1939095e-06 1.8816063e-06 5.734364e-07
6.990072e-07 1.1248242e-06 2.038139e-06 3.3776116e-06 5.789304e-07 8.3957775e-07 1.618909e-06 3.120984e-06
5.1944153e-06 6.432153e-07 1.0014719e-06 1.9933964e-06 3.8243365e-06 6.263803e-06 4.2278953e-06 4.396094e-06
3.7867133e-06 3.0556378e-06 3.3477331e-06 4.087319e-06 4.2451443e-06 3.6039091e-06 2.9737132e-06 3.7227333e-06
4.0184877e-06 4.2432116e-06 3.6338502e-06 3.0101758e-06 3.814973e-06 4.06311e-06 4.4714325e-06 3.926087e-06
3.1588565e-06 3.5766543e-06 4.221103e-06 4.8617294e-06 4.4649705e-06 3.5284745e-06 3.3355668e-06 4.511498e-06
4.930121e-06 4.4438516e-06 3.3818326e-06 2.7147712e-06 4.435413e-06 4.8312836e-06 4.253306e-06 3.1045524e-06
2.548481e-06 4.402783e-06 4.889433e-06 4.3022883e-06 3.0946376e-06 2.475005e-06 4.4774724e-06 5.128365e-06
4.65104e-06 3.374739e-06 2.4645128e-06 4.635026e-06 5.544173e-06 5.25748e-06 3.9740544e-06 2.7146198e-06
1.233996e-06 1.1865274e-06 1.1676193e-06 1.6738758e-06 3.7076372e-06 1.3319925e-06 1.3491627e-06 1.3833998e-06
1.9320557e-06 4.1166277e-06 1.5227419e-06 1.5611926e-06 1.5705191e-06 1.9526985e-06 3.7360019e-06 1.777504e-06
1.8043048e-06 1.7655749e-06 1.8986678e-06 2.9846292e-06 1.9790193e-06 1.9960655e-06 1.9586198e-06 1.966302e-06
2.4824635e-06 1.1556189e-06 1.0876928e-06 1.0802141e-06 1.6168733e-06 3.606328e-06 1.2444011e-06 1.2606996e-06
1.3112784e-06 1.8772813e-06 3.971536e-06 1.4212047e-06 1.4866317e-06 1.5347401e-06 1.9301967e-06 3.599655e-06
1.6675859e-06 1.7474505e-06 1.756634e-06 1.9065064e-06 2.881084e-06 1.8603018e-06 1.9468255e-06 1.964428e-06
1.9921827e-06 2.429271e-06 4.226033e-06 3.3613114e-06 2.733323e-06 3.0116016e-06 4.909832e-06 4.6329255e-06

exp_avg f4 [32]
00000000: ae96 23ba aa7f aab9 dcfa 71ba 490b d4b9
00000010: 921a 3a39 8ce7 f6b8 397b 85b9 dea5 8c3a
00000020: 183c fab8 2c1e a0b4 1e73 8938 eccd 6539
00000030: 7955 03b9 eabd 79b9 806c f8b9 c825 5f39
00000040: 6462 0fb9 bdce 05ba 2971 8539 9702 b539
00000050: 5aba 32ba 603e 313a e841 423a 0ed1 f839
00000060: 05e6 c038 309b 37b9 e952 60b9 0290 ee38
00000070: 5bc9 a639 95f1 0d39 d840 863a 423e e8b9
-0.00062404096 -0.00032520044 -0.00092308014 -0.000404442 0.0001774824 -0.00011773323 -0.00025459545 0.0010730585
-0.00011932122 -2.9824275e-07 6.554111e-05 0.00021915854 -0.00012524975 -0.00023817239 -0.00047383085 0.00021281012
-0.00013674196 -0.0005104354 0.00025452048 0.0003452494 -0.00068179297 0.0006761309 0.00074103335 0.00047458004
9.198118e-05 -0.00017510052 -0.00021393191 0.00011375548 0.0003181201 0.00013536804 0.0010242714 -0.00044296874
