results/2BS/T_1/L_1000/seed4/checkpoint.pth.tar (torch_old, 395615 bytes, 22 tensors)

layer1.conv.weight f4 [32, 2, 5, 5]
000000 66 a6 cc bc 46 1e ba 3c 2a 20 45 3e 0c 48 29 3d
       -0.024981689 0.022719514 0.19250551 0.041328475
000010 1d c7 26 3d 8b 2a 3b 3c 9b c8 49 bd 3d 1f 7f 3c
       0.040717233 0.011423717 -0.049263578 0.015571413
000020 bc d4 84 3a a7 d3 82 3d 55 56 f2 3c 11 af fa 3c
       0.00101342 0.06388026 0.029582182 0.030601056
000030 ac 5f d9 3d 3b d2 2b 3d 16 b6 ae 3d 39 a1 0d bc
       0.10613951 0.04194854 0.08530824 -0.0086443955
000040 56 b1 72 3d 8c e1 ac 3d c6 a2 3c 3e 12 1a 79 3d
       0.059251152 0.08441457 0.18421468 0.06081588
000050 cf 08 a9 3b 14 cf c9 3d 5d b0 1f 3d 60 a4 01 3d
       0.005158521 0.0985395 0.038986553 0.0316509
000060 7d 36 98 3d 70 d7 65 be d4 23 2f bc 63 12 4c bc
       0.07432268 -0.22445464 -0.010689694 -0.012455556
000070 88 ce b0 bd e3 22 21 bd c6 ba e8 bc 54 c2 0d be
       -0.08633143 -0.03933991 -0.028409373 -0.13843662
000080 2d 8e 4a bd 0b 4f b4 bc c4 c4 e0 bb 76 5d cf bd
       -0.049451996 -0.022010347 -0.006859394 -0.10125248
000090 80 eb 1f bd 05 e6 b3 ba bf dc 62 bd d8 c2 d2 3b
       -0.03904295 -0.0013725167 -0.0553863 0.0064319186
0000a0 27 ea 9b 3d 5d 9a da bd 7d 3b d1 3c 8c 46 c6 bd
       0.076130204 -0.10673974 0.025541062 -0.096814245
0000b0 a1 0b 9d bd 6c 29 f5 3c 21 de e3 3d 06 3d 68 3c
       -0.07668234 0.029926978 0.11126352 0.014174705
0000c0 16 b6 32 bd f7 f9 ad bd 1a c5 c6 bd 4c d3 bd bd
       -0.043630682 -0.08494943 -0.09705563 -0.09268817
0000d0 f7 5e bc bb f9 0d ad 3b fa c4 d1 bd 0e 14 a8 bd
       -0.0057486254 0.0052812067 -0.102426484 -0.0820695
0000e0 6f 1b 54 bd 18 c2 3a 3d b5 e6 f8 bd e7 c6 ae bd
       -0.051783975 0.04559526 -0.12153379 -0.08534031
0000f0 45 93 06 be af 72 f0 bd 39 c8 1b bc 20 a6 81 bd
       -0.13142116 -0.11740624 -0.009508186 -0.06330514
000100 31 6f 87 bd 78 a3 80 3d 27 68 ca bd ca 52 93 bd
       -0.06613005 0.06281179 -0.09883147 -0.07193525
000110 d3 2b 7f bd ac fd 07 be 5d 7d 38 bd 3d cf 06 3d
       -0.062297653 -0.13280362 -0.04504143 0.03291248
000120 8e e1 4f bd ab 87 4e bd 7b bb 98 bd 60 e2 0e bd
       -0.050752215 -0.05042235 -0.07457634 -0.034883857
000130 54 43 55 3d ca cc bd 3d 70 f3 8a bc 55 7d 48 bc
       0.052066162 0.09267576 -0.016961783 -0.012236913
000140 e0 38 48 3d a3 c1 39 3d 14 2c 07 bd 0e 25 d6 bc
       0.048882365 0.045350682 -0.03300102 -0.026140716
000150 7d 6c 29 bc 49 f6 d5 bb 26 4c b4 3d a1 1a 0b 3e
       -0.010340807 -0.0065296036 0.08803587 0.13584377
000160 f5 2e 37 3d ac 50 ab bb 4b ab b0 3c 94 70 1d 3e
       0.044722516 -0.0052281227 0.021566054 0.15374976
000170 42 79 ca 3a 09 55 8d 3d 33 4b 1a bd 28 c1 bd 3d
       0.0015447515 0.06900985 -0.03766937 0.09265357
000180 99 20 1f 3e a3 de be 3d 3b 14 a7 3d bb 59 4f bc
       0.15539779 0.09319808 0.081581555 -0.012655671
000190 c6 15 0e be b9 bd b1 bc d7 26 80 3b 0e 6c ef 3b
       -0.13875493 -0.021696912 0.00391088 0.0073065823
0001a0 61 85 73 bd 3f 8b eb bd 6d ae 65 bc ca 8d 4a bd
       -0.059453372 -0.115011685 -0.014018637 -0.049451627
0001b0 17 17 53 bc 69 66 e6 bc b8 38 0b 3c bb ea c2 3c
       -0.012883923 -0.028125005 0.0084974095 0.023793569
0001c0 4a 3b 07 bd cd 87 ef bc 40 5b 94 bc e6 d5 f6 bc
       -0.033015527 -0.02923956 -0.018109918 -0.030131292
0001d0 94 d8 f2 3c 25 e9 be bb 11 e2 87 bd 43 6b 8b 3b
       0.029644288 -0.005826133 -0.066349156 0.00425473
0001e0 56 aa e5 bb 28 75 b1 bd aa dd 6e 3d 72 49 31 bd
       -0.007008831 -0.08664924 0.058316864 -0.043282934
0001f0 da c8 25 bd 0b 01 26 be bb 7f 9c bd 4e 7d eb bb
       -0.04047475 -0.16211335 -0.0764155 -0.0071865683
000200 9f 14 cf bd ed 9f 12 bc d0 41 c6 bd 46 18 85 bd
       -0.10111355 -0.008949262 -0.096805215 -0.064987704
000210 78 fa d8 bd 12 4e 9c bc 06 db 8d ba 71 39 e6 bd
       -0.10594648 -0.019080196 -0.001082272 -0.11241425
000220 b0 18 c9 bd 64 21 89 bd ae b3 ea bc 0d b5 4f bc
       -0.09819162 -0.06695822 -0.028650131 -0.012677443
000230 90 e2 6a bc 26 c4 1f bd e7 0f 04 bd 0a b5 90 bd
       -0.014336243 -0.03900542 -0.03224173 -0.070657805
000240 66 4b 3d 3d 44 d4 bc bc ba ff ac bc 00 d1 0c 3d
       0.046214484 -0.023050435 -0.021118034 0.034379005
000250 5f 65 4b bd 6e f5 31 3d 9f 5f 80 b9 1b c4 e6 b8
       -0.049657222 0.04344695 -0.00024485306 -0.00011003782
000260 87 52 5e 37 d5 3b dd 38 38 2a 83 38 3c 7d a2 b9
       1.3251446e-05 0.00010549246 6.2544306e-05 -0.00030992355
000270 b5 91 90 b9 d2 4a 49 b9 12 cc e0 b8 08 83 40 b9
       -0.0002757438 -0.00019196726 -0.000107191634 -0.0001835936
000280 3c cb 3a b9 d8 dd 0e b9 5b ad 16 b9 cd 9c 21 b9
       -0.00017814053 -0.00013624819 -0.00014369695 -0.0001541257
000290 83 b0 85 b9 84 ae 9e 39 94 33 7f 39 42 e3 35 39
       -0.00025499248 0.00030266133 0.0002433791 0.00017346165
0002a0 cb 35 51 38 25 f9 20 b9 26 85 1b 3a 3f 72 01 3a
       4.987958e-05 -0.00015351603 0.00059326214 0.00049379835
0002b0 c7 8a 90 39 38 f0 03 38 d3 bd 88 b9 8a 5a df b9
       0.00027569217 3.1456555e-05 -0.00026081371 -0.0004260133
0002c0 e0 19 bc b9 fd e5 68 b9 f6 c4 a0 b8 55 fa 42 b8
       -0.00035877433 -0.00022210921 -7.6660814e-05 -4.6486344e-05
0002d0 e6 8c 11 ba fa 3d 01 ba 89 3d ce b9 97 63 97 b9
       -0.00055523065 -0.00049301947 -0.0003933723 -0.00028875165
0002e0 71 4d 8b b9 91 51 d4 b9 cf ad d5 b9 ef 29 b4 b9
       -0.00026569844 -0.00040496563 -0.00040756023 -0.00034363518
0002f0 fb 3b 92 b9 9c d1 9b b9 f5 0c 94 38 6a 63 10 38
       -0.0002789198 -0.00029720075 7.0596034e-05 3.4424862e-05
000300 8b 61 3d b8 9c ef ac b8 e3 b2 1a b9 02 4a c2 39
       -4.5151955e-05 -8.24623e-05 -0.00014753225 0.00037057704
000310 cc 4f 9b 39 85 ce 14 39 93 82 d7 b7 85 37 81 b9
       0.00029623357 0.00014191314 -2.56908e-05 -0.00024646163
000320 d0 bc 1a 3d 5c ec 89 3d 91 ea 2a bd 16 5d 9c bc
       0.037777722 0.06734535 -0.041727606 -0.019087356
000330 cb 73 5b bd 7d 37 c4 3d 96 1f 4f 3b b1 1a 56 bd
       -0.053577226 0.09580896 0.003160452 -0.05227155
000340 aa 27 88 3c 9d 35 84 3d 2c 48 89 bd b0 ee c5 bb
       0.016620476 0.064555384 -0.06703219 -0.0060404167
000350 68 58 12 bd 81 7e 1e 3d 2f e7 2b 3c 6a e6 8c 3c
       -0.035728842 0.038694862 0.01049213 0.017199714
000360 84 fc 4f 3d 4c db ee bc ee 0f ba bb e9 a5 be b9
       0.050777927 -0.029157303 -0.0056781685 -0.00036363237
000370 92 0c 2a 3b cc 59 53 bd 8d b5 e0 ba 1a 93 b9 bd
       0.0025947434 -0.05159931 -0.001714395 -0.090612605
000380 74 ab 45 bd 04 82 27 3d e0 87 a4 bc c5 e0 24 3c
       -0.048259214 0.040895477 -0.020084321 0.010063355
000390 d8 70 19 bd d9 b7 20 bd 44 85 d6 3d bf 86 41 3d
       -0.03746113 -0.03923783 0.10474637 0.047247645
0003a0 24 d2 ac bd 81 3e 7a bd 73 7d 83 3c e9 65 d0 3c
       -0.08438519 -0.061094765 0.01605103 0.02543922
0003b0 43 41 f6 bc 24 73 8a bb c6 81 28 3d 63 d6 52 bc
       -0.030060416 -0.0042251516 0.041139387 -0.012868497
0003c0 9b 00 11 3d 41 b0 b7 3d 61 34 67 bd 81 05 27 3d
       0.035400968 0.08969165 -0.056446437 0.040776733
0003d0 07 53 9e 3c 53 ae 5d 3b 8d da 7a bc 55 b3 56 bc
       0.0193267 0.003382583 -0.015310896 -0.0131042795
0003e0 85 85 55 3d 5d 92 03 3d 6b ec da bc 19 be f3 3c
       0.052129287 0.032122005 -0.026724061 0.029753732
0003f0 f7 a6 55 bd 48 86 80 bd d3 37 91 bd f3 52 ab 3c
       -0.052161183 -0.06275612 -0.07090726 0.020913577

layer1.conv.bias f4 [32]
000000 cb a1 16 3d d0 85 c0 bc aa 73 18 be f6 58 d8 bb
       0.03677539 -0.023501307 -0.14887872 -0.006602402
000010 89 d7 05 3e 88 ed 9c 3d 95 38 a0 bd b5 40 60 be
       0.13070501 0.07662493 -0.07823292 -0.21899684
000020 f3 89 0f 3e 8a 97 e3 3c ad 1e 34 3e 28 88 01 be
       0.14017467 0.02778222 0.17589827 -0.12649596
000030 ef b2 2e 3c 27 f1 20 be bd df 28 be 91 87 17 bd
       0.010662778 -0.15716992 -0.164916 -0.03699452
000040 dd f7 e2 bd d7 1c dd bd 6c bf 2d be bc 0e ed 3d
       -0.110824324 -0.107965164 -0.16967553 0.11575076
000050 91 e2 01 3e 4a 95 57 3d c0 37 99 bd 88 28 30 be
       0.12684084 0.052632608 -0.074813366 -0.17202961
000060 b4 f9 0d 3e e3 ad b6 bd 66 03 0d be 98 5b 02 3e
       0.13864785 -0.08919885 -0.13770828 0.12730253
000070 90 87 dd bc d1 1e 13 be b6 75 0d 3e 1c d1 81 3e
       -0.02704218 -0.14367224 0.13814434 0.2535485

layer2.conv1.weight f4 [32, 32, 3, 3]
000000 1d 99 a4 3d 41 6e cd bc e0 62 4d bc dc 23 e7 bc
       0.080370165 -0.025076987 -0.012535781 -0.028215341
000010 29 f6 e3 bc d8 d3 75 3c eb 8b fc bd 3f 6b 07 be
       -0.02782734 0.015004121 -0.12331375 -0.13224505
000020 d6 c3 67 bd 07 43 d4 bc 52 1c f6 bd a0 c3 33 bd
       -0.056583248 -0.025910867 -0.120171204 -0.043887734
000030 b5 5b 0f 3c 6d fd 08 be c1 88 84 be ca 1c c6 3c
       0.008749892 -0.13377924 -0.25885585 0.02418365
000040 cf f1 93 3d 84 b2 84 bd d9 b8 ed bd 27 62 ca bd
       0.07223856 -0.06479362 -0.116075225 -0.09882002
000050 a8 5c f1 3d 0b c4 a8 3d 90 a9 8f bc 7b 52 3d bc
       0.11785251 0.08240517 -0.017536908 -0.011555309
000060 a7 10 12 be 1e eb 11 3e 3e 81 00 bd 71 32 74 b8
       -0.14264165 0.14249846 -0.031373255 -5.822111e-05
000070 84 f4 3e b7 a9 66 34 39 c8 cc 0a b8 dd d8 10 b8
       -1.1381813e-05 0.00017204382 -3.309248e-05 -3.4534245e-05
000080 74 3d 97 38 4d 3f 13 36 58 32 fe b5 d9 e0 5d 37
       7.2116876e-05 2.1941553e-06 -1.8939127e-06 1.3224978e-05
000090 26 28 a8 3d d5 68 11 3e 9b 08 0e bd 6f 73 b7 bd
       0.08210783 0.14200146 -0.034676176 -0.08957564
0000a0 71 38 f4 3c 01 af 42 3d 29 11 07 be 55 64 6a bd
       0.02981207 0.047530178 -0.1319014 -0.05722459
0000b0 c9 90 f0 bc e4 6d 04 be ec 26 a3 bd 6f 00 26 be
       -0.029365914 -0.12932545 -0.07966408 -0.16211103
0000c0 7f 6b e8 bd 06 6b a2 bd 40 96 aa bd 18 6c 38 be
       -0.11348628 -0.07930569 -0.08329439 -0.18009984
0000d0 10 61 f8 bd a0 be 72 3d 69 24 2c bc fc 3b 70 bb
       -0.12127888 0.059263825 -0.010506728 -0.0036656847
0000e0 53 69 b3 bd c0 ef dd bd 51 32 f2 bc 25 10 03 3e
       -0.087603234 -0.10836744 -0.029565008 0.12799127
0000f0 25 8a d1 bc f5 8c 69 3c a7 8d ca 3d 72 d7 00 be
       -0.025578568 0.014254798 0.09890299 -0.12582186
000100 bc 49 d4 3c 21 3a 5e bd e6 3a 7d 3c 94 25 9e bb
       0.025914066 -0.054254655 0.015455937 -0.004826257
000110 02 59 b9 3b cb 6a 5f bd d7 51 bf 3d ff 3c 00 3d
       0.0056563625 -0.054545205 0.093417816 0.03130817
000120 59 ca 0b bd 5a 13 66 bd 1f 0d a6 3b a0 30 f1 3c
       -0.03412852 -0.0561708 0.005067482 0.029442132
000130 b2 1d f8 bc 64 3f ad bd 7f f9 a6 bd e1 72 6a bc
       -0.030287597 -0.084593564 -0.08153056 -0.014309616
000140 61 8e 08 bd 42 76 9f bd ae a4 02 be 64 78 89 3d
       -0.033338908 -0.07786228 -0.12758133 0.06712416
000150 84 71 23 3d a2 a8 af bc 53 d1 d2 bd e5 4b 9d 3d
       0.03990318 -0.021442715 -0.10293832 0.07680491
000160 a5 43 bc 3d d8 73 14 bc a4 88 36 3d 46 d1 ef 3d
       0.0919259 -0.009060822 0.044563904 0.117098376
000170 5b 91 af 3d 2f 36 24 3d db 37 41 3e 5b 77 a6 bd
       0.08572646 0.040090736 0.18868963 -0.08128234
000180 10 70 0b 3d b9 93 a1 bc 25 00 06 be ad 82 65 bd
       0.034042418 -0.01972376 -0.13085993 -0.056032825
000190 7c b0 a5 3c 40 9e 80 bd 05 4d 5d bc c0 4f 45 bd
       0.020225756 -0.06280184 -0.013507132 -0.04817176
0001a0 57 16 ec 3c 87 9d a2 3c 48 38 52 3c b4 65 57 3d
       0.028819246 0.019850506 0.012830801 0.052587226
0001b0 e3 5c f5 bc df f1 49 be 4a af 5f 3c 53 46 3b 3d
       -0.029951518 -0.19721173 0.013652632 0.045721363
0001c0 74 d4 d3 bd 1a 93 a0 be c9 10 9b bd 86 f8 37 be
       -0.103432566 -0.3136223 -0.07571561 -0.17965898
0001d0 a0 f5 0e be 99 58 1f bd 4a 75 2f bc 86 d5 c8 bd
       -0.13960886 -0.038902853 -0.010709116 -0.09806351
0001e0 33 25 be bc b1 f2 6d 3e 4a 58 8f bd 67 6f 71 bd
       -0.023211097 0.2323711 -0.06999262 -0.058944132
0001f0 51 eb 16 bd 09 dd 67 3c 27 aa 0c be 12 c6 19 bd
       -0.03684551 0.01415182 -0.13736783 -0.03754241
000200 6b f9 81 3d 2b 70 99 bd 41 ee 73 3b c8 13 fc bd
       0.06346401 -0.074920975 0.0037220868 -0.123084605
000210 ee 66 95 3d 36 29 07 bd 33 78 c5 3d 87 61 d6 bd
       0.07295023 -0.032998286 0.09642067 -0.104678206
000220 ea 7f 80 bd 3a 71 24 bb a2 b4 82 3d 07 a6 c8 3b
       -0.06274398 -0.0025091902 0.06382109 0.0061233076
000230 91 f1 34 bd 86 09 7f 3d 4f 29 40 3d 07 af c8 3d
       -0.04417569 0.06226494 0.046914395 0.09799009
000240 59 94 ef bd b8 e1 24 3e 63 ed 81 3c eb e9 c3 bc
       -0.11698217 0.1610173 0.015860265 -0.023915252
000250 c8 a0 bf bd f6 30 ae 3c 80 e2 66 bd c1 7a af 3d
       -0.093568385 0.02126358 -0.05636835 0.08568335
000260 3a 8b 59 3d f2 e1 83 3d c9 af a9 3c b1 3a d6 3d
       0.053111292 0.0643958 0.020713704 0.10460413
000270 65 63 64 bb 1a 97 4d bd 12 10 d7 3c 73 fc 3a bd
       -0.0034849283 -0.05019293 0.02625278 -0.04565091
000280 75 62 b6 3a 39 4b 9b 3d 30 f7 14 bd 12 88 25 3e
       0.001391484 0.07582707 -0.03636855 0.16165188
000290 eb 6d 9e bd fc ce 45 bd 68 44 25 3e 48 86 28 3e
       -0.07735809 -0.0482931 0.16139376 0.16457474
0002a0 e6 14 49 bd 82 2f 2e bd 66 e1 e2 3d d9 a6 88 3d
       -0.049092196 -0.042525776 0.110781476 0.06672449
0002b0 77 2e 49 3d c0 5f 41 3c f3 63 5b 3e 60 aa 11 3d
       0.049116578 0.011802614 0.21424846 0.035562873
0002c0 5d ab 90 3d 1b f9 3b 3e d3 0b 27 3d 23 9f db 3d
       0.07063935 0.18356745 0.04078276 0.10723712
0002d0 20 3d 0d 3d 68 41 48 bd fd 18 cf 3d 6e ba 44 3c
       0.03448212 -0.0488905 0.10112188 0.012007339
0002e0 19 55 5c 3c 29 84 91 bd ae 37 9b bd 3c 6d 31 bd
       0.013448023 -0.07105286 -0.075789794 -0.043317065
0002f0 05 9c 4b 3d 74 be 97 3d e1 47 58 bd a5 cc e6 bd
       0.04970934 0.07409373 -0.052802924 -0.112695016
000300 1a ca 29 3e f1 58 3f bd a9 d9 2c 3c d4 61 99 3d
       0.16581002 -0.04671568 0.010549941 0.07489362
000310 7b e7 aa bc 93 69 cf 3c 65 68 32 3e de 1d 4e bd
       -0.020862332 0.025318896 0.17422636 -0.050321452
000320 e2 88 21 be 16 3c ab 3a 62 04 06 be 17 d1 b8 3b
       -0.15774873 0.0013064172 -0.1308761 0.00564016
000330 1e d0 24 bd b8 5f 86 bd 31 62 f9 bc 1f 9b 42 3d
       -0.04023754 -0.06561226 -0.03044233 0.047511216
000340 42 97 bc 3d 8b 3b e3 bd cd 2d d7 3d ff ca fa 3d
       0.09208538 -0.11095341 0.10506783 0.1224575
000350 91 0a 9a bd 7f 26 b2 3d 79 95 3a bd 67 2a 38 bd
       -0.07521547 0.08698749 -0.045552704 -0.044962313
000360 34 ae a5 3d e5 03 42 3e e9 13 44 3d 11 16 30 3d
       0.08089867 0.18946798 0.04787055 0.042989794
000370 5f 5e 84 3d a4 d7 3c bd dc d8 0e be 8c 30 ff bb
       0.06463312 -0.04610409 -0.13949913 -0.0077877697
000380 1f 5e 75 3d 72 57 92 bd 39 7c c7 3d 41 71 83 bd
       0.059904214 -0.07145585 0.097404905 -0.06418086
000390 66 c8 86 bd 1a d6 f3 bb cb 70 c0 bd 67 96 ca 3d
       -0.06581192 -0.0074412944 -0.093965136 0.09891968
0003a0 dd c0 aa bc 94 a3 9e 3d 57 60 3e bb 05 25 1c 3d
       -0.020843918 0.07746044 -0.0029049122 0.038121242
0003b0 ca aa dd bc 7e 95 e3 bd df 6b 5a bd 70 2e e8 3c
       -0.027058978 -0.11112498 -0.05332553 0.028342456
0003c0 2d 87 c6 b8 6f d1 b6 3a 48 4e df 3d e2 44 1a bc
       -9.466554e-05 0.0013947914 0.10903603 -0.009415837
0003d0 eb 8a 10 bd 8b c1 96 3d b7 4b 2e bd 58 8c 99 bd
       -0.035288732 0.07361134 -0.042552676 -0.074974716
0003e0 f5 b0 aa bd bb 07 3c bd a2 e7 ca 3c c4 d7 85 3d
       -0.08334533 -0.04590581 0.024768654 0.06535295
0003f0 09 a5 84 3d 8c c7 0b 3c b0 33 9d bb 6b 52 0b 3e
       0.064767905 0.008531462 -0.0047974214 0.13605659

layer2.conv1.bias f4 [32]
000000 bf d0 54 bd fe b9 8b 3d d9 7c 55 bd 90 59 4c bd
       -0.05195689 0.068225846 -0.052121017 -0.0498901
000010 18 0e 02 3d e3 6f 59 bd 6a c3 8b bc 9a 33 f6 3c
       0.031751722 -0.05308522 -0.017060954 0.030053902
000020 15 80 2a 3d ac 86 d7 bc fd d5 3e bd 55 87 7a bd
       0.041626055 -0.026309334 -0.046590794 -0.06116422
000030 52 bf 50 3d 83 3c 6b 3d 05 c9 a4 ba b4 26 35 3c
       0.050963707 0.057430755 -0.0012572116 0.011056591
000040 02 07 31 bc 83 6b c2 3c 26 82 da 3c a1 de bb ba
       -0.010804893 0.023732906 0.026673388 -0.0014333316
000050 69 ee 54 bc 97 c5 4d bd 66 0d 7c bd 87 e8 4b 3d
       -0.012996295 -0.050237264 -0.061536215 0.049782302
000060 fe 1c 50 bd e6 85 02 3d 81 b0 d7 bb dc 98 5c 3d
       -0.0508089 0.031865977 -0.00658232 0.053856716
000070 38 f5 30 bd cd 78 19 bd e2 80 b1 3c c5 11 09 3d
       -0.04320261 -0.03746872 0.021667901 0.033464212

layer2.conv2.weight f4 [64, 32, 3, 3]
000000 31 d1 41 3d 6d ae 52 bd 61 d9 fb bd 03 3d 45 3d
       0.04731864 -0.051435877 -0.12297321 0.04815389
000010 39 f7 98 bc 51 10 87 bb 4f c5 3c 3a 0c 03 80 bd
       -0.018672572 -0.004121818 0.0007201032 -0.06250581
000020 9c bf 5f 3c 53 cf 26 bc 3a d3 04 3d 73 77 fc bc
       0.013656523 -0.010181266 0.032428004 -0.030818677
000030 55 26 38 3c 38 77 a3 3d 49 73 7e 3d c3 01 76 bd
       0.011239608 0.079817235 0.062121663 -0.060060274
000040 f8 bc ce bc 10 4e c1 3d 63 b6 d8 bc 2c 25 6c bd
       -0.025236592 0.09438717 -0.026454156 -0.057652637
000050 3c bf e3 3c 35 57 4a bc f3 0e b4 bd ae ea 95 3c
       0.027801149 -0.012349893 -0.08791914 0.01830038
000060 5e 3e 72 bc aa ee 51 3d 07 66 1e 3d 70 d4 33 3d
       -0.014785377 0.051253 0.03867152 0.043903768
000070 4f 7c 39 bc 34 64 d2 bc a8 b5 d4 bc d4 47 66 3d
       -0.011321141 -0.025682546 -0.025965527 0.056220844
000080 e7 21 41 3c b6 c4 47 bd d5 01 06 bd 22 25 94 bd
       0.011787868 -0.048771583 -0.03271659 -0.07233645
000090 41 03 a1 bb 08 3c 64 3d 7d f2 6d 3d d1 d1 8f 3d
       -0.004913718 0.055721313 0.058092583 0.07022441
0000a0 1b c7 76 bd e1 9c e8 bd 11 b8 89 bc d1 e7 a4 bd
       -0.060248476 -0.11358047 -0.016811403 -0.08052028
0000b0 58 26 ef 3c 5c 1c 32 3d 2e b3 ca 3c 29 2b 87 bd
       0.029193088 0.043484077 0.024743643 -0.06600029
0000c0 cb fc 5e 3d aa 77 a2 bd 83 a6 03 bd eb d5 93 3d
       0.0544403 -0.0793298 -0.03214122 0.07218536
0000d0 e4 49 8a bc 19 39 92 3c b7 81 8f bd 15 a4 95 3c
       -0.016880937 0.017849492 -0.07007163 0.018266717
0000e0 3d b2 0c ba bf 8b c5 bc de 88 05 bd c8 6f a3 3b
       -0.0005367136 -0.024114488 -0.03260123 0.0049876906
0000f0 fc 75 f2 3c 9a 1d 2e 3b d3 5b da 3c 4a 6c 80 3d
       0.029597275 0.0026567937 0.026655113 0.062706545
000100 86 d1 55 3d 73 5b 82 3c 79 dd 93 bc dc e0 8b bc
       0.05220177 0.015912747 -0.018049942 -0.017074995
000110 88 3f a6 bd 06 88 8b bd 62 c6 f8 bd 47 2b 83 3d
       -0.081175864 -0.06813054 -0.121472135 0.06404739
000120 a6 de 0b 3c f3 52 b3 3c c5 65 b5 3d e7 fc 89 bd
       0.00853697 0.02189014 0.088573016 -0.067376904
000130 cd fc 7b 3c d0 72 41 bd 99 69 65 3d 27 7c ed 3c
       0.015380097 -0.047228634 0.05600891 0.028989865
000140 4d eb 38 3d e5 82 aa 3d de e1 a5 3d b9 c7 d3 bd
       0.045146275 0.083257474 0.08099721 -0.103408284
000150 25 ea b1 bb a3 be 03 3d ec eb db 3c 7c 1a 0f bd
       -0.0054295235 0.032164227 0.026845895 -0.034937367
000160 34 3d 6a 3d ee 87 2e bd 33 9f 18 bb ac fc 54 3d
       0.057187274 -0.0426101 -0.002328825 0.05199878
000170 5d 2d 1e 3c d9 12 28 bd 08 8c 75 3d 0e c5 16 bd
       0.00965437 -0.0410336 0.059947997 -0.03680902
000180 ba bd 97 3c 9a 1d ed 3c 9d 4d ff 3c 2c 84 ef bd
       0.018523086 0.02894478 0.031164939 -0.11695132
000190 e4 d2 e8 3c 40 da ef 3c 36 65 8e 3c 52 d9 6d bd
       0.028420873 0.029278874 0.017382246 -0.05806858
0001a0 15 e0 67 3d f1 51 8b bc 2d bc 37 bd ae de 99 ba
       0.056610186 -0.017006846 -0.044857193 -0.0011739337
0001b0 dc a5 2a bd c4 6f 09 3d 03 50 8b bc 39 a5 65 bc
       -0.041662082 0.033553854 -0.017005926 -0.014016443
0001c0 b4 b5 27 bd 09 11 30 bd aa 04 c7 3c 46 78 40 bd
       -0.04094477 -0.042984996 0.024294216 -0.0469897
0001d0 a5 ce a1 bd ce 35 5f 3d a8 39 f1 3c 87 49 70 bd
       -0.079007424 0.05449467 0.029446438 -0.05866387
0001e0 c2 fd b8 3c a1 3b 0d bd bf 6d dc ba 00 13 b0 bc
       0.022581939 -0.034480695 -0.0016817375 -0.021493435
0001f0 49 1d 61 bc c7 9c 0c 3d 45 ba 0e 3c e6 07 7c 3d
       -0.013739892 0.034329202 0.008711402 0.06153097
000200 0e 22 49 3d c2 93 cd 3d 50 67 80 3d 18 50 9c 3c
       0.049104743 0.10037948 0.06269705 0.01908116
000210 69 63 2e bd 87 c7 81 3d 2b fd f1 3d c8 a9 05 3d
       -0.042575274 0.06336885 0.11815866 0.03263262
000220 9e a6 87 bd 56 00 05 3d ba f0 57 3d e8 fb 5f 3d
       -0.066235766 0.032471023 0.05271981 0.054683596
000230 7e d2 0e 3d 4b 23 19 bd 81 08 d7 bc c3 d7 ef ba
       0.03486871 -0.037387174 -0.026249172 -0.0018298555
000240 b6 66 99 bd 3f 69 45 bd a1 df ad bc b5 45 cb 3c
       -0.07490294 -0.048196074 -0.021224799 0.024813512
000250 07 e2 f1 3d f8 c7 92 bd 47 98 c0 3d ba 57 62 3d
       0.118106894 -0.07167047 0.094040446 0.055259444
000260 98 93 79 3d 7d aa c4 3c 34 e0 30 bc 09 30 03 3d
       0.060931772 0.024007076 -0.010795642 0.03202823
000270 12 53 de bc 65 82 9d 3c f0 f6 aa 3d ef 23 19 bd
       -0.02713922 0.019227216 0.08347881 -0.037387785
000280 93 eb 0e 3b 88 43 85 3d 81 80 f4 3b 88 43 96 3c
       0.0021807894 0.06507021 0.007461608 0.018342748
000290 3b 99 a9 bd 01 34 30 3d d0 03 a6 3c f2 a7 75 bd
       -0.082811795 0.043018345 0.02026549 -0.05997462
0002a0 d2 3b 65 3a 7f ee 74 3d 7a 78 83 bc 94 8e 8e 3c
       0.00087445707 0.05979776 -0.016048659 0.01740197
0002b0 1c 80 be 3c b3 b9 ae 3c b1 64 b5 bd 66 a0 c5 3c
       0.023254447 0.021328783 -0.08857096 0.024124335
0002c0 a0 9e 8b 3d 71 5b d7 b9 04 87 6b bd a0 52 51 3d
       0.06817365 -0.00041076125 -0.057501808 0.051104188
0002d0 cc 4a 84 3d 7b c4 dc 3c b3 fe 20 3c d5 9f 2e 3d
       0.06459579 0.026949158 0.00982635 0.042632896
0002e0 45 ad d5 bd 1f 4b 16 bd 36 37 61 3d ed 7a a3 bd
       -0.10433439 -0.036692735 0.054984294 -0.079824306
0002f0 b7 99 12 bd 9f 9c 74 3d 9c 39 a5 3d fc fc 3f bd
       -0.035791125 0.059719678 0.08067629 -0.046872124
000300 1d 7b 95 bd 3a 8d ca bd bf 8b 21 3d 96 70 6b 3d
       -0.072988726 -0.09890218 0.039439913 0.057480417
000310 a8 6f c4 3d 40 66 b9 3d 07 47 4a 3d 84 b7 0f 3d
       0.09591609 0.09052706 0.049384143 0.035087124
000320 51 86 36 bc 17 62 0d bd 4f 44 a7 bd 72 91 5a 3c
       -0.011140422 -0.034517374 -0.08167326 0.013340341
000330 74 e4 db bb 8e 90 1b bc 0a 7c be bd 2f b8 d3 bc
       -0.0067105833 -0.009494914 -0.09301002 -0.025844662
000340 24 3c a5 bd dc 0d 70 3c 61 b6 06 3d 57 7c 5d bc
       -0.080681115 0.014651742 0.032888774 -0.013518414
000350 ba 6b 65 bd 0e 9e e0 3d 72 03 d3 bd 2b 66 22 bc
       -0.05601094 0.109676465 -0.103033915 -0.009912054
000360 a0 be 56 3d e4 8d 57 3d a4 d5 6b bc 03 17 74 3d
       0.052427888 0.05262555 -0.014394198 0.05959226
000370 7b 05 cf 3d ee ad 42 3c 64 c6 24 3d 28 00 bf bc
       0.10108467 0.011882288 0.040228263 -0.023315504
000380 a2 f6 c2 bc ed 46 be bd 0a 75 50 3d 10 ab 5b 3d
       -0.023799244 -0.09290872 0.050892867 0.053629935
000390 88 ec 33 3d dd 93 01 bd 6b e7 ed bd 15 6d 93 3c
       0.043926746 -0.031635154 -0.11616405 0.01799635
0003a0 55 6c 58 3d ce 04 e5 3c ed b4 4c 3c 16 0d cf bb
       0.05283769 0.027956393 0.012494308 -0.0063186986
0003b0 30 e4 41 bc ba 53 9f 3d 36 d4 9a bc 5b 3a 45 bc
       -0.011834189 0.077796414 -0.018900018 -0.012037839
0003c0 f9 8e 70 3d 28 49 44 bd 99 67 2e 3d 85 2e 04 bd
       0.0587301 -0.04792133 0.042579267 -0.032270927
0003d0 6a b2 fb bd ad 0e ae 3d af 0d 75 bc c4 75 24 3d
       -0.12289889 0.08498893 -0.014956876 0.040151373
0003e0 90 31 bb bd 79 ae 36 bd 14 9d d5 ba a1 e9 2d 3d
       -0.09140313 -0.044599984 -0.0016297423 0.042459134
0003f0 b1 d8 6b 3d 25 20 ef 3d 0b ed da 3d 05 b3 44 bd
       0.0575797 0.11676053 0.106897436 -0.04802229

layer2.conv2.bias f4 [64]
000000 75 3e cb 3c 07 73 3b bb 91 51 44 bd 29 86 fc bc
       0.024810055 -0.0028602497 -0.04792935 -0.030825691
000010 0f c8 ea bc 17 81 5a bd 0f 46 39 3d 26 35 b9 3b
       -0.028659848 -0.053345766 0.04523283 0.0056520877
000020 fa ce 11 bd 92 84 a7 3c e4 31 08 bc fe 46 8d bb
       -0.03559778 0.020448957 -0.008312676 -0.0043114414
000030 a2 75 d7 bc 9c 26 40 3d b8 5b 71 3d 2a 94 61 3c
       -0.026301209 0.04691182 0.05892536 0.013768235
000040 21 ef 28 bd 0a fe 15 bc cc 59 9f bb 03 fb 42 3d
       -0.041243676 -0.009154806 -0.0048629995 0.047602665
000050 89 58 ac 3c 59 ff 30 3d d2 86 6e 3d a2 e5 0e 3d
       0.02103831 0.04321227 0.058234043 0.034886964
000060 84 7f af bc 5c e0 67 bd 0b d8 70 bd 90 be 74 3d
       -0.021423109 -0.05661045 -0.058799785 0.059752047
000070 e3 d8 0a bd 9d 7d 87 3c be 34 07 3d e8 72 d6 3c
       -0.033898246 0.01653939 0.033009283 0.026177838
000080 05 e2 ce bb a9 15 24 bc e4 f0 19 bd 82 04 02 bd
       -0.0063135647 -0.01001493 -0.037583247 -0.03174258
000090 fe 6a 58 3b 91 5f 8e 3d a4 1d 95 bc e5 20 fc bc
       0.0033022757 0.069518216 -0.01820261 -0.030777404
0000a0 eb 36 4a bd 1e ef a6 3b 29 4d 18 3d 4f 47 0f bd
       -0.04936878 0.005094423 0.03718296 -0.034980115
0000b0 0a 0e d8 3c 56 8c e4 3b 63 2e 0f 3b 19 83 52 bd
       0.026373882 0.006974737 0.0021847717 -0.051394556
0000c0 07 e9 2e 3d 63 15 cb bc a4 e4 60 bd e1 75 b3 bc
       0.0427027 -0.024790471 -0.05490555 -0.021906795
0000d0 c3 80 24 bb a2 8b cc bb f9 ce 21 bd 75 74 fe ba
       -0.0025101162 -0.0062422315 -0.039504025 -0.0019413369
0000e0 66 b2 ad 3c 4e 9e b5 bc 13 91 bd 3c c6 3a 50 3d
       0.021203231 -0.022170212 0.023140466 0.0508373
0000f0 7e 8b 36 3c e5 a5 f2 ba 43 47 ca bc 9e d3 96 bc
       0.011141656 -0.0018512575 -0.024692183 -0.018411454

fc1.weight f4 [1, 3200]
000000 10 30 e5 3c 3b c3 cc 3c d2 8c 60 3c 16 83 a2 bc
       0.02797702 0.024995437 0.013705449 -0.019837897
000010 6b 7a 52 3c 02 99 10 3d d8 7a 3b bc d2 87 85 bd
       0.0128465695 0.03530217 -0.011442862 -0.06520046
000020 15 32 a3 3b 4a 69 0e bd 2e 09 eb 3c 82 f3 11 3d
       0.0049803355 -0.03476838 0.0286909 0.035632618
000030 02 a3 a1 bc 40 9a 00 80 d4 46 b5 be 28 e7 48 bd
       -0.019731048 -5.5334e-41 -0.354056 -0.049048573
000040 d4 56 b4 bb ea 50 10 3c 5a ee 01 80 c1 db e5 3d
       -0.005503515 0.008808354 -1.7734e-40 0.11223555
000050 7a e8 ba 3b e1 00 c0 bd 6c 35 6e bd c3 20 c8 be
       0.005703983 -0.09375168 -0.058156416 -0.39087495
000060 1e bc 1e bd 7a b3 87 3d 39 33 11 3e 1c db 68 bc
       -0.03875362 0.06626029 0.14179696 -0.014212396
000070 84 74 6c 3e 2e 46 eb bc 3a de 45 3c 83 86 8b 3c
       0.23091322 -0.028719988 0.012076909 0.017031914
000080 88 3a 8e 3b 0b ab f8 3c c6 cd 15 bd 31 15 76 bd
       0.0043404736 0.030354997 -0.036573194 -0.060078803
000090 db 48 ef bd c8 13 8a 3b 60 ed 95 3c 8d e6 fc bc
       -0.11683818 0.004213784 0.018301666 -0.030871654
0000a0 7d 99 a6 3c 11 78 69 3c 2a 0a 9f 3c 65 cd d5 3c
       0.02033686 0.0142498175 0.019414026 0.026098916
0000b0 e5 05 06 3e 81 4e 0e 3e ef 39 22 bc 19 91 02 bd
       0.13088186 0.13897134 -0.009901508 -0.031876657
0000c0 0d d2 d9 3c 4f a2 80 3b 04 84 90 bb 14 6a 98 bb
       0.026589418 0.0039255987 -0.0044102687 -0.0046513174
0000d0 1a 44 ef bb 9c 4c 37 3b 81 d3 1a bc 31 3d 7f bd
       -0.0073018195 0.0027969247 -0.0094498405 -0.062314216
0000e0 87 ad e4 3b b0 cb bc bc c0 1d bf bb b0 9a 88 bb
       0.006978694 -0.023046345 -0.005832404 -0.004168831
0000f0 28 f6 cf 3c cd 7e d1 39 5f 1b 4f bc 7f fd 9f bc
       0.025385931 0.0003995806 -0.012640803 -0.019530056
000100 44 37 d1 3d 54 a8 8a be 7e 1e 37 3d e1 1a 6b 3a
       0.10215619 -0.2708155 0.044706814 0.0008968544
000110 63 4a db 3b e1 e3 87 3b b4 a9 91 ba cd b1 35 3d
       0.006692217 0.0041470383 -0.0011113198 0.044359017
000120 50 0e f3 bb 7e 4e 92 bc 5f c6 98 3d fb 37 67 3b
       -0.0074174777 -0.017859694 0.07459711 0.003528117
000130 b2 82 7f 3c cc 08 a3 bc 30 25 c1 bb 9f e0 da 38
       0.015595125 -0.019901656 -0.0058943257 0.00010436889
000140 9c e2 ab bc 2d 1d e2 ba 9e 05 db 3c 66 05 7a bc
       -0.02098208 -0.0017251127 0.026736077 -0.015260076
000150 ed 04 2d 3d c2 9f 99 3c 58 8b 65 3d f8 98 06 3c
       0.042241026 0.018752936 0.05604109 0.0082151815
000160 cc be 18 3c 8c 45 c8 3a 9d 10 48 3b 81 9c d2 bb
       0.009322833 0.0015279516 0.003052748 -0.006427348
000170 ae 3f 5d 3b e8 a4 ff 3a 55 01 a3 3c 97 97 d1 3b
       0.003375988 0.0019504102 0.019898096 0.0063962447
000180 d8 0e f4 3b 2f 48 2e ba 78 75 04 bc 63 d2 0e bc
       0.0074480586 -0.00066483294 -0.008084647 -0.008717152
000190 1c e4 9b bd 00 e4 bf 3d e4 b1 03 bd 81 eb 51 3d
       -0.07611868 0.093696594 -0.03215207 0.051249985
0001a0 d3 17 92 bd cb 82 8d be d4 eb bd bd 3e b6 1d 3c
       -0.0713345 -0.2763885 -0.09273496 0.009625969
0001b0 96 8a d1 bb 1f c3 90 3c 57 6b 02 00 a1 63 28 3c
       -0.0063946946 0.017671166 2.22177e-40 0.01027766
0001c0 85 43 a3 3d f9 96 54 be 07 91 20 3e 8c 98 00 80
       0.07971863 -0.20760716 0.15680324 -5.4724e-41
0001d0 b5 36 c8 bd 3c a8 a8 bb 29 61 a9 bd b0 b4 ef 3d
       -0.097760595 -0.005147008 -0.08270485 0.11704385
0001e0 d1 56 5d bd fd 1e e5 bd 0a 65 00 00 4b df 99 be
       -0.054037873 -0.11187551 3.6246e-41 -0.30053172
0001f0 f9 da a0 bc 32 ab 2b 3f b6 e3 80 be 51 b5 02 80
       -0.019635664 0.670581 -0.2517373 -2.48715e-40
000200 12 a7 21 3e b3 39 22 3e 09 22 f4 3d 3e 19 02 80
       0.15786389 0.15842323 0.11920554 -1.92726e-40
000210 8a f8 00 00 21 cc ad bd 7e 03 f2 bd 80 a7 bb 3c
       8.9159e-41 -0.084862 -0.11817072 0.022907019
000220 6b e9 95 b5 e7 35 99 3c d0 94 48 3b 77 09 c2 bc
       -1.1169299e-06 0.01870246 0.0030606277 -0.023686154
000230 5d 9f 6b bd b7 db 01 80 ad 35 16 3e a7 ae 48 3c
       -0.057525028 -1.70654e-40 0.14668913 0.012248672
000240 5a e4 4a 3c 58 a0 a4 3c 41 ec 96 3d 57 d5 2f 3d
       0.012383545 0.02009599 0.073692806 0.042928066
000250 25 ad d3 3c 98 9c b5 bc 6a de 02 00 f7 34 00 80
       0.025839398 -0.022169396 2.63458e-40 -1.9e-41
000260 03 41 9f bd b5 27 ba 3c eb 38 a0 bd 95 1c 6a 3e
       -0.07776072 0.022724012 -0.07823356 0.22862466
000270 3d 74 cb 38 fa fa dd 3d b3 10 df 3c c2 6f 04 b9
       9.7014454e-05 0.108388856 0.027229642 -0.00012630134
000280 a6 f0 00 00 86 6f 00 80 9d cb 53 3e 11 43 8b 3c
       8.6328e-41 -4.0007e-41 0.20683141 0.016999753
000290 6e f1 07 3e 5a 5e e4 bd e1 dc 1b 3b c7 a1 5a 3d
       0.13275692 -0.11150809 0.0023782777 0.05337694
0002a0 32 af c1 bc 1b 9d f9 bc 41 10 01 00 b5 80 02 00
       -0.02364311 -0.030470422 9.7666e-41 2.29842e-40
0002b0 45 98 02 00 41 13 01 00 2c 94 00 80 17 ed 0e 3d
       2.38295e-40 9.8742e-41 -5.3154e-41 0.034894075
0002c0 12 4c 02 80 8f 48 02 80 7c db 4e bc 79 1b 6b 3d
       -2.1096e-40 -2.097e-40 -0.012625571 0.057399247
0002d0 18 b2 99 b7 e4 bc c5 37 cc 5b 00 00 18 7a 61 bc
       -1.8321953e-05 2.357219e-05 3.293e-41 -0.01376202
0002e0 75 74 4d be b6 96 83 be e0 a6 3c bd 84 d4 01 80
       -0.20063956 -0.2570092 -0.046057582 -1.68072e-40
0002f0 c3 be 5e bd ca 4a d1 bc cd b5 02 00 07 de 01 00
       -0.054381143 -0.025548358 2.48889e-40 1.71484e-40
000300 b9 0d 4a 3d 34 5c b7 3c 66 29 fb 3d 7b 43 74 be
       0.049329493 0.022382833 0.122637555 -0.23853867
000310 0d 59 6f be 0f b8 29 3d 5d 41 bc 3b 0e 4a 34 3d
       -0.23373814 0.041435298 0.0057450966 0.044015937
000320 66 31 d8 3c a4 21 f8 bc 35 58 de bc 3d f9 4b 3c
       0.026390743 -0.030289479 -0.02714167 0.01244956
000330 3b e0 fc bd 8f 3e e2 3c b2 4c 29 3c de 13 33 3d
       -0.12347456 0.02761772 0.010333227 0.04372012
000340 84 a2 3c bc f7 51 db bc 78 ad 46 bd f4 b9 91 3b
       -0.011513356 -0.026772482 -0.048505276 0.004447216
000350 f1 7c 77 bd c9 24 20 bd f2 09 53 be 00 d1 8c 3d
       -0.060421888 -0.03909758 -0.20609263 0.06875801
000360 9d 17 69 39 87 74 41 bd 2b 31 f5 3b 26 dc e1 bc
       0.00022229408 -0.04723027 0.007482668 -0.027570795
000370 00 9c 0f bc 27 0e 22 3d ab 80 a5 3c b0 4d 90 3d
       -0.008765221 0.039564278 0.020202955 0.07046068
000380 5f 26 de 3c 61 a3 07 be b4 a7 b9 bd 2f 20 54 3c
       0.027117906 -0.13245918 -0.0906519 0.012947126
000390 86 11 05 bd 28 3e 17 3d a5 53 02 00 04 d6 01 80
       -0.032487415 0.03692451 2.13677e-40 -1.6861e-40
0003a0 7f ce 28 be 94 07 52 3d c8 b4 03 3e 49 bc 40 3e
       -0.16485022 0.05127676 0.12861931 0.18821825
0003b0 4e 82 08 3f 38 ff 1c 3e c9 e9 10 bd 59 22 14 bd
       0.5332383 0.15331733 -0.035379205 -0.03616557
0003c0 31 7c 39 3c 01 b0 68 3b 1e a0 02 80 fe ce b8 bd
       0.011321113 0.0035505297 -2.4111e-40 -0.090238556
0003d0 7b 98 f4 3b 13 e7 ff 3c 32 75 b6 3e 13 6f 01 80
       0.007464466 0.031238114 0.35636288 -1.31681e-40
0003e0 70 d5 32 3d b0 8e 7e 3c 33 47 8c 3c c2 87 2e bd
       0.04366058 0.015536949 0.017123794 -0.042609937
0003f0 36 1a 50 bd 80 38 01 80 cc 1a 02 80 88 ed 1a 3e
       -0.050806247 -1.12104e-40 -1.93284e-40 0.15129673

out.0.weight f4 [1, 3200]
000000 10 30 e5 3c 3b c3 cc 3c d2 8c 60 3c 16 83 a2 bc
       0.02797702 0.024995437 0.013705449 -0.019837897
000010 6b 7a 52 3c 02 99 10 3d d8 7a 3b bc d2 87 85 bd
       0.0128465695 0.03530217 -0.011442862 -0.06520046
000020 15 32 a3 3b 4a 69 0e bd 2e 09 eb 3c 82 f3 11 3d
       0.0049803355 -0.03476838 0.0286909 0.035632618
000030 02 a3 a1 bc 40 9a 00 80 d4 46 b5 be 28 e7 48 bd
       -0.019731048 -5.5334e-41 -0.354056 -0.049048573
000040 d4 56 b4 bb ea 50 10 3c 5a ee 01 80 c1 db e5 3d
       -0.005503515 0.008808354 -1.7734e-40 0.11223555
000050 7a e8 ba 3b e1 00 c0 bd 6c 35 6e bd c3 20 c8 be
       0.005703983 -0.09375168 -0.058156416 -0.39087495
000060 1e bc 1e bd 7a b3 87 3d 39 33 11 3e 1c db 68 bc
       -0.03875362 0.06626029 0.14179696 -0.014212396
000070 84 74 6c 3e 2e 46 eb bc 3a de 45 3c 83 86 8b 3c
       0.23091322 -0.028719988 0.012076909 0.017031914
000080 88 3a 8e 3b 0b ab f8 3c c6 cd 15 bd 31 15 76 bd
       0.0043404736 0.030354997 -0.036573194 -0.060078803
000090 db 48 ef bd c8 13 8a 3b 60 ed 95 3c 8d e6 fc bc
       -0.11683818 0.004213784 0.018301666 -0.030871654
0000a0 7d 99 a6 3c 11 78 69 3c 2a 0a 9f 3c 65 cd d5 3c
       0.02033686 0.0142498175 0.019414026 0.026098916
0000b0 e5 05 06 3e 81 4e 0e 3e ef 39 22 bc 19 91 02 bd
       0.13088186 0.13897134 -0.009901508 -0.031876657
0000c0 0d d2 d9 3c 4f a2 80 3b 04 84 90 bb 14 6a 98 bb
       0.026589418 0.0039255987 -0.0044102687 -0.0046513174
0000d0 1a 44 ef bb 9c 4c 37 3b 81 d3 1a bc 31 3d 7f bd
       -0.0073018195 0.0027969247 -0.0094498405 -0.062314216
0000e0 87 ad e4 3b b0 cb bc bc c0 1d bf bb b0 9a 88 bb
       0.006978694 -0.023046345 -0.005832404 -0.004168831
0000f0 28 f6 cf 3c cd 7e d1 39 5f 1b 4f bc 7f fd 9f bc
       0.025385931 0.0003995806 -0.012640803 -0.019530056
000100 44 37 d1 3d 54 a8 8a be 7e 1e 37 3d e1 1a 6b 3a
       0.10215619 -0.2708155 0.044706814 0.0008968544
000110 63 4a db 3b e1 e3 87 3b b4 a9 91 ba cd b1 35 3d
       0.006692217 0.0041470383 -0.0011113198 0.044359017
000120 50 0e f3 bb 7e 4e 92 bc 5f c6 98 3d fb 37 67 3b
       -0.0074174777 -0.017859694 0.07459711 0.003528117
000130 b2 82 7f 3c cc 08 a3 bc 30 25 c1 bb 9f e0 da 38
       0.015595125 -0.019901656 -0.0058943257 0.00010436889
000140 9c e2 ab bc 2d 1d e2 ba 9e 05 db 3c 66 05 7a bc
       -0.02098208 -0.0017251127 0.026736077 -0.015260076
000150 ed 04 2d 3d c2 9f 99 3c 58 8b 65 3d f8 98 06 3c
       0.042241026 0.018752936 0.05604109 0.0082151815
000160 cc be 18 3c 8c 45 c8 3a 9d 10 48 3b 81 9c d2 bb
       0.009322833 0.0015279516 0.003052748 -0.006427348
000170 ae 3f 5d 3b e8 a4 ff 3a 55 01 a3 3c 97 97 d1 3b
       0.003375988 0.0019504102 0.019898096 0.0063962447
000180 d8 0e f4 3b 2f 48 2e ba 78 75 04 bc 63 d2 0e bc
       0.0074480586 -0.00066483294 -0.008084647 -0.008717152
000190 1c e4 9b bd 00 e4 bf 3d e4 b1 03 bd 81 eb 51 3d
       -0.07611868 0.093696594 -0.03215207 0.051249985
0001a0 d3 17 92 bd cb 82 8d be d4 eb bd bd 3e b6 1d 3c
       -0.0713345 -0.2763885 -0.09273496 0.009625969
0001b0 96 8a d1 bb 1f c3 90 3c 57 6b 02 00 a1 63 28 3c
       -0.0063946946 0.017671166 2.22177e-40 0.01027766
0001c0 85 43 a3 3d f9 96 54 be 07 91 20 3e 8c 98 00 80
       0.07971863 -0.20760716 0.15680324 -5.4724e-41
0001d0 b5 36 c8 bd 3c a8 a8 bb 29 61 a9 bd b0 b4 ef 3d
       -0.097760595 -0.005147008 -0.08270485 0.11704385
0001e0 d1 56 5d bd fd 1e e5 bd 0a 65 00 00 4b df 99 be
       -0.054037873 -0.11187551 3.6246e-41 -0.30053172
0001f0 f9 da a0 bc 32 ab 2b 3f b6 e3 80 be 51 b5 02 80
       -0.019635664 0.670581 -0.2517373 -2.48715e-40
000200 12 a7 21 3e b3 39 22 3e 09 22 f4 3d 3e 19 02 80
       0.15786389 0.15842323 0.11920554 -1.92726e-40
000210 8a f8 00 00 21 cc ad bd 7e 03 f2 bd 80 a7 bb 3c
       8.9159e-41 -0.084862 -0.11817072 0.022907019
000220 6b e9 95 b5 e7 35 99 3c d0 94 48 3b 77 09 c2 bc
       -1.1169299e-06 0.01870246 0.0030606277 -0.023686154
000230 5d 9f 6b bd b7 db 01 80 ad 35 16 3e a7 ae 48 3c
       -0.057525028 -1.70654e-40 0.14668913 0.012248672
000240 5a e4 4a 3c 58 a0 a4 3c 41 ec 96 3d 57 d5 2f 3d
       0.012383545 0.02009599 0.073692806 0.042928066
000250 25 ad d3 3c 98 9c b5 bc 6a de 02 00 f7 34 00 80
       0.025839398 -0.022169396 2.63458e-40 -1.9e-41
000260 03 41 9f bd b5 27 ba 3c eb 38 a0 bd 95 1c 6a 3e
       -0.07776072 0.022724012 -0.07823356 0.22862466
000270 3d 74 cb 38 fa fa dd 3d b3 10 df 3c c2 6f 04 b9
       9.7014454e-05 0.108388856 0.027229642 -0.00012630134
000280 a6 f0 00 00 86 6f 00 80 9d cb 53 3e 11 43 8b 3c
       8.6328e-41 -4.0007e-41 0.20683141 0.016999753
000290 6e f1 07 3e 5a 5e e4 bd e1 dc 1b 3b c7 a1 5a 3d
       0.13275692 -0.11150809 0.0023782777 0.05337694
0002a0 32 af c1 bc 1b 9d f9 bc 41 10 01 00 b5 80 02 00
       -0.02364311 -0.030470422 9.7666e-41 2.29842e-40
0002b0 45 98 02 00 41 13 01 00 2c 94 00 80 17 ed 0e 3d
       2.38295e-40 9.8742e-41 -5.3154e-41 0.034894075
0002c0 12 4c 02 80 8f 48 02 80 7c db 4e bc 79 1b 6b 3d
       -2.1096e-40 -2.097e-40 -0.012625571 0.057399247
0002d0 18 b2 99 b7 e4 bc c5 37 cc 5b 00 00 18 7a 61 bc
       -1.8321953e-05 2.357219e-05 3.293e-41 -0.01376202
0002e0 75 74 4d be b6 96 83 be e0 a6 3c bd 84 d4 01 80
       -0.20063956 -0.2570092 -0.046057582 -1.68072e-40
0002f0 c3 be 5e bd ca 4a d1 bc cd b5 02 00 07 de 01 00
       -0.054381143 -0.025548358 2.48889e-40 1.71484e-40
000300 b9 0d 4a 3d 34 5c b7 3c 66 29 fb 3d 7b 43 74 be
       0.049329493 0.022382833 0.122637555 -0.23853867
000310 0d 59 6f be 0f b8 29 3d 5d 41 bc 3b 0e 4a 34 3d
       -0.23373814 0.041435298 0.0057450966 0.044015937
000320 66 31 d8 3c a4 21 f8 bc 35 58 de bc 3d f9 4b 3c
       0.026390743 -0.030289479 -0.02714167 0.01244956
000330 3b e0 fc bd 8f 3e e2 3c b2 4c 29 3c de 13 33 3d
       -0.12347456 0.02761772 0.010333227 0.04372012
000340 84 a2 3c bc f7 51 db bc 78 ad 46 bd f4 b9 91 3b
       -0.011513356 -0.026772482 -0.048505276 0.004447216
000350 f1 7c 77 bd c9 24 20 bd f2 09 53 be 00 d1 8c 3d
       -0.060421888 -0.03909758 -0.20609263 0.06875801
000360 9d 17 69 39 87 74 41 bd 2b 31 f5 3b 26 dc e1 bc
       0.00022229408 -0.04723027 0.007482668 -0.027570795
000370 00 9c 0f bc 27 0e 22 3d ab 80 a5 3c b0 4d 90 3d
       -0.008765221 0.039564278 0.020202955 0.07046068
000380 5f 26 de 3c 61 a3 07 be b4 a7 b9 bd 2f 20 54 3c
       0.027117906 -0.13245918 -0.0906519 0.012947126
000390 86 11 05 bd 28 3e 17 3d a5 53 02 00 04 d6 01 80
       -0.032487415 0.03692451 2.13677e-40 -1.6861e-40
0003a0 7f ce 28 be 94 07 52 3d c8 b4 03 3e 49 bc 40 3e
       -0.16485022 0.05127676 0.12861931 0.18821825
0003b0 4e 82 08 3f 38 ff 1c 3e c9 e9 10 bd 59 22 14 bd
       0.5332383 0.15331733 -0.035379205 -0.03616557
0003c0 31 7c 39 3c 01 b0 68 3b 1e a0 02 80 fe ce b8 bd
       0.011321113 0.0035505297 -2.4111e-40 -0.090238556
0003d0 7b 98 f4 3b 13 e7 ff 3c 32 75 b6 3e 13 6f 01 80
       0.007464466 0.031238114 0.35636288 -1.31681e-40
0003e0 70 d5 32 3d b0 8e 7e 3c 33 47 8c 3c c2 87 2e bd
       0.04366058 0.015536949 0.017123794 -0.042609937
0003f0 36 1a 50 bd 80 38 01 80 cc 1a 02 80 88 ed 1a 3e
       -0.050806247 -1.12104e-40 -1.93284e-40 0.15129673

exp_avg f4 [32, 2, 5, 5]
000000 c0 77 0f 3b 7f 03 a2 3a c4 66 0a b9 97 1e e4 ba
       0.0021891445 0.0012360661 -0.00013198989 -0.0017404136
000010 94 f4 54 bb f2 86 24 3b 81 95 be 3a 77 cf ed b8
       -0.0032494413 0.0025104848 0.0014540405 -0.00011339684
000020 b6 7f f6 ba 0f 22 6c bb 70 91 32 3b fa a0 bf 3a
       -0.0018806371 -0.0036031043 0.0027247332 0.0014620118
000030 13 07 89 b9 3d ee 0f bb 2e cb 7a bb 01 6c 25 3b
       -0.00026135947 -0.002196207 -0.0038268077 0.0025241377
000040 30 62 a0 3a 56 a4 07 ba 56 28 19 bb 28 98 81 bb
       0.0012236293 -0.0005174329 -0.002336999 -0.003954906
000050 b1 a5 9a 3a e6 ea 16 b9 1d f0 de ba 3c 81 5b bb
       0.0011798647 -0.00014392621 -0.0017008815 -0.0033493778
000060 61 38 97 bb f9 48 20 3b 6f a5 da 3a 32 8a 01 3a
       -0.004614875 0.0024457558 0.0016681383 0.0004941552
000070 a4 2f 75 ba ba 69 1d bb f5 a9 35 3b e5 4a f0 3a
       -0.00093531073 -0.0024019317 0.002771971 0.0018332867
000080 ab 1b ed 39 35 a4 a5 ba 0d b7 39 bb 08 58 34 3b
       0.00045224777 -0.0012637438 -0.0028337867 0.002751829
000090 44 45 d6 3a 7c 5d bc 38 78 d0 d2 ba 66 82 57 bb
       0.0016347547 8.9819514e-05 -0.0016083857 -0.003288412
0000a0 10 24 1c 3b 83 f3 9c 3a e7 27 cd b9 be 68 0d bb
       0.0023825206 0.0011974428 -0.00039130377 -0.0021577324
0000b0 f1 51 6e bb 0e 30 5a 3a b5 c8 b0 b9 66 45 f2 ba
       -0.003636476 0.0008323201 -0.00033718874 -0.0018483817
0000c0 85 d2 5b bb 9d b4 96 bb 69 81 94 b6 47 e1 79 3a
       -0.0033542227 -0.0045991675 -4.425809e-06 0.0009532165
0000d0 e9 4d ba 3a b2 f6 01 3b 17 cb 21 3b c9 67 79 ba
       0.0014213893 0.001983088 0.0024687701 -0.00095140614
0000e0 31 ab 3f 39 e7 76 88 3a b1 cc da 3a 0d 72 19 3b
       0.00018278953 0.0010411412 0.0016693083 0.0023413927
0000f0 b0 f1 04 bb 52 f1 0d ba 54 b8 f2 39 81 54 bd 3a
       -0.0020285659 -0.00054146827 0.00046295172 0.001444474
000100 60 c6 10 3b 75 08 49 bb f8 cd a6 ba 72 a8 53 b8
       0.0022090897 -0.0030675207 -0.0012726178 -5.0463197e-05
000110 8b b9 97 3a 9b 1e 0d 3b 62 13 56 bb 3a 91 ab ba
       0.0011575682 0.0021533135 -0.0032665362 -0.0013089546
000120 50 12 65 39 60 d4 cb 3a e8 b0 31 3b 34 2f cf b9
       0.00021845964 0.0015550964 0.00271135 -0.00039517286
000130 7f 72 3b 3a 19 0d b9 3a 15 6e 08 3b a4 59 34 3b
       0.0007150545 0.0014118283 0.0020817567 0.002751925
000140 7e b3 b5 ba 38 7a 7d 38 0d 3b 55 3a 4a 9b e2 3a
       -0.0013862697 6.0433726e-05 0.00081341044 0.0017288711
000150 1d 88 24 3b a4 09 1d bb 12 c4 4a ba 7d 37 b9 39
       0.0025105544 -0.0023962045 -0.0007734905 0.00035327292
000160 bd 51 bd 3a 6e 8a 1a 3b b6 58 64 bb ac 40 cf ba
       0.0014443916 0.0023581046 -0.0034842915 -0.001581212
000170 f9 e4 19 b9 d8 ae 93 3a 1c 18 0e 3b c0 69 79 bb
       -0.00014676516 0.0011267317 0.002168185 -0.0038057417
000180 cc b7 d3 ba a6 b7 41 38 91 45 c5 3a 30 7c 33 3b
       -0.0016152798 4.618582e-05 0.001505064 0.0027387254
000190 9d 1d 1a bb 3e 38 3a bb 37 a1 3f bb 19 f3 27 bb
       -0.0023516186 -0.002841487 -0.0029240379 -0.0025627075
0001a0 b6 27 f8 ba da 9c 24 bb b6 94 3f bb 63 ee 40 bb
       -0.0018932733 -0.0025117905 -0.0029232926 -0.0029438965
0001b0 f7 ef 29 bb 79 86 fa ba db 66 2d bb c7 1e 4a bb
       -0.0025930384 -0.0019113562 -0.0026459012 -0.0030841099
0001c0 96 dc 42 bb 50 6f 2e bb b5 64 00 bb 65 3a 36 bb
       -0.002973353 -0.002661664 -0.0019591276 -0.0027805802
0001d0 f0 ef 49 bb 76 83 47 bb c8 ef 2d bb 71 87 05 bb
       -0.003081318 -0.0030443347 -0.0026540626 -0.0020374919
0001e0 eb 60 24 bb 71 66 38 bb c5 06 35 bb b4 f1 22 bb
       -0.0025082182 -0.0028137232 -0.0027622443 -0.0024863305
0001f0 75 bd e3 ba b8 0e 1f bb 8e 82 3d bb fc f6 43 bb
       -0.0017375188 -0.0024270248 -0.0028916928 -0.0029901853
000200 de e1 33 bb ab 25 0c bb 06 90 29 bb e3 6c 45 bb
       -0.002744786 -0.0021384757 -0.0025873198 -0.0030124716
000210 74 cb 46 bb b7 32 33 bb e4 cd 0a bb 4a 0d 31 bb
       -0.003033367 -0.002734346 -0.002117985 -0.0027015978
000220 ce 3b 42 bb f2 22 47 bb a6 42 31 bb 23 13 09 bb
       -0.0029637697 -0.003038582 -0.0027047782 -0.0020915947
000230 13 af 31 bb 68 11 46 bb 39 3f 45 bb b7 e4 31 bb
       -0.002711241 -0.0030222777 -0.0030097498 -0.0027144381
000240 df 3b 08 bb 78 36 1f bb 5d eb 2e bb ca ce 2f bb
       -0.002078764 -0.002429394 -0.002669058 -0.0026826137
000250 28 98 1b bb 5f 1a fc ba 1b c1 53 b2 b0 41 be b1
       -0.0023741815 -0.0019233933 -1.23257236e-08 -5.5371956e-09
000260 10 48 37 30 12 67 b6 31 f9 51 58 31 94 e8 85 b2
       6.667742e-10 5.308615e-09 3.1478733e-09 -1.5589002e-08
000270 9b 38 6e b2 70 d8 25 b2 ef 3d b9 b1 62 ab 1e b2
       -1.3866294e-08 -9.653476e-09 -5.3912497e-09 -9.235778e-09
000280 12 d8 19 b2 36 4d eb b1 00 31 f8 b1 50 23 05 b2
       -8.954901e-09 -6.848178e-09 -7.2233206e-09 -7.749648e-09
000290 28 55 5c b2 e0 a2 82 32 4d 18 52 32 69 c5 15 32
       -1.2825048e-08 1.5208059e-08 1.2229134e-08 8.717827e-09
0002a0 38 56 2c 31 12 a8 04 b2 d4 04 00 33 40 20 d5 32
       2.5078304e-09 -7.721626e-09 2.9806714e-08 2.481113e-08
0002b0 93 0d 6e 32 56 68 d9 30 a7 73 61 b2 e5 3d b8 b2
       1.385651e-08 1.5818482e-09 -1.312302e-08 -2.1448566e-08
0002c0 be 1d 9b b2 40 0c 40 b2 af 92 84 b1 97 c9 20 b1
       -1.80579e-08 -1.1178656e-08 -3.8583816e-09 -2.3397655e-09
0002d0 69 ee ef b2 9e 02 d5 b2 83 f6 a9 b2 57 8b 79 b2
       -2.7931678e-08 -2.4797654e-08 -1.978629e-08 -1.452539e-08
0002e0 63 a3 65 b2 56 e3 ae b2 e6 ff af b2 be 6a 94 b2
       -1.3366704e-08 -2.0359646e-08 -2.048905e-08 -1.7278008e-08
0002f0 ce fb 70 b2 49 69 80 b2 8e ca 73 31 ab c6 ed 30
       -1.4027092e-08 -1.494904e-08 3.5476293e-09 1.7300484e-09
000300 17 fa 1b b1 c2 7b 8e b1 36 ff fe b1 45 f1 9f 32
       -2.2697628e-09 -4.1468136e-09 -7.421387e-09 1.8619753e-08
000310 02 bf 7f 32 aa 1f f5 31 1d 97 b1 b0 fc 0f 55 b2
       1.4886384e-08 7.1340382e-09 -1.2921394e-09 -1.2401866e-08
000320 22 4d 2a 39 b0 f2 c8 b8 a4 87 81 b9 46 ef 99 b9
       0.00016241198 -9.581947e-05 -0.00024705858 -0.00029360707
000330 14 d6 01 b9 03 b6 26 b8 71 26 ca b9 8a 16 08 ba
       -0.00012382149 -3.9746996e-05 -0.00038557083 -0.0005191347
000340 87 b7 09 ba 70 a4 94 b9 9e 32 d9 38 33 86 a9 b9
       -0.0005253483 -0.00028351275 0.000103567945 -0.00032334178
000350 7b 0a 93 b9 85 6e ac b9 1c d0 96 b7 a7 5c 2a b9
       -0.00028045833 -0.0003288874 -1.7978302e-05 -0.00016246979
000360 bd af e4 b9 4c 41 dd b9 78 eb b4 b9 01 6f 13 b8
       -0.00043618484 -0.00042201055 -0.00034507713 -3.515091e-05
000370 2e f4 ce b9 54 9b 08 ba ad 57 df b9 25 27 9f b9
       -0.0003947331 -0.0005211134 -0.00042599198 -0.00030356008
000380 b6 15 cd b7 be a0 de 39 1d bf a4 b8 32 50 0c b9
       -2.4448014e-05 0.00042462902 -7.855727e-05 -0.00013381316
000390 68 1a 81 b9 77 eb a6 b8 70 39 16 38 86 09 bb b9
       -0.00024624472 -7.9593556e-05 3.581628e-05 -0.00035674515
0003a0 af aa d9 b9 60 a4 e5 b9 bc f4 3a b9 d3 5d ce b7
       -0.00041516635 -0.00043800753 -0.00017829513 -2.4600804e-05
0003b0 d9 77 9c b9 14 d5 cb b9 2d 21 46 b9 08 49 36 39
       -0.00029843932 -0.00038877933 -0.0001889511 0.00017384079
0003c0 91 e0 dd b9 72 93 2b ba 57 d8 01 ba 72 e7 8f b9
       -0.0004231972 -0.00065451034 -0.00049531966 -0.00027447526
0003d0 1f 81 69 39 b4 c1 65 ba c2 3c 6f ba da 72 25 ba
       0.00022268713 -0.0008764521 -0.000912618 -0.00063113647
0003e0 a7 e5 96 b9 3d b7 93 39 35 e1 65 ba 7f a5 a3 b9
       -0.00028781334 0.00028174548 -0.0008769215 -0.00031213087
0003f0 cb f5 3d 3a 0d ca 10 3b 3a 95 7c 3b 76 8e 46 ba
       0.0007246404 0.0022093088 0.0038541094 -0.0007574329
