results/2BS/T_1/L_1000/seed4/model_best.pth.tar (torch_old, 395615 bytes, 22 tensors)

layer1.conv.weight f4 [32, 2, 5, 5]
-0.017508304 -0.007877125 0.14780892 -0.0062502916 0.0057729585 0.013169582 -0.077103734 -0.03482961
-0.047247082 0.021747831 0.026554106 0.010950381 0.059047423 -0.0072132926 0.047141414 -0.029344639
0.025019854 0.033294406 0.13620298 0.01102687 -0.020391107 0.052738823 -0.0058944286 -0.0058958135
0.03557018 -0.19346367 0.03219435 0.024430066 -0.04701715 -0.017008062 0.0021594474 -0.0889057
-0.007205339 0.023994293 0.02342252 -0.07503903 -0.008429197 0.03887285 -0.020460857 0.03583374
0.08811112 -0.088439554 0.054743282 -0.0705989 -0.056530908 0.025324117 0.11287768 0.031058894
-0.011269637 -0.05609224 -0.03779069 -0.06133118 0.022908866 0.026678825 -0.0717811 -0.046141833
-0.03273221 0.0665492 -0.10398965 -0.03224792 -0.106328376 -0.09233436 0.01699921 -0.031890046
-0.028778177 0.079988666 -0.084411584 -0.04048907 -0.011848472 -0.08296904 -0.035735674 0.044552464
-0.024558606 -0.003771015 -0.028409176 -0.034591276 0.0556013 0.08830103 -0.023921296 -0.010731393
0.02870662 0.021406125 -0.04644225 -0.043559477 -0.008747986 -0.03469115 0.045478806 0.1092143
0.041982807 0.00836397 -0.009761497 0.09476998 -0.051346708 0.046111416 -0.037791483 0.054159105
0.10457933 0.03683805 0.032660533 -0.022436943 -0.06730389 0.012424248 0.021565655 0.027717264
-0.03439936 -0.064928725 0.0073937573 -0.04200489 -0.0053890315 -0.0053955116 0.04724899 0.036156055
-0.030673804 -0.031921487 -0.010314817 -0.009350383 0.029090496 -0.012108069 -0.06490057 -0.0016361526
0.0046514203 -0.08920369 0.05791231 -0.04477949 -0.043576837 -0.08760476 -0.046771254 0.009915184
-0.08589195 0.0142244985 -0.039689053 -0.042368215 -0.09626137 -0.003680078 0.027599648 -0.06636617
-0.084141895 -0.061242647 -0.015608377 0.00047357797 0.017054962 -0.027792232 -0.032973602 -0.06664988
0.06180966 0.0010529896 -0.0053603803 0.042584863 -0.03769883 0.05482323 -0.0005098542 0.017878002
-0.002235212 -0.007971569 -0.058253497 -0.0023495336 -0.019460436 -0.028092088 0.016435366 0.012590845
0.003877382 0.011537516 0.005108768 0.053628996 -0.006939513 -0.00042128577 0.01641986 0.0013334042
-0.0056424076 -0.014123814 -0.00036036267 -0.020699969 0.013006769 0.0018075985 -0.008503355 5.1500883e-06
-0.0014266851 -0.00053063 0.009295832 -0.0062455493 -0.00027519395 -0.009000262 -0.009602202 -0.0066578616
-0.0021165987 -0.0032544576 0.03775353 -0.00027424996 0.008335955 0.0038520466 -0.002906718 -0.00074572343
-0.00095623976 -0.025526978 0.031342212 -0.00023716953 0.005684998 -0.025154145 -0.0037042606 -0.0039822315
0.033322394 0.07549053 -0.024332782 -0.014603456 -0.039805938 0.07654439 0.004192847 -0.042326342
0.031957395 0.06346596 -0.07895811 -0.0004673395 -0.011758938 0.070602976 0.005561683 0.017707335
0.05533022 -0.010156383 0.012011589 0.0052362042 0.007435027 -0.04734298 0.02219062 -0.0859454
-0.04283677 0.024085464 -0.029713403 0.018482398 -0.033788778 -0.04672268 0.084380284 0.042377308
-0.08482596 -0.06560654 0.0029249408 0.015401888 -0.03728528 -0.0065007596 0.040416483 -0.025998252
0.026090201 0.083244026 -0.06267475 0.03452353 -0.0036984126 -0.0066756457 -0.026704099 -0.016023103
0.04518101 0.0042149425 -0.012287394 0.031609856 -0.04024834 -0.027216608 -0.031370673 0.030497875
00000000: 936d 8fbc 0f0f 01bc 395b 173e 3fcf ccbb
00000010: 162b bd3b 3bc5 573c 90e8 9dbd 7ea9 0ebd
00000020: 2886 41bd 8228 b23c ff87 d93c 3a69 333c
00000030: b6db 713d 7c5d ecbb 5b17 413d 2b64 f0bc
00000040: 70f6 cc3c b75f 083d cb78 0b3e 0caa 343c
00000050: 400b a7bc aa04 583d 0d26 c1bb ab31 c1bb
00000060: 09b2 113d 571b 46be 39de 033d 9021 c83c
00000070: 0e95 40bd 7e54 8bbc 8485 0d3b 3114 b6bd
00000080: c41a ecbb ae8f c43c 96e0 bf3c 10ae 99bd
00000090: 9d1a 0abc 2339 1f3d 879d a7bc 66c6 123d
000000a0: 9a73 b43d cc1f b5bd 7e3a 603d 2896 90bd
000000b0: f48c 67bd 8674 cf3c 6a2c e73d 396f fe3c
000000c0: 49a4 38bc fac0 65bd 69ca 1abd 6736 7bbd
000000d0: 60ab bb3c 8d8d da3c f801 93bd 38ff 3cbd
000000e0: 3612 06bd f24a 883d 87f8 d4bd 6516 04bd
000000f0: b1c2 d9bd cc19 bdbd ed41 8b3c 239f 02bd
00000100: 36c0 ebbc 19d1 a33d fbdf acbd ded7 25bd
00000110: 1820 42bc aceb a9bd 925f 12bd a57c 363d
00000120: 212f c9bc 2223 77bb 5cba e8bc 95af 0dbd
00000130: 30be 633d 2cd7 b43d 98f6 c3bc b9d2 2fbc
00000140: 252a eb3c e65b af3c 3b3a 3ebd 6c6b 32bd
00000150: b653 0fbc 4f18 0ebd fc47 3a3d bfab df3d
00000160: 2af6 2b3d 0809 093c b0ee 1fbc c316 c23d
00000170: ed50 52bd 53df 3c3d 3ecb 1abd f0d5 5d3d
00000180: b02d d63d 7fe3 163d 0dc7 053d aecd b7bc
00000190: 9fd6 89bd 138f 4b3c 75aa b03c 510f e33c
000001a0: 58e6 0cbd 5af9 84bd 5547 f23b 520d 2cbd
000001b0: 7996 b0bb d5cc b0bb 2888 413d 5f18 143d
000001c0: a147 fbbc 1bc0 02bd 7aff 28bc 5932 19bc
000001d0: 314f ee3c ec60 46bc 97ea 84bd 2c74 d6ba
000001e0: f16a 983b 6db0 b6bd 7535 6d3d b36a 37bd
000001f0: a07d 32bd 206a b3bd 3793 3fbd 4c73 223c
00000200: 1ee8 afbd df0d 693c fd90 22bd 4b8a 2dbd
00000210: ae24 c5bd 772d 71bb a818 e23c fdea 87bd
00000220: 9652 acbd 92d9 7abd 47ba 7fbc 8f4a f839
00000230: d9b6 8b3c 89ac e3bc 540f 07bd bb7f 88bd
00000240: 202c 7d3d 7804 8a3a 21a6 afbb 776d 2e3d
00000250: 176a 1abd 538e 603d bca7 05ba e374 923c
00000260: a27c 12bb 2f9b 02bc 389b 6ebd a2fa 19bb
00000270: 7e6b 9fbc 6121 e6bc 76a3 863c d549 4e3c
00000280: ad1b 7e3b d907 3d3c 7467 a73b 14aa 5b3d
00000290: db64 e3bb 05e0 dcb9 f182 863c 9fc5 ae3a
000002a0: f2e3 b8bb 9267 67bc 0fef bcb9 fb92 a9bc
000002b0: 581a 553c f1ec ec3a a851 0bbc ecce ac36
000002c0: 9cff baba fa19 0bba 8c4d 183c 77a7 ccbb
000002d0: e847 90b9 d675 13bc 8e52 1dbc 312a dabb
000002e0: a2b6 0abb bd48 55bb 72a3 1a3d 35c9 8fb9
000002f0: 8893 083c 9e72 7c3b a37e 3ebb a77c 43ba
00000300: 2aac 7aba f41d d1bc b160 003d b6b0 78b9
00000310: 3849 ba3b 1110 cebc 2ec3 72bb 617d 82bb
00000320: 107d 083d c79a 9a3d 8b55 c7bc 5543 6fbc
00000330: 8d0b 23bd 4ec3 9c3d 2664 893b 635e 2dbd
00000340: c2e5 023d 71fa 813d cab4 a1bd 3f05 f5b9
00000350: 90a8 40bc 4b98 903d c73e b63b f90e 913c
00000360: f1a1 623d f566 26bc 41cc 443c 7794 ab3b
00000370: 87a1 f33b b6ea 41bd 1ac9 b53c 2404 b0bd
00000380: 9c75 2fbd e14e c53c 8669 f3bc 6668 973c
00000390: 1a66 0abd 4860 3fbd 92cf ac3d d493 2d3d
000003a0: 3cb9 adbd b95c 86bd 5db0 3f3b 3358 7c3c
000003b0: 73b8 18bd 5304 d5bb c18b 253d 49fa d4bc
000003c0: 1ebb d53c d87b aa3d 9f5b 80bd 8c68 0d3d
000003d0: 1161 72bb 60bf dabb 8ec2 dabc e242 83bc
000003e0: b90f 393d 801d 8a3b 1151 49bc 5679 013d
000003f0: 72db 24bd 5df5 debc 897e 00bd aed6 f93c

layer1.conv.bias f4 [32]
0.03259548 -0.00088546815 -0.116687916 -0.052529473 0.13198705 0.07830993 -0.078279406 -0.122935146
0.11401903 0.015682867 0.13579664 -0.105223596 0.004961623 -0.109216146 -0.12740755 -0.039958786
-0.07214514 -0.107220076 -0.100747965 0.095615044 0.09121322 0.031126488 -0.08503426 -0.11113761
0.07494701 -0.04302717 -0.11793583 0.08773332 -0.033600762 -0.06858507 0.10255911 0.15706605
00000000: d782 053d c31e 68ba 13fa eebd 2529 57bd
00000010: 9d27 073e f560 a03d f450 a0bd 6cc5 fbbd
00000020: cf82 e93d 5b79 803c 460e 0b3e 787f d7bd
00000030: 1c95 a23b b7ac dfbd 2077 02be d3ab 23bd
00000040: d5c0 93bd 3396 dbbd f354 cebd d2d1 c33d
00000050: ffcd ba3d fafc fe3c 7126 aebd 1e9c e3bd
00000060: d17d 993d 423d 30bd 5788 f1bd 87ad b33d
00000070: f4a0 09bd 5476 8cbd 830a d23d ecd5 203e

layer2.conv1.weight f4 [32, 32, 3, 3]
0.07132219 -0.06563618 -0.009440211 -0.027357701 -0.0572818 0.020834152 -0.14200592 -0.19013332
-0.113108896 -0.03822566 -0.087100424 -0.013243318 0.07193042 -0.097406074 -0.21130322 0.04716297
0.09024698 -0.06436369 -0.105468504 -0.08979561 0.11103101 0.13997494 -0.008377937 -0.05505377
-0.15265845 0.14304776 -0.05274443 0.0039526573 -0.016129218 2.2018092e-09 2.3310703e-10 -4.9511895e-10
9.920895e-06 3.5803535e-16 -7.640697e-18 0.00936797 0.08877239 0.21009164 -0.0506089 -0.118352726
0.054611325 0.058376145 -0.1611255 -0.049632393 -0.038687583 -0.122161716 -0.113378964 -0.16287762
-0.082727216 -0.065494314 -0.057475127 -0.24445078 -0.15344983 0.03839158 -0.03212757 0.03715799
-0.11444017 -0.1282189 -0.020783361 0.14698645 -0.042075466 0.04423198 0.084689215 -0.13592534
0.043729514 -0.074870765 0.004271896 -0.041845493 0.057645325 -0.023241883 0.09937881 0.013163954
-0.06524193 -0.025968965 0.0036994983 -0.0182158 0.0057837786 -0.08589594 -0.10402468 0.002472939
-0.0061239637 -0.12436819 -0.14248976 0.07979479 0.059338536 -0.033348802 -0.11545356 0.107872054
0.11079398 -0.049179815 0.032871045 0.0884431 0.1005973 0.04611529 0.17600271 -0.07277096
0.059567273 -0.019619353 -0.13238198 -0.01931087 0.052476674 -0.08111788 0.036421392 -0.050192565
0.03529389 0.06466029 -0.00026785457 0.06681618 -0.027515024 -0.157004 0.063732386 0.0626922
-0.022904936 -0.24092 -0.029867617 -0.12204563 0.015186886 -0.045567084 -0.035179622 -0.107125685
-0.03032396 0.21570827 -0.054146636 -0.04298268 -0.056080196 0.035322502 -0.10545251 -0.0058833878
0.101665646 -0.05573617 0.023522282 -0.10655826 0.09048695 -0.045257594 0.097956605 -0.08912911
-0.05587888 0.015768271 0.071004406 0.033980493 -0.034591254 0.064433984 0.060737852 0.076828286
-0.15332511 0.19854635 0.03272885 -0.027738834 -0.09200652 0.03815874 -0.010311292 0.108736366
0.046581283 0.12871787 0.050277326 0.16350916 0.035467956 -0.05027307 0.028188491 -0.026056182
-0.0041561313 0.074137256 -0.016584342 0.12399666 -0.0763814 -0.0135900965 0.12408961 0.18645291
0.022980938 -0.027141133 0.13073063 0.030531552 0.051664095 -0.039303057 0.21612427 0.031364307
0.03521391 0.18834901 0.020388106 0.073053375 -0.012023209 -0.061203763 0.1129919 -0.034947056
0.0108417 -0.062336884 -0.10457106 -0.01541758 0.06887399 0.06922651 -0.04603094 -0.16869198
0.14163648 -0.03528302 -0.045507174 0.053746343 0.0060822843 0.017382316 0.19996202 -0.07448878
-0.1789662 0.057401013 -0.17713387 -0.0040166923 -0.052427936 -0.094919994 -0.053125642 0.08726146
0.07304606 -0.11946203 0.15814789 0.14281616 -0.075420536 0.1165302 -0.019396551 -0.065160416
0.07874631 0.18974546 0.049704526 0.041164838 0.06799785 -0.04427197 -0.15376465 -0.014153881
0.055659268 -0.05559126 0.066440664 -0.059027523 -0.02115104 -0.0059867026 -0.08279327 0.11369265
0.04650474 0.08721463 0.061039105 0.1029628 -0.018237267 -0.14173655 -0.14199355 0.021445159
-0.008384538 -0.011427674 0.029227756 -0.014519484 -0.084232055 0.07870842 -0.03325457 -0.104261145
-0.09660515 -0.03764296 0.050804008 -0.0306841 0.04439192 -0.0039179362 -0.027016949 0.10128377
00000000: 5e11 923d 436c 86bd 1dab 1abc 421d e0bc
00000010: 52a0 6abd 62ac aa3c 006a 11be 4fb2 42be
00000020: a3a5 e7bd 8292 1cbd b561 b2bd 80fa 58bc
00000030: 4250 933d d67c c7bd df5f 58be f52d 413d
00000040: 69d3 b83d 1cd1 83bd dfff d7bd c3e6 b7bd
00000050: 3a64 e33d 9755 0f3e 9d43 09bc 1080 61bd
00000060: 7f52 1cbe 1d7b 123e 8b0a 58bd 4b85 813b
00000070: 6c21 84bc a34e 1731 e626 802f e618 08b0
00000080: eb71 2637 b164 ce25 2cf2 0ca3 1d7c 193c
00000090: 4cce b53d 4322 573e 474b 4fbd ea62 f2bd
000000a0: 20b0 5f3d d31b 6f3d 15fe 24be 564b 4bbd
000000b0: df76 1ebd ec2f fabd 3b33 e8bd 64c9 26be
000000c0: e36c a9bd e221 86bd 0a6b 6bbd 4e51 7abe
000000d0: f421 1dbe 7d40 1d3d 3398 03bd fa32 183d
000000e0: 9c5f eabd d14b 03be de41 aabc 9e83 163e
000000f0: 5357 2cbd 982c 353d 8a71 ad3d 0330 0bbe
00000100: b81d 333d d855 99bd 43fb 8b3b 2e66 2bbd
00000110: 811d 6c3d c365 bebc 1e87 cb3d a0ad 573c
00000120: 909d 85bd debc d4bc 4873 723b 4d39 95bc
00000130: da85 bd3b 36ea afbd e40a d5bd 0811 223b
00000140: 88ab c8bb c0b4 febd d6e8 11be 736b a33d
00000150: f70c 733d c198 08bd eb72 ecbd 06ec dc3d
00000160: f4e7 e23d c670 49bd caa3 063d a821 b53d
00000170: f505 ce3d 63e3 3c3d 0e3a 343e f108 95bd
00000180: d0fc 733d c4b8 a0bc 248f 07be d431 9ebc
00000190: c8f1 563d 2221 a6bd 992e 153d b896 4dbd
000001a0: 5390 103d 9d6c 843d d56e 8cb9 ecd6 883d
000001b0: 3067 e1bc a8c5 20be 2086 823d c564 803d
000001c0: 22a3 bbbc bcb3 76be efac f4bc 0ff3 f9bd
000001d0: 6bd2 783c 8da4 3abd 8218 10bd b664 dbbd
000001e0: f469 f8bc a1e2 5c3e ddc8 5dbd 9b0e 30bd
000001f0: 59b4 65bd 54ae 103d 7cf7 d7bd 6fc9 c0bb
00000200: 1436 d03d 9c4b 64bd cdb1 c03c 383b dabd
00000210: 3951 b93d 0760 39bd 799d c83d 5389 b6bd
00000220: 41e1 64bd 762c 813c c26a 913d 212f 0b3d
00000230: 8faf 0dbd f7f5 833d 41c8 783d 2658 9d3d
00000240: 4201 1dbe bc4f 4b3e b00e 063d 8d3c e3bc
00000250: ea6d bcbd 574c 1c3d b1f0 28bc 2cb1 de3d
00000260: 04cc 3e3d 9ece 033e 99ef 4d3d f26e 273e
00000270: d946 113d 22eb 4dbd 8deb e63c c673 d5bc
00000280: 2830 88bb 46d5 973d e3db 87bc f6f1 fd3d
00000290: da6d 9cbd ffa8 5ebc b222 fe3d 83ed 3e3e
000002a0: 8542 bc3c 1557 debc 40de 053e 4e1d fa3c
000002b0: bb9d 533d 3efc 20bd ae4f 5d3e dc77 003d
000002c0: 763c 103d 90de 403e f504 a73c 029d 953d
000002d0: fefc 44bc ccb0 7abd 4c68 e73d a524 0fbd
000002e0: 63a1 313c f654 7fbd 5a29 d6bd 049a 7cbc
000002f0: ce0d 8d3d a1c6 8d3d f08a 3cbd 97bd 2cbe
00000300: 2709 113e ee84 10bd bb65 3abd 2025 5c3d
00000310: e64d c73b 5c65 8e3c d8c2 4c3e 938d 98bd
00000320: ea42 37be 531d 6b3d 9562 35be 759e 83bb
00000330: adbe 56bd 6a65 c2bd 469a 59bd 23b6 b23d
00000340: 2c99 953d 82a8 f4bd 85f1 213e 663e 123e
00000350: 1576 9abd 63a7 ee3d 84e5 9ebc d372 85bd
00000360: bf45 a13d a24c 423e f996 4b3d 769c 283d
00000370: 7542 8b3d 8656 35bd 7b74 1dbe aee5 67bc
00000380: f9fa 633d a9b3 63bd 0b12 883d d8c6 71bd
00000390: f244 adbc 1a2c c4bb 858f a9bd b1d7 e83d
000003a0: c17b 3e3d 959d b23d 2404 7a3d 29de d23d
000003b0: 5266 95bc 6323 11be c266 11be c2ad af3c
000003c0: 4d5f 09bc 243b 3bbc 0c6f ef3c 21e3 6dbc
000003d0: db81 acbd e131 a13d f235 08bd de86 d5bd
000003e0: ecd8 c5bd 812f 1abd dd17 503d 395d fbbc
000003f0: 4dd4 353d 0862 80bb a652 ddbc dd6d cf3d

layer2.conv1.bias f4 [32]
-0.04312829 0.04042091 -0.043393463 -0.055023357 0.028565697 -0.057719585 -0.019423898 0.03608691
0.05729428 -0.025616698 -0.04031775 -0.049039133 0.04469575 0.054749567 -0.0057407618 0.008699563
-0.020465981 0.02234205 0.027179502 0.013845428 -0.0073831356 -0.05665404 -0.055261943 0.052199792
-0.045978326 0.033135686 -0.0027990602 0.048406914 -0.04960131 -0.04787517 0.025745349 0.03326708
00000000: 4aa7 30bd 6590 253d 58bd 31bd 2c60 61bd
00000010: 9c02 ea3c 5f6b 6cbd de1e 9fbc decf 133d
00000020: 68ad 6a3d 1cda d1bc 3a24 25bd 42dd 48bd
00000030: e412 373d 1541 603d 001d bcbb 9d88 0e3c
00000040: 46a8 a7bc ad06 b73c 8ca7 de3c efd7 623c
00000050: 3bee f1bb 110e 68bd 595a 62bd 73cf 553d
00000060: c553 3cbd 49b9 073d 7070 37bb 5446 463d
00000070: be2a 4bbd c118 44bd e9e7 d23c 1043 083d

layer2.conv2.weight f4 [64, 32, 3, 3]
0.047828134 -0.06332582 -0.1456908 0.03209436 -0.05083209 -0.019243933 0.07516541 -0.019747067
0.011098733 0.012943772 0.06295326 0.010965356 -0.0082554575 0.042586133 0.019266773 -0.07488181
0.013015932 0.09831016 -0.008388474 -0.039880965 0.03250263 0.012747756 -0.057804752 -0.0060007763
-0.008996584 0.04889044 0.036523208 0.036206678 0.0091578085 -0.037528805 -0.051798556 0.09215048
0.012787471 -0.027042933 0.037020173 -0.08864389 -0.021197958 0.05369216 0.054572612 0.044776324
-0.060505066 -0.09450618 -0.053033557 -0.070854105 0.03520628 0.034180507 0.010887916 -0.07955636
0.06080865 0.049800828 0.044861544 0.04300704 0.01631676 -0.007461171 -0.10330981 0.009758528
0.010821599 -0.036433645 -0.055533133 0.004464227 0.08115089 0.036851946 0.16312131 0.05032845
0.025893228 0.0074660867 0.043813 0.009904744 -0.07239188 -0.02973423 -0.107498534 0.08334397
0.007458331 -0.013271847 -0.0033583015 -0.06422988 0.01989133 -0.06949768 0.067637496 0.04997078
0.03836462 0.1271748 0.09509156 -0.09381068 0.008638116 0.02636887 0.033471048 -0.033295993
-0.010138314 -0.03403795 -0.045104463 0.025338579 0.0451955 -0.04151667 0.06947289 -0.06933879
0.047755323 0.053095564 0.05968058 -0.12398505 0.006365174 0.010911848 0.02057491 -0.05135904
0.08091147 -0.044508465 -0.08313427 0.01546015 -0.0563159 0.055279933 -0.04837631 -0.039228823
0.08180043 -0.008466896 0.054234777 -0.044317294 -0.061594307 0.01986207 -0.045483246 -0.06043184
-0.048946455 -0.0896134 -0.0022617101 -0.008986859 0.05511733 0.050654024 0.012604414 0.047493834
0.048300277 0.06292748 -0.0019745568 0.017668046 -0.059204593 0.05156541 0.112637855 0.058196913
-0.08422417 0.021634787 0.07169113 0.0411725 0.0057401275 -0.016183272 -0.021972904 0.051835883
-0.077952586 -0.053608 -0.01689481 0.002099835 0.106224105 -0.081676036 0.0007421422 0.039916668
0.09605558 0.039549425 -0.02036497 0.068035625 -0.036875475 -0.0004496252 0.037632726 -0.03488271
0.02360307 -0.005456594 -0.028784344 0.06650786 -0.08449569 0.07354348 0.017101532 -0.068862654
-0.017432379 0.04756271 -0.03636317 -0.0052550742 0.029850407 0.014607522 -0.108293116 -0.064461365
0.09056559 0.053150803 -0.018748742 0.039820068 0.06595538 0.056735154 -0.017007207 0.03724585
-0.08477108 -0.017219232 0.053802527 -0.064292446 -0.020140734 -0.03449017 0.050400745 -0.10762819
-0.0722693 -0.03860816 0.029090388 -0.025055634 -0.0062341536 0.11345593 -0.011980679 0.034180753
-0.0021067327 -0.0060571735 -0.048796825 -0.038139522 0.056102697 0.026788482 -0.04672331 -0.03817212
-0.11818144 -0.029271089 0.02814713 -0.044322293 -0.069830246 0.10194786 -0.10772375 0.007977827
0.039822243 0.028611341 -0.044885084 0.033248078 0.10954841 0.010325567 0.0243024 -0.028377742
0.010014753 -0.08854996 0.058830574 0.07016217 0.03718462 -0.066746995 -0.13077392 -0.01020208
0.0578698 -0.009588097 0.0499483 0.010380611 -0.01575822 0.07827136 -0.072101116 -0.0159257
0.062225785 -0.073326 0.015951216 -0.043052018 -0.106855676 0.09560617 -0.02560846 0.06719714
-0.106242396 -0.048418444 -0.0002969545 0.027395964 0.049277086 0.104248144 0.027669987 -0.024532553
00000000: 6fe7 433d f8b0 81bd f82f 15be 6075 033d
00000010: 4f35 50bd 74a5 9dbc 53f0 993d 9ac4 a1bc
00000020: 76d7 353c 1d12 543c a4ed 803d 09a8 333c
00000030: e641 07bc cc6e 2e3d 5ad5 9d3c a25b 99bd
00000040: c740 553c d656 c93d cf6f 09bc 395a 23bd
00000050: 7a21 053d f7db 503c adc4 6cbd 29a2 c4bb
00000060: 6966 13bc 5841 483d 5c99 153d 744d 143d
00000070: a20a 163c ceb7 19bd b92a 54bd 64b9 bc3d
00000080: 8a82 513c 2489 ddbc 77a2 173d ee8a b5bd
00000090: 57a7 adbc 4fec 5b3d 8887 5f3d 6167 373d
000000a0: 29d4 77bd 758c c1bd b739 59bd f51b 91bd
000000b0: 7634 103d dc00 0c3d 3b63 323c 72ee a2bd
000000c0: 7e12 793d f4fb 4b3d bdc0 373d 2628 303d
000000d0: baaa 853c d77c f4bb 1894 d3bd 3ce2 1f3c
000000e0: 134d 313c 723b 15bd b676 63bd a648 923b
000000f0: 7032 a63d 11f2 163d 4609 273e 3425 4e3d
00000100: 091e d43c 13a6 f43b 4375 333d 8247 223c
00000110: 3242 94bd 3395 f3bc 3128 dcbd 3eb0 aa3d
00000120: 0465 f43b 2972 59bc f316 5cbb f58a 83bd
00000130: 24f3 a23c cd54 8ebd 8785 8a3d 29ae 4c3d
00000140: 3824 1d3d 1c3a 023e 5dbf c23d d01f c0bd
00000150: e286 0d3c 8703 d83c f018 093d 6161 08bd
00000160: 2c1b 26bc 616b 0bbd 75bf 38bd da92 cf3c
00000170: eb1e 393d 620d 2abd cd47 8e3d 7f01 8ebd
00000180: 169b 433d bc7a 593d a073 743d e0eb fdbd
00000190: f392 d03b 9cc7 323c b78c a83c db5d 52bd
000001a0: eab4 a53d 824e 36bd 4d42 aabd 924c 7d3c
000001b0: 80ab 66bd 366d 623d 3d26 46bd 67ae 20bd
000001c0: fc86 a73d bcb8 0abc 4925 5e3d 0d86 35bd
000001d0: 504a 7cbd c8b5 a23c a44c 3abd 6187 77bd
000001e0: 147c 48bd 3b87 b7bd 3339 14bb 9e3d 13bc
000001f0: b6c2 613d 987a 4f3d be82 4e3c e588 423d
00000200: 83d6 453d 1fe0 803d 9167 01bb 94bc 903c
00000210: 8480 72bd 4036 533d adae e63d e35f 6e3d
00000220: b97d acbd 703b b13c cdd2 923d 7fa4 283d
00000230: ae17 bc3b c892 84bc 8500 b4bc dd51 543d
00000240: 9ba5 9fbd 1094 5bbd fc66 8abc 639d 093b
00000250: 068c d93d c445 a7bd 528c 423a a97f 233d
00000260: cab8 c43d 94fe 213d 70d4 a6bc 4356 8b3d
00000270: bd0a 17bd acbb ebb9 c624 1a3d 2ce1 0ebd
00000280: 3a5b c13c 3acd b2bb 25cd ebbc 4635 883d
00000290: 140c adbd f79d 963d 8318 8c3c dd07 8dbd
000002a0: 59ce 8ebc 1ed1 423d 8cf1 14bd c232 acbb
000002b0: d788 f43c 6354 6f3c c8c8 ddbd 5204 84bd
000002c0: 747a b93d a8b4 593d f696 99bc 5e1a 233d
000002d0: 9d13 873d 1f63 683d b352 8bbc 1b8f 183d
000002e0: 769c adbd 590f 8dbc 0a60 5c3d c2ab 83bd
000002f0: 2efe a4bc 9145 0dbd 0371 4e3d 2b6c dcbd
00000300: ed01 94bd 9723 1ebd f74e ee3c 7941 cdbc
00000310: df47 ccbb 955b e83d 9c4a 44bc 1e01 0c3d
00000320: 1c11 0abb 417b c6bb 2edf 47bd 3038 1cbd
00000330: f1cb 653d 8573 db3c f160 3fbd 5e5a 1cbd
00000340: 1c09 f2bd ecc9 efbc cf94 e63c 4b8b 35bd
00000350: 2903 8fbd 0aca d03d 459e dcbd 6fb5 023c
00000360: a61c 233d 5562 ea3c 6cd9 37bd 232f 083d
00000370: eb5a e03d 912c 293c d415 c73c 7078 e8bc
00000380: eb14 243c ae59 b5bd 54f8 703d 2fb1 8f3d
00000390: e64e 183d a6b2 88bd 99e9 05be a026 27bc
000003a0: e208 6d3d 6517 1dbc 9796 4c3d 7013 2a3c
000003b0: 6217 81bc bc4c a03d c0a9 93bd 9d76 82bc
000003c0: 77e0 7e3d f12b 96bd 20ac 823c 5057 30bd
000003d0: 26d7 dabd 2bcd c33d d5c8 d1bc a79e 893d
000003e0: 9d95 d9bd 6b52 46bd 8fb0 9bb9 806d e03c
000003f0: c5d6 493d 0d80 d53d 2bac e23c 7ef8 c8bc

layer2.conv2.bias f4 [64]
0.02218075 -0.033794343 -0.04909978 -0.039743785 -0.030771196 -0.05285929 0.036190994 0.029266946
-0.040761046 0.026754528 -0.0064080185 0.015643725 -0.025610853 0.036456153 0.053180236 0.021014173
-0.048463903 -0.016882181 -0.0045249257 0.0421218 0.006483488 0.04396594 0.058160037 0.03597929
-0.03370444 -0.0479581 -0.05993221 0.056026477 -0.036671564 0.0039803977 0.021990621 0.028321825
0.0005117545 -0.01513345 -0.03875184 -0.034650438 0.0031192775 0.060973227 -0.026314167 -0.03232863
-0.046660192 0.0007813479 0.03536451 -0.03635735 0.028818978 0.008490121 0.006448037 -0.044927154
0.060961045 -0.0292593 -0.05540226 -0.030985074 0.008199359 -0.0051917704 -0.037075542 -0.0020483756
0.006030412 -0.032734502 0.021773847 0.04851512 0.0037785217 -0.012059364 -0.020163344 -0.018526968
00000000: 67b4 b53c f06b 0abd da1c 49bd 61ca 22bd
00000010: e013 fcbc fc82 58bd 023d 143d 3cc1 ef3c
00000020: 0ef5 26bd 502c db3c 5bfa d1bb 4527 803c
00000030: dacd d1bc 0c53 153d 85d3 593d ea25 ac3c
00000040: 1682 46bd 804c 8abc d445 94bb e987 2c3d
00000050: 7073 d43b a115 343d 3839 6e3d 055f 133d
00000060: ab0d 0abd b66f 44bd 7a7b 75bd 057c 653d
00000070: ec34 16bd ff6d 823b ad25 b43c 2c03 e83c
00000080: 4327 063a 4af2 77bc 40ba 1ebd 9eed 0dbd
00000090: cb6c 4c3b 10bf 793d cf90 d7bc 076b 04bd
000000a0: c21e 3fbd 5fd3 4c3a 60da 103d 72eb 14bd
000000b0: c715 ec3c 261a 0b3c 0e4a d33b 8905 38bd
000000c0: 4ab2 793d 33b1 efbc 7bed 62bd 69d4 fdbc
000000d0: 9b56 063c ba1f aabb 86dc 17bd 0a3e 06bb
000000e0: c39a c53b 9d14 06bd 115f b23c cab7 463d
000000f0: 13a1 773b a394 45bc 992d a5bc dec5 97bc

fc1.weight f4 [1, 3200]
0.051134568 0.011001855 0.018554607 -0.0020060006 -0.017940046 0.019792363 0.0166319 0.0037780015
0.0014668406 -0.040498175 0.003469052 0.015184073 0.003854913 1.486424e-07 -0.06607829 -0.02066141
-0.0054042367 0.008172241 0.0016288825 -0.0008133 -0.020436602 -0.03708961 0.012702516 0.012940155
-0.008714876 0.047307365 0.012211015 -0.01911132 0.0097999815 -0.016438793 0.012132943 0.00046654086
-0.018025726 0.021409132 -0.009223999 -0.009182387 -0.034101475 -0.03617248 0.01438863 -0.026583333
0.0019499363 0.011400835 0.016702969 0.018963737 0.041054968 0.090178765 -0.026783014 -0.025378466
0.020367965 0.0034769424 -4.9926747e-09 1.28209e-40 0.0034520628 0.010070675 -0.008037229 -0.032603994
3.091596e-11 0.004326619 0.009223637 0.0070226723 -0.0015410546 0.00091386074 -0.009082273 0.0029537322
-0.0076122903 -0.0023719713 0.0006698764 0.001548297 -0.0058102245 0.0033200122 1.6390248e-19 7.211631e-15
1.4005752e-09 7.392425e-10 0.00761983 7.071759e-34 -9.9845e-41 7.1288e-41 2.001192e-12 0.0027365345
1.6247104e-09 2.3916664e-09 -7.214299e-10 0.0007944672 -2.9099579e-06 -0.0013190189 -2.13732e-40 -3.6266584e-07
-6.614251e-08 0.0043707634 -1.1451533e-08 -0.0011361352 0.00022854556 -0.0031937729 0.009597904 -0.0011975275
0.0013734679 0.00017905248 -0.0013856459 -0.0014202225 -0.030538263 -0.017962657 -0.00045695362 0.0018969679
-0.004618859 0.004454632 -0.030298056 -0.002777207 0.0009865168 -2.2306166e-32 0.013816307 -0.0004542291
0.0015692952 -0.0016966733 -0.00066600105 4.334176e-12 0.00037091252 -0.0075142095 0.009189997 0.029868886
-0.0012916418 -5.7896092e-12 1.00407e-40 -0.032280598 -0.028020343 0.030332014 -3.7497e-41 -0.0017602226
0.034480147 0.04794363 -0.00076453114 0.0010275611 5.9715e-41 -0.040232915 -0.08300131 0.043133646
4.2547665e-10 -0.0003941314 -0.00606987 -0.0057127494 0.02715117 0.026498402 0.026202159 0.0065894458
0.008777617 0.0034064958 -0.027988708 0.036982197 0.03222758 -0.01533605 -0.0029340447 0.0024466338
-0.00205965 0.02132697 -0.036018454 0.059919618 0.046665996 -0.015026846 0.023720125 0.0074702944
0.010316846 0.008346434 0.0132235475 0.0022965178 0.05184693 -0.07372642 -0.037421152 -0.012275363
-0.01644936 -0.03515185 9.7593175e-12 1.33814e-40 3.2176706e-11 4.589505e-11 6.631552e-36 2.4508545e-38
-3.2858941e-12 -3.3591272e-37 -3.980976e-09 -0.004666682 2.09666e-40 1.222699e-18 -8.325025e-27 -1.3422223e-37
-6.4854326e-06 0.014517596 -0.005436193 2.55092e-40 2.9601e-41 -0.027548162 -1.7819825e-09 -8.0079304e-11
0.010243464 0.023153313 0.01797836 -0.0022679765 -0.006166898 -0.0005605846 0.031159565 0.017916251
0.009679908 -0.0028916816 -0.00833579 -0.004810322 -0.062302448 0.028695175 0.011774376 0.030796265
-0.010914482 -0.041083436 -0.032958895 0.014626933 -0.040640794 -0.0458554 -0.04762617 0.036341064
-0.009049928 -0.03353858 0.0059701367 0.010442766 0.017649692 0.012504975 0.0325191 0.067086786
0.057477843 -0.084167026 -0.066955484 -0.012915341 -0.037579287 0.03620766 2.4256286e-15 2.678745e-05
0.0030449817 0.027333874 0.10940159 0.09367556 0.09549684 0.0020312076 -0.0030336597 -0.028297646
0.020653486 0.018378574 3.077e-41 -0.021740813 0.0174481 0.027884653 -0.008311725 -2.8213378e-06
-0.0013170559 0.018980999 0.015602569 -0.033824608 0.017782433 5.4862e-41 5.3802687e-09 0.005272678
00000000: 7b72 513d 2041 343c d5ff 973c 1b77 03bb
00000010: 01f7 92bc 9823 a23c 9f3f 883c 5998 773b
00000020: 0143 c03a 6ae1 25bd 0959 633b 9ec6 783c
00000030: b5a2 7c3b 839a 1f34 0e54 87bd 1e42 a9bc
00000040: 0616 b1bb dde4 053c 3a80 d53a a433 55ba
00000050: a96a a7bc 46eb 17bd 371e 503c f202 543c
00000060: d7c8 0ebc 5ec5 413d b610 483c 588f 9cbc
00000070: 1a90 203c a6aa 86bc 40c9 463c 0e9a f439
00000080: b0aa 93bc 3462 af3c 4220 17bc b971 16bc
00000090: fdad 0bbd 9829 14bd 4abe 6b3c 4ac5 d9bc
000000a0: 0195 ff3a 91ca 3a3c aad4 883c d759 9b3c
000000b0: 4129 283d a5af b83d 0d68 dbbc 80e6 cfbc
000000c0: b8da a63c 6add 633b 088c abb1 6565 0100
000000d0: 013c 623b 79ff 243c 95ae 03bc c48b 05bd
000000e0: 47f8 072e 50c6 8d3b bd1e 173c 721e e63b
000000f0: 36fd c9ba 2890 6f3a d0cd 14bc 6793 413b
00000100: 8570 f9bb 1373 1bbb a59a 2f3a 3af0 ca3a
00000110: b263 bebb 9094 593b 7c80 4120 c7e9 0128
00000120: 5c7e c030 9133 4b30 c4af f93b dfff 6a08
00000130: 5416 0180 b9c6 0000 45d2 0c2c 6e57 333b
00000140: 6a4c df30 a45a 2431 1e4e 46b0 cb43 503a
00000150: b248 43b6 eee2 acba cc53 0280 6ab4 c2b4
00000160: 3b0a 8eb3 9f38 8f3b 60bc 44b2 5fea 94ba
00000170: bba5 6f39 9e4e 51bb 8740 1d3c 5bf6 9cba
00000180: ef05 b43a 09c0 3b39 909e b5ba c226 baba
00000190: 612b fabc 6c26 93bc 4793 efb9 aea3 f83a
000001a0: cc59 97bb 29f8 913b a133 f8bc cd01 36bb
000001b0: 034e 813a f6a3 e78a cb5d 623c 9925 eeb9
000001c0: cfb0 cd3a e962 deba 9396 2eba c97e 982c
000001d0: 0977 c239 c239 f6bb a491 163c 98af f43c
000001e0: 4f4c a9ba 2ab4 cbac e517 0100 a938 04bd
000001f0: eb8a e5bc d87a f83c 8768 0080 45b7 e6ba
00000200: 0e3b 0d3d 8a60 443d d16a 48ba 3baf 863a
00000210: 76a6 0000 45cb 24bd 97fc a9bd e8ac 303d
00000220: 84e8 e92f 6ca3 ceb9 c3e5 c6bb 0432 bbbb
00000230: 216c de3c 2d13 d93c e9a5 d63c 47ec d73b
00000240: fecf 0f3c 843f 5f3b 9348 e5bc a57a 173d
00000250: 1101 043d 0e44 7bbc 1a49 40bb b457 203b
00000260: 31fb 06bb e6b5 ae3c 1688 13bd 466e 753d
00000270: d824 3f3d 2933 76bc b550 c23c 5fc9 f43b
00000280: fd07 293c 7bbf 083c 94a7 583c 2d81 163b
00000290: 725d 543d e1fd 96bd ec46 19bd 9b1e 49bc
000002a0: cfc0 86bc 63fb 0fbd 0fb0 2b2d 0575 0100
000002b0: c083 0d2e 3cd9 492e 9a09 0d05 ed6f 0501
000002c0: 6839 67ac 409c e482 09c9 88b1 f7ea 98bb
000002d0: 7748 0200 4370 b421 e4e4 2494 9fb1 3682
000002e0: 719d d9b6 36db 6d3c 1822 b2bb 18c7 0200
000002f0: 8452 0000 afac e1bc efe9 f4b0 a418 b0ae
00000300: 34d4 273c 04ac bd3c 5b47 933c 55a2 14bb
00000310: b113 cabb 32f4 12ba 5842 ff3c 1ac5 923c
00000320: 7a98 1e3c 5e82 3dbb d692 08bc e89f 9dbb
00000330: da30 7fbd 2512 eb3c 50e9 403c 7348 fc3c
00000340: a8d2 32bc 1b47 28bd e8ff 06bd cea5 6f3c
00000350: f676 26bd dfd2 3bbd a913 43bd 5eda 143d
00000360: 2646 14bc c05f 09bd 23a1 c33b 2318 2b3c
00000370: 1696 903c abe1 4c3c bf32 053d cc64 893d
00000380: e36d 6b3d c35f acbd f51f 89bd de9a 53bc
00000390: bdec 19bd 7c4e 143d f3c8 2e27 9cb5 e037
000003a0: 518e 473b 4aeb df3c f10d e03d f9d8 bf3d
000003b0: d993 c33d 021e 053b 5dd0 46bb 77d0 e7bc
000003c0: 8031 a93c aa8e 963c c655 0000 ca19 b2bc
000003d0: 51ef 8e3c 5b6e e43c e72d 08bc 3756 3db6
000003e0: 10a1 acba 0a7e 9b3c eba1 7f3c ac8b 0abd
000003f0: 77ac 913c ef98 0000 58dd b831 6ec6 ac3b

out.0.weight f4 [1, 3200]
0.051134568 0.011001855 0.018554607 -0.0020060006 -0.017940046 0.019792363 0.0166319 0.0037780015
0.0014668406 -0.040498175 0.003469052 0.015184073 0.003854913 1.486424e-07 -0.06607829 -0.02066141
-0.0054042367 0.008172241 0.0016288825 -0.0008133 -0.020436602 -0.03708961 0.012702516 0.012940155
-0.008714876 0.047307365 0.012211015 -0.01911132 0.0097999815 -0.016438793 0.012132943 0.00046654086
-0.018025726 0.021409132 -0.009223999 -0.009182387 -0.034101475 -0.03617248 0.01438863 -0.026583333
0.0019499363 0.011400835 0.016702969 0.018963737 0.041054968 0.090178765 -0.026783014 -0.025378466
0.020367965 0.0034769424 -4.9926747e-09 1.28209e-40 0.0034520628 0.010070675 -0.008037229 -0.032603994
3.091596e-11 0.004326619 0.009223637 0.0070226723 -0.0015410546 0.00091386074 -0.009082273 0.0029537322
-0.0076122903 -0.0023719713 0.0006698764 0.001548297 -0.0058102245 0.0033200122 1.6390248e-19 7.211631e-15
1.4005752e-09 7.392425e-10 0.00761983 7.071759e-34 -9.9845e-41 7.1288e-41 2.001192e-12 0.0027365345
1.6247104e-09 2.3916664e-09 -7.214299e-10 0.0007944672 -2.9099579e-06 -0.0013190189 -2.13732e-40 -3.6266584e-07
-6.614251e-08 0.0043707634 -1.1451533e-08 -0.0011361352 0.00022854556 -0.0031937729 0.009597904 -0.0011975275
0.0013734679 0.00017905248 -0.0013856459 -0.0014202225 -0.030538263 -0.017962657 -0.00045695362 0.0018969679
-0.004618859 0.004454632 -0.030298056 -0.002777207 0.0009865168 -2.2306166e-32 0.013816307 -0.0004542291
0.0015692952 -0.0016966733 -0.00066600105 4.334176e-12 0.00037091252 -0.0075142095 0.009189997 0.029868886
-0.0012916418 -5.7896092e-12 1.00407e-40 -0.032280598 -0.028020343 0.030332014 -3.7497e-41 -0.0017602226
0.034480147 0.04794363 -0.00076453114 0.0010275611 5.9715e-41 -0.040232915 -0.08300131 0.043133646
4.2547665e-10 -0.0003941314 -0.00606987 -0.0057127494 0.02715117 0.026498402 0.026202159 0.0065894458
0.008777617 0.0034064958 -0.027988708 0.036982197 0.03222758 -0.01533605 -0.0029340447 0.0024466338
-0.00205965 0.02132697 -0.036018454 0.059919618 0.046665996 -0.015026846 0.023720125 0.0074702944
0.010316846 0.008346434 0.0132235475 0.0022965178 0.05184693 -0.07372642 -0.037421152 -0.012275363
-0.01644936 -0.03515185 9.7593175e-12 1.33814e-40 3.2176706e-11 4.589505e-11 6.631552e-36 2.4508545e-38
-3.2858941e-12 -3.3591272e-37 -3.980976e-09 -0.004666682 2.09666e-40 1.222699e-18 -8.325025e-27 -1.3422223e-37
-6.4854326e-06 0.014517596 -0.005436193 2.55092e-40 2.9601e-41 -0.027548162 -1.7819825e-09 -8.0079304e-11
0.010243464 0.023153313 0.01797836 -0.0022679765 -0.006166898 -0.0005605846 0.031159565 0.017916251
0.009679908 -0.0028916816 -0.00833579 -0.004810322 -0.062302448 0.028695175 0.011774376 0.030796265
-0.010914482 -0.041083436 -0.032958895 0.014626933 -0.040640794 -0.0458554 -0.04762617 0.036341064
-0.009049928 -0.03353858 0.0059701367 0.010442766 0.017649692 0.012504975 0.0325191 0.067086786
0.057477843 -0.084167026 -0.066955484 -0.012915341 -0.037579287 0.03620766 2.4256286e-15 2.678745e-05
0.0030449817 0.027333874 0.10940159 0.09367556 0.09549684 0.0020312076 -0.0030336597 -0.028297646
0.020653486 0.018378574 3.077e-41 -0.021740813 0.0174481 0.027884653 -0.008311725 -2.8213378e-06
-0.0013170559 0.018980999 0.015602569 -0.033824608 0.017782433 5.4862e-41 5.3802687e-09 0.005272678
00000000: 7b72 513d 2041 343c d5ff 973c 1b77 03bb
00000010: 01f7 92bc 9823 a23c 9f3f 883c 5998 773b
00000020: 0143 c03a 6ae1 25bd 0959 633b 9ec6 783c
00000030: b5a2 7c3b 839a 1f34 0e54 87bd 1e42 a9bc
00000040: 0616 b1bb dde4 053c 3a80 d53a a433 55ba
00000050: a96a a7bc 46eb 17bd 371e 503c f202 543c
00000060: d7c8 0ebc 5ec5 413d b610 483c 588f 9cbc
00000070: 1a90 203c a6aa 86bc 40c9 463c 0e9a f439
00000080: b0aa 93bc 3462 af3c 4220 17bc b971 16bc
00000090: fdad 0bbd 9829 14bd 4abe 6b3c 4ac5 d9bc
000000a0: 0195 ff3a 91ca 3a3c aad4 883c d759 9b3c
000000b0: 4129 283d a5af b83d 0d68 dbbc 80e6 cfbc
000000c0: b8da a63c 6add 633b 088c abb1 6565 0100
000000d0: 013c 623b 79ff 243c 95ae 03bc c48b 05bd
000000e0: 47f8 072e 50c6 8d3b bd1e 173c 721e e63b
000000f0: 36fd c9ba 2890 6f3a d0cd 14bc 6793 413b
00000100: 8570 f9bb 1373 1bbb a59a 2f3a 3af0 ca3a
00000110: b263 bebb 9094 593b 7c80 4120 c7e9 0128
00000120: 5c7e c030 9133 4b30 c4af f93b dfff 6a08
00000130: 5416 0180 b9c6 0000 45d2 0c2c 6e57 333b
00000140: 6a4c df30 a45a 2431 1e4e 46b0 cb43 503a
00000150: b248 43b6 eee2 acba cc53 0280 6ab4 c2b4
00000160: 3b0a 8eb3 9f38 8f3b 60bc 44b2 5fea 94ba
00000170: bba5 6f39 9e4e 51bb 8740 1d3c 5bf6 9cba
00000180: ef05 b43a 09c0 3b39 909e b5ba c226 baba
00000190: 612b fabc 6c26 93bc 4793 efb9 aea3 f83a
000001a0: cc59 97bb 29f8 913b a133 f8bc cd01 36bb
000001b0: 034e 813a f6a3 e78a cb5d 623c 9925 eeb9
000001c0: cfb0 cd3a e962 deba 9396 2eba c97e 982c
000001d0: 0977 c239 c239 f6bb a491 163c 98af f43c
000001e0: 4f4c a9ba 2ab4 cbac e517 0100 a938 04bd
000001f0: eb8a e5bc d87a f83c 8768 0080 45b7 e6ba
00000200: 0e3b 0d3d 8a60 443d d16a 48ba 3baf 863a
00000210: 76a6 0000 45cb 24bd 97fc a9bd e8ac 303d
00000220: 84e8 e92f 6ca3 ceb9 c3e5 c6bb 0432 bbbb
00000230: 216c de3c 2d13 d93c e9a5 d63c 47ec d73b
00000240: fecf 0f3c 843f 5f3b 9348 e5bc a57a 173d
00000250: 1101 043d 0e44 7bbc 1a49 40bb b457 203b
00000260: 31fb 06bb e6b5 ae3c 1688 13bd 466e 753d
00000270: d824 3f3d 2933 76bc b550 c23c 5fc9 f43b
00000280: fd07 293c 7bbf 083c 94a7 583c 2d81 163b
00000290: 725d 543d e1fd 96bd ec46 19bd 9b1e 49bc
000002a0: cfc0 86bc 63fb 0fbd 0fb0 2b2d 0575 0100
000002b0: c083 0d2e 3cd9 492e 9a09 0d05 ed6f 0501
000002c0: 6839 67ac 409c e482 09c9 88b1 f7ea 98bb
000002d0: 7748 0200 4370 b421 e4e4 2494 9fb1 3682
000002e0: 719d d9b6 36db 6d3c 1822 b2bb 18c7 0200
000002f0: 8452 0000 afac e1bc efe9 f4b0 a418 b0ae
00000300: 34d4 273c 04ac bd3c 5b47 933c 55a2 14bb
00000310: b113 cabb 32f4 12ba 5842 ff3c 1ac5 923c
00000320: 7a98 1e3c 5e82 3dbb d692 08bc e89f 9dbb
00000330: da30 7fbd 2512 eb3c 50e9 403c 7348 fc3c
00000340: a8d2 32bc 1b47 28bd e8ff 06bd cea5 6f3c
00000350: f676 26bd dfd2 3bbd a913 43bd 5eda 143d
00000360: 2646 14bc c05f 09bd 23a1 c33b 2318 2b3c
00000370: 1696 903c abe1 4c3c bf32 053d cc64 893d
00000380: e36d 6b3d c35f acbd f51f 89bd de9a 53bc
00000390: bdec 19bd 7c4e 143d f3c8 2e27 9cb5 e037
000003a0: 518e 473b 4aeb df3c f10d e03d f9d8 bf3d
000003b0: d993 c33d 021e 053b 5dd0 46bb 77d0 e7bc
000003c0: 8031 a93c aa8e 963c c655 0000 ca19 b2bc
000003d0: 51ef 8e3c 5b6e e43c e72d 08bc 3756 3db6
000003e0: 10a1 acba 0a7e 9b3c eba1 7f3c ac8b 0abd
000003f0: 77ac 913c ef98 0000 58dd b831 6ec6 ac3b

exp_avg f4 [32, 2, 5, 5]
0.0005693039 0.0007331187 0.00076446467 0.00067119056 0.0005016634 0.00034022515 0.0005294088 0.0005772764
0.0005411514 0.0004017295 5.7579102e-05 0.00022756374 0.00028309118 0.00023509913 0.00016608613 -0.0002929001
-0.00011985042 -8.667123e-05 -0.00011768025 -0.00012682956 -0.00071854395 -0.00053711707 -0.0005190769 -0.0005514428
-0.00051294273 0.0003232474 0.00053648767 0.0006903399 0.00073276303 0.0006469483 0.000103600745 0.0003281424
0.0004934783 0.00056480005 0.000557328 -0.0002322544 3.322957e-05 0.00018315086 0.00027048893 0.0003582211
-0.0005963703 -0.00036877795 -0.00019468728 -8.580854e-05 8.0592006e-05 -0.0009814359 -0.00077082927 -0.000622204
-0.0005043207 -0.00027134008 0.0002357101 1.2218899e-05 -0.00014253617 -0.00028241333 -0.0004226207 0.0005029246
0.0001640983 4.442006e-06 -0.00019396587 -0.00031253192 0.0007756429 0.00036360204 0.0001187805 -0.00010517196
-0.0002903051 0.0011745767 0.00067291607 0.0003803954 0.00010880172 -0.0001455336 0.0017186635 0.0012118322
0.0008904664 0.00056688953 0.00027620455 0.0007518434 0.0003383959 5.0314095e-05 -0.00019801244 -0.00038493704
0.0010054385 0.00054259074 0.00015606022 -0.00015024352 -0.0003510469 0.0014346663 0.0008634098 0.00040020698
9.824948e-06 -0.00026597953 0.0018158319 0.0011600017 0.0005722692 0.00013685075 -0.00020830306 0.002541162
0.0017574296 0.0011034866 0.00054129417 0.00014355582 2.5358933e-05 -7.840388e-05 -0.000119369055 -0.00020610043
-0.0003116104 7.0693226e-05 1.4656387e-05 -2.4782446e-05 -7.088131e-05 -0.00018564619 0.0001328059 4.66923e-05
1.7999555e-05 -3.4148593e-06 -8.432947e-06 0.00012368635 6.489756e-05 -6.550453e-07 3.4517885e-05 2.3222823e-05
-3.4755142e-06 -9.144184e-05 -8.412204e-05 -4.903251e-05 -6.433029e-05 9.571039e-05 1.226319e-05 -2.2937078e-05
-8.647058e-05 -0.000252145 0.00015843069 6.434964e-05 4.055698e-05 4.0877494e-05 -4.0178867e-05 0.00018532705
0.000112262045 0.000120415236 0.00012550977 7.803679e-05 0.00017895992 9.181849e-05 0.00014162378 0.0002088947
0.00021884406 6.0472026e-05 -8.185537e-06 6.72843e-08 8.123805e-05 0.00017110338 -2.5942855e-08 9.0061513e-07
-1.1224654e-07 -4.0033632e-07 -2.9261682e-06 -1.1913833e-07 -9.789693e-07 -1.410202e-06 8.2499554e-07 6.3234705e-07
1.964139e-07 5.802698e-07 2.564049e-07 2.6912119e-06 -3.484577e-07 -2.1361494e-08 8.2600457e-07 6.693953e-08
-2.83238e-07 -7.0936306e-07 -1.8335946e-08 -1.042784e-06 6.5316266e-07 9.078229e-08 -4.273134e-07 2.6512295e-10
-7.1949714e-08 -2.6653211e-08 4.6683164e-07 -3.1380935e-07 -1.4041935e-08 -4.5328596e-07 -4.820523e-07 -3.34225e-07
-1.0629396e-07 -1.6579591e-07 1.899802e-06 -1.3766303e-08 4.1840678e-07 1.9342941e-07 -1.4826611e-07 -3.755733e-08
-4.8004942e-08 -1.2814273e-06 1.5739411e-06 -1.2142985e-08 2.866927e-07 -1.2634521e-06 -1.8603286e-07 -2.0010964e-07
-0.00073839416 -9.1458656e-05 0.00039540028 0.00062585727 0.00069185765 -0.0008240335 -6.865562e-05 0.00045756952
0.00073055545 0.0007196223 -0.00093416596 -0.00015805324 0.00037454587 0.000572098 0.00055448915 -0.00069827295
-1.7566075e-05 0.0004447438 0.00062299706 0.00054851064 -0.00035208848 0.00017351775 0.00058719213 0.00067356694
0.00056877505 -0.001195905 -0.00029301387 0.00039116 0.000759494 0.0008847214 -0.001118271 -0.00020835052
0.00048767903 0.0007951355 0.0009240265 -0.0011086981 -0.00025158492 0.00039893694 0.00068473024 0.0006826993
-0.0007446351 1.5863705e-05 0.0005853976 0.0007661467 0.0006723815 -0.0003185621 0.0003202735 0.000730495
0.0008332569 0.0006831873 0.0003039636 6.562642e-05 -0.00017835293 -0.0005355897 -0.0010362471 0.000346002
00000000: 573d 153a c32e 403a 5b66 483a d6f2 2f3a
00000010: 1082 033a 3f60 b239 06c8 0a3a 5d54 173a
00000020: 0edc 0d3a 399f d239 1781 7138 2d9e 6e39
00000030: db6b 9439 f184 7639 6827 2e39 6390 99b9
00000040: 3458 fbb8 43c3 b5b8 1acb f6b8 8dfd 04b9
00000050: ab5c 3cba 51cd 0cba a912 08ba b38e 10ba
00000060: 0177 06ba 8879 a939 14a3 0c3a edf7 343a
00000070: e516 403a f797 293a 3a44 d938 870a ac39
00000080: c55c 013a 170f 143a a619 123a 5189 73b9
00000090: fb5f 0b38 2f0c 4039 69d0 8d39 9fcf bb39
000000a0: bc55 1cba 8a58 c1b9 f824 4cb9 1cf4 b3b8
000000b0: 8103 a938 86a3 80ba 7a11 4aba 671b 23ba
000000c0: 6434 04ba a642 8eb9 f328 7739 c6ff 4c37
000000d0: c375 15b9 e010 94b9 3193 ddb9 b3d6 033a
000000e0: cd11 2c39 8a0c 9536 5163 4bb9 53db a3b9
000000f0: 8454 4b3a d7a1 be39 cc19 f938 c48f dcb8
00000100: 1734 98b9 41f4 993a a266 303a ce6f c739
00000110: 7b2c e438 619a 18b9 c744 e13a 57d6 9e3a
00000120: 306e 693a 509b 143a 8ccf 9039 5b17 453a
00000130: bb6a b139 5908 5338 8fa1 4fb9 60d1 c9b9
00000140: ebc8 833a a63c 0e3a 19a4 2339 b08a 1db9
00000150: b80c b8b9 6a0b bc3a 7356 623a dfd2 d139
00000160: d5d5 2437 2b73 8bb9 3501 ee3a 330b 983a
00000170: 5604 163a 987f 0f39 ed6b 5ab9 a089 263b
00000180: 8d59 e63a dea2 903a a3e5 0d3a 7987 1639
00000190: e5b9 d437 c36c a4b8 c655 fab8 aa1c 58b9
000001a0: a45f a3b9 2341 9438 b4e4 7537 e6e3 cfb7
000001b0: 1da6 94b8 05aa 42b9 d041 0b39 7ad7 4338
000001c0: c0fd 9637 d62a 65b6 3b7b 0db7 cdb1 0139
000001d0: 9d19 8838 5fd6 2fb5 4cc7 1038 a2ce c237
000001e0: e13c 69b6 77c4 bfb8 ad6a b0b8 42a8 4db8
000001f0: 10e9 86b8 20b8 c838 00be 4d37 0069 c0b7
00000200: 8a57 b5b8 5432 84b9 6a20 2639 73f3 8638
00000210: ba1b 2a38 e073 2b38 bb85 28b8 5a54 4239
00000220: 3a6e eb38 7087 fc38 469b 0339 afa7 a338
00000230: 30a7 3b39 ad8e c038 d880 1439 be0a 5b39
00000240: 8179 6539 58a3 7d38 9d54 09b7 ef7d 9033
00000250: 595e aa38 376a 3339 f1d8 deb2 cdc1 7135
00000260: 300c f1b3 ceed d6b4 305f 44b6 fdd8 ffb3
00000270: 2165 83b5 2c46 bdb5 4375 5d35 8fbe 2935
00000280: d7e5 5234 d6c3 1b35 05a8 8934 ab9a 3436
00000290: a913 bbb4 6c7e b7b2 9aba 5d35 65c0 8f33
000002a0: ef0f 98b4 0f6b 3eb5 2c81 9db2 c9f5 8bb5
000002b0: ff54 2f35 17f4 c233 8269 e5b4 bdc0 912f
000002c0: c682 9ab3 08f3 e4b2 daa0 fa34 a179 a8b4
000002d0: 153d 71b2 265b f3b4 6266 01b5 896f b3b4
000002e0: b943 e4b3 a205 32b4 b3fc fe35 d780 6cb2
000002f0: 64a1 e034 79b1 4f34 1433 1fb4 b94e 21b3
00000300: fe2d 4eb3 82fd abb5 3440 d335 6a9d 50b2
00000310: bfea 9934 e293 a9b5 53c0 47b4 b8dd 56b4
00000320: cb90 41ba 7ecd bfb8 ba4d cf39 9210 243a
00000330: c85d 353a f403 58ba 35fb 8fb8 f1e5 ef39
00000340: bf82 3f3a 09a5 3c3a d1e2 74ba 18bb 25b9
00000350: b25e c439 d9f8 153a 235b 113a 4e0c 37ba
00000360: dc5a 93b7 812c e939 a050 233a edc9 0f3a
00000370: 8498 b8b9 51f2 3539 cced 193a 5092 303a
00000380: d919 153a eabf 9cba a89f 99b9 9b14 cd39
00000390: c818 473a a6ec 673a f392 92ba ab78 5ab9
000003a0: 2caf ff39 a470 503a 5e3a 723a bc51 91ba
000003b0: 28e7 83b9 6928 d139 787f 333a 2df7 323a
000003c0: 9e33 43ba 0c13 8537 5e75 193a 3cd7 483a
000003d0: c242 303a ae04 a7b9 62ea a739 b17e 3f3a
000003e0: ed6e 5a3a ec17 333a 4e5d 9f39 eaa0 8938
000003f0: 4004 3bb9 d166 0cba afd2 87ba 9a67 b539

exp_avg_sq f4 [32, 2, 5, 5]
7.2335906e-06 8.873763e-06 1.2247142e-05 1.6475127e-05 2.0870038e-05 9.840274e-06 1.04387755e-05 1.2870635e-05
1.6250262e-05 2.0058791e-05 1.3999446e-05 1.2913506e-05 1.3576771e-05 1.5436804e-05 1.799337e-05 1.8538287e-05
1.5836686e-05 1.4809142e-05 1.5352553e-05 1.7328373e-05 1.9087329e-05 1.6296044e-05 1.4962004e-05 1.5544918e-05
1.8216306e-05 7.897052e-06 7.91152e-06 9.509174e-06 1.287241e-05 1.7585484e-05 1.1152563e-05 1.007107e-05
1.0616096e-05 1.3216841e-05 1.7555558e-05 1.5939097e-05 1.3267204e-05 1.2264338e-05 1.3642248e-05 1.7340806e-05
2.0618334e-05 1.6693593e-05 1.4466203e-05 1.5233269e-05 1.897186e-05 2.0708687e-05 1.6849044e-05 1.4745753e-05
1.6156802e-05 2.1491856e-05 4.589558e-06 3.6775955e-06 3.901439e-06 4.5131014e-06 5.4797583e-06 7.50392e-06
5.404743e-06 4.6078308e-06 4.5027173e-06 5.0552426e-06 1.4031197e-05 9.464604e-06 6.6549073e-06 5.174058e-06
4.9703617e-06 2.337532e-05 1.5467253e-05 9.870528e-06 6.5270387e-06 5.395357e-06 3.349294e-05 2.1929985e-05
1.3314012e-05 7.92538e-06 5.7374173e-06 5.0646486e-06 3.6690333e-06 3.695751e-06 4.3522637e-06 5.453458e-06
8.769438e-06 5.657875e-06 4.421866e-06 4.277551e-06 4.9707323e-06 1.6808406e-05 1.0486951e-05 6.6874945e-06
4.963344e-06 4.9299574e-06 2.8244922e-05 1.7536679e-05 1.0342286e-05 6.482748e-06 5.4617517e-06 4.1269428e-05
2.5733581e-05 1.4642565e-05 8.27399e-06 5.998848e-06 3.255213e-05 3.71504e-05 3.612158e-05 2.9322924e-05
1.9403999e-05 3.5357018e-05 3.953391e-05 3.798651e-05 3.1042997e-05 2.0677004e-05 3.7338126e-05 4.087554e-05
3.898045e-05 3.1711737e-05 2.124199e-05 3.8443875e-05 4.1205407e-05 3.8919192e-05 3.1451167e-05 2.1237645e-05
2.8716291e-05 3.0499403e-05 2.8052473e-05 2.1693892e-05 1.3807477e-05 3.2965287e-05 3.7261583e-05 3.5777026e-05
2.9000645e-05 1.9452806e-05 3.558772e-05 3.9430888e-05 3.7891587e-05 3.0950658e-05 2.0955595e-05 3.7241727e-05
4.065631e-05 3.864651e-05 3.152635e-05 2.1602687e-05 3.803688e-05 4.073793e-05 3.816667e-05 3.0880565e-05
2.1165555e-05 2.8242524e-05 2.9745272e-05 2.69616e-05 2.0543945e-05 1.3125573e-05 7.235217e-12 3.8898374e-11
1.1447297e-10 1.1157085e-10 1.0131989e-10 1.11912484e-11 5.843027e-11 1.3650002e-10 1.4060729e-10 1.0942099e-10
1.299462e-11 6.3090276e-11 1.5164339e-10 1.63463e-10 1.1891789e-10 1.114289e-11 5.863885e-11 1.3378543e-10
1.3800776e-10 1.0761019e-10 7.2318523e-12 3.8775975e-11 1.1516784e-10 1.0978593e-10 8.542424e-11 4.0038988e-12
2.9498133e-11 1.0230988e-10 1.12722096e-10 9.0371766e-11 5.3849395e-12 4.141626e-11 1.3243082e-10 1.3536994e-10
1.12879206e-10 6.3842343e-12 5.3020033e-11 1.3695739e-10 1.4549369e-10 1.1771488e-10 5.6253e-12 4.111706e-11
1.3217855e-10 1.3694318e-10 1.1427647e-10 3.9893917e-12 2.983872e-11 1.0411403e-10 1.10741215e-10 8.6581714e-11
2.6773825e-05 1.8376337e-05 1.2331119e-05 8.468091e-06 6.561069e-06 3.1241598e-05 2.1189559e-05 1.4035735e-05
9.569181e-06 7.4645855e-06 3.204111e-05 2.1779875e-05 1.4707586e-05 1.0575847e-05 9.158694e-06 2.6936907e-05
1.8392755e-05 1.2887982e-05 1.0122023e-05 9.939793e-06 2.0695685e-05 1.4371676e-05 1.0668231e-05 9.268162e-06
1.0123377e-05 3.213516e-05 2.1617974e-05 1.3991018e-05 9.178245e-06 6.839457e-06 3.5981582e-05 2.4196006e-05
1.5784517e-05 1.065457e-05 8.297361e-06 3.5089295e-05 2.4049332e-05 1.6509573e-05 1.218577e-05 1.0660428e-05
2.7504419e-05 1.913035e-05 1.376441e-05 1.1163341e-05 1.0999387e-05 1.9560846e-05 1.40636785e-05 1.0959239e-05
9.850718e-06 1.0656738e-05 7.460231e-06 8.161223e-06 8.163252e-06 8.238116e-06 1.0163466e-05 1.1637303e-05
00000000: 12b8 f236 86e0 1437 1379 4d37 1134 8a37
00000010: 1112 af37 a817 2537 3322 2f37 f5ee 5737
00000020: 2c51 8837 ed43 a837 2adf 6a37 16a7 5837
00000030: cac7 6337 497e 8137 78f0 9637 ab82 9b37
00000040: 06d9 8437 c874 7837 5bc9 8037 665c 9137
00000050: ba1d a037 7db3 8837 5105 7b37 7566 8237
00000060: 38cf 9837 947d 0437 b8bb 0437 9789 1f37
00000070: 94f6 5737 8a84 9337 e51b 3b37 ebf6 2837
00000080: c91b 3237 e6bd 5d37 4644 9337 f3b4 8537
00000090: 3596 5e37 eec2 4d37 02e1 6437 1977 9137
000000a0: 89f5 ac37 3809 8c37 deb3 7237 6492 7f37
000000b0: c225 9f37 91b7 ad37 0c57 8d37 8764 7737
000000c0: 7888 8737 6949 b437 0100 9a36 9ccc 7636
000000d0: 1be9 8236 3f6f 9736 c4de b736 2fca fb36
000000e0: 645a b536 f79c 9a36 0c16 9736 34a0 a936
000000f0: 8867 6b37 2aca 1e37 384d df36 d29c ad36
00000100: 15c7 a636 1e16 c437 acbf 8137 9899 2537
00000110: d602 db36 c409 b536 c57a 0c38 49f6 b737
00000120: 3f5f 5f37 3ff7 0437 0a84 c036 00f1 a936
00000130: 8339 7636 8504 7836 a909 9236 d9fc b636
00000140: 7320 1337 c7d8 bd36 8a5f 9436 e287 8f36
00000150: 44ca a636 c7ff 8c37 1df1 2f37 2465 e036
00000160: cd8a a636 036c a536 82ef ec37 bb1b 9337
00000170: c883 2d37 6286 d936 1744 b736 b618 2d38
00000180: 72de d737 56a9 7537 84d0 0a37 b649 c936
00000190: 9588 0838 f0d1 1b38 4081 1738 80fa f537
000001a0: c5c5 a237 4f4c 1438 36d1 2538 b453 1f38
000001b0: 2a34 0238 8773 ad37 829b 1c38 c771 2b38
000001c0: f17e 2338 3802 0538 d430 b237 cc3e 2138
000001d0: f8d3 2c38 2a3d 2338 6fea 0338 7f27 b237
000001e0: c4e3 f037 f8d8 ff37 3a52 eb37 47fb b537
000001f0: aaa6 6737 3544 0a38 5249 1c38 4a0f 1638
00000200: 6946 f337 952e a337 0644 1538 9862 2538
00000210: c8ed 1e38 04d1 0138 ccc9 af37 0034 1c38
00000220: 6186 2a38 6018 2238 293b 0438 6b37 b537
00000230: ca89 1f38 05de 2a38 2615 2038 c185 0138
00000240: af8c b137 5cea ec37 7c85 f937 982b e237
00000250: c955 ac37 e835 5c37 0b91 fe2c ad13 2b2e
00000260: 8eba fb2e ce58 f52e 07ce de2e e7e0 442d
00000270: 517d 802e 5715 162f 6f99 1a2f 8b9e f02e
00000280: 919a 642d abbc 8a2e d2bb 262f beba 332f
00000290: 69c0 022f 1e07 442d bdf2 802e 4019 132f
000002a0: bbbd 172f 27a3 ec2e bc72 fe2c de89 2a2e
000002b0: bb41 fd2e fc6b f12e 92d9 bb2e eadf 8c2c
000002c0: f2bb 012e 58fb e02e e6e0 f72e c8ba c62e
000002d0: 3977 bd2c 9026 362e f69b 112f 40d7 142f
000002e0: 5839 f82e 12a0 e02c 402f 692e 1496 162f
000002f0: d5f8 1f2f cb6d 012f 33ec c52c b2d5 342e
00000300: f454 112f 1492 162f ef4b fb2e 3f5d 8c2c
00000310: 693b 032e fdf2 e42e c385 f32e 2c65 be2e
00000320: 5a98 e037 e226 9a37 c1e1 4e37 2d12 0e37
00000330: 2727 dc36 6909 0338 3bc0 b137 067b 6b37
00000340: 528b 2037 4d78 fa36 e163 0638 edb3 b637
00000350: 9ac0 7637 eb6e 3137 4ba8 1937 91f6 e137
00000360: 244a 9a37 7639 5837 c2d1 2937 16c3 2637
00000370: a59b ad37 e11d 7137 b4fb 3237 747e 1b37
00000380: 93d7 2937 dec8 0638 3f58 b537 f7ba 6a37
00000390: 43fc 1937 7d7e e536 eeea 1638 87f8 ca37
000003a0: fe68 8437 08c1 3237 e534 0b37 d82c 1338
000003b0: 8cbd c937 0a7e 8a37 7c71 4c37 31da 3237
000003c0: 4ab9 e637 1d7a a037 b1ed 6637 2f4a 3b37
000003d0: 028a 3837 9916 a437 0af3 6b37 93dd 3737
000003e0: 8344 2537 57ca 3237 e552 fa36 30ec 0837
000003f0: e6f4 0837 7036 0a37 c183 2a37 d63d 4337

exp_avg f4 [32]
-0.0004351843 0.00061706227 -9.3480245e-05 -2.637338e-06 -0.0006279167 0.00017533918 0.00010494079 -0.00021338812
-0.0018207012 -0.00018543209 0.0005376568 -0.0008744649 -0.0014252894 1.4491045e-05 -1.4337361e-05 -0.0011628863
-0.00012701111 -0.0007641408 0.00050374534 -0.00062902516 -0.002083821 -0.00029776598 -0.0011116201 0.00058157934
0.00050028693 0.0003978913 0.0006087502 0.0020532133 0.00060425 -0.0006419037 -0.001170092 -9.429456e-05
00000000: 7329 e4b9 59c2 213a d30a c4b8 1ffd 30b6
00000010: c79a 24ba 41db 3739 a813 dc38 f0c0 5fb9
00000020: 98a4 eeba 8c70 42b9 89f1 0c3a 593c 65ba
00000030: c7d0 baba 901e 7337 7f8a 70b7 fd6b 98ba
00000040: 492e 05b9 9f50 48ba c70d 043a 2ae5 24ba
00000050: b790 08bb 791d 9cb9 c8b3 91ba 2175 183a
00000060: b025 033a 119c d039 8994 1f3a 348f 063b
00000070: 8866 1e3a 6e45 28ba c65d 99ba 02c0 c5b8
