results/2BS/T_1/L_6000/seed3/checkpoint.pth.tar (torch_old, 395620 bytes, 22 tensors)

layer1.conv.weight f4 [32, 2, 5, 5]
000000 2c 7f 16 3c ad 61 44 3c c2 16 12 bd 30 f2 ed bd
       0.009185594 0.011986178 -0.035666235 -0.11618459
000010 d1 46 aa bc e3 3d 41 3d 7d 7b 09 bd e1 9f d1 bc
       -0.020785721 0.04717816 -0.033565033 -0.025588932
000020 38 af 84 3d 87 f2 d8 bb 4f a7 78 3d ef e3 ad bc
       0.06478733 -0.0066207084 0.060706433 -0.021226851
000030 67 bb f6 bd 04 af a8 bb 40 c0 7a bc b6 2f dc 3b
       -0.12047463 -0.0051478166 -0.015304625 0.006719555
000040 2b 24 87 3d 5f 26 d2 bc 8c 81 fe 3c 6e 39 7d 3d
       0.06598695 -0.025653062 0.031067632 0.061822347
000050 3c 7b 81 3d 90 c7 00 3c 5d b4 d0 bd 7f 58 a1 3c
       0.06322333 0.007860079 -0.101906516 0.019695519
000060 ce db 07 bd 09 33 1d 3d 80 cb 3c bc c6 05 1f 3d
       -0.033168606 0.03837875 -0.011523128 0.038823865
000070 fa 7e 91 3c fc 8d 92 bc 9c da 38 3d 73 ac 4c bc
       0.017760742 -0.017889969 0.045130357 -0.012492287
000080 08 43 cd 3c ee 5a 4a bc 06 85 30 bc 0b 71 46 3d
       0.025056377 -0.012350781 -0.010773903 0.04844765
000090 a0 58 27 3d 3f 57 64 bd ff fc 22 bc 96 59 3b bd
       0.040856004 -0.055747267 -0.009948014 -0.045739733
0000a0 e0 9c 19 3c cf 40 24 bd dc 0f d8 bc 88 82 8e bc
       0.009375781 -0.04010087 -0.02637475 -0.017396227
0000b0 4c d4 94 3c cc f4 1b 3e 01 a6 c6 bc 96 3d 06 bb
       0.018167637 0.15230101 -0.024249079 -0.0020483485
0000c0 29 91 57 bb 67 49 99 3c fa 06 e1 bc 0a 64 11 bd
       -0.0032892919 0.018711759 -0.027469147 -0.035495795
0000d0 65 1f c3 bc c7 8e 29 bd 15 bf 6a bd 48 70 30 3b
       -0.023818681 -0.04139593 -0.057311136 0.0026922394
0000e0 c6 b4 c6 3b 6d 22 86 3c d7 3b 6d bc bb 38 cc 3c
       0.0060640303 0.016373837 -0.014479599 0.024929395
0000f0 04 5f 14 bd c0 07 cf 3c 15 c8 e8 3b 8c 61 27 bd
       -0.036223426 0.02527225 0.0071039298 -0.040864512
000100 a2 ef 8a 3c bd 4e 2e 3d 34 b6 5a bc c4 f8 f5 bc
       0.016959969 0.04255556 -0.013349105 -0.030025847
000110 69 10 98 bb c5 65 1c bd 34 5c a3 bd 96 12 17 3b
       -0.004640628 -0.038182992 -0.07976571 0.002305185
000120 13 6b d5 bc 66 d0 fe bc 83 2b 36 bc 86 91 67 3d
       -0.026052034 -0.031105231 -0.011118772 0.056535266
000130 51 0c b9 bc d8 0a 8e bc a0 5a 31 3b 77 6d 87 3b
       -0.02258888 -0.017339155 0.0027062073 0.0041329223
000140 b5 7d 61 bd a5 25 43 3d 53 2d aa bc cd a6 d1 3c
       -0.055051524 0.047643322 -0.020773565 0.025592232
000150 c1 c4 b8 3c 5b 36 31 3d 45 c5 40 bd fa e7 9c bc
       0.022554757 0.043264728 -0.04706313 -0.019153584
000160 38 58 d7 bb 46 9d 62 3c 95 3f 06 bb 87 a2 86 3d
       -0.006571796 0.013831442 -0.0020484675 0.065739684
000170 fd ab b9 3d 06 64 4d 3c 7c 55 bc bc 77 e7 b2 3d
       0.09066007 0.0125360545 -0.02298998 0.08735555
000180 ed f1 24 3d cc 22 98 bd 08 7f 34 3b ff ef cf ba
       0.04026978 -0.07428512 0.0027541537 -0.0015864371
000190 e5 d2 1c bd a2 d3 9f bd f8 86 ec 3c d7 dc aa 3d
       -0.038287062 -0.07804038 0.028872952 0.08342903
0001a0 31 e7 81 3d c4 bd 4a 3d 15 28 2f bc 86 83 f0 3c
       0.063429244 0.04949738 -0.010690709 0.02935959
0001b0 a6 2c 0c 3d 86 b1 b1 3d 81 6c 13 bd da 19 35 bb
       0.034222268 0.08676438 -0.03599215 -0.0027633817
0001c0 01 3a 1b bd 16 34 ac bd 60 bd ec bc 6a 36 85 bd
       -0.037897114 -0.08408372 -0.028898895 -0.06504519
0001d0 3b aa 2b bd 69 b5 8e 3c 2d f6 a9 bb 82 3f 1b 3d
       -0.04191039 0.017420487 -0.005186817 0.037902363
0001e0 87 5f eb bc 0e b3 13 3c 2a 63 e5 3c df 97 5e bd
       -0.028732074 0.009014858 0.028001387 -0.054344054
0001f0 e0 11 0e 3d 76 b1 72 bd d7 97 aa 3c ba 48 82 3d
       0.034685016 -0.05925127 0.020824356 0.06361528
000200 04 db 88 3c a6 73 ca 3d 30 1d 2f 3d 2f 37 ba bd
       0.016705997 0.098853394 0.042752445 -0.09092557
000210 65 c0 dd 3d 2b 71 a5 3d 4c 79 51 3d ea 48 55 bd
       0.10827712 0.08078226 0.05114107 -0.05207149
000220 4b 90 09 3d 7e 5c 19 3d c7 00 d9 3d a8 e6 2f bc
       0.033584874 0.037441723 0.105958514 -0.010736145
000230 c2 08 8a bc 25 2f 76 3d 59 54 87 3c d1 95 3c 3d
       -0.01684988 0.060103554 0.016519712 0.046041314
000240 ab 3a e4 bc 97 7d b7 3c d5 d1 da bc 84 d6 5e bd
       -0.027860006 0.022398753 -0.026711384 -0.054403797
000250 ef 82 8c bd 3f fd 9b bc 25 59 0b bc a0 56 04 3d
       -0.06860911 -0.019041656 -0.00850514 0.032309175
000260 0d 64 24 3d 75 f6 f0 3c 63 dd 50 3d 2e 36 de 3d
       0.04013448 0.029414395 0.05099238 0.10850178
000270 67 ac ff bc 48 98 bb 3c 0e 82 6c 3d 92 41 c5 3c
       -0.031210138 0.022899762 0.057741217 0.024079118
000280 b8 1e e0 3d 58 bf f0 3d b8 ec ac ba 79 b0 11 3d
       0.10943359 0.11755246 -0.0013193106 0.035568688
000290 f5 a8 b2 3c 80 69 cf 3d 3a cb d3 3d c0 51 03 bd
       0.02180908 0.101275444 0.10341497 -0.032060385
0002a0 c9 69 41 bd f5 20 8a bc 22 c4 5d bb 41 07 08 bd
       -0.047220025 -0.016861418 -0.0033838828 -0.033210043
0002b0 4c b8 90 3c 02 6d d5 bc 57 3a 43 3d d5 86 90 3b
       0.017666005 -0.026052956 0.04766306 0.0044106045
0002c0 d4 9a 16 bc f4 94 7a 3d 3a c5 99 bc 8b 7d 6b 3d
       -0.009192187 0.06117721 -0.018770803 0.057492774
0002d0 94 1d 34 bd d1 f3 05 bd da ca 97 bd de 45 93 bd
       -0.04397352 -0.032703225 -0.07411738 -0.071910605
0002e0 cc 49 77 bd fa 87 5a bd 47 e9 16 bc 28 8a 81 bd
       -0.060373113 -0.053352334 -0.009210891 -0.06325179
0002f0 31 1f 4e bd de 53 e9 bc 78 58 07 bd d9 26 3e bc
       -0.050322715 -0.028482374 -0.033043355 -0.011605942
000300 91 7a 3d 3c ba 87 c0 bc a2 b8 24 3d e6 b5 2f bd
       0.011564867 -0.02350222 0.040215142 -0.04289808
000310 63 6e d9 bd 8c 2d 32 bc c4 10 80 bd db 14 93 bd
       -0.10616758 -0.010875117 -0.06253198 -0.07181712
000320 55 2c e1 3d 92 b4 64 3c a0 bb d4 ba be c9 db 3d
       0.10994784 0.013959067 -0.0016230233 0.10731839
000330 db ed 82 3c 5d 9e 54 3d 4d 75 07 3d b3 76 98 3d
       0.015982559 0.05190884 0.03307085 0.07444515
000340 55 33 86 3d 0a 65 8a bc 84 5d 86 3d f5 d3 df 3d
       0.065527596 -0.016893882 0.065608054 0.109290995
000350 50 f6 11 bc 92 ef 08 bc fb 34 a0 bb 99 af a2 3b
       -0.008908823 -0.008357899 -0.0048891283 0.0049647805
000360 93 61 62 3d 81 51 6a 3d e6 57 b9 b7 19 14 00 bd
       0.055268835 0.057206634 -2.209465e-05 -0.031269167
000370 04 29 d3 3d 4d 1c c6 3d af 96 c8 3d a1 9c b6 bd
       0.103105575 0.09673367 0.097943656 -0.08916593
000380 3a 8b 95 3d 14 58 c9 bc 63 b2 f1 bc 93 bf 44 bd
       0.07301946 -0.024578132 -0.029504007 -0.048034262
000390 e3 79 f3 bd 77 0a 40 3d 8d 8a 4a bc 1f 46 f1 bc
       -0.118884824 0.04688498 -0.012362135 -0.029452382
0003a0 5e 6e c5 3c 87 7a 4d 3d cf a4 10 be f7 77 f6 bb
       0.024100479 0.05016568 -0.1412537 -0.007521625
0003b0 fa a9 8e bc 40 d3 8f bd 94 a4 c3 bd 5f 23 49 bd
       -0.017415036 -0.070227146 -0.09552875 -0.049105998
0003c0 77 71 00 bc 1f 0b 4a bc 31 4a f8 bc d7 92 9d bd
       -0.007839552 -0.012331753 -0.030308815 -0.07694023
0003d0 23 5f 84 bd 4e 90 14 3d f5 36 1f bc eb 5e f5 bc
       -0.064634584 0.036270432 -0.009717693 -0.029952487
0003e0 6d 3e d0 bc d9 db 43 bd 57 18 01 bc 00 90 c9 3d
       -0.025420392 -0.047817085 -0.007879338 0.09841919
0003f0 35 59 5d 3d 72 85 49 3c a1 25 75 3b 90 2e 0f 3d
       0.054040153 0.012299882 0.0037406462 0.034956515

layer1.conv.bias f4 [32]
000000 bc 83 35 bd fa 1a f8 bd 47 c5 15 3d 99 84 6f bd
       -0.044315085 -0.1211452 0.03656509 -0.058476064
000010 ec 50 5f bc 8e c6 0f 3b 5e 6e 2b bd 18 4a 41 bd
       -0.013630133 0.0021938416 -0.0418533 -0.047189802
000020 41 b6 bb 3d 85 e4 19 3d 90 d9 4d bd f8 f1 19 bd
       0.091656215 0.03757145 -0.050256312 -0.037584275
000030 0b 96 a1 bc 61 b6 ee bd f9 80 82 bc ac 17 63 3a
       -0.019724866 -0.1165588 -0.01593064 0.000866289
000040 8e 6a 12 3e 28 ec 7e 3d 8b e2 bc bd 89 cb 3d bd
       0.1429846 0.062236935 -0.09222897 -0.046336684
000050 43 22 b8 3b 4a 11 50 b9 24 4b aa bd 7d 16 ed 3d
       0.0056193187 -0.00019842866 -0.08315113 0.11576555
000060 85 bb 84 bd ab f0 e1 bd 24 37 f2 3d 21 41 0f bd
       -0.06481079 -0.11032232 0.118269235 -0.03497422
000070 f4 72 de bd dd 60 f9 bd 33 96 a4 3d 3d 8c ce bd
       -0.10861769 -0.12176678 0.08036461 -0.10085342

layer2.conv1.weight f4 [32, 32, 3, 3]
000000 6d 95 9d bc 4f 0c 5e 3c aa 70 02 3c 66 7e c2 3d
       -0.01923629 0.013552739 0.0079614315 0.09496765
000010 32 c8 5f bc ec cb 81 bb 25 c5 f0 bd a8 16 57 3c
       -0.01365857 -0.003961077 -0.11756352 0.01312796
000020 10 d2 97 bc 50 46 40 bc 3b 6b 4b 3c 63 12 3a bb
       -0.018532783 -0.011735514 0.012415702 -0.0028392307
000030 0b 9c 28 3d 92 b4 4d 3b f7 19 5f ba 1e 2b 4e bc
       0.04116444 0.0031388146 -0.0008510644 -0.012583522
000040 4e 70 6f bb b3 40 58 3b da 5c af 3d 15 a9 d2 bc
       -0.0036535445 0.0032997548 0.08562632 -0.02571539
000050 0b b5 b9 3d 6a 69 8b bd d1 8d 58 3c 88 73 7c 3d
       0.09067734 -0.068072155 0.013217405 0.061633617
000060 ea 8f 82 bc a0 9b 11 3c 40 45 db bd 8b ce 19 bc
       -0.015937764 0.008887202 -0.10706568 -0.009387623
000070 74 c8 ab bd 92 7b b8 ba dc 53 1d bc 35 7c 3d bd
       -0.08387843 -0.0014074913 -0.009602513 -0.04626103
000080 8e 54 c8 bc 92 9e 04 be 1f 39 86 bc d3 b6 21 3d
       -0.024454381 -0.12951115 -0.01638466 0.039480995
000090 fa 33 87 bd a4 a4 b9 bd e7 bf 0e bc d0 25 a1 bd
       -0.066017106 -0.09064606 -0.008712745 -0.0786854
0000a0 47 b4 f6 bd 54 48 49 bc ec e8 70 bc c4 8f 25 3d
       -0.12046104 -0.012285311 -0.01470397 0.04042031
0000b0 55 1c c7 bb 3b 4d be bc f8 d5 ee 3c 38 36 a4 bc
       -0.0060763755 -0.023230186 0.029154763 -0.020045385
0000c0 33 e2 b2 bc 91 a1 92 3d ba 24 ee bc 99 ec 46 bc
       -0.021836376 0.071597226 -0.029070247 -0.01214137
0000d0 48 24 46 bb 23 b7 ec bb 41 b7 bf 3a 73 62 44 3d
       -0.0030234028 -0.00722398 0.0014626757 0.04794545
0000e0 6f 50 a7 3c 87 82 df 3b 51 85 9e bb f3 0a da bc
       0.020424096 0.00682098 -0.00483767 -0.02661655
0000f0 81 28 eb bb 57 bb b3 bc ba f2 b7 3c 7d 87 c3 bd
       -0.0071764593 -0.021939917 0.022454608 -0.09547327
000100 50 84 6c bd 31 55 6c bb e0 c3 bf 3b b0 74 3e bd
       -0.05774337 -0.003606152 0.0058522075 -0.046498
000110 89 a0 c9 bb 4f 1a ab bd 2b d0 eb bc 98 c6 6d bc
       -0.0061531705 -0.08354627 -0.028785786 -0.0145126805
000120 9d 91 ec bd 0f c5 9f bd 80 c1 02 bd ad 67 8b bd
       -0.11551211 -0.07801258 -0.031922817 -0.06806884
000130 b7 32 ba bb 06 48 14 3e 5b f5 46 bd 67 a4 9a bd
       -0.005682315 0.144806 -0.048573833 -0.075508885
000140 da 0f 98 bd 27 09 3d bc ff dd 9f bc ae f7 0e 3c
       -0.074248984 -0.011537827 -0.019515036 0.008726044
000150 76 aa 0c 3e ee 02 90 3c b8 40 17 bd ce f6 95 3d
       0.137369 0.017579522 -0.036926955 0.07322465
000160 b4 11 3d bd 02 66 8c 3c 87 f2 8b 3b 6c 5a c9 3b
       -0.04615946 0.017138485 0.004270855 0.0061448123
000170 66 b0 0e 3c 0b d1 07 bc 1b b9 1b bd 86 26 a8 3d
       0.008709049 -0.008289586 -0.038018327 0.08210473
000180 06 fb 26 3c 84 8e 3d bd ef c0 67 3d 76 8b 26 3e
       0.010191685 -0.04627849 0.05658048 0.16264138
000190 6d 43 5b bd 7c e2 15 be a9 94 b4 3c a1 95 52 bd
       -0.0535311 -0.14637178 0.022043543 -0.05141223
0001a0 64 67 ce bd 4b 58 e7 bd eb 0e 98 bc f8 73 95 bd
       -0.10078314 -0.112961374 -0.018561801 -0.0729751
0001b0 1c 20 b2 3d 95 e8 a7 3c 81 25 c7 3c 62 1d 19 bd
       0.086975306 0.020496646 0.024309875 -0.037381537
0001c0 3f 04 3f 3d 6e 54 df 3c 71 62 b5 3d 7a 59 b6 bd
       0.04663491 0.027261939 0.08856667 -0.08903785
0001d0 2f e0 69 3d f9 63 79 bc 69 f5 08 bd e2 85 0d 3d
       0.057098564 -0.015221589 -0.033437166 0.03455151
0001e0 7b a3 1a 3c a8 c3 17 3a 74 4b 6b 3c f3 ac 1d 3b
       0.009438391 0.0005789348 0.014361251 0.0024059385
0001f0 b5 15 1c bb 14 dd ae bc 16 2d 70 3d d5 a1 11 bc
       -0.002381665 -0.021345653 0.058636747 -0.008888681
000200 96 dd 87 bd 7b 4d c5 b9 26 13 77 bc 16 ca 7b 3d
       -0.06634061 -0.00037632496 -0.015080249 0.06147202
000210 03 de 80 bc 89 91 f9 bb 62 9a a3 bd 51 57 c1 bc
       -0.015730863 -0.007616226 -0.079884306 -0.023601206
000220 cf db e8 bb 04 45 0a bd 2b bf 03 bd 71 0a ec ba
       -0.0071062814 -0.033757225 -0.032164734 -0.0018008483
000230 12 c3 93 3c ff 9f 78 b6 93 8e 32 bb 96 ec 2f bc
       0.018037353 -3.704801e-06 -0.0027245625 -0.010737559
000240 be ba 37 bb b7 94 ab 3c f9 12 98 bc a4 e5 15 3e
       -0.002803489 0.020944936 -0.018563734 0.14638382
000250 15 9f 2e bd 59 72 96 bd 58 73 93 bc d7 ec ae bd
       -0.04263218 -0.07346029 -0.017999336 -0.08541267
000260 dd 39 66 3c bb bf e2 3d 8a 26 84 3c cb 32 99 3d
       0.014051882 0.11071726 0.016131658 0.07480391
000270 fe 66 fd bc a6 f4 32 bd 9b 78 a9 3d f3 9a 23 3b
       -0.0309329 -0.043690346 0.08274957 0.0024964183
000280 ad e7 0b be b5 4a 6e 3c f4 fe 48 bd da 98 27 bd
       -0.13662596 0.014544179 -0.049071267 -0.040917255
000290 a7 41 53 bd f3 4d fb bd fa 0f 4d bd 79 a5 be 3c
       -0.051576283 -0.12270727 -0.050064065 0.023272263
0002a0 99 b5 0c bd d0 b7 13 3c e0 e3 a4 bc 9c 97 80 bd
       -0.034352873 0.009015992 -0.02012819 -0.06278917
0002b0 f5 c5 a6 3d 02 6a 04 3d 4f 6c 73 3d 60 fd 46 3d
       0.08143226 0.03232766 0.059429463 0.04858148
0002c0 b8 38 25 bc 78 24 8c bd 0c 3c 2b 3d 14 e9 1c 3d
       -0.010084324 -0.06842893 0.041805312 0.038308218
0002d0 0d 54 50 3c 64 d9 99 bd fc 52 fb bc 6d b5 33 3d
       0.012715352 -0.07512167 -0.030679218 0.043874193
0002e0 ed 0c 6b 3d 73 4a 4b 3d c7 0b c9 3d 49 36 b0 bc
       0.057385374 0.049631547 0.098166995 -0.02151026
0002f0 98 e9 08 3d 81 01 a8 b3 54 e1 08 ae d2 6b b2 a9
       0.033425897 -7.823383e-08 -3.112295e-11 -7.923492e-14
000300 ff dd 35 b1 41 7e a4 ac bf 8c 6a af fe a1 7d ad
       -2.6465157e-09 -4.6751773e-12 -2.1332179e-10 -1.44173545e-11
000310 0c 20 d5 aa c7 31 aa 31 bb 6c 4c bd 54 fe 8c 3d
       -3.7858638e-13 4.95331e-09 -0.04990838 0.06884447
000320 90 67 13 bc aa 91 ae 39 73 fc a2 3b 5d fe bc bc
       -0.008996859 0.00033296394 0.004973942 -0.023070509
000330 a7 8c 85 3e 40 69 f4 3d 28 3c e7 3d c2 55 ac 3a
       0.26083872 0.11934137 0.11290771 0.0013148116
000340 e1 12 35 be e8 25 ea b9 f4 c2 8b bd 92 2f c9 3c
       -0.17682983 -0.000446602 -0.06824294 0.024558816
000350 16 09 3f 3d 04 39 cc bd a4 42 48 3d 53 66 14 3e
       0.046639524 -0.09971812 0.04889168 0.14492159
000360 4a 49 96 3c 8a 71 83 3d 3a e3 f2 bc a9 6b 95 3d
       0.018345494 0.0641814 -0.029649366 0.07295925
000370 45 05 e2 3c 6b c1 e8 bc 87 51 cb bd 64 e6 da bc
       0.027590403 -0.028412541 -0.099276595 -0.026721187
000380 ab 4d d5 bc 61 64 a2 bd 46 36 20 3d 39 21 29 bc
       -0.026038012 -0.07929302 0.03911426 -0.010322862
000390 1e b8 b9 3d 0e 1f b4 3b 82 f2 f4 39 ba 07 6d 3b
       0.09068321 0.005496866 0.0004671999 0.0036167935
0003a0 7f b1 7b bc f8 9c 52 bc d2 96 c7 bc 3f fd 11 3d
       -0.015362143 -0.012854807 -0.024363909 0.035641905
0003b0 ed 27 61 3d 6c ae 9c 3d e0 72 52 3d ff 1b 35 bc
       0.054969717 0.07650456 0.051379085 -0.011054038
0003c0 28 0a 39 ba 58 d9 23 3d 54 4c b6 bd c3 15 98 3c
       -0.00070587033 0.040002197 -0.08901277 0.018565064
0003d0 e6 3e 9e 3d dd 93 55 bd d3 26 c4 3b 63 74 71 bd
       0.07726841 -0.052142967 0.0059860735 -0.058948886
0003e0 8f 08 5a ba 8d 59 1b bd a2 97 45 3d 6b 87 8f bb
       -0.00083173154 -0.0379272 0.04824031 -0.0043801568
0003f0 5b d1 c8 bc d5 52 cc bd 30 48 b4 3b 15 6a 82 bd
       -0.024513891 -0.099767365 0.0055017695 -0.0636789

layer2.conv1.bias f4 [32]
000000 5c a5 ba 3c da 9d 92 3c bf 9d d5 bc 75 76 e8 bb
       0.022783928 0.017897535 -0.026076196 -0.0070941993
000010 4c ce 61 bd c6 4f 2d bd 19 5e 99 bc 96 7f 50 bc
       -0.05512838 -0.042312406 -0.018721627 -0.012725731
000020 8f 2f ee 3b 81 c5 8b bc 6c 4a 9a 3c 92 d8 ea 3c
       0.007268853 -0.01706195 0.018834315 0.028667722
000030 f7 7c 8a 3b 4f 0d f3 3c e8 b1 8a 3b 94 8c ba 3c
       0.0042263228 0.029669432 0.004232634 0.022772111
000040 7d c4 25 bd 86 d0 52 bd 16 d9 13 3c 63 57 17 bd
       -0.04047059 -0.051468395 0.009023925 -0.036948573
000050 82 d5 40 3b b3 3d 59 3d 71 3e 55 3d 31 6d dc 3c
       0.0029424136 0.053037357 0.052061502 0.026907535
000060 cd ab 17 bd c4 a0 00 bd a0 ba fb bc 2d 59 cd 3b
       -0.037029076 -0.031403318 -0.030728638 0.006266734
000070 fa 0a 56 bd 31 6f 05 bd 7d 62 ba bb d0 f5 31 bc
       -0.05225656 -0.032576744 -0.0056880102 -0.010861829

layer2.conv2.weight f4 [64, 32, 3, 3]
000000 44 92 1a bc aa 05 0e 3b 9c e1 cd 3d fb c1 ff 3c
       -0.0094342865 0.0021670857 0.10052797 0.031220427
000010 e0 89 01 3e 65 7c d0 3d a7 79 18 3c 0b 1a ec 3d
       0.12650251 0.101799764 0.009306348 0.11528405
000020 8c ef 37 3d ff 6b da 3c 13 40 09 bd 5e be 26 ba
       0.044906184 0.026662825 -0.03350837 -0.00063607644
000030 94 b3 46 3d ee 41 d1 bc bc b6 5a bc 84 39 d6 3c
       0.048511103 -0.025544133 -0.013349231 0.026150472
000040 fe 60 95 3c d5 de bf ba 17 bc cb 3b 0e 4a 8b 3c
       0.018234726 -0.0014638553 0.0062174904 0.017003085
000050 3e fc 2f bd 7f 61 ab 3b 83 d2 ed bb 0c 21 17 bd
       -0.042965166 0.0052301283 -0.007257761 -0.03689675
000060 37 6b b6 3c 8a 09 ec bc de 3e ca bc 11 c9 41 bc
       0.02226792 -0.028813142 -0.02468818 -0.011827723
000070 87 76 dc 3d 40 89 5c bd 10 55 c6 bc 74 36 9c 3d
       0.10764795 -0.05384183 -0.024210483 0.076275736
000080 8f 5b a9 3d 88 03 b9 bc 20 22 f9 bd 33 77 96 3d
       0.082694165 -0.022584692 -0.12164712 0.07346954
000090 db 18 56 ba 7f c6 21 3d 27 89 47 3d 5a 0f 84 3b
       -0.0008167156 0.03949594 0.048714783 0.0040301504
0000a0 9a 15 73 bc 0e 60 4b 3d e2 f9 0a bb 69 e5 30 3b
       -0.014836693 0.04965215 -0.002120607 0.0026992208
0000b0 4a 03 ad 3a 82 5a 1b bb bd 94 f3 bc 5a 6c 90 3c
       0.0013199833 -0.002370507 -0.02973401 0.017629791
0000c0 90 bd 3c bc 85 61 24 bd e3 09 0c 3d 0a c1 6d 3a
       -0.011519805 -0.040132064 0.034189116 0.00090695976
0000d0 c3 e6 06 bb 74 df c7 bc cf 13 be bb f7 e2 f6 bc
       -0.0020584322 -0.024398543 -0.005800701 -0.030137522
0000e0 1d ee b9 bc fc fd 84 3c da 85 3a ba ae 17 98 bc
       -0.02269655 0.01623439 -0.00071152824 -0.018565979
0000f0 e7 13 38 bc bb 25 4b 3d 27 70 a1 bd d8 48 9a 3c
       -0.011235214 0.04959653 -0.078827195 0.018833563
000100 2f a7 60 3c ae 39 26 bd 46 bf 5f bc 80 e4 3a bd
       0.013711735 -0.04058235 -0.013656443 -0.04562807
000110 0f 46 cd 3c 35 03 cd 3c c2 58 12 3d 7f c3 69 bd
       0.02505782 0.025025943 0.035729177 -0.057071205
000120 4f 2f 23 bc 10 0b 4f bd 75 55 1a bd 9c 1b 31 3d
       -0.00996001 -0.05054766 -0.037679154 0.04323922
000130 d2 f2 df 3c d2 99 d3 3d a6 85 33 bc 17 b6 bb 3c
       0.027337465 0.10332073 -0.010957157 0.022913976
000140 69 07 df 3c 0b 29 9c 3d 8c 1c d9 3d 54 38 74 3d
       0.027225213 0.07625016 0.10601148 0.05962403
000150 6d a3 af 3d 32 e3 30 3d 54 02 9b 3c 1b f2 c7 3d
       0.08576093 0.04318542 0.018922009 0.09762975
000160 67 4e ae 3d c3 d9 48 3d 82 b8 38 3d ad 53 00 3d
       0.08511048 0.0490358 0.045097835 0.0313298
000170 04 c0 47 bc ee 7e a2 3d a5 30 21 bd 96 79 9b bd
       -0.012191776 0.07934366 -0.03935303 -0.0759155
000180 8b 3f 60 3c 58 d5 3f bd eb 9e e2 3c f8 18 26 bd
       0.013687025 -0.04683432 0.027663669 -0.040551156
000190 09 20 5a 3d 57 41 99 bc 00 9e 3d bd 40 3a a2 3d
       0.053253207 -0.018707914 -0.04629326 0.079212666
0001a0 0e a8 c2 3c 83 f6 14 bd 6f 8c c5 3c 87 29 7c 3d
       0.023761775 -0.036367904 0.024114816 0.06156304
0001b0 fc 7e e2 3b 1d 7b 20 3d 3d 66 f7 bd 90 82 9d bd
       0.0069121104 0.03917991 -0.12080047 -0.076909184
0001c0 10 78 d2 bd ca e9 f2 bd 55 0e c6 bc 1d 57 14 3d
       -0.10276806 -0.11860998 -0.024176756 0.03621589
0001d0 4b 0c e5 bc dc bc aa bc 41 e6 e6 bc 03 36 6a bd
       -0.027959963 -0.020842008 -0.028185965 -0.057180416
0001e0 70 bb 0a 3d 61 f7 23 3d 32 fd 3d bd 05 ee 8c 3b
       0.03387016 0.04003084 -0.046384044 0.004300835
0001f0 3b b3 e1 3a 9e 61 ec bc c2 20 ce 3c 38 2e 72 3b
       0.0017219553 -0.028855141 0.025162105 0.0036953818
000200 bf 1c cf bb 25 9a ec bd a7 d9 0e 3d 25 0f 8a 3c
       -0.0063205655 -0.11552838 0.03487554 0.016852925
000210 5a b9 cf 3c 91 5b 00 bc d6 54 7d 3b 50 b6 23 bb
       0.025356937 -0.007834331 0.0038655302 -0.0024980493
000220 c8 cd 9c 3d e9 9c 86 3d 50 b8 0d 3d 00 6a 60 bb
       0.07656437 0.06572897 0.034599602 -0.0034242868
000230 8d aa b9 3c 9b 43 e9 3c 67 c6 e9 bc 4e f6 71 3b
       0.022664333 0.02847462 -0.028536988 0.003692049
000240 54 c7 23 3d e3 5f e4 3c c4 f1 f3 bc c3 29 00 bd
       0.039985016 0.027877754 -0.029778369 -0.031289827
000250 46 ec 01 bc 21 38 24 3c e5 34 17 bd 7e f1 13 3c
       -0.007929867 0.010023148 -0.03691568 0.009029744
000260 3b 0f ce 3c a9 cf 30 bb bd 66 c7 bc 91 43 9c 3c
       0.025153747 -0.0026979244 -0.024340982 0.019075187
000270 ae 31 a3 3c e2 62 a1 3d 39 98 4b bd 8b 3b 6a 3d
       0.01992115 0.078801885 -0.049705718 0.05718569
000280 07 ac b1 3b cf 9c d7 bd 18 fa 39 3b 09 2a ba bc
       0.0054221186 -0.10527956 0.0028377827 -0.022725122
000290 e9 ec 0c 3d ea 2d 09 3d ae 3b 6f bc a8 3f 5b bb
       0.034405623 0.033491053 -0.014601631 -0.003345469
0002a0 d0 97 b9 3b 9f d8 3a bd b3 ba 8c bb 05 a4 ac 3d
       0.0056638494 -0.045616742 -0.004294717 0.08429722
0002b0 7f fa 03 bc 2a 67 97 bc 27 aa 1b bc 07 f6 7f ba
       -0.008055328 -0.01848181 -0.009501017 -0.0009764139
0002c0 49 6a e1 bc 94 4c c6 3d e3 1f 59 bc 2e 37 76 3d
       -0.027516501 0.09682575 -0.013252231 0.060111217
0002d0 91 90 c9 bc 85 cc a2 bd f5 e8 a8 bc 29 17 d7 3b
       -0.024605067 -0.07949165 -0.020618895 0.00656404
0002e0 f6 51 35 bd 7c 68 d5 bc a7 bd 02 bd 81 8a aa bc
       -0.044267617 -0.026050799 -0.031919148 -0.020817997
0002f0 61 4a 30 bc 3c 0c 5b bd f4 94 58 bd 44 4a 2d bc
       -0.010759921 -0.053478464 -0.052876428 -0.010576788
000300 be 4b b1 3a af 62 b6 bd 21 a9 b6 3c 67 8c 0d 3d
       0.0013526601 -0.08905541 0.022297444 0.034557726
000310 ff ec 60 3d 36 59 24 3d 5e 8b a7 3b 6e a1 3a 3b
       0.054913517 0.04012414 0.0051130494 0.0028477567
000320 8a 03 c6 3d 70 7a 29 3c 15 92 05 3d 0b dc 79 bc
       0.09668644 0.010344133 0.032610018 -0.015250216
000330 ce fb 12 3c e8 cc 90 3d f5 99 d8 3d e5 2e 07 3c
       0.008971168 0.07070333 0.1057624 0.008250927
000340 df 6e 5d bc a9 f4 37 bc 9b a2 88 3d ea 56 ea bc
       -0.013515203 -0.011227765 0.066716395 -0.028605897
000350 7c dd 52 3c 11 3c 04 bd 48 bf 82 bd 82 0b da bc
       0.012870189 -0.032283846 -0.0638414 -0.026616815
000360 56 c0 bd bc 3f 55 34 bc 51 88 f9 3c 4b 90 41 3c
       -0.023163002 -0.011006652 0.030460509 0.011814187
000370 3f 61 2f 3b ee 8f fc bc e8 64 26 bd a3 02 9e 3d
       0.0026760844 -0.03083035 -0.040623575 0.07715347
000380 5d 58 c3 bb f0 10 c9 3c 5b 4e 8f 3c 60 b7 55 bc
       -0.0059614615 0.02454421 0.017493417 -0.013044208
000390 e6 f5 12 bc 4a 45 92 bd 12 18 30 bd ee e5 9b bc
       -0.00896976 -0.07142122 -0.042991705 -0.019030537
0003a0 4b a2 1a bc f9 ca 89 bd 55 b6 ad bb 60 32 b7 3d
       -0.009438108 -0.06728167 -0.0053012767 0.08945155
0003b0 82 2d 1d 3d b4 f4 d6 ba 3d 85 ba 3c 73 2b 34 3d
       0.038373478 -0.0016399832 0.022768611 0.04398675
0003c0 7a 29 2d 3a 32 99 24 3c d2 99 09 3d f3 4a 10 bd
       0.0006605607 0.01004629 0.03359396 -0.035227727
0003d0 fc 1d 05 3d 4f ff 9b bd 02 26 34 bd 1b 6e 50 bd
       0.0324993 -0.076170556 -0.04398156 -0.050886255
0003e0 56 ce 96 bc 12 36 1f 3c d4 42 70 bd 7b 48 28 3d
       -0.018408936 0.009717481 -0.058657482 0.041084748
0003f0 4a db 16 3d dd d3 f6 bc e2 01 85 bd 09 ce 90 3c
       0.036830224 -0.030130321 -0.064945 0.01767637

layer2.conv2.bias f4 [64]
000000 8d e0 46 bb 68 f8 8e bc 14 80 f9 39 79 c6 8a bc
       -0.0030346245 -0.017452434 0.00047588407 -0.016940342
000010 07 09 4c 3d 18 a6 95 bb 00 a0 cf 3b be 27 8d bc
       0.049813297 -0.004566919 0.006336212 -0.017230865
000020 35 c1 4e 3c 2e 5f 03 bd 47 47 f6 3b d2 06 0a 3d
       0.012619306 -0.032073192 0.007515821 0.03369791
000030 4a 05 99 bc 44 f9 94 ba 41 5f a6 3c bb 34 c3 af
       -0.01867928 -0.0011365791 0.020309092 -3.550776e-10
000040 24 9e 11 bd cb e2 60 bd 71 1a 17 3d 09 14 e8 3c
       -0.035551205 -0.054903787 0.03689045 0.028329866
000050 15 f2 ff 3c 39 70 d7 bc 27 81 35 3c 09 97 46 3b
       0.031243363 -0.02629863 0.011078156 0.0030302426
000060 17 7c ca bc 74 8b 41 bd bb 9c 12 3d a8 ba 34 bc
       -0.024717374 -0.047252133 0.035794 -0.01103083
000070 f2 4b 62 bd 0a 68 1c bd 26 ca 5e bd 98 f5 ec 3c
       -0.05524821 -0.038185157 -0.054392003 0.028925702
000080 c0 0b e9 3c 72 4c ea 3c 16 04 d2 bb 89 2b bb 3c
       0.028447986 0.028600905 -0.0064091785 0.022847908
000090 4e 52 f6 bb bd 5a 81 3c c9 58 0e 3a fc 65 f5 bb
       -0.0075171357 0.015790338 0.00054301 -0.007488964
0000a0 72 f2 4c 3d 32 dd 6b bd 6e c8 ff bc 8f b5 17 bd
       0.0500359 -0.057583995 -0.031223502 -0.037038382
0000b0 44 f9 8e 3c 38 52 10 3d c6 2f 4e 3d 1a d4 8e 3b
       0.017452843 0.03523466 0.05033853 0.0043587806
0000c0 5a 0f b4 3c 80 3e e8 bc d7 0b bb 3c 20 b1 45 bd
       0.021979976 -0.028350115 0.022832794 -0.048264623
0000d0 6c 99 62 bd 29 dd 50 3c 69 33 30 3d 8a 31 40 bb
       -0.055322096 0.012748041 0.04301778 -0.0029326403
0000e0 16 b9 36 3b 4f 82 53 3c 5d 75 fd bc 85 25 48 bd
       0.0027881316 0.012909486 -0.030939752 -0.048863906
0000f0 6c f2 27 bc 4e 0c 9a 3c ec f5 14 3c 60 14 6d 3c
       -0.010250669 0.018804695 0.0090918355 0.01447019

fc1.weight f4 [1, 3200]
000000 b4 11 d1 bb 6b e2 cd bc 2f 52 bc 3c d3 d0 ba 3a
       -0.006380284 -0.025132379 0.022988407 0.0014252908
000010 32 b0 b1 bc e6 d6 33 3d d4 c5 92 bc d0 cb ad bc
       -0.021690462 0.043906115 -0.017916597 -0.02121535
000020 73 55 18 bc 82 af b1 bb a5 ea a5 ba 8d 4a 80 bc
       -0.009297716 -0.0054225335 -0.001265843 -0.015660549
000030 89 66 32 3d 6c 67 cb bc 62 24 5e 3d 3c a5 5f bc
       0.043554816 -0.024829589 0.054233916 -0.013650235
000040 76 c1 aa bc c4 e6 3a bc 3a 48 ed 3a c8 22 ec bc
       -0.020844202 -0.011407558 0.001810319 -0.028825179
000050 c3 19 aa 38 32 a0 88 bb 0e 75 a0 b9 dd b3 ed ba
       8.11103e-05 -0.0041694874 -0.0003060479 -0.0018135268
000060 39 49 d1 3d de 3c de 3a 89 7b 0f bc 7c 0c 54 ba
       0.10219044 0.0016955396 -0.00875748 -0.00080890185
000070 ee b2 c8 bc 90 a0 04 bd a2 75 ae b9 b3 ac 00 00
       -0.024499383 -0.032379687 -0.0003327551 6.1953e-41
000080 24 55 02 00 34 43 87 bc e5 7c 09 3e 8d 21 d0 3d
       2.14214e-40 -0.016511537 0.1342655 0.10162649
000090 08 ba 00 80 63 6b 00 00 cd 72 38 bd 57 72 83 3c
       -6.6735e-41 3.8523e-41 -0.045031358 0.016045732
0000a0 59 81 47 bb d6 48 00 80 5d 4b 00 80 75 6d 4e ba
       -0.0030442087 -2.6129e-41 -2.7035e-41 -0.0007874587
0000b0 00 3c f8 3c f7 63 b5 3d 87 a5 00 00 0b be 25 3b
       0.030302048 0.088569574 5.938e-41 0.0025290276
0000c0 5d 90 b5 3c 00 a8 b3 bc 0e a3 00 00 b6 bb 19 32
       0.022163564 -0.021930695 5.8493e-41 8.948453e-09
0000d0 ce ac 96 ba 28 85 8f b8 e8 38 01 80 b7 67 92 2b
       -0.0011495592 -6.843574e-05 -1.1225e-40 1.0402711e-12
0000e0 2f 22 30 39 3b 38 81 ba bb 28 2a 38 47 32 02 80
       0.00016797402 -0.0009858677 4.056909e-05 -2.01707e-40
0000f0 37 8a 0b a2 95 81 a5 b7 7f 6e 58 3c ec 11 0d 3b
       -1.8911183e-18 -1.9729874e-05 0.013209938 0.0021525575
000100 63 37 02 80 d8 d2 00 80 15 2e 2e 39 16 f8 33 3c
       -2.0354e-40 -7.5636e-41 0.000166111 0.010984441
000110 c8 d9 dd ba 42 20 00 00 63 2c 00 00 78 3d 25 b8
       -0.0016925866 1.1572e-41 1.5923e-41 -3.9396313e-05
000120 e0 35 5f b9 c4 fb 0b ba 65 3d 81 90 f0 53 01 00
       -0.00021287007 -0.0005339945 -5.097612e-29 1.21947e-40
000130 cd 64 82 b8 f9 b1 27 bb c2 04 9b 38 aa 1f 00 80
       -6.217659e-05 -0.0025588258 7.391862e-05 -1.1359e-41
000140 41 46 02 80 07 a2 85 31 5a eb 02 39 22 2a 2b b5
       -2.08873e-40 3.88923e-09 0.00012485441 -6.3763775e-07
000150 1b 42 01 80 9d 2f 01 00 93 6d 06 35 98 8d 3b 38
       -1.1555e-40 1.08916e-40 5.007834e-07 4.4716144e-05
000160 36 cc ae b6 44 06 02 00 cb f1 01 00 b0 0f 01 80
       -5.2093774e-06 1.85919e-40 1.78574e-40 -9.7463e-41
000170 cb 0f 58 1c f0 5d 01 00 46 ab 00 00 a8 70 01 00
       7.1488817e-22 1.25534e-40 6.1441e-41 1.32249e-40
000180 cd 38 00 00 61 66 a3 a7 36 8f 01 00 e0 b8 00 80
       2.0376e-41 -4.5352588e-15 1.4321e-40 -6.632e-41
000190 2d bf d8 3b 56 e5 d5 b9 72 5c 55 b8 71 26 9b 3c
       0.006614587 -0.00040797394 -5.0869254e-05 0.018939229
0001a0 df f0 31 3d c2 3f 14 bd 9d 06 24 39 00 e6 61 bb
       0.043442603 -0.036193617 0.00015642722 -0.0034469366
0001b0 f7 07 c1 bb 7e 99 c2 ba 7f 27 b2 bb ad 48 ba ba
       -0.005890842 -0.001484677 -0.005436837 -0.0014212333
0001c0 23 60 0c bb 3e 2e 4c bc ff 11 5e 3d b6 12 b7 ba
       -0.0021419607 -0.012462197 0.05421638 -0.0013967368
0001d0 7e 89 01 3d d5 99 a6 ba 3f 3b a9 3c cd 6c 1a bc
       0.031625263 -0.001271064 0.020658134 -0.009425354
0001e0 50 27 ff 3b 28 c6 ec 3a d7 74 39 bb dd 32 2e 3b
       0.007786669 0.0018064426 -0.0028298402 0.002658061
0001f0 dc 3a 8d bc 99 fc 44 bc 25 0d 22 bc 24 99 19 b9
       -0.01723998 -0.012023115 -0.009890829 -0.00014648266
000200 84 9e 82 bc d4 c2 c4 3a 8c f5 94 bb d7 9d 1a bb
       -0.015944727 0.0015011677 -0.004545873 -0.0023592615
000210 e6 d6 b7 3a 77 8c 85 ba 56 40 a8 bb 45 f9 04 3c
       0.0014025837 -0.0010188957 -0.0051346226 0.008116071
000220 51 15 51 3b d4 6c b1 3a a4 c6 1a 3b 16 a6 d7 3b
       0.0031903575 0.0013536462 0.0023616934 0.0065810783
000230 a9 53 84 3b af e5 37 bb 77 fc 4f b9 6c 70 d1 b8
       0.0040382934 -0.0028060486 -0.00019835109 -9.986837e-05
000240 72 80 9f 3b fc e1 78 bb 62 be 3b ba 7b b0 a5 b9
       0.004867607 -0.0037976494 -0.0007161853 -0.0003160274
000250 24 6c 7b 3a 86 10 c9 bb 86 3f 6e bb 05 05 7a 3b
       0.00095910043 -0.006136003 -0.003635378 0.0038149965
000260 b7 6d 7a 39 ac 47 71 3b b6 c7 26 bd e5 58 c8 3b
       0.0002388273 0.0036816401 -0.040717803 0.0061141127
000270 30 91 1d 3c 39 c4 7f bb 01 58 0f 3c ae f1 75 bc
       0.009617135 -0.003902687 0.008749009 -0.015011234
000280 11 43 00 00 62 f9 64 12 0e 9f 3d 3b 9a 90 c5 3c
       2.4059e-41 7.2251503e-28 0.0028933915 0.024116803
000290 c1 0b 9b 3c 61 73 9d bb 98 39 4e 3b e1 a6 82 b8
       0.018926503 -0.004805014 0.0031467434 -6.229967e-05
0002a0 46 a7 cc 3b a9 6a f4 3b 46 9b 05 39 6a 22 63 3b
       0.0062455265 0.007459004 0.00012741712 0.0034657964
0002b0 c3 32 ae bb fe 25 8e bc 0e d7 b0 3c 74 24 7d 3c
       -0.00531611 -0.0173521 0.021586921 0.015450586
0002c0 f0 16 2c bb 2a 57 8a 3b a3 d9 25 3c d6 a4 9c bb
       -0.002625879 0.0042218165 0.010122689 -0.004780392
0002d0 55 39 a0 3b dd 14 e1 39 73 0d 66 bb b1 fb 53 3b
       0.004889647 0.0004293089 -0.0035103231 0.0032346065
0002e0 1b 67 b0 3c d4 9c 18 bd 8b 12 95 bc 22 74 00 3b
       0.02153354 -0.037258938 -0.018197319 0.001960047
0002f0 ce 8e f5 bc ed 4b 64 3b c8 de 69 3b a5 fe 00 80
       -0.029975321 0.0034835294 0.0035685766 -9.1349e-41
000300 77 8a e2 bb 80 5c dd bc 10 18 99 bb be b5 89 bc
       -0.006913479 -0.027021646 -0.004672058 -0.016810294
000310 62 3e 0c 3c 91 ae 9a bb 04 fd 70 3c fc 29 dc bb
       0.008559795 -0.004720517 0.014708761 -0.006718872
000320 4f 8d 60 bb 7b 51 5e 3c 19 d4 c0 3c 9d 86 95 3c
       -0.0034263914 0.013569231 0.023538636 0.018252665
000330 9b f3 cf 3d 58 16 73 3c ad 1e 0d 3c a3 75 a4 bc
       0.10153886 0.01483687 0.008613271 -0.020075625
000340 1b 59 52 3a ec b0 54 bc df c5 00 00 31 ff cb b9
       0.0008024142 -0.012981635 7.0983e-41 -0.0003890931
000350 6e 6c 6c bb b6 97 04 bb 2b 27 95 3d 4c 21 02 80
       -0.0036075371 -0.0020232028 0.07282861 -1.95616e-40
000360 9d 29 14 3b e0 bc 31 3b 55 ce 75 bc 03 9e 15 3d
       0.0022607811 0.0027120635 -0.015002807 0.036527645
000370 cd 11 02 00 e4 e7 8b 3b 19 fb a4 3b c8 5e a3 3c
       1.90057e-40 0.004269587 0.005034816 0.019942656
000380 13 b2 d1 3b 98 bb ee 3b 5b 7b 8b 3d b3 b7 07 bc
       0.006399402 0.0072855465 0.068106376 -0.008283543
000390 1a 1d fc bb c4 33 f1 bc 1f b5 00 80 c9 11 a3 37
       -0.007693899 -0.02944363 -6.4974e-41 1.9439396e-05
0003a0 00 68 0c bc 34 96 61 3b 76 e1 32 bd bd 46 06 bb
       -0.008569717 0.0034421803 -0.043672048 -0.002048894
0003b0 eb c0 69 3b 49 2d f7 3a 82 e5 b1 bc d5 5f 01 3c
       0.0035667967 0.00188581 -0.021715883 0.007896383
0003c0 3d ef 08 bb 78 f8 1a 27 5b ff c6 af 99 ca 5d bd
       -0.002089455 2.1506488e-15 -3.619743e-10 -0.05414829
0003d0 88 f4 dd bd 59 2b 90 bb 63 5d 47 3c fe f6 27 39
       -0.10837656 -0.0043996987 0.012168261 0.00016018373
0003e0 94 aa 16 39 16 cd be bb a8 b3 15 bc 8e 5c a3 bb
       0.0001436866 -0.005822788 -0.009137072 -0.0049853986
0003f0 4b 2c 49 39 81 22 0e bc 28 8a 69 bb f6 79 5c 3d
       0.00019185354 -0.008675219 -0.0035635326 0.05382725

out.0.weight f4 [1, 3200]
000000 b4 11 d1 bb 6b e2 cd bc 2f 52 bc 3c d3 d0 ba 3a
       -0.006380284 -0.025132379 0.022988407 0.0014252908
000010 32 b0 b1 bc e6 d6 33 3d d4 c5 92 bc d0 cb ad bc
       -0.021690462 0.043906115 -0.017916597 -0.02121535
000020 73 55 18 bc 82 af b1 bb a5 ea a5 ba 8d 4a 80 bc
       -0.009297716 -0.0054225335 -0.001265843 -0.015660549
000030 89 66 32 3d 6c 67 cb bc 62 24 5e 3d 3c a5 5f bc
       0.043554816 -0.024829589 0.054233916 -0.013650235
000040 76 c1 aa bc c4 e6 3a bc 3a 48 ed 3a c8 22 ec bc
       -0.020844202 -0.011407558 0.001810319 -0.028825179
000050 c3 19 aa 38 32 a0 88 bb 0e 75 a0 b9 dd b3 ed ba
       8.11103e-05 -0.0041694874 -0.0003060479 -0.0018135268
000060 39 49 d1 3d de 3c de 3a 89 7b 0f bc 7c 0c 54 ba
       0.10219044 0.0016955396 -0.00875748 -0.00080890185
000070 ee b2 c8 bc 90 a0 04 bd a2 75 ae b9 b3 ac 00 00
       -0.024499383 -0.032379687 -0.0003327551 6.1953e-41
000080 24 55 02 00 34 43 87 bc e5 7c 09 3e 8d 21 d0 3d
       2.14214e-40 -0.016511537 0.1342655 0.10162649
000090 08 ba 00 80 63 6b 00 00 cd 72 38 bd 57 72 83 3c
       -6.6735e-41 3.8523e-41 -0.045031358 0.016045732
0000a0 59 81 47 bb d6 48 00 80 5d 4b 00 80 75 6d 4e ba
       -0.0030442087 -2.6129e-41 -2.7035e-41 -0.0007874587
0000b0 00 3c f8 3c f7 63 b5 3d 87 a5 00 00 0b be 25 3b
       0.030302048 0.088569574 5.938e-41 0.0025290276
0000c0 5d 90 b5 3c 00 a8 b3 bc 0e a3 00 00 b6 bb 19 32
       0.022163564 -0.021930695 5.8493e-41 8.948453e-09
0000d0 ce ac 96 ba 28 85 8f b8 e8 38 01 80 b7 67 92 2b
       -0.0011495592 -6.843574e-05 -1.1225e-40 1.0402711e-12
0000e0 2f 22 30 39 3b 38 81 ba bb 28 2a 38 47 32 02 80
       0.00016797402 -0.0009858677 4.056909e-05 -2.01707e-40
0000f0 37 8a 0b a2 95 81 a5 b7 7f 6e 58 3c ec 11 0d 3b
       -1.8911183e-18 -1.9729874e-05 0.013209938 0.0021525575
000100 63 37 02 80 d8 d2 00 80 15 2e 2e 39 16 f8 33 3c
       -2.0354e-40 -7.5636e-41 0.000166111 0.010984441
000110 c8 d9 dd ba 42 20 00 00 63 2c 00 00 78 3d 25 b8
       -0.0016925866 1.1572e-41 1.5923e-41 -3.9396313e-05
000120 e0 35 5f b9 c4 fb 0b ba 65 3d 81 90 f0 53 01 00
       -0.00021287007 -0.0005339945 -5.097612e-29 1.21947e-40
000130 cd 64 82 b8 f9 b1 27 bb c2 04 9b 38 aa 1f 00 80
       -6.217659e-05 -0.0025588258 7.391862e-05 -1.1359e-41
000140 41 46 02 80 07 a2 85 31 5a eb 02 39 22 2a 2b b5
       -2.08873e-40 3.88923e-09 0.00012485441 -6.3763775e-07
000150 1b 42 01 80 9d 2f 01 00 93 6d 06 35 98 8d 3b 38
       -1.1555e-40 1.08916e-40 5.007834e-07 4.4716144e-05
000160 36 cc ae b6 44 06 02 00 cb f1 01 00 b0 0f 01 80
       -5.2093774e-06 1.85919e-40 1.78574e-40 -9.7463e-41
000170 cb 0f 58 1c f0 5d 01 00 46 ab 00 00 a8 70 01 00
       7.1488817e-22 1.25534e-40 6.1441e-41 1.32249e-40
000180 cd 38 00 00 61 66 a3 a7 36 8f 01 00 e0 b8 00 80
       2.0376e-41 -4.5352588e-15 1.4321e-40 -6.632e-41
000190 2d bf d8 3b 56 e5 d5 b9 72 5c 55 b8 71 26 9b 3c
       0.006614587 -0.00040797394 -5.0869254e-05 0.018939229
0001a0 df f0 31 3d c2 3f 14 bd 9d 06 24 39 00 e6 61 bb
       0.043442603 -0.036193617 0.00015642722 -0.0034469366
0001b0 f7 07 c1 bb 7e 99 c2 ba 7f 27 b2 bb ad 48 ba ba
       -0.005890842 -0.001484677 -0.005436837 -0.0014212333
0001c0 23 60 0c bb 3e 2e 4c bc ff 11 5e 3d b6 12 b7 ba
       -0.0021419607 -0.012462197 0.05421638 -0.0013967368
0001d0 7e 89 01 3d d5 99 a6 ba 3f 3b a9 3c cd 6c 1a bc
       0.031625263 -0.001271064 0.020658134 -0.009425354
0001e0 50 27 ff 3b 28 c6 ec 3a d7 74 39 bb dd 32 2e 3b
       0.007786669 0.0018064426 -0.0028298402 0.002658061
0001f0 dc 3a 8d bc 99 fc 44 bc 25 0d 22 bc 24 99 19 b9
       -0.01723998 -0.012023115 -0.009890829 -0.00014648266
000200 84 9e 82 bc d4 c2 c4 3a 8c f5 94 bb d7 9d 1a bb
       -0.015944727 0.0015011677 -0.004545873 -0.0023592615
000210 e6 d6 b7 3a 77 8c 85 ba 56 40 a8 bb 45 f9 04 3c
       0.0014025837 -0.0010188957 -0.0051346226 0.008116071
000220 51 15 51 3b d4 6c b1 3a a4 c6 1a 3b 16 a6 d7 3b
       0.0031903575 0.0013536462 0.0023616934 0.0065810783
000230 a9 53 84 3b af e5 37 bb 77 fc 4f b9 6c 70 d1 b8
       0.0040382934 -0.0028060486 -0.00019835109 -9.986837e-05
000240 72 80 9f 3b fc e1 78 bb 62 be 3b ba 7b b0 a5 b9
       0.004867607 -0.0037976494 -0.0007161853 -0.0003160274
000250 24 6c 7b 3a 86 10 c9 bb 86 3f 6e bb 05 05 7a 3b
       0.00095910043 -0.006136003 -0.003635378 0.0038149965
000260 b7 6d 7a 39 ac 47 71 3b b6 c7 26 bd e5 58 c8 3b
       0.0002388273 0.0036816401 -0.040717803 0.0061141127
000270 30 91 1d 3c 39 c4 7f bb 01 58 0f 3c ae f1 75 bc
       0.009617135 -0.003902687 0.008749009 -0.015011234
000280 11 43 00 00 62 f9 64 12 0e 9f 3d 3b 9a 90 c5 3c
       2.4059e-41 7.2251503e-28 0.0028933915 0.024116803
000290 c1 0b 9b 3c 61 73 9d bb 98 39 4e 3b e1 a6 82 b8
       0.018926503 -0.004805014 0.0031467434 -6.229967e-05
0002a0 46 a7 cc 3b a9 6a f4 3b 46 9b 05 39 6a 22 63 3b
       0.0062455265 0.007459004 0.00012741712 0.0034657964
0002b0 c3 32 ae bb fe 25 8e bc 0e d7 b0 3c 74 24 7d 3c
       -0.00531611 -0.0173521 0.021586921 0.015450586
0002c0 f0 16 2c bb 2a 57 8a 3b a3 d9 25 3c d6 a4 9c bb
       -0.002625879 0.0042218165 0.010122689 -0.004780392
0002d0 55 39 a0 3b dd 14 e1 39 73 0d 66 bb b1 fb 53 3b
       0.004889647 0.0004293089 -0.0035103231 0.0032346065
0002e0 1b 67 b0 3c d4 9c 18 bd 8b 12 95 bc 22 74 00 3b
       0.02153354 -0.037258938 -0.018197319 0.001960047
0002f0 ce 8e f5 bc ed 4b 64 3b c8 de 69 3b a5 fe 00 80
       -0.029975321 0.0034835294 0.0035685766 -9.1349e-41
000300 77 8a e2 bb 80 5c dd bc 10 18 99 bb be b5 89 bc
       -0.006913479 -0.027021646 -0.004672058 -0.016810294
000310 62 3e 0c 3c 91 ae 9a bb 04 fd 70 3c fc 29 dc bb
       0.008559795 -0.004720517 0.014708761 -0.006718872
000320 4f 8d 60 bb 7b 51 5e 3c 19 d4 c0 3c 9d 86 95 3c
       -0.0034263914 0.013569231 0.023538636 0.018252665
000330 9b f3 cf 3d 58 16 73 3c ad 1e 0d 3c a3 75 a4 bc
       0.10153886 0.01483687 0.008613271 -0.020075625
000340 1b 59 52 3a ec b0 54 bc df c5 00 00 31 ff cb b9
       0.0008024142 -0.012981635 7.0983e-41 -0.0003890931
000350 6e 6c 6c bb b6 97 04 bb 2b 27 95 3d 4c 21 02 80
       -0.0036075371 -0.0020232028 0.07282861 -1.95616e-40
000360 9d 29 14 3b e0 bc 31 3b 55 ce 75 bc 03 9e 15 3d
       0.0022607811 0.0027120635 -0.015002807 0.036527645
000370 cd 11 02 00 e4 e7 8b 3b 19 fb a4 3b c8 5e a3 3c
       1.90057e-40 0.004269587 0.005034816 0.019942656
000380 13 b2 d1 3b 98 bb ee 3b 5b 7b 8b 3d b3 b7 07 bc
       0.006399402 0.0072855465 0.068106376 -0.008283543
000390 1a 1d fc bb c4 33 f1 bc 1f b5 00 80 c9 11 a3 37
       -0.007693899 -0.02944363 -6.4974e-41 1.9439396e-05
0003a0 00 68 0c bc 34 96 61 3b 76 e1 32 bd bd 46 06 bb
       -0.008569717 0.0034421803 -0.043672048 -0.002048894
0003b0 eb c0 69 3b 49 2d f7 3a 82 e5 b1 bc d5 5f 01 3c
       0.0035667967 0.00188581 -0.021715883 0.007896383
0003c0 3d ef 08 bb 78 f8 1a 27 5b ff c6 af 99 ca 5d bd
       -0.002089455 2.1506488e-15 -3.619743e-10 -0.05414829
0003d0 88 f4 dd bd 59 2b 90 bb 63 5d 47 3c fe f6 27 39
       -0.10837656 -0.0043996987 0.012168261 0.00016018373
0003e0 94 aa 16 39 16 cd be bb a8 b3 15 bc 8e 5c a3 bb
       0.0001436866 -0.005822788 -0.009137072 -0.0049853986
0003f0 4b 2c 49 39 81 22 0e bc 28 8a 69 bb f6 79 5c 3d
       0.00019185354 -0.008675219 -0.0035635326 0.05382725

exp_avg f4 [32, 2, 5, 5]
000000 c5 4b fd 39 0f db b9 39 71 2a 3e 39 e5 0a 84 38
       0.00048312373 0.0003544916 0.00018135623 6.29628e-05
000010 e9 ad 80 b7 0f 2b 01 3a ef d7 b7 39 44 1c 3c 39
       -1.5339772e-05 0.00049273757 0.00035065363 0.00017939607
000020 90 9c 95 38 de da 55 b7 cf 3f e1 39 a2 93 a1 39
       7.134036e-05 -1.2746748e-05 0.00042962885 0.00030818308
000030 65 02 0f 39 eb 6c 1c 38 e3 f0 d3 b7 7f d5 a8 39
       0.00013638435 3.7294736e-05 -2.5265332e-05 0.00032202524
000040 01 23 67 39 e4 a2 ae 38 70 01 c5 36 c4 a3 35 b8
       0.00022042917 8.327307e-05 5.871225e-06 -4.330628e-05
000050 39 45 5b 39 a3 28 02 39 29 7e ac 37 e3 ca f2 b7
       0.00020911255 0.00012412904 2.0562746e-05 -2.8943125e-05
000060 a2 a7 4d b8 b3 1e fe 39 07 db af 39 b0 f7 35 39
       -4.903193e-05 0.00048469528 0.0003354179 0.00017353776
000070 b8 eb 57 38 d2 98 5d b7 39 e5 00 3a dc a9 b7 39
       5.1479525e-05 -1.3208208e-05 0.00049169693 0.00035031035
000080 f4 b8 3b 39 5b 34 58 38 52 fb 86 b7 45 1f e5 39
       0.0001790261 5.1547173e-05 -1.6091075e-05 0.0004370158
000090 22 e3 a0 39 cb 4a 1c 39 6c 65 2d 38 36 d0 b9 b7
       0.00030686805 0.00014905182 4.134087e-05 -2.2150674e-05
0000a0 92 c2 af 39 4c 65 71 39 a5 e6 c8 38 dd dc ef 36
       0.00033523567 0.00023021287 9.579704e-05 7.148467e-06
0000b0 0d 58 17 b8 79 76 84 39 ea 32 2c 39 9d eb 7d 38
       -3.608321e-05 0.0002526527 0.00016422165 6.0539332e-05
0000c0 22 6f f9 35 02 2a dd b7 6c 1d 2b 38 27 82 1f 38
       1.858429e-06 -2.6364814e-05 4.079698e-05 3.8029768e-05
0000d0 91 df c3 37 1c 0e 8e 37 c1 62 f6 36 2e 9f 81 38
       2.3349918e-05 1.693429e-05 7.342868e-06 6.180849e-05
0000e0 88 87 70 38 9c 8b 20 38 6c da de 37 8d 25 97 37
       5.7346682e-05 3.8276994e-05 2.6566173e-05 1.8018089e-05
0000f0 2e 76 a9 38 db 15 9d 38 c1 52 53 38 94 0e 0e 38
       8.080561e-05 7.490414e-05 5.038339e-05 3.3869015e-05
000100 86 b4 aa 37 e2 da ca 38 02 11 b3 38 95 4e 76 38
       2.0349642e-05 9.672881e-05 8.538553e-05 5.8724156e-05
000110 62 fc 2c 38 b0 b9 b7 37 78 ef ca 38 7b 57 c1 38
       4.1243045e-05 2.1901767e-05 9.676715e-05 9.219252e-05
000120 4f ff 88 38 3b fd 40 38 98 da d9 37 65 80 90 38
       6.53254e-05 4.6012206e-05 2.5970206e-05 6.8903704e-05
000130 14 f2 73 38 9f cd 31 38 76 76 ef 37 61 66 99 37
       5.8161168e-05 4.2391588e-05 2.8546183e-05 1.8286695e-05
000140 34 0f c8 38 25 82 b8 38 15 a3 85 38 25 53 37 38
       9.539575e-05 8.798045e-05 6.3723106e-05 4.3708034e-05
000150 b4 7e d2 37 dd 78 07 39 e3 e8 ee 38 93 ad b7 38
       2.5092952e-05 0.00012919628 0.00011392103 8.758451e-05
000160 7f 12 70 38 0d 7e 20 38 79 f6 20 39 ac 6c 16 39
       5.7237685e-05 3.8264367e-05 0.00015350607 0.00014345598
000170 d8 d9 ea 38 ad b8 97 38 86 39 31 38 c1 c6 2f 39
       0.00011198566 7.2346396e-05 4.225366e-05 0.00016763342
000180 9d ec 20 39 a5 11 ec 38 e8 a4 9f 38 cb 86 44 38
       0.00015346934 0.000112566435 7.612427e-05 4.6855577e-05
000190 f3 69 75 b8 3b fe ae b8 10 01 1e b9 0e b6 98 b9
       -5.8511225e-05 -8.344321e-05 -0.0001506845 -0.0002912734
0001a0 0b 09 f0 b9 97 18 60 b8 79 3c 81 b8 5b 0d 01 b9
       -0.00045783105 -5.3428663e-05 -6.162463e-05 -0.00012307374
0001b0 94 56 58 b9 23 e8 b8 b9 4b ca fa b7 e4 07 01 b8
       -0.00020631618 -0.0003526817 -2.9896522e-05 -3.0763345e-05
0001c0 c0 f2 80 b8 a2 76 04 b9 63 49 74 b9 f0 8a c2 b7
       -6.148731e-05 -0.00012632695 -0.00023296992 -2.31913e-05
0001d0 eb 82 1a b7 05 0f 12 b7 51 17 44 b8 c0 e7 e2 b8
       -9.209597e-06 -8.705775e-06 -4.6751757e-05 -0.000108196866
0001e0 d0 e7 6e b6 67 36 c2 37 ad a5 41 38 a3 68 a1 37
       -3.5599696e-06 2.3151935e-05 4.6169083e-05 1.924142e-05
0001f0 14 c6 63 b7 40 fc 24 b8 f5 9e 39 b7 90 2b 85 b7
       -1.3576373e-05 -3.9335573e-05 -1.1063869e-05 -1.587512e-05
000200 c8 53 cd b8 c5 a9 84 b9 f5 88 0f b8 c3 cc a0 34
       -9.790767e-05 -0.0002530349 -3.4221408e-05 2.9951306e-07
000210 de ed df 37 34 55 5f b8 2c 26 42 b9 81 85 d5 b7
       2.6694437e-05 -5.3246695e-05 -0.00018515502 -2.5453746e-05
000220 c6 ea f7 37 ab 3a 89 38 32 ea a1 37 e3 c7 c0 b8
       2.955402e-05 6.543597e-05 1.9301751e-05 -9.192505e-05
000230 86 f8 e1 b6 00 45 35 38 49 06 ab 38 91 a7 7f 38
       -6.7344545e-06 4.3218024e-05 8.155086e-05 6.0952796e-05
000240 3a 0a c0 b7 4d bd 8b 37 f6 e5 81 38 65 e5 ce 38
       -2.2892946e-05 1.6658241e-05 6.194033e-05 9.8655735e-05
000250 36 8d c6 38 49 53 3c 38 17 12 c0 b9 f4 1a 8e b9
       9.467678e-05 4.490026e-05 -0.00036634572 -0.00027104432
000260 d2 ad 49 b9 ff 55 19 b9 61 de bb b8 eb c2 9c b9
       -0.00019233607 -0.00014623253 -8.958276e-05 -0.00029899864
000270 aa 5d 7c b9 6c 97 3f b9 c3 22 fe b8 93 b9 91 b8
       -0.00024067485 -0.00018271588 -0.00012118139 -6.948705e-05
000280 7c 47 0c b9 df 84 df b8 48 9c 88 b8 b8 78 c3 b7
       -0.0001337807 -0.00010658218 -6.514095e-05 -2.3302026e-05
000290 b4 ba 43 38 22 a3 4a b7 2f ba 28 b7 81 ad 6a 36
       4.6665504e-05 -1.2078121e-05 -1.005693e-05 3.496971e-06
0002a0 94 0e 12 38 90 96 d2 38 44 10 b8 38 31 cc 99 38
       3.482269e-05 0.00010041625 8.7768334e-05 7.333642e-05
0002b0 4d c9 97 38 c4 af bd 38 67 21 29 39 45 91 09 ba
       7.237736e-05 9.044961e-05 0.0001612954 -0.0005247782
0002c0 37 fd e6 b9 fe f2 b7 b9 f5 0c 84 b9 74 a1 36 b9
       -0.00044057678 -0.00035085523 -0.00025186656 -0.00017417019
0002d0 81 41 01 ba 24 8c eb b9 d2 9d c6 b9 15 08 96 b9
       -0.00049307203 -0.00044927106 -0.00037883088 -0.0002861625
0002e0 fe e1 33 b9 8f 65 a6 b9 00 e3 9a b9 1c 37 7e b9
       -0.00017154959 -0.00031737654 -0.00029542297 -0.00024243857
0002f0 bd 41 20 b9 71 de 5b b8 5f 9f 47 b9 e8 d4 44 b9
       -0.00015283278 -5.2420834e-05 -0.00019037489 -0.0001877133
000300 cc 5d 20 b9 6f a1 a3 b8 6b 66 36 37 a1 cc 50 b8
       -0.00015293731 -7.802515e-05 1.0871891e-05 -4.978164e-05
000310 a3 26 90 b8 47 5d 1f b8 c0 70 44 37 b5 6e 94 38
       -6.873652e-05 -3.7995425e-05 1.1708762e-05 7.077811e-05
000320 53 a7 27 ba c2 f2 07 ba f5 54 d5 b9 56 2f 9c b9
       -0.00063954777 -0.0005186015 -0.00040689824 -0.00029789907
000330 3a 01 2e b9 73 28 44 ba 26 fe 2c ba 22 2d 10 ba
       -0.0001659439 -0.0007482834 -0.00065991504 -0.00054998894
000340 4d 89 de b9 bd e2 91 b9 99 10 33 ba be 18 29 ba
       -0.00042445437 -0.00027825488 -0.00068307813 -0.0006450525
000350 56 c3 12 ba 55 d4 e8 b9 aa dc 8a b9 3e 3a 10 ba
       -0.00055985653 -0.00044408688 -0.0002648582 -0.0005501843
000360 c4 ce 14 ba ae ec 04 ba 8c 59 e2 b9 e4 69 92 b9
       -0.00056765624 -0.00050706684 -0.00043172797 -0.00027926185
000370 55 3b f0 b9 c7 85 0a ba ec 29 0f ba f4 6b 04 ba
       -0.00045820573 -0.00052842166 -0.0005461264 -0.00050514867
000380 55 7a bd b9 43 ad 3d ba eb cf 27 ba 84 90 0f ba
       -0.00036140034 -0.0007235596 -0.00064015266 -0.00054765516
000390 7c 9b e1 b9 ed c5 9f b9 1a 11 62 ba 62 6a 56 ba
       -0.0004303119 -0.0003047431 -0.0008623764 -0.00081793044
0003a0 14 26 40 ba da 76 1c ba 3f 91 ee b9 49 1f 4f ba
       -0.0007329893 -0.0005968638 -0.00045503114 -0.0007901085
0003b0 d5 30 4d ba 0f 5a 40 ba 05 8a 1e ba e6 cc ec b9
       -0.0007827406 -0.00073376385 -0.0006047788 -0.0004516609
0003c0 0d dd 2d ba 42 27 3c ba 00 61 3b ba a5 0b 1e ba
       -0.00066323654 -0.0007177481 -0.0007147938 -0.0006028957
0003d0 af 8d eb b9 9b 4c 14 ba 1a a9 36 ba 49 86 3f ba
       -0.00044928255 -0.0005657167 -0.0006967947 -0.0007306082
0003e0 ee 9c 2e ba 0a ff 0c ba ec 68 05 b8 d4 9c 7b 38
       -0.00066609576 -0.000537858 -3.1807387e-05 5.998912e-05
0003f0 52 31 77 38 bb a4 28 38 a3 cf 90 b4 d0 91 d4 38
       5.8935322e-05 4.020774e-05 -2.6973166e-07 0.000101361074
