results/2BS/T_1/L_1000/seed3/model_best.pth.tar (torch_old, 395617 bytes, 22 tensors)

layer1.conv.weight f4 [32, 2, 5, 5]
000000 43 65 0d 3d f4 0a 9b 3c 0d b8 02 bd 2c 82 68 3c
       0.0345204 0.018926121 -0.031913806 0.014191192
000010 b3 5f ca 3c ff 59 5a bd 45 fd b2 bc 61 8c 01 bd
       0.024703836 -0.053308483 -0.021849284 -0.031628016
000020 bb 04 8c bd 4b eb 2a bd 62 51 02 bd 52 f6 8c 3d
       -0.0683684 -0.0417283 -0.031815894 0.06882919
000030 99 04 2f bd 8c bd fd 3a ee e2 76 bc e7 70 ac 3b
       -0.042728994 0.0019358858 -0.015068753 0.0052624824
000040 5f b1 7a 3d 01 e0 b0 ba 25 c4 fd bc 7c 55 64 bb
       0.06120431 -0.0013494493 -0.030977318 -0.0034840992
000050 2d af 5e 3d 49 d3 06 3c 48 de 03 bd d9 c3 12 bd
       0.05436628 0.008229085 -0.032194406 -0.035831306
000060 eb d5 66 3b 29 45 89 3c 35 83 25 bd 28 c9 11 3e
       0.003522272 0.016756611 -0.040408332 0.14236891
000070 ca f5 d5 bb 1d fb 3b 3d 25 70 c4 bc 53 6b 92 3d
       -0.0065295445 0.045893777 -0.023979256 0.07149377
000080 26 a2 5c bc ab 0c 97 3d a8 1b 09 3d 9c 7d d2 bc
       -0.013466394 0.07375463 0.03347364 -0.02569466
000090 2e 4e 8a ba 80 b9 b0 bc da 29 52 bc 69 51 3e 3d
       -0.0010551864 -0.021572828 -0.012827361 0.046464358
0000a0 1e ae 41 3b 89 f2 b4 3d 49 9d c5 bc ef 26 b2 bc
       0.0029553245 0.088353224 -0.024122851 -0.02174708
0000b0 9e f2 ad 3b 6a 85 97 3c 7b 93 aa 3c 7a 45 77 3c
       0.0053084632 0.018496234 0.020822277 0.015092248
0000c0 7d f0 fb 3c fa 5e 0b bc 16 ec 09 3c 33 6c 1f bc
       0.030754322 -0.008506531 0.008418104 -0.009730387
0000d0 44 06 98 3b 4c 88 08 3d a7 45 04 3d c9 79 0e 3c
       0.004639419 0.033333108 0.03229299 0.008696028
0000e0 33 9e ac 3c 66 7d 90 3d 65 66 71 3d e2 25 a1 3d
       0.021071529 0.07055168 0.05893554 0.07868554
0000f0 e0 08 45 3d 44 cf 36 bc f5 bb 12 3d 66 1b cb 3c
       0.048104167 -0.011157814 0.03582378 0.024793338
000100 87 b1 27 bd 35 b5 23 ba b9 2b 5a 3d 33 08 aa 3d
       -0.040940788 -0.00062449585 0.053264353 0.08302345
000110 24 b6 77 3d 12 b8 0d 3e ac e7 2c bd 7a 09 b5 3a
       0.060476437 0.13839749 -0.042213127 0.0013812028
000120 94 0e 4d 3c ce 7c b5 3c 2a b9 c8 3c 79 96 11 bc
       0.012515683 0.022154238 0.024502356 -0.008885973
000130 ce 47 15 3c f2 63 59 3a 74 55 d1 bb 68 11 c1 bd
       0.009111358 0.0008292786 -0.0063883606 -0.09427148
000140 1a 8e e0 bc e4 62 a5 bc a3 56 c2 bc e8 d1 af bd
       -0.02741151 -0.020188756 -0.023722952 -0.08584958
000150 ea af bc bd 24 8f d4 bc 17 db 47 bc 32 2f fc bc
       -0.092132404 -0.025947161 -0.012198231 -0.030784223
000160 d5 74 73 bd 71 e7 85 bd 78 67 de 3d 5d 77 e2 3d
       -0.05943759 -0.065382846 0.10859579 0.11057923
000170 04 2d b5 3d c9 dc b8 bd fd c6 96 bd 33 f9 3d bd
       0.08846477 -0.090264864 -0.07362173 -0.046380233
000180 a1 5d 23 bd f7 6b 2e bd 1c e9 d8 bc b9 07 ab bd
       -0.039884213 -0.042583432 -0.026478343 -0.08351082
000190 3b f2 22 3c 2b bb 4f 3d 48 3e 3b bd 3a a5 2e bd
       0.009945448 0.050715607 -0.045713693 -0.04263804
0001a0 2c cc 6f bd 8e bb 40 bc a7 df 3d bd 9d d1 46 3d
       -0.058544323 -0.0117634665 -0.04635587 0.048539747
0001b0 48 c0 84 3c a9 d8 4b 3c 0b f9 77 3d 15 cb d9 bc
       0.016204968 0.0124417925 0.06054024 -0.026586095
0001c0 e9 65 34 3d 14 04 20 3d ea a6 37 3d ad ba 57 bd
       0.0440425 0.03906639 0.044836916 -0.052668262
0001d0 f4 8a a3 bb c5 ba 01 3d 2e 89 88 bd 9f 33 2b bc
       -0.0049909297 0.031672258 -0.0666679 -0.010449319
0001e0 63 ed 94 bd 97 55 b2 bd 8f 2a ab ba 7e eb 98 3c
       -0.072718404 -0.08707731 -0.0013058948 0.018666979
0001f0 ad 5f 62 bd 07 ab c7 bc d1 fd 88 3c dc c6 db bb
       -0.055267025 -0.024373544 0.016722592 -0.0067070555
000200 ae aa bd bd 85 c2 96 bc c9 b7 95 3d 3c b1 70 3d
       -0.0926107 -0.018403301 0.07310445 0.058762774
000210 b6 70 9f bd 10 f6 52 3d 2b bb 1a bc 7d 76 b7 bd
       -0.0778517 0.051504195 -0.009444038 -0.08958147
000220 7f 50 7a bc e6 e5 6a bc 2c 71 31 bc e8 39 56 3d
       -0.015277981 -0.014337039 -0.010830205 0.052301317
000230 83 0d 3e bd 2f da 00 3c 43 0e 0b bd a1 69 82 3c
       -0.046399605 0.007864519 -0.033949148 0.015919508
000240 09 8e c3 bd d4 69 ab 3c 8f a5 af bc 03 f3 2b 3d
       -0.095485754 0.020924486 -0.02144125 0.0419798
000250 1d 84 16 bc 57 86 fc 3b cd 96 ea bd 67 e8 f2 3c
       -0.009186772 0.0077064442 -0.11454544 0.029651834
000260 a6 f3 6e 3c 55 c0 2b 3b df 17 4d ba 97 ff b0 3d
       0.0145844575 0.0026207168 -0.00078236865 0.086425
000270 d0 3c 22 3c 05 64 4c 3d cb 6e 49 3d 85 cb e7 39
       0.009902194 0.049900074 0.049177926 0.00044211387
000280 94 b1 28 bd 63 6f 6c bd f0 f4 02 3c c2 4e ff bc
       -0.041184977 -0.057723414 0.007992968 -0.031165484
000290 04 71 58 bd e0 f2 3a 3c 8f a9 bb 3c 42 bd 58 bd
       -0.052842155 0.011410445 0.022908 -0.052914865
0002a0 63 62 1f bd 6f b6 3d 3d 84 b3 cf 3c 7f 44 8a bc
       -0.03891219 0.04631656 0.025354154 -0.016878365
0002b0 74 7b cf bc b3 c3 e4 bc aa de 9a bd 42 bd ab 3b
       -0.025327422 -0.027925348 -0.07562001 0.005241067
0002c0 26 b3 05 3d c6 c1 99 3c b7 c6 39 3d 4e 5c 18 3d
       0.032641552 0.018769156 0.045355525 0.037197404
0002d0 8c 7e ce bd c6 49 50 bd c9 c8 0e bc ec b0 7a 3b
       -0.10082731 -0.050851606 -0.008714863 0.0038252426
0002e0 fc b6 15 3d c4 e3 bb 3d 2d 42 a6 3d 2f a1 06 bd
       0.03655146 0.09174302 0.08118091 -0.03286856
0002f0 5f 33 a7 bb fe a0 98 bc f2 d2 ca bd f0 94 8b bd
       -0.0051025595 -0.018631455 -0.09903516 -0.06815517
000300 23 fd 1a 3d 06 d9 7d bc 90 8b cf 3c 51 e4 44 bd
       0.037839066 -0.015493637 0.025335103 -0.048069302
000310 05 52 8c 3b d4 d6 23 bd 43 3a bc 3b c1 51 22 3d
       0.0042822384 -0.039999798 0.00574425 0.039628748
000320 17 75 36 3d 2a 0f 61 bd f9 cb 06 be 5b 6e c3 3d
       0.04454526 -0.054946102 -0.13163747 0.09542533
000330 17 90 c3 bb 9f bc c5 bc c4 e3 05 3d 25 7d 78 b9
       -0.0059681046 -0.024137793 0.032687917 -0.00023697743
000340 0e ff fd 3c 87 de 99 bc 36 fd 02 bd 20 ba 8c bc
       0.031005409 -0.018782867 -0.031979762 -0.017178595
000350 c7 c9 92 bd ce 3d cc bc 90 9e 3b bd 11 39 5c bd
       -0.07167392 -0.024931815 -0.045805514 -0.05376536
000360 06 79 06 3d fe 55 ef 3c ae 85 30 3c a3 5a 96 bd
       0.03283026 0.029215809 0.010774059 -0.07341506
000370 ed 8d 05 bd 55 de 1a 3d fa da a2 3d a5 c7 3a bc
       -0.032606054 0.03780969 0.07951923 -0.011400138
000380 1f 6f 69 3c ad 16 30 3c 56 f2 14 3d 9d d4 11 bd
       0.014247685 0.010747594 0.036363922 -0.035603154
000390 49 46 71 3d 6d 25 64 bd b5 a6 69 bd f9 2a 43 bc
       0.05890492 -0.055699755 -0.05704375 -0.011912101
0003a0 e9 e0 7c bd 71 59 73 bc b0 6e 55 3d c6 30 7b bd
       -0.06173793 -0.014852867 0.052107513 -0.06132581
0003b0 d4 43 5b bd 8b c1 19 3d 70 ce 56 bd 21 12 80 bd
       -0.053531483 0.037538093 -0.052442968 -0.06253458
0003c0 ef a7 97 bb 6e 25 04 bd ae 29 ac 3c f6 5b 0f 3d
       -0.0046281735 -0.03226226 0.021015968 0.03499981
0003d0 f4 fe fa bb 72 bd d8 ba e6 fa 2c 3d a4 a8 d3 3c
       -0.0076597873 -0.0016535951 0.042231463 0.02583725
0003e0 27 3a 92 bd 1a e5 22 bd 29 11 a4 bc 70 6d 6d bd
       -0.07139998 -0.03976927 -0.020027714 -0.057965696
0003f0 2d c4 81 3d 90 c2 5b 3c 4d 0d 00 bc dc 56 91 3c
       0.06336246 0.0134130865 -0.007815671 0.017741613

layer1.conv.bias f4 [32]
000000 3f e1 f0 bd bc b4 04 be be 85 3a 3c bc f3 42 bc
       -0.11761712 -0.1295957 0.011384426 -0.011898931
000010 c6 19 0d be 8f 99 60 bd 69 8b 07 3e b1 5d c4 3d
       -0.13779363 -0.054833945 0.13236775 0.09588183
000020 e0 ee 26 3c 00 d8 62 3b 9e ed 5f 3d 54 d4 d6 bd
       0.010188788 0.003461361 0.05466997 -0.10489717
000030 e2 36 80 bd e7 b8 9f bd 01 a9 a9 bd a3 7e a1 bc
       -0.06260468 -0.07798939 -0.08284188 -0.019713705
000040 ef c9 11 3e 7c 3e 72 3b da 2c e4 3d ca 67 04 3e
       0.14237188 0.0036963513 0.11141367 0.12930217
000050 65 e6 ec bd 82 1a 04 3e 07 51 19 bd da 30 48 bc
       -0.11567382 0.12900737 -0.03743079 -0.012218678
000060 4c ac 3b bd ce 22 d1 bd 10 84 ea 3d bb f5 cf bc
       -0.045818612 -0.102117166 0.1145097 -0.025385728
000070 56 5d 14 3e 2d fe 00 be e1 42 c0 ba 45 4d 01 be
       0.1448873 -0.1259696 -0.0014668369 -0.12627132

layer2.conv1.weight f4 [32, 32, 3, 3]
000000 de 2d ad 3c 46 01 6e bd 18 71 a6 3d 69 e1 8e 3b
       0.021140035 -0.058106683 0.0812704 0.004360367
000010 7c c2 ae 3d c4 fd e3 3d 00 68 c2 3c 5c ff 84 bc
       0.08533189 0.11132386 0.023731232 -0.016235046
000020 a7 a6 17 3d 8b e9 56 bd 7a 24 2b bd dd 4d 27 be
       0.037024166 -0.052468818 -0.041782834 -0.16338296
000030 a8 65 1f 3c 7e 3d 41 3c 28 a2 91 3c 08 09 48 ba
       0.009728827 0.011794446 0.017777517 -0.00076307403
000040 13 09 81 bb 77 dd 07 3d be 56 7e 3c b5 97 11 3d
       -0.0039378493 0.03317019 0.015523611 0.03554507
000050 90 75 2b be 2f 8a 8b 3d b0 10 d4 bc e9 93 31 bd
       -0.16744065 0.06813466 -0.025886863 -0.04335395
000060 ba 3e 8f 3d a3 fe 5e bd 34 55 55 bd b4 e8 f9 bc
       0.06994386 -0.05444206 -0.05208321 -0.03050647
000070 4a 7f 13 bd 8b 59 06 3d 4a e8 f8 bd 89 b5 d4 3d
       -0.036010064 0.03280024 -0.121536806 0.103861876
000080 86 38 d0 3c b9 46 00 be 69 f8 73 3d a1 14 62 bd
       0.025417577 -0.12526979 0.059563074 -0.055195455
000090 45 b6 5e bb 07 31 06 bd ae c0 e1 3d 9e fb db bb
       -0.0033983153 -0.0327616 0.11023079 -0.0067133447
0000a0 8a 50 fe bc b9 cb 27 bd a6 98 a9 bd 0d 5b 0c 3e
       -0.031044263 -0.04096577 -0.082810685 0.13706608
0000b0 de cd ac 3d 8e 73 ee bd f1 b7 1e bd f8 71 cc 3d
       0.084377035 -0.11643134 -0.03874964 0.09982675
0000c0 07 07 c0 3d 62 d3 cb 3d 74 80 7b 3c 1f 8a 57 bc
       0.0937634 0.099524274 0.01535045 -0.013155489
0000d0 32 05 cf bd df 07 ee bd f1 88 23 3b 0c 67 f3 3d
       -0.10108413 -0.11622595 0.002495345 0.11884889
0000e0 e6 e4 07 bd 61 71 c2 bc c5 c8 08 3e 48 92 fa bc
       -0.03317728 -0.023735704 0.13357837 -0.03058733
0000f0 13 a9 ae bc 2c f3 49 bd f2 0c 8f bd 80 b0 03 be
       -0.021320855 -0.049304172 -0.06984891 -0.12860298
000100 d4 73 2b be 8f 42 be 3d a2 9f 29 3d a7 d1 0c bc
       -0.16743404 0.09290039 0.041412003 -0.008594907
000110 19 ef 02 bd 58 93 02 bc 5a 8f 98 bd 3d 4e 9e bc
       -0.031966303 -0.0079697 -0.07449217 -0.019324416
000120 f9 69 73 bd 04 44 81 bd 6d 45 a5 3d fb 29 f3 bc
       -0.059427235 -0.06311801 0.080698825 -0.029683104
000130 b8 cd 93 3b 49 46 1f 3e 86 a1 b7 bd 49 cb 0d bd
       0.0045106076 0.15554155 -0.08966355 -0.034617696
000140 d3 3c 25 3d 30 41 da bd 5f dd 9e bd ab 47 19 3c
       0.04034121 -0.10656965 -0.07757067 0.009355466
000150 e3 a0 74 bd 19 db c1 3c cb b9 20 3e 80 f6 25 bd
       -0.059723746 0.023664044 0.15695874 -0.040518284
000160 cb 40 30 3d dd c7 8d bd b7 ae cf bd ba d8 f2 bd
       0.04303054 -0.069228865 -0.10140746 -0.118577436
000170 3e 53 a8 3d ac b6 e6 bd 33 c8 63 3d 81 5a 57 bd
       0.08219002 -0.11265311 0.055610847 -0.052576546
000180 44 03 a9 3d b5 ad 67 3d 38 3b e0 bc c7 05 45 be
       0.08252576 0.056562144 -0.027371988 -0.19240485
000190 1a 71 0a 3d 40 9c 86 3d 53 65 b2 3b 4a 0c ec bc
       0.03379927 0.06572771 0.0054442077 -0.028814454
0001a0 48 f4 01 3d 4f 4b 2c bc 77 8d 1f be cf 08 9e 3d
       0.031727105 -0.010516002 -0.15581308 0.07716524
0001b0 93 df 56 3d ec fe 1d 3d 6f d4 93 bd 40 96 5a 3e
       0.05245931 0.03857319 -0.07218253 0.21346378
0001c0 db 6c ca 3b 76 ee c5 bd be 8d df ba 91 d1 8c 3d
       0.0061775274 -0.096646234 -0.0017055792 0.06875909
0001d0 95 97 28 bd 30 6e 05 3e f4 ff c0 bd 42 77 3f bc
       -0.041160185 0.13030314 -0.09423819 -0.011686148
0001e0 90 45 fe bd 0b 2c 4f 3d fa e9 de bd 3f b9 45 bd
       -0.12415612 0.050579112 -0.10884471 -0.048272368
0001f0 52 a0 cd 3c 7c 88 56 3d f6 6b e0 3d 9e 75 12 bd
       0.02510086 0.052376255 0.10958092 -0.0357567
000200 09 dc 17 bd ba f5 39 bd 85 4d 84 3d 64 32 cf 3d
       -0.037075076 -0.04540036 0.06460098 0.10117033
000210 20 b7 ed bd dc 32 78 3c 45 80 b3 bc ee 7d db bc
       -0.11607194 0.015148845 -0.02191175 -0.026793446
000220 f8 a8 f2 bd 9a 44 1c 3e 01 c6 bc 3d a9 08 7d 3d
       -0.118486345 0.15260544 0.09217454 0.061775837
000230 73 ed eb 3c c6 48 4c bd 13 ba fe bd 2b 66 e6 ba
       0.028799748 -0.04987409 -0.124378346 -0.0017578056
000240 6b 5b 16 bd 94 e4 db 3d 35 ae d0 bd 03 e5 c1 bd
       -0.036708277 0.10736957 -0.10189477 -0.09467509
000250 bd 71 02 3e 32 17 5e bc 7a e5 01 be b3 49 4c bd
       0.127387 -0.013555335 -0.12685195 -0.049874973
000260 b2 a1 24 be 82 dc 62 3d 16 f4 9b 3d dc b6 2d 3e
       -0.16077307 0.055386074 0.07614915 0.16964287
000270 8a 6e b8 3d 1c c1 78 bd 8a a4 77 be b6 b5 49 bd
       0.09005459 -0.06073104 -0.2418386 -0.04924556
000280 32 ec 6a 3d ab 40 11 be 92 bc 70 ba 55 18 79 bc
       0.05735416 -0.14184825 -0.00091833726 -0.015203555
000290 3b 26 af 3c fa cc 00 3c fb 1b 57 3d af ee 38 3e
       0.021380534 0.00786137 0.05251692 0.180598
0002a0 a7 c9 ba bd 9b a0 11 3d 63 2b 25 3d e6 15 f3 3d
       -0.091204934 0.035553556 0.04032458 0.11869411
0002b0 2a 2f dd bd ed df ce 3d 02 cf e4 bd 38 4b 44 bc
       -0.108000115 0.10101304 -0.11172296 -0.011980824
0002c0 f9 f6 1a be 59 f5 08 3d 35 95 51 bc 64 fe c0 3c
       -0.15133275 0.033437107 -0.012791921 0.023558803
0002d0 0e 68 a8 3d 31 bf c6 bc 03 ab 63 bc f0 21 a8 3d
       0.08222972 -0.024261089 -0.013895753 0.08209598
0002e0 01 e9 30 3d bd 4e 26 bd 91 af 5f bc 8b 3d 1b 3d
       0.04319096 -0.040602434 -0.013652698 0.03790049
0002f0 c4 e9 4a 3d ce 65 6a 3d e1 03 59 3d ae e7 1c be
       0.049539343 0.057225995 0.052982215 -0.15322754
000300 9d 27 e7 3d a4 b1 8a 3d 5f b6 93 bd 2f f3 8b bd
       0.112868525 0.067721635 -0.07212519 -0.06833493
000310 5b e6 98 3c ba 7d 51 3d 61 82 66 ba d4 5a b2 3d
       0.01866453 0.051145293 -0.00087932317 0.0870873
000320 ff ed 6f bd bf fa 12 bb 56 ea c8 3d 81 4a 71 3d
       -0.05857658 -0.0022427288 0.09810321 0.058908943
000330 70 22 e2 3c 06 f7 e5 bd 8d 61 5c 3d e1 80 51 3d
       0.027604312 -0.112287566 0.05380397 0.0511483
000340 45 54 15 be f1 5a 02 be 1e 1d 58 3d 77 b1 2f bc
       -0.14582928 -0.12730004 0.052762143 -0.010723463
000350 f5 60 cd 3d d2 82 b6 3a a8 64 df bd 71 6e 6c 3c
       0.10028259 0.0013924486 -0.109078705 0.014430628
000360 27 d2 e1 bd 2d cd 20 bd ae dd 79 bb a8 d1 a8 bc
       -0.110264115 -0.03925817 -0.0038126516 -0.020607784
000370 1d e5 b8 3d e4 55 e3 3c 4c 4d 94 3d bc 3a a5 bd
       0.09028075 0.027750917 0.07241306 -0.08067843
000380 b7 bd c0 3b 31 17 60 be c6 c1 64 bc c6 98 9c bc
       0.005881991 -0.21883847 -0.013962215 -0.019115817
000390 c7 fb 80 3d cf 03 f2 bc 8a 15 3c 3d 40 72 da 3c
       0.06298023 -0.029542832 0.04591898 0.026665807
0003a0 b6 47 fa 3d 5a 82 82 bb 6f 17 ab bc 9f 00 df bb
       0.12220709 -0.0039828243 -0.020885197 -0.006805494
0003b0 bf 65 f3 bd b3 05 dc bc 63 10 11 bd b9 5f 0e bd
       -0.11884641 -0.026858186 -0.03541602 -0.034759257
0003c0 6a 05 f0 3b 2b 0f 33 bd 55 ac c2 bd 15 54 bd bd
       0.007324864 -0.043715637 -0.09505526 -0.09244553
0003d0 c3 2d 80 bd ac 2f 13 bd fb ce c0 3c 74 3c 2f bd
       -0.06258728 -0.035934135 0.023536196 -0.042782262
0003e0 51 2f 50 3d 3b 36 07 3e d2 d2 d9 3c 73 d1 0a 3d
       0.050826374 0.13204281 0.026589785 0.033891153
0003f0 3e 1c 85 bd a8 ab 85 3c dc bc a6 bb 91 7f eb 3c
       -0.064995274 0.016317204 -0.0050884318 0.028747352

layer2.conv1.bias f4 [32]
000000 78 51 f1 3c 7d 76 30 bd a0 0e fd 3c da 54 ae 3c
       0.029457793 -0.04308175 0.030890763 0.021280695
000010 a9 82 a4 bb d9 39 61 3d 72 e1 b4 bc 95 e1 00 3d
       -0.0050204587 0.05498681 -0.022080157 0.03146513
000020 4e 74 0c 3d cd cf 18 3d ff 8a a9 bc 62 5b 21 bd
       0.034290604 0.03730755 -0.020696161 -0.03939379
000030 de 91 ad 3a b8 f0 5e 3d c6 90 c7 ba 58 7d 4b bb
       0.0013242324 0.054428786 -0.0015225641 -0.0031050052
000040 b3 75 85 ba 40 14 17 3d b2 5f 8a 3c 2a 96 4a 3d
       -0.0010182172 0.036884546 0.016891334 0.049459614
000050 7d db e0 3c 43 3b b4 3a 95 50 00 bc 7d 76 99 3c
       0.02744841 0.0013750572 -0.007831712 0.018733257
000060 a7 41 25 bb f7 91 5e 3c 70 ca 2c 3d 12 c1 00 3b
       -0.0025216134 0.013584605 0.042185247 0.001964633
000070 2d f5 64 bb 4f de 38 bd d5 53 d8 3b 66 78 c7 3c
       -0.0034936175 -0.045133885 0.0066017904 0.024349403

layer2.conv2.weight f4 [64, 32, 3, 3]
000000 a8 13 00 bd c4 12 fb 3b 6e d4 a9 bd 75 0c 86 3d
       -0.031268746 0.007662149 -0.08292471 0.06545345
000010 0d 55 64 bd c7 9f 80 bd e7 bd 3d bd 62 56 db 39
       -0.055745173 -0.06280475 -0.046323683 0.00041835295
000020 e4 76 b5 bc b2 2d 83 bc e9 2f c4 bb 81 a8 4e 3c
       -0.022151418 -0.016013 -0.0059871566 0.012613417
000030 60 d8 b0 3c 15 c5 59 bb 40 67 b9 bc fc c1 86 bd
       0.02158755 -0.0033229042 -0.022632241 -0.06579968
000040 15 14 9b bc e6 55 3c 3d 18 19 0f bb af 27 05 bd
       -0.018930474 0.045980357 -0.0021835025 -0.03250855
000050 33 8f 04 ba 8f a7 2c bc 4e 42 49 3c e5 76 7e bc
       -0.0005056739 -0.010537996 0.012283875 -0.015531276
000060 b4 b2 e9 bb 95 67 37 3c 8a fe 82 bd 9e c1 ce bc
       -0.007131899 0.0111941295 -0.06396206 -0.025238808
000070 63 51 22 3c 75 7c 32 bd 57 5a 04 3d d7 c8 4b 3d
       0.009907099 -0.043575723 0.032312717 0.049752083
000080 5b 81 78 3d 14 88 e0 3d 83 7a 40 3d cc ec 6b bc
       0.060670238 0.10963455 0.046991836 -0.0143997185
000090 1a e1 cd 39 12 11 bb 3d 6d e8 14 bb 88 58 7b bd
       0.0003926836 0.09134115 -0.0022721544 -0.061363727
0000a0 f6 09 6e bd 88 b6 a5 bd 96 27 f7 bc e1 38 53 3c
       -0.05811497 -0.08091456 -0.030170243 0.012891979
0000b0 aa ee a8 3d 4b ff 50 bc 76 c9 a0 3d f1 41 da 3d
       0.082486466 -0.012756179 0.078509256 0.106571086
0000c0 82 05 1c bd c5 41 88 3d 7c 48 da bc 6e 51 3f bd
       -0.03809119 0.066531695 -0.026645891 -0.046708517
0000d0 b0 3a 72 3d 23 ce 51 3d e5 94 13 bd f1 a1 76 3d
       0.059138 0.051221978 -0.03603067 0.060213033
0000e0 1a 04 05 3c c2 a4 4c 3d 2d be fe 39 7a a5 b9 3c
       0.008118654 0.049961813 0.00048588347 0.022661913
0000f0 a3 e0 3a 3b 28 08 8f 3c c2 33 b9 bb 25 88 93 3d
       0.0028515242 0.017459944 -0.005651922 0.07203702
000100 07 68 dc 3d d9 29 9c 3d fd 2a a6 3d 85 5e f7 3a
       0.10762029 0.07625169 0.08113668 0.0018872774
000110 16 ac e7 3c 59 31 3e 3d 1a e6 8b bc 67 6f af 3b
       0.0282803 0.04643378 -0.017077494 0.0053538564
000120 70 1a be bc ec 2b 7d bd e9 28 12 3c 12 33 43 bb
       -0.023205966 -0.061809465 0.008920887 -0.002978508
000130 cf 93 62 3c 33 6b 34 3e a2 87 4b bc f8 be d2 bc
       0.013829186 0.17619018 -0.012422474 -0.025725827
000140 e6 a3 01 3e f2 b0 3b 3d 81 43 b3 39 d7 a1 81 3a
       0.12660179 0.045823045 0.00034191835 0.0009890151
000150 fa a8 4a bc 55 4a bf bc 29 db 7b bb da c0 3a 3d
       -0.012369389 -0.023350874 -0.003843019 0.045594074
000160 d1 7f 56 bb 1e 3a 1c 3b 44 48 8f 36 88 7a 47 3a
       -0.0032729993 0.0023838351 4.270145e-06 0.0007609506
000170 03 cb 90 3a db 2f c1 3c 59 97 a9 bd 3e 14 bb bc
       0.001104683 0.02358239 -0.082808204 -0.0228368
000180 80 a1 8b bd c9 3d f9 ba 0e 52 7a bd 05 54 c3 3b
       -0.06817913 -0.0019015606 -0.06111341 0.0059609436
000190 c8 68 69 bc 1d 66 25 bc cf da 58 bd 4e 22 c0 3c
       -0.014246173 -0.0100951465 -0.052943047 0.023453858
0001a0 ee 6e 04 bd d3 94 13 3d 01 9e a6 3d 04 79 e2 3c
       -0.032332353 0.0360306 0.081356056 0.027645595
0001b0 07 5c 16 bd 97 95 09 3d 93 5d 89 bb ed 3e 07 3d
       -0.036708858 0.033589926 -0.004192063 0.033018995
0001c0 5d 8f e6 bd c2 62 5a bc e2 8e ee 3c 15 5e 14 bc
       -0.11257813 -0.01332921 0.029120866 -0.009055634
0001d0 89 c5 02 3d 21 53 9a 3d 11 fb 82 3d 0b 94 0a bd
       0.031926665 0.07535387 0.06395543 -0.03383259
0001e0 8d d9 e4 3b 5b 08 d0 3c 44 20 a7 3d e4 01 55 3d
       0.006983942 0.02539461 0.08160451 0.052003756
0001f0 13 00 c3 3b 08 b5 5b 3b a3 eb 0d bc 74 5a c4 bb
       0.0059509366 0.003352465 -0.008662137 -0.005992228
000200 67 09 91 bd ef d7 39 bd 88 bd 20 3d 81 72 09 bb
       -0.070818715 -0.045371946 0.03924325 -0.002097279
000210 57 12 49 bc 80 13 8a bd 9f e4 2c bd f2 94 80 bd
       -0.012272439 -0.067420006 -0.042210218 -0.06278409
000220 ca 70 c6 3d aa 68 fa 3d f5 a7 a1 bc ab b1 01 3d
       0.096894816 0.12226994 -0.019733408 0.031663578
000230 d2 de 60 3d 26 1a 81 bd 10 3b 5e bd bc 2f f3 bc
       0.054899998 -0.063038155 -0.054255545 -0.029685847
000240 5a 99 12 bb 9a 1d 99 bb 27 d9 2d bc 31 a8 d7 b8
       -0.0022369237 -0.0046727182 -0.010610855 -0.00010283327
000250 1e 76 d0 3b 16 7b 00 3c f7 a5 13 3b 8d 61 b5 3a
       0.006361737 0.007841846 0.0022529343 0.0013838276
000260 a4 f0 17 ba 81 22 72 bc c2 3e a2 3c 97 9c 43 bd
       -0.0005796051 -0.014778734 0.019805316 -0.047756758
000270 62 0c a0 3d 57 aa fb bc 9f 60 e3 bd c1 9c b2 bd
       0.07814862 -0.030720873 -0.111024134 -0.08721305
000280 a6 6d 4f bd 46 0c b6 3c 27 26 ad bd 65 3c 9d 3c
       -0.05064168 0.02222265 -0.084545426 0.019193837
000290 0a 96 50 bd 65 72 83 bd 57 16 87 3d 3e 83 30 bd
       -0.05092434 -0.064183034 0.06596058 -0.043093912
0002a0 8e ae 7a 3d 8b cc d8 bd 7d 0d 59 bd f1 42 00 bb
       0.061201625 -0.105858885 -0.05299138 -0.001957115
0002b0 b5 62 43 bd 09 7f 3f 3c 87 20 85 3c da cc 04 3d
       -0.047701556 0.011688002 0.016250862 0.032421924
0002c0 9c 87 89 3c c1 b9 32 3d 33 f9 c9 bd 0b bc b7 bd
       0.016788296 0.04363418 -0.09861984 -0.08971413
0002d0 ea 39 31 bd 81 22 9d bd bb af 9b bd ec 8d 8d 3c
       -0.04326812 -0.07672597 -0.07601877 0.017279588
0002e0 d6 ec a0 bc 2f a1 48 bc d8 8b 2b 3d 32 40 51 bd
       -0.019644182 -0.01224546 0.041881412 -0.051086612
0002f0 08 a1 6b 3d 86 ef c0 3c d8 24 a8 bc f0 4c 0d 3e
       0.05752662 0.023551714 -0.020525381 0.1379888
000300 cf 18 21 3d 16 30 97 3d 61 b0 d6 3c b7 af 29 3b
       0.0393303 0.073822185 0.02620715 0.0025892088
000310 8e 78 cd bd 65 dd 02 be 12 89 b4 3a 4a b0 e7 bd
       -0.100327596 -0.12779768 0.001377376 -0.11312921
000320 a0 eb e7 bd a0 97 a8 bc a9 c9 93 3d 33 06 f7 bc
       -0.11324239 -0.020580113 0.07216198 -0.030154323
000330 6c fc 94 3c c8 06 86 bb 05 61 56 bd da 3e 94 bb
       0.01818677 -0.004090164 -0.05233862 -0.004524094
000340 87 f2 0d be e6 c9 2e bd 95 13 1f bc 42 53 c8 bc
       -0.13862048 -0.042673014 -0.009709259 -0.024453763
000350 e6 61 ee bc e7 a0 ca bc dd 2f 9c bd 0b cc 34 3c
       -0.029099416 -0.024734927 -0.07626317 0.011034976
000360 73 4f a9 bd 1d 2b dd bc 36 70 be bc 02 c3 af 3c
       -0.08267107 -0.026998097 -0.023246866 0.021455292
000370 d2 4f a5 bc c5 85 7c 3d 5a 00 8f 3c 95 34 50 3d
       -0.020179663 0.06165101 0.017456222 0.050831396
000380 7f 86 8a bd ed 2c 66 3c c8 e7 7c 3c 39 bf ca 3a
       -0.06763934 0.014048797 0.01543612 0.0015468366
000390 e2 ca 6e 3d fd 40 5f bd 02 09 87 3d cd 59 59 bd
       0.058298953 -0.054505337 0.06593515 -0.053064156
0003a0 f9 a7 0e 3d 69 5d 62 3d 00 91 34 bd d4 9f 78 3d
       0.03482816 0.055264864 -0.044083595 0.0606993
0003b0 5d 2f 04 bd 95 dd ff 3d bc 55 e2 3c 7c b7 11 3c
       -0.03227173 0.12493435 0.027628772 0.008893844
0003c0 12 a6 b1 3d c4 a6 43 bc aa c9 2e 3d 4d 11 8a bc
       0.086742535 -0.0119416155 0.04267279 -0.016853953
0003d0 0a b5 14 3d e0 05 b2 3d 6e 0b e3 bd 7e 52 d0 3d
       0.036305465 0.08692527 -0.110861644 0.10171984
0003e0 59 35 97 3b 6b 1f d2 bd 70 dc 6d bd 42 72 ee 3d
       0.004614514 -0.10259899 -0.058071554 0.11642887
0003f0 ea de cf 3d 43 f9 04 3d ff b6 f3 bc 57 e5 89 bd
       0.10149939 0.032464277 -0.029750345 -0.06733196

layer2.conv2.bias f4 [64]
000000 06 bb 84 3c ef 6f 23 3c 9b 05 2b 3d fd 1f 37 3d
       0.016202461 0.0099754175 0.041753393 0.04470824
000010 e0 40 30 3a 72 56 6a 3d 54 20 56 bd 2c c4 42 3d
       0.00067235343 0.057211347 -0.052276924 0.047550365
000020 ad 2e b3 bb ab a0 cf 3c e4 f5 06 bd d0 db 6e 3d
       -0.0054682107 0.025345167 -0.032949343 0.0583151
000030 3a c2 5b bd 1a cb 61 3c be 76 f4 3c 8b e9 5c bd
       -0.053652026 0.013781333 0.029841777 -0.05393366
000040 67 9a 52 bd 0e 88 42 3d f3 ea c2 3c 75 fd 2a 3d
       -0.05141678 0.047493033 0.023793673 0.04174562
000050 8d 5d 9e 3c 55 5d d7 bc 17 93 18 bc 4a 93 68 3b
       0.019331718 -0.026289621 -0.009312413 0.0035488182
000060 c5 89 8c bc fb 11 65 bd 44 ad 84 3c c2 42 52 3a
       -0.017155537 -0.05592535 0.0161959 0.0008020812
000070 9c 5a 4f bc 50 96 8d bc d7 c0 08 3d e0 4b 3a ba
       -0.01265588 -0.017283589 0.03338703 -0.0007106643
000080 c9 24 a9 bc e5 9a 5a 3d a7 9e ac bc 7e 14 60 3d
       -0.020647423 0.053370375 -0.021071745 0.054707043
000090 5e 35 b0 bc a6 c0 0d 3d a8 13 51 bd 08 3f 11 bd
       -0.021509822 0.034607552 -0.051044136 -0.035460502
0000a0 b2 d7 ee 3c 14 7e 9b 3c ed 20 0c bd 48 de 48 bd
       0.029155586 0.018981017 -0.034211088 -0.04904011
0000b0 51 f6 98 bc 21 14 43 3d d9 c8 44 bd a9 e2 19 bd
       -0.01867214 0.04762662 -0.048043106 -0.037569676
0000c0 05 67 f0 3c a7 34 02 3d 88 a2 95 3c 09 3c 2e bd
       0.029345999 0.031788494 0.018265978 -0.042537723
0000d0 38 f6 56 3c ae 82 b9 bc ac 5c 47 3d 39 1c 7f 3d
       0.013120227 -0.02264532 0.048672363 0.062282775
0000e0 63 82 59 3c 55 e8 47 3d 35 c6 a8 bc 6c 9b 20 bb
       0.0132757155 0.048805553 -0.020602325 -0.00245067
0000f0 1b ab 05 bc 40 1a 0f 3d 0d 93 03 bd f2 71 62 3d
       -0.0081584705 0.034937143 -0.03212266 0.055284448

fc1.weight f4 [1, 3200]
000000 35 e3 0d b2 88 f1 03 83 71 05 38 a1 ee 7d e6 3b
       -8.258941e-09 -3.8774704e-37 -6.2348827e-19 0.007034055
000010 70 ad 85 3d e5 34 1e bd f5 83 6f bb 1d 42 83 ae
       0.06527221 -0.038624663 -0.0036547158 -5.9689344e-11
000020 14 37 78 3a a2 d8 19 bd ef 14 be ba b1 ab a6 2f
       0.00094686565 -0.037560113 -0.0014502088 3.0317218e-10
000030 74 9f 9c a6 7a 5c b2 bb 81 17 e7 3a 8e dc 59 bd
       -1.0867894e-15 -0.005443153 0.0017630906 -0.053188853
000040 d3 26 78 bb 71 07 a3 90 7e 4c 74 bc f6 a1 aa bc
       -0.0037864938 -6.430363e-29 -0.014910815 -0.020829182
000050 02 a6 74 b9 60 53 79 35 5d d1 a0 20 1b 9d fb 3c
       -0.00023331496 9.2881055e-07 2.72436e-19 0.030714562
000060 47 6e ab 3d 12 0c bd 3c a5 18 20 3a e3 66 97 32
       0.08370643 0.023077045 0.0006107188 1.7625501e-08
000070 cd 1c f3 bc 22 5c d1 3c fa 2e 09 3a ea cb 85 35
       -0.02967682 0.025556628 0.00052331353 9.968619e-07
000080 a0 b8 0f bd 06 7e 86 3c 3f d1 46 bb 6e b6 e7 af
       -0.03508818 0.016417515 -0.0030337123 -4.214828e-10
000090 a4 c9 4a bc 29 26 06 3d 43 51 06 3d f6 97 01 bd
       -0.012377176 0.032751236 0.03279234 -0.031639062
0000a0 dd 9d 50 ba ab 4c a7 03 0f ca 6f 3a d3 94 97 3d
       -0.0007958094 9.83298e-37 0.00091472355 0.07401433
0000b0 71 8d 89 3d 0e 50 2b 81 fc ef 66 b1 c7 5a 68 bc
       0.06716431 -3.1465176e-38 -3.360582e-09 -0.014181799
0000c0 da a2 ce bc 80 1e 8d 3c 79 d0 22 bb 1c d3 12 bb
       -0.025224138 0.017226458 -0.0024843498 -0.0022403663
0000d0 59 70 a8 94 eb 29 3b a1 bf e5 e1 3c 3b 62 b3 3d
       -1.7007978e-26 -6.341354e-19 0.027575372 0.0875897
0000e0 08 13 29 3d 80 12 98 00 48 df 29 34 2d 60 b1 3b
       0.041277915 1.3965632e-38 1.5820581e-07 0.0054130764
0000f0 5d 56 ab 3c d5 8f 0b bd 3c 11 fc 3c 81 c9 a1 2f
       0.020915205 -0.034072716 0.030769937 2.9428907e-10
000100 4a 43 9b 3d fd 26 8f 3d d8 e5 08 3c 0c 68 67 bc
       0.07581194 0.06989858 0.00835558 -0.014123928
000110 a7 8b 97 bc f1 41 84 39 b3 63 17 3d 56 72 6b 3c
       -0.018499209 0.00025226132 0.036960315 0.0143705215
000120 18 0e 9d 3b 32 44 26 bd 34 39 1f bc a0 48 cf bd
       0.00479294 -0.04059238 -0.009718228 -0.10121274
000130 60 39 32 bd 2f e5 9c 3c 48 52 d9 bb 97 9d ea bc
       -0.04351175 0.019152252 -0.006632123 -0.028639598
000140 f1 61 2c bc 7f 67 11 3d 9b 78 82 bb a0 4f 1b 3d
       -0.010521398 0.035499092 -0.0039816624 0.037917733
000150 dc 7d a8 bd ea 0f ab bd bf 2b 16 bd 4b 13 a2 bb
       -0.08227131 -0.08352645 -0.036662813 -0.0049461476
000160 7c 70 18 bd 3e e1 51 3c 90 b0 92 3c e0 cb 0e 3d
       -0.03721665 0.01281005 0.017906457 0.0348624
000170 8f 46 03 3d 4c fb 60 3d f6 b5 ec 3c e3 01 ed bc
       0.03204971 0.054927155 0.02889536 -0.028931564
000180 bc 45 6e bd be c2 3f bc 21 61 1e bd 80 be f3 3c
       -0.058171973 -0.011704145 -0.038666848 0.029753923
000190 02 d0 c8 3c 70 8f e5 3c eb 96 b8 3b 17 7e ce bc
       0.024513248 0.028022498 0.005633225 -0.025206609
0001a0 07 bd cc 3d 6f 26 c8 3d f1 68 54 3d 55 fd 88 3c
       0.099969916 0.097729556 0.051857892 0.01672236
0001b0 a0 49 a8 3c dd e0 79 bb 11 d7 b4 3c 11 e4 fa bc
       0.02054292 -0.0038128414 0.022075208 -0.030626329
0001c0 6d 12 30 3c 17 23 9c bc c3 3f 8a bc 66 e9 82 3d
       0.010746581 -0.0190597 -0.016876107 0.063921735
0001d0 52 4d e0 3c 0a 91 d3 bc 31 c1 1b bb 69 fe 8e 3b
       0.02738062 -0.025825996 -0.0023766274 0.004363824
0001e0 c7 16 df 3b e5 bb 2a bb 45 d3 46 bb 27 4b 02 bc
       0.006808135 -0.0026051935 -0.0030338329 -0.007952488
0001f0 86 93 e9 bc 81 61 5a bd 4d 03 b5 3b de da 0c 3d
       -0.028512727 -0.053315643 0.005524075 0.034388416
000200 c9 8d 3d bc ec 7c d8 3a 2c 89 c9 bb 84 e6 6f 3c
       -0.011569449 0.0016516722 -0.0061503854 0.014642362
000210 43 f1 20 bd 31 81 02 01 30 95 89 bc fe 14 a0 bc
       -0.039292585 2.396992e-38 -0.016794771 -0.01954126
000220 ac 8a 6f bd e7 d4 b3 3c 2e a7 e6 ba f3 36 bc 00
       -0.058481857 0.021952106 -0.0017597431 1.7284785e-38
000230 73 a3 10 3b ce 18 cc ba d0 87 a7 39 93 39 7d 3a
       0.002207008 -0.0015571357 0.0003195391 0.00096597633
000240 9e 69 96 bc 6e 9d 83 bc 73 15 cc 3c 55 c6 2b 3c
       -0.01836091 -0.01606628 0.024912572 0.010484298
000250 62 d5 39 bb 32 d0 28 9b f6 d9 e6 38 f7 61 0b bd
       -0.0028355946 -1.3963906e-22 0.00011007853 -0.034028973
000260 ed 6c 92 3c dc db 06 bd 3c fc 0d bb f6 c1 b4 bc
       0.017874205 -0.032924518 -0.0021665236 -0.022065144
000270 cf b4 2b bd ca 86 3a 3d f5 9d a8 3c 6a 7b 27 3c
       -0.04192048 0.0455387 0.020583132 0.010222295
000280 58 ca 95 18 34 4d e7 3c ed 5c 95 bc 6e 4e 52 bd
       3.8719912e-24 0.028235056 -0.018232787 -0.051344328
000290 7b d0 d6 bd f4 6c 95 36 c5 c8 e7 3c 14 cf de bc
       -0.10488983 4.45323e-06 0.028293977 -0.027198352
0002a0 af f8 62 bc e2 7e 07 3d 5d 72 34 01 7c bc a1 29
       -0.013853236 0.03307999 3.314283e-38 7.182533e-14
0002b0 d3 25 0d 35 19 40 b0 bd ad 6d d6 bd 22 e7 88 bb
       5.2581635e-07 -0.08605976 -0.10470138 -0.004177944
0002c0 bb 6e a2 0f 61 d1 0f 35 9b c6 aa 3c 5c 32 6b ba
       1.6017085e-29 5.357634e-07 0.020846656 -0.00089720427
0002d0 a8 23 c6 b0 61 69 0e 00 20 91 55 b9 f6 cc 03 bc
       -1.441653e-09 1.3235e-39 -0.00020367326 -0.008044472
0002e0 f9 6d 73 bd e9 7d dc bb 39 96 8b 36 97 44 c1 39
       -0.05943105 -0.006728877 4.160011e-06 0.00036862932
0002f0 55 71 10 bd 90 9e 3d bb 21 58 9d bc 46 e1 20 3d
       -0.03526433 -0.0028933622 -0.019207062 0.039277337
000300 b3 cb 0b 3c 6f 30 13 3c 18 da 01 3c f1 e5 0c bd
       0.008532452 0.008983715 0.007925533 -0.034398977
000310 b1 07 13 bd 0c 20 95 bc dc 4a 9d bc 65 90 a0 bc
       -0.035896007 -0.018203758 -0.019200735 -0.019600103
000320 46 14 99 bc a1 a0 b4 3b 14 f5 3c 3c 22 ad 11 bc
       -0.018686425 0.0055123125 0.011533041 -0.008891376
000330 24 12 41 bc 8d 43 0c 3c e4 7c fe bc 34 84 50 3c
       -0.01178411 0.008561027 -0.031065412 0.012726832
000340 ab 3d 26 bd 22 ed ee bc 1f 1f 78 3b f2 95 02 bd
       -0.040586155 -0.029165808 0.0037860346 -0.03188128
000350 25 02 2c 3d ef 42 2f bd 1a 05 2a 3d 68 78 b9 3c
       0.041994233 -0.042788442 0.04150877 0.022640422
000360 8b 99 58 bd 13 5b 16 3c ee c0 04 3d 41 a8 a4 3c
       -0.052880805 0.009176987 0.032410555 0.020099761
000370 0a 41 07 3d 7f 08 3d 3b 55 f1 a0 3c 8b 19 3b bd
       0.03302101 0.0028844175 0.019646326 -0.045678657
000380 7c 36 2f bd df 8d 85 3d 8b dc 1c 3d ea 38 72 3b
       -0.04277657 0.065212004 0.038296264 0.0036960193
000390 99 de fa bb f8 e3 b4 3b e0 be f1 3b 5f 57 9e bb
       -0.0076559302 0.00552034 0.0073774904 -0.004832193
0003a0 3b 38 ab bc bb 6e a7 39 50 05 fc ba 8d 53 24 3d
       -0.020900836 0.00031935223 -0.0019227657 0.040118743
0003b0 f8 67 b5 3c d9 2a 8f bc e3 67 13 3c 62 c8 22 3b
       0.022144303 -0.017476486 0.0089969365 0.0024838676
0003c0 1e 73 e0 3c 15 d9 a5 3b 31 f8 e9 bb 12 9d 14 3b
       0.027398642 0.0050612786 -0.0071401824 0.002267663
0003d0 f0 3e d2 3d d3 c9 59 bd a2 f4 12 3d 9e 69 c1 3c
       0.102659106 -0.05317099 0.03587783 0.023609933
0003e0 a1 d3 0a bd 9b d9 1f 3d a7 2e dd 3c 5e 5e 40 3c
       -0.03389323 0.039025884 0.026999785 0.011741249
0003f0 33 c7 26 bc ef 63 52 bc 45 d6 4a bd 73 17 42 3d
       -0.010179329 -0.012841209 -0.04952075 0.047385644

out.0.weight f4 [1, 3200]
000000 35 e3 0d b2 88 f1 03 83 71 05 38 a1 ee 7d e6 3b
       -8.258941e-09 -3.8774704e-37 -6.2348827e-19 0.007034055
000010 70 ad 85 3d e5 34 1e bd f5 83 6f bb 1d 42 83 ae
       0.06527221 -0.038624663 -0.0036547158 -5.9689344e-11
000020 14 37 78 3a a2 d8 19 bd ef 14 be ba b1 ab a6 2f
       0.00094686565 -0.037560113 -0.0014502088 3.0317218e-10
000030 74 9f 9c a6 7a 5c b2 bb 81 17 e7 3a 8e dc 59 bd
       -1.0867894e-15 -0.005443153 0.0017630906 -0.053188853
000040 d3 26 78 bb 71 07 a3 90 7e 4c 74 bc f6 a1 aa bc
       -0.0037864938 -6.430363e-29 -0.014910815 -0.020829182
000050 02 a6 74 b9 60 53 79 35 5d d1 a0 20 1b 9d fb 3c
       -0.00023331496 9.2881055e-07 2.72436e-19 0.030714562
000060 47 6e ab 3d 12 0c bd 3c a5 18 20 3a e3 66 97 32
       0.08370643 0.023077045 0.0006107188 1.7625501e-08
000070 cd 1c f3 bc 22 5c d1 3c fa 2e 09 3a ea cb 85 35
       -0.02967682 0.025556628 0.00052331353 9.968619e-07
000080 a0 b8 0f bd 06 7e 86 3c 3f d1 46 bb 6e b6 e7 af
       -0.03508818 0.016417515 -0.0030337123 -4.214828e-10
000090 a4 c9 4a bc 29 26 06 3d 43 51 06 3d f6 97 01 bd
       -0.012377176 0.032751236 0.03279234 -0.031639062
0000a0 dd 9d 50 ba ab 4c a7 03 0f ca 6f 3a d3 94 97 3d
       -0.0007958094 9.83298e-37 0.00091472355 0.07401433
0000b0 71 8d 89 3d 0e 50 2b 81 fc ef 66 b1 c7 5a 68 bc
       0.06716431 -3.1465176e-38 -3.360582e-09 -0.014181799
0000c0 da a2 ce bc 80 1e 8d 3c 79 d0 22 bb 1c d3 12 bb
       -0.025224138 0.017226458 -0.0024843498 -0.0022403663
0000d0 59 70 a8 94 eb 29 3b a1 bf e5 e1 3c 3b 62 b3 3d
       -1.7007978e-26 -6.341354e-19 0.027575372 0.0875897
0000e0 08 13 29 3d 80 12 98 00 48 df 29 34 2d 60 b1 3b
       0.041277915 1.3965632e-38 1.5820581e-07 0.0054130764
0000f0 5d 56 ab 3c d5 8f 0b bd 3c 11 fc 3c 81 c9 a1 2f
       0.020915205 -0.034072716 0.030769937 2.9428907e-10
000100 4a 43 9b 3d fd 26 8f 3d d8 e5 08 3c 0c 68 67 bc
       0.07581194 0.06989858 0.00835558 -0.014123928
000110 a7 8b 97 bc f1 41 84 39 b3 63 17 3d 56 72 6b 3c
       -0.018499209 0.00025226132 0.036960315 0.0143705215
000120 18 0e 9d 3b 32 44 26 bd 34 39 1f bc a0 48 cf bd
       0.00479294 -0.04059238 -0.009718228 -0.10121274
000130 60 39 32 bd 2f e5 9c 3c 48 52 d9 bb 97 9d ea bc
       -0.04351175 0.019152252 -0.006632123 -0.028639598
000140 f1 61 2c bc 7f 67 11 3d 9b 78 82 bb a0 4f 1b 3d
       -0.010521398 0.035499092 -0.0039816624 0.037917733
000150 dc 7d a8 bd ea 0f ab bd bf 2b 16 bd 4b 13 a2 bb
       -0.08227131 -0.08352645 -0.036662813 -0.0049461476
000160 7c 70 18 bd 3e e1 51 3c 90 b0 92 3c e0 cb 0e 3d
       -0.03721665 0.01281005 0.017906457 0.0348624
000170 8f 46 03 3d 4c fb 60 3d f6 b5 ec 3c e3 01 ed bc
       0.03204971 0.054927155 0.02889536 -0.028931564
000180 bc 45 6e bd be c2 3f bc 21 61 1e bd 80 be f3 3c
       -0.058171973 -0.011704145 -0.038666848 0.029753923
000190 02 d0 c8 3c 70 8f e5 3c eb 96 b8 3b 17 7e ce bc
       0.024513248 0.028022498 0.005633225 -0.025206609
0001a0 07 bd cc 3d 6f 26 c8 3d f1 68 54 3d 55 fd 88 3c
       0.099969916 0.097729556 0.051857892 0.01672236
0001b0 a0 49 a8 3c dd e0 79 bb 11 d7 b4 3c 11 e4 fa bc
       0.02054292 -0.0038128414 0.022075208 -0.030626329
0001c0 6d 12 30 3c 17 23 9c bc c3 3f 8a bc 66 e9 82 3d
       0.010746581 -0.0190597 -0.016876107 0.063921735
0001d0 52 4d e0 3c 0a 91 d3 bc 31 c1 1b bb 69 fe 8e 3b
       0.02738062 -0.025825996 -0.0023766274 0.004363824
0001e0 c7 16 df 3b e5 bb 2a bb 45 d3 46 bb 27 4b 02 bc
       0.006808135 -0.0026051935 -0.0030338329 -0.007952488
0001f0 86 93 e9 bc 81 61 5a bd 4d 03 b5 3b de da 0c 3d
       -0.028512727 -0.053315643 0.005524075 0.034388416
000200 c9 8d 3d bc ec 7c d8 3a 2c 89 c9 bb 84 e6 6f 3c
       -0.011569449 0.0016516722 -0.0061503854 0.014642362
000210 43 f1 20 bd 31 81 02 01 30 95 89 bc fe 14 a0 bc
       -0.039292585 2.396992e-38 -0.016794771 -0.01954126
000220 ac 8a 6f bd e7 d4 b3 3c 2e a7 e6 ba f3 36 bc 00
       -0.058481857 0.021952106 -0.0017597431 1.7284785e-38
000230 73 a3 10 3b ce 18 cc ba d0 87 a7 39 93 39 7d 3a
       0.002207008 -0.0015571357 0.0003195391 0.00096597633
000240 9e 69 96 bc 6e 9d 83 bc 73 15 cc 3c 55 c6 2b 3c
       -0.01836091 -0.01606628 0.024912572 0.010484298
000250 62 d5 39 bb 32 d0 28 9b f6 d9 e6 38 f7 61 0b bd
       -0.0028355946 -1.3963906e-22 0.00011007853 -0.034028973
000260 ed 6c 92 3c dc db 06 bd 3c fc 0d bb f6 c1 b4 bc
       0.017874205 -0.032924518 -0.0021665236 -0.022065144
000270 cf b4 2b bd ca 86 3a 3d f5 9d a8 3c 6a 7b 27 3c
       -0.04192048 0.0455387 0.020583132 0.010222295
000280 58 ca 95 18 34 4d e7 3c ed 5c 95 bc 6e 4e 52 bd
       3.8719912e-24 0.028235056 -0.018232787 -0.051344328
000290 7b d0 d6 bd f4 6c 95 36 c5 c8 e7 3c 14 cf de bc
       -0.10488983 4.45323e-06 0.028293977 -0.027198352
0002a0 af f8 62 bc e2 7e 07 3d 5d 72 34 01 7c bc a1 29
       -0.013853236 0.03307999 3.314283e-38 7.182533e-14
0002b0 d3 25 0d 35 19 40 b0 bd ad 6d d6 bd 22 e7 88 bb
       5.2581635e-07 -0.08605976 -0.10470138 -0.004177944
0002c0 bb 6e a2 0f 61 d1 0f 35 9b c6 aa 3c 5c 32 6b ba
       1.6017085e-29 5.357634e-07 0.020846656 -0.00089720427
0002d0 a8 23 c6 b0 61 69 0e 00 20 91 55 b9 f6 cc 03 bc
       -1.441653e-09 1.3235e-39 -0.00020367326 -0.008044472
0002e0 f9 6d 73 bd e9 7d dc bb 39 96 8b 36 97 44 c1 39
       -0.05943105 -0.006728877 4.160011e-06 0.00036862932
0002f0 55 71 10 bd 90 9e 3d bb 21 58 9d bc 46 e1 20 3d
       -0.03526433 -0.0028933622 -0.019207062 0.039277337
000300 b3 cb 0b 3c 6f 30 13 3c 18 da 01 3c f1 e5 0c bd
       0.008532452 0.008983715 0.007925533 -0.034398977
000310 b1 07 13 bd 0c 20 95 bc dc 4a 9d bc 65 90 a0 bc
       -0.035896007 -0.018203758 -0.019200735 -0.019600103
000320 46 14 99 bc a1 a0 b4 3b 14 f5 3c 3c 22 ad 11 bc
       -0.018686425 0.0055123125 0.011533041 -0.008891376
000330 24 12 41 bc 8d 43 0c 3c e4 7c fe bc 34 84 50 3c
       -0.01178411 0.008561027 -0.031065412 0.012726832
000340 ab 3d 26 bd 22 ed ee bc 1f 1f 78 3b f2 95 02 bd
       -0.040586155 -0.029165808 0.0037860346 -0.03188128
000350 25 02 2c 3d ef 42 2f bd 1a 05 2a 3d 68 78 b9 3c
       0.041994233 -0.042788442 0.04150877 0.022640422
000360 8b 99 58 bd 13 5b 16 3c ee c0 04 3d 41 a8 a4 3c
       -0.052880805 0.009176987 0.032410555 0.020099761
000370 0a 41 07 3d 7f 08 3d 3b 55 f1 a0 3c 8b 19 3b bd
       0.03302101 0.0028844175 0.019646326 -0.045678657
000380 7c 36 2f bd df 8d 85 3d 8b dc 1c 3d ea 38 72 3b
       -0.04277657 0.065212004 0.038296264 0.0036960193
000390 99 de fa bb f8 e3 b4 3b e0 be f1 3b 5f 57 9e bb
       -0.0076559302 0.00552034 0.0073774904 -0.004832193
0003a0 3b 38 ab bc bb 6e a7 39 50 05 fc ba 8d 53 24 3d
       -0.020900836 0.00031935223 -0.0019227657 0.040118743
0003b0 f8 67 b5 3c d9 2a 8f bc e3 67 13 3c 62 c8 22 3b
       0.022144303 -0.017476486 0.0089969365 0.0024838676
0003c0 1e 73 e0 3c 15 d9 a5 3b 31 f8 e9 bb 12 9d 14 3b
       0.027398642 0.0050612786 -0.0071401824 0.002267663
0003d0 f0 3e d2 3d d3 c9 59 bd a2 f4 12 3d 9e 69 c1 3c
       0.102659106 -0.05317099 0.03587783 0.023609933
0003e0 a1 d3 0a bd 9b d9 1f 3d a7 2e dd 3c 5e 5e 40 3c
       -0.03389323 0.039025884 0.026999785 0.011741249
0003f0 33 c7 26 bc ef 63 52 bc 45 d6 4a bd 73 17 42 3d
       -0.010179329 -0.012841209 -0.04952075 0.047385644

exp_avg f4 [32, 2, 5, 5]
000000 41 e5 bc 38 fb 1c ef 39 c4 81 5b 3a 06 af a0 3a
       9.0072404e-05 0.00045607224 0.00083735236 0.0012259192
000010 7c b0 c6 3a ce 27 cb b9 3a 83 52 b8 71 1a b8 39
       0.0015158798 -0.00038748834 -5.0190116e-05 0.00035114915
000020 cf 09 43 3a c8 98 8f 3a 22 09 78 ba ab d5 1d ba
       0.0007440121 0.0010955567 -0.000946181 -0.0006020914
000030 21 d5 4f b9 a4 0d 5b 39 b0 42 15 3a 8b 8e bf ba
       -0.00019820455 0.00020890549 0.0005693836 -0.0014614625
000040 87 0d 94 ba 35 a4 3e ba ce 10 98 b9 4c 42 d6 38
       -0.0011295535 -0.00072723936 -0.0002900422 0.00010216664
000050 dd 34 f3 ba 82 40 c5 ba ac c7 8e ba bd 09 34 ba
       -0.0018555183 -0.0015049132 -0.0010893247 -0.0006867906
000060 32 43 9a b9 5f 49 4f b9 0c 9f aa 37 f0 a7 ce 39
       -0.00029423233 -0.00019768391 2.0339641e-05 0.00039416505
000070 38 09 58 3a 6a 81 a3 3a 62 03 36 ba ad b6 e9 b9
       0.000824112 0.0012474481 -0.0006943253 -0.00044577327
000080 9c 7c 94 b8 bb e6 cb 39 d8 bd 5f 3a 63 48 9f ba
       -7.0804e-05 0.00038891085 0.0008535064 -0.001215231
000090 c5 4b 7b ba 80 ae 17 ba 06 dd f3 b8 f7 57 ca 39
       -0.00095861807 -0.00057861954 -0.00011628312 0.0003859398
0000a0 63 fc df ba 42 3e b9 ba db 6d 82 ba d7 b3 0d ba
       -0.0017088767 -0.0014132934 -0.0009950952 -0.00054055214
0000b0 d8 07 98 b8 d2 00 05 bb 5c ef e1 ba c1 04 ab ba
       -7.249386e-05 -0.0020294678 -0.0017237472 -0.0013047681
0000c0 4f 64 54 ba 74 82 c0 b9 4d 19 18 3b a0 9f d9 3a
       -0.00081021053 -0.0003671829 0.002320844 0.0016603358
0000d0 fe 2c 67 3a a6 bb 66 39 ad a3 88 b9 f7 10 2f 3b
       0.0008818655 0.00022004414 -0.0002606189 0.0026712993
0000e0 c2 b7 f9 3a d1 2c 8d 3a d0 cc a1 39 1c eb 6d b9
       0.0019051956 0.0010770803 0.0003086091 -0.00022689666
0000f0 26 55 37 3b 02 54 03 3b 43 d9 92 3a 49 96 9d 39
       0.0027974336 0.0020039086 0.0011203665 0.00030057345
000100 46 e9 92 b9 d2 33 2e 3b a7 e0 f6 3a 0e db 82 3a
       -0.00028021092 0.002658118 0.0018835262 0.0009983496
000110 7e 05 4c 39 bf 2d c1 b9 d9 a7 1c 3b 59 f1 d7 3a
       0.00019457002 -0.00036845912 0.0023903756 0.0016475125
000120 8d 27 49 3a dd 91 41 38 70 a0 fc b9 e7 a9 21 3b
       0.0007673435 4.615063e-05 -0.0004818472 0.002466792
000130 36 f7 01 3b 30 3c b2 3a eb 8a 38 3a 3d 6d 0c 39
       0.0019831187 0.001359826 0.00070397434 0.00013392135
000140 5b 45 37 3b df 14 19 3b 52 0e d4 3a c5 f8 60 3a
       0.0027964923 0.0023358387 0.0016178584 0.00085819914
000150 72 5e 6d 39 36 77 3f 3b db 78 1f 3b fb 42 dd 3a
       0.00022637265 0.0029215342 0.002433351 0.0016880924
000160 ea 00 6d 3a 1e 98 72 39 1f a0 39 3b 39 dd 17 3b
       0.0009040969 0.00023135587 0.00283242 0.002317263
000170 c0 e5 d0 3a e3 7b 51 3a 5f a9 31 39 a9 f5 24 3b
       0.0015937611 0.0007991178 0.00016943131 0.002517084
000180 20 b3 04 3b d1 cf af 3a 18 d5 20 3a b5 af 12 b6
       0.0020248368 0.0013413375 0.0006135269 -2.185797e-06
000190 b6 d8 9a b9 18 78 38 b9 c3 7b 87 b8 25 25 e5 b6
       -0.0002953463 -0.00017592346 -6.460354e-05 -6.829056e-06
0001a0 e7 ae 23 39 4f 04 ce b9 ca fa 6e b9 8c 06 f4 b8
       0.00015610048 -0.00039294592 -0.00022790875 -0.00011636046
0001b0 cc 30 13 38 d6 af 4e 39 78 de cf b9 10 55 8d b9
       3.5092977e-05 0.00019711195 -0.0003964787 -0.00026956992
0001c0 f7 01 0d b9 57 dd 85 b7 0b 86 7b 39 43 fb f8 b9
       -0.0001344754 -1.5957905e-05 0.0002398716 -0.0004748945
0001d0 b4 4a 8e b9 39 73 2c b9 05 49 5a b7 5d e2 5e 39
       -0.0002714001 -0.00016446122 -1.3010814e-05 0.00021255897
0001e0 a4 10 13 ba 44 b2 bc b9 1b b8 7b b9 3a dd fa b8
       -0.00056100846 -0.00035990973 -0.0002400581 -0.000119621356
0001f0 57 01 ec 38 8f 93 c4 b9 7b 0b 8e b9 77 4c 2c b9
       0.000112536065 -0.00037493973 -0.00027092904 -0.00016431684
000200 1e 17 39 b8 09 b5 50 39 a1 85 e8 b9 49 36 9e b9
       -4.4128967e-05 0.00019903867 -0.0004435005 -0.00030176554
000210 f2 ad 3f b9 b6 ca 68 b8 5f b5 7f 39 1c d9 f7 b9
       -0.00018279979 -5.55019e-05 0.00024386261 -0.0004727327
000220 9e d9 9f b9 9c 0d 2c b9 34 26 4d b6 f3 6a 90 39
       -0.0003048898 -0.00016408268 -3.0569618e-06 0.00027545504
000230 c2 97 08 ba e1 ba b9 b9 81 b2 63 b9 61 31 b3 b8
       -0.0005210602 -0.00035425185 -0.00021714905 -8.544583e-05
000240 de 5e 4a 39 bd 0b 18 ba 5c 73 e9 b9 02 91 a9 b9
       0.00019299562 -0.0005800089 -0.00044527173 -0.0003234223
000250 c2 95 5a b9 80 ce 5a 38 c4 7f 72 b9 1a 59 13 b9
       -0.00020845889 5.216757e-05 -0.00023126515 -0.00014052205
000260 0c 32 38 b8 24 46 bb 38 98 0a 8a 39 79 11 92 b9
       -4.391563e-05 8.9299196e-05 0.00026329304 -0.00027860308
000270 17 9e 72 b9 7c 6d 09 b9 18 17 6d b8 bc fe 56 38
       -0.00023137812 -0.00013106124 -5.652671e-05 5.1258816e-05
000280 97 36 86 b9 06 32 3e b9 cf 5e f3 b8 8e 8f ba b8
       -0.00025599144 -0.00018138447 -0.000116048024 -8.89591e-05
000290 99 5a 2c b7 31 e8 39 b9 ba 02 59 b9 3b d9 36 b9
       -1.0273093e-05 -0.00017729473 -0.00020695748 -0.00017437797
0002a0 cc 61 31 b9 c4 b1 16 b9 ba 74 61 b9 d0 1d 59 b9
       -0.00016916468 -0.00014371338 -0.00021501156 -0.00020705839
0002b0 ce 8c 36 b9 47 98 59 b9 bc 5e 31 b9 c0 3b d7 b9
       -0.00017409326 -0.0002075146 -0.00016915327 -0.00041052513
0002c0 71 ec df b9 04 d3 c5 b9 a6 b9 ab b9 c9 3a 2f b9
       -0.00042710037 -0.00037731987 -0.0003275398 -0.000167112
0002d0 47 88 df b9 2f ce e3 b9 d7 16 da b9 6f f4 e8 b9
       -0.0004263541 -0.00043450433 -0.00041597217 -0.00044432606
0002e0 eb a1 a9 b9 8d 30 96 b9 7d 04 b3 b9 ed 2b bb b9
       -0.0003235483 -0.00028646403 -0.00034144885 -0.00035700147
0002f0 f9 79 dd b9 8d d2 d6 b9 8b 56 a9 b9 a6 ac a7 b9
       -0.00042243281 -0.00040974133 -0.0003229867 -0.00031981355
000300 06 45 b8 b9 35 74 ed b9 9e 7a ef b9 8b cc 82 b9
       -0.0003514664 -0.00045290744 -0.0004567699 -0.0002494793
000310 43 d3 8c b9 c7 3b b6 b9 2c 8f db b9 7e 2c ec b9
       -0.00026860283 -0.00034758283 -0.00041877606 -0.00045046577
000320 dc f1 93 35 58 31 df 38 c5 a4 1d 39 f9 df 17 39
       1.1022744e-06 0.000106426596 0.00015034068 0.00014483918
000330 36 64 a6 38 36 69 eb 38 2e c0 36 39 6d e6 57 39
       7.9341626e-05 0.0001122527 0.00017428465 0.00020589838
000340 c5 dd 3d 39 b1 c0 0c 39 1e 27 85 39 f2 ff 82 39
       0.0001810706 0.00013423224 0.0002539688 0.00024986226
000350 fc 0d 86 39 f3 bd 80 39 88 fe 4c 39 98 45 b8 39
       0.0002556889 0.00024555586 0.00019549776 0.00035147066
000360 29 04 b6 39 2e e4 ae 39 f4 94 a7 39 10 de 8a 39
       0.00034716845 0.00033357873 0.000319637 0.0002648686
000370 cf e6 de 39 b3 54 d6 39 1d c9 c5 39 83 d9 b5 39
       0.00042515105 0.00040880367 0.0003772461 0.0003468507
000380 b3 ee a2 39 62 48 0f b8 b0 b1 92 38 2a 5e 16 39
       0.00031076893 -3.416127e-05 6.9949194e-05 0.00014340194
000390 db bc 1d 39 cc 03 94 38 75 48 c4 38 e8 88 24 39
       0.00015043041 7.057897e-05 9.3595045e-05 0.0001569126
0003a0 f0 54 3e 39 0e f8 35 39 c3 25 ee 38 42 f5 78 39
       0.00018151454 0.00017353913 0.00011355758 0.00023742489
0003b0 64 0a 8f 39 61 18 8e 39 ae 82 6e 39 79 e5 37 39
       0.00027282827 0.00027102514 0.0002274613 0.00017537725
0003c0 c4 f3 cc 39 51 26 ce 39 56 b9 c8 39 1e 5e b6 39
       0.00039091532 0.0003931993 0.0003828506 0.00034783868
0003d0 70 02 95 39 08 bd 00 3a 59 82 02 3a d0 46 fb 39
       0.0002842131 0.00049109804 0.000497853 0.0004792721
0003e0 54 e2 e1 39 bb 2a c6 39 d3 30 94 b9 54 5b b4 b9
       0.00043083972 0.0003779734 -0.00028265137 -0.0003440032
0003f0 01 a9 b6 b9 bd c1 d1 b9 27 5a f4 b9 f8 79 69 36
       -0.00034839663 -0.00040007933 -0.00046606475 3.47907e-06
