results/2BS/T_1/L_2000/seed5/checkpoint.pth.tar (torch_old, 395614 bytes, 22 tensors)

layer1.conv.weight f4 [32, 2, 5, 5]
00000000: 9989 87bd 2e1f 95bd 0e77 aebc 6bb2 aebc
00000010: 7be5 9b3d df35 ea3b f37f 12bd 031f 4abc
00000020: 3304 ddba ef70 84bc a0d8 463d 1ed4 663d
00000030: b15a 86bb c62b 053d f1d5 083c bef0 2dbd
00000040: 5390 d1bc 8157 8c3d 884e 68bd c283 33bc
00000050: e63c 5b3d ec65 dbbb d4fa 32bd a5c6 99bd
00000060: 1b3a 31bd d90a 81bd 3596 50bd 5e04 4a3c
00000070: b7c1 48bc b9a3 943a 150d 333d 57b6 2b3d
00000080: 05fc 7dbb 90e1 8f3d ce38 4cbd fa06 273d
00000090: 7bf6 803d d2b2 10bd 7405 73bc 9801 e238
000000a0: 0938 dc3c d26f 953d 7803 753d 807c d1bb
000000b0: 7679 e5bc 945a a13d a5fd 823d 284e e5bc
000000c0: ff52 7f3a a8a2 b9bd 32ad d93c 8301 3ebc
000000d0: 11f3 92bc 3b2e afbc 4fb8 953d 47d9 903d
000000e0: 262b b23d 36a2 d83c b112 aebc 7e46 20bd
000000f0: f304 b4bd 16e2 693c 069b 94bd f85b 303d
00000100: 9153 7cbc 8717 a7bd 35b9 6b3d 0c04 20bd
00000110: 0af2 423d 1db6 ca3c 7cba a23b e8eb 95bd
00000120: 4b0a 86bb 6437 c53b cbfc cfbd c132 763c
00000130: 162d 903c c8b8 b4bd 1fe7 bcb9 9b89 e53c
00000140: ae49 16bd 748e 1abd 1aea a1bd 36c8 673d
00000150: 4110 41bd a3d7 d0bb ac92 1c3b 6db8 8f3d
00000160: b044 c63c 9741 08bc bee4 9d3c be22 96bc
00000170: 163e 003d bf59 1f3d 7cc0 98bd d1a8 b43d
00000180: 5b94 59bd e677 84bd 838b fabc 6019 333d
00000190: f4f8 81bc 580c bd3c eef6 aabd cd42 58ba
000001a0: 0cd5 b3bc cbee eebd 2055 b3bd 53f6 913c
000001b0: 1899 52bd 7780 7ebd 0b62 44bd 3681 bdb9
000001c0: 6129 a6bc 2c50 5fbd 4797 6ebd de1e 4dbd
000001d0: 8061 35bd d7b0 49bc 612f 40bd 594d 16bc
000001e0: 4bf8 9ebd 8b30 6c3c e420 ec3c 8659 c23c
000001f0: 6d3b fcbd d884 20bd b000 a9bc 48bb 8bbd
00000200: 5370 9a3d 6bf4 1bbc dd89 b0bc 121e e63c
00000210: f097 c0bc ab75 92bd bd7a 91bd 1bcc dbba
00000220: ea25 0f3d 2897 f03d 3c0c 78bc eb0b dcbd
00000230: 8420 99bc 1ef3 44bd a5c6 3ebc a0a4 2abd
00000240: df70 bcbd 422a da3d 5b28 163d 85e1 f4bc
00000250: 3f43 d93d 8dd7 8fbd 1bff 2cbd 7d40 82bc
00000260: 434e 913d 42ae 223d c683 f9bc 21fc 623d
00000270: c4ec 74bb 8070 333d 6ff3 133d f289 243e
00000280: b1a3 01bc 4b07 f93d d95f 1c3e 1567 eb3d
00000290: 68b9 3a3c 4f0a 98bc 1d65 e53d 2265 f13d
000002a0: 4e36 c13d ae6a 38bd 38b6 ac3c 31ad 323d
000002b0: 2d73 a4bd f29d 9e3d 68f7 6ebd f838 23bd
000002c0: 2bd0 413d 77d8 a1bd 06e6 993a a4d9 c5bc
000002d0: 9147 4dbd 35f1 9fbd c29f 3cbc 742e bebc
000002e0: f993 37bd d25d 0cbd fd8d 7cbd 9bd9 e13b
000002f0: 449e 13bd 03f6 0fbd 8b41 93bd 81af a43c
00000300: 4063 0bbd 75b7 51bd 75b7 1fbd 51b6 93bb
00000310: 3602 8abd 2aeb aabd e0a1 9dbd b86d abbd
00000320: 8b31 2e3d ead5 203d 96e8 ca3d f1cc ed3c
00000330: 87eb 32bc 246c 973d 2197 0a3e eebe 9a3b
00000340: 18d9 b83b ffa9 d93c 5aba d63d 4081 8b3b
00000350: 1fe5 6e3d 0603 973c 4833 88bd b1d9 0c3e
00000360: 6bf7 bc3c 34af 833d ca3c dc3d 571c 573d
00000370: 8f26 003e 8da0 913d bc7c a73d 6d3c ba3d
00000380: 2009 3bbd a3b4 fd3b 3eb3 82bc 6dfc 8ebd
00000390: cac2 57bd 162e 0cbe d8f0 6abd 1ecf 1dbc
000003a0: 6245 06be bc46 82bd 67e0 8fbd a83d a2bd
000003b0: b232 cfbc 890f 80bd 308a 0cbd b3e2 56bd
000003c0: bfed b1bd 0684 1fbd 4a3d ecbd 7be1 833b
000003d0: 1ccf ebbd db05 65bd 7a0c 9dbc b1fc bbbd
000003e0: 00aa c5bd ee70 81bd 3166 d8bc baae 50bd
000003f0: 6960 833d 2027 2ebc 74bf 863c 8e7e 59bd
-0.066180415 -0.07281338 -0.021297004 -0.02132531 0.07612129 0.007147535 -0.035766553 -0.012336495
-0.0016862213 -0.016167132 0.048546433 0.056354634 -0.0041001667 0.03251245 0.008351789 -0.042465918
-0.025581514 0.068526275 -0.05671552 -0.0109567065 0.053524874 -0.0066954996 -0.04369624 -0.075085916
-0.043268304 -0.06300897 -0.0509245 0.012330143 -0.0122532165 0.0011340297 0.043713648 0.04192194
-0.0038754952 0.070254445 -0.04985886 0.040778138 0.062970124 -0.035326786 -0.014832843 0.000107768166
0.026882188 0.07296719 0.05981776 -0.0063930154 -0.028012019 0.078786045 0.06396035 -0.02799137
0.00097398454 -0.09064227 0.026571844 -0.01159704 -0.017938169 -0.02138435 0.07310545 0.07072692
0.08699636 0.026444536 -0.021249147 -0.039129727 -0.087900065 0.0142750945 -0.07256131 0.04305646
-0.015400783 -0.08158784 0.057549674 -0.03906636 0.047594108 0.024745042 0.0049660783 -0.07320386
-0.0040905825 0.006018566 -0.10155638 0.015026749 0.017599624 -0.08824307 -0.00036030353 0.028019717
-0.03669136 -0.03773351 -0.079059795 0.05658742 -0.04713464 -0.006373362 0.0023891134 0.07017598
0.024202675 -0.008316419 0.019274112 -0.018327113 0.03130921 0.038903948 -0.074585885 0.08821262
-0.05312 -0.06468181 -0.030584102 0.04372537 -0.01586578 0.023077175 -0.08347879 -0.00082497
-0.021952175 -0.1166664 -0.08756471 0.017817652 -0.051415533 -0.062134232 -0.047945064 -0.0003614516
-0.020283403 -0.054519817 -0.058249738 -0.050078265 -0.044282436 -0.012310228 -0.046920184 -0.009173715
-0.07762202 0.01441587 0.028824277 0.023724329 -0.12316022 -0.03918919 -0.02063021 -0.068228304
0.075409554 -0.009518723 -0.021550113 0.02809051 -0.02350995 -0.0715135 -0.071034886 -0.0016769202
0.034948267 0.11747581 -0.015139636 -0.10744461 -0.018692262 -0.048083417 -0.01164404 -0.041660905
-0.09201216 0.10652591 0.03665958 -0.029892692 0.10608529 -0.07023535 -0.042235475 -0.015899891
0.07095005 0.039716966 -0.030458342 0.05541623 -0.0037372569 0.04380846 0.03612083 0.16068247
-0.007912562 0.12159594 0.15270938 0.11494271 0.011396743 -0.018559603 0.112009265 0.11786868
0.09434186 -0.045023613 0.021082982 0.0436222 -0.080297805 0.077449694 -0.058341414 -0.03984925
0.047317665 -0.079026155 0.0011741526 -0.02415163 -0.05011708 -0.078096785 -0.011512699 -0.02321551
-0.044818852 -0.03426916 -0.061658848 0.0068923957 -0.036039606 -0.035146724 -0.07190236 0.020103218
-0.0340302 -0.05120035 -0.038993318 -0.004507818 -0.06738703 -0.08345635 -0.07696891 -0.083705366
0.042527717 0.039266504 0.099076435 0.029028388 -0.010920412 0.07393673 0.13534214 0.0047224676
0.005641114 0.026570318 0.104847625 0.004257351 0.058323976 0.018434059 -0.06650406 0.13754918
0.023067197 0.06429902 0.10753782 0.05251726 0.12514709 0.07110701 0.08178088 0.090935566
-0.045663 0.007742481 -0.01595461 -0.0698174 -0.052676 -0.13689455 -0.057358593 -0.0096319
-0.13112405 -0.06361148 -0.07025223 -0.07921916 -0.025292728 -0.06252963 -0.034311473 -0.05246229
-0.086879246 -0.038944267 -0.115351275 0.004024682 -0.11514112 -0.055913787 -0.019170988 -0.091790564
-0.096515656 -0.06320368 -0.026415916 -0.050947882 0.06414873 -0.010629445 0.016448714 -0.053099208

layer1.conv.bias f4 [32]
00000000: e924 903c d437 e03d e9a8 10bd 1a2e 873d
00000010: 3aac cfbd 87df 003d a9a4 cd3d 7022 843c
00000020: d670 c3bd 28f8 9e3d 9ebb 4abc 5914 073e
00000030: 2454 013e ee9f ac3c cdf1 04be f5af ebbd
00000040: 3978 98bd c779 03be 9992 0c3d 7810 c5bd
00000050: 6ac7 03bd a7e0 c8bd b2a2 ad3d a437 9dbb
00000060: 6e6d 0f3d b92b e13d 40df 1a3e b4aa 863b
00000070: 2ce6 593c 89f4 d43c de46 e0bd 3fc8 d73d
0.017595725 0.10948148 -0.035317335 0.0660059 -0.101402715 0.031463172 0.10041172 0.016129702
-0.09543006 0.07762176 -0.012373833 0.13191356 0.12629753 0.021072354 -0.12982865 -0.115081705
-0.07444806 -0.12839423 0.034319494 -0.09622282 -0.032172598 -0.09808474 0.08478297 -0.0047978926
0.03501647 0.109946676 0.15124226 0.004109705 0.013299506 0.02599551 -0.10951017 0.10536241

layer2.conv1.weight f4 [32, 32, 3, 3]
00000000: 3061 993d e9e5 4c3d db56 b7bd 1b48 91bd
00000010: c5e3 973b cd12 513d 74e6 ac3c c859 aabd
00000020: 08a6 153d 6fe3 3cbd 43a5 57bd b0aa b3bd
00000030: 64c4 543d 93c4 183d 911f 47bd 8111 72bd
00000040: 061f 8dbc 01f7 a13d 2a0c 15be f43d ee3c
00000050: 89c8 e43d f910 b4bd d6be 283d d20e 723c
00000060: edc4 d2bd 5232 083c 84ce 43bc 1ee1 0f3c
00000070: d180 123b 41e8 a5bd 77cf 45bd 3772 59bd
00000080: e619 2cbe a1d0 00bd 0d67 1e3d 136e 6b3d
00000090: 414f 963c 3e7a 2b3e 1e31 f63c 1113 813d
000000a0: 7c02 113c 1209 b73d 2a44 763d b659 003e
000000b0: 0f82 c33d fafc b0bd 4fe0 533d 5eae 803d
000000c0: a3a1 553d 1617 9cbc b245 e53c b471 f0bd
000000d0: 2831 c6bc e340 a8bd 5d5b 69bc 4de5 e73c
000000e0: 8fea d8bd a465 90bd f65c 8bbd bd01 e53c
000000f0: bc62 2f3b 6122 893b 458b 973d b235 d9bd
00000100: 86b2 813c f092 afbd e812 c13b 535a bf3d
00000110: 566f 14bd 16e3 49bb 49fa 99bd a66f 0dbe
00000120: 5485 ee3a c328 06bd cc24 b13d 3a0e bfbb
00000130: 5414 133d 0154 c33d 8568 9dbc 8918 f23b
00000140: 5593 6ebc 7b9d 8bbc 5368 c43b 12d0 023e
00000150: e255 00bd a578 a33c 5d21 113e 906d 02bc
00000160: a893 a93d 71c2 3f3d bb0e f23b 0da5 02be
00000170: 6f03 eb3d 1a89 a03d a697 4dbd 78fe afbd
00000180: c5e2 2c3d 3156 c03c c386 28bd 5f57 58bd
00000190: 1dd5 e4bd f888 b7bd 215b b2bc c9e6 4fbc
000001a0: 26d5 07be 9a35 013d 7a4a 3b3d 9cb7 a43d
000001b0: 18c3 153e b4d5 91bd 24d1 f33c f4b3 c43d
000001c0: af2b a53c f2d4 24bd 43d9 62bd ba19 a23c
000001d0: 1866 c03e d354 b03c 9bf5 64bc 8439 733b
000001e0: c52d c6bd 36e8 f7bd 8330 9a3d 5ad5 5dbd
000001f0: ad02 953c 4aca 323d 143b d4bd fe6b 373d
00000200: 9326 1bbe 66a8 f63d df3e bd3c a491 ddbd
00000210: bcf7 003d f472 46bd bf87 cd3c c66c 0e3e
00000220: ae68 d33d e8fc c0bc f40f 14bc 15ad 8fbd
00000230: a090 743c ba03 183d 4ed7 79bd 5ee6 bc3d
00000240: ea14 e73c 2c48 0d3b 0be2 743d 5cc6 1f3c
00000250: 28a5 073e 7abd 933d 49b5 f33c 8911 16bc
00000260: ede2 53bb 7fc1 cbbd f61d 583c b3f1 993d
00000270: 1863 c23c e9d4 873b f995 703c 9ac1 5dbc
00000280: b3e4 dd3d 4646 173d b5f3 ae3d 5191 25bd
00000290: e963 583d 871b d13d 11c5 533d eb37 933c
000002a0: 6128 93bd 4b23 1d3d 6f1a 2abd 6d6d 4fbe
000002b0: edb9 33bd 4624 b03d 23e1 493d 9ba4 d6ba
000002c0: 09b8 713d 7937 ff3d f69f f9bb ef8d 5cbd
000002d0: 1093 6ebc d6a3 d0bd 7fd5 6c3c f321 433c
000002e0: 923a 3abd 92c8 803c d93a 883d 5993 4cbd
000002f0: 5b7c 95bc 4343 1e3c 6ade b43b feca a9bc
00000300: c827 3f3d c4ca c2bc 122e abbc 5584 35bd
00000310: e3ee 05bc ca6f 76bc 1ed3 c13d 74e2 613c
00000320: af0d 3c3c ff7e 043d baa4 163d f6df 56bc
00000330: a361 08bd 0655 1bbe 5fe6 8c3b f64b c43c
00000340: 609d 99bb 3dab b6bc 1a7b b1ba 9e52 973d
00000350: ac9e b8bc b73c cbbd e890 8dbd 9c7f aabc
00000360: 6c40 533d 8d1f 08ba be06 51bc c9fe 363d
00000370: d306 08bd 7b5f b63c 1534 b8bd d3a6 0bbd
00000380: 0040 203e 13ed 5bbe f749 35bd 3672 9f3d
00000390: 10c3 63bc 42e6 1dbd 570a 5e3e fca1 05bd
000003a0: 3d42 98bd 6353 5f3d c080 cd3d 035b 7dbb
000003b0: 5e04 3abe b252 d13d 6ad1 d0bd a3e0 19bd
000003c0: e85c b33d c7fd 14bd 6443 57bd 7aaa 493d
000003d0: 7eae 4cbd ae28 b73c 3a6d 11ba e36e d13c
000003e0: 9b56 1b3c 10c4 00bd aa07 433d 4318 333d
000003f0: 8fd8 723d 34c2 b2bd 6f38 a0ba 28dd 4bbd
0.0748924 0.050023947 -0.08952113 -0.07093831 0.0046353065 0.05104332 0.021105982 -0.08317906
0.036535293 -0.046115335 -0.05264784 -0.087727904 0.051945105 0.037296843 -0.04861409 -0.059098724
-0.017226707 0.079084404 -0.14555421 0.029082276 0.111710615 -0.087923 0.04119762 0.014774041
-0.10291467 0.008312779 -0.011951093 0.008781699 0.0022354613 -0.081009395 -0.048293557 -0.05308744
-0.16806754 -0.031448964 0.038672496 0.05747802 0.018348338 0.1674585 0.030052718 0.06302465
0.00885069 0.08937277 0.0601236 0.12534222 0.09546291 -0.086420015 0.05172759 0.06283258
0.052156102 -0.019053977 0.027987335 -0.11740437 -0.024193361 -0.08215501 -0.014242974 0.028307581
-0.105916135 -0.070506364 -0.0680484 0.02795493 0.002676173 0.0041850065 0.073996104 -0.10605945
0.015832197 -0.08572948 0.0058921464 0.093434 -0.03623899 -0.003080552 -0.07518441 -0.13812122
0.0018197694 -0.032753717 0.086495966 -0.0058305534 0.03590806 0.09537507 -0.019214878 0.0073881787
-0.014561494 -0.017042866 0.0059938817 0.12774685 -0.031331904 0.019954989 0.14172883 -0.007960692
0.08280116 0.046816293 0.00738701 -0.12758274 0.11475264 0.0783865 -0.05019345 -0.08593458
0.04220845 0.0234786 -0.041144144 -0.0528177 -0.11173461 -0.089616716 -0.02177197 -0.012689301
-0.13264903 0.03154526 0.045725323 0.08042833 0.14625204 -0.07120839 0.029762812 0.09604636
0.020162432 -0.040242143 -0.05538298 0.019787658 0.3757789 0.021524822 -0.0139745725 0.003711314
-0.096766986 -0.121048376 0.07528784 -0.054158546 0.018189752 0.04364995 -0.10362831 0.044780724
-0.15151434 0.12043838 0.023101268 -0.10818794 0.031486258 -0.04844947 0.025089143 0.13908681
0.103227004 -0.023558095 -0.009037007 -0.07015435 0.014927059 0.03711293 -0.060996346 0.092236266
0.028208215 0.002155791 0.059785884 0.009751882 0.13246596 0.07213874 0.02974953 -0.009159454
-0.0032331303 -0.09949016 0.013190737 0.075168036 0.023728892 0.004145254 0.014684194 -0.013534928
0.108346365 0.036932252 0.08542577 -0.040421788 0.052829657 0.102103285 0.05170161 0.017971
-0.07185436 0.038363736 -0.041529115 -0.20256586 -0.043878485 0.086006686 0.049286973 -0.001637596
0.0590134 0.124617524 -0.007617946 -0.053846296 -0.01456143 -0.10187499 0.014455198 0.01190995
-0.045466013 0.01572064 0.06651849 -0.04994521 -0.018247774 0.009659591 0.005519678 -0.020726677
0.046668798 -0.023778327 -0.020895991 -0.044315655 -0.008174631 -0.015041301 0.094640955 0.013786901
0.011477872 0.032347675 0.03677819 -0.01311492 -0.03329624 -0.15169153 0.0042999233 0.023962002
-0.00468795 -0.02229845 -0.0013540715 0.07388805 -0.022536598 -0.0992369 -0.06912404 -0.020812802
0.05157511 -0.000519269 -0.012757955 0.044676576 -0.033209633 0.022262326 -0.08994309 -0.034094643
0.15649414 -0.21477155 -0.04425999 0.07785456 -0.013901487 -0.03854967 0.21683632 -0.032625183
-0.07434509 0.054522883 0.10034323 -0.0038658984 -0.18165728 0.10220851 -0.101961926 -0.037567746
0.08757955 -0.036374833 -0.052554503 0.049234845 -0.049971096 0.022358265 -0.0005547587 0.02556557
0.009481098 -0.03143698 0.04761473 0.04372431 0.059288558 -0.087284476 -0.001222385 -0.049771458

layer2.conv1.bias f4 [32]
00000000: 678f 8a3b f375 8e3c 72b1 4e3c 9e9e 12bd
00000010: 35ab 1cbd 4bef f9bc 27c7 ca3c 7dc5 ea3c
00000020: 6d4b 9ebb dee1 113c 1d70 88bc cd61 fe39
00000030: 71d5 dd3c d4a6 0abb 2396 1e3d 0247 bd3a
00000040: a828 983c 7427 383d 7dd0 9cbc dcf4 b4bc
00000050: ed32 663c 3a72 183d 8729 8aba 7292 033d
00000060: 2cb7 f63c dc4b ea3c 7fc8 e5bc a07a 7dbd
00000070: 31f7 263d 4ca9 143d a8ad 16bd efcc 90bc
0.0042285207 0.017390227 0.012615548 -0.0357958 -0.038249213 -0.030509612 0.024753166 0.028658623
-0.004830769 0.008903949 -0.016655022 0.00048519523 0.027079316 -0.0021156566 0.0387174 0.0014440718
0.018574074 0.0449595 -0.019142384 -0.022089414 0.014050228 0.03721831 -0.001054094 0.032122083
0.03011664 0.028600626 -0.028049706 -0.061884522 0.040763084 0.036294267 -0.036786705 -0.017675845

layer2.conv2.weight f4 [64, 32, 3, 3]
00000000: 55f9 20bd d30a 373d c7ac b33c 4c89 d93d
00000010: c907 d03c d1cb 733c 7d80 c83c 09b9 52bd
00000020: 85f7 acbc 753e 7b3d df0f ee3d 10ff 8f3c
00000030: d61d 9d3c caa9 b53d d7d8 033d 97cc c83c
00000040: a185 a9bd 13fd 9ebd 27f9 e0bc 50f5 5abc
00000050: 7cbb d6bd 1167 fb3b 79e7 98bc d674 96ba
00000060: f209 883c e031 1cbd 2965 b6ba 44fa 8cbd
00000070: d996 2cbd b34e 8c3c 323a adbd 0fea 47bd
00000080: c081 2c3d 8db0 2dbc b1c6 883c 16ad 263d
00000090: e15a 4b3d a348 b9bc aa76 b2bc d82a 113b
000000a0: cc89 58bd 2584 7eba 3a0c 423c fe10 1abd
000000b0: f55f c63c c9b9 243d b986 523c 4969 05bd
000000c0: 974e 1a3c 80c1 193d 5c4e 9b3b f6d9 d43a
000000d0: b865 953b 392f 38bc a985 e7bb bc93 cfb9
000000e0: fa08 ba3c 2e0c afbb e57d 0abd 04bd d9bc
000000f0: 5ca4 2dbc 9766 64b9 64f6 c53c 3ec4 b73c
00000100: 9612 5d3d 3a80 9ebc c524 c3bc 8651 4f3d
00000110: b9c2 b1bc 5538 82bc 7c04 d3bc 8b43 b13c
00000120: 4f72 93bd 077c 6c3a c3f2 153e 5af5 05bd
00000130: e31d 603c 34d9 35bd 0f62 90bb b066 1d3d
00000140: 740d 783d fa63 9fbd 642b bcba 9a43 04bd
00000150: 9585 cbbc 5367 91ba 2b77 89bd c014 dcbc
00000160: 9628 09bd dd27 5ebc 6ff1 65bc aa90 603c
00000170: b0e7 033d 33c1 52bd ca52 1cbd 747f 793c
00000180: a975 b9bc 007f 32bc 76e8 6b3a a64a fe3c
00000190: 40a8 b8bc e834 8ebd 8fac 4f3b 8ed9 abbb
000001a0: e6fd 6dbd 7fec bfbd ed76 24bb c0e5 b2bb
000001b0: 4325 963d 6b8c 18bd 9a0c 26bc a977 973d
000001c0: 818d 08bd 2628 9f3b ba8a 0abc ff6c 9a3b
000001d0: 1a59 643d 75bd e837 60cd 95b9 d3b3 40ba
000001e0: a9d1 1a38 f50c efb9 f352 c1ba e3aa 62b7
000001f0: 75f0 5fb9 3ebb b5ba f13e 003d f9cb febb
00000200: a2e4 053c bb29 943c 1211 dabc 72a5 063c
00000210: 5d6e 49bc 76f7 37bc d62d e83a 3222 ae3c
00000220: 9070 5c3c 6691 3d3c 8ca3 8d3c 588a 443c
00000230: 959f eebb fdc2 ba3a 7fc8 a13b f3d6 fc3a
00000240: 3157 c43d 8e58 d63a 7e07 463b c54e 3c3d
00000250: 4b3d 093c 842b b93b 0657 ad3c 5f71 efbc
00000260: be52 673a 845e 54bd ba4a 0cbd cf43 a0bd
00000270: 7998 a3bb 344d 4d3c cd32 2ebd aeaa e73c
00000280: 6f4f c7bc 20b0 77bc cf30 92bc 3aa8 45ba
00000290: a1ee e1bc 1627 553b 0d29 cbbb 5bae bc3c
000002a0: 88f8 38ba cb0b 04bd 7766 0a3c 20ef 883c
000002b0: 8a21 98bc e599 3cbd 232a ccbc f99c 4a3d
000002c0: a30b 04bd bdfb 133c 6b36 dc3c 8694 e0bc
000002d0: 1f4f 173d 335c bf3b cff4 7c3c 59fb 50bd
000002e0: 669f 243d 3c5a a1bc dae4 afbc b5cb 483d
000002f0: 55bd bdbc 3fa8 07bb 3712 8e3c 9976 eebc
00000300: 5e39 a2bd 4c42 34bd 2090 913b de32 4f3c
00000310: c4ed fdbb fca3 e83c 9ef0 dbbb da43 0e3d
00000320: 88fc b43c 4312 9f3c 350b 9f3c 849a 16bc
00000330: e47a a13c 1be3 0b3d 2424 de3a d8f4 0fbd
00000340: 894a a5bc d72a 593d 4d48 4bbc 6ef9 fe3a
00000350: d2c0 18bd e675 0bbd 6cd5 1cbc 6447 7cbc
00000360: f1e6 9dbb bb58 233c 5e5d 703d 2280 9b3c
00000370: a8bd 5d3d 7b4f f3bd 9bee d53b 7965 953d
00000380: acd5 dabc 6526 70bb db4f 043d 6fe3 3f3d
00000390: 7d98 e53a b08c 2dbc f732 103d 9a5e 2ebd
000003a0: 9ea3 33bd 799d 07bc 9c1d 403d 0ca4 b6bc
000003b0: 66df 8fbb 565d 013d 4dc3 adbc e96b 8e3c
000003c0: d367 16bd f2e8 84bd 48d9 a63c 9ee8 193d
000003d0: 657a e23c 73bb 463d d703 e0bc 79a6 ea3c
000003e0: bd2c 7bbd 7fc1 29bd 5f1b b5bb d948 74bd
000003f0: 9bd0 ee3c 108d a03d 8567 b33c 9a46 05bc
-0.03930028 0.044688057 0.021932973 0.106218904 0.025394337 0.014880137 0.02447533 -0.051445995
-0.02111412 0.06133886 0.11624121 0.017577678 0.019179266 0.08870275 0.032189216 0.024511619
-0.08277441 -0.07763114 -0.027462555 -0.013364151 -0.104849786 0.0076721986 -0.018665062 -0.0011478912
0.016606305 -0.038133502 -0.0013915646 -0.06883672 -0.042136047 0.01712737 -0.084583655 -0.0488072
0.042115927 -0.010601175 0.016696306 0.04069241 0.049647216 -0.022617644 -0.021785099 0.002215078
-0.05286579 -0.0009709022 0.011843735 -0.03761386 0.024215678 0.04021624 0.012849503 -0.03257111
0.009418151 0.03753805 0.004739566 0.0016239274 0.004559245 -0.0112417275 -0.007065494 -0.00039592187
0.022709358 -0.005342028 -0.03381147 -0.026579387 -0.010598268 -0.00021781992 0.02416534 0.022432443
0.053972803 -0.019348253 -0.023821244 0.050614856 -0.021699296 -0.015896002 -0.025758974 0.021638652
-0.07199537 0.0009021167 0.14643387 -0.03270469 0.013679001 -0.044396594 -0.0044062207 0.03842801
0.060559705 -0.07782741 -0.0014356193 -0.032291032 -0.02484397 -0.0011093415 -0.067121826 -0.026865363
-0.03348597 -0.013559309 -0.014034613 0.013706366 0.032203376 -0.05145378 -0.03816489 0.015228141
-0.022639113 -0.010894537 0.0008999178 0.031041455 -0.022541165 -0.06943685 0.0031688546 -0.0052444404
-0.058103465 -0.0937128 -0.00250953 -0.0054595172 0.07331326 -0.037243288 -0.01013484 0.0739587
-0.033338074 0.004857081 -0.008455927 0.0047127004 0.055749036 2.7744778e-05 -0.0002857251 -0.00073510146
3.6911722e-05 -0.00045595286 -0.0014749452 -1.3510437e-05 -0.00021356514 -0.0013865007 0.031310026 -0.0077757803
0.008172186 0.018086305 -0.026619468 0.008218156 -0.012294379 -0.011228433 0.0017713855 0.02125654
0.013454571 0.01157031 0.0172899 0.011995874 -0.0072822073 0.0014248785 0.004937231 0.0019290134
0.09586943 0.0016353296 0.0030216868 0.045973558 0.00837643 0.0056509394 0.02115966 -0.029228864
0.000882428 -0.05184795 -0.034250952 -0.078254335 -0.0049925414 0.012530614 -0.042528916 0.028279629
-0.02432987 -0.015117675 -0.01784554 -0.00075400213 -0.027579607 0.0032524518 -0.006199962 0.023032358
-0.0007056077 -0.03223781 0.008447281 0.016715586 -0.01857068 -0.046045203 -0.024922436 0.049466107
-0.03223766 0.009032187 0.026881417 -0.027414571 0.03694069 0.0058398484 0.015439226 -0.051020954
0.040191077 -0.019696347 -0.02147143 0.049022395 -0.02316157 -0.0020699648 0.01734267 -0.029109286
-0.07921098 -0.044008538 0.00444223 0.012646405 -0.007749291 0.028398506 -0.0067120334 0.034732677
0.022093073 0.019417888 0.019414524 -0.009192113 0.01971192 0.03415213 0.0016948027 -0.03514561
-0.020177143 0.05301937 -0.012407375 0.0019452998 -0.037293263 -0.034047984 -0.009572368 -0.01539788
-0.00481879 0.009969885 0.058682792 0.018981997 0.05413595 -0.11880394 0.006528688 0.07294745
-0.026713215 -0.0036643979 0.03230272 0.046847757 0.0017516759 -0.010592625 0.035204854 -0.042570688
-0.04385721 -0.0082772905 0.046903238 -0.02229502 -0.004390645 0.031583153 -0.02121129 0.01738544
-0.03672011 -0.06489743 0.02036728 0.037575357 0.027646253 0.04851861 -0.027345581 0.028643833
-0.061321963 -0.041444298 -0.0055269445 -0.059639785 0.029152205 0.078394055 0.021899948 -0.0081345085

layer2.conv2.bias f4 [64]
00000000: bacf d43c 716a d6bc 0939 4ebc b615 18bd
00000010: d5bc e53c 9183 333d f27a eb3b 3040 f7b9
00000020: f8ed ec39 1a32 b33a 6965 24bd 8ef6 083d
00000030: 4d07 e23c f7d9 093d 1229 4fbd 3f88 6f3d
00000040: fc7c 693c 0a21 00bd 99a6 05bd 3a83 6c3d
00000050: 55ba 073d cb1a 58bb 90eb a83b e19e 0abd
00000060: 48f0 723d 916f 0dbd d8c8 0dbb bcb9 fcbc
00000070: fb00 103c 11d0 c83a 83f3 bd3b 7f20 caba
00000080: 5052 0ebd 0a10 b43b 2478 56bd d822 e53c
00000090: 0f0d c63c feb6 1ebd 10f7 fabc c92f b3bc
000000a0: 8ff6 493c af7c 343d 1606 bd3c 9918 fb3c
000000b0: 91ed ec3b 551b 333c 1bc4 d93a 9497 cdbc
000000c0: b555 433d b2f7 3b3d ed83 aa3b 5252 343d
000000d0: a2d7 0abd fa7e 0f3d 4ee2 55bd 719f 7fbc
000000e0: 026b 95bc 7661 b0bc 530e fabc d006 153d
000000f0: 0198 c9bc f408 d9bc 9399 ef3c 7311 673c
0.025977958 -0.026173802 -0.01258684 -0.03713008 0.028044144 0.043826643 0.007186287 -0.00047159335
0.00045190728 0.0013671548 -0.040135775 0.033438258 0.027591372 0.033655133 -0.050576277 0.058479544
0.01425099 -0.03128151 -0.032629583 0.057742335 0.033136684 -0.0032974954 0.0051550344 -0.033842925
0.05931118 -0.034530226 -0.0021634605 -0.030850284 0.008789296 0.0015320798 0.005796851 -0.0015421062
-0.034746468 0.005495076 -0.05236067 0.027970716 0.024176149 -0.038748734 -0.030635387 -0.021873372
0.012326851 0.04406422 0.023074191 0.030651378 0.0072304686 0.010931809 0.001661423 -0.025096692
0.04768916 0.045890518 0.005203715 0.04402382 -0.03389705 0.035033204 -0.052217774 -0.015601979
-0.018239502 -0.021530848 -0.030524408 0.03638345 -0.024608614 -0.026493527 0.029248035 0.014103281

fc1.weight f4 [1, 3200]
00000000: 9c0b 0180 96d0 5b3a 9885 793c 9ce1 fd3a
00000010: 9216 0280 96c4 0180 9950 503b 798a 693c
00000020: 12db b33c 5d79 f7b8 e7c5 1e3b f615 b5bb
00000030: a798 633c 715a 98bc 1760 0080 f4b4 353d
00000040: 62c7 2f3c c9bc 76bb 5cdc aebc 7d98 0280
00000050: 8c0e 85bc 51a0 29bb 7119 f83a d573 ebbb
00000060: bba6 a93d e74c 653d f1ca 96bc d398 2fbb
00000070: ad13 353b 976d afae 0139 083c 0fee b9bc
00000080: 3a6e 0bbb 570f 13bb 29ea 05bd 49c4 b6bc
00000090: 297f 95bd 48ba f33b fdd8 cfba afbe 42bc
000000a0: bed5 95bb e924 a6ba 1c35 833b 0375 0cba
000000b0: e403 ed3d 03a3 3bbd 90ad da3c cf7b 9ab9
000000c0: 10c4 92bc fe28 14bc 8f57 0280 3930 0200
000000d0: 5a5b 0100 c197 b33b 5b36 64bd 006d 0200
000000e0: 58d1 0080 4771 0000 5a23 bcbb e0c4 87bc
000000f0: 9d5c 0280 90ef 0180 f375 0180 f423 75bd
00000100: c516 c0bd e354 443e e618 0280 a9f0 0080
00000110: f46d 123d 65f4 c8bc c2d8 0180 e721 0000
00000120: cbeb 0000 7013 87bc ce5f f2bd e891 f53d
00000130: 4f35 0100 d43b 0000 2b4c 25bc 6264 bbbc
00000140: ae97 0280 f899 0100 6034 0200 eb80 fdbc
00000150: be86 86bc 2276 ac3b cf77 0000 4692 0100
00000160: 3cb0 d8ba 2926 023d 4ea7 0b3c 1f82 49bb
00000170: ccd0 0100 ae74 1588 3091 903a 33e4 21be
00000180: e0eb 83bc b719 0100 39b6 0080 19f0 2039
00000190: 34a6 31bc 0791 b83b c451 aa3c 17b0 aaba
000001a0: 6678 7ab9 66b3 c03c 6f02 3b3d 0c4b 1fbd
000001b0: 2526 debb 957e 073b 680e 943c 6da5 8e3b
000001c0: 9fbd 6bbc 0756 bebc 9cbd 9b3d 3982 b7bd
000001d0: d874 2d3c b2a1 20bb a202 a63b 1f89 6c3c
000001e0: bd57 50bc 67d9 833c 50be c1bc 81bc 55bc
000001f0: f29c 033d ada2 29bd 1e7e be3d 9cc5 9ebc
00000200: f43e 303a 96cc d5bc e164 a0bc 32ee eebc
00000210: 1aba 3a3c dead 0cbd 3fa1 6e3d 1622 c5bd
00000220: 199a 8d3c 399f 533b 22f1 4939 0587 f03c
00000230: f6b3 0280 ddb2 0100 dde1 0138 f443 73bd
00000240: 8f88 45be b657 ea3c 919e 31be 1de5 743d
00000250: 30d8 633d 54d1 fd3c 4a68 6d3b 70b7 32bd
00000260: c574 dfbc b990 ad3b 8d18 f43c be3c 313d
00000270: c518 45bc 054b dbbc 66d7 3d3d 399c b93a
00000280: 7b9b 94bb 1132 a8bb f6ab 21bb 64a3 20bd
00000290: 7668 64bd 43fb f53c 7769 9c3d 5861 4bbc
000002a0: d742 bf3a 8250 afbc d959 a93c 0c65 c13c
000002b0: 9b06 f8ba 4c31 a53c b4c6 ce3c 19b6 8b3c
000002c0: 622e df3c 738d 15bb dc90 a2bc 9dbf b93c
000002d0: a918 97bc 1dde 9b3c cca0 513c 6bc5 d53c
000002e0: 7f32 83be ac1b babd 53fc 003d 0667 1b3c
000002f0: 88d8 39bb f2c3 323c 993c 923b 4eb2 f93c
00000300: f2b6 2bbc 6a36 873d 143b ccbd 54ef 013e
00000310: 2917 00b6 f998 f63c 1d7e 6cbd 1814 c73d
00000320: a29d d5bc 960f 4cbc 9cff ba39 a5c1 0180
00000330: 44f5 0100 df56 f93b 648c 4bbd 9cde 89bc
00000340: 571a 0080 52eb 0000 9783 d43c a4e2 723c
00000350: b9f4 7e3c 1ad5 a8bb 810a 0080 b8ac c43d
00000360: 39bb 25bd c001 a7bc 0fe0 fb3c 0253 0100
00000370: df22 ee3b 03d2 c0bc d05c 4d3c 3841 4d3c
00000380: 317a c9bd 706c 1a3e 89c8 db3c c47b 903c
00000390: 6dce 21b9 8f42 ab39 0e56 3e3a 546d e7bb
000003a0: cbab b8af 3a27 e93b 2eba 43bd b2be 5e3d
000003b0: 8d4c 1b3e b496 a4bc bad1 2e3e 0680 28bc
000003c0: fa0d 0280 7236 913c 5117 0100 ce25 b73d
000003d0: 65be ad3c 03cc 0a3e adc9 d1bc 34db 1f3c
000003e0: 9726 2e3d 79ca 18bd 8bbf 08bd 6f04 bcbc
000003f0: 7b23 48bb fc28 c0bc 3f7a 123d 1006 6bbc
-9.6e-41 0.0008385269 0.015229605 0.0019369605 -1.91768e-40 -1.62357e-40 0.0031786321 0.014254206
0.021955047 -0.000118004835 0.0024226846 -0.0055262996 0.013891376 -0.018597813 -3.447e-41 0.044362023
0.010728689 -0.0037649146 -0.02134531 -2.38373e-40 -0.016242288 -0.002588291 0.001892848 -0.007185439
0.082837544 0.055981543 -0.018407317 -0.0026793971 0.0027630136 -7.977546e-11 0.008314372 -0.022696523
-0.0021275417 -0.0022439563 -0.032694016 -0.022310393 -0.072996445 0.007437978 -0.0015857514 -0.011886283
-0.004572599 -0.0012675795 0.004004134 -0.0005358012 0.11573008 -0.045809757 0.02669409 -0.00029465414
-0.017915756 -0.009042976 -2.15081e-40 2.0097e-40 1.24606e-40 0.005480737 -0.0557159 2.22773e-40
-7.5098e-41 4.0636e-41 -0.005741519 -0.01657337 -2.16894e-40 -1.77774e-40 -1.34148e-40 -0.05984874
-0.09379343 0.19173007 -1.92603e-40 -8.6333e-41 0.03574939 -0.024530599 -1.69594e-40 1.2162e-41
8.4587e-41 -0.01648876 -0.118346795 0.1199072 1.10959e-40 2.1462e-41 -0.010088961 -0.022875015
-2.38083e-40 1.47069e-40 2.0246e-40 -0.030945262 -0.016421672 0.005263106 4.2979e-41 1.44309e-40
-0.0016532014 0.031774674 0.008523775 -0.0030747724 1.66738e-40 -4.4975213e-34 0.0011029597 -0.15809707
-0.016103685 1.0106e-40 -6.5369e-41 0.00015348232 -0.010842849 0.005632523 0.020790942 -0.001302245
-0.0002388671 0.023523044 0.045656618 -0.03888993 -0.0067794495 0.0020674814 0.018073276 0.0043532164
-0.014388471 -0.02323438 0.076045245 -0.08960385 0.01058694 -0.002451044 0.005066232 0.014436989
-0.012716231 0.016094876 -0.023650318 -0.013045431 0.032132097 -0.041414905 0.09301399 -0.019381337
0.0006723248 -0.02609853 -0.019579353 -0.029166315 0.011396909 -0.0343455 0.058259245 -0.09625642
0.017285394 0.003229095 0.00019258683 0.029361257 -2.48229e-40 1.56e-40 3.096635e-05 -0.059390977
-0.19290374 0.028606277 -0.17345645 0.059788812 0.055626094 0.030983604 0.0036225491 -0.04363197
-0.02727736 0.0052967933 0.029796863 0.04327082 -0.012029831 -0.02676917 0.046347998 0.0014160938
-0.0045351363 -0.0051329215 -0.0024669147 -0.03921832 -0.055763684 0.030027037 0.07637303 -0.012413345
0.0014592063 -0.021400694 0.020672726 0.023607753 -0.0018922867 0.020165108 0.025241233 0.017054604
0.027243797 -0.0022819906 -0.019844465 0.022674376 -0.018444376 0.01902681 0.012794685 0.026095113
-0.25624463 -0.09087309 0.031490635 0.009485012 -0.0028357822 0.010910975 0.00446279 0.03048053
-0.010480629 0.066021755 -0.09972206 0.12688953 -1.9086967e-06 0.03010224 -0.05773746 0.097206295
-0.026076142 -0.012454888 0.00035667128 -1.61302e-40 1.7982e-40 0.007609233 -0.049694434 -0.016829781
-9.449e-42 8.4417e-41 0.025941653 0.014824543 0.015561276 -0.005152357 -3.768e-42 0.09603256
-0.040461753 -0.020386577 0.030746488 1.21613e-40 0.0072673406 -0.023537641 0.012534335 0.012527756
-0.09837759 0.15080428 0.026829021 0.017637141 -0.00015431056 0.00032665252 0.0007260748 -0.0070625935
-3.359147e-10 0.007115272 -0.047784977 0.05438108 0.1516592 -0.020091392 0.17072192 -0.010284429
-1.88685e-40 0.017726157 1.002e-40 0.089427575 0.021208951 0.13554387 -0.025608862 0.009756852
0.04251727 -0.037302468 -0.033385795 -0.022951333 -0.0030538726 -0.023457043 0.035761114 -0.014344707

out.0.weight f4 [1, 3200]
00000000: 9c0b 0180 96d0 5b3a 9885 793c 9ce1 fd3a
00000010: 9216 0280 96c4 0180 9950 503b 798a 693c
00000020: 12db b33c 5d79 f7b8 e7c5 1e3b f615 b5bb
00000030: a798 633c 715a 98bc 1760 0080 f4b4 353d
00000040: 62c7 2f3c c9bc 76bb 5cdc aebc 7d98 0280
00000050: 8c0e 85bc 51a0 29bb 7119 f83a d573 ebbb
00000060: bba6 a93d e74c 653d f1ca 96bc d398 2fbb
00000070: ad13 353b 976d afae 0139 083c 0fee b9bc
00000080: 3a6e 0bbb 570f 13bb 29ea 05bd 49c4 b6bc
00000090: 297f 95bd 48ba f33b fdd8 cfba afbe 42bc
000000a0: bed5 95bb e924 a6ba 1c35 833b 0375 0cba
000000b0: e403 ed3d 03a3 3bbd 90ad da3c cf7b 9ab9
000000c0: 10c4 92bc fe28 14bc 8f57 0280 3930 0200
000000d0: 5a5b 0100 c197 b33b 5b36 64bd 006d 0200
000000e0: 58d1 0080 4771 0000 5a23 bcbb e0c4 87bc
000000f0: 9d5c 0280 90ef 0180 f375 0180 f423 75bd
00000100: c516 c0bd e354 443e e618 0280 a9f0 0080
00000110: f46d 123d 65f4 c8bc c2d8 0180 e721 0000
00000120: cbeb 0000 7013 87bc ce5f f2bd e891 f53d
00000130: 4f35 0100 d43b 0000 2b4c 25bc 6264 bbbc
00000140: ae97 0280 f899 0100 6034 0200 eb80 fdbc
00000150: be86 86bc 2276 ac3b cf77 0000 4692 0100
00000160: 3cb0 d8ba 2926 023d 4ea7 0b3c 1f82 49bb
00000170: ccd0 0100 ae74 1588 3091 903a 33e4 21be
00000180: e0eb 83bc b719 0100 39b6 0080 19f0 2039
00000190: 34a6 31bc 0791 b83b c451 aa3c 17b0 aaba
000001a0: 6678 7ab9 66b3 c03c 6f02 3b3d 0c4b 1fbd
000001b0: 2526 debb 957e 073b 680e 943c 6da5 8e3b
000001c0: 9fbd 6bbc 0756 bebc 9cbd 9b3d 3982 b7bd
000001d0: d874 2d3c b2a1 20bb a202 a63b 1f89 6c3c
000001e0: bd57 50bc 67d9 833c 50be c1bc 81bc 55bc
000001f0: f29c 033d ada2 29bd 1e7e be3d 9cc5 9ebc
00000200: f43e 303a 96cc d5bc e164 a0bc 32ee eebc
00000210: 1aba 3a3c dead 0cbd 3fa1 6e3d 1622 c5bd
00000220: 199a 8d3c 399f 533b 22f1 4939 0587 f03c
00000230: f6b3 0280 ddb2 0100 dde1 0138 f443 73bd
00000240: 8f88 45be b657 ea3c 919e 31be 1de5 743d
00000250: 30d8 633d 54d1 fd3c 4a68 6d3b 70b7 32bd
00000260: c574 dfbc b990 ad3b 8d18 f43c be3c 313d
00000270: c518 45bc 054b dbbc 66d7 3d3d 399c b93a
00000280: 7b9b 94bb 1132 a8bb f6ab 21bb 64a3 20bd
00000290: 7668 64bd 43fb f53c 7769 9c3d 5861 4bbc
000002a0: d742 bf3a 8250 afbc d959 a93c 0c65 c13c
000002b0: 9b06 f8ba 4c31 a53c b4c6 ce3c 19b6 8b3c
000002c0: 622e df3c 738d 15bb dc90 a2bc 9dbf b93c
000002d0: a918 97bc 1dde 9b3c cca0 513c 6bc5 d53c
000002e0: 7f32 83be ac1b babd 53fc 003d 0667 1b3c
000002f0: 88d8 39bb f2c3 323c 993c 923b 4eb2 f93c
00000300: f2b6 2bbc 6a36 873d 143b ccbd 54ef 013e
00000310: 2917 00b6 f998 f63c 1d7e 6cbd 1814 c73d
00000320: a29d d5bc 960f 4cbc 9cff ba39 a5c1 0180
00000330: 44f5 0100 df56 f93b 648c 4bbd 9cde 89bc
00000340: 571a 0080 52eb 0000 9783 d43c a4e2 723c
00000350: b9f4 7e3c 1ad5 a8bb 810a 0080 b8ac c43d
00000360: 39bb 25bd c001 a7bc 0fe0 fb3c 0253 0100
00000370: df22 ee3b 03d2 c0bc d05c 4d3c 3841 4d3c
00000380: 317a c9bd 706c 1a3e 89c8 db3c c47b 903c
00000390: 6dce 21b9 8f42 ab39 0e56 3e3a 546d e7bb
000003a0: cbab b8af 3a27 e93b 2eba 43bd b2be 5e3d
000003b0: 8d4c 1b3e b496 a4bc bad1 2e3e 0680 28bc
000003c0: fa0d 0280 7236 913c 5117 0100 ce25 b73d
000003d0: 65be ad3c 03cc 0a3e adc9 d1bc 34db 1f3c
000003e0: 9726 2e3d 79ca 18bd 8bbf 08bd 6f04 bcbc
000003f0: 7b23 48bb fc28 c0bc 3f7a 123d 1006 6bbc
-9.6e-41 0.0008385269 0.015229605 0.0019369605 -1.91768e-40 -1.62357e-40 0.0031786321 0.014254206
0.021955047 -0.000118004835 0.0024226846 -0.0055262996 0.013891376 -0.018597813 -3.447e-41 0.044362023
0.010728689 -0.0037649146 -0.02134531 -2.38373e-40 -0.016242288 -0.002588291 0.001892848 -0.007185439
0.082837544 0.055981543 -0.018407317 -0.0026793971 0.0027630136 -7.977546e-11 0.008314372 -0.022696523
-0.0021275417 -0.0022439563 -0.032694016 -0.022310393 -0.072996445 0.007437978 -0.0015857514 -0.011886283
-0.004572599 -0.0012675795 0.004004134 -0.0005358012 0.11573008 -0.045809757 0.02669409 -0.00029465414
-0.017915756 -0.009042976 -2.15081e-40 2.0097e-40 1.24606e-40 0.005480737 -0.0557159 2.22773e-40
-7.5098e-41 4.0636e-41 -0.005741519 -0.01657337 -2.16894e-40 -1.77774e-40 -1.34148e-40 -0.05984874
-0.09379343 0.19173007 -1.92603e-40 -8.6333e-41 0.03574939 -0.024530599 -1.69594e-40 1.2162e-41
8.4587e-41 -0.01648876 -0.118346795 0.1199072 1.10959e-40 2.1462e-41 -0.010088961 -0.022875015
-2.38083e-40 1.47069e-40 2.0246e-40 -0.030945262 -0.016421672 0.005263106 4.2979e-41 1.44309e-40
-0.0016532014 0.031774674 0.008523775 -0.0030747724 1.66738e-40 -4.4975213e-34 0.0011029597 -0.15809707
-0.016103685 1.0106e-40 -6.5369e-41 0.00015348232 -0.010842849 0.005632523 0.020790942 -0.001302245
-0.0002388671 0.023523044 0.045656618 -0.03888993 -0.0067794495 0.0020674814 0.018073276 0.0043532164
-0.014388471 -0.02323438 0.076045245 -0.08960385 0.01058694 -0.002451044 0.005066232 0.014436989
-0.012716231 0.016094876 -0.023650318 -0.013045431 0.032132097 -0.041414905 0.09301399 -0.019381337
0.0006723248 -0.02609853 -0.019579353 -0.029166315 0.011396909 -0.0343455 0.058259245 -0.09625642
0.017285394 0.003229095 0.00019258683 0.029361257 -2.48229e-40 1.56e-40 3.096635e-05 -0.059390977
-0.19290374 0.028606277 -0.17345645 0.059788812 0.055626094 0.030983604 0.0036225491 -0.04363197
-0.02727736 0.0052967933 0.029796863 0.04327082 -0.012029831 -0.02676917 0.046347998 0.0014160938
-0.0045351363 -0.0051329215 -0.0024669147 -0.03921832 -0.055763684 0.030027037 0.07637303 -0.012413345
0.0014592063 -0.021400694 0.020672726 0.023607753 -0.0018922867 0.020165108 0.025241233 0.017054604
0.027243797 -0.0022819906 -0.019844465 0.022674376 -0.018444376 0.01902681 0.012794685 0.026095113
-0.25624463 -0.09087309 0.031490635 0.009485012 -0.0028357822 0.010910975 0.00446279 0.03048053
-0.010480629 0.066021755 -0.09972206 0.12688953 -1.9086967e-06 0.03010224 -0.05773746 0.097206295
-0.026076142 -0.012454888 0.00035667128 -1.61302e-40 1.7982e-40 0.007609233 -0.049694434 -0.016829781
-9.449e-42 8.4417e-41 0.025941653 0.014824543 0.015561276 -0.005152357 -3.768e-42 0.09603256
-0.040461753 -0.020386577 0.030746488 1.21613e-40 0.0072673406 -0.023537641 0.012534335 0.012527756
-0.09837759 0.15080428 0.026829021 0.017637141 -0.00015431056 0.00032665252 0.0007260748 -0.0070625935
-3.359147e-10 0.007115272 -0.047784977 0.05438108 0.1516592 -0.020091392 0.17072192 -0.010284429
-1.88685e-40 0.017726157 1.002e-40 0.089427575 0.021208951 0.13554387 -0.025608862 0.009756852
0.04251727 -0.037302468 -0.033385795 -0.022951333 -0.0030538726 -0.023457043 0.035761114 -0.014344707

exp_avg f4 [32, 2, 5, 5]
00000000: 9b72 8f3a df74 413a 7e1a f939 449a 5139
00000010: 0556 6db8 133d 8e3a 59ab 413a df08 fa39
00000020: 4abb 6939 1a90 1836 6a34 743a 837d 213a
00000030: 3a7b d239 af65 3f39 7e10 0337 effe 2b3a
00000040: 83fe ce39 30bd 7e39 8105 7438 080e 7eb8
00000050: 10e3 b139 e16d db38 b978 1537 c714 f8b8
00000060: 8282 3fb9 1bf7 883a 0458 2d3a cf0e c939
00000070: 1e82 d938 7622 ffb8 d263 893a aff7 2f3a
00000080: cf1b d839 1959 1b39 5134 dbb8 611c 6b3a
00000090: c687 163a e774 bc39 e6f6 0939 fa5d 94b8
000000a0: f4d4 293a 144f c139 1553 5239 c343 9d37
000000b0: 0792 06b9 e1ca c139 1037 1939 936a ed37
000000c0: f8b4 d8b8 3dda 62b9 8453 fb39 2cb5 c839
000000d0: ca8c c039 2a1d a039 08c5 3339 9423 5739
000000e0: aa42 5339 3eb3 8239 22b2 4739 76a3 8938
000000f0: be92 0ab9 4dab 7eb8 304e c837 3baa 5a37
00000100: 172e d5b8 1f8b 7ab9 cf5b 0db9 5029 e5b7
00000110: 0250 69b8 f9cf 18b9 aece 9bb9 e4e3 44b9
00000120: d448 bbb8 2f4a d8b8 dc33 55b9 2f5f 8039
00000130: 7237 5b39 5649 8539 b33b 6b39 4d01 2639
00000140: 1910 85b8 906d 3f37 56b9 e338 a8a5 0939
00000150: 6788 e538 1f8c acb9 a27e 51b9 0023 6db8
00000160: 4e0d 2236 42f7 94b7 aff0 eab9 a267 91b9
00000170: 3662 f4b8 bab7 36b8 032d b5b8 613e ecb9
00000180: 9332 9bb9 7310 f9b8 10a6 9bb8 2c2e d1b8
00000190: ecd6 b839 22ff 7239 61b2 1539 7357 2138
000001a0: 58f3 b4b8 21c2 9539 e473 4439 e86f e538
000001b0: e30a 1338 40ba 96b8 dcfc 6339 769f 3639
000001c0: 8bc3 c338 6796 4636 8007 6cb8 e710 5839
000001d0: 6b6d 2639 8757 b638 7a58 9337 f3ea d1b7
000001e0: c993 193a fb53 063a 4fde ea39 bb75 d339
000001f0: f5e7 ac39 eeca 7039 2835 3c39 9d5e 2739
00000200: 1ae7 1939 18cc 1839 5293 3d39 1cd4 1739
00000210: 8d89 0b39 ac71 d638 8c83 b438 fd26 4039
00000220: 8f6d 0239 3c9a 0339 100c dc38 d014 8238
00000230: d5af 3439 1ad6 f238 9189 cf38 0007 ae38
00000240: 4e74 e437 8d40 133a e238 fe39 b203 ed39
00000250: 7550 de39 8054 d539 af54 c639 2061 d4b8
00000260: 4558 02ba 68e1 45ba 2744 27ba 1d2d 3c3a
00000270: eeef c538 5fab b8b9 86ab 19ba 4f4a 96b9
00000280: 707d 963a 4e27 0b3a 287e f737 f26a f9b8
00000290: e861 8a39 5108 bb3a d618 4c3a 7cb2 a739
000002a0: 2e4b 1239 357d 013a b0e1 d13a 121d 7c3a
000002b0: 0a40 0d3a f5f8 c739 ac68 243a ebc8 ac39
000002c0: 664f 84b9 a501 43ba 2623 8aba d68a 79ba
000002d0: 2919 303a 86f6 c7b7 2753 2dba 095d 5cba
000002e0: cdf4 29ba 9530 903a fe98 b539 0991 5fb9
000002f0: 8d65 eab9 fea8 11b9 8ab0 b83a aee6 243a
00000300: 3899 1737 db4f bbb8 d455 7439 dfc1 cb3a
00000310: 724d 5d3a a205 c639 9b10 dc38 6b46 d039
00000320: d10b 083a 1612 0e3a 4951 fb39 9a24 ee39
00000330: c60a c439 a4dc 4c39 60ec 9639 a17f a239
00000340: d814 b639 8a64 a839 ea0d 27b9 2d6a 4c38
00000350: 9d43 5239 554c 8b39 ee3b 9a39 6f68 f7b9
00000360: f721 31b9 1b09 2638 a0d3 4339 1989 9339
00000370: 251f 52ba 55a5 d5b9 dd9b c8b8 8719 2539
00000380: 09b6 9039 c7e5 fa39 d269 b639 2f2f 9f39
00000390: ae5a 8139 0530 6339 b229 f638 a887 f738
000003a0: 9ebc 2439 7056 3039 b237 4d39 169a 78b9
000003b0: 95f4 19b9 8463 1bb8 63b1 b738 0ed6 3039
000003c0: 0899 25ba 1df5 dab9 2497 5db9 d987 0db3
000003d0: c36a 1439 e49c 7aba b224 2fba cc3f b7b9
000003e0: b3ab d9b8 bc0a 1a39 f140 f739 16e1 f039
000003f0: 2cbb bd39 d7b1 5939 6f52 04b9 f2d0 143a
0.0010944189 0.0007379781 0.0004751272 0.00019989262 -5.6585315e-05 0.0010851942 0.00073878985 0.00047690325
0.00022290382 2.2733643e-06 0.00093156716 0.00061603653 0.00040146132 0.0001825306 7.812048e-06 0.00065611204
0.00039481008 0.00024293805 5.817926e-05 -6.0571387e-05 0.00033929246 0.000104632 8.9092e-06 -0.000118294316
-0.00018263797 0.001044962 0.00066125416 0.0003834874 0.000103716025 -0.000121657664 0.0010482019 0.0006712628
0.0004121945 0.00014815143 -0.000104524785 0.00089687674 0.0005742278 0.00035945253 0.00013157315 -7.0746944e-05
0.0006478571 0.00036870746 0.00020058111 1.8747412e-05 -0.00012833635 0.00036962985 0.0001461173 2.830223e-05
-0.00010333391 -0.0002163434 0.00047936675 0.00038281956 0.0003672599 0.00030539307 0.0001714417 0.00020517252
0.00020147362 0.00024929078 0.00019044479 6.563116e-05 -0.00013215371 -6.0717855e-05 2.3878267e-05 1.3033447e-05
-0.000101652164 -0.00023893685 -0.00013481009 -2.7318165e-05 -5.5626042e-05 -0.00014573325 -0.00029717892 -0.00018776912
-8.93042e-05 -0.000103135004 -0.00020332582 0.0002448498 0.00020906123 0.00025422376 0.00022433586 0.00015831478
-6.3449326e-05 1.1409997e-05 0.00010858725 0.0001312705 0.00010944978 -0.00032910795 -0.00019978968 -5.65378e-05
2.4147625e-06 -1.7758113e-05 -0.0004481128 -0.00027733768 -0.0001165312 -4.356329e-05 -8.639137e-05 -0.00045059904
-0.00029601585 -0.00011876309 -7.4219075e-05 -9.974497e-05 0.00035255344 0.00023173963 0.00014276199 3.8466835e-05
-8.628395e-05 0.00028564132 0.00018735189 0.00010940415 3.505767e-05 -7.187249e-05 0.00021742604 0.00017416276
9.334747e-05 2.9591845e-06 -5.627377e-05 0.00020605662 0.00015871755 8.6947395e-05 1.7564966e-05 -2.5024148e-05
0.00058585085 0.00051242084 0.0004479759 0.00040332772 0.00032979218 0.00022963781 0.0001794888 0.00015961607
0.00014677309 0.0001457188 0.00018079326 0.00014479499 0.00013307315 0.00010225488 8.607571e-05 0.00018325071
0.0001243858 0.0001255059 0.00010492664 6.20276e-05 0.0001723164 0.00011579339 9.896153e-05 8.2982704e-05
2.7233877e-05 0.0005617224 0.00048489036 0.00045206916 0.00042403085 0.00040689483 0.00037828597 -0.00010127039
-0.00049722596 -0.0007548542 -0.00063807 0.0007178353 9.4383824e-05 -0.00035222896 -0.0005862046 -0.00028665594
0.0011481475 0.0005308286 2.950344e-05 -0.00011893165 0.00026394357 0.0014269446 0.0007785683 0.00031985703
0.00013951652 0.0004939617 0.0016012695 0.0009617369 0.00053882657 0.00038141725 0.0006271701 0.00032956092
-0.00025236158 -0.0007438905 -0.001053904 -0.00095192844 0.00067176163 -2.3837445e-05 -0.0006611817 -0.00084061973
-0.00064833165 0.0011000807 0.00034636998 -0.00021320967 -0.0004470762 -0.00013891232 0.0014090699 0.00062904775
9.035975e-06 -8.931729e-05 0.00023301627 0.0015545449 0.0008442021 0.000377697 0.000104935105 0.00039725317
0.0005189749 0.0005419565 0.00047935013 0.00045422168 0.0003739206 0.00019537151 0.00028786343 0.0003099414
0.00034729275 0.00032118364 -0.00015931544 4.8736274e-05 0.00020052349 0.00026569018 0.0002941782 -0.0004718932
-0.00016892688 3.9585964e-05 0.00018675486 0.0002814017 -0.0008015505 -0.00040749708 -9.565775e-05 0.00015745136
0.00027601447 0.00047854913 0.00034792587 0.00030361998 0.0002467236 0.00021666296 0.000117379604 0.00011803146
0.00015710524 0.00016816868 0.00019571072 -0.00023708525 -0.00014682331 -3.704756e-05 8.759161e-05 0.0001686441
-0.0006317054 -0.00041762824 -0.00021132507 -3.2952673e-08 0.00014154152 -0.00095601217 -0.0006681188 -0.00034952012
-0.00010379348 0.00014690583 0.00047159896 0.0004594407 0.00036188343 0.00020760983 -0.0001261921 0.0005676887

exp_avg_sq f4 [32, 2, 5, 5]
00000000: 578a a536 10ec 6936 09fd 5136 d536 5836
00000010: a0da 7336 c106 b036 4699 7136 1d49 5636
00000020: cb68 5b36 938a 6d36 28e1 ce36 fba4 8d36
00000030: 0a26 7236 b0d7 6d36 6096 7236 74b2 0137
00000040: de1c b336 075c 9236 444a 8836 598f 8236
00000050: 5c0e 1737 201d d336 1c6b a836 d80a 9736
00000060: 4295 8a36 7ff1 a736 3e06 6836 48d2 4b36
00000070: 6692 5636 c0b8 7536 b964 b536 301e 7536
00000080: ca1d 5236 0138 5936 f016 6f36 9fa8 d236
00000090: 5a4d 8e36 bb6e 6f36 31ef 6d36 0d24 7636
000000a0: 5595 ff36 a290 ae36 7741 9036 044b 8836
000000b0: 0a4e 8436 a02a 1037 ee84 c936 c801 a636
000000c0: c787 9836 7099 8c36 1310 8036 a6b9 6b36
000000d0: ee1d 6b36 1bbe 7036 6371 9036 9792 3f36
000000e0: 012a 3736 6499 3836 f561 3636 9ef7 4d36
000000f0: 7eac 2236 4341 1236 c4db 0f36 ebee 0f36
00000100: 9f25 2536 4e98 2136 651d 1136 d5ae 0c36
00000110: 4fe6 0936 cca2 1736 3747 2536 3320 1836
00000120: 3fc7 1136 2d31 0d36 0ff5 1336 7839 9436
00000130: e531 8536 43db 7d36 e079 7936 32c0 8c36
00000140: 0960 7336 91b7 5b36 b205 4b36 ee84 3c36
00000150: a6ca 4536 876b 4d36 8d85 2e36 e9fb 1a36
00000160: ca61 0d36 fae6 1b36 ba28 4636 1e89 2b36
00000170: 105e 1636 2758 0736 c9fe 0f36 4503 4136
00000180: b0bd 2c36 03c4 1936 7dfc 0b36 05a7 0d36
00000190: a32f de36 9fa4 f236 224e 0637 badb 1237
000001a0: 9be9 2237 64ab e636 fc0b f736 7c8f 0637
000001b0: 6417 1137 c2b9 1a37 48f2 f936 3529 fe36
000001c0: 0a2d 0637 9324 0d37 ce28 1237 641c 0937
000001d0: a276 0437 8374 0737 3e40 0b37 4213 0c37
000001e0: 5d58 1737 9378 0437 289b ed36 9d67 d236
000001f0: 00df ad36 cc08 ef36 f630 0037 8cd2 0837
00000200: 364b 1437 5691 2637 1c87 f736 a595 0137
00000210: 949a 0837 ea77 1137 5989 1d37 94d9 0337
00000220: fa91 0337 28ce 0737 4a6a 0d37 ae1d 1337
00000230: 23b4 0e37 4fa7 0737 59f9 0737 3336 0b37
00000240: 6372 0d37 75d9 1937 b31d 0437 0288 e936
00000250: 5642 cf36 9468 af36 b28d 4d38 f001 f337
00000260: 68a1 a637 47e0 f937 04f5 7d38 2719 6f38
00000270: 208e 0938 1c5c bd37 2954 1538 1690 9d38
00000280: ce30 6c38 6d25 0638 8377 be37 b006 1c38
00000290: 1b6c a638 66aa 4338 84fe db37 ed80 a037
000002a0: 45e2 0438 800f 8d38 d043 1138 d9b1 a537
000002b0: 7e2c 7737 10f7 c337 a112 4738 4978 5e38
000002c0: 7e59 0238 8491 b237 f531 0d38 5eb1 9138
000002d0: 8ba6 7f38 781b 1238 b25c ca37 852e 2638
000002e0: ed02 ad38 511c 7b38 3066 0d38 71ca c937
000002f0: 8134 2838 7c71 ae38 459a 4c38 047f e337
00000300: 0abf a637 71a0 0c38 6443 9038 5ade 1238
00000310: 5e09 a437 3158 7837 2dac ca37 181c 4838
00000320: 1a4d a938 0fc8 1f38 b2f5 9837 3d56 5937
00000330: 85cc 8037 1edf b538 f6a9 2738 ceed 9337
00000340: 7ca1 4537 96cf 7037 b7ae aa38 efa1 1b38
00000350: ebea 8537 c46f 3637 9dd0 6637 33c7 9338
00000360: ad00 0a38 eb69 7737 0e64 3537 8a59 6637
00000370: cb05 8138 cebb 0038 a5f1 7937 dbd8 3b37
00000380: 5b2c 6137 c024 a738 20a6 1538 cf8d 8437
00000390: 6275 4037 efb9 7537 7096 b438 22a4 1e38
000003a0: 8ebc 8137 0b61 2f37 f0f3 6537 8675 ab38
000003b0: 70ce 1738 b83f 7537 941c 2737 e741 5e37
000003c0: d1fd 9738 346d 0d38 e4e0 7437 a353 3037
000003d0: 95e5 6237 31d2 8838 a170 0b38 d737 8537
000003e0: a9a2 4337 b672 6437 bdbf 4d36 ee21 7236
000003f0: f7a4 8636 8d7a 8836 4cae 8b36 3c76 5336
4.933488e-06 3.4857112e-06 3.1290713e-06 3.2218425e-06 3.6337078e-06 5.245995e-06 3.6001015e-06 3.1931042e-06
3.269454e-06 3.5396413e-06 6.16549e-06 4.2213337e-06 3.6082952e-06 3.5441299e-06 3.614834e-06 7.7305485e-06
5.3379763e-06 4.3618525e-06 4.0617615e-06 3.89099e-06 9.003645e-06 6.2916806e-06 5.0192593e-06 4.501413e-06
4.1300964e-06 5.0051017e-06 3.4574327e-06 3.0371757e-06 3.19737e-06 3.6615384e-06 5.405946e-06 3.6525416e-06
3.1309778e-06 3.2368118e-06 3.5627127e-06 6.278118e-06 4.2409347e-06 3.567823e-06 3.545498e-06 3.667784e-06
7.6169767e-06 5.2024416e-06 4.2991555e-06 4.061849e-06 3.9429915e-06 8.592993e-06 6.005742e-06 4.947393e-06
4.5457596e-06 4.1901876e-06 3.8165686e-06 3.512579e-06 3.503515e-06 3.5873443e-06 4.3047344e-06 2.8546544e-06
2.7293574e-06 2.7507422e-06 2.7177132e-06 3.0691513e-06 2.4240285e-06 2.1793683e-06 2.143658e-06 2.144773e-06
2.4608814e-06 2.4079523e-06 2.1623794e-06 2.0963391e-06 2.0548648e-06 2.2595514e-06 2.4628368e-06 2.2668507e-06
2.172266e-06 2.1039261e-06 2.204735e-06 4.417434e-06 3.9695174e-06 3.7827565e-06 3.7174832e-06 4.1946996e-06
3.6265722e-06 3.2740393e-06 3.0252672e-06 2.8091558e-06 2.9473244e-06 3.060997e-06 2.6005757e-06 2.309442e-06
2.1067558e-06 2.3231246e-06 2.9528005e-06 2.5560798e-06 2.2406493e-06 2.016788e-06 2.1456965e-06 2.8761144e-06
2.574041e-06 2.291287e-06 2.0859582e-06 2.1107855e-06 6.621661e-06 7.2313264e-06 8.005214e-06 8.753437e-06
9.710343e-06 6.8744866e-06 7.362569e-06 8.02043e-06 8.64812e-06 9.222365e-06 7.4489835e-06 7.574587e-06
7.997509e-06 8.4127705e-06 8.711779e-06 8.1724465e-06 7.8954345e-06 8.0737545e-06 8.300003e-06 8.349134e-06
9.020875e-06 7.8958865e-06 7.081213e-06 6.27055e-06 5.1817624e-06 7.123779e-06 7.640794e-06 8.155253e-06
8.838999e-06 9.92821e-06 7.3769024e-06 7.723841e-06 8.142222e-06 8.670593e-06 9.389908e-06 7.858867e-06
7.842196e-06 8.0946265e-06 8.429002e-06 8.768793e-06 8.505801e-06 8.085582e-06 8.104683e-06 8.297665e-06
8.430888e-06 9.170141e-06 7.874728e-06 6.9597745e-06 6.1768033e-06 5.227581e-06 4.9007773e-05 2.896876e-05
1.9863903e-05 2.978755e-05 6.054809e-05 5.7005465e-05 3.279571e-05 2.2573447e-05 3.560275e-05 7.5131815e-05
5.6312238e-05 3.1982945e-05 2.2705417e-05 3.7199527e-05 7.935633e-05 4.665032e-05 2.6225352e-05 1.9133522e-05
3.1681982e-05 6.726291e-05 3.463385e-05 1.975235e-05 1.4732706e-05 2.3360859e-05 4.7462647e-05 5.304095e-05
3.107776e-05 2.1287015e-05 3.3663546e-05 6.947176e-05 6.0951843e-05 3.4834695e-05 2.4123441e-05 3.962081e-05
8.249828e-05 5.9869435e-05 3.371219e-05 2.4055336e-05 4.010322e-05 8.318105e-05 4.8781065e-05 2.7119655e-05
1.9877702e-05 3.3528024e-05 6.8790076e-05 3.5016194e-05 1.9554685e-05 1.4802486e-05 2.4160452e-05 4.770988e-05
8.072909e-05 3.8094873e-05 1.8234223e-05 1.2954287e-05 1.5354026e-05 8.6723114e-05 3.997419e-05 1.7634502e-05
1.17797135e-05 1.4353447e-05 8.138775e-05 3.7105692e-05 1.5964228e-05 1.0874068e-05 1.375764e-05 7.04661e-05
3.2902393e-05 1.4747008e-05 1.08117365e-05 1.3729916e-05 6.1522784e-05 3.0692485e-05 1.4897819e-05 1.1196559e-05
1.3421372e-05 7.970026e-05 3.5679084e-05 1.5801661e-05 1.1471422e-05 1.4646429e-05 8.61109e-05 3.7822996e-05
1.5465801e-05 1.0453407e-05 1.370626e-05 8.175806e-05 3.6193465e-05 1.4617974e-05 9.9606295e-06 1.3247575e-05
7.247518e-05 3.3718723e-05 1.4595895e-05 1.0509891e-05 1.3524103e-05 6.5241366e-05 3.3245076e-05 1.5880838e-05
1.1660778e-05 1.3616567e-05 3.0658987e-06 3.608056e-06 4.0127156e-06 4.0673826e-06 4.1628136e-06 3.1510272e-06

exp_avg f4 [32]
00000000: ab3f 203a b8bd 13b9 8963 83b9 9efb 173a
00000010: c662 f9b9 0356 78ba 36ed dfb9 d355 2139
00000020: 74fc 00b9 c024 6b39 8ec7 e3b9 664b 77ba
00000030: 1c57 6d3a a2dc b4b9 0ac5 7fba b03a ac39
00000040: 4ef6 10ba b094 07ba 3dee 0f3a 6e88 e7ba
00000050: 417e 2a3a 91eb d839 9634 6c3a 89f3 1bba
00000060: fd14 9639 7996 abba b0ee ed39 a94d d6b9
00000070: 76e9 47b9 f837 1239 76e8 65ba 2d8b 0fba
0.0006113003 -0.00014089688 -0.00025060427 0.0005797687 -0.00047566573 -0.0009473266 -0.0004271061 0.00015386129
-0.00012301077 0.00022425037 -0.00043445494 -0.00094335375 0.0009053813 -0.0003449666 -0.0009756839 0.00032850122
-0.00055298663 -0.00051719975 0.00054905174 -0.0017664561 0.00065037986 0.0004137424 0.00090105215 -0.00059490703
0.00028625867 -0.0013091109 0.00045382 -0.00040875122 -0.0001906509 0.00013944495 -0.0008770296 -0.0005475756
