results/2BS/T_1/L_2000/seed5/model_best.pth.tar (torch_old, 395614 bytes, 22 tensors)

layer1.conv.weight f4 [32, 2, 5, 5]
00000000: b670 66bd 8718 98bd a57c 92bc 9cdc cfbc
00000010: 7025 9a3d adb6 7b3c 0769 22bd d0c3 59bc
00000020: b4b6 94b9 14a3 b4bc 5d42 553d 919f 6b3d
00000030: b202 f2bb 8f5b 093d b07b 233c 1edc 59bd
00000040: 5556 12bd 7820 903d 478f 82bd 04e5 97bb
00000050: 857b 3a3d 14f6 98bc ca85 57bd d09c 9cbd
00000060: 3f3e 1fbd 8ded 7abd 5c87 51bd c8be 443c
00000070: d033 4cbc dd21 04bc 6674 4c3d 6047 353d
00000080: 4721 9ebb b489 9d3d 65e2 74bd b9ab 1e3d
00000090: b942 753d 4f29 2cbd a1be 4ebc a964 b63b
000000a0: d32c a33c 0b5e 933d ad81 7f3d 9d68 02bc
000000b0: f73b d7bc 2de4 943d fd29 5a3d 6295 14bd
000000c0: 68e1 7d3a 87b9 b6bd 26de 253d a7f2 41bc
000000d0: c127 97bc f364 dfbc 74da 853d e5ab a93d
000000e0: 2511 d43d e8c4 e23c 5d60 f7bc 7fe8 21bd
000000f0: 4d25 a7bd f753 513c 34d6 a2bd a8bf 5d3d
00000100: 7a9b babb 270d bfbd 73da 873d 88c7 24bd
00000110: 4393 593d f58d 0c3d d5bc 183c 5dc6 a1bd
00000120: d6a7 04bc 0b15 c73b 0b7a ecbd ca0b a13c
00000130: ae7d b13c e2d7 b4bd a19b 03b8 987b e13c
00000140: 32d2 49bd 71fa 3dbd dab3 c4bd cc66 5a3d
00000150: 1ebe 25bd 961e 15bc c7b9 2bbb e84c 973d
00000160: 5650 f03c cdb1 ba3a bfb0 aa3c fba3 bfbc
00000170: 04c4 003d 1e31 4a3d 3cb9 9cbd dc9c da3d
00000180: 5b61 77bd 02ae a1bd 55b1 12bd 1127 5b3d
00000190: 475e 6f3c 2b8a 123d 4ff4 b1bd af0c 76bb
000001a0: bebc 04bd bd01 d8bd 2da6 a9bd 6b8c c73c
000001b0: 1820 31bd 880a 67bd 222b 18bd b387 b63b
000001c0: 8091 7bbc c1bc 53bd 7af3 33bd c5ac 0dbd
000001d0: 3315 0dbd 2c7b 2ebb 2619 26bd a6bc b73c
000001e0: e55e 9ebd a462 983c 97e5 0c3d 13e0 073d
000001f0: 4cdd d3bd e61e aebc 674f 62bc 4c82 85bd
00000200: 5bff b23d b26b 47bb bd12 78bc 0605 083d
00000210: 83fa c3bc 81e3 8bbd f911 63bd 0ef0 b73b
00000220: 737b ff3c 887b 033e cf8d d0bb 3bd0 b8bd
00000230: f6a6 b1bc 251c 4fbd 9974 38bc 58fa eebc
00000240: ecb8 85bd 0064 d33d 0ec4 f03c 742c 27bd
00000250: a1a5 f23d d480 1ebd 2832 3abd 21a5 02bd
00000260: 2bf2 333d 5436 9d3c 855d 0bbd eb9b 753d
00000270: 9e3f a8bc f921 373c 4955 413b 8f1c 203e
00000280: 753c 2cbc 3bec dc3d bb08 f73d 9f9a b03d
00000290: e194 2c3a 564b fcbc 841b c43d 92f3 bb3d
000002a0: 7b91 913d 7149 5bbd cf39 a23a 305f 8d3c
000002b0: 6834 e5bd 6ed6 8e3d 038b 6dbd e170 9dbc
000002c0: b6c0 893d 7438 85bd 5bee 843c 22ac f03a
000002d0: bc24 f7bc 466c 6dbd 6acf de3a 3001 44bc
000002e0: 2a7e 04bd 6bb9 52bc 43a5 24bd 9180 863c
000002f0: 0d41 07bd 972a 9bbc 4f6a 85bd 6e90 2b3d
00000300: bc71 9cbc 4d82 1ebd a1ac b5bc 1e3e a8ba
00000310: e5b4 58bd 2a50 8dbd 5109 8bbd db2d 7bbd
00000320: 0f16 bf3c d3fc 8a3c d8f3 a63d 1ecb 973c
00000330: 76d1 28bc 4c3f 703d deb9 ea3d 3132 8cbc
00000340: 0690 1cbc 86ec d83c 3bdd b43d 2d2b 8dbc
00000350: 09da 203d d795 17bb db51 9fbd 4d3e 003e
00000360: e549 483b fd32 353d 834c c13d 184c 4e3d
00000370: 6937 ee3d 01bb 673d d0a5 823d e927 a53d
00000380: 88c6 4fbd f35d 413c 1df7 9fba 0315 3cbd
00000390: 20fb b4bc 412f f4bd 40b9 68bd ef99 0e3c
000003a0: 8bcb dcbd aa97 d7bc dbc6 3abd 5206 94bd
000003b0: ccf0 1bbc 008b 01bd ef54 103a e0af f8bc
000003c0: 1609 a5bd e388 cabc 3897 c5bd 6c91 123d
000003d0: 9d8c d5bd 3a4e 39bd 63a7 9bbb 9feb 9bbd
000003e0: 859e a9bd a455 30bd 2fea cebc 377e 82bd
000003f0: 6bc8 8c3d 8385 6ebb 87c3 9b3c 9501 71bd
-0.056259833 -0.07426553 -0.0178817 -0.02537375 0.07526672 0.0153633775 -0.039650943 -0.013291314
-0.00028364884 -0.022050418 0.052065242 0.05752522 -0.007385575 0.033534583 0.00997822 -0.053188436
-0.035726864 0.07037443 -0.06374984 -0.004635455 0.045527954 -0.018672027 -0.052617826 -0.07647097
-0.038877722 -0.061261702 -0.05115448 0.012008376 -0.012463525 -0.008064714 0.049915694 0.04425752
-0.0048257443 0.076922804 -0.05978622 0.038737986 0.059878085 -0.042031582 -0.012618692 0.005566199
0.019918835 0.07195672 0.062379528 -0.007959512 -0.02627371 0.072700836 0.0532627 -0.036275275
0.0009684772 -0.08922105 0.04049506 -0.011837638 -0.018451573 -0.027269816 0.06535807 0.082847394
0.103548326 0.027681783 -0.030197317 -0.039528366 -0.081614114 0.012776366 -0.07951012 0.054137856
-0.005694804 -0.093286805 0.06633463 -0.04022935 0.053118955 0.03431507 0.009322365 -0.07899163
-0.008096656 0.0060755066 -0.11546715 0.019658942 0.021666374 -0.08830239 -3.1377775e-05 0.027524754
-0.049272723 -0.046381418 -0.096046165 0.05332069 -0.040464513 -0.009101531 -0.0026203261 0.073877156
0.029335182 0.0014243663 0.020836232 -0.023393622 0.031436935 0.049363248 -0.07652518 0.1067445
-0.06039558 -0.078945175 -0.03581365 0.053504054 0.01460988 0.0357763 -0.08689176 -0.003754418
-0.03240656 -0.105472066 -0.08283649 0.024358949 -0.043243498 -0.056406528 -0.03715051 0.005570376
-0.015354514 -0.05169368 -0.04393337 -0.034588594 -0.034444045 -0.002662371 -0.040551327 0.022428822
-0.077329434 0.018601723 0.03439864 0.03317268 -0.103449434 -0.021254968 -0.013812876 -0.06518993
0.087401114 -0.0030429182 -0.015141186 0.033207916 -0.023923164 -0.06830502 -0.055437062 0.0056133335
0.031186795 0.12840092 -0.006364561 -0.09024092 -0.021686058 -0.05056395 -0.011258268 -0.029172108
-0.06529412 0.10321808 0.029390361 -0.04081388 0.118479975 -0.03869708 -0.04545799 -0.03189576
0.04393212 0.019190945 -0.034024734 0.059963148 -0.020538148 0.011177533 0.0029500297 0.15635894
-0.010512461 0.10787245 0.12062212 0.08623242 0.0006583464 -0.030797642 0.09575561 0.09177317
0.07107826 -0.053536836 0.0012376847 0.017257303 -0.11191636 0.06974493 -0.0579939 -0.019218864
0.0672621 -0.06504908 0.016226938 0.0018361846 -0.030168884 -0.057964586 0.001699907 -0.011963174
-0.032346882 -0.01286159 -0.04019667 0.016418727 -0.03302102 -0.018941207 -0.065144174 0.041885786
-0.019097202 -0.038698483 -0.022177042 -0.0012835895 -0.05290689 -0.06900056 -0.06788886 -0.061323028
0.023325948 0.01696626 0.08151978 0.018529471 -0.010303846 0.058654115 0.114612326 -0.017113777
-0.009555822 0.02647997 0.08831259 -0.017232502 0.039270435 -0.0023130083 -0.077792846 0.12523766
0.0030561623 0.04423808 0.094384216 0.050365537 0.116316624 0.056574825 0.063792825 0.08064253
-0.050726444 0.011802184 -0.0012204383 -0.045918476 -0.022092402 -0.119230755 -0.056817293 0.008703693
-0.1078101 -0.026317436 -0.0455998 -0.07227768 -0.00951786 -0.0316267 0.000550582 -0.030357301
-0.08058374 -0.024723476 -0.09647983 0.035783216 -0.104272105 -0.04524062 -0.0047501787 -0.076133005
-0.08282188 -0.043050423 -0.025258152 -0.0637173 0.06874164 -0.0036395497 0.019014133 -0.0588394

layer1.conv.bias f4 [32]
00000000: 58db 8b3c cb7d 003e 9876 c5bc c134 313d
00000010: fbe2 c8bd 1c33 373d 1a4d b13d 7955 193d
00000020: 263c bebd ca1d 863d 0fd5 2c3c fcb9 073e
00000030: c7b6 ed3d 6d65 da3c 1336 ffbd d7a9 05be
00000040: 1626 99bd cffa c2bd 5ee5 be3c 58b1 a0bd
00000050: 195b 31bd bf79 babd 7c7a 8f3d b0b7 98bc
00000060: 1c34 b43c 7077 b33d 1d60 d43d 7e73 493d
00000070: 9599 b83c 9572 563c 5ed3 d8bd bb59 c33d
0.017072365 0.12547986 -0.024104401 0.0432632 -0.09808918 0.044726476 0.08657284 0.03743503
-0.09288816 0.065486506 0.010548844 0.13254541 0.11607128 0.026659692 -0.12461486 -0.1305307
-0.074779674 -0.09520494 0.02330273 -0.07846326 -0.043299768 -0.091052525 0.07005784 -0.018642277
0.021997504 0.08763015 0.10369895 0.049182408 0.022534171 0.013088842 -0.1058719 0.09538599

layer2.conv1.weight f4 [32, 32, 3, 3]
00000000: b4dd aa3d f889 973d dff4 f9bd 2883 9ebd
00000010: 56aa c03c 1e9b f73d 5e50 8c3c 0370 f7bd
00000020: 84a7 9c3d f0b6 28bd f010 8cbd 6c81 dcbd
00000030: 6d78 963d 6daf 3c3d c2d3 5ebd 9383 80bd
00000040: a77d 6ebc bff9 cd3d 613d 12be e8a9 f43c
00000050: cfd1 ef3d 3411 acbd 794a 4e3d 986f df3c
00000060: a80b e2bd 5359 333c 4ebf 87bc 7d51 293d
00000070: 3f17 2cbd b24d 79bd cfa1 2fbd acbe 48bd
00000080: eba0 03be 40c3 8dbc c521 7c3d 6395 b83d
00000090: 54e9 113c e362 2c3e 2808 043c 8dbd 7a3d
000000a0: 553e 57bd 7542 dd3d e76e a63d 4945 0e3e
000000b0: 9e31 fa3d dac4 9bbd 3788 4f3d ff68 833d
000000c0: 1daf 993d f10d 01bd 5415 073d 176d 0cbe
000000d0: 17f7 fdbc 6214 c2bd 7f4c 29bc fc94 963d
000000e0: 4e13 f3bd 6c50 8ebd 4200 6cbd 436c 8c3c
000000f0: e931 8a3c e00e fb3a 42e0 8a3d a4de b9bd
00000100: 544d 763c da36 c0bd 619e d23c 1c4c cc3d
00000110: 9e2f 47bd 5aa7 8b3b 3569 b8bd d292 29be
00000120: 5b52 84bd 9e7a a7bd 9ac2 b23d 7374 c4bc
00000130: f8bb 8e3c 900a cc3d d617 7cbd cddf eebc
00000140: bb27 39bd 9297 47bc 1f98 383c 124f ed3d
00000150: 9274 26bd abcd ed3a 4b02 053e da1c adbb
00000160: 206d ae3d 24f2 613d 8b85 003d 6744 1ebe
00000170: cbbc 043e 8ed2 ce3d 315e 57bd cb69 b8bd
00000180: 60ac 803d cd7a 013d 9dd4 47bd 98be 00bd
00000190: 5c85 f5bd f8d6 9dbd cb06 76bc 2480 17bc
000001a0: 94ca 10be 7bb9 3a3d e5e6 5c3d 89cc ae3d
000001b0: 2d86 ea3d d381 4bbd 1420 043d 9a3c ad3d
000001c0: 261d 1d3d 73b2 49bd 40a1 69bd 4149 183d
000001d0: 0ccc c13e fd0a 833d 0cb1 b8b9 3058 983c
000001e0: c179 e9bd 1751 14be dcf5 d53d 134d 7bbd
000001f0: 5d62 093d acbd 863d 92f8 c3bd f3d4 1e3d
00000200: 1ce4 0ebe e2a5 e93d d319 df3c bf71 b4bd
00000210: ad3b 3d3d 32a9 0cbd 14ae a83c 6a7a 123e
00000220: ecc5 133e d4ce a03c 478a 91bb c13c 9bbd
00000230: cac7 553d 6efc 223d fab3 61bd e748 db3d
00000240: 53ab a83d 912f 3fbc b2fe 0b3d 48b6 033d
00000250: 468f 343e ca07 5f3d de62 4f3d 12c4 0abd
00000260: 0e2f 4ebc c946 c7bd dd0d 183d d493 aa3d
00000270: 44bb e33c ab92 983c e270 a13c a3f0 5cbc
00000280: 1ea4 073e 743d 073d 75d7 853d 5c07 9fbc
00000290: 5038 283e 4f60 bd3d efd0 a33d 0523 933c
000002a0: 6210 b2bd 7406 603d c4c8 52bd 5fbe 4fbe
000002b0: 593c 50bd b341 b23d 0c76 8d3d 356a d93a
000002c0: 33e7 713d 18fe 1a3e 1f50 c2bb cf71 7ebd
000002d0: c53e d8bb f93a 0fbe fa50 193d 10e9 eb3c
000002e0: 1f7b b3bd 5aa1 503b b4fc 8f3d 3db4 84bd
000002f0: aebb cebc 3346 943c 5850 f33c 4638 71bc
00000300: 6b06 6e3d c511 22bd f9b0 69bc dbc0 9bbd
00000310: 17eb efbc d852 35bd e011 a03d 5260 1a3d
00000320: 7239 28b9 d980 293d 4851 633d 588a 31bd
00000330: 225a 51bd dce4 31be 39b5 89bb ba1c 84ba
00000340: 7933 92b9 ca36 7c3c 4368 1bbc 14a7 db3d
00000350: 0269 96bc fe59 02be 1538 babd 7aed 42bc
00000360: 30f8 663d 5c98 3dbc 35dd df3b 645d 113d
00000370: e92e 843b fbc0 793d ffe6 e4bd 3f39 b6bc
00000380: 5df5 403e 1890 84be ba86 73bc 2878 893d
00000390: 2615 1cbc 77c7 57bd 292e 533e a4e6 b8bc
000003a0: 2eb2 acbd 39ef 333d 470c 9a3d 75aa b53c
000003b0: 3144 3fbe 9c47 ca3d 5289 c1bd 2f5a 28bd
000003c0: 84d0 c53d 75fc bcbc 041e 91bd b74e 703d
000003d0: 092f bcbd 5462 483d bb0c c03b 3791 3b3d
000003e0: d347 54bc 64e9 53bd 8d81 d23d d950 6a3d
000003f0: c6d1 5d3d 1481 cfbd 0004 443c 4c08 93bd
0.08343068 0.07399362 -0.122049086 -0.0773986 0.023518723 0.12090133 0.017128166 -0.120819114
0.076491386 -0.041190088 -0.06839168 -0.10766873 0.07347188 0.046065737 -0.054401167 -0.06275096
-0.014556325 0.10057401 -0.14281227 0.029866174 0.1170994 -0.08401719 0.05036399 0.027274892
-0.110373795 0.0109465895 -0.016570713 0.04133748 -0.042014357 -0.06086511 -0.042878922 -0.049009964
-0.12854354 -0.017305017 0.061555643 0.09012868 0.008905727 0.16834597 0.008058585 0.061215926
-0.05254968 0.10803691 0.08126622 0.13893618 0.12216495 -0.07605906 0.050667014 0.06416511
0.07504103 -0.031507436 0.032979324 -0.1371349 -0.03100161 -0.09476544 -0.0103331795 0.07352635
-0.118689165 -0.06948933 -0.057617433 0.017141467 0.016869502 0.0019154213 0.06781055 -0.090756685
0.015033085 -0.09385462 0.025710287 0.09975454 -0.048629396 0.004261893 -0.09004442 -0.16559914
-0.064610206 -0.08177684 0.087285236 -0.023981309 0.017423615 0.09962952 -0.06154617 -0.02915945
-0.045203906 -0.012182133 0.011266737 0.11587347 -0.040638514 0.0018142959 0.12989156 -0.0052829804
0.08516908 0.055162564 0.031377356 -0.15455781 0.12962644 0.10098754 -0.052580062 -0.090045534
0.06282878 0.031611253 -0.04878675 -0.031431764 -0.11988327 -0.07707018 -0.015016268 -0.00924686
-0.14139777 0.045587044 0.053931136 0.08535106 0.11451373 -0.049684357 0.032257155 0.084588245
0.038357876 -0.049242448 -0.057038546 0.037179235 0.37850988 0.0639858 -0.00035227125 0.018596739
-0.11400176 -0.14484058 0.104472846 -0.0613528 0.033541072 0.06579146 -0.095688954 0.038777303
-0.13954204 0.11408593 0.027233994 -0.08810758 0.04619949 -0.034341045 0.02059082 0.1430451
0.1443097 0.019629873 -0.004441533 -0.07579947 0.052192487 0.039791517 -0.05510328 0.107072644
0.082358025 -0.011669056 0.034178443 0.03215626 0.1763278 0.054450788 0.050631396 -0.033878393
-0.012584461 -0.09730298 0.037122596 0.08328977 0.027799256 0.018624624 0.019707147 -0.013485107
0.132462 0.03301759 0.06535236 -0.019412689 0.16427732 0.09246885 0.07998835 0.017961035
-0.08694531 0.054693654 -0.051460996 -0.20287465 -0.050838802 0.087039374 0.06907281 0.0016587438
0.05905838 0.15135992 -0.0059299613 -0.062120255 -0.0065992796 -0.1398734 0.03743074 0.028797656
-0.08763718 0.0031834454 0.07030621 -0.0647969 -0.025235977 0.01809988 0.029701397 -0.014722889
0.05811159 -0.039567728 -0.014263385 -0.07605144 -0.029286904 -0.04426846 0.078159094 0.037689514
-0.00016043129 0.041382644 0.055497438 -0.043344826 -0.051111348 -0.17372459 -0.0042025116 -0.0010079362
-0.0002788564 0.015393922 -0.009485307 0.10725227 -0.018360619 -0.12729642 -0.09092728 -0.011897439
0.056389034 -0.01157197 0.00683179 0.035489455 0.0040339124 0.060975056 -0.111768715 -0.022244094
0.18843599 -0.25891185 -0.014863664 0.06712371 -0.009526527 -0.05268046 0.20623077 -0.022570916
-0.084324226 0.043929312 0.07521873 0.022176007 -0.18678357 0.0987694 -0.0945002 -0.04110163
0.09658912 -0.0230696 -0.07085803 0.05866882 -0.09188659 0.048921898 0.0058608926 0.045792785
-0.012956577 -0.05173625 0.10278616 0.05720601 0.054155134 -0.101320416 0.011963844 -0.07179317

layer2.conv1.bias f4 [32]
00000000: 0a80 183c 7c8c e83c 4985 053c 9754 5cbd
00000010: 7a98 19bd 5034 03bd 3f55 f63c f7bf 253d
00000020: 1db9 9ebb 5c55 443c 9039 b3bc 7238 a03b
00000030: 82a8 e13c 5279 b99d 0224 213d 637a cfba
00000040: c46d ba3c b4e5 403d 6d2b 52bc 3e05 e4bc
00000050: 1629 4c3c 4ef9 233d 7b12 7bbc f5dd 043d
00000060: 5b4d 153d b324 173d bdd6 e5bc 73a4 69bd
00000070: 84fe 3d3d d49e 193d 63ec f4bc 8221 8dbc
0.009307871 0.0283873 0.008149453 -0.05379161 -0.03749893 -0.03203231 0.030069945 0.040466275
-0.0048438446 0.011983242 -0.021878034 0.0048895413 0.027546171 -4.9094535e-21 0.03934098 -0.0015829321
0.022757418 0.047094062 -0.012827736 -0.02783453 0.0124609675 0.040032677 -0.01532423 0.032438237
0.036450725 0.036900233 -0.028056497 -0.057041597 0.046385303 0.037504986 -0.029897874 -0.017227892

layer2.conv2.weight f4 [64, 32, 3, 3]
00000000: 0b0b a3bd 3a20 0e3d 8beb 193c f232 fd3d
00000010: 43be 5f3c e73e 023d 3177 e43c 3973 5ebd
00000020: 87af 543c 626b 863d 7643 ee3d ab1f c93c
00000030: c738 a03c 23bc b93d 92e8 603d 15c5 313b
00000040: 5e0a e0bd 8aee bcbd 7ce9 fcbc 115c 33bd
00000050: 4879 2bbe 2f2c b23c d9ea e8bc 779a f6bb
00000060: 7e7a 753d 0115 79bd 7ab8 30bc b4fb b7bd
00000070: 51c7 97bc 253c 763c b300 f5bd 1953 a8bd
00000080: eb2c db3d 31b0 95bc 38fb 043d b3a7 af3d
00000090: 2d6f 313d 9feb 56bc 79b0 223c 878c f8bb
000000a0: 57b8 69bd 43d4 8a3c 4c5d 823d f7a6 7bbd
000000b0: 8109 cc3c 83b6 433d 2936 6f3c 7dc8 5dbd
000000c0: 00ad 46ba fbdf 733d 78c8 84bc 3418 25bb
000000d0: 415f 54bc 4b43 10bb 876f 1e3c e6a9 353c
000000e0: c8d3 843b 7c2d 433c b5c2 a0bc 0d56 70bd
000000f0: d004 983a 5913 a5bc 736f 073d 592d 093d
00000100: 47cf 983d 5083 06bd 730f edbc 3cb4 cc3d
00000110: 0738 9abc 45c3 6b3b ce16 54bc 99f2 033d
00000120: 96bc 7ebd cebe a03c d9f0 263e 93d5 98bb
00000130: eca8 a43c b3e7 adbd 3d2b 0cbc ba1b 303d
00000140: e3a1 ba3d f83e b5bd a157 353d b8f3 9ebc
00000150: b741 49bc f4ef 193d ecfc a3bd 3d96 63bd
00000160: d5f7 2bbd 9d86 febc 94a5 b3bc a4e3 213d
00000170: 7937 4c3d 6b6f 3dbd 775d b9bc 0e9f 853d
00000180: 0e5b 03bd 6aeb b4bd 7899 e03c d970 673d
00000190: 6c5b 693c 1daf d6bd fcd9 af3b b1ea 81bc
000001a0: 802d c5bd a5b6 c4bd a3d8 de3c 469c a6bb
000001b0: 88b7 b23d d2e2 3cbd 0456 aabc d769 c83d
000001c0: 1c65 17bd cdb8 7fbb 95f4 80bc c9de 213b
000001d0: e376 813d acc9 0180 ca32 0280 9e7f 0100
000001e0: 0bcb 0080 475d 0280 aa9f 0000 b84b 0280
000001f0: 8a73 0100 2e8c 0180 4f15 9a3d b75e d0bc
00000200: 1758 fdbc 75f5 73bc 3f38 bbbc 93cc 98bc
00000210: 433e 6c3b 10e3 5dbd 4606 9b3c 893e 813d
00000220: 96ec 343d 2ad1 263d 1207 e2bc 72ef 4c3c
00000230: 3baf 8c3b 979b 9f3c b911 19bc 1908 5e3d
00000240: be6c f23d 8aee b63b af33 74bc a12f d33c
00000250: ba96 323c 65cf 553c 2d6d 00b9 47ed a7bb
00000260: d391 83bc bfef 31bd 5749 0dbd 73ff d9bd
00000270: 3261 4b3b c38f 803c 5e6f 7cbd 4880 503d
00000280: 2e5b 66bd 8dca a9bc c165 83bd 31c3 4fbc
00000290: ce00 7cbb 3468 a0bb da53 8bbb f09c a43c
000002a0: 7e74 67bb 0718 ecbc f085 5f3c f711 ed3b
000002b0: bd69 dabc a2f0 3abd e70f 83bd a5eb 6e3d
000002c0: cfb8 4dbd 56a3 8bba 7df8 683d 4b53 92bb
000002d0: bd41 873c 7dce 94bc 9f1d f73b 52bf 95bd
000002e0: a8fc 813d fbea cebb 8f9c a73c 8dbb b03d
000002f0: d606 d1bc fc5a 66bc dffd db3c 4d4f c13b
00000300: fedc e1bd a57c f3bc 28e6 e33c f468 03ba
00000310: c8e6 033d ea19 8d3d 9ad4 0ebc 7997 3c3d
00000320: 9062 373d 06c4 533b 98b2 033d e43e b0bb
00000330: cc2d c53c a708 303d a743 5d3d 8b64 9fbd
00000340: 07ee 053b 1897 c43c be4e c33b 9149 6e3c
00000350: 35c1 3cbd 6d1a 97bc 7bf4 7bbd bbdd a4bc
00000360: 06ad 683c a561 013b b991 843d 897b f33c
00000370: ace6 5e3d 7ff9 0cbe 5539 0f3c 30b8 b93d
00000380: 263b 07bd c5b0 573b 0154 873d 9e4c 433d
00000390: 7085 6039 cfdb ec3c d9a0 143d ff7e 3fbd
000003a0: 6338 9abd 90ab 8d3c 3d10 213d b75b 033d
000003b0: 721f b7bc be35 153d f756 2fbb ff92 a73d
000003c0: 48bd a2bc 003d c2bd abf2 773d 4e8a 943d
000003d0: 5eae 533d ab0e 523d 7b42 03bd 42f7 f83c
000003e0: 18f7 a8bd 8cc9 23bd 33cb cfbc 015e 9ebd
000003f0: f264 9e3c 1caa e63d 0cb1 ad3c 6436 a8bc
-0.07961091 0.034698702 0.009394537 0.12363233 0.013656202 0.03179827 0.027888866 -0.054309104
0.012981302 0.065634504 0.11633961 0.024551233 0.019558324 0.09069087 0.054909296 0.0027125527
-0.109394774 -0.09225185 -0.030873053 -0.043788973 -0.16745484 0.021749584 -0.028432297 -0.007525738
0.05993127 -0.060811047 -0.01078617 -0.089835554 -0.018527659 0.015028988 -0.11963024 -0.082189746
0.10701927 -0.018272491 0.032466143 0.08576908 0.043318916 -0.0131177 0.00992977 -0.0075851115
-0.057060566 0.016946917 0.06365451 -0.061438527 0.024906876 0.04778148 0.014600315 -0.05414628
-0.00075788796 0.059539776 -0.016208872 -0.0025191428 -0.012962163 -0.0022012766 0.009670145 0.01108787
0.0040535666 0.0119127 -0.019624094 -0.058675814 0.0011598114 -0.020150827 0.03306527 0.033490513
0.0746141 -0.032840073 -0.02893803 0.099953145 -0.018825544 0.0035974544 -0.01294489 0.03221378
-0.06219157 0.019622233 0.16302814 -0.004664132 0.02010008 -0.08491459 -0.008555231 0.042995192
0.09112909 -0.08849901 0.044273023 -0.019403324 -0.012283734 0.037582353 -0.080072254 -0.0555632
-0.041984398 -0.031070048 -0.02192954 0.039523736 0.04985759 -0.046248835 -0.022627575 0.06524478
-0.03206926 -0.08833964 0.02741693 0.056504104 0.014242988 -0.10482619 0.005366562 -0.01585898
-0.09627819 -0.09605149 0.02720291 -0.005084547 0.08726412 -0.04611475 -0.020792969 0.09785812
-0.03696166 -0.0039020062 -0.015741626 0.002469944 0.06321504 -1.64182e-40 -2.0189e-40 1.37616e-40
-7.2838e-41 -2.17133e-40 5.7277e-41 -2.10834e-40 1.33283e-40 -1.42122e-40 0.075235955 -0.025435789
-0.030925794 -0.0148900645 -0.022853969 -0.018652236 0.0036047853 -0.05417162 0.01892389 0.06310756
0.04417094 0.04072682 -0.027591262 0.01250826 0.00429335 0.01948337 -0.009342604 0.05420694
0.11837147 0.0055826353 -0.0149049 0.025779547 0.010900194 0.013049935 -0.00012247702 -0.005124721
-0.016060745 -0.04344153 -0.03449377 -0.10644426 0.0031033275 0.01569355 -0.061629646 0.05090359
-0.0562393 -0.020726467 -0.064158924 -0.012680815 -0.0038452628 -0.0048952345 -0.0042519392 0.020094365
-0.0035317237 -0.02882005 0.013642773 0.0072348076 -0.026661748 -0.04563964 -0.063995175 0.058330197
-0.050225075 -0.0010653536 0.056877602 -0.0044654957 0.016510839 -0.018164868 0.007541373 -0.07311882
0.063470185 -0.006314633 0.020460395 0.086295225 -0.025515955 -0.014059778 0.026854454 0.005899346
-0.11028479 -0.029722521 0.027819708 -0.00050128927 0.032202512 0.06889708 -0.00871768 0.046042893
0.04477173 0.0032312884 0.032152742 -0.005378591 0.02406969 0.042977 0.054019596 -0.07782849
0.0020436065 0.023997828 0.0059603145 0.014543907 -0.046082694 -0.018445218 -0.06151245 -0.02012526
0.014201408 0.0019742039 0.06473107 0.029721992 0.054419205 -0.1376705 0.008741696 0.09068334
-0.033015393 0.003291176 0.06607819 0.04768049 0.00021412014 0.028913407 0.03628621 -0.046751972
-0.07530286 0.017293721 0.039322127 0.032069888 -0.022353861 0.036428206 -0.0026754716 0.08182334
-0.019865647 -0.09484291 0.06053416 0.07252942 0.05167996 0.05128352 -0.032045823 0.03039134
-0.082502544 -0.039987132 -0.025365448 -0.077327736 0.019335244 0.112629145 0.021202587 -0.020533748

layer2.conv2.bias f4 [64]
00000000: 83ef 0e3d f3f5 d3bc 9cd9 9dbc a93d 26bd
00000010: 8d86 143d 5628 6c3d a87a 003c c181 6abd
00000020: 5c0a 4ebb 733c a73c 326f 28bd 7179 263d
00000030: 1797 a33c 7502 2c3d 1233 58bd 5f0a 723d
00000040: a094 ba3c 94c0 0cbd 773c dbbc 1cdb 5e3d
00000050: 88a8 1b3d 9320 df3b 9b34 863c 169b 2fbd
00000060: 1eaa 633d 5e27 41bd 1e47 dbbb e942 04bd
00000070: 2633 673c 4763 86bb d001 643b 7fe3 713c
00000080: 6919 34bd eff8 013c 5455 2abd 98ec 293d
00000090: 349c 4a3d 05f1 0fbd c880 debc d3b2 3fbd
000000a0: 0003 983b 31f2 5c3d 65e4 093d 60c7 303d
000000b0: 61b4 4d3c c19c 7f3d 4ba7 4c3c 5343 b9bc
000000c0: 89e3 4e3d 54e2 673d 6e34 923c 0a3e 583d
000000d0: 7e95 1ebd c55f 3f3d 2f52 41bd d718 c0bc
000000e0: 8f81 96bc bca6 aabc 6d0e 2abd 6eb0 093d
000000f0: 7dad 7abc 7709 a8bc c53c c03c 542b d43a
0.034896385 -0.025874114 -0.019268803 -0.040586147 0.03626113 0.057655655 0.0078417435 -0.05725265
-0.003143928 0.020414567 -0.04112167 0.04064316 0.019969506 0.04199453 -0.05278308 0.059091922
0.022775948 -0.034363344 -0.02676223 0.054408178 0.03800252 0.006809303 0.016382506 -0.04287251
0.05558216 -0.047156684 -0.0066918274 -0.032290373 0.014111316 -0.0041011903 0.003479112 0.014763712
-0.043969546 0.007932886 -0.04158528 0.0414854 0.049465373 -0.035141964 -0.027161017 -0.0468014
0.0046390295 0.05394191 0.03366508 0.04315889 0.012555213 0.06240535 0.012491058 -0.02261511
0.050509963 0.056612328 0.017847266 0.05279354 -0.038716786 0.046722192 -0.047197517 -0.023449345
-0.018372325 -0.020831458 -0.041517664 0.033615522 -0.015300152 -0.020512326 0.023466477 0.0016187229

fc1.weight f4 [1, 3200]
00000000: 2d97 253a ca61 51b9 ef9a ed3c 84d0 0c3c
00000010: ef67 11bb f1e9 8d3a 19dd 163c 4241 c6ba
00000020: 022f 563c 4a51 9f3b 49b7 1e3b d440 0539
00000030: a3f1 b73c 7498 13bc 259a 82ba bcbf 9d3c
00000040: 4d08 c0bb 27d9 823c ef3f 8dbc 806b 0180
00000050: f802 8a39 0ef1 a1bb dded 663c 1960 2abd
00000060: f9b0 503d 67f4 913d e2fe 11bd 7000 03bb
00000070: 6c59 963c 90ca 2c3c f973 133d d5d1 e5bc
00000080: f02d 16bd 1f41 b83c cf6d a6bc 23de fabb
00000090: 228c 9abd b365 043d fd9c b5bc 4f2e dcbb
000000a0: c8bd 0100 24a8 85ba 18d9 d43b c47a 863a
000000b0: d2cd d73d 21a5 e63b 16b2 c83c 950c 8d3a
000000c0: 7b41 febc a4e0 36bc b30d 0080 a93a 0100
000000d0: 5709 0180 9d2d 7a3c b484 c1bd b5c5 0180
000000e0: bf8e 0100 040d 0200 c24d b6bb 7b8b 2dbc
000000f0: ab06 0280 9d80 0000 8939 0f34 903e 2fbd
00000100: 2058 b3bd bfa5 7f3d 0284 0200 a556 2d3a
00000110: 607b 173d 1bf4 f6bc 130e 0280 465f 0200
00000120: c13f 0180 cdf9 e2bb 34a7 e0bd 0b60 903c
00000130: 7060 0100 f9f0 33a4 b25b bf3b 7948 bdbc
00000140: 8958 0280 8780 0200 2e1a 0180 0949 bebc
00000150: cf72 babb 8524 9abb e64d 0180 fba4 3f3b
00000160: 1032 6bbb 3785 bb3c 5fa2 ac3b d4b0 eb3a
00000170: 59c9 0000 e533 e8b8 5f41 70bd c89d e3bd
00000180: dbac 6cbc 8042 0080 09c1 deb9 71fe 1dbb
00000190: 0612 e2bc f511 b73c 3f78 8d3c 4257 923c
000001a0: b0dc 75bc 142b 473c ab89 113d 115b 07bd
000001b0: 8303 6abc 5b6e d23b 0a14 813c 1050 bb3c
000001c0: 2ded 9abc 70f9 8bbc 42c7 3f3d 1e2d 96bd
000001d0: 9392 0b3d a920 a03c ff16 4f3c 1b9a 89bc
000001e0: a7e0 063c 7c91 9e3c e9aa dabc a2b1 55ba
000001f0: 3b69 323d 14d8 8fbc 5bad 7b3d 8b2a 3abc
00000200: 6e54 bebb 4b92 b0bc 6447 0100 5848 f4bc
00000210: b11c 25bc f2a1 7ebc 2a27 563d 3e11 95bd
00000220: 06fb 883a 8595 203c 3c3d 3dbb 1bc4 ff3c
00000230: 4e06 0100 67e3 c9bb c4ee 7c3b d958 d0bc
00000240: efed 20be e1f4 133d 9af1 2cbd d1f8 723b
00000250: 1175 c43c 0999 fa3c 8467 9a3b 23cd 10bd
00000260: 7a83 7dbc 9a08 363b ee73 ed3c 2385 823d
00000270: b791 7b3c 84a7 b5bc 28ee 6f3c 9d2b c53c
00000280: fba8 c83a e0a7 45bb aa23 d1ba 31c0 28bd
00000290: e52d 55bd a650 503d a445 6f3d 9a1c ff3c
000002a0: c9ed 95bc 7e0f 50bc d09e b6bc 4e47 ef3c
000002b0: cf86 bd3c d27a 7a3c 249a d33c dc4b 8e3c
000002c0: 698c 0c3d 7486 4bba 79c9 e0bc 9424 db3c
000002d0: 1ed2 dc39 b682 a13c 9306 a03c e60d 813b
000002e0: 3524 2dbe 6cee afbd 0a37 2c3d 5d6a 003c
000002f0: 9d09 4e3b d30c bc3c 5058 ce3b ce56 f53c
00000300: ebd2 cabb 56a2 b8bc 6416 83bd 2718 803d
00000310: f313 3fba c109 143d 9eea b5bb d3f0 713d
00000320: 771c 71bb 2248 60bc faaf 813b 01c8 0000
00000330: fe91 0000 cab9 1d3d 13f5 1dbd 53e6 4abc
00000340: 47ac 0100 ba63 0180 7fa5 cc3c 979e e63c
00000350: 8dd1 a43c 03ef 833a a22a 0280 a14d 023e
00000360: 986c 48bd b817 bebc b52f 9d3c 4276 0080
00000370: f4f4 3d3b f08f aebc 5e27 523c e72b 5dbc
00000380: eeb5 9dbd 7ef5 013e 002b 073d f38f 993c
00000390: 24ac 0b39 bf22 87bb f3bc ed3c 9c71 c4bc
000003a0: 4d56 debc 4b17 813a af4f 9abb 1b52 733d
000003b0: 5566 6e3d 1316 9fbd 94ae 3b3d 4234 6e3c
000003c0: 5046 0180 891b 91b6 4d9c 0080 19e9 fe3c
000003d0: 0a7e 203d b0f5 e83d c15c 6239 cc77 04bb
000003e0: 0891 9c3c 5758 1fbd bab2 fcbc 6c3c b3bc
000003f0: 5b51 c83b 3575 d43c d197 673d bc5c 4ebc
0.00063167774 -0.00019968222 0.029004542 0.008594636 -0.0022187193 0.0010827166 0.009207987 -0.001512565
0.013072731 0.0048619853 0.0024218133 0.00012708019 0.022454089 -0.009008516 -0.0009964152 0.019256465
-0.0058603645 0.015972687 -0.0172424 -1.30399e-40 0.00026323623 -0.004942066 0.014094797 -0.041595552
0.050950024 0.07126694 -0.035643466 -0.0019989274 0.018353187 0.010546342 0.035999272 -0.028054157
-0.036664903 0.02249199 -0.020316033 -0.0076558753 -0.075462595 0.03232355 -0.022169584 -0.0067193876
1.59916e-40 -0.0010197205 0.006495606 0.0010259976 0.10537304 0.007038728 0.02449898 0.0010761196
-0.031037083 -0.011161957 -4.914e-42 1.12879e-40 -9.5186e-41 0.015269664 -0.09449139 -1.6276e-40
1.43043e-40 1.8834e-40 -0.0055634687 -0.010592337 -1.86063e-40 4.6138e-41 1.3338844e-07 -0.042784274
-0.08757043 0.062413927 2.31026e-40 0.00066123373 0.036982894 -0.030145695 -1.8872e-40 2.17849e-40
-1.14706e-40 -0.006926751 -0.109693915 0.017623922 1.26431e-40 -3.901855e-17 0.0058397884 -0.023105847
-2.15431e-40 2.29778e-40 -1.01227e-40 -0.023228185 -0.005689956 -0.0047040605 -1.1978e-40 0.0029242623
-0.0035887994 0.02289067 0.0052683796 0.0017981776 7.223e-41 -0.00011072288 -0.058656093 -0.11114079
-0.014445509 -2.3856e-41 -0.00042486962 -0.0024107958 -0.027596485 0.02234743 0.017269252 0.017863873
-0.015006229 0.012156267 0.03553168 -0.033045832 -0.014283064 0.006421847 0.015756626 0.022865325
-0.018911922 -0.017086715 0.046820886 -0.07332824 0.03407533 0.019546824 0.01263976 -0.016797116
0.008232272 0.019356482 -0.026692824 -0.00081517745 0.043557387 -0.017559089 0.06144462 -0.011362682
-0.0058084046 -0.021554133 1.17446e-40 -0.029819652 -0.010077641 -0.01554154 0.052283444 -0.07278679
0.0010450787 0.009801273 -0.002887561 0.03122144 9.4097e-41 -0.0061611417 0.0038594464 -0.02543299
-0.15715764 0.036122207 -0.042222597 0.0037074576 0.023981603 0.030590551 0.004712047 -0.035351884
-0.015473241 0.0027776123 0.028985944 0.0637305 0.015354565 -0.022174604 0.014644183 0.024068648
0.0015309149 -0.0030159876 -0.0015956063 -0.041198913 -0.05204572 0.050858162 0.058416024 0.031141568
-0.018301861 -0.012699006 -0.022292525 0.029208805 0.02313557 0.015288072 0.025830336 0.017370157
0.034313593 -0.00077638705 -0.02743982 0.02675084 0.0004211822 0.019715648 0.019534385 0.0039384244
-0.16908343 -0.08590397 0.042044677 0.007837859 0.0031438835 0.022955334 0.0062971488 0.029948618
-0.006189694 -0.022538345 -0.06400755 0.06254607 -0.00072890444 0.036142115 -0.00555165 0.05906756
-0.0036790648 -0.013689073 0.0039577456 7.1748e-41 5.2372e-41 0.03850726 -0.0385638 -0.012384015
1.53637e-40 -1.2761e-40 0.024981258 0.028151793 0.020119453 0.0010065738 -1.98965e-40 0.12724926
-0.048931688 -0.02320467 0.019187788 -4.2423e-41 0.0028985115 -0.02130887 0.012826769 -0.013499237
-0.07700716 0.12691304 0.032999992 0.018745398 0.000133202 -0.004124015 0.029020762 -0.023979954
-0.02714076 0.0009848861 -0.004709206 0.059404474 0.05820306 -0.07767882 0.045820788 0.014538826
-1.17059e-40 -4.3245423e-06 -5.607e-41 0.031117009 0.0391827 0.11374986 0.00021587593 -0.0020213006
0.019112125 -0.038902607 -0.030846942 -0.021879397 0.006113214 0.025934795 0.056541268 -0.012595352

out.0.weight f4 [1, 3200]
00000000: 2d97 253a ca61 51b9 ef9a ed3c 84d0 0c3c
00000010: ef67 11bb f1e9 8d3a 19dd 163c 4241 c6ba
00000020: 022f 563c 4a51 9f3b 49b7 1e3b d440 0539
00000030: a3f1 b73c 7498 13bc 259a 82ba bcbf 9d3c
00000040: 4d08 c0bb 27d9 823c ef3f 8dbc 806b 0180
00000050: f802 8a39 0ef1 a1bb dded 663c 1960 2abd
00000060: f9b0 503d 67f4 913d e2fe 11bd 7000 03bb
00000070: 6c59 963c 90ca 2c3c f973 133d d5d1 e5bc
00000080: f02d 16bd 1f41 b83c cf6d a6bc 23de fabb
00000090: 228c 9abd b365 043d fd9c b5bc 4f2e dcbb
000000a0: c8bd 0100 24a8 85ba 18d9 d43b c47a 863a
000000b0: d2cd d73d 21a5 e63b 16b2 c83c 950c 8d3a
000000c0: 7b41 febc a4e0 36bc b30d 0080 a93a 0100
000000d0: 5709 0180 9d2d 7a3c b484 c1bd b5c5 0180
000000e0: bf8e 0100 040d 0200 c24d b6bb 7b8b 2dbc
000000f0: ab06 0280 9d80 0000 8939 0f34 903e 2fbd
00000100: 2058 b3bd bfa5 7f3d 0284 0200 a556 2d3a
00000110: 607b 173d 1bf4 f6bc 130e 0280 465f 0200
00000120: c13f 0180 cdf9 e2bb 34a7 e0bd 0b60 903c
00000130: 7060 0100 f9f0 33a4 b25b bf3b 7948 bdbc
00000140: 8958 0280 8780 0200 2e1a 0180 0949 bebc
00000150: cf72 babb 8524 9abb e64d 0180 fba4 3f3b
00000160: 1032 6bbb 3785 bb3c 5fa2 ac3b d4b0 eb3a
00000170: 59c9 0000 e533 e8b8 5f41 70bd c89d e3bd
00000180: dbac 6cbc 8042 0080 09c1 deb9 71fe 1dbb
00000190: 0612 e2bc f511 b73c 3f78 8d3c 4257 923c
000001a0: b0dc 75bc 142b 473c ab89 113d 115b 07bd
000001b0: 8303 6abc 5b6e d23b 0a14 813c 1050 bb3c
000001c0: 2ded 9abc 70f9 8bbc 42c7 3f3d 1e2d 96bd
000001d0: 9392 0b3d a920 a03c ff16 4f3c 1b9a 89bc
000001e0: a7e0 063c 7c91 9e3c e9aa dabc a2b1 55ba
000001f0: 3b69 323d 14d8 8fbc 5bad 7b3d 8b2a 3abc
00000200: 6e54 bebb 4b92 b0bc 6447 0100 5848 f4bc
00000210: b11c 25bc f2a1 7ebc 2a27 563d 3e11 95bd
00000220: 06fb 883a 8595 203c 3c3d 3dbb 1bc4 ff3c
00000230: 4e06 0100 67e3 c9bb c4ee 7c3b d958 d0bc
00000240: efed 20be e1f4 133d 9af1 2cbd d1f8 723b
00000250: 1175 c43c 0999 fa3c 8467 9a3b 23cd 10bd
00000260: 7a83 7dbc 9a08 363b ee73 ed3c 2385 823d
00000270: b791 7b3c 84a7 b5bc 28ee 6f3c 9d2b c53c
00000280: fba8 c83a e0a7 45bb aa23 d1ba 31c0 28bd
00000290: e52d 55bd a650 503d a445 6f3d 9a1c ff3c
000002a0: c9ed 95bc 7e0f 50bc d09e b6bc 4e47 ef3c
000002b0: cf86 bd3c d27a 7a3c 249a d33c dc4b 8e3c
000002c0: 698c 0c3d 7486 4bba 79c9 e0bc 9424 db3c
000002d0: 1ed2 dc39 b682 a13c 9306 a03c e60d 813b
000002e0: 3524 2dbe 6cee afbd 0a37 2c3d 5d6a 003c
000002f0: 9d09 4e3b d30c bc3c 5058 ce3b ce56 f53c
00000300: ebd2 cabb 56a2 b8bc 6416 83bd 2718 803d
00000310: f313 3fba c109 143d 9eea b5bb d3f0 713d
00000320: 771c 71bb 2248 60bc faaf 813b 01c8 0000
00000330: fe91 0000 cab9 1d3d 13f5 1dbd 53e6 4abc
00000340: 47ac 0100 ba63 0180 7fa5 cc3c 979e e63c
00000350: 8dd1 a43c 03ef 833a a22a 0280 a14d 023e
00000360: 986c 48bd b817 bebc b52f 9d3c 4276 0080
00000370: f4f4 3d3b f08f aebc 5e27 523c e72b 5dbc
00000380: eeb5 9dbd 7ef5 013e 002b 073d f38f 993c
00000390: 24ac 0b39 bf22 87bb f3bc ed3c 9c71 c4bc
000003a0: 4d56 debc 4b17 813a af4f 9abb 1b52 733d
000003b0: 5566 6e3d 1316 9fbd 94ae 3b3d 4234 6e3c
000003c0: 5046 0180 891b 91b6 4d9c 0080 19e9 fe3c
000003d0: 0a7e 203d b0f5 e83d c15c 6239 cc77 04bb
000003e0: 0891 9c3c 5758 1fbd bab2 fcbc 6c3c b3bc
000003f0: 5b51 c83b 3575 d43c d197 673d bc5c 4ebc
0.00063167774 -0.00019968222 0.029004542 0.008594636 -0.0022187193 0.0010827166 0.009207987 -0.001512565
0.013072731 0.0048619853 0.0024218133 0.00012708019 0.022454089 -0.009008516 -0.0009964152 0.019256465
-0.0058603645 0.015972687 -0.0172424 -1.30399e-40 0.00026323623 -0.004942066 0.014094797 -0.041595552
0.050950024 0.07126694 -0.035643466 -0.0019989274 0.018353187 0.010546342 0.035999272 -0.028054157
-0.036664903 0.02249199 -0.020316033 -0.0076558753 -0.075462595 0.03232355 -0.022169584 -0.0067193876
1.59916e-40 -0.0010197205 0.006495606 0.0010259976 0.10537304 0.007038728 0.02449898 0.0010761196
-0.031037083 -0.011161957 -4.914e-42 1.12879e-40 -9.5186e-41 0.015269664 -0.09449139 -1.6276e-40
1.43043e-40 1.8834e-40 -0.0055634687 -0.010592337 -1.86063e-40 4.6138e-41 1.3338844e-07 -0.042784274
-0.08757043 0.062413927 2.31026e-40 0.00066123373 0.036982894 -0.030145695 -1.8872e-40 2.17849e-40
-1.14706e-40 -0.006926751 -0.109693915 0.017623922 1.26431e-40 -3.901855e-17 0.0058397884 -0.023105847
-2.15431e-40 2.29778e-40 -1.01227e-40 -0.023228185 -0.005689956 -0.0047040605 -1.1978e-40 0.0029242623
-0.0035887994 0.02289067 0.0052683796 0.0017981776 7.223e-41 -0.00011072288 -0.058656093 -0.11114079
-0.014445509 -2.3856e-41 -0.00042486962 -0.0024107958 -0.027596485 0.02234743 0.017269252 0.017863873
-0.015006229 0.012156267 0.03553168 -0.033045832 -0.014283064 0.006421847 0.015756626 0.022865325
-0.018911922 -0.017086715 0.046820886 -0.07332824 0.03407533 0.019546824 0.01263976 -0.016797116
0.008232272 0.019356482 -0.026692824 -0.00081517745 0.043557387 -0.017559089 0.06144462 -0.011362682
-0.0058084046 -0.021554133 1.17446e-40 -0.029819652 -0.010077641 -0.01554154 0.052283444 -0.07278679
0.0010450787 0.009801273 -0.002887561 0.03122144 9.4097e-41 -0.0061611417 0.0038594464 -0.02543299
-0.15715764 0.036122207 -0.042222597 0.0037074576 0.023981603 0.030590551 0.004712047 -0.035351884
-0.015473241 0.0027776123 0.028985944 0.0637305 0.015354565 -0.022174604 0.014644183 0.024068648
0.0015309149 -0.0030159876 -0.0015956063 -0.041198913 -0.05204572 0.050858162 0.058416024 0.031141568
-0.018301861 -0.012699006 -0.022292525 0.029208805 0.02313557 0.015288072 0.025830336 0.017370157
0.034313593 -0.00077638705 -0.02743982 0.02675084 0.0004211822 0.019715648 0.019534385 0.0039384244
-0.16908343 -0.08590397 0.042044677 0.007837859 0.0031438835 0.022955334 0.0062971488 0.029948618
-0.006189694 -0.022538345 -0.06400755 0.06254607 -0.00072890444 0.036142115 -0.00555165 0.05906756
-0.0036790648 -0.013689073 0.0039577456 7.1748e-41 5.2372e-41 0.03850726 -0.0385638 -0.012384015
1.53637e-40 -1.2761e-40 0.024981258 0.028151793 0.020119453 0.0010065738 -1.98965e-40 0.12724926
-0.048931688 -0.02320467 0.019187788 -4.2423e-41 0.0028985115 -0.02130887 0.012826769 -0.013499237
-0.07700716 0.12691304 0.032999992 0.018745398 0.000133202 -0.004124015 0.029020762 -0.023979954
-0.02714076 0.0009848861 -0.004709206 0.059404474 0.05820306 -0.07767882 0.045820788 0.014538826
-1.17059e-40 -4.3245423e-06 -5.607e-41 0.031117009 0.0391827 0.11374986 0.00021587593 -0.0020213006
0.019112125 -0.038902607 -0.030846942 -0.021879397 0.006113214 0.025934795 0.056541268 -0.012595352

exp_avg f4 [32, 2, 5, 5]
00000000: bb1a 2dba 4b87 95b9 56d4 b638 c153 e139
00000010: 79ba 3c3a 471e 6cba 79ad 07ba 8709 c1b8
00000020: 1c8b 8439 3e9f 143a 9aa2 93ba c6db 3dba
00000030: bb03 94b9 5805 ee38 d46b df39 f64c abba
00000040: b904 6cba d81e edb9 6bb5 17b8 e4b6 ac39
00000050: 9041 b5ba 8c3e 82ba 6846 0cba 616f dfb8
00000060: c8aa 7239 92d3 3bba 4671 aab9 3e98 a238
00000070: c22d d839 4248 3a3a 84a5 7dba 8185 12ba
00000080: 64f6 15b9 ddcd 8339 02e5 0f3a bf7d 9cba
00000090: 409a 4aba 406e a7b9 734f c938 993d ee39
000000a0: 02be b4ba e696 76ba bcb2 e8b9 365c 98b7
000000b0: 47fc a339 9e96 c1ba 71a3 85ba 4b5c 09ba
000000c0: d956 b2b8 376b 9539 a160 ff38 84f9 be37
000000d0: 3e30 57b8 739f 08b9 7f80 76b9 6b68 0939
000000e0: 42b3 5238 ec7e a5b7 9ba3 01b9 f234 88b9
000000f0: 9c43 6338 1769 16b8 15a6 ebb8 2472 77b9
00000100: 19aa bbb9 733f f137 ce62 c6b7 6977 acb8
00000110: 9247 39b9 01b6 b5b9 c7a7 1938 b753 05b8
00000120: 14da adb8 c5ee 43b9 e122 c1b9 f042 1b39
00000130: 2c82 4a38 df0b 67b6 05c5 eab8 3220 25b9
00000140: 37ee 3239 0d65 6238 d34d e1b7 4a7a 03b9
00000150: fe9d 67b9 8552 cf38 ca60 bb36 03dd 97b8
00000160: f58c 3fb9 c66d acb9 b5d0 2339 3453 cc37
00000170: 1202 61b8 2d98 57b9 8f37 aeb9 397d 4939
00000180: 8c77 8438 f890 deb6 5ada 16b9 9846 94b9
00000190: ef48 183a a7f5 383a 7789 383a cb84 2b3a
000001a0: dc88 083a 650a 1b3a a88d 3a3a 1699 4a3a
000001b0: 4640 3a3a 1b8c 173a fbfd 163a d92d 443a
000001c0: a970 4a3a 3f7e 453a b91c 263a 1b23 1a3a
000001d0: a1f6 4d3a 47e0 593a 9853 553a ca6d 313a
000001e0: eaab 203a ce6c 593a 6a87 673a d588 5d3a
000001f0: 454e 393a c8a9 2d3a 4877 433a b987 433a
00000200: 257a 2f3a 13f6 ff39 4fe6 1e3a 7a98 433a
00000210: 06da 3f3a 7f54 373a b1eb 0d3a a642 193a
00000220: 5a4f 3c3a a326 4a3a 4649 3c3a 3a3c 1a3a
00000230: c036 193a 172e 463a d1ef 513a 3cfa 443a
00000240: b40c 2a3a cf0d 1d3a ba44 483a 0326 543a
00000250: 6d19 493a a315 233a fe03 863a da76 2c3a
00000260: f2f4 1e39 bfa5 b9b9 e245 4eba c651 5a3a
00000270: 63fb ea39 1fb9 dbb8 a7e2 26ba 8102 8cba
00000280: fb9d 2f3a 7265 8f39 15c9 6ab9 da0c 3cba
00000290: 2bd1 90ba c0fb 0d3a d12a 6339 1713 6bb9
000002a0: baf1 27ba c938 7fba bff8 083a 4da3 8339
000002b0: ffe3 8cb8 a015 c4b9 0990 23ba 6d7d 5d3a
000002c0: 1c4f 193a dfdc 3939 bc80 5ab9 9d91 06ba
000002d0: 1b7d 233a 6008 9c39 1755 c6b8 257b f8b9
000002e0: b9c2 43ba 990b ed39 1e01 2239 828f 56b9
000002f0: aa04 14ba a2e7 55ba 8d5c c639 dbb7 c938
00000300: b05a 46b9 2917 03ba cebd 39ba f78f d039
00000310: 62eb 4d39 4680 8bb8 2f9d 97b9 b76c eab9
00000320: 4225 dcba 2193 84ba a58f e6b9 354d b438
00000330: 7385 f239 23be ffba f2f5 a3ba 2224 10ba
00000340: 4097 14b6 4778 d239 f622 f8ba 0274 9fba
00000350: bd80 1fba e792 0bb8 279b ca39 993e cfba
00000360: a02a 84ba dc36 e0b9 a3d1 2d38 c664 dc39
00000370: 2438 92ba 34ea 3aba 2e65 a9b9 2911 d338
00000380: febe cd39 7ef4 e8ba 2ac4 81ba 8284 92b9
00000390: dfc3 7c39 fa7e 173a d7f5 fdba ebdd 88ba
000003a0: bdc1 c7b9 6116 4e39 6f4b 123a 20ed e9ba
000003b0: 9196 7bba 2d40 81b9 ef5a 8239 b757 1a3a
000003c0: 993b b1ba 0ebd 27ba 2b8d 9eb8 a6fc cf39
000003d0: d30f 2d3a 7944 5dba f66e 90b9 82fd 5339
000003e0: 6188 073a fa62 413a 112b d8b9 e428 4eb9
000003f0: 44b9 e8b7 57bb b238 5dcd 2a39 af42 f7b9
-0.00066034094 -0.00028520296 8.717987e-05 0.00042977746 0.00071994175 -0.0009007197 -0.0005175691 -9.204732e-05
0.00025280647 0.0005669481 -0.0011263669 -0.00072425266 -0.0002823154 0.0001134972 0.00042614213 -0.0013069201
-0.0009003389 -0.00045227143 -3.6170164e-05 0.0003294266 -0.0013828743 -0.0009936853 -0.00053510675 -0.000106542146
0.0002314254 -0.00071650103 -0.00032509322 7.753119e-05 0.00041232823 0.0007106104 -0.0009675848 -0.00055893516
-0.00014301535 0.00025139647 0.0005489142 -0.0011939331 -0.00077286735 -0.00031934865 9.5992255e-05 0.0004544079
-0.0013789537 -0.0009406641 -0.00044383656 -1.8162751e-05 0.00031277744 -0.0014769619 -0.0010195804 -0.0005239888
-8.503878e-05 0.00028499376 0.00012177346 2.2765955e-05 -5.1304924e-05 -0.0001302937 -0.00023508257 0.00013104237
5.023485e-05 -1.9728635e-05 -0.00012363346 -0.0002597939 5.4183984e-05 -3.586066e-05 -0.000112366084 -0.00023598276
-0.00035794152 2.8758985e-05 -2.3649449e-05 -8.223841e-05 -0.00017669637 -0.00034658614 3.6634297e-05 -3.1787637e-05
-8.289903e-05 -0.00018685598 -0.00036837815 0.00014806888 4.8281785e-05 -3.4428592e-06 -0.00011194687 -0.0001574762
0.00017064145 5.397671e-05 -2.685833e-05 -0.0001253869 -0.00022088733 9.8858996e-05 5.584302e-06 -7.241408e-05
-0.0001826769 -0.00032888184 0.00015622641 2.435744e-05 -5.364611e-05 -0.00020560688 -0.0003322926 0.00019215503
6.316518e-05 -6.632992e-06 -0.00014386457 -0.00028281356 0.0005809208 0.0007055648 0.0007039527 0.000654292
0.0005208382 0.00059143297 0.00071164453 0.00077285 0.00071049144 0.000578107 0.0005759892 0.00074836385
0.0007722476 0.0007533766 0.00063366775 0.0005879865 0.000785688 0.0008311313 0.00081377616 0.0006768374
0.0006129133 0.0008294106 0.0008832129 0.00084508705 0.0007068853 0.00066247256 0.0007456434 0.0007458884
0.0006693921 0.0004882073 0.00060615403 0.00074613804 0.000731856 0.0006993487 0.0005413844 0.0005846418
0.0007183455 0.0007711446 0.00071825495 0.0005883608 0.0005844645 0.00075599685 0.0008008453 0.00075140945
0.0006486878 0.00059911323 0.00076396356 0.00080928224 0.000767133 0.00062211807 0.0010224578 0.00065789896
0.00015159303 -0.0003540944 -0.000786869 0.0008328225 0.00044819256 -0.00010477215 -0.00063661713 -0.0010681899
0.0006699261 0.00027350668 -0.00022390888 -0.0007173546 -0.0011048665 0.0005416237 0.00021664357 -0.00022418458
-0.00064065645 -0.00097359397 0.00052250543 0.00025107936 -6.718188e-05 -0.00037400145 -0.00062394195 0.0008449171
0.0005848275 0.00017725256 -0.00020838057 -0.00051333924 0.0006236599 0.00029760879 -9.457225e-05 -0.00047393996
-0.00074676756 0.00045212804 0.0001544994 -0.00020462091 -0.0005646447 -0.0008159821 0.0003783446 9.6186726e-05
-0.00018916535 -0.00050007046 -0.0007085473 0.00039780114 0.0001963801 -6.651929e-05 -0.00028918075 -0.00044712957
-0.0016795772 -0.0010114649 -0.00043976042 8.59745e-05 0.00046257264 -0.0019511621 -0.001250921 -0.0005498548
-2.2141758e-06 0.00040143935 -0.0018931318 -0.001216531 -0.0006084552 -3.3276996e-05 0.0003864404 -0.0015811502
-0.0010083504 -0.00042765483 4.1441654e-05 0.00042036752 -0.0011155647 -0.0007130236 -0.00032309577 0.000100644604
0.00039242947 -0.001777306 -0.000990038 -0.00027946016 0.0002410556 0.0005779114 -0.0019375634 -0.0010442113
-0.00038100584 0.00019654028 0.00055806985 -0.0017847158 -0.0009597326 -0.00024652612 0.00024863283 0.00058877043
-0.001352179 -0.0006398716 -7.560322e-05 0.00039670354 0.0006601784 -0.0008440684 -0.00027548493 0.00020216967
0.00051701633 0.00073771144 -0.00041230817 -0.00019660924 -2.7742826e-05 8.522596e-05 0.00016288967 -0.00047161194

exp_avg_sq f4 [32, 2, 5, 5]
00000000: 63dd 1737 a6c9 e336 56d1 b536 dc45 9f36
00000010: f5c3 9d36 bcc7 3037 8f9d 0837 26f2 d636
00000020: f23d af36 ca51 9936 a2b7 4437 b8bc 1f37
00000030: 07ca fc36 1a5f c636 8586 9d36 2ee6 5137
00000040: c412 3237 0bfd 0e37 74e0 db36 2c75 a436
00000050: b6a8 4f37 9123 3537 2100 1437 580d e436
00000060: 9523 a636 c979 1d37 16bb e636 3368 bb36
00000070: fb8e ae36 31ad b536 0b50 3737 0a51 0c37
00000080: 33e1 df36 bfc3 bf36 8b9f b236 a3ac 4c37
00000090: cd65 2637 bb11 0537 eed8 d836 dcae b636
000000a0: a201 5a37 124a 3b37 8aad 1837 04bf f036
000000b0: e7b0 bc36 5ba3 5737 1d75 4137 dc81 2037
000000c0: b5e1 f936 6335 ba36 e193 8836 bfa1 6236
000000d0: 0934 4c36 f518 4e36 f24a 7c36 8998 6136
000000e0: 922f 4336 a8a2 3036 c957 2936 518d 4336
000000f0: 3dea 3636 ed9b 2636 eb96 1936 f30f 0936
00000100: 0351 0d36 1ffa 2636 5a7e 2236 fd73 1936
00000110: 59db 0036 60b1 df35 3175 2036 7fb1 2436
00000120: 0919 2036 f404 0436 d3ac c635 b316 9d36
00000130: f75d 7e36 a1e3 5b36 19c0 5136 e0d4 7236
00000140: f99d 8c36 3143 6836 073b 4736 c91f 3336
00000150: 96f0 4136 0b49 7a36 8f36 5236 0245 3336
00000160: f975 1536 fd70 1136 b38f 6e36 c0e1 5036
00000170: d366 3536 cb6e 0f36 9fe6 ed35 46b4 6636
00000180: b7f6 5236 9ebf 3c36 7365 1336 6289 d735
00000190: 6f9a 8336 5285 bd36 652c da36 57c0 d836
000001a0: 8f7d bb36 d844 8b36 07f2 c636 51f2 e436
000001b0: c4fc e236 c08a c336 e808 9b36 c8b4 d636
000001c0: faf7 f336 696f f136 6e00 ce36 b508 b636
000001d0: 09c3 f236 22c9 0537 56c1 0137 58aa d936
000001e0: 27b7 da36 4262 0d37 1c4a 1637 60d0 0b37
000001f0: 2aed de36 dbad 9b36 360f d036 58c3 e536
00000200: 4fa6 dc36 3b91 b936 e5bd 9836 f63f cf36
00000210: 6656 e736 5ee0 e136 f4a4 be36 c501 a036
00000220: 0096 d636 b571 ef36 c3af ea36 8d76 c636
00000230: 4b0b b736 b6a6 eb36 1bc4 0037 9585 f836
00000240: 76f8 cf36 9c1a db36 1691 0837 e91c 0f37
00000250: dab4 0337 4e7f d136 fdb3 9637 3f8d 6637
00000260: 90f4 4b37 7d88 9437 965b fb37 7637 a737
00000270: e193 7837 7995 6137 b400 ae37 c1f5 1838
00000280: 122e 9937 c270 6737 daa2 6537 27c2 b937
00000290: 3e0f 2338 80e3 6f37 9600 3a37 6ea3 3e37
000002a0: 594a 9a37 459b 0538 7f40 2037 5e2c 0537
000002b0: 698c 0d37 aa2f 5f37 c23b b837 177c 9a37
000002c0: 7883 6637 64df 4337 a833 9037 d476 fa37
000002d0: fb63 ab37 e021 7837 9853 5937 7760 a937
000002e0: 8e95 1738 731e 9b37 0cc3 6537 23ce 5e37
000002f0: 3c85 b637 05cc 2138 0aad 6f37 17a0 3637
00000300: 0d5c 3937 bde8 9837 b92a 0538 19d5 1c37
00000310: 4512 0137 744c 0a37 0153 5e37 0033 b937
00000320: 33d1 cc37 e321 5637 0d97 dd36 3e70 a436
00000330: 0222 be36 c450 f837 612c 7e37 b2c9 f436
00000340: 4166 a136 d5fe b336 b000 0338 a051 8737
00000350: 404b 0137 531f a336 1701 b036 d252 0138
00000360: 26b6 8a37 67f4 0937 c89f ad36 f424 b436
00000370: a5ee fc37 86d6 8c37 7c01 1137 ff78 b336
00000380: edf9 ae36 803d c237 d10a 3f37 ba36 c636
00000390: e2cf a236 1499 c636 af7c e337 a5bb 5a37
000003a0: 1fc6 d336 f557 9f36 3937 bf36 a232 ed37
000003b0: 0602 6937 af31 e336 4e9c a436 4515 bf36
000003c0: 718f ec37 eec0 7637 cc23 0037 d3e5 b836
000003d0: 6433 c936 b0aa ee37 1464 8537 363b 1237
000003e0: f94b cd36 b0e0 cc36 a37c 5a36 7741 9c36
000003f0: 6313 bb36 f130 c736 1bc1 cf36 ac26 6b36
9.051847e-06 6.788602e-06 5.4185903e-06 4.746702e-06 4.701777e-06 1.0536922e-05 8.142916e-06 6.405887e-06
5.222618e-06 4.569277e-06 1.1725266e-05 9.521078e-06 7.5337043e-06 5.911931e-06 4.6946247e-06 1.2510964e-05
1.0613996e-05 8.522776e-06 6.5528384e-06 4.9012215e-06 1.23774425e-05 1.0796722e-05 8.821517e-06 6.796483e-06
4.951328e-06 9.386285e-06 6.876314e-06 5.5851647e-06 5.202249e-06 5.4143825e-06 1.0926286e-05 8.363519e-06
6.6721345e-06 5.7150314e-06 5.3233866e-06 1.2199543e-05 9.918073e-06 7.931546e-06 6.4625556e-06 5.444379e-06
1.2994193e-05 1.1163314e-05 9.100311e-06 7.1747945e-06 5.6234308e-06 1.2853033e-05 1.1530964e-05 9.566978e-06
7.447054e-06 5.549447e-06 4.070331e-06 3.3770773e-06 3.0428657e-06 3.071092e-06 3.759455e-06 3.36164e-06
2.9084954e-06 2.6320722e-06 2.523406e-06 2.9139521e-06 2.7256458e-06 2.4826688e-06 2.2886622e-06 2.0423875e-06
2.1057792e-06 2.4881517e-06 2.4213427e-06 2.286629e-06 1.9201163e-06 1.6666418e-06 2.3910072e-06 2.454122e-06
2.385643e-06 1.9672416e-06 1.4802448e-06 4.681607e-06 3.7903644e-06 3.276604e-06 3.1255242e-06 3.618472e-06
4.1907156e-06 3.4609805e-06 2.968767e-06 2.669158e-06 2.889928e-06 3.729542e-06 3.1324196e-06 2.6713246e-06
2.22714e-06 2.1672452e-06 3.5548408e-06 3.112582e-06 2.7030953e-06 2.137315e-06 1.7724996e-06 3.4377604e-06
3.1436045e-06 2.812572e-06 2.1963758e-06 1.6058732e-06 3.9220827e-06 5.6481595e-06 6.5020745e-06 6.459693e-06
5.5876512e-06 4.1505373e-06 5.9290355e-06 6.823139e-06 6.7647507e-06 5.8276055e-06 4.620397e-06 6.3987427e-06
7.2708326e-06 7.1953295e-06 6.1393284e-06 5.4250363e-06 7.234867e-06 7.974248e-06 7.734014e-06 6.4869346e-06
6.518228e-06 8.427132e-06 8.957952e-06 8.333562e-06 6.643725e-06 4.6395994e-06 6.200654e-06 6.847473e-06
6.575872e-06 5.5303367e-06 4.5520596e-06 6.1765268e-06 6.8943946e-06 6.7316423e-06 5.6816443e-06 4.7685776e-06
6.3951593e-06 7.1359923e-06 6.994205e-06 5.914661e-06 5.4551397e-06 7.0229535e-06 7.675054e-06 7.406527e-06
6.1980054e-06 6.5298063e-06 8.140012e-06 8.530195e-06 7.850316e-06 6.2435056e-06 1.7965207e-05 1.3741955e-05
1.21566845e-05 1.7706532e-05 2.996418e-05 1.9933777e-05 1.4816383e-05 1.3445847e-05 2.0742744e-05 3.64685e-05
1.8260474e-05 1.3794926e-05 1.36873805e-05 2.2144128e-05 3.8876424e-05 1.4298479e-05 1.10866e-05 1.1362934e-05
1.8392851e-05 3.1854277e-05 9.55176e-06 7.937748e-06 8.436947e-06 1.3302933e-05 2.1962336e-05 1.8416014e-05
1.3739678e-05 1.1674918e-05 1.7190192e-05 2.9857656e-05 2.0431346e-05 1.4789839e-05 1.2953671e-05 2.019129e-05
3.614049e-05 1.8491619e-05 1.36948765e-05 1.3280226e-05 2.1758133e-05 3.85754e-05 1.4285799e-05 1.0885319e-05
1.10482915e-05 1.822819e-05 3.174946e-05 9.34794e-06 7.693253e-06 8.243242e-06 1.3251557e-05 2.2077467e-05
2.4416111e-05 1.2763284e-05 6.603898e-06 4.9006476e-06 5.6664003e-06 2.9601513e-05 1.51499125e-05 7.295247e-06
4.810078e-06 5.364282e-06 3.1233474e-05 1.6131264e-05 7.70652e-06 4.861425e-06 5.2453356e-06 3.083313e-05
1.6535701e-05 8.222741e-06 5.1744028e-06 5.36872e-06 3.0151868e-05 1.6789196e-05 8.643019e-06 5.3487015e-06
5.2146993e-06 2.315524e-05 1.13870055e-05 5.907231e-06 4.852177e-06 5.9186805e-06 2.7118569e-05 1.3037502e-05
6.3113544e-06 4.748809e-06 5.6986723e-06 2.827618e-05 1.3888353e-05 6.770911e-06 4.905777e-06 5.6947197e-06
2.8200187e-05 1.4707663e-05 7.637729e-06 5.5103824e-06 5.9962495e-06 2.8451293e-05 1.5901438e-05 8.716064e-06
6.1183205e-06 6.105831e-06 3.255708e-06 4.6567834e-06 5.575291e-06 5.9363597e-06 6.191561e-06 3.5040239e-06

exp_avg f4 [32]
00000000: 144d e8ba f7ae d5b9 7398 bbba 5e5d faba
00000010: 09e1 e4ba 2c3a a536 8a43 603a 2a1d 96ba
00000020: 43d5 af38 1c84 4e39 1ad7 83ba fbc6 15bb
00000030: 5aae e43a 3603 c7b9 037a 0639 e9f2 0bba
00000040: a079 a9ba be90 ad38 5f61 a83a 2784 8cba
00000050: f9fb e639 d294 e139 b9b4 c839 0ee4 ea39
00000060: 39d3 7039 a2df fe39 534d 153a 811f a93a
00000070: 0e85 0239 b153 df39 9b82 7639 168c 13bb
-0.0017723166 -0.00040756885 -0.0014312401 -0.0019101312 -0.0017462085 4.9241553e-06 0.0008554986 -0.0011452783
8.384373e-05 0.00019694905 -0.0010058612 -0.0022854197 0.001744698 -0.0003795863 0.00012824689 -0.00053386256
-0.0012929924 8.276243e-05 0.0012846402 -0.0010720537 0.00044056753 0.00043026224 0.00038281622 0.00044801872
0.0002296687 0.00048613275 0.0005695421 0.0012903066 0.00012447333 0.0004259623 0.00023509043 -0.0022513918
