results/2BS/T_1/L_4000/seed5/model_best.pth.tar (torch_old, 395614 bytes, 22 tensors)

layer1.conv.weight f4 [32, 2, 5, 5]
0.056346912 -0.008014984 -0.063041635 0.014351969 0.0007364231 -0.06399812 0.020675436 0.12628636
0.015893133 -0.07579629 0.04552933 0.05734952 0.06756807 0.009433418 0.060375813 -0.018113572
0.056498256 -0.049429476 0.06902751 0.04588957 0.037588276 0.026605843 0.02787513 0.07269121
0.024008574 -0.025359673 -0.033376936 0.02314004 -0.05218399 -0.04616289 -0.016669907 0.004793151
-0.02308771 -0.00709362 0.016730765 -0.09037646 0.009195858 0.064897716 0.024238016 -0.0067357006
0.058323912 0.06567878 0.030273847 -0.089686416 -0.009365104 0.03145846 -0.007769028 0.025632862
-0.034200232 0.010704609 0.041197423 -0.037895642 -0.041563585 -0.032784212 -0.019828223 -0.01971093
-0.013249816 -0.015785953 -0.0032983467 -0.0008688086 -0.0100261 -0.0026532437 -0.00881682 -0.0149605535
-0.08640229 0.04896171 0.03804874 0.040402975 0.043212827 -0.0010384923 0.05777543 -0.027793527
-0.046364445 -0.057649463 -0.07763587 0.041704264 0.029029606 0.06047438 0.09586222 0.03093141
0.10380007 0.022391744 0.09834504 0.17646559 0.01298403 0.026857203 -0.010311408 0.08124045
0.003652259 0.16806775 0.017573329 -0.010194981 -0.030411903 0.09925483 0.11621265 0.02016375
0.033605658 0.0045089484 0.040057443 0.010398092 0.063560836 -0.04441746 -0.11269721 0.05610172
0.0033046836 0.0908002 -0.054994043 -0.081876576 -0.033372317 -0.032597233 -0.027728876 -0.026019221
-0.024634508 -0.07248912 0.10696355 -0.010319928 0.04248447 0.039583556 -0.05008753 -0.04735485
-0.0995952 -0.19152609 0.081004426 0.052808117 -0.055864546 -0.04251383 0.026726276 0.13919096
-0.0049410667 -0.05475617 0.032870088 -0.012659576 0.076117985 -0.02040782 0.13672602 0.06736684
0.019224985 0.02055617 -0.006208431 -0.035826657 0.0020802561 0.010028121 0.027752988 -0.007650072
0.02869356 0.043850113 -0.027785981 -0.028709803 -0.035413384 0.05481239 0.05312709 0.116641164
0.0393632 0.081809014 0.02747613 0.075546585 -0.014161449 -0.061742403 0.0330861 -0.09261773
0.10972744 -0.0012306854 0.030047184 -0.011637427 0.019799704 -0.056237012 0.02783156 -0.0691751
-0.027444098 0.061448053 0.052497648 -0.03764692 -0.02480982 -0.023025889 -0.103126995 0.058474407
-0.004993901 -0.030255105 0.035117462 -0.040415987 -0.024228422 -0.05286021 0.035543572 -0.015142338
-0.015877549 0.036876526 -0.029926479 -0.0019390815 0.013838188 -0.025932344 0.05095343 -0.013860819
-0.032370754 -0.015925476 0.051009122 0.08320259 -0.059961982 -0.023511672 0.054443587 0.06592179
-0.10366196 -0.063788824 -0.056382418 0.035006132 0.030387165 0.028145459 0.033455793 -0.1350262
-0.027500026 0.0024277489 -0.049187303 0.012369789 -0.060182374 -0.011126352 -0.0036022882 -0.047784586
-0.059906997 -0.03803478 0.041194063 0.112909965 0.0063942713 -0.034431603 0.04185879 0.08535445
-0.036191106 -0.009779184 -0.042357873 -0.07132576 -0.04220352 -0.01994263 -0.052554134 0.03513101
0.01361281 -0.03789894 0.036611542 0.03638196 0.0026495997 0.069541596 -0.009168328 -0.030933108
0.007285411 -0.052190658 0.13961875 0.04787026 -0.024023172 -0.08879162 -0.030175894 -0.054029036
0.02883807 0.02848485 0.05845899 0.043495443 -0.057338547 -0.0126965325 -0.07875676 0.054761525
00000000: 05cc 663d 4851 03bc f91b 81bd 8524 6b3c
00000010: 850c 413a 7211 83bd 885f a93c 3651 013e
00000020: 5132 823c 163b 9bbd f67c 3a3d 55e7 6a3d
00000030: 2161 8a3d 9f8e 1a3c a14c 773d ea62 94bc
00000040: b76a 673d 9076 4abd 4c5e 8d3d b4f6 3b3d
00000050: 2af6 193d 7ff4 d93c 625a e43c 21df 943d
00000060: a1ad c43c 17bf cfbc 41b6 08bd 2e90 bd3c
00000070: e1be 55bd 4c15 3dbd 548f 88bc dd0f 9d3b
00000080: 7022 bdbc 9971 e8bb f50e 893c 4b17 b9bd
00000090: 39aa 163c 18e9 843d ce8e c63c 27b7 dcbb
000000a0: 0ee5 6e3d 9982 863d dc00 f83c 83ad b7bd
000000b0: 1870 19bc 96da 003d 5593 febb 02fc d13c
000000c0: 8b15 0cbd 6262 2f3c a1be 283d 7638 1bbd
000000d0: 943e 2abd bd48 06bd cc6e a2bc d178 a1bc
000000e0: c215 59bc 8b51 81bc 1329 58bb c2c0 63ba
000000f0: 8344 24bc 0be2 2dbb 6c74 10bc 1c1d 75bc
00000100: aff3 b0bd 138c 483d ffd8 1b3d 977d 253d
00000110: efff 303d 051e 88ba eea5 6c3d 40af e3bc
00000120: a5e8 3dbd d821 6cbd 8eff 9ebd 17d2 2a3d
00000130: 7fcf ed3c fcb3 773d 6953 c43d de63 fd3c
00000140: 2295 d43d e46e b73c 2069 c93d 65b3 343e
00000150: f8ba 543c a303 dc3c 2ef1 28bc 6561 a63d
00000160: bd5a 6f3b f419 2c3e f1f5 8f3c d908 27bc
00000170: 6222 f9bc 1e46 cb3d e600 ee3d 732e a53c
00000180: 16a6 093d cdbf 933b 4613 243d c25c 2a3c
00000190: 2f2c 823d 15ef 35bd cbcd e6bd ebca 653d
000001a0: 6493 583b 75f5 b93d 6f41 61bd e8ae a7bd
000001b0: 69b1 08bd ad84 05bd ab27 e3bc 4326 d5bc
000001c0: 4fce c9bc 2d75 94bd b50f db3d ea14 29bc
000001d0: 3204 2e3d 5e22 223d 9528 4dbd 29f7 41bd
000001e0: 91f8 cbbd 6a1f 44be a6e5 a53d 534d 583d
000001f0: 39d2 64bd fb22 2ebd 10f1 da3c 1388 0e3e
00000200: ace8 a1bb 0148 60bd c9a2 063d 1c6a 4fbc
00000210: bfe3 9b3d 4d2e a7bc e801 0c3e a0f7 893d
00000220: b77d 9d3c 6a65 a83c 1870 cbbb f9be 12bd
00000230: e854 083b fd4c 243c 3c5a e33c 75ad fabb
00000240: c20e eb3c 2d9c 333d 6d9f e3bc d230 ebbc
00000250: a00d 11bd f582 603d cb9b 593d 90e1 ee3d
00000260: 4f3b 213d 7c8b a73d 9f15 e13c 2bb8 9a3d
00000270: 6c05 68bc 9ae5 7cbd 4a85 073d 5dae bdbd
00000280: c8b8 e03d f34e a1ba 8325 f63c e8aa 3ebc
00000290: fd32 a23c c858 66bd 03ff e33c adab 8dbd
000002a0: 72d2 e0bc f4b0 7b3d c607 573d a833 1abd
000002b0: f73d cbbc caa0 bcbc 3f34 d3bd dc82 6f3d
000002c0: e1a3 a3bb 8ed9 f7bc 54d7 0f3d 3c8b 25bd
000002d0: af7a c6bc f383 58bd 2396 113d 9217 78bc
000002e0: a211 82bc d70b 173d 6028 f5bc c728 feba
000002f0: 91b9 623c 1170 d4bc 8bb4 503d 7d18 63bc
00000300: 3297 04bd 2576 82bc f1ee 503d 1f66 aa3d
00000310: b29a 75bd 8d9b c0bc 3d00 5f3d 0102 873d
00000320: b94c d4bd b7a3 82bd 40f1 66bd 9762 0f3d
00000330: 81ee f83c 4e91 e63c f108 093d 4f44 0abe
00000340: bc47 e1bc de1a 1f3b a078 49bd a8aa 4a3c
00000350: cb81 76bd 4d4b 36bc 5e14 6cbb c5b9 43bd
00000360: 0a61 75bd 5cca 1bbd 1bbb 283d 573d e73d
00000370: 0987 d13b 2708 0dbd 1f74 2b3d 50ce ae3d
00000380: 203d 14bd df38 20bc 737f 2dbd 3d13 92bd
00000390: 99dd 2cbd ba5e a3bc 0143 57bd 89e5 0f3d
000003a0: 4308 5f3c eb3b 1bbd fcf5 153d 4005 153d
000003b0: e8a4 2d3b d36b 8e3d c136 16bc 6e67 fdbc
000003c0: 75ba ee3b dfc5 55bd 38f8 0e3e 9b13 443d
000003d0: 3ecc c4bc 62d8 b5bd 7033 f7bc 8d4d 5dbd
000003e0: d13d ec3c 0f59 e93c b272 6f3d 4728 323d
000003f0: d3db 6abd 1e05 50bc 394b a1bd 9f4d 603d

layer1.conv.bias f4 [32]
-0.096568786 -0.0107292645 -0.038799386 -0.027313797 0.03679025 0.08104015 0.0107949935 0.09211192
-0.018940615 0.0027449485 0.13990875 0.04031561 -0.017896831 -0.015559132 -0.09423692 0.076505885
0.09038445 0.07504844 0.11353676 0.1185936 -0.07939956 0.14159633 0.11526054 -0.039106403
-0.043388564 -0.011755152 -0.046580967 0.09223979 0.11947589 0.09929393 -0.06846388 -0.069976114
00000000: dbc5 c5bd ccc9 2fbc 1bec 1ebd 2fc1 dfbc
00000010: 60b1 163d 61f8 a53d 7cdd 303c 2da5 bc3d
00000020: 5929 9bbc 98e4 333b 3d44 0f3e fb21 253d
00000030: 609c 92bc bbeb 7ebc 49ff c0bd 1eaf 9c3d
00000040: 7c1b b93d ffb2 993d f685 e83d 34e1 f23d
00000050: 3d9c a2bd a1fe 103e b80d ec3d 092e 20bd
00000060: 35b8 31bd ae98 40bc afcb 3ebd 37e8 bc3d
00000070: c7af f43d 9e5a cb3d ca36 8cbd a34f 8fbd

layer2.conv1.weight f4 [32, 32, 3, 3]
0.040828973 -0.060127992 0.013531831 0.046775755 -0.009162595 -0.012322544 -0.14123794 0.08613614
-0.046395242 -0.078652985 -0.0034363703 0.06458384 -0.026005905 -0.046713203 -0.09004549 -0.075435914
0.056212395 0.06497583 -0.0066983406 -0.029508201 0.011312851 -0.015459634 0.07257675 -0.13278972
0.041532826 0.028939335 -0.028073652 -0.00040851522 0.0031380584 -0.0714068 0.041545358 0.12234966
-0.038234077 0.066929735 -0.011927185 -0.14185351 -0.005284783 0.03608355 0.008446877 -0.04208167
-0.03031868 -0.1352607 -0.11929741 -0.043047458 -0.022621408 0.09268379 0.01943264 -0.023924645
0.031121904 -0.012237775 0.046211943 0.12340122 -0.042128835 0.033431835 0.0280068 -0.070830055
-0.027807156 -0.004772281 -0.037477527 -0.00389872 -0.06397931 -0.053172812 0.093353055 0.047418807
0.048730154 0.036506765 -0.13680804 0.08609445 -0.07563665 0.04124264 -0.13145505 -0.06808919
-0.08909375 -0.06398462 -0.11763412 0.040077277 -0.063064866 -0.013390726 0.08289996 -0.059583507
-0.07573694 -0.093589775 0.017242152 0.09905052 -0.14166445 -0.0024842767 0.04673385 0.030614935
0.051483296 -0.00020989112 0.13013165 0.00031896887 -0.11437574 0.07492319 0.024351656 -0.033290926
0.12305 0.099326186 -0.034435313 -0.062916644 0.0073592747 -0.031229759 0.14958103 -0.09685449
-0.059679143 0.03681721 0.018591208 -0.06194436 0.039532915 -0.014899316 -0.006158603 -0.11479727
-0.0053870003 0.055273604 0.063973285 0.08081405 -0.05227494 -0.0403822 -0.04508757 -0.07321084
-0.04435666 0.045752555 0.07072568 -0.009079749 -0.043045104 0.020513192 0.016892549 -0.06121061
0.05515721 0.040859867 -0.042188555 0.01809754 -0.07915272 0.07679974 -0.06356272 0.043960325
-0.009046602 -0.01061708 -0.16370814 0.047378626 0.03831556 -0.04445247 -0.011587107 0.05430589
0.0067566615 -0.12994976 -0.0147858355 -0.01567828 0.021168767 0.10561938 -0.050245613 0.03308886
0.00020820738 -0.03308488 0.0034462053 -0.19345136 -0.021164512 0.0807319 0.003020556 0.009692108
-0.061436836 0.09309866 0.012750431 -0.06494267 -0.11740705 0.0044096042 0.015294193 0.06798583
-0.07336559 0.105403945 -0.0847117 -0.08192368 0.113603726 -0.066743486 0.113960914 -0.046608027
0.026080262 0.07226629 0.014938864 -0.04160978 0.059143227 0.1184429 -0.051173624 0.09568892
0.0014235977 -0.036403272 0.07761587 0.09228155 -0.026255423 -0.15143895 0.00433529 -0.005715222
0.05515185 0.026273912 0.06022996 -0.03759814 0.020745505 0.06424428 -0.009550314 -0.05098388
-0.021798966 -0.019463921 0.12034731 -0.1020088 0.07025767 -0.032315932 -0.050727494 -0.031690236
0.111618035 0.020073045 0.010252287 -0.14855775 0.021840308 0.049716227 0.16190459 0.04739525
-0.055031743 0.09368892 0.014945619 -0.050186265 0.05888685 -0.14512438 -0.01863039 0.056865763
0.042778846 -0.0059007034 0.036403358 -0.0027569437 0.08150718 -0.08009914 -0.07717605 0.012684692
0.09857218 0.080572285 -0.00054902135 -0.081649296 0.05419358 -0.074194126 0.003649702 0.049858898
0.11065626 0.10475791 0.0066163633 0.025669554 -0.06300737 -0.10630372 0.045974057 0.11477375
-0.034460943 0.12948519 0.063445784 0.033055507 0.047320355 -0.069751255 -0.017206283 0.0061761327
00000000: 483c 273d c548 76bd 9db4 5d3c ef97 3f3d
00000010: b51e 16bc 7fe4 49bc aea0 10be 2568 b03d
00000020: f008 3ebd d114 a1bd ba34 61bb 8844 843d
00000030: 560a d5bc 5856 3fbd c569 b8bd 257e 9abd
00000040: f83e 663d 0c12 853d c17d dbbb 2fbb f1bc
00000050: 8959 393c 684a 7dbc 1ea3 943d 07fa 07be
00000060: 531e 2a3d 2f12 ed3c b7fa e5bc fc2d d6b9
00000070: e2a7 4d3b ba3d 92bd 772b 2a3d 7592 fa3d
00000080: 569b 1cbd 7512 893d 3d6a 43bc 0c42 11be
00000090: f92b adbb 58cc 133d c564 0a3c d45d 2cbd
000000a0: e15e f8bc c881 0abe 3352 f4bd 8852 30bd
000000b0: 8850 b9bc 00d1 bd3d 3331 9f3c 9efd c3bc
000000c0: 5df3 fe3c f380 48bc bc48 3d3d c7b9 fc3d
000000d0: 498f 2cbd d2ef 083d 846e e53c 590f 91bd
000000e0: d5cb e3bc cb60 9cbb 0982 19bd ab81 7fbb
000000f0: 9607 83bd bccb 59bd e32f bf3d 393a 423d
00000100: 4599 473d 1e88 153d 6817 0cbe 4952 b03d
00000110: 63e7 9abd 0bee 283d 279c 06be 5872 8bbd
00000120: c976 b6bd 5e0a 83bd 28ea f0bd 1228 243d
00000130: 2728 81bd c764 5bbc 74c7 a93d d60d 74bd
00000140: f81b 9bbd ffab bfbd 6a3f 8d3c 00db ca3d
00000150: 7c10 11be 3fcf 22bb fe6b 3f3d 2ccc fa3c
00000160: 26e0 523d 3816 5cb9 3b41 053e 473b a739
00000170: d43d eabd 5471 993d 207d c73c 115c 08bd
00000180: a301 fc3d 876b cb3d 0b0c 0dbd 71da 80bd
00000190: 1226 f13b 8dd5 ffbc c52b 193e a65b c6bd
000001a0: 1e72 74bd a5cd 163d 974c 983c 5fb9 7dbd
000001b0: 44ed 213d 431c 74bc 1bce c9bb d51a ebbd
000001c0: 6f85 b0bb 9366 623d 6d04 833d d681 a53d
000001d0: 3f1e 56bd ce67 25bd bead 38bd 91ef 95bd
000001e0: 54af 35bd 0867 3b3d a0d8 903d 3ac3 14bc
000001f0: 1050 30bd 480b a83c 3e62 8a3c fab7 7abd
00000200: 87ec 613d ad5c 273d e8cd 2cbd 4b41 943c
00000210: d21a a2bd 2f49 9d3d 2c2d 82bd be0f 343d
00000220: 3338 14bc 43f3 2dbc 1ba3 27be 1710 423d
00000230: c7f0 1c3d cb13 36bd d9d7 3dbc da6f 5e3d
00000240: fc66 dd3b 8d11 05be 4a40 72bc bc6f 80bc
00000250: 1f6a ad3c f94e d83d 58ce 4dbd 2f88 073d
00000260: 3e52 5a39 0384 07bd bbd9 613b 1d18 46be
00000270: 3361 adbc c456 a53d 85f4 453b a6cb 1e3c
00000280: 31a5 7bbd 83aa be3d 2fe7 503c aa00 85bd
00000290: 1c73 f0bd 717e 903b 7f94 7a3c 283c 8b3d
000002a0: b340 96bd 06de d73d 547d adbd 9ac7 a7bd
000002b0: 12a9 e83d cfb0 88bd 5764 e93d 0fe8 3ebd
000002c0: 46a6 d53c 5900 943d 23c2 743c 046f 2abd
000002d0: 2b40 723d 3192 f23d 6f9b 51bd 8df8 c33d
000002e0: 0398 ba3a 991b 15bd 12f5 9e3d 1cfe bc3d
000002f0: 9d15 d7bc d012 1bbe 0c0f 8e3b c246 bbbb
00000300: e8e6 613d 633c d73c b1b3 763d 8200 1abd
00000310: 7af2 a93c 8192 833d ec78 1cbc 79d4 50bd
00000320: bf93 b2bc cd72 9fbc a778 f63d fde9 d0bd
00000330: 41e3 8f3d b65d 04bd a2c7 4fbd 9fcd 01bd
00000340: ff97 e43d 3a70 a43c 35f9 273c 861f 18be
00000350: 72ea b23c 3ea3 4b3d 51ca 253e 8621 423d
00000360: f768 61bd fadf bf3d 78de 743c 1d90 4dbd
00000370: 5633 713d 7c9b 14be c29e 98bc 13ec 683d
00000380: df38 2f3d b05a c1bb b01b 153d d7ad 34bb
00000390: 3ded a63d 050b a4bd 7a0e 9ebd 74d3 4f3c
000003a0: 36e0 c93d 1503 a53d 33ec 0fba bf37 a7bd
000003b0: 16fa 5d3d 17f3 97bd d72f 6f3b d838 4c3d
000003c0: c09f e23d 518b d63d 14ce d83b f548 d23c
000003d0: 020a 81bd c4b5 d9bd 4b4f 3c3d 800e eb3d
000003e0: eb26 0dbd c497 043e ddef 813d 3665 073d
000003f0: fdd2 413d bfd9 8ebd 31f4 8cbc 2861 ca3b

layer2.conv1.bias f4 [32]
-0.05073816 -0.012424956 -0.037099835 -0.023289775 -0.034770917 0.009739393 -0.02501172 0.017322466
0.037556324 -0.0028055473 0.046699747 0.006456159 -0.022323605 -0.0052442667 -0.0050052465 -0.034370437
-0.0025743728 -0.03339986 -0.048637286 -0.02780005 0.04078467 0.050740305 0.036682382 0.04502635
0.025921488 -0.0534569 0.033410326 -0.012437661 -0.023757268 -0.012455822 -0.021251021 0.008976529
00000000: d1d2 4fbd 0b92 4bbc fff5 17bd 33ca bebc
00000010: f36b 0ebd fa91 1f3c 61e5 ccbc d8e7 8d3c
00000020: a9d4 193d 46dd 37bb 3c48 3f3d 308e d33b
00000030: fedf b6bc 19d8 abbb 0d03 a4bb 04c8 0cbd
00000040: cfb6 28bb 4bce 08bd e437 47bd eebc e3bc
00000050: d30d 273d 11d5 4f3d 4440 163d 8d6d 383d
00000060: 4d59 d43c 9ff5 5abd 44d9 083d 55c7 4bbc
00000070: 9a9e c2bc 8113 4cbc 9f16 aebc 4b12 133c

layer2.conv2.weight f4 [64, 32, 3, 3]
0.1186214 0.07504613 0.01710247 -0.06680305 -0.016396118 -0.05644056 0.0033490031 -0.041696608
-0.009710307 -0.06288143 -0.05624394 0.07195181 -0.008158471 0.012063171 -0.013853487 0.0018188728
0.039359014 -0.04335285 -0.05695268 0.0075642196 -0.01791941 0.013683547 0.009205981 0.033549268
0.05349726 -0.041696098 -0.079079844 -0.0603446 0.068407044 0.029581293 0.052128114 -0.008194956
0.035197765 -0.07456991 0.06288051 -0.03786274 0.029706 0.009392586 0.031772096 0.043283466
-0.08191144 0.030470258 0.03243115 -5.1528306e-05 0.0065446147 -0.010129389 0.06832277 0.10658365
0.09168416 -0.030673722 0.065466896 0.054881334 0.07148675 -0.0023771105 -0.04404195 0.10316368
-0.044409275 0.009834914 0.029476559 0.06495395 0.059528634 0.019847585 -0.035466146 0.047378264
-0.15567234 -0.00956993 0.027904872 0.010973097 0.026393475 0.15820642 0.07884857 -0.0014922912
0.0412196 0.0016672867 0.10538664 0.039252207 0.01840355 -0.054010376 -0.04874821 -0.06329704
0.05512137 0.086100385 0.03764649 0.01899581 0.028670097 0.09079377 -0.02220497 0.074520804
0.045550182 -0.087188624 0.0977837 -0.024662334 0.028397046 0.10848507 0.029917784 0.05012987
0.023699779 0.10108695 -0.0050663357 -0.010026238 -0.006216384 -0.0517574 0.15977605 0.052216955
-0.06651565 0.007668314 -0.007518955 0.060368128 -0.031559117 0.050803654 0.008593083 -0.0156126255
-0.031801067 0.10443545 -0.13031054 -0.09752747 0.09087847 0.099650025 -0.0382236 -0.033807352
0.031126222 0.0095437225 0.019117484 0.028600024 0.10836439 0.029700741 0.012429796 0.010671875
-0.0056609665 -0.063297234 -0.091633126 0.05080083 0.010147109 0.02600636 -0.034800805 0.07646519
0.039463818 -0.02096446 -0.025390878 -0.039076954 -0.03463271 -0.08159676 -0.055464145 0.061500873
-0.020560889 -0.0523005 0.06058166 0.007459079 -0.075303994 -0.0108913835 -0.12278375 -0.065690175
0.044628475 -0.0063588177 0.045288764 -0.03202224 -0.029000893 0.022907747 -0.027296022 -0.0029890537
-0.05335737 0.050939374 -0.024180517 0.013491961 -0.11824583 0.044232477 0.0045640753 -0.011230444
0.026009297 -0.06751732 0.038016926 0.13705833 0.082414284 -0.03996638 0.09300151 0.007216733
0.04400008 0.017130371 -0.1302454 0.024105879 -0.14146906 0.017274635 -0.044892404 -0.0625617
0.005738854 -0.0008390671 -0.040941767 -0.02190404 -0.028899122 0.069315396 -0.05551626 0.0025789402
-0.09327389 -0.028894672 -0.05141197 0.038863525 0.03163058 0.008461386 -0.105607964 0.027824081
-0.052948397 0.009745194 0.019103596 -0.06503406 0.06059859 -0.032558415 0.0017835168 0.101181336
0.015148364 -0.042048775 -0.05906978 -0.097232796 0.002789078 0.009715975 0.034215342 -0.039587148
0.03682674 0.14095552 0.030489149 0.0059587625 -0.102623 -0.03622296 -0.012819731 0.06482763
-0.10355799 -0.07627599 -0.12528418 -0.011447246 0.11030345 0.028398976 0.058724117 0.032708492
-0.016625257 -0.02812059 0.070081696 0.008084787 0.017250072 -0.010018876 0.023639983 -0.014796538
0.025220035 -0.15925558 -0.037782997 -0.043287583 0.09776515 -0.086324066 0.021971421 -0.080795236
-0.08974388 -0.00985662 -0.0129439095 -0.065214865 -0.041814737 -0.01586624 -0.034212276 0.14885835
00000000: c7ef f23d c9b1 993d 7b1a 8c3c 0ad0 88bd
00000010: 2751 86bc 372e 67bd f37a 5b3b 10ca 2abd
00000020: fb17 1fbc fbc7 80bd 0c60 66bd 785b 933d
00000030: 1cab 05bc 9ba4 453c bcf9 62bc 3e67 ee3a
00000040: eb36 213d c292 31bd 3747 69bd 46dd f73b
00000050: bacb 92bc f530 603c afd4 163c f56a 093d
00000060: f11f 5b3d 87c9 2abd 9df4 a1bd e62b 77bd
00000070: fe18 8c3d 7854 f23c 4a84 553d 2344 06bc
00000080: 882b 103d 1cb8 98bd 7fc7 803d f615 1bbd
00000090: ff59 f33c 5ce3 193c 7523 023d 014a 313d
000000a0: 2fc1 a7bd c39c f93c 87d6 043d 1920 58b8
000000b0: 3574 d63b bdf5 25bc cfec 8b3d 8748 da3d
000000c0: e8c4 bb3d 7547 fbbc 8213 863d 40cb 603d
000000d0: a567 923d 4cc9 1bbb 5565 34bd 7b47 d33d
000000e0: 80e6 35bd 9e22 213c d378 f13c 9406 853d
000000f0: 4cd4 733d 6797 a23c f344 11bd b60f 423d
00000100: 9268 1fbe 32cb 1cbc c298 e43c 81c8 333c
00000110: 2137 d83c dd00 223e 5c7b a13d fc98 c3ba
00000120: e2d5 283d dc88 da3a f3d4 d73d ecc6 203d
00000130: 0bc3 963c fc39 5dbd 34ac 47bd e1a1 81bd
00000140: f2c6 613d 6655 b03d 3533 1a3d 1a9d 9b3c
00000150: 8ddd ea3c 16f2 b93d 32e7 b5bc 5d9e 983d
00000160: d492 3a3d f38f b2bd d242 c83d aa08 cabc
00000170: eca0 e83c 6c2d de3d 2416 f53c fb54 4d3d
00000180: 0a26 c23c ad06 cf3d 8103 a6bb 1745 24bc
00000190: cfb2 cbbb 91ff 53bd 559c 233e 72e1 553d
000001a0: 5b39 88bd 7b46 fb3b 9161 f6bb 9244 773d
000001b0: 2244 01bd 7e17 503d 01ca 0c3c 19cc 7fbc
000001c0: d641 02bd 41e2 d53d 2070 05be 7bbc c7bd
000001d0: 7e1e ba3d 5015 cc3d 5990 1cbd 9479 0abd
000001e0: 6bfc fe3c 465d 1c3c 459c 9c3c 994a ea3c
000001f0: 26ee dd3d f84e f33c 58a6 4b3c 17d9 2e3c
00000200: a17f b9bb fba1 81bd 26aa bbbd 8814 503d
00000210: 0f40 263c 4a0b d53c 4a8b 0ebd c899 9c3d
00000220: d0a4 213d a9bd abbc 8800 d0bc 280f 20bd
00000230: 07db 0dbd 341c a7bd 5f2e 63bd 57e8 7b3d
00000240: 4f6f a8bc 0d39 56bd 7a24 783d 4a6b f43b
00000250: fb38 9abd c671 32bc 0c76 fbbd 9288 86bd
00000260: 59cc 363d a15d d0bb b680 393d c129 03bd
00000270: 4893 edbc 07a9 bb3c e89b dfbc 00e4 43bb
00000280: 428d 5abd cea5 503d 3816 c6bc 630d 5d3c
00000290: df2a f2bd 1d2d 353d 3d8e 953b e5ff 37bc
000002a0: 7311 d53c 8546 8abd a3b7 1b3d 0559 0c3e
000002b0: d2c8 a83d c9b3 23bd 9377 be3d 587a ec3b
000002c0: 6e39 343d fe54 8c3c 0d5f 05be b179 c53c
000002d0: 44dd 10be 8983 8d3c 19e1 37bd 5920 80bd
000002e0: ff0c bc3b d7f4 5bba 8eb2 27bd 1a70 b3bc
000002f0: dabd ecbc 3bf5 8d3d 0565 63bd 7003 293b
00000300: 6206 bfbd 85b4 ecbc 5c95 52bd 5c2f 1f3d
00000310: 118f 013d a0a1 0a3c fd48 d8bd 54ef e33c
00000320: 6be0 58bd 4eaa 1f3c 257f 9c3c 9430 85bd
00000330: 3a36 783d f95b 05bd e5c4 e93a 2938 cf3d
00000340: d830 783c 563b 2cbd 27f3 71bd fd21 c7bd
00000350: f7c8 363b c12f 1f3c 6325 0c3d 2226 22bd
00000360: a3d7 163d a556 103e 61c4 f93c b941 c33b
00000370: 022c d2bd 875e 14bd d909 52bc 59c4 843d
00000380: 3616 d4bd 9636 9cbd 7f4a 00be 3b8d 3bbc
00000390: c6e6 e13d f8a4 e83c b388 703d 57f9 053d
000003a0: b131 88bc 275d e6bc fe86 8f3d 0e76 043c
000003b0: 0650 8d3c 3626 24bc a3a8 c13c 2e6d 72bc
000003c0: 3f9a ce3c e513 23be 58c2 1abd 524e 31bd
000003d0: 1839 c83d acca b0bd 69fd b33c f977 a5bd
000003e0: a4cb b7bd a97d 21bc b112 54bc 5f8f 85bd
000003f0: ee45 2bbd ebf9 81bc 2c22 0cbd 536e 183e

layer2.conv2.bias f4 [64]
-0.005817447 -0.02855144 -0.028727617 0.009694923 -0.047997393 0.0503946 -0.007415894 -0.037345923
0.041180186 -0.03520442 -0.020179229 -0.047017 0.019049775 0.033798613 0.044832077 -0.0077382983
0.059481233 -0.0051670154 0.015383935 -0.021838306 -0.054919347 0.010157281 -0.03298399 -0.048689097
-0.00728689 0.011261688 -0.009320193 0.048920687 0.03585879 0.040779 -0.025971927 0.037673354
0.0417841 0.0046309107 -0.008420813 -0.0026774404 -0.014751356 -0.004401982 0.033469215 -0.0476377
-0.0024966109 -1.48382e-40 -0.03693282 -0.023794059 0.01855554 0.04367898 0.022169316 -0.03113227
-0.0077255266 -0.020262005 0.04318388 0.045044713 0.033719316 0.049392723 0.009445969 -0.019521194
-0.04762224 0.00033847746 -0.020365436 -0.034819327 0.04976121 -0.0107290195 0.0073569473 0.029094236
00000000: 48a0 bebb b6e4 e9bc 2e56 ebbc 74d7 1e3c
00000010: ea98 44bd 916a 4e3d 0701 f3bb 0af8 18bd
00000020: 8eac 283d 8332 10bd e94e a5bc e694 40bd
00000030: 460e 9c3c 6a70 0a3d d7a1 373d 8d91 fdbb
00000040: 98a2 733d 1150 a9bb e60c 7c3c 3fe6 b2bc
00000050: 1cf3 60bd b96a 263c 381a 07bd 386e 47bd
00000060: ddc6 eebb f182 383c b9b3 18bc 0f61 483d
00000070: abe0 123d e107 273d 14c3 d4bc 604f 1a3d
00000080: ce25 2b3d e5be 973b 73f7 09bc ff77 2fbb
00000090: acaf 71bc 803e 90bb 0417 093d c01f 43bd
000000a0: 2e9e 23bb a19d 0180 de46 17bd c2eb c2bc
000000b0: ca01 983c bbe8 323d 6d9c b53c 1a09 ffbc
000000c0: 6a26 fdbb 81fc a5bc 95e1 303d ce80 383d
000000d0: 441d 0a3d 0650 4a3d 44c3 1a3c e9ea 9fbc
000000e0: 8a0f 43bd ad75 b139 6ad5 a6bc b69e 0ebd
000000f0: 69d2 4b3d c5c8 2fbc 8c12 f13b 0957 ee3c

fc1.weight f4 [1, 3200]
0.0005120388 -0.00993819 -0.012722927 -0.007333427 0.12136927 0.027694734 0.00868584 -0.0033784236
0.011632131 0.013617249 -0.038493197 -0.032913703 0.007209283 0.021991462 0.07877565 0.008457235
-0.0115301125 -0.027628079 0.0048923716 -0.0041208253 -0.018172363 -0.015474256 -0.0038356239 0.010322659
-0.05170851 -0.09787087 -0.051671766 -0.0045861537 -0.008156982 -0.001027192 -0.03018996 0.024589987
-0.00054745894 0.026385171 -0.017362747 0.0061878706 0.00095082604 -0.00036510362 -0.013396193 -0.012195773
-0.0044197547 0.02962775 -0.016035879 -0.028530013 -0.05518802 -0.03794133 -0.03757252 0.0071712304
-0.023427157 -0.015681418 -0.022450559 0.001243614 6.652e-42 -0.046678767 -0.035164114 -0.03914279
-0.0079443185 -4.7074e-41 -0.03737321 0.022348564 -0.0035843283 -0.029815467 -0.017303582 -0.0010267609
-0.0028435255 0.026319526 0.0473782 -0.027454225 -0.0066571217 0.0260654 -0.03130173 -0.015160772
0.034558002 -0.0027209036 -0.032049365 0.02223029 -0.009813196 0.014190065 0.008263608 -0.036301706
0.0378737 -0.006738535 0.02318382 0.013880473 0.008464241 -0.036479495 0.013811303 0.004894264
-0.027960822 0.0047114682 -0.00087332225 0.006414902 -0.010315599 -0.010924307 0.03185128 -0.06458023
-0.03520361 0.014623451 0.029027373 0.009609091 -0.022281796 -0.037076235 -0.020759188 -0.04074971
-0.06790556 -0.08815982 -0.06429543 -0.005870533 0.0064582117 -0.00932463 0.028068772 0.023872195
-0.039052404 -0.009730312 -0.016471671 -0.075712994 0.055410933 -0.007550885 0.0063387053 -0.026481863
0.026316501 -0.038989913 -0.01600252 -0.013240344 0.049862072 0.07762321 0.05053527 -0.027064778
-0.019299561 0.04107197 0.028000953 -0.0001281993 0.023842983 -0.044302072 -0.03629283 -0.011544561
0.049013156 0.023326587 0.015349624 -0.03886966 0.010157107 -0.0006040071 -0.022278653 0.034832798
-0.037012465 -0.13495873 0.030212764 -0.008515832 0.009273982 0.010334264 -0.03479566 0.009666394
-8.1067e-41 -1.313e-42 0.04154186 0.083482884 0.07101279 7.1775e-41 1.30342e-40 0.0036287953
0.0099698305 -0.0027427648 -9.5002e-41 0.00012883294 0.06338347 0.086207606 0.080008574 1.7298e-41
-2.431e-42 0.01049232 0.002029919 -6.1499e-41 -0.00525568 0.04915137 -0.08566322 0.007547209
2.5462e-41 0.006015139 -0.003854162 -0.017907392 -0.020228589 0.025480464 -0.0016168574 0.0487163
-0.027202204 -0.009219856 -0.021279002 -0.0026438523 0.0015892175 -0.019222997 0.005008068 -0.03382219
-0.012276371 -0.036722004 -0.07970246 -0.018959522 0.061781213 -0.010632555 -0.008259211 0.0048103034
0.016603062 0.025404187 -0.012005198 -0.03861154 -0.0524475 -0.015750317 0.013632572 0.03118362
-0.016597264 1.0204894e-05 -0.008141772 -0.010831878 -0.00015020833 -0.019964065 7.9942125e-05 -0.106200464
0.037277065 -0.018595725 -0.024156122 1.2011778e-05 -0.012498662 0.02912229 0.00872003 0.03783956
-0.0015875745 -0.050631624 -0.05927382 -0.018599868 -0.0021511256 0.0011229248 0.0001392049 1.4829e-41
-6.5341e-41 -2.5995529e-05 0.00027667487 -5.8712e-41 -6.8766e-41 -2.5153e-41 9.321e-42 0.002413946
1.40496e-40 2.9197e-41 -0.0022241033 0.032687478 -0.006541332 -7.271e-42 4.6925e-41 -0.017593568
-0.020152891 -0.00802694 0.005152424 0.03212134 0.02548702 -0.0020130326 0.065916434 -0.00423441
00000000: 583a 063a cad3 22bc d373 50bc 3f4d f0bb
00000010: 7490 f83d 11e0 e23c 0e4f 0e3c 8b68 5dbb
00000020: b294 3e3c e21a 5f3c 0bab 1dbd 85d0 06bd
00000030: d93b ec3b 7027 b43c 2155 a13d 3790 0a3c
00000040: cce8 3cbc 4854 e2bc 3050 a03b fd07 87bb
00000050: 35de 94bc bc87 7dbc 175f 7bbb 5f20 293c
00000060: 4dcc 53bd 8670 c8bd c6a5 53bd 7247 96bb
00000070: dda4 05bc d8a2 86ba ef50 f7bc f170 c93c
00000080: 5983 0fba b725 d83c 523c 8ebc 9fc3 ca3b
00000090: db40 793a 616b bfb9 b57b 5bbc c8d0 47bc
000000a0: 97d3 90bb e5b5 f23c ad5d 83bc c6b7 e9bc
000000b0: d50c 62bd 5e68 1bbd a5e5 19bd a4fc ea3b
000000c0: 4fea bfbc 5176 80bc 3cea b7bc c300 a33a
000000d0: 8b12 0000 3c32 3fbd 3f08 10bd 3154 20bd
000000e0: e328 02bc 3983 0080 a714 19bd 5614 b73c
000000f0: 0de7 6abb 913f f4bc 3ec0 8dbc 6194 86ba
00000100: 715a 3abb 0c9c d73c a50f 423d afe7 e0bc
00000110: fc23 dabb 1b87 d53c 3e36 00bd e364 78bc
00000120: b18c 0d3d 3051 32bb 3246 03bd 4c1c b63c
00000130: 87c7 20bc 727d 683c 1664 073c 19b1 14bd
00000140: 7421 1b3d eece dcbb ffeb bd3c ec6a 633c
00000150: 9aad 0a3c 866b 15bd ce48 623c 1060 a03b
00000160: 180e e5bc a962 9a3b aaef 64ba 1934 d23b
00000170: c202 29bc ddfb 32bc 7d76 023d a442 84bd
00000180: a931 10bd 3397 6f3c d0ca ed3c 736f 1d3c
00000190: 5088 b6bc 40dd 17bd 2c0f aabc 2be9 26bd
000001a0: 1212 8bbd 238d b4bd 53ad 83bd 9a5d c0bb
000001b0: 689f d33b 55c6 18bc 7bf0 e53c 9f8f c33c
000001c0: 6af5 1fbd e36b 1fbc 99ef 86bc 6a0f 9bbd
000001d0: 93f6 623d 6a6d f7bb eab4 cf3b 7ef0 d8bc
000001e0: b495 d73c e3b3 1fbd b817 83bc 07ee 58bc
000001f0: 2c3c 4c3d ebf8 9e3d 12fe 4e3d f4b6 ddbc
00000200: 1d1a 9ebc 153b 283d 4162 e53c 3d6d 06b9
00000210: 5c52 c33c 1776 35bd caa7 14bd 6625 3dbc
00000220: 05c2 483d 6617 bf3c fd7c 7b3c cb35 1fbd
00000230: ff69 263c 3b56 1eba b981 b6bc d6ac 0e3d
00000240: 629a 17bd 9f32 0abe c280 f73c fd85 0bbc
00000250: e6f1 173c 0b51 293c e585 0ebd cc5f 1e3c
00000260: fbe1 0080 a903 0080 cc27 2a3d 13f9 aa3d
00000270: 276f 913d 14c8 0000 576b 0100 15d1 6d3b
00000280: 8058 233c f5bf 33bb d408 0180 5417 0739
00000290: 31cf 813d 9d8d b03d 89db a33d 3830 0000
000002a0: c706 0080 fbe7 2b3c 6408 053b 6fab 0080
000002b0: d737 acbb f252 493d 3370 afbd 944e f73b
000002c0: fa46 0000 a51a c53b 1c96 7cbb 86b2 92bc
000002d0: 6db6 a5bc 68bc d03c bbec d3ba be8a 473d
000002e0: 28d7 debc e10e 17bc 4d51 aebc 7b44 2dbb
000002f0: 4a4d d03a 8c79 9dbc b81a a43b 2389 0abd
00000300: d522 49bc d069 16bd 0b3b a3bd 0051 9bbc
00000310: 4c0e 7d3d 2b34 2ebc a451 07bc c09f 9d3b
00000320: 2503 883c 711c d03c 73b1 44bc 2227 1ebd
00000330: 31d3 56bd cf06 81bc 275b 5f3c cb74 ff3c
00000340: fcf6 87bc b035 2b37 1165 05bc 3078 31bc
00000350: 3e81 1db9 ae8b a3bc 9aa6 a738 a17f d9bd
00000360: d6af 183d 1056 98bc 0fe3 c5bc 3286 4937
00000370: 30c7 4cbc de91 ee3c 75de 0e3c a8fd 1a3d
00000380: 2916 d0ba 1b63 4fbd 1bc9 72bd c05e 98bc
00000390: e6f9 0cbb 1b2f 933a 88f7 1139 5629 0000
000003a0: 25b6 0080 f910 dab7 ac0e 9139 aaa3 0080
000003b0: b1bf 0080 1e46 0080 fc19 0000 4b33 1e3b
000003c0: a587 0100 6451 0000 43c2 11bb 4ee3 053d
000003d0: ac58 d6bb 4514 0080 cf82 0000 6320 90bc
000003e0: ad17 a5bc 6d83 03bc aad5 a83b ab91 033d
000003f0: 28ca d03c 15ed 03bb 32ff 863d cec0 8abb

out.0.weight f4 [1, 3200]
0.0005120388 -0.00993819 -0.012722927 -0.007333427 0.12136927 0.027694734 0.00868584 -0.0033784236
0.011632131 0.013617249 -0.038493197 -0.032913703 0.007209283 0.021991462 0.07877565 0.008457235
-0.0115301125 -0.027628079 0.0048923716 -0.0041208253 -0.018172363 -0.015474256 -0.0038356239 0.010322659
-0.05170851 -0.09787087 -0.051671766 -0.0045861537 -0.008156982 -0.001027192 -0.03018996 0.024589987
-0.00054745894 0.026385171 -0.017362747 0.0061878706 0.00095082604 -0.00036510362 -0.013396193 -0.012195773
-0.0044197547 0.02962775 -0.016035879 -0.028530013 -0.05518802 -0.03794133 -0.03757252 0.0071712304
-0.023427157 -0.015681418 -0.022450559 0.001243614 6.652e-42 -0.046678767 -0.035164114 -0.03914279
-0.0079443185 -4.7074e-41 -0.03737321 0.022348564 -0.0035843283 -0.029815467 -0.017303582 -0.0010267609
-0.0028435255 0.026319526 0.0473782 -0.027454225 -0.0066571217 0.0260654 -0.03130173 -0.015160772
0.034558002 -0.0027209036 -0.032049365 0.02223029 -0.009813196 0.014190065 0.008263608 -0.036301706
0.0378737 -0.006738535 0.02318382 0.013880473 0.008464241 -0.036479495 0.013811303 0.004894264
-0.027960822 0.0047114682 -0.00087332225 0.006414902 -0.010315599 -0.010924307 0.03185128 -0.06458023
-0.03520361 0.014623451 0.029027373 0.009609091 -0.022281796 -0.037076235 -0.020759188 -0.04074971
-0.06790556 -0.08815982 -0.06429543 -0.005870533 0.0064582117 -0.00932463 0.028068772 0.023872195
-0.039052404 -0.009730312 -0.016471671 -0.075712994 0.055410933 -0.007550885 0.0063387053 -0.026481863
0.026316501 -0.038989913 -0.01600252 -0.013240344 0.049862072 0.07762321 0.05053527 -0.027064778
-0.019299561 0.04107197 0.028000953 -0.0001281993 0.023842983 -0.044302072 -0.03629283 -0.011544561
0.049013156 0.023326587 0.015349624 -0.03886966 0.010157107 -0.0006040071 -0.022278653 0.034832798
-0.037012465 -0.13495873 0.030212764 -0.008515832 0.009273982 0.010334264 -0.03479566 0.009666394
-8.1067e-41 -1.313e-42 0.04154186 0.083482884 0.07101279 7.1775e-41 1.30342e-40 0.0036287953
0.0099698305 -0.0027427648 -9.5002e-41 0.00012883294 0.06338347 0.086207606 0.080008574 1.7298e-41
-2.431e-42 0.01049232 0.002029919 -6.1499e-41 -0.00525568 0.04915137 -0.08566322 0.007547209
2.5462e-41 0.006015139 -0.003854162 -0.017907392 -0.020228589 0.025480464 -0.0016168574 0.0487163
-0.027202204 -0.009219856 -0.021279002 -0.0026438523 0.0015892175 -0.019222997 0.005008068 -0.03382219
-0.012276371 -0.036722004 -0.07970246 -0.018959522 0.061781213 -0.010632555 -0.008259211 0.0048103034
0.016603062 0.025404187 -0.012005198 -0.03861154 -0.0524475 -0.015750317 0.013632572 0.03118362
-0.016597264 1.0204894e-05 -0.008141772 -0.010831878 -0.00015020833 -0.019964065 7.9942125e-05 -0.106200464
0.037277065 -0.018595725 -0.024156122 1.2011778e-05 -0.012498662 0.02912229 0.00872003 0.03783956
-0.0015875745 -0.050631624 -0.05927382 -0.018599868 -0.0021511256 0.0011229248 0.0001392049 1.4829e-41
-6.5341e-41 -2.5995529e-05 0.00027667487 -5.8712e-41 -6.8766e-41 -2.5153e-41 9.321e-42 0.002413946
1.40496e-40 2.9197e-41 -0.0022241033 0.032687478 -0.006541332 -7.271e-42 4.6925e-41 -0.017593568
-0.020152891 -0.00802694 0.005152424 0.03212134 0.02548702 -0.0020130326 0.065916434 -0.00423441
00000000: 583a 063a cad3 22bc d373 50bc 3f4d f0bb
00000010: 7490 f83d 11e0 e23c 0e4f 0e3c 8b68 5dbb
00000020: b294 3e3c e21a 5f3c 0bab 1dbd 85d0 06bd
00000030: d93b ec3b 7027 b43c 2155 a13d 3790 0a3c
00000040: cce8 3cbc 4854 e2bc 3050 a03b fd07 87bb
00000050: 35de 94bc bc87 7dbc 175f 7bbb 5f20 293c
00000060: 4dcc 53bd 8670 c8bd c6a5 53bd 7247 96bb
00000070: dda4 05bc d8a2 86ba ef50 f7bc f170 c93c
00000080: 5983 0fba b725 d83c 523c 8ebc 9fc3 ca3b
00000090: db40 793a 616b bfb9 b57b 5bbc c8d0 47bc
000000a0: 97d3 90bb e5b5 f23c ad5d 83bc c6b7 e9bc
000000b0: d50c 62bd 5e68 1bbd a5e5 19bd a4fc ea3b
000000c0: 4fea bfbc 5176 80bc 3cea b7bc c300 a33a
000000d0: 8b12 0000 3c32 3fbd 3f08 10bd 3154 20bd
000000e0: e328 02bc 3983 0080 a714 19bd 5614 b73c
000000f0: 0de7 6abb 913f f4bc 3ec0 8dbc 6194 86ba
00000100: 715a 3abb 0c9c d73c a50f 423d afe7 e0bc
00000110: fc23 dabb 1b87 d53c 3e36 00bd e364 78bc
00000120: b18c 0d3d 3051 32bb 3246 03bd 4c1c b63c
00000130: 87c7 20bc 727d 683c 1664 073c 19b1 14bd
00000140: 7421 1b3d eece dcbb ffeb bd3c ec6a 633c
00000150: 9aad 0a3c 866b 15bd ce48 623c 1060 a03b
00000160: 180e e5bc a962 9a3b aaef 64ba 1934 d23b
00000170: c202 29bc ddfb 32bc 7d76 023d a442 84bd
00000180: a931 10bd 3397 6f3c d0ca ed3c 736f 1d3c
00000190: 5088 b6bc 40dd 17bd 2c0f aabc 2be9 26bd
000001a0: 1212 8bbd 238d b4bd 53ad 83bd 9a5d c0bb
000001b0: 689f d33b 55c6 18bc 7bf0 e53c 9f8f c33c
000001c0: 6af5 1fbd e36b 1fbc 99ef 86bc 6a0f 9bbd
000001d0: 93f6 623d 6a6d f7bb eab4 cf3b 7ef0 d8bc
000001e0: b495 d73c e3b3 1fbd b817 83bc 07ee 58bc
000001f0: 2c3c 4c3d ebf8 9e3d 12fe 4e3d f4b6 ddbc
00000200: 1d1a 9ebc 153b 283d 4162 e53c 3d6d 06b9
00000210: 5c52 c33c 1776 35bd caa7 14bd 6625 3dbc
00000220: 05c2 483d 6617 bf3c fd7c 7b3c cb35 1fbd
00000230: ff69 263c 3b56 1eba b981 b6bc d6ac 0e3d
00000240: 629a 17bd 9f32 0abe c280 f73c fd85 0bbc
00000250: e6f1 173c 0b51 293c e585 0ebd cc5f 1e3c
00000260: fbe1 0080 a903 0080 cc27 2a3d 13f9 aa3d
00000270: 276f 913d 14c8 0000 576b 0100 15d1 6d3b
00000280: 8058 233c f5bf 33bb d408 0180 5417 0739
00000290: 31cf 813d 9d8d b03d 89db a33d 3830 0000
000002a0: c706 0080 fbe7 2b3c 6408 053b 6fab 0080
000002b0: d737 acbb f252 493d 3370 afbd 944e f73b
000002c0: fa46 0000 a51a c53b 1c96 7cbb 86b2 92bc
000002d0: 6db6 a5bc 68bc d03c bbec d3ba be8a 473d
000002e0: 28d7 debc e10e 17bc 4d51 aebc 7b44 2dbb
000002f0: 4a4d d03a 8c79 9dbc b81a a43b 2389 0abd
00000300: d522 49bc d069 16bd 0b3b a3bd 0051 9bbc
00000310: 4c0e 7d3d 2b34 2ebc a451 07bc c09f 9d3b
00000320: 2503 883c 711c d03c 73b1 44bc 2227 1ebd
00000330: 31d3 56bd cf06 81bc 275b 5f3c cb74 ff3c
00000340: fcf6 87bc b035 2b37 1165 05bc 3078 31bc
00000350: 3e81 1db9 ae8b a3bc 9aa6 a738 a17f d9bd
00000360: d6af 183d 1056 98bc 0fe3 c5bc 3286 4937
00000370: 30c7 4cbc de91 ee3c 75de 0e3c a8fd 1a3d
00000380: 2916 d0ba 1b63 4fbd 1bc9 72bd c05e 98bc
00000390: e6f9 0cbb 1b2f 933a 88f7 1139 5629 0000
000003a0: 25b6 0080 f910 dab7 ac0e 9139 aaa3 0080
000003b0: b1bf 0080 1e46 0080 fc19 0000 4b33 1e3b
000003c0: a587 0100 6451 0000 43c2 11bb 4ee3 053d
000003d0: ac58 d6bb 4514 0080 cf82 0000 6320 90bc
000003e0: ad17 a5bc 6d83 03bc aad5 a83b ab91 033d
000003f0: 28ca d03c 15ed 03bb 32ff 863d cec0 8abb

exp_avg f4 [32, 2, 5, 5]
0.00018886385 6.550734e-05 -0.00014659279 -0.0003263322 -0.00045612315 0.00030708348 0.00013536785 -0.000112319045
-0.0003734752 -0.0005778291 0.0004543406 0.00024274577 -6.202103e-05 -0.00040728954 -0.00070253777 0.00060956395
0.00039811805 -1.6664833e-05 -0.0004268794 -0.0007925867 0.0007428245 0.0004900091 6.7414265e-05 -0.00041035176
-0.0008636978 0.00038417042 0.000252216 5.9949445e-05 -0.000206909 -0.0004127179 0.0005057759 0.00034646096
6.233577e-05 -0.00027615356 -0.0005543 0.0006466785 0.00045304466 0.000100026904 -0.00032410197 -0.00068400305
0.0008099425 0.000545536 0.00015087347 -0.00036830077 -0.00081106974 0.0009232756 0.00064581184 0.00019658735
-0.00037709082 -0.0008832751 0.00091832085 0.00047250354 5.9759474e-05 -0.00025943352 -0.00038768153 0.0006474992
0.00012438245 -0.0003322968 -0.00069661357 -0.00080788997 0.00031480566 -0.00020788747 -0.0006843562 -0.0010510493
-0.0012638827 1.4627934e-05 -0.00046619077 -0.0009705454 -0.0013941264 -0.0016311593 -0.00022132191 -0.0006578235
-0.0010968599 -0.0015607438 -0.0019377633 0.0011076652 0.0005362227 3.844417e-06 -0.00035795016 -0.000495338
0.0007831018 0.00020771778 -0.0003770299 -0.0007500827 -0.0009658214 0.0004827556 -0.00011766609 -0.0007243521
-0.0011765935 -0.0013819069 0.00020872496 -0.0003748895 -0.0009506485 -0.00144367 -0.0017720654 -1.6249838e-05
-0.00053169316 -0.0011454659 -0.001673423 -0.0020362183 5.4617383e-05 0.0006898874 0.0012818128 0.0017468624
0.0020004543 -0.000215329 0.00039849733 0.0009835976 0.0014922074 0.0017820016 -0.0005032091 2.6323221e-05
0.0005531021 0.0010415372 0.0014013109 -0.0005305244 -0.00012185276 0.0003294677 0.0007190545 0.0010394207
-0.00044902292 -0.00016974258 0.00016656319 0.00046447854 0.00068005465 -0.0001674899 0.00045175914 0.0010735233
0.0015915 0.0019349406 -0.00042957862 0.00014739885 0.0008134514 0.001363857 0.0018009872 -0.0006938445
-0.00015750334 0.00045353384 0.00097220205 0.0013993733 -0.00066953467 -0.00024217018 0.00023894891 0.0006963592
0.0010395357 -0.0005566273 -0.00024234357 8.5208e-05 0.00041618076 0.0007097008 0.0011698288 0.0008763427
0.0005128325 0.00021918378 -3.8393275e-05 0.0010081144 0.0007813119 0.0004537579 0.00019571673 -4.594476e-05
0.00078446243 0.00058824825 0.00034132914 0.0001419299 -5.1820985e-05 0.00046473733 0.0003177323 0.00015980523
7.4996533e-06 -0.00012127076 0.00014752572 3.234706e-05 -8.409018e-05 -0.00015022607 -0.00024042814 0.0010884084
0.0008363134 0.0005535691 0.00032251753 9.8874465e-05 0.000987269 0.00076793274 0.00054474326 0.00035375735
0.00015039145 0.0007731479 0.00063121493 0.0004589379 0.00029807305 0.00012341936 0.00051502185 0.0004367998
0.00028484702 0.0001853915 5.9322927e-05 0.00025122138 0.00019094632 0.00010166645 2.3945002e-05 -5.6315064e-05
0.0001354272 0.00025145352 0.000410595 0.00058660994 0.00071348436 0.0001219427 0.00025077062 0.00042307153
0.0005939159 0.0007762954 0.00012495836 0.00027425186 0.00042492812 0.0006207379 0.0007900956 0.00017514746
0.0003153357 0.00046380205 0.00060714775 0.00075838354 0.0003677389 0.0005043976 0.00061352993 0.0006882267
0.0007649692 9.291044e-05 0.00021178692 0.00031500115 0.00043782874 0.000568438 9.265804e-05 0.0002066603
0.00031342162 0.00045924925 0.0005899144 0.0001248788 0.00021833979 0.00032263823 0.00045613718 0.0005932001
0.00018618918 0.00026017387 0.00034804377 0.00043628018 0.0005359849 0.0004085355 0.0004712034 0.0004940342
0.0005497895 0.00056686485 -0.0012129653 -0.00093664305 -0.00068045733 -0.00041930974 -0.00024161329 -0.0010577075
00000000: c109 4639 fc60 8938 b4b6 19b9 9117 abb9
00000010: d023 efb9 0c00 a139 88f1 0d39 d48c ebb8
00000020: fece c3b9 7479 17ba 9034 ee39 9289 7e39
00000030: 4911 82b8 7a89 d5b9 832a 38ba 25cb 1f3a
00000040: 80ba d039 75cb 8bb7 c8ce dfb9 98c5 4fba
00000050: 1cba 423a f473 003a c260 8d38 7b24 d7b9
00000060: c769 62ba 7b6a c939 dc3b 8439 3a72 7b38
00000070: b6f5 58b9 0f62 d8b9 0c96 043a 34a5 b539
00000080: 43ba 8238 b4c8 90b9 714e 11ba dc85 293a
00000090: a086 ed39 89c5 d138 3bec a9b9 ab4e 33ba
000000a0: 5252 543a 4d02 0f3a ca33 1e39 7e18 c1b9
000000b0: f89d 54ba fa07 723a b34b 293a 0423 4e39
000000c0: 46b4 c5b9 978b 67ba 78bb 703a 5aba f739
000000d0: 3fa6 7a38 9404 88b9 bc41 cbb9 f0bc 293a
000000e0: a96c 0239 1f38 aeb9 f29c 36ba 94c8 53ba
000000f0: 800c a539 5efc 59b9 5e66 33ba 5dc3 89ba
00000100: dea8 a5ba 806a 7537 116b f4b9 336c 7eba
00000110: 1fbb b6ba a0cc d5ba a612 68b9 ca71 2cba
00000120: 83c4 8fba df91 ccba 8cfc fdba 142f 913a
00000130: 4c91 0c3a 4aff 8036 42ab bbb9 92d9 01ba
00000140: 1249 4d3a d1ce 5939 19ac c5b9 33a1 44ba
00000150: 2d2f 7dba 5c1a fd39 80c3 f6b8 72e2 3dba
00000160: ed37 9aba 1a21 b5ba 2edd 5a39 d18c c4b9
00000170: f134 79ba 8739 bdba a644 e8ba 4350 88b7
00000180: 5361 0bba 7523 96ba c256 dbba 1372 05bb
00000190: f814 6538 8fd9 343a 8002 a83a faf6 e43a
000001a0: 0e1a 033b f0c9 61b9 68ed d039 0fec 803a
000001b0: 2c96 c33a 0d92 e93a cbe9 03ba b0d0 dc37
000001c0: 0efe 103a 3084 883a 31ac b73a e412 0bba
000001d0: 348b ffb8 68bc ac39 ee7e 3c3a 2c3d 883a
000001e0: d66a ebb9 edfc 31b9 77a7 2e39 4185 f339
000001f0: b245 323a 3aa0 2fb9 16da ec39 77b5 8c3a
00000200: e199 d03a d59d fd3a 1139 e1b9 148f 1a39
00000210: cd3d 553a 72c3 b23a 1a0f ec3a 1ee3 35ba
00000220: 7b27 25b9 48c8 ed39 60db 7e3a 2d6b b73a
00000230: b683 2fba 10ef 7db9 5c8e 7a39 e08b 363a
00000240: 0841 883a a0ea 11ba 9b1d 7eb9 b2b1 b238
00000250: d632 da39 370b 3a3a f154 993a 5dba 653a
00000260: 9b6f 063a b3d4 6539 7708 21b8 b522 843a
00000270: f4d0 4c3a 5be6 ed39 4f39 4d39 cfb4 40b8
00000280: 62a4 4d3a ac34 1a3a 6cf4 b239 04d3 1439
00000290: 5c5a 59b8 fda7 f339 4f95 a639 6491 2739
000002a0: 88a5 fb36 be52 feb8 22b1 1a39 64ac 0738
000002b0: 9259 b0b8 0186 1db9 701b 7cb9 eda8 8e3a
000002c0: 0b3c 5b3a 651d 113a 9217 a939 d35a cf38
000002d0: 4067 813a 184f 493a 1acd 0e3a 8278 b939
000002e0: 66b2 1d39 14ad 4a3a 1e78 253a 9a9d f039
000002f0: b046 9c39 226a 0139 8802 073a 4702 e539
00000300: 8557 9539 a765 4239 82d1 7838 5db6 8339
00000310: c338 4839 c235 d538 80dd c837 d733 6cb8
00000320: 7601 0e39 85d5 8339 2145 d739 bac6 193a
00000330: 2009 3b3a 7dbb ff38 dd79 8339 b3cf dd39
00000340: 05b1 1b3a 4d80 4b3a 4107 0339 76c9 8f39
00000350: e3c8 de39 04b9 223a 6b1e 4f3a caa7 3739
00000360: a453 a539 752a f339 ff28 1f3a 42ce 463a
00000370: 14cd c039 8d39 043a 4cd5 203a 1d6a 343a
00000380: 3788 483a ead8 c238 1e13 5e39 bd26 a539
00000390: 618c e539 3a03 153a 6851 c238 f4b2 5839
000003a0: bd52 a439 64c7 f039 7ca4 1a3a e6f1 0239
000003b0: 24f2 6439 c527 a939 b225 ef39 fc80 1b3a
000003c0: c73b 4339 f267 8839 a579 b639 89bc e439
000003d0: 5681 0c3a b530 d639 da0b f739 1382 013a
000003e0: c01f 103a a899 143a 5dfc 9eba 0d89 75ba
000003f0: b860 32ba cdd6 dbb9 9359 7db9 c6a2 8aba

exp_avg_sq f4 [32, 2, 5, 5]
1.0375174e-05 1.0162593e-05 9.830812e-06 9.981636e-06 1.0534191e-05 1.2441384e-05 1.246197e-05 1.2699215e-05
1.4246716e-05 1.6920954e-05 1.4139786e-05 1.4307286e-05 1.5347514e-05 1.9152023e-05 2.5675734e-05 1.5795093e-05
1.5865735e-05 1.7645312e-05 2.3990726e-05 3.521138e-05 1.6697473e-05 1.6469137e-05 1.8512843e-05 2.6658083e-05
4.151487e-05 1.0336382e-05 1.0570381e-05 1.0600327e-05 1.0901308e-05 1.1239543e-05 1.2147082e-05 1.2923713e-05
1.390943e-05 1.5713926e-05 1.7968134e-05 1.3409587e-05 1.4708425e-05 1.6963017e-05 2.1294265e-05 2.7244601e-05
1.4558885e-05 1.6120614e-05 1.9444507e-05 2.6575428e-05 3.70812e-05 1.5083145e-05 1.6524318e-05 2.0344765e-05
2.9257792e-05 4.311271e-05 2.2288805e-05 1.7210874e-05 1.6293763e-05 2.7544827e-05 5.603584e-05 2.4434023e-05
1.886723e-05 1.8219283e-05 3.1477473e-05 6.435925e-05 2.3107652e-05 1.8122693e-05 1.7361743e-05 2.927308e-05
5.988912e-05 1.9507317e-05 1.5941469e-05 1.4720045e-05 2.294863e-05 4.6512683e-05 1.6615828e-05 1.4398885e-05
1.2577418e-05 1.6734275e-05 3.1998326e-05 2.5161038e-05 1.8227945e-05 1.4701514e-05 2.195317e-05 4.5709683e-05
2.884711e-05 2.0795258e-05 1.7067014e-05 2.614231e-05 5.4707256e-05 2.7689117e-05 2.0492453e-05 1.6918839e-05
2.541456e-05 5.2751173e-05 2.3021588e-05 1.7965169e-05 1.4879135e-05 2.0906924e-05 4.220146e-05 1.8255212e-05
1.556855e-05 1.2982172e-05 1.6020516e-05 2.9847504e-05 2.5199532e-05 1.826295e-05 1.6437272e-05 1.915458e-05
2.4455727e-05 2.4842273e-05 1.658521e-05 1.48863055e-05 1.904333e-05 2.6336897e-05 2.3932278e-05 1.57397e-05
1.4304286e-05 1.87214e-05 2.5836334e-05 1.8283165e-05 1.169285e-05 1.0593113e-05 1.4185784e-05 1.9779485e-05
1.1689247e-05 7.56773e-06 7.0122173e-06 9.3795325e-06 1.2878978e-05 2.6059963e-05 1.8932875e-05 1.7166894e-05
2.0216046e-05 2.5443247e-05 2.7312764e-05 1.8609113e-05 1.6817865e-05 2.11726e-05 2.8217288e-05 2.6927779e-05
1.8269666e-05 1.6750653e-05 2.1410104e-05 2.8173721e-05 2.0817617e-05 1.3816051e-05 1.2627629e-05 1.6405198e-05
2.1786293e-05 1.3317379e-05 8.911399e-06 8.291465e-06 1.0814586e-05 1.4308167e-05 1.9596553e-05 1.2997253e-05
9.815512e-06 8.8869565e-06 8.646467e-06 2.0363184e-05 1.3591585e-05 1.0392165e-05 9.349442e-06 8.8332645e-06
1.8046252e-05 1.236076e-05 9.748916e-06 8.87898e-06 8.271567e-06 1.3883661e-05 9.721163e-06 8.016931e-06
7.5159905e-06 7.0554233e-06 9.7983375e-06 6.9027355e-06 5.8349474e-06 5.6986087e-06 5.525004e-06 1.842601e-05
1.22205065e-05 9.497507e-06 8.732668e-06 8.40618e-06 1.9587253e-05 1.2869578e-05 9.926244e-06 9.025198e-06
8.465657e-06 1.7946539e-05 1.1773342e-05 9.1143675e-06 8.307721e-06 7.707198e-06 1.4640145e-05 9.455632e-06
7.2024986e-06 6.6187627e-06 6.236281e-06 1.1400776e-05 6.960867e-06 5.0046237e-06 4.557568e-06 4.492812e-06
7.389522e-06 8.436645e-06 8.881076e-06 8.898581e-06 9.3376575e-06 7.3575293e-06 8.408386e-06 8.98193e-06
9.351418e-06 1.0308936e-05 7.5470266e-06 8.7262515e-06 9.652594e-06 1.0674221e-05 1.249268e-05 8.190167e-06
9.595988e-06 1.1011746e-05 1.2885859e-05 1.573262e-05 8.642124e-06 1.0187585e-05 1.19842925e-05 1.4554659e-05
1.8354713e-05 7.747704e-06 8.370435e-06 8.32243e-06 7.8753255e-06 7.912959e-06 7.820163e-06 8.361285e-06
8.347744e-06 8.070586e-06 8.420372e-06 8.2482375e-06 8.855735e-06 9.087331e-06 9.353235e-06 1.0324918e-05
9.278872e-06 1.0061095e-05 1.07099595e-05 1.1746153e-05 1.3693634e-05 9.898521e-06 1.0771479e-05 1.1754002e-05
1.3551859e-05 1.6578337e-05 1.4667321e-05 1.1310816e-05 1.1021544e-05 1.0913604e-05 9.484526e-06 1.3902759e-05
00000000: 0811 2e37 0180 2a37 04ef 2437 cd76 2737
00000010: 01bc 3037 56bb 5037 c113 5137 b70e 5537
00000020: 2e05 6f37 79f1 8d37 eb39 6d37 5309 7037
00000030: 89be 8037 a8a8 a037 3862 d737 b47f 8437
00000040: 6817 8537 0505 9437 b13f c937 eeaf 1338
00000050: 8d11 8c37 3427 8a37 074c 9b37 cc9f df37
00000060: 4120 2e38 6c6a 2d37 7157 3137 0fd8 3137
00000070: c3e4 3637 7891 3c37 52cb 4b37 edd2 5837
00000080: 8c5c 6937 66d1 8337 46ba 9637 bdf9 6037
00000090: 34c4 7637 cd4b 8e37 16a1 b237 568b e437
000000a0: ef41 7437 c13a 8737 c31c a337 4cee de37
000000b0: a387 1b38 9d0d 7d37 b49d 8a37 0daa aa37
000000c0: a16e f537 ebd3 3438 d8f8 ba37 1260 9037
000000d0: 97ae 8837 1110 e737 0608 6b38 aaf7 cc37
000000e0: 1145 9e37 9dd5 9837 ae06 0438 9cf8 8638
000000f0: 4ed7 c137 3006 9837 0fa4 9137 768f f537
00000100: 7431 7b38 a5a3 a337 0bba 8537 1df6 7637
00000110: cf81 c037 9d16 4338 3862 8b37 bd92 7137
00000120: 9903 5337 9560 8c37 f135 0638 eb10 d337
00000130: 37e8 9837 86a6 7637 1328 b837 66b8 3f38
00000140: b2fc f137 7a71 ae37 222b 8f37 2f4c db37
00000150: 7875 6538 ed45 e837 35e7 ab37 eeec 8d37
00000160: 5a31 d537 2441 5d38 7c1e c137 e8b3 9637
00000170: 66a1 7937 4761 af37 7901 3138 c522 9937
00000180: 3599 8237 01ce 5937 cc63 8637 0761 fa37
00000190: 9563 d337 6333 9937 c6e2 8937 26ae a037
000001a0: 4626 cd37 6064 d037 7820 8b37 32c0 7937
000001b0: 3dbf 9f37 0eee dc37 2dc2 c837 c008 8437
000001c0: 71fc 6f37 e60b 9d37 1bbb d837 cc5e 9937
000001d0: 692c 4437 13b9 3137 7aff 6d37 1fec a537
000001e0: ef1c 4437 4eee fd36 7d4a eb36 c95c 1d37
000001f0: ca12 5837 589b da37 0ad2 9e37 a001 9037
00000200: a195 a937 f56e d537 b71d e537 c41a 9c37
00000210: 1714 8d37 d09b b137 2ab4 ec37 f7e2 e137
00000220: cf41 9937 c183 8c37 d999 b337 9b56 ec37
00000230: 7ea1 ae37 7dcb 6737 41db 5337 e59d 8937
00000240: b5c1 b637 b56d 5f37 2b82 1537 921b 0b37
00000250: 4b70 3537 1c0d 7037 4763 a437 c70e 5a37
00000260: 4ead 2437 3019 1537 4b10 1137 9bd1 aa37
00000270: 6a07 6437 025a 2e37 8cdb 1c37 9532 1437
00000280: 0862 9737 0f61 4f37 478f 2337 eef6 1437
00000290: 1cc6 0a37 dfed 6837 1418 2337 7580 0637
000002a0: de31 fc36 a0bd ec36 8a63 2437 0c9e e736
000002b0: d1c9 c336 ad36 bf36 6c63 b936 8e91 9a37
000002c0: ad06 4d37 7b57 1f37 8682 1237 4508 0d37
000002d0: 4e4f a437 6bea 5737 e588 2637 ee6a 1737
000002e0: b807 0e37 e68b 9637 1e86 4537 e9e9 1837
000002f0: 6461 0b37 2a4e 0137 f29e 7537 a1a3 1e37
00000300: feac f136 bd16 de36 3f41 d136 f645 3f37
00000310: 6491 e936 64ed a736 36ed 9836 f6c0 9636
00000320: 83f3 f736 1d8b 0d37 eeff 1437 1d4b 1537
00000330: efa8 1c37 b2e0 f636 be11 0d37 18b1 1637
00000340: 09e4 1c37 8bf4 2c37 773c fd36 f766 1237
00000350: 93f1 2137 6e15 3337 a797 5137 8068 0937
00000360: 74fe 2037 17bf 3837 5830 5837 8bf9 8337
00000370: a4fd 1037 58eb 2a37 2510 4937 c92f 7437
00000380: 72f8 9937 23fc 0137 bf6e 0c37 91a0 0b37
00000390: 4420 0437 e6c1 0437 5833 0337 7247 0c37
000003a0: 4a0d 0c37 e766 0737 3945 0d37 e961 0a37
000003b0: 1893 1437 ca75 1837 d7eb 1c37 2f39 2d37
000003c0: 74ac 1b37 13cc 2837 edae 3337 5811 4537
000003d0: b6bd 6537 d311 2637 26b7 3437 0e33 4537
000003e0: cb5c 6337 b511 8b37 aa13 7637 96c3 3d37
000003f0: 2ce9 3837 9219 3737 bb1f 1f37 e53f 6937

exp_avg f4 [32]
-0.00013689733 0.0001683613 3.274001e-05 0.00085686665 -0.00018114888 -0.00017326737 -0.0011613659 -9.2758775e-05
1.9062323e-05 -0.00043260324 0.0009183819 0.00061908556 0.00049769256 0.000827753 4.404299e-05 -0.00022423673
0.00031678873 -0.00022662774 -0.0008296159 -8.953693e-05 0.00011883215 -0.0013718702 -0.00062191434 0.00014541626
0.00010885105 -0.00012400122 0.00025479912 -0.0004467946 0.0011026837 0.00010079236 -0.00015032619 0.0008708569
00000000: 198c 0fb9 248a 3039 5152 0938 599f 603a
00000010: c8f2 3db9 1baf 35b9 f938 98ba 7d87 c2b8
00000020: 07e8 9f37 06cf e2b9 91bf 703a 214a 223a
00000030: 9577 023a 90fd 583a cdba 3838 1721 6bb9
00000040: aa16 a639 eca2 6db9 957a 59ba c6c5 bbb8
00000050: 8635 f938 53d0 b3ba f707 23ba e17a 1839
00000060: f646 e438 5306 02b9 8f96 8539 c23f eab9
00000070: ed87 903a 7c60 d338 e1a0 1db9 384a 643a

exp_avg_sq f4 [32]
1.2298202e-05 2.1699057e-05 1.5726417e-05 9.326546e-06 2.7918455e-05 4.5542612e-05 2.9146413e-05 1.4663577e-05
0.00012410925 8.542568e-06 4.608557e-05 5.990204e-05 1.4133934e-05 1.1784496e-05 3.5408273e-06 8.836123e-06
3.9321367e-05 1.3375438e-05 1.822271e-05 9.58615e-06 1.706813e-05 3.2726657e-05 1.5547708e-05 8.206954e-06
1.1734172e-05 1.7419328e-05 5.148229e-06 2.100001e-05 2.0580383e-05 5.7650614e-05 6.2253616e-06 5.1882325e-06
00000000: 6054 4e37 5f06 b637 39ec 8337 3679 1c37
00000010: 6d32 ea37 0205 3f38 727f f437 9503 7637
00000020: 5323 0239 0d52 0f37 014c 4138 533f 7b38
00000030: c920 6d37 06b6 4537 f39e 6d36 dc3e 1437
00000040: ffec 2438 1267 6037 f9dc 9837 33d4 2037
00000050: 882d 8f37 fb43 0938 736c 8237 99b0 0937
00000060: e3dd 4437 b91f 9237 f3be ac36 2e29 b037
00000070: 09a4 ac37 e0cd 7138 73e3 d036 9416 ae36
