results/2BS/T_1/L_6000/seed1/checkpoint.pth.tar (torch_old, 395613 bytes, 22 tensors)

layer1.conv.weight f4 [32, 2, 5, 5]
000000 82 b6 84 3b 70 93 b6 3d 92 13 d4 bc 16 ee 4e bd
       0.004050077 0.0891484 -0.025888238 -0.050520025
000010 c7 56 b5 3a d1 62 8f bc a0 21 d6 bc ae bc 79 bd
       0.0013835066 -0.017503174 -0.02613908 -0.060970955
000020 ba 52 1d 3d 7b c8 99 3d 6b 1c a2 bc 17 29 1e 3d
       0.038408972 0.07508942 -0.019788941 0.038613405
000030 8f a8 c4 3d b6 53 26 bc 7f 6b 0d 3d 82 45 8b 3b
       0.096024625 -0.010151794 0.034526344 0.0042502293
000040 49 02 4a 3d 75 cd 4b bd 18 61 91 bd 1c cb 8b 3c
       0.049318586 -0.049756486 -0.07098597 0.017064624
000050 ef 2c 7d bd bf ae 82 bd c2 b5 94 3d 38 0a 75 bb
       -0.06181043 -0.063809864 0.0726123 -0.0037390124
000060 ce 53 c2 3d 2b bb 66 bd 49 59 40 bb 0b 1e 98 3d
       0.09488641 -0.05633084 -0.0029350093 0.07427605
000070 26 a9 10 bc 3c 52 1d 3d b8 da be 3b 0f 9e 66 3d
       -0.008829391 0.038408503 0.005824413 0.05630308
000080 e8 93 99 bc 56 93 99 bc bc 74 df 3c 08 b9 c1 3c
       -0.018747285 -0.018747013 0.027277343 0.0236478
000090 fa ed 3f 3d 4c 94 80 bd f3 f6 15 3d 46 c6 a9 3d
       0.04685781 -0.062782854 0.036612462 0.08289771
0000a0 a2 c3 12 3d 14 a7 6b bd 55 27 f2 3d af eb bd 3b
       0.0358311 -0.057532385 0.11823908 0.005795918
0000b0 f1 42 8f 3d eb 10 b6 bd 9a 6f 5c 3d a8 48 ab bc
       0.0699519 -0.088899456 0.05381737 -0.020908669
0000c0 92 d9 23 bc 70 cc 29 3b 6d 86 a3 3c 55 ca cc bb
       -0.010000603 0.0025909208 0.01996156 -0.006249706
0000d0 cd fd 92 3b 75 c0 4b 3c db ea 86 bc e2 1f dd 3a
       0.004485822 0.012436022 -0.01646941 0.0016870464
0000e0 61 f5 44 bc 83 d6 cc bc a3 a9 77 bc c2 81 52 bc
       -0.0120213935 -0.02500463 -0.015116128 -0.0128483195
0000f0 15 04 e9 ba 96 ce 4b bc e1 fe 17 bd b9 3f 6f bb
       -0.0017777706 -0.012439391 -0.037108306 -0.0036506488
000100 9b c0 ff 3b 90 f0 b8 bc 3c 38 fc 3c aa 74 9a 3c
       0.007804943 -0.022575647 0.030788533 0.018854458
000110 6f 0a 3c 3c 3c e3 28 bd 00 71 e4 3b 3d 12 3d 3c
       0.011477097 -0.041232333 0.0069714785 0.011539993
000120 6c ac 06 3c 71 9e 73 bb aa 8f 80 bc 76 bc ac bc
       0.0082198195 -0.0037173296 -0.015693504 -0.021085959
000130 dc fe 7e 3c 77 ec cd 3c a9 81 eb 3c f8 1a 0e bd
       0.015563693 0.02513717 0.02874835 -0.03469369
000140 fd e5 a6 3c 20 de 5f 3d 25 c2 8e bc 89 cd 69 3d
       0.020373339 0.054655194 -0.01742656 0.05708078
000150 59 2a 45 bc 59 e3 29 3d 13 3f ea 3c 6c 9e 07 bd
       -0.012034022 0.04147658 0.02859453 -0.033110067
000160 a4 1e a0 bb 37 41 b8 bc 7e 22 84 bd 90 65 67 bd
       -0.004886465 -0.022492034 -0.06451891 -0.056493342
000170 fa 30 8c bc 6d 4c 20 3b 00 48 e4 bb 96 14 31 bd
       -0.017113198 0.0024459616 -0.006966591 -0.043232523
000180 e0 a9 d3 3c f3 a2 92 ba 6e 79 02 3c 99 43 ca 3c
       0.025837839 -0.0011187479 0.007963521 0.024690436
000190 78 f9 ad bd aa 79 17 3d 36 ee bf 3c 16 9e 02 bc
       -0.08494848 0.036981262 0.023429018 -0.007972261
0001a0 ef b3 91 3d 33 73 1d bd e5 aa 52 bd b1 6f ab 3c
       0.07114398 -0.03843994 -0.05143251 0.020927282
0001b0 23 1a d9 bd 5d 43 df bd f7 6d 45 3c fe 0b 0f bd
       -0.10600688 -0.109015204 0.012050143 -0.034923546
0001c0 3d 28 ea 3b 18 dd 63 bc 01 3b f8 bc e5 aa 31 3d
       0.00714591 -0.013907693 -0.030301573 0.04337587
0001d0 56 5a e1 ba bf f6 72 3d 4d 10 50 bd 43 42 f8 bc
       -0.001719306 0.059317347 -0.050796796 -0.030305034
0001e0 57 15 7f 3d 85 6c 58 3c e5 20 b9 bc b5 88 5e bd
       0.06227621 0.013209467 -0.022598693 -0.054329593
0001f0 68 11 f8 bc 60 64 2a bd 35 82 9c bd 80 78 a6 bb
       -0.030281737 -0.04159963 -0.076420225 -0.0050802827
000200 5b 06 d7 bb 88 e5 63 ba 61 f9 77 bc bf 9b 92 bd
       -0.006562037 -0.00086935656 -0.01513514 -0.071586125
000210 4f 46 b5 bc c7 68 20 bc c0 fa 04 bd 16 77 32 bd
       -0.022128252 -0.009790606 -0.032465696 -0.0435706
000220 cd f1 be 3c dd 26 9e bd fe b0 48 bd 8a 64 f8 bc
       0.023308659 -0.07722256 -0.048996918 -0.030321378
000230 b4 13 16 bc 13 dc 7d ba 2e 08 05 3c 97 af 3a 3d
       -0.009159971 -0.00096839777 0.008119626 0.04557761
000240 50 3e 81 bc fd cf 2e 3d 46 31 72 bc 97 5a 48 bd
       -0.015776783 0.04267882 -0.0147822555 -0.04891452
000250 b6 1d 6c bd e0 0f b5 bc 15 85 cf ba ba 6e 7c bb
       -0.057645522 -0.022102296 -0.0015832508 -0.0038518147
000260 4e 87 23 bb 20 42 7b 3b 15 8a 12 bd aa db 42 3c
       -0.0024952474 0.0038338974 -0.035776217 0.011893192
000270 ff a5 00 bc 27 78 45 bb fc 87 80 39 37 b8 e7 bb
       -0.007852077 -0.003013143 0.0002451538 -0.0070715207
000280 92 84 b3 3b d0 3c 18 3c 3a 15 30 ba 57 38 3e bc
       0.00547845 0.009291843 -0.000671703 -0.011610112
000290 bd 04 0f bb 69 e7 03 3b 6a 42 c7 3a 1f c1 cc ba
       -0.0021822893 0.0020126945 0.0015202288 -0.0015621519
0002a0 c6 fe 23 bc 07 6f be 3b 9b f3 a7 bb 22 22 ad 3b
       -0.010009473 0.0058115753 -0.0051254756 0.00528361
0002b0 29 88 1d bb b2 91 45 bb cc 82 de ba 27 d3 cb bb
       -0.0024037457 -0.0030146656 -0.0016976236 -0.0062202397
0002c0 40 20 5c bb 4c 38 4b bb 82 31 50 3c e0 24 21 3d
       -0.0033588558 -0.0031008897 0.012707116 0.039341807
0002d0 46 ab 91 3a a2 21 f8 ba c0 55 30 bb ce fe 9a bc
       0.0011113666 -0.0018930922 -0.002690658 -0.018920328
0002e0 c8 4f be 3c 58 09 ac 3b bb 52 07 3b 05 ba 5c 37
       0.023231402 0.0052501373 0.0020648676 1.3156333e-05
0002f0 67 ff bd bb d8 3c ae 3c 7b 5c a6 bb 6e 73 28 bb
       -0.0057982686 0.021269247 -0.0050769425 -0.0025703567
000300 51 94 13 bc 91 77 2e bb 57 97 90 bb 7e 05 cf 3b
       -0.009007529 -0.002662156 -0.0044125724 0.0063177934
000310 21 63 57 bb d5 51 11 bc 50 df 2b bb 57 37 d0 3b
       -0.0032865482 -0.008869608 -0.0026225634 0.0063542533
000320 91 8f ff 3c 71 98 8a 3d 59 e3 f7 3d 12 84 3b 3d
       0.031196387 0.06767357 0.1210391 0.04578025
000330 98 64 2f 3c ac e5 20 bd 8e 03 00 3d 8d 3d b3 3d
       0.010705136 -0.039281532 0.03125339 0.08751974
000340 61 07 66 bd 4e f7 94 3d ca 86 98 bb de 83 6a 3d
       -0.05615938 0.07273732 -0.00465474 0.057254665
000350 e9 74 c0 bc d9 7d 6a 3c 42 0e 0d 3e 1d 75 0f bd
       -0.023493247 0.014312231 0.1377497 -0.035023797
000360 73 91 70 3d c7 c5 01 3d 70 9b 21 3d f3 01 c0 3d
       0.05873246 0.031682756 0.039454877 0.09375372
000370 eb ff 03 3d f7 4e 89 bd 6e 17 2e bd 62 d4 0a 3d
       0.032226484 -0.067045145 -0.042502813 0.03389395
000380 f4 9e 4a 3d 0f f2 45 bd 68 c1 8c bd 60 8c 1b bd
       0.049467996 -0.04832655 -0.06872827 -0.03797567
000390 61 5c 95 3b 94 29 b0 bc ba f0 f9 bc 49 6c 16 3c
       0.0045581316 -0.021504201 -0.030510295 0.009181091
0003a0 45 b2 80 bd c9 1e 09 3d e3 3c e3 3c f3 44 d3 bd
       -0.06284002 0.033476625 0.027738994 -0.103158854
0003b0 5d 12 80 bc b7 45 fe 3b 5c ad fd bc 4f d6 0c bd
       -0.015633756 0.0077597755 -0.030966453 -0.034384068
0003c0 db aa 03 bd 75 b0 e0 bd 7d 49 7b bd 8c 15 17 be
       -0.032145362 -0.109711565 -0.06134938 -0.14754313
0003d0 13 72 15 3c d9 43 66 bd ea 61 98 bc b6 28 e9 3c
       0.009121436 -0.05621705 -0.018601377 0.028461795
0003e0 0d b8 79 3c 30 8a f2 bb 08 a3 fc bb 87 cd 59 3c
       0.015241635 -0.007401727 -0.0077098645 0.01329363
0003f0 1f d2 9d 3d 65 f4 6d bd a2 78 81 3d 3a cb 3c bd
       0.07706093 -0.0580944 0.06321837 -0.04609225

layer1.conv.bias f4 [32]
000000 3b 69 1c bb 3c 03 a5 bd 3a fb c5 3c e9 5d 32 bd
       -0.0023866433 -0.080572575 0.024167646 -0.04354659
000010 f3 17 0e 3e 9f 4e ef bd 07 3c 06 3d 1d 57 e8 3d
       0.13876323 -0.11684918 0.03277209 0.113447405
000020 ca 84 e1 3d 4b 15 36 3c a5 1c c1 3d ce 9d 91 bd
       0.11011656 0.011113475 0.09429292 -0.07110177
000030 14 ac ec bc b6 54 17 3c 75 8d 9b bd bb 98 94 bd
       -0.028890647 0.009236505 -0.0759534 -0.072556935
000040 91 92 b7 3d 80 9e 6d bd 62 fb 8f bd 1b 83 dd 3d
       0.08963502 -0.058012486 -0.07030369 0.10816022
000050 67 d4 c3 bd c2 74 26 bd 5c 81 bb 3d c9 20 de bc
       -0.09561997 -0.040638693 0.09155533 -0.027115243
000060 62 41 97 3c 14 27 a4 3d a7 d0 f2 3d 28 28 9d bc
       0.018463794 0.08015266 0.118562035 -0.019184187
000070 f6 86 e7 3d c0 8a ec 3d c2 b4 51 3d 2c 97 c2 3c
       0.11305039 0.11549902 0.051197775 0.023753725

layer2.conv1.weight f4 [32, 32, 3, 3]
000000 c2 c8 51 3d cf 5b 65 bd 6f 72 51 bd 8c 83 ab 3c
       0.05121685 -0.05599576 -0.051134523 0.02093675
000010 50 45 64 bd ec bc b3 3d 4a 85 86 3b e1 1d b2 bd
       -0.055730164 0.08776268 0.0041052448 -0.08697105
000020 b2 af 6d 3b 69 de 09 38 66 d2 b8 3b ee fc 05 bc
       0.0036268053 3.287048e-05 0.005640316 -0.008177979
000030 06 df ca bc 30 e3 bd 3a da ce 76 bc bd 01 3a bc
       -0.024764549 0.0014487263 -0.015063966 -0.0113529535
000040 2d 7f 2f bb a3 26 7a bb 5c 31 29 be fe d7 b7 3c
       -0.0026778684 -0.0038170002 -0.16522735 0.02244186
000050 8f 8f 5e 3d 8a 2f 46 bd e5 bd 13 3c d1 41 66 3c
       0.054336127 -0.04838518 0.009017442 0.014053778
000060 28 da dc 3d 4e 18 18 3e 87 ba ae 3c 94 3b 8a ba
       0.107837975 0.14853022 0.021329178 -0.001054632
000070 9a 56 ae 3a c9 72 05 3b be 26 4b 3a 8b 74 9e 3a
       0.0013300956 0.0020362607 0.00077496085 0.0012089176
000080 67 09 1f 3b ba 72 04 3b fb f1 6d 3a 15 a8 27 3b
       0.002426708 0.0020209984 0.00090768904 0.0025582362
000090 b8 55 98 bd f5 bd 86 bc 36 fb 4c 3d ed 0b 62 bc
       -0.074382246 -0.016448 0.05004426 -0.013796789
0000a0 4d 71 96 bd 35 80 1e 3d a7 16 7c bc 68 e6 69 bd
       -0.07345829 0.038696487 -0.01538626 -0.0571045
0000b0 d1 80 fa bd 0b 0e cd 3d 9a 6f c1 3d 60 e6 c6 3c
       -0.12231601 0.10012444 0.094451144 0.024279773
0000c0 99 e2 25 bd 58 5d 7d 3a 52 bf 9b 3d d6 e5 17 bd
       -0.040499303 0.00096650934 0.07604851 -0.037084423
0000d0 56 7c 3b bd 29 41 f9 3d b4 1a 4e bd af 81 09 bd
       -0.045772873 0.121706314 -0.050318435 -0.03357094
0000e0 f3 4d 7f 3d 75 e2 56 3b a1 ae 59 3c 33 99 35 bd
       0.062330198 0.0032788788 0.013286264 -0.044335555
0000f0 45 97 24 bd 79 a5 85 bd 4e d8 b2 3d 5e b3 86 bd
       -0.040183324 -0.06525702 0.08732663 -0.0657718
000100 d9 2d 94 bd 6f ba 20 3d b5 2a 4d bc 31 0c 58 3d
       -0.07235307 0.039240297 -0.012522389 0.052746
000110 04 a0 26 bd b3 ac b6 bc a2 12 17 bd e6 ef 01 bd
       -0.040679947 -0.022299146 -0.036883004 -0.031722926
000120 40 c3 5d bd c1 f1 9e bb 49 c1 00 3d d8 05 de 3d
       -0.054141283 -0.0048505967 0.03143433 0.10840958
000130 c4 14 c7 3c ed 48 af 3b c0 a1 73 bd 44 cb d7 3d
       0.024301894 0.0053492696 -0.05948043 0.10536817
000140 59 57 83 bb 88 2f 05 3d a5 04 96 bd c7 b3 0f 3e
       -0.0040082154 0.032516032 -0.073251046 0.14033423
000150 64 6d 26 3d 12 29 a1 3c c4 25 ce 3d 31 34 8d bd
       0.040631667 0.019672904 0.10065797 -0.0689472
000160 d3 3c 4f 3d 38 6f 78 3d a4 5c 1f 3d c1 cb 74 3c
       0.050595116 0.06065294 0.03890671 0.014941157
000170 9d 11 c0 3c d8 05 0e bd 5d c0 cc 3c 6d 3f b2 3c
       0.023445899 -0.03467354 0.02499407 0.02175876
000180 18 e7 71 bd 41 9f 68 3c 10 c9 df bc 10 d0 3f bd
       -0.05905828 0.014198125 -0.027317554 -0.046829283
000190 22 50 89 3d be ad 83 3d bf 35 bb bd 38 e9 39 3c
       0.06704737 0.06429623 -0.09141111 0.011347108
0001a0 d2 fc c2 bc d4 0a ff bd 9a f9 e8 3b 28 af 5b 3b
       -0.023802195 -0.12453237 0.007109833 0.003352115
0001b0 17 46 37 bd e1 8b a0 bb 67 ff ec bc 20 78 6c bd
       -0.044744577 -0.0048994874 -0.02893038 -0.057731748
0001c0 ac 52 ff 3c 93 86 1e be 06 54 b0 bd 1c 63 d5 bb
       0.03116735 -0.15481023 -0.08609776 -0.006512059
0001d0 1d 70 15 be c4 39 66 bc 29 93 87 3b cf eb d9 3a
       -0.14593549 -0.014051858 0.004137416 0.0016626063
0001e0 06 68 05 3d 90 2e f4 39 8d 99 31 3d 9e fa c3 bb
       0.032569908 0.00046573998 0.043359328 -0.0059808036
0001f0 6c 6a 00 be f8 14 b4 bc e9 04 10 bd 8e 29 79 3d
       -0.12540597 -0.021982655 -0.035160933 0.060830645
000200 03 ae b5 bc 7b 8f 95 3c f1 cb 05 3e 37 34 05 bd
       -0.022177702 0.018256893 0.13066079 -0.0325205
000210 47 0f 1d 3d 70 8c f3 bc 52 61 98 3c 17 62 c2 bd
       0.038344648 -0.029730052 0.018601093 -0.094913654
000220 23 37 1c bd 55 85 81 bc a6 08 21 3d 18 f1 5d bd
       -0.03813852 -0.015810648 0.03931489 -0.054185003
000230 9f dd 87 bc 96 df 28 3d 52 ef c7 bc 07 ca 65 3b
       -0.01658517 0.041228853 -0.024406109 0.0035063045
000240 98 6c a8 3d cd ab a7 bc 9c 3c ff 3d 1a 4e d7 bc
       0.082238376 -0.020467663 0.12462732 -0.026282359
000250 b4 9b 4d 3d bd e5 bf 3b c6 55 0b bd 66 7c a0 bc
       0.05019732 0.0058562444 -0.034017347 -0.019590568
000260 cf 2d 59 3d 79 d7 8d 3d 79 e5 f7 3c 35 81 66 3c
       0.053022202 0.06925864 0.030260788 0.014068891
000270 4d 20 6c 3c a9 41 c8 3c 5a 7f c1 3c aa ce 8b bc
       0.014411998 0.024445372 0.023620296 -0.017066319
000280 72 bc b0 3b 37 07 95 b9 86 92 6a 3c b6 92 9c 3b
       0.005393558 -0.0002842487 0.0143171605 0.0047782315
000290 fd f9 99 bc 95 0b f7 3c f6 e5 66 bb 5f d6 ac 3a
       -0.018795962 0.03015689 -0.0035232282 0.0013186446
0002a0 1a 3e 94 bc e4 1c 91 bb 6e bf 69 bc fc 5c 2b be
       -0.018096019 -0.004428493 -0.014266832 -0.1673469
0002b0 eb 84 98 3d 43 37 79 bc 41 99 92 bd 7b bc 48 3d
       0.07447227 -0.015210929 -0.07158137 0.049007874
0002c0 64 3f 08 bd 9e 6c b1 bd 57 84 e6 bc 3a 6e 54 3d
       -0.03326358 -0.08663295 -0.028139276 0.051862933
0002d0 ad 53 5e 3d ba 82 e2 3d bf a6 cd bd a4 09 ba bd
       0.05427902 0.1106009 -0.1004157 -0.0908387
0002e0 62 cf 91 bb 8e dd 00 3e 0e b3 d5 bc b9 de 42 b9
       -0.004449771 0.12584516 -0.026086356 -0.00018584252
0002f0 40 4d 42 3d aa 95 14 bc 65 08 4b 3d bb 9b 89 3c
       0.047436953 -0.009068886 0.049568553 0.01679789
000300 ef e6 f9 3c d2 e1 25 bd 1f ba b2 3d 42 5c cb bb
       0.030505626 -0.040498562 0.08726906 -0.0062060663
000310 fc 80 2f 3e d7 16 2f bc bc 59 01 3c 48 26 32 3d
       0.17139047 -0.010686598 0.0078949295 0.04349354
000320 d3 0e 11 bc 8a 5e 25 bd 7b b0 ba bd 3e 94 67 3d
       -0.008853632 -0.040373363 -0.09115692 0.05653786
000330 91 af f2 3c 7f 9a dc bc d2 52 13 3d 3b ad 88 bd
       0.029624732 -0.026929138 0.035967655 -0.06673666
000340 3b 8e 13 3c ff 1a 5c 3c 3d 41 90 3d a2 0e 18 bd
       0.009006078 0.013434171 0.07043693 -0.03712333
000350 37 a8 ba 3c 48 fa f8 bd 6f 16 3a bc 13 5e fa bd
       0.02278529 -0.12157112 -0.011357888 -0.122249745
000360 bb 51 09 3d 53 ca b3 bc ab 5c a5 3d 29 8b 00 3d
       0.03352521 -0.021947062 0.08074316 0.031382713
000370 50 23 a3 3b 0a 38 f2 bd 25 19 d8 3c be 0d 28 bd
       0.004978575 -0.11827095 0.026379177 -0.04102873
000380 eb bc 7f 3c 1c c7 97 3d 06 5a d6 3d 34 7b 67 3d
       0.015609006 0.07411024 0.10466389 0.05651398
000390 55 7d 1f bd ac 57 bf 3d 17 cd 95 bd 08 21 03 be
       -0.038937885 0.09342894 -0.073145084 -0.12805569
0003a0 54 e7 9e 3c 20 20 7f bd e3 c1 27 3d 92 36 39 3c
       0.019397415 -0.062286496 0.04095639 0.0113045145
0003b0 0a 23 fd 3d bf 36 5c 3d 9f 05 4f bd e4 04 5a 3d
       0.12360199 0.053763147 -0.05054247 0.05322732
0003c0 13 70 12 3e e4 61 23 bb 19 05 92 bc de 46 5c bd
       0.14300565 -0.0024930174 -0.017824696 -0.05377852
0003d0 5d 13 9f 3d 86 49 a1 bc bb 85 3f bd 24 ad 56 3c
       0.07767365 -0.019688379 -0.046758395 0.013102803
0003e0 8c a8 c0 bd 2f 43 93 bd e3 a9 19 bc 5b 91 44 bd
       -0.09407148 -0.07190549 -0.009378883 -0.047990184
0003f0 25 57 9d 3d 63 19 e5 3c 66 ff bd bd db e2 33 bd
       0.07682637 0.027966207 -0.09277229 -0.043917518

layer2.conv1.bias f4 [32]
000000 ff 2e 71 3d c2 74 13 3d 45 40 10 bd 4e a6 d6 3c
       0.05888271 0.03600002 -0.035217542 0.026202347
000010 9d ff 2e 3c 5f 04 8c 3d 95 ef 99 bc 93 ed be 3b
       0.01068106 0.06836771 -0.018791 0.005826661
000020 1f 18 29 bc 59 2c 1b 3d 32 c8 2c 3c 57 2c bb 3c
       -0.010320692 0.03788409 0.010545777 0.022848291
000030 25 62 1a bd bd 15 d0 bc b8 92 99 3c 7c 06 ed 3c
       -0.037691254 -0.02540099 0.018746719 0.028933756
000040 fe 10 00 ba 2f 35 cd bc c7 51 4c 3d 8f bb 1a bc
       -0.00048853445 -0.025049774 0.049882676 -0.0094441315
000050 5e 3e 44 bd 2f 8f 3e bd 94 13 73 bd a9 a2 fa 3c
       -0.04791104 -0.04652327 -0.059344843 0.03059514
000060 ad 2c 41 3c 6d b6 cb 3c 4f 72 88 bc f4 02 9a bc
       0.011790437 0.02486726 -0.01665607 -0.018800236
000070 b8 7c fb 3c a8 82 e6 bc 75 ed 66 3c 91 c1 e3 bb
       0.030699119 -0.028138474 0.0140947 -0.006950565

layer2.conv2.weight f4 [64, 32, 3, 3]
000000 d2 7b c3 bc 9d 78 b4 bc 3f fa ae bb a8 3c 06 3c
       -0.023862753 -0.02203017 -0.0053398903 0.0081931725
000010 e6 c1 a4 bc 5b b3 31 bd 4e 9c 1d 39 9a b8 3a 3c
       -0.02011199 -0.043383937 0.00015030915 0.0113965515
000020 a0 0f 5d 3c a6 67 d2 bb 48 39 8b 3b 1e a1 de b9
       0.013492495 -0.0064210473 0.004248772 -0.0004246318
000030 50 d3 12 3c 9b c3 74 3c 74 a6 de 3b d8 6d 15 bc
       0.008961514 0.014939214 0.006794745 -0.009120427
000040 57 8f 2c 3c b0 ff a3 bb cb c4 85 3c eb bb 48 3a
       0.010532222 -0.0050048456 0.01632919 0.00076573965
000050 76 43 92 3c 48 b3 d6 3c a7 e8 65 bd ae e6 aa bb
       0.017854434 0.026208535 -0.056130078 -0.0052154874
000060 b3 81 46 3c d7 8b e0 bc 83 9d 62 bc a8 cf 2b bb
       0.012115884 -0.02741043 -0.013831499 -0.0026216302
000070 1b 55 7a 3b e0 de dc bc 55 32 80 3b 3f b0 13 bc
       0.00381977 -0.026961744 0.00391225 -0.009014188
000080 ed f1 af 3c cb 7d a5 3b 0e ea 29 3c e9 c7 8a bb
       0.021477664 0.005050396 0.010370744 -0.004235257
000090 59 9e bf ba 5d d3 99 bb ef fd e4 bb 9e 3c 5e 3c
       -0.0014619335 -0.004694386 -0.006988279 0.013564257
0000a0 9c dd 50 3c ab 21 cf bb 46 34 4a 3b 4b 39 9a 39
       0.012748148 -0.006321152 0.0030853911 0.00029415856
0000b0 58 6b 3e 3c c0 96 46 3d 23 e3 88 3c f3 83 21 bd
       0.011622272 0.04848361 0.01670987 -0.039432477
0000c0 99 9f 3e bd 1b 30 36 bc 2b d1 de 3c 6a 38 09 3c
       -0.046538923 -0.011119868 0.027199348 0.008375267
0000d0 5b 8d 0d bd 81 75 4d bc fd 8b e4 3c 3d 02 a7 bc
       -0.034558635 -0.012540222 0.027898783 -0.02038681
0000e0 1b 4d 77 3b 27 4b c8 3c d1 43 b8 3a cf aa de b9
       0.0037735167 0.024449898 0.0014058297 -0.00042470402
0000f0 c4 df 52 bb cd e5 53 38 a0 a3 39 3c 18 ba dd bc
       -0.0032176832 5.052034e-05 0.011330515 -0.027066275
000100 e0 15 ac 3c b0 81 55 bc 72 b1 11 3c 88 f0 3d 3c
       0.021006525 -0.013031408 0.008892404 0.011592992
000110 e6 01 3a 3c 42 55 82 3b 96 82 53 bc 1c 5d e6 bb
       0.011352992 0.0039774487 -0.012909552 -0.0070301425
000120 a9 aa 5a 3c c2 ab a9 ba f4 d6 29 bc 8c 20 d7 ba
       0.013346353 -0.0012944865 -0.01036619 -0.0016412898
000130 85 2b 62 3c b0 81 8b bb 0f 8c fa 3b fd d5 3d 3c
       0.013804321 -0.0042574033 0.007646091 0.011586663
000140 50 9f 71 bb 64 ad f7 3c c2 9c 81 3c a8 03 61 3c
       -0.003686864 0.030234046 0.015821818 0.013733782
000150 b0 39 49 3d c2 36 00 3d f5 5e 31 b8 92 7f 6d bc
       0.04912728 0.03130222 -4.2288524e-05 -0.014495747
000160 97 e8 91 3c 5d 35 ed bb f7 63 e8 bc 1e 97 4a bd
       0.017811103 -0.0072390274 -0.02836798 -0.049460523
000170 4d d0 45 3c 6c 51 e2 3c 0f a9 d6 3b 96 06 9b bc
       0.012073589 0.027626716 0.006550915 -0.018924039
000180 95 30 22 bd 1c d4 29 bd 03 96 8c 3b b0 d4 3f bb
       -0.039597113 -0.04146205 0.0042903437 -0.0029271059
000190 d6 01 0e ba e8 bb c0 b9 24 2a 16 3c 89 4b d0 b9
       -0.00054171437 -0.00036761095 0.009165321 -0.0003972913
0001a0 3a 5d ff bb 93 5a 8d bb 51 c7 0d ba d2 7c 1b 3b
       -0.007793096 -0.004313776 -0.00054084236 0.0023725522
0001b0 78 b0 9b bb 02 1d 95 3a 7b 8b af ba 19 0a b5 3c
       -0.0047512613 0.0011376443 -0.0013393009 0.022099542
0001c0 ba 35 b4 3b ff 05 df bb 7e 75 56 3a a9 52 c1 3b
       0.005499569 -0.0068061347 0.000818096 0.0058997464
0001d0 c5 e3 76 3c 30 3e 95 3c c0 0a 83 bb b5 f2 da ba
       0.015068953 0.01821813 -0.0039990842 -0.0016704412
0001e0 1d 49 c1 ba 78 ba 34 bc cd c1 0f bc aa 1c f7 3b
       -0.0014746521 -0.011030786 -0.008774233 0.007541259
0001f0 83 b0 16 3b 71 cc 38 3c 6a a3 4d 39 88 37 52 3d
       0.0022993393 0.011279211 0.000196112 0.05132249
000200 1b d0 ca bb ce b1 91 3d 24 20 d2 3c bc c2 78 bc
       -0.006189359 0.07113992 0.025650091 -0.015183147
000210 56 6c 78 3c 01 1c 09 bd bb 7a 18 3c 2c 57 42 3b
       0.015162548 -0.033473972 0.009306605 0.002965401
000220 21 34 0e bb 06 3d 94 bb fd 64 ae 3b 0e fa c4 bb
       -0.0021698552 -0.004523876 0.0053220973 -0.006011254
000230 40 ce c4 3a fe f1 84 3b ae 37 d2 bb a3 5a 95 3b
       0.001501508 0.004057168 -0.006415329 0.004557924
000240 fa 92 e7 bb 13 28 01 3d 11 a5 fb bb a4 bf a9 3b
       -0.0070670815 0.03153236 -0.0076795896 0.005180316
000250 20 f9 98 3c 30 f4 d0 3c f7 23 6a 3c d2 01 28 3c
       0.01867348 0.025507063 0.014290801 0.01025434
000260 e9 7a 89 bb 3a 52 5c 3d b3 cc b3 bc 50 6f fd 3c
       -0.0041955602 0.053789355 -0.021948194 0.030936867
000270 76 d4 67 3c 2a 25 ae bc 70 76 b6 ba 8a 48 68 bc
       0.014149776 -0.021257956 -0.0013920795 -0.014177451
000280 d9 99 ac 3c e0 dd 80 bc cb bd b6 3b 10 18 0b ba
       0.021069454 -0.015730798 0.0055768243 -0.0005306015
000290 32 98 50 bd cc 92 18 3d e8 81 d4 3a 13 0d 55 bc
       -0.050926395 0.03724937 0.0016213031 -0.013003605
0002a0 29 37 c6 3c 29 63 96 3d 50 8b 61 3b 5b d6 3a 3d
       0.024196224 0.07343132 0.0034415312 0.04561458
0002b0 e4 34 e2 bc cd f5 7d 3c a5 ce 23 3d 78 56 05 3d
       -0.02761311 0.015500498 0.039991993 0.032553166
0002c0 fc 48 de bb 03 89 bb b9 32 09 4e 3d d4 88 33 bc
       -0.0067836028 -0.000357695 0.050301738 -0.010957915
0002d0 68 e9 3a bd ee dc f3 bc c7 15 c0 3c 33 39 3f bd
       -0.04563275 -0.029768433 0.023447884 -0.04668541
0002e0 47 57 fb bb d1 e6 43 bc 1a 6a ea ba f3 e0 f5 3c
       -0.0076703164 -0.011956886 -0.0017884404 0.03001449
0002f0 69 74 0d 3c c3 0c b7 bc 2e b2 79 bd 3c 5b 0c bc
       0.008633711 -0.022344952 -0.06096094 -0.008566674
000300 8d b3 83 bc 2b 12 81 bd 4d 30 65 bb 67 36 8f 3a
       -0.016076827 -0.063022934 -0.0034971416 0.0010926247
000310 53 42 33 bc 31 e3 8d 3c ca 17 a2 3d f3 9e 29 3b
       -0.010941106 0.017320247 0.07914694 0.0025882095
000320 c6 aa ac 3a 43 4d 7f 3c 1b 81 83 b9 77 58 fd bb
       0.0013173453 0.0155823855 -0.00025082458 -0.007731493
000330 d1 7a d2 bc 0d 7a 1b bc f3 b7 99 bc 6b 94 37 3b
       -0.025693329 -0.009489548 -0.018764472 0.0028012048
000340 c2 1d dc b9 e9 7f 71 ba ba d8 c9 ba 47 ed 49 ba
       -0.0004198384 -0.00092124805 -0.0015399673 -0.00077028986
000350 64 2c f8 ba b7 51 06 b9 40 05 db b9 c2 67 54 3a
       -0.0018934128 -0.00012809677 -0.00041774847 0.00081026193
000360 6f f7 38 3b 7e 22 04 3c 5f b7 8f 3c 8a 0a 0e bb
       0.0028223654 0.008064864 0.017543493 -0.0021673762
000370 57 7b 01 3a 50 03 57 bc 9a 93 9a ba 30 78 27 3b
       0.00049393385 -0.013123348 -0.0011793256 0.0025553815
000380 81 33 63 39 3d 9c fc ba e7 76 44 3c a9 7f 81 3c
       0.00021667594 -0.0019272637 0.011991239 0.015807943
000390 bc ad 95 3a 35 37 cc 3c 4d 57 51 bb 41 e7 35 3c
       0.0011419575 0.024928669 -0.0031942904 0.0111024985
0003a0 be 0d de 3c 6b b0 f4 3b ff 7b 43 bc 9d fe db 3c
       0.027106162 0.0074673197 -0.011931418 0.026854808
0003b0 f3 7f 35 3c fe cb 19 bc eb e0 06 3d 6a 2e 72 bc
       0.011077869 -0.009387014 0.032929342 -0.014781574
0003c0 65 7a d8 ba 91 20 f3 3b ce 69 7e bb 0f 85 09 ba
       -0.0016515969 0.0074196537 -0.0038820389 -0.00052459625
0003d0 a1 7f 42 3b 2d b3 15 3b 35 d8 3f 3c 1c 7b 71 3a
       0.0029678124 0.0022842393 0.011709263 0.0009211765
0003e0 fe bb 85 3c 10 31 c4 3b 2f dd 0d 3b af 1d b8 39
       0.016324993 0.005987294 0.0021646728 0.0003511733
0003f0 07 a4 5a 3c eb 51 30 3d 4f 26 3b bb 8f ab ae 3d
       0.013344771 0.043046873 -0.002855677 0.08528816

layer2.conv2.bias f4 [64]
000000 59 37 c4 bb d1 7a b1 2f 66 24 e4 3c 51 b4 35 3d
       -0.0059880433 3.228338e-10 0.027849387 0.044361416
000010 63 72 16 3c eb 6d 11 3c a8 5c eb bc 81 29 97 bb
       0.009182545 0.008876304 -0.028730705 -0.004613102
000020 5e 34 b9 bb 3d c5 c0 bb ee 0f cb bc c7 8d 38 3c
       -0.0056519946 -0.0058828876 -0.02478787 0.011264271
000030 f7 c7 32 3d 04 e7 0c 3d 79 45 a3 3c ac 2e c0 ba
       0.043647733 0.0344 0.019930588 -0.0014662347
000040 09 64 2b 3b a5 a4 97 3c 3c 79 19 bd 02 27 44 bc
       0.0026152155 0.018511126 -0.037469134 -0.011972191
000050 81 9c 8a 3c 26 36 48 bc fa 7f 19 bb d1 64 19 3b
       0.01692033 -0.012219941 -0.0023422227 0.0023406039
000060 90 2d 2c bd c6 99 bd bc 32 bb 4b 3c a8 ef 88 ba
       -0.04203564 -0.023144614 0.012434768 -0.00104474
000070 dd db 33 3c 9e 64 9a 3c 4b 39 8b bc 86 7b e5 bc
       0.010977712 0.018846806 -0.016995093 -0.028013002
000080 b4 ca 02 bb 8a 91 f3 3b ae 4c f9 3c 52 bd 47 27
       -0.0019957246 0.007433121 0.030432072 2.7719428e-15
000090 3a 75 eb bc 8d 4c 44 36 e7 ed a1 bc cc f4 bc 3b
       -0.028742421 2.9250834e-06 -0.019766761 0.0057664867
0000a0 9c 8a a4 3b 0e 50 65 bd 80 92 48 3c 70 a8 37 bd
       0.0050214063 -0.05598455 0.01224196 -0.04483837
0000b0 76 e6 a9 3a 6d 5c bf 3c 7b 58 9c bc d7 c0 88 bd
       0.001296236 0.023359502 -0.01908516 -0.06677406
0000c0 c8 c3 eb bc 3b fd 50 3b 92 6f 88 3c 5f 61 9d 3c
       -0.02877988 0.0031889218 0.016654763 0.01921147
0000d0 b9 61 c8 bc 2e 2f 41 3d a1 e3 a1 39 e6 2e 2c bd
       -0.02446066 0.047164135 0.0003087791 -0.042036913
0000e0 52 c9 81 bc d4 2c 51 3d e1 d7 ba 3c 67 d3 26 bd
       -0.015843067 0.051068142 0.022808017 -0.040728953
0000f0 c1 94 fb ba e5 54 d2 3c 78 63 99 3c 5a fd e8 3a
       -0.0019194112 0.025675246 0.018724188 0.00177757

fc1.weight f4 [1, 3200]
000000 41 33 e0 ba 26 75 1e ba 0c 33 eb 3b c6 72 d3 b9
       -0.0017105119 -0.0006044678 0.007177716 -0.0004033057
000010 05 d5 42 bb 03 18 6c bc ed 93 b7 3b 8a 66 33 bc
       -0.002972902 -0.014410022 0.005602351 -0.01094974
000020 f0 de e5 3a dc a5 be bb 3b 7c c0 bb 6d b4 a0 bc
       0.0017537754 -0.005818112 -0.0058741844 -0.019617284
000030 7d e3 db ba b6 f5 18 3c 32 84 17 3c b0 9a a9 3c
       -0.0016776171 0.009335926 0.009247826 0.020703644
000040 48 d8 09 bd 09 2f 26 3c 01 96 83 bb be 8c 32 bc
       -0.033653527 0.01014305 -0.0040156846 -0.010897813
000050 2e 40 35 bc f0 75 a8 b9 9c 25 92 3c 57 0e 18 3b
       -0.011062665 -0.00032131327 0.0178402 0.0023201907
000060 ad 40 8e bb c8 d3 d6 3c f7 74 86 3d 2e cb 34 3c
       -0.004341206 0.026224032 0.06565278 0.01103477
000070 e5 ec c4 bb 0e ba c8 3c 61 2d 8c 3b cd a2 c0 ba
       -0.0060096853 0.02450278 0.0042778705 -0.0014696956
000080 6b fd ad 3b 58 e4 ca bb fd 57 11 3d 12 c3 55 3c
       0.005309751 -0.0061917715 0.035484303 0.013046997
000090 f8 dc 44 bd 3e fc d4 3b 31 03 ba 3b a1 c7 9f 3a
       -0.048062295 0.006499796 0.00567665 0.0012190231
0000a0 ae 8a e7 39 0d 3a 8f bb 77 ae 8e bb ea 30 1d bc
       0.00044163078 -0.004370934 -0.004354294 -0.009594182
0000b0 a4 a1 04 bd 63 4e 16 3d e9 09 8f 3c 5f 6e 80 3b
       -0.032380715 0.03669585 0.01746078 0.0039194073
0000c0 0d 8b 5e bb 96 70 82 bc ff 8a 15 28 f5 89 4c 2e
       -0.0033957392 -0.015922826 8.3013015e-15 4.650676e-11
0000d0 c7 55 50 31 15 53 c6 32 e0 3f 5a b2 2d 5d 0a 2c
       3.0316742e-09 2.3088015e-08 -1.2703794e-08 1.9662702e-12
0000e0 0c 80 33 ac cf 82 30 b0 ea 8e 04 33 1d 07 9a b0
       -2.550851e-12 -6.4214317e-10 3.0863625e-08 -1.1206996e-09
0000f0 c0 d7 8d 2b f0 29 13 2f 23 10 fc 31 f6 0b 2f 33
       1.0078535e-12 1.3384471e-10 7.336e-09 4.075624e-08
000100 44 dd ba b2 6b 54 0b 2d f3 c7 ca af 08 2a da 30
       -2.175387e-08 7.91998e-12 -3.6885658e-10 1.5873534e-09
000110 87 93 0f 33 5b e7 b0 32 8d 4c d5 ac f2 78 90 2f
       3.3428957e-08 2.0594305e-08 -6.062323e-12 2.6279384e-10
000120 43 0d 51 32 9a 5f 36 33 2b 2d ed 32 66 59 6b 31
       1.21684165e-08 4.2462126e-08 2.7610971e-08 3.4247818e-09
000130 ec e6 d4 b0 14 c9 0f 33 cf be a7 31 29 1c 6f b3
       -1.5490662e-09 3.347766e-08 4.882032e-09 -5.5672135e-08
000140 11 71 c3 ac 96 58 0e 29 1c 0a aa b1 f7 62 b3 30
       -5.5547862e-12 3.160717e-14 -4.9488005e-09 1.3052092e-09
000150 e3 b5 8d 32 46 31 d8 30 c9 0f 12 2d 34 54 ea b1
       1.6497273e-08 1.5730073e-09 8.302644e-12 -6.819869e-09
000160 67 dc 88 32 84 23 5f b3 55 dc a5 a9 be 99 41 1e
       1.5932711e-08 -5.1953535e-08 -7.3656935e-14 1.0249128e-20
000170 98 dc 9a b0 bd e9 93 b1 9a 15 c2 b2 df 9a 40 31
       -1.1267671e-09 -4.304836e-09 -2.2594396e-08 2.8027711e-09
000180 67 d6 cb 2a 23 26 82 b0 c2 41 f8 b0 6a f2 9b 32
       3.6208815e-13 -9.469584e-10 -1.8063064e-09 1.8154612e-08
000190 d3 5d bb 3c 78 ed 61 3b 0d 1e d2 3b ec ca 13 ba
       0.022871887 0.0034473818 0.0064122737 -0.00056378427
0001a0 14 03 3d 3d a8 f3 9c bc 10 04 09 bb 70 10 bb 3c
       0.046145514 -0.019159153 -0.0020906962 0.022834986
0001b0 de 17 27 3b 0a ba 6a 3c a7 91 ae 3a 1b 42 83 bc
       0.0025496404 0.014326582 0.0013318554 -0.016022732
0001c0 26 9b cf 37 be 76 72 bd 0c 86 3b bd df b8 30 3d
       2.474857e-05 -0.059195273 -0.045782134 0.043145057
0001d0 c6 42 cc 3b ac 39 1d bc 71 39 81 3c e1 9a 99 bc
       0.006233546 -0.00959627 0.01577446 -0.01875061
0001e0 f5 05 49 bc 51 7c 98 bc 00 99 76 bc c2 c1 28 bd
       -0.012269487 -0.018613966 -0.0150511265 -0.041200407
0001f0 08 c0 d7 bd 5a e1 14 3d 74 aa 3b 3d 89 81 5d bc
       -0.10534674 0.036347724 0.045816854 -0.013519653
000200 7e 7d 92 3c 85 a5 d4 3b 75 06 54 bc e3 02 1e bd
       0.017882105 0.006489458 -0.012940993 -0.03857697
000210 fd 3e d3 3c 73 6f 83 bb 40 3c ec 3b 07 24 2b 3d
       0.025786871 -0.0040110885 0.007209331 0.041782405
000220 c9 1e 09 bd 18 6a 98 3b 3b 4c 3c 3c dd a8 2c bb
       -0.033476625 0.0046513192 0.011492784 -0.0026345768
000230 2f 65 0f bc 1a 71 56 bc 44 06 f4 3b 36 78 8d bb
       -0.008752151 -0.013088489 0.007447036 -0.004317309
000240 aa ce 05 3e 77 1d 16 3e 67 f6 a7 bd ab b5 98 bc
       0.13067117 0.14659677 -0.082012944 -0.018641314
000250 47 eb 8d bc a4 9f bf bb 2d 62 31 3c 89 56 aa bc
       -0.017324103 -0.005847888 0.01082663 -0.020793216
000260 b1 20 12 bb 03 6e 08 bb 95 a9 a5 3d 6d 4f 0d 3d
       -0.0022297318 -0.0020817525 0.08088986 0.034499574
000270 70 70 bb 3c e5 c2 78 3a 05 f3 11 3c 9a c8 13 3c
       0.022880763 0.0009489491 0.008908038 0.009019995
000280 73 c3 e4 bc 6e c9 af 3c ee ae 91 3b 75 f5 08 3d
       -0.027925229 0.021458354 0.004445902 0.03343721
000290 fb 68 59 3d 72 b2 e0 bc b9 39 b1 3c b5 62 29 3c
       0.053078633 -0.02742884 0.02163397 0.010338475
0002a0 ee 89 7a bc 9c 23 a7 3b 42 b1 03 3b 19 15 7b 3c
       -0.015291674 0.0051006805 0.0020094668 0.015324854
0002b0 24 e2 2c 3b bf 40 00 80 95 4c 03 3e 53 b5 52 bd
       0.0026379908 -2.3227e-41 0.12822182 -0.051442456
0002c0 60 0f 42 bc 55 7e 02 bb 26 36 00 80 47 a0 30 3b
       -0.011844486 -0.0019911726 -1.9425e-41 0.0026951001
0002d0 d7 62 fa bb d7 a4 80 bb 3d 30 00 80 2b 02 00 00
       -0.007641177 -0.0039259004 -1.7305e-41 7.78e-43
0002e0 ea 83 1f 3e 04 58 83 3a 69 62 e0 bd 02 34 02 80
       0.15577665 0.0010020738 -0.1095627 -2.02328e-40
0002f0 d0 61 02 80 8c 0e 9e b7 d8 fe 09 3c a3 77 0e bc
       -2.1876e-40 -1.8841842e-05 0.008422576 -0.008695516
000300 8a b5 02 00 ef 74 a6 3c 64 d2 b9 ba e7 6b c1 bb
       2.48795e-40 0.02031943 -0.0014177081 -0.0059027555
000310 d1 d7 6d bd 38 4e 01 00 a9 a0 50 3c 05 f8 fe bc
       -0.058067147 1.19895e-40 0.012733617 -0.031124124
000320 25 44 81 3c a7 86 ba 3b 57 90 1f 3c f0 e8 cb bb
       0.015779564 0.0056923213 0.009739003 -0.0062228367
000330 67 08 ae 3c 28 86 2e 3d 88 96 f5 3b f0 fa 1b 3c
       0.02124424 0.04260841 0.0074947514 0.009520277
000340 c7 29 81 3c 6f dc e1 3b 18 08 73 3c 02 72 ad bb
       0.015766991 0.006892733 0.014833473 -0.005293132
000350 36 1f a7 bb 60 eb 94 3c 7a 22 a4 3c 0e b2 6b bb
       -0.005100156 0.018178642 0.020035971 -0.0035964283
000360 ab 26 99 bc c6 bc bb 3b 50 3e b7 bc b6 88 2e 3a
       -0.018695196 0.0057292907 -0.02236858 0.0006657945
000370 6b 67 c7 3b a2 2f 20 bb 30 4b 8e ba 0d c9 de bc
       0.0060853264 -0.0024442454 -0.0010856148 -0.027195478
000380 20 93 ef bc 63 b3 1d bd 47 e3 04 bd 4c ea 25 bb
       -0.02924496 -0.038501155 -0.03244331 -0.0025316654
000390 f0 ce 87 bb cf b7 8c 3c 80 72 2e 3c f4 61 8a 39
       -0.004144542 0.01717749 0.010647416 0.00026394392
0003a0 46 fa 15 3b ed 1d 1c bd 5c e1 72 bd 5b 5e 9c bd
       0.002288477 -0.038114477 -0.05929695 -0.076351844
0003b0 f0 62 52 bb ec 6d fc 3b 23 86 b5 bc a7 b0 d7 bc
       -0.0032102428 0.0077035334 -0.022158688 -0.026329352
0003c0 6a 38 03 3c 71 ab ca 3a 49 3b 00 00 3b 1a 37 1f
       0.008009056 0.001546247 2.1268e-41 3.8773455e-20
0003d0 39 d1 2b bc d2 90 fd bd 86 b8 81 bc 95 f4 00 00
       -0.010486894 -0.12381138 -0.015835058 8.774e-41
0003e0 b0 f7 b0 26 4b 64 98 b7 1b b6 2a 3c d6 58 56 bb
       1.2279589e-15 -1.8166515e-05 0.010419394 -0.003270676
0003f0 e9 be 77 3c 3c 50 59 3c 76 6d a8 3b 55 56 c1 3c
       0.0151212 0.013263758 0.005140002 0.023600737

out.0.weight f4 [1, 3200]
000000 41 33 e0 ba 26 75 1e ba 0c 33 eb 3b c6 72 d3 b9
       -0.0017105119 -0.0006044678 0.007177716 -0.0004033057
000010 05 d5 42 bb 03 18 6c bc ed 93 b7 3b 8a 66 33 bc
       -0.002972902 -0.014410022 0.005602351 -0.01094974
000020 f0 de e5 3a dc a5 be bb 3b 7c c0 bb 6d b4 a0 bc
       0.0017537754 -0.005818112 -0.0058741844 -0.019617284
000030 7d e3 db ba b6 f5 18 3c 32 84 17 3c b0 9a a9 3c
       -0.0016776171 0.009335926 0.009247826 0.020703644
000040 48 d8 09 bd 09 2f 26 3c 01 96 83 bb be 8c 32 bc
       -0.033653527 0.01014305 -0.0040156846 -0.010897813
000050 2e 40 35 bc f0 75 a8 b9 9c 25 92 3c 57 0e 18 3b
       -0.011062665 -0.00032131327 0.0178402 0.0023201907
000060 ad 40 8e bb c8 d3 d6 3c f7 74 86 3d 2e cb 34 3c
       -0.004341206 0.026224032 0.06565278 0.01103477
000070 e5 ec c4 bb 0e ba c8 3c 61 2d 8c 3b cd a2 c0 ba
       -0.0060096853 0.02450278 0.0042778705 -0.0014696956
000080 6b fd ad 3b 58 e4 ca bb fd 57 11 3d 12 c3 55 3c
       0.005309751 -0.0061917715 0.035484303 0.013046997
000090 f8 dc 44 bd 3e fc d4 3b 31 03 ba 3b a1 c7 9f 3a
       -0.048062295 0.006499796 0.00567665 0.0012190231
0000a0 ae 8a e7 39 0d 3a 8f bb 77 ae 8e bb ea 30 1d bc
       0.00044163078 -0.004370934 -0.004354294 -0.009594182
0000b0 a4 a1 04 bd 63 4e 16 3d e9 09 8f 3c 5f 6e 80 3b
       -0.032380715 0.03669585 0.01746078 0.0039194073
0000c0 0d 8b 5e bb 96 70 82 bc ff 8a 15 28 f5 89 4c 2e
       -0.0033957392 -0.015922826 8.3013015e-15 4.650676e-11
0000d0 c7 55 50 31 15 53 c6 32 e0 3f 5a b2 2d 5d 0a 2c
       3.0316742e-09 2.3088015e-08 -1.2703794e-08 1.9662702e-12
0000e0 0c 80 33 ac cf 82 30 b0 ea 8e 04 33 1d 07 9a b0
       -2.550851e-12 -6.4214317e-10 3.0863625e-08 -1.1206996e-09
0000f0 c0 d7 8d 2b f0 29 13 2f 23 10 fc 31 f6 0b 2f 33
       1.0078535e-12 1.3384471e-10 7.336e-09 4.075624e-08
000100 44 dd ba b2 6b 54 0b 2d f3 c7 ca af 08 2a da 30
       -2.175387e-08 7.91998e-12 -3.6885658e-10 1.5873534e-09
000110 87 93 0f 33 5b e7 b0 32 8d 4c d5 ac f2 78 90 2f
       3.3428957e-08 2.0594305e-08 -6.062323e-12 2.6279384e-10
000120 43 0d 51 32 9a 5f 36 33 2b 2d ed 32 66 59 6b 31
       1.21684165e-08 4.2462126e-08 2.7610971e-08 3.4247818e-09
000130 ec e6 d4 b0 14 c9 0f 33 cf be a7 31 29 1c 6f b3
       -1.5490662e-09 3.347766e-08 4.882032e-09 -5.5672135e-08
000140 11 71 c3 ac 96 58 0e 29 1c 0a aa b1 f7 62 b3 30
       -5.5547862e-12 3.160717e-14 -4.9488005e-09 1.3052092e-09
000150 e3 b5 8d 32 46 31 d8 30 c9 0f 12 2d 34 54 ea b1
       1.6497273e-08 1.5730073e-09 8.302644e-12 -6.819869e-09
000160 67 dc 88 32 84 23 5f b3 55 dc a5 a9 be 99 41 1e
       1.5932711e-08 -5.1953535e-08 -7.3656935e-14 1.0249128e-20
000170 98 dc 9a b0 bd e9 93 b1 9a 15 c2 b2 df 9a 40 31
       -1.1267671e-09 -4.304836e-09 -2.2594396e-08 2.8027711e-09
000180 67 d6 cb 2a 23 26 82 b0 c2 41 f8 b0 6a f2 9b 32
       3.6208815e-13 -9.469584e-10 -1.8063064e-09 1.8154612e-08
000190 d3 5d bb 3c 78 ed 61 3b 0d 1e d2 3b ec ca 13 ba
       0.022871887 0.0034473818 0.0064122737 -0.00056378427
0001a0 14 03 3d 3d a8 f3 9c bc 10 04 09 bb 70 10 bb 3c
       0.046145514 -0.019159153 -0.0020906962 0.022834986
0001b0 de 17 27 3b 0a ba 6a 3c a7 91 ae 3a 1b 42 83 bc
       0.0025496404 0.014326582 0.0013318554 -0.016022732
0001c0 26 9b cf 37 be 76 72 bd 0c 86 3b bd df b8 30 3d
       2.474857e-05 -0.059195273 -0.045782134 0.043145057
0001d0 c6 42 cc 3b ac 39 1d bc 71 39 81 3c e1 9a 99 bc
       0.006233546 -0.00959627 0.01577446 -0.01875061
0001e0 f5 05 49 bc 51 7c 98 bc 00 99 76 bc c2 c1 28 bd
       -0.012269487 -0.018613966 -0.0150511265 -0.041200407
0001f0 08 c0 d7 bd 5a e1 14 3d 74 aa 3b 3d 89 81 5d bc
       -0.10534674 0.036347724 0.045816854 -0.013519653
000200 7e 7d 92 3c 85 a5 d4 3b 75 06 54 bc e3 02 1e bd
       0.017882105 0.006489458 -0.012940993 -0.03857697
000210 fd 3e d3 3c 73 6f 83 bb 40 3c ec 3b 07 24 2b 3d
       0.025786871 -0.0040110885 0.007209331 0.041782405
000220 c9 1e 09 bd 18 6a 98 3b 3b 4c 3c 3c dd a8 2c bb
       -0.033476625 0.0046513192 0.011492784 -0.0026345768
000230 2f 65 0f bc 1a 71 56 bc 44 06 f4 3b 36 78 8d bb
       -0.008752151 -0.013088489 0.007447036 -0.004317309
000240 aa ce 05 3e 77 1d 16 3e 67 f6 a7 bd ab b5 98 bc
       0.13067117 0.14659677 -0.082012944 -0.018641314
000250 47 eb 8d bc a4 9f bf bb 2d 62 31 3c 89 56 aa bc
       -0.017324103 -0.005847888 0.01082663 -0.020793216
000260 b1 20 12 bb 03 6e 08 bb 95 a9 a5 3d 6d 4f 0d 3d
       -0.0022297318 -0.0020817525 0.08088986 0.034499574
000270 70 70 bb 3c e5 c2 78 3a 05 f3 11 3c 9a c8 13 3c
       0.022880763 0.0009489491 0.008908038 0.009019995
000280 73 c3 e4 bc 6e c9 af 3c ee ae 91 3b 75 f5 08 3d
       -0.027925229 0.021458354 0.004445902 0.03343721
000290 fb 68 59 3d 72 b2 e0 bc b9 39 b1 3c b5 62 29 3c
       0.053078633 -0.02742884 0.02163397 0.010338475
0002a0 ee 89 7a bc 9c 23 a7 3b 42 b1 03 3b 19 15 7b 3c
       -0.015291674 0.0051006805 0.0020094668 0.015324854
0002b0 24 e2 2c 3b bf 40 00 80 95 4c 03 3e 53 b5 52 bd
       0.0026379908 -2.3227e-41 0.12822182 -0.051442456
0002c0 60 0f 42 bc 55 7e 02 bb 26 36 00 80 47 a0 30 3b
       -0.011844486 -0.0019911726 -1.9425e-41 0.0026951001
0002d0 d7 62 fa bb d7 a4 80 bb 3d 30 00 80 2b 02 00 00
       -0.007641177 -0.0039259004 -1.7305e-41 7.78e-43
0002e0 ea 83 1f 3e 04 58 83 3a 69 62 e0 bd 02 34 02 80
       0.15577665 0.0010020738 -0.1095627 -2.02328e-40
0002f0 d0 61 02 80 8c 0e 9e b7 d8 fe 09 3c a3 77 0e bc
       -2.1876e-40 -1.8841842e-05 0.008422576 -0.008695516
000300 8a b5 02 00 ef 74 a6 3c 64 d2 b9 ba e7 6b c1 bb
       2.48795e-40 0.02031943 -0.0014177081 -0.0059027555
000310 d1 d7 6d bd 38 4e 01 00 a9 a0 50 3c 05 f8 fe bc
       -0.058067147 1.19895e-40 0.012733617 -0.031124124
000320 25 44 81 3c a7 86 ba 3b 57 90 1f 3c f0 e8 cb bb
       0.015779564 0.0056923213 0.009739003 -0.0062228367
000330 67 08 ae 3c 28 86 2e 3d 88 96 f5 3b f0 fa 1b 3c
       0.02124424 0.04260841 0.0074947514 0.009520277
000340 c7 29 81 3c 6f dc e1 3b 18 08 73 3c 02 72 ad bb
       0.015766991 0.006892733 0.014833473 -0.005293132
000350 36 1f a7 bb 60 eb 94 3c 7a 22 a4 3c 0e b2 6b bb
       -0.005100156 0.018178642 0.020035971 -0.0035964283
000360 ab 26 99 bc c6 bc bb 3b 50 3e b7 bc b6 88 2e 3a
       -0.018695196 0.0057292907 -0.02236858 0.0006657945
000370 6b 67 c7 3b a2 2f 20 bb 30 4b 8e ba 0d c9 de bc
       0.0060853264 -0.0024442454 -0.0010856148 -0.027195478
000380 20 93 ef bc 63 b3 1d bd 47 e3 04 bd 4c ea 25 bb
       -0.02924496 -0.038501155 -0.03244331 -0.0025316654
000390 f0 ce 87 bb cf b7 8c 3c 80 72 2e 3c f4 61 8a 39
       -0.004144542 0.01717749 0.010647416 0.00026394392
0003a0 46 fa 15 3b ed 1d 1c bd 5c e1 72 bd 5b 5e 9c bd
       0.002288477 -0.038114477 -0.05929695 -0.076351844
0003b0 f0 62 52 bb ec 6d fc 3b 23 86 b5 bc a7 b0 d7 bc
       -0.0032102428 0.0077035334 -0.022158688 -0.026329352
0003c0 6a 38 03 3c 71 ab ca 3a 49 3b 00 00 3b 1a 37 1f
       0.008009056 0.001546247 2.1268e-41 3.8773455e-20
0003d0 39 d1 2b bc d2 90 fd bd 86 b8 81 bc 95 f4 00 00
       -0.010486894 -0.12381138 -0.015835058 8.774e-41
0003e0 b0 f7 b0 26 4b 64 98 b7 1b b6 2a 3c d6 58 56 bb
       1.2279589e-15 -1.8166515e-05 0.010419394 -0.003270676
0003f0 e9 be 77 3c 3c 50 59 3c 76 6d a8 3b 55 56 c1 3c
       0.0151212 0.013263758 0.005140002 0.023600737

exp_avg f4 [32, 2, 5, 5]
000000 83 8b 75 39 17 63 93 39 c8 39 88 39 92 05 3d 39
       0.00023416993 0.00028111853 0.00025982992 0.0001802652
000010 00 6a 5b 38 9a 2c 8e 39 f4 e5 9e 39 80 a5 9c 39
       5.231239e-05 0.0002711758 0.00030307437 0.00029877946
000020 2e 64 61 39 d2 fb 91 38 11 c0 9a 39 6a 3f ae 39
       0.00021494992 6.961044e-05 0.0002951627 0.00033235113
000030 fe 52 a9 39 b8 7f 6e 39 b6 4b 9b 38 c7 89 95 39
       0.00032296026 0.00022745028 7.405078e-05 0.00028522147
000040 f8 0c ac 39 1e bf a6 39 5b d0 81 39 00 0a f1 38
       0.0003281606 0.0003180438 0.00024760034 0.00011493638
000050 61 63 83 39 17 9a a2 39 de 0a a3 39 ff f3 82 39
       0.0002506031 0.00031013854 0.0003109788 0.00024977323
000060 43 9c 28 39 b6 4e 50 39 70 a6 30 39 ed 02 e8 38
       0.0001607994 0.00019865748 0.00016846671 0.00011063167
000070 1b 24 a8 36 74 d8 fe b8 e3 b4 87 39 68 a2 76 39
       5.0109934e-06 -0.00012151981 0.00025883978 0.00023520889
000080 a5 a6 18 39 5d a4 f5 37 4d 47 ff b8 c7 a0 95 39
       0.0001455793 2.9282814e-05 -0.00012172628 0.00028539283
000090 2a 67 8d 39 cc 66 41 39 dc 43 94 38 39 f0 99 b8
       0.0002697048 0.00018444209 7.06983e-05 -7.3403535e-05
0000a0 f9 08 9f 39 41 4e 91 39 38 ae 69 39 67 15 ea 38
       0.00030333528 0.0002771486 0.00022285513 0.00011161976
0000b0 fa 76 bd b7 d5 ab 95 39 24 f7 8f 39 7f 60 71 39
       -2.2585959e-05 0.0002854752 0.0002745922 0.00023019499
0000c0 2d f3 22 39 93 9f 45 38 4c 1b 93 38 78 4f 6d 38
       0.00015540114 4.7117075e-05 7.014591e-05 5.6579214e-05
0000d0 dd ba 2f 38 1c bf fe 37 00 85 91 37 df bc 6b 38
       4.189728e-05 3.0368152e-05 1.734728e-05 5.6204266e-05
0000e0 84 5c 39 38 be 33 f1 37 d7 c6 a7 37 18 a7 26 37
       4.41936e-05 2.8753533e-05 2.0000543e-05 9.933276e-06
0000f0 8b 85 37 38 12 42 10 38 3f c7 db 37 5f 34 ab 37
       4.375497e-05 3.4393808e-05 2.6199616e-05 2.0409176e-05
000100 5e a7 64 37 2d 8e e7 37 4a 28 c9 37 af 1e 9a 37
       1.3628827e-05 2.7603552e-05 2.3979828e-05 1.8372519e-05
000110 68 00 5d 37 0e b7 c8 36 2a 64 86 37 9f d1 80 37
       1.3172721e-05 5.981775e-06 1.6020687e-05 1.5356401e-05
000120 fd 8b 42 37 7b 38 2a 37 8b 34 da 36 25 78 5d 38
       1.1595895e-05 1.014594e-05 6.503023e-06 5.28024e-05
000130 2e a0 29 38 54 7d d7 37 e2 3f 52 37 5f 42 e2 34
       4.044192e-05 2.5688358e-05 1.2531849e-05 4.2144072e-07
000140 0a 08 37 38 5d 67 0b 38 45 b8 a0 37 90 40 42 37
       4.3638087e-05 3.3236447e-05 1.9159294e-05 1.1578333e-05
000150 73 5a bb 35 ea bd 28 38 79 d5 ff 37 b6 00 8a 37
       1.395891e-06 4.0231193e-05 3.0497775e-05 1.6451213e-05
000160 3b f1 33 37 c7 47 a4 36 3d 6a a7 37 ab b1 87 37
       1.0725397e-05 4.895937e-06 1.9957422e-05 1.6175987e-05
000170 c7 49 46 37 bb 8c d3 36 ad 1c 86 36 ab e0 50 37
       1.1818897e-05 6.304673e-06 3.9968495e-06 1.2450076e-05
000180 cb 58 47 37 90 25 09 37 83 c6 ba 36 c4 c7 9f 36
       1.1881998e-05 8.174582e-06 5.5663418e-06 4.761825e-06
000190 de f3 74 b8 3e b2 10 b8 6a e0 75 37 dd 34 92 38
       -5.8401252e-05 -3.4498276e-05 1.4655388e-05 6.971669e-05
0001a0 28 6f 24 39 f4 35 ca b8 4d 61 94 b8 ef ac 16 b7
       0.00015681668 -9.64216e-05 -7.0753136e-05 -8.980961e-06
0001b0 d8 23 d3 37 81 e7 dc 38 b1 d0 f4 b8 25 66 ea b8
       2.5169851e-05 0.000105335384 -0.000116736985 -0.000111770154
0001c0 ba 85 68 b8 59 0a c7 b7 87 ad f8 37 9f 7c 32 b9
       -5.5437653e-05 -2.3727467e-05 2.9644709e-05 -0.00017021828
0001d0 68 54 29 b9 f5 88 e2 b8 f7 9c 92 b8 3b 19 f6 b7
       -0.0001614854 -0.0001080203 -6.9910595e-05 -2.9337234e-05
0001e0 7b f4 84 b9 18 c8 81 b9 d6 e4 6c b9 04 a3 41 b9
       -0.00025359154 -0.0002475388 -0.00022591962 -0.00018466642
0001f0 72 45 27 b9 79 f6 12 38 d0 ec 12 38 d8 5d 86 38
       -0.00015952231 3.5038658e-05 3.502966e-05 6.407098e-05
000200 6d 2f 04 39 bd 2a 5c 39 47 36 3a 37 31 35 fc 35
       0.00012606168 0.00020996756 1.1099101e-05 1.8790944e-06
000210 d3 8b 01 38 1c d8 b5 38 b4 99 22 39 73 07 5e b8
       3.0886218e-05 8.671006e-05 0.00015506783 -5.2935862e-05
000220 30 9e 1c b8 cc 63 ea b7 da 27 ea 37 36 1f d5 38
       -3.7340622e-05 -2.7941445e-05 2.7913531e-05 0.00010162445
000230 72 3e a1 b8 6e ff a8 b8 6c 6e 75 b8 a1 f2 ee b7
       -7.6887096e-05 -8.058442e-05 -5.851539e-05 -2.8484794e-05
000240 90 e1 12 38 76 f4 43 b9 ad 86 4a b9 09 0d 2d b9
       3.5019184e-05 -0.00018687718 -0.00019314392 -0.00016503422
000250 24 bd 22 b9 83 5b d1 b8 a1 fd 82 35 0b 85 3c 35
       -0.00015519984 -9.982942e-05 9.75957e-07 7.022906e-07
000260 53 50 39 b3 ba dc 25 b5 8b 48 86 b6 6e 82 f7 35
       -4.3146724e-08 -6.178849e-07 -4.0019563e-06 1.8440894e-06
000270 f3 40 0f 35 2c 01 94 34 21 31 2a b5 ed 31 1f b6
       5.3366165e-07 2.7568e-07 -6.3401427e-07 -2.3721907e-06
000280 10 e0 d6 35 66 5e d4 35 37 c8 1f 35 2b 6f 51 b5
       1.6009453e-06 1.5822704e-06 5.9523467e-07 -7.802034e-07
000290 ca 86 b9 b5 1a ed c7 35 8c e7 aa 35 67 3a 51 35
       -1.3822803e-06 1.4895661e-06 1.2733376e-06 7.7943554e-07
0002a0 54 18 13 b3 15 ea ae b4 a1 e3 9d 35 3d 83 d2 35
       -3.424823e-08 -3.2580343e-07 1.176366e-06 1.5684415e-06
0002b0 48 fa 96 35 5f c0 1c 35 ed 44 2d b2 fa c9 85 34
       1.1248712e-06 5.8394465e-07 -1.0085597e-08 2.4920138e-07
0002c0 b4 f5 bc b4 dd 4a ce b5 17 61 0d b6 44 b1 2f b6
       -3.51965e-07 -1.5369984e-06 -2.106715e-06 -2.6180214e-06
0002d0 97 62 60 35 07 a3 b2 b3 e9 8e 95 b5 e8 94 66 b6
       8.358997e-07 -8.3184254e-08 -1.1142957e-06 -3.4359346e-06
0002e0 b7 14 58 b6 17 9c 9b 35 37 9b cb 34 0a a1 12 b5
       -3.2198566e-06 1.1593828e-06 3.792463e-07 -5.462358e-07
0002f0 0b 21 11 b6 54 69 1f b6 fc ee 58 35 ff a5 f8 34
       -2.1625917e-06 -2.3754155e-06 8.081404e-07 4.6314378e-07
000300 d5 a7 f1 b4 56 2d 96 b5 bb 08 23 b6 60 08 cd 35
       -4.5011862e-07 -1.1189065e-06 -2.4293975e-06 1.5276128e-06
000310 53 22 62 35 3a 47 0a 34 64 de a1 b4 af 5b 37 b5
       8.424151e-07 1.2878164e-07 -3.0150397e-07 -6.830623e-07
000320 c7 6b 6e 38 58 cb dd b8 88 75 a5 b9 28 d2 04 ba
       5.6843997e-05 -0.00010575977 -0.0003155882 -0.0005066716
000330 35 53 26 ba 47 80 88 b8 2a dd 85 b9 a8 14 fe b9
       -0.0006344796 -6.508879e-05 -0.00025532517 -0.00048462045
000340 0e 8f 3d ba c2 f3 69 ba 85 e2 a7 b9 01 44 f8 b9
       -0.00072310946 -0.00089245674 -0.00032021492 -0.00047352913
000350 0a 67 44 ba 2b e1 82 ba a3 ea a0 ba 27 6b bb b9
       -0.00074921607 -0.0009985318 -0.0012276958 -0.00035747254
000360 84 71 08 ba f7 a3 49 ba ff 91 87 ba 8b 63 a5 ba
       -0.00052049034 -0.0007691974 -0.0010343193 -0.0012618167
000370 e4 44 c1 b9 60 93 08 ba 3c 9b 42 ba b1 a1 80 ba
       -0.00036863156 -0.0005209949 -0.00074236444 -0.0009813813
000380 c2 fe 9e ba 8d 68 b1 38 25 e6 34 b9 8b 7c ed b9
       -0.0012130367 8.459492e-05 -0.00017251873 -0.00045296954
000390 df 0b 4a ba ae 3d 89 ba 35 a7 52 b7 25 4a 92 b9
       -0.00077074574 -0.0010470652 -1.2555906e-05 -0.00027902532
0003a0 ca 4f 23 ba 76 24 81 ba 11 8a af ba 43 ea 85 b9
       -0.0006229846 -0.0009852785 -0.0013392587 -0.00025542275
0003b0 90 be 13 ba aa 12 6a ba 6f 27 aa ba 5b b3 da ba
       -0.0005636001 -0.0008929173 -0.0012981723 -0.0016685532
0003c0 17 cd a6 b9 b1 6e 1e ba bf d0 70 ba 03 66 ad ba
       -0.0003181479 -0.0006043716 -0.0009186379 -0.0013229254
0003d0 37 ea dd ba 10 fa bb b9 cb d7 1c ba 5c 11 6b ba
       -0.0016930763 -0.0003585373 -0.00059830834 -0.00089671253
0003e0 1f 48 a4 ba b7 d6 cf ba ad 55 e9 37 c8 bc ac 38
       -0.0012533701 -0.0015856837 2.781566e-05 8.2367624e-05
0003f0 10 82 24 39 b9 c6 48 39 57 2d 47 39 74 d6 bf b5
       0.00015688711 0.00019147516 0.0001899501 -1.4293023e-06
