results/2BS/T_1/L_6000/seed1/model_best.pth.tar (torch_old, 395613 bytes, 22 tensors)

layer1.conv.weight f4 [32, 2, 5, 5]
00000000: 4a1e 8a3b a4dc c33d ebcc f0bc c9b9 70bd
00000010: daf7 81bb c07b 88bc 15fe e1bc d4c7 88bd
00000020: 0e76 153d a588 8f3d 201c 82bc 1952 3e3d
00000030: 6bc7 d03d 17af 84bc 6a83 e13c 1350 513c
00000040: e067 7f3d e5b6 4cbd ef6b 9fbd 1c99 2c3c
00000050: 3e5c 60bd 09f8 66bd 204a b83d 8152 e2ba
00000060: bbad ca3d 7757 89bd b2da 53bc 669b 8f3d
00000070: 3a9f a2bc 91a5 063d 2622 b73a 00b3 5e3d
00000080: e00a ecbc da1b f5bc b6d6 a23c 0c58 d13c
00000090: 7352 463d a9bd 9bbd df31 fa3c 4ffc 9f3d
000000a0: c264 243d 34ae 7dbd 7fab 023e b444 8e3a
000000b0: 870d 893d 6c10 bfbd 8963 843d b0e6 a1bc
000000c0: 0ecd 33bc f489 353b 091b ff3c f3f9 39bb
000000d0: 5564 753c f4a4 ff3c b160 e4bb c02a 0c3c
000000e0: d64c 13bc 6d5f 0fbd a7d5 48bc 9d9f ebbb
000000f0: 0bfe 9a3b d763 91bc 656e 61bd 2c9f 69bb
00000100: 0d50 813c f711 0abd 0ec5 3f3d 99c9 d33c
00000110: 77b5 663c 1c60 82bd 7907 6b3c f37b a33c
00000120: 3ead 6a3c b679 03bc 3975 c3bc 77df efbc
00000130: ad8a a83c 856e 213d 4066 603d 9d3c 0fbd
00000140: 23fa db3c dbf7 a43d b4e8 cfbc 9c70 d33d
00000150: 0e1f 9dbb 5ecc 733d 79d9 243d c588 50bd
00000160: 2745 98bb d7f7 e1bc d0a1 d5bd fa44 bebd
00000170: fb64 f7bc 42f1 803a 8369 46bc 9c8a 85bd
00000180: a8dd 203d c135 0ebb 940d 323c 1e38 163d
00000190: 2637 a4bd c615 333d 5f1c cd3c c39b e9bb
000001a0: cf8d a03d beda 0dbd 03f2 56bd 5994 bf3c
000001b0: 8a89 e1bd 21c8 e2bd 63f1 803c ed97 16bd
000001c0: 29f5 fb3b 9812 34bc 2433 d1bc bd90 353d
000001d0: 7b16 88bb 88be 803d ba17 4dbd 2094 bbbc
000001e0: f3a0 803d 1721 3f3c f002 bcbc 9081 58bd
000001f0: 3c2d b9bc cffd 0bbd f7b3 9bbd 224c 89ba
00000200: 3efc 83bb 6a42 a7ba 36f9 10bc 45c4 96bd
00000210: cdb8 abbc a16f 0fbc 4c57 f3bc 6dfb 2ebd
00000220: ee9c cf3c e805 a3bd 8628 4cbd ad84 e2bc
00000230: cdab edbb f7b2 45ba 7727 2f3c bffa 503d
00000240: 070d 1fbc 957d 323d 46d1 88bc a514 55bd
00000250: 2865 6ebd 8c88 72bc f487 b7bc a891 fdbc
00000260: d88c 373b ed77 753c 650a a2bd e6eb 823d
00000270: 1b2d 97bd 09c1 23bb e661 c83b 383d 81bc
00000280: 69b1 b83c aea3 9a3d 5b35 733c 667e 85bd
00000290: ed9e a5bb d12a f039 9d8d 663b b400 05bc
000002a0: 3ae5 b6bd 7714 f23c 29c3 3cbd 90ec 263d
000002b0: a9f8 b4bc 3f97 ec39 1720 14bb ab1b 53bd
000002c0: ce3a b9bb 3cfa d73b bde1 1b3d ed1e a03d
000002d0: 2846 5e3b 6b49 0b3c 94ff 263c ce38 75bd
000002e0: 36c2 473d b755 013d 0b5e 1d3d 9942 383d
000002f0: 4563 b9bc d21b 593d 9fa0 2cbd 19ab 2ebc
00000300: cefd 7fbd 69bf 5ebc 5c94 bbbc fe7e 2c3d
00000310: 34ea 9cbc 6464 93bd 5414 803c ee99 363d
00000320: 3475 c73c 36de 853d c8e3 fa3d 5851 223d
00000330: 6397 313b b271 46bd a17c 023d f520 b23d
00000340: c8a8 84bd 4ac0 873d 3e21 bfba fd37 743d
00000350: 7b5c d3bc 06b5 323c 6cf8 093e b2ba 0bbd
00000360: 3098 863d 8000 053d d54d 1d3d 07df bb3d
00000370: 3c60 0d3d 6ef4 93bd 0fc3 3bbd 6a4f 053d
00000380: 8fda 423d 79de 5ebd 4f6f 92bd d336 17bd
00000390: 8682 d43b 3957 c0bc df44 eebc d7a9 703c
000003a0: 838c 84bd 0bf1 153d 7536 e33c da24 d1bd
000003b0: 1122 febb b5c6 7f3c 7ce9 dfbc 8a6d 08bd
000003c0: 135c b1bc f094 dfbd 0711 66bd 89d0 16be
000003d0: 5816 403c a6fa 6fbd ab24 77bc b4e9 0f3d
000003e0: 577b 9c3c ef9f b1bb b90b 84b8 63f6 163c
000003f0: bff0 8f3d f076 9cbd 90da 693d c700 25bd
0.0042150365 0.09563568 -0.029394588 -0.05877093 -0.003966314 -0.016660571 -0.027586976 -0.06678739
0.03648954 0.07008485 -0.015882552 0.046465013 0.10194286 -0.01619677 0.027528483 0.012775439
0.062354922 -0.04997911 -0.077842586 0.010534551 -0.05477547 -0.05638889 0.08998513 -0.001726702
0.09896418 -0.06706136 -0.012930559 0.07012062 -0.019851316 0.03287274 0.0013971969 0.054369926
-0.02881378 -0.029920507 0.019877773 0.02555468 0.048418473 -0.07604534 0.030541359 0.07811796
0.040135153 -0.06193371 0.12760733 0.0010854215 0.06692033 -0.09329304 0.06464297 -0.01976332
-0.010974182 0.0027700635 0.031140821 -0.002837774 0.014977534 0.031206585 -0.0069695343 0.008555114
-0.008990487 -0.035003114 -0.01225797 -0.0071906582 0.0047299913 -0.017747803 -0.05503692 -0.0035647852
0.015785241 -0.03370854 0.046818785 0.025852965 0.0140813505 -0.06365988 0.014345043 0.019956565
0.014323531 -0.008024624 -0.023859607 -0.029281361 0.020573938 0.03941204 0.054785013 -0.034969915
0.026852673 0.08055087 -0.025379516 0.10324213 -0.004794962 0.05952107 0.04024646 -0.050911684
-0.0046469155 -0.027584 -0.10431254 -0.092905 -0.030199518 0.0009837525 -0.012110117 -0.06520578
0.039273888 -0.002169952 0.010867495 0.03667461 -0.08018331 0.043721937 0.025037942 -0.007129164
0.07839548 -0.034632437 -0.052476894 0.023386167 -0.110125616 -0.11073328 0.015740102 -0.03676598
0.0076891375 -0.010990761 -0.025537081 0.044327486 -0.0041530705 0.06286341 -0.050071456 -0.02289778
0.062806986 0.011665604 -0.02295062 -0.052857935 -0.022604577 -0.034177598 -0.07602685 -0.001047496
-0.0040278723 -0.0012760882 -0.008848479 -0.07361654 -0.020962143 -0.008754642 -0.029704712 -0.042720247
0.025343385 -0.07960111 -0.049843334 -0.027651155 -0.0072531463 -0.00075416215 0.0106905615 0.05102038
-0.009707696 0.043576796 -0.016701352 -0.05202164 -0.05820194 -0.014803063 -0.022403695 -0.030953243
0.0028007533 0.014982206 -0.07912139 0.0639265 -0.0738165 -0.0024986884 0.006115186 -0.015776262
0.022545533 0.07550751 0.014844264 -0.06518249 -0.005054346 0.00045808268 0.0035179623 -0.008117843
-0.0893044 0.029550774 -0.046084557 0.040752947 -0.022091227 0.00045126115 -0.0022602135 -0.051540058
-0.005652762 0.0065911096 0.038057078 0.078183986 0.0033916328 0.008501391 0.0101927705 -0.059868626
0.0487692 0.031575885 0.038419764 0.044985387 -0.022630343 0.053005047 -0.042145368 -0.01066091
-0.062497906 -0.01359544 -0.022897892 0.042113297 -0.019154646 -0.07196882 0.015634693 0.044580393
0.024347879 0.06536524 0.12250477 0.039628357 0.002709829 -0.048448272 0.031857137 0.08697692
-0.06477505 0.06628473 -0.001458205 0.059623707 -0.025800934 0.010907417 0.13473672 -0.034113593
0.06571996 0.03247118 0.038404305 0.091733985 0.034515604 -0.07224356 -0.04584032 0.03254644
0.047571715 -0.054411385 -0.07150137 -0.03691752 0.006485286 -0.023479091 -0.029085575 0.0146889305
-0.06472113 0.03660683 0.027735928 -0.10212107 -0.007755526 0.01561134 -0.027333014 -0.03330759
-0.02165035 -0.109170794 -0.056168582 -0.14727987 0.011724077 -0.058588646 -0.015084426 0.035134986
0.019101782 -0.005420677 -6.296434e-05 0.009214017 0.070283405 -0.07639873 0.057093203 -0.040283944

layer1.conv.bias f4 [32]
00000000: 887a 343c 2896 b5bd ff35 cf3c 41d2 0abe
00000010: b2b1 1a3e b70d cdbd 7c72 3a3d 425d d83d
00000020: 945e e03d 7f43 723c 711a c03d 63e4 9ebd
00000030: ac79 87bc 8159 6139 a4a8 8cbd 6e2f 90bd
00000040: b25a e53d 9d15 58bd c033 96bd 875e c93d
00000050: d3bd abbd 6705 24bd 0ab7 cb3d 4d3f 08bd
00000060: 16e1 fa3c d8db a93d 7f5c f03d 68e3 b2ba
00000070: 3949 e03d af31 ef3d 1420 3d3d 8ffa fe3c
0.011015542 -0.08866531 0.025294302 -0.13556768 0.15106848 -0.100123815 0.045519337 0.105646625
0.10955539 0.0147866 0.09380043 -0.07758405 -0.01653751 0.00021491015 -0.06868103 -0.070402965
0.111989394 -0.052754987 -0.07334089 0.09832483 -0.083858155 -0.040044215 0.09947021 -0.033263493
0.030624907 0.08293885 0.11736392 -0.0013648095 0.10951466 0.11679398 0.04617317 0.031125335

layer2.conv1.weight f4 [32, 32, 3, 3]
00000000: 3a85 353d b5a6 a3bd de8c 8cbd 4b55 963c
00000010: 0f77 58bd 3e52 a93d 264f 2fbc d8ee babd
00000020: d2a5 533a 43f0 f43b ea56 bd3b 85ba 40bd
00000030: a363 5dbd 9915 0bbc 2d07 9abd f94b 85bd
00000040: 0ff3 953c d53d a73c 0815 3ebe 23ea c83c
00000050: 7f92 8d3d 1dfb 63bd c587 1c3c c1c9 e53c
00000060: 5f9e f33d 9940 263e eb42 c63c 6162 d4ba
00000070: ef77 2ebc ddbc e4bc 35e5 163d 62dc 8e3c
00000080: 221d cf3d dee3 12ba 41fe d3bd 24a6 a33c
00000090: dd25 debd 3920 88bc 1aba 483d a018 18bd
000000a0: c0fe a9bd f00d 1d3d 0e00 c5bc 3e5e 87bd
000000b0: b4b7 05be 0161 053e e4af ee3d db49 ab3c
000000c0: 83bd 5cbd 5bff 2e3b e1d2 943d 123d 53bd
000000d0: 5482 4cbd 6397 003e 9c45 4fbd e4ba f2bc
000000e0: 2ede 933d 7728 1e3c bb6c 563d 0f7e 5fbd
000000f0: 320f 1dbd 0729 aebd b683 cb3d bc52 8fbd
00000100: 2783 efbd 88e0 263d 4b4e f7bb 4189 b53d
00000110: 4ed9 32bd f70c 95bb c506 5abd 0a08 13bd
00000120: 8b99 85bd 163b 26bc eae7 0b3d 3eb9 e63d
00000130: a0f1 eb3c 9595 cb3c 6ecb 85bd 2c51 033e
00000140: 300a 31bc 61b1 0e3d 2eee acbd a475 1e3e
00000150: 238e 573d 42f4 b53c b91a d53d 1d6c dcbd
00000160: aa1b 683d b231 673d 1da6 3d3d 1d81 243a
00000170: 812c a03c ca55 26bd b9bb e43c 7018 a43c
00000180: 3617 4fbd 23d3 843d 7319 e4bc b3cb 39bd
00000190: 3e4a a23d 3e18 9a3d 9300 c7bd b3a1 7d3c
000001a0: 7aad f8bc 8248 f3bd cd33 abbb 431b b93c
000001b0: 3bb7 48bd 19eb 29bd 71ed 3fbd d477 83bd
000001c0: 76c2 223d 0eb5 3cbe b05a b1bd a039 73bc
000001d0: 73db 36be e77e e3bc 840d 5e3b 769d 17bc
000001e0: 0877 1d3d d012 233c fcba 133d 524f 67bc
000001f0: 962e 0fbe f0c2 e2bc f6c6 25bd 869a aa3d
00000200: b4a5 74bc b8c7 243d f71d 3a3e 64ef 0bbd
00000210: 1135 613d a3ab 01bd 4943 043d 6c44 cabd
00000220: a6e5 c5bc 3632 d5bc e5d2 453d 0b30 95bd
00000230: 7d9e 04bd b9ba 673d 7894 56bd fa7b 973a
00000240: 825b dc3d f2ce fcbc dd2d ff3d b0d5 fabc
00000250: 849d b23d 0b23 7cbb cd31 e8bc c9ec e3ba
00000260: 2310 523d 4c3a 943d a4a2 163d 9cfc 4bb9
00000270: 8e32 353c f9de 213d 0f8c 1f3d 5963 adbc
00000280: 4e39 f8bc 45ae d83c 2876 b33c 5cf3 c13b
00000290: 0153 cebc ca9f 293d 71b6 3b3c 9e73 b53c
000002a0: 8754 2abb 6928 05bc 592c 8e3b 2827 31be
000002b0: 702d 7a3d 8481 acbc f0c5 92bd f4f8 353d
000002c0: b3f1 f7bc 6a7c 95bd b64b 3fbd aa4d 693d
000002d0: 0051 743d e625 f03d f5fa e0bd e203 b6bd
000002e0: f290 b3bc 53a5 073e 6f1e 4b3c 35e8 ed3c
000002f0: 2b82 453d cd1a 91bc d05e 5e3d 4f47 043c
00000300: 869f f93c e514 48bd b986 a43d 8220 b7bc
00000310: 2508 433e f39b a0bc e683 5e3b bd52 2e3d
00000320: 0018 29bd 59f8 41bd 62d6 04be 1fa3 c43d
00000330: 8ad1 0c3d 6fd6 06bd 93ce b33d 2b51 97bd
00000340: 0714 6cbc 5e17 183c 852b ac3d d8b2 92bd
00000350: 7fc7 c23c 252f 01be ca03 cabb 4e83 09be
00000360: 1b79 4e3d 54f1 e1bc 802d af3d 57e9 623d
00000370: a46b 063c b0d9 12be 0b97 2e3d f71e 46bd
00000380: 3f70 553c d96f a83d 22d3 d33d c529 5c3d
00000390: 05a3 2bbd 8b67 da3d 23e0 9fbd 233c 01be
000003a0: 879a d03c e537 88bd 0b2f 483d c856 4a3c
000003b0: aa85 083e e093 6a3d d2fd 61bd 23a1 563d
000003c0: 93fd 123e 54fe 0cbb 9329 bcbc 1a4f 7ebd
000003d0: 9af2 a73d f683 f0bc 0f4d 50bd b6d2 383b
000003e0: 77e4 dfbd 567d 70bd ac2b eabc 2d10 71bd
000003f0: 2c97 aa3d 0deb d33c bd0c d5bd 2cc8 57bd
0.044316508 -0.07990781 -0.06862806 0.018351218 -0.052847918 0.082676396 -0.010700023 -0.09127587
0.00080737204 0.0074749305 0.005778183 -0.04705288 -0.0540501 -0.008489036 -0.075209 -0.06508631
0.018304376 0.020415226 -0.1856271 0.024525708 0.069127075 -0.055659402 0.009553854 0.028050305
0.11895441 0.1623558 0.02420183 -0.0016203636 -0.010648712 -0.027922088 0.036839683 0.017439071
0.101129785 -0.0005603413 -0.103512295 0.019976683 -0.108470656 -0.016616927 0.049005605 -0.03713286
-0.08300543 0.03834337 -0.024047878 -0.06609772 -0.13058358 0.13025285 0.11654642 0.02090924
-0.05389167 0.0026702497 0.072667845 -0.051571913 -0.049928978 0.1255775 -0.050603494 -0.029630132
0.07220112 0.009653202 0.052349787 -0.05456358 -0.03834457 -0.08503919 0.09937231 -0.06998202
-0.11694937 0.040741473 -0.007547175 0.0886407 -0.04366427 -0.0045486647 -0.053229112 -0.03589634
-0.065234266 -0.010145923 0.034156717 0.11265801 0.02880174 0.0248516 -0.06532942 0.12823933
-0.010805652 0.03483713 -0.08443867 0.15474564 0.052625787 0.022211198 0.104054876 -0.107628085
0.056667008 0.056443878 0.046300996 0.0006275343 0.019552471 -0.04060916 0.027921544 0.020031184
-0.050559245 0.06485584 -0.027844166 -0.04536028 0.07924317 0.07524155 -0.097169064 0.015480447
-0.030356158 -0.11879064 -0.005224681 0.022596007 -0.049002867 -0.041483972 -0.0468573 -0.0641934
0.039736234 -0.18428442 -0.086598754 -0.014845282 -0.1785715 -0.027770473 0.0033882568 -0.00925385
0.038443595 0.009953216 0.036066994 -0.0141180325 -0.13982615 -0.027680844 -0.040472947 0.08330254
-0.014932085 0.04022953 0.18175493 -0.034163848 0.05498225 -0.031657826 0.03229073 -0.09876332
-0.024157356 -0.026024919 0.048296828 -0.07284554 -0.03237771 0.056574557 -0.052387685 0.0011557334
0.10759641 -0.030860398 0.124599196 -0.030619472 0.0872145 -0.0038473036 -0.02834406 -0.0017389293
0.05128492 0.07237682 0.0367762 -0.00019453693 0.011059416 0.039519284 0.03895193 -0.021165537
-0.030300763 0.026450286 0.021906927 0.0059189033 -0.025186064 0.041412152 0.011457072 0.022149857
-0.0025990324 -0.00812731 0.0043387827 -0.17300093 0.06107849 -0.021057852 -0.0716666 0.044426873
-0.030266618 -0.07299121 -0.046703063 0.05695883 0.05964756 0.117259786 -0.10985366 -0.08887459
-0.021919701 0.1324666 0.012397393 0.029041389 0.04821984 -0.017712975 0.05428964 0.008073642
0.030471575 -0.04884805 0.08033509 -0.022354368 0.19046076 -0.019605612 0.003395313 0.042559374
-0.041282654 -0.047355983 -0.12972406 0.096014254 0.03437952 -0.032919344 0.08779635 -0.073885284
-0.014409072 0.009282915 0.08406738 -0.07163018 0.023776768 -0.1261564 -0.0061650025 -0.13428995
0.050408464 -0.027580895 0.085536 0.05539831 0.008204374 -0.14340854 0.042624515 -0.048369374
0.01302725 0.08224458 0.10343005 0.053750772 -0.041903514 0.106642805 -0.078064226 -0.12620597
0.02546431 -0.06651286 0.04887299 0.012349792 0.13332239 0.05726993 -0.055173703 0.052399766
0.14354543 -0.0021513896 -0.022969043 -0.062087156 0.082005695 -0.029359799 -0.05085474 0.0028201765
-0.10932248 -0.05871328 -0.028585277 -0.058853317 0.08329615 0.025868917 -0.1040282 -0.052681133

layer2.conv1.bias f4 [32]
00000000: e528 6d3d 60f5 3f3d a73f 36bd 8f60 193d
00000010: d0c0 8f3c 816b 823d c49c 7dbc 3dd6 92bb
00000020: edaf eaba e43e 133d 377f 0b3c 140e da3c
00000030: 55f1 1bbd 3532 0cbd 3037 803c 0571 2d3d
00000040: 1643 863b af14 b1bc c45d 5a3d 894f 9ebc
00000050: 791e 5bbd bfb0 33bd cc4b 65bd 6f70 203d
00000060: e8a6 ba3c 1f06 f23c 0923 06bc 6c73 4ebc
00000070: 9362 043d 52b5 0ebd 0880 453c 0143 b83b
0.05790033 0.046864867 -0.044494297 0.0374456 0.017547995 0.06368161 -0.01547927 -0.0044811056
-0.0017905213 0.03594865 0.008514217 0.026618041 -0.03807195 -0.03422757 0.015651315 0.042344112
0.0040973527 -0.021616308 0.053312078 -0.019325035 -0.053495858 -0.04386973 -0.05598049 0.039169725
0.022784665 0.029543934 -0.008187064 -0.012600761 0.03232057 -0.03484089 0.012054451 0.005623222

layer2.conv2.weight f4 [64, 32, 3, 3]
00000000: 981d e4bc 4fa2 cbbc a79e a1bc c8fe e03c
00000010: 15c0 b2bc f888 90bd 7553 36bc 93db 223c
00000020: 717c f23c af51 d63c 02e6 dfbb decd 6dbd
00000030: 45cf e3bb cba5 393d bd12 493d fbcd 303c
00000040: 19df f4bc 6a43 4fbd 89a5 d63c 72f7 e43b
00000050: 4319 6a3d c403 2a3d 860e 96bd 3b1d 893c
00000060: 8e98 8a3c 884e 04bd 88a3 173b b8c2 10bb
00000070: 1582 123c 4e8b cebd be8c 403d 56bd 973c
00000080: a6f8 dc3c e949 c23c c5fd 7a3c 09c5 783c
00000090: f4c6 98bc fd13 12bc a4e3 0ebd 1122 483d
000000a0: e470 e23c d252 c0bb 2655 223d 33ad e9bc
000000b0: 8f18 a33c 44a6 743d e03c 1c3d 1c51 c3bd
000000c0: 23c3 69bd dd45 49bc 88f4 723d 8b58 5d3c
000000d0: 512b 8bbd 8149 7abd f582 a73d 4e9f 25bd
000000e0: 9912 ddbc c676 683d 8fcc bd3b 079e 4f3c
000000f0: 4cf4 773c 36e2 3c3c f29b 2d3d 5905 8ebd
00000100: 29e6 363d f17c 27bd 7bba e53b 57f0 c33c
00000110: ab8b 073d 22a5 90bc d9e4 06bd 90de 043b
00000120: 3447 6b3d c67f 3abc 7789 dfbc f70e f83c
00000130: 689e 7c3c 938c 67bc 4cb3 383c 59ca c33c
00000140: 240f 89bc 7cea 793d a48e 0f3d 41ef b1bb
00000150: e43a f03d 4c80 b53d 9031 423b e8a6 b4bb
00000160: 61c4 873c 501b bdbc c88d 37bd 9c8a 8dbd
00000170: a968 64ba ec25 bd3b cb4a a53c 0da0 90bc
00000180: 7778 dfbc 4c94 59bd 9ea9 3f3c eb4a 1abc
00000190: 7b57 133d 0a28 eebd 91b5 5e3d 354a d5bc
000001a0: 0967 c1bc be4c dbbb e60a bdbb 3412 c7bb
000001b0: 734f 88bc 5ba2 c6bb 836e 5bbb 5a04 883d
000001c0: 2e6f 0c3d 4fc2 c8bc 49bc a73a d4fc eabc
000001d0: 9593 643d 7050 543d b542 a8bb 32d2 11bb
000001e0: f8fe 69bb 6a75 933b c611 37bd 1072 4a3b
000001f0: a66c 86bb 5223 44bc 500f e0bb 7c09 9e3d
00000200: c544 0bbd 3737 c23d 23d3 fa3c 83f9 04bd
00000210: a46c c33c bfa5 74bd 4e57 1e3c 5465 a73c
00000220: a209 65ba d5be a8bc b5e4 ea3c e468 bdbc
00000230: d6ed 913c dd98 913c d974 39bd 0b1d 37bc
00000240: 3ac7 29bd 8fdb ca3c 48bf c9bc 7137 b63b
00000250: 9c20 4c3c 2abc 233d 3ad4 c33c 1ce5 a03c
00000260: 9bc5 bb3c 631e a53d f823 edbc af76 4b3d
00000270: b67c b03c 6514 dfbc 6f18 64bc b0a6 94bc
00000280: 2f1a 093d bb84 9abc 70ff 45bc 8123 57bb
00000290: 2ed3 c4bd 339d 3f3d abaf 7fbc 44e9 a4bc
000002a0: b52c 773d 0dd7 fc3d 91f5 91ba f4d8 8a3d
000002b0: 3235 03bd 7c63 5dba 6394 3d3d 0a40 483d
000002c0: 414f 89bc 68a1 093c 3cb0 cd3d 9173 9ebc
000002d0: ddb9 9abd c325 41bd 8793 343d 1258 b0bd
000002e0: 876d 32bc 59f5 05bc 629d 15bc 44c8 493d
000002f0: 0bcf 0c3d 7aa3 afbc 23fa 95bd 8172 99bc
00000300: 3f6f 9bbc d5a7 aabd a72c ad3b dec2 8d3c
00000310: 2101 c7bc 32d5 a43c 8185 0e3e 4b24 253c
00000320: 232a 213a 6444 0c3d 1b0c 443c 90a1 afbc
00000330: eee2 2abd 88a1 7fbc 0473 3fbd d51f f1bc
00000340: 3ab7 d43c 8165 c5bb af86 9d3c 926e 78bd
00000350: 740f 3a3b 9cac 023d 386e b93b 231a a5bc
00000360: 4b1c 433a 8a25 853c d8e0 ba3c 1345 2cba
00000370: 08ad a93c bfea d8bc 8730 99bb 48cc 063c
00000380: e9e6 f6bc 5d62 01bc f065 5ebc d386 613c
00000390: bcde 66bb c9c3 203c 8a8e 6fbb 4607 c9ba
000003a0: 3f05 a23c 4e03 f53a 6d8d cabc 3071 973d
000003b0: dfe9 453d 80d2 91bc 3925 6a3d 6672 e8bc
000003c0: 2bea aebc eef8 e63c 08c3 04bc d441 c9bc
000003d0: 28ee 04bc fdf2 d5bc fd19 fc3c 3a53 2a3c
000003e0: 21db 203d 26ff f93c 8e36 063b 289e df3c
000003f0: 09cb e03c de4b c13d c475 0dbc 841a da3d
-0.027846143 -0.024857668 -0.019728972 0.02746524 -0.021820107 -0.07057375 -0.011128296 0.009940046
0.029600354 0.026161997 -0.006832839 -0.05805766 -0.0069521987 0.045324128 0.049090136 0.010791297
-0.029891538 -0.0506014 0.02620198 0.0069875056 0.057152998 0.041507497 -0.07326989 0.016737571
0.016918447 -0.032301456 0.0023138244 -0.0022088718 0.008942147 -0.10085164 0.047009222 0.0185229
0.026974034 0.023716884 0.015319292 0.015183696 -0.018649556 -0.008915898 -0.034885064 0.048860613
0.027641721 -0.005869248 0.039631985 -0.02852497 0.019909171 0.059728876 0.038143992 -0.09536955
-0.057070863 -0.012284723 0.059315234 0.01350988 -0.06795371 -0.061105255 0.08179275 -0.040435128
-0.026986407 0.056753896 0.0057922076 0.012671954 0.0151339285 0.011528542 0.04238505 -0.06934614
0.04465309 -0.040890638 0.0070107556 0.023918314 0.033092182 -0.017656866 -0.03293309 0.002027426
0.05744095 -0.011383003 -0.027287228 0.030280573 0.015418626 -0.014132637 0.011273216 0.023900198
-0.016730852 0.061014637 0.035048142 -0.0054301326 0.117299825 0.08862361 0.0029631592 -0.005513061
0.016573133 -0.023084313 -0.044812948 -0.06911203 -0.00087131053 0.005772343 0.020177266 -0.017654443
-0.027279122 -0.053119943 0.011698155 -0.009417276 0.0359721 -0.116287306 0.054372374 -0.026036361
-0.023608701 -0.006692498 -0.0057691215 -0.006075168 -0.016639447 -0.0060618347 -0.0033482618 0.06641455
0.034285717 -0.024506716 0.0012797202 -0.028685011 0.055804808 0.051834524 -0.005134905 -0.002225053
-0.0035704952 0.004500081 -0.044694684 0.003089074 -0.0041023074 -0.011971312 -0.006837763 0.07716653
-0.03400113 0.09483188 0.030618256 -0.032464515 0.023855515 -0.05972838 0.00966437 0.02043406
-0.0008737092 -0.020598808 0.02867351 -0.023121305 0.017813604 0.017773086 -0.04527745 -0.011176358
-0.041449763 0.024762897 -0.024627343 0.0055608083 0.012458947 0.03997437 0.023904908 0.019640498
0.022921374 0.080624364 -0.028947815 0.049673732 0.021543842 -0.027231405 -0.013921841 -0.018145889
0.033472236 -0.018862119 -0.012084827 -0.0032827558 -0.09610592 0.046780776 -0.015605847 -0.020130761
0.06034537 0.12345705 -0.0011135807 0.06779662 -0.032033153 -0.0008445305 0.04628409 0.048889197
-0.016761424 0.008400299 0.1004338 -0.019342216 -0.07554982 -0.047155153 0.044086006 -0.08610548
-0.010890371 -0.008176171 -0.009131761 0.049263254 0.03437714 -0.021440256 -0.073231004 -0.018731358
-0.018973945 -0.08332793 0.005284864 0.017304834 -0.02429253 0.02012119 0.13918115 0.010079454
0.00061479415 0.03424491 0.011965777 -0.021439344 -0.041720323 -0.015602477 -0.046740547 -0.029434124
0.025966275 -0.006024063 0.019229261 -0.060652323 0.0028390558 0.031902894 0.005658891 -0.020154065
0.00074428756 0.016253252 0.022812292 -0.0006571572 0.02071239 -0.026479123 -0.0046749744 0.008227415
-0.030139403 -0.007896987 -0.0135741085 0.013765055 -0.0035227975 0.009812304 -0.0036553466 -0.0015337251
0.019777892 0.0018693001 -0.02472564 0.07394636 0.04831874 -0.01780057 0.057164405 -0.028374862
-0.021351894 0.02819487 -0.00810314 -0.024567522 -0.0081134215 -0.026116842 0.03077411 0.010395819
0.039271478 0.030517172 0.0020479294 0.027297094 0.027440565 0.09438299 -0.008634035 0.10649589

layer2.conv2.bias f4 [64]
00000000: 5ac6 f13c 6cc3 273d c235 ec3c 2b6e 5c3d
00000010: 6fae 2b3b 5d63 8d3b 11b1 d2bc e4c7 40bc
00000020: 3f22 d7bb 7d64 303c f784 0ebd 0473 723c
00000030: cac6 5d3d 3a06 593d 7304 f43c 6f71 96a9
00000040: 2b5b 11bc da28 c93c a284 08bd 8194 9ebc
00000050: 75ad 9a3c 22b2 bcbc 4348 85bc 0483 a5bc
00000060: 3d79 20bd aacf 64bc c8d8 9f3b 382f 2ebb
00000070: 84fe 0f3c 033e a53c 8c04 67bc 9d31 e0bc
00000080: a233 dc3c f403 d23c 99cd f93c 9113 5fb8
00000090: 3be0 aabc ac22 993b 3d24 fbbc 8a0c ca3b
000000a0: 8140 013c d0a5 5bbd 2ae1 123d 98f8 42bd
000000b0: 1c61 523a 2c96 393d 9532 afbc 57c2 84bd
000000c0: 91a1 32bd 342b d8b7 c5a7 333d d677 6a3c
000000d0: 1fcf a1bc 2ee4 733d f4f9 f0bc d5a2 21bd
000000e0: f349 32bd eab1 6c3d e2bf ab3c 4da3 64bd
000000f0: 6135 f03b fdc8 913c 2743 e13c 4967 633c
0.029513527 0.040957853 0.028834227 0.053816 0.00261965 0.0043148235 -0.025719197 -0.011766408
-0.0065653617 0.010766146 -0.034794774 0.01479793 0.05414466 0.052984454 0.029787278 -6.681016e-14
-0.008871834 0.024555612 -0.033329614 -0.019357922 0.018881539 -0.02303416 -0.016269809 -0.020204075
-0.03917812 -0.013965527 0.0048781373 -0.0026578438 0.008788709 0.020171171 -0.014100205 -0.027367407
0.02688009 0.02563665 0.030493544 -5.3185566e-05 -0.020858875 0.0046733227 -0.030656928 0.0061660456
0.007888914 -0.053624928 0.035859264 -0.04760036 0.00080253347 0.04530923 -0.021386424 -0.0648238
-0.043611113 -2.5769325e-05 0.04386117 0.014310798 -0.019752083 0.05954378 -0.029416062 -0.03946193
-0.043527555 0.05778686 0.02096552 -0.0558198 0.007330582 0.017796034 0.027497841 0.013879606

fc1.weight f4 [1, 3200]
00000000: 0e51 773b 6d77 593c 4778 01bb 7a4e 71bb
00000010: 82f6 8a3b d804 f439 de3d 9b3b 9c52 82bb
00000020: 080c a73c 542e 633b ff1f 79bb 130e d0bb
00000030: 2dac 733c c0a9 b93c a2d5 5d3b 5af2 113d
00000040: 4c42 bebc db76 3f3c d93b 63bc b6bb 13bc
00000050: 2101 baba 0661 93ba 2c21 163d bd1e 6a3c
00000060: af7d adb9 e115 303d 9013 a53d 82fa dbbb
00000070: 1ffd 7c3b 95f3 e13c de94 f2ba d3f9 a4bb
00000080: 1842 073c 5898 413a f360 393d 5fd6 ef3c
00000090: 49c1 17bd 7d23 b5bb 12c3 753c fcbc ac3c
000000a0: fc69 70bb 6b52 e2ba ae01 6e3b 5f44 e6bc
000000b0: bdc7 0bbd 7665 3d3d 6dfd dc3c f4f6 a03c
000000c0: 8b39 da3c aa53 9abb bac4 12bb 7869 d1ba
000000d0: 2728 beb9 68a4 e9ba a895 ccbb d5c8 213b
000000e0: 4397 90bb 7693 a13a 5d15 3b3a 0668 f2ba
000000f0: 01ff abbb 526d 7cbb 42a0 af3a 842c 7cba
00000100: 0f83 73bc 90f2 843c 91e6 243b be60 b7bb
00000110: b953 b43a b9e0 ec3b ecb7 5fba 22a5 153b
00000120: e32b 3839 13c5 97ba 4f83 f83b c022 74b9
00000130: 6484 8b3b 6eab 7fb9 6310 dcba 9d1b e3bb
00000140: cf3d adba 6feb 02bb 1b26 d7b9 190c 7a39
00000150: 102f 853b 067a 073b de21 babc 9e2b af3a
00000160: e646 29ba 9690 22ba af4a 8b3b 3783 cb3a
00000170: e9d9 3f3b 7101 583b 0e4a 343c 1b27 09ba
00000180: 4047 34bc d684 a5bb 2e79 35bb cf53 c7ba
00000190: 8fb1 083d c3c9 57ba 1a40 5c3c 85bf 77bc
000001a0: 4ed9 633d 21ee d7bc ba27 3f3c bffa c63c
000001b0: 37fb 683c fd63 543c d3a7 923b c666 c3bb
000001c0: 9685 473c 32f5 87bd fc83 1abd b8b4 903d
000001d0: 8404 703c ee8b bdba 92f8 993c 4474 edbc
000001e0: 5b66 8bbc 1bfb 07bc 9c63 39bc 2bd2 67bd
000001f0: f063 c5bd 447e 353d 2369 543d aba6 6dbc
00000200: 636b 543c d1f1 02bc 3358 533c 517d cdbc
00000210: 9dba 0a3d ed1d 59b8 d9fc 7b3c 82fe 1b3d
00000220: 2f0b d1bc 9baa 683c 479c f23b 9208 a7ba
00000230: a2b1 c2bc e07c 00bc e18d 2f3c 34ad 7cbc
00000240: 2d5e e53d f17f 033e 37a4 9cbd faff 04bd
00000250: 3e06 76bc aa36 2b3c e9ea af3c 626a a9bc
00000260: 7c65 203c 4115 343c 1e84 bc3d 8f56 0f3d
00000270: e962 063d c21f fb3b d358 593c 30f0 3b3c
00000280: 8a0f bbbc 9472 ad3c 5758 ab3b f458 413d
00000290: 2cca 653d 9209 a1bc b4a0 d33c 3091 0d3c
000002a0: f5f4 82bc df93 60bb 0c61 fb3b 5078 6b3c
000002b0: e6dd 6ab9 01f9 0000 db52 d73d 9f6c 5ebd
000002c0: aa61 02bc dd81 31bb 2836 0080 b370 c03c
000002d0: 6f2d 82bc 3f9c 59bc 940c 3e3a 6b9e 0000
000002e0: 5237 093e d708 e23b 3553 a4bd 5b89 0ebc
000002f0: cb61 0280 de73 4f34 53ef 343c 33a6 d23c
00000300: 62c6 7c3a 0cd3 163d aeb7 94b9 5f60 0cbb
00000310: f464 cbbc 6ea4 0bbc ef71 9abb cc0a 14bd
00000320: d55e c23b 1805 0f3b 13c1 c43a fce6 fe3b
00000330: 5434 fc3c a682 1d3d d262 193c 12d7 b0bb
00000340: 9361 153c 87b8 b23b 7f61 623c 76af 033b
00000350: 4850 03bc 0e3d b23c 8474 833c bfa4 b7bb
00000360: 2bbd 8fba 41b6 debb 2bb9 ccbc 327e 0e3d
00000370: d8a5 94bb 9dab 1b3c 687e ad37 7334 0cbd
00000380: efe0 9dbc 8b40 edbc 30e4 28bc 3e53 4f3a
00000390: afeb b1bc 7ebf df3c caa5 033c a8c3 913c
000003a0: 0e4b 8e3c 547a 26bd d282 6fbd a13f 8fbd
000003b0: 80c4 dbbc 235e acbc cda3 7ebc e2b6 f9bc
000003c0: 05fb 7c3c 4ee1 0c3c a1e9 393b 3e00 a63c
000003d0: aedf 24bd 2d6f c1bd 3d10 a8bb dff1 be3a
000003e0: 696f 573c a903 9bba 0075 d73b a763 43bc
000003f0: c53e cc3c 18d1 a63b ef0c 0180 4371 023c
0.0037737521 0.013273102 -0.0019755529 -0.0036820457 0.004240812 0.00046542916 0.0047375998 -0.003977133
0.02039148 0.0034665065 -0.0038013456 -0.006349334 0.014872593 0.02266395 0.003384926 0.035631515
-0.023224972 0.011686052 -0.013869249 -0.009016922 -0.001419101 -0.0011244125 0.03665273 0.014289555
-0.00033090773 0.042989615 0.08060372 -0.0067132125 0.003860302 0.02758197 -0.0018507501 -0.005034664
0.008255504 0.0007385067 0.045258474 0.029277025 -0.037049565 -0.005527912 0.015000122 0.021086209
-0.0036684265 -0.0017266994 0.003631692 -0.028108774 -0.034126032 0.04623934 0.026976312 0.019649006
0.026638767 -0.0047096806 -0.002239509 -0.0015976867 -0.0003626954 -0.0017825486 -0.0062434264 0.0024686356
-0.004412563 0.0012327272 0.0007136667 -0.0018494136 -0.0052489047 -0.0038517308 0.0013399201 -0.00096196705
-0.01486279 0.016228944 0.0025161842 -0.0055962494 0.0013757861 0.0072289375 -0.00085341814 0.0022834023
0.00017563956 -0.0011579118 0.0075840126 -0.00023282599 0.0042577256 -0.00024382558 -0.0016789552 -0.006930782
-0.0013217273 -0.0019976755 -0.00041036386 0.00023846365 0.004064448 0.0020672097 -0.022721227 0.0013364439
-0.0006457403 -0.00062013546 0.0042508463 0.0015526776 0.0029274172 0.0032959844 0.011003984 -0.00052319624
-0.011003315 -0.0050512357 -0.0027690637 -0.0015207472 0.033372458 -0.0008231664 0.013443017 -0.015121345
0.05562716 -0.026358666 0.011667186 0.024289487 0.014220051 0.012963292 0.0044755726 -0.0059631793
0.012177845 -0.06638564 -0.037723526 0.07065719 0.014649514 -0.0014461258 0.018795285 -0.028986104
-0.01701658 -0.008299614 -0.011315253 -0.056596916 -0.09638202 0.04430987 0.05185808 -0.014505069
0.012965056 -0.007992224 0.012899446 -0.02508417 0.033869375 -5.1764702e-05 0.015380108 0.038084514
-0.025518028 0.014200832 0.0074038836 -0.0012743643 -0.023766343 -0.0078422725 0.010714979 -0.015422154
0.11199603 0.12841775 -0.07648509 -0.03247068 -0.015016137 0.010450045 0.021474319 -0.02068061
0.009789821 0.010991395 0.09204887 0.034994658 0.03280917 0.007663698 0.013265806 0.011470839
-0.022834558 0.0211728 0.005229037 0.047203973 0.05610101 -0.019657884 0.025833465 0.008640572
-0.015985945 -0.0034267826 0.007671481 0.014371946 -0.00022398643 8.9326e-41 0.1051385 -0.054302808
-0.007957855 -0.0027085461 -1.9428e-41 0.02349124 -0.015890805 -0.013281881 0.0007249799 5.683e-41
0.1340001 0.0068980264 -0.08023683 -0.00869974 -2.18752e-40 1.932053e-07 0.011043387 0.025714016
0.00096425985 0.036822364 -0.00028365612 -0.0021419746 -0.024828412 -0.00852309 -0.004713289 -0.03614311
0.005931715 0.0021823104 0.0015011154 0.0077790003 0.03078667 0.038454674 0.0093619395 -0.005396732
0.009117502 0.0054541263 0.01381719 0.0020093597 -0.008014746 0.021757629 0.01604677 -0.005604356
-0.0010966411 -0.0067966287 -0.024990639 0.034788318 -0.0045363717 0.009501365 2.068207e-05 -0.034229707
-0.019272296 -0.02896144 -0.01030831 0.00079088274 -0.021718828 0.02731299 0.008035133 0.017793491
0.017369773 -0.040644005 -0.05847437 -0.06994558 -0.026827097 -0.021040982 -0.015541983 -0.030482713
0.015440707 0.008598639 0.0028368013 0.020263787 -0.04025238 -0.09445033 -0.005128889 0.0014567933
0.013149121 -0.0011826652 0.006575227 -0.011925614 0.024932275 0.005090844 -9.6475e-41 0.007961574

out.0.weight f4 [1, 3200]
00000000: 0e51 773b 6d77 593c 4778 01bb 7a4e 71bb
00000010: 82f6 8a3b d804 f439 de3d 9b3b 9c52 82bb
00000020: 080c a73c 542e 633b ff1f 79bb 130e d0bb
00000030: 2dac 733c c0a9 b93c a2d5 5d3b 5af2 113d
00000040: 4c42 bebc db76 3f3c d93b 63bc b6bb 13bc
00000050: 2101 baba 0661 93ba 2c21 163d bd1e 6a3c
00000060: af7d adb9 e115 303d 9013 a53d 82fa dbbb
00000070: 1ffd 7c3b 95f3 e13c de94 f2ba d3f9 a4bb
00000080: 1842 073c 5898 413a f360 393d 5fd6 ef3c
00000090: 49c1 17bd 7d23 b5bb 12c3 753c fcbc ac3c
000000a0: fc69 70bb 6b52 e2ba ae01 6e3b 5f44 e6bc
000000b0: bdc7 0bbd 7665 3d3d 6dfd dc3c f4f6 a03c
000000c0: 8b39 da3c aa53 9abb bac4 12bb 7869 d1ba
000000d0: 2728 beb9 68a4 e9ba a895 ccbb d5c8 213b
000000e0: 4397 90bb 7693 a13a 5d15 3b3a 0668 f2ba
000000f0: 01ff abbb 526d 7cbb 42a0 af3a 842c 7cba
00000100: 0f83 73bc 90f2 843c 91e6 243b be60 b7bb
00000110: b953 b43a b9e0 ec3b ecb7 5fba 22a5 153b
00000120: e32b 3839 13c5 97ba 4f83 f83b c022 74b9
00000130: 6484 8b3b 6eab 7fb9 6310 dcba 9d1b e3bb
00000140: cf3d adba 6feb 02bb 1b26 d7b9 190c 7a39
00000150: 102f 853b 067a 073b de21 babc 9e2b af3a
00000160: e646 29ba 9690 22ba af4a 8b3b 3783 cb3a
00000170: e9d9 3f3b 7101 583b 0e4a 343c 1b27 09ba
00000180: 4047 34bc d684 a5bb 2e79 35bb cf53 c7ba
00000190: 8fb1 083d c3c9 57ba 1a40 5c3c 85bf 77bc
000001a0: 4ed9 633d 21ee d7bc ba27 3f3c bffa c63c
000001b0: 37fb 683c fd63 543c d3a7 923b c666 c3bb
000001c0: 9685 473c 32f5 87bd fc83 1abd b8b4 903d
000001d0: 8404 703c ee8b bdba 92f8 993c 4474 edbc
000001e0: 5b66 8bbc 1bfb 07bc 9c63 39bc 2bd2 67bd
000001f0: f063 c5bd 447e 353d 2369 543d aba6 6dbc
00000200: 636b 543c d1f1 02bc 3358 533c 517d cdbc
00000210: 9dba 0a3d ed1d 59b8 d9fc 7b3c 82fe 1b3d
00000220: 2f0b d1bc 9baa 683c 479c f23b 9208 a7ba
00000230: a2b1 c2bc e07c 00bc e18d 2f3c 34ad 7cbc
00000240: 2d5e e53d f17f 033e 37a4 9cbd faff 04bd
00000250: 3e06 76bc aa36 2b3c e9ea af3c 626a a9bc
00000260: 7c65 203c 4115 343c 1e84 bc3d 8f56 0f3d
00000270: e962 063d c21f fb3b d358 593c 30f0 3b3c
00000280: 8a0f bbbc 9472 ad3c 5758 ab3b f458 413d
00000290: 2cca 653d 9209 a1bc b4a0 d33c 3091 0d3c
000002a0: f5f4 82bc df93 60bb 0c61 fb3b 5078 6b3c
000002b0: e6dd 6ab9 01f9 0000 db52 d73d 9f6c 5ebd
000002c0: aa61 02bc dd81 31bb 2836 0080 b370 c03c
000002d0: 6f2d 82bc 3f9c 59bc 940c 3e3a 6b9e 0000
000002e0: 5237 093e d708 e23b 3553 a4bd 5b89 0ebc
000002f0: cb61 0280 de73 4f34 53ef 343c 33a6 d23c
00000300: 62c6 7c3a 0cd3 163d aeb7 94b9 5f60 0cbb
00000310: f464 cbbc 6ea4 0bbc ef71 9abb cc0a 14bd
00000320: d55e c23b 1805 0f3b 13c1 c43a fce6 fe3b
00000330: 5434 fc3c a682 1d3d d262 193c 12d7 b0bb
00000340: 9361 153c 87b8 b23b 7f61 623c 76af 033b
00000350: 4850 03bc 0e3d b23c 8474 833c bfa4 b7bb
00000360: 2bbd 8fba 41b6 debb 2bb9 ccbc 327e 0e3d
00000370: d8a5 94bb 9dab 1b3c 687e ad37 7334 0cbd
00000380: efe0 9dbc 8b40 edbc 30e4 28bc 3e53 4f3a
00000390: afeb b1bc 7ebf df3c caa5 033c a8c3 913c
000003a0: 0e4b 8e3c 547a 26bd d282 6fbd a13f 8fbd
000003b0: 80c4 dbbc 235e acbc cda3 7ebc e2b6 f9bc
000003c0: 05fb 7c3c 4ee1 0c3c a1e9 393b 3e00 a63c
000003d0: aedf 24bd 2d6f c1bd 3d10 a8bb dff1 be3a
000003e0: 696f 573c a903 9bba 0075 d73b a763 43bc
000003f0: c53e cc3c 18d1 a63b ef0c 0180 4371 023c
0.0037737521 0.013273102 -0.0019755529 -0.0036820457 0.004240812 0.00046542916 0.0047375998 -0.003977133
0.02039148 0.0034665065 -0.0038013456 -0.006349334 0.014872593 0.02266395 0.003384926 0.035631515
-0.023224972 0.011686052 -0.013869249 -0.009016922 -0.001419101 -0.0011244125 0.03665273 0.014289555
-0.00033090773 0.042989615 0.08060372 -0.0067132125 0.003860302 0.02758197 -0.0018507501 -0.005034664
0.008255504 0.0007385067 0.045258474 0.029277025 -0.037049565 -0.005527912 0.015000122 0.021086209
-0.0036684265 -0.0017266994 0.003631692 -0.028108774 -0.034126032 0.04623934 0.026976312 0.019649006
0.026638767 -0.0047096806 -0.002239509 -0.0015976867 -0.0003626954 -0.0017825486 -0.0062434264 0.0024686356
-0.004412563 0.0012327272 0.0007136667 -0.0018494136 -0.0052489047 -0.0038517308 0.0013399201 -0.00096196705
-0.01486279 0.016228944 0.0025161842 -0.0055962494 0.0013757861 0.0072289375 -0.00085341814 0.0022834023
0.00017563956 -0.0011579118 0.0075840126 -0.00023282599 0.0042577256 -0.00024382558 -0.0016789552 -0.006930782
-0.0013217273 -0.0019976755 -0.00041036386 0.00023846365 0.004064448 0.0020672097 -0.022721227 0.0013364439
-0.0006457403 -0.00062013546 0.0042508463 0.0015526776 0.0029274172 0.0032959844 0.011003984 -0.00052319624
-0.011003315 -0.0050512357 -0.0027690637 -0.0015207472 0.033372458 -0.0008231664 0.013443017 -0.015121345
0.05562716 -0.026358666 0.011667186 0.024289487 0.014220051 0.012963292 0.0044755726 -0.0059631793
0.012177845 -0.06638564 -0.037723526 0.07065719 0.014649514 -0.0014461258 0.018795285 -0.028986104
-0.01701658 -0.008299614 -0.011315253 -0.056596916 -0.09638202 0.04430987 0.05185808 -0.014505069
0.012965056 -0.007992224 0.012899446 -0.02508417 0.033869375 -5.1764702e-05 0.015380108 0.038084514
-0.025518028 0.014200832 0.0074038836 -0.0012743643 -0.023766343 -0.0078422725 0.010714979 -0.015422154
0.11199603 0.12841775 -0.07648509 -0.03247068 -0.015016137 0.010450045 0.021474319 -0.02068061
0.009789821 0.010991395 0.09204887 0.034994658 0.03280917 0.007663698 0.013265806 0.011470839
-0.022834558 0.0211728 0.005229037 0.047203973 0.05610101 -0.019657884 0.025833465 0.008640572
-0.015985945 -0.0034267826 0.007671481 0.014371946 -0.00022398643 8.9326e-41 0.1051385 -0.054302808
-0.007957855 -0.0027085461 -1.9428e-41 0.02349124 -0.015890805 -0.013281881 0.0007249799 5.683e-41
0.1340001 0.0068980264 -0.08023683 -0.00869974 -2.18752e-40 1.932053e-07 0.011043387 0.025714016
0.00096425985 0.036822364 -0.00028365612 -0.0021419746 -0.024828412 -0.00852309 -0.004713289 -0.03614311
0.005931715 0.0021823104 0.0015011154 0.0077790003 0.03078667 0.038454674 0.0093619395 -0.005396732
0.009117502 0.0054541263 0.01381719 0.0020093597 -0.008014746 0.021757629 0.01604677 -0.005604356
-0.0010966411 -0.0067966287 -0.024990639 0.034788318 -0.0045363717 0.009501365 2.068207e-05 -0.034229707
-0.019272296 -0.02896144 -0.01030831 0.00079088274 -0.021718828 0.02731299 0.008035133 0.017793491
0.017369773 -0.040644005 -0.05847437 -0.06994558 -0.026827097 -0.021040982 -0.015541983 -0.030482713
0.015440707 0.008598639 0.0028368013 0.020263787 -0.04025238 -0.09445033 -0.005128889 0.0014567933
0.013149121 -0.0011826652 0.006575227 -0.011925614 0.024932275 0.005090844 -9.6475e-41 0.007961574

exp_avg f4 [32, 2, 5, 5]
00000000: d8c6 40b7 33cc a0b8 6dc1 01b9 0fed f5b8
00000010: 1667 0eb8 605f 9738 a296 6f36 5aa1 b5b7
00000020: c5ca 4736 addd cb38 4618 2139 e8ab e438
00000030: 1fff c038 46de ec38 79cc 6639 0f91 4739
00000040: aa0e 3839 3672 3439 c82a 6939 988c b139
00000050: ecc0 3f39 37d2 4839 2485 7139 1772 9839
00000060: 4ccd da39 b4a8 2c38 0031 76b7 9393 33b8
00000070: 24a6 31b8 ee15 1c38 ba53 1e39 4e52 0239
00000080: 3454 a738 3447 cd38 ffb9 3e39 da20 6f39
00000090: 4d55 6039 c6b1 4c39 e165 7739 5b1d ab39
000000a0: 01b2 8739 acc9 8639 b4ba 9539 18a6 ae39
000000b0: 9eaf dd39 e94c 7d39 7231 9139 a017 a339
000000c0: 510f c939 bc10 ff39 ac98 9c38 4b9e 8037
000000d0: f1b7 0cb8 12ed 8cb8 250c a1b8 f783 8638
000000e0: 3087 cb37 dca6 ebb7 e4f2 4bb8 dbea 6eb8
000000f0: 549a 60b8 d5d8 bbb8 da3c f9b8 8b01 11b9
00000100: 78d0 12b9 88e5 98b8 f608 c6b8 a745 e8b8
00000110: 042c 01b9 dada 0ab9 a164 a6b8 cd29 c5b8
00000120: 058e e1b8 d978 edb8 d0a5 f2b8 2de4 8938
00000130: c975 ef37 d1c9 80b7 3538 34b8 1ae5 5fb8
00000140: 910f 8c38 b874 f937 b912 b3b6 96b5 ffb7
00000150: b434 3bb8 a818 62b8 0f2c a5b8 7306 edb8
00000160: 6d7f 05b9 5929 13b9 2d96 adb8 c532 beb8
00000170: 119a e1b8 0269 f8b8 ff77 00b9 05e4 c1b8
00000180: b684 c1b8 e0d8 cdb8 5143 e1b8 d476 e3b8
00000190: 138c 3138 ce61 45b8 f2fa f5b8 1fe3 3ab9
000001a0: a9b9 3db9 531c bb38 7957 79b7 f471 fbb8
000001b0: caa4 3db9 f9a4 66b9 e2a8 1a39 d92f 26b7
000001c0: cd51 01b9 297a 60b9 7990 85b9 ac74 3a39
000001d0: cd9e d135 6aa7 09b9 1fc7 5fb9 8cf8 a7b9
000001e0: 8798 aa39 dece 0b39 5881 e1b7 a772 1fb9
000001f0: c76d 84b9 13de e637 b750 52b8 3649 10b9
00000200: e072 59b9 e9fe 93b9 1466 a738 393c 6eb8
00000210: 81a1 0cb9 d467 78b9 2988 9bb9 26da 1939
00000220: 3c8b a134 9d26 04b9 907d 70b9 d451 abb9
00000230: bcfe 7839 4f65 1138 29be f5b8 9c82 8cb9
00000240: 8c60 aeb9 118d d339 dcf6 3139 64b0 2fb7
00000250: b7bc 24b9 1c18 97b9 a234 3337 b603 3e37
00000260: b3a4 1e37 2fee 35b6 ca45 11b8 4132 5537
00000270: a2ab 1237 fb65 0137 c554 65b6 8710 01b8
00000280: 40f6 2f37 c51b 8737 8709 2737 2005 72b6
00000290: 890b c8b7 d45e 1737 8645 6937 300d 3e37
000002a0: 343d cf34 27c4 5bb7 0958 1337 5326 9037
000002b0: 3006 7637 e5fa 3a37 35cb 8cb6 9723 cb36
000002c0: 7c44 0637 3ca7 b534 d9cf 70b7 d0e7 34b8
000002d0: f8dd bb36 02cc e036 b02d c834 b818 a1b7
000002e0: 42ae 36b8 8498 e636 09bd 0f37 2655 8036
000002f0: 770d 4cb7 f95f 13b8 8176 9b36 9257 0a37
00000300: d8cb 4d36 70f5 82b6 04ef dab7 d1b0 2237
00000310: ed2b 4437 9cbb f536 51ee b936 7498 10b7
00000320: c893 d938 1a23 4238 b0ae adb7 d764 d2b8
00000330: 3511 40b9 e149 d538 a769 8838 6880 bf37
00000340: bef2 d2b7 4c23 d8b8 aa21 a8b8 7075 afb8
00000350: a032 f3b8 6895 43b9 64a2 6ab9 6b65 9fb8
00000360: 1694 81b8 aa0c ecb8 cd54 17b9 c359 46b9
00000370: e16d c9b8 e4d2 d5b8 273c 22b9 c474 46b9
00000380: 1ac7 68b9 e29f 3238 0073 62b7 ff4f 73b8
00000390: 1701 8eb8 7cdb c6b8 2549 0a38 3e22 c0b6
000003a0: 89c1 49b7 a2c0 4bb7 1b85 96b7 e8d5 02b9
000003b0: d94c 22b9 d2a1 17b9 d853 dab8 b8bf fab8
000003c0: 4601 e6b8 8195 1bb9 6168 ecb8 9d30 dfb8
000003d0: 475f d9b8 5827 14b9 174a 1cb9 a7c2 07b9
000003e0: 8977 07b9 ac98 ffb8 60ec 6fb9 9fb4 9bb9
000003f0: b534 f1b9 2ce1 3fba 8d73 84ba 39df 41b9
-1.1490389e-05 -7.6674296e-05 -0.00012374455 -0.00011726666 -3.3951444e-05 7.218006e-05 3.5701455e-06 -2.1652017e-05
2.9771338e-06 9.721085e-05 0.00015363199 0.00010903907 9.2027934e-05 0.000112947586 0.00022010681 0.00019032157
0.0001755307 0.00017208685 0.00022236549 0.0003386482 0.00018287048 0.00019151797 0.0002303315 0.00029076703
0.00041733158 4.1165113e-05 -1.4674151e-05 -4.2814365e-05 -4.235482e-05 3.7213722e-05 0.00015099245 0.00012428427
7.9788646e-05 9.788424e-05 0.00018189101 0.00022805054 0.00021394082 0.00019521182 0.00023593708 0.00032637533
0.0002588183 0.0002570873 0.000285586 0.00033311616 0.0004228325 0.00024156611 0.00027693395 0.00031107385
0.0003834912 0.00048649858 7.467097e-05 1.53325e-05 -3.354991e-05 -6.719878e-05 -7.67934e-05 6.414198e-05
2.4262437e-05 -2.8091883e-05 -4.862518e-05 -5.6962348e-05 -5.354949e-05 -8.957243e-05 -0.0001188458 -0.00013828852
-0.00014001306 -7.290678e-05 -9.443045e-05 -0.00011075596 -0.00012318796 -0.00013242234 -7.9342404e-05 -9.401478e-05
-0.00010755289 -0.0001132355 -0.00011570344 6.57517e-05 2.8545868e-05 -1.5352767e-05 -4.296769e-05 -5.338071e-05
6.67862e-05 2.9737465e-05 -5.3367953e-06 -3.0482926e-05 -4.4633358e-05 -5.390556e-05 -7.87602e-05 -0.00011302242
-0.00012731338 -0.00014034416 -8.277255e-05 -9.0693626e-05 -0.00010757533 -0.00011845121 -0.00012251733 -9.245429e-05
-9.2276765e-05 -9.815558e-05 -0.00010741375 -0.00010846337 4.2330543e-05 -4.7059548e-05 -0.000117292526 -0.00017822951
-0.00018093608 8.922131e-05 -1.4861923e-05 -0.00011989838 -0.00018085833 -0.00021995966 0.00014749498 -9.905511e-06
-0.00012332872 -0.00021407813 -0.00025475377 0.00017781806 1.561793e-06 -0.00013127705 -0.00021341116 -0.00032037904
0.00032538568 0.00013333137 -2.688232e-05 -0.00015206133 -0.00025258792 2.7521548e-05 -5.0143073e-05 -0.00013760183
-0.00020737527 -0.00028227948 7.982194e-05 -5.679971e-05 -0.00013411605 -0.00023689802 -0.0002966535 0.00014672484
3.0089893e-07 -0.00012602886 -0.00022934959 -0.00032676628 0.00023746019 3.4665045e-05 -0.000117179305 -0.00026800192
-0.000332598 0.0004035016 0.00016971998 -1.0471882e-05 -0.0001571056 -0.00028818927 1.0681486e-05 1.13257465e-05
9.455881e-06 -2.7109743e-06 -3.463569e-05 1.270749e-05 8.7422395e-06 7.712743e-06 -3.4173001e-06 -3.077139e-05
1.0488147e-05 1.6106185e-05 9.956194e-06 -3.6063793e-06 -2.384723e-05 9.02238e-06 1.3904069e-05 1.1327953e-05
3.8601286e-07 -1.30990875e-05 8.78238e-06 1.7183984e-05 1.4664183e-05 1.114488e-05 -4.1959815e-06 6.0540146e-06
8.002968e-06 3.3835556e-07 -1.4353508e-05 -4.3131236e-05 5.598875e-06 6.69947e-06 3.7286145e-07 -1.9204206e-05
-4.355447e-05 6.8722893e-06 8.567477e-06 3.82461e-06 -1.2162483e-05 -3.5136913e-05 4.6331556e-06 8.24583e-06
3.0666033e-06 -3.9028746e-06 -2.6098925e-05 9.697121e-06 1.1692738e-05 7.3234096e-06 5.5411733e-06 -8.618565e-06
0.00010374893 4.6285895e-05 -2.0704552e-05 -0.00010032363 -0.00018316957 0.000101703925 6.5046646e-05 2.2828768e-05
-2.5146986e-05 -0.00010306257 -8.017135e-05 -8.366525e-05 -0.000115965726 -0.00018652307 -0.00022376474 -7.6006014e-05
-6.1787825e-05 -0.00011255716 -0.00014432073 -0.0001891619 -9.6048934e-05 -0.00010195913 -0.00015471932 -0.0001892625
-0.00022199415 4.258741e-05 -1.3497425e-05 -5.8010217e-05 -6.771291e-05 -9.482258e-05 3.2969885e-05 -5.726032e-06
-1.20255945e-05 -1.2144594e-05 -1.7943375e-05 -0.00012477452 -0.00015478152 -0.00014460765 -0.00010410667 -0.00011956639
-0.00010967492 -0.00014837646 -0.00011272799 -0.000106425236 -0.00010365113 -0.00014129037 -0.0001490492 -0.00012947117
-0.00012919134 -0.00012187785 -0.00022880873 -0.00029698477 -0.00046006372 -0.0007319625 -0.0010105238 -0.00018489071

exp_avg_sq f4 [32, 2, 5, 5]
00000000: a1ba 5436 0df3 5536 220c 8936 ec7e db36
00000010: ce40 2f37 0e0e 7b36 1154 7d36 3fe5 a136
00000020: 01e4 0037 7af1 4c37 7162 7c36 6c5d 7a36
00000030: 4756 9b36 769d f336 0758 4137 e3c6 5c36
00000040: 2465 5236 4042 7636 5074 bc36 0e64 1637
00000050: b955 3136 3abd 2136 11c7 2f36 a123 8236
00000060: f4d0 d236 086f 5f36 0bf3 5636 565e 7636
00000070: ad20 b936 9b54 1637 ec01 8236 5c1d 7b36
00000080: d961 8f36 a2d4 d536 292e 2d37 c96f 8236
00000090: beb2 7836 e1c9 8936 185a c936 eb80 2237
000000a0: a5d1 6736 aa28 5836 b29e 6336 82c5 9f36
000000b0: cf22 0037 cbf6 3f36 7c54 3136 cd04 3336
000000c0: c9aa 7036 3cd3 bd36 999f 3e35 e53a 0435
000000d0: e764 0735 5da8 3335 ed3f 6835 3827 ab34
000000e0: 243a 6a34 49f5 8234 bbf9 bc34 e716 fe34
000000f0: 17ef 9e34 a2a9 8a34 b6ec 9034 293c a834
00000100: 62d4 c334 e598 9334 dc3f 9234 8412 9834
00000110: fb94 a134 d8c4 ab34 0266 a634 ab98 ac34
00000120: 1dcc b134 f3a1 b534 7417 b834 7375 5635
00000130: b2f0 1c35 4202 1835 eeb5 3635 b529 5f35
00000140: e5f4 c434 bbf2 8f34 8d8b 9534 1e0d c034
00000150: a734 f334 93b6 8e34 27ea 7534 3ac9 8434
00000160: 814b a034 01d1 be34 2c09 8734 f24c 8634
00000170: 133d 8f34 5f51 9c34 be54 a934 7ef2 9f34
00000180: 1d6c a634 afe1 ad34 629e b334 f3a4 b834
00000190: 44c0 c936 3774 0037 974d 0a37 bc5b 0337
000001a0: aa13 d936 5b83 d236 2f80 0237 8f90 0b37
000001b0: db33 0537 899a db36 3a09 df36 d0ed 0537
000001c0: c5a9 0e37 c475 0837 ce84 e336 9709 ef36
000001d0: fab2 0b37 2dc6 1337 a6ac 0d37 34ba ee36
000001e0: 311e f336 a039 0c37 01de 1237 a828 0c37
000001f0: a2d3 eb36 78f8 e236 9209 ff36 26a7 f336
00000200: bc6e c636 9527 8436 c94d dd36 d241 fd36
00000210: a9b4 f836 84d0 d236 d42a 9336 2163 d736
00000220: 3e37 fa36 0a67 fd36 90c0 e036 2bd6 a536
00000230: a077 d136 16d2 f736 0b8d 0137 1fcc ee36
00000240: 9e12 ba36 638a c036 1cb1 e536 cea2 f736
00000250: 44b1 ea36 b8cb bd36 0bf4 9c33 6069 6433
00000260: 639e 2f33 0e21 ae33 0b43 8334 b09e ab33
00000270: 77d2 8433 d348 3633 3bfa 5733 7fb2 0f34
00000280: 1cc7 ba33 934c 9c33 702e 6233 2dea 2e33
00000290: f081 8d33 0fec c633 1c65 b433 d4c7 9033
000002a0: 8ea2 5333 5cb1 3833 b65b ce33 5c6e c633
000002b0: 5aaf ae33 6d96 8933 388c 4333 9db7 8a33
000002c0: 2081 4133 0db8 3d33 2978 f733 d8ef ae34
000002d0: 456b 9733 cf42 6133 4fc7 2a33 6c87 9033
000002e0: 0f92 4734 fe2a a633 2ee3 8833 d2b3 4833
000002f0: 3dc0 4733 bae6 ce33 b1c8 b333 7fcc a333
00000300: 4658 8533 b0af 5833 b236 8333 44d3 be33
00000310: 448e ba33 c3ba a633 186f 8b33 915e 7533
00000320: 81f9 c136 16bb c136 712f 1337 6ae4 8837
00000330: c0d3 ec37 2a53 8b36 9e13 bb36 9a35 3637
00000340: 2e77 b337 5fc2 1938 db4f 8a36 63fc 0937
00000350: 49e4 9037 7e95 0738 e647 5a38 2cf1 8936
00000360: 7497 1037 b956 9837 ad84 0c38 ae2b 5f38
00000370: 221c 7036 64ca 0137 adbd 8a37 f0ad 0038
00000380: 0481 4b38 a40d dd36 ee68 b136 22d7 d936
00000390: d51b 5137 bf86 c937 5fbe 9f36 807b 9636
000003a0: 3565 f136 be3e 7f37 6f07 f937 10cb 5d36
000003b0: f471 b136 7568 3a37 41f7 c037 1a99 2f38
000003c0: 9cd1 4e36 1c61 b636 39c8 4337 42cb c837
000003d0: ea79 3438 356c 4536 6f28 ae36 9c57 3b37
000003e0: 1437 bf37 8747 2a38 b7f3 8336 8637 5536
000003f0: 5631 6136 20db a936 c4e3 0937 3b04 9136
3.1699094e-06 3.1880948e-06 4.0843306e-06 6.5414843e-06 1.0445901e-05 3.7410096e-06 3.774887e-06 4.8248617e-06
7.682481e-06 1.2215571e-05 3.7608227e-06 3.7307282e-06 4.629404e-06 7.260295e-06 1.1524192e-05 3.2898322e-06
3.135131e-06 3.669542e-06 5.616377e-06 8.9639925e-06 2.6424952e-06 2.4101014e-06 2.6192904e-06 3.8784497e-06
6.282813e-06 3.3294218e-06 3.2029955e-06 3.6711767e-06 5.5172336e-06 8.9603955e-06 3.8745256e-06 3.7419004e-06
4.273123e-06 6.3726484e-06 1.0322351e-05 3.8873154e-06 3.7058921e-06 4.10642e-06 6.000755e-06 9.6859685e-06
3.4543712e-06 3.2210178e-06 3.3918009e-06 4.761562e-06 7.637499e-06 2.860487e-06 2.6424232e-06 2.6675873e-06
3.5862197e-06 5.65723e-06 7.101276e-07 4.9259535e-07 5.043825e-07 6.69277e-07 8.651976e-07 3.1879767e-07
2.18141e-07 2.4392855e-07 3.5199432e-07 4.732785e-07 2.9603754e-07 2.5827927e-07 2.699432e-07 3.133621e-07
3.647611e-07 2.749213e-07 2.7241083e-07 2.8325678e-07 3.0096984e-07 3.1994455e-07 3.099413e-07 3.2148577e-07
3.311733e-07 3.383171e-07 3.4289735e-07 7.9892123e-07 5.8464786e-07 5.66277e-07 6.8065026e-07 8.3134665e-07
3.668603e-07 2.6812435e-07 2.785495e-07 3.577233e-07 4.5300587e-07 2.65824e-07 2.2902587e-07 2.4733328e-07
2.985726e-07 3.5542328e-07 2.5152383e-07 2.501543e-07 2.6680263e-07 2.911647e-07 3.154036e-07 2.9792494e-07
3.0998572e-07 3.2387968e-07 3.3456587e-07 3.4392687e-07 6.0126495e-06 7.656453e-06 8.243506e-06 7.829567e-06
6.469393e-06 6.2737795e-06 7.778449e-06 8.318703e-06 7.939491e-06 6.544699e-06 6.646992e-06 7.982788e-06
8.503387e-06 8.133651e-06 6.7805877e-06 7.1238715e-06 8.326717e-06 8.808024e-06 8.444453e-06 7.1146296e-06
7.245479e-06 8.358067e-06 8.753967e-06 8.354116e-06 7.028183e-06 6.7642504e-06 7.6007063e-06 7.261423e-06
5.913751e-06 3.9385145e-06 6.5953686e-06 7.54765e-06 7.4120076e-06 6.282762e-06 4.3859272e-06 6.4190394e-06
7.4570116e-06 7.551983e-06 6.6981374e-06 4.9423156e-06 6.2426116e-06 7.385631e-06 7.721838e-06 7.1167156e-06
5.5453993e-06 5.7381562e-06 6.84535e-06 7.3801266e-06 6.99438e-06 5.656355e-06 7.308707e-08 5.3181225e-08
4.0889415e-08 8.108519e-08 2.4449432e-07 7.991673e-08 6.185012e-08 4.244141e-08 5.028617e-08 1.338285e-07
8.697518e-08 7.278245e-08 5.266196e-08 4.0725514e-08 6.5894596e-08 9.263032e-08 8.400295e-08 6.741871e-08
4.927511e-08 4.3002146e-08 9.6093046e-08 9.240168e-08 8.134403e-08 6.406922e-08 4.5529504e-08 6.459525e-08
4.5053753e-08 4.4172385e-08 1.1523691e-07 3.2584535e-07 7.050998e-08 5.2447657e-08 3.976248e-08 6.7301556e-08
1.8586455e-07 7.7377976e-08 6.374317e-08 4.6729674e-08 4.6508138e-08 9.6345914e-08 8.3718426e-08 7.6274766e-08
6.209352e-08 5.0451206e-08 6.110112e-08 8.8859935e-08 8.687178e-08 7.763949e-08 6.4929e-08 5.7129515e-08
5.7808943e-06 5.773628e-06 8.772929e-06 1.6318827e-05 2.8231996e-05 4.1522044e-06 5.575318e-06 1.0860525e-05
2.139396e-05 3.6659065e-05 4.122017e-06 8.2246e-06 1.7272441e-05 3.2325734e-05 5.204221e-05 4.1109943e-06
8.618332e-06 1.8160195e-05 3.3502165e-05 5.3208023e-05 3.5779162e-06 7.736122e-06 1.6539207e-05 3.067957e-05
4.8519127e-05 6.587901e-06 5.2872265e-06 6.4921487e-06 1.2463851e-05 2.4023813e-05 4.7607314e-06 4.4847257e-06
7.1941417e-06 1.5213793e-05 2.9686575e-05 3.3049764e-06 5.288277e-06 1.1110785e-05 2.300332e-05 4.186584e-05
3.08184e-06 5.4353277e-06 1.1669524e-05 2.3936507e-05 4.3028886e-05 2.9418272e-06 5.190311e-06 1.1166467e-05
2.2794622e-05 4.0597773e-05 3.9324764e-06 3.1771792e-06 3.355633e-06 5.062102e-06 8.218867e-06 4.3218292e-06

exp_avg f4 [32]
00000000: 8908 0e3a d305 3939 c3c6 8e39 a1d9 4fb8
00000010: fc45 b938 707e 03ba a77d 6d3a a3df 08ba
00000020: df0e 353a 7dc8 713a ed54 0bba 8b3b 0eba
00000030: d176 143a e4e2 9538 13f8 47b9 d9c7 c739
00000040: 9730 f4b9 a646 6eb9 9c09 94b9 bcdb 2339
00000050: 91a6 063a df55 4db8 d291 7ab9 22af de37
00000060: db21 b937 455a 283a c210 2f3a fb7e 26ba
00000070: 111c 703a 0aaf cc39 a408 5cba fd85 08ba
0.0005418142 0.00017645145 0.0002723244 -4.955533e-05 8.834523e-05 -0.0005016094 0.0009059556 -0.0005221313
0.0006906818 0.00092232955 -0.0005315084 -0.0005425743 0.0005663457 7.147135e-05 -0.00019070534 0.00038105136
-0.0004657551 -0.00022723767 -0.0002823592 0.00015626749 0.00051365147 -4.8955782e-05 -0.0002389618 2.6546015e-05
2.2069484e-05 0.00064221426 0.00066782173 -0.0006351319 0.00091594557 0.00039040326 -0.00083936215 -0.0005207954
