results/2BS/T_1/L_8000/seed3/checkpoint.pth.tar (torch_old, 395617 bytes, 22 tensors)

layer1.conv.weight f4 [32, 2, 5, 5]
00000000: a439 2bbd 3dbd dbbc c0ed fb3b 42f9 aebc
00000010: d41a 2abd fe38 71bd 3d38 3ebd 56b0 06be
00000020: b0d9 24bd cfdd 34be dc13 833c e4ee eb3b
00000030: 4917 90bc b5f7 e4bd d9fe 033d 77fe 753c
00000040: 0f6d 06bd 9a0c 2abd 71f4 003b bb9f a9bc
00000050: 5265 15bc b7f0 df3c 00df 113c f7c7 f9bc
00000060: 1d09 5ebd f36f 663d 1de3 7ebc 1215 0d3d
00000070: 7ffc b13d 6b23 043d 695d b13c 7db0 e03d
00000080: b315 dd3d 51aa e03d 4e08 39bd 92a4 953d
00000090: 450f 033c b3d9 453c b6b9 3cbb 13c6 33bd
000000a0: d9c9 ef3d 0b8d b43d 5b3f 923c 9994 ca3d
000000b0: 0a41 323d 8572 bbbd 3be1 43bd b10c 6b3d
000000c0: f3d8 80bc 2c5c be3c 979c c63c 0ad8 86bb
000000d0: a49c d33d 6ff3 82bc 4ce7 3cbd c9d3 db3c
000000e0: 7c4e 82bb 7af8 4ebd ac5f 5cbc 535e 6fbd
000000f0: f731 843d 12aa a43d 2a88 9dbc 2086 db3c
00000100: 1f99 863c 7051 1b3d 73a6 8839 d325 273c
00000110: 2cc7 cabb 36c6 8fbd ad7e 4bbd 6fa2 ca3d
00000120: 3227 9c3d f385 98bd 4913 cdbc 1900 65bd
00000130: 3119 c4bc a7dc 0bbc 2a2b 07bd 7df7 02bd
00000140: c8c0 07bd 399c 82bc b0be 3b3d 2b8b 723c
00000150: bdc2 abbc 486b 85bd 1978 15bd cd15 4ebd
00000160: be3e 713c 7d4a 2cbc 54fe f1ba 16dd ec3a
00000170: e105 d4bd b0e8 3dbd ba67 e8bc 593d 42bd
00000180: 5f04 b93c d2bf d6bc bd88 3a3d 4e8b 053c
00000190: 81d0 debc 7d66 b1bb e1c9 6abb a1a4 6d3c
000001a0: 3964 38bd c958 06be 1e38 9938 9027 7ebd
000001b0: 2624 15bc 6372 e4bc ded6 2dbc 51e0 3cbd
000001c0: 61d8 87bc 38a1 b5bc f670 fe3c 7515 d03c
000001d0: 1dd0 12bd 3b17 27bc 7466 793d 34fe f83d
000001e0: 3985 60bd 8b24 c53b 5275 a7bd 85ec 093d
000001f0: a7f1 c63c 0898 9bbd 1b8f 9fbd 4210 a1bc
00000200: 8777 1f39 3a45 69bd 791c 273d c6cb f13c
00000210: fcf2 893d 8796 19bd afcf 3bbd a108 b33c
00000220: fd20 db3c b2c2 f7bc 7a37 a6bd 4598 103d
00000230: 9bc0 90bd c70c 353d dfcc 8bbc 2f28 debc
00000240: da31 98bc b338 57bd 2da6 78bd adc5 0fbd
00000250: 883f b4bd 75e1 98bd 56a9 79bd bcf7 2a3c
00000260: 423a 22bd c9dd 76bd feb2 f3bc 6842 46ba
00000270: 9a0f f13c 67e0 f4bc 2941 adbc d2dc 0dbd
00000280: 1de3 9f3d d432 6dbd 14e1 c4bb ca45 00bc
00000290: b76c 5cbb 058a 493c e1ec c83c 1242 00bd
000002a0: a102 13bc 08e1 c8bc f23b 80bd e5fa 64bc
000002b0: c76c d53c 70f3 3a3c d5cc 133d 98f7 e23d
000002c0: 3d94 513d 8f2e f13c aec5 80bd 456b 983d
000002d0: 7953 cc3c 7cf5 863c 9480 3d3d 762f 00bc
000002e0: 4491 983d 13ea dabd 0912 063d 883f e5bc
000002f0: 1302 7f3d 8800 7d3c 5ac6 593d 14f9 05bd
00000300: 52e3 3f3d e006 0ebd ad9a ba3b fca2 91bb
00000310: 7a7f 4d3c 1ab5 843d fd3e c4bc 640e 98bd
00000320: 739f ff3c eb54 383d 3c27 b7bb 2568 85bd
00000330: d1de ddbc 37fd 2e3d db0f 383d f51a 3e3d
00000340: d14a 92b8 d24d b9bd 0e6e 943c aa18 303d
00000350: d73b 9e3d ea6c 31bd 97c2 5dbd 807f 9fbc
00000360: 6f08 d43c d8c1 483d 4f1a c0bc 2d88 95bd
00000370: 26af 583d 8198 5fbd 529b 9d3c c1c2 663c
00000380: c4f1 c9bb 160d 95bd 734b 7dbc 9f15 f0bd
00000390: af12 423d ba08 2aba 333a bebd 12b2 133d
000003a0: 5a3f e63b c0c5 73bc 6a00 183d aede 72bd
000003b0: 40f2 d1bc 8529 a63c 8ea6 ff3c 0756 bf3b
000003c0: 7a02 26bd f4b9 e2bc c3a7 edbc 2f12 55bd
000003d0: 6777 a63c 2a2f 85bc b345 083e 810e 61bd
000003e0: a801 30bd 738b c2bd 5cca e0bc 7c8a bb3d
000003f0: aa0d 63bb 5f9e b63d 2c79 68bc 038e 493d
-0.041803017 -0.026823634 0.007688254 -0.02135909 -0.04152949 -0.058892243 -0.04644035 -0.13153204
-0.040246665 -0.17662738 0.01600068 0.007200109 -0.017589228 -0.11180059 0.032225464 0.015014282
-0.03281885 -0.041515924 0.0019676948 -0.020706048 -0.009118395 0.027336461 0.008903265 -0.030490858
-0.05420791 0.056259107 -0.015557078 0.034443922 0.08690738 0.03226034 0.021650987 0.109711625
0.107951544 0.10969985 -0.045173936 0.0730678 0.007999246 0.012075829 -0.0028797216 -0.04389007
0.11708421 0.08815964 0.017852476 0.09891624 0.043519057 -0.09152702 -0.04782222 0.05738515
-0.01572845 0.02323731 0.02424459 -0.0041151093 0.10332611 -0.015985219 -0.04611902 0.026834385
-0.003976641 -0.050529934 -0.013450544 -0.058439564 0.064548425 0.08040251 -0.019229967 0.026797354
0.016430436 0.03791946 0.00026063956 0.010201889 -0.006188294 -0.070202276 -0.049681354 0.09894263
0.076246634 -0.07447424 -0.02503361 -0.055908296 -0.023937793 -0.008536494 -0.03300015 -0.031974304
-0.033142835 -0.015943633 0.04583615 0.014803688 -0.020966882 -0.06514603 -0.036491487 -0.05031376
0.014724432 -0.010515806 -0.0018462637 0.001807126 -0.10352684 -0.046364486 -0.028369773 -0.047421787
0.022585092 -0.026214514 0.04554056 0.008150889 -0.027199032 -0.005413829 -0.0035825896 0.014504583
-0.045017455 -0.13119806 7.306061e-05 -0.06204945 -0.009102857 -0.027886575 -0.01061031 -0.046112362
-0.01658267 -0.022171602 0.031059723 0.025400857 -0.035843004 -0.01019841 0.060888723 0.121578604
-0.05481455 0.006016319 -0.08176674 0.03367283 0.02428515 -0.07597357 -0.07790967 -0.019661073
0.00015207949 -0.056950785 0.040798638 0.029516112 0.06735799 -0.03749707 -0.04585236 0.0218547
0.026749128 -0.030244205 -0.0811605 0.035301466 -0.070679866 0.04420164 -0.017065464 -0.02711877
-0.018578459 -0.052544307 -0.060705353 -0.035100628 -0.0880118 -0.074648775 -0.060952507 0.010435041
-0.03960634 -0.060270105 -0.029748436 -0.0007562996 0.029426385 -0.02989216 -0.021149235 -0.03463442
0.0780699 -0.0579098 -0.0060082767 -0.007829139 -0.0033634135 0.012300973 0.024527015 -0.03131301
-0.008972795 -0.024521366 -0.06261434 -0.013975834 0.026052846 0.011410579 0.036084015 0.11082381
0.05116676 0.029441146 -0.062877044 0.07442335 0.024942147 0.016474478 0.0462652 -0.007823816
0.07449582 -0.10689177 0.032732043 -0.027984396 0.062257838 0.015442021 0.05316768 -0.032708243
0.04684765 -0.034674525 0.0056947083 -0.004444478 0.0125426 0.06479855 -0.023955816 -0.0742462
0.031203961 0.04500286 -0.005589394 -0.065140046 -0.027083786 0.042721953 0.044936996 0.046412427
-6.975758e-05 -0.09048046 0.018118884 0.04299227 0.07726257 -0.04331676 -0.054140653 -0.019469976
0.025882928 0.04901299 -0.023450045 -0.07301364 0.05290141 -0.0545888 0.019239102 0.014084519
-0.006162854 -0.072778866 -0.015459883 -0.11722874 0.0473811 -0.0006486286 -0.09288444 0.036058493
0.007026595 -0.01487869 0.03710977 -0.059294395 -0.02562821 0.02028347 0.03120735 0.0058391127
-0.040529706 -0.02767656 -0.02901066 -0.052019294 0.020320607 -0.016257841 0.13307838 -0.054945473
-0.04297033 -0.09499254 -0.027440242 0.09157273 -0.0034645596 0.08916926 -0.014189046 0.0492077

layer1.conv.bias f4 [32]
00000000: 9684 1cbd f8fa 7fbd 815a 1bbc f24a 13bd
00000010: 2549 bd3c 5d51 c0bd 73cb 3dbd 6e2a 9e3c
00000020: 33f9 6f3d c7a3 af3d 8869 02be a7d0 f03c
00000030: 2560 5bbd bad7 723d ecfb 2abd acf8 a53d
00000040: f8e9 32bd 6e6a 58bd a285 743d c9a6 92bd
00000050: 4a9f 04be 234d f6bc 954c d0bd 6f4d a83d
00000060: e406 ad3c 7d6a 333d 3697 2a3d 3c98 6ebd
00000070: cce6 2abd 4183 d0bc 6709 d63c ffad febd
-0.03821238 -0.0624952 -0.009482027 -0.035960145 0.023106167 -0.09390519 -0.046336602 0.019307341
0.058587264 0.0857616 -0.1273557 0.029396368 -0.053558487 0.059287764 -0.041744158 0.08104071
-0.04368016 -0.052835874 0.059697755 -0.07160718 -0.12951389 -0.030066079 -0.10170857 0.08217894
0.02112145 0.043802727 0.041648112 -0.05825065 -0.04172401 -0.025453212 0.02612753 -0.12435531

layer2.conv1.weight f4 [32, 32, 3, 3]
00000000: ee5b d63c f2ca 0bbd 6b32 16ba 1c42 debc
00000010: 5ca4 f0bc a8bb 683b af94 0b3d 11c2 15bb
00000020: 6344 9bbb e2b7 a7bb f9d0 c4bb ccc0 b0bc
00000030: 26f6 1cbb 87e1 26bc bab2 ecbc 57a2 87bc
00000040: 8fbb 3ebc 8106 1a3c 8caf 7ebc 348b f33c
00000050: 7713 16bd 52b2 12bd aac0 edba b98b 9bbd
00000060: 934d d83b 45c0 343c 2250 9cbd 428e a3bc
00000070: e538 2fbc ac33 f5ba 1f31 83bc fa59 9abc
00000080: c42b 983b 5caf 393d c56c 543c 9532 22bb
00000090: 3f97 e4bb dfbb ccbb 6ae7 48b9 8e51 23bd
000000a0: 8a37 cb3c 1d5b 103c 7f6c 52bc cbdc 07bd
000000b0: 470c 8a3c 71ac 923d e612 f63c 4420 9cbc
000000c0: 0dcc ae3d 7dde c3bd 87ab 363c 0146 51bd
000000d0: 219b 22bd 425c ac3a 8467 1ebd ad52 533d
000000e0: ba24 03bd f6ef 8abc 98d3 a0bb cbd8 303c
000000f0: 9dc2 81bb ea45 223c c66b 75bd e07b 7dbc
00000100: 7c83 3a3c 35e3 80bb b1cd 25bd 020c 8b3b
00000110: 17f3 3a3b 6ea9 9cbb c893 893b 7e23 de3b
00000120: d4c8 363d 7ee3 003e 8522 fabc fcd1 ef3d
00000130: 9619 303d 9b2b 48bc 58f4 9c3d 20c8 223d
00000140: 1d36 bf3b 6a68 c338 4625 9e3c 52fa e43b
00000150: ad30 ce3c 6738 3c3d 1d03 cf3a 05b5 e53c
00000160: 3dc6 023d 841c 813c 4497 8f3c f7f0 2b3d
00000170: f50e 53bc 44ae a4bd 1024 dcbd 177c afbc
00000180: 90ff c33c 68d6 00bd 6a52 d3bc e428 64bc
00000190: 0c18 b03c e087 bcbc 9be5 a1bc 8fa7 a4bc
000001a0: fcb3 8e3d 6764 92bb 4776 2fbc 9c58 043d
000001b0: 914c d73c e043 bc3b f5b7 1a3c b609 e83c
000001c0: a58c 03bb c918 013c e37a e2bc 1c09 433a
000001d0: df33 493b eaf6 1e3d 81f7 08bd e944 693c
000001e0: 0f70 1abd 4e89 a0bc f141 e7bb 7a6b c4bd
000001f0: fb3d d3bd 0958 05bd 0ffe f6bb 45ea 933c
00000200: 6ffa b539 2aaa b83c 1800 a7bc ef85 68bb
00000210: 5296 93bc a8c1 403c 0a3c 0ebc 5bea 14bd
00000220: 168d 5abc c4f8 17bd 0f89 8838 d352 b0bc
00000230: f731 833b a274 e6bc e3d4 9f3c c22d a03c
00000240: 3ba6 153e 3323 81bd 4dec 12bd b0d5 e03d
00000250: 08e6 97bd 63cb 7a3c 654e 9cbc 389c eb3c
00000260: bf6b 6abc 414b 863d 0978 d9bc c71c 173c
00000270: 0981 afbd 670d 43bd ce8b aa3a 6c34 cc39
00000280: 0a80 38bd 1cd6 8dbb 7e5b 533d e5cb d2bd
00000290: 62be 32bd 5829 acbd 86d1 4fbd e9c3 f1bc
000002a0: 77a1 e33d 22af b93d 9c75 34bc 0215 243c
000002b0: 97cf 233b bfc6 aa39 b81a ae3b cd96 39bb
000002c0: d71e 1d3c 46ce 02bd bcaa 28bb 2bb9 043b
000002d0: 6f91 32bc 683c f5bb 129c 0ebc 4442 3ebd
000002e0: 5b64 463a 57cf 1a3b f8b3 af3c 59e9 72bd
000002f0: 2e0b 773b 04a3 f7bd 37f1 f9bd d8be d93b
00000300: 6196 6e3d d790 60bd a888 b3bb 3931 813d
00000310: 4e35 0bbd 733a cf3b fa5f 9ebd 1f89 91bd
00000320: e097 82bd bcc6 5abb 8f3c 61bd a324 6f3c
00000330: 6c03 843d 7e81 9cbd d549 43bd 3566 403d
00000340: 68f7 c9bc e85d 243d 136f 58bc 4235 4d3b
00000350: 12c3 a6bc 072f 86bb 02d7 f7bc d9b4 a2bd
00000360: 30d3 53bc 97db 6e3b 9c34 0c3d b539 9bbc
00000370: 3599 57ba b89b 853c 48cd 25bc 6dad 1c3c
00000380: a3ed c4bc 78ac 01bd e881 9d3c 7100 1ebd
00000390: 40dd eb3c 13b5 293d 2c55 77bb f3bc 8b3c
000003a0: ccbd 863d 161c c9bc bbad 0bbd ff3e 853c
000003b0: a828 3fbc 56ec af3a 3e7d 41bc 2e9d 173a
000003c0: 290c 783a d82d 92bd 371b 913a f42c 0bbd
000003d0: 3de8 58bd df82 2fbc e7b6 8c3d db2b cbbd
000003e0: 316e 9dbb 402e e33b 74b0 6ebd 774a 833b
000003f0: 2c31 0d3d 48ba 263d 9487 173c 22d1 99bd
0.026166882 -0.03412909 -0.0005729559 -0.027131133 -0.029375248 0.0035512242 0.034077343 -0.0022851268
-0.004738377 -0.005118356 -0.006006357 -0.021576308 -0.0023950427 -0.010185606 -0.028893817 -0.016556902
-0.011641397 0.009400965 -0.015544783 0.029729463 -0.036639657 -0.03581459 -0.0018139083 -0.07595009
0.0066010444 0.011032169 -0.076324716 -0.019965295 -0.010694717 -0.0018707416 -0.016014634 -0.018841732
0.004643889 0.04533325 0.012965386 -0.0024749388 -0.0069760378 -0.006247982 -0.00019159695 -0.0398727
0.024806757 0.008810786 -0.01284325 -0.03316955 0.016851557 0.07161797 0.030038308 -0.019058354
0.08535013 -0.09563921 0.011149294 -0.05109215 -0.039698724 0.0013150054 -0.03867294 0.051592518
-0.032017447 -0.016960125 -0.0049080364 0.010793875 -0.0039599673 0.009904364 -0.059917234 -0.015471429
0.011383887 -0.003933335 -0.040479366 0.004243375 0.002852624 -0.00478094 0.004198525 0.0067791333
0.04462512 0.12586781 -0.030534038 0.11709973 0.04299315 -0.012217428 0.07663792 0.039741635
0.005835308 9.317773e-05 0.019304883 0.0069878483 0.025169695 0.045952227 0.0015793775 0.028040418
0.031927336 0.015760668 0.017528184 0.04197785 -0.012881984 -0.08041051 -0.10749066 -0.021421475
0.023925573 -0.031454474 -0.025796134 -0.013925765 0.021495841 -0.023014009 -0.019762805 -0.02009943
0.06967923 -0.0044675353 -0.010709352 0.032311067 0.026281627 0.005745396 0.009443273 0.028324943
-0.0020072844 0.007879444 -0.027646488 0.0007440017 0.0030701084 0.038809694 -0.033439163 0.014237621
-0.037704524 -0.019596722 -0.0070574214 -0.09590812 -0.10314556 -0.03255466 -0.0075376104 0.018056044
0.00034709598 0.022542078 -0.020385787 -0.0035480221 -0.018016014 0.011764921 -0.008681307 -0.03635631
-0.013339302 -0.037102476 6.5105145e-05 -0.021523869 0.004003759 -0.028131787 0.019510692 0.019553069
0.14614193 -0.06305542 -0.035869885 0.10978258 -0.07416922 0.01530728 -0.01908035 0.028761014
-0.014307915 0.06557322 -0.026546495 0.00922317 -0.085695334 -0.047620203 0.0013011636 0.0003894897
-0.045043983 -0.0043285023 0.051600926 -0.10292796 -0.043638594 -0.08406323 -0.050736926 -0.029512363
0.11114781 0.09066607 -0.011014368 0.010014774 0.002499556 0.00032573004 0.0053132437 -0.0028318644
0.009589872 -0.031935 -0.0025736531 0.002025197 -0.010898932 -0.0074840076 -0.008704202 -0.046449915
0.0007568055 0.002362212 0.02144812 -0.05930457 0.0037695873 -0.1209164 -0.12204211 0.006645065
0.05824888 -0.05482563 -0.005478937 0.063082166 -0.033986382 0.0063241064 -0.0773315 -0.07106232
-0.06376624 -0.0033382615 -0.054989394 0.014596137 0.06445965 -0.07641886 -0.047677834 0.046972472
-0.024654105 0.04012862 -0.013210076 0.0031312262 -0.020356689 -0.0040949616 -0.03025389 -0.0794465
-0.012928769 0.0036446804 0.03422986 -0.018948415 -0.0008224429 0.016309604 -0.010119744 0.009562832
-0.024039095 -0.03165862 0.019226983 -0.03857464 0.028792024 0.04143245 -0.0037739975 0.017057871
0.0657917 -0.024549525 -0.03410123 0.01626539 -0.011667408 0.0013421874 -0.011809645 0.00057836145
0.0009462261 -0.0713765 0.0011070733 -0.033978418 -0.052955855 -0.010712354 0.06870823 -0.09920474
-0.0048043956 0.0069330037 -0.058273748 0.0040066796 0.034470722 0.040704995 0.009248633 -0.07510592

layer2.conv1.bias f4 [32]
00000000: a73a f4b9 cce1 59bd 8334 95bd 09d7 0b3d
00000010: f2e7 0f3d a187 da3c 6450 f33c fdae 5dbd
00000020: 761a e4bc 27db 08bd c37c 3fbd c6da 45bd
00000030: fb90 9e3c b225 f2b7 4a14 1e3d 642f 333c
00000040: 91ef 9e3c 6256 463c 46f1 ccbc 32d4 093d
00000050: de64 1e3d cc63 6c3b de97 bcbc 3508 433d
00000060: bdb3 143d ad94 823b d0d5 35bc c2c8 68bc
00000070: 28a6 afbc 1d13 01bd c04d 843c de9c 653d
-0.00046583006 -0.053193852 -0.072854064 0.03414062 0.03513331 0.026676001 0.02970142 -0.05412196
-0.027844649 -0.033412125 -0.04674984 -0.04830434 0.019356241 -2.8866201e-05 0.038593568 0.010936592
0.019401344 0.012105556 -0.025017392 0.03364963 0.038670413 0.0036070226 -0.023021635 0.04761525
0.036304224 0.0039850087 -0.01109834 -0.014208021 -0.021441534 -0.03151237 0.016150355 0.056057803

layer2.conv2.weight f4 [64, 32, 3, 3]
00000000: 3c27 72bd 1654 fdbc 4961 3b39 fdf5 7d3c
00000010: f8b1 a9bb 78c2 a73b b0e9 46bd 5cd4 6e3d
00000020: 7b42 aeba 9142 d2bb 8add 843c c64e e03a
00000030: 3835 74bc fffe 043c 83b8 bbba 2970 da3b
00000040: c7b4 193d b5f6 193d a8f1 3bbd c20c b93a
00000050: cbf6 68bc 680b a63c 83f3 01bc a13d bc3b
00000060: f3b7 253d 934f ad3c 6f38 86bb 29c3 e7ba
00000070: 1e27 c03c 755b d2bb 9a56 03bd da51 bf3c
00000080: 0eb0 de3b a12d 9abc d957 21bd 2545 83bc
00000090: b222 fc3c 7674 013d b0ee b83b 1104 d6bb
000000a0: 9116 a83c 2503 9abc cddb 83bd 2c5c 9ebc
000000b0: a59a b43a 6d84 333d 67bf 2cbd 76af ce3c
000000c0: 320e f23d 5d47 21bd 07d5 d0bc abf7 aa3a
000000d0: 2890 453d 4a5c 573d 7099 563c 39cf aabc
000000e0: cffa 71ba cbbb 5d3c 15a0 15bd 3a7e 843c
000000f0: a6d7 79bb 1d47 8e3b dea7 b3bb a009 e03c
00000100: 8be9 34bd d990 893c 0f00 193d 2574 123d
00000110: 967a 223b c60d 36bd f419 3d3c 45c9 aab9
00000120: 86b7 7abc fa9b e03a c66c 943c b8c0 c33b
00000130: 1a93 da3b d5a7 703d e65f 8abb 6100 0b3c
00000140: e28c d93c 1930 86bb 8bbd 13bc f54e 7b3c
00000150: ada0 cd3b fb2b 093c e63d e3bb 20ea ac3c
00000160: e082 14bb dfc3 ba3c 542e 113c 6e7e 70bc
00000170: c27c 7b3c f286 3fbc ecb4 d73c e267 ea3c
00000180: f473 333d 7cda 0dbc cf23 ccbc 2fc0 093d
00000190: 1f9f eeba a198 87bb 110d 4a3b 5ca5 1a3c
000001a0: ee8e 8cbb ee54 783c 5020 d13b b892 623b
000001b0: 08bd 593b 8d23 7d3b f466 a23a 5e27 bf3c
000001c0: 6c89 6dbc aa34 f73c a58b adbb c073 72bb
000001d0: ec7f 33bd e3cb 0f2c 2a46 9328 ecc9 1ba8
000001e0: 3073 c822 2227 0da5 df14 04a6 cdab a085
000001f0: f21a 3990 abf0 d48e 3d99 e63c 0693 f8bc
00000200: d5b1 c53c bd02 fa3b 5c60 a6bb aaf3 df3c
00000210: e289 a0bb 5f66 b63c 6dcc 41bd d8cf 7c3c
00000220: c7e3 c5bb 1af2 b33c 5e56 03bd 33ae 1abd
00000230: ad1e cbbb c17a a9bc ad48 343c 51a7 943c
00000240: d461 10bc 9428 48bb 5eb2 3d3d d59f 973b
00000250: 07da 4abc 31b3 c1bb 6918 f9bb f393 3abc
00000260: 20f4 c03b ae7a 8f3b b42b f4bc a775 b2bc
00000270: 8ec7 3fbb 1581 053d c001 9cbb 4e6b 613b
00000280: 2cde 213d 9139 223d 0505 c8ba f4ac 373d
00000290: 67db 0f3a c14f 15bd 4cbe ea3c 3850 12bd
000002a0: 1ae3 4bbd fd7b 563c 0aab e23c cee4 c73c
000002b0: 3552 35bc faea 303c 298d cc3c 6cbf 40bc
000002c0: 7f36 71bd 3283 b1bb e792 aa3c da0b d33c
000002d0: 39b9 463b 4817 9cbb 5c20 673b 6070 9eba
000002e0: f47e 543c 0525 0d3c 8222 9bbc 2073 3f3d
000002f0: 4c70 6b3c e44c 6138 b027 123b b3da 6ebb
00000300: 1745 8dba e15a 013b 34ed 3fbb d055 67ba
00000310: 2b36 edba 44cf 47b9 bc8c 8cbb 4f81 703b
00000320: 34f9 07bb 1625 e83b a82c aa3b 90fb 93bb
00000330: 0412 3bbc 5fd4 c03c b5ae 85bc 6b89 733b
00000340: cd94 d7b9 b234 233b 2509 4abb 5dfa 483c
00000350: 4778 81bb 2a52 89bc ba84 ab3b 62e6 3fbb
00000360: 47d7 643b 258d 04bd fb6d 983c 2a8c 0c3d
00000370: 0e1f 21bc 015a 21bc cff6 a03c 0920 95bd
00000380: 8637 14bc b702 5dbb 732b 903a b1c4 003d
00000390: 477f b0bc 6a48 8fbc 4583 d3bb 94f9 fdbb
000003a0: 0188 2cbc 99e4 98bb 3c57 9f3c 6395 85bc
000003b0: 0136 393c 9c34 4f3a 268f 8cbc 57ab 96bb
000003c0: aa64 5abb 865c 8e3c 8e5d f13a c4b8 4abc
000003d0: bcad fd3b d343 e9bc 91a8 053c 25c1 333c
000003e0: e423 ca3c e707 a0bc f942 db3c a4d4 8f3c
000003f0: fc55 18bc 0911 d53c f708 f93b be32 fa3c
-0.059119448 -0.030923884 0.00017869951 0.015500543 -0.005178686 0.005119618 -0.048562706 0.05830799
-0.0013294959 -0.0064166267 0.01621892 0.001711332 -0.014905266 0.008117436 -0.0014321957 0.0066662026
0.03752592 0.037588794 -0.04588476 0.0014118182 -0.014218996 0.02026911 -0.007931593 0.0057446514
0.04045863 0.021156108 -0.004096083 -0.0017682064 0.023456153 -0.006419594 -0.03206501 0.02335446
0.0067958897 -0.018820586 -0.03939042 -0.016024182 0.030778263 0.031605206 0.005643688 -0.0065312465
0.020518573 -0.018800328 -0.06438408 -0.01933106 0.0013778998 0.043827463 -0.042174723 0.02523015
0.11819114 -0.039374698 -0.025492204 0.0013043782 0.04823318 0.052578248 0.013098106 -0.020850765
-0.0009230794 0.013533543 -0.03652962 0.01617347 -0.0038122921 0.0043419735 -0.005482658 0.02734834
-0.044168036 0.016792702 0.03735357 0.035755295 0.0024792305 -0.04444673 0.011541832 -0.00032574884
-0.015302544 0.0017136328 0.018118273 0.0059739016 0.006670368 0.058753807 -0.0042228578 0.008483977
0.026556436 -0.004095089 -0.0090173585 0.015338649 0.0062752576 0.008372302 -0.006934869 0.021107733
-0.0022661015 0.022798477 0.008861143 -0.014678581 0.015349569 -0.011689888 0.026331387 0.028613988
0.043811753 -0.008658048 -0.024919419 0.033630546 -0.0018205381 -0.004138068 0.0030830542 0.009438839
-0.0042894995 0.015156968 0.006382026 0.0034572314 0.0033224244 0.0038625926 0.0012390302 0.023334201
-0.014498096 0.03017648 -0.005296188 -0.0036995262 -0.043823168 2.0434702e-12 1.6350707e-14 -8.648013e-15
5.433207e-18 -1.2243059e-16 -4.5824985e-16 -1.5109437e-35 -3.6505575e-29 -5.249379e-30 0.028149242 -0.030343544
0.024132648 0.007629721 -0.005077405 0.027337868 -0.0048992494 0.022265611 -0.047314096 0.015430413
-0.006039116 0.021966029 -0.032064788 -0.037763786 -0.006198725 -0.020688416 0.011003655 0.018146189
-0.008812387 -0.0030541765 0.046312682 0.0046272078 -0.012381083 -0.005911254 -0.007601787 -0.011387813
0.005888477 0.004378638 -0.029805996 -0.021784617 -0.002926323 0.032593805 -0.004760951 0.0034396234
0.03951852 0.03960568 -0.0015260285 0.044842675 0.00054877106 -0.036453012 0.028655194 -0.035721034
-0.049777128 0.013091085 0.027669448 0.024401095 -0.011066963 0.01079821 0.024969654 -0.0117643885
-0.058889862 -0.005417251 0.020822002 0.025762487 0.0030322804 -0.0047635175 0.003526709 -0.0012087934
0.012969721 0.008614783 -0.018937353 0.04674065 0.014370035 5.371579e-05 0.0022301488 -0.0036446273
-0.0010778037 0.0019738006 -0.0029285671 -0.0008824738 -0.0018097808 -0.00019055331 -0.004289238 0.0036698168
-0.0020747902 0.007084499 0.0051933117 -0.0045160726 -0.0114178695 0.023538766 -0.016318658 0.0037160765
-0.0004111886 0.0024903235 -0.0030828204 0.0122667225 -0.0039511058 -0.016762812 0.005234328 -0.0029281606
0.0034918354 -0.03236117 0.01860713 0.03431336 -0.009834064 -0.009848119 0.019648938 -0.07281501
-0.009046441 -0.0033723542 0.0010999277 0.03143758 -0.021545066 -0.017490584 -0.0064548575 -0.0077506993
-0.010530473 -0.004665923 0.019450776 -0.016306585 0.011304379 0.0007904263 -0.017158102 -0.004598062
-0.003332416 0.017378103 0.0018414722 -0.012373153 0.007741658 -0.028474724 0.008157865 0.010971342
0.024675317 -0.019535018 0.026765333 0.01755745 -0.009297844 0.0260091 0.0075999456 0.030541774

layer2.conv2.bias f4 [64]
00000000: 8577 223b 8172 963b 2123 a43a bf17 0e3d
00000010: b7f2 acbc 3d19 7e3b 9ce0 8cb9 d4c9 a3ad
00000020: a485 99bc cb7c dabb b7c3 153c 7dc6 0dbd
00000030: 5794 4fbc 15a1 c6b6 233e cdbc 80da fc3b
00000040: a700 443d 0f14 ef3c cd99 5ebc 1043 03bd
00000050: ce05 3fbb 1bc8 f23c 74e6 38b7 05cd b9bc
00000060: f8f0 c83b aec5 e6bb 45b6 8fbb dfdc 1ebd
00000070: f168 03bb fd54 513b 4d69 3b3b 8808 463d
00000080: 9b7d ecbc 6358 06bd dcf8 0dbd 0e94 d7ba
00000090: 3a8f 913c 0b25 e5bc 5450 3dbd 8e20 3cb9
000000a0: c8d1 13bd 7bce 29bd 51c8 34bb 6a6b 97b9
000000b0: a7c8 e839 55ec 5abc bf19 03bb 84a9 513d
000000c0: 7e8a 3b3d 343c 9438 2596 193c 61b5 503a
000000d0: fb86 343d fc2e 973c cff2 1d3c 928d 3ebc
000000e0: dafd 643b 1f8e a1b0 2183 8bbc 1574 c43c
000000f0: db30 7bbc 8365 ecbc 7a2a 4cbd 20bb 00bd
0.0024790477 0.0045912866 0.0012522676 0.034690615 -0.02111183 0.0038772367 -0.00026870228 -1.8620584e-11
-0.018740483 -0.0066677085 0.0091409 -0.03461312 -0.012669644 -5.9196122e-06 -0.025054043 0.007716477
0.047852185 0.02918437 -0.013586474 -0.032046378 -0.0029147747 0.029636433 -1.1020911e-05 -0.022680769
0.0061322413 -0.007042608 -0.004385742 -0.038784858 -0.0020051564 0.0031941526 0.00285967 0.04834798
-0.028868487 -0.032799136 -0.03466116 -0.0016447322 0.017768491 -0.027971765 -0.046219185 -0.00017941205
-0.036088735 -0.04145668 -0.0027585218 -0.00028880994 0.00044399986 -0.01336201 -0.002000436 0.051187053
0.045786373 7.068404e-05 0.009374176 0.0007961598 0.04407404 0.018455021 0.00964041 -0.011630433
0.0034941346 -1.1754685e-09 -0.0170303 0.023981133 -0.015331472 -0.028856998 -0.049845196 -0.031428456

fc1.weight f4 [1, 3200]
00000000: 4bd5 9a3b f4df 02ba cf9a 043c 738d 333c
00000010: 682a a9bd eb10 1cbd 27f7 343d 9acc 683c
00000020: 63be 463b 5182 4b3a 1875 9bbc 7d88 1c3c
00000030: c0e9 d23b e61e 0c3c 8d12 833d ba9e c9bc
00000040: ee88 9abd 158a bb3b e1e8 73bc 0990 92bb
00000050: 0263 adba 3860 623b 9d86 20bb 3820 503c
00000060: bbb1 01bd 584d 0e3d 0dd8 62bd 8970 a1bb
00000070: d715 b9bb bd59 513c 489c c7bb 4e19 b4bb
00000080: edb5 bd3b a5d6 24bc 766e 86bc ae7e 963d
00000090: 82b2 a9bc b4c8 833c 4c84 243c 7334 8ebc
000000a0: 58e9 cbbc 5f79 39bc 98c8 18bb 7982 a0bb
000000b0: 9031 e43c cc6c 31bc c91a 293c f2f8 663b
000000c0: 705e dbbb 92e1 29bb 8033 47b8 ccac 0000
000000d0: 2b64 0180 c0ea 0000 def7 2231 cdbe 272d
000000e0: 756e 0100 3f0b 0080 234a 0000 3e5e f1b7
000000f0: a680 dab7 1821 a2ba c602 9cb9 0e47 50bb
00000100: 4a79 158b 9f75 2eba 2b1a ecbb cdbe 5db8
00000110: 0bf7 1d3b 1d3a 123a 0c83 24bb 8da7 423b
00000120: e337 873b 15be 5e3a acf6 9434 badf 5eb8
00000130: c8ef f3ba e8de 8fbb 88f1 8c3a a574 32b9
00000140: 55e8 8e39 368f 07bc cf29 0abc 57eb 083b
00000150: 4469 d0b3 81e1 033c 34d0 4a3b 3226 023a
00000160: 695f 6cbb 0250 873b e895 17ba 1d9b b7bc
00000170: 2b65 d53b bbd3 0a3c ded9 19b2 6ca8 743d
00000180: 306d b63d 4fb2 b03b 41aa ebb8 0ea6 823b
00000190: 08ea 0100 2f2f 0100 ff12 0000 e68e 98bc
000001a0: 93de 03bd 1ca8 e03d 411b 2c3d 9bb3 0080
000001b0: 172d 523b 3ca8 053c 1a44 a6bb be0a 3738
000001c0: 1832 0000 f754 a284 a4ce e4bd a4c7 8f3d
000001d0: 9ba2 973d 05c8 0000 2528 3d37 fc25 0b3c
000001e0: ad66 6538 bc4f 0b37 99fb 4dba edd0 0100
000001f0: 3700 54be ebfa ef3c ab93 0c3d 23d2 9439
00000200: 1c36 0280 7b66 843c f872 0280 619b 823a
00000210: 20bf 2cbb 680e 1000 6f9e afbd 6537 43bd
00000220: 3edf aab9 59ae 213a 1560 6dae 38c0 66bc
00000230: 9596 0080 68ea d7ba 5a27 c6bb b8c8 f4bc
00000240: 67a3 d0bd 089b b13b d770 603b f464 27bb
00000250: f501 b63c 683c d13c 0db2 bfbb 47de f9bb
00000260: 72fe b0bb 7fd7 75bc 6e49 a1bc a2ea de3c
00000270: 1ca0 173c ef46 bf3a 6949 183c 7843 ad2c
00000280: 50bd 08bc 26e5 80ba d1c0 a8ba f151 80bb
00000290: 5a51 553c 7396 c43c d840 34bb 3b4f e7bb
000002a0: a630 0cba 24ef 0000 ca34 4a3c 9855 8c3c
000002b0: adcb 5bae 0ae8 6dbb 82fc be3a 9cf9 b33d
000002c0: 02bf 7c3c e5b4 0000 4b57 d83b f958 0080
000002d0: 6d55 c93c 5a41 c6bb 195d a2bb 973d acbc
000002e0: a249 c0bd 7fc2 97bd 85c6 04bd 7516 253c
000002f0: c3a3 673c 8e11 0000 d401 d1b9 4b66 9d3a
00000300: 6779 093b 3c95 82ba ced5 51bd 4281 08bd
00000310: bbae d1bb 8e1c 3fbc c4c6 b13c b88c c7bc
00000320: cf05 ad3b 9286 c03b 770d 2f3b f5f3 bdbb
00000330: bcac 1a3d 0bb1 253d 8350 463c 6869 f73a
00000340: b3d6 5e3a 5012 58ba 69fb 923b 1ca2 dfba
00000350: 22cb 4bbb 3eef 75ba 595d 15bb 3c2a a5ba
00000360: ba42 823c b9d6 04ba b83d b63b c3ca 57ba
00000370: 4a8c 9abb 5d03 d4b9 837d 36ba 0c60 1e39
00000380: f85e 2ebc 2afa b13b c3b7 533c a7e3 f3ba
00000390: 90b4 a3bb b7a0 71bb 7a83 a3bb 5cf2 10bb
000003a0: a080 e83a 6984 293b 0313 2bba 2ff9 00bb
000003b0: bb33 9d3b 42f3 193b a1a6 87ba d4fd 3aba
000003c0: 8495 8d3a 2d73 0dbb 069d 76b9 6d5b e03a
000003d0: 8c20 ca3a 587e 07ba 3001 2b3a e40a 87ba
000003e0: add8 ed38 c890 8cba b05d 383c cd25 8fbc
000003f0: 5f48 633c f242 62bc be20 96bd 017d 743d
0.0047251335 -0.0004992478 0.00809355 0.010959017 -0.082600415 -0.03810207 0.044181015 0.014208937
0.0030325882 0.0007763254 -0.018976733 0.009554026 0.0064365566 0.008552289 0.06400023 -0.02461182
-0.075456485 0.005723248 -0.014887066 -0.0044727367 -0.0013228359 0.0034542214 -0.0024494298 0.012702994
-0.031663638 0.03474173 -0.055381823 -0.0049267453 -0.0056483555 0.012777743 -0.006091628 -0.0054961806
0.0057895095 -0.010060941 -0.016410094 0.07348381 -0.020715002 0.016086914 0.010041308 -0.017358994
-0.02489154 -0.011320441 -0.0023312923 -0.004898366 0.027855664 -0.010829162 0.0103213275 0.0035243598
-0.0066946074 -0.0025921804 -4.749326e-05 6.1988e-41 -1.27769e-40 8.4212e-41 2.3714999e-09 9.535217e-12
1.3146e-40 -4.034e-42 2.6595e-41 -2.8773324e-05 -2.6047532e-05 -0.0012369482 -0.00029756705 -0.0031780633
-2.8787604e-32 -0.00066551 -0.007205268 -5.2868203e-05 0.0024103548 0.00055781176 -0.0025102524 0.0029701919
0.0041265353 0.00084969524 2.7746626e-07 -5.3137286e-05 -0.0018610889 -0.004390586 0.0010753134 -0.00017018856
0.0002725745 -0.00827389 -0.0084328195 0.0020892227 -9.7049025e-08 0.00804937 0.0030946853 0.0004964798
-0.003606761 0.0041294107 -0.00057825306 -0.022412831 0.0065123043 0.008473332 -8.955309e-09 0.059730932
0.089075446 0.00539235 -0.000112373855 0.0039870804 1.7579e-40 1.08762e-40 6.815e-42 -0.018622827
-0.032194685 0.10969564 0.04201818 -6.443e-41 0.0032070333 0.008157786 -0.0050740363 4.3640604e-05
1.797e-41 -3.8164045e-36 -0.11172226 0.070205 0.074040614 7.1753e-41 1.1274625e-05 0.008492943
5.469348e-05 8.30361e-06 -0.00078576204 1.66784e-40 -0.20703207 0.029294452 0.034320515 0.00028385324
-2.03082e-40 0.016162148 -2.24914e-40 0.0009964519 -0.0026359037 1.474536e-39 -0.08575141 -0.04766025
-0.00032591255 0.00061676424 -5.39729e-11 -0.014083914 -5.4019e-41 -0.0016473057 -0.0060471715 -0.029880866
-0.101874165 0.0054200925 0.0034246945 -0.002554235 0.02221773 0.0255415 -0.0058500827 -0.0076253745
-0.005401426 -0.015004992 -0.019688334 0.027211491 0.009254482 0.0014593283 0.009294846 4.9244463e-12
-0.008345917 -0.0009833917 -0.0012874847 -0.003916018 0.013019884 0.023997521 -0.002750447 -0.0070590056
-0.00053478254 8.5787e-41 0.012341687 0.017130658 -4.9975735e-11 -0.0036301636 0.0014571103 0.087878436
0.015426399 6.4893e-41 0.006602203 -3.1917e-41 0.024576867 -0.006050271 -0.0049549458 -0.021025462
-0.09389044 -0.07410144 -0.032415885 0.010076155 0.014138165 6.297e-42 -0.00039864948 0.0012008635
0.0020976902 -0.0009962688 -0.05122929 -0.033326395 -0.0063990033 -0.011664523 0.021701224 -0.024359092
0.0052802335 0.005875417 0.0026710907 -0.005796904 0.03776239 0.040452044 0.012104156 0.0018876018
0.00085006206 -0.0008242475 0.004485537 -0.0017061862 -0.0031096418 -0.0009381658 -0.0022791235 -0.0012601088
0.015900958 -0.00050673966 0.0055615567 -0.0008231813 -0.004716431 -0.00040438297 -0.0006961452 0.00015103834
-0.0106427595 0.005431433 0.01292223 -0.0018607274 -0.00499589 -0.0036869475 -0.0049900385 -0.0022117114
0.0017738529 0.0025866276 -0.00065259653 -0.0019679775 0.0047974265 0.002349094 -0.0010349342 -0.000713316
0.0010802005 -0.0021583543 -0.00023518884 0.0017117091 0.0015421077 -0.0005168668 0.0006523309 -0.0010302928
0.000113414 -0.00107243 0.011252806 -0.01747408 0.013872235 -0.013809906 -0.07330464 0.059689526

out.0.weight f4 [1, 3200]
00000000: 4bd5 9a3b f4df 02ba cf9a 043c 738d 333c
00000010: 682a a9bd eb10 1cbd 27f7 343d 9acc 683c
00000020: 63be 463b 5182 4b3a 1875 9bbc 7d88 1c3c
00000030: c0e9 d23b e61e 0c3c 8d12 833d ba9e c9bc
00000040: ee88 9abd 158a bb3b e1e8 73bc 0990 92bb
00000050: 0263 adba 3860 623b 9d86 20bb 3820 503c
00000060: bbb1 01bd 584d 0e3d 0dd8 62bd 8970 a1bb
00000070: d715 b9bb bd59 513c 489c c7bb 4e19 b4bb
00000080: edb5 bd3b a5d6 24bc 766e 86bc ae7e 963d
00000090: 82b2 a9bc b4c8 833c 4c84 243c 7334 8ebc
000000a0: 58e9 cbbc 5f79 39bc 98c8 18bb 7982 a0bb
000000b0: 9031 e43c cc6c 31bc c91a 293c f2f8 663b
000000c0: 705e dbbb 92e1 29bb 8033 47b8 ccac 0000
000000d0: 2b64 0180 c0ea 0000 def7 2231 cdbe 272d
000000e0: 756e 0100 3f0b 0080 234a 0000 3e5e f1b7
000000f0: a680 dab7 1821 a2ba c602 9cb9 0e47 50bb
00000100: 4a79 158b 9f75 2eba 2b1a ecbb cdbe 5db8
00000110: 0bf7 1d3b 1d3a 123a 0c83 24bb 8da7 423b
00000120: e337 873b 15be 5e3a acf6 9434 badf 5eb8
00000130: c8ef f3ba e8de 8fbb 88f1 8c3a a574 32b9
00000140: 55e8 8e39 368f 07bc cf29 0abc 57eb 083b
00000150: 4469 d0b3 81e1 033c 34d0 4a3b 3226 023a
00000160: 695f 6cbb 0250 873b e895 17ba 1d9b b7bc
00000170: 2b65 d53b bbd3 0a3c ded9 19b2 6ca8 743d
00000180: 306d b63d 4fb2 b03b 41aa ebb8 0ea6 823b
00000190: 08ea 0100 2f2f 0100 ff12 0000 e68e 98bc
000001a0: 93de 03bd 1ca8 e03d 411b 2c3d 9bb3 0080
000001b0: 172d 523b 3ca8 053c 1a44 a6bb be0a 3738
000001c0: 1832 0000 f754 a284 a4ce e4bd a4c7 8f3d
000001d0: 9ba2 973d 05c8 0000 2528 3d37 fc25 0b3c
000001e0: ad66 6538 bc4f 0b37 99fb 4dba edd0 0100
000001f0: 3700 54be ebfa ef3c ab93 0c3d 23d2 9439
00000200: 1c36 0280 7b66 843c f872 0280 619b 823a
00000210: 20bf 2cbb 680e 1000 6f9e afbd 6537 43bd
00000220: 3edf aab9 59ae 213a 1560 6dae 38c0 66bc
00000230: 9596 0080 68ea d7ba 5a27 c6bb b8c8 f4bc
00000240: 67a3 d0bd 089b b13b d770 603b f464 27bb
00000250: f501 b63c 683c d13c 0db2 bfbb 47de f9bb
00000260: 72fe b0bb 7fd7 75bc 6e49 a1bc a2ea de3c
00000270: 1ca0 173c ef46 bf3a 6949 183c 7843 ad2c
00000280: 50bd 08bc 26e5 80ba d1c0 a8ba f151 80bb
00000290: 5a51 553c 7396 c43c d840 34bb 3b4f e7bb
000002a0: a630 0cba 24ef 0000 ca34 4a3c 9855 8c3c
000002b0: adcb 5bae 0ae8 6dbb 82fc be3a 9cf9 b33d
000002c0: 02bf 7c3c e5b4 0000 4b57 d83b f958 0080
000002d0: 6d55 c93c 5a41 c6bb 195d a2bb 973d acbc
000002e0: a249 c0bd 7fc2 97bd 85c6 04bd 7516 253c
000002f0: c3a3 673c 8e11 0000 d401 d1b9 4b66 9d3a
00000300: 6779 093b 3c95 82ba ced5 51bd 4281 08bd
00000310: bbae d1bb 8e1c 3fbc c4c6 b13c b88c c7bc
00000320: cf05 ad3b 9286 c03b 770d 2f3b f5f3 bdbb
00000330: bcac 1a3d 0bb1 253d 8350 463c 6869 f73a
00000340: b3d6 5e3a 5012 58ba 69fb 923b 1ca2 dfba
00000350: 22cb 4bbb 3eef 75ba 595d 15bb 3c2a a5ba
00000360: ba42 823c b9d6 04ba b83d b63b c3ca 57ba
00000370: 4a8c 9abb 5d03 d4b9 837d 36ba 0c60 1e39
00000380: f85e 2ebc 2afa b13b c3b7 533c a7e3 f3ba
00000390: 90b4 a3bb b7a0 71bb 7a83 a3bb 5cf2 10bb
000003a0: a080 e83a 6984 293b 0313 2bba 2ff9 00bb
000003b0: bb33 9d3b 42f3 193b a1a6 87ba d4fd 3aba
000003c0: 8495 8d3a 2d73 0dbb 069d 76b9 6d5b e03a
000003d0: 8c20 ca3a 587e 07ba 3001 2b3a e40a 87ba
000003e0: add8 ed38 c890 8cba b05d 383c cd25 8fbc
000003f0: 5f48 633c f242 62bc be20 96bd 017d 743d
0.0047251335 -0.0004992478 0.00809355 0.010959017 -0.082600415 -0.03810207 0.044181015 0.014208937
0.0030325882 0.0007763254 -0.018976733 0.009554026 0.0064365566 0.008552289 0.06400023 -0.02461182
-0.075456485 0.005723248 -0.014887066 -0.0044727367 -0.0013228359 0.0034542214 -0.0024494298 0.012702994
-0.031663638 0.03474173 -0.055381823 -0.0049267453 -0.0056483555 0.012777743 -0.006091628 -0.0054961806
0.0057895095 -0.010060941 -0.016410094 0.07348381 -0.020715002 0.016086914 0.010041308 -0.017358994
-0.02489154 -0.011320441 -0.0023312923 -0.004898366 0.027855664 -0.010829162 0.0103213275 0.0035243598
-0.0066946074 -0.0025921804 -4.749326e-05 6.1988e-41 -1.27769e-40 8.4212e-41 2.3714999e-09 9.535217e-12
1.3146e-40 -4.034e-42 2.6595e-41 -2.8773324e-05 -2.6047532e-05 -0.0012369482 -0.00029756705 -0.0031780633
-2.8787604e-32 -0.00066551 -0.007205268 -5.2868203e-05 0.0024103548 0.00055781176 -0.0025102524 0.0029701919
0.0041265353 0.00084969524 2.7746626e-07 -5.3137286e-05 -0.0018610889 -0.004390586 0.0010753134 -0.00017018856
0.0002725745 -0.00827389 -0.0084328195 0.0020892227 -9.7049025e-08 0.00804937 0.0030946853 0.0004964798
-0.003606761 0.0041294107 -0.00057825306 -0.022412831 0.0065123043 0.008473332 -8.955309e-09 0.059730932
0.089075446 0.00539235 -0.000112373855 0.0039870804 1.7579e-40 1.08762e-40 6.815e-42 -0.018622827
-0.032194685 0.10969564 0.04201818 -6.443e-41 0.0032070333 0.008157786 -0.0050740363 4.3640604e-05
1.797e-41 -3.8164045e-36 -0.11172226 0.070205 0.074040614 7.1753e-41 1.1274625e-05 0.008492943
5.469348e-05 8.30361e-06 -0.00078576204 1.66784e-40 -0.20703207 0.029294452 0.034320515 0.00028385324
-2.03082e-40 0.016162148 -2.24914e-40 0.0009964519 -0.0026359037 1.474536e-39 -0.08575141 -0.04766025
-0.00032591255 0.00061676424 -5.39729e-11 -0.014083914 -5.4019e-41 -0.0016473057 -0.0060471715 -0.029880866
-0.101874165 0.0054200925 0.0034246945 -0.002554235 0.02221773 0.0255415 -0.0058500827 -0.0076253745
-0.005401426 -0.015004992 -0.019688334 0.027211491 0.009254482 0.0014593283 0.009294846 4.9244463e-12
-0.008345917 -0.0009833917 -0.0012874847 -0.003916018 0.013019884 0.023997521 -0.002750447 -0.0070590056
-0.00053478254 8.5787e-41 0.012341687 0.017130658 -4.9975735e-11 -0.0036301636 0.0014571103 0.087878436
0.015426399 6.4893e-41 0.006602203 -3.1917e-41 0.024576867 -0.006050271 -0.0049549458 -0.021025462
-0.09389044 -0.07410144 -0.032415885 0.010076155 0.014138165 6.297e-42 -0.00039864948 0.0012008635
0.0020976902 -0.0009962688 -0.05122929 -0.033326395 -0.0063990033 -0.011664523 0.021701224 -0.024359092
0.0052802335 0.005875417 0.0026710907 -0.005796904 0.03776239 0.040452044 0.012104156 0.0018876018
0.00085006206 -0.0008242475 0.004485537 -0.0017061862 -0.0031096418 -0.0009381658 -0.0022791235 -0.0012601088
0.015900958 -0.00050673966 0.0055615567 -0.0008231813 -0.004716431 -0.00040438297 -0.0006961452 0.00015103834
-0.0106427595 0.005431433 0.01292223 -0.0018607274 -0.00499589 -0.0036869475 -0.0049900385 -0.0022117114
0.0017738529 0.0025866276 -0.00065259653 -0.0019679775 0.0047974265 0.002349094 -0.0010349342 -0.000713316
0.0010802005 -0.0021583543 -0.00023518884 0.0017117091 0.0015421077 -0.0005168668 0.0006523309 -0.0010302928
0.000113414 -0.00107243 0.011252806 -0.01747408 0.013872235 -0.013809906 -0.07330464 0.059689526

exp_avg f4 [32, 2, 5, 5]
00000000: 530b a4ba bd8d 52ba 49b6 c8b9 7cbf 05b8
00000010: d036 6539 17c9 b9ba 6dbe 65ba 8bc3 dab9
00000020: 75a2 0eb8 5ecd 9139 c3a1 baba 32bc 5fba
00000030: ddd6 b6b9 44f5 3438 2a68 a739 8709 abba
00000040: e916 42ba 5cf3 80b9 22cd 0e39 f480 db39
00000050: afa6 8fba e2f9 12ba 404d bbb8 e910 8239
00000060: 3e05 f939 4f72 96ba e4b1 38ba 9bcf 91b9
00000070: 4290 9338 cb8f a639 5c56 a9ba 98f0 4aba
00000080: 86ab 92b9 fbd3 d538 d2d1 a539 3fcf adba
00000090: 4ca2 46ba 0073 81b9 b0bf 1039 8665 cb39
000000a0: 0f86 a0ba c0cb 27ba c058 14b9 0f0a 6f39
000000b0: 3f44 e639 c466 88ba f873 fcb9 0557 0bb8
000000c0: 8fdc a039 ad12 073a 23e0 cbb9 a886 ebb9
000000d0: 782a fab9 cad7 f5b9 ff72 f4b9 6969 bab9
000000e0: c606 edb9 d81e fab9 be01 00ba a70f f6b9
000000f0: 94b7 afb9 fdd1 e4b9 da17 03ba a0e7 01ba
00000100: 6222 04ba c1a9 a8b9 5b25 efb9 9d8a 08ba
00000110: b7ce 0fba 6a17 0aba 8c66 9eb9 c820 eab9
00000120: 43c0 0fba be87 1aba fed9 1bba a9a9 e6b9
00000130: aaa8 01ba bb07 fbb9 243b 01ba 6c8b edb9
00000140: 923b dbb9 7a66 f9b9 cb01 00ba 9f92 fdb9
00000150: 74d6 f7b9 8ced c4b9 895d 01ba d287 05ba
00000160: 2829 07ba 37cb fcb9 11fe bdb9 e05c 02ba
00000170: 026b 0fba 2fb0 0fba f1dc 0fba 9537 b5b9
00000180: 5d59 01ba ef2e 16ba f9da 1cba 3227 18ba
00000190: 0c10 55b9 14ad cbb9 dec3 feb9 0a83 fdb9
000001a0: 1db2 e7b9 f257 8fb9 a943 e2b9 b582 02ba
000001b0: 0e70 03ba ad05 f4b9 fd7e b7b9 264f fbb9
000001c0: 3df7 08ba a895 03ba cc82 f3b9 f2e5 d3b9
000001d0: 37b3 06ba 285d 0fba 7927 0cba f624 03ba
000001e0: 111e f2b9 d71c 14ba 1d26 1fba d8df 20ba
000001f0: ccb1 1eba ba06 69b9 6d87 e4b9 54b9 16ba
00000200: b6d4 2bba 63f9 2fba 5136 a4b9 66b9 fcb9
00000210: 9178 1cba f0f6 26ba aef4 27ba 2e1f c0b9
00000220: 6110 07ba 0fae 20ba 4887 2fba 4dc6 2eba
00000230: 8e9f e1b9 4f2e 14ba af5d 2eba 10fd 3aba
00000240: c574 41ba e09d feb9 ddf5 22ba c6a1 3dba
00000250: e0e8 4eba 0cb5 60ba 44b4 0cba aa38 9ab9
00000260: 71a7 d3b8 7374 aa38 c1f3 7839 437f 0aba
00000270: 5c4c 95b9 b901 b8b8 fbb5 c638 f84e 8039
00000280: 638c f1b9 133b 83b9 2273 64b8 9baa ee38
00000290: 2c3a 7839 9bb4 bab9 34b2 2bb9 0051 0bb7
000002a0: 8e87 0339 9b05 7539 5270 69b9 43ff 8cb8
000002b0: dc0f 6838 e8af 2239 beaa 7c39 c006 04ba
000002c0: 244c 8db9 9d3d 26b8 dcf1 0c39 db31 9339
000002d0: 27d0 00ba 0b9c 7db9 fdc8 b9b7 5915 1f39
000002e0: b693 9339 e9c9 e4b9 0274 44b9 2191 7835
000002f0: 6e2a 2539 abc3 9039 e0d3 a4b9 df66 02b9
00000300: 45d9 4338 01bf 3339 6286 8a39 6927 40b9
00000310: 77db 06b8 1d5d c938 5962 4339 d40e 8239
00000320: f731 6bb9 dfc6 8db9 c7dc b7b9 d69b c2b9
00000330: bbf1 cdb9 7789 1bb9 6fd6 70b9 2c9f 9fb9
00000340: 4237 bdb9 8ccf c7b9 549c 8ab8 23de 2bb9
00000350: da9d 8eb9 50b4 abb9 ad0c c4b9 cd6e 54b5
00000360: 5690 04b9 3e13 80b9 5a1c a6b9 0bc6 b1b9
00000370: 7959 c337 3213 f5b8 b636 7ab9 1696 a2b9
00000380: 80e4 b6b9 c79f 83b9 49e1 9fb9 5f33 b4b9
00000390: 367e ceb9 2f89 ccb9 587b 2eb9 0db0 6fb9
000003a0: 7842 a6b9 81ae beb9 d545 cbb9 10cc a1b8
000003b0: 3832 4ab9 b62e 92b9 a414 b9b9 1830 bfb9
000003c0: 7b5a 80b7 d798 20b9 31b4 89b9 8d02 b0b9
000003d0: afd0 c3b9 787e e536 36c8 16b9 1246 8cb9
000003e0: 0f05 b5b9 f8a8 beb9 8632 ef39 bc21 c539
000003f0: 2fa8 a639 4190 9039 a693 7a39 f77b e639
-0.0012515582 -0.0008031985 -0.00038282786 -3.1888005e-05 0.00021859561 -0.0014174309 -0.00087640324 -0.0004172589
-3.4006738e-05 0.00027809566 -0.0014238883 -0.0008534818 -0.0003487383 4.3143766e-05 0.0003193033 -0.0013049104
-0.00074039266 -0.0002459538 0.00013618593 0.00041867013 -0.001095971 -0.00056066934 -8.931244e-05 0.0002480813
0.00047496887 -0.0011478158 -0.0007045551 -0.00027811233 7.036376e-05 0.0003176912 -0.0012919414 -0.000774154
-0.00027975085 0.00010196116 0.0003162758 -0.0013260617 -0.00075772847 -0.0002469048 0.0001380432 0.00038794818
-0.0012246984 -0.00064009055 -0.00014147442 0.00022796563 0.00043919866 -0.0010406603 -0.0004815159 -3.3221226e-05
0.00030681907 0.0005152624 -0.00038886172 -0.0004492302 -0.00047715358 -0.00046890817 -0.00046624985 -0.0003555522
-0.0004520921 -0.00047706696 -0.0004883072 -0.00046932438 -0.00033515377 -0.00043644002 -0.00050008076 -0.0004955474
-0.0005040524 -0.00032169934 -0.00045613464 -0.0005208643 -0.000548582 -0.0005267771 -0.00030212512 -0.00044656382
-0.00054836663 -0.0005894861 -0.0005945264 -0.00043995425 -0.00049460924 -0.0004788021 -0.0004929772 -0.0004530804
-0.00041815318 -0.00047569332 -0.00048830797 -0.00048365162 -0.0004727129 -0.0003756102 -0.00049348973 -0.0005093786
-0.0005155974 -0.00048216592 -0.00036238183 -0.0004972946 -0.00054709625 -0.00054812705 -0.000548794 -0.00034564422
-0.00049342756 -0.00057290395 -0.0005983557 -0.00058041804 -0.00020319241 -0.0003884813 -0.00048592588 -0.00048353552
-0.00044192458 -0.0002734061 -0.0004315649 -0.00049785833 -0.0005013951 -0.00046543535 -0.00034999094 -0.0004793342
-0.00052248297 -0.0005019554 -0.00046446023 -0.0004041638 -0.00051383994 -0.00054688985 -0.0005346458 -0.0005002761
-0.00046180238 -0.00056500494 -0.0006071048 -0.0006136871 -0.00060537155 -0.00022223117 -0.0004358845 -0.0005749662
-0.0006554829 -0.0006712882 -0.00031320986 -0.00048203318 -0.00059688935 -0.0006369194 -0.00064070045 -0.00036644324
-0.0005152282 -0.00061294524 -0.00066958787 -0.00066671224 -0.00043034222 -0.00056526525 -0.0006651533 -0.0007133046
-0.0007379766 -0.0004856428 -0.0006216446 -0.0007233884 -0.00078929774 -0.00085719 -0.0005367438 -0.00029415387
-0.000100924524 8.127922e-05 0.00023741928 -0.00052832457 -0.00028476387 -8.7741246e-05 9.475272e-05 0.000244729
-0.00046071698 -0.0002503028 -5.4466662e-05 0.00011380502 0.00023672794 -0.00035611246 -0.00016374217 -8.303905e-06
0.00012543632 0.00023367109 -0.00022262454 -6.7232664e-05 5.532788e-05 0.00015515054 0.00024096199 -0.0005036406
-0.00026950345 -3.9634866e-05 0.0001344154 0.0002807517 -0.00049138296 -0.00024186091 -2.2147311e-05 0.00015171374
0.00028148078 -0.00043637984 -0.00018735233 9.259839e-07 0.00015751433 0.00027611604 -0.00031438377 -0.00012436089
4.669397e-05 0.00017141925 0.00026421534 -0.00018325228 -3.2152482e-05 9.6017706e-05 0.00018633287 0.0002480658
-0.0002242996 -0.00027041786 -0.00035068972 -0.0003711867 -0.0003928075 -0.00014833162 -0.00022968066 -0.00030445436
-0.0003609006 -0.00038110872 -6.609471e-05 -0.00016390583 -0.0002720196 -0.00032750005 -0.00037393477 -7.913739e-07
-0.0001264227 -0.000244284 -0.0003168311 -0.00033907624 2.3287475e-05 -0.00011686086 -0.0002386224 -0.0003101087
-0.0003488399 -0.0002510531 -0.00030494694 -0.0003437055 -0.00039385416 -0.00039012122 -0.00016639882 -0.000228584
-0.0003171151 -0.0003636964 -0.00038771206 -7.715088e-05 -0.00019282929 -0.00027882092 -0.00035301328 -0.00036466192
-1.5300922e-05 -0.00015315726 -0.0002626493 -0.00033571236 -0.0003734878 6.8394547e-06 -0.00014379699 -0.00026755087
-0.0003452678 -0.00036365516 0.00045623275 0.00037599902 0.00031787294 0.00027573298 0.00023896861 0.0004396138

exp_avg_sq f4 [32, 2, 5, 5]
00000000: 3dc8 ae36 a779 8336 2774 4c36 6fa4 1a36
00000010: ad54 e335 267a cc36 63cf 9636 4ae4 6336
00000020: 587d 2736 c82e ee35 efbb cf36 00c8 9636
00000030: 907a 6136 6be9 2336 3fb1 e735 565c bd36
00000040: b092 8836 51ed 4a36 7a50 1436 6264 d635
00000050: f41c a136 6c24 6736 054f 2d36 0a8c 0136
00000060: bd51 c335 4e3e ad36 a3d3 5b36 d6b2 1a36
00000070: 8686 f235 adcc cb35 35f0 cd36 57bb 7b36
00000080: 4caa 2836 d1af f935 8d04 c835 0e6b d636
00000090: 5951 8036 bbb3 2436 818d ea35 86e8 b935
000000a0: a91c c736 9854 6b36 a807 1536 6aee d235
000000b0: 7a18 aa35 61b1 ab36 b465 4c36 fc4c 0236
000000c0: 8086 bc35 a0a3 9f35 5867 1c36 281e dc35
000000d0: b2d5 b635 7357 bb35 b5c0 c035 ec14 2836
000000e0: b5dc df35 1117 b535 f489 b935 5d1a c035
000000f0: 60e6 3936 ad80 ec35 8d79 b635 8ae8 b735
00000100: f260 bd35 7812 4b36 8dcf fa35 dc88 b935
00000110: bf93 b635 a653 bb35 4b63 4a36 86f0 f035
00000120: 3f66 a435 2ca0 9a35 5c9d 9d35 d55f 0236
00000130: 21ff d435 1ba0 c435 d4ad cf35 5cbb d535
00000140: b5a2 0536 434d d135 10aa be35 d232 cb35
00000150: 8205 d335 f9e9 1036 a265 d635 c150 bd35
00000160: 64cd c835 ee8d d135 cc0b 1d36 fd09 e035
00000170: 9617 bf35 7f1f c935 7ad6 d135 d5d6 1a36
00000180: 7576 d235 aa88 a935 dd80 af35 92be b835
00000190: af5a 8c36 9134 9c36 80aa 8c36 f6e4 5036
000001a0: 4dbf 1b36 8772 9036 dea9 9d36 a391 8c36
000001b0: 8eb2 5036 e503 1d36 864d 9236 7637 9d36
000001c0: 9cf4 8a36 9d8d 4f36 49e9 2336 51ad 9036
000001d0: e82b 9b36 b1cb 8836 b41b 4c36 2b2d 2736
000001e0: 4683 9336 57e5 9e36 6ba5 8c36 adb6 5036
000001f0: e7f8 2436 b6b2 8936 9a15 a236 82f1 9a36
00000200: cbba 7636 1fe2 3636 4352 9236 c5c6 a536
00000210: 628a 9b36 30c5 7436 db77 3836 e358 9836
00000220: 43ea a736 b5b1 9a36 9a96 7236 215b 3d36
00000230: ffb0 9a36 980e a836 0fb9 9936 282f 7136
00000240: 9741 4236 51b9 9e36 faaf ad36 7af2 9f36
00000250: a092 7d36 c52b 4a36 f9c8 bc35 04bd 8d35
00000260: c322 7b35 536f 6c35 556c 6535 df8b c035
00000270: b835 9035 acca 7c35 8005 6c35 234c 6335
00000280: be16 ad35 55cf 8135 f90d 6335 1ba4 5335
00000290: af12 4b35 0f97 8535 5322 4c35 f0d0 3435
000002a0: f965 2a35 d49a 2535 7157 3935 c1e7 1535
000002b0: 6d4a 0a35 727b 0535 8991 0335 4c27 cb35
000002c0: c717 8a35 5f62 5c35 a1fa 4c35 2264 4f35
000002d0: df58 c235 787a 8435 85ee 5535 7f35 4835
000002e0: 9b2b 4b35 a531 a635 da23 6435 05dd 3a35
000002f0: 5144 3135 86f5 3535 6fa1 7835 bdb8 2e35
00000300: d257 1435 94b3 1035 3407 1735 c5de 2b35
00000310: bab4 0235 f1b2 eb34 0c5a ec34 0c9c f734
00000320: 32ff 0c36 79ad f435 3236 d235 5a12 c835
00000330: c043 b535 ece8 0136 5b3d e735 890d cb35
00000340: adc2 c535 203d b635 cc87 0336 bedc e435
00000350: a9a1 c635 2372 c135 53ff b335 9e9b 0b36
00000360: 6e4b e735 d372 c135 a7c0 b935 a198 ad35
00000370: 3efa 0b36 d19e e035 83a1 b735 abff ae35
00000380: c11c a535 8c30 1936 4a96 0c36 dbed f535
00000390: f188 e735 cd49 ce35 5e39 0b36 e298 0436
000003a0: 1b50 ef35 1500 e735 c5fd d035 048d 0a36
000003b0: e2c2 0336 5dc3 ec35 6a11 e535 dbe8 d035
000003c0: e684 1136 2389 0536 fb7f ea35 369d e035
000003d0: be65 cb35 03e5 1436 2771 0436 2c71 e435
000003e0: 3fc5 d735 e670 c235 13e2 0736 7882 f535
000003f0: 12d3 2436 65b3 9e36 3b44 1b37 d57d 1436
5.208915e-06 3.9182664e-06 3.0465978e-06 2.3043501e-06 1.6937462e-06 6.0938937e-06 4.4944913e-06 3.3958518e-06
2.4957899e-06 1.7745997e-06 6.190959e-06 4.4936314e-06 3.3598953e-06 2.442476e-06 1.7262427e-06 5.6433882e-06
4.0701925e-06 3.0238482e-06 2.2100562e-06 1.5973458e-06 4.8015445e-06 3.4442883e-06 2.5825004e-06 1.9304011e-06
1.4552421e-06 5.163055e-06 3.2756732e-06 2.3051884e-06 1.8069557e-06 1.5184247e-06 6.13744e-06 3.751096e-06
2.5133077e-06 1.8603115e-06 1.4902486e-06 6.39016e-06 3.8241674e-06 2.4542521e-06 1.7475542e-06 1.3851247e-06
5.9339986e-06 3.5066969e-06 2.2207187e-06 1.5715607e-06 1.2673111e-06 5.1168468e-06 3.0457568e-06 1.941632e-06
1.4046236e-06 1.1894044e-06 2.3305965e-06 1.6400054e-06 1.362225e-06 1.3958037e-06 1.43612e-06 2.504613e-06
1.6679029e-06 1.3492264e-06 1.3823724e-06 1.4312787e-06 2.7701244e-06 1.762082e-06 1.3595433e-06 1.370224e-06
1.4109812e-06 3.0260107e-06 1.8686857e-06 1.3823405e-06 1.3603056e-06 1.3956931e-06 3.0158142e-06 1.7951395e-06
1.224871e-06 1.152051e-06 1.1743209e-06 1.942729e-06 1.5869483e-06 1.4649735e-06 1.5473292e-06 1.5924265e-06
1.9913252e-06 1.55942e-06 1.4205598e-06 1.5139469e-06 1.5722328e-06 2.1593862e-06 1.5973822e-06 1.41051e-06
1.4960938e-06 1.561302e-06 2.340169e-06 1.6692208e-06 1.4237473e-06 1.4984834e-06 1.5634134e-06 2.3072837e-06
1.5680695e-06 1.2631256e-06 1.307602e-06 1.3764532e-06 4.182882e-06 4.655282e-06 4.192174e-06 3.1127688e-06
2.3208152e-06 4.304867e-06 4.6987398e-06 4.1892795e-06 3.1098348e-06 2.339709e-06 4.360164e-06 4.685421e-06
4.1411968e-06 3.0927833e-06 2.4424683e-06 4.311711e-06 4.6244713e-06 4.0768286e-06 3.0414494e-06 2.491123e-06
4.3962236e-06 4.7354656e-06 4.1915823e-06 3.1100747e-06 2.4582785e-06 4.103723e-06 4.830491e-06 4.617673e-06
3.6765584e-06 2.7251733e-06 4.3607156e-06 4.940523e-06 4.63547e-06 3.6473612e-06 2.7487902e-06 4.540301e-06
5.0042595e-06 4.6102455e-06 3.6148472e-06 2.8216239e-06 4.6101627e-06 5.008489e-06 4.581299e-06 3.5939247e-06
2.894643e-06 4.7303406e-06 5.176288e-06 4.7667972e-06 3.7785285e-06 3.0125823e-06 1.4065582e-06 1.0560329e-06
9.355537e-07 8.807885e-07 8.546679e-07 1.4345823e-06 1.074447e-06 9.417224e-07 8.7924855e-07 8.4674883e-07
1.2896123e-06 9.67159e-07 8.458442e-07 7.884243e-07 7.565058e-07 9.953236e-07 7.604587e-07 6.735927e-07
6.3478325e-07 6.1692594e-07 6.9045115e-07 5.584407e-07 5.151731e-07 4.9726e-07 4.9013084e-07 1.5136116e-06
1.0288721e-06 8.2099535e-07 7.6360635e-07 7.725922e-07 1.4479991e-06 9.87041e-07 7.9695775e-07 7.4583653e-07
7.568685e-07 1.2382412e-06 8.498879e-07 6.9612025e-07 6.603705e-07 6.778504e-07 9.2622116e-07 6.508888e-07
5.526209e-07 5.39055e-07 5.6262365e-07 6.4026636e-07 4.8691766e-07 4.3902358e-07 4.4023943e-07 4.6120874e-07
2.101017e-06 1.8229904e-06 1.5661992e-06 1.4906502e-06 1.3505269e-06 1.9358076e-06 1.7228698e-06 1.5128618e-06
1.4734302e-06 1.3577846e-06 1.9599565e-06 1.7051568e-06 1.4799199e-06 1.4412839e-06 1.3410848e-06 2.0803195e-06
1.7232794e-06 1.4413039e-06 1.3839643e-06 1.2933925e-06 2.0858274e-06 1.6735522e-06 1.3681569e-06 1.3038419e-06
1.2301826e-06 2.2827035e-06 2.0949105e-06 1.8323148e-06 1.7250696e-06 1.5369675e-06 2.0746006e-06 1.9758522e-06
1.7830201e-06 1.7210865e-06 1.5571064e-06 2.0645684e-06 1.9633958e-06 1.7640228e-06 1.7066898e-06 1.5564978e-06
2.168404e-06 1.9898368e-06 1.7471606e-06 1.6735055e-06 1.515429e-06 2.218702e-06 1.9735396e-06 1.7020261e-06
1.6076154e-06 1.4486984e-06 2.024816e-06 1.8291894e-06 2.4560763e-06 4.729651e-06 9.254606e-06 2.2126962e-06

exp_avg f4 [32]
00000000: 9f99 8fba ea5e 433a 00cb 903a 1f60 e9b9
00000010: 214a 543a 1fe8 0cb9 8a0b 843a aaa3 cb39
00000020: 9a40 44ba 7ebc b83a eb22 aab9 39a5 933a
00000030: 6a03 cab6 9532 04ba 7a09 7739 d356 b5b8
00000040: cdaf 03b9 ff0c 30ba 33a2 92ba b149 8cb9
00000050: 073d 4738 6636 63ba eeab e4b9 6764 9c39
00000060: 39ba 1c3a 4373 85b8 2a91 9fb9 4a60 11ba
00000070: ec97 8bba 1ce2 74b9 0277 5bba 5895 99b9
-0.0010955817 0.0007452803 0.0011046827 -0.0004451284 0.0008098204 -0.00013437912 0.001007424 0.00038841116
-0.0007486433 0.0014094261 -0.00032450943 0.001126445 -6.0204666e-06 -0.00050429377 0.00023559286 -8.646925e-05
-0.00012558624 -0.0006715804 -0.0011187255 -0.00026757785 4.7502133e-05 -0.0008667469 -0.00043615646 0.00029829444
0.0005978677 -6.3634034e-05 -0.00030435 -0.0005545659 -0.0010650135 -0.00023353886 -0.00083719206 -0.00029293704
