results/2BS/T_1/L_1000/seed1/checkpoint.pth.tar (torch_old, 395611 bytes, 22 tensors)

layer1.conv.weight f4 [32, 2, 5, 5]
0.08040018 0.062409382 0.053158205 0.012688742 -0.02654128 0.022388715 0.1798962 0.091478094
0.043720126 -0.0691013 0.09248564 0.053077113 0.011154386 0.036978588 -0.022083372 0.03447124
0.072734006 0.067233495 0.022158254 0.04288232 0.071638234 -0.016245712 0.034373906 0.036097743
0.068517044 -0.011169093 -0.022167794 -0.07394759 -0.084360726 -0.046800684 -0.022616623 -0.13710354
-0.0050971066 -0.041990746 -0.089806825 -0.03563043 -0.10197975 -0.1168484 0.010181567 -0.022436444
-0.05603529 0.02075201 -0.10634384 -0.047644705 0.060929265 -0.057696223 -0.016932067 -0.09774129
-0.02374916 0.028547138 0.006194015 -0.11773574 -0.073898256 0.018547004 0.023077922 -0.16040525
-0.010776339 -0.06613513 -0.113386594 -0.08369046 0.0035469905 -0.13563833 -0.10364047 -0.101223364
0.033787716 -0.07760509 -0.14114276 -0.12158142 -0.14269827 -0.053162035 0.03371564 -0.041967288
-0.020526785 -0.03460087 -0.091313556 0.0050721318 0.06798588 0.06279824 0.16137736 0.021391828
0.02915118 0.057678435 0.12163034 0.14374183 0.13357556 -0.068680964 0.03144437 0.052222505
0.057198733 0.13622661 0.03371841 0.009265025 0.040241897 0.06477331 0.08972921 0.065705836
0.052761152 0.06782957 -0.025653033 0.05832445 -0.07980451 -0.11596232 0.010896486 -0.016946405
0.07768633 -0.010874201 -0.03327495 -0.047118165 -0.056832246 0.02976649 -0.015570914 -0.06268416
-0.007466809 -0.043190714 -0.08384455 -0.062027097 0.03132606 -0.0891927 -0.03828054 -0.04227632
-0.046410095 -0.008155972 -0.06375455 0.041025758 0.01383775 0.12849763 0.09975878 0.042390447
0.020347502 0.021163406 0.0023109529 -0.01958246 0.005776214 0.019146081 0.10938326 0.07677947
-0.072529115 -0.009946253 -0.0031602553 0.054518163 0.010130761 -0.053464986 -0.1606254 0.0035786896
-0.04091933 -0.01028977 0.107154414 0.034299187 -0.0059259264 0.029793091 -0.08464547 -0.028296093
-0.048288155 0.056265008 0.010110271 -0.049516045 0.036060173 -0.0074612773 -0.032551184 -0.008655826
-0.076317795 -0.060502123 0.061162718 -0.028859999 0.022853767 0.050151538 0.006901028 -0.011602032
-0.021644862 -0.055466544 -0.121191725 -0.03183846 -0.016554527 -0.07500031 -0.049821075 -0.089614354
-0.063299485 0.021800883 0.01670844 -0.024962898 -0.1243262 -0.045412187 -0.027967371 0.022442028
0.011597086 0.016271798 -0.025770478 -0.011979082 -0.008667464 -0.14118367 -0.1433927 0.035102665
-0.038533535 -0.011992911 -0.0123231225 -0.13460213 -0.03854149 0.08306724 -0.04209835 0.025704574
-0.062154997 -0.071831554 -0.039198298 -0.012593137 0.009162564 -0.0010611066 -0.026163194 -0.07252058
0.051875986 0.06678089 -0.13132471 -0.034854673 -0.04773512 -0.032099877 0.15252414 -0.03868018
-0.0500309 -0.046531476 0.072701626 0.18309313 0.0073582265 0.028451206 -0.054862328 0.03961276
0.13515928 0.018920448 -0.03778527 -0.056811485 0.011027109 -0.020965774 -0.057692252 -0.02566861
-0.0609995 -0.04481216 0.04292693 -0.064454004 -0.0904163 -0.10328826 -0.089852564 0.08944001
-0.110229716 -0.12652385 0.005105472 -0.10986752 -0.028378898 0.0018123636 -0.030197375 -0.105464056
-0.08752267 -0.040073715 0.1320227 0.0699349 0.08829598 0.056558143 0.04540636 0.017815493
00000000: d9a8 a43d fba0 7f3d 6bbc 593d 71e4 4f3c
00000010: 196d d9bc 8a68 b73c b636 383e de58 bb3d
00000020: e013 333d fb84 8dbd 1c69 bd3d 6367 593d
00000030: e3c0 363c dc76 173d 30e8 b4bc b731 0d3d
00000040: 91f5 943d b7b1 893d 3a85 b53c 5fa5 2f3d
00000050: 11b7 923d ba15 85bc a7cb 0c3d 3adb 133d
00000060: aa52 8c3d 92fe 36bc 3c99 b5bc d671 97bd
00000070: 51c5 acbd 13b2 3fbd 7f46 b9bc df64 0cbe
00000080: a105 a7bb 7dfe 2bbd a4ec b7bd 37f1 11bd
00000090: c2da d0bd 374e efbd 96d0 263c a2cc b7bc
000000a0: 4385 65bd 1f00 aa3c cdca d9bd 1827 43bd
000000b0: f790 793d e052 6cbd 1eb5 8abc 962c c8bd
000000c0: 998d c2bc b0db e93c 2af7 ca3b 701f f1bd
000000d0: f857 97bd e3ef 973c e90d bd3c 4641 24be
000000e0: 3e8f 30bc db71 87bd 3b37 e8bd e765 abbd
000000f0: a074 683b c6e4 0abe 7441 d4bd 324e cfbd
00000100: fd64 0a3d 6bef 9ebd ba87 10be aeff f8bd
00000110: 7f1f 12be 6fc0 59bd 6919 0a3d e4e5 2bbd
00000120: ca27 a8bc a4b9 0dbd 9a02 bbbd 2034 a63b
00000130: 2e3c 8b3d 5d9c 803d 1b40 253e ea3d af3c
00000140: 75ce ee3c 3940 6c3d 5419 f93d 0f31 133e
00000150: 08c8 083e 9ba8 8cbd d0cb 003d 44e7 553d
00000160: 3849 6a3d fd7e 0b3e 511c 0a3d 55cc 173c
00000170: b0d4 243d dfa7 843d f3c3 b73d c890 863d
00000180: 141c 583d 3bea 8a3d 4f26 d2bc 9ee5 6e3d
00000190: 8c70 a3bd a77d edbd 2d87 323c 30d3 8abc
000001a0: 031a 9f3d b429 32bc 504b 08bd fafe 40bd
000001b0: eec8 68bd dbd8 f33c 261d 7fbc 8e60 80bd
000001c0: 22ac f4bb bfe8 30bd b1b6 abbd 2010 7ebd
000001d0: c14f 003d aaaa b6bd 0ecc 1cbd ef29 2dbd
000001e0: 8318 3ebd a0a0 05bc bf91 82bd a00a 283d
000001f0: bbb7 623c e294 033e 554e cc3d 9ba1 2d3d
00000200: ceaf a63c e15e ad3c 5b73 173b 656b a0bc
00000210: 6546 bd3b 3ed8 9c3c 5504 e03d 8e3e 9d3d
00000220: 258a 94bd 9cf5 22bc 491c 4fbb 704e 5f3d
00000230: 7efb 253c 1afe 5abd fc7a 24be 7388 6a3b
00000240: 079b 27bd 6c96 28bc c673 db3d 4e7d 0c3d
00000250: 462e c2bb a410 f43c 9b5a adbd 35cd e7bc
00000260: cdc9 45bd 2376 663d 8da5 253c 56d1 4abd
00000270: d5b3 133d bb7d f4bb 6454 05bd 2ad1 0dbc
00000280: 814c 9cbd 13d1 77bd c285 7a3d ce6b ecbc
00000290: d337 bb3c b36b 4d3d 0522 e23b 7316 3ebc
000002a0: 9150 b1bc e330 63bd 5e33 f8bd 0c69 02bd
000002b0: 5c9d 87bc c399 99bd 2f11 4cbd bb87 b7bd
000002c0: 29a3 81bd c497 b23c 23e0 883c fe7e ccbc
000002d0: bc9e febd 2102 3abd d41b e5bc 58d8 b73c
000002e0: b401 3e3c 6f4c 853c 9c1c d3bc e943 44bc
000002f0: fb01 0ebc 7492 10be 89d5 12be d0c7 0f3d
00000300: 57d5 1dbd ea7d 44bc ece6 49bc 24d5 09be
00000310: aedd 1dbd 281f aa3d 526f 2cbd 6692 d23c
00000320: 3d96 7ebd 6c1c 93bd 658e 20bd 7253 4ebc
00000330: 941e 163c d414 8bba 3254 d6bc ab85 94bd
00000340: ea7b 543d 6bc4 883d fc79 06be c6c3 0ebd
00000350: e785 43bd 297b 03bd 4a2f 1c3e 1c6f 1ebd
00000360: 33ed 4cbd ca97 3ebd 97e4 943d c47c 3b3e
00000370: 471d f13b 8112 e93c 52b7 60bd fd40 223d
00000380: 3267 0a3e 0eff 9a3c bac4 1abd 29b3 68bd
00000390: 0cab 343c 6ac0 abbc b64e 6cbd fa46 d2bc
000003a0: 9dda 79bd f58c 37bd 26d4 2f3d 7600 84bd
000003b0: 2e2c b9bd cc88 d3bd 9f04 b8bd 532c b73d
000003c0: 1ec0 e1bd 788f 01be ce4b a73b 3902 e1bd
000003d0: dd7a e8bc d58c ed3a 7c60 f7bc 8afd d7bd
000003e0: 163f b3bd 5624 24bd f530 073e 073a 8f3d
000003f0: 86d4 b43d 83a9 673d 05fc 393d ccf1 913c

layer1.conv.bias f4 [32]
0.094756864 -0.14724699 -0.08586295 -0.018229293 0.11380156 -0.036350247 -0.23297225 0.076848336
-0.026350718 0.123366706 0.06789074 -0.14375186 0.066411234 0.031741325 0.07527202 -0.0135162
-0.032650918 0.07258683 0.042177152 0.004948042 0.1847913 0.06282615 0.09441894 -0.13952315
-0.065507315 -0.07302849 0.1729018 -0.03184555 -0.016835384 -0.042180996 -0.06989478 -0.19957943
00000000: e30f c23d eac7 16be ead8 afbd 9955 95bc
00000010: cb10 e93d ffe3 14bd 4790 6ebe a962 9d3d
00000020: 76dd d7bc afa7 fc3d 4d0a 8b3d b033 13be
00000030: 9d02 883d 3103 023d 3828 9a3d 0d73 5dbc
00000040: f8bc 05bd 67a8 943d f3c1 2c3d 2f23 a23b
00000050: ee39 3d3e ffaa 803d b85e c13d 28df 0ebe
00000060: b328 86bd f68f 95bd 2b0d 313e 7b70 02bd
00000070: 5cea 89bc fbc5 2cbd ff24 8fbd 8d5e 4cbe

layer2.conv1.weight f4 [32, 32, 3, 3]
-0.21965234 -0.096021995 -0.009959064 -0.19472852 -0.26982924 -0.045133524 -0.0940948 -0.06324366
0.14827502 0.069872044 0.0568677 -0.16037947 0.18154223 0.032896142 -0.100283325 0.050987568
-0.10510486 -0.140953 -0.11018931 0.05229715 -0.035085108 0.062404126 0.12686187 -0.082930736
0.01446611 0.061048273 -0.113483086 -0.0998469 0.09091971 0.043999575 0.15210569 -0.00913054
-0.04964101 0.06135285 -0.053481985 0.19352855 -0.027331132 0.10373106 0.060494166 -0.04356187
0.005243314 -0.08416723 -0.07879411 0.03140079 -0.14198788 -0.14848982 -0.17162725 0.17049801
-0.16347004 -0.030320149 0.10121922 -0.1712386 -0.09794052 0.04169747 -0.069783 0.017229564
0.11612905 -0.02722702 0.08756879 -0.030395407 -0.085265264 0.1602962 0.06856347 0.191397
0.055419732 -0.13563235 0.10964001 0.11109382 -0.039331168 0.05167533 0.117152534 -0.1058552
0.08891989 0.118771456 -0.13409911 -0.0281442 0.039118182 -0.07702644 0.0440608 -0.056917615
-0.26937813 0.09765455 -0.096977934 -0.08521494 -0.09751407 0.15426637 -0.0077733775 0.037604712
0.053475287 0.12351366 0.12833685 -0.0031218485 0.13894935 0.09260722 -0.031512994 -0.009421329
0.06892205 0.025369575 0.06726381 0.036405146 0.05133378 0.06532555 -0.03661783 -0.13151164
-0.09375482 0.14090966 -0.0848488 0.091357596 0.14634827 -0.02187245 0.031240834 0.034363825
0.09738012 -0.06481904 -0.10004482 -0.017479064 -0.10000841 0.049181174 -0.041284796 0.03623893
0.025949514 0.08016284 0.011836288 0.041221336 0.058310647 -0.059391227 -0.31086224 -0.14843036
0.0053228247 -0.18652014 -0.044071235 0.15540783 -0.18596853 -0.23534422 0.06520219 0.037581462
0.032175723 -0.1841973 0.11203928 0.015542184 -0.121332414 -0.1134988 -0.111083984 -0.051659316
-0.038944345 -0.04198819 -0.029002387 -0.003408983 0.07854268 -0.010336743 -0.20846865 0.06375317
0.031170921 -0.02054616 -0.060682703 0.084133804 0.047051474 -0.033508833 -0.0031528124 -0.010638563
-0.083779804 0.056702085 0.014188905 -0.09914137 -0.0048166425 -0.04107907 -0.062315185 -0.027650129
0.014466669 -0.20896015 -0.0067441645 0.087253764 0.013861383 -0.023632117 0.043096494 -0.039031822
-0.02296675 0.01624687 -0.021697745 0.008792865 0.109250724 0.13315283 0.030749127 -0.10305816
0.071696274 -0.06669877 0.088816635 0.0401281 0.031830717 0.026507014 0.010101619 0.015120492
0.0670219 -0.013221632 -0.075027056 -0.003261981 -0.01902759 -0.07598715 -0.023831168 0.013245499
-0.10064749 0.017759789 -0.010752794 -0.019784685 -0.0676936 0.01749953 -0.017275365 0.15134414
-0.18030228 -0.056743726 0.043453828 0.02872605 0.026084963 -0.06268425 0.06662515 -0.057728156
-0.040237043 0.08215493 -0.26364225 0.20026101 0.041995768 -0.19265793 0.15274565 -0.043376688
-0.04644736 -0.12372123 -0.13964519 0.15200776 -0.2017458 -0.02959613 0.098320864 -0.12578312
0.012183626 0.13531953 0.11207429 -0.0629018 0.0006689824 0.00619213 -0.056259938 0.11640362
-0.0056875367 0.11008182 0.044220738 0.10721049 0.020532217 0.064078726 0.08082751 -0.061118454
0.005212116 0.0052870098 0.069049366 -0.055188153 0.005854114 -0.024769185 -0.05446781 -0.02090439
00000000: 8bec 60be 2ea7 c4bd 582b 23bc ea66 47be
00000010: 0f27 8abe eedd 38bd c6b4 c0bd e485 81bd
00000020: 68d5 173e 1319 8f3d 1bee 683d 843a 24be
00000030: 35e6 393e 1bbe 063d 5861 cdbd 57d8 503d
00000040: 3841 d7bd fc55 10be efaa e1bd 8935 563d
00000050: 67b5 0fbd 789b 7f3d 14e8 013e 97d7 a9bd
00000060: 4303 6d3c c10d 7a3d d269 e8bd 887c ccbd
00000070: 1d34 ba3d e638 343d 98c1 1b3e 4398 15bc
00000080: 5f54 4bbd 204d 7b3d ed0f 5bbd 592c 463e
00000090: 8ae5 dfbc f370 d43d bbc8 773d ee6d 32bd
000000a0: 1bd0 ab3b de5f acbd ce5e a1bd 1d9e 003d
000000b0: 4565 11be b70d 18be 0ebf 2fbe 0897 2e3e
000000c0: b164 27be f661 f8bc 064c cf3d 2c59 2fbe
000000d0: 0a95 c8bd f7ca 2a3d 64ea 8ebd 0425 8d3c
000000e0: 11d5 ed3d 330b dfbc 4457 b33d caff f8bc
000000f0: 8e9f aebd b024 243e 016b 8c3d 93fd 433e
00000100: cdff 623d 35e3 0abe f18a e03d 2885 e33d
00000110: b819 21bd 83a9 533d abed ef3d 9cca d8bd
00000120: a21b b63d 733e f33d 4751 09be aa8e e6bc
00000130: 633a 203d 0ac0 9dbd 1979 343d 7222 69bd
00000140: eeeb 89be 1cff c73d 5e9c c6bd 2c85 aebd
00000150: 75b5 c7bd 01f8 1d3e d1b7 febb 6607 1a3d
00000160: e708 5b3d bbf4 fc3d bc6a 033e ed97 4cbb
00000170: bd48 0e3e dba8 bd3d c513 01bd eb5b 1abc
00000180: 0127 8d3d dbd3 cf3c 9cc1 893d 901d 153d
00000190: 5f43 523d 67c9 853d 94fc 15bd fdaa 06be
000001a0: 8702 c0bd 9f4a 103e 35c5 adbd b119 bb3d
000001b0: 52dc 153e da2d b3bc c7ec ff3c 15c1 0c3d
000001c0: 3a6f c73d d8bf 84bd 4ce4 ccbd 4130 8fbc
000001d0: 36d1 ccbd 3372 493d 3f1a 29bd 466f 143d
000001e0: 1394 d43c 6a2c a43d fdec 413c b4d7 283d
000001f0: 25d7 6e3d 3744 73bd 5629 9fbe 21fe 17be
00000200: 176b ae3b 23ff 3ebe 0a84 34bd 3b23 1f3e
00000210: 896e 3ebe 13fe 70be ba88 853d 05ef 193d
00000220: b1ca 033d 389e 3cbe da74 e53d a5a4 7e3c
00000230: 217d f8bd 0f72 e8bd 0080 e3bd b898 53bd
00000240: 1b84 1fbd cffb 2bbd 6a96 edbc 3e69 5fbb
00000250: fcda a03d 715b 29bc ce78 55be 0691 823d
00000260: 295a ff3c 6c50 a8bc 6d8e 78bd 584e ac3d
00000270: 0cb9 403d 8f40 09bd 6a9f 4ebb 5e4d 2ebc
00000280: bf94 abbd 7240 683d 9578 683c a10a cbbd
00000290: edd4 9dbb 8742 28bd 353e 7fbd 8682 e2bc
000002a0: 9c05 6d3c a6f9 55be 27fe dcbb 1ab2 b23d
000002b0: db1a 633c 2498 c1bc f385 303d d5df 1fbd
000002c0: c424 bcbc 2818 853c 78bf b1bc f30f 103c
000002d0: d8be df3d 3759 083e 98e5 fb3c 2810 d3bd
000002e0: 7fd5 923d 5d99 88bd 7fe5 b53d 5d5d 243d
000002f0: ed60 023d 3d25 d93c 4381 253c f1bb 773c
00000300: c742 893d 8b9f 58bc c9a7 99bd f6c6 55bb
00000310: c0df 9bbc 279f 9bbd 9539 c3bc a603 593c
00000320: 4520 cebd fa7c 913c 7d2c 30bc 7e13 a2bc
00000330: f1a2 8abd 2d5b 8f3c 1185 8dbc f5f9 1a3e
00000340: 29a1 38be 1c6c 68bd a4fc 313d e552 eb3c
00000350: 22b0 d53c 9a60 80bd c472 883d 5c74 6cbd
00000360: 99cf 24bd d840 a83d 1efc 86be 3911 4d3e
00000370: c103 2c3d 1f48 45be 5b69 1c3e c1ab 31bd
00000380: 963f 3ebd 8e61 fdbd 26ff 0ebe eca7 1b3e
00000390: 7396 4ebe 9573 f2bc 735c c93d 4acd 00be
000003a0: d59d 473c 3491 0a3e 3587 e53d a9d2 80bd
000003b0: a65e 2f3a 5ae7 ca3b d270 66bd 0565 ee3d
000003c0: 845e babb 9472 e13d ce20 353d 2c91 db3d
000003d0: 2e33 a83c b53b 833d e588 a53d 5857 7abd
000003e0: 66ca aa3b a73e ad3b c169 8d3d f90c 62bd
000003f0: ded3 bf3b bfe8 cabc a319 5fbd af3f abbc

layer2.conv1.bias f4 [32]
0.06339588 0.020605633 -0.013229825 0.023787621 0.0345568 0.07932229 -0.06656991 -0.0063685263
0.00789444 -0.042885926 0.05027982 0.03984221 -0.009755098 0.0569424 0.04576705 -0.048812825
0.03503198 -0.05153178 -0.0006769814 -0.042685874 0.012831383 -0.016425699 -0.02180044 -0.0490715
-0.047281414 0.0047882176 -0.0129608745 0.029874962 0.018275209 0.02809258 0.007522174 0.046051655
00000000: b3d5 813d 25cd a83c e8c1 58bc 42de c23c
00000010: 6e8b 0d3d ba73 a23d ce55 88bd 12af d0bb
00000020: ae57 013c 27a9 2fbd 36f2 4d3d 9631 233d
00000030: d9d3 1fbc 6f3c 693d 3b76 3b3d f5ef 47bd
00000040: b27d 0f3d fd12 53bd 7477 31ba 62d7 2ebd
00000050: b93a 523c 308f 86bc d696 b2bc 32ff 48bd
00000060: 28aa 41bd 7be6 9c3b d959 54bc 56bc f43c
00000070: e4b5 953c 6922 e63c 927c f63b a9a0 3c3d

layer2.conv2.weight f4 [64, 32, 3, 3]
-0.047811165 -0.14514405 0.017498327 -0.018475099 -0.07500367 -0.036706787 -0.12021393 -0.034054123
0.011232619 0.0143699385 -0.006455536 0.020922767 0.015643679 0.02211791 0.026994888 -0.00572912
-0.00041052463 -0.01000318 0.06040113 -0.038871218 -0.02025187 0.048853047 0.025152013 -0.055899847
0.008222984 -0.06783805 -0.062636755 -0.096239395 -0.00879862 0.08250129 -0.12807882 -0.050537046
0.013701818 -0.018597294 0.020065112 0.025295136 0.052764907 0.03943752 0.043753974 0.011835463
-0.10095117 -0.00057643495 -0.00393798 0.043392327 -0.05328532 0.036354423 -0.015352195 0.04495076
-0.021652276 0.02070249 0.02133764 0.024100421 0.026309704 0.052743156 -0.13695103 -0.053665433
0.05225819 -0.014668832 0.13917974 0.04529963 -0.0061046537 -0.045449596 0.034914043 -0.05535622
0.0026747736 -0.069214955 0.031276915 0.017197039 0.014304272 -0.036074016 0.008681631 -0.03814718
-0.013713388 -0.0048789503 -0.052618768 0.026635125 0.0076757753 0.056417648 0.049704235 -0.030858392
-0.008401737 0.07912668 0.03185469 -0.010986686 0.011214619 0.015230316 -0.060867917 0.08332624
0.0151913585 -0.0045192777 0.035462875 -0.036803216 0.08586641 0.029590502 -0.0026037942 0.0022428958
-0.04190841 -0.03173534 -0.004751077 0.03282889 0.009835096 0.029695263 0.029210111 0.025998041
-0.114364475 0.08825728 -0.045749728 0.07264574 0.031775143 -0.05541242 0.060652483 -0.049344223
-0.006954596 0.030203963 0.0038797068 0.052420452 0.04766503 0.02214978 0.07531869 0.026436381
0.027682273 0.06990515 0.03521239 0.063002184 -0.0046533546 0.04085264 0.045667782 0.007803468
-0.022024281 0.032152254 -0.03525388 0.014684297 0.0061007403 0.053752113 0.041573018 0.009376587
-0.03598091 -0.21221311 -0.020774001 -0.03874339 -0.17092305 -0.006136489 -0.007841182 -0.03672155
0.10561694 0.08136967 0.07613409 0.14670226 0.0013163028 0.022158174 0.06465636 0.054709423
-0.051880702 0.08796199 0.038592346 -0.0431845 0.061787546 -0.047196556 0.020263733 -0.0057041217
-0.15829349 0.029194629 0.06915159 0.046094235 -0.0053743627 0.040235773 0.034652647 -0.01601667
-0.010998248 -0.013052329 0.036732454 -0.019335007 0.07628874 -0.014712494 0.0033716597 0.051297672
-0.14983225 -0.034368496 0.031133156 0.27921364 0.08266678 -0.039867032 -0.027677938 0.01783448
-0.040339634 -0.07155746 -0.013746074 -0.07347261 -0.12242025 -0.01577556 0.030459248 -0.036104824
-0.024230255 -0.044877626 0.028191451 -0.041939646 -0.006339857 0.021313673 0.013499285 -0.0960368
0.020424906 0.066399634 -0.17174654 0.051862124 -0.01823463 -0.148927 -0.001930082 -0.09970427
0.011029628 -0.06913016 -0.027661456 -0.010819245 0.04743549 -0.05748191 -0.008532419 0.056663368
0.019244088 -0.08669107 0.14574727 -0.0018364089 0.016659828 -0.0018303035 0.005288407 -0.072451234
-0.0038249479 0.050126586 -0.009620981 -0.035056774 0.05463496 -0.0038845106 0.04186657 -0.014994994
0.014871961 0.01724794 0.13702664 -0.06632341 0.0042018727 -0.051298555 0.025225991 0.06650847
0.030471165 0.11153864 -0.071649775 0.012992713 0.013602096 0.039930813 -0.03424096 0.05551494
0.005956622 -0.063610114 0.005453671 0.098307386 0.09296923 0.006419504 0.0653308 0.026339779
00000000: a4d5 43bd a4a0 14be a758 8f3c 1759 97bc
00000010: 869b 99bd db59 16bd b932 f6bd 567c 0bbd
00000020: 0509 383c e46f 6b3c f688 d3bb 3966 ab3c
00000030: 2c27 803c 9f30 b53c 6224 dd3c 58bb bbbb
00000040: af3b d7b9 61e4 23bc 2d67 773d 6d37 1fbd
00000050: 40e7 a5bc 221a 483d 980b ce3c 3df7 64bd
00000060: b2b9 063c adee 8abd b347 80bd 2919 c5bd
00000070: 1628 10bc 70f6 a83d 1827 03be efff 4ebd
00000080: 977d 603c 5a59 98bc 975f a43c bf37 cf3c
00000090: 0420 583d 3d89 213d 5e37 333d 88e9 413c
000000a0: 7dbf cebd e51b 17ba 2c0a 81bb 27bc 313d
000000b0: b541 5abd 60e8 143d c687 7bbc 4a1e 383d
000000c0: 1d60 b1bc 4598 a93c 46cc ae3c 3f6e c53c
000000d0: 7387 d73c 3509 583d e43c 0cbe 49d0 5bbd
000000e0: af0c 563d 8a55 70bc 2285 0e3e 1b8c 393d
000000f0: 8c09 c8bb 5b29 3abd 0702 0f3d 34bd 62bd
00000100: 414b 2f3b 92c0 8dbd 391c 003d cee0 8c3c
00000110: 775c 6a3c 59c2 13bd 663d 0e3c 3840 1cbd
00000120: 1eae 60bc 9adf 9fbb c786 57bd e831 da3c
00000130: 1285 fb3b 3116 673d ab96 4b3d bdca fcbc
00000140: 70a7 09bc 2b0d a23d 107a 023d 8001 34bc
00000150: 85bd 373c 9388 793c a350 79bd f3a6 aa3d
00000160: 2de5 783c 7316 94bb 8541 113d f8be 16bd
00000170: bada af3d c867 f23c 6ba4 2abb 8cfd 123b
00000180: 27a8 2bbd eafc 01bd ecae 9bbb 9677 063d
00000190: 6223 213c 7b43 f33c 0b4a ef3c d8f9 d43c
000001a0: ec37 eabd 3cc0 b43d 1164 3bbd 4ac7 943d
000001b0: a726 023d 22f8 62bd bd6e 783d 2b1d 4abd
000001c0: 61e3 e3bb 4d6e f73c ae42 7e3b d4b6 563d
000001d0: 683c 433d 7573 b53c af40 9a3d 1c91 d83c
000001e0: efc5 e23c 6e2a 8f3d de3a 103d 4a07 813d
000001f0: 2b7b 98bb 1955 273d 240e 3b3d 3cb4 ff3b
00000200: 446c b4bc 15b2 033d 5f66 10bd 6896 703c
00000210: b8e8 c73b 2d2b 5c3d 7848 2a3d 42a0 193c
00000220: b860 13bd 654e 59be 3d2e aabc 64b1 1ebd
00000230: 7406 2fbe 9a14 c9bb 4d78 00bc 5669 16bd
00000240: b24d d83d 24a5 a63d 31ec 9b3d 1e39 163e
00000250: cb87 ac3a 0f85 b53c 8e6a 843d fd16 603d
00000260: dc80 54bd 6a25 b43d 0213 1e3d 3be2 30bd
00000270: f014 7d3d 2d51 41bd 2100 a63c a4e9 babb
00000280: b017 22be 9329 ef3c 599f 8d3d 4fcd 3c3d
00000290: 6c1b b0bb 44ce 243d efef 0d3d 6435 83bc
000002a0: ff31 34bc 70d9 55bc c574 163d 7364 9ebc
000002b0: 453d 9c3d ac0c 71bc 10f7 5c3b 821d 523d
000002c0: a06d 19be fbc5 0cbd f60a ff3c 17f5 8e3e
000002d0: 334d a93d 9d4b 23bd d8bc e2bc 9e19 923c
000002e0: 2c3b 25bd b88c 92bd 3737 61bc cf78 96bd
000002f0: 78b7 fabd bf3b 81bc ac85 f93c a7e2 13bd
00000300: 877e c6bc 9ad1 37bd c2f1 e63c e8c8 2bbd
00000310: 93be cfbb 039a ae3c 1b2c 5d3c f1ae c4bd
00000320: 2252 a73c 88fc 873d 53de 2fbe 616d 543d
00000330: ca60 95bc 5280 18be cefa fcba c131 ccbd
00000340: 9db5 343c 1d94 8dbd 479a e2bc 3443 31bc
00000350: b74b 423d 2772 6bbd 8fcb 0bbc d917 683d
00000360: c7a5 9d3c 168b b1bd c63e 153e a8b3 f0ba
00000370: 317a 883c cbe6 efba 604a ad3b 5061 94bd
00000380: faab 7abb 8951 4d3d 52a1 1dbc b197 0fbd
00000390: e8c8 5f3d 4693 7ebb 487c 2b3d 90ad 75bc
000003a0: 87a9 733c 8d4b 8d3c b650 0c3e 91d4 87bd
000003b0: ddaf 893b 6f1e 52bd bda6 ce3c 9835 883d
000003c0: aa9e f93c 5f6e e43d 1ebd 92bd 63df 543c
000003d0: 53db 5e3c 7e8e 233d 4040 0cbd a263 633d
000003e0: c42f c33b 0546 82bd b5b4 b23b 6255 c93d
000003f0: a766 be3d b45a d23b 28cc 853d 85c6 d73c

layer2.conv2.bias f4 [64]
-0.04498481 -0.01306129 0.06393402 -0.020705573 0.035709813 -0.003125025 0.019550966 -0.028879432
0.0666763 0.045731325 -0.039609633 0.0011446079 0.0489659 0.05959823 0.01776171 0.050986283
0.0063519245 0.0019935302 0.051659137 -0.017524993 -0.033518035 0.01665777 0.05222181 0.029081948
-0.048932552 0.048033077 0.038034935 0.00793233 -0.03160381 -0.03117009 -0.060178474 -0.04282886
0.008728342 -0.04311388 0.002663423 -0.0002509563 -0.0005935702 0.0047469847 0.022725808 0.022440612
0.017256312 -0.056752697 0.043573488 0.048073407 -0.003515746 -0.021393618 -0.016553873 -0.025926495
-0.036320433 -0.007698445 0.024125217 -0.035715338 0.032996286 0.052366436 -0.01316014 0.038605876
0.040080767 0.012899111 0.015303209 -0.009030213 -0.027540777 0.0110076135 -0.017994206 0.028380625
00000000: fe41 38bd 05ff 55bc d7ef 823d bc9e a9bc
00000010: 7444 123d 38cd 4cbb 5929 a03c 8f94 ecbc
00000020: 958d 883d c550 3b3d b63d 22bd ab06 963a
00000030: 7890 483d 461d 743d 0181 913c fed6 503d
00000040: ce23 d03b e3a5 023b 8898 533d 9390 8fbc
00000050: 354a 09bd e075 883c 89e6 553d 443d ee3c
00000060: 806d 48bd 55be 443d 85ca 1b3d 9af6 013c
00000070: ff72 01bd 6b58 ffbc b47d 76bd 516d 2fbd
00000080: 5201 0f3c 2e98 30bd d38c 2e3b c992 83b9
00000090: d299 1bba 988c 9b3b 792b ba3c 60d5 b73c
000000a0: 1c5d 8d3c 8475 68bd 1d7a 323d 9fe8 443d
000000b0: 6e68 66bb ab41 afbc fd9b 87bc cd63 d4bc
000000c0: bcc4 14bd 3d43 fcbb 3fa2 c53c 3f4a 12bd
000000d0: 1d27 073d 307e 563d a19d 57bc 3221 1e3d
000000e0: bb2b 243d cb56 533c 50ba 7a3c 75f3 13bc
000000f0: 329d e1bc 4759 343c 9668 93bc 7c7e e83c

fc1.weight f4 [1, 3200]
-0.011425332 -0.041534618 -0.0033816125 0.21300733 0.08922331 0.23814385 0.11746646 -0.038201224
0.0064007314 0.0009931076 0.017757496 -0.020654984 -6.302e-41 3.8959e-41 0.024421178 0.44166452
0.6536477 -2.29278e-40 0.1302334 -1.60386e-40 0.04763081 -0.022553533 -1.33891e-40 -0.0028613308
0.2920781 0.07898721 -0.29019496 0.023741996 -0.00026485228 0.094874635 0.022132693 0.07844452
-0.039629698 0.051011886 -0.021304274 -0.07233284 -0.18072852 -0.06959572 -0.008530756 -0.048783947
-0.002636321 -0.043877613 -0.04353236 -0.008419071 0.09394376 0.15760519 0.019848652 0.030281184
-0.019941298 -0.03567903 -0.026684806 0.0034583143 -0.028801663 -0.0016728136 0.1744812 0.018673826
-0.007831183 0.047156796 2.43005e-40 -0.121172115 -0.083248824 8.3503e-41 0.02886619 -0.011525985
0.3184894 0.11528672 -0.14629205 0.047523048 0.018804532 0.00047160249 0.060303252 -4.6117e-41
-0.18957818 0.01588238 -0.34726676 0.26995018 1.5164e-40 0.0074314172 -0.01632831 0.028676204
-1.8763e-40 -3.298666e-22 -0.0039370074 -0.0238344 -0.26302296 -2.04594e-40 2.0282e-41 -0.016773967
0.017510751 0.10904582 0.0036482825 -0.0182312 0.029590512 0.022850642 5.5239e-41 -1.13898e-40
0.0072169336 -0.016073551 -4.7262347e-06 -2.5755e-40 0.002456144 -0.024561975 -0.0059562605 0.056816272
-0.3960938 -0.15863922 -0.25784287 0.027377676 0.052789457 -1.93479e-40 0.02734929 0.057035457
-1.2115e-40 1.0258e-41 2.59473e-40 -0.047145374 -0.28871015 5.1306e-41 -5.8018e-41 -2.31038e-40
-0.018394573 -0.017408878 0.065485194 2.3203e-41 -0.24825461 -0.11259329 0.080510214 -0.10625414
2.34914e-40 1.02506e-40 0.027430708 -0.020181732 -0.014374098 4.4295655e-05 0.28134894 -0.0664676
0.09160405 -0.035764307 -0.045717552 0.020923652 0.008493583 -0.009712374 0.018183468 0.014201744
0.20388354 -0.030401213 0.086802654 0.013515999 0.03282906 -0.09518858 -0.035599306 -0.0057005025
-0.010329993 -0.0038196107 -0.080240674 0.052357998 -0.057145882 -0.014894199 0.011932139 0.010135882
0.037447084 0.054425288 -2.2096e-41 -0.010409406 -0.16162868 -0.06649909 -0.17053154 -4.086e-42
0.02075406 -0.017033115 -0.010204416 -0.00044733356 -1.66944e-40 -0.108741455 0.098009534 0.07977203
0.1421089 1.06155e-40 0.025344824 0.022073708 -0.025616884 -1.0623e-41 2.30697e-40 -2.6119e-40
-5.7078e-41 -0.16796392 1.20241e-40 -2.25504e-40 1.22803e-40 -1.80878e-40 0.028657096 -0.006407483
0.005497055 0.011158497 5.7927973e-15 -0.09377143 -0.0045049675 0.017922988 -0.0025876162 7.3902e-41
0.003467619 -0.0038309183 -0.007437996 0.06336457 0.0010131429 0.0008760827 0.02364676 0.0044719325
0.011714847 0.00064893404 -0.016761422 0.0018735786 0.013933713 -0.06541397 -0.02371903 0.04618785
-0.06317431 0.025615305 0.0078028883 0.032920524 -0.04496355 0.0108498465 -0.008211846 -0.031119796
-0.14458764 -0.020267474 -0.06574833 0.0026188558 -0.0047193537 0.012124475 -0.006401649 -0.0031892136
-0.0040684515 0.051084384 0.14983921 0.017219704 0.042001687 0.012510305 -0.03443446 -0.046439625
-0.002678106 0.02324508 0.0289685 -0.03477708 0.057366557 -0.026958724 -0.053175304 0.02097281
0.010045196 0.039046187 -0.00048584302 -0.039150886 0.03941274 0.021973064 -0.03940217 -0.05643042
00000000: 5131 3bbc 3420 2abd 0b9e 5dbb 981e 5a3e
00000010: b6ba b63d fbdb 733e 4192 f03d e378 1cbd
00000020: 3abd d13b 292b 823a 2b78 913c a434 a9bc
00000030: adaf 0080 9a6c 0000 ec0e c83c da21 e23e
00000040: 7555 273f 227f 0280 e85b 053e 17bf 0180
00000050: 8618 433d 30c2 b8bc 3c75 0180 2a85 3bbb
00000060: 438b 953e 0cc4 a13d 6f94 94be 937e c23c
00000070: dfdb 8ab9 a24d c23d 9f4f b53c 85a7 a03d
00000080: c052 22bd d7f1 503d 4d86 aebc 3d23 94bd
00000090: e610 39be 3388 8ebd 96c4 0bbc add1 47bd
000000a0: 20c6 2cbb 03b9 33bd fd4e 32bd 25f0 09bc
000000b0: 9665 c03d 4163 213e a499 a23c 3f10 f83c
000000c0: ef5b a3bc 2d24 12bd 189a dabc e3a4 623b
000000d0: 77f1 ebbc 4f42 dbba 33ab 323e daf9 983c
000000e0: 5d4e 00bc 7c27 413d 66a5 0200 1629 f8bd
000000f0: 5c7e aabd c6e8 0000 ca78 ec3c 7cd7 3cbc
00000100: 0b11 a33e 721b ec3d 95cd 15be 87a7 423d
00000110: f60b 9a3c 6a41 f739 8b00 773d 8e80 0080
00000120: c820 42be c41b 823c f3cc b1be e936 8a3e
00000130: b6a6 0100 3f83 f33b f3c2 85bc 5cea ea3c
00000140: 090b 0280 6264 c79b 0302 81bb 5c40 c3bc
00000150: f2aa 86be 533a 0280 8a38 0000 8f69 89bc
00000160: b572 8f3c 6a53 df3d 0618 6f3b 9959 95bc
00000170: cd67 f23c 4531 bb3c fc99 0000 803d 0180
00000180: 077c ec3b aeac 83bc 0c96 9eb6 f2cd 0280
00000190: 42f7 203b 3236 c9bc bc2c c3bb 2eb8 683d
000001a0: cecc cabe 5272 22be fb03 84be 2647 e03c
000001b0: c239 583d 571b 0280 9e0b e03c 039e 693d
000001c0: b851 0180 981c 0000 4ed3 0200 821b 41bd
000001d0: d1d1 93be 058f 0000 bba1 0080 0a84 0280
000001e0: 37b0 96bc 109d 8ebc 1a1d 863d ae40 0000
000001f0: 7536 7ebe 5097 e6bd 8ae2 a43d c59b d9bd
00000200: d88e 0200 bf1d 0100 5db6 e03c 2954 a5bc
00000210: 5681 6bbc 19ca 3938 f80c 903e 2a20 88bd
00000220: e79a bb3d 987d 12bd 5442 3bbd 1468 ab3c
00000230: ab28 0b3c a620 1fbc 7ff5 943c 6fae 683c
00000240: d9c6 503e f70b f9bc 97c5 b13d 3572 5d3c
00000250: c477 063d 3bf2 c2bd 94d0 11bd 48cb babb
00000260: 223f 29bc 6f52 7abb 3955 a4bd 5775 563d
00000270: cd11 6abd cc06 74bc 057f 433c f810 263c
00000280: 1d62 193d 0ded 5e3d 983d 0080 378c 2abc
00000290: fd81 25be ad30 88bd d29f 2ebe 640b 0080
000002a0: 6b04 aa3c 0889 8bbc 6c30 27bc 1888 eab9
000002b0: 5fd1 0180 d7b3 debd 39b9 c83d 855f a33d
000002c0: ff84 113e eb27 0100 f39f cf3c ecd3 b43c
000002d0: 80da d1bc 9d1d 0080 1783 0200 17d8 0280
000002e0: 1c9f 0080 bcfe 2bbe 2f4f 0100 9d74 0280
000002f0: 5356 0100 37f8 0180 49c2 ea3c ddf5 d1bb
00000300: a420 b43b 21d2 363c 20b5 d027 3c0b c0bd
00000310: 689e 93bb 3bd3 923c ff94 29bb 02ce 0000
00000320: fe40 633b 2510 7bbb 6fba f3bb 49c5 813d
00000330: 6fcb 843a eaa8 653a dab6 c13c 4a89 923b
00000340: a1ef 3f3c 3a1d 2a3a 404f 89bc de92 f53a
00000350: 3a4a 643c c2f7 85bd 694e c2bc 792f 3d3d
00000360: 8861 81bd 30d7 d13c 5faf ff3b acd7 063d
00000370: b32b 38bd 8ec3 313c fb8a 06bc f1ee febc
00000380: c80e 14be f907 a6bc 0fa7 86bd 1ca1 2b3b
00000390: cfa4 9abb bca5 463c edc4 d1bb 2002 51bb
000003a0: a550 85bb dc3d 513d 736f 193e 5610 8d3c
000003b0: f609 2c3d 06f8 4c3c 260b 0dbd 7a37 3ebd
000003c0: 2a83 2fbb 776c be3c 594f ed3c 6972 0ebd
000003d0: 32f9 6a3d 8bd8 dcbc 59ce 59bd 2ccf ab3c
000003e0: 9b94 243c e5ee 1f3d bfb8 feb9 ae5c 20bd
000003f0: 416f 213d db00 b43c 2b64 21bd 9623 67bd

out.0.weight f4 [1, 3200]
-0.011425332 -0.041534618 -0.0033816125 0.21300733 0.08922331 0.23814385 0.11746646 -0.038201224
0.0064007314 0.0009931076 0.017757496 -0.020654984 -6.302e-41 3.8959e-41 0.024421178 0.44166452
0.6536477 -2.29278e-40 0.1302334 -1.60386e-40 0.04763081 -0.022553533 -1.33891e-40 -0.0028613308
0.2920781 0.07898721 -0.29019496 0.023741996 -0.00026485228 0.094874635 0.022132693 0.07844452
-0.039629698 0.051011886 -0.021304274 -0.07233284 -0.18072852 -0.06959572 -0.008530756 -0.048783947
-0.002636321 -0.043877613 -0.04353236 -0.008419071 0.09394376 0.15760519 0.019848652 0.030281184
-0.019941298 -0.03567903 -0.026684806 0.0034583143 -0.028801663 -0.0016728136 0.1744812 0.018673826
-0.007831183 0.047156796 2.43005e-40 -0.121172115 -0.083248824 8.3503e-41 0.02886619 -0.011525985
0.3184894 0.11528672 -0.14629205 0.047523048 0.018804532 0.00047160249 0.060303252 -4.6117e-41
-0.18957818 0.01588238 -0.34726676 0.26995018 1.5164e-40 0.0074314172 -0.01632831 0.028676204
-1.8763e-40 -3.298666e-22 -0.0039370074 -0.0238344 -0.26302296 -2.04594e-40 2.0282e-41 -0.016773967
0.017510751 0.10904582 0.0036482825 -0.0182312 0.029590512 0.022850642 5.5239e-41 -1.13898e-40
0.0072169336 -0.016073551 -4.7262347e-06 -2.5755e-40 0.002456144 -0.024561975 -0.0059562605 0.056816272
-0.3960938 -0.15863922 -0.25784287 0.027377676 0.052789457 -1.93479e-40 0.02734929 0.057035457
-1.2115e-40 1.0258e-41 2.59473e-40 -0.047145374 -0.28871015 5.1306e-41 -5.8018e-41 -2.31038e-40
-0.018394573 -0.017408878 0.065485194 2.3203e-41 -0.24825461 -0.11259329 0.080510214 -0.10625414
2.34914e-40 1.02506e-40 0.027430708 -0.020181732 -0.014374098 4.4295655e-05 0.28134894 -0.0664676
0.09160405 -0.035764307 -0.045717552 0.020923652 0.008493583 -0.009712374 0.018183468 0.014201744
0.20388354 -0.030401213 0.086802654 0.013515999 0.03282906 -0.09518858 -0.035599306 -0.0057005025
-0.010329993 -0.0038196107 -0.080240674 0.052357998 -0.057145882 -0.014894199 0.011932139 0.010135882
0.037447084 0.054425288 -2.2096e-41 -0.010409406 -0.16162868 -0.06649909 -0.17053154 -4.086e-42
0.02075406 -0.017033115 -0.010204416 -0.00044733356 -1.66944e-40 -0.108741455 0.098009534 0.07977203
0.1421089 1.06155e-40 0.025344824 0.022073708 -0.025616884 -1.0623e-41 2.30697e-40 -2.6119e-40
-5.7078e-41 -0.16796392 1.20241e-40 -2.25504e-40 1.22803e-40 -1.80878e-40 0.028657096 -0.006407483
0.005497055 0.011158497 5.7927973e-15 -0.09377143 -0.0045049675 0.017922988 -0.0025876162 7.3902e-41
0.003467619 -0.0038309183 -0.007437996 0.06336457 0.0010131429 0.0008760827 0.02364676 0.0044719325
0.011714847 0.00064893404 -0.016761422 0.0018735786 0.013933713 -0.06541397 -0.02371903 0.04618785
-0.06317431 0.025615305 0.0078028883 0.032920524 -0.04496355 0.0108498465 -0.008211846 -0.031119796
-0.14458764 -0.020267474 -0.06574833 0.0026188558 -0.0047193537 0.012124475 -0.006401649 -0.0031892136
-0.0040684515 0.051084384 0.14983921 0.017219704 0.042001687 0.012510305 -0.03443446 -0.046439625
-0.002678106 0.02324508 0.0289685 -0.03477708 0.057366557 -0.026958724 -0.053175304 0.02097281
0.010045196 0.039046187 -0.00048584302 -0.039150886 0.03941274 0.021973064 -0.03940217 -0.05643042
00000000: 5131 3bbc 3420 2abd 0b9e 5dbb 981e 5a3e
00000010: b6ba b63d fbdb 733e 4192 f03d e378 1cbd
00000020: 3abd d13b 292b 823a 2b78 913c a434 a9bc
00000030: adaf 0080 9a6c 0000 ec0e c83c da21 e23e
00000040: 7555 273f 227f 0280 e85b 053e 17bf 0180
00000050: 8618 433d 30c2 b8bc 3c75 0180 2a85 3bbb
00000060: 438b 953e 0cc4 a13d 6f94 94be 937e c23c
00000070: dfdb 8ab9 a24d c23d 9f4f b53c 85a7 a03d
00000080: c052 22bd d7f1 503d 4d86 aebc 3d23 94bd
00000090: e610 39be 3388 8ebd 96c4 0bbc add1 47bd
000000a0: 20c6 2cbb 03b9 33bd fd4e 32bd 25f0 09bc
000000b0: 9665 c03d 4163 213e a499 a23c 3f10 f83c
000000c0: ef5b a3bc 2d24 12bd 189a dabc e3a4 623b
000000d0: 77f1 ebbc 4f42 dbba 33ab 323e daf9 983c
000000e0: 5d4e 00bc 7c27 413d 66a5 0200 1629 f8bd
000000f0: 5c7e aabd c6e8 0000 ca78 ec3c 7cd7 3cbc
00000100: 0b11 a33e 721b ec3d 95cd 15be 87a7 423d
00000110: f60b 9a3c 6a41 f739 8b00 773d 8e80 0080
00000120: c820 42be c41b 823c f3cc b1be e936 8a3e
00000130: b6a6 0100 3f83 f33b f3c2 85bc 5cea ea3c
00000140: 090b 0280 6264 c79b 0302 81bb 5c40 c3bc
00000150: f2aa 86be 533a 0280 8a38 0000 8f69 89bc
00000160: b572 8f3c 6a53 df3d 0618 6f3b 9959 95bc
00000170: cd67 f23c 4531 bb3c fc99 0000 803d 0180
00000180: 077c ec3b aeac 83bc 0c96 9eb6 f2cd 0280
00000190: 42f7 203b 3236 c9bc bc2c c3bb 2eb8 683d
000001a0: cecc cabe 5272 22be fb03 84be 2647 e03c
000001b0: c239 583d 571b 0280 9e0b e03c 039e 693d
000001c0: b851 0180 981c 0000 4ed3 0200 821b 41bd
000001d0: d1d1 93be 058f 0000 bba1 0080 0a84 0280
000001e0: 37b0 96bc 109d 8ebc 1a1d 863d ae40 0000
000001f0: 7536 7ebe 5097 e6bd 8ae2 a43d c59b d9bd
00000200: d88e 0200 bf1d 0100 5db6 e03c 2954 a5bc
00000210: 5681 6bbc 19ca 3938 f80c 903e 2a20 88bd
00000220: e79a bb3d 987d 12bd 5442 3bbd 1468 ab3c
00000230: ab28 0b3c a620 1fbc 7ff5 943c 6fae 683c
00000240: d9c6 503e f70b f9bc 97c5 b13d 3572 5d3c
00000250: c477 063d 3bf2 c2bd 94d0 11bd 48cb babb
00000260: 223f 29bc 6f52 7abb 3955 a4bd 5775 563d
00000270: cd11 6abd cc06 74bc 057f 433c f810 263c
00000280: 1d62 193d 0ded 5e3d 983d 0080 378c 2abc
00000290: fd81 25be ad30 88bd d29f 2ebe 640b 0080
000002a0: 6b04 aa3c 0889 8bbc 6c30 27bc 1888 eab9
000002b0: 5fd1 0180 d7b3 debd 39b9 c83d 855f a33d
000002c0: ff84 113e eb27 0100 f39f cf3c ecd3 b43c
000002d0: 80da d1bc 9d1d 0080 1783 0200 17d8 0280
000002e0: 1c9f 0080 bcfe 2bbe 2f4f 0100 9d74 0280
000002f0: 5356 0100 37f8 0180 49c2 ea3c ddf5 d1bb
00000300: a420 b43b 21d2 363c 20b5 d027 3c0b c0bd
00000310: 689e 93bb 3bd3 923c ff94 29bb 02ce 0000
00000320: fe40 633b 2510 7bbb 6fba f3bb 49c5 813d
00000330: 6fcb 843a eaa8 653a dab6 c13c 4a89 923b
00000340: a1ef 3f3c 3a1d 2a3a 404f 89bc de92 f53a
00000350: 3a4a 643c c2f7 85bd 694e c2bc 792f 3d3d
00000360: 8861 81bd 30d7 d13c 5faf ff3b acd7 063d
00000370: b32b 38bd 8ec3 313c fb8a 06bc f1ee febc
00000380: c80e 14be f907 a6bc 0fa7 86bd 1ca1 2b3b
00000390: cfa4 9abb bca5 463c edc4 d1bb 2002 51bb
000003a0: a550 85bb dc3d 513d 736f 193e 5610 8d3c
000003b0: f609 2c3d 06f8 4c3c 260b 0dbd 7a37 3ebd
000003c0: 2a83 2fbb 776c be3c 594f ed3c 6972 0ebd
000003d0: 32f9 6a3d 8bd8 dcbc 59ce 59bd 2ccf ab3c
000003e0: 9b94 243c e5ee 1f3d bfb8 feb9 ae5c 20bd
000003f0: 416f 213d db00 b43c 2b64 21bd 9623 67bd

exp_avg f4 [32, 2, 5, 5]
-0.0009769573 -0.00018133417 0.00018603887 0.000282395 2.0953366e-05 -0.00076068245 0.0001713687 0.00032090017
0.00020446646 -0.00028428907 -0.00057434 0.00033488436 0.000457744 7.2420604e-05 -0.0006310157 -0.00039656146
0.00047042634 0.0005005818 6.4913065e-06 -0.000997309 0.00025435849 0.0010172215 0.0010541654 0.00054048706
-0.00050992053 -0.0024175278 -0.0012351418 -0.00062274165 -0.00032506642 -0.0002783416 -0.002100261 -0.0010172273
-0.00045835192 -0.00039331272 -0.000687619 -0.0016812278 -0.00064189854 -0.00025629846 -0.00043046166 -0.0010483844
-0.001232471 -0.00023890735 -3.512225e-05 -0.00037272612 -0.0012314493 -0.00023702231 0.00064853195 0.00075883634
0.00029444988 -0.0007521839 -0.0011692917 -0.0011388024 -0.0008483105 -0.00043563594 4.7935396e-06 -0.0015631138
-0.0018554006 -0.0019220873 -0.001929556 -0.0018701138 -0.001996441 -0.0023547164 -0.0027620879 -0.003017423
-0.0032873761 -0.002017191 -0.002530746 -0.0029736194 -0.003423822 -0.0038601453 -0.0020365568 -0.0024556352
-0.0028910495 -0.0034290052 -0.0038438367 -0.0020955985 -0.002333125 -0.0022392522 -0.0017057864 -0.00090120215
-0.0023849448 -0.0028415855 -0.0031069503 -0.0030977621 -0.0027311225 -0.0025512315 -0.0031490943 -0.0036307413
-0.004013484 -0.004089859 -0.0024552739 -0.0029993244 -0.0036009687 -0.0041488577 -0.00452161 -0.0022696685
-0.0027936543 -0.003399271 -0.0039361315 -0.004405017 0.0008436708 0.0007205893 0.00045162675 -2.3377965e-05
-0.0010338819 0.00087405974 0.0007709643 0.00053657894 6.4035354e-05 -0.0008499708 0.0009350819 0.00087143906
0.0006406256 0.00030147083 -0.00050978304 0.0010572631 0.0009912837 0.0008589026 0.0005617179 -0.000111868714
0.0010815886 0.0011564379 0.0010727368 0.0008784421 0.0003961702 0.0006316324 0.00028746264 -0.0001230735
-0.0006960337 -0.0015780592 0.00074134907 0.00044218168 9.513994e-05 -0.00040882948 -0.0012420377 0.0009146285
0.0007204273 0.00045006516 2.0714356e-06 -0.00073708146 0.0009863995 0.0009232257 0.00073859346 0.00044700046
-0.00017598725 0.0011444427 0.0011244378 0.0010989029 0.0008867367 0.00048326544 -0.00036262162 -0.00044736563
-0.00043036937 -0.0003770929 -0.00031026325 -0.00051912747 -0.0005433849 -0.0004894024 -0.0005096602 -0.0004967862
-0.000625308 -0.0005575684 -0.00057066337 -0.0006302348 -0.00069841655 -0.000668538 -0.00057850283 -0.0006062772
-0.00068740087 -0.00081665994 -0.00080894824 -0.000722852 -0.0007309057 -0.0008954769 -0.0011016189 -0.00025293292
-0.0003220937 -0.00031796418 -0.00036475676 -0.00035818436 -0.00039475193 -0.0004074153 -0.0004522625 -0.0005348686
-0.0006120593 -0.00050349825 -0.0005495647 -0.0005216988 -0.00061737397 -0.00077547855 -0.0005996127 -0.0005926002
-0.00061972026 -0.00073154626 -0.00089849846 -0.00079945516 -0.0007059202 -0.00074490055 -0.0008374954 -0.0010209635
5.499096e-05 -0.00014777605 -0.00034172108 -0.00060395635 -0.0006542105 -4.207306e-05 -0.0002642803 -0.0005069707
-0.0007534186 -0.00076562114 -0.0002069382 -0.00026745338 -0.00051328266 -0.0007974554 -0.00073422573 -0.0001384778
-0.00026643003 -0.00042574128 -0.0007020519 -0.0006614758 7.880654e-05 -1.990579e-05 -0.00017946419 -0.00042035585
-0.0003926385 0.00033106966 0.00028098348 0.00019284099 0.00012175366 0.00023013887 0.000110717345 0.00013845792
8.543452e-05 5.0718434e-05 0.00018638565 7.693723e-05 5.200959e-05 9.215851e-05 7.175823e-05 0.00022966904
8.329742e-05 0.00017228308 0.000116474366 0.00018996136 0.00041063063 0.00028537944 0.00034579218 0.00036617325
0.0004032595 0.00074222754 -0.007557872 -0.0052487897 -0.0034157587 -0.0019986911 -0.0012318277 -0.007431662
00000000: 3f0d 80ba 8524 3eb9 6e13 4339 6a0e 9439
00000010: 03c5 af37 8968 47ba 6fb1 3339 7e3e a839
00000020: 0c66 5639 a20c 95b9 4e8f 16ba 6b93 af39
00000030: 5cfd ef39 84e0 9738 bf6a 25ba 94e9 cfb9
00000040: 8ea3 f639 7a39 033a e6cf d936 23b8 82ba
00000050: 6b5b 8539 4a54 853a ec2b 8a3a 79af 0d3a
00000060: 30ac 05ba 636f 1ebb 7be4 a1ba 7c3f 23ba
00000070: ad6d aab9 61ee 91b9 88a4 09bb 7c54 85ba
00000080: f44e f0b9 8a35 ceb9 5441 34ba a55c dcba
00000090: 1545 28ba cc5f 86b9 96af e1b9 f169 89ba
000000a0: dd8a a1ba 3483 7ab9 3b50 13b8 746a c3b9
000000b0: 9568 a1ba 3189 78b9 3e02 2a3a a5ec 463a
000000c0: 6560 9a39 352e 45ba eb42 99ba de43 95ba
000000d0: 2761 5eba 1166 e4b9 31d8 a036 65e1 ccba
000000e0: ea30 f3ba 8cee fbba 28e9 fcba 9b1e f5ba
000000f0: b9d6 02bb 9651 1abb 2504 35bb f5bf 45bb
00000100: 0571 57bb d932 04bb dfda 25bb 0ee1 42bb
00000110: 3462 60bb 7efa 7cbb c177 05bb b9ee 20bb
00000120: c377 3dbb 29b9 60bb e1e8 7bbb 4f56 09bb
00000130: 58e7 18bb 6bc0 12bb b294 dfba a73e 6cba
00000140: bc4c 1cbb e539 3abb fa9d 4bbb d303 4bbb
00000150: a2fc 32bb 9032 27bb 0961 4ebb bbf1 6dbb
00000160: 8b83 83bb 3904 86bb a9e8 20bb 5090 44bb
00000170: 3bfe 6bbb 24f3 87bb 042a 94bb b8be 14bb
00000180: be15 37bb 4ec6 5ebb aafa 80bb f657 90bb
00000190: ca29 5d3a eee5 3c3a 51c8 ec39 cc1b c4b7
000001a0: 5283 87ba 2821 653a 8a1a 4a3a 34a9 0c3a
000001b0: b84a 8638 93d0 5eba 4920 753a 4971 643a
000001c0: a8ef 273a bb0e 9e39 f6a2 05ba dd93 8a3a
000001d0: f6ed 813a fa27 613a 4040 133a 0f9b eab8
000001e0: 17c4 8d3a 9e93 973a 139b 8c3a 4047 663a
000001f0: 10b5 cf39 2294 253a 95b6 9639 4b0d 01b9
00000200: 0876 36ba e1d6 ceba 1857 423a 9fd4 e739
00000210: de85 c738 2a58 d6b9 dfcb a2ba aec3 6f3a
00000220: 0fdb 3c3a b9f6 eb39 fe02 0b36 b338 41ba
00000230: 134a 813a a104 723a 2b9e 413a 635b ea39
00000240: 3889 38b9 2001 963a df61 933a 1009 903a
00000250: e573 683a ca5e fd39 401e beb9 668c eab9
00000260: 33a3 e1b9 8db4 c5b9 d4aa a2b9 0e16 08ba
00000270: f171 0eba 3d4b 00ba b89a 05ba c23a 02ba
00000280: b6eb 23ba c829 12ba 9298 15ba 5736 25ba
00000290: f115 37ba d340 2fba aba6 17ba 93ee 1eba
000002a0: b132 34ba 1f15 56ba 990f 54ba c77d 3dba
000002b0: 409a 3fba 70be 6aba 3264 90ba 159c 84b9
000002c0: afde a8b9 6eb4 a6b9 d33c bfb9 b1ca bbb9
000002d0: b5f6 ceb9 5b9a d5b9 a51d edb9 6d36 0cba
000002e0: 9b72 20ba 32fd 03ba aa10 10ba 9dc2 08ba
000002f0: 44d7 21ba 7c49 4bba 542f 1dba ba58 1bba
00000300: b974 22ba 3dc5 3fba 3689 6bba 8792 51ba
00000310: 810d 39ba 6e45 43ba 5d8b 5bba dad1 85ba
00000320: 18a6 6638 55f4 1ab9 0729 b3b9 d352 1eba
00000330: 537f 2bba 9b77 30b8 1a8f 8ab9 3ae6 04ba
00000340: 1181 45ba f7b3 48ba 8dfd 58b9 fc38 8cb9
00000350: d18d 06ba 530c 51ba 0e79 40ba 5a34 11b9
00000360: a2af 8bb9 0736 dfb9 e809 38ba e466 2dba
00000370: f044 a538 5cfb a6b7 8d2e 3cb9 3563 dcb9
00000380: 0cdb cdb9 6b93 ad39 f750 9339 5c35 4a39
00000390: 0056 ff38 6f51 7139 ec30 e838 042f 1139
000003a0: 4f2b b338 81ba 5438 8470 4339 5c59 a138
000003b0: df24 5a38 3945 c138 e87c 9638 50d3 7039
000003c0: f6af ae38 e3a6 3439 b343 f438 5d30 4739
000003d0: e949 d739 fb9e 9539 714b b539 f1fa bf39
000003e0: 936c d339 0c92 423a 07a8 f7bb 0afe abbb
000003f0: ecda 5fbb 79fc 02bb 4775 a1ba 4d85 f3bb

exp_avg_sq f4 [32, 2, 5, 5]
0.000353793 0.00019377528 0.000104912106 7.2523944e-05 7.567284e-05 0.0003755531 0.00020645364 0.00011126416
7.521699e-05 7.770868e-05 0.00035523245 0.0002012127 0.00011599453 8.448912e-05 9.0726986e-05 0.00030996476
0.00018773836 0.00012344017 0.00010120001 0.000111131965 0.00027080005 0.00018226127 0.0001392664 0.00012378859
0.00013257877 0.00037895193 0.00019649742 0.000102775026 7.114741e-05 7.664433e-05 0.00039718678 0.00020583716
0.00010670397 7.266899e-05 7.833059e-05 0.00036841468 0.00019579972 0.00010872643 8.071471e-05 9.0291345e-05
0.0003117715 0.00017613673 0.00011325544 9.535436e-05 0.000108374945 0.00026096895 0.00016698254 0.00012740305
0.000116376454 0.00012690762 3.1601085e-05 4.2912132e-05 0.00010294259 0.00023921985 0.0004377983 2.8958824e-05
3.2997075e-05 8.171427e-05 0.00020714503 0.0004064088 3.9856783e-05 3.3157656e-05 6.0969003e-05 0.00015413217
0.00031725207 4.5844987e-05 3.3507644e-05 4.3774893e-05 0.00010149331 0.00021583204 5.7457e-05 4.07112e-05
3.4331853e-05 5.6192042e-05 0.00011966229 3.4033146e-05 3.8446975e-05 8.7464585e-05 0.0002152849 0.00041902176
3.26788e-05 3.3862543e-05 7.732401e-05 0.0001984522 0.00040062782 4.4383516e-05 3.733833e-05 6.376461e-05
0.0001557111 0.0003211118 4.8402748e-05 3.6770813e-05 4.7465866e-05 0.00010662584 0.00022335874 5.839e-05
4.1984076e-05 3.6605852e-05 6.100025e-05 0.00012831377 1.114442e-05 1.258622e-05 1.7071658e-05 2.460715e-05
3.3333992e-05 9.6382455e-06 1.0134619e-05 1.2223152e-05 1.694316e-05 2.342948e-05 1.0087651e-05 9.718277e-06
1.0044385e-05 1.2455623e-05 1.7715069e-05 1.0480337e-05 9.70807e-06 9.285419e-06 1.0520746e-05 1.3856012e-05
8.190905e-06 7.739527e-06 7.7299965e-06 9.125298e-06 1.23274785e-05 1.0583877e-05 1.14050135e-05 1.4613954e-05
2.0523818e-05 3.1294716e-05 8.821188e-06 8.585787e-06 9.633516e-06 1.3461013e-05 2.2056434e-05 9.847405e-06
9.419165e-06 9.287481e-06 1.1546986e-05 1.8491446e-05 1.0020893e-05 9.346962e-06 8.8053075e-06 1.0348052e-05
1.4999387e-05 7.898651e-06 7.5990215e-06 7.711144e-06 9.693713e-06 1.3992312e-05 2.8908562e-05 3.5930127e-05
4.1970718e-05 4.8925598e-05 6.1236744e-05 2.9764451e-05 3.650484e-05 4.0972514e-05 4.3644166e-05 4.7810583e-05
3.0466295e-05 3.6905614e-05 4.02708e-05 4.0911786e-05 4.0324438e-05 3.1398973e-05 3.714362e-05 4.0390703e-05
4.0466086e-05 3.8681603e-05 2.8915874e-05 3.36655e-05 3.6683807e-05 3.74623e-05 3.609816e-05 2.8243036e-05
3.5262823e-05 4.1068695e-05 4.7013367e-05 5.6842484e-05 2.9219369e-05 3.605695e-05 4.0364048e-05 4.2764044e-05
4.5541037e-05 3.0376212e-05 3.6605175e-05 4.0043044e-05 4.0453888e-05 3.93152e-05 3.1677682e-05 3.7054735e-05
4.0001596e-05 3.9863815e-05 3.7668317e-05 2.9677905e-05 3.3663604e-05 3.6186626e-05 3.616422e-05 3.4474466e-05
4.8075643e-05 4.382728e-05 3.5609766e-05 2.8547545e-05 3.2622007e-05 4.5875437e-05 4.1734493e-05 3.362944e-05
2.7817889e-05 3.5637746e-05 4.446842e-05 4.0640647e-05 3.350729e-05 3.012719e-05 4.2837113e-05 4.4211993e-05
4.0360617e-05 3.4555516e-05 3.4213062e-05 5.1844443e-05 4.918832e-05 4.4351236e-05 3.8685208e-05 3.9412887e-05
5.909908e-05 5.0869312e-05 4.7310088e-05 3.9803443e-05 3.1706088e-05 3.4495402e-05 4.7766553e-05 4.394039e-05
3.6191785e-05 2.8610828e-05 3.4329034e-05 4.5427692e-05 4.1214433e-05 3.3663822e-05 2.84388e-05 3.854463e-05
4.3396445e-05 3.8862127e-05 3.2454947e-05 3.0375908e-05 4.5523408e-05 4.570632e-05 3.999713e-05 3.423576e-05
3.44158e-05 5.3067415e-05 0.0008625573 0.00042841758 0.00019658214 0.0001351944 0.00016578038 0.0009434736
00000000: 4b7d b939 2830 4b39 4204 dc38 ff17 9838
00000010: 8cb2 9e38 e2e5 c439 7a7b 5839 7e56 e938
00000020: d0bd 9d38 88f7 a238 7e3e ba39 9ffc 5239
00000030: 1742 f338 c02f b138 ae44 be38 c482 a239
00000040: a2db 4439 b86f 0139 573b d438 850f e938
00000050: 2bfa 8d39 631d 3f39 0a08 1239 3fcd 0139
00000060: d804 0b39 11ae c639 e00a 4e39 ec88 d738
00000070: fa34 9538 1dbc a038 823d d039 fed5 5739
00000080: 42c6 df38 de65 9838 6a45 a438 c827 c139
00000090: 964f 4d39 0f04 e438 6145 a938 cc5a bd38
000000a0: 4375 a339 58b1 3839 8d83 ed38 fbf8 c738
000000b0: 5b47 e338 a9d2 8839 0918 2f39 7f97 0539
000000c0: 220f f438 8112 0539 688b 0438 8dfc 3338
000000d0: e2e2 d738 17d7 7a39 4b88 e539 9aec f237
000000e0: 5766 0a38 045e ab38 1235 5939 4413 d539
000000f0: e52b 2738 c312 0b38 f8b8 7f38 8a9e 2139
00000100: da54 a639 ae49 4038 8f8a 0c38 ef9a 3738
00000110: ced8 d438 f950 6239 fcfd 7038 51c1 2a38
00000120: 8cff 0f38 bfaf 6b38 34f3 fa38 d0be 0e38
00000130: 2042 2138 316d b738 1abe 6139 26b0 db39
00000140: 9810 0938 a107 0e38 0329 a238 9b17 5039
00000150: 5b0b d239 7028 3a38 ba9b 1c38 5db9 8538
00000160: 6146 2339 e55a a839 0e04 4b38 5c3a 1a38
00000170: 1616 4738 509c df38 6835 6a39 c9e7 7438
00000180: 0f18 3038 3c89 1938 85da 7f38 f78b 0639
00000190: ebf8 3a37 6729 5337 1b35 8f37 746b ce37
000001a0: 1ad0 0b38 f3b3 2137 db07 2a37 0a12 4d37
000001b0: 2921 8e37 6d8a c437 223e 2937 af0b 2337
000001c0: 4e84 2837 7ef8 5037 d29a 9437 b4d4 2f37
000001d0: d8df 2237 92c8 1b37 4382 3037 1e77 6837
000001e0: ab6b 0937 04d9 0137 15b0 0137 db18 1937
000001f0: 1ed2 4e37 6891 3137 2958 3f37 742e 7537
00000200: 902a ac37 7242 0338 b7fe 1337 ad0b 1037
00000210: a39f 2137 9cd6 6137 d505 b937 4836 2537
00000220: 0107 1e37 6dd1 1b37 edb9 4137 141e 9b37
00000230: 681f 2837 e5d0 1c37 82ba 1337 8b9c 2d37
00000240: e0a5 7b37 7384 0437 19fb fe36 1c5f 0137
00000250: 2ea2 2237 86c0 6a37 aa80 f237 aeb3 1638
00000260: b709 3038 7635 4d38 3a6c 8038 acae f937
00000270: c61c 1938 e7d9 2b38 910e 3738 3988 4838
00000280: df91 ff37 1acb 1a38 71e8 2838 b298 2b38
00000290: 0922 2938 64b2 0338 a9ca 1b38 3069 2938
000002a0: 21ba 2938 0e3e 2238 5e90 f237 0e34 0d38
000002b0: f0dc 1938 d720 1d38 1b68 1738 75eb ec37
000002c0: 2be7 1338 2d41 2c38 3830 4538 276a 6e38
000002d0: 1e1c f537 db3b 1738 914c 2938 8b5d 3338
000002e0: 5103 3f38 6bd0 fe37 8288 1938 e4f3 2738
000002f0: 08ad 2938 60e6 2438 a7dd 0438 386b 1b38
00000300: 63c7 2738 7233 2738 0cfe 1d38 d1f4 f837
00000310: 0532 0d38 18c7 1738 09af 1738 ad98 1038
00000320: d4a4 4938 2fd3 3738 b25b 1538 6379 ef37
00000330: 9dd3 0838 606a 4038 120c 2f38 560d 0d38
00000340: 765a e937 bd79 1538 9a83 3a38 9075 2a38
00000350: 2e8a 0c38 a6b9 fc37 00ac 3338 4470 3938
00000360: e248 2938 b4ef 1038 ff7f 0f38 8c73 5938
00000370: 8e4f 4e38 c705 3a38 ed41 2238 444f 2538
00000380: 27e1 7738 825c 5538 d26e 4638 9ff2 2638
00000390: 27fc 0438 28af 1038 f258 4838 a24c 3838
000003a0: a2cc 1738 4901 f037 85fc 0f38 9d89 3e38
000003b0: a9dd 2c38 4132 0d38 dc8f ee37 fbaa 2138
000003c0: 9404 3638 e4ff 2238 3c20 0838 c4cf fe37
000003d0: 63f0 3e38 cab4 3f38 97c2 2738 5e98 0f38
000003e0: af59 1038 b494 5e38 3e1d 623a 3c9d e039
000003f0: 9e21 4e39 f8c2 0d39 55d5 2d39 7153 773a

exp_avg f4 [32]
-0.00033473055 0.0022021802 -0.0024733348 0.0010260679 0.00010930618 0.0013251314 0.0023844163 -0.0037317344
-0.00047808327 0.0016895626 -0.0009660538 0.0010988514 -0.0018868088 0.0042679813 0.0038310208 -0.0019273355
0.0015204451 -0.00020955164 -0.0006936175 -0.0008659068 -0.001939979 -0.0003073296 0.0001966442 -0.0003735176
0.00019749081 0.0003527903 0.0012993906 0.0013866831 -0.00029511083 -0.00015591274 0.0024373971 -0.0028706843
00000000: c67e afb9 7452 103b ac17 22bb 207d 863a
00000010: 4f3b e538 08b0 ad3a de43 1c3b 1d90 74bb
00000020: 40a7 fab9 5074 dd3a c63e 7dba 5607 903a
00000030: cc4e f7ba 6cda 8b3b dd11 7b3b a69e fcba
00000040: ac49 c73a 17bb 5bb9 e2d3 35ba 06fe 62ba
00000050: e546 feba 1521 a1b9 4732 4e39 afd4 c3b9
00000060: 8915 4f39 b6f6 b839 5050 aa3a 5dc1 b53a
00000070: 1bb9 9ab9 827c 23b9 bdbc 1f3b 1722 3cbb

exp_avg_sq f4 [32]
0.00038930748 0.00023221025 3.427595e-05 0.0001288068 0.0001739082 0.0010377717 4.2713484e-05 0.0004882428
0.00019773586 7.890073e-05 3.824373e-05 2.3116629e-05 0.00011321834 5.8567883e-05 0.0006400788 8.436809e-05
0.00019302827 5.07304e-05 6.52414e-05 9.3199335e-05 0.00016700786 4.208656e-05 0.00013829044 3.3612974e-05
0.00015617169 0.0004378342 3.9008108e-05 5.6940084e-05 0.00010727333 4.3212545e-05 3.8434177e-05 0.0001559581
00000000: f71b cc39 777d 7339 85c3 0f38 5010 0739
00000010: 215b 3639 d705 883a 4127 3338 d7fa ff39
00000020: 5157 4f39 8277 a538 e467 2038 95ea c137
00000030: a26f ed38 c9a6 7538 f6ca 273a c6ee b038
00000040: a267 4a39 5ac7 5438 36d2 8838 0374 c338
00000050: d51e 2f39 1a86 3038 0f02 1139 a8fb 0c38
00000060: 05c2 2339 1d8d e539 a39c 2338 f3d2 6e38
00000070: eef7 e038 1e3f 3538 6234 2138 af88 2339
