results/2BS/T_1/L_1000/seed1/model_best.pth.tar (torch_old, 395611 bytes, 22 tensors)

layer1.conv.weight f4 [32, 2, 5, 5]
000000 ba f6 49 3d 01 07 b6 3c 52 52 b7 3c cf 89 23 bc
       0.049307562 0.022220137 0.02237812 -0.009981587
000010 e9 51 1f bd c0 2f bb bc 0c d2 07 3e 5e d1 5b 3d
       -0.038896475 -0.022849917 0.1326372 0.053666465
000020 57 e3 1e 3c 75 61 b9 bd 16 e0 63 3d f6 9f 22 3c
       0.009697757 -0.090517916 0.055633627 0.009925833
000030 cc 7c 9b bc 7a 10 4d 3b cb f9 7d bd ed fe ae bb
       -0.018980406 0.0031290338 -0.0620058 -0.005340448
000040 d7 80 08 3d d1 ef 1e 3d 1d 24 67 bb 1e 13 83 3a
       0.033325996 0.038802925 -0.0035269328 0.0010000204
000050 73 14 33 3d d0 cc 54 bd 06 aa f9 3b 1e 0e b6 3b
       0.043720674 -0.051953137 0.0076191453 0.005555882
000060 01 85 09 3d 4f 7b c3 3b fb bc c0 3b e5 0a b0 bc
       0.033574108 0.0059656273 0.005881903 -0.02148957
000070 c9 d3 26 bd 78 96 38 bc 61 9a ee bb 0b a8 e5 bd
       -0.040729318 -0.011266343 -0.007281587 -0.11213692
000080 e5 7c 3a 3d 9a f5 01 bc 06 12 9c bd c3 13 8a bc
       0.045529265 -0.007932091 -0.07620625 -0.016855126
000090 ec 13 8f bd 46 42 8d bd de 98 41 3d 42 d5 d9 bb
       -0.06986222 -0.06897406 0.047264926 -0.0066477368
0000a0 c8 48 0c bd 8d cb 6b 3d f0 d8 66 bd 2f 9f 46 bc
       -0.034249097 0.057567168 -0.05635923 -0.012122913
0000b0 f2 32 7f 3d ba f5 b0 bc 23 02 de 3c f2 34 3a bd
       0.062304445 -0.021601547 0.027100628 -0.04546065
0000c0 22 a9 8e 3b bb cf 04 3d 8b e9 4f 3d 68 5d 88 bd
       0.0043536583 0.03242467 0.050759833 -0.06658441
0000d0 e5 ae d3 bc 31 e3 7f 3d 25 b1 4c 3d b9 f0 d8 bd
       -0.025840232 0.062472526 0.049973626 -0.10592789
0000e0 6c 6b 8a 3d ab 66 a9 bb 26 bb 9d bd ce 88 85 bd
       0.0675877 -0.0051697097 -0.07701711 -0.06520234
0000f0 f3 da 71 3d 71 21 4e bd 37 9e f1 bc da 1f 70 bd
       0.059046697 -0.05032486 -0.029494388 -0.058624126
000100 43 6b 56 3d 3a c4 f7 bc 3f f2 86 bd 6a a4 3f bd
       0.052348386 -0.030244935 -0.065891735 -0.046787657
000110 ec 51 c1 bd 02 18 f1 bc 02 f4 45 3d ab c6 30 3b
       -0.094394535 -0.029430393 0.048328407 0.0026973884
000120 28 79 26 3d c4 66 27 3c b4 c0 83 bd 3f 86 74 bd
       0.040642887 0.010217372 -0.064332396 -0.05969834
000130 fd c9 36 bc 11 c6 c7 bb b0 80 ea 3d 73 8a f1 bc
       -0.011156556 -0.0060966094 0.114503264 -0.029484963
000140 35 05 5d bc 5b 19 b7 bb 95 ea 7b 3d f2 3d aa 3d
       -0.013490011 -0.0055877394 0.06150301 0.083125964
000150 4a 51 a5 3d 63 6d c2 bd 7d e1 3e bb a8 32 1d ba
       0.08072145 -0.0949352 -0.00291261 -0.0005996623
000160 4c 41 66 ba 30 b3 ac 3d 2e 28 99 3c 17 f1 b6 bc
       -0.00087835337 0.08432615 0.018695917 -0.022331757
000170 6e 2a b0 3b a3 54 90 3c 0b 42 14 3d c3 bb 0f 3d
       0.0053761518 0.017618483 0.036195796 0.035091173
000180 a8 ab d3 3c d3 98 b6 3c 7d bb 96 bd 1e af 5b 3c
       0.025838688 0.02228967 -0.07359979 0.01340845
000190 86 61 93 bd 2f 14 db bd 94 f0 31 3d 2a a5 31 3c
       -0.071963355 -0.10697209 0.043442324 0.010842601
0001a0 88 f0 9f 3d ba cb 1e 3c 79 5c a7 bc ef 53 a4 bc
       0.078095496 0.009692127 -0.020429837 -0.020059554
0001b0 39 cb 13 bd d4 27 0a 3d 30 45 85 3c 51 4b f3 bc
       -0.03608248 0.03372939 0.016268343 -0.029699
0001c0 ea 3f a0 3c 7b 6f 20 3a 5c c0 9d bd 67 12 7b bc
       0.019561727 0.00061201275 -0.07702705 -0.015324212
0001d0 ea bf 9e 3d 22 36 75 bd 84 6b be bb 52 da 0c bd
       0.077514485 -0.05986608 -0.0058111567 -0.034387894
0001e0 34 7a 16 bd 6e db 9d bc c2 14 82 bd 6a c9 7d 3d
       -0.036737636 -0.019269671 -0.063516155 0.06195966
0001f0 47 76 ce 3c ac 73 c4 3d c2 85 7f 3d d6 7f b9 3c
       0.025202883 0.09592375 0.06238342 0.022643965
000200 fd f6 6a 3b a3 3f 68 bc 81 93 cf bc b0 06 34 bd
       0.0035852783 -0.014175328 -0.02533889 -0.04395169
000210 d3 2f df bb 84 21 88 3b 6b b7 9d 3d f5 ad b1 3d
       -0.006811121 0.004154386 0.07701 0.08675758
000220 52 0a b7 bd 69 3b 92 bc b3 31 8a bb 99 2c 23 3d
       -0.08937515 -0.017850595 -0.0042173504 0.039837454
000230 19 a2 f9 3c fc ed 46 bd 72 45 28 be 4d 5b ae 3c
       0.030472802 -0.048566803 -0.16432741 0.02128377
000240 f9 48 47 bd f4 96 ba bb 5a 97 be 3d f5 09 15 3d
       -0.048653577 -0.0056942645 0.09306212 0.03638645
000250 05 74 2c bc fc 0b 26 3d c1 cc 22 bd 9d 86 d1 bc
       -0.010525708 0.040538773 -0.03974605 -0.025576884
000260 75 22 64 bd f0 c7 5a 3d 22 c0 69 3c 07 fd 83 bb
       -0.055696923 0.05341333 0.014266999 -0.004027966
000270 c8 63 46 3d 86 8e 8f bc af 96 12 bd cd ff c7 3b
       0.048435003 -0.017524015 -0.035788234 0.006103492
000280 f7 8a 20 bd ea 35 26 bd d4 54 89 3d f2 53 9c bc
       -0.039195027 -0.04057876 0.06705633 -0.019082997
000290 53 87 2f 3d 8c 7d ba 3d 49 6d f6 3c f3 8e 20 bc
       0.042853665 0.091059774 0.030081408 -0.009799707
0002a0 91 b6 7c bc 3e 42 06 bd e2 87 ae bd e8 34 b2 bb
       -0.015424387 -0.032778017 -0.08522011 -0.005438436
0002b0 a2 c6 4b bb 12 b2 84 bd a2 21 02 bd c0 5c 1a bd
       -0.0031093736 -0.06479277 -0.031770356 -0.03768611
0002c0 6d 2f 2c bd 64 d2 f1 3c a6 6e 7f 3c ca b0 e2 bc
       -0.042037416 0.029519267 0.0155903455 -0.02767219
0002d0 95 26 9b bd e7 b5 ac bc 0c 66 7d bc a6 d8 be 3c
       -0.07575718 -0.021082832 -0.015466224 0.023296665
0002e0 bd e7 4e 3c 93 9f 93 3d 14 7b d1 3a d0 28 ab bb
       0.012628493 0.07208171 0.0015982115 -0.005223371
0002f0 00 73 80 bb 14 9c 05 be 46 92 d3 bd 83 82 5e 3d
       -0.003919959 -0.1304782 -0.10330634 0.054323684
000300 f6 35 0d bd d1 43 17 bc ca 56 57 3b c1 80 cb bd
       -0.03447529 -0.009232477 0.0032858127 -0.09936667
000310 e1 f2 75 bc c9 0d b5 3d a0 7f 08 bd 6b d9 71 3d
       -0.01501152 0.0884052 -0.033324838 0.059045237
000320 da eb f5 bc de b0 6a bd b1 ef 00 bc 66 03 63 bb
       -0.03001969 -0.05729758 -0.007869647 -0.0034639477
000330 f4 c1 11 bd 9a ad b9 3c 7a 0d d7 ba 5b d5 69 bd
       -0.03558536 0.022665787 -0.0016407215 -0.057088237
000340 57 a7 4b 3d 9a 13 ba 3b cc df ef bd e9 8c 67 bb
       0.049720135 0.005678606 -0.11712608 -0.0035331792
000350 f4 19 e6 bc df 52 6f bd 7c 16 b9 3d 3d cb 87 bc
       -0.028088547 -0.05842864 0.09037492 -0.016576404
000360 39 c8 de bc db 28 1d bd b8 08 70 3d 34 00 fd 3d
       -0.027195083 -0.03836904 0.058602065 0.12353554
000370 7b 05 e5 3c 2a 04 3b 3d 8b 3d 46 bd b6 ab 99 3c
       0.027956715 0.045658268 -0.048398536 0.018758636
000380 31 ff a8 3d 2c 92 51 3d 98 04 b2 bb ca 33 b8 bc
       0.08251799 0.05116479 -0.0054326765 -0.022485632
000390 c3 11 60 3d d3 31 5d bb 0a 58 d3 bc c3 1e 3d 3c
       0.05470444 -0.0033751621 -0.025798816 0.011542979
0003a0 e2 3c ff bc 8d c3 5e bb f1 90 35 3d 64 f4 0c bd
       -0.03115696 -0.003399107 0.04432768 -0.034412757
0003b0 f7 9f 7e bd b5 ba 88 bd 0f 50 52 bd 15 8e a4 3d
       -0.062164273 -0.066762365 -0.05134588 0.080349125
0003c0 38 60 a8 bd 62 dc ac bd ea 4b 49 3d 6a f9 9a bd
       -0.08221477 -0.08440472 0.049144663 -0.07567103
0003d0 1b a5 1b bd 57 75 0d 3d 95 94 91 3c 40 0f 81 bd
       -0.037999254 0.034535732 0.017771045 -0.06301737
0003e0 91 fc 45 bd 7b fd 3c bd 89 5c be 3d ef e2 c4 3c
       -0.04833657 -0.046140175 0.092949934 0.024033992
0003f0 fb 57 28 3d d1 15 13 3c 34 1c e4 ba 08 f9 d7 bc
       0.04109953 0.008977369 -0.0017403425 -0.026363865

layer1.conv.bias f4 [32]
000000 cc 8c ac 3d 46 5d f5 bd 68 58 9d bd b4 2e 36 bc
       0.084252924 -0.11980681 -0.07682878 -0.011119533
000010 c8 d7 ba 3d 6b d2 3a bd 38 36 fb bd d3 00 8f 3d
       0.09123188 -0.045610826 -0.12266201 0.06982579
000020 93 11 16 bd fd 70 a6 3d d0 67 97 3d 42 3b b3 bd
       -0.036637854 0.081270196 0.073928475 -0.08751537
000030 5a d4 61 3d 81 37 5f 3d 55 8f f3 3c f8 da 23 bc
       0.055134155 0.054496292 0.029731432 -0.010000937
000040 5e 30 7c ba 2f 34 ad 3d 45 08 d3 3b 85 b2 23 bc
       -0.00096202444 0.08457219 0.006440195 -0.009991293
000050 31 79 0e 3e 84 29 86 3b 93 da 92 3d cc fb b6 bd
       0.13913418 0.0040943045 0.07170596 -0.08934745
000060 d9 44 49 bd 26 12 8f bd 75 03 c0 3d 87 bb 49 bd
       -0.049137924 -0.069858834 0.093756594 -0.049251106
000070 cb aa 2b bc ae c8 58 bc e8 ae 6d bd 24 fc ee bd
       -0.010477732 -0.0132314395 -0.05802813 -0.11669186

layer2.conv1.weight f4 [32, 32, 3, 3]
000000 a0 0c 29 be ef a8 3b bd 2f 9f 51 bd 72 bc 08 be
       -0.16508722 -0.045815405 -0.0511772 -0.13353136
000010 dd e7 72 be f7 bb 0b be 56 ba 3f bd 85 e5 91 bc
       -0.23721261 -0.13645922 -0.046808563 -0.017809639
000020 ef a5 3a 3e 01 ae 25 3c de 6c 2b 3c 17 00 05 be
       0.18227361 0.010112287 0.010462968 -0.12988316
000030 2e a6 08 3e 97 3c 0c 3c 13 28 61 bd cd be 03 bb
       0.13344643 0.008559368 -0.05496986 -0.002010274
000040 a1 6a 02 be 18 70 69 3c c0 47 16 be 42 a0 95 3d
       -0.12735988 0.014247917 -0.14675808 0.073059574
000050 c2 b1 71 3c 36 54 98 3c 84 c7 16 3e f0 83 2d be
       0.014751853 0.018594842 0.14724547 -0.16944861
000060 c8 33 3b 3d 85 4c 54 3d a8 fa 24 be 1a 74 a3 bd
       0.04570368 0.051830787 -0.16111243 -0.07981129
000070 5c 11 bf 3d 99 2b 87 3d 75 b2 25 3e a6 21 68 bc
       0.09329483 0.066001125 0.16181357 -0.014168179
000080 a3 90 6f bd 7b 92 c6 3d 37 86 b6 bc 9f 0a 71 3e
       -0.058487546 0.09695908 -0.022280795 0.23539208
000090 6b 59 7c 3c 2c 36 cc 3d 3d b6 39 3d ae fe 38 bd
       0.015402178 0.0997127 0.04533981 -0.045164756
0000a0 50 73 63 3b 51 11 e4 bd a5 94 65 bd 6c cf 57 3d
       0.0034706183 -0.11136115 -0.05604996 0.052688047
0000b0 94 09 16 be 97 27 42 bd 91 4c c0 bd b2 ad f8 3d
       -0.14652091 -0.047401037 -0.09389604 0.12142505
0000c0 48 ad 2d bd 89 e1 58 3d 77 d1 ba 3c d0 81 e1 bd
       -0.042401582 0.052949462 0.022804959 -0.11011088
0000d0 47 5d 94 bd 57 93 1d 3d a9 c3 3b bd 7b 16 85 3c
       -0.07244354 0.038470592 -0.045840893 0.016246071
0000e0 f0 be 9b 3d b6 92 d5 bc 01 c6 cc 3d 2c 50 b5 bc
       0.07604778 -0.026070934 0.09998704 -0.022132955
0000f0 a8 d3 c1 bd be a7 20 3e 5b 23 06 3d a9 0d b9 3d
       -0.09464198 0.15688989 0.03274856 0.090358086
000100 cb 38 73 bd f0 0c b4 bd b2 fe 24 bd 7e 19 5c 3d
       -0.059380334 -0.0879153 -0.04028196 0.05373525
000110 b4 0a 17 3d 64 31 4e 3d 3a b4 bb 3d 68 76 05 bd
       0.03687544 0.05034007 0.09165235 -0.032583624
000120 f1 1a 2e 3d 75 1f d6 3d 9f 45 e3 bd 26 22 01 be
       0.042506162 0.10455219 -0.110972635 -0.12610683
000130 6d f8 97 3c 65 a0 5f 3d 82 b3 fe bc 72 47 c8 bd
       0.018551076 0.054596324 -0.031091455 -0.09779252
000140 57 0e 45 be a1 0d ca 3d d5 d0 db bd c2 ba 8a bd
       -0.19243751 0.09865881 -0.10733191 -0.067739025
000150 32 6a c3 bd ef 96 23 3e 27 f2 44 bc e5 bf 52 3d
       -0.095417395 0.15975545 -0.012020624 0.051452536
000160 3b 61 76 3d 48 f0 1d 3e dc 5e 0b 3e d9 ee 3a bc
       0.06015132 0.15423691 0.13610405 -0.011409485
000170 24 eb ee 3d 17 98 a6 3d 0c 9a b5 bc 9b 07 13 bc
       0.11665943 0.081344776 -0.022168182 -0.008973981
000180 09 a2 89 3d c2 2f 07 3d 85 b3 90 3d 19 3d 8d 3d
       0.06720359 0.03300453 0.07065491 0.06896419
000190 f5 2b 6e 3d 01 e1 99 3d 88 2a 33 bd 07 b6 1a be
       0.05814739 0.07513619 -0.043741733 -0.151085
0001a0 a6 a0 e7 bd ee cc 13 3e 59 89 c2 bd 94 5d 03 3d
       -0.11309938 0.14433643 -0.09498853 0.032071665
0001b0 ff bd f8 3d 79 99 47 bd 2a 05 59 3d 1e a6 f2 bb
       0.12145614 -0.048730347 0.05298344 -0.0074050566
0001c0 25 7d d5 3d 0c b1 06 bd 92 92 bc bd 2a 37 06 bc
       0.1042426 -0.03288369 -0.092076436 -0.008191863
0001d0 23 a2 21 bd 4f 72 78 3d 4c 75 0a bd 04 bc 81 3d
       -0.039461266 0.06065589 -0.03380327 0.06334689
0001e0 4c d9 ac 3c 26 c3 aa 3d b9 c1 83 3c 18 61 7b 3d
       0.021099709 0.08338003 0.016083585 0.061371893
0001f0 17 b2 5e 3d a6 e3 dc bd f4 2c 60 be eb f5 8a bd
       0.05436906 -0.10785608 -0.21892148 -0.067851864
000200 a3 10 a1 bc ff 57 fb bd 5d dc 1f 3d ac 9f 25 3e
       -0.019661253 -0.12272643 0.039028514 0.16174191
000210 c3 67 0e be a9 be 4f be 9e 73 b8 3b 61 c4 01 3d
       -0.1390677 -0.20287575 0.005629017 0.031681422
000220 61 24 06 3c 6d 16 2d be b8 bc 5e 3d 4b 86 3b ba
       0.008187384 -0.16903086 0.054379195 -0.0007153495
000230 2a 83 ae bd b9 31 fa bd 06 40 04 be a9 b9 f6 bc
       -0.08521111 -0.12216515 -0.12915048 -0.030117827
000240 26 47 12 bd f9 45 1a bd 10 2a 14 bd da ac 60 3c
       -0.035712384 -0.037664387 -0.036172926 0.013713086
000250 f1 ab 94 3d 67 0b cb 3a 5f 11 4e be cc a1 a7 3d
       0.07259358 0.0015491069 -0.20123814 0.08185157
000260 3e 84 33 3d 7d 47 66 bc 7f f6 6f bd c1 80 ed 3d
       0.043827288 -0.01405513 -0.058584686 0.115968235
000270 83 f2 19 3d ab 4b 37 bd 49 0a 50 bc 0c 00 71 bc
       0.037584793 -0.044749897 -0.012697765 -0.014709484
000280 08 35 a4 bd 31 2a e1 3d 03 a3 b6 3c d1 fb ac bd
       -0.080179274 0.109943755 0.022294527 -0.08446468
000290 cd 77 17 bd 83 d3 68 bd 72 df 41 bd f4 8c 6d bd
       -0.036979485 -0.05684234 -0.047332235 -0.05799575
0002a0 8d 25 59 3c cf 77 55 be aa 32 0b bc 56 6d c0 3d
       0.013253582 -0.20846485 -0.008495966 0.09395854
0002b0 02 6e 55 3b d7 50 bd 3b 29 a7 4a 3d bc 14 83 bd
       0.003256679 0.005777459 0.049475823 -0.06400439
0002c0 16 15 4b bc 65 fc 3c 3c 64 25 15 bd 8c 2b a1 3c
       -0.012395164 0.011534785 -0.03641261 0.019674085
0002d0 e5 db 99 3d 57 bc e0 3d b6 87 bb 3c fe 4c 21 be
       0.07512645 0.10973423 0.02289186 -0.15752026
0002e0 e3 88 2c 3d 94 d0 3f bd 0d fe 92 3d 2e 52 d1 3c
       0.042122733 -0.046829775 0.071773626 0.025551882
0002f0 e2 f9 60 3d 7b e6 68 3c 27 31 3c bc 74 aa 09 3d
       0.054925807 0.014215107 -0.011486328 0.033609822
000300 1a 90 23 3d 7b 89 bf bc 43 c1 88 bd a6 67 c5 bc
       0.039932348 -0.023380985 -0.06677487 -0.024097275
000310 dc f5 6b bc aa 2a 45 bc 04 4f 43 3c be e2 6f 3c
       -0.014401879 -0.012034098 0.011920694 0.014641462
000320 3c ee 17 be f3 e0 9c 3d ed 96 7c bc ac 62 b1 bd
       -0.14836973 0.07660093 -0.015416843 -0.08661398
000330 34 86 a0 bc 0c 6e 04 3d 4f 48 88 bd dc 85 27 3e
       -0.019595243 0.03233151 -0.06654417 0.16359657
000340 e3 dc 4a be c4 f8 95 bd 58 63 cb 3c ea 6f 2d 3d
       -0.19810824 -0.07322839 0.024827644 0.042343058
000350 de b1 6a 3d 16 78 3d bd f9 c0 98 3d f9 38 dd bd
       0.057298534 -0.0462571 0.074586816 -0.10801882
000360 d1 73 cb bd 3d 6e a1 3d 84 0e 6a be 60 c1 06 3e
       -0.099341996 0.078823544 -0.228571 0.13159704
000370 8d b6 5b 3c c0 6c 5a be d6 a5 02 3e 30 56 5b bd
       0.013410223 -0.21330547 0.12758574 -0.05354899
000380 49 9c b3 3b 55 47 19 bd bd 11 80 bd b7 e8 f8 3d
       0.005481277 -0.037421543 -0.06253383 0.12153762
000390 65 3a 03 be f7 27 3c 3d cb 92 ad 3b fd c3 ac bd
       -0.12815244 0.04593655 0.00529704 -0.08435819
0003a0 51 0f 61 3d 7e 69 21 3e 32 5b b1 3d c1 74 65 bd
       0.054946247 0.15762898 0.08659972 -0.05601955
0003b0 52 27 19 3c 16 44 bf b9 d1 0f 46 bd d8 d6 0e 3e
       0.009347754 -0.00036481087 -0.048354927 0.13949144
0003c0 9a 03 2b bc 2b 67 ef 3d cc df 49 3d 0e aa b2 3d
       -0.01043787 0.116895996 0.049285695 0.087238416
0003d0 9a e1 f1 3b 77 bf 62 3d 05 2d 91 3d 55 cb a8 bd
       0.00738163 0.055358376 0.07088665 -0.082419075
0003e0 be 65 36 3d a7 89 ee bc 69 82 54 3d 93 e3 92 bc
       0.044530623 -0.029118372 0.05188218 -0.017930781
0003f0 01 0c 07 3c 2f f3 ac bc cd 91 3d bd 58 99 88 bb
       0.008242608 -0.021112053 -0.046281625 -0.0041686706

layer2.conv1.bias f4 [32]
000000 39 18 68 3d 54 1f 03 3d 7e 2e 2c bc 22 d4 81 3c
       0.056663726 0.0320123 -0.0105091315 0.015848223
000010 11 04 34 3d 10 41 83 3d 42 eb 6a bd 25 10 1a bb
       0.04394919 0.06408894 -0.057353266 -0.0023508158
000020 5c 56 44 3c e3 e8 52 bd f3 a4 35 3d ac 95 20 3d
       0.01198348 -0.05149163 0.04434676 0.03920524
000030 c1 2d fe bc 81 53 5c 3d 3e 75 34 3d a5 32 3e bd
       -0.031027677 0.053790573 0.044057123 -0.046435017
000040 18 19 05 3d cc b6 7a bd e1 ae b3 bc ab 50 12 bd
       0.032494634 -0.061209485 -0.021933975 -0.035721462
000050 0d ea 5b 3c a6 f9 65 bc 2f 1c cf bc f9 02 4e bd
       0.013422501 -0.014036572 -0.025281994 -0.050295804
000060 fc 9e 17 bd a0 cf 49 3c d2 c5 d2 bc fc 75 7b 3c
       -0.037016854 0.012317568 -0.025729094 0.015347954
000070 e7 80 a6 3c 3a be 0d 3d 02 91 ef 3c 76 a2 4b 3d
       0.020325137 0.034605242 0.02924395 0.04971548

layer2.conv2.weight f4 [64, 32, 3, 3]
000000 2e d6 1f 3c 70 f6 f2 bc c4 1e ba 3b 8c 3d ba 3c
       0.009755654 -0.029658526 0.005679937 0.022734426
000010 2a 87 ae 3c 3d ca 0c bd 31 b8 4d bd 3f 49 d1 bc
       0.021304686 -0.034372557 -0.050224487 -0.025547622
000020 3c 88 2d 3d 0d fa 46 3c 53 f6 80 bc 39 26 f8 3c
       0.04236625 0.012144578 -0.015742457 0.030291663
000030 18 26 05 bc 40 a6 a9 3c 52 4d 1f 3d 05 2b 9b 3c
       -0.008126758 0.020709157 0.038892098 0.018941412
000040 e5 b1 09 3d 09 4d 24 3c 83 25 8f 3d 7a 68 4e bd
       0.03361692 0.010028132 0.06989577 -0.050392605
000050 19 37 84 ba e5 4f 49 3d e1 34 91 bc 6d 58 1a bd
       -0.0010087221 0.04914846 -0.01772541 -0.037681986
000060 3c bc cc bc b4 4d a7 bd 52 93 9c bc dd f7 9b bd
       -0.0249921 -0.081691176 -0.019113217 -0.076156355
000070 1c e5 d0 3c 7c fe 0f 3d a3 3d b7 bd b9 b6 5d bd
       0.025499873 0.035154805 -0.08947303 -0.054129336
000080 c9 42 60 3a 0c 5a c7 3c 49 18 89 3c a6 16 d3 bc
       0.00085548736 0.02433493 0.016735213 -0.025767636
000090 e4 f1 16 3d cf cd af 3d 7d 8c 0a 3d 49 68 c1 3c
       0.03685178 0.08584177 0.033825386 0.023609297
0000a0 b2 bb c1 bd ac fc 93 bc 62 7f e0 3c dd 0b 85 3d
       -0.09459628 -0.01806482 0.02740449 0.06496403
0000b0 51 45 7b bd ec cb 91 bc 81 cd 14 bb 91 eb 4a 3d
       -0.061345402 -0.017797433 -0.0022705498 0.04954106
0000c0 be 8e d8 bc 1e f7 5b 3d 5c ac 5a 3d df 89 fb bb
       -0.026435252 0.053702466 0.05338703 -0.0076763476
0000d0 a1 a1 62 bd 57 f9 3f 3d a9 48 37 bc 89 e7 2a bd
       -0.055329923 0.04686865 -0.011186757 -0.041724715
0000e0 0a b5 14 3b 32 a0 15 b8 9c 3e b6 38 50 d2 fd b8
       0.0022690916 -3.567356e-05 8.690098e-05 -0.00012103154
0000f0 49 7c 2b 38 e4 42 b3 39 8e a0 61 ba 2a dd 9a bd
       4.0885327e-05 0.00034191378 -0.00086069934 -0.07561715
000100 07 42 4f 3c e0 6d ca bd 14 21 62 3b 2b db 20 bb
       0.0126500195 -0.09884238 0.003450458 -0.0024544697
000110 9f be 54 3d 5d 6b c8 3b c7 13 99 3c 91 61 87 bc
       0.051939603 0.0061163143 0.018686188 -0.016526015
000120 86 d0 48 39 75 7a 8b b6 1d dc 3b ba 33 99 c5 bb
       0.00019151167 -4.1567787e-06 -0.00071662833 -0.0060302257
000130 1b 24 31 3c e8 ef 63 bd 7d a2 c5 bc da 08 43 bd
       0.010811831 -0.055648714 -0.024125332 -0.047615863
000140 e0 b5 31 3c 05 6c d5 3d 46 c5 77 bc 46 08 c5 3b
       0.010846585 0.10420994 -0.015122717 0.006012949
000150 1c e6 33 bd 62 2d f5 bc 95 fd 7b bd ea 17 da 3d
       -0.04392062 -0.029928867 -0.06152113 0.106490925
000160 79 8c 32 3c 52 75 a7 3c 9d 7f 7e 3d 04 06 c2 bd
       0.010897749 0.020441685 0.06213342 -0.09473804
000170 b0 25 fe 3d 91 43 52 3d 96 15 b4 b9 c0 cd 36 bc
       0.12409532 0.051333968 -0.00034348358 -0.011157453
000180 80 87 c8 bc d0 a6 38 bd 58 2e 7f 3c 9f 83 23 bc
       -0.024478674 -0.04508096 0.015575014 -0.009980111
000190 b7 dc 1c bd c4 82 43 3d 63 6e 13 bc 34 67 c8 3c
       -0.038296428 0.04773213 -0.008998486 0.024463274
0001a0 e0 6c 29 be fe d6 4b 3d 45 98 44 bd a5 b2 c6 3d
       -0.16545439 0.04976558 -0.047996778 0.097020425
0001b0 15 63 0f 3d aa ea 8e bd 18 c9 1c 3d 64 9f 99 bd
       0.0350066 -0.06978352 0.038277715 -0.075011045
0001c0 2d 4a 94 bc 17 8a 34 3c 4d d6 33 bd a9 99 b2 3c
       -0.018101776 0.011019251 -0.043905545 0.021801786
0001d0 bc 5d 60 3d 04 f1 ed bc c1 cd a8 3d 90 f2 06 3d
       0.054776892 -0.02904559 0.082423694 0.03294617
0001e0 77 bd a7 3a e5 9c 74 3d e5 05 aa 3c d9 7e 0c 3d
       0.0012797554 0.05971994 0.020754764 0.03430066
0001f0 f9 f0 1f bd 11 60 b3 3c 79 41 14 3d 04 2e 89 3c
       -0.03904817 0.021896394 0.036195252 0.016745575
000200 11 ab 99 b9 eb 3b ad 3d 65 cc 2a 3d c4 5d ee 3b
       -0.00029309888 0.08458694 0.041698832 0.0072743613
000210 83 16 94 3c 04 69 ea 3d d5 40 00 3d 90 8c fa 3c
       0.01807714 0.114458114 0.03131183 0.030584604
000220 fc 14 ec bb 31 e5 b9 bc f6 54 ce bc 87 33 59 bd
       -0.00720465 -0.022692295 -0.025186997 -0.053027656
000230 11 5d 08 be b8 e7 91 bc 0d 11 40 bd 81 f4 53 bd
       -0.13316752 -0.017810687 -0.04689126 -0.05174685
000240 cf f8 2e 3d 7b 21 1a 3d 86 9d 6a bb 44 c6 d7 3c
       0.04271775 0.037629586 -0.0035799458 0.026339658
000250 de 44 9e bb 87 c7 23 3a 48 47 66 3c 28 3e 1d bc
       -0.004829987 0.00062476884 0.014055081 -0.009597339
000260 ea 10 92 3a 40 f1 94 3d 2c 7c c2 3d b7 58 41 bd
       0.0011143957 0.07272577 0.0949634 -0.047203746
000270 30 55 eb 3c 67 c0 49 3c 52 26 93 3c 4d a0 10 bd
       0.028727144 0.012313939 0.017962608 -0.035309125
000280 bc 83 11 be fc c4 f4 3c 1f 79 82 3d fb 5c 0a 3d
       -0.14210409 0.029879086 0.06370758 0.03378008
000290 8f 20 0a 3d b5 b9 75 3b 62 eb 9a 3c 96 18 f5 3c
       0.033722457 0.0037494723 0.018911067 0.02991895
0002a0 c8 61 39 bd 18 99 89 bd db 26 44 bd 9e db 15 3c
       -0.045259267 -0.067186534 -0.047888618 0.009146599
0002b0 46 0d 70 3d c8 11 3a 3c df 07 2a 3d 1f 3f 25 bc
       0.05860641 0.011356778 0.041511413 -0.01008585
0002c0 d0 f1 e5 bc 2a 73 76 bb 33 6c e7 b8 6f 42 4d 39
       -0.028069407 -0.0037605264 -0.00011035092 0.00019575072
0002d0 42 ac 76 3d 49 0c 37 3c 48 2a 77 bc 2e 91 0b 3d
       0.06022287 0.011172363 -0.015085764 0.034074
0002e0 99 b0 ce bc bb 2d 25 bd 37 92 38 bc c7 4c d3 bb
       -0.025230693 -0.040326815 -0.011265329 -0.0064483616
0002f0 a2 28 1d bc 6c 89 77 bc 98 e2 2e 3d d9 26 d1 bc
       -0.009592207 -0.0151084475 0.042696565 -0.02553122
000300 15 38 3c bc cc 86 ea bc 81 25 05 3a d7 63 5c bc
       -0.01148798 -0.02862873 0.0005079136 -0.013451538
000310 70 c6 ba 3c 77 0c de 3b 2a c1 24 3b 19 ef 45 3c
       0.0227997 0.0067763883 0.0025139549 0.012080931
000320 17 9c 8f 3c d5 54 cf 3d 48 72 ea bd 45 bc 4f 3d
       0.017530484 0.10123602 -0.11447579 0.050716657
000330 8a 0a c7 bb aa 9c 5e bc ef 9b f7 ba 6b da e3 bd
       -0.0060742544 -0.013587156 -0.0018891076 -0.11125644
000340 39 b8 7e 3d 9d 41 b8 bd 29 a5 5f bc f7 28 ac bd
       0.062187407 -0.0899689 -0.013650217 -0.08406251
000350 39 48 77 3d 05 57 14 bd 7b 6e bf 3c 6f 44 88 3c
       0.06037161 -0.0362158 0.02336811 0.016634194
000360 b0 0f b2 3a b6 0f 85 bd 26 10 0d 3e b0 c2 58 bc
       0.0013584998 -0.06497137 0.13775691 -0.013230011
000370 6d 4c d8 3c 98 42 72 3b dc b7 a1 ba 7b 62 a7 bb
       0.02640363 0.0036965962 -0.001233812 -0.0051081753
000380 e7 36 94 bc 00 52 a8 bc 0d 44 be bc 37 81 b4 bd
       -0.018092586 -0.020546913 -0.023225809 -0.08813708
000390 78 2d 90 3d dc 69 3f bc da 47 b6 3c fe 8d cb bc
       0.070399225 -0.011682954 0.022251058 -0.02484798
0003a0 28 8c 1d 3d bd 00 ae 3b 37 9d 9d 3d c9 ad 51 bd
       0.03846374 0.0053101466 0.07696002 -0.051191125
0003b0 98 65 41 bc 90 8d a5 bd 5a 22 6e 3d 63 cb 2c 3d
       -0.011804007 -0.080836415 0.05813823 0.042186152
0003c0 59 5a 18 3d c8 18 f5 3d fb 83 a4 bd 65 58 7a 3d
       0.037195537 0.11967617 -0.08032986 0.061119456
0003d0 15 ab 0c 3c f4 a2 9d 3c fc e1 38 bd ba e0 69 3d
       0.008585711 0.019242741 -0.04513739 0.05709908
0003e0 e5 3a 58 bc 75 63 9e bd 0b 0d 4f bd 59 4d 55 bd
       -0.013197635 -0.07733814 -0.050549548 -0.052075718
0003f0 76 43 42 3d 9c 39 16 bd b4 e8 d0 3c 04 e6 15 bd
       0.047427617 -0.036676034 0.025501586 -0.036596313

layer2.conv2.bias f4 [64]
000000 b8 1c 34 bd 06 4a 8c bc b0 bd 6f 3d ba d6 28 bd
       -0.0439727 -0.01712514 0.05853051 -0.041220404
000010 49 0e 22 3d 3a 70 e2 bb 35 cb ec 3c 0b f4 0a bd
       0.039564405 -0.006910351 0.02890549 -0.033924144
000020 a6 35 84 3d 87 1b 55 3d 80 be 13 bd e1 5e 5e bb
       0.06455545 0.052028205 -0.036070347 -0.0033931064
000030 46 6d 35 3d c7 a9 5c 3d 24 12 0c 3d 77 71 43 3d
       0.044293664 0.05387285 0.034196988 0.04771563
000040 1c 32 0d 3c ec 9b c3 ba 57 72 52 3d da 9d 99 bc
       0.008617904 -0.0014923788 0.051378574 -0.018752027
000050 dd 63 66 bd 8d 7a 52 3c 90 43 60 3d 38 de 00 3d
       -0.05624758 0.012846601 0.054751933 0.031461924
000060 41 71 69 bd fd 2b 3f 3d e1 f8 06 3d fa e7 cb 39
       -0.056992773 0.04667281 0.032952193 0.00038892013
000070 bb 4c d3 bc 19 eb b7 bc b8 c7 5d bd f9 f3 6b bd
       -0.025793424 -0.02245097 -0.054145545 -0.057605717
000080 15 59 47 3a 9a 91 4f bd 47 c4 96 39 81 21 36 bd
       0.0007604522 -0.050675966 0.00028756468 -0.044465546
000090 da 7a 60 3c 94 b4 f5 3b 04 1e 0e 3d 02 ae 83 3c
       0.013701165 0.007498333 0.034696594 0.016074184
0000a0 87 c0 e0 3c 6a 5d 74 bd 2f 42 09 3d fe 39 31 3d
       0.027435554 -0.0596594 0.033510383 0.043268196
0000b0 09 40 7e 3b 6c 83 2d bc 86 d6 b7 bc 6e ec b6 bc
       0.0038795492 -0.010590415 -0.02244116 -0.022329535
0000c0 2d 70 1a bd 88 46 1e bc ff 4f 5d 3c ed a9 f0 bc
       -0.037704635 -0.009660371 0.013507842 -0.029377902
0000d0 02 a4 da 3c 3e 53 4b 3d fd 1a 80 bc 37 9c 2f 3d
       0.026689533 0.049639933 -0.015637869 0.042873587
0000e0 5b 14 2d 3d 52 0a 63 3b b0 fd ba 3c 86 3b 22 bc
       0.04225574 0.0034643603 0.022826046 -0.009901887
0000f0 ea 75 1b bd 64 22 b4 3b 20 b1 86 bc 38 42 1a 3d
       -0.03795425 0.0054972637 -0.016441882 0.037660807

fc1.weight f4 [1, 3200]
000000 46 24 f7 bb 6c 19 01 00 7b 7a 00 80 60 bc cd ae
       -0.007542166 1.00955e-40 -4.3938e-41 -9.355783e-11
000010 e7 2f 51 a9 71 1a 0d 2d 0e 4a 02 31 77 ef 4d b2
       -4.644887e-14 8.020793e-12 1.8959585e-09 -1.19870185e-08
000020 9a 60 11 a0 db 1f 01 00 24 6b c4 3a eb 57 1b 3b
       -1.231394e-19 1.03263e-40 0.0014985544 0.0023703526
000030 a6 36 02 80 4f 85 25 29 8d 06 b6 29 a2 96 01 00
       -2.03275e-40 3.6752987e-14 8.08356e-14 1.45872e-40
000040 2f ba 01 00 51 a2 00 80 6d 0d 19 af 00 4d b5 21
       1.58626e-40 -5.8228e-41 -1.3920039e-10 1.2285419e-18
000050 2e f7 37 bb ee 0f 0b bc b5 7c 20 38 cf c4 7e bb
       -0.0028070915 -0.008487685 3.8263115e-05 -0.0038874631
000060 98 34 85 3b ad 68 3a 3b 11 a6 0b bd c9 36 a5 3b
       0.0040651076 0.002844374 -0.03409392 0.0050419313
000070 cc ec 21 38 7b e1 01 00 d4 50 83 bc 0d 04 0c b9
       3.8605926e-05 1.72723e-40 -0.016029753 -0.0001335295
000080 f2 20 ae 3c 44 e0 de 3c d0 19 21 3c 12 19 42 bd
       0.021255944 0.027206548 0.009832814 -0.04738719
000090 1a 7d a2 bd ff 38 48 bc 03 6c e7 3c eb fb 00 80
       -0.079340175 -0.01222062 0.028249746 -9.0371e-41
0000a0 9b fa dd bb 7d 40 fa b9 e9 21 90 bc a2 5c 81 3c
       -0.0067742593 -0.00047731763 -0.017594295 0.015791241
0000b0 e8 5d f3 3a 1a cd 86 b8 83 a0 06 22 2d 1b ba 3a
       0.0018567415 -6.427821e-05 1.824536e-18 0.0014198773
0000c0 b2 f8 04 bd 68 be c3 39 db a8 57 3b e2 1a 31 8f
       -0.032463737 0.00037335162 0.0032907042 -8.731951e-30
0000d0 b9 4c 9c ac 11 c6 2b 32 81 67 d8 3d 78 6d 9f 3d
       -4.4423046e-12 9.998545e-09 0.10566617 0.077845514
0000e0 00 df a2 ba 15 e4 c9 b0 ff 03 00 00 4c 3e 77 bc
       -0.0012426078 -1.46895e-09 1.434e-42 -0.015090536
0000f0 c5 ae 68 bc c3 15 0a 32 78 1b b4 0b ba 17 c3 3a
       -0.014201825 8.037605e-09 6.937481e-32 0.001488439
000100 1a 5e c7 3d 10 d0 a2 3d b3 13 4d 3c be 35 01 80
       0.09734745 0.07949841 0.012516904 -1.11115e-40
000110 e4 86 02 bc 6a 50 29 3b 77 3f 84 38 a4 54 91 ac
       -0.007966731 0.0025835284 6.306072e-05 -4.130545e-12
000120 02 95 20 bd 8f 23 d8 3a 7d ef 3a bd 11 f4 6b 3d
       -0.039204605 0.001649009 -0.04563855 0.057605807
000130 dd 89 00 00 d3 fc fd 3c 64 6c 16 bc ac 45 15 b9
       4.9456e-41 0.031004345 -0.009181116 -0.00014235702
000140 96 c8 00 00 a1 bf ac bc 2c 1f 15 bd 40 b3 15 bd
       7.1957e-41 -0.02108747 -0.03640668 -0.0365479
000150 de af 95 bd 4f 4a 00 00 0e b6 af 3b a9 ce 40 3b
       -0.07308935 2.6657e-41 0.005362279 0.0029420054
000160 4a 99 9a 3b ea 59 17 3c cd 83 79 88 72 6c 32 3c
       0.0047179805 0.009237746 -7.5085643e-34 0.010890113
000170 8d a7 af ba c6 e2 00 00 69 b5 01 80 90 83 9e a8
       -0.0013401374 8.1351e-41 -1.56913e-40 -1.759858e-14
000180 59 4e 1f 3b 8b 23 5a bb 7f db 8f 1b 7e 87 c6 b0
       0.0024308173 -0.0033285345 2.3799212e-22 -1.4444905e-09
000190 4e b1 81 3c b3 c1 df bb a8 91 05 ba dc fa 99 3b
       0.015831616 -0.0068285107 -0.0005095252 0.004699094
0001a0 29 c9 26 3a 90 33 0c 3c 25 07 8f 2b ac ad 0c bb
       0.00063623727 0.008557215 1.0162744e-12 -0.0021465821
0001b0 3d d0 b5 b9 12 00 42 a1 ed 60 1f 3d 8e e7 84 ba
       -0.0003467816 -6.572985e-19 0.038910795 -0.001013981
0001c0 c3 1d 64 3c 0b 9b df bc 28 36 17 30 d7 7f a7 2f
       0.013923111 -0.02729561 5.501044e-10 3.046796e-10
0001d0 08 66 40 b7 c3 0e f3 3b 3f 58 85 3c 40 cd 01 80
       -1.1467848e-05 0.007417531 0.01627743 -1.65465e-40
0001e0 9b d7 90 bc a9 ff 91 bc 56 34 80 3b 0b df f8 36
       -0.017680934 -0.017822104 0.003912489 7.4169416e-06
0001f0 73 39 9c 3c e1 73 52 bd 7c a2 83 3d 92 6c 7a 3c
       0.019070363 -0.051380042 0.06427476 0.015284674
000200 a9 03 d3 39 5b c3 01 00 e3 19 e4 3b 1f e6 b2 3b
       0.00040247783 1.61916e-40 0.0069610937 0.0054595615
000210 65 ef c9 bc c5 81 85 bb cf 40 53 3d 6a 7f 6d bc
       -0.024650285 -0.0040743076 0.05157548 -0.01449571
000220 a4 8a 89 3d 20 d5 7e bc 59 08 44 ba 7e 53 f1 ab
       0.06715897 -0.015553743 -0.00074780505 -1.7147254e-12
000230 26 e2 08 bd 84 6b 87 bc b9 a9 9d ba bf 89 02 3d
       -0.033418797 -0.01653076 -0.0012028731 0.031869646
000240 4b b7 d5 3d 7b 8f 8d bc f2 1e 7f 3d 50 7f ce 3c
       0.10435351 -0.01728033 0.06228537 0.025207192
000250 b6 58 b7 3c 9e c0 90 ba 64 da 02 bd 33 0e 81 bb
       0.022381168 -0.0011043733 -0.031946555 -0.0039384603
000260 c8 dc 95 39 37 7f 8d bc d4 4b b9 bd ef 02 4c 3c
       0.0002858399 -0.017272575 -0.09047666 0.012451871
000270 26 9f ba bd 14 7c a8 bb 56 60 2e 3c 07 ab c3 3b
       -0.091123864 -0.0051417444 0.010643085 0.005971316
000280 f1 c6 09 3d 9e d4 05 bb ce a7 d5 3b e4 93 ed 3b
       0.03363699 -0.002042092 0.006520248 0.007250296
000290 7b e4 91 bd c5 83 b5 bc 6f 64 a4 bd c0 07 28 3b
       -0.07123657 -0.02215756 -0.08026969 0.0025639385
0002a0 51 11 99 ba 0b 2e 08 bb e6 be 01 00 8f 1b c1 aa
       -0.0011678134 -0.0020779397 1.60317e-40 -3.430281e-13
0002b0 de 5e c9 21 62 92 66 34 2c cd 24 3c 10 d3 d8 ba
       1.3645401e-18 2.1473673e-07 0.010058682 -0.0016542394
0002c0 a2 fd 55 a6 94 b1 78 26 48 70 2b bb 6c ac 4d 35
       -7.4242957e-16 8.628295e-16 -0.0026159454 7.661936e-07
0002d0 7d 51 fc 93 85 48 00 00 e0 6d 00 00 70 7d 01 00
       -6.3694097e-27 2.6015e-41 3.9416e-41 1.36834e-40
0002e0 1a af 91 2b b1 41 2d 29 e8 73 c1 8b 50 d1 80 80
       1.035147e-12 3.8470695e-14 -7.451529e-32 -1.183003e-38
0002f0 54 e7 81 b9 ca e9 7d 24 50 ac 73 b0 9a 35 02 00
       -0.0002477715 5.5058657e-17 -8.8647756e-10 2.029e-40
000300 4c 18 03 b2 4d e0 74 8d db 05 a4 88 45 2c 1d 97
       -7.630728e-09 -7.5458297e-31 -9.871768e-34 -5.078531e-25
000310 36 66 f7 28 5e f9 ad 2f ad ba 01 80 55 5e b8 a3
       2.7466836e-14 3.1645703e-10 -1.58802e-40 -1.9989271e-17
000320 99 ad 3a 3c b3 97 50 bc 93 4a 3f bb 11 2a 54 3c
       0.011393928 -0.01273148 -0.0029188737 0.012949483
000330 08 28 e6 bb 32 0a 25 bc 80 cf bf 3b ac a2 4d 3c
       -0.007023815 -0.0100732315 0.0058535933 0.012550991
000340 3b 4c 03 3d 59 d4 35 3c c1 ce ae bc 40 9c 1e 3c
       0.03205512 0.011097991 -0.021338822 0.009680808
000350 35 90 13 3c 9d 07 a3 bb b2 d9 27 bd fe f5 52 3c
       0.00900655 -0.004975273 -0.040979095 0.012876032
000360 54 07 10 bd 66 4f 3d ba 42 c8 11 3d 7d 99 00 3d
       -0.03516324 -0.0007221609 0.03559137 0.031396378
000370 cb 10 b1 bc 95 ec b2 39 17 e4 00 00 50 05 2a bd
       -0.021614453 0.00034127073 8.1823e-41 -0.041508973
000380 7b e6 71 bd 62 0a 99 bc c0 30 59 bd 6c 7c 19 08
       -0.059057694 -0.018681709 -0.053025007 4.618802e-34
000390 13 0e b8 3b 3f 3d 30 bd 92 84 f1 bb 49 37 80 3c
       0.005616912 -0.04302716 -0.00737054 0.015651362
0003a0 78 f1 85 3c b6 84 17 3d 4f 4c fd 3c 6a a2 bb 3c
       0.016350493 0.036991797 0.030920176 0.022904593
0003b0 38 9f 56 bc 31 b2 9f 3c c6 cd 0e bd f2 76 b4 bc
       -0.013099484 0.019494148 -0.03486421 -0.022029374
0003c0 d3 ee 49 3c 05 d7 7b 3b 0a b1 aa 35 74 69 2f bd
       0.012325007 0.0038427722 1.2717512e-06 -0.042825177
0003d0 e2 aa 08 3c 89 7e 90 bb 67 a2 20 bc 9c 04 9a 39
       0.008341523 -0.0044096154 -0.009804345 0.00029376603
0003e0 16 ef 98 3c 30 e8 8a 3c 4c 8d e4 bb 44 2a 7b 3b
       0.018668693 0.016956419 -0.0069748517 0.0038324753
0003f0 40 b7 6c 3c 2d 6e 63 3c ef c0 a7 3c 21 6d f2 bc
       0.014447987 0.013881248 0.02047774 -0.029593052

out.0.weight f4 [1, 3200]
000000 46 24 f7 bb 6c 19 01 00 7b 7a 00 80 60 bc cd ae
       -0.007542166 1.00955e-40 -4.3938e-41 -9.355783e-11
000010 e7 2f 51 a9 71 1a 0d 2d 0e 4a 02 31 77 ef 4d b2
       -4.644887e-14 8.020793e-12 1.8959585e-09 -1.19870185e-08
000020 9a 60 11 a0 db 1f 01 00 24 6b c4 3a eb 57 1b 3b
       -1.231394e-19 1.03263e-40 0.0014985544 0.0023703526
000030 a6 36 02 80 4f 85 25 29 8d 06 b6 29 a2 96 01 00
       -2.03275e-40 3.6752987e-14 8.08356e-14 1.45872e-40
000040 2f ba 01 00 51 a2 00 80 6d 0d 19 af 00 4d b5 21
       1.58626e-40 -5.8228e-41 -1.3920039e-10 1.2285419e-18
000050 2e f7 37 bb ee 0f 0b bc b5 7c 20 38 cf c4 7e bb
       -0.0028070915 -0.008487685 3.8263115e-05 -0.0038874631
000060 98 34 85 3b ad 68 3a 3b 11 a6 0b bd c9 36 a5 3b
       0.0040651076 0.002844374 -0.03409392 0.0050419313
000070 cc ec 21 38 7b e1 01 00 d4 50 83 bc 0d 04 0c b9
       3.8605926e-05 1.72723e-40 -0.016029753 -0.0001335295
000080 f2 20 ae 3c 44 e0 de 3c d0 19 21 3c 12 19 42 bd
       0.021255944 0.027206548 0.009832814 -0.04738719
000090 1a 7d a2 bd ff 38 48 bc 03 6c e7 3c eb fb 00 80
       -0.079340175 -0.01222062 0.028249746 -9.0371e-41
0000a0 9b fa dd bb 7d 40 fa b9 e9 21 90 bc a2 5c 81 3c
       -0.0067742593 -0.00047731763 -0.017594295 0.015791241
0000b0 e8 5d f3 3a 1a cd 86 b8 83 a0 06 22 2d 1b ba 3a
       0.0018567415 -6.427821e-05 1.824536e-18 0.0014198773
0000c0 b2 f8 04 bd 68 be c3 39 db a8 57 3b e2 1a 31 8f
       -0.032463737 0.00037335162 0.0032907042 -8.731951e-30
0000d0 b9 4c 9c ac 11 c6 2b 32 81 67 d8 3d 78 6d 9f 3d
       -4.4423046e-12 9.998545e-09 0.10566617 0.077845514
0000e0 00 df a2 ba 15 e4 c9 b0 ff 03 00 00 4c 3e 77 bc
       -0.0012426078 -1.46895e-09 1.434e-42 -0.015090536
0000f0 c5 ae 68 bc c3 15 0a 32 78 1b b4 0b ba 17 c3 3a
       -0.014201825 8.037605e-09 6.937481e-32 0.001488439
000100 1a 5e c7 3d 10 d0 a2 3d b3 13 4d 3c be 35 01 80
       0.09734745 0.07949841 0.012516904 -1.11115e-40
000110 e4 86 02 bc 6a 50 29 3b 77 3f 84 38 a4 54 91 ac
       -0.007966731 0.0025835284 6.306072e-05 -4.130545e-12
000120 02 95 20 bd 8f 23 d8 3a 7d ef 3a bd 11 f4 6b 3d
       -0.039204605 0.001649009 -0.04563855 0.057605807
000130 dd 89 00 00 d3 fc fd 3c 64 6c 16 bc ac 45 15 b9
       4.9456e-41 0.031004345 -0.009181116 -0.00014235702
000140 96 c8 00 00 a1 bf ac bc 2c 1f 15 bd 40 b3 15 bd
       7.1957e-41 -0.02108747 -0.03640668 -0.0365479
000150 de af 95 bd 4f 4a 00 00 0e b6 af 3b a9 ce 40 3b
       -0.07308935 2.6657e-41 0.005362279 0.0029420054
000160 4a 99 9a 3b ea 59 17 3c cd 83 79 88 72 6c 32 3c
       0.0047179805 0.009237746 -7.5085643e-34 0.010890113
000170 8d a7 af ba c6 e2 00 00 69 b5 01 80 90 83 9e a8
       -0.0013401374 8.1351e-41 -1.56913e-40 -1.759858e-14
000180 59 4e 1f 3b 8b 23 5a bb 7f db 8f 1b 7e 87 c6 b0
       0.0024308173 -0.0033285345 2.3799212e-22 -1.4444905e-09
000190 4e b1 81 3c b3 c1 df bb a8 91 05 ba dc fa 99 3b
       0.015831616 -0.0068285107 -0.0005095252 0.004699094
0001a0 29 c9 26 3a 90 33 0c 3c 25 07 8f 2b ac ad 0c bb
       0.00063623727 0.008557215 1.0162744e-12 -0.0021465821
0001b0 3d d0 b5 b9 12 00 42 a1 ed 60 1f 3d 8e e7 84 ba
       -0.0003467816 -6.572985e-19 0.038910795 -0.001013981
0001c0 c3 1d 64 3c 0b 9b df bc 28 36 17 30 d7 7f a7 2f
       0.013923111 -0.02729561 5.501044e-10 3.046796e-10
0001d0 08 66 40 b7 c3 0e f3 3b 3f 58 85 3c 40 cd 01 80
       -1.1467848e-05 0.007417531 0.01627743 -1.65465e-40
0001e0 9b d7 90 bc a9 ff 91 bc 56 34 80 3b 0b df f8 36
       -0.017680934 -0.017822104 0.003912489 7.4169416e-06
0001f0 73 39 9c 3c e1 73 52 bd 7c a2 83 3d 92 6c 7a 3c
       0.019070363 -0.051380042 0.06427476 0.015284674
000200 a9 03 d3 39 5b c3 01 00 e3 19 e4 3b 1f e6 b2 3b
       0.00040247783 1.61916e-40 0.0069610937 0.0054595615
000210 65 ef c9 bc c5 81 85 bb cf 40 53 3d 6a 7f 6d bc
       -0.024650285 -0.0040743076 0.05157548 -0.01449571
000220 a4 8a 89 3d 20 d5 7e bc 59 08 44 ba 7e 53 f1 ab
       0.06715897 -0.015553743 -0.00074780505 -1.7147254e-12
000230 26 e2 08 bd 84 6b 87 bc b9 a9 9d ba bf 89 02 3d
       -0.033418797 -0.01653076 -0.0012028731 0.031869646
000240 4b b7 d5 3d 7b 8f 8d bc f2 1e 7f 3d 50 7f ce 3c
       0.10435351 -0.01728033 0.06228537 0.025207192
000250 b6 58 b7 3c 9e c0 90 ba 64 da 02 bd 33 0e 81 bb
       0.022381168 -0.0011043733 -0.031946555 -0.0039384603
000260 c8 dc 95 39 37 7f 8d bc d4 4b b9 bd ef 02 4c 3c
       0.0002858399 -0.017272575 -0.09047666 0.012451871
000270 26 9f ba bd 14 7c a8 bb 56 60 2e 3c 07 ab c3 3b
       -0.091123864 -0.0051417444 0.010643085 0.005971316
000280 f1 c6 09 3d 9e d4 05 bb ce a7 d5 3b e4 93 ed 3b
       0.03363699 -0.002042092 0.006520248 0.007250296
000290 7b e4 91 bd c5 83 b5 bc 6f 64 a4 bd c0 07 28 3b
       -0.07123657 -0.02215756 -0.08026969 0.0025639385
0002a0 51 11 99 ba 0b 2e 08 bb e6 be 01 00 8f 1b c1 aa
       -0.0011678134 -0.0020779397 1.60317e-40 -3.430281e-13
0002b0 de 5e c9 21 62 92 66 34 2c cd 24 3c 10 d3 d8 ba
       1.3645401e-18 2.1473673e-07 0.010058682 -0.0016542394
0002c0 a2 fd 55 a6 94 b1 78 26 48 70 2b bb 6c ac 4d 35
       -7.4242957e-16 8.628295e-16 -0.0026159454 7.661936e-07
0002d0 7d 51 fc 93 85 48 00 00 e0 6d 00 00 70 7d 01 00
       -6.3694097e-27 2.6015e-41 3.9416e-41 1.36834e-40
0002e0 1a af 91 2b b1 41 2d 29 e8 73 c1 8b 50 d1 80 80
       1.035147e-12 3.8470695e-14 -7.451529e-32 -1.183003e-38
0002f0 54 e7 81 b9 ca e9 7d 24 50 ac 73 b0 9a 35 02 00
       -0.0002477715 5.5058657e-17 -8.8647756e-10 2.029e-40
000300 4c 18 03 b2 4d e0 74 8d db 05 a4 88 45 2c 1d 97
       -7.630728e-09 -7.5458297e-31 -9.871768e-34 -5.078531e-25
000310 36 66 f7 28 5e f9 ad 2f ad ba 01 80 55 5e b8 a3
       2.7466836e-14 3.1645703e-10 -1.58802e-40 -1.9989271e-17
000320 99 ad 3a 3c b3 97 50 bc 93 4a 3f bb 11 2a 54 3c
       0.011393928 -0.01273148 -0.0029188737 0.012949483
000330 08 28 e6 bb 32 0a 25 bc 80 cf bf 3b ac a2 4d 3c
       -0.007023815 -0.0100732315 0.0058535933 0.012550991
000340 3b 4c 03 3d 59 d4 35 3c c1 ce ae bc 40 9c 1e 3c
       0.03205512 0.011097991 -0.021338822 0.009680808
000350 35 90 13 3c 9d 07 a3 bb b2 d9 27 bd fe f5 52 3c
       0.00900655 -0.004975273 -0.040979095 0.012876032
000360 54 07 10 bd 66 4f 3d ba 42 c8 11 3d 7d 99 00 3d
       -0.03516324 -0.0007221609 0.03559137 0.031396378
000370 cb 10 b1 bc 95 ec b2 39 17 e4 00 00 50 05 2a bd
       -0.021614453 0.00034127073 8.1823e-41 -0.041508973
000380 7b e6 71 bd 62 0a 99 bc c0 30 59 bd 6c 7c 19 08
       -0.059057694 -0.018681709 -0.053025007 4.618802e-34
000390 13 0e b8 3b 3f 3d 30 bd 92 84 f1 bb 49 37 80 3c
       0.005616912 -0.04302716 -0.00737054 0.015651362
0003a0 78 f1 85 3c b6 84 17 3d 4f 4c fd 3c 6a a2 bb 3c
       0.016350493 0.036991797 0.030920176 0.022904593
0003b0 38 9f 56 bc 31 b2 9f 3c c6 cd 0e bd f2 76 b4 bc
       -0.013099484 0.019494148 -0.03486421 -0.022029374
0003c0 d3 ee 49 3c 05 d7 7b 3b 0a b1 aa 35 74 69 2f bd
       0.012325007 0.0038427722 1.2717512e-06 -0.042825177
0003d0 e2 aa 08 3c 89 7e 90 bb 67 a2 20 bc 9c 04 9a 39
       0.008341523 -0.0044096154 -0.009804345 0.00029376603
0003e0 16 ef 98 3c 30 e8 8a 3c 4c 8d e4 bb 44 2a 7b 3b
       0.018668693 0.016956419 -0.0069748517 0.0038324753
0003f0 40 b7 6c 3c 2d 6e 63 3c ef c0 a7 3c 21 6d f2 bc
       0.014447987 0.013881248 0.02047774 -0.029593052

exp_avg f4 [32, 2, 5, 5]
000000 db ef df 3a 0e a0 c0 3a 65 43 a4 3a 1c 1d 89 3a
       0.0017085032 0.0014696138 0.0012532292 0.0010460946
000010 75 23 5b 3a d6 2a e7 3a 68 bf c4 3a dd 96 a6 3a
       0.00083594705 0.0017636667 0.0015010657 0.0012709756
000020 6d 3c 77 3a d8 35 29 3a 9c 77 e9 3a 53 84 c7 3a
       0.00094313064 0.0006454862 0.0017812136 0.0015221931
000030 70 3b a2 3a e3 19 69 3a 31 b9 e6 39 33 8b e5 3a
       0.0012377333 0.0008892102 0.00044006997 0.0017512798
000040 07 f6 cc 3a 32 ea a7 3a 29 d8 51 3a 6c a8 a5 39
       0.0015637287 0.0012810885 0.00080049277 0.00031596737
000050 a3 14 c2 3a 11 88 ae 3a 4d ae 74 3a ba 56 e2 39
       0.0014807176 0.0013315697 0.0009333834 0.00043170695
000060 93 e8 69 b9 96 26 b2 3a f8 d7 9f 3a ac a5 92 3a
       -0.00022307252 0.0013591822 0.0012195101 0.001118829
000070 0e 85 81 3a b3 61 75 3a f0 0f c6 3a bc 5a b4 3a
       0.0009881572 0.00093605666 0.0015110951 0.0013759951
000080 d4 e9 98 3a db 11 78 3a 97 7b 39 3a 69 1a d2 3a
       0.0011666366 0.000946311 0.0007075606 0.0016029599
000090 f3 26 ba 3a 7a 81 9f 3a 38 e2 67 3a 8e 25 0a 3a
       0.0014202282 0.0012169324 0.000884566 0.00052698783
0000a0 f3 6f e2 3a 46 9a cd 3a 88 52 a5 3a 37 0b 61 3a
       0.0017275795 0.0015686236 0.0012613097 0.000858474
0000b0 40 c0 b6 39 f1 cf c6 3a bc 57 b2 3a b7 1d 84 3a
       0.00034856983 0.0015168173 0.0013606469 0.0010079656
0000c0 7c fb ff 39 5d 4d 00 b9 06 d1 28 39 f8 5d e5 38
       0.0004882476 -0.00012235851 0.00016099596 0.00010937074
0000d0 ab c1 10 38 01 21 05 b9 74 07 f1 b9 b3 9e 0e 39
       3.4512643e-05 -0.00012696163 -0.00045972655 0.00013601295
0000e0 7c 9c ba 38 80 57 2b b8 09 2c 7e b9 a0 b4 15 ba
       8.8983186e-05 -4.0851068e-05 -0.00024239732 -0.0005710814
0000f0 9b 03 8d 38 89 c3 4b b6 23 6c e7 b8 c1 3c a5 b9
       6.7240755e-05 -3.0363174e-06 -0.000110350804 -0.00031516518
000100 1d 8d 31 ba d5 e6 2b 38 7a b8 ad 36 aa 2c 00 b9
       -0.00067730417 4.0984556e-05 5.1772777e-06 -0.0001222367
000110 10 ac a5 b9 b0 14 20 ba 8d b2 76 38 e9 ad 41 b6
       -0.0003159945 -0.00061065983 5.881726e-05 -2.886047e-06
000120 62 6b a7 b8 00 96 6e b9 a6 4b 05 ba 37 f6 d5 37
       -7.983182e-05 -0.00022753328 -0.000508482 2.5506231e-05
000130 8e 43 46 b8 2d ee 61 b9 aa b5 da b9 70 66 36 ba
       -4.7269794e-05 -0.000215464 -0.0004171555 -0.00069580134
000140 5e 67 e0 36 35 45 c0 b8 39 ab 83 b9 cc 2d fe b9
       6.6877537e-06 -9.168164e-05 -0.00025113838 -0.00048480777
000150 4a 69 4c ba 5d aa 34 b8 39 38 0f b9 d8 5d a2 b9
       -0.0007797672 -4.3074007e-05 -0.00013658487 -0.00030968967
000160 ad c4 12 ba db ee 5e ba 75 f7 1c b8 cf f4 05 b9
       -0.0005598765 -0.000850422 -3.742376e-05 -0.00012775067
000170 a2 c2 8b b9 a5 f2 f5 b9 a5 e4 4b ba 61 79 b9 b7
       -0.0002665716 -0.00046910826 -0.0007777906 -2.211024e-05
000180 55 49 96 b8 f8 9b 4e b9 42 28 c6 b9 d5 c9 1a ba
       -7.1662165e-05 -0.00019703794 -0.00037795497 -0.0005904709
000190 55 71 29 ba 3f d6 67 ba 4d 75 98 ba 27 74 be ba
       -0.0006463726 -0.0008843876 -0.0011631638 -0.0014530466
0001a0 99 ac e8 ba 39 03 34 ba 72 e9 62 ba 21 06 8c ba
       -0.0017751633 -0.00068669353 -0.0008656002 -0.0010682979
0001b0 f3 79 af ba b7 74 c8 ba 5b 6a 91 ba 58 ee a2 ba
       -0.0013387784 -0.0015293573 -0.0011094318 -0.0012430651
0001c0 8e c3 b8 ba 2b a9 cc ba 5d b9 e1 ba 07 ff 8a ba
       -0.0014096366 -0.0015614381 -0.001722138 -0.0010604569
0001d0 d9 82 97 ba 96 85 a5 ba 9f 64 b4 ba 04 78 c4 ba
       -0.0011559381 -0.0012628313 -0.0013762898 -0.0014989381
0001e0 b4 74 e1 b9 cc 76 01 ba 1b 1d 0b ba 4c 05 20 ba
       -0.00043002295 -0.00049386616 -0.0005306766 -0.0006104305
0001f0 8d d7 2e ba 52 2a 54 ba 78 fd 9b ba 66 3a d6 ba
       -0.0006669693 -0.00080934644 -0.0011901101 -0.0016344308
000200 e1 63 07 bb 1d d0 1e bb 65 cd 4e ba 90 ef 91 ba
       -0.0020658898 -0.0024232932 -0.00078888825 -0.0011134017
000210 0e e0 bf ba d8 9f e7 ba 58 c5 08 bb 7c f4 9b ba
       -0.0014638917 -0.0017671539 -0.002086958 -0.0011898424
000220 cb ee bc ba f7 b5 de ba 9b c2 01 bb 05 c5 0f bb
       -0.0014414428 -0.0016991486 -0.0019799832 -0.00219375
000230 19 11 96 ba 31 35 ad ba a3 99 c6 ba b1 6f dc ba
       -0.0011449187 -0.0013214705 -0.0015151988 -0.0016817955
000240 41 e3 f2 ba 37 73 f3 b9 e2 87 18 ba 71 f9 42 ba
       -0.0018530862 -0.00046434414 -0.0005818588 -0.00074376824
000250 ba 16 61 ba e2 6d 7c ba 15 fa b5 39 6f f0 8b 39
       -0.00085864554 -0.0009629411 0.00034709336 0.00026691283
000260 7b be 68 39 45 b4 1a 39 b1 02 24 38 72 43 96 39
       0.00022196204 0.0001475374 3.9103154e-05 0.0002866048
000270 67 8d 7b 39 8e fc 5e 39 b5 ff 39 39 0e de e8 38
       0.00023989902 0.00021265654 0.00017738233 0.00011103983
000280 5d 04 64 39 aa 95 4b 39 35 62 3c 39 59 f9 29 39
       0.000217454 0.00019415343 0.00017965662 0.00016209985
000290 64 9d 3c 39 02 a2 d2 38 66 c8 be 38 1b 13 eb 38
       0.0001798771 0.000100437566 9.097233e-05 0.00011209232
0002a0 cb f8 f9 38 3e 73 37 39 46 c2 d0 b8 00 07 f3 b8
       0.000119195865 0.00017495171 -9.954399e-05 -0.00011588447
0002b0 ab 55 a5 b8 a2 98 e9 b7 9d e0 4d 38 24 84 e7 39
       -7.88377e-05 -2.784684e-05 4.9084996e-05 0.00044158206
0002c0 45 8f 85 39 b2 01 17 39 92 1e 0b 38 f7 47 11 b9
       0.0002547448 0.00014401114 3.3168653e-05 -0.00013855087
0002d0 f4 b5 bb 39 38 c8 71 39 c5 58 04 39 15 20 1b 37
       0.00035802985 0.00023058138 0.0001262157 9.24619e-06
0002e0 e4 04 f4 b8 3b 7b 81 39 95 11 1e 39 32 bb ac 38
       -0.000116357376 0.0002469661 0.00015074604 8.236467e-05
0002f0 c6 6c 44 37 3c f3 f2 b8 15 e4 e0 38 d6 8b 6e 38
       1.1707836e-05 -0.00011584765 0.00010723636 5.6873854e-05
000300 44 76 57 b6 e6 67 45 b8 6b 05 dd b8 c1 6c 28 b9
       -3.2106336e-06 -4.7065223e-05 -0.000105391104 -0.00016062243
000310 fd b9 3c b9 c0 6a 6f b9 e1 15 8d b9 96 51 92 b9
       -0.00017998363 -0.00022832584 -0.00026909917 -0.00027908076
000320 60 17 cd 3a 82 d1 ed 3a 77 5c f9 3a c7 ec e3 3a
       0.0015647225 0.0018144103 0.0019024749 0.0017389291
000330 25 ed b5 3a 4e 35 c5 3a 74 f5 ea 3a 72 88 f1 3a
       0.0013879879 0.0015045793 0.0017925934 0.0018427505
000340 6a 27 e0 3a 04 05 b8 3a 1d 82 c2 3a ef 9e e9 3a
       0.001710159 0.0014039581 0.0014839802 0.0017823855
000350 48 a5 f2 3a d3 75 e4 3a e3 55 c3 3a f6 78 b6 3a
       0.0018512392 0.0017430134 0.0014902916 0.0013921547
000360 0e ab df 3a 4b 91 f0 3a 7c 76 e3 3a 0c cd c9 3a
       0.0017064528 0.0018353848 0.0017354037 0.0015396192
000370 52 15 6c 3a c6 b1 a5 3a 86 39 b2 3a 4b 71 ad 3a
       0.00090058625 0.0012641482 0.0013597466 0.0013232616
000380 b6 24 9f 3a 08 aa d8 3a 41 8f f5 3a bf d0 f7 3a
       0.0012141678 0.0016530165 0.001873471 0.0018906816
000390 c4 70 e5 3a b0 b8 ba 3a ed d8 d7 3a c3 0d f1 3a
       0.001750492 0.0014245715 0.0016467847 0.0018390942
0003a0 9c 9a f3 3a 0e f4 e0 3a b4 ea bd 3a bf 2b d8 3a
       0.0018585506 0.0017162578 0.0014489503 0.001649253
0003b0 db 45 f1 3a 0e 08 f5 3a 7d fb e6 3a 3b 34 cc 3a
       0.0018407659 0.0018694417 0.0017622557 0.0015579531
0003c0 34 cb d6 3a d1 a4 f1 3a f6 6c f6 3a e2 cd ed 3a
       0.0016387464 0.001843596 0.0018800783 0.0018143023
0003d0 d9 07 da 3a 98 0c a3 3a 83 f7 bc 3a eb 56 c7 3a
       0.0016634419 0.0012439666 0.0014417026 0.0015208399
0003e0 f0 b1 bf 3a c2 40 b5 3a 18 a0 37 3a 08 bb c6 b9
       0.0014625173 0.0013828503 0.0007004752 -0.00037904852
0003f0 e5 37 8c ba 93 db c1 ba 1f 73 d7 ba e7 ad 34 3a
       -0.001069781 -0.001479017 -0.0016437507 0.00068923685
