results/2BS/T_1/L_10000/seed2/model_best.pth.tar (torch_old, 395615 bytes, 22 tensors)

layer1.conv.weight f4 [32, 2, 5, 5]
00000000: 6a5c bb3d d96e 413d 355a cfbb 572b 7f3d
00000010: 0d5a b9bd 1c96 603d de6b 703d fbd0 923d
00000020: e23a 8dbd 9f35 303d 01c3 55bc 6678 3a3d
00000030: 7797 973d a8e7 d63d 4f3b 383d 5b84 823c
00000040: 0f16 a4bc c866 5cba 069e 2a3c 911c 55bd
00000050: d17f 19bc f560 683d b1f0 5bbc 3fef 98bc
00000060: 4453 bbbb 71a2 57bd 02d9 8b3c 07e6 743c
00000070: 028b 60bd 9b47 793d ba34 4dbc 3380 84bd
00000080: 199d 14bc 1cea 82bd c681 eabc 0e9f 98bc
00000090: efb8 41bc 9865 383d bc1b 893d c4ab 9bbc
000000a0: 82af 093d 0488 e3bd 35af 853c 8c2d 9dbd
000000b0: 4d10 2cbc d4f6 acbd c540 d33c 6b29 78bd
000000c0: eaea aa3c 4a7d 87bb 0c97 67bd 9476 14bd
000000d0: 4b43 a93b 9191 fb3c e83b 93bd 7408 74bd
000000e0: 6759 21bd 9a24 103d 3586 923d bfce a9bd
000000f0: 8d7d 4d3c 1e8b 7bbb 5c3f 5bbd a92d 8e3c
00000100: 074d 76bc dfba 96bd d2d1 71bd a70c e3bc
00000110: f1c4 90bc e148 383d d19b bcbd 5abf 043d
00000120: 1bad acbc e118 d13c c609 653d 50d9 42bc
00000130: 86c4 9abd 7584 233c 4f93 e93d f8cc db3c
00000140: 9596 80bc f78a 7c3d 28e8 d23d b6ce 233d
00000150: 4392 733d d556 203c 387f 3cba 5062 fb3c
00000160: f4ab 5f3d 2038 8c3c 51ca 9ebb c323 bbbb
00000170: efc2 9b3c bf3b 783d 10e8 fa3c b4dc 6e3c
00000180: a2f6 83bb 9149 e93d ef23 583d 1946 9b3d
00000190: 039d e23c c976 0ebd 1e55 1c3c 7692 b03c
000001a0: 0819 4bbc 1ac3 693d 7608 64bd 33f0 c43c
000001b0: f04d 143c 4e82 a53d ca14 533d 7ab1 8b3c
000001c0: 90c6 2dbd 53e1 43bd 25fe 073d 4c76 7b3d
000001d0: 5a10 01bd b931 d93c 7c53 98bc 8d0e 20bc
000001e0: b921 22bc a0af 923c bb27 983c f5c7 c7bc
000001f0: ea9c 553d 10a1 88bd 8ec2 933c d20b 493d
00000200: d73e 73bc 177f b93c 15ca a1bd e20b c4bc
00000210: 080e f33c fac6 b13d 0c18 1d3d b15c 3b3c
00000220: d368 8dbc e9b1 1e3d 2807 ef3b 744e c5bc
00000230: 51a8 02be e879 ef3c ff5b 2cbc 5037 af3c
00000240: 8c1a 543d 2154 64bc 7ad7 543d 5cb6 223d
00000250: 7cfe c2bc a6d1 76bd ae72 8cbd 35d8 8b3d
00000260: 4273 bdbc 04d1 f4ba e1fd 4cbd c6b6 183d
00000270: bb8a efbb bf90 27bd da55 60bd b2af 2ebc
00000280: cd09 093d 5077 89bc e0e2 63bc 14d2 60bd
00000290: 2baf a6bd f8c3 1c3c 9d15 54bd 35e7 33bd
000002a0: fa82 a53d 19e9 753d 7beb 5dbc edcd dd3c
000002b0: 63c8 b4ba 2c83 39bd 81c3 d7bd 19cc cabd
000002c0: 46f3 503d 995b 1c3d d6a3 613d d985 793b
000002d0: 7ec7 9c3c 41b4 4abd 8361 e63d 3cf6 9abc
000002e0: 21b4 4b3c b086 efbb 7909 69bc 791d 5b3d
000002f0: c6b4 19bc 4412 d93c 0475 c8bd c3ef a4bb
00000300: 775a 133d 9338 fc3a 3118 50bc 295f f33c
00000310: 866e 86bd caad 26bb 9786 843c 1705 273b
00000320: fbb4 f1ba cd21 763b 1a53 8e3b f5f7 0a3d
00000330: 2700 3abc 0150 07bd 86cb 2e3d cba5 303b
00000340: b7ef 21bc 072b efbd 5c4d 1cbd a4c2 2bbd
00000350: 749a c7bc 8475 12bd 1ece 3d3d 29c6 9bbc
00000360: 54ca 27bb 5cc0 753c 71aa 463c 42b7 94bc
00000370: a40f a5bd 944f 10bc 7e33 723d e0b8 873d
00000380: c071 843d ac09 0cbd d6cc d7bc 73ed 8e3c
00000390: b942 7d3d ec2c 7d3d 489b efbc 0558 16bd
000003a0: 6af0 823c 10fc 883d 4ec4 a33c 275a 403d
000003b0: f9c6 eabc af1f a9bc baca 4d3c a07a 9abd
000003c0: 2b60 e33c 424d 293d 9387 2a3d 2a4b ed3b
000003d0: 7d34 2ebc e756 193c 05e3 ddbc 4236 94bd
000003e0: 1e6f 9837 56c0 123c 21c7 7f3c 0aad 943d
000003f0: a8a6 99bb ceed 853d da35 bf3d e6c2 87bc
0.09148486 0.047224853 -0.006327892 0.06229719 -0.09050379 0.054830655 0.05869662 0.07168766
-0.06895997 0.043019887 -0.013046981 0.045524977 0.074019365 0.10493404 0.044978436 0.015932253
-0.02003005 -0.00084076496 0.010413652 -0.052029196 -0.009368853 0.05673309 -0.0134240845 -0.018668769
-0.005716713 -0.05264515 0.01707125 0.014947421 -0.05482007 0.060859304 -0.012524778 -0.064697646
-0.009070658 -0.06392309 -0.028626334 -0.01863053 -0.011823877 0.045018762 0.06694743 -0.019002803
0.033614643 -0.11109927 0.016318897 -0.07674703 -0.010501933 -0.08445516 0.02578772 -0.060586374
0.020863969 -0.0041348087 -0.056540534 -0.036245897 0.0051654927 0.03070906 -0.071891606 -0.059578374
-0.0393919 0.035191156 0.07154504 -0.08291387 0.012542141 -0.003838248 -0.05352722 0.017355757
-0.015033013 -0.073598616 -0.05903799 -0.027715994 -0.017672034 0.044991378 -0.09209407 0.03240905
-0.021078637 0.025524558 0.055917524 -0.011892632 -0.07557015 0.009980311 0.1140505 0.026831135
-0.015696803 0.061655965 0.102981865 0.039992057 0.059465658 0.009786327 -0.0007190588 0.030686527
0.054607347 0.017116606 -0.0048458953 -0.0057110502 0.01901385 0.060603853 0.030628234 0.014578987
-0.0040272037 0.11390985 0.052768644 0.075817294 0.02766276 -0.03478125 0.009541778 0.021554213
-0.012396105 0.05707083 -0.05567213 0.024040317 0.009051785 0.08081494 0.051533498 0.0170524
-0.042425692 -0.047822308 0.033201355 0.061392114 -0.031509735 0.026512967 -0.018594496 -0.009769094
-0.009895735 0.01790601 0.018573632 -0.02438734 0.052151598 -0.06671345 0.018037107 0.04908354
-0.014846525 0.022643609 -0.07899872 -0.023931447 0.029669777 0.0868053 0.03835301 0.011435674
-0.017261898 0.038743887 0.0072945543 -0.02408526 -0.1275952 0.029232934 -0.01051998 0.02138868
0.05178313 -0.0139360735 0.051963307 0.039724693 -0.023802988 -0.06025853 -0.06857811 0.068283476
-0.023126248 -0.0018678014 -0.050046805 0.03728368 -0.007310239 -0.040909525 -0.054769374 -0.010662006
0.033456612 -0.016780525 -0.013909072 -0.054887846 -0.081388794 0.009568207 -0.051778425 -0.043921668
0.080816224 0.060036752 -0.013544912 0.027075732 -0.001379263 -0.04529111 -0.10535336 -0.0990221
0.051013254 0.03817329 0.055087887 0.0038074164 0.019138094 -0.04948831 0.11249068 -0.018916242
0.012433083 -0.007309757 -0.01422345 0.053494904 -0.009381479 0.026497968 -0.09787944 -0.0050334646
0.035974946 0.0019242935 -0.01270108 0.029708462 -0.065640494 -0.0025433176 0.016177459 0.0025485212
-0.0018440777 0.0037556768 0.0043434026 0.033927877 -0.011352575 -0.033035282 0.042674564 0.002695429
-0.009883813 -0.11678129 -0.038159713 -0.04193367 -0.024365641 -0.035756603 0.046339147 -0.019015389
-0.0025602775 0.014999475 0.012125597 -0.01815379 -0.08059624 -0.008808035 0.059131138 0.06627059
0.064670086 -0.03418891 -0.02634279 0.017447209 0.06183121 0.06181042 -0.029248849 -0.036705036
0.015983779 0.06688702 0.019991066 0.046960976 -0.02865933 -0.02064499 0.012560541 -0.0754292
0.027755817 0.041333444 0.0416332 0.0072416263 -0.010632631 0.009359098 -0.02708579 -0.07236911
1.8171555e-05 0.008956989 0.015611441 0.07259567 -0.0046890564 0.06539498 0.09336443 -0.016572427

layer1.conv.bias f4 [32]
00000000: bcad 123d 95a6 b83d e80d 8cbd 06e3 ba3d
00000010: d455 57bd 3ce8 98b8 61fd aa3d 06e4 ccbb
00000020: 5f8c 38bc b2c1 01be 9acb ec3c 44ba dcbd
00000030: a06e 213c 70b9 b1bd b801 c5bc d275 8fbd
00000040: 617c 333d 6cca 083e 7c5d 86bd ae75 a13d
00000050: d3c6 19bd 7aa7 7ebc 5c0a 8ebb e172 7cbd
00000060: 30d5 d63d e5c7 253d 5895 af3c 1e18 5db8
00000070: d1f5 343d 576f 54bc df89 eabd ead5 cb3d
0.035810217 0.09016148 -0.0683859 0.091253325 -0.052572086 -7.291182e-05 0.083491094 -0.0062527684
-0.011263936 -0.12671545 0.028905679 -0.10777715 0.009853035 -0.086779475 -0.024048671 -0.07004894
0.04381979 0.13358468 -0.065607995 0.07883774 -0.03754313 -0.015542859 -0.004334731 -0.061632995
0.10489881 0.040473837 0.021433517 -5.2712967e-05 0.04417974 -0.012965999 -0.11452078 0.0995291

layer2.conv1.weight f4 [32, 32, 3, 3]
00000000: 176d 6abc af98 093b 2d0e 9cbc 780a e4bc
00000010: 7e44 a1bb 4de8 04bc 4208 c13c 27ac bf3b
00000020: 9e48 0ebc 46d6 f13a e78a 07bc a6b0 1fba
00000030: f244 8a3c c160 01ba 0904 943b 6790 6f3d
00000040: fabc 12bd 5ac0 fb3c da9f 3ab9 d6bf 103a
00000050: b475 5cbd 46dd 263b 156b 2cba acb7 18bc
00000060: 09dc 1e3d db36 2c3b e74b 39bc 76c9 b2bd
00000070: 0e80 913c 6ee1 50ba 9dd9 d6bc 241a 1fbd
00000080: a512 923c 00c9 25bb cee9 6cbc f839 91bc
00000090: bb11 dfbb 0ab6 0e3a d674 3abc a188 f7bb
000000a0: ec0b 9eb9 bbee 17bc dcec e8bb 81bc a839
000000b0: 78e8 c3bc 2ec9 85bb 1046 12bc ac10 8d3c
000000c0: cdc1 ce3c b700 b6bc 4b41 b23c eeec fdbc
000000d0: ee77 d03d 3e4c 6abc 410e 4ebc daf5 aebb
000000e0: 028f 273d d879 99bd ab8c 8dbb d9eb 2ebd
000000f0: d587 083d 1fff 44bc d5e9 4cbc 6173 a83c
00000100: 3f6f 75bc e042 d83b 7168 0fbd 6d6a 0a3b
00000110: 94d7 b4bb 55e9 a0bd e3bf 8f3a b21b 4f3c
00000120: 5ee3 8f3d 0010 f63c ab64 943d 389d 3cbd
00000130: d0d3 76bd 682e 903d e346 76bb a326 093c
00000140: e8fa b63d 32b9 4abc f8a1 c2bb a6a1 01bd
00000150: afc2 1dbd fc63 793b 9feb 823c 9a83 8c3e
00000160: ab9f 99bd c612 ccbc 0561 debc c162 eebb
00000170: 22b1 b93c c7d4 28bc f873 763b 903f 2abc
00000180: 523b 043b e0f1 073d 8830 b83b 7b83 df3b
00000190: 6c54 333b e2b5 823b 395f 843a c25c 14bb
000001a0: cdd1 563b e2b0 2e3a af43 1ebb fae8 e4b8
000001b0: f7e2 803d d248 a53c fcd0 03bd 578d 1ebd
000001c0: b0a6 62bd 2354 cfbc 339e 4abd bb17 a0bc
000001d0: 971e 123d 649b 05bb e74b 29bb 9558 6dbd
000001e0: 15c6 5a3c fd1e 13bb 2964 86bc ffb8 e7bb
000001f0: 5762 b0ba a922 e0bc 66ef 51bc 3cd6 213d
00000200: 303c 69bc 0806 f43c 59b2 12bc 6789 a6bc
00000210: 05a4 063d 095a 803c f935 5abb c7a5 713a
00000220: 8141 8abb b332 46bb cd6e c9ba 523e a5bb
00000230: 4402 a4bb de7f 9bb9 6cd8 62bb 825f 9a3c
00000240: d758 d03b 1c41 8ebb 0e6e 9fbd 10e8 95bc
00000250: ad70 10bb 660b 42bd 05b2 3d3b 2cfe 8abd
00000260: fe95 26bd 2a9b 26bc db23 0abd 4b54 9d3d
00000270: f415 69ba 24d0 39bc 662c f73c 711d 79bc
00000280: 0d6b b4bc 73db 1bbd 98ce 123a 5790 acbb
00000290: 4f35 07ba ee82 f7bc aef1 183b 3c6b 72bb
000002a0: 1e7b 103e 3e4a 9cbc e01b 74bb f7e6 d1b9
000002b0: 5644 46bb 3b13 d4bc ea7e c13b c5b2 ae3d
000002c0: be82 f73a b72a 4c3c 6462 13bd 810a 21bb
000002d0: d3b5 703a e330 77ba 6ca9 2f3c 89bd 943b
000002e0: 4e9e d9b8 0217 08bc 5160 5abd 388c 4fbd
000002f0: 3bef c6bb 4ebd 333a 50bb ac39 0b36 253a
00000300: c937 e238 f632 9a39 4c43 0a3b 2d81 8a3a
00000310: 2a6c 14ba ba13 153b 1fa3 2abd 5f71 a1ba
00000320: c362 6e3a 02fc 31bc 3cf5 40ba 25f7 4dbc
00000330: f781 2ebd c1e6 cdb9 3c4b 47bd ca64 8b3b
00000340: a3ef cebb a4d1 0bbd ccd0 35bd fc84 1ebd
00000350: a7c6 ecbc 2c0d 4a3c df53 8bbc ed81 94bc
00000360: 31e1 933c 3672 20ba 9f9f 07bd ebd5 3f3a
00000370: fb08 0ebc 5a36 29bc 5e1d d8bc c406 e23b
00000380: 167a 60bc d26f 59bd bfb8 ddba 291c 4ebc
00000390: ec8e ccbd 1868 f6bc 0b6f 5a3c 9836 0b3d
000003a0: d124 2dbd e435 52bd ae1b f2bc 9df7 9eb9
000003b0: c2f6 c9bb 5e79 4dbd b7d0 93bc 6d18 0abc
000003c0: b87a 58bc 5e42 99bc 4a05 99bb b238 9b3c
000003d0: 5018 9fbb 9c7c 133c 80a3 f6bb 187b 1f3c
000003e0: 1bd9 bd3b a796 53bd 8086 63bd 1d76 8f3d
000003f0: 9c2e 68bc 73a8 753b 8a1f 713c 5a2e 513d
-0.014308236 0.0020995548 -0.019049728 -0.027837023 -0.004921495 -0.008112025 0.023563508 0.0058493796
-0.0086843055 0.0018450699 -0.008272863 -0.00060916913 0.016878579 -0.0004935377 0.0045170826 0.058487322
-0.035824753 0.030731369 -0.00017797892 0.000552175 -0.053823188 0.002546148 -0.0006577236 -0.009321135
0.03878406 0.0026277814 -0.0113096 -0.08729832 0.017761257 -0.0007968162 -0.026226813 -0.03884329
0.017831156 -0.0025296807 -0.01446004 -0.017727837 -0.0068075336 0.0005443996 -0.011380395 -0.007554129
-0.0003014499 -0.009273226 -0.007108314 0.00032183903 -0.02391456 -0.0040828204 -0.008927837 0.017219864
0.025238896 -0.022217138 0.02175965 -0.030996766 0.10179125 -0.014300404 -0.012576641 -0.0053393664
0.040907867 -0.07493943 -0.0043197474 -0.04270539 0.033332665 -0.012023716 -0.012506922 0.02056283
-0.014980136 0.006599769 -0.035011712 0.0021120564 -0.005518863 -0.078570046 0.0010967221 0.01264088
0.07025789 0.030036926 0.072457634 -0.046048373 -0.060260594 0.07040101 -0.0037578873 0.008371028
0.08934575 -0.012373256 -0.0059397183 -0.0316483 -0.038515743 0.003805398 0.015981494 0.27444154
-0.075011574 -0.024911296 -0.027145872 -0.007274956 0.022667471 -0.010304636 0.0037605744 -0.010391131
0.002017696 0.033189654 0.0056210198 0.0068210936 0.0027363552 0.0039889673 0.0010099179 -0.0022638296
0.003277886 0.0006663931 -0.002414923 -0.000109152825 0.0629329 0.020176325 -0.032181725 -0.03870901
-0.055334747 -0.025308674 -0.049467277 -0.019542566 0.035673704 -0.002038681 -0.0025832595 -0.057945807
0.0133528905 -0.002244889 -0.016405182 -0.007071614 -0.0013457042 -0.027360277 -0.012813425 0.03951095
-0.014235541 0.029788032 -0.008953654 -0.02032919 0.032871265 0.015667932 -0.003329633 0.0009218123
-0.0042192345 -0.0030242621 -0.0015368104 -0.0050428296 -0.005005153 -0.00029659172 -0.003461386 0.01884437
0.006358247 -0.0043412577 -0.07784663 -0.018299133 -0.0022039816 -0.04737415 0.002894522 -0.06786761
-0.040670387 -0.01016883 -0.0337256 0.07682093 -0.0008891516 -0.0113411285 0.030172538 -0.015204773
-0.022023702 -0.03805108 0.0005600243 -0.00526623 -0.0005157785 -0.0302138 0.0023337412 -0.0036990186
0.14109465 -0.01907837 -0.003724806 -0.0004003567 -0.0030253134 -0.025888076 0.005905022 0.08530191
0.0018883569 0.012461356 -0.035982504 -0.0024572911 0.00091823674 -0.0009429587 0.010721546 0.004539196
-0.00010376853 -0.008306267 -0.05331451 -0.050670832 -0.006070999 0.00068565167 0.00032945955 0.00063023035
0.000107869106 0.00029411138 0.002109724 0.0010567062 -0.00056618697 0.0022747354 -0.04165947 -0.0012317112
0.0009093696 -0.010863306 -0.00073607615 -0.012571131 -0.042604413 -0.00039272572 -0.048655733 0.0042539584
-0.006315188 -0.034135476 -0.044388577 -0.038701043 -0.028903319 0.012332242 -0.017007766 -0.01812836
0.018051716 -0.00061205344 -0.03311121 0.0007317948 -0.008669133 -0.0103279 -0.02638119 0.006897779
-0.013700983 -0.053085156 -0.001691602 -0.012579956 -0.09988198 -0.030078933 0.013332139 0.03398761
-0.04227144 -0.051320925 -0.029554214 -0.00030320595 -0.006163449 -0.050164573 -0.018043859 -0.008428675
-0.013212852 -0.018708404 -0.00466982 0.018947933 -0.004855193 0.009001877 -0.007526815 0.009733938
0.0057937033 -0.051657345 -0.05554819 0.0700495 -0.014171269 0.0037484437 0.014716992 0.051069595

layer2.conv1.bias f4 [32]
00000000: 4652 0ebc 479c 563d 4135 db3c 05a9 6c3d
00000010: bdc4 d73c 21e5 edbc 4bb2 aabc d283 dfb9
00000020: a32e 49bc c4fa 15bd a28c 2cbd 3ef6 1dbd
00000030: 143c 35ba 92cd a3bc d141 bd3c 523a 483c
00000040: 25b3 c5bc fef1 39bd d38c a63b 1563 e5bc
00000050: e16b 6f3c a660 72bb e725 da3c febb bb3c
00000060: 5e19 8e3c 5cdd 293d abcd b6b9 fcdf 353c
00000070: d04b 1f3d 054a 4cbd 8400 66bd ce8b 04bd
-0.008686608 0.05239513 0.026758792 0.057778377 0.02633893 -0.029039921 -0.02083697 -0.00042632088
-0.0122791855 -0.0366161 -0.042126305 -0.038564913 -0.00069135544 -0.019995485 0.023102673 0.012220936
-0.024133274 -0.045396797 0.0050827055 -0.028001348 0.014613123 -0.0036983876 0.026629401 0.02291679
0.01734608 0.04147087 -0.0003486698 0.011100765 0.03889066 -0.049875278 -0.056152835 -0.03235989

layer2.conv2.weight f4 [64, 32, 3, 3]
00000000: bbbf dc3a b303 c8ba b765 b0ba f149 e3bb
00000010: 18a4 01ba 82bb 193a 44c2 a8ba 4827 00bb
00000020: 0c9d 2bba b99d 20bb 0538 f137 5609 e4b7
00000030: a85b c6ba be0e 1a3b 86c5 9dba 8a86 79ba
00000040: b846 d839 4318 21bb 8b66 c939 433a beb9
00000050: 3ca1 b939 f7b1 feb8 5527 403b 45e0 413b
00000060: b3d0 d0ba a537 8e3a 9ece 7aba 9001 96bb
00000070: 67ba 6039 3c11 03bb 8b10 89bb 550a b739
00000080: 2e7e 5bbb 6eb9 11bb 38d7 483a e6b8 f9ba
00000090: 81c1 b9ba eae4 d7b7 c376 7cb9 d312 d7ba
000000a0: 7d41 c6b9 efab bc3a 43b5 baba 74e3 7cb9
000000b0: 74ec 5cba 7df1 93b8 84da 433a cdef 453b
000000c0: 5ae7 ae37 ac9f 123b 7755 2f3b 98ca 76b9
000000d0: 8bfa e939 bafe 8e3a a898 6537 f97d 0b37
000000e0: c6cd a6b8 cc4e 7939 786b a93a 9ab2 04ba
000000f0: ad7f 9739 09f2 933a 39a1 6937 406c 0080
00000100: e7d1 0080 f9d0 0000 fe74 0100 3875 0080
00000110: d970 0080 6f95 0080 828a 0180 2c64 0080
00000120: 83c2 baba 3bcd 0cbb a817 d0ba bef9 92ba
00000130: dc7c 37bb 54d8 85bb dac8 9fb9 fe09 77ba
00000140: d0fb ddba 5c8f db3a ef6a 0fbc 09b2 c9bb
00000150: c73a a43b 9f14 bf3b 3fd7 193b 5c2f d4bc
00000160: 6b88 ee3a 976e 93bc 5f3f d739 22b4 95bb
00000170: 8359 3ebb fef0 a2bb c42b f6bb aa5d 16bc
00000180: f5f0 67bb 959b 763a 5df8 1b3a 9d21 b4bb
00000190: 3355 92bb 6b94 34bb ea99 173c fc7f 3dbb
000001a0: 7f4f e2ba ecc1 203c 7996 47bb 9fae 2f37
000001b0: a7f7 4020 c1a5 1da2 ebb1 a122 51e7 8421
000001c0: 461d be22 0c29 38a3 3fcb c7a4 8bbc 3a24
000001d0: 9cd0 28a3 9b42 47bb 1211 2cbb 73e7 95ba
000001e0: d11c 21bb 6788 81bb b81d ebbb ca21 00b9
000001f0: 610f 823a 373f d739 4143 393a cbfb 1fba
00000200: f917 be39 cd3f 043c 31ae 85bc 0230 253b
00000210: b56a 933b c3bc cfbb b854 053b e6e6 5d3a
00000220: c1e7 5bbb 7ad5 13bb 79b9 e1b9 4594 7739
00000230: f8f7 c2ba c9c5 a339 db1c b0ba 0ce7 d4ba
00000240: 052e 8cbb 0aeb d2ba 40a8 633b 1390 b53a
00000250: 677c 20bb 6888 79bc 97c5 0abc 8805 61ba
00000260: 377c 033c cdd5 46b9 8498 bcb8 d520 a3b7
00000270: fafc c8b5 c609 a1b6 b36e 86b9 e37d 84b9
00000280: 06db 03ba ea94 feb9 fa4f 8dba 05de 66b9
00000290: f007 e8b9 0d5d 75bb c0b2 6b3a 2318 7bba
000002a0: c83a e5ba 4fe1 5cba c783 afba c806 113c
000002b0: 1189 cfba 4f61 7dbb b85d 953b fda1 8ebb
000002c0: 0485 69bb 9bcf 1d3b cf73 343b b194 3ebb
000002d0: 914d 773a 2060 edba 18e5 0fbb f6f2 1fba
000002e0: ab11 43bb 50a2 babb 07a2 48ba c8bc 6e3a
000002f0: fbbc 46bb cbcf 00a6 4c93 82a7 3cab d127
00000300: 585e ce26 f3bb 1a2c 91c8 0f2c 84d4 46b2
00000310: 6f64 02b4 2080 fb2d c195 8aba e3a2 5ab5
00000320: 89f8 b0b8 0f9c 1d38 73fd c8b2 e61e ecb8
00000330: 4e3d 6337 64ac ac38 a1ac f2b9 4ee8 7fbb
00000340: e106 c639 30ec 133b d9fc d23b 0c82 89ba
00000350: a9c8 b3ba f46a 68bb ed27 a03a 1550 953a
00000360: 2b9d cdbb fd69 b1bb 25c9 18b9 5608 f0bb
00000370: 9766 febb 935f 3db9 cfcc 013b f1f0 e9ba
00000380: 0a07 34bc 230a ab38 3ffe ddba a928 9fba
00000390: 3a38 a1bb b348 f9b9 bec4 96bb b53a bdb9
000003a0: cd74 17bb 541b 45bb 9a7f 0100 a29c 0180
000003b0: 614b 0100 0f20 0180 ef84 0100 3113 0080
000003c0: cd96 0000 c3ed 0080 0a66 0180 3ec1 38b9
000003d0: 3dd0 193a aa16 18bb 99b7 e5b9 5748 75ba
000003e0: 0c1b bcba f953 47b9 40ef f63a 31ad 94b9
000003f0: 7a7b 72bb 4a0b 9f3b 1fc9 cabb d2e2 053c
0.0016841808 -0.0015259892 -0.0013458048 -0.0069363047 -0.00049454113 0.00058644277 -0.0012875278 -0.0019554663
-0.0006546534 -0.0024508073 2.8755525e-05 -2.7184065e-05 -0.0015133517 0.0023507322 -0.0012037016 -0.0009518644
0.0004125142 -0.0024581112 0.00038414108 -0.00036283032 0.0003540608 -0.00012144812 0.0029320319 0.0029583138
-0.0015931338 0.0010850324 -0.00095675315 -0.004577823 0.00021431745 -0.0019999286 -0.0041828803 0.00034912178
-0.0033491957 -0.002223577 0.00076614646 -0.0019052296 -0.0014172049 -2.5736594e-05 -0.00024076835 -0.0016408808
-0.00037814296 0.0014394502 -0.0014244694 -0.00024117326 -0.0008427568 -7.054487e-05 0.0007471221 0.0030202747
2.0850148e-05 0.0022373004 0.0026753822 -0.0002353586 0.00044627892 0.0010909655 1.3685007e-05 8.314376e-06
-7.953825e-05 0.00023775845 0.0012925705 -0.0005062014 0.0002889609 0.0011287342 1.392542e-05 -3.8833e-41
-7.5299e-41 7.4965e-41 1.33804e-40 -4.205e-41 -4.0482e-41 -5.3607e-41 -1.41523e-40 -3.5935e-41
-0.0014248643 -0.0021484632 -0.0015876191 -0.0011213345 -0.0027998006 -0.004084626 -0.0003047649 -0.0009423791
-0.0016936008 0.0016751098 -0.008753522 -0.0061552566 0.0050118896 0.0058313156 0.0023474244 -0.025901489
0.0018198615 -0.01799707 0.0004105521 -0.0045685926 -0.0029045052 -0.004972576 -0.0075125415 -0.009177605
-0.0035391424 0.0009407339 0.000594979 -0.005497171 -0.004465723 -0.0027554284 0.009253005 -0.0028915396
-0.0017266123 0.00981186 -0.003045468 1.047147e-05 1.6344974e-19 -2.1365217e-18 4.3827515e-18 9.005897e-19
5.1530598e-18 -9.983352e-18 -8.6646805e-17 4.0492023e-17 -9.151473e-18 -0.003040469 -0.0026255292 -0.0011436775
-0.0024583826 -0.003953028 -0.0071751736 -0.00012219619 0.0009922796 0.00041055094 0.00070672116 -0.0006102889
0.00036257485 0.008071852 -0.016318412 0.0025205617 0.0044988045 -0.006339641 0.0020344686 0.00084648875
-0.0033554884 -0.0022557662 -0.00043053532 0.0002361099 -0.0014874926 0.00031237144 -0.0013436334 -0.0016243174
-0.004277947 -0.0016091776 0.0034737736 0.0013852142 -0.0024488212 -0.015230276 -0.008469961 -0.0008583893
0.008025221 -0.00018962398 -8.992947e-05 -1.9446403e-05 -1.4974787e-06 -4.7993117e-06 -0.0002564095 -0.00025270795
-0.00050298905 -0.00048557605 -0.0010781281 -0.00022017218 -0.00044256402 -0.0037439496 0.00089911744 -0.0009578487
-0.0017488832 -0.00084259076 -0.0013390713 0.008851714 -0.0015833696 -0.0038662737 0.0045582913 -0.0043528066
-0.0035632262 0.0024080041 0.0027534848 -0.0029080326 0.00094338605 -0.0018110313 -0.002195662 -0.00061015727
-0.002976517 -0.0056956187 -0.00076535385 0.000910711 -0.0030325043 -4.4690533e-16 -3.624195e-15 5.8194806e-15
1.4319693e-15 2.198905e-12 2.043286e-12 -1.1573437e-08 -1.2143731e-07 2.8592295e-11 -0.0010573195 -8.144836e-07
-8.438627e-05 3.7577058e-05 -2.339832e-08 -0.00011259112 1.3544528e-05 8.2337094e-05 -0.00046286455 -0.0039048376
0.00037770628 0.0022571199 0.006438833 -0.0010491027 -0.0013716418 -0.003546414 0.001221893 0.0011391664
-0.0062748394 -0.005414246 -0.00014570782 -0.0073252125 -0.0077636945 -0.00018060049 0.0019805913 -0.0017848295
-0.010988006 8.1558035e-05 -0.0016936733 -0.0012142855 -0.004920033 -0.00047547146 -0.00460109 -0.0003609263
-0.002311039 -0.0030076103 1.3761e-40 -1.48025e-40 1.18876e-40 -1.03336e-40 1.39523e-40 -6.885e-42
5.4097e-41 -8.5293e-41 -1.2844e-40 -0.00017619596 0.0005867517 -0.0023206868 -0.00043815075 -0.0009356788
-0.0014351322 -0.00019009401 0.0018839613 -0.00028357797 -0.0036999867 0.0048536407 -0.0061885263 0.008171754

layer2.conv2.bias f4 [64]
00000000: ee5a 97bc 43cc 45bd 3e55 613d b367 82bb
00000010: 9160 0cbd 353e 87bc 9ae1 273c aad7 013c
00000020: b2bc 96bc 8b8e dcba 45f5 3fbd 0799 13bd
00000030: 9007 36bb e2a1 403d 8193 edbb 6ae8 20bc
00000040: 17ba 1dbd 3590 633d 3b13 1a3c 8e5a 453c
00000050: 5bb8 82bd ef4e b7b8 881c ab3c 4c6a 493c
00000060: 8562 08bc 2349 b3bc 69c5 263d 6433 433d
00000070: 50aa 4ebc 83bd 763d 8775 ddbc 37c6 b93c
00000080: c957 cf3b 9289 dabb 81dd 99bc 82fb 2327
00000090: 8a81 da3c aa98 65bc 7da0 323d f237 1a3d
000000a0: 7480 c3bc 4255 67bc c6b3 6abc d9db fb3c
000000b0: 3a0a 6e3c 000e dfbc f2e6 b9bc d1d3 0b3d
000000c0: 9d78 fabc bfe8 f6bc eafd 263d 1f1a a1bc
000000d0: 255e f3bc 8c5b b1bb 089f 603d 3791 e8bb
000000e0: 024c bebc dab9 e33b 7830 64bd 73e2 cd3c
000000f0: 5ba8 e93c e487 62bc 022d 213c ba79 58bc
-0.018475976 -0.048290502 0.055012934 -0.003979647 -0.03427178 -0.016509155 0.010246659 0.0079249535
-0.018400524 -0.0016827149 -0.046864767 -0.03603461 -0.0027775504 0.047029383 -0.00725025 -0.009821037
-0.038507547 0.05555745 0.009403999 0.012045516 -0.06382819 -8.7408225e-05 0.020887628 0.01229341
-0.00832427 -0.02188546 0.04071561 0.04765643 -0.012613848 0.060239326 -0.02703358 0.022677524
0.0063276035 -0.0066692317 -0.01878238 2.2757137e-15 0.026673097 -0.014013449 0.043610085 0.03765101
-0.023864962 -0.014119448 -0.014325088 0.03074448 0.014528805 -0.027228355 -0.022693131 0.03413755
-0.030575091 -0.030140279 0.040769495 -0.019665776 -0.029707978 -0.0054125246 0.054839164 -0.007097389
-0.023229603 0.0069496455 -0.055710286 0.025132393 0.028522661 -0.013826344 0.009837391 -0.013212616

fc1.weight f4 [1, 3200]
00000000: 11f7 1639 c72a da38 844c 0338 eb0a efb9
00000010: 250b cf39 1412 ed39 5882 933a 551b 2cba
00000020: ef8c db3a 1038 dc3a 2675 8f39 10e1 3c39
00000030: 9d56 41ba a3b0 5639 ea1f ecba 2d46 f33a
00000040: 215a 843a 4add 013a 381d 0ebb 4204 2dbb
00000050: 53de e939 8743 fd39 7f7a be3a 34a6 e4ba
00000060: ed68 b339 ce42 063a 9d4b bd3a 6675 4ab9
00000070: 7494 b73a 5cbd fd3a e9bf 8139 e5cf 353a
00000080: 36d3 b5b9 8aa7 9d3a d551 98b9 37a2 9fba
00000090: 51eb 75ba aac6 8fb8 9359 fbba d6ef 8f38
000000a0: f295 9fb8 e059 b984 b7c2 b1ac 0470 66b1
000000b0: 75ba 572c 4726 b2b6 0f36 49a1 38f0 12ac
000000c0: e30c 83b6 016f 8cb6 6ddc 9b3b b534 6e3b
000000d0: 35f7 eebb 477b d3bb a2b7 0abd 44e7 4cbc
000000e0: cab9 2d3c 05f3 88bc 139b 0bba b7e2 91bc
000000f0: a1b4 3a3c 0447 823b 65cf 5fba 0113 c43c
00000100: 9f98 7c3d f135 743d 777c 39bd 47a7 46bb
00000110: a351 7e3a 2186 05bc d204 03bb 491d 993c
00000120: 6515 a13c fd8c 833c 39b1 993c de8a 863c
00000130: 9c99 7abb ad7a edbb f25f d93a d074 3d3a
00000140: 1689 e6bb eb33 c2bc 6ad7 5cbc 60ad 73bc
00000150: 6e80 aabd 24ff b3bc b4e5 493d da92 9c3c
00000160: 4128 5a3c 0ead e73b 2b7d a138 fcc2 a4bc
00000170: b98b 3bbb 955a ef3c c28a 19be 566c 52bd
00000180: db4a 803d 7948 b23a e32a 103a 2461 abbb
00000190: 31fd 443c 348e dfbb dab6 73bc 1d1f 33bd
000001a0: 648f d5bd 4267 323d 7ba3 623c 5ed9 83bc
000001b0: 3f31 c0b9 e9c0 c43c fd4f 61bb ebdc 0cba
000001c0: 1ee5 80bb bd31 46bd 88aa 9cbd 532a f7bd
000001d0: 4cd0 253c 194d f3bb 109e 67bb 28d6 d23c
000001e0: ac31 0200 2f51 f13a e5a8 0000 64ee 2dbd
000001f0: 81ae b7bd 5b05 80bd d4a8 493b 45bd 0100
00000200: f1e4 cf3c 4c93 6e3c 7331 32bc 58c3 6f3b
00000210: f60b e9bc ec4a 13bd d0b5 9dbd ed71 ea3d
00000220: a712 7e3b 366e 813c cac8 9d3b f01b 86bc
00000230: a877 8cbc 8a26 1e3d 19d1 9b3c 96db 78bc
00000240: 29f3 da3c 948c 0a3d c9f8 fabc 74bb f2bc
00000250: 592b 57bc bcce 093d bf29 9039 de42 ecb9
00000260: 0830 87bb 096a 13b9 56dd 4abd 4402 eb3b
00000270: cb3e 4e3c cbec 94bb 8fad 96b9 d8bf 5db9
00000280: a375 e93b 74f5 cf3a ac8a ba3b cb20 80bc
00000290: 60c0 6bbd 3ecb d03c f0fd a83d cc63 763c
000002a0: dafa eb3b c4af 3bbb e832 5cbc 0f87 08bc
000002b0: 5540 713c 830c b83b 5d9d b8bd 7e8d 5f3d
000002c0: 3f7c d83d a0e0 183c 2f95 863a 8043 1ebb
000002d0: f10f 593c 61bc 9cba af62 c43a 1b1c 7bba
000002e0: 33ab bdbb dfaf 2d3c fb0c 673d 484f d4ba
000002f0: 0042 b53a 5750 403c cd3a f1bb 3632 c63a
00000300: bd0b ea3b 8a3e 223c 3312 9bbc 9f35 8b3c
00000310: a337 d53b af49 2c3b d5b4 3a3b 9e59 4b3b
00000320: 8b68 6038 160f 003b 5d58 a53b dac5 5c3c
00000330: 467b ccba bf9f 0dba 13a6 ff39 2d0c 85ba
00000340: 1d55 3e3c c105 1dbb de25 4032 487a 833a
00000350: 13c6 f7b9 60c9 833b 94f0 8337 f736 a932
00000360: 2eba 1abb 00d9 c4ba aba0 acba de1c d9a8
00000370: aac0 1f3b a282 d0bb 7cb5 93ba 1f9a d521
00000380: e43b 9939 dd7b de3c 2efc 34bb 5fd0 feba
00000390: e2a0 5526 0aa2 0100 745c 9abb 4e35 72bc
000003a0: d214 7ebb 3c0f 463b 817f f2bb 47c4 d33d
000003b0: 22e0 8dbc 040c d4bb 0609 afba b6cf 76bb
000003c0: b7f5 593a 6cc2 983b e071 993a 6623 7d3a
000003d0: 0ba9 46bc 4e85 173c 93b2 9a3b fb5e beb9
000003e0: 1063 a83a f9ea 2a36 e049 c9bb f104 8b3b
000003f0: 6b8d 6fbb 3116 483c eea3 e63a b0f2 d8bc
0.00014397154 0.00010403018 3.1304095e-05 -0.00045593767 0.0003949042 0.00045217632 0.0011254055 -0.0006565352
0.0016750376 0.0016801376 0.00027362368 0.0001801292 -0.0007375272 0.00020474433 -0.0018014882 0.0018560343
0.0010097661 0.0004953934 -0.0021684896 -0.0026400243 0.00044606868 0.00048306232 0.0014532356 -0.0017444552
0.00034219716 0.0005121649 0.001444209 -0.00019307956 0.0014006034 0.0019358802 0.00024747782 0.0006935581
-0.00034680375 0.001202808 -0.0002905267 -0.0012179081 -0.0009381073 -6.8557754e-05 -0.0019176475 6.863444e-05
-7.60964e-05 -4.3575828e-36 -5.0522603e-12 -3.3533079e-09 3.0656842e-12 -5.3092695e-06 -6.8172995e-19 -2.0881196e-12
-3.9056044e-06 -4.1852477e-06 0.0047565014 0.0036347334 -0.007292653 -0.006453905 -0.033866532 -0.01250631
0.010603378 -0.016717443 -0.0005325537 -0.017808301 0.011395604 0.003975751 -0.0008537679 0.023934843
0.06166899 0.059621755 -0.045284715 -0.0030312107 0.0009701496 -0.008149655 -0.0019991887 0.018690722
0.019663522 0.01605844 0.018761264 0.016423639 -0.003823853 -0.00724729 0.001658438 0.0007227184
-0.007035385 -0.023706397 -0.013479093 -0.014872879 -0.08325277 -0.021972246 0.049291328 0.019112993
0.013315261 0.0070701903 7.7003926e-05 -0.020112507 -0.0028617217 0.029217998 -0.14994338 -0.05137285
0.062642775 0.0013601921 0.00054995547 -0.005230086 0.012023256 -0.006822372 -0.014875138 -0.043730844
-0.1042774 0.043555506 0.013832922 -0.01609486 -0.00036657785 0.024017768 -0.0034379952 -0.00053734955
-0.003933563 -0.048387278 -0.07649714 -0.120686196 0.010120463 -0.0074249622 -0.0035342015 0.025736883
2.0149e-40 0.0018411035 6.0588e-41 -0.042463675 -0.08968831 -0.062510215 0.0030770795 1.59733e-40
0.025377722 0.0145614855 -0.010876047 0.003658494 -0.028448086 -0.035960123 -0.077006936 0.11447511
0.0038768442 0.015799623 0.0048151957 -0.016370744 -0.0171469 0.038610972 0.019020604 -0.015189072
0.026727276 0.033825472 -0.030636208 -0.0296304 -0.0131328935 0.033644423 0.00027496924 -0.00045063248
-0.004125599 -0.00014058514 -0.04952749 0.007171901 0.012588213 -0.0045448295 -0.0002873954 -0.0002114767
0.007124619 0.0015865997 0.0056928005 -0.015640637 -0.05755651 0.025487538 0.0825156 0.015038442
0.0072015347 -0.00286387 -0.013439871 -0.008332982 0.014724811 0.005616726 -0.0901439 0.054578297
0.10570573 0.0093308985 0.0010267849 -0.002414912 0.01324843 -0.0011957997 0.0014983023 -0.0009579078
-0.005788231 0.010601013 0.056408864 -0.0016197944 0.0013828874 0.0117379045 -0.007361746 0.0015121165
0.0071425126 0.009902606 -0.018929577 0.016993342 0.0065068766 0.0026289036 0.0028489132 0.0031028758
5.3503125e-05 0.0019540242 0.005045934 0.013474906 -0.0015600703 -0.0005402527 0.00048761125 -0.0010150723
0.011616972 -0.0023959728 1.1184481e-08 0.001003095 -0.00047259088 0.0040218085 1.5728445e-05 1.9699185e-08
-0.0023609507 -0.0015018284 -0.0013170441 -2.4104359e-14 0.0024376311 -0.006363229 -0.0011269297 1.4474237e-18
0.00029227056 0.027158672 -0.002761613 -0.0019440762 7.4117257e-16 1.49964e-40 -0.0047107283 -0.014783217
-0.0038769734 0.0030221483 -0.0074004536 0.10340171 -0.017318789 -0.006471159 -0.001335413 -0.0037660426
0.00083145074 0.004661849 0.0011706911 0.0009656459 -0.012125264 0.009248091 0.0047209947 -0.0003631039
0.0012846906 2.5468746e-06 -0.00614284 0.0042425324 -0.0036552798 0.012212322 0.0017596462 -0.02648291

out.0.weight f4 [1, 3200]
00000000: 11f7 1639 c72a da38 844c 0338 eb0a efb9
00000010: 250b cf39 1412 ed39 5882 933a 551b 2cba
00000020: ef8c db3a 1038 dc3a 2675 8f39 10e1 3c39
00000030: 9d56 41ba a3b0 5639 ea1f ecba 2d46 f33a
00000040: 215a 843a 4add 013a 381d 0ebb 4204 2dbb
00000050: 53de e939 8743 fd39 7f7a be3a 34a6 e4ba
00000060: ed68 b339 ce42 063a 9d4b bd3a 6675 4ab9
00000070: 7494 b73a 5cbd fd3a e9bf 8139 e5cf 353a
00000080: 36d3 b5b9 8aa7 9d3a d551 98b9 37a2 9fba
00000090: 51eb 75ba aac6 8fb8 9359 fbba d6ef 8f38
000000a0: f295 9fb8 e059 b984 b7c2 b1ac 0470 66b1
000000b0: 75ba 572c 4726 b2b6 0f36 49a1 38f0 12ac
000000c0: e30c 83b6 016f 8cb6 6ddc 9b3b b534 6e3b
000000d0: 35f7 eebb 477b d3bb a2b7 0abd 44e7 4cbc
000000e0: cab9 2d3c 05f3 88bc 139b 0bba b7e2 91bc
000000f0: a1b4 3a3c 0447 823b 65cf 5fba 0113 c43c
00000100: 9f98 7c3d f135 743d 777c 39bd 47a7 46bb
00000110: a351 7e3a 2186 05bc d204 03bb 491d 993c
00000120: 6515 a13c fd8c 833c 39b1 993c de8a 863c
00000130: 9c99 7abb ad7a edbb f25f d93a d074 3d3a
00000140: 1689 e6bb eb33 c2bc 6ad7 5cbc 60ad 73bc
00000150: 6e80 aabd 24ff b3bc b4e5 493d da92 9c3c
00000160: 4128 5a3c 0ead e73b 2b7d a138 fcc2 a4bc
00000170: b98b 3bbb 955a ef3c c28a 19be 566c 52bd
00000180: db4a 803d 7948 b23a e32a 103a 2461 abbb
00000190: 31fd 443c 348e dfbb dab6 73bc 1d1f 33bd
000001a0: 648f d5bd 4267 323d 7ba3 623c 5ed9 83bc
000001b0: 3f31 c0b9 e9c0 c43c fd4f 61bb ebdc 0cba
000001c0: 1ee5 80bb bd31 46bd 88aa 9cbd 532a f7bd
000001d0: 4cd0 253c 194d f3bb 109e 67bb 28d6 d23c
000001e0: ac31 0200 2f51 f13a e5a8 0000 64ee 2dbd
000001f0: 81ae b7bd 5b05 80bd d4a8 493b 45bd 0100
00000200: f1e4 cf3c 4c93 6e3c 7331 32bc 58c3 6f3b
00000210: f60b e9bc ec4a 13bd d0b5 9dbd ed71 ea3d
00000220: a712 7e3b 366e 813c cac8 9d3b f01b 86bc
00000230: a877 8cbc 8a26 1e3d 19d1 9b3c 96db 78bc
00000240: 29f3 da3c 948c 0a3d c9f8 fabc 74bb f2bc
00000250: 592b 57bc bcce 093d bf29 9039 de42 ecb9
00000260: 0830 87bb 096a 13b9 56dd 4abd 4402 eb3b
00000270: cb3e 4e3c cbec 94bb 8fad 96b9 d8bf 5db9
00000280: a375 e93b 74f5 cf3a ac8a ba3b cb20 80bc
00000290: 60c0 6bbd 3ecb d03c f0fd a83d cc63 763c
000002a0: dafa eb3b c4af 3bbb e832 5cbc 0f87 08bc
000002b0: 5540 713c 830c b83b 5d9d b8bd 7e8d 5f3d
000002c0: 3f7c d83d a0e0 183c 2f95 863a 8043 1ebb
000002d0: f10f 593c 61bc 9cba af62 c43a 1b1c 7bba
000002e0: 33ab bdbb dfaf 2d3c fb0c 673d 484f d4ba
000002f0: 0042 b53a 5750 403c cd3a f1bb 3632 c63a
00000300: bd0b ea3b 8a3e 223c 3312 9bbc 9f35 8b3c
00000310: a337 d53b af49 2c3b d5b4 3a3b 9e59 4b3b
00000320: 8b68 6038 160f 003b 5d58 a53b dac5 5c3c
00000330: 467b ccba bf9f 0dba 13a6 ff39 2d0c 85ba
00000340: 1d55 3e3c c105 1dbb de25 4032 487a 833a
00000350: 13c6 f7b9 60c9 833b 94f0 8337 f736 a932
00000360: 2eba 1abb 00d9 c4ba aba0 acba de1c d9a8
00000370: aac0 1f3b a282 d0bb 7cb5 93ba 1f9a d521
00000380: e43b 9939 dd7b de3c 2efc 34bb 5fd0 feba
00000390: e2a0 5526 0aa2 0100 745c 9abb 4e35 72bc
000003a0: d214 7ebb 3c0f 463b 817f f2bb 47c4 d33d
000003b0: 22e0 8dbc 040c d4bb 0609 afba b6cf 76bb
000003c0: b7f5 593a 6cc2 983b e071 993a 6623 7d3a
000003d0: 0ba9 46bc 4e85 173c 93b2 9a3b fb5e beb9
000003e0: 1063 a83a f9ea 2a36 e049 c9bb f104 8b3b
000003f0: 6b8d 6fbb 3116 483c eea3 e63a b0f2 d8bc
0.00014397154 0.00010403018 3.1304095e-05 -0.00045593767 0.0003949042 0.00045217632 0.0011254055 -0.0006565352
0.0016750376 0.0016801376 0.00027362368 0.0001801292 -0.0007375272 0.00020474433 -0.0018014882 0.0018560343
0.0010097661 0.0004953934 -0.0021684896 -0.0026400243 0.00044606868 0.00048306232 0.0014532356 -0.0017444552
0.00034219716 0.0005121649 0.001444209 -0.00019307956 0.0014006034 0.0019358802 0.00024747782 0.0006935581
-0.00034680375 0.001202808 -0.0002905267 -0.0012179081 -0.0009381073 -6.8557754e-05 -0.0019176475 6.863444e-05
-7.60964e-05 -4.3575828e-36 -5.0522603e-12 -3.3533079e-09 3.0656842e-12 -5.3092695e-06 -6.8172995e-19 -2.0881196e-12
-3.9056044e-06 -4.1852477e-06 0.0047565014 0.0036347334 -0.007292653 -0.006453905 -0.033866532 -0.01250631
0.010603378 -0.016717443 -0.0005325537 -0.017808301 0.011395604 0.003975751 -0.0008537679 0.023934843
0.06166899 0.059621755 -0.045284715 -0.0030312107 0.0009701496 -0.008149655 -0.0019991887 0.018690722
0.019663522 0.01605844 0.018761264 0.016423639 -0.003823853 -0.00724729 0.001658438 0.0007227184
-0.007035385 -0.023706397 -0.013479093 -0.014872879 -0.08325277 -0.021972246 0.049291328 0.019112993
0.013315261 0.0070701903 7.7003926e-05 -0.020112507 -0.0028617217 0.029217998 -0.14994338 -0.05137285
0.062642775 0.0013601921 0.00054995547 -0.005230086 0.012023256 -0.006822372 -0.014875138 -0.043730844
-0.1042774 0.043555506 0.013832922 -0.01609486 -0.00036657785 0.024017768 -0.0034379952 -0.00053734955
-0.003933563 -0.048387278 -0.07649714 -0.120686196 0.010120463 -0.0074249622 -0.0035342015 0.025736883
2.0149e-40 0.0018411035 6.0588e-41 -0.042463675 -0.08968831 -0.062510215 0.0030770795 1.59733e-40
0.025377722 0.0145614855 -0.010876047 0.003658494 -0.028448086 -0.035960123 -0.077006936 0.11447511
0.0038768442 0.015799623 0.0048151957 -0.016370744 -0.0171469 0.038610972 0.019020604 -0.015189072
0.026727276 0.033825472 -0.030636208 -0.0296304 -0.0131328935 0.033644423 0.00027496924 -0.00045063248
-0.004125599 -0.00014058514 -0.04952749 0.007171901 0.012588213 -0.0045448295 -0.0002873954 -0.0002114767
0.007124619 0.0015865997 0.0056928005 -0.015640637 -0.05755651 0.025487538 0.0825156 0.015038442
0.0072015347 -0.00286387 -0.013439871 -0.008332982 0.014724811 0.005616726 -0.0901439 0.054578297
0.10570573 0.0093308985 0.0010267849 -0.002414912 0.01324843 -0.0011957997 0.0014983023 -0.0009579078
-0.005788231 0.010601013 0.056408864 -0.0016197944 0.0013828874 0.0117379045 -0.007361746 0.0015121165
0.0071425126 0.009902606 -0.018929577 0.016993342 0.0065068766 0.0026289036 0.0028489132 0.0031028758
5.3503125e-05 0.0019540242 0.005045934 0.013474906 -0.0015600703 -0.0005402527 0.00048761125 -0.0010150723
0.011616972 -0.0023959728 1.1184481e-08 0.001003095 -0.00047259088 0.0040218085 1.5728445e-05 1.9699185e-08
-0.0023609507 -0.0015018284 -0.0013170441 -2.4104359e-14 0.0024376311 -0.006363229 -0.0011269297 1.4474237e-18
0.00029227056 0.027158672 -0.002761613 -0.0019440762 7.4117257e-16 1.49964e-40 -0.0047107283 -0.014783217
-0.0038769734 0.0030221483 -0.0074004536 0.10340171 -0.017318789 -0.006471159 -0.001335413 -0.0037660426
0.00083145074 0.004661849 0.0011706911 0.0009656459 -0.012125264 0.009248091 0.0047209947 -0.0003631039
0.0012846906 2.5468746e-06 -0.00614284 0.0042425324 -0.0036552798 0.012212322 0.0017596462 -0.02648291

exp_avg f4 [32, 2, 5, 5]
00000000: 2662 23b9 127b aeb7 b5c0 e938 5853 5d39
00000010: 1e51 7a39 7f27 0eb9 c6cc 6836 b207 1a39
00000020: a95b 6d39 11c1 8439 47df bcb8 271d 6538
00000030: b06f 4539 b881 8a39 381b 8739 7feb 70b8
00000040: c0a9 9f38 f573 4339 7e3d 7f39 700a 7739
00000050: 938c c8b7 0a5c c938 9eb6 3a39 decf 5939
00000060: 5ace 5839 4bb9 19b9 0f89 97b7 e772 f538
00000070: eeb9 3d39 5349 4739 646e 1bb9 3689 26b7
00000080: 51f8 0639 7d9f 3b39 a1c6 3339 d707 dbb8
00000090: 918a 1c38 688e 2739 ec7c 5839 8171 4839
000000a0: 3b11 81b8 eed4 3a38 0cab 2e39 5f21 4339
000000b0: 3c53 2c39 1228 d8b7 0791 8b38 cea2 1c39
000000c0: 3e42 3a39 0f13 1839 3535 5939 017b 7039
000000d0: 347f 1f39 17e1 afb7 e172 98b9 b64e 6e39
000000e0: 63c0 8439 41aa 4f39 1673 e737 59de 89b9
000000f0: aefd 8539 1999 9a39 3213 7639 4b23 aa38
00000100: 35b2 3bb9 49c8 9039 644f aa39 35ec 9439
00000110: ea7b 1e39 695f cbb8 166e aa39 5781 c639
00000120: 9df0 b739 17b1 8139 8b93 3138 d007 9039
00000130: 0960 8339 b939 2539 cc69 8db8 b991 c8b9
00000140: c4fd 9e39 b4a3 9c39 3ec7 4239 cc37 44b8
00000150: ad5a bab9 1dec a839 e542 a939 1354 7639
00000160: e4d9 a037 cba2 9db9 21cc b039 67c4 b939
00000170: 87b7 9339 ed1a b538 d34a 47b9 2887 cb39
00000180: 114f da39 6950 c439 0a54 4c39 14e7 26b8
00000190: 1d60 b439 71da c139 33af af39 5ee4 7e39
000001a0: 56f5 9638 072c b739 f77a c339 5c65 b939
000001b0: 4bdb 8539 cdc2 b338 7bde ac39 73da bd39
000001c0: 921a ad39 bdda 7e39 6108 bd38 82b6 9f39
000001d0: 041e ad39 f314 a639 80cb 7339 e40d ca38
000001e0: e6fd 9139 e531 a039 a42b 9639 2d10 6239
000001f0: 03e4 ce38 9029 c839 77af cf39 45ce b539
00000200: 7bf6 4c39 0ae8 13b7 5df2 c939 3239 d639
00000210: 5c78 b939 29ad 6039 26dd b536 ae2f c539
00000220: 6d4f ce39 4dd6 b939 958b 6639 5b16 9837
00000230: cdff b239 466e c439 cfdd ae39 8fed 6839
00000240: 8b2c 3e38 cef2 a539 83ff b539 6d62 a739
00000250: a28c 6339 df8a 8f38 27ac 47b9 c525 51b9
00000260: 4705 5db9 1112 61b9 8bcf 37b9 24fc 3bb9
00000270: 246f 3db9 feeb 3eb9 9fb6 28b9 6b69 00b9
00000280: 32d0 26b9 229f 1eb9 7dfc 17b9 aed2 04b9
00000290: e31e a5b8 c75b 01b9 0f96 ebb8 d7d0 f6b8
000002a0: 594f 9bb8 c390 16b8 9547 7fb8 7437 84b8
000002b0: cb82 79b8 c35b 69b8 ca8b c0b7 273b b0b8
000002c0: e37b f8b8 fd47 19b9 c9df 1ab9 54e6 0db9
000002d0: 8803 8eb8 111a f0b8 1cd7 f8b8 4410 08b9
000002e0: b59b b3b8 925a 84b8 7ab4 d7b8 7988 d8b8
000002f0: 74bb b5b8 b72a 7ab8 a208 f6b7 6abf 95b8
00000300: db65 8db8 4d54 97b8 fae5 edb7 862f 0b38
00000310: 851f b1b7 ef41 3eb8 c3e4 18b8 0e7c 85b7
00000320: fcd2 47b8 45a1 c2b8 db86 1cb9 096b 56b9
00000330: 3d8a 88b9 533c 4ab8 2eeb b8b8 5d40 19b9
00000340: 0bef 4db9 b27b 80b9 9c82 2eb8 c7e6 a1b8
00000350: 9574 f6b8 5bc0 28b9 09ae 3ab9 b361 cfb7
00000360: ee1b 50b8 cc87 a7b8 51d7 cdb8 4b9c ddb8
00000370: 9586 59b7 b90e dcb7 e1db 14b8 4d70 1fb8
00000380: f6aa fdb7 73af 28b8 b7e5 a8b8 e3be 05b9
00000390: a4d0 3db9 0dfc 71b9 0235 3cb8 2f41 b6b8
000003a0: b4b0 02b9 d444 32b9 063d 5db9 98d2 12b8
000003b0: b444 9db8 4afb e8b8 ea14 0db9 0aee 28b9
000003c0: 7567 ffb7 efb2 6cb8 d890 9eb8 c9f8 b9b8
000003d0: 6cdf b8b8 b7b6 a5b7 a617 1fb8 ae7a 51b8
000003e0: c808 37b8 593f 93b7 a532 323a f17e 2d3a
000003f0: 6906 153a 326e bd39 dd53 8e36 e11c 323a
-0.00015581454 -2.0799725e-05 0.000111462 0.0002110725 0.00023872076 -0.00013556889 3.4689888e-06 0.00014689451
0.00022636227 0.00025320848 -9.006127e-05 5.4625005e-05 0.00018828991 0.0002641806 0.00025769486 -5.743978e-05
7.613329e-05 0.00018639847 0.00024341603 0.00023559644 -2.3907318e-05 9.6015705e-05 0.00017806372 0.00020772169
0.00020676237 -0.00014660244 -1.8064426e-05 0.000117039126 0.00018093709 0.00019005434 -0.00014823076 -9.926318e-06
0.00012871741 0.00017893124 0.00017144765 -0.00010444194 3.732235e-05 0.00015979412 0.00020645902 0.0001911577
-6.154409e-05 4.4544162e-05 0.00016657653 0.00018609081 0.00016434205 -2.5767866e-05 6.65505e-05 0.00014937969
0.0001776302 0.0001450295 0.00020714554 0.00022934006 0.00015210808 -2.0966441e-05 -0.0002907729 0.00022726771
0.0002532034 0.00019804483 2.7590937e-05 -0.00026296338 0.00025556743 0.00029487236 0.00023467539 8.1128055e-05
-0.00017900097 0.00027615044 0.00032484077 0.00028404748 0.00015114216 -9.697566e-05 0.00032506947 0.0003786187
0.0003508375 0.0002473674 4.23375e-05 0.0002747164 0.0002505782 0.0001575713 -6.74311e-05 -0.00038255544
0.00030325179 0.00029876607 0.00018575505 -4.6782006e-05 -0.00035544243 0.00032219375 0.00032284032 0.00023491708
1.917495e-05 -0.00030066664 0.00033721424 0.0003543228 0.00028174763 8.635768e-05 -0.00019005993 0.00038819876
0.0004163911 0.00037443943 0.00019486263 -3.9792692e-05 0.00034403885 0.0003697458 0.00033509135 0.00024308401
7.198255e-05 0.00034937283 0.00037284914 0.00035361468 0.00025531123 8.5716696e-05 0.00032972157 0.00036211647
0.00033016928 0.00024304814 9.013783e-05 0.00030462822 0.00033019495 0.00031677596 0.00023250096 9.634698e-05
0.00027845724 0.00030554752 0.00028642744 0.00021559065 9.865316e-05 0.0003817794 0.00039612848 0.00034676693
0.00019546777 -8.815909e-06 0.00038518282 0.00040859875 0.00035375624 0.00021426812 5.4199654e-06 0.00037610292
0.0003935056 0.00035445616 0.00021986508 1.8130222e-05 0.00034141392 0.00037466193 0.00033353126 0.00022213742
4.5341014e-05 0.00031652156 0.0003471338 0.00031926055 0.00021700797 6.844638e-05 -0.0001904225 -0.00019945863
-0.00021078168 -0.00021464402 -0.00017529556 -0.0001792764 -0.00018065848 -0.00018207726 -0.0001608976 -0.00012246303
-0.00015908552 -0.00015127336 -0.00014494541 -0.00012666985 -7.873566e-05 -0.00012336588 -0.00011233624 -0.000117690935
-7.4057556e-05 -3.5897607e-05 -6.0863404e-05 -6.3045794e-05 -5.9488037e-05 -5.563699e-05 -2.2953278e-05 -8.403352e-05
-0.00011848637 -0.00014618035 -0.00014769951 -0.00013532612 -6.7717454e-05 -0.00011448947 -0.00011865629 -0.0001297603
-8.564388e-05 -6.3111205e-05 -0.00010285615 -0.000103251026 -8.6656684e-05 -5.9644426e-05 -2.9329505e-05 -7.140527e-05
-6.742376e-05 -7.215943e-05 -2.8359693e-05 3.3184442e-05 -2.1114722e-05 -4.5360935e-05 -3.6452675e-05 -1.5912603e-05
-4.764179e-05 -9.28068e-05 -0.00014927557 -0.00020448504 -0.00026042937 -4.8216734e-05 -8.817609e-05 -0.00014615194
-0.00019639374 -0.00024506223 -4.1606472e-05 -7.720064e-05 -0.00011751909 -0.00016093387 -0.00017803175 -2.4721818e-05
-4.9617076e-05 -7.988475e-05 -9.8152675e-05 -0.00010567213 -1.2965543e-05 -2.62329e-05 -3.5490728e-05 -3.8013142e-05
-3.023956e-05 -4.021772e-05 -8.053652e-05 -0.00012754979 -0.00018102169 -0.00023077447 -4.487206e-05 -8.690578e-05
-0.00012463593 -0.00017001043 -0.00021098935 -3.5005243e-05 -7.49914e-05 -0.00011109428 -0.00013454599 -0.00016110405
-3.0446545e-05 -5.643343e-05 -7.561006e-05 -8.867827e-05 -8.815419e-05 -1.9754616e-05 -3.793058e-05 -4.9943737e-05
-4.3638778e-05 -1.7553264e-05 0.0006797708 0.0006618342 0.0005684854 0.0003613099 4.2416927e-06 0.00067944644

exp_avg_sq f4 [32, 2, 5, 5]
00000000: 943f 5736 6e90 1e36 093e cb35 3859 cc35
00000010: 5fcb 4736 cebd 5436 72ee 1b36 c665 d135
00000020: ed7d e835 d418 6336 c51a 4236 567b 0d36
00000030: 8c1e bf35 cded d135 a682 4a36 6911 1336
00000040: df65 d835 17b0 9435 2cf3 a035 f2b9 1636
00000050: 07f7 c135 d814 9335 329e 4d35 5018 4d35
00000060: 4610 b335 cfe2 4936 622a 0836 856c a335
00000070: fd8b ac35 17b4 3536 1777 4136 2a80 0136
00000080: 2d96 a635 14d6 c735 df88 5136 6ecc 3036
00000090: 4dd5 ec35 4279 9935 0479 b635 1cb9 3b36
000000a0: 501e 0636 5360 b735 ee48 7735 b84a 9035
000000b0: a9d7 0d36 5500 b435 c593 8035 a33e 3335
000000c0: 069a 3f35 9e7c ab35 049b a735 fb21 b335
000000d0: 5a08 f235 674b 5a36 5bd4 d336 3912 b635
000000e0: 31a6 bf35 945c fe35 b124 6836 c87e e736
000000f0: d9bb c635 0b42 c535 85ac ee35 e78d 5236
00000100: f5b9 d536 f4c0 df35 41ac ce35 c9af d635
00000110: 4f68 2836 572e ab36 c2c6 f735 ce70 dc35
00000120: f96e c635 7fa0 0136 7a1f 7c36 655d 9735
00000130: c48e b235 557a 1336 8c2d 9136 c290 0737
00000140: ca07 a135 32dd b835 27be 1536 ddef 9436
00000150: c620 0e37 41d0 ab35 2532 b335 f1ee 0236
00000160: f64c 7e36 d991 f936 fd6d bf35 5c9b b035
00000170: 44bb d035 cfc5 3936 45a9 ba36 1cf3 d435
00000180: 1780 b735 f280 ae35 0fd6 fe35 3072 7d36
00000190: 4b6d 3c35 76a1 4435 413e 4b35 9a10 9535
000001a0: be1a 1136 c7ed 5335 61d8 5835 e20f 5535
000001b0: 375f 9735 fdbc 1636 a815 5935 2c3c 5835
000001c0: 10ae 4635 f40a 8435 076c 0336 5c0b 4f35
000001d0: 8546 4a35 8471 2f35 8aa8 5035 de5b c735
000001e0: 74f6 3f35 34ed 3c35 e782 2135 38fd 2b35
000001f0: a567 9035 7107 3f35 ec8a 5135 7f4e 4a35
00000200: daad 6435 7a63 cb35 b86d 5935 b6da 7135
00000210: cb64 6a35 ee6f 8035 2ec4 db35 0903 5e35
00000220: 4b4c 7b35 f342 7535 d370 8035 02dc cb35
00000230: 6fbc 5035 9205 7135 beb9 6e35 b1ff 6f35
00000240: f5ac a835 b866 3c35 1ca6 5e35 ce68 6435
00000250: e7be 6135 9b5d 8935 99e9 4735 4d33 9e35
00000260: ef35 d435 8251 f935 7ed6 1136 c88f 1535
00000270: f014 7635 53a3 af35 f4c8 e135 b0a6 1636
00000280: 8f81 f734 c45d 5535 e5c6 9e35 559c d835
00000290: 2809 1a36 0c85 c034 ec60 2135 a132 7c35
000002a0: 0d9b b335 4feb 0436 bf48 b334 49ce 0235
000002b0: b21d 5035 8d02 9635 4c2a dd35 7b47 1a35
000002c0: 62b5 7635 d007 bc35 77ee fa35 e583 2636
000002d0: 8561 ea34 8149 4235 9e78 9f35 6b1f ec35
000002e0: fa3c 2f36 c6e2 c334 c6ec 2935 2848 9435
000002f0: 6d04 e735 626e 3336 86be a934 a83b 0135
00000300: aa83 6c35 4128 c035 40b9 1836 9d5e b634
00000310: d69f d334 32ee 4035 caea 9c35 3e6b f535
00000320: 1d33 9833 745c f533 e77f 7334 a377 e734
00000330: 4dd6 3c35 f200 9533 37c6 e333 6c04 5934
00000340: 1858 c834 7b4c 2135 dcb0 a033 a651 ef33
00000350: 6880 5334 a676 b734 ec33 0e35 78d8 b933
00000360: 9deb 0c34 d7fc 6b34 9c18 c034 ae64 0e35
00000370: 1a76 d033 0471 2234 fc29 8634 28b7 d334
00000380: dc98 1835 1a1e 9d33 076f c533 c87b 2434
00000390: 5343 9e34 1dc1 1135 fc07 a933 6d71 d133
000003a0: 29c7 1b34 71ad 8634 5b23 ee34 a21e cf33
000003b0: dc0b 0934 c7a1 3f34 0a92 8d34 ebd2 da34
000003c0: 501c 0334 f998 3d34 f6e7 8634 220f b834
000003d0: c72b fb34 83d6 1634 f402 6a34 64f0 ab34
000003e0: f7e6 e934 7595 1735 85e7 7636 ac88 4536
000003f0: 864e 0136 bfa0 0536 d129 ca36 d025 7f36
3.2074504e-06 2.3627904e-06 1.5142733e-06 1.522515e-06 2.9771688e-06 3.1700943e-06 2.3235593e-06 1.5601333e-06
1.7321996e-06 3.3840088e-06 2.8923835e-06 2.1082428e-06 1.4239499e-06 1.5640923e-06 3.0176393e-06 2.191484e-06
1.6122902e-06 1.1078108e-06 1.1991701e-06 2.2459976e-06 1.4451515e-06 1.095842e-06 7.6598656e-07 7.640383e-07
1.3341275e-06 3.0083354e-06 2.029025e-06 1.217603e-06 1.2855741e-06 2.7075928e-06 2.882856e-06 1.92971e-06
1.2411671e-06 1.488896e-06 3.1223096e-06 2.6345037e-06 1.7645449e-06 1.1434679e-06 1.3595277e-06 2.797292e-06
1.99852e-06 1.3662597e-06 9.2120797e-07 1.0750582e-06 2.1136168e-06 1.3411142e-06 9.57975e-07 6.6773845e-07
7.137718e-07 1.2776761e-06 1.2487585e-06 1.3346429e-06 1.8032836e-06 3.2528421e-06 6.3130115e-06 1.356536e-06
1.4278977e-06 1.8951418e-06 3.4592051e-06 6.8990958e-06 1.480682e-06 1.4696865e-06 1.7782592e-06 3.1375037e-06
6.369543e-06 1.6670951e-06 1.5398329e-06 1.5995403e-06 2.5094666e-06 5.101592e-06 1.846078e-06 1.6424108e-06
1.4784447e-06 1.931592e-06 3.7569248e-06 1.1277558e-06 1.3303584e-06 2.1975914e-06 4.326639e-06 8.080331e-06
1.1997702e-06 1.3773445e-06 2.2313413e-06 4.4386675e-06 8.47149e-06 1.2801103e-06 1.3351133e-06 1.9510592e-06
3.7893747e-06 7.437757e-06 1.426262e-06 1.3158237e-06 1.5551709e-06 2.7682288e-06 5.5629375e-06 1.5865985e-06
1.3671842e-06 1.3001538e-06 1.8986774e-06 3.7766404e-06 7.01945e-07 7.3250646e-07 7.5713984e-07 1.1106197e-06
2.162225e-06 7.8949637e-07 8.0781143e-07 7.9371796e-07 1.1278088e-06 2.2461747e-06 8.0870313e-07 8.055383e-07
7.401404e-07 9.837954e-07 1.9583401e-06 7.713004e-07 7.5353483e-07 6.535777e-07 7.7731295e-07 1.4853392e-06
7.151168e-07 7.0380634e-07 6.016766e-07 6.4070946e-07 1.0759001e-06 7.1163873e-07 7.8060725e-07 7.536509e-07
8.5189606e-07 1.515363e-06 8.099846e-07 9.009776e-07 8.7318466e-07 9.569319e-07 1.6373867e-06 8.270586e-07
9.361581e-07 9.1367036e-07 9.569579e-07 1.5188709e-06 7.7760245e-07 8.97876e-07 8.89322e-07 8.940652e-07
1.2567313e-06 7.0184933e-07 8.2943166e-07 8.508913e-07 8.409683e-07 1.0234538e-06 7.4473206e-07 1.1786848e-06
1.5810928e-06 1.8575668e-06 2.1731535e-06 5.5716055e-07 9.167261e-07 1.308605e-06 1.6822291e-06 2.2448767e-06
4.6101601e-07 7.948513e-07 1.1829803e-06 1.6138753e-06 2.2953118e-06 3.585959e-07 6.0118214e-07 9.395099e-07
1.3381665e-06 1.98065e-06 3.3394278e-07 4.872896e-07 7.752925e-07 1.1176613e-06 1.6478093e-06 5.747349e-07
9.190609e-07 1.4009365e-06 1.8695854e-06 2.48127e-06 4.365685e-07 7.2377594e-07 1.1881527e-06 1.7592514e-06
2.6112525e-06 3.648658e-07 6.3301957e-07 1.104786e-06 1.7212129e-06 2.673733e-06 3.1617327e-07 4.8143056e-07
8.810845e-07 1.431683e-06 2.2757595e-06 3.3968982e-07 3.941811e-07 7.1872194e-07 1.1691238e-06 1.8285134e-06
7.087349e-08 1.1425519e-07 2.2677669e-07 4.311415e-07 7.0347306e-07 6.938525e-08 1.0606566e-07 2.0211309e-07
3.7317e-07 6.008847e-07 7.482751e-08 1.11441565e-07 1.969762e-07 3.4172734e-07 5.297468e-07 8.654109e-08
1.3124232e-07 2.1978063e-07 3.5780693e-07 5.304563e-07 9.707237e-08 1.512854e-07 2.4989993e-07 3.9435076e-07
5.684685e-07 7.316358e-08 9.193723e-08 1.5318722e-07 2.9478778e-07 5.4297726e-07 7.871128e-08 9.752953e-08
1.4507954e-07 2.508564e-07 4.435668e-07 9.644761e-08 1.2763434e-07 1.7847115e-07 2.6369554e-07 4.0759127e-07
1.2210626e-07 1.7657648e-07 2.512822e-07 3.428368e-07 4.6784245e-07 1.4047878e-07 2.1794023e-07 3.202614e-07
4.356768e-07 5.646937e-07 3.6791619e-06 2.943484e-06 1.9268205e-06 1.991211e-06 6.024937e-06 3.801997e-06
