results/2BS/T_1/L_8000/seed5/checkpoint.pth.tar (torch_old, 395617 bytes, 22 tensors)

layer1.conv.weight f4 [32, 2, 5, 5]
0.013103006 0.09686233 0.0078434795 0.08954372 0.048349172 0.13261113 -0.033281043 0.09236058
0.07681463 0.034400612 0.086843766 0.06302602 0.083124414 0.06801394 0.017522898 0.102186345
0.03890376 0.0052813003 -0.0018455494 -0.069250725 0.018656665 0.037798785 0.063227445 0.02217823
-0.030216888 0.029572016 -0.066204295 0.003983421 -0.035674136 -0.052782852 -0.04474118 -0.08315866
-0.0401377 -0.012194095 -0.042814057 -0.06785885 -0.0641652 -0.043006692 -0.084533915 -0.048805133
0.034114555 -0.06972219 -0.039755754 -0.033660132 -0.0797211 0.022999303 0.0129212 -0.079974115
-0.054166358 -0.057843022 -0.07531955 0.063636385 0.024138046 -0.02271412 -0.054611396 0.03077161
0.038340606 -0.05533272 -0.07003633 0.020095576 0.026001735 -0.050805293 -0.029887596 -0.017088452
0.040507752 0.057464816 -0.0829409 -0.043338407 0.05979422 -0.017099604 0.035086207 -0.021327991
-0.074284926 -0.07242172 0.01894524 -0.06768383 -0.03791074 -0.023229767 -0.01062731 0.046299435
0.09789757 0.04356324 -0.030762788 -0.03619074 0.054537367 -0.028781746 0.00553559 0.009956525
0.08711267 0.042644966 0.025491275 0.022547692 0.019069135 0.030642278 0.010138688 0.04314647
-0.031419992 0.005176157 -0.04074261 0.028710375 0.036902938 0.04387444 0.044386175 -0.019716598
0.0069077727 0.058361188 0.014637975 0.016224835 -0.025278952 -0.020906653 -0.026011761 -0.03474963
-0.0538953 -0.035396434 0.083768554 0.07003736 -0.12516747 -0.028887268 -0.05620774 0.015326674
-0.04209515 -0.05933574 -0.045958858 0.05130046 0.030908635 -0.062716044 0.122161716 0.092981465
0.0059102764 -0.02391613 0.053722136 0.05693148 0.07790247 0.070180774 0.03933059 0.020434447
0.09279394 -0.021839585 0.015590898 0.05252473 0.016771104 -0.048115082 -0.009140868 -0.0016643503
0.057120554 0.057458144 -0.010912906 0.0501726 0.04214909 0.07111646 -0.06940613 -0.037436917
-0.017267162 0.042569987 0.08563662 0.045163188 -0.034444146 -0.04826584 0.0030312259 -0.05681922
-0.03951887 -0.00590137 -0.022708748 -0.0025801577 -0.003456569 -0.0032402088 0.008547109 0.015479785
0.017797263 -0.05264041 0.01643405 0.054169346 0.011616191 0.0040382147 -0.063290894 0.06418811
0.04013886 0.01967493 -0.03911244 -0.059886336 -0.014536789 0.08661399 -0.030475035 -0.027705228
0.0067205243 0.03952432 -0.053517416 -0.0053289197 -0.060764126 -0.034041144 0.026875395 0.060637128
-0.013725248 0.045653347 0.041188862 -0.01433397 0.015469914 -0.09005447 -0.06924387 0.025313826
-0.060377195 -0.05931996 -0.08041543 -0.040752456 -0.037500996 -0.0711919 -0.06931441 -0.057131417
-0.056635316 -0.031375844 -0.052339584 -0.0016699631 -0.041340467 0.045688488 -0.009697883 -0.05673869
-0.051286936 -0.019777624 0.022115782 -0.05308328 -0.09322872 -0.08556525 -0.02034905 -0.0019396984
-0.058404624 -0.010074669 0.025353437 -0.09241597 0.066801585 0.057900574 -0.045058202 -0.040461347
0.071047515 -0.0017218228 0.030198729 -0.0020691208 0.018943038 0.12260345 0.08753797 0.019967306
0.009709073 -0.12977292 -0.06837455 0.1699887 0.04446752 -0.071381666 -0.057078104 0.026856702
0.015672274 0.015277815 0.03570932 -0.026402095 0.009631582 0.029512366 0.05895528 -0.063981496
00000000: fead 563c c25f c63d f081 003c b362 b73d
00000010: c809 463d 36cb 073e b451 08bd 8b27 bd3d
00000020: fd50 9d3d a8e7 0c3d 25db b13d c913 813d
00000030: 223d aa3d e44a 8b3d 2e8c 8f3c 1347 d13d
00000040: 8d59 1f3d c20e ad3b 5de6 f1ba 53d3 8dbd
00000050: ddd5 983c e6d2 1a3d 647d 813d 1faf b53c
00000060: 6889 f7bc 0341 f23c 1e96 87bd 5b87 823b
00000070: 0b1f 12bd d532 58bd 8742 37bd 164f aabd
00000080: 6e67 24bd bec9 47bc cb5d 2fbd 95f9 8abd
00000090: 0b69 83bd c927 30bd 1e20 adbd e4e7 47bd
000000a0: b4bb 0b3d 82ca 8ebd eed6 22bd 35df 09bd
000000b0: d144 a3bd 0969 bc3c 71b3 533c 78c9 a3bd
000000c0: 8bdd 5dbd ceec 6cbd 2341 9abd cb53 823d
000000d0: 27bd c53c f612 babc 33b0 5fbd be14 fc3c
000000e0: 0a0b 1d3d 90a4 62bd 356f 8fbd 7a9f a43c
000000f0: 9701 d53c 3619 50bd d5d6 f4bc 15fd 8bbc
00000100: 75eb 253d 3a60 6b3d ebdc a9bd 9d83 31bd
00000110: c9ea 743d 7814 8cbc 8eb6 0f3d 0ab8 aebc
00000120: b222 98bd d751 94bd 0c33 9b3c d29d 8abd
00000130: 4b48 1bbd 5a4c bebc 2b1e 2ebc 7aa4 3d3d
00000140: 857e c83d 5e6f 323d 3e02 fcbc be3c 14bd
00000150: 9362 5f3d b2c7 ebbc e563 b53b b120 233c
00000160: 2168 b23d 7dac 2e3d 14d3 d03c f0b5 b83c
00000170: e036 9c3c 8405 fb3c bd1c 263c 5aba 303d
00000180: 40b2 00bd c19c a93b b9e1 26bd 0532 eb3c
00000190: 8927 173d afb5 333d 47ce 353d b484 a1bc
000001a0: 995a e23b 240c 6f3d 1ed4 6f3c f2e9 843c
000001b0: ce15 cfbc 6e44 abbc 9e16 d5bc a155 0ebd
000001c0: 51c1 5cbd dafb 10bd d98e ab3d bf6f 8f3d
000001d0: e72b 00be fea4 ecbc 163a 66bd bb1c 7b3c
000001e0: f76b 2cbd 080a 73bd 5b3f 3cbd 6e20 523d
000001f0: 1b34 fd3c 4571 80bd ec2f fa3d 116d be3d
00000200: feaa c13b c3eb c3bc be0b 5c3d fc30 693d
00000210: 558b 9f3d f0ba 8f3d 1d19 213d 2466 a73c
00000220: c00a be3d eee8 b2bc f770 7f3c 2c24 573d
00000230: 8e63 893c 5214 45bd 94c3 15bc 5426 daba
00000240: 3ef7 693d 3b59 6b3d 0ccc 32bc c981 4d3d
00000250: 86a4 2c3d 82a5 913d cd24 8ebd 7457 19bd
00000260: dd73 8dbc de5d 2e3d 4162 af3d 09fd 383d
00000270: 4e15 0dbd 67b2 45bd 88a7 463b 45bb 68bd
00000280: 8ade 21bd 4860 c1bb b207 babc dd17 29bb
00000290: 9b87 62bb af59 54bb 2c09 0c3c ed9e 7d3c
000002a0: 91cb 913c 789d 57bd b3a0 863c ade0 5d3d
000002b0: d651 3e3c 0053 843b a89e 81bd 0e75 833d
000002c0: a568 243d 522d a13c 5e34 20bd 604b 75bd
000002d0: b62b 6ebc ad62 b13d c8a6 f9bc 13f6 e2bc
000002e0: d837 dc3b 41e4 213d 1435 5bbd 389e aebb
000002f0: cee3 78bd ba6e 0bbd ca29 dc3c a35e 783d
00000300: dddf 60bc 01ff 3a3d a7b5 283d 07d9 6abc
00000310: 8675 7d3c 7a6e b8bd bbcf 8dbd f15e cf3c
00000320: 144e 77bd 7df9 72bd d8b0 a4bd 0cec 26bd
00000330: a59a 19bd 0fcd 91bd b7f4 8dbd a202 6abd
00000340: 6ffa 67bd f583 00bd 0862 56bd aae2 daba
00000350: 9f54 29bd da23 3b3d dfe3 1ebc d466 68bd
00000360: 4012 52bd af04 a2bc 282c b53c da6d 59bd
00000370: b3ee bebd d53c afbd 0db3 a6bc 7a3d feba
00000380: b039 6fbd 3910 25bc 03b2 cf3c 9644 bdbd
00000390: 45cf 883d 2729 6d3d f38e 38bd ccba 25bd
000003a0: 5c81 913d c9ae e1ba 5363 f73c 169a 07bb
000003b0: 6e2e 9b3c 8517 fb3d 1b47 b33d 7a92 a33c
000003c0: ce12 1f3c 31e3 04be f507 8cbd 8511 2e3e
000003d0: 9323 363d 8d30 92bd bbca 69bd 9602 dc3c
000003e0: 2463 803c cd4f 7a3c f043 123d 3549 d8bc
000003f0: c8cd 1d3c ebc3 f13c 177b 713d bb08 83bd

layer1.conv.bias f4 [32]
0.06951751 -0.054320976 0.04902626 -0.046293017 0.13081388 -0.051180664 -0.10400547 -0.10792773
-0.05317125 0.057838235 -0.044917963 0.02172576 0.031044573 -0.03985737 0.07308426 0.12993906
0.07517785 0.020518579 0.09188615 -0.01405858 -2.38831e-06 0.06300132 -0.11237867 -0.07131707
-0.13169912 0.11872908 -0.071623765 -0.07065241 -0.056501877 0.028769951 -0.11996476 0.120771006
00000000: 325f 8e3d ac7f 5ebd c2cf 483d bf9d 3dbd
00000010: 13f4 053e d1a2 51bd d200 d5bd 3709 ddbd
00000020: 19ca 59bd c9e7 6c3d e6fb 37bd 39fa b13c
00000030: 3051 fe3c 7b41 23bd 33ad 953d bf0e 053e
00000040: d8f6 993d 9416 a83c ce2e bc3d f555 66bc
00000050: da46 20b6 d606 813d ca26 e6bd af0e 92bd
00000060: 22dc 06be 3b28 f33d 7baf 92bd 36b2 90bd
00000070: 836e 67bd f6ae eb3c 16b0 f5bd ca56 f73d

layer2.conv1.weight f4 [32, 32, 3, 3]
0.09393115 0.025436452 0.021779742 -0.052066926 -0.06544925 0.033172343 0.013550334 -0.022776144
0.06740534 0.035297547 -0.009975823 0.012300858 0.021274593 -0.0017212987 0.018410524 0.011406106
-0.00010060636 -0.013692178 -0.0038670392 -0.034658983 -0.129951 0.056890193 0.00082123285 -0.055867653
0.081838444 -0.07322506 -0.057260312 -0.012006856 0.049920723 -0.099183746 0.066595785 0.003783693
0.05823501 0.08381204 0.08280294 0.045771006 -0.11770117 0.14665356 -0.0662025 0.20094658
0.046588145 0.004914871 0.005783347 0.0029736753 -0.013988362 -0.044371568 0.04643648 0.049138926
0.014819385 0.0041967677 -0.007038511 0.11029773 -0.017326185 0.022123376 -0.06541648 0.03531388
0.027162319 -0.0051330803 0.001797069 -0.07065388 -0.06953326 0.005982462 -0.0632915 3.066026e-05
-0.062740855 0.0045025228 0.012555861 -0.008172611 0.11967616 -0.07131179 0.055785235 0.03380706
0.023813087 0.01097635 -0.03651271 -0.08804607 0.00040711192 -0.013196462 0.020381473 -0.024547791
-0.04247001 0.11861625 0.06523094 0.093473494 0.13159083 0.069251396 0.13656649 0.09025824
0.033109084 -0.04009765 0.055799548 -0.07339548 0.023452502 0.09581333 -0.08333634 0.015134362
0.099139936 0.03998087 0.017807338 -0.017133594 -0.010565425 -0.03751811 0.005306228 -0.12765302
0.02994432 -0.047721285 -0.017728552 0.10350478 -0.0139180655 -0.018530322 0.01206616 -0.046656363
-0.01979922 0.0027403785 0.058410622 -0.047231536 -0.0807434 -0.024658566 -0.04988813 0.012017003
-0.007382958 -0.017618097 0.017369453 -0.010841522 -0.02789197 0.0046684355 0.06874887 -0.021024281
-0.052101523 -0.024636883 0.03144307 -0.023595242 0.04115372 0.07419906 -0.012458844 0.031215394
0.019064318 -0.03832608 0.02793026 -0.017305914 -0.021549402 0.03190607 -0.082858406 -0.11278791
0.032857917 0.019295415 -0.05183334 0.06919607 0.034398474 0.011804591 0.110477984 0.01091018
-0.09727211 -0.015522187 -0.044628207 -0.051921524 -0.023450209 0.06306618 0.09541868 0.053588845
-0.022012798 0.009509313 -0.08562901 0.02414984 0.074947774 0.02279859 0.12340061 0.06238717
-0.10091269 -0.018085994 0.16650951 0.0009653535 -0.097145475 -0.010307522 -0.04237031 -0.006639616
-0.004791981 -0.046756532 0.018280322 -0.15523225 3.4672365e-09 -6.1394683e-12 3.3778088e-13 9.240663e-09
-5.1293843e-12 -7.2738405e-14 2.6348463e-11 -1.997697e-13 -2.39016e-15 3.8055274e-05 -0.0048362617 0.020361058
-0.0012107306 0.007845815 0.038860712 0.02366124 0.01558769 0.006637522 -0.15563388 0.010716368
-0.043736 -0.08111617 -0.001626428 -0.060161356 -0.034101848 -0.02819554 -0.14308214 0.035703283
-0.044326797 -0.027254842 0.029601634 0.002681944 0.07305962 0.0572859 -0.0040314826 -0.015814835
-0.10499137 0.04073084 -0.006874428 -0.005087338 -0.06375954 -0.0050142407 -0.003280352 -0.11831455
0.005557019 -0.081407 0.06048138 0.004400583 -0.021961035 -0.02803366 -0.09251558 0.076394506
-0.07611035 -0.016307645 -0.009460154 0.014809142 -0.00901259 -0.027319688 -0.010701838 0.016749788
-0.02699549 0.08221563 0.00830713 -0.0719189 -0.0822207 -0.060902625 -0.029873444 0.006735333
-0.07453564 -0.021416415 0.013259685 -0.053328544 0.08830867 -0.061300065 -0.0020104584 -0.0010139081
00000000: fa5e c03d 1b60 d03c 6e6b b23c 2144 55bd
00000010: 420a 86bd b9df 073d 3802 5e3c 0995 babc
00000020: d00b 8a3d 2994 103d a271 23bc 8a89 493c
00000030: 0e48 ae3c 339d e1ba abd1 963c ade0 3a3c
00000040: a1fc d2b8 2855 60bc 276e 7dbb 94f6 0dbd
00000050: e011 05be b105 693d 0148 573a 7bd5 64bd
00000060: ea9a a73d 05f7 95bd ca89 6abd 67b8 44bc
00000070: ac79 4c3d d920 cbbd 5f63 883d d6f7 773b
00000080: d587 6e3d a6a5 ab3d 9694 a93d 617a 3b3d
00000090: 500d f1bd 5a2c 163e 2d95 87bd f1c4 4d3e
000000a0: 36d3 3e3d ed0c a13b 3b82 bd3b fee1 423b
000000b0: 712f 65bc f6be 35bd 2e34 3e3d e645 493d
000000c0: 01cd 723c 0a85 893b 4fa3 e6bb c7e3 e13d
000000d0: a5ef 8dbc 153c b53c 13f9 85bd 49a5 103d
000000e0: 8383 de3c 6633 a8bb a18b eb3a fbb2 90bd
000000f0: 7467 8ebd 8708 c43b f99e 81bd 3499 0038
00000100: 477e 80bd e689 933b 19b7 4d3c 6ae6 05bc
00000110: c618 f53d ea0b 92bd 0f7f 643d 4679 0a3d
00000120: aa13 c33c 26d6 333c 5a8e 15bd 7f51 b4bd
00000130: a371 d539 f935 58bc 0cf7 a63c 7318 c9bc
00000140: 09f5 2dbd 14ed f23d cd97 853d 086f bf3d
00000150: bfbf 063e add3 8d3d 16d8 0b3e 50d9 b83d
00000160: 649d 073d 6f3d 24bd 118e 643d 5f50 96bd
00000170: 761f c03c c739 c43d 3eac aabd 1df6 773c
00000180: e109 cb3d fbc2 233d b2e0 913c c05b 8cbc
00000190: 9b1a 2dbc 97ac 19bd dedf ad3b 79b7 02be
000001a0: ca4d f53c 6577 43bd 783b 91bc 50fa d33d
000001b0: 9908 64bc e7cc 97bc 25b1 453c be1a 3fbd
000001c0: f931 a2bc ec97 333b fa3f 6f3d db75 41bd
000001d0: cc5c a5bd c300 cabc 7f57 4cbd f7e2 443c
000001e0: beec f1bb d453 90bc 624a 8e3c a4a0 31bc
000001f0: b37d e4bc adf9 983b 35cc 8c3d 1d3b acbc
00000200: 6868 55bd 4ad3 c9bc 73ca 003d cf4a c1bc
00000210: ce90 283d adf5 973d 2e20 4cbc 6db7 ff3c
00000220: c62c 9c3c cffb 1cbd 00ce e43c 22c5 8dbc
00000230: 5f88 b0bc f0af 023d abb1 a9bd 59fd e6bd
00000240: 0696 063d 6b11 9e3c 324f 54bd abb6 8d3d
00000250: 6ae5 0c3d 0b68 413c 4842 e23d 9dc0 323c
00000260: 9a36 c7bd c550 7ebc 11cc 36bd aaab 54bd
00000270: a71a c0bc d728 813d de6a c33d fa7f 5b3d
00000280: 2f54 b4bc f3cc 1b3c 435e afbd e3d5 c53c
00000290: 387e 993d 1cc4 ba3c 76b9 fc3d b089 7f3d
000002a0: 50ab cebd 1429 94bc 7881 2a3e c70f 7d3a
000002b0: 35f4 c6bd e1e0 28bc 7d8c 2dbd 2391 d9bb
000002c0: 0d06 9dbb c783 3fbd 9dc0 953c 34f5 1ebe
000002d0: 4544 6e31 6a03 d8ac 5b27 be2a dec0 1e32
000002e0: 6379 b4ac d6ca a3a9 77c3 e72d b2eb 60aa
000002f0: ab3a 2ca7 8a9d 1f38 8179 9ebb 3ccc a63c
00000300: 61b1 9eba bc8b 003c 692c 1f3d 37d5 c13c
00000310: 8363 7f3c 927f d93b 7d5e 1fbe b593 2f3c
00000320: 8524 33bd 3c20 a6bd de2d d5ba c16b 76bd
00000330: 61ae 0bbd 55fa e6bc 2084 12be 9b3d 123d
00000340: 0490 35bd 8c45 dfbc 207f f23c 8ec3 2f3b
00000350: 48a0 953d 9fa4 6a3d 871a 84bb 1d8e 81bc
00000360: b705 d7bd 62d5 263d e242 e1bb afb3 a6bb
00000370: 5d94 82bd 804e a4bb 2dfb 56bb e64e f2bd
00000380: a717 b63b b7b8 a6bd 53bb 773d c432 903b
00000390: a1e7 b3bc d9a6 e5bc cf78 bdbd b974 9c3d
000003a0: bedf 9bbd 9c97 85bc c3fe 1abc 0ba2 723c
000003b0: 8ba9 13bc 8acd dfbc c356 2fbc da36 893c
000003c0: a525 ddbc ab60 a83d a11a 083c 374a 93bd
000003d0: 5463 a8bd 0875 79bd 27b9 f4bc 11b4 dc3b
000003e0: 24a6 98bd 7a71 afbc 263f 593c 086f 5abd
000003f0: 2ddb b43d c715 7bbd e5c1 03bb 1ce5 84ba

layer2.conv1.bias f4 [32]
-0.02770131 -0.011297934 0.0049695307 -0.009337809 -0.026637737 -0.03297121 -0.044056498 -0.0037379654
-0.010776077 -0.0013703484 -0.017549021 0.03324339 0.046847213 -0.031269826 -0.018996678 -7.70842e-11
0.000688768 -0.002963447 -5.172927e-07 0.034567013 -0.0052911923 -0.00071698683 0.014418876 -0.0049801925
-0.037637115 0.03795346 -0.0035307035 0.0104365945 0.047617782 0.018089741 -0.022705927 -0.028147526
00000000: dced e2bc f81a 39bc 72d7 a23b 9cfd 18bc
00000010: 6237 dabc d20c 07bd 9674 34bd a7f8 74bb
00000020: 258e 30bc 439d b3ba f7c2 8fbc 392a 083d
00000030: dde2 3f3d ca14 00bd ec9e 9bbc 8c82 a9ae
00000040: 708e 343a 6436 42bb 15dc 0ab5 2496 0d3d
00000050: bd61 adbb 2cf4 3bba 263d 6c3c e230 a3bb
00000060: 6029 1abd 1675 1b3d 6063 67bb 40fe 2a3c
00000070: dd0a 433d f030 943c c801 babc a495 e6bc

layer2.conv2.weight f4 [64, 32, 3, 3]
-0.010525619 -0.05944719 -0.07269045 -0.00021644477 -0.014912166 0.027840465 0.0024247563 -0.0013955248
-0.004750591 0.0005032992 0.0028723148 0.023290062 0.0015872449 0.00023045967 0.07439242 -0.006483248
-0.000504658 0.023353709 0.014092571 -0.0077165486 -0.039125655 0.008062551 -0.046288677 -0.040710155
0.00310234 -0.018025734 -0.005573038 -0.0016879283 0.006054216 -0.040203817 0.0032463528 -0.023580518
-0.04896702 0.00028576303 -0.0015353042 -0.0017944402 0.0049192226 -0.0115586 0.02288042 0.009103673
-0.016911156 0.0019126058 0.05018155 0.0007298176 0.000313195 -0.07568027 -0.024244092 -0.017969849
0.019142633 0.036644787 0.024167115 0.023700766 0.0050932737 -0.0033318838 0.02346007 0.04358337
-0.018329699 -0.03651876 0.082268775 -0.044642918 -0.0023305174 -0.018266344 0.012357412 2.1777869e-17
4.3941323e-17 -4.1154894e-05 6.405029e-15 1.5362737e-11 -0.0006737119 -1.2675414e-20 -1.9492259e-19 -2.8102384e-05
-0.036902495 -0.04401704 0.058189902 0.0059371353 0.052036494 0.042694453 0.027764045 0.0013291445
-0.012617324 -0.119452044 0.010045734 -0.0075392183 0.08252693 0.02064879 -0.0043805907 0.010963156
0.005502551 0.008107785 0.0014077632 0.0008156274 0.00010383475 0.0005214024 -0.00021319326 0.00053595233
-0.00010707417 -0.0002245715 -5.0889565e-05 -0.0069502257 -0.012411577 -0.024518361 -0.0034764106 0.048521418
-0.013988644 -0.004576463 0.004549985 -0.013349899 -0.006026832 0.003706991 -0.013568162 -0.028506894
-0.026947686 -0.0059572845 -0.017747099 0.032435942 0.0061116135 -0.0062043816 0.014585347 -0.03135307
0.004181089 0.0022951793 0.019889195 0.013244952 -0.014495715 -0.00471609 0.0028933545 -0.051797703
0.025574552 -0.004701411 0.0037308135 -0.0036651727 0.001354304 0.029677536 0.015020154 3.4212124e-13
1.6689105e-17 4.7194393e-17 -6.7056e-41 -1.37141e-40 -1.8067671e-28 -1.0324e-40 1.40367e-40 -1.5208e-41
0.00513786 0.07535046 0.022394905 -0.014783069 0.036630735 0.0062783463 -0.008016708 0.015987616
-0.0013932796 0.0033393188 0.0037316494 0.004666311 0.001987257 0.0029413458 0.0052405586 -0.0015738796
-0.0020350544 0.0021948451 -0.00012238609 -3.416359e-05 -3.6694075e-08 -4.635714e-05 -1.908776e-06 -2.6349092e-13
-2.9082878e-08 -3.3687337e-15 8.4902e-41 0.0012842104 -0.010080573 0.0045955395 -9.73017e-06 -0.005375255
0.0024205088 0.00020853015 -0.001903953 0.00013567021 -2.451219e-07 1.6973243e-05 -3.2403594e-11 0.00031708417
0.0003574241 -1.3733924e-06 9.506474e-05 1.614693e-05 -8.284283e-05 0.0015831621 -0.0030032403 0.00013144632
0.007315523 -0.0028865885 -0.0045687403 -0.0009812121 -0.0044524446 -0.007274582 -0.07085563 -0.063400954
0.041145805 0.04075733 0.013642797 0.004124415 0.036884855 0.01963121 0.01117233 -0.0027465879
-5.6022404e-06 2.4613483e-08 -0.019941729 0.00010248491 0.0006195519 0.0036867925 -0.00013627381 4.670045e-05
0.00550576 -0.003380385 0.021920417 0.0009418609 -0.004159313 0.0024867582 -0.00076291704 -0.0042145643
-0.0058793034 -0.010498407 0.03145701 0.05765575 0.031422667 -0.0031751283 0.0029242858 0.03040818
-1.7005053e-05 -0.0037898736 0.001468183 -0.042069044 0.08262219 -0.008338688 0.042585798 -0.018605998
-0.013450017 -0.010787114 0.004547708 0.013036674 0.055588264 0.059778094 0.02363639 -0.016875742
-0.03828467 -0.011966673 0.008908955 -0.015620119 -0.04065081 -0.033007488 0.021331858 -0.0039412174
00000000: a573 2cbc e67e 73bd bbde 94bd 73f5 62b9
00000010: 2852 74bc b011 e43c a9e8 1e3b 0bea b6ba
00000020: d8aa 9bbb d6ef 033a 723d 3c3b cdca be3c
00000030: 1a0b d03a 8ca7 7139 0e5b 983d 6d71 d4bb
00000040: 064b 04ba 4750 bf3c 87e4 663c 1adb fcbb
00000050: 3942 20bd ca18 043c 3299 3dbd b1bf 26bd
00000060: a150 4b3b b4aa 93bc 089e b6bb 7a3d ddba
00000070: 7262 c63b c2ac 24bd c3c0 543b ee2b c1bc
00000080: a491 48bd 77d2 9539 433c c9ba 6c33 ebba
00000090: 6e31 a13b 4860 3dbc b86f bb3c 9227 153c
000000a0: 4489 8abc 67b0 fa3a 2b8b 4d3d 3b51 3f3a
000000b0: 5234 a439 42fe 9abd 8c9b c6bc 8135 93bc
000000c0: 03d1 9c3c d818 163d 1dfa c53c 1c28 c23c
000000d0: 7ae5 a63b bc5b 5abb 552f c03c 7a84 323d
000000e0: 2a28 96bc b294 15bd 887c a83d 7edb 36bd
000000f0: 98bb 18bb 4da3 95bc be76 4a3c 8add c823
00000100: c2a4 4a24 bb9d 2cb8 f7c3 e627 cf21 872d
00000110: 0a9c 30ba 8b6e 6f9e bd1f 66a0 69bd ebb7
00000120: 1227 17bd 364b 34bd 8958 6e3d 4d8c c23b
00000130: 3824 553d 61e0 2e3d 6c71 e33c b036 ae3a
00000140: e4b8 4ebc 46a3 f4bd dd96 243c 8c0b f7bb
00000150: e103 a93d a727 a93c 0f8b 8fbb cf9e 333c
00000160: be4e b43b 84d6 043c b284 b83a d4cf 553a
00000170: dbc1 d938 b9ae 083a a18c 5fb9 277f 0c3a
00000180: 028d e0b8 f47a 6bb9 4172 55b8 b8be e3bb
00000190: ed59 4bbc bbda c8bc 7ed4 63bb 65be 463d
000001a0: a030 65bc 27f6 95bb 0a18 953b 89b9 5abc
000001b0: bb7c c5bb fdf0 723b ff4c 5ebc 4a87 e9bc
000001c0: 65c1 dcbc 5335 c3bb 5d62 91bc 8ddb 043d
000001d0: ee43 c83b 204e cbbb 61f7 6e3c 146c 00bd
000001e0: 8401 893b b86a 163b aaee a23c 5b01 593c
000001f0: 6f7f 6dbc 6e89 9abb 6f9e 3d3b d429 54bd
00000200: b981 d13c 4b0e 9abb aa80 743b 6533 70bb
00000210: e782 b13a 4e1e f33c 1817 763c de98 c02a
00000220: 09ee 9923 4ea5 5924 edba 0080 4b7e 0180
00000230: f208 6591 cb1f 0180 4987 0100 652a 0080
00000240: 7e5b a83b 5851 9a3d 8575 b73c af34 72bc
00000250: 1c0a 163d 96ba cd3b 8358 03bc 76f8 823c
00000260: b59e b6ba 79d8 5a3b b08e 743b dbe7 983b
00000270: a43c 023b 98c3 403b feb8 ab3b a34a ceba
00000280: 8c5e 05bb 64d7 0f3b c454 00b9 e04a 0fb8
00000290: 9099 1db3 9a6f 42b8 8618 00b6 0b55 94aa
000002a0: edd1 f9b2 2bbe 72a7 acec 0000 f352 a83a
000002b0: fd28 25bc 2e96 963b c33e 23b7 e822 b0bb
000002c0: 66a1 1e3b e3a8 5a39 108e f9ba b242 0e39
000002d0: 4c99 83b4 c361 8e37 3483 0eae 513e a639
000002e0: a764 bb39 6755 b8b5 7e5d c738 4573 8737
000002f0: e8bb adb8 1b82 cf3a 03d2 44bb dad4 0939
00000300: 0eb7 ef3b eb2c 3dbb 5fb5 95bb 049c 80ba
00000310: d0e5 91bb 9e5f eebb c21c 91bd 5cd8 81bd
00000320: 8188 283d 28f1 263d 0a86 5f3c 1a26 873b
00000330: 9314 173d a2d1 a03c 260c 373c 1900 34bb
00000340: e1fa bbb6 9f6d d332 d65c a3bc 2bed d638
00000350: 6d69 223a 1d9e 713b b9e4 0eb9 3ae0 4338
00000360: aa69 b43b 7389 5dbb 7292 b33c 37e7 763a
00000370: d94a 88bb e1f8 223b 7ffe 47ba 541a 8abb
00000380: 2ca7 c0bb 8301 2cbc 11d9 003d 7028 6c3d
00000390: 0eb5 003d d015 50bb 60a5 3f3b 931a f93c
000003a0: 13a6 8eb7 875f 78bb 0c70 c03a 9750 2cbd
000003b0: d335 a93d fe9e 08bc 726e 2e3d 9b6b 98bc
000003c0: 765d 5cbc 6fbc 30bc f104 953b c697 553c
000003d0: 85b0 633d e0d9 743d 1aa1 c13c ff3e 8abc
000003e0: 63d0 1cbd dd0f 44bc def6 113c 87eb 7fbc
000003f0: 7781 26bd dc32 07bd 26c0 ae3c 5425 81bb

layer2.conv2.bias f4 [64]
0.02792014 -0.05729477 -0.017160669 -0.012962194 -0.017258307 0.013559768 0.008658987 -0.029412366
-6.226118e-08 -0.014996855 -0.018351259 0.0010345675 0.03269656 -0.03563007 -0.02212493 -0.010239573
-0.019433167 0.026021639 0.0034326073 -0.012358548 -0.038827036 -0.008754275 0.01972748 0.0026936906
-0.013860213 -0.009857188 -0.039249737 0.043624256 0.0037244025 -0.038955595 -0.050498586 0.0030227841
-1.6600248e-15 0.019877855 0.027115665 -0.039676946 0.06861321 -0.0035154298 0.036613107 -0.05793077
-0.019629538 0.05599895 0.039540295 -0.014756265 -0.03997712 -0.04648233 0.046610884 0.007973243
-0.015249034 -0.0053058793 -0.02004 -0.027023533 0.0004468379 0.0068248124 0.04313939 -0.016771901
-0.024658207 -0.018609291 -1.4052689e-17 -0.037780553 -0.010823338 -0.0033664335 0.03774136 -0.020601306
00000000: c7b8 e43c ecad 6abd 8894 8cbc 625f 54bc
00000010: 4b61 8dbc ca29 5e3c 6cde 0d3c 34f2 f0bc
00000020: 72b4 85b3 5eb5 75bc 6155 96bc 539a 873a
00000030: d4ec 053d d6f0 11bd 573f b5bc e2c3 27bc
00000040: 4e32 9fbc 552b d53c 98f5 603b 827b 4abc
00000050: 1909 1fbd 176e 0fbc 869b a13c a188 303b
00000060: f215 63bc 0b80 21bc 55c4 20bd 59af 323d
00000070: 1b15 743b e78f 1fbd 9bd7 4ebd e719 463b
00000080: 1b3c efa6 e2d6 a23c ac21 de3c 4b84 22bd
00000090: 1585 8c3d 2063 66bb a0f7 153d d148 6dbd
000000a0: 20ce a0bc 285f 653d 01f5 213d 43c4 71bc
000000b0: 0cbf 23bd 4164 3ebd 0eeb 3e3d 34a2 023c
000000c0: 16d7 79bc f1dc adbb ed2a a4bc 7560 ddbc
000000d0: 9145 ea39 ada2 df3b eeb2 303d 3a65 89bc
000000e0: 0200 cabc 8372 98bc f99c 81a3 c8bf 1abd
000000f0: 5f54 31bc 629f 5cbb af96 1a3d 12c4 a8bc

fc1.weight f4 [1, 3200]
0.0009946281 -0.0024175814 -0.00048730828 -0.0006702853 0.0006165938 0.002996325 -0.003838922 -0.003942962
-0.0039551556 0.005378049 0.0003294341 0.0023629689 -0.0014539704 0.0039418247 0.0016657902 -0.0059230933
-0.0070240838 -0.0051792976 -0.00012796863 0.002587561 0.011828884 0.0006066009 0.0037086676 0.0012957258
-0.0013832143 -0.0002799564 0.006494652 0.00047402768 0.0042486666 0.0033219834 0.011169873 -0.018030422
-0.00835338 -0.004809188 -0.078226544 -0.009328417 0.00029568875 -0.0014156095 0.010739916 0.03681611
0.0061097885 0.00016004656 0.0016323491 -0.050629165 -0.10392677 -0.03847227 -0.0016952149 0.012840593
-0.011597079 0.03279266 0.0038801306 -0.0013690294 0.0106022 0.02233484 0.08782347 -0.0032568297
0.019236097 -0.00012791765 0.0005987428 -0.0008549879 0.004272699 -0.0021211654 0.0005964494 0.029659817
0.09899831 0.0831881 0.07657212 -0.003200984 -0.006148208 -0.031892564 0.009219882 -0.0005448968
-0.00040530032 0.085897125 0.08052377 0.07209193 0.07059007 -0.00050177035 0.0014800796 -7.769116e-08
0.020187927 0.0024519213 -1.279289e-05 0.043266837 0.09954644 0.06868624 0.02414939 -0.0026575136
-0.014867871 6.636038e-21 -0.0019243557 4.7483e-41 0.00048799775 -0.014842414 0.01578532 -1.61047e-40
-1.11179e-40 -0.00044578576 -0.008898793 1.92688e-40 -0.0021236625 0.0005415396 -0.00017424017 0.008542943
0.003899765 -0.042138778 0.0055778665 0.0018012172 -0.00020698764 -0.016744139 -0.010472623 -0.009898216
1.0374e-41 -0.027299864 -0.061268214 0.020557074 0.0536701 1.14377e-40 0.0011769098 -0.032655284
-0.025550066 -0.010499333 -7.0865597e-23 2.03609e-40 -0.13447744 0.027029134 -0.02670736 -3.5796506e-15
1.3465e-41 -0.037922017 -0.00359008 -0.008565507 -4.2955e-41 1.71736e-40 -0.110365815 0.058916196
-0.0281666 -5.7724e-41 7.0076e-41 -0.007808201 -0.002732564 0.002962648 -1.16624e-40 6.2806e-41
0.04696082 -0.009294743 -0.016243242 1.91555e-40 2.28166e-40 -0.025378985 0.028707938 -0.0107936
0.009312106 0.0042826696 0.0025610018 0.014450836 -0.016771222 0.01299567 0.0003336134 0.0038606771
0.0047169575 0.010120812 0.00037001548 1.17433e-40 -0.0017847618 -0.013787132 -0.016778572 -0.006575391
-1.97921e-40 0.0005855438 -0.011424776 -2.7355889e-06 1.18782e-40 -0.0014889651 -0.029154822 0.017651496
-0.03184172 -5.1785e-41 -1.7125325e-05 -0.004007652 -0.013328003 -0.007812965 -1.36526e-40 0.0006856544
0.02854962 -0.055492673 -0.052408565 1.35234e-40 -0.000580453 0.0031134705 0.010992183 -0.013636187
0.000121438636 -0.0030743692 0.011847681 0.06495108 -0.024990397 -0.005362671 0.002303076 -0.019680792
-0.0036695302 -0.01676993 -0.0066158604 0.020550316 -0.019054284 0.05521876 0.014901837 -0.01102769
0.01280224 -0.006479219 -0.02148725 -0.035587303 -0.001020156 -0.007891472 0.054751802 0.11923722
0.027180897 0.013576702 0.0032400852 -0.00093800866 -0.0047644717 0.005762674 -0.003366561 -0.020862747
0.041648373 0.1141125 -0.016205112 -0.0015595581 0.012836165 -0.0024609538 -0.016198 0.009469967
-0.016385036 -0.0064672297 0.03333217 -0.11821226 -0.008390166 -0.020538885 -0.015900401 0.009057327
-0.0017801381 -0.00025501172 -0.002059599 -0.05851393 -0.067736775 -0.10107993 0.0029707118 0.0015970195
0.014094982 -0.015508548 2.0568383e-10 -0.0008254739 0.0008227257 -0.0025209002 -0.014719363 0.04883323
00000000: 2e5e 823a 4970 1ebb 697d ffb9 16b6 2fba
00000010: e9a2 213a fe5d 443b 6c96 7bbb f633 81bb
00000020: 409a 81bb 583a b03b e5b7 ac39 0adc 1a3b
00000030: 2793 beba 6c2a 813b a556 da3a 8216 c2bb
00000040: 492a e6bb 19b7 a9bb 512f 06b9 1294 293b
00000050: efcd 413c 4c04 1f3a 1e0d 733b 58d5 a93a
00000060: f84c b5ba 1dc7 92b9 17d1 d43b eb86 f839
00000070: 6638 8b3b a2b5 593b d801 373c 89b4 93bc
00000080: 9ddc 08bc 6596 9dbb 3d35 a0bd 37d6 18bc
00000090: ac06 9b39 f98b b9ba 79f6 2f3c 7dcc 163d
000000a0: 9f34 c83b 2cd2 2739 8cf4 d53a 8760 4fbd
000000b0: 8fd7 d4bd 1995 1dbd f931 deba 5a61 523c
000000c0: ad01 3ebc 9951 063d ca49 7e3b 0171 b3ba
000000d0: dab4 2d3c 8ef7 b63c cbdc b33d 8970 55bb
000000e0: 0595 9d3c a221 06b9 f3f4 1c3a 4421 60ba
000000f0: ff01 8c3b 4003 0bbb 0b5b 1c3a 25f9 f23c
00000100: a0bf ca3d 865e aa3d d8d1 9c3d 9ac7 51bb
00000110: e876 c9bb c7a1 02bd fd0e 173c 68d7 0eba
00000120: 7d7e d4b9 d5ea af3d a5e9 a43d efa4 933d
00000130: 8791 903d 3d89 03ba 3bff c13a 2bd7 a6b3
00000140: 2761 a53c 6ab0 203b 0ba1 56b7 9138 313d
00000150: 01df cb3d 5fab 8c3d f1d4 c53c ae29 2ebb
00000160: 5f98 73bc d2b3 fa1d aa3a fcba 5d84 0000
00000170: f3d9 ff39 992d 73bc 3750 813c efc0 0180
00000180: ec35 0180 5ab8 e9b9 3ecc 11bc 2319 0200
00000190: 252d 0bbb 1bf6 0d3a 3db4 36b9 b3f7 0b3c
000001a0: 3393 7f3b b699 2cbd 89c6 b63b d216 ec3a
000001b0: d20a 59b9 012b 89bc 5d95 2bbc 212c 22bc
000001c0: eb1c 0000 f7a3 dfbc 61f4 7abd 4f67 a83c
000001d0: 2ed5 5b3d d63e 0100 8a42 9a3a 8cc1 05bd
000001e0: 5f4e d1bc 6505 2cbc ae57 ab9a 9437 0200
000001f0: 74b4 09be 346c dd3c 65c9 dabc 73f8 80a7
00000200: 8925 0000 1e54 1bbd 8c47 6bbb 5756 0cbc
00000210: be77 0080 bbde 0100 7907 e2bd 1c52 713d
00000220: a4bd e6bc e9a0 0080 58c3 0000 f0db ffbb
00000230: d114 33bb fc28 423b 1a45 0180 14af 0000
00000240: fd59 403d fa48 18bc 8c10 85bc fa15 0200
00000250: 097c 0200 97e7 cfbc e92c eb3c a4d7 30bc
00000260: ce91 183c a355 8c3b 7bd6 273b 33c3 6c3c
00000270: cd63 89bc caeb 543c d5e8 ae39 6a03 7d3b
00000280: b590 9a3b c3d1 253c a3fe c139 5b47 0100
00000290: abee e9ba 6ce3 61bc 3773 89bc 6176 d7bb
000002a0: b927 0280 2e7f 193a fc2e 3bbc 0f95 37b6
000002b0: 1e4b 0100 6129 c3ba 18d6 eebc df99 903c
000002c0: 776c 02bd 5b90 0080 5ba8 8fb7 9f52 83bb
000002d0: b25d 5abc f301 00bc 947c 0180 7dbd 333a
000002e0: e5e0 e93c 494c 63bd 5daa 56bd fa78 0100
000002f0: 8b29 18ba 5e0b 4c3b 8f18 343c 506a 5fbc
00000300: dfac fe38 5b7b 49bb c71c 423c 1205 853d
00000310: a9b8 ccbc 58b9 afbb 34ef 163b 9d39 a1bc
00000320: 807c 70bb 1861 89bc dcc9 d8bb 2359 a83c
00000330: bb17 9cbc 112d 623d d626 743c 7cad 34bc
00000340: 7dc0 513c a14f d4bb 0806 b0bc fec3 11bd
00000350: c1b6 85ba 3c4b 01bc 6d43 603d a532 f43d
00000360: 79aa de3c d170 5e3c 9c57 543b b2e4 75ba
00000370: 491f 9cbb d0d4 bc3b 85a1 5cbb 5ae8 aabc
00000380: 7c97 2a3d d0b3 e93d 95c0 84bc 166a ccba
00000390: c74e 523c f447 21bb abb1 84bc ec27 1b3c
000003a0: e939 86bc 0eeb d3bb 5087 083d 4519 f2bd
000003b0: e876 09bc 2a41 a8bc 8f41 82bc 2f65 143c
000003c0: 8653 e9ba 18b3 85b9 56fa 06bb 4dac 6fbd
000003d0: 94b9 8abd ff02 cfbd 46b0 423b 1553 d13a
000003e0: a4ee 663c 9117 7ebc da26 622f 9e64 58ba
000003f0: 30ac 573a b035 25bb 7c29 71bc 5a05 483d

out.0.weight f4 [1, 3200]
0.0009946281 -0.0024175814 -0.00048730828 -0.0006702853 0.0006165938 0.002996325 -0.003838922 -0.003942962
-0.0039551556 0.005378049 0.0003294341 0.0023629689 -0.0014539704 0.0039418247 0.0016657902 -0.0059230933
-0.0070240838 -0.0051792976 -0.00012796863 0.002587561 0.011828884 0.0006066009 0.0037086676 0.0012957258
-0.0013832143 -0.0002799564 0.006494652 0.00047402768 0.0042486666 0.0033219834 0.011169873 -0.018030422
-0.00835338 -0.004809188 -0.078226544 -0.009328417 0.00029568875 -0.0014156095 0.010739916 0.03681611
0.0061097885 0.00016004656 0.0016323491 -0.050629165 -0.10392677 -0.03847227 -0.0016952149 0.012840593
-0.011597079 0.03279266 0.0038801306 -0.0013690294 0.0106022 0.02233484 0.08782347 -0.0032568297
0.019236097 -0.00012791765 0.0005987428 -0.0008549879 0.004272699 -0.0021211654 0.0005964494 0.029659817
0.09899831 0.0831881 0.07657212 -0.003200984 -0.006148208 -0.031892564 0.009219882 -0.0005448968
-0.00040530032 0.085897125 0.08052377 0.07209193 0.07059007 -0.00050177035 0.0014800796 -7.769116e-08
0.020187927 0.0024519213 -1.279289e-05 0.043266837 0.09954644 0.06868624 0.02414939 -0.0026575136
-0.014867871 6.636038e-21 -0.0019243557 4.7483e-41 0.00048799775 -0.014842414 0.01578532 -1.61047e-40
-1.11179e-40 -0.00044578576 -0.008898793 1.92688e-40 -0.0021236625 0.0005415396 -0.00017424017 0.008542943
0.003899765 -0.042138778 0.0055778665 0.0018012172 -0.00020698764 -0.016744139 -0.010472623 -0.009898216
1.0374e-41 -0.027299864 -0.061268214 0.020557074 0.0536701 1.14377e-40 0.0011769098 -0.032655284
-0.025550066 -0.010499333 -7.0865597e-23 2.03609e-40 -0.13447744 0.027029134 -0.02670736 -3.5796506e-15
1.3465e-41 -0.037922017 -0.00359008 -0.008565507 -4.2955e-41 1.71736e-40 -0.110365815 0.058916196
-0.0281666 -5.7724e-41 7.0076e-41 -0.007808201 -0.002732564 0.002962648 -1.16624e-40 6.2806e-41
0.04696082 -0.009294743 -0.016243242 1.91555e-40 2.28166e-40 -0.025378985 0.028707938 -0.0107936
0.009312106 0.0042826696 0.0025610018 0.014450836 -0.016771222 0.01299567 0.0003336134 0.0038606771
0.0047169575 0.010120812 0.00037001548 1.17433e-40 -0.0017847618 -0.013787132 -0.016778572 -0.006575391
-1.97921e-40 0.0005855438 -0.011424776 -2.7355889e-06 1.18782e-40 -0.0014889651 -0.029154822 0.017651496
-0.03184172 -5.1785e-41 -1.7125325e-05 -0.004007652 -0.013328003 -0.007812965 -1.36526e-40 0.0006856544
0.02854962 -0.055492673 -0.052408565 1.35234e-40 -0.000580453 0.0031134705 0.010992183 -0.013636187
0.000121438636 -0.0030743692 0.011847681 0.06495108 -0.024990397 -0.005362671 0.002303076 -0.019680792
-0.0036695302 -0.01676993 -0.0066158604 0.020550316 -0.019054284 0.05521876 0.014901837 -0.01102769
0.01280224 -0.006479219 -0.02148725 -0.035587303 -0.001020156 -0.007891472 0.054751802 0.11923722
0.027180897 0.013576702 0.0032400852 -0.00093800866 -0.0047644717 0.005762674 -0.003366561 -0.020862747
0.041648373 0.1141125 -0.016205112 -0.0015595581 0.012836165 -0.0024609538 -0.016198 0.009469967
-0.016385036 -0.0064672297 0.03333217 -0.11821226 -0.008390166 -0.020538885 -0.015900401 0.009057327
-0.0017801381 -0.00025501172 -0.002059599 -0.05851393 -0.067736775 -0.10107993 0.0029707118 0.0015970195
0.014094982 -0.015508548 2.0568383e-10 -0.0008254739 0.0008227257 -0.0025209002 -0.014719363 0.04883323
00000000: 2e5e 823a 4970 1ebb 697d ffb9 16b6 2fba
00000010: e9a2 213a fe5d 443b 6c96 7bbb f633 81bb
00000020: 409a 81bb 583a b03b e5b7 ac39 0adc 1a3b
00000030: 2793 beba 6c2a 813b a556 da3a 8216 c2bb
00000040: 492a e6bb 19b7 a9bb 512f 06b9 1294 293b
00000050: efcd 413c 4c04 1f3a 1e0d 733b 58d5 a93a
00000060: f84c b5ba 1dc7 92b9 17d1 d43b eb86 f839
00000070: 6638 8b3b a2b5 593b d801 373c 89b4 93bc
00000080: 9ddc 08bc 6596 9dbb 3d35 a0bd 37d6 18bc
00000090: ac06 9b39 f98b b9ba 79f6 2f3c 7dcc 163d
000000a0: 9f34 c83b 2cd2 2739 8cf4 d53a 8760 4fbd
000000b0: 8fd7 d4bd 1995 1dbd f931 deba 5a61 523c
000000c0: ad01 3ebc 9951 063d ca49 7e3b 0171 b3ba
000000d0: dab4 2d3c 8ef7 b63c cbdc b33d 8970 55bb
000000e0: 0595 9d3c a221 06b9 f3f4 1c3a 4421 60ba
000000f0: ff01 8c3b 4003 0bbb 0b5b 1c3a 25f9 f23c
00000100: a0bf ca3d 865e aa3d d8d1 9c3d 9ac7 51bb
00000110: e876 c9bb c7a1 02bd fd0e 173c 68d7 0eba
00000120: 7d7e d4b9 d5ea af3d a5e9 a43d efa4 933d
00000130: 8791 903d 3d89 03ba 3bff c13a 2bd7 a6b3
00000140: 2761 a53c 6ab0 203b 0ba1 56b7 9138 313d
00000150: 01df cb3d 5fab 8c3d f1d4 c53c ae29 2ebb
00000160: 5f98 73bc d2b3 fa1d aa3a fcba 5d84 0000
00000170: f3d9 ff39 992d 73bc 3750 813c efc0 0180
00000180: ec35 0180 5ab8 e9b9 3ecc 11bc 2319 0200
00000190: 252d 0bbb 1bf6 0d3a 3db4 36b9 b3f7 0b3c
000001a0: 3393 7f3b b699 2cbd 89c6 b63b d216 ec3a
000001b0: d20a 59b9 012b 89bc 5d95 2bbc 212c 22bc
000001c0: eb1c 0000 f7a3 dfbc 61f4 7abd 4f67 a83c
000001d0: 2ed5 5b3d d63e 0100 8a42 9a3a 8cc1 05bd
000001e0: 5f4e d1bc 6505 2cbc ae57 ab9a 9437 0200
000001f0: 74b4 09be 346c dd3c 65c9 dabc 73f8 80a7
00000200: 8925 0000 1e54 1bbd 8c47 6bbb 5756 0cbc
00000210: be77 0080 bbde 0100 7907 e2bd 1c52 713d
00000220: a4bd e6bc e9a0 0080 58c3 0000 f0db ffbb
00000230: d114 33bb fc28 423b 1a45 0180 14af 0000
00000240: fd59 403d fa48 18bc 8c10 85bc fa15 0200
00000250: 097c 0200 97e7 cfbc e92c eb3c a4d7 30bc
00000260: ce91 183c a355 8c3b 7bd6 273b 33c3 6c3c
00000270: cd63 89bc caeb 543c d5e8 ae39 6a03 7d3b
00000280: b590 9a3b c3d1 253c a3fe c139 5b47 0100
00000290: abee e9ba 6ce3 61bc 3773 89bc 6176 d7bb
000002a0: b927 0280 2e7f 193a fc2e 3bbc 0f95 37b6
000002b0: 1e4b 0100 6129 c3ba 18d6 eebc df99 903c
000002c0: 776c 02bd 5b90 0080 5ba8 8fb7 9f52 83bb
000002d0: b25d 5abc f301 00bc 947c 0180 7dbd 333a
000002e0: e5e0 e93c 494c 63bd 5daa 56bd fa78 0100
000002f0: 8b29 18ba 5e0b 4c3b 8f18 343c 506a 5fbc
00000300: dfac fe38 5b7b 49bb c71c 423c 1205 853d
00000310: a9b8 ccbc 58b9 afbb 34ef 163b 9d39 a1bc
00000320: 807c 70bb 1861 89bc dcc9 d8bb 2359 a83c
00000330: bb17 9cbc 112d 623d d626 743c 7cad 34bc
00000340: 7dc0 513c a14f d4bb 0806 b0bc fec3 11bd
00000350: c1b6 85ba 3c4b 01bc 6d43 603d a532 f43d
00000360: 79aa de3c d170 5e3c 9c57 543b b2e4 75ba
00000370: 491f 9cbb d0d4 bc3b 85a1 5cbb 5ae8 aabc
00000380: 7c97 2a3d d0b3 e93d 95c0 84bc 166a ccba
00000390: c74e 523c f447 21bb abb1 84bc ec27 1b3c
000003a0: e939 86bc 0eeb d3bb 5087 083d 4519 f2bd
000003b0: e876 09bc 2a41 a8bc 8f41 82bc 2f65 143c
000003c0: 8653 e9ba 18b3 85b9 56fa 06bb 4dac 6fbd
000003d0: 94b9 8abd ff02 cfbd 46b0 423b 1553 d13a
000003e0: a4ee 663c 9117 7ebc da26 622f 9e64 58ba
000003f0: 30ac 573a b035 25bb 7c29 71bc 5a05 483d

exp_avg f4 [32, 2, 5, 5]
-0.001247119 -0.00080404966 -0.00039889503 -0.00010188669 9.145097e-05 -0.0013605215 -0.00085201464 -0.0003896066
-2.5352345e-05 0.00019766479 -0.0012904347 -0.0007504278 -0.00025720193 0.000117808035 0.00036125045 -0.0011832003
-0.0006243335 -0.0001431604 0.00024426082 0.00047109934 -0.00096931896 -0.00046564956 2.555284e-05 0.0003772404
0.0005656564 -0.0010810206 -0.0007282015 -0.00036529463 -0.00012113422 0.0001009245 -0.0012224992 -0.00083581236
-0.0003986833 -0.00011985349 0.00013549329 -0.0011901981 -0.00075962045 -0.0002905621 2.0830053e-05 0.00031110854
-0.0010917389 -0.0006821962 -0.00019191804 0.00011777434 0.0003939784 -0.00093745417 -0.0004993614 -8.1658e-05
0.00023212732 0.0005115456 8.529692e-05 4.9814866e-05 -5.0295926e-06 -6.0692248e-05 -0.00013565204 0.00013510665
7.9317826e-05 2.0650039e-05 -4.3025437e-05 -9.970857e-05 0.0001801269 0.0001195955 6.006451e-05 6.034441e-06
-3.8880786e-05 0.00022843406 0.0001525251 0.000100620004 5.8870322e-05 1.6178341e-05 0.00025301482 0.00018422845
0.00012710286 9.4878014e-05 7.509632e-05 6.555153e-05 1.1179965e-05 -6.22944e-05 -0.00014361151 -0.00022633781
9.81129e-05 3.5389818e-05 -4.747998e-05 -0.00011984243 -0.00019477653 0.0001357347 6.314419e-05 -1.5021138e-05
-7.708408e-05 -0.00014688267 0.0001829358 0.0001103622 2.9622515e-05 -2.7784243e-05 -7.5274096e-05 0.00023414081
0.00015247885 7.794715e-05 2.0347139e-05 -1.1046281e-05 -0.00015857881 -0.00021230118 -0.00050620205 -0.0009496071
-0.0014150756 -0.00024563653 -0.0003261009 -0.0006203109 -0.0011281733 -0.0016286114 -0.00026852285 -0.0003311064
-0.0006508799 -0.0011347848 -0.0016475155 -0.00016581894 -0.00026491936 -0.00057040254 -0.0010486613 -0.0015213438
-2.5768168e-05 -0.00012125929 -0.00041318798 -0.000838819 -0.0012993992 -0.00013271996 -0.00014533463 -0.00038402792
-0.00081858074 -0.0012789428 -0.00024688628 -0.0002569124 -0.0005442113 -0.0009782895 -0.0014793024 -0.0002607445
-0.00031052943 -0.000578419 -0.00105026 -0.0015280609 -0.00021240734 -0.00026035402 -0.00053506717 -0.00096626487
-0.0014319432 -5.9775502e-05 -0.00016315519 -0.0004236584 -0.00082638545 -0.0012192368 0.00017657007 -7.904122e-05
-0.00022590617 -0.00030383063 -0.0002944866 0.00023021817 -5.253315e-05 -0.00022700816 -0.0003334109 -0.00035117075
0.00022453858 -5.6721867e-05 -0.00022993561 -0.00034511994 -0.00038680152 0.000200204 -6.5843764e-05 -0.00025105194
-0.00037780008 -0.00041594004 0.00015846141 -9.46356e-05 -0.00026247193 -0.00038651688 -0.0004484919 0.0002518475
-1.8502185e-05 -0.00020048734 -0.00029993872 -0.00030771588 0.0002890904 6.6832166e-07 -0.00019127625 -0.00032098184
-0.00035529054 0.0003024177 8.126772e-06 -0.00021103381 -0.00035123344 -0.0004022915 0.00027190498 -1.3712025e-05
-0.00022275824 -0.0003601034 -0.0004467559 0.00020595481 -4.7883026e-05 -0.00025350694 -0.00040021222 -0.00046734253
-0.00020687384 -0.0005161132 -0.0008080468 -0.0011369594 -0.0014924238 -0.00020009738 -0.00059802365 -0.00092962245
-0.001371194 -0.0018572573 -0.0002046683 -0.0006013083 -0.0010057314 -0.0014793407 -0.0019943449 -0.00014718935
-0.00057523284 -0.0009880973 -0.0014409048 -0.0019243945 -8.677975e-05 -0.0005217918 -0.00092567026 -0.0013433982
-0.0017424715 -0.00014331937 -0.0005095783 -0.00087680045 -0.0012922018 -0.0017681965 -0.00018788497 -0.00057662214
-0.0010261106 -0.0015239952 -0.0021020314 -0.00013849267 -0.00060104596 -0.0010560339 -0.0015808875 -0.0022059693
-8.076267e-05 -0.0005768088 -0.0010197618 -0.0015232649 -0.0020955729 -2.6298381e-05 -0.0005324 -0.0009587959
-0.001429384 -0.0019036693 -0.0009061359 -0.000959663 -0.0008779152 -0.0006748825 -0.00033989912 -0.0009528851
00000000: 5f76 a3ba dcc6 52ba c922 d1b9 00ac d5b8
00000010: 5ec9 bf38 8753 b2ba bc59 5fba 1d44 ccb9
00000020: bfab d4b7 3d44 4f39 ce23 a9ba 5bb8 44ba
00000030: 0fd9 86b9 b50f f738 3766 bd39 9d15 9bba
00000040: 50aa 23ba 541d 16b9 2210 8039 e2fd f639
00000050: e519 7eba 6d22 f4b9 4e5a d637 59c8 c539
00000060: 8f48 143a 08b1 8dba c7e4 3eba 0485 bfb9
00000070: 7009 feb8 6ea7 d338 443c a0ba 6b1a 5bba
00000080: 5e06 d1b9 da59 fbb8 3413 0e39 6c00 9cba
00000090: 4421 47ba 9656 98b9 33bc ae37 481c a339
000000a0: ae18 8fba 69d5 32ba 9b3d 49b9 9efd f638
000000b0: e38e ce39 7cbf 75ba 94e7 02ba ce3f abb8
000000c0: 3467 7339 3e19 063a 6fe1 b238 4ef0 5038
000000d0: dfc3 a8b6 ce8f 7eb8 d13d 0eb9 6aab 0d39
000000e0: 6f57 a638 9f39 ad37 3676 34b8 a21a d1b8
000000f0: 72e0 3c39 58cf fa38 c7ed 7b38 747b ca36
00000100: ed13 23b8 cd87 6f39 25ef 1f39 f403 d338
00000110: 87eb 7638 b9b6 8737 13a7 8439 732d 4139
00000120: ea46 0539 3ff9 c638 087d 9d38 b678 8938
00000130: 9691 3b37 0da4 82b8 6c96 16b9 1855 6db9
00000140: f6c1 cd38 876f 1438 3e25 47b8 ea53 fbb8
00000150: ed3c 4cb9 0254 0e39 476c 8438 4c03 7cb7
00000160: 33a8 a1b8 8404 1ab9 74d2 3f39 4172 e738
00000170: de7d f837 3512 e9b7 79dc 9db8 b283 7539
00000180: bbe2 1f39 8f77 a338 26af aa37 6a53 39b7
00000190: 2d48 26b9 2a9d 5eb9 a5b2 04ba 0eef 78ba
000001a0: 0f7a b9ba c7c8 80b9 86f8 aab9 5c9c 22ba
000001b0: 37df 93ba 2177 d5ba 87c8 8cb9 5998 adb9
000001c0: d09f 2aba 0fbd 94ba 72f1 d7ba afdf 2db9
000001d0: e0e4 8ab9 1187 15ba 3c73 89ba d467 c7ba
000001e0: b828 d8b7 964c feb8 27a1 d8b9 31e4 5bba
000001f0: 9a50 aaba be2a 0bb9 f864 18b9 5b57 c9b9
00000200: 0696 56ba 33a2 a7ba 8470 81b9 33b2 86b9
00000210: 67a9 0eba f339 80ba 27e5 c1ba 89b4 88b9
00000220: 8ece a2b9 0ba1 17ba e1a8 89ba 3749 c8ba
00000230: a9b9 5eb9 2080 88b9 c043 0cba f04c 7dba
00000240: 0ab0 bbba 75b7 7ab8 a314 2bb9 781e deb9
00000250: caa1 58ba ccce 9fba ab25 3939 efc2 a5b8
00000260: 3ae1 6cb9 754b 9fb9 5365 9ab9 b866 7139
00000270: 0a57 5cb8 0a09 6eb9 a7cd aeb9 571d b8b9
00000280: 1e72 6b39 a4e8 6db8 df1a 71b9 37f1 b4b9
00000290: 9fcb cab9 daed 5139 9a15 8ab8 9f9f 83b9
000002a0: 7813 c6b9 8712 dab9 a928 2639 1a77 c6b8
000002b0: 639c 89b9 6ba5 cab9 9023 ebb9 660a 8439
000002c0: 2435 9bb7 e939 52b9 1841 9db9 ed54 a1b9
000002d0: 0f91 9739 b766 3335 5491 48b9 7449 a8b9
000002e0: 4a46 bab9 d18d 9e39 3858 0837 f548 5db9
000002f0: c125 b8b9 a7ea d2b9 788e 8e39 b30c 66b7
00000300: 3694 69b9 43cc bcb9 903a eab9 93f5 5739
00000310: 02d6 48b8 20e9 84b9 93d3 d1b9 a705 f5b9
00000320: 46ec 58b9 c54b 07ba 1ad3 53ba 0706 95ba
00000330: 6f9d c3ba 3bd1 51b9 b0c4 1cba e8b1 73ba
00000340: a3b9 b3ba 376f f3ba 3a9c 56b9 1ea1 1dba
00000350: bfd2 83ba 70e6 c1ba 8eb3 02bb d756 1ab9
00000360: 39cb 16ba 0b83 81ba bedc bcba f73b fcba
00000370: 86fd b5b8 dbc8 08ba aea8 72ba f714 b0ba
00000380: a463 e4ba 0048 16b9 3995 05ba 15d9 65ba
00000390: 195f a9ba d4c2 e7ba fd02 45b9 7528 17ba
000003a0: 8f7e 86ba cbc0 c7ba 3cc2 09bb 5838 11b9
000003b0: 838f 1dba 9e6a 8aba c835 cfba 0692 10bb
000003c0: 215f a9b8 fc34 17ba 87a9 85ba 4aa8 c7ba
000003d0: e155 09bb 589b dcb7 c290 0bba b457 7bba
000003e0: 2b5a bbba 8b84 f9ba c089 6dba e591 7bba
000003f0: e423 66ba 99ea 30ba 7d34 b2b9 09cb 79ba

exp_avg_sq f4 [32, 2, 5, 5]
1.8086757e-05 1.199912e-05 7.1887052e-06 4.4736016e-06 3.9297333e-06 1.8145443e-05 1.2042006e-05 7.1082163e-06
4.08366e-06 3.000498e-06 1.597706e-05 1.0698822e-05 6.4662613e-06 3.7305167e-06 2.5196396e-06 1.25925835e-05
8.565483e-06 5.3842505e-06 3.28967e-06 2.3164757e-06 9.564917e-06 6.712945e-06 4.491494e-06 3.052055e-06
2.3590562e-06 2.2983986e-05 1.6347549e-05 1.0131336e-05 5.8811165e-06 4.195161e-06 2.25443e-05 1.5801312e-05
9.563073e-06 5.1991387e-06 3.180833e-06 1.9132098e-05 1.3241512e-05 7.878373e-06 4.165787e-06 2.3948705e-06
1.4174793e-05 9.679811e-06 5.732948e-06 3.1321215e-06 1.9362005e-06 9.786386e-06 6.6522257e-06 4.0673094e-06
2.466429e-06 1.834788e-06 2.883565e-07 2.2577375e-07 3.100101e-07 6.1348834e-07 1.1845872e-06 3.516516e-07
2.765091e-07 3.9263364e-07 7.7695927e-07 1.4682219e-06 4.204975e-07 3.2126366e-07 4.249605e-07 8.0158554e-07
1.4625454e-06 4.92071e-07 3.5071352e-07 3.942423e-07 6.703828e-07 1.1687767e-06 5.465519e-07 3.6206785e-07
3.2874854e-07 4.6805104e-07 7.5310317e-07 2.9493637e-07 2.2552052e-07 3.2330732e-07 6.59434e-07 1.2821275e-06
3.5916662e-07 2.792231e-07 4.0564433e-07 8.183372e-07 1.5482962e-06 4.3280193e-07 3.2633255e-07 4.359665e-07
8.2966176e-07 1.5155558e-06 5.1141393e-07 3.6147503e-07 4.0615473e-07 6.9185967e-07 1.1979655e-06 5.7596185e-07
3.8268394e-07 3.4661576e-07 4.9120496e-07 7.778204e-07 4.2311876e-06 3.4992274e-06 3.188223e-06 5.2636615e-06
1.1535768e-05 4.661498e-06 3.7883603e-06 3.3463793e-06 5.6111257e-06 1.2801378e-05 4.641436e-06 3.8178914e-06
3.1058037e-06 4.7101457e-06 1.1007842e-05 4.0108425e-06 3.454676e-06 2.7248002e-06 3.6520025e-06 8.345897e-06
3.3326735e-06 3.0855244e-06 2.4411877e-06 2.7378483e-06 5.610478e-06 3.6641384e-06 3.1655795e-06 3.2040666e-06
4.963071e-06 1.0129511e-05 4.0457403e-06 3.3818403e-06 3.3814358e-06 5.348793e-06 1.1341008e-05 3.9115453e-06
3.3473148e-06 3.1807547e-06 4.677727e-06 9.928606e-06 3.2476134e-06 2.9244131e-06 2.7344745e-06 3.6920121e-06
7.6259266e-06 2.5688178e-06 2.5431268e-06 2.3588047e-06 2.789914e-06 5.233543e-06 7.4751637e-07 4.0825478e-07
3.634838e-07 3.9566112e-07 3.7963287e-07 8.001749e-07 4.2815225e-07 3.8621505e-07 4.4699448e-07 4.4755205e-07
9.03951e-07 5.04153e-07 4.4719278e-07 5.1850276e-07 5.3283287e-07 1.0316875e-06 6.075141e-07 5.2080395e-07
5.9325924e-07 6.2125946e-07 1.1351767e-06 7.1005627e-07 6.0262596e-07 6.635429e-07 6.9625e-07 1.0106787e-06
5.0605786e-07 3.8866168e-07 4.1938765e-07 4.494843e-07 1.1167813e-06 5.4110615e-07 4.0794427e-07 4.5348634e-07
5.0420374e-07 1.2038475e-06 6.0126825e-07 4.518486e-07 5.0975484e-07 5.8662073e-07 1.2469607e-06 6.5438e-07
5.059674e-07 5.7185457e-07 6.763911e-07 1.2261183e-06 6.88145e-07 5.562949e-07 6.421435e-07 7.6399147e-07
1.2443403e-06 1.8685809e-06 2.6575908e-06 3.850098e-06 5.8132687e-06 1.2683432e-06 1.9721642e-06 2.8983975e-06
4.352401e-06 6.8559575e-06 1.2720319e-06 2.0207356e-06 2.9973785e-06 4.570482e-06 7.1506506e-06 1.2490401e-06
1.9837128e-06 3.000634e-06 4.5396705e-06 6.9615994e-06 1.3109004e-06 2.010771e-06 3.0579474e-06 4.6386594e-06
6.9555304e-06 1.2850047e-06 2.061899e-06 3.4274337e-06 5.651798e-06 8.988403e-06 1.2975577e-06 2.2072004e-06
3.73547e-06 6.352262e-06 1.0421244e-05 1.2982673e-06 2.1827464e-06 3.6883064e-06 6.218077e-06 1.0181372e-05
1.247729e-06 2.0393982e-06 3.3731485e-06 5.5402465e-06 8.832589e-06 1.3245474e-06 1.9597387e-06 3.130996e-06
4.9231594e-06 7.5984103e-06 3.0428705e-06 3.5365497e-06 3.533326e-06 3.1867598e-06 2.8338475e-06 3.2494713e-06
00000000: 04b9 9737 d44f 4937 8236 f136 f21b 9636
00000010: 27dc 8336 0b37 9837 0608 4a37 1d83 ee36
00000020: 5f06 8936 2a5c 4936 7a06 8637 177f 3337
00000030: c3f8 d836 ca59 7a36 1417 2936 bc44 5337
00000040: 78b4 0f37 5caa b436 1ac4 5c36 c074 1b36
00000050: 0179 2037 c23f e136 a4b5 9636 e8d1 4c36
00000060: 4750 1e36 bccd c037 1822 8937 c2f9 2937
00000070: 6856 c536 29c4 8c36 841d bd37 0f8d 8437
00000080: 1671 2037 4374 ae36 4b76 5536 de7d a037
00000090: dc27 5e37 5b2d 0437 d6c7 8b36 90b7 2036
000000a0: 46d0 6d37 7966 2237 a65d c036 7031 5236
000000b0: acef 0136 3530 2437 2f36 df36 ec79 8836
000000c0: ed84 2536 d642 f635 6acf 9a34 376c 7234
000000d0: 776f a634 99ae 2435 1bfe 9e35 a1ca bc34
000000e0: 1f73 9434 28cb d234 3c90 5035 b80f c535
000000f0: bdc0 e134 247a ac34 2026 e434 8a2c 5735
00000100: ad4c c435 dd16 0435 b349 bc34 40a8 d334
00000110: 5bf4 3335 ddde 9c35 c3b6 1235 3a62 c234
00000120: db7e b034 7248 fb34 db28 4a35 bf57 9e34
00000130: 9c26 7234 0593 ad34 f603 3135 9115 ac35
00000140: 7cd3 c034 21e8 9534 55c7 d934 b4ab 5b35
00000150: 0dcf cf35 d85b e834 ce32 af34 c80e ea34
00000160: ecb5 5e35 1a6a cb35 1948 0935 c010 c234
00000170: 7b0d da34 3cb8 3935 c8c9 a035 cc9b 1a35
00000180: ae73 cd34 8216 ba34 59db 0335 69cb 5035
00000190: a0f9 8d36 45d4 6a36 41f5 5536 829e b036
000001a0: bf89 4137 f769 9c36 893b 7e36 5c92 6036
000001b0: 3447 bc36 80c5 5637 a2bd 9b36 701b 8036
000001c0: 4d6d 5036 d80b 9e36 52ae 3837 e094 8636
000001d0: e2d6 6736 b6db 3636 ed14 7536 5b05 0c37
000001e0: e5a6 5f36 e810 4f36 49d3 2336 e0bb 3736
000001f0: a441 bc36 6be5 7536 3e70 5436 7205 5736
00000200: 7588 a636 ebf1 2937 a5c0 8736 93f3 6236
00000210: a0ec 6236 c879 b336 4245 3e37 eb3f 8336
00000220: 6ea2 6036 f374 5536 5ef5 9c36 0a93 2637
00000230: 93f1 5936 0941 4436 ea81 3736 49c4 7736
00000240: 36e2 ff36 f463 2c36 96aa 2a36 f54b 1e36
00000250: 5c3a 3b36 cb9b af36 efa8 4835 1c2e db34
00000260: d524 c334 406b d434 58d0 cb34 9acb 5635
00000270: ccdc e534 fe58 cf34 74fa ef34 1647 f034
00000280: 0aa7 7235 2155 0735 b515 f034 3d2f 0b35
00000290: ff07 0f35 8378 8a35 0d14 2335 60cd 0b35
000002a0: 7740 1f35 a0c4 2635 605c 9835 b29a 3e35
000002b0: 24c4 2135 521e 3235 f0e5 3a35 a8a6 8735
000002c0: 08d8 0735 41a9 d034 3328 e134 a750 f134
000002d0: 50e4 9535 8840 1135 6f03 db34 b076 f334
000002e0: 9e58 0735 e393 a135 d766 2135 9995 f234
000002f0: 16d6 0835 4578 1d35 3e5d a735 a7a8 2f35
00000300: d1d1 0735 8c81 1935 3e91 3535 1b91 a435
00000310: f7b8 3835 4b54 1535 c45f 2c35 1815 4d35
00000320: 3503 a735 f3cb fa35 1059 3236 1730 8136
00000330: 990f c336 f13b aa35 8659 0436 1782 4236
00000340: d70a 9236 3a0c e636 afba aa35 f99b 0736
00000350: 9226 4936 245c 9936 9fef ef36 b1a4 a735
00000360: ed1f 0536 805e 4936 7953 9836 af97 e936
00000370: 32f2 af35 c8f0 0636 2337 4d36 c8a5 9b36
00000380: 8d63 e936 6d78 ac35 285f 0a36 dd02 6636
00000390: 93a4 bd36 e6cc 1637 be27 ae35 6a1f 1436
000003a0: e3ae 7a36 8425 d536 e7d6 2e37 2040 ae35
000003b0: 4c7b 1236 9f84 7736 e0a4 d036 a9d0 2a37
000003c0: a477 a735 98dc 0836 405e 6236 5be6 b936
000003d0: ae2f 1437 1ac7 b135 0e84 0336 1a1e 5236
000003e0: 9e31 a536 d9f5 fe36 1e34 4c36 7655 6d36
000003f0: 141e 6d36 1edc 5536 212d 3e36 7e11 5a36

exp_avg f4 [32]
-0.0017820246 -0.00010194798 -0.0010581042 0.0008921042 0.0010592995 0.0019504068 -0.0003218937 0.001958269
-0.00030065712 0.0010693987 0.0018469499 0.0018003879 -1.0754023e-05 -3.8842623e-05 -0.0003474401 0.00079235464
0.00041265285 0.00044343193 0.00253569 -0.0005186698 -1.2510558e-10 -0.0003906182 -0.0005222761 0.0017421686
-0.0007575355 -0.0020274764 -0.0003586874 -0.0011226016 -0.000500527 0.000863407 -3.0237907e-05 -0.00025835694
00000000: d392 e9ba e8cc d5b8 16b0 8aba 19dc 693a
00000010: 31d8 8a3a cba4 ff3a d7c3 a8b9 4d56 003b
00000020: 84a1 9db9 112b 8c3a 5b15 f23a fefa eb3a
00000030: 2d6c 34b7 f3ea 22b8 9f28 b6b9 05b6 4f3a
00000040: 5459 d839 6d7c e839 d22d 263b 57f7 07ba
00000050: 178e 09af e3cb ccb9 5be9 08ba 7a59 e43a
00000060: 5995 46ba 69df 04bb 350e bcb9 4224 93ba
00000070: cc35 03ba 4356 623a 69a7 fdb7 1574 87b9
