results/2BS/T_1/L_8000/seed5/model_best.pth.tar (torch_old, 395617 bytes, 22 tensors)

layer1.conv.weight f4 [32, 2, 5, 5]
0.0041166125 0.090863995 -0.006079654 0.08358423 0.037590403 0.12807623 -0.048992623 0.085689664
0.07077996 0.02848167 0.078054324 0.051971365 0.07513 0.062937334 0.011603422 0.089875184
0.022558307 -0.015343772 -0.019421004 -0.085439295 -0.0005495816 0.014949948 0.04751566 0.009183804
-0.04381966 0.04301239 -0.054208297 0.021483267 -0.02554354 -0.048888445 -0.03498421 -0.0722772
-0.023504918 0.0058541084 -0.036030676 -0.06137858 -0.053126622 -0.02824555 -0.07399578 -0.038728654
0.04385782 -0.06660483 -0.030541591 -0.0211463 -0.07419814 0.02488426 0.013449943 -0.088929966
-0.058789875 -0.05930231 -0.08248292 0.10094585 0.045987293 -0.020947311 -0.06349053 0.042442035
0.058283757 -0.059353698 -0.080697425 0.021738594 0.03009451 -0.06385783 -0.032969847 -0.02054198
0.041869078 0.062218025 -0.10950005 -0.053579226 0.06958305 -0.023772357 0.03280365 -0.032815833
-0.09773384 -0.09156377 0.01608563 -0.07499238 -0.037155557 -0.020160528 -0.013647436 0.04245053
0.1208443 0.059415303 -0.034697156 -0.046721835 0.05100841 -0.044605702 0.00246471 0.009203615
0.09691425 0.037017006 0.014189934 0.015398789 0.01830482 0.02711452 -0.0012217835 0.035216894
-0.056338634 -0.002093729 -0.062082954 0.018650206 0.04159561 0.047258843 0.047492646 -0.022701716
0.0072432836 0.0637185 0.019001724 0.015782908 -0.029398678 -0.024100093 -0.028077766 -0.038089067
-0.061126962 -0.04015978 0.08595253 0.07904288 -0.13442247 -0.03440878 -0.064953655 0.010516575
-0.045350313 -0.06632889 -0.051372126 0.05172249 0.02354528 -0.07849721 0.11630517 0.08198645
-0.0076918267 -0.035303377 0.048326716 0.047057718 0.06388671 0.060216464 0.031276315 0.013836996
0.08534436 -0.04313432 0.0005487556 0.043012355 0.012693146 -0.06489668 -0.029073112 -0.019875012
0.046005797 0.063340984 -0.019984437 0.04010892 0.027947342 0.05783845 -0.07975911 -0.044821806
-0.024393858 0.05058674 0.11315502 0.0605823 -0.04485832 -0.06493642 -0.0017528841 -0.06956476
-0.040505968 -0.009062431 -0.031620733 -0.012812685 -0.01524621 -0.0022348315 0.008402709 0.008703149
0.011074844 -0.07832851 0.02791768 0.07250885 0.013028805 -0.00076805596 -0.08241136 0.062927075
0.035205357 0.014404511 -0.050297547 -0.06275127 -0.0224699 0.0945702 -0.048042197 -0.038975198
0.0113442065 0.04239641 -0.07542627 -0.016785271 -0.08068766 -0.04367082 0.026891405 0.06281027
-0.026797766 0.045321472 0.0378006 -0.013640155 0.02433511 -0.11052196 -0.08709656 0.021787295
-0.0647217 -0.06417618 -0.07544266 -0.026139978 -0.0230122 -0.06749441 -0.06883222 -0.050496012
-0.049170274 -0.018578073 -0.041083388 0.0119146835 -0.032362983 0.06271872 -0.0018168373 -0.03892027
-0.038992535 -0.009385643 0.036162872 -0.047506895 -0.07546682 -0.08002454 -0.008475871 0.008735001
-0.0572792 -0.0104812225 0.019581152 -0.10417745 0.06927664 0.060518082 -0.04622855 -0.046486456
0.07597483 -0.005939829 0.02677468 0.00823479 0.021635436 0.13173182 0.086217426 0.013360266
0.028795771 -0.14196542 -0.07562715 0.1738019 0.03951073 -0.06269338 -0.06141408 0.025295317
0.008786652 0.0040588616 0.041502587 -0.031028561 0.0065825526 0.027733453 0.06285694 -0.07119842
00000000: a6e4 863b e716 ba3d d637 c7bb 352e ab3d
00000010: 65f8 193d 6a26 033e 7dac 48bd 107e af3d
00000020: 15f5 903d 6452 e93c f2da 9f3d eddf 543d
00000030: c2dd 993d 4ae5 803d 481c 3e3c 7b10 b83d
00000040: 33cc b83c 7264 7bbc cc18 9fbc ccfa aebd
00000050: cc11 10ba a0f0 743c c89f 423d aa77 163c
00000060: 3e7c 33bd c32d 303d 8509 5ebd adfd af3c
00000070: b040 d1bc 403f 48bd 9a4b 0fbd 1206 94bd
00000080: 638d c0bc d2d3 bf3b e794 13bd 1b68 7bbd
00000090: 4d9b 59bd 3663 e7bc 198b 97bd f0a1 1ebd
000000a0: 42a4 333d 1d68 88bd 5c32 fabc 013b adbc
000000b0: 32f5 97bd 13da cb3c 265d 5c3c ea20 b6bd
000000c0: a7cd 70bd fbe6 72bd ceec a8bd b3bc ce3d
000000d0: 2c5d 3c3d b299 abbc 5307 82bd b3d7 2d3d
000000e0: f3ba 6e3d dd1c 73bd b144 a5bd 2315 b23c
000000f0: c388 f63c e5c7 82bd 640b 07bd a847 a8bc
00000100: e97e 2b3d 54d8 7e3d 9041 e0bd e475 5bbd
00000110: 8f81 8e3d 3fbe c2bc 1f5d 063d e569 06bd
00000120: ae28 c8bd c985 bbbd 03c6 833c 9b95 99bd
00000130: 6d30 18bd b127 a5bc 7f99 5fbc 9be0 2d3d
00000140: 377d f73d 765d 733d 9b1e 0ebd 655f 3fbd
00000150: 32ee 503d 78b4 36bd f986 213b c2ca 163c
00000160: fa7a c63d 259f 173d e67c 683c 344b 7c3c
00000170: fdf3 953c 451f de3c 4024 a0ba 973f 103d
00000180: 57c3 66bd f236 09bb b24a 7ebd 51c8 983c
00000190: 2960 2a3d 7d92 413d a687 423d f3f8 b9bc
000001a0: 1159 ed3b d87e 823d 81a9 9b3c 284b 813c
000001b0: 7fd5 f0bc 8f6d c5bc 5803 e6bc 4803 1cbd
000001c0: 4460 7abd 957e 24bd e107 b03d 3ce1 a13d
000001d0: 0ba6 09be 39f0 0cbd 6c06 85bd b64d 2c3c
000001e0: 40c1 39bd 71d7 87bd 946b 52bd f6da 533d
000001f0: 08e2 c03c 25c3 a0bd 6831 ee3d 83e8 a73d
00000200: b80b fcbb 469a 10bd 3cf2 453d 98bf 403d
00000210: 09d7 823d 8aa5 763d 981b 003d 91b4 623c
00000220: 06c9 ae3d 9dad 30bd 5dda 0f3a b92d 303d
00000230: eaf6 4f3c 8de8 84bd bc2a eebc ecd0 a2bc
00000240: 9370 3c3d ebb8 813d 67b6 a3bc 4049 243d
00000250: d3f1 e43c 03e8 6c3d bf58 a3bd 1297 37bd
00000260: a1d5 c7bc 0b34 4f3d d2bd e73d 2525 783d
00000270: 5cbd 37bd 63fd 84bd 08c1 e5ba f877 8ebd
00000280: 96e9 25bd 977a 14bc be84 01bd 4cec 51bc
00000290: 3dcb 79bc 4076 12bb 84ab 093c a797 0e3c
000002a0: 4373 353c b36a a0bd 9eb3 e43c 857f 943d
000002b0: c576 553c 5d57 49ba 4ac7 a8bd e9df 803d
000002c0: 7e33 103d e600 6c3c cd04 4ebd bd83 80bd
000002d0: cc12 b8bc 05ae c13d e5c7 44bd 75a4 1fbd
000002e0: 0ddd 393c dca7 2d3d 1779 9abd 4481 89bc
000002f0: 923f a5bd 2ce0 32bd 5d4b dc3c aca2 803d
00000300: fd86 dbbc 02a3 393d cdd4 1a3d f57a 5fbc
00000310: 6d5a c73c 5659 e2bd ae5f b2bd 457b b23c
00000320: d08c 84bd cd6e 83bd ae81 9abd 8223 d6bc
00000330: 1584 bcbc 823a 8abd e8f7 8cbd e8d4 4ebd
00000340: c566 49bd 0b31 98bc 0e47 28bd ce35 433c
00000350: 0c8f 04bd ac72 803d f222 eeba dc6a 1fbd
00000360: a3b6 1fbd 3dc6 19bc 851f 143d 9796 42bd
00000370: 598e 9abd e8e3 a3bd 61de 0abc 401d 0f3c
00000380: 989d 6abd 6fb9 2bbc a768 a03c fd5a d5bd
00000390: e9e0 8d3d cfe1 773d 265a 3dbd 9568 3ebd
000003a0: b198 9b3d e6a2 c2bb 9356 db3c 36eb 063c
000003b0: cc3c b13c b5e4 063e c392 b03d 04e5 5a3c
000003c0: 1ce5 eb3c 625f 11be 68e2 9abd 20f9 313e
000003d0: 01d6 213d 6365 80bd 558d 7bbd 2038 cf3c
000003e0: e4f5 0f3c 3300 853b 9efe 293d 9c2f febc
000003f0: 74b2 d73b 4431 e33c 24bb 803d 7ad0 91bd

layer1.conv.bias f4 [32]
0.072609164 -0.0632273 0.045480084 -0.03734922 0.14854124 -0.051295027 -0.110056885 -0.11053469
-0.039615802 0.060739778 -0.045922834 0.022767272 0.07634924 -0.020608544 0.07767471 0.1352849
0.09392653 0.045084115 0.08755335 -0.010568167 -0.11860357 0.117292605 -0.120620325 -0.07162071
-0.120915085 0.101847515 -0.08523883 -0.0663315 -0.050247174 0.053131238 -0.106636606 0.13090324
00000000: 1db4 943d 517d 81bd 5349 3a3d 7ffb 18bd
00000010: 321b 183e bc1a 52bd 8165 e1bd 0360 e2bd
00000020: 2e44 22bd 46ca 783d 9519 3cbd 6e82 ba3c
00000030: fe5c 9c3d 40d3 a8bc eb13 9f3d 2088 0a3e
00000040: 8d5c c03d 1faa 383d 2c4f b33d 1b26 2dbc
00000050: 6ee6 f2bd 1b37 f03d ca07 f7bd e1ad 92bd
00000060: 54a2 f7bd 6e95 d03d b291 aebd cfd8 87bd
00000070: fbcf 4dbd 24a0 593d 4b64 dabd 800b 063e

layer2.conv1.weight f4 [32, 32, 3, 3]
0.108180575 0.03413698 0.04261607 -0.050230052 -0.07036604 0.07777148 0.02554656 -0.018291863
0.1315803 0.088319436 -0.03946778 0.021991732 0.038834468 -0.043227077 0.03863349 0.0339531
-0.045395557 -0.06701797 0.0010503918 -0.041981455 -0.14479744 0.06516523 0.07353665 -0.045310862
0.08681631 -0.09259653 -0.026257744 -0.027015366 0.07190634 -0.1792395 0.08273934 0.007244768
0.08799841 0.11565149 0.12251444 0.0693059 -0.1534661 0.15303439 -0.082361676 0.23416615
0.042741742 -0.0021453258 -0.0018993461 -0.005100686 -0.023909844 -0.06447526 0.04739023 0.045893814
0.013921973 0.00090507476 -0.032358844 0.15205462 -0.025330687 0.011214591 -0.10732297 0.07768061
0.033893794 0.031350695 -0.0065556965 -0.06613474 -0.0745743 0.050573617 -0.016602013 -0.012810012
-0.08251048 -0.0040526004 0.008466814 -0.018288914 0.11990459 -0.104592055 0.060179207 0.019573659
0.052930336 0.123193316 -0.043615047 -0.10632295 0.019618623 0.02627413 0.02290393 -0.06539854
0.014320269 0.12746678 0.060821027 0.091287404 0.14695454 0.068284154 0.13469219 0.10356887
0.02982258 -0.06220902 0.052631486 -0.11615454 0.0764182 0.097260796 -0.12162295 0.043379504
0.10250429 0.04324207 0.07954358 -0.029344639 -0.027899954 -0.06234564 -0.010686682 -0.16417624
0.026861023 -0.072214685 -0.024577392 0.11794869 -0.0020090658 -0.100754224 0.042003255 -0.05575858
-0.06377149 0.07970629 0.09623606 -0.13093841 -0.12113287 -0.05828706 -0.14236395 0.059808217
0.011275254 -0.033810068 0.086538106 -0.013796261 -0.109473445 0.01645443 0.07785606 -0.01210187
-0.056841526 -0.047237907 0.0562142 -0.028972946 0.031046519 0.11787283 -0.016163457 0.060008463
0.029025475 -0.048888795 0.041647576 -0.01783056 -0.023045061 0.058636196 -0.10054134 -0.1170838
0.061779287 0.029080952 -0.065982066 0.12126927 0.04525446 0.010742349 0.20820376 0.017192427
-0.1106661 -0.06531151 -0.08798406 -0.07176251 -0.07348729 0.20796807 0.13932334 0.10451754
-0.055353504 0.021765824 -0.115507156 0.019184303 0.07529434 0.014309798 0.13360906 0.056895267
-0.12877324 -0.026026558 0.17725031 0.0127837425 -0.14040413 0.0043072 -0.040988714 0.004527001
0.03150431 -0.058358457 0.029514307 -0.11623156 0.066806115 0.035514515 0.0055655027 -0.10011373
0.012379521 -0.033230986 -0.029003378 -0.08347178 0.06355275 0.010411461 0.010728156 0.046159767
0.009277762 0.036652826 0.08555553 0.06388721 0.04083147 0.042959336 -0.1771458 0.05680038
-0.04366836 -0.0891262 -0.0013930942 -0.06675575 -0.04605243 -0.071710296 -0.13940391 0.03445234
-0.061423633 -0.043494772 0.032871023 -0.003307199 0.07049141 0.082500994 -0.010016139 -0.03742686
-0.12288897 0.06910323 -0.0031355328 -0.010650257 -0.07393207 -0.046832267 -0.011353397 -0.16320159
0.024559395 -0.081788376 0.10447395 0.03778411 -0.019619102 0.008260936 -0.07466496 0.07657618
-0.074478455 0.08631855 -0.003865046 0.027204903 -0.032521814 -0.017143924 -0.012175992 0.007357789
-0.017047938 0.1559709 -0.015863832 -0.067138605 -0.1312989 -0.058457475 -0.025655981 0.08389228
-0.06631086 -0.03038895 0.014428306 0.012856096 0.25628778 -0.10678758 -0.0068929754 0.03859249
00000000: c78d dd3d 38d3 0b3d 308e 2e3d 07be 4dbd
00000010: 121c 90bd a746 9f3d 0547 d13c d1d8 95bc
00000020: fcbc 063e d2e0 b43d f8a8 21bd 0128 b43c
00000030: e410 1f3d e00e 31bd 273e 1e3d 6812 0b3d
00000040: b1f0 39bd b840 89bd 4dad 893a bff4 2bbd
00000050: c845 14be 5975 853d 629a 963d e297 39bd
00000060: c0cc b13d 40a3 bdbd 7b1a d7bc 544f ddbc
00000070: a243 933d 8f8a 37be 3e73 a93d 8565 ed3b
00000080: 8338 b43d b0da ec3d dae8 fa3d 40f0 8d3d
00000090: 3826 1dbe 0cb5 1c3e 3dad a8bd 40c9 6f3e
000000a0: f711 2f3d 9898 0cbb 7bf3 f8ba a823 a7bb
000000b0: 94de c3bc 9b0b 84bd 421c 423d 27fb 3b3d
000000c0: fd18 643c 8a42 6d3a b58a 04bd 35b4 1b3e
000000d0: 4d82 cfbc 67bd 373c 25cc dbbd 0317 9f3d
000000e0: 38d4 0a3d 9669 003d 2bd1 d6bb a771 87bd
000000f0: 69ba 98bd 4826 4f3d f200 88bc 16e1 51bc
00000100: 41fb a8bd adcb 84bb 64b8 0a3c a2d2 95bc
00000110: 8a90 f53d 5c34 d6bd 797e 763d f058 a03c
00000120: 7bcd 583d c74c fc3d b1a5 32bd d9bf d9bd
00000130: 3cb7 a03c d83c d73c 06a1 bb3c abef 85bd
00000140: 909f 6a3c a786 023e 781f 793d e4f4 ba3d
00000150: 407b 163e 90d8 8b3d c0ec 093e ea1b d43d
00000160: 7c4e f43c e3ce 7ebd 1d94 573d 6ee2 edbd
00000170: 2581 9c3d ab30 c73d 7415 f9bd b5ae 313d
00000180: c5ed d13d 991e 313d bfe7 a23d 2b64 f0bc
00000190: 728e e4bc 245e 7fbd 3117 2fbc d11d 28be
000001a0: a60b dc3c 4be5 93bd 8756 c9bc 158f f13d
000001b0: 88aa 03bb 3b58 cebd 9b0b 2c3d 1c63 64bd
000001c0: a09a 82bd 0d3d a33d 6917 c53d b814 06be
000001d0: 8314 f8bd 6abe 6ebd dbc7 11be 76f9 743d
000001e0: d8bb 383c 6d7c 0abd e43a b13d b609 62bc
000001f0: 9d33 e0bd 71cb 863c ff72 9f3d ec46 46bc
00000200: a9d2 68bd 897c 41bd dc40 663d ac58 edbc
00000210: 4555 fe3c 4f67 f13d 3a69 84bc 6fcb 753d
00000220: d5c6 ed3c 9e3f 48bd a696 2a3d 6511 92bc
00000230: ffc8 bcbc 822c 703d 9ee8 cdbd a2c9 efbd
00000240: 470c 7d3d 2d3b ee3c 9b21 87bd 065c f83d
00000250: be5c 393d ad00 303c 5e33 553e 22d7 8c3c
00000260: e9a4 e2bd 0ac2 85bd fd30 b4bd 39f8 92bd
00000270: 8180 96bd 95f5 543e c7aa 0e3e 4b0d d63d
00000280: 5bba 62bd 3e4e b23c 048f ecbd 6628 9d3c
00000290: eb33 9a3d a573 6a3c d0d0 083e 030b 693d
000002a0: 22dd 03be a635 d5bc 1b81 353e e772 513c
000002b0: 1ac6 0fbe 6a23 8d3b c8e3 27bd 3d57 943b
000002c0: aa0a 013d 4709 6fbd fdc7 f13c d00a eebd
000002d0: a5d1 883d ab77 113d d25e b63b 6d08 cdbd
000002e0: 79d3 4a3c 371d 08bd 7e98 edbc 41f3 aabd
000002f0: f227 823d d594 2a3c 26c5 2f3c 0612 3d3d
00000300: c101 183c 4621 163d bd37 af3d 4cd7 823d
00000310: e63e 273d 21f6 2f3d b565 35be 84a7 683d
00000320: 98dd 32bd cc87 b6bd 7c98 b6ba 3db7 88bd
00000330: 79a1 3cbd d9dc 92bd e6bf 0ebe e61d 0d3d
00000340: 5997 7bbd 9327 32bd c4a3 063d 98bd 58bb
00000350: cd5d 903d 48f6 a83d bb1a 24bc e84c 19bd
00000360: 36ad fbbd ff85 8d3d 837d 4dbb 6a7e 2ebc
00000370: b269 97bd 31d3 3fbd 9903 3abc 511e 27be
00000380: c930 c93c aa80 a7bd 70f6 d53d 83c3 1a3d
00000390: 3db8 a0bc e058 073c f1e9 98bd f9d3 9c3d
000003a0: 2988 98bd c8c7 b03d b64c 7dbb d1dc de3c
000003b0: 9835 05bd 6a71 8cbc d07d 47bc 9c19 f13b
000003c0: 1ea8 8bbc d6b6 1f3e def4 81bc f77f 89bd
000003d0: 3873 06be 1b71 6fbd 7e2c d2bc b7cf ab3d
000003e0: fdcd 87bd 3ff2 f8bc b464 6c3c 60a2 523c
000003f0: 2738 833e 72b3 dabd 78de e1bb 2913 1e3d

layer2.conv1.bias f4 [32]
-0.038636442 -0.004907501 -0.0049878266 -0.023984507 -0.009510774 -0.033311218 -0.036999635 -0.0441651
0.0016414564 0.0058657266 -0.012689632 0.04858912 0.04636178 -0.029610954 -0.017183026 -0.0026566293
0.0077603064 -0.002384908 -2.5478443e-05 0.053144906 0.0043511833 0.020499948 0.01748434 0.01981215
-0.038248584 0.049046412 0.015215487 0.012223061 0.054302018 0.030018752 -0.037887752 -0.034259703
00000000: 3f41 1ebd 1acf a0bb ec70 a3bb 287b c4bc
00000010: 14d3 1bbc 5871 08bd ee8c 17bd 77e6 34bd
00000020: 2326 d73a 4835 c03b 2de8 4fbc 6305 473d
00000030: dae5 3d3d ac92 f2bc 6bc3 8cbc d81a 2ebb
00000040: 2b4a fe3b 1e4c 1cbb 8aba d5b7 79ae 593d
00000050: 5f94 8e3b 82ef a73c 523b 8f3c 174d a23c
00000060: 8caa 1cbd e4e4 483d 614a 793c 3c43 483c
00000070: cb6b 5e3d e3e9 f53c 3030 1bbd e753 0cbd

layer2.conv2.weight f4 [64, 32, 3, 3]
-0.09615457 -0.08651689 -0.12356916 0.02193886 -0.0066029876 0.062252786 0.061483968 -0.0010351132
-0.03646921 -0.013607352 0.02790466 0.014679765 -0.008588257 -0.014698587 0.058957864 0.040594466
-0.025322076 0.0001817379 0.0004964609 0.010672885 -0.04322315 0.006741129 -0.057657108 -0.040671725
0.026807375 -0.006244733 -0.014854584 -0.036420733 0.05129793 -0.03548423 0.0035863714 -0.027551945
-0.07424362 0.0024625624 0.004026151 0.003835395 0.011227467 -0.013541244 0.044860944 -0.0010504107
-0.13742642 -0.03525237 0.07488969 0.06000874 -0.019794472 -0.09286817 -0.029831046 -0.06781022
0.03259668 0.037568446 0.018167337 0.033490885 -0.024921551 -0.029584615 0.08188305 0.054227255
-0.029380072 -0.049975403 0.10038854 -0.054798502 0.014749148 -0.057891954 0.015881594 -0.05196747
-0.002872278 0.04197457 -0.01735143 0.01644961 -0.0035196156 -0.009189355 -0.010047915 -0.0014828126
-0.0323693 -0.06519257 0.037163045 -0.003484394 0.04283114 0.03262433 0.0058243917 -0.04094563
-0.062139254 -0.14979872 -0.0052602924 -0.0017054714 0.093852066 0.044506174 -0.0037786805 -0.02559167
0.019104028 -0.048365273 0.04519187 0.008515702 0.031656064 0.002527807 0.027011683 0.026727673
4.2215514e-05 0.022121543 0.008885406 -0.036080793 -0.049325116 -0.036478467 0.0032603932 0.093460515
-0.009878651 -0.04719326 0.0064468402 -0.061511282 0.044949412 0.013461955 -0.034849353 -0.038038276
-0.025643043 0.01949131 -0.006967491 0.06970496 -0.013007065 0.019580793 -0.0028821963 -0.065863386
-0.027642721 -0.011297431 0.005775688 0.0017135346 -0.001853577 0.019693622 0.030169053 -0.079635076
0.0496858 0.016526464 -0.014702182 -0.0052685007 0.006104867 0.034851655 0.012558035 -3.9934002e-05
4.387172e-09 -2.8100364e-06 -5.7092407e-06 1.0696092e-08 9.765637e-07 -1.8286297e-08 4.444786e-12 7.657111e-09
0.03380202 0.07993673 0.030058704 0.002527215 0.01631995 0.004694188 -0.0031083685 0.0030970273
0.037501186 -0.00012694382 7.03062e-05 6.4815926e-05 1.886404e-05 1.0093177e-05 1.1710812e-05 5.4225245e-07
2.2060837e-07 1.0099151e-07 -1.4835247e-09 -6.818538e-10 1.4318349e-09 9.310039e-08 3.5714486e-08 8.9603164e-10
4.423497e-12 6.954305e-11 1.4141869e-12 -0.01411981 0.019931532 0.012652317 0.030656515 0.0023902375
-0.09477243 0.015235958 0.0034348604 -0.017038066 -0.026581533 0.007801619 0.017307885 -0.002382098
-0.04297151 -0.014726737 0.00064941344 0.004249086 -0.018034643 0.13804772 0.017710268 0.019318832
-0.027472885 -0.0063144346 0.0027334448 0.024236605 0.03769137 -0.022902224 -0.098484874 -0.106473416
0.06306546 0.04475352 0.013531865 -0.009404666 0.03620192 0.010240204 0.024508845 0.0026130942
0.046124436 0.07774574 -0.074101284 -0.046570692 -0.006024996 -0.067256674 -0.02149937 -0.04552268
0.06715841 -0.0023177154 0.029152837 -0.0026520265 -0.047587123 0.052051038 0.02165933 0.08681689
-0.06893083 -0.00993174 0.02365179 0.070046626 0.026652735 -0.03663702 -0.045001388 0.020119535
-0.036241043 0.0007984391 -0.012828824 -0.08136904 0.076107234 -0.029421883 0.011202031 -0.08591794
0.01496861 -0.07157854 0.036205433 -0.04225187 0.08008201 0.055328503 0.08143102 -0.058401592
-0.05533734 -0.024464687 0.038949464 -0.041927386 -0.042393036 -0.048288338 0.025346173 0.02336106
00000000: b0ec c4bd c42f b1bd d411 fdbd 20b9 b33c
00000010: e05d d8bb c7fc 7e3d 9dd6 7b3d a3ac 87ba
00000020: bd60 15bd 5ff1 5ebc 5098 e43c 6683 703c
00000030: c3b5 0cbc 58d2 70bc cd7d 713d 6246 263d
00000040: 3e70 cfbc e590 3e39 ed24 023a 53dd 2e3c
00000050: c20a 31bd b0e4 dc3b dc29 6cbd 6597 26bd
00000060: 249b db3c 9ea0 ccbb a460 73bc e82d 15bd
00000070: c71d 523d e957 11bd 5409 6b3b 9eb4 e1bc
00000080: 0a0d 98bd f162 213b cded 833b 405b 7b3b
00000090: 69f3 373c 18dc 5dbc 1cc0 373d efad 89ba
000000a0: 83b9 0cbe ca64 10bd c45f 993d b9cb 753d
000000b0: 0428 a2bc ab31 bebd 3d60 f4bc 16e0 8abd
000000c0: 1984 053d 5fe1 193d abd3 943c bd2d 093d
000000d0: 4828 ccbc 6f5b f2bc 4db2 a73d 661d 5e3d
000000e0: 7aae f0bc 02b3 4cbd 8298 cd3d 6574 60bd
000000f0: 69a6 713c 1d20 6dbd 1e1a 823c d8db 54bd
00000100: d43c 3cbb 87ed 2b3d 9624 8ebc 55c1 863c
00000110: 5aa9 66bb f38e 16bc 03a0 24bc ef5a c2ba
00000120: ac95 04bd af83 85bd 4738 183d 6e5a 64bb
00000130: b56f 2f3d 17a1 053d 8ada be3b 9bb6 27bd
00000140: bb85 7ebd d664 19be 885e acbb 208a dfba
00000150: 8335 c03d 1b4c 363d bda3 77bb 9fa5 d1bc
00000160: 0d80 9c3c aa1a 46bd 1c1b 393d 7185 0b3c
00000170: caa9 013d 90a9 253b 9b47 dd3c fef3 da3c
00000180: 9010 3138 3d38 b53c 1894 113c 74c9 13bd
00000190: 2209 4abd 726a 15bd 52ac 553b 3a68 bf3d
000001a0: 11da 21bc b84d 41bd 0440 d33b 41f3 7bbd
000001b0: e01c 383d 888f 5c3c 32be 0ebd 06ce 1bbd
000001c0: 5c11 d2bc 3dac 9f3c 8d4f e4bb 79c1 8e3d
000001d0: 961b 55bc e667 a03c 3be3 3cbb 62e3 86bd
000001e0: fd72 e2bc dc18 39bc fc41 bd3b ae98 e03a
000001f0: b9f3 f2ba 8554 a13c 1725 f73c b717 a3bd
00000200: 5683 4b3d 8262 873c 6ce1 70bc 63a3 acbb
00000210: 560b c83b 9cc0 0e3d 37c0 4d3c cf7e 27b8
00000220: f9bd 9631 0f94 3cb6 0192 bfb6 e9c1 3732
00000230: 7912 8335 fe13 9db2 1363 9c2c 558c 0332
00000240: fd73 0a3d deb5 a33d ac3d f63c a29f 253b
00000250: 6ab1 853c b4d1 993b c5b5 4bbb 7ff7 4a3b
00000260: d89a 193d 391c 05b9 5b71 9338 c9ed 8738
00000270: 383e 9e37 dd55 2937 8e79 4437 4e8f 1135
00000280: 5ee0 6c34 abe0 d833 e3e4 cbb0 326d 3bb0
00000290: 36ca c430 7bee c733 7e64 1933 9f4c 7630
000002a0: 52a3 9b2c 42ed 982e 7407 c72b c756 67bc
000002b0: 7447 a33c aa4b 4f3c 5f23 fb3c 88a5 1c3b
000002c0: 0c18 c2bd 3da0 793c 651b 613b 6a93 8bbc
000002d0: 84c1 d9bc b9a4 ff3b 44c9 8d3c f91c 1cbb
000002e0: e502 30bd 6948 71bc 663d 2a3a eb3b 8b3b
000002f0: 63bd 93bc 625c 0d3e 2015 913c 8742 9e3c
00000300: d10e e1bc 51e9 cebb 9823 333b d88b c63c
00000310: 4462 1a3d 729d bbbc 70b2 c9bd bc0e dabd
00000320: 7728 813d 784f 373d c1b4 5d3c 0716 1abc
00000330: 7748 143d 87c6 273c c6c6 c83c 7240 2b3b
00000340: faec 3c3d 2939 9f3d 6ac2 97bd e9c0 3ebd
00000350: 546d c5bb debd 89bd 721f b0bc fd75 3abd
00000360: 598a 893d d0e4 17bb eed1 ee3c 9fcd 2dbb
00000370: b7ea 42bd 7833 553d e86e b13c 0ecd b13d
00000380: 9b2b 8dbd bdb8 22bc 66c1 c13c 9b74 8f3d
00000390: d656 da3c b310 16bd 6053 38bd b9d1 a43c
000003a0: 7d71 14bd 574e 513a fd2f 52bc d0a4 a6bd
000003b0: 1cde 9b3d 2906 f1bc b988 373c bff5 afbd
000003c0: e73e 753c c597 92bd 264c 143d 4c10 2dbd
000003d0: 0902 a43d 24a0 623d 4ec5 a63d 8236 6fbd
000003e0: 68a9 62bd 2b6a c8bc 7989 1f3d 0dbc 2bbd
000003f0: 52a4 2dbd fec9 45bd c7a2 cf3c b25f bf3c

layer2.conv2.bias f4 [64]
0.032847952 -0.0596412 -0.011639839 0.0008888188 -0.020137873 0.011469614 0.0149634 -0.033120226
-0.030217446 -0.025473122 -0.02722094 0.0029944922 0.040931623 -0.03463936 -0.023814932 -0.010563522
0.0007299087 0.035545353 0.009888034 -0.00789898 -0.03739809 -0.003724098 0.024101542 -0.029413726
-0.005580503 0.007938009 -0.047603864 0.037048418 0.005880924 -0.049440734 -0.055497833 -0.05304753
-0.02510688 0.014255979 0.020171473 -0.042818155 0.061639164 0.01379668 0.036841698 -0.05039498
-0.034037568 0.061012 0.03497909 -0.01474613 -0.035636652 -0.03315561 0.045254387 0.026154801
-0.025091244 0.0021564441 -0.020255432 -0.040389165 0.0018403273 -0.0034245593 0.05349473 -0.0211748
-0.021760523 -0.011486169 0.050854936 -0.015082957 -0.01535759 -0.01775434 0.027072191 -0.0066008973
00000000: 938b 063d 554a 74bd 06b5 3ebc 9fff 683a
00000010: 2ef8 a4bc 0ceb 3b3c 0c29 753c 13a9 07bd
00000020: 948a f7bc 02ad d0bc 73fe debc 3e3f 443b
00000030: eba7 273d 00e2 0dbd 8817 c3bc 9f12 2dbc
00000040: 5857 3f3a 0198 113d 6c01 223c b96a 01bc
00000050: bd2e 19bd ff0f 74bb 9970 c53c 0ef5 f0bc
00000060: a7dc b6bb 6c0e 023c 45fc 42bd 15c0 173d
00000070: c4b4 c03b 5e82 4abd b251 63bd 5e48 59bd
00000080: f2ac cdbc e991 693c a53e a53c 1762 2fbd
00000090: 5979 7c3d 780b 623c 52e7 163d f76a 4ebd
000000a0: fa6a 0bbd b8e7 793d 3c46 0f3d c199 71bc
000000b0: bdf7 11bd 2dce 07bd aa5c 393d 9842 d63c
000000c0: 278c cdbc 2153 0d3b b8ee a5bc 1c6f 25bd
000000d0: 2337 f13a 926e 60bb 4a1d 5b3d c676 adbc
000000e0: 2043 b2bc 7c30 3cbc 444d 503d 821e 77bc
000000f0: 679e 7bbc 8d71 91bc 80c6 dd3c 574c d8bb

fc1.weight f4 [1, 3200]
-4.0418e-41 -0.014629603 0.01728562 -0.0014817117 -0.04955739 -0.00059186114 -0.023499615 0.0029711078
-0.0006258725 0.0021463728 1.76425e-40 -0.010347142 0.017158765 0.018240672 1.0414e-40 3.7944e-41
0.006887312 0.004911571 0.02347581 -0.003581738 6.5735e-41 -0.011411752 0.019626372 0.012640217
-0.0035667655 1.14709e-40 -0.0083474275 0.013620909 0.019129513 -0.00045206214 -4.8e-44 -0.010162469
-0.008167494 -0.02842628 -0.039925642 0.003736131 0.0036738454 0.00026793146 0.003195613 0.0059378445
-0.0036751155 -0.010673949 0.011363546 -0.059945367 -0.08503321 -0.030320065 0.0007474033 -0.0005993134
-0.017965997 0.021609949 -0.00440697 2.23765e-40 -0.0037352452 0.013816141 0.10840963 -0.0057067927
1.23223e-40 -0.0059609045 0.005112194 0.0002915333 0.009392465 -0.0020828515 0.0005939401 0.05867859
0.106103644 0.104256555 0.008921143 -0.003697637 0.015625443 -0.029118434 0.013127762 -0.00016001756
-0.001274984 0.10816532 0.082820006 0.07650404 0.026339952 -0.001761483 0.018420693 -0.0033977728
0.0029908274 0.0025199058 1.0491981e-05 0.042246222 0.050055988 0.027892977 -0.0055421065 9.426501e-05
-0.01870176 0.003618994 -0.007822223 -2.43689e-40 -2.00154e-40 0.0010581424 0.0022463268 1.65293e-40
2.10922e-40 7.9227e-41 -0.011277184 -2.08307e-40 0.010116205 -0.018463736 0.0057918243 -0.005900623
0.0023082169 -0.052737866 -0.050029036 -0.013132965 -2.208451e-15 -0.026592175 -0.019649094 -0.009099092
-0.0021879377 -0.026328601 -0.031728867 0.026633432 0.046867806 0.00082781486 0.00077536976 -0.037949536
-0.024102032 -0.029892068 0.0047465744 8.369545e-16 -0.093107395 0.02687832 -0.045468736 0.0061514
-2.9297975e-14 -0.049281247 0.0067068585 9.718889e-05 0.035275728 0.004622851 -0.047601666 0.060932614
-0.02225266 0.00793814 -0.00031182024 0.0051805223 -0.017370546 -0.011640421 -0.013068046 -0.00014018238
0.048921727 0.023290869 0.022318734 0.04134568 0.0006917109 -0.0312592 0.03713932 -0.03151073
0.012204952 0.029500742 -0.019139685 0.0017058356 -0.039032463 0.011960426 -0.0075454796 0.003446698
-0.028549222 -0.002520174 -0.02354859 -0.0065794387 0.030312406 -0.034631446 -0.027686793 0.007945659
0.0004047363 0.011196967 -0.025636042 0.031426962 0.009134442 0.012503361 -0.05105226 0.012464537
-0.0068088397 -0.010576233 -0.034739826 -0.03540145 -0.041437984 0.03442665 -0.029485714 -0.009870846
0.04461137 -0.0614549 -0.032615036 -0.02552389 0.0063412297 -0.00074746966 0.029211733 -0.0046220124
-0.0030728686 -0.021266885 0.00047318652 0.08292567 0.0017062579 0.017298134 -0.028149957 -0.012124106
0.00455816 -0.030007664 -0.018480506 0.018571442 -0.02085597 0.0714271 0.030891472 -0.033097968
0.012164734 0.014582545 -0.014839102 -0.038610917 -0.014737588 -0.018792575 0.055709507 0.07439173
0.044007026 0.021270022 0.0078106886 0.0049840356 0.0007977368 0.0072629987 -0.020150822 -0.038576297
0.04268222 0.12377856 -0.018250754 -0.0032328034 0.0354022 -0.0038373247 0.010957435 0.0098955175
-0.038229723 -0.015202799 0.033003602 -0.13272801 -0.00022668942 -0.025189398 -0.022487585 0.008663112
0.0035043173 1.18862e-40 0.0102948425 -0.077637814 -0.07390107 -0.10101725 -2.13988e-40 0.010629479
0.01856992 -0.015505692 0.0070965462 0.00087536516 0.0019872999 -0.005591744 -0.033023458 0.048295055
00000000: ab70 0080 01b1 6fbc 939a 8d3c ff35 c2ba
00000010: b1fc 4abd 2127 1bba 4482 c0bc ebb6 423b
00000020: 9811 24ba 29aa 0c3b cdeb 0100 0f87 29bc
00000030: 8a90 8c3c 766d 953c 4d22 0100 c669 0000
00000040: f6ae e13b 3ef1 a03b 5850 c03c 98bb 6abb
00000050: 3eb7 0000 5bf8 3abc 7cc7 a03c ea18 4f3c
00000060: 65c0 69bb c33f 0100 a6c3 08bc 3c2a 5f3c
00000070: 7fb5 9c3c c102 edb9 2200 0080 7c80 26bc
00000080: f4d0 05bc 3bde e8bc 1289 23bd e0d9 743b
00000090: e6c4 703b 2779 8c39 7d6d 513b 4092 c23b
000000a0: 35da 70bb c9e1 2ebc 2b2e 3a3c 4689 75bd
000000b0: e425 aebd c961 f8bc 63ed 433a 3e1b 1dba
000000c0: 6d2d 93bc 5907 b13c 5868 90bb c46f 0200
000000d0: 04cb 74bb 185d 623c de05 de3d 0c00 bbbb
000000e0: 7f57 0100 b153 c3bb 3184 a73b f0d8 9839
000000f0: dbe2 193c 7380 08bb a5b2 1b3a f658 703d
00000100: de4c d93d 7684 d53d fc29 123c 0e54 72bb
00000110: ee00 803c c889 eebc d315 573c 63ca 27b9
00000120: 5d1d a7ba c785 dd3d 899d a93d 26ae 9c3d
00000130: e2c6 d73c 90e1 e6ba fee6 963c 2bad 5ebb
00000140: c201 443b 0125 253b b706 3037 600a 2d3d
00000150: 8207 4d3d d07f e43c 8f9a b5bb 24b0 c538
00000160: 6f34 99bc a52c 6d3b c828 00bc 4ea7 0280
00000170: f32d 0280 5eb1 8a3a 1c37 133b c5cc 0100
00000180: f74b 0200 dadc 0000 f0c3 38bc ad44 0280
00000190: 70be 253c 4341 97bc 58c9 bd3b 035a c1bb
000001a0: 7445 173b a903 58bd 3feb 4cbd a62b 57bc
000001b0: bb22 1fa7 d5d7 d9bc 23f7 a0bc 5c14 15bc
000001c0: 8163 0fbb 14af d7bc 21f6 01bd 5b2e da3c
000001d0: 75f8 3f3d b701 593a 2f42 4b3a f970 1bbd
000001e0: a071 c5bc 36e0 f4bc 2789 9b3b 583c 7126
000001f0: 17af bebd ec2f dc3c 6d3d 3abd af91 c93b
00000200: 44f2 03a9 22db 49bd 35c5 db3b e3d1 cb38
00000210: 487d 103d 497b 973b f7f9 42bd 7a94 793d
00000220: 364b b6bc f90e 023c ce7b a3b9 5fc1 a93b
00000230: ad4c 8ebc 77b7 3ebc 5c1b 56bc ecfd 12b9
00000240: 2662 483d 7ecc be3c c7d5 b63c 165a 293d
00000250: ef53 353a a609 00bd 661f 183d 6511 01bd
00000260: 47f7 473c 8aab f13c d4ca 9cbc 5896 df3a
00000270: 81e0 1fbd aaf5 433c 1240 f7bb ffe1 613b
00000280: 0fe0 e9bc 8129 25bb f9e8 c0bc 5598 d7bb
00000290: b951 f83c b4d9 0dbd 6acf e2bc 822e 023c
000002a0: c932 d439 7c73 373c ad02 d2bc 8fb9 003d
000002b0: a0a8 153c e6da 4c3c 2d1c 51bd 0f38 4c3c
000002c0: b01c dfbb f047 2dbc 594b 0ebd 1c01 11bd
000002d0: e0ba 29bd f502 0d3d 068c f1bc 54b9 21bc
000002e0: 69ba 363d 22b8 7bbd 5897 05bd 7a17 d1bc
000002f0: 17ca cf3b d7f1 43ba 724d ef3c 4074 97bb
00000300: 2e62 49bb e437 aebc 0516 f839 efd4 a93d
00000310: 84a4 df3a d1b4 8d3c bd9a e6bc 30a4 46bc
00000320: 9e5c 953b a2d2 f5bc 6e64 97bc 2323 983c
00000330: 24da aabc 5f48 923d 1d10 fd3c bc91 07bd
00000340: 984e 473c a0eb 6e3c b41f 73bc 7b26 1ebd
00000350: ed75 71bc e3f2 99bc a72f 643d b15a 983d
00000360: b640 343d 783e ae3c cef0 ff3b 1f51 a33b
00000370: 361f 513a 73fe ed3b 5613 a5bc 2e02 1ebd
00000380: 8dd3 2e3d 9d7f fd3d 9b82 95bc 71dd 53bb
00000390: e601 113d a07b 7bbb d086 333c cf20 223c
000003a0: c596 1cbd 2915 79bc c92e 073d dae9 07be
000003b0: 7ab3 6db9 ff59 cebc e237 b8bc baef 0d3c
000003c0: b0a8 653b 574b 0100 b3ab 283c 9300 9fbd
000003d0: 7259 97bd 22e2 cebd 8354 0280 4427 2e3c
000003e0: f21f 983c 960b 7ebc 258a e83b c378 653a
000003f0: 5c3d 023b f33a b7bb 9b43 07bd 09d1 453d

out.0.weight f4 [1, 3200]
-4.0418e-41 -0.014629603 0.01728562 -0.0014817117 -0.04955739 -0.00059186114 -0.023499615 0.0029711078
-0.0006258725 0.0021463728 1.76425e-40 -0.010347142 0.017158765 0.018240672 1.0414e-40 3.7944e-41
0.006887312 0.004911571 0.02347581 -0.003581738 6.5735e-41 -0.011411752 0.019626372 0.012640217
-0.0035667655 1.14709e-40 -0.0083474275 0.013620909 0.019129513 -0.00045206214 -4.8e-44 -0.010162469
-0.008167494 -0.02842628 -0.039925642 0.003736131 0.0036738454 0.00026793146 0.003195613 0.0059378445
-0.0036751155 -0.010673949 0.011363546 -0.059945367 -0.08503321 -0.030320065 0.0007474033 -0.0005993134
-0.017965997 0.021609949 -0.00440697 2.23765e-40 -0.0037352452 0.013816141 0.10840963 -0.0057067927
1.23223e-40 -0.0059609045 0.005112194 0.0002915333 0.009392465 -0.0020828515 0.0005939401 0.05867859
0.106103644 0.104256555 0.008921143 -0.003697637 0.015625443 -0.029118434 0.013127762 -0.00016001756
-0.001274984 0.10816532 0.082820006 0.07650404 0.026339952 -0.001761483 0.018420693 -0.0033977728
0.0029908274 0.0025199058 1.0491981e-05 0.042246222 0.050055988 0.027892977 -0.0055421065 9.426501e-05
-0.01870176 0.003618994 -0.007822223 -2.43689e-40 -2.00154e-40 0.0010581424 0.0022463268 1.65293e-40
2.10922e-40 7.9227e-41 -0.011277184 -2.08307e-40 0.010116205 -0.018463736 0.0057918243 -0.005900623
0.0023082169 -0.052737866 -0.050029036 -0.013132965 -2.208451e-15 -0.026592175 -0.019649094 -0.009099092
-0.0021879377 -0.026328601 -0.031728867 0.026633432 0.046867806 0.00082781486 0.00077536976 -0.037949536
-0.024102032 -0.029892068 0.0047465744 8.369545e-16 -0.093107395 0.02687832 -0.045468736 0.0061514
-2.9297975e-14 -0.049281247 0.0067068585 9.718889e-05 0.035275728 0.004622851 -0.047601666 0.060932614
-0.02225266 0.00793814 -0.00031182024 0.0051805223 -0.017370546 -0.011640421 -0.013068046 -0.00014018238
0.048921727 0.023290869 0.022318734 0.04134568 0.0006917109 -0.0312592 0.03713932 -0.03151073
0.012204952 0.029500742 -0.019139685 0.0017058356 -0.039032463 0.011960426 -0.0075454796 0.003446698
-0.028549222 -0.002520174 -0.02354859 -0.0065794387 0.030312406 -0.034631446 -0.027686793 0.007945659
0.0004047363 0.011196967 -0.025636042 0.031426962 0.009134442 0.012503361 -0.05105226 0.012464537
-0.0068088397 -0.010576233 -0.034739826 -0.03540145 -0.041437984 0.03442665 -0.029485714 -0.009870846
0.04461137 -0.0614549 -0.032615036 -0.02552389 0.0063412297 -0.00074746966 0.029211733 -0.0046220124
-0.0030728686 -0.021266885 0.00047318652 0.08292567 0.0017062579 0.017298134 -0.028149957 -0.012124106
0.00455816 -0.030007664 -0.018480506 0.018571442 -0.02085597 0.0714271 0.030891472 -0.033097968
0.012164734 0.014582545 -0.014839102 -0.038610917 -0.014737588 -0.018792575 0.055709507 0.07439173
0.044007026 0.021270022 0.0078106886 0.0049840356 0.0007977368 0.0072629987 -0.020150822 -0.038576297
0.04268222 0.12377856 -0.018250754 -0.0032328034 0.0354022 -0.0038373247 0.010957435 0.0098955175
-0.038229723 -0.015202799 0.033003602 -0.13272801 -0.00022668942 -0.025189398 -0.022487585 0.008663112
0.0035043173 1.18862e-40 0.0102948425 -0.077637814 -0.07390107 -0.10101725 -2.13988e-40 0.010629479
0.01856992 -0.015505692 0.0070965462 0.00087536516 0.0019872999 -0.005591744 -0.033023458 0.048295055
00000000: ab70 0080 01b1 6fbc 939a 8d3c ff35 c2ba
00000010: b1fc 4abd 2127 1bba 4482 c0bc ebb6 423b
00000020: 9811 24ba 29aa 0c3b cdeb 0100 0f87 29bc
00000030: 8a90 8c3c 766d 953c 4d22 0100 c669 0000
00000040: f6ae e13b 3ef1 a03b 5850 c03c 98bb 6abb
00000050: 3eb7 0000 5bf8 3abc 7cc7 a03c ea18 4f3c
00000060: 65c0 69bb c33f 0100 a6c3 08bc 3c2a 5f3c
00000070: 7fb5 9c3c c102 edb9 2200 0080 7c80 26bc
00000080: f4d0 05bc 3bde e8bc 1289 23bd e0d9 743b
00000090: e6c4 703b 2779 8c39 7d6d 513b 4092 c23b
000000a0: 35da 70bb c9e1 2ebc 2b2e 3a3c 4689 75bd
000000b0: e425 aebd c961 f8bc 63ed 433a 3e1b 1dba
000000c0: 6d2d 93bc 5907 b13c 5868 90bb c46f 0200
000000d0: 04cb 74bb 185d 623c de05 de3d 0c00 bbbb
000000e0: 7f57 0100 b153 c3bb 3184 a73b f0d8 9839
000000f0: dbe2 193c 7380 08bb a5b2 1b3a f658 703d
00000100: de4c d93d 7684 d53d fc29 123c 0e54 72bb
00000110: ee00 803c c889 eebc d315 573c 63ca 27b9
00000120: 5d1d a7ba c785 dd3d 899d a93d 26ae 9c3d
00000130: e2c6 d73c 90e1 e6ba fee6 963c 2bad 5ebb
00000140: c201 443b 0125 253b b706 3037 600a 2d3d
00000150: 8207 4d3d d07f e43c 8f9a b5bb 24b0 c538
00000160: 6f34 99bc a52c 6d3b c828 00bc 4ea7 0280
00000170: f32d 0280 5eb1 8a3a 1c37 133b c5cc 0100
00000180: f74b 0200 dadc 0000 f0c3 38bc ad44 0280
00000190: 70be 253c 4341 97bc 58c9 bd3b 035a c1bb
000001a0: 7445 173b a903 58bd 3feb 4cbd a62b 57bc
000001b0: bb22 1fa7 d5d7 d9bc 23f7 a0bc 5c14 15bc
000001c0: 8163 0fbb 14af d7bc 21f6 01bd 5b2e da3c
000001d0: 75f8 3f3d b701 593a 2f42 4b3a f970 1bbd
000001e0: a071 c5bc 36e0 f4bc 2789 9b3b 583c 7126
000001f0: 17af bebd ec2f dc3c 6d3d 3abd af91 c93b
00000200: 44f2 03a9 22db 49bd 35c5 db3b e3d1 cb38
00000210: 487d 103d 497b 973b f7f9 42bd 7a94 793d
00000220: 364b b6bc f90e 023c ce7b a3b9 5fc1 a93b
00000230: ad4c 8ebc 77b7 3ebc 5c1b 56bc ecfd 12b9
00000240: 2662 483d 7ecc be3c c7d5 b63c 165a 293d
00000250: ef53 353a a609 00bd 661f 183d 6511 01bd
00000260: 47f7 473c 8aab f13c d4ca 9cbc 5896 df3a
00000270: 81e0 1fbd aaf5 433c 1240 f7bb ffe1 613b
00000280: 0fe0 e9bc 8129 25bb f9e8 c0bc 5598 d7bb
00000290: b951 f83c b4d9 0dbd 6acf e2bc 822e 023c
000002a0: c932 d439 7c73 373c ad02 d2bc 8fb9 003d
000002b0: a0a8 153c e6da 4c3c 2d1c 51bd 0f38 4c3c
000002c0: b01c dfbb f047 2dbc 594b 0ebd 1c01 11bd
000002d0: e0ba 29bd f502 0d3d 068c f1bc 54b9 21bc
000002e0: 69ba 363d 22b8 7bbd 5897 05bd 7a17 d1bc
000002f0: 17ca cf3b d7f1 43ba 724d ef3c 4074 97bb
00000300: 2e62 49bb e437 aebc 0516 f839 efd4 a93d
00000310: 84a4 df3a d1b4 8d3c bd9a e6bc 30a4 46bc
00000320: 9e5c 953b a2d2 f5bc 6e64 97bc 2323 983c
00000330: 24da aabc 5f48 923d 1d10 fd3c bc91 07bd
00000340: 984e 473c a0eb 6e3c b41f 73bc 7b26 1ebd
00000350: ed75 71bc e3f2 99bc a72f 643d b15a 983d
00000360: b640 343d 783e ae3c cef0 ff3b 1f51 a33b
00000370: 361f 513a 73fe ed3b 5613 a5bc 2e02 1ebd
00000380: 8dd3 2e3d 9d7f fd3d 9b82 95bc 71dd 53bb
00000390: e601 113d a07b 7bbb d086 333c cf20 223c
000003a0: c596 1cbd 2915 79bc c92e 073d dae9 07be
000003b0: 7ab3 6db9 ff59 cebc e237 b8bc baef 0d3c
000003c0: b0a8 653b 574b 0100 b3ab 283c 9300 9fbd
000003d0: 7259 97bd 22e2 cebd 8354 0280 4427 2e3c
000003e0: f21f 983c 960b 7ebc 258a e83b c378 653a
000003f0: 5c3d 023b f33a b7bb 9b43 07bd 09d1 453d

exp_avg f4 [32, 2, 5, 5]
0.00014647786 0.00021327587 0.00031076363 0.00043356957 0.0004940012 0.00010704701 0.0001220636 0.00025870433
0.00029908417 0.00035734862 -0.00010316623 -5.2932806e-05 2.366041e-05 0.00011665367 0.00015106608 -0.00021165871
-0.00012929528 -5.41767e-05 8.455343e-06 -1.1079142e-05 -0.00034813068 -0.00019971114 -0.00012944744 -7.563545e-05
-8.594849e-05 4.6345125e-05 7.77414e-05 0.00016214051 0.0002775691 0.00034580624 -7.00127e-05 1.0965193e-05
7.3378156e-05 0.00020518941 0.00021956651 -0.00029889584 -0.00018615523 -7.3669165e-05 -2.5624022e-05 -6.260695e-06
-0.0004618253 -0.0003408359 -0.0002071092 -0.00012275524 -8.44972e-05 -0.0005991942 -0.00047177266 -0.0003301375
-0.000242185 -0.00019366176 0.0005769244 0.00029570528 -5.6844186e-05 -0.00041147656 -0.0008251717 0.00069170044
0.00035784952 -4.319983e-05 -0.00045463015 -0.0009122586 0.0007014913 0.0003502971 -5.119085e-05 -0.00045987638
-0.00091884815 0.000678451 0.00034793685 -2.9763787e-05 -0.00041472606 -0.0008126699 0.0005978846 0.00030767798
-2.2111119e-05 -0.00032745677 -0.0006678259 0.00054729905 0.0002867263 -5.494793e-05 -0.00039766467 -0.0007712171
0.000657238 0.00033657165 -5.4221713e-05 -0.0004525372 -0.0008704814 0.000679889 0.0003425497 -8.3522056e-05
-0.00045878976 -0.0008918977 0.0006606142 0.00034217484 -3.9062325e-05 -0.00041232735 -0.00081554864 0.00056487764
0.00030508245 -2.1783626e-05 -0.00034557394 -0.000667469 0.00060778676 0.00044945846 0.00034261835 0.00029634192
0.00032976526 0.0005923438 0.00043999357 0.00031652802 0.00021066834 0.00021350328 0.0004880309 0.00033020493
0.00018911222 5.045991e-05 8.1668495e-06 0.00033803543 0.00018921122 3.6919537e-05 -7.591242e-05 -0.00015001743
0.00015387191 5.400988e-05 -7.616392e-05 -0.00020777364 -0.0002878372 0.00078782666 0.0007482926 0.00072577957
0.00070388766 0.0006654193 0.0008181946 0.00075078994 0.00069204846 0.00063664676 0.00053616526 0.00065529445
0.0006100132 0.0005255103 0.0004266715 0.0003237885 0.00048755773 0.00044826692 0.00038824568 0.00023138073
0.000105263454 0.0002697009 0.0002360404 0.00018228845 6.592991e-05 -8.27145e-05 0.0006051586 0.00055364077
0.00051525625 0.0004698311 0.00042899163 0.00053063355 0.0005288665 0.00048136368 0.00043397828 0.0003713922
0.0003885509 0.00041182464 0.0003990002 0.0003389665 0.00027214593 0.00031813062 0.00033577852 0.0003346401
0.00026480493 0.0001751036 0.00014528932 0.00021779527 0.00019199937 8.616896e-05 -1.678875e-05 0.00056174747
0.00055598805 0.0005302566 0.00050658383 0.0005502664 0.00048248057 0.00047663643 0.00050474866 0.00048069184
0.0004919848 0.00033043473 0.00037723535 0.0003875942 0.00035353279 0.00032563644 0.00023419713 0.00032544447
0.00034022098 0.00029491054 0.00024105315 5.7736786e-05 0.00014405018 0.00017440184 0.00012302048 1.4547284e-05
8.706313e-07 0.00012317357 0.00029113243 0.00043129316 0.00055729714 0.00013364339 0.000246417 0.00043048852
0.00062364095 0.0007834627 0.00027746995 0.00036951966 0.0005436817 0.0007292906 0.0008909214 0.0003755637
0.00045817628 0.00057140517 0.00074653095 0.0009109893 0.0004518347 0.00051098026 0.00063066965 0.00077845785
0.0008805228 8.750804e-05 0.00031927563 0.00055913423 0.00085250207 0.0010023806 0.00024045553 0.0004833758
0.0007397183 0.0010169441 0.001203961 0.0003694478 0.0005554513 0.00081362366 0.0011040039 0.0013325786
0.00044749476 0.0005662106 0.00084192253 0.0011190659 0.0013061088 0.0005246869 0.00061635784 0.00080465357
0.0010516479 0.0012627279 0.00014707008 0.00025144411 0.00029369438 0.0003352605 0.00032328424 0.00014202704
00000000: da97 1939 cea2 5f39 fded a239 b950 e339
00000010: dc7f 013a 6d7e e038 65fc ff38 b5a2 8739
00000020: 66ce 9c39 855a bb39 f35a d8b8 2b04 5eb8
00000030: 587a c637 f6a3 f438 7e67 1e39 b4f0 5db9
00000040: 7093 07b9 ca3b 63b8 6cdb 0d37 8de0 39b7
00000050: 4f85 b6b9 8d69 51b9 48bc 07b9 799e 9eb8
00000060: 3f3f b4b8 b362 4238 1909 a338 4304 2a39
00000070: b286 9139 544d b539 c8d3 92b8 25f7 3737
00000080: 99e2 9938 1d28 5739 703b 6639 1fb5 9cb9
00000090: aa32 43b9 d57e 9ab8 2bf3 d6b7 f612 d2b6
000000a0: 2421 f2b9 38b2 b2b9 742b 59b9 dcb7 00b9
000000b0: 1734 b1b8 3e13 1dba 4158 f7b9 4e16 adb9
000000c0: 0af3 7db9 af11 4bb9 be3c 173a e408 9b39
000000d0: fb6b 6eb8 73bb d7b9 5650 58ba 3b53 353a
000000e0: c09d bb39 7731 35b8 6d5b eeb9 a324 6fba
000000f0: 49e4 373a 15a8 b739 c2b5 56b8 901b f1b9
00000100: dbde 70ba 13da 313a 4b6b b639 3fad f9b7
00000110: 976f d9b9 5b09 55ba 5bbb 1c3a d74f a139
00000120: 447b b9b7 81ae abb9 0a11 2fba 9e78 0f3a
00000130: c153 9639 e477 66b8 a67d d0b9 812b 4aba
00000140: 7f4a 2c3a e275 b039 1f6c 63b8 8442 edb9
00000150: 0531 64ba 943a 323a 3e98 b339 9028 afb8
00000160: b889 f0b9 3ece 69ba 122d 2d3a ee65 b339
00000170: dad6 23b8 a42d d8b9 8bca 55ba 4c14 143a
00000180: 79f3 9f39 fbbb b6b7 262e b5b9 16f9 2eba
00000190: e153 1f3a 4ba5 eb39 75a1 b339 575e 9b39
000001a0: 58e4 ac39 8547 1b3a f0ae e639 acf3 a539
000001b0: dae6 5c39 dadf 5f39 66de ff39 5b1f ad39
000001c0: 6d4c 4639 eaa4 5338 5a04 0937 593a b139
000001d0: 0067 4639 0dda 1a38 2c33 9fb8 ff4d 1db9
000001e0: ad58 2139 ab88 6238 31ba 9fb8 d0dd 59b9
000001f0: dbe8 96b9 2786 4e3a 1129 443a 3e42 3e3a
00000200: 1a85 383a 896f 2e3a 1c7c 563a a9d0 443a
00000210: 966a 353a a4e4 263a 718d 0c3a 11c8 2b3a
00000220: 4be9 1f3a 66c2 093a e1b2 df39 28c2 a939
00000230: e49e ff39 5e05 eb39 748d cb39 cb9e 7239
00000240: e3c0 dc38 a466 8d39 9d81 7739 af24 3f39
00000250: da43 8a38 0277 adb8 82a3 1e3a 3422 113a
00000260: 4312 073a aa53 f639 48ea e039 371a 0b3a
00000270: a1a3 0a3a 8a5f fc39 9487 e339 6bb7 c239
00000280: 6bb6 cb39 2bea d739 e630 d139 50b7 b139
00000290: cfae 8e39 c5ca a639 6e0b b039 a272 af39
000002a0: 84d5 8a39 049c 3739 ce58 1839 f95f 6439
000002b0: 7053 4939 9cb5 b438 91d5 8cb7 3c42 133a
000002c0: babf 113a eb00 0b3a 44cc 043a c13f 103a
000002d0: 72f5 fc39 0fe5 f939 1c51 043a 5e05 fc39
000002e0: 8bf8 003a 333e ad39 acc7 c539 0336 cb39
000002f0: 5e5a b939 2fba aa39 d092 7539 6ba0 aa39
00000300: b05f b239 399e 9a39 36c3 7c39 672a 7238
00000310: 2d0c 1739 a3df 3639 0fff 0039 1c10 7437
00000320: 54b5 6935 2728 0139 22a3 9839 301f e239
00000330: 9417 123a a022 0c39 8831 8139 31b3 e139
00000340: d67b 233a 4b61 4d3a 6379 9139 17bc c139
00000350: dc85 0e3a dd2d 3f3a b98c 693a 4ee7 c439
00000360: 6137 f039 5aca 153a d8b2 433a 75cf 6e3a
00000370: 3ae4 ec39 4ef3 053a 8653 253a 6c11 4c3a
00000380: e3d2 663a 8584 b738 7364 a739 dd92 123a
00000390: 727a 5f3a 5062 833a ca22 7c39 9a6d fd39
000003a0: a8e9 413a fb4a 853a 3ace 9d3a 72b2 c139
000003b0: b59b 113a 5c49 553a 39b4 903a eba9 ae3a
000003c0: bb9d ea39 c06d 143a 77b4 5c3a 9fad 923a
000003d0: bd31 ab3a 248b 093a 1393 213a 63ef 523a
000003e0: 73d7 893a 1e82 a53a d336 1a39 42d4 8339
000003f0: fefa 9939 e7c5 af39 7a7e a939 18ed 1439

exp_avg_sq f4 [32, 2, 5, 5]
2.7008598e-05 1.7422964e-05 1.1292859e-05 9.102067e-06 9.616174e-06 2.839115e-05 1.823803e-05 1.093989e-05
7.2595535e-06 6.4566466e-06 2.5775214e-05 1.6848073e-05 9.915698e-06 5.9431563e-06 4.5898328e-06 1.9305315e-05
1.2946408e-05 7.816687e-06 4.909283e-06 3.934639e-06 1.351276e-05 9.337608e-06 6.001319e-06 4.3047417e-06
3.9170345e-06 3.095061e-05 2.0515974e-05 1.38451405e-05 1.1185603e-05 1.1134105e-05 3.248636e-05 2.1067903e-05
1.3074432e-05 9.050407e-06 7.786075e-06 2.9891255e-05 1.9556484e-05 1.1886235e-05 7.633085e-06 5.836744e-06
2.2090853e-05 1.4730704e-05 9.195339e-06 6.1648457e-06 4.9181185e-06 1.4704169e-05 1.0241839e-05 6.8741856e-06
5.2295936e-06 4.6694195e-06 6.5975614e-06 5.141429e-06 4.011051e-06 3.759561e-06 6.004876e-06 6.9687844e-06
5.1792763e-06 4.047513e-06 4.1527132e-06 7.370948e-06 7.008331e-06 5.095423e-06 3.954404e-06 4.2181696e-06
7.696931e-06 6.552915e-06 4.906754e-06 3.9100964e-06 4.007879e-06 6.7234687e-06 6.2605754e-06 4.86972e-06
3.9521647e-06 3.7115087e-06 5.129768e-06 5.9617805e-06 4.4885624e-06 3.554188e-06 3.851066e-06 7.0873843e-06
6.464582e-06 4.651543e-06 3.676946e-06 4.336282e-06 8.525465e-06 6.6693897e-06 4.7123617e-06 3.7155394e-06
4.4278418e-06 8.730974e-06 6.2528593e-06 4.590043e-06 3.6769636e-06 4.0955415e-06 7.4065147e-06 5.9660115e-06
4.5772686e-06 3.7265518e-06 3.6664437e-06 5.4727657e-06 1.2021579e-05 8.038386e-06 6.895044e-06 1.5163518e-05
3.6063455e-05 1.3279004e-05 9.281722e-06 7.863007e-06 1.6438466e-05 3.9098886e-05 1.4416022e-05 1.0228351e-05
7.462691e-06 1.3272403e-05 3.2111504e-05 1.2174783e-05 8.907375e-06 6.341875e-06 1.0173259e-05 2.4245419e-05
9.352103e-06 7.2137245e-06 5.2195537e-06 7.324043e-06 1.6307637e-05 8.415458e-06 7.14462e-06 8.682617e-06
1.7418068e-05 3.6022968e-05 9.516625e-06 8.276941e-06 9.728679e-06 1.875267e-05 3.8812734e-05 1.0116214e-05
8.514445e-06 8.680061e-06 1.5172007e-05 3.165212e-05 8.397649e-06 7.198758e-06 7.0380834e-06 1.1498147e-05
2.3669896e-05 6.3151506e-06 5.637926e-06 5.467389e-06 8.178949e-06 1.5902391e-05 4.5467086e-06 3.8510357e-06
3.2809216e-06 2.577819e-06 2.04875e-06 3.940843e-06 3.6251772e-06 3.4248856e-06 2.9204768e-06 2.2050913e-06
3.8528856e-06 3.674101e-06 3.673028e-06 3.3598121e-06 2.6196176e-06 4.181471e-06 3.8909884e-06 3.9491733e-06
3.758256e-06 3.097025e-06 4.676326e-06 4.289233e-06 4.3394894e-06 4.175286e-06 3.5587475e-06 4.5733623e-06
4.2425563e-06 4.1109192e-06 3.6700917e-06 3.124444e-06 3.7519944e-06 3.6771023e-06 3.839658e-06 3.6671925e-06
3.1230632e-06 3.4918442e-06 3.4846778e-06 3.7836805e-06 3.8024095e-06 3.3600961e-06 3.686909e-06 3.5395415e-06
3.837959e-06 3.952119e-06 3.6164352e-06 4.098122e-06 3.8076319e-06 4.045021e-06 4.178006e-06 3.9127517e-06
2.050322e-06 3.0804079e-06 5.092768e-06 8.304776e-06 1.2774908e-05 1.908889e-06 3.1155694e-06 5.3052163e-06
8.837042e-06 1.3917377e-05 1.8023333e-06 3.019188e-06 5.1736574e-06 8.659902e-06 1.3763774e-05 1.7820681e-06
2.864623e-06 4.892722e-06 8.090957e-06 1.2833387e-05 1.9320978e-06 2.767591e-06 4.593151e-06 7.4609734e-06
1.1623039e-05 2.3212626e-06 4.132052e-06 7.3554556e-06 1.19712595e-05 1.7542314e-05 2.251296e-06 4.25069e-06
7.739286e-06 1.2801518e-05 1.909467e-05 2.0874727e-06 3.9432316e-06 7.2805183e-06 1.2130769e-05 1.8350325e-05
1.8962587e-06 3.414245e-06 6.3006887e-06 1.052365e-05 1.6077676e-05 1.8358768e-06 2.8698662e-06 5.2792257e-06
8.809989e-06 1.3486488e-05 8.926376e-06 1.1172496e-05 1.1836719e-05 1.1344513e-05 9.767247e-06 9.47731e-06
00000000: 8690 e237 8827 9237 7676 3d37 15b5 1837
00000010: 2755 2137 8829 ee37 dffd 9837 788a 3737
00000020: 1797 f336 2ca6 d836 da37 d837 f654 8d37
00000030: 995b 2637 536b c736 5d02 9a36 d9f1 a137
00000040: 6634 5937 6a24 0337 6bba a436 4b06 8436
00000050: ddb4 6237 b9a8 1c37 f05e c936 7371 9036
00000060: 126f 8336 f7d0 0138 b819 ac37 6d48 6837
00000070: cda9 3b37 9ecc 3a37 f741 0838 faba b037
00000080: 425a 5b37 34d7 1737 f0a0 0237 fbbe fa37
00000090: 3b0d a437 fe6a 4737 da0f 0037 40d9 c336
000000a0: bf4f b937 e423 7737 ae45 1a37 9fdb ce36
000000b0: 5106 a536 edb1 7637 5dd4 2b37 cea8 e636
000000c0: de79 af36 02ae 9c36 9f60 dd36 8a84 ac36
000000d0: aa96 8636 c44c 7c36 7e7d c936 67d5 e936
000000e0: a5c9 ad36 dfcf 8736 8957 8b36 f653 f736
000000f0: 1b29 eb36 5af9 aa36 12b0 8436 cd89 8d36
00000100: 1122 0137 1ce1 db36 b2a4 a436 7933 8336
00000110: 6b7b 8636 289a e136 ef11 d236 9466 a336
00000120: d69c 8436 3c13 7936 5f20 ac36 4e0b c836
00000130: 759c 9636 7c84 6e36 6838 8136 2bd0 ed36
00000140: 56ea d836 7314 9c36 74c1 7636 6180 9136
00000150: 9808 0f37 9fc9 df36 e11e 9e36 7b58 7936
00000160: df92 9436 3f7b 1237 a7cf d136 2b04 9a36
00000170: c1c1 7636 6f6c 8936 7a85 f836 a62f c836
00000180: 7096 9936 ac15 7a36 060d 7636 b3a2 b736
00000190: 4ab0 4937 9bdc 0637 fa5b e736 d066 7e37
000001a0: d742 1738 e3c8 5e37 b1b8 1b37 5ceb 0337
000001b0: 56e5 8937 1cfe 2338 58dc 7137 6f9a 2b37
000001c0: 0768 fa36 89ac 5e37 77af 0638 4b42 4c37
000001d0: e270 1537 4bcc d436 d1ad 2a37 a462 cb37
000001e0: fae6 1c37 6c0d f236 a023 af36 0dc1 f536
000001f0: 62cc 8837 1e30 0d37 d2bb ef36 8eab 1137
00000200: 041d 9237 5e17 1738 98a9 1f37 31dd 0a37
00000210: 5c38 2337 0d4f 9d37 dbca 2238 cfb8 2937
00000220: 43d9 0e37 94a0 1137 468b 7e37 34c2 0438
00000230: a1e3 0c37 dc8c f136 ad28 ec36 2ae8 4037
00000240: b78e c637 bbe6 d336 6a2d bd36 8474 b736
00000250: 5238 0937 2066 8537 ee8f 9836 2538 8136
00000260: ce2d 5c36 98fe 2c36 427d 0936 953b 8436
00000270: 1248 7336 16d7 6536 69fd 4336 2efb 1336
00000280: 0948 8136 9390 7636 247e 7636 2279 6136
00000290: b0cc 2f36 904e 8c36 568f 8236 2483 8436
000002a0: 5936 7c36 7cd6 4f36 56e9 9c36 3bec 8f36
000002b0: ee9b 9136 6f19 8c36 d1d2 6e36 e274 9936
000002c0: 485b 8e36 87f0 8936 b24b 7636 8aad 5136
000002d0: c6ca 7b36 23c4 7636 69d6 8036 e319 7636
000002e0: d195 5136 6d55 6a36 4fda 6936 23eb 7d36
000002f0: e62c 7f36 037e 6136 9d6c 7736 dc88 6d36
00000300: d1c7 8036 729c 8436 e2b1 7236 9a82 8936
00000310: 9e86 7f36 77ba 8736 cc30 8c36 484a 8336
00000320: 4498 0936 01b9 4e36 8be2 aa36 be54 0b37
00000330: d053 5637 771a 0036 1315 5136 7603 b236
00000340: ce42 1437 ae7e 6937 b3e7 f135 419d 4a36
00000350: 6199 ad36 ff49 1137 f6ea 6637 652f ef35
00000360: d93d 4036 292c a436 65be 0737 fa4e 5737
00000370: 30a9 0136 daba 3936 de1e 9a36 4659 fa36
00000380: 9300 4337 fdc6 1b36 0ea6 8a36 e2ce f636
00000390: 2bd8 4837 d527 9337 f914 1736 26a1 8e36
000003a0: fbd7 0137 1ac6 5637 7e2d a037 8216 0c36
000003b0: 1a50 8436 2d4b f436 4285 4b37 06ef 9937
000003c0: f482 fe35 4820 6536 816a d336 bc8e 3037
000003d0: 8cde 8637 3f68 f635 ed97 4036 3424 b136
000003e0: 9dce 1337 0644 6237 7ec2 1537 8171 3b37
000003f0: 5296 4637 5054 3e37 02de 2337 bd00 1f37

exp_avg f4 [32]
0.0004622497 9.188417e-05 0.00097381027 -0.00048653857 2.8852955e-05 -0.00054331875 0.0006558838 0.00053772127
0.00040935422 -0.00069406955 0.00018007902 0.0004749339 -0.0001520072 -0.00014638138 -0.0010243088 -0.0004914668
-0.00029533467 -0.00039391924 -0.00019942128 0.0003201708 0.0001877537 8.830181e-05 -8.988205e-06 -0.00012836479
4.6518588e-05 0.00011321209 0.00016322067 -0.0006244196 -0.00034655546 -0.00045158927 -1.9064642e-05 -0.0012133807
00000000: 1b5a f239 f0b1 c038 4d47 7f3a 1a16 ffb9
00000010: 4009 f237 816d 0eba 9eef 2b3a ddf5 0c3a
00000020: 989e d639 38f2 35ba 98d3 3c39 8d00 f939
00000030: 1f64 1fb9 f47d 19b9 1a42 86ba c7d5 00ba
00000040: 26d7 9ab9 f286 ceb9 be1b 51b9 99dc a739
00000050: c0df 4439 ac2e b938 0ccc 16b7 a999 06b9
00000060: f41c 4338 476c ed38 3726 2b39 17b0 23ba
00000070: e3b1 b5b9 49c3 ecb9 02ed 9fb7 4d0a 9fba
