results/2BS/T_1/L_8000/seed2/checkpoint.pth.tar (torch_old, 395618 bytes, 22 tensors)

layer1.conv.weight f4 [32, 2, 5, 5]
000000 b5 66 8c 3b a7 22 10 bd 46 bd f0 3c 0e a2 5f bc
       0.0042847046 -0.035189297 0.029387128 -0.013649477
000010 5e ce ae 3d db 0d b8 bc e7 02 66 bd 6b 23 95 3d
       0.08535455 -0.022467544 -0.05615511 0.07282146
000020 62 32 03 3d d0 40 be ba d9 16 97 bd b3 b9 b4 bc
       0.03203047 -0.0014515165 -0.07377405 -0.022061205
000030 ff 69 e8 bc a9 2d 0c bd 10 1f 9a 3d 69 84 5a bb
       -0.028370855 -0.034223232 0.07525456 -0.0033343083
000040 8a 53 ca 3c 24 81 d9 3d 8e 31 b8 3c f6 8a b9 3b
       0.024698038 0.10620335 0.022484567 0.0056623174
000050 41 74 d5 bd fe 56 08 3b df 65 a0 3b 32 b6 86 3c
       -0.10422564 0.0020803805 0.0048949565 0.0164443
000060 2c df bb 3c 31 0c 34 bd b0 63 91 bc 28 42 82 3d
       0.022933565 -0.04395694 -0.01774773 0.063602746
000070 79 7b 38 bc 41 f7 53 3d bf 74 4d bd 92 79 12 3d
       -0.011259907 0.05174947 -0.050160166 0.03576047
000080 3b 2f 3f bd 7a d3 02 3e b0 6c 67 3d fe b6 52 bd
       -0.0466759 0.12775984 0.056500137 -0.051444046
000090 b9 8e a4 3d d0 fb 6c bd c2 47 9d 3a a5 8c 97 3d
       0.08035035 -0.057857335 0.0011999535 0.07399873
0000a0 07 d1 fc bc 75 da 1c bd 67 3e 00 bc bf 84 e4 3d
       -0.03086139 -0.038294274 -0.007827378 0.11158132
0000b0 64 8a a6 3c b1 88 0f bd f0 5e 73 3a 32 4f c0 3d
       0.020329662 -0.03504247 0.0009283861 0.09390105
0000c0 9b 61 31 3d 38 7e be 3c 75 f5 9a bd 03 52 b3 bc
       0.043305974 0.023253545 -0.075663485 -0.021889692
0000d0 ca 38 51 3d 1b 7a 03 bd 2c bf c2 bd cd 10 5c bb
       0.05107955 -0.03209887 -0.095091194 -0.003357935
0000e0 c3 cf 3e 3d f7 56 ef 3c 2b 9a 8d bd f9 2f 62 bc
       0.046584856 0.029216273 -0.06914171 -0.013805383
0000f0 d7 e3 e1 bc 16 3b 5c bd 58 62 98 3c 09 a7 2c bd
       -0.027574463 -0.053767286 0.018601581 -0.042151485
000100 ab 15 b5 bd 98 c5 0e bd 18 67 80 bd 8e 9f a5 3d
       -0.088420235 -0.03485641 -0.062696636 0.08087073
000110 da f2 e6 bc f6 bc 37 3d 37 fb a3 bd 30 7e 6c 3d
       -0.028191973 0.04485794 -0.080069 0.05773753
000120 8c 8c e2 bc 39 57 c4 3d 31 a0 c2 bc 83 82 b4 3b
       -0.027654909 0.09586949 -0.023758026 0.0055087223
000130 c4 53 ce 3d ff 24 cd bc 78 2f 21 bd 7f 93 23 bd
       0.10074571 -0.025042055 -0.03935191 -0.039935585
000140 42 41 a9 bd 03 97 95 bc 89 94 66 3d 4a e8 cf 3b
       -0.082644 -0.018260485 0.056293998 0.0063448297
000150 d9 fa 5e bd 03 8c 67 bd 72 17 53 3b 27 68 43 bd
       -0.054438446 -0.05653001 0.003221002 -0.04770675
000160 a8 2a e5 3c fa 72 56 bd 92 fe 96 bc 32 ed 0c bc
       0.027974442 -0.052355744 -0.018431935 -0.008601474
000170 a9 51 c4 bd d3 3b bb bc 34 45 39 3d 63 77 0d 3d
       -0.09585888 -0.022855675 0.045232013 0.034537684
000180 8a b1 6a bd b4 f7 8e bd d1 9b d1 3c 37 43 18 bc
       -0.05729822 -0.06980839 0.025586994 -0.009293369
000190 6d 55 8f 3d 70 29 d5 3c 7e 6f ae 3d dd 6e 37 3d
       0.069987155 0.026020736 0.08517359 0.04478346
0001a0 3e 23 84 3d c2 46 0c 3e 50 02 d2 3d 45 53 14 3d
       0.064520344 0.13698867 0.10254347 0.036212225
0001b0 93 a7 97 3d c4 5f a8 3d be 11 85 3d 76 9e 67 bc
       0.07405009 0.08221391 0.06497525 -0.014136901
0001c0 79 14 07 3d 2c ba 5f 3d 9c 71 da bd 42 2d 50 3d
       0.03297851 0.054620907 -0.106662005 0.05082441
0001d0 8b 2c fa 3d 0f 25 8f 3d 7b ff 1e bc cc c5 c5 bc
       0.12215527 0.0698949 -0.009704466 -0.024142168
0001e0 68 ee c3 3d a2 b5 4e 3d 77 fa 1a bc 1d 05 8f bd
       0.09566957 0.050466187 -0.00945913 -0.06983397
0001f0 eb bb 90 bd d0 8f 04 bd 0b 1b ce bd c8 8f f7 bc
       -0.070670925 -0.032363713 -0.10063752 -0.030219927
000200 1b 4f 23 bd f5 7e b4 bd 49 d3 03 bd 92 1e 1a 3d
       -0.039870363 -0.08813278 -0.03218392 0.03762681
000210 d2 88 13 be f8 0a 67 bd e9 9b 31 bd e3 ae d8 3a
       -0.14407662 -0.056406945 -0.043361578 0.0016531612
000220 d2 a0 06 be d8 d4 c0 bc f1 11 fb bc bd 66 96 3c
       -0.13147286 -0.023538992 -0.030648204 0.018359536
000230 36 07 c4 bd e1 21 50 bc 9f 04 3c bc 1d f9 af bd
       -0.09571688 -0.01270339 -0.011475711 -0.085924365
000240 e3 11 54 3c 3d b8 f1 bc 74 72 b5 3b 1a c2 bf bd
       0.012943718 -0.029506797 0.0055373255 -0.09363194
000250 86 db 6c 3c 87 0d 11 bd 8c 74 4c bc bd 23 22 3c
       0.014456635 -0.03541329 -0.012478959 0.009896216
000260 58 9c d4 bc 82 8a b9 3d ef a9 2f bd 58 70 c9 3c
       -0.025953457 0.090596214 -0.04288667 0.024589702
000270 19 04 ae 3c 15 bd b8 3b 5d f7 3b bc ed 3f 2d 3d
       0.021242188 0.0056377747 -0.01147255 0.042297293
000280 0a 20 01 3d 9b f5 bf 3b 92 13 e6 bc 06 5f 4a bc
       0.031524695 0.005858136 -0.028085504 -0.012351757
000290 dc 47 9f 3d 3e ff a2 3c 7d 1f 90 bc 5d 96 cc bc
       0.07777378 0.0198971 -0.01759314 -0.024974043
0002a0 b6 9b 19 3e ae d9 64 3d 65 98 ae bd 92 50 19 bc
       0.15000805 0.055871658 -0.08525161 -0.009357588
0002b0 27 58 8f 3d 26 cf eb 3d 0a be 83 3d 23 ac 2f bd
       0.069992356 0.1151412 0.064327314 -0.04288877
0002c0 6b c0 e6 3d fb 7e 8b bd 5c 2f 8f bc 5d a5 f0 bc
       0.112671696 -0.06811329 -0.017478637 -0.029375726
0002d0 f7 29 fa bc 49 67 6f bd 0c 12 07 3d 6a d2 e4 3b
       -0.030537589 -0.05844811 0.032976195 0.006983091
0002e0 8e f5 c3 bc bb 39 e5 bd 63 a4 ad bd ee a7 ac bb
       -0.0239208 -0.11192652 -0.0847862 -0.005269042
0002f0 2a 88 b9 bd 75 08 b7 3d 51 9e 40 bd 6a 08 2e 3d
       -0.09059174 0.0893716 -0.047025982 0.042488493
000300 fa 6d 17 bc 29 7b 4b 3d 01 2f dc ba 8a 63 49 bd
       -0.009242529 0.049678 -0.0016798676 -0.049167193
000310 59 46 c1 bd 5f ec bf 3c 05 61 09 3c b2 1c cf ba
       -0.09437246 0.02342814 0.008384948 -0.0015801399
000320 63 fd 57 3c 3b 96 a2 bc ce d7 5b 3d 80 f4 13 3c
       0.013182971 -0.019847026 0.053672604 0.009030461
000330 dc 4c af 3d f4 9a 84 3d 5b 7e 84 bd 4e cb 4a bc
       0.08559582 0.064748675 -0.06469413 -0.012377573
000340 20 bb 8d 3c 7f 6c 3b 3d bb 4c 98 bc 87 11 c1 bb
       0.017301142 0.045757767 -0.018591275 -0.005891982
000350 d8 06 17 3c 33 c0 c1 3c 82 32 c9 3d 7c b0 ab bd
       0.00921794 0.023651218 0.09824087 -0.08383271
000360 92 f0 2f bd 58 12 08 3d 1d 34 c1 3b 4a 7c 12 3d
       -0.042954035 0.03322062 0.005896105 0.035763063
000370 90 fd cb ba b6 32 2c bc 50 3e 5a 3c 94 2a 5d 3d
       -0.0015563238 -0.010510137 0.0133205205 0.053995684
000380 84 67 c7 bc e3 ea aa 3c 4a 49 4b bd c7 06 be bd
       -0.024341352 0.020863956 -0.04963044 -0.092786364
000390 f1 a8 d3 3c 88 7f 5b 39 72 6d c8 bd d0 6b 1c bd
       0.025837393 0.00020932977 -0.097865 -0.038188756
0003a0 67 08 22 3d ef 86 be bd f2 13 3c 3d 3e 13 6e bc
       0.039558794 -0.0930308 0.04591746 -0.014530955
0003b0 b3 76 45 3a a2 cc e9 3c 1c bb 2f 3d cc a4 4a 3c
       0.0007532641 0.02853996 0.04290305 0.012368392
0003c0 77 b1 4f 3d 66 f2 36 bd 80 29 07 3d d3 87 09 3d
       0.050706353 -0.044664763 0.03299856 0.033576798
0003d0 1e 1c ac bc fb 9c 14 3c 66 db 5d bb 45 4b 9d bd
       -0.021009501 0.00907063 -0.0033852695 -0.07680372
0003e0 e4 e6 84 3c 99 13 c0 3c 04 04 92 3d 80 0a 98 bd
       0.016223378 0.023446845 0.07129672 -0.07423878
0003f0 a3 80 e3 38 98 e1 44 bd d0 4d af bd 8b e5 36 bd
       0.00010848164 -0.048066705 -0.085597634 -0.044652503

layer1.conv.bias f4 [32]
000000 ea 37 e6 bd a4 9b e2 3c bd b1 72 bd 5b b3 95 3d
       -0.112411335 0.027662106 -0.059251536 0.073096
000010 86 05 96 bd dd 01 3d bb 94 38 e7 3d c5 0c bd 3b
       -0.07325272 -0.0028840222 0.11290088 0.0057693445
000020 af d0 4f bc 99 ae 7b bd 05 1d e4 bd 3a eb 85 3d
       -0.012684031 -0.061445806 -0.111383475 0.065390065
000030 5c 3b c3 3d 7b 12 74 3d 7f d7 c3 bd 5e 82 8a bc
       0.09532806 0.059587937 -0.09562587 -0.016907867
000040 a4 a9 e7 3c 5e 55 07 be c3 19 dd 3a 11 e1 1c 3d
       0.028279133 -0.13216159 0.001686864 0.038300578
000050 95 9b b4 bd f8 eb 0a bd 68 0c 0e be 3b 99 53 3c
       -0.088187374 -0.033916444 -0.1387192 0.012914951
000060 5b 6a 1b bd 93 f8 71 bd 36 de 1b 3d 79 3f c3 3d
       -0.037943225 -0.05907495 0.038053714 0.09533591
000070 5a ba 36 bd d6 94 46 bd d2 6a 0e 3d d7 76 7d bd
       -0.044611312 -0.048481785 0.03476984 -0.061880913

layer2.conv1.weight f4 [32, 32, 3, 3]
000000 89 55 89 3d dd 5a c6 3c 31 4f 27 be 21 25 2a bd
       0.06705768 0.024213249 -0.16338803 -0.041539315
000010 a4 8d ea 3c 0e f4 fe 3d 38 07 88 bc 2b 0d 2d 3c
       0.028631993 0.124488935 -0.016605005 0.0105622215
000020 ef 32 e2 bd 9a e5 67 3d 20 4d eb bd d7 e8 ad bc
       -0.11044871 0.05661545 -0.1148932 -0.02122919
000030 4e 67 a0 3d b2 c3 6a 3b df f5 28 3e 9c 67 f2 3d
       0.07832204 0.003582221 0.16500042 0.11836168
000040 6e 5a b8 3d ec 24 a0 3d 23 dc a6 3c cd 4d 8d 3d
       0.09001623 0.07819542 0.020368641 0.06899605
000050 f2 c7 bb bd 96 64 42 3e b1 bb 04 3d a1 1d 2c bd
       -0.09168996 0.18983683 0.03240556 -0.042020444
000060 9d 2b a7 3d 44 c8 43 3e 01 ec ee 3c 7b b3 fc 3a
       0.081626154 0.19119364 0.02916527 0.0019279564
000070 c0 9f d8 3d 30 34 4e bd 4e aa 64 bd 96 c2 f4 3c
       0.10577345 -0.05034274 -0.055826478 0.029877942
000080 1e 5c f1 bc 32 0c 15 3e 1d 2c d6 bd 77 40 a6 bd
       -0.02946287 0.14555433 -0.10457633 -0.081177644
000090 cd 25 67 3d 44 16 1b b9 6e 1e 60 bd 5d 0d 17 bd
       0.056432534 -0.00014790246 -0.05471652 -0.03687798
0000a0 22 fc 05 3c 94 5a d9 bc d6 60 1a 3d 3f 99 b1 3c
       0.008177789 -0.026532449 0.037690006 0.021679519
0000b0 32 0e ab bd 03 58 ab bc 3c 3d ab bd 31 6e 41 bd
       -0.08352317 -0.02091599 -0.08361289 -0.047224227
0000c0 46 05 4a bd 7f bc 0a be 52 ba ea 3d aa 12 8f 3c
       -0.049321435 -0.13548468 0.11461319 0.017464954
0000d0 d3 ba c5 bd 8c 79 90 3d 23 35 e6 bc 8b e1 94 3c
       -0.096547745 0.07054433 -0.02810151 0.018173954
0000e0 f1 ab 25 bd 59 fb 2b bd 84 97 59 3d 1b 9d c5 bb
       -0.04044718 -0.04198775 0.053123012 -0.0060306913
0000f0 0f 50 83 3d 29 0e 5d bc c9 e7 0f bd 8f 27 d5 ba
       0.06411754 -0.013492146 -0.035133157 -0.00162624
000100 e8 bf 0e bc c7 86 07 3d 5d 9c 5d 3c 9b 82 81 3d
       -0.008712746 0.033087518 0.013526049 0.06323739
000110 06 7c 4b bc 84 24 e3 3b 47 7d ad bd 86 9f 9c 3d
       -0.012419706 0.0069318432 -0.084711604 0.07647614
000120 58 97 3a 3b 5f c8 92 ba e3 98 81 ba 24 06 86 3b
       0.0028471556 -0.0011198631 -0.0009887483 0.0040900875
000130 84 b0 9b ba 48 65 5c ba b0 4f 4e 3b 32 f9 dc ba
       -0.0011878167 -0.0008407426 0.0031480603 -0.0016858934
000140 39 97 94 ba 83 8e a8 bc eb 10 72 bd 45 98 c1 3c
       -0.0011336572 -0.020575767 -0.059098165 0.023632178
000150 df a4 b2 3d af 4f e3 3d cd 8b b8 bc c4 b6 8b 3d
       0.08722853 0.11099183 -0.0225276 0.06821969
000160 f1 90 5a 3c 03 b3 19 3d cc a5 d0 3d 7b 71 3d bc
       0.013340221 0.037524235 0.10187873 -0.0115627
000170 83 d7 90 3c dc bc 40 3d aa ea f0 3b 4c 27 64 bc
       0.017680889 0.04705511 0.007352193 -0.013925385
000180 cb 94 7d bd b9 84 ba bc 30 66 07 3d c8 58 ac 3c
       -0.06190948 -0.022768365 0.033056438 0.021038428
000190 cd fa 3c 3e 00 d1 75 3d 2e 18 f9 bd 99 83 20 be
       0.18455048 0.06001377 -0.12162815 -0.156752
0001a0 76 66 1e bd 12 5d 2f bc 2c 2b 46 bc c6 00 7b 3d
       -0.038671933 -0.010703342 -0.012095254 0.061280034
0001b0 ba 81 1e 3d d4 21 e4 3c 02 2d 37 bd bd 9b b6 bd
       0.038697936 0.027848162 -0.044720657 -0.089164235
0001c0 76 57 a1 3d 8b bd 8f 3c 53 c0 e6 bb ad 31 17 3d
       0.0787801 0.017546436 -0.00704197 0.03691261
0001d0 7c e7 d8 3d c6 ba df 3c ee 07 54 3d 18 c1 07 bc
       0.10591027 0.02731074 0.051765375 -0.008285783
0001e0 aa 11 ba 3d a9 42 e7 3d 39 6f ef 3d 2b 9e 12 3e
       0.090854004 0.11292011 0.11691136 0.14318149
0001f0 ef 22 c6 3c af ea 0b bd 72 bf 9c bd 80 38 89 bb
       0.02418658 -0.03415936 -0.07653703 -0.0041876435
000200 de 53 e9 bc d5 5f b7 bd ea bf 6d bd 9f f4 a8 3c
       -0.028482374 -0.089538254 -0.05804435 0.020624457
000210 07 9e b0 bd 8b 21 45 bc 2b 91 bc 3d 0c 6b 67 3b
       -0.08623891 -0.012031923 0.09207376 0.0035311608
000220 03 1b 80 3d 75 01 a3 bd 7a aa 1b be 63 50 08 bd
       0.06255152 -0.07959262 -0.1520175 -0.033279788
000230 63 a2 62 3d d2 df 55 bd 12 61 39 bd 33 ba 92 3d
       0.055330645 -0.052215405 -0.04525859 0.07164421
000240 e6 62 2b 3d 5d a6 72 bc 79 35 c2 bd 69 40 79 3d
       0.041842364 -0.014810172 -0.09482855 0.060852442
000250 d3 1f 56 3d bf 94 3d bd 53 6e 83 bb 90 f3 7c bd
       0.052276444 -0.046284433 -0.0040109544 -0.061755717
000260 ef d5 bf 3c f8 47 ea 3c fd d5 1d bd f9 66 04 3d
       0.023417441 0.02859877 -0.038534153 0.032324765
000270 ec dc 28 bd e9 76 9d bd 14 5c 46 3d 5b 2e 55 3d
       -0.041226313 -0.07688696 0.048427656 0.05204616
000280 ff 28 59 3b d8 b5 4f 3d c3 10 d8 bc 68 e2 c8 3b
       0.0033136008 0.05071053 -0.02637518 0.0061305054
000290 14 b6 f1 bd d7 8b c0 3d c0 4c ec bb c7 8d cd bd
       -0.11802307 0.09401672 -0.0072112978 -0.100368075
0002a0 a7 09 93 3c 17 67 fa 3b 18 77 ab 3c d4 2b a1 bd
       0.017948939 0.007641684 0.020930812 -0.07869688
0002b0 c2 9f 55 3c 97 04 c5 bd 6f ce 24 3d 8f 8d df bd
       0.0130385775 -0.09620016 0.040235933 -0.10915672
0002c0 51 91 98 3d 89 04 8f 3d c8 c9 40 bc 12 b6 b7 3c
       0.07449592 0.06983287 -0.011766858 0.022425685
0002d0 dc 1a 81 bd 4e 06 88 bc da 73 b2 3c 3c 79 c8 bd
       -0.06303951 -0.016604569 0.021783758 -0.097887486
0002e0 c5 4b 1e bd 97 87 57 3a 03 c5 b9 3c 15 78 dc bb
       -0.03864648 0.00082218036 0.02267695 -0.006728182
0002f0 f2 ac 03 bc 49 79 ba bd 58 ae 08 3e f6 ba d0 bd
       -0.008036839 -0.091051646 0.13347757 -0.1019191
000300 9e 47 6e 3c f1 64 a2 3d 31 bf bd bc b3 54 ff bd
       0.014543442 0.07929409 -0.023162456 -0.12467327
000310 31 bb cd 3a 33 5b c6 3d a0 c0 40 bc 02 e7 c4 3b
       0.0015696046 0.096853636 -0.011764675 0.0060089836
000320 d4 aa 6d bc fa a7 b0 bc b5 71 e8 3b 34 75 16 bd
       -0.014506061 -0.021564472 0.007093633 -0.036732867
000330 4b 34 87 bb 08 1f 8d 3c d8 95 bb bc 25 19 8d bb
       -0.004126107 0.01722671 -0.0228986 -0.004305976
000340 8f 3e a3 bc 23 5e 3e bc 28 4d dd bc 1b 9d da 3d
       -0.019927291 -0.011619124 -0.02701433 0.10674497
000350 a5 6a 90 3d 9c a6 07 bc 35 ea cd 3d 45 93 fd 3c
       0.07051591 -0.008279469 0.10054437 0.030954013
000360 48 10 08 3c 82 a9 99 3c 96 23 62 bd 05 ab b2 3c
       0.008304663 0.018757585 -0.05520972 0.021810064
000370 56 28 ad 3c 06 72 9b 3d 68 15 37 3d 72 25 78 bc
       0.021137398 0.075901076 0.04469815 -0.015145646
000380 73 80 54 bc a1 dd a2 bd 53 64 17 bd e5 36 96 bd
       -0.012970078 -0.079524286 -0.03696091 -0.07334689
000390 2a 72 d6 bc 5b 60 07 3d 06 99 e9 3c 70 7c b7 bd
       -0.026177485 0.033050876 0.02851535 -0.089592814
0003a0 39 61 e2 bc b1 27 ae bc 7e 1f 82 3d 0f 7b 34 bc
       -0.02763425 -0.02125916 0.06353663 -0.011015668
0003b0 46 82 c9 3b c5 76 1d bc df f2 ef 3c a6 86 bb bd
       0.006149563 -0.009610836 0.029290615 -0.091565415
0003c0 55 34 a4 3b ba 59 33 bd 3a 9c 6d 3c cf f4 fc 3d
       0.0050111213 -0.04378674 0.014502579 0.12351381
0003d0 eb 42 b8 3d a8 58 ac bd 77 f7 a2 3d 32 c0 5f 3c
       0.089971386 -0.08415347 0.079573564 0.013656663
0003e0 51 0b 0f ba ca d8 ec 3c 41 59 65 bd 76 d5 a9 3d
       -0.00054567034 0.028911967 -0.055993322 0.082926676
0003f0 61 47 68 3d c8 5f c8 3c a2 65 ae 3c 06 46 94 bc
       0.056708697 0.024459735 0.021288697 -0.018099796

layer2.conv1.bias f4 [32]
000000 94 05 34 3d 47 75 25 3c 04 d7 3a 3d d5 6f 90 3c
       0.043950632 0.010098762 0.04561521 0.01763145
000010 f0 48 eb bc ce d0 f8 3b 73 b1 07 3d bc ae 53 3d
       -0.028721303 0.007593251 0.033128213 0.05168031
000020 64 03 06 bd e2 8c 9c b0 8c 1b 81 ba d4 f1 aa bc
       -0.032718077 -1.1390535e-09 -0.0009850129 -0.020867266
000030 c2 65 a3 bc 47 5e f4 3c 0d d5 37 3d 5b fb 23 3d
       -0.019945983 0.029830111 0.044880915 0.040034633
000040 53 d2 b2 bc 1f a5 8b ba 99 b3 e0 3a d0 8b 4a bc
       -0.021828806 -0.0010654068 0.0017143368 -0.012362435
000050 6f 21 30 3d 56 57 ac 3c 60 d1 f0 b9 ba a6 29 bd
       0.043000635 0.021037739 -0.00045932364 -0.04141877
000060 a6 df ed 3c e4 ed a6 3b 51 d6 a0 bc e4 e0 48 bd
       0.029037308 0.0050942767 -0.019633444 -0.049042597
000070 1b 03 c4 3c 33 f2 83 b8 95 96 21 bd 5c 71 b7 3b
       0.023927262 -6.29168e-05 -0.039450247 0.0055982303

layer2.conv2.weight f4 [64, 32, 3, 3]
000000 8d 83 c5 3c 78 60 06 bd 0e 10 0c 3d 48 1b ae bc
       0.02411058 -0.032806844 0.034195 -0.021253243
000010 0d 96 3a ba 7a 4e 8a bc 9b a1 be bc fa f5 18 3c
       -0.0007117696 -0.016883124 -0.023270419 0.009335989
000020 ad d5 10 bc 65 55 10 3d 5d 5a 1c 3c f4 85 d6 bd
       -0.008840007 0.03523769 0.009543029 -0.10474768
000030 af 48 2b bb 8f 83 98 bc af ab 88 3c 2e d0 b3 ba
       -0.0026135852 -0.01861742 0.016683428 -0.0013718659
000040 ad ab 78 bc 13 f5 09 3d e3 20 b0 3c e8 10 d3 bc
       -0.015177649 0.033680987 0.021500057 -0.025764897
000050 b2 a3 08 3d 48 e5 34 3c bc 6f b0 bb c4 8c dd 3b
       0.033359237 0.011040993 -0.0053844135 0.0067611653
000060 c3 d3 94 3b 05 30 ed ba 4d b3 a6 3a 92 30 7f bd
       0.0045418455 -0.0018095976 0.0012718231 -0.06230218
000070 d9 b6 5e bd 4c 4b c0 bb b7 36 a4 bd b0 25 75 3b
       -0.054373596 -0.005868351 -0.080182485 0.0037406497
000080 67 32 9a 3c ea 81 43 bd 58 ae 60 bc 88 2d 2e 3c
       0.018822862 -0.047731318 -0.013713442 0.010630973
000090 86 76 a7 3c da 06 84 3d 78 5f 90 bb 37 f0 7c 3d
       0.020442259 0.06446619 -0.004405912 0.061752524
0000a0 1d c8 bd 3c b0 1e 15 bc f0 12 18 3d 33 53 75 bc
       0.02316671 -0.009101555 0.037127435 -0.0149734495
0000b0 4c 61 2f 3c 3c 51 db 3c 3f 9b 3b 3c 1c b4 b8 bd
       0.01070435 0.026772134 0.011450588 -0.09018728
0000c0 96 38 a0 bb ce b6 5e 3d 53 2f 33 3d 6e 41 1d bc
       -0.004889558 0.054373555 0.043746304 -0.009598119
0000d0 52 c4 95 3c 83 c5 09 3d 02 b0 f8 bb dd 38 fc 3b
       0.01828209 0.033635627 -0.007589341 0.0076972083
0000e0 5f 6e 1d bb f1 9c 66 3c 5e 7c d6 bb 72 89 ed 3a
       -0.0024022085 0.014075504 -0.0065455874 0.0018122627
0000f0 ad 23 21 3c 09 2c c1 3c 3c fa 5c 3b 68 74 45 bd
       0.009835166 0.023580568 0.0033718487 -0.048206717
000100 4c db 20 bd 29 2d 60 3c e9 93 ad bc b0 b7 98 3c
       -0.039271638 0.013682642 -0.021188693 0.018642277
000110 bf 2f ee bc 43 48 d4 bc 3c 89 a2 bc 60 58 2d 3b
       -0.029075501 -0.025913363 -0.01984083 0.002645038
000120 17 b0 c1 bb 3f 14 bf 3b 92 44 f5 39 f4 4f 66 bc
       -0.005910884 0.005831271 0.0004678113 -0.014057148
000130 af 99 08 bc 13 b9 33 bc 8b 72 34 bc 1c 90 03 bc
       -0.008337422 -0.010969418 -0.011013637 -0.008029964
000140 d2 fc 87 3c 18 6a c9 88 1a 1c da 8d 05 0e f8 09
       0.016600046 -1.212219e-33 -1.34420525e-30 5.9717012e-33
000150 66 42 a5 88 bd 5a 19 0c fc 3f a5 89 52 a4 9a 84
       -9.9461865e-34 1.1813997e-31 -3.9782476e-33 -3.635613e-36
000160 b7 e5 a7 87 ce 2d f1 07 b5 d0 f8 b8 15 0a 0b b1
       -2.5262381e-34 3.6288571e-34 -0.00011864436 -2.0232893e-09
000170 dc 83 69 2f ec 54 ef b5 7d 5f 77 30 4b c3 a4 30
       2.1238072e-10 -1.7831603e-06 8.9993774e-10 1.1988076e-09
000180 94 93 3e 38 b0 c2 99 31 8e c9 e3 2d a6 e4 69 3c
       4.5436973e-05 4.4750195e-09 2.589642e-11 0.014275705
000190 89 1b 4d bd 47 51 bc bc c5 b4 85 3c 63 5a 7d bc
       -0.050075088 -0.022987975 0.01632155 -0.015463444
0001a0 2f 2e f7 3b ec 5e 8d 3c 0a 9c 0b bd d5 0f b4 bb
       0.0075433473 0.017257176 -0.034084357 -0.0054950514
0001b0 a3 7a 4e 3c 57 ef d3 3b d4 bc 67 bd e9 1f ff 3c
       0.012602481 0.0064677405 -0.056576565 0.031143146
0001c0 91 21 8e 3c 20 b3 30 3c 37 24 6e bc db 22 1b bc
       0.01734999 0.010784894 -0.0145350015 -0.009468759
0001d0 8b 96 8d bd 58 33 4d 3d 41 2d ee 3c 5e aa 4a bc
       -0.069134794 0.050097793 0.029074313 -0.01236972
0001e0 0d 30 49 3d e8 9d 08 3d 30 02 49 ba 74 be aa 3d
       0.04911809 0.033353716 -0.00076678675 0.08337107
0001f0 af c2 0e bd 38 5a 6a bc dc 47 e0 ba c3 98 8e bd
       -0.034853633 -0.014303736 -0.001711126 -0.06962731
000200 5a b6 07 bd 89 d7 d1 3c 39 f5 25 bc 5b a3 9d ba
       -0.03313289 0.02561547 -0.010129266 -0.0012026833
000210 e8 ff e6 3b 35 79 1b b9 16 e4 6c bb e9 1a 80 3c
       0.0070495494 -0.00014827105 -0.0036146692 0.015637832
000220 f7 89 78 bc 98 a9 ae 3c 76 7f 95 3c cf eb 85 bc
       -0.015169612 0.021321103 0.018249255 -0.016347794
000230 c3 49 03 3a 19 fe 7b bc 7f 93 17 bb a6 f8 00 bc
       0.0005008245 -0.015380406 -0.0023128686 -0.007871782
000240 a7 fd ac bc 40 37 ba 3b 7b 64 84 3b 85 0f d5 bc
       -0.021117045 0.005682856 0.0040402985 -0.026008377
000250 17 da a4 ba d7 2c 88 bd 24 d3 11 bc 5e cf 7f 3b
       -0.0012577203 -0.066491775 -0.0089004375 0.0039033513
000260 15 45 5a bc 23 d0 e0 bc a8 a8 2e 3d 80 c8 4c bc
       -0.0133221345 -0.027442997 0.042641312 -0.012498975
000270 d6 39 0c bd 5f 69 7b 3d 45 08 5f bc 3c 6e b8 3b
       -0.034234844 0.061379787 -0.013612811 0.0056283753
000280 10 e8 88 3a db 87 3b 3a ea 6a 84 3c 12 58 bc 3d
       0.0010445137 0.0007153728 0.016164262 0.091964856
000290 68 74 c0 bd ac ef 43 bb 4f 70 2b bd cd cc 8d bc
       -0.09397203 -0.0029897494 -0.041855153 -0.01730957
0002a0 6e fc c1 bb 8d 69 38 bc 30 c2 26 bd 39 e2 d3 3c
       -0.0059199845 -0.011255634 -0.040712535 0.025864707
0002b0 60 44 12 bd fe 3c d3 39 8b 68 a1 3c d2 41 4f ba
       -0.03570974 0.000402905 0.01970317 -0.00079062313
0002c0 4b 46 c0 ba 54 56 31 bd a6 0b a6 bb d4 6b da 39
       -0.0014669386 -0.04329522 -0.0050673066 0.00041660538
0002d0 57 63 2a 3b c8 84 55 bd 84 ba 4b bc 09 05 02 bc
       0.0025999153 -0.052128583 -0.0124346055 -0.007935771
0002e0 45 d6 80 bc 37 33 c3 3c 1d f2 e3 3c b6 a3 03 3d
       -0.015727172 0.023828132 0.02782541 0.03213855
0002f0 fd f6 c5 3c ea 5b d4 bc b6 43 99 bb b3 bf 2a 3d
       0.024165625 -0.025922734 -0.004677261 0.041686725
000300 7c c4 15 bd 9b 14 73 3d 3a 79 38 3c d9 d8 0e bd
       -0.036564335 0.059345823 0.011259371 -0.03487477
000310 1e ce 9a 3c 77 64 46 bd bc d0 8a 37 03 23 db 35
       0.018897112 -0.048435654 1.6548081e-05 1.6326961e-06
000320 6f a5 5b b8 61 b7 0e 38 68 7e 2e 37 35 b3 68 b8
       -5.236774e-05 3.4026223e-05 1.0400639e-05 -5.548001e-05
000330 e2 9a a3 38 6c cc 0b 36 8b 40 b0 37 d4 6c 80 bb
       7.801295e-05 2.0831603e-06 2.101089e-05 -0.0039192233
000340 0c 82 4c bc 89 64 53 bc 51 c2 11 3b 2b 7a 89 bc
       -0.0124821775 -0.012902387 0.0022241066 -0.016781887
000350 8c c5 7a bc e8 d6 64 ba 78 95 05 bb 60 64 4e bb
       -0.015305888 -0.00087295333 -0.002038328 -0.0031492934
000360 87 2f 4f 3b cb 4a ad bc c1 f1 93 3b 0d 94 e3 3b
       0.0031614022 -0.021153828 0.0045149033 0.0069451393
000370 3c 98 e8 bc a1 aa 5b bc e1 77 7d 3c 3a 48 0d bd
       -0.028392904 -0.01340738 0.015470476 -0.03449271
000380 7d 2c 93 bc 72 a3 ba 3b 29 2c 95 bc da a7 86 3c
       -0.01796555 0.0056957537 -0.018209534 0.01643746
000390 57 de 8b bc 50 d4 13 bd c0 7c 11 bd d9 0f 0d bd
       -0.017073793 -0.03609115 -0.03551936 -0.03443894
0003a0 31 b9 83 3c 1d 31 69 bd 41 08 e0 a6 b8 3b a4 33
       0.016079517 -0.056931604 -1.554536e-15 7.647708e-08
0003b0 14 7e 58 37 02 cd cc 38 30 91 9b b9 ce 28 46 bb
       1.2903958e-05 9.765664e-05 -0.00029672077 -0.0030236724
0003c0 e0 79 1d 38 46 f0 d1 ba 7f 1a d1 ba 80 a4 1b 3d
       3.7545222e-05 -0.0016017042 -0.0015953331 0.037998676
0003d0 4a bc 1a bd 42 21 05 3d 1b c2 24 ba f7 8c b5 3c
       -0.037777223 0.03250242 -0.00062850275 0.022161944
0003e0 80 ee 12 3c 54 25 32 bc 52 b5 98 bb 95 a9 09 bd
       0.008967996 -0.0108731575 -0.004660287 -0.03360899
0003f0 08 00 dd ba ee 2a 8b 3d 90 18 fd 3c 1e 77 43 bb
       -0.0016860971 0.067952976 0.030895501 -0.0029825638

layer2.conv2.bias f4 [64]
000000 83 31 cb b9 81 84 e6 3c 24 b3 3f bd ff d4 bf 3b
       -0.00038756066 0.028139355 -0.0468017 0.0058542485
000010 2c 02 92 bb 8e a2 af 3b 94 fc 03 bd 9d 22 49 bd
       -0.0044558253 0.005359954 -0.0322233 -0.049105275
000020 bd c2 4e bc c7 19 89 bb 9a 71 f3 3c 22 92 a1 3c
       -0.012619671 -0.004183981 0.029717255 0.019723002
000030 a2 85 f5 bc 9b be 2b 3d 0e a5 0e 3d 39 fd 4a bc
       -0.029970948 0.041929822 0.034825377 -0.012389475
000040 a6 d5 cd bc 37 28 a1 bc 62 43 25 3c 90 cd d7 3c
       -0.02512629 -0.019672496 0.010086866 0.026343137
000050 29 65 07 3c 4d 7f 56 3b 23 85 d8 3c ed 46 4a 3d
       0.008263865 0.0032729686 0.026430672 0.049384046
000060 68 5c 27 bc ca e0 82 3c 64 99 64 bc 6d b9 a8 3c
       -0.010214902 0.015976328 -0.013952587 0.02059623
000070 65 9f f4 3c fa b9 c7 bc 35 fa 98 bc da 7e ef bc
       0.029861161 -0.024380673 -0.018673996 -0.029235292
000080 b3 49 77 b9 55 8a 7d bc 92 c3 40 bd 2f 15 10 a5
       -0.0002358321 -0.015474875 -0.04706151 -1.2497186e-16
000090 b9 53 4b bd 9c eb 0e 3d 31 6e e9 bc 38 d7 b7 3c
       -0.04964039 0.034892663 -0.028494926 0.022441491
0000a0 f0 fc a0 3b 43 23 e4 bc 9f e3 0e bd fe bf 85 3b
       0.004912965 -0.027848845 -0.034885045 0.004081725
0000b0 49 e5 4d bd e8 40 e7 3c df 24 57 3d 2a 95 36 3b
       -0.05026749 0.028229192 0.052525397 0.0027859905
0000c0 ab c1 57 b9 26 76 13 af c7 f8 c0 ba 7d 7a 06 3c
       -0.00020576145 -1.3411547e-10 -0.0014722579 0.008207914
0000d0 20 c0 7b bd d1 c1 cf 3b 85 b6 81 bc a8 d5 56 bd
       -0.06146252 0.0063402434 -0.015834102 -0.052449852
0000e0 d4 a6 09 bd a3 e9 ef bc 17 07 f5 3c c7 71 60 bc
       -0.033606365 -0.029286211 0.029910607 -0.013699002
0000f0 68 26 2e 3c 35 a0 39 3c fe 49 34 3c c5 34 4b 3d
       0.010629274 0.0113297 0.011003969 0.04961087

fc1.weight f4 [1, 3200]
000000 1f cb 58 3a a1 13 a9 b6 6b 6d cf 31 48 69 02 2f
       0.00082700135 -5.0388776e-06 6.0369323e-09 1.1860835e-10
000010 05 aa 92 3d 4b 1d 5b 3b d6 ed 14 3b 34 4c 85 b6
       0.07161335 0.0033434208 0.002272477 -3.97258e-06
000020 82 c9 a6 b4 9e 1f 4c 3b aa 66 5d b9 c1 c0 64 b9
       -3.1066526e-07 0.0031146775 -0.00021114448 -0.00021815581
000030 e6 87 3b b2 e0 98 ca 1e a5 41 49 3d 10 59 ea 3a
       -1.0915732e-08 2.145081e-20 0.04913487 0.0017879326
000040 da 1c 08 3c 3e 2b 91 b6 ea b1 01 80 42 03 8c bb
       0.00830766 -4.326371e-06 -1.55659e-40 -0.0042728493
000050 4a a8 c1 3b 58 34 c1 ba dd bb a7 b9 df c1 4f 3b
       0.005909954 -0.0014740331 -0.0003199269 0.003170125
000060 42 ca e3 3c 4c eb 16 bd 7c 33 a3 bc bd 0a de b9
       0.027806405 -0.03684549 -0.01992201 -0.0004235114
000070 f6 66 19 3a 2f 68 88 36 d9 8b 90 3c 23 9a 89 3c
       0.0005851829 4.0652444e-06 0.01764481 0.01679713
000080 ec 5c e2 ba ce 4b 2d 3b 80 27 12 3b 16 85 dd bd
       -0.0017270125 0.0026442888 0.0022301376 -0.108164
000090 d1 3d b7 bb 88 bd 34 bb 0f 5c 25 bc 61 8a 4c 3c
       -0.005592086 -0.002757879 -0.010092749 0.012484164
0000a0 bf 4a 19 bb 1b ba 18 3a c3 d0 fd bb e4 26 8a 3c
       -0.00233905 0.0005826072 -0.0077458336 0.016864248
0000b0 27 af a4 bd 47 20 12 be aa 66 c8 bc 17 4f 93 3a
       -0.0804122 -0.14270125 -0.024463017 0.001123878
0000c0 2e 73 a2 3b fa 04 52 bc 11 e7 8a 3c 23 c7 24 3b
       0.004957578 -0.012818569 0.016955884 0.0025143109
0000d0 14 db 00 00 58 c6 01 80 f2 b5 5f bc 69 76 35 bc
       7.859e-41 -1.62988e-40 -0.013654219 -0.011075594
0000e0 8c 11 3a bc 27 7a 00 80 b6 8f 01 80 26 58 ed 1b
       -0.011356723 -4.382e-41 -1.43389e-40 3.9265326e-22
0000f0 a6 d1 c6 3c d2 d0 d8 3a 81 0a 46 bb 90 e3 b2 3a
       0.02426989 0.0016541725 -0.0030218663 0.0013648141
000100 0f af 13 bd a6 76 40 bb 61 14 9f 3c c3 5b 3c bb
       -0.03605562 -0.0029367595 0.019418897 -0.0028741218
000110 42 86 96 ba fb 32 4e bc 53 c6 e2 3b a2 67 41 3c
       -0.0011484104 -0.012585397 0.0069206147 0.011804493
000120 d0 61 a7 3b b6 f5 00 3c 8b 75 a0 3c b7 1d 45 3d
       0.0051080957 0.007871082 0.019587299 0.04812404
000130 9b 8d 78 bc 9d f2 39 bb 71 0b e8 3b ed d6 2c 3c
       -0.01517048 -0.0028373369 0.007081442 0.010549289
000140 8e d4 75 bc ea 35 94 3b d4 50 a3 3b 9f 73 d9 bc
       -0.01500429 0.0045230286 0.0049840007 -0.02654439
000150 fb 43 9f 3c 71 a1 81 bd d0 67 22 bd 0f 02 33 ba
       0.019441595 -0.06329621 -0.039649785 -0.0006828615
000160 d9 00 bb bc ae 29 d8 ba 49 96 66 37 bd a6 77 39
       -0.022827553 -0.0016491914 1.3744059e-05 0.0002361787
000170 3b c3 73 bc 14 8f e9 3c 2d 3d 94 bd a3 94 13 bd
       -0.01487809 0.028510608 -0.07238231 -0.036030423
000180 47 4f 7d 3a f1 2b 11 bb 4a 34 d4 3c 57 d6 7a bc
       0.00096629973 -0.0022151435 0.02590384 -0.015309892
000190 fb 22 1e 3c c0 1a ab 3c 50 d2 4f bc 16 a5 42 3a
       0.009651895 0.020886779 -0.01268442 0.00074251124
0001a0 ec 39 e9 3c 0a f4 4b bc 98 d0 c3 3c 1e 99 8e 3c
       0.028470002 -0.01244832 0.023903176 0.017406996
0001b0 6a 6c ef 3b 0c ba 88 b9 50 3c 26 3c 16 2a d5 bc
       0.007306625 -0.00026078557 0.010146216 -0.026021045
0001c0 82 24 c7 3c 24 6c d0 bc e5 75 ef bd 4f a8 8c ba
       0.0243094 -0.02544219 -0.116924085 -0.0010731312
0001d0 63 86 2d 3d f3 3d b5 3c 58 04 03 bb 04 96 0d 3a
       0.04236449 0.022124266 -0.0019991603 0.0005401077
0001e0 bb a9 18 bd 2a 41 c1 bc dd 21 40 b6 a6 38 44 bb
       -0.037271243 -0.023590643 -2.862994e-06 -0.0029940992
0001f0 24 2f 69 bd f7 4b 3b bd a9 ea 38 bd 59 45 d0 3c
       -0.056929722 -0.045726743 -0.045145664 0.025423693
000200 1b 07 2f 3c c9 f8 51 3a 25 10 d0 bc a7 14 22 3c
       0.010682846 0.0008009789 -0.025398323 0.009892619
000210 fc ba 67 3b 5c 10 52 3b a7 72 6b bd d0 44 36 3c
       0.0035359254 0.0032053208 -0.057482388 0.011124805
000220 64 4e d4 3c ef cd 10 3b 7d bb aa bb d1 c4 da bb
       0.025916286 0.0022095402 -0.0052103386 -0.0066762944
000230 cc f3 a0 37 77 ae a2 bb 7e 6f 02 80 cd d2 01 00
       1.9187013e-05 -0.0049646455 -2.23667e-40 1.67457e-40
000240 eb 6d 88 3d a8 d9 10 3e 99 9a f8 3d 27 43 02 00
       0.0666159 0.1414553 0.12138862 2.07761e-40
000250 c9 c6 01 80 03 5f a3 3a aa ea 6d bc c9 33 cd bb
       -1.63146e-40 0.0012464229 -0.01452128 -0.006262277
000260 87 94 08 bc b0 d1 86 bc ce e4 b6 bc 22 37 62 bc
       -0.008336193 -0.016457409 -0.0223259 -0.01380709
000270 33 4f 10 bc fc 8e 45 bb 50 dc b0 bc 94 90 17 3b
       -0.008807945 -0.003014504 -0.021589428 0.0023126947
000280 a0 d8 82 3c ab 21 38 bc 8c 1d 30 3c 1d 51 cd bc
       0.015972435 -0.011238496 0.010749232 -0.025063092
000290 e6 db 55 bd 1f ee f0 bb 4a 95 3d 3c b9 ae e7 3c
       -0.052211665 -0.007352605 0.011571238 0.028281556
0002a0 08 a1 82 3a 05 82 04 bb 7c 6e 4d 3d d8 d9 2d bd
       0.0009966204 -0.00202191 0.050154194 -0.04244408
0002b0 18 99 8f bc 70 00 1f bd a6 5f 70 bd de fc 0c bd
       -0.017529055 -0.038818777 -0.058684967 -0.03442084
0002c0 70 ad c4 bc 37 f5 37 bc 1f f6 33 bb e1 52 b5 3c
       -0.024008483 -0.011227897 -0.0027459932 0.022134246
0002d0 47 57 0c 3d e2 e6 b0 3b 5b 32 a5 bc 51 f3 33 bd
       0.03426292 0.005398617 -0.020165613 -0.043933216
0002e0 11 8d 9f bd 10 0d 21 3d d3 b3 a1 bc 51 9a db bc
       -0.07790578 0.039319098 -0.019739067 -0.026806982
0002f0 29 dd d3 bc e8 89 57 3c 7c 32 2b bc c2 f4 45 bc
       -0.025862293 0.013155438 -0.010449048 -0.012082281
000300 aa 8a b8 bb 9f 58 de bb 53 be 49 bd 53 ad 41 bc
       -0.0056317644 -0.006785467 -0.049253773 -0.011821109
000310 19 27 1a 3d 6c 44 e9 3b 27 c2 11 bb 84 c0 23 bb
       0.037634943 0.007118752 -0.0022240968 -0.0024986574
000320 dc 1e 2d 3c 74 d4 b0 3c 4f ab 9e bb 4f d3 da bc
       0.0105664395 0.02158568 -0.004842199 -0.026712088
000330 db 19 47 bd 46 0f 41 3d ac bc 8c 3c 53 14 f9 3c
       -0.048608642 0.047133707 0.01717981 0.0304052
000340 59 83 99 3c 9d b7 30 3b be ab 02 80 1a 90 01 00
       0.01873939 0.002696491 -2.4528e-40 1.4353e-40
000350 da 73 8d 3a fd 37 80 bb 96 d0 8f bd 7a 5e 80 bd
       0.0010791973 -0.0039129243 -0.070222065 -0.0626802
000360 3e b2 b5 a0 74 7f f6 3a 71 1a 9b 3b 93 3c 6d 3c
       -3.0780543e-19 0.0018806295 0.0047333767 0.014479774
000370 64 c0 00 00 f0 f7 01 80 a1 6d 01 00 32 f7 96 bb
       6.9017e-41 -1.80779e-40 1.31163e-40 -0.0046071047
000380 da 65 07 3d 8e e9 98 bd ae e1 00 00 ff 25 00 80
       0.033056118 -0.07466422 8.0959e-41 -1.363e-41
000390 9f db 6e bc db d1 f2 3b c6 71 79 3c 94 53 ec 36
       -0.014578729 0.0074102706 0.01522488 7.043078e-06
0003a0 85 bf 5a b8 1f c1 ba 3b 7a 6d 11 3d 3b 34 36 bc
       -5.2153617e-05 0.0056992914 0.035504796 -0.011120851
0003b0 6b f2 28 b0 a7 46 73 3a 78 1c ba 3b 0c fd 23 bb
       -6.146254e-10 0.00092802424 0.0056796633 -0.0025022654
0003c0 fd d5 d4 ba 79 0f a1 3b 47 73 84 3b 09 7e 6e 3c
       -0.001623809 0.0049151746 0.0040420624 0.014556416
0003d0 29 4c f0 3d d3 45 f1 bb 17 d5 a5 bc de c7 04 3c
       0.117332764 -0.00736306 -0.02024321 0.008104293
0003e0 74 f5 41 bb 56 a0 8b 3b 88 d7 01 00 da f3 25 2e
       -0.0029595764 0.004261057 1.69154e-40 3.773324e-11
0003f0 2b 35 0e ba 79 ee 7b ba 2e 46 65 bb 7d c0 cf 9c
       -0.0005424793 -0.00096104253 -0.0034984457 -1.3747868e-21

out.0.weight f4 [1, 3200]
000000 1f cb 58 3a a1 13 a9 b6 6b 6d cf 31 48 69 02 2f
       0.00082700135 -5.0388776e-06 6.0369323e-09 1.1860835e-10
000010 05 aa 92 3d 4b 1d 5b 3b d6 ed 14 3b 34 4c 85 b6
       0.07161335 0.0033434208 0.002272477 -3.97258e-06
000020 82 c9 a6 b4 9e 1f 4c 3b aa 66 5d b9 c1 c0 64 b9
       -3.1066526e-07 0.0031146775 -0.00021114448 -0.00021815581
000030 e6 87 3b b2 e0 98 ca 1e a5 41 49 3d 10 59 ea 3a
       -1.0915732e-08 2.145081e-20 0.04913487 0.0017879326
000040 da 1c 08 3c 3e 2b 91 b6 ea b1 01 80 42 03 8c bb
       0.00830766 -4.326371e-06 -1.55659e-40 -0.0042728493
000050 4a a8 c1 3b 58 34 c1 ba dd bb a7 b9 df c1 4f 3b
       0.005909954 -0.0014740331 -0.0003199269 0.003170125
000060 42 ca e3 3c 4c eb 16 bd 7c 33 a3 bc bd 0a de b9
       0.027806405 -0.03684549 -0.01992201 -0.0004235114
000070 f6 66 19 3a 2f 68 88 36 d9 8b 90 3c 23 9a 89 3c
       0.0005851829 4.0652444e-06 0.01764481 0.01679713
000080 ec 5c e2 ba ce 4b 2d 3b 80 27 12 3b 16 85 dd bd
       -0.0017270125 0.0026442888 0.0022301376 -0.108164
000090 d1 3d b7 bb 88 bd 34 bb 0f 5c 25 bc 61 8a 4c 3c
       -0.005592086 -0.002757879 -0.010092749 0.012484164
0000a0 bf 4a 19 bb 1b ba 18 3a c3 d0 fd bb e4 26 8a 3c
       -0.00233905 0.0005826072 -0.0077458336 0.016864248
0000b0 27 af a4 bd 47 20 12 be aa 66 c8 bc 17 4f 93 3a
       -0.0804122 -0.14270125 -0.024463017 0.001123878
0000c0 2e 73 a2 3b fa 04 52 bc 11 e7 8a 3c 23 c7 24 3b
       0.004957578 -0.012818569 0.016955884 0.0025143109
0000d0 14 db 00 00 58 c6 01 80 f2 b5 5f bc 69 76 35 bc
       7.859e-41 -1.62988e-40 -0.013654219 -0.011075594
0000e0 8c 11 3a bc 27 7a 00 80 b6 8f 01 80 26 58 ed 1b
       -0.011356723 -4.382e-41 -1.43389e-40 3.9265326e-22
0000f0 a6 d1 c6 3c d2 d0 d8 3a 81 0a 46 bb 90 e3 b2 3a
       0.02426989 0.0016541725 -0.0030218663 0.0013648141
000100 0f af 13 bd a6 76 40 bb 61 14 9f 3c c3 5b 3c bb
       -0.03605562 -0.0029367595 0.019418897 -0.0028741218
000110 42 86 96 ba fb 32 4e bc 53 c6 e2 3b a2 67 41 3c
       -0.0011484104 -0.012585397 0.0069206147 0.011804493
000120 d0 61 a7 3b b6 f5 00 3c 8b 75 a0 3c b7 1d 45 3d
       0.0051080957 0.007871082 0.019587299 0.04812404
000130 9b 8d 78 bc 9d f2 39 bb 71 0b e8 3b ed d6 2c 3c
       -0.01517048 -0.0028373369 0.007081442 0.010549289
000140 8e d4 75 bc ea 35 94 3b d4 50 a3 3b 9f 73 d9 bc
       -0.01500429 0.0045230286 0.0049840007 -0.02654439
000150 fb 43 9f 3c 71 a1 81 bd d0 67 22 bd 0f 02 33 ba
       0.019441595 -0.06329621 -0.039649785 -0.0006828615
000160 d9 00 bb bc ae 29 d8 ba 49 96 66 37 bd a6 77 39
       -0.022827553 -0.0016491914 1.3744059e-05 0.0002361787
000170 3b c3 73 bc 14 8f e9 3c 2d 3d 94 bd a3 94 13 bd
       -0.01487809 0.028510608 -0.07238231 -0.036030423
000180 47 4f 7d 3a f1 2b 11 bb 4a 34 d4 3c 57 d6 7a bc
       0.00096629973 -0.0022151435 0.02590384 -0.015309892
000190 fb 22 1e 3c c0 1a ab 3c 50 d2 4f bc 16 a5 42 3a
       0.009651895 0.020886779 -0.01268442 0.00074251124
0001a0 ec 39 e9 3c 0a f4 4b bc 98 d0 c3 3c 1e 99 8e 3c
       0.028470002 -0.01244832 0.023903176 0.017406996
0001b0 6a 6c ef 3b 0c ba 88 b9 50 3c 26 3c 16 2a d5 bc
       0.007306625 -0.00026078557 0.010146216 -0.026021045
0001c0 82 24 c7 3c 24 6c d0 bc e5 75 ef bd 4f a8 8c ba
       0.0243094 -0.02544219 -0.116924085 -0.0010731312
0001d0 63 86 2d 3d f3 3d b5 3c 58 04 03 bb 04 96 0d 3a
       0.04236449 0.022124266 -0.0019991603 0.0005401077
0001e0 bb a9 18 bd 2a 41 c1 bc dd 21 40 b6 a6 38 44 bb
       -0.037271243 -0.023590643 -2.862994e-06 -0.0029940992
0001f0 24 2f 69 bd f7 4b 3b bd a9 ea 38 bd 59 45 d0 3c
       -0.056929722 -0.045726743 -0.045145664 0.025423693
000200 1b 07 2f 3c c9 f8 51 3a 25 10 d0 bc a7 14 22 3c
       0.010682846 0.0008009789 -0.025398323 0.009892619
000210 fc ba 67 3b 5c 10 52 3b a7 72 6b bd d0 44 36 3c
       0.0035359254 0.0032053208 -0.057482388 0.011124805
000220 64 4e d4 3c ef cd 10 3b 7d bb aa bb d1 c4 da bb
       0.025916286 0.0022095402 -0.0052103386 -0.0066762944
000230 cc f3 a0 37 77 ae a2 bb 7e 6f 02 80 cd d2 01 00
       1.9187013e-05 -0.0049646455 -2.23667e-40 1.67457e-40
000240 eb 6d 88 3d a8 d9 10 3e 99 9a f8 3d 27 43 02 00
       0.0666159 0.1414553 0.12138862 2.07761e-40
000250 c9 c6 01 80 03 5f a3 3a aa ea 6d bc c9 33 cd bb
       -1.63146e-40 0.0012464229 -0.01452128 -0.006262277
000260 87 94 08 bc b0 d1 86 bc ce e4 b6 bc 22 37 62 bc
       -0.008336193 -0.016457409 -0.0223259 -0.01380709
000270 33 4f 10 bc fc 8e 45 bb 50 dc b0 bc 94 90 17 3b
       -0.008807945 -0.003014504 -0.021589428 0.0023126947
000280 a0 d8 82 3c ab 21 38 bc 8c 1d 30 3c 1d 51 cd bc
       0.015972435 -0.011238496 0.010749232 -0.025063092
000290 e6 db 55 bd 1f ee f0 bb 4a 95 3d 3c b9 ae e7 3c
       -0.052211665 -0.007352605 0.011571238 0.028281556
0002a0 08 a1 82 3a 05 82 04 bb 7c 6e 4d 3d d8 d9 2d bd
       0.0009966204 -0.00202191 0.050154194 -0.04244408
0002b0 18 99 8f bc 70 00 1f bd a6 5f 70 bd de fc 0c bd
       -0.017529055 -0.038818777 -0.058684967 -0.03442084
0002c0 70 ad c4 bc 37 f5 37 bc 1f f6 33 bb e1 52 b5 3c
       -0.024008483 -0.011227897 -0.0027459932 0.022134246
0002d0 47 57 0c 3d e2 e6 b0 3b 5b 32 a5 bc 51 f3 33 bd
       0.03426292 0.005398617 -0.020165613 -0.043933216
0002e0 11 8d 9f bd 10 0d 21 3d d3 b3 a1 bc 51 9a db bc
       -0.07790578 0.039319098 -0.019739067 -0.026806982
0002f0 29 dd d3 bc e8 89 57 3c 7c 32 2b bc c2 f4 45 bc
       -0.025862293 0.013155438 -0.010449048 -0.012082281
000300 aa 8a b8 bb 9f 58 de bb 53 be 49 bd 53 ad 41 bc
       -0.0056317644 -0.006785467 -0.049253773 -0.011821109
000310 19 27 1a 3d 6c 44 e9 3b 27 c2 11 bb 84 c0 23 bb
       0.037634943 0.007118752 -0.0022240968 -0.0024986574
000320 dc 1e 2d 3c 74 d4 b0 3c 4f ab 9e bb 4f d3 da bc
       0.0105664395 0.02158568 -0.004842199 -0.026712088
000330 db 19 47 bd 46 0f 41 3d ac bc 8c 3c 53 14 f9 3c
       -0.048608642 0.047133707 0.01717981 0.0304052
000340 59 83 99 3c 9d b7 30 3b be ab 02 80 1a 90 01 00
       0.01873939 0.002696491 -2.4528e-40 1.4353e-40
000350 da 73 8d 3a fd 37 80 bb 96 d0 8f bd 7a 5e 80 bd
       0.0010791973 -0.0039129243 -0.070222065 -0.0626802
000360 3e b2 b5 a0 74 7f f6 3a 71 1a 9b 3b 93 3c 6d 3c
       -3.0780543e-19 0.0018806295 0.0047333767 0.014479774
000370 64 c0 00 00 f0 f7 01 80 a1 6d 01 00 32 f7 96 bb
       6.9017e-41 -1.80779e-40 1.31163e-40 -0.0046071047
000380 da 65 07 3d 8e e9 98 bd ae e1 00 00 ff 25 00 80
       0.033056118 -0.07466422 8.0959e-41 -1.363e-41
000390 9f db 6e bc db d1 f2 3b c6 71 79 3c 94 53 ec 36
       -0.014578729 0.0074102706 0.01522488 7.043078e-06
0003a0 85 bf 5a b8 1f c1 ba 3b 7a 6d 11 3d 3b 34 36 bc
       -5.2153617e-05 0.0056992914 0.035504796 -0.011120851
0003b0 6b f2 28 b0 a7 46 73 3a 78 1c ba 3b 0c fd 23 bb
       -6.146254e-10 0.00092802424 0.0056796633 -0.0025022654
0003c0 fd d5 d4 ba 79 0f a1 3b 47 73 84 3b 09 7e 6e 3c
       -0.001623809 0.0049151746 0.0040420624 0.014556416
0003d0 29 4c f0 3d d3 45 f1 bb 17 d5 a5 bc de c7 04 3c
       0.117332764 -0.00736306 -0.02024321 0.008104293
0003e0 74 f5 41 bb 56 a0 8b 3b 88 d7 01 00 da f3 25 2e
       -0.0029595764 0.004261057 1.69154e-40 3.773324e-11
0003f0 2b 35 0e ba 79 ee 7b ba 2e 46 65 bb 7d c0 cf 9c
       -0.0005424793 -0.00096104253 -0.0034984457 -1.3747868e-21

exp_avg f4 [32, 2, 5, 5]
000000 17 33 6d 39 a4 10 88 39 3a be 86 39 89 16 36 39
       0.00022621114 0.0002595234 0.00025700202 0.00017365268
000010 f9 5a 40 38 7a a0 47 39 41 0d 54 39 c5 56 33 39
       4.5861092e-05 0.00019037901 0.00020222833 0.00017103094
000020 d6 de 86 38 b8 ed ff b8 6b 97 19 39 7a b8 1f 39
       6.431124e-05 -0.00012203626 0.00014647625 0.00015232145
000030 73 33 cb 38 3c 5a a6 b7 de 8d 5e b9 e3 fc 0c 39
       9.6893775e-05 -1.983076e-05 -0.0002122442 0.00013445648
000040 71 3e 1a 39 13 02 cb 38 63 4d fb b7 16 46 56 b9
       0.00014709846 9.680181e-05 -2.9957568e-05 -0.0002043474
000050 eb 68 02 39 dc 62 18 39 cd 4f 0c 39 ed e6 8d 37
       0.00012436851 0.00014532678 0.00013381169 1.6916043e-05
000060 0f cc 02 b9 b8 90 ce 39 84 a4 ed 39 b5 6f e6 39
       -0.00012473784 0.00039399206 0.00045326736 0.00043952247
000070 f3 b9 af 39 73 a1 05 39 30 f1 b7 39 38 8b cd 39
       0.00033517144 0.00012744013 0.0003508418 0.00039204373
000080 59 f5 af 39 24 9d 4e 39 f7 04 46 b8 ce 46 a5 39
       0.000335614 0.0001970423 -4.7211503e-05 0.00031524006
000090 2d 28 b7 39 34 7a 92 39 b6 8a ea 38 bf 29 16 b9
       0.00034934413 0.00027938338 0.000111838264 -0.00014320666
0000a0 89 84 93 39 44 51 9b 39 1c a1 7b 39 76 da e0 38
       0.0002813677 0.0002962445 0.00023997243 0.00010721844
0000b0 c7 84 16 b9 57 1f 8f 39 6b 94 9a 39 44 49 83 39
       -0.00014354578 0.00027298435 0.0002948375 0.00025040854
0000c0 f7 59 2c 39 2a 9b 31 b8 51 ee e1 b9 59 e1 f5 b9
       0.00016436713 -4.2344596e-05 -0.00043092904 -0.0004689794
0000d0 e0 3d ed b9 ff 68 db b9 44 b6 bf b9 35 0e e1 b9
       -0.00045250263 -0.00041849163 -0.00036566157 -0.0004292593
0000e0 b9 4b f2 b9 ff 28 f8 b9 a7 a5 f0 b9 fa dc c6 b9
       -0.00046214255 -0.0004733279 -0.00045899788 -0.00037930143
0000f0 67 d4 e1 b9 e0 a6 f2 b9 48 d7 f8 b9 b0 8f ef b9
       -0.00043073596 -0.00046282168 -0.00047462643 -0.00045692688
000100 42 3c d9 b9 03 9c db b9 ac 9e f0 b9 6e df f6 b9
       -0.0004143436 -0.00041887173 -0.00045894587 -0.00047087244
000110 01 77 f7 b9 7e cf dd b9 4d c5 c1 b9 42 76 e3 b9
       -0.00047200176 -0.00042306999 -0.0003695883 -0.00043384923
000120 d3 12 f1 b9 12 12 ed b9 56 a4 de b9 d3 0d d4 b9
       -0.00045981127 -0.00045217626 -0.0004246558 -0.0004044609
000130 d6 56 ed b9 a4 20 f8 b9 0f 69 df b9 75 a8 b4 b9
       -0.0004526886 -0.00047326565 -0.0004261215 -0.00034457786
000140 45 44 d4 b9 c7 b6 fa b9 21 b4 f6 b9 d7 cf e7 b9
       -0.00040486656 -0.00047819896 -0.00047054983 -0.00044214606
000150 f2 87 ca b9 c7 6a d4 b9 cc ca fd b9 54 a7 05 ba
       -0.0003862973 -0.00040515346 -0.00048407016 -0.0005098481
000160 e7 b8 fe b9 1d e7 e0 b9 4e a0 d3 b9 80 f2 04 ba
       -0.00048584418 -0.00042896802 -0.00040364492 -0.00050715357
000170 59 1a 0d ba 30 7a 07 ba 5a c7 f4 b9 58 06 d8 b9
       -0.0005382649 -0.00051680487 -0.00046687835 -0.00041203457
000180 05 02 03 ba 64 2a 11 ba 60 18 11 ba 85 78 04 ba
       -0.00049975544 -0.0005537628 -0.0005534943 -0.0005053359
000190 5a 40 d9 b9 e6 ad cb b9 57 b5 aa b9 37 4b 85 b9
       -0.0004143741 -0.00038848742 -0.00032560035 -0.00025423776
0001a0 3a 69 17 b9 7c 3a d9 b9 ff b3 dc b9 90 e3 d1 b9
       -0.00014439682 -0.0004143304 -0.00042095777 -0.00040033134
0001b0 36 74 9e b9 a4 f9 64 b9 ad f1 c7 b9 49 2d e3 b9
       -0.00030222692 -0.00021836773 -0.000381363 -0.00043330554
0001c0 f2 54 f7 b9 d3 e8 e3 b9 08 51 b6 b9 88 74 5d b9
       -0.000471748 -0.00043470282 -0.00034774118 -0.00021119614
0001d0 ce 61 a4 b9 20 c2 c1 b9 fe 6d d0 b9 a3 c5 b2 b9
       -0.00031353388 -0.00036956463 -0.00039754802 -0.00034098056
0001e0 c5 67 2e 38 ea 05 d4 b8 41 fb 68 b9 e1 2d 97 b9
       4.1581476e-05 -0.00010110049 -0.00022218844 -0.00028835147
0001f0 01 29 8a b9 1c b4 39 b8 1b 34 f5 b7 44 75 92 b7
       -0.0002635196 -4.4275177e-05 -2.923054e-05 -1.7459162e-05
000200 47 56 be 37 cb 28 b4 37 2a bc d7 38 56 8d 7d 38
       2.2689941e-05 2.1476668e-05 0.00010287047 6.045153e-05
000210 c7 cb be 37 c6 78 9b b7 43 01 99 b7 bd de 13 39
       2.2744656e-05 -1.853368e-05 -1.8239609e-05 0.00014101989
000220 d6 da 4d 38 4c 5a 7d b6 c7 af 86 b8 49 25 11 b9
       4.9079616e-05 -3.7752498e-06 -6.422359e-05 -0.00013842167
000230 7a 07 c1 39 d6 9b 80 39 7e 8e cc 38 74 06 f0 35
       0.000368174 0.0002453017 9.754019e-05 1.7883272e-06
000240 3a 5a ae b8 11 7e 0c 3a a2 47 ca 39 6d ec 57 39
       -8.3137726e-05 0.00053593615 0.00038581813 0.00020592073
000250 1f 06 a4 38 b3 2b 8d b8 85 1e 8d b5 c6 6f 46 b9
       7.8212695e-05 -6.7315435e-05 -1.0514201e-06 -0.0001892439
000260 15 2b cd b9 d0 7f 1a ba e8 8a 41 ba 3e 67 2c 37
       -0.00039132746 -0.00058936793 -0.00073830644 1.0276037e-05
000270 a2 d7 24 b9 93 47 b7 b9 00 90 11 ba 42 3c 34 ba
       -0.00015720588 -0.00034957807 -0.00055527687 -0.0006875434
000280 b0 00 02 38 97 d5 e7 b8 bb 7a 89 b9 d9 7c ed b9
       3.0995056e-05 -0.000110547226 -0.00026222118 -0.0004529718
000290 07 7c 17 ba df 72 91 38 5b 3e 6a b8 3d 98 36 b9
       -0.00057786744 6.935535e-05 -5.584802e-05 -0.00017413586
0002a0 3b b0 9e b9 c1 d6 db b9 ee 3a d7 38 26 83 c1 36
       -0.0003026741 -0.0004193094 0.000102629754 5.767116e-06
0002b0 e1 d2 ad b8 e9 16 2f b9 39 83 97 b9 63 d6 0d 37
       -8.288562e-05 -0.00016697835 -0.00028898733 8.454171e-06
0002c0 73 71 11 b9 7d f8 bc b9 f7 c0 16 ba ed cc 48 ba
       -0.0001387054 -0.00036043292 -0.00057508 -0.0007659931
0002d0 78 3b 85 37 49 be 11 b9 47 ee aa b9 74 32 09 ba
       1.5882528e-05 -0.00013899164 -0.00032602457 -0.00052336534
0002e0 f7 af 40 ba 94 66 74 38 34 e9 95 b8 81 09 7d b9
       -0.00073504396 5.8269667e-05 -7.148311e-05 -0.000241315
0002f0 b3 3c da b9 58 a1 20 ba 95 58 de 38 88 f4 d3 37
       -0.00041625425 -0.0006127558 0.000106022846 2.5267029e-05
000300 6c 3b 06 b9 4f b6 99 b9 85 c4 00 ba 0e 6d 2c 39
       -0.00012801372 -0.00029318265 -0.0004912096 0.00016443824
000310 b0 37 d5 38 d9 e3 51 b7 d4 66 42 b9 d8 9a b6 b9
       0.00010167004 -1.2510421e-05 -0.00018539588 -0.00034829113
000320 c5 de 05 39 a3 90 e2 38 34 5c ac 38 75 45 fc 37
       0.00012766857 0.000108034605 8.218773e-05 3.0073084e-05
000330 34 02 87 b8 d3 40 0c 39 cb 4c f5 38 d8 60 98 38
       -6.437712e-05 0.0001337559 0.00011696814 7.265963e-05
000340 0d f5 13 37 40 7c f0 b8 d6 74 1d 39 60 6c 1a 39
       8.818938e-06 -0.00011467235 0.00015016212 0.00014726957
000350 5b 2c d3 38 d1 e5 3e 37 27 9c fe b8 62 fa 33 39
       0.00010069526 1.1378391e-05 -0.000121407495 0.00017164045
000360 fd bf 32 39 b3 3c 0d 39 51 01 53 38 c0 b3 c9 b8
       0.00017046924 0.0001346942 5.0307546e-05 -9.617908e-05
000370 41 4c 4d 39 43 49 50 39 75 ca 35 39 22 a9 dc 38
       0.0001957873 0.00019863718 0.00017336926 0.00010521921
000380 19 3c 1f b8 3b a1 0d 39 83 9b 05 39 3b bf bc 38
       -3.7964524e-05 0.00013506871 0.00012741801 9.000158e-05
000390 78 ed e0 37 a4 5e 92 b8 ef 44 1d 39 7a 76 12 39
       2.681346e-05 -6.979451e-05 0.00014998367 0.00013967781
0003a0 f0 f2 c5 38 9a 20 07 b7 97 4c 01 b9 d0 a8 3e 39
       9.438943e-05 -8.054218e-06 -0.0001233093 0.000181827
0003b0 ed 8b 2a 39 89 95 e2 38 5b db 44 37 71 bf 15 b9
       0.0001626459 0.00010804373 1.1733583e-05 -0.00014281065
0003c0 01 14 63 39 23 13 59 39 b8 d6 22 39 9b cd 2a 38
       0.00021655859 0.00020701862 0.00015529513 4.0722643e-05
0003d0 0c 73 f9 b8 e0 77 7f 39 67 5f 82 39 0d 1f 56 39
       -0.000118946744 0.00024363352 0.00024866613 0.00020420198
0003e0 6e 1d c0 38 a5 11 9a b8 db 3c 86 b9 e4 8a c3 38
       9.160755e-05 -7.346579e-05 -0.00025603813 9.324195e-05
0003f0 bc 6b 8a 39 5c 40 cd 39 f0 56 d0 39 2b 97 97 b9
       0.0002640168 0.00039148598 0.00039737625 -0.00028913593
